scripts/embeddings_gin_version2/MUTAG/gin_dim128_ep100_lr0.0005_drop0.3/gin_classifier.pt (torch, 629469 bytes, 42 tensors)

encoder.layers.0.nn.net.0.weight f4 [128, 7]
000000 99 12 b6 be f1 f3 92 3d d2 cb 87 3d a4 ce 84 be
       -0.35561064 0.071754344 0.066306725 -0.25938904
000010 54 65 c5 3d 41 de ca bd 8f 5a d3 3d 09 13 0e 3d
       0.096384674 -0.09905673 0.10320007 0.034686122
000020 11 00 89 3d 1b fa 08 3e 24 88 44 3e d8 51 89 3e
       0.06689466 0.13376658 0.19192559 0.26820254
000030 21 7f 7f be 20 52 5a be bb 8f 75 be 79 0a 15 bd
       -0.2495084 -0.2132039 -0.2398061 -0.03638694
000040 05 6e ec bd be 89 89 be 32 f0 1e be 8b eb 6c be
       -0.11544422 -0.268629 -0.15521315 -0.23136728
000050 83 da 2f 3e fc 5b 4c 3e c4 21 1f 3e 13 d0 92 be
       0.171732 0.19956964 0.15540224 -0.28674373
000060 5a 42 c4 3e fc 6d a4 bd ba 13 4f 3e 47 1e 83 3d
       0.38331872 -0.0802879 0.20222369 0.06402259
000070 d6 ae 4e 3e be fa 05 bd 65 4f 07 be bc 59 09 be
       0.20183882 -0.03270983 -0.1321388 -0.13413137
000080 0f 06 13 3e 43 6e 61 be c5 46 84 be 77 d8 8c be
       0.1435778 -0.22014718 -0.25835243 -0.275089
000090 5e cd 6d be 68 d4 48 3c 2f 4b fa 3b bf 7b 33 3e
       -0.23222873 0.012257673 0.007638357 0.17527674
0000a0 5a 87 04 3e a4 d0 de 3d f7 9e 10 be 5b 80 79 3e
       0.12942258 0.10879639 -0.1412314 0.2436537
0000b0 42 9f 20 be b5 2b 44 3e 9d e4 f7 3c cb f6 14 3e
       -0.15685752 0.19157298 0.030260378 0.14547269
0000c0 37 5c e8 bd 4e f6 99 be 42 ec 11 be 79 a4 eb 3d
       -0.113457136 -0.30070728 -0.14250281 0.1150598
0000d0 b0 a8 a6 be d2 61 4f 3e d1 a8 05 be ad 6c a9 be
       -0.32550573 0.20252159 -0.1305268 -0.33090726
0000e0 88 65 a8 3e ac e2 39 3e a5 f0 77 bc a6 bb 91 3e
       0.32889962 0.18152875 -0.015133058 0.28463477
0000f0 07 09 d8 bd f8 a9 a3 3e 9b df a6 3e ab 64 ff 3d
       -0.10548597 0.31965613 0.32592472 0.12470373
000100 d3 4e f6 3c 4d 21 15 3e d5 1c 6e be e7 32 7b 3b
       0.030066883 0.14563484 -0.23253186 0.00383299
000110 a7 a9 cc bd 79 50 25 3e 16 1b a3 3e dc 3f a1 be
       -0.09993296 0.16143979 0.31856602 -0.31494033
000120 a8 aa 36 be 5f 04 41 3e d6 e1 9d be ea c6 7a 3e
       -0.17838538 0.18849324 -0.30836362 0.24489942
000130 7b 6b 33 be e4 5f a2 be 0a cc 55 be 01 f5 4c 3e
       -0.1752147 -0.31713784 -0.20878616 0.20015337
000140 47 d1 72 be 35 c3 af bd 0c 49 9a 3e 80 b0 18 3e
       -0.23712645 -0.08582155 0.30133855 0.1491108
000150 e5 f8 3d 3e e3 20 26 3e 6c ae df bb 7f d8 ae 3d
       0.18551977 0.16223483 -0.0068262126 0.08537387
000160 e6 87 a8 3e 0b 7f c7 3e 18 92 23 bc cd 48 b8 3d
       0.32916182 0.38964114 -0.009983562 0.08998261
000170 17 d4 bb 3e b0 23 8a 3e 12 e7 b3 3e d1 e7 b0 3e
       0.3668525 0.26980352 0.3513723 0.34551862
000180 27 dc 28 be 58 51 92 bc 25 af b7 3e c9 85 84 be
       -0.16490231 -0.017861053 0.35875812 -0.2588332
000190 4d 7d 42 3d 4c 04 41 be cb 27 52 be ed 9e c7 be
       0.047482777 -0.18849295 -0.20522992 -0.38988438
0001a0 fd bb 70 3e 5a 85 01 3e 47 e6 e0 3d 20 40 92 bd
       0.23509212 0.12648526 0.10981422 -0.07141137
0001b0 82 3f 9f be a5 fe 57 be ec ad 9b be f7 c3 cb bd
       -0.3110314 -0.21093233 -0.3040613 -0.09949487
0001c0 61 5d 0b 3e fd 2c 8f 3d d7 dd b7 be 19 a1 0c 3e
       0.1360984 0.06991003 -0.35911438 0.13733329
0001d0 71 ec 12 3e 81 87 5a 3e da f5 66 be 46 72 c1 3d
       0.14348008 0.21340753 -0.22554722 0.09445624
0001e0 0b b6 72 3d 28 db 6a 3e ab 86 f3 bb 95 e2 22 be
       0.05925564 0.22935164 -0.007431825 -0.15906747
0001f0 06 a4 6b 3e 7f 97 83 be 73 03 7e 3e c4 f1 5e be
       0.23011789 -0.2570152 0.24806003 -0.21771914
000200 e6 89 08 be 6d 82 0d bc ee 2f 69 3d 83 f9 db 3d
       -0.13333854 -0.008637053 0.056930475 0.1074095
000210 59 8f b0 3e 0b 90 2a 3e 7d 42 60 be d4 13 aa be
       0.34484366 0.1665651 -0.21900363 -0.33218253
000220 14 7e 88 be 49 f3 43 bd d8 f4 a5 be 0c df bf 3e
       -0.2665869 -0.047839437 -0.32413363 0.3747486
000230 92 c4 2f 3d 2c 1f 8e 3e 1c d5 8c be 80 b5 b7 be
       0.042912073 0.27758157 -0.2750634 -0.3588066
000240 6f 5b c7 bd 4c 6b 78 3e a1 0c 91 3e 27 a8 7d be
       -0.097342364 0.2425968 0.28329948 -0.24771176
000250 09 2b 84 3e 28 4c 8b 3e ce 16 a5 be 55 fd 59 3e
       0.25814083 0.2720654 -0.3224396 0.21288045
000260 35 66 ee bd 7a 31 56 3d 0e 81 91 3e 6a ae a0 be
       -0.11640588 0.05229328 0.28418773 -0.31383067
000270 17 96 5d bc 73 01 95 bc 2c f9 ac 3e 19 bc 13 3d
       -0.013524554 -0.018189168 0.33783853 0.036068056
000280 df b9 9c be 65 d5 97 be 46 cc 9d be fd dd bc 3e
       -0.30610558 -0.29654995 -0.3081991 0.36888114
000290 6f 7c 80 be 5d 7c d9 bd 1b 24 b2 3e fc cf aa 3e
       -0.25094935 -0.106194235 0.3479317 0.33361804
0002a0 e7 40 40 be c9 13 e3 3d 3d f2 92 3c 06 fe 0a 3e
       -0.18774758 0.11087758 0.017937774 0.13573465
0002b0 2f 38 12 3d d4 52 14 3e db 8c b1 3e 21 b6 cd bd
       0.035698112 0.14484721 0.34677777 -0.10044504
0002c0 a3 35 62 be e6 ce a3 3e 3c b4 94 be d9 ff 44 be
       -0.22090773 0.31993788 -0.29043758 -0.19238223
0002d0 26 2e 6a 3e a7 6c dd 3c be ca 58 bd 19 5e 99 3d
       0.22869167 0.027029349 -0.052927725 0.07488651
0002e0 ac 50 68 be 54 36 84 be b5 b2 63 3e 42 e2 36 3e
       -0.22687024 -0.258227 0.2223614 0.17859748
0002f0 22 6c 4e 3e 14 81 9a 3e 76 ca 62 3e a1 69 b9 be
       0.20158437 0.30176604 0.22147545 -0.362134
000300 9b 24 b1 3e 9f 0e 1d be db 72 cf bd b0 ad 71 3e
       0.3459824 -0.15337609 -0.10129329 0.23601413
000310 41 cd 0d 3e ce 15 8f 3e 3a b3 9a 3e 4b 1e b3 be
       0.1384783 0.27946323 0.30214864 -0.3498405
000320 70 07 95 3e 69 03 42 3e f7 fa ee 3d 52 74 89 be
       0.29107237 0.18946613 0.116689615 -0.26846558
000330 5e b0 ff bc cb 05 82 bd c6 84 9a be c8 45 af 3e
       -0.031212028 -0.06348761 -0.30179423 0.34232926
000340 92 7a e8 bd 1a e7 bd be e2 86 95 be 74 aa 7a 3e
       -0.113515034 -0.3709038 -0.2920447 0.24479085
000350 c9 34 66 3e cf 0a 6b bc 2e 87 b4 bd 29 89 81 3d
       0.22481073 -0.014345839 -0.08814846 0.06324989
000360 aa 80 b0 be 86 b6 1d 3e d6 7b ac 3e 8f 99 5e bd
       -0.34473163 0.15401658 0.3368823 -0.054345664
000370 a1 8a a4 be b6 5a 31 3e 1d da 54 be 81 2f 7d be
       -0.32137015 0.1731976 -0.20786329 -0.24725153
000380 d3 bf 8e 3e 8d 77 fe 3d 89 01 a9 3e 56 a4 88 be
       0.27880725 0.12425146 0.33008984 -0.26687878
000390 bd c4 e9 bd de 93 e3 3d 2c ea a3 bd 17 69 a5 3e
       -0.11414478 0.11112188 -0.08003649 0.3230674
0003a0 1f 52 bf 3d 34 e9 b1 3e ba 32 9e 3d ab f7 01 be
       0.09341835 0.34748232 0.07724519 -0.12692134
0003b0 c8 be c3 3d 10 9a 90 be 8b 7b 8c be fb 8a 34 3e
       0.09557873 -0.2824254 -0.27438006 0.17631142
0003c0 79 ef 07 be 64 15 59 3d 05 ea 35 3e 90 8d fc 3c
       -0.13274945 0.052998915 0.17765053 0.030829221
0003d0 dc cc 99 be c2 90 8a be f4 5c bb bd 43 82 b9 be
       -0.30039108 -0.27063566 -0.09148589 -0.36232194
0003e0 b0 5c f2 bd 28 0b 8f 3e 02 82 c0 be 91 6e c3 3c
       -0.11834085 0.279382 -0.37599188 0.023856433
0003f0 35 7e a4 be 56 fa b1 3e db 64 3b 3e 5f 78 c3 bd
       -0.32127538 0.34761304 0.18300192 -0.09544443

encoder.layers.0.nn.net.0.bias f4 [128]
000000 18 a0 e5 bd 07 ea 1d be d0 ee 2f 3e 48 46 0a 3d
       -0.11212176 -0.15421306 0.17180943 0.03375843
000010 ab fd 08 be 40 4f 5d 3e 01 f1 b9 3d f1 bc 5c 3d
       -0.13378017 0.21612263 0.09079171 0.053891126
000020 d2 ac ad be 7a 10 c2 3e 94 89 38 be 27 2d ab 3e
       -0.33920914 0.37903196 -0.18021232 0.33432886
000030 8d 6e 44 3e 4b 48 b1 3e 17 33 67 3e 43 d3 62 bd
       0.19182797 0.34625468 0.22578083 -0.055377256
000040 b7 76 39 3e 98 b5 d1 3c d8 4d 92 3e f7 0c a4 be
       0.18111692 0.025599286 0.28575015 -0.3204114
000050 1c 85 3e be fa 82 40 be db 1e 8e be aa 27 94 be
       -0.18605465 -0.18799964 -0.27757916 -0.2893651
000060 e9 b2 76 be f6 94 66 be 13 19 aa be 39 37 fb bc
       -0.24091686 -0.22517762 -0.33222255 -0.03066598
000070 52 05 8b be ca 5c 55 3e 86 1d 22 3d 49 fb e6 3d
       -0.27152497 0.20836177 0.039578937 0.112783976
000080 f9 29 78 3e 3c 82 a0 be 2c bc af bd c3 59 b8 3e
       0.24234761 -0.3134936 -0.08580813 0.36005983
000090 98 de 95 3e bf 80 b0 3e 39 89 c3 bd 91 7b 87 be
       0.29271388 0.34473225 -0.095476575 -0.2646146
0000a0 94 7d b0 be 2c a9 06 be 1d 1e 69 b9 25 fe 77 be
       -0.34470809 -0.13150471 -0.0002223183 -0.24218042
0000b0 cd 86 c1 be 6b c1 bf bd d2 a3 5c be ee 6b 3a be
       -0.37798157 -0.093630634 -0.21546867 -0.18205234
0000c0 1c a0 4b 3d 6e a0 5e 3e 98 ab 08 be 4f 64 03 be
       0.04971324 0.21740887 -0.13346708 -0.12831233
0000d0 86 ca 6d 3e 40 d8 83 be 8e 26 b1 3e 09 e5 9b 3e
       0.23221788 -0.25750923 0.34599727 0.30448177
0000e0 7a fa f8 3d aa 22 17 be ee 3f 65 3e b8 cf 7e bd
       0.121571496 -0.14759317 0.22387668 -0.062209815
0000f0 77 6e b3 3d 7c 7f cc 3d dd 7f 55 3e f9 63 59 3e
       0.08761304 0.09985253 0.20849557 0.21229543
000100 b6 9a 70 be 22 1c e0 bd 29 61 b7 3c ec cf c4 bd
       -0.23496518 -0.10942866 0.022385197 -0.096099705
000110 a7 5a 4d 3e b2 c9 8f 3e e4 bf 4c 3e f0 06 93 3e
       0.20054112 0.2808357 0.19995075 0.2871623
000120 07 07 2b 3e 0e 8c b4 be bd 5e 1e be b2 e7 55 3e
       0.167019 -0.35263103 -0.15465827 0.20889166
000130 40 ba 3d bd d6 9b 1e be 60 a5 52 3e d0 6e 20 3d
       -0.0463202 -0.15489134 0.20570898 0.03916818
000140 d4 3a 36 3e 07 cf 8e bd 4f 1e 6f be 52 46 a6 bd
       0.17795879 -0.06973081 -0.23351406 -0.08118881
000150 1e f9 1c be 8f 9d 66 3e 72 73 c0 3d cf d7 69 bd
       -0.15329406 0.22521041 0.093970194 -0.057090577
000160 ba cb af 3e 75 b7 72 3d 2b 04 9e bd 6f 50 b3 3e
       0.3433512 0.05925699 -0.07715639 0.35022303
000170 92 e2 fe bd ee 0b 20 3d 29 d8 83 be 44 b4 95 3d
       -0.124455586 0.039073877 -0.25750855 0.073097736
000180 67 95 35 3e 4f c6 48 3e 8b 2e c5 bc 1b ca 05 3e
       0.17732774 0.19606899 -0.024070045 0.13065378
000190 08 ea 9c be 4b 44 b4 be b2 35 b7 be 7d 55 1e bd
       -0.30647302 -0.35208353 -0.35783154 -0.038655747
0001a0 d3 09 62 3e fd 02 9b be dd 93 26 be a5 22 5e 3e
       0.2207406 -0.30275717 -0.16267343 0.21692903
0001b0 84 b8 b8 be 07 75 af 3e 25 44 84 3e ea 9b d3 3c
       -0.36078274 0.34268972 0.2583324 0.025831182
0001c0 ec 3f 44 be ff 66 65 3e cb a4 b0 be 70 0e a1 be
       -0.1916501 0.22402571 -0.34500727 -0.31456327
0001d0 8c 87 92 3e 21 ab 72 3e 98 3e a1 be 75 6b c0 3d
       0.2861904 0.23698093 -0.31493068 0.09395496
0001e0 b3 4d 3b 3e ae be 97 be a6 8e 62 3e 84 9f b1 be
       0.18291359 -0.29637665 0.22124729 -0.34692013
0001f0 7c 9d 63 be 78 82 b8 3e 2e 6d c7 bd 6e 54 a6 3d
       -0.22228044 0.3603704 -0.09737621 0.081215724

encoder.layers.0.nn.net.2.weight f4 [128, 128]
000000 1e 41 77 bc a5 72 ad ba fc 87 d8 bc a7 e4 a3 bd
       -0.015091209 -0.0013233019 -0.02643203 -0.08002596
000010 94 00 70 bd b6 3c 62 3d 55 eb 31 bb e9 0a 2f 3d
       -0.0585943 0.05523368 -0.0027148325 0.042735014
000020 4b a3 a9 3d f5 18 62 3d e8 56 df 3c fb 2f 2c bd
       0.08283099 0.055199582 0.02726312 -0.042037945
000030 7b c3 40 3d c6 fe e5 3c c2 36 ab bd 98 a5 10 bd
       0.047061425 0.028075587 -0.083600536 -0.035314173
000040 a9 0a 2a 3d 60 db e7 3c 6d 70 aa bd ef 84 cd 3c
       0.041514073 0.028302848 -0.08322225 0.025087802
000050 e6 29 52 3b e6 3b 72 bd 54 be 59 3c 2d a3 1e bd
       0.003206843 -0.059139155 0.013290007 -0.038729835
000060 61 ba 3d bd af 7e 6d bd f7 84 96 bc a3 8f 92 3d
       -0.046320323 -0.057982143 -0.01837395 0.07156303
000070 5e 0b 6a bd ad a3 99 bd d3 55 03 3d d9 ec c2 bc
       -0.057139747 -0.07501922 0.03206427 -0.023794578
000080 b1 c9 de 3c 31 34 ec 3c ce 7e 13 3d 0e 35 0c 3d
       0.027195783 0.02883348 0.036009602 0.034230284
000090 06 c7 e5 bc 0f db 66 bd 92 2b c5 bb 44 87 3f 3d
       -0.028049003 -0.056361254 -0.006017157 0.04675986
0000a0 6e 97 7d bd ea b8 a1 bd c2 a1 51 bc 6f f8 c4 3c
       -0.061911993 -0.07896598 -0.012794914 0.024044244
0000b0 4a 7e 84 bd 58 f4 c5 bd fd 24 65 bd b7 9e 65 bd
       -0.064694 -0.096657455 -0.055943478 -0.056059565
0000c0 28 cc 35 bd 4e 54 5f 3c 0a cd 3d bd 56 65 c8 3c
       -0.04438415 0.01363094 -0.04633812 0.024462383
0000d0 d0 28 64 bd 33 c2 cf bc c2 59 90 3b 75 f9 65 3d
       -0.055702984 -0.025361156 0.004405231 0.056146104
0000e0 b7 28 ba 3d b4 f9 93 3d a2 de 8c 3d 37 16 bd bb
       0.09089797 0.072253615 0.06878401 -0.0057704705
0000f0 50 f7 24 bd 2f 9b 26 3d e8 84 ac bd ae 6c 5d 3d
       -0.040274918 0.04067534 -0.08423787 0.054058723
000100 a6 0e 8f bc 7b 1d f7 bc 32 e7 11 3d 98 8d 8a bd
       -0.01746304 -0.030165425 0.035620876 -0.06765288
000110 10 79 58 3c b0 5b 69 bc 53 79 72 bd dc b0 f9 bc
       0.013212457 -0.014243051 -0.059197735 -0.030479841
000120 98 d5 b0 bc 7d e9 25 bd 35 5a 96 bb ec 38 41 3d
       -0.021586224 -0.040505875 -0.0045883902 0.047173426
000130 e6 ff 91 bd 7b d8 e0 bc 0c 7e b4 bc b2 66 37 bd
       -0.07128887 -0.027446976 -0.02203276 -0.044775672
000140 69 38 0d bc f7 d7 d5 3c 7e 01 96 3d 31 a5 7c 3d
       -0.008619406 0.026103957 0.07324503 0.061680976
000150 14 4d ac 3d 04 82 03 3d e8 da a4 bc 88 30 b0 bd
       0.08413139 0.032106414 -0.020123914 -0.086030066
000160 cd f7 2e bd 5c 3a 84 3d 05 a7 b1 bd d9 ce 4b 3c
       -0.04271679 0.06456444 -0.086744346 0.012439453
000170 cc 09 d0 bc 50 55 18 3d 3d 6a 0c 3d 2e 9a a0 3d
       -0.025395297 0.037190735 0.034281004 0.078419074
000180 60 a7 87 3d a1 4e a3 bd ce e0 4c bd 46 df 5b 3b
       0.06623721 -0.07973982 -0.050019078 0.003354983
000190 6a b3 b6 bd 40 55 17 3d 97 7c 97 3d 29 93 2c bc
       -0.08920939 0.036946535 0.073968105 -0.010533133
0001a0 7a 0f 1f bd 4d d5 1b 3b da 6e 22 bd 09 24 64 3d
       -0.03883312 0.002377826 -0.039656498 0.05569843
0001b0 96 f9 f8 bc 39 ad 12 bc d4 ad 1a 3d ed 55 b3 bd
       -0.03039245 -0.008952432 0.03776343 -0.087566234
0001c0 43 c3 97 bd aa 53 80 3d 55 b0 8f 3d cc 10 e9 3c
       -0.0741029 0.06265958 0.070160545 0.028450392
0001d0 65 ff 94 bb 09 28 d5 bc fd 0b c4 3c a4 0a aa bd
       -0.004547047 -0.026020067 0.023931498 -0.08302811
0001e0 77 ad d5 3b 11 a2 0a bd 2c 67 95 bd 18 01 a2 3c
       0.0065209228 -0.033845965 -0.07295069 0.019775912
0001f0 b5 36 58 bd 56 38 8a 3c 48 de b3 bc a5 a5 99 bd
       -0.052786548 0.016872566 -0.021956578 -0.07502297
000200 9f 48 4a bd 27 94 98 3d 72 f3 84 bd af 45 91 bd
       -0.049385663 0.07450133 -0.06491746 -0.07093369
000210 39 91 a1 3d 02 e2 7e bd 46 56 0f 3d 6c 57 97 3d
       0.07889027 -0.062227257 0.034994386 0.07389721
000220 e0 c7 fc 3c c4 72 64 3b 83 dc b5 3c 81 75 85 bc
       0.030857027 0.0034858445 0.022199875 -0.016291382
000230 77 8d ef 3c 1d 85 3e 3d 14 71 86 3d 64 42 4f 3d
       0.02924226 0.046513665 0.06564537 0.050600424
000240 fe 41 88 3d 34 0d ba 3c a8 43 bd 3c 9d 10 17 3c
       0.06653212 0.022711374 0.02310355 0.0092202695
000250 87 4b 10 3d 7e 54 6f 3d be 69 55 3d 68 87 96 3d
       0.03522828 0.058430187 0.052102797 0.073500454
000260 3f 60 6d bd db 16 94 3c 8b c2 4e bd ac 72 93 bd
       -0.057953116 0.018077305 -0.0504785 -0.07199606
000270 df 4d 9c 3d 94 1f a0 bd 56 08 96 3d b7 43 8f 3d
       0.0763204 -0.07818523 0.07325809 0.069953375
000280 bb d6 3e 3d 58 88 ba 3c 1a 0d 5d 3d 57 b9 10 3d
       0.0465915 0.022770092 0.053967573 0.035333004
000290 ca 82 38 bd 65 a7 73 bd eb 65 f4 3c 0f 19 9c 3d
       -0.045046605 -0.05948581 0.029833755 0.07621967
0002a0 e3 27 8d 3d 9b 9e e0 bc b1 74 78 3d 83 60 dd 3c
       0.068923734 -0.027419379 0.06065816 0.02702356
0002b0 61 92 98 3d 2a 54 8d bd c1 65 1d bd fc 9a 0c 3d
       0.074497946 -0.06900819 -0.03842712 0.034327492
0002c0 de 5b ab bc 99 f5 ca bb da 03 8f bd 3f b8 23 bb
       -0.02091783 -0.0061938283 -0.069831565 -0.0024981645
0002d0 ca af 16 3d a9 75 bc bb 2d 51 9f 3d b9 da f0 3b
       0.03678874 -0.005751331 0.07779155 0.0073502925
0002e0 e8 15 9b bd e4 37 55 bd bb cb 26 3d bd 28 94 3c
       -0.07572538 -0.052055255 0.040721636 0.018085832
0002f0 06 6a a0 bd 62 70 89 3c fb cc 44 3d 2a bd 22 bc
       -0.07832722 0.016777221 0.048047047 -0.009932796
000300 97 cc a4 3d cf 98 ab bd c7 32 0d 3d 12 14 ae bd
       0.08046835 -0.08378755 0.034472253 -0.08499922
000310 6c 5f ad 3b 6f 0a be bd 6d d1 3d 3d fe 60 77 3d
       0.005290916 -0.09279334 0.046342302 0.060395233
000320 11 0d b1 3d 1d e6 2f 3d 12 92 83 bd 18 66 31 3d
       0.0864507 0.042944063 -0.06424345 0.043310255
000330 03 d9 1f 3d 42 dc 06 bd be 3f 6f bd f7 4b 0e bc
       0.039025318 -0.032924898 -0.0584104 -0.008685104
000340 04 7f eb bc ea 17 80 3d dc fe 63 bd 24 ae 26 bc
       -0.02874709 0.06254561 -0.055662975 -0.010173354
000350 be e2 21 3d 98 54 8e bd 67 53 0c 3d 9a d9 87 bd
       0.03952288 -0.06949729 0.034259226 -0.06633301
000360 8d 70 dd bb ab ba 34 bd c3 f9 bd bc 25 fe 12 3c
       -0.006757802 -0.044123333 -0.023190385 0.008971726
000370 eb 43 4c bd ab 6e 3e 3d 47 fb a3 bd 8e 1c b9 bd
       -0.04986946 0.04649226 -0.08006912 -0.090386495
000380 85 ac 7d 3d 05 03 99 3d a3 a5 47 3d 73 f5 06 3d
       0.061932106 0.07471279 0.048741948 0.032948922
000390 ac 1a 9d 3c d4 fd 6b 3c 5c e4 3a 3d e8 9e c7 3d
       0.019177757 0.014403779 0.045627937 0.09747106
0003a0 d7 f9 35 3d ac b0 0a bd ec c5 0c bc 18 45 01 bd
       0.04442772 -0.033859894 -0.00859211 -0.031560034
0003b0 5d 40 5c 3d 95 fc cd bc 8d 84 4e bd ab b6 bb bd
       0.05377232 -0.025144855 -0.05041938 -0.091657005
0003c0 5a df a8 bd e8 f6 35 3d c0 e5 a0 3d d5 5a 46 3d
       -0.08245726 0.04442492 0.07856321 0.048426468
0003d0 c2 2a bf bd 2b 48 7a 3d e1 16 1d bd b8 58 fe ba
       -0.09334327 0.06110398 -0.038351897 -0.0019405102
0003e0 ab 23 25 bd 54 f1 0b bc 64 48 a9 bd 24 a7 aa bd
       -0.04031722 -0.008541424 -0.082657605 -0.08332661
0003f0 21 5e 5a bd 54 a8 de 3c 11 13 84 3d a1 1d 5a bd
       -0.053312425 0.027179874 0.06448949 -0.053250913

encoder.layers.0.nn.net.2.bias f4 [128]
000000 00 1d 13 bd a0 33 c9 3c 5d 10 95 3d 1a e7 29 3d
       -0.03591633 0.02456075 0.07278512 0.04148016
000010 49 a1 68 3c 07 a2 b6 3c 02 75 fb bb 59 71 8c bd
       0.01419861 0.022294058 -0.0076738605 -0.06857557
000020 10 30 35 3c 55 b6 20 3d 19 a9 ef bb 47 63 ad bd
       0.011058822 0.039236385 -0.007313859 -0.08466201
000030 47 33 23 3d ba 20 37 3d cb 22 52 3d 95 b5 0b 3d
       0.039843824 0.044708945 0.051302712 0.034108717
000040 70 ff 8a 3d d2 8e a5 3c 0c c6 2d bd ea 46 50 3d
       0.06787002 0.020209704 -0.0424252 0.05084888
000050 93 7b 8d bd e4 40 9a bd c4 e8 a4 bd 2d 65 56 3d
       -0.069083355 -0.07531908 -0.08052209 0.052342582
000060 a8 1b 2b bd 36 f2 61 3c 9f 30 f8 3c 98 b3 a7 bd
       -0.041774422 0.013790658 0.030296622 -0.08188552
000070 72 87 19 bb 83 5d 6b bd b9 ff aa bd 2c e2 91 3d
       -0.002342668 -0.057462227 -0.083495565 0.07123217
000080 54 ce 99 3d 82 95 a3 3a 4d 93 96 bd 41 8c 6f bd
       0.07510057 0.001248047 -0.07352314 -0.058483366
000090 db c0 b5 bd ad c6 d6 bc 0e 11 82 3d 04 aa 8e 3d
       -0.08874675 -0.026217783 0.06350909 0.06966022
0000a0 33 18 a9 3d 71 4d a2 3d 5d b5 0a 3d 25 07 9c bd
       0.08256569 0.07924927 0.033864368 -0.0761855
0000b0 84 9a cf bc 99 de 61 bd ff e5 98 3d b6 a8 07 bd
       -0.025342233 -0.055143926 0.07465743 -0.03311988
0000c0 b6 96 b1 bc c4 4e ff bc d2 77 b6 bd 08 5b 5c 3d
       -0.02167831 -0.031165488 -0.08909573 0.05379775
0000d0 6d 58 7a bd e5 b5 81 3d f4 38 e6 bb 36 6e 2c 3a
       -0.061119486 0.06333522 -0.0070258323 0.0006577702
0000e0 3e 3a 1b 3d c9 b6 ac bd e4 4f 87 3d 15 0e 64 bd
       0.03789734 -0.08433301 0.06607035 -0.055677492
0000f0 56 50 a9 3d 1d e2 1f bd 37 74 42 3d 87 50 ac bd
       0.08267276 -0.039033998 0.047474112 -0.08413797
000100 c6 f5 7d bd 98 07 59 bd 4e 93 9e bd 71 02 88 bd
       -0.062001966 -0.052985758 -0.0774294 -0.06641091
000110 da 89 07 bd be ca 9e bd 4d 38 27 bd 3e 15 3f bd
       -0.03309045 -0.07753514 -0.040825177 -0.046651118
000120 3e e3 69 bd b2 2b f5 bb 47 a6 25 bc 07 36 91 bc
       -0.05710148 -0.0074820155 -0.010110444 -0.017725958
000130 c2 66 9a 3d d7 59 93 3c bd cb 47 bd d6 35 78 bd
       0.07539131 0.017987175 -0.048778284 -0.060598217
000140 6f c7 34 bc 2f e5 7f 3d 69 45 a7 bd b1 9e 86 bc
       -0.011033877 0.062474426 -0.08167536 -0.016433092
000150 23 c4 a5 bd 78 38 c0 ba 7d e1 2c bd 87 6b 19 bd
       -0.08094051 -0.0014665266 -0.04220723 -0.03745606
000160 e0 f4 9b 3c 57 d9 c8 bc 47 0d c4 3c 88 2b 4a 3d
       0.019037664 -0.024517698 0.023932112 0.04935792
000170 57 77 11 bd 89 38 e5 38 b2 81 7c bd ed e5 28 bd
       -0.035514202 0.000109301014 -0.061647125 -0.0412349
000180 20 c4 9a 3c a1 a2 8e 3d 1c eb 3a 3d 4a 4e 60 3d
       0.018892348 0.06964613 0.045634374 0.054762162
000190 e9 e3 f6 bc 61 db a5 bd db e1 38 bd e0 6c 17 bd
       -0.030137973 -0.08098484 -0.045137268 -0.036969066
0001a0 62 b9 88 bd 6f 1e dd bc 6b 12 fc 3b 3f 1c 9b bd
       -0.06675984 -0.02699205 0.0076926253 -0.07573747
0001b0 c8 53 5c bd 4f d4 19 3d 64 a0 0d ba 61 a3 ac bd
       -0.053790838 0.03755599 -0.0005402623 -0.084295996
0001c0 1c 9a 43 3d b4 5a a5 bc ce 0e d3 bc 96 24 2d bc
       0.047754392 -0.020184852 -0.025763895 -0.010567805
0001d0 33 78 54 bd fa d8 3a 3d 42 5b 5a bd 43 73 9f bd
       -0.051872443 0.04561708 -0.053309686 -0.07785656
0001e0 4c c1 77 3d ee 74 42 3c ac ef 8b bd 4b 08 b3 3d
       0.060487077 0.0118686985 -0.06832823 0.08741816
0001f0 15 39 94 bc 68 96 80 3c 8c ae ef bb d4 80 e4 3a
       -0.018093625 0.01569672 -0.007314509 0.0017433413

encoder.layers.1.nn.net.0.weight f4 [128, 128]
000000 b8 f9 6c bd c9 aa 05 3d a6 96 a4 3c 15 1e 82 3d
       -0.057855338 0.032633577 0.020091366 0.06353394
000010 1e 6d dc ba 69 d2 ad bd 50 53 94 bd f5 bd 1c bd
       -0.0016817187 -0.08487398 -0.07242453 -0.038267095
000020 e1 c6 b1 bc 00 b1 b2 bd df 13 12 bd eb 65 ef bc
       -0.021701278 -0.08725166 -0.03566348 -0.029223403
000030 89 af ae bd f4 c9 b0 bd 71 8c 8e 3d 9d b4 22 3d
       -0.085295744 -0.086322695 0.06960381 0.039723027
000040 55 37 ae 3d 86 16 28 bd 24 38 a6 3c 20 22 10 bd
       0.085066475 -0.041037105 0.020290442 -0.035188794
000050 10 3e d6 3b 0f 67 a5 bb 95 16 0e bd ba df 37 3c
       0.00653816 -0.005047686 -0.034689505 0.011222774
000060 55 d9 e5 39 54 95 1d bd ca 8b 39 3c e3 dc 1b bb
       0.0004384021 -0.03847249 0.011324832 -0.0023782782
000070 9a e5 1a bd 20 c8 36 3d 3a 01 40 3d 59 a0 d1 bc
       -0.03781662 0.044624448 0.04687617 -0.025589155
000080 00 e0 56 bd 94 e6 3d 3d c8 4d 2b bd 85 9f 6a bc
       -0.052459717 0.046362475 -0.041822225 -0.014320259
000090 5c e7 99 3d ad f3 31 bd c9 40 06 3c 43 43 75 bd
       0.075148314 -0.043445278 0.008194157 -0.0598786
0000a0 a5 0e 88 3d 13 64 80 3d c0 61 df 3b f2 70 e7 3c
       0.06643418 0.06269088 0.0068170726 0.028252099
0000b0 4e 4b b3 3b b8 5d 17 3d 05 1e 4e bc 65 ad 9c bc
       0.0054716235 0.03695461 -0.012580399 -0.01912565
0000c0 15 41 97 bd 2e 2f 0f bc 10 c3 bf bd 97 6e 4a bd
       -0.0738546 -0.008739276 -0.09363377 -0.049421873
0000d0 cf 3f 58 39 53 f8 c0 bd f9 bb 8e 3d 61 6e 63 bb
       0.00020623136 -0.09422364 0.06969447 -0.0034703242
0000e0 49 f9 62 bd 64 0c d9 3c 58 0a 88 3c 8f cd 6a bc
       -0.055413518 0.026495166 0.016606495 -0.014331236
0000f0 a6 70 a7 bd d1 a4 95 3d b6 d8 47 3d 8f 05 78 3d
       -0.08175783 0.07306827 0.048790656 0.060552176
000100 55 a7 b3 bd 85 a4 bd bd 2c a9 ac bd bb a3 ad bd
       -0.087721504 -0.09259895 -0.084307045 -0.08478495
000110 3e 76 99 3d fe 34 32 bd 34 c1 c9 3c df 45 ed bc
       0.07493256 -0.04350757 0.02462826 -0.028963981
000120 35 38 74 bd fe 17 be bc cc 92 6e bd 25 6e 7f bd
       -0.059623916 -0.0232048 -0.058245465 -0.0623609
000130 83 72 a6 3c 5b d3 96 3d e2 34 90 3d 67 d2 48 3c
       0.020318275 0.073645316 0.070413366 0.012257195
000140 f7 7d 7a 3d 46 fd 5c 3d 95 75 80 bc d0 d7 40 3d
       0.061155286 0.053952478 -0.015681067 0.047080815
000150 34 13 92 bc 99 7a 7b 3c 8f 73 85 3d 98 e1 a4 bd
       -0.017831422 0.015349054 0.06516182 -0.08050841
000160 cc 71 8a 3d 74 c2 7c bd 5c a6 3f 3d bc ac 3d 3b
       0.06759986 -0.061708882 0.046789512 0.002894207
000170 f4 7e 3f 3d 09 2a 2b bd fe cd 99 3d 4d 1d 95 3d
       0.04675193 -0.041788135 0.07509993 0.07280979
000180 37 c7 c6 3c c5 c6 e1 bc 89 17 b8 3c 98 4a 42 bd
       0.024264915 -0.027560601 0.02247216 -0.04743442
000190 cd d1 c8 bc ed 3d a8 bd 66 a4 88 bd 1a 80 8a bd
       -0.024514103 -0.082149364 -0.066719815 -0.06762715
0001a0 24 d0 c7 3c d7 a2 7c 3d f9 25 a4 3c 23 6b 65 bd
       0.024391241 0.061678734 0.020037638 -0.056010377
0001b0 8d 8f 45 bc ee 80 52 bc 3c 45 a0 bd eb d3 86 bd
       -0.012058151 -0.012848122 -0.078257054 -0.06583389
0001c0 5e 47 49 bd cc 22 b1 bd 69 1d 73 bd 4a 48 58 bd
       -0.049140327 -0.08649215 -0.05935422 -0.052803315
0001d0 8e f1 81 bd e9 fa aa bd 7c 6c 2d bb f2 af 47 bd
       -0.06344901 -0.083486386 -0.0026462367 -0.04875178
0001e0 2b 30 a8 bd e8 8c 88 bd 8d 4e b7 bd 2b c4 e9 bc
       -0.08212312 -0.06667501 -0.08950529 -0.028535923
0001f0 10 31 28 3d 30 bb b8 bd 03 8f 88 bd 42 d9 be bd
       0.041062415 -0.09020078 -0.06667902 -0.093187824
000200 6d 5b a9 bc a4 24 0a 3d 21 29 53 bd 3f 30 ec 3c
       -0.020673478 0.03372635 -0.051552895 0.0288316
000210 47 82 86 3d bf af ff 3c 39 57 c4 bc f9 94 2c 3d
       0.06567817 0.031211732 -0.023967372 0.04213426
000220 2f c7 9a bc 69 07 10 3b 60 e6 7d bd 26 9e 84 3c
       -0.018893806 0.0021977073 -0.06198728 0.016188692
000230 e2 88 7e bd 53 2a 95 bc 03 2d 61 3c d3 f5 e4 bc
       -0.06214226 -0.018208658 0.013743642 -0.02794925
000240 27 39 7c 3d 0f 71 84 3c 4e d9 91 3d 44 b9 29 3d
       0.061577942 0.016167192 0.07121526 0.04143645
000250 63 78 ac 3b d7 f6 a9 3d 63 8d 0f 3d 84 aa 40 bd
       0.0052633747 0.08299034 0.035046946 -0.047037616
000260 9c e9 85 3d aa 5e 83 3c d6 81 c4 3a a0 ef 5a bd
       0.06538698 0.01603635 0.0014992307 -0.05345118
000270 52 9c 28 bc c9 96 12 3d 1b ee a8 3d bc 50 58 3c
       -0.010291176 0.03578833 0.0824854 0.013202842
000280 10 6b 51 bd 2a 70 e3 bb 31 70 a3 3d d6 30 8c 3d
       -0.051127493 -0.006940861 0.07980383 0.06845252
000290 e8 52 8f 3d 9a 0f b0 bc c4 c9 04 3d c8 e6 48 bd
       0.06998235 -0.021491814 0.03241898 -0.049048215
0002a0 33 41 8f bb b3 22 80 bd 4f ca d5 ba c7 43 26 bd
       -0.004371786 -0.06256618 -0.0016310903 -0.04059198
0002b0 61 05 bb bc 64 12 78 bd 35 6c 89 3c 6b 10 a8 3c
       -0.022829713 -0.060564414 0.01677523 0.020515641
0002c0 75 30 84 bd aa 7c 81 3d 8c 87 60 3d 7e fd 06 bc
       -0.06454555 0.06322606 0.054816768 -0.008239148
0002d0 e8 ea d0 bc c4 84 35 bc 47 71 1c bd e4 3a a0 bc
       -0.025502637 -0.011079017 -0.038193967 -0.019559331
0002e0 cb f9 b1 bc 40 a6 af 3c c4 7c 0d 3d ec 2e c3 bc
       -0.021725556 0.021441579 0.034542814 -0.023826085
0002f0 a1 f7 bc bc 3d 81 a7 bd 93 64 9d bc df 7c ac 3d
       -0.023067297 -0.08178947 -0.019212997 0.08422255
000300 93 6e 76 3d cd 58 1a 3d c3 50 4c 3d 4a a9 0f 3d
       0.060164046 0.037682343 0.049881708 0.035073556
000310 cc a6 05 bd 24 dc 57 bc ea 7f bd 3d 2f 24 92 3d
       -0.032629773 -0.013175044 0.09252913 0.07135808
000320 33 1f 91 bc 6f e6 a6 3d 39 f0 ab bd 13 7e 77 3d
       -0.017715072 0.081494205 -0.08395428 0.060422968
000330 c1 af 99 bd 6c e0 92 3c 68 eb 0e bb d0 7d e1 bc
       -0.075042255 0.017929278 -0.0021807794 -0.027525812
000340 b3 e2 4f 3d 49 bd 72 3d c0 f4 3a bd c7 a0 9f 3d
       0.050753307 0.059262548 -0.045643568 0.07794338
000350 61 1b 0a bd 5e dd 35 3c 0b 7b 91 3c 93 9a c3 3d
       -0.033717517 0.011100141 0.017758867 0.09550967
000360 81 e1 a6 bc f5 80 a4 b9 3b ab 85 3b 61 ee 11 3c
       -0.0203712 -0.00031376598 0.00407925 0.008906932
000370 c4 09 a6 3d 32 d9 12 3d c5 22 a7 3d af b9 92 3d
       0.081073314 0.035851665 0.08160929 0.071643226
000380 cc 95 80 bc 2e 71 21 ba d1 1c ab 3d 1d 14 56 bc
       -0.015696429 -0.00061585277 0.08355106 -0.013066319
000390 64 a9 de 3c e4 a8 7a bc e6 e0 92 bd 31 9d 92 3d
       0.027180381 -0.015299056 -0.07171802 0.07158888
0003a0 33 60 ca bc e5 f0 22 bd 6b e6 81 bd 19 03 6b bd
       -0.024704074 -0.039780516 -0.06342777 -0.057376
0003b0 64 a3 8c 3d 94 bb 86 bd 3e 60 9b bd 3b 8a a9 3d
       0.06867102 -0.065787464 -0.07586716 0.082783185
0003c0 d1 b7 44 bd ee 86 ad 3d 5a fd 85 bd df 36 14 3c
       -0.048026863 0.084730014 -0.065424636 0.009046285
0003d0 b0 65 71 bd 72 f3 6b bd cb fa 9b bd 3b 7b 75 bc
       -0.058934867 -0.057605214 -0.07616194 -0.014982994
0003e0 fe b5 8f bc 88 d8 8d 3d 71 90 76 3d 44 a0 57 bd
       -0.017542835 0.06926066 0.060196344 -0.052643076
0003f0 24 68 a2 3c ab 4d 39 3d 0f 48 93 bd 08 e0 85 3c
       0.019825049 0.045240086 -0.071914785 0.016342178

encoder.layers.1.nn.net.0.bias f4 [128]
000000 d9 3c 7c bd 26 f9 80 3d a5 d6 85 3d 8a 1a 9b bd
       -0.061581466 0.06297521 0.06535081 -0.07573421
000010 da 46 c6 3d 2c 25 51 bc f3 9e 33 3d f5 6a 35 3c
       0.096814826 -0.01276521 0.043852758 0.011072864
000020 e9 44 c7 bc 03 ff 11 3d 4b 10 8b 3c d6 2f 89 3d
       -0.024324851 0.03564359 0.016975543 0.06698577
000030 8b 91 76 3d 13 26 72 3d 42 22 5f bd de 6e ac 3d
       0.060197394 0.05911834 -0.05447603 0.08419584
000040 e0 fe e4 bc 34 b5 ac bd b7 f0 ab bb ac f7 48 3d
       -0.027953565 -0.08432999 -0.0052472013 0.049064323
000050 28 a1 c5 bb 85 48 83 bd 4f d9 a2 ba cb 4a 60 3d
       -0.006031174 -0.064103164 -0.0012424382 0.054758828
000060 5a 7e 7a bd ac 72 78 3d ad 1f 25 bc 1d 4a bc bd
       -0.061155654 0.060656235 -0.010078353 -0.091938235
000070 11 c4 ad 3d c7 7a b7 bd 4a 9c af bb 44 89 8a 3d
       0.08484662 -0.08958965 -0.0053592073 0.067644626
000080 85 be 03 3d a8 6a 5f bd d9 56 22 3d d3 db 8d 3c
       0.032164115 -0.054545075 0.039633606 0.017316734
000090 ce 29 60 bd 37 8e 76 3d 0e 89 9c bd 59 6c d9 bc
       -0.054727368 0.06019422 -0.076433286 -0.026540922
0000a0 44 69 b8 bd dc 5f 93 3d 12 60 f8 bc 2d bb 38 bd
       -0.09004453 0.07196018 -0.030319247 -0.04510038
0000b0 a8 a7 75 3d ea 69 87 3c d7 ef 68 bd 59 74 d7 3c
       0.059974343 0.016529996 -0.056869354 0.026300596
0000c0 3c ff 8e bd 5c e2 33 3c 95 a7 2a 3c 5d ae d6 bb
       -0.06982276 0.010979261 0.010415931 -0.0065515474
0000d0 ca ec 6d 3c 2b 54 9c 3d 30 5d 03 3c 4d da 8b bc
       0.014521787 0.07633241 0.008017823 -0.017071867
0000e0 6b 35 20 bd 66 e5 ac 3d 7a 50 49 bd 43 2c 59 bd
       -0.039113443 0.08442192 -0.049149014 -0.053020727
0000f0 38 cd 60 3d ec ea 47 3d 15 3a e1 bc df b2 56 3d
       0.05488321 0.048808023 -0.027493516 0.05241668
000100 8b 1f 67 3d 0e a1 60 3d e2 12 5f 3d b6 79 42 bd
       0.056426566 0.054841094 0.054461367 -0.047479354
000110 f0 0c 1d 3d f4 11 a4 3d ac ad 59 3d b5 b7 0e bd
       0.038342416 0.08011237 0.053144142 -0.034843165
000120 bf a8 10 3c 6a 6a 0c 3d 73 fe 30 3d ea 0e 2c 3d
       0.008829295 0.03428117 0.04321141 0.04200641
000130 da 14 8b bd 21 64 b8 3d 7b 52 ad 3d 31 d5 0a 3d
       -0.067910865 0.09003473 0.084629975 0.03389472
000140 60 5d a2 3c af 59 79 3d 86 5a 85 bd f4 ca 23 bd
       0.019819915 0.060876545 -0.065114066 -0.039988473
000150 cc da 91 bd 11 ef f5 bc e4 85 85 3d 26 8e d5 3b
       -0.0712181 -0.030021222 0.06519678 0.0065171896
000160 6f 6a f3 3c f4 57 48 3d 4d 84 62 3d 0e 07 93 bd
       0.029713837 0.048912004 0.055301953 -0.0717908
000170 69 8f b4 bc 94 eb 82 bd dc b5 bb 3c e1 bb d4 bc
       -0.02204104 -0.06392589 0.022913866 -0.025968494
000180 da 44 a0 bd 61 dd 12 bc 36 c6 52 bd 85 18 d5 bc
       -0.078256324 -0.008963914 -0.05145856 -0.026012668
000190 fd 21 ee 3c 87 ad fe bc c8 ac 4d bd 5e 5c c6 bc
       0.029068941 -0.031088604 -0.050213605 -0.024213966
0001a0 1b 75 d1 3c 08 fe 11 3d 49 33 8f bd 06 ca 90 bc
       0.025568536 0.035642654 -0.06992204 -0.017674457
0001b0 5d a0 ab bd 4c b3 30 bd 58 22 c0 3c 67 bc 68 3d
       -0.08380196 -0.04313974 0.023453876 0.0568203
0001c0 42 0c 51 3d fe 78 22 3d 46 87 f3 3c f8 b8 27 3d
       0.05103708 0.03966617 0.02972759 0.040947884
0001d0 3d 47 ee 3c 63 66 72 3a 4c 37 4a 3d a8 61 47 bd
       0.029086703 0.0009246824 0.04936914 -0.048677117
0001e0 15 6d f2 3c 0f 4a bb bc e1 de 81 bc 3e 29 1e 3c
       0.02959303 -0.022862462 -0.015853347 0.009653388
0001f0 f7 b6 b8 3b d7 d0 96 3b 5b b0 3c bc 4d 2d 9d bd
       0.0056370455 0.0046025324 -0.011516656 -0.07674656

encoder.layers.1.nn.net.2.weight f4 [128, 128]
000000 55 3c 89 bd 26 f3 c8 bd 00 2f db 3a 3c 66 13 bd
       -0.067009605 -0.09812002 0.0016722381 -0.03598617
000010 03 e9 41 bd 3a 0a b7 bc 23 31 8e 3c c1 24 0f bd
       -0.047341358 -0.022343744 0.017357415 -0.03494716
000020 60 2d 9a bd 14 33 8a bc 82 d5 93 3d bc 04 94 bd
       -0.07528186 -0.01687006 0.07218458 -0.072274655
000030 ab 59 a3 3d c2 fe fb 3c e9 a1 43 3d dc 82 81 3c
       0.07976087 0.030761126 0.04776183 0.015809469
000040 0c 21 87 bd 50 12 30 3d 67 98 63 bc 50 92 49 3d
       -0.065981 0.042986214 -0.013891316 0.0492118
000050 a0 6e 86 3c b4 9a 4c bd f3 1f 25 3d 2b d9 93 3d
       0.016410172 -0.049952224 0.040313672 0.07219156
000060 95 86 52 3c fe 5c 98 bd de 87 0f bd df 4c f1 3c
       0.01284947 -0.07439612 -0.035041682 0.0294556
000070 0c 88 47 3d 67 c5 b7 bd 60 7c c7 bd f5 42 34 3c
       0.04871373 -0.089731984 -0.097405195 0.011002292
000080 26 b5 05 bd f6 90 8c 3c 1d 10 ee bc 88 77 4f bd
       -0.03264346 0.017158967 -0.029060418 -0.050651103
000090 6c c7 13 3c 18 3d 0d bd d7 47 0d bd da af 74 bc
       0.009019714 -0.03448209 -0.03449234 -0.014934504
0000a0 71 e7 7b 3d 45 f6 6a 3b 25 80 b4 bd 78 cb 60 3c
       0.061500017 0.0035852354 -0.08813504 0.013720386
0000b0 43 c0 1e 3d 05 b1 d5 bc 00 5b af 3c b9 3f 67 bd
       0.038757574 -0.026085386 0.021405697 -0.056457255
0000c0 24 fa bc bd 8a 95 81 bd 89 d4 c8 bc f0 a4 63 3d
       -0.09227398 -0.063273504 -0.024515407 0.05557722
0000d0 a0 2c fd 3c 0c 70 02 bd 7a 05 ba bc 34 24 30 bc
       0.030905068 -0.031845137 -0.02270769 -0.010750819
0000e0 39 6b ba 3c a8 72 35 3d a8 e4 6c bd 35 e2 15 bd
       0.022756206 0.044298798 -0.05783525 -0.03659268
0000f0 0c cd 20 bd bb 03 01 3d c0 82 46 3d ba fa 0a bd
       -0.039258048 0.0314977 0.048464537 -0.033930518
000100 5f 2c 85 bc 2c 0f df bc ac e9 c2 bd 63 d4 8d 3d
       -0.01625651 -0.027228914 -0.095172256 0.06925275
000110 99 0c ab 3d 7b 77 88 3d c3 24 de 3c 92 44 72 3d
       0.08352012 0.06663414 0.027117139 0.059147425
000120 e4 3c 5d bd 4b df 3b 3c 31 9c 9c bd ea 9b 92 bd
       -0.054013148 0.011466811 -0.07646979 -0.071586445
000130 66 08 81 bd 25 b8 23 3d 97 4b 4b 3d 20 19 90 3c
       -0.0630043 0.039970536 0.049632635 0.017590106
000140 d1 37 ac 3d f1 e7 7d 3c a8 78 b8 bd f7 ba 10 3d
       0.08409084 0.015497194 -0.09007388 0.035334554
000150 2a 9d ec bc 5d 18 1a 3d 30 05 8e bc a3 20 00 3d
       -0.028883535 0.03762089 -0.017336458 0.031281125
000160 8c 9c 86 3d 4f 99 1f bd d7 db 8b 3d e9 60 99 bd
       0.06572828 -0.038964566 0.068290405 -0.07489187
000170 75 41 21 bd cb cc 57 3c b2 ae 91 bd e6 bf ab 3d
       -0.039369065 0.013171385 -0.071133986 0.08386211
000180 4e cb 80 bd fb d5 a1 bb ec ed 25 bd 13 7c 7f bd
       -0.06288777 -0.0049388385 -0.040510103 -0.062374186
000190 05 c3 5b bd 56 3c a6 bd c5 c3 be 3d 83 96 8e 3c
       -0.053652782 -0.08116977 0.09314684 0.017405754
0001a0 f3 7c 07 3c 8f 95 62 3d 4c d9 07 3c 8b a6 f3 3c
       0.008269536 0.05531841 0.008291554 0.0297425
0001b0 aa a7 8c bd c2 f5 2a 3c a5 d2 42 3d d6 86 0e bb
       -0.06867917 0.01043457 0.047564168 -0.002174785
0001c0 40 e5 83 bd ff 0a 97 bd 43 aa 0e bd 57 9c 81 3c
       -0.0644021 -0.07375144 -0.034830343 0.015821619
0001d0 26 da 36 bd 0f 70 bc bc 36 02 83 bd ad be 66 3d
       -0.044641636 -0.023002652 -0.06396906 0.056334186
0001e0 3a 50 96 bd 06 6b e6 bc da db fd 3c f8 c6 98 3d
       -0.07339521 -0.028127205 0.030988622 0.07459825
0001f0 46 a9 4a 3c 2d bc ad 3d 11 8c 83 3c 4d 5a 2f bc
       0.0123694595 0.08483157 0.016058 -0.010702682
000200 7d 33 84 bd e3 e9 84 3d e3 1d 8a bd ec 30 67 3d
       -0.06455133 0.06489923 -0.06743982 0.05644314
000210 b6 08 8b bd 89 15 2e bd d1 67 0c bd 6d 34 41 3d
       -0.06788771 -0.042501006 -0.034278695 0.047169138
000220 5c ce 81 bc a4 85 cd 3c 4a 35 77 bd e8 d6 b0 bd
       -0.01584547 0.025088139 -0.060353555 -0.0863474
000230 99 2b 2e 3d 98 7e 4e 3c cc 00 3a 3d a9 54 9f 3d
       0.042522047 0.0126034245 0.045410916 0.077798195
000240 c0 e8 68 bd 68 39 a5 bd 94 e5 8e 3c f8 34 c5 bb
       -0.056862593 -0.0806759 0.017443456 -0.0060182773
000250 94 35 28 bd ce e1 80 3d 43 40 8d 3d 9b 73 86 3b
       -0.04106672 0.06293069 0.068970226 0.0041031367
000260 15 19 d5 bc 28 e4 55 3c 6c 26 39 bd e6 ac 9c bd
       -0.026012937 0.013054885 -0.045202658 -0.07650165
000270 86 d8 b8 bd 2d b9 37 3d 50 3e 11 3c 1b 7a 2b 3d
       -0.090256736 0.04485433 0.008864954 0.041864496
000280 03 55 9a bc 01 b2 22 3d ab 7c 2f bc bc 44 c5 bc
       -0.018839365 0.03972054 -0.0107108755 -0.024080627
000290 d8 c6 67 3d 70 15 4b bc f6 d4 4a bd 7c 2d 6b bd
       0.056586117 -0.012395248 -0.0495195 -0.057416424
0002a0 07 45 ae bd 04 52 27 3c 4d 90 44 bd c8 c2 21 bd
       -0.0850926 0.010212425 -0.04798918 -0.0394924
0002b0 66 9c b8 bc fa 17 8f bc f2 6d 4a 3d 1b d2 7e bd
       -0.022535514 -0.017467488 0.04942126 -0.06221209
0002c0 9b 7f 0f 3c 11 e8 9a bd 05 23 60 3d 51 ae 24 3d
       0.008758451 -0.075637944 0.054720897 0.040205304
0002d0 4f de 4b 3c a6 f4 91 bd 7e f8 57 3c 74 00 a7 3d
       0.012443139 -0.07126741 0.013181804 0.08154383
0002e0 8a 1d 3c 3d 0e b7 fa bc 49 41 72 bd 44 31 9e bd
       0.04592661 -0.030604865 -0.059144292 -0.077242404
0002f0 db fa 94 3d 8d 57 9e bd 86 cf 50 ba bb 5e 84 3d
       0.072744094 -0.07731543 -0.0007965494 0.06463381
000300 2e 96 04 bd b7 32 65 3d 7a 37 7f bd cc f8 90 3d
       -0.032369785 0.05595657 -0.062308766 0.07078704
000310 16 22 35 bd 00 94 ec bc 1e 83 3f bd 54 15 c3 bb
       -0.04422196 -0.028879166 -0.046755902 -0.0059534702
000320 a2 13 8f 3d ca 64 b0 bd d0 49 8a 3d 36 aa 30 bd
       0.069861665 -0.08612974 0.0675236 -0.043131076
000330 fe 98 95 3c 05 c5 cf bd 1d 9a 38 bc ac ef 30 3d
       0.018261429 -0.10145 -0.011267212 0.04319732
000340 da 11 33 3d bc e5 04 3d 1c f1 8e 3a 42 4a 50 3d
       0.043718196 0.032445654 0.0010905596 0.050852068
000350 c8 81 55 3d a9 d5 5c 3d 55 a7 81 bb 06 8b fc bc
       0.052125722 0.0539147 -0.003956715 -0.03082801
000360 e6 e6 b4 3d 95 e3 f5 3c 2f 08 ea 3c f5 c7 9b bd
       0.08833103 0.030015746 0.028568355 -0.07606498
000370 0c 75 be bc 84 03 4f 3d de af 20 3d 18 8c 5c bd
       -0.023249172 0.050540462 0.03923022 -0.05384454
000380 af 9d b6 bd c4 f0 19 bd 21 56 64 bd e3 a9 87 3d
       -0.089167945 -0.037583128 -0.0557462 0.066242
000390 9f 69 28 3d 5d db dd 3c d9 40 9a 3d 63 23 9d bd
       0.041116353 0.02708214 0.075319 -0.07672765
0003a0 16 27 40 3d 4a 80 f5 3b c0 42 14 3c 86 49 9c bd
       0.046912275 0.0074921 0.009049118 -0.07631211
0003b0 65 ac 0e 3c ea e7 b1 bd 8b 64 29 bd 1e 20 5a b9
       0.008708094 -0.08686812 -0.04135565 -0.00020802065
0003c0 bf d5 b8 bc 2e fe aa 3d b2 90 a2 3d 0f 3f 0d bd
       -0.02256286 0.08349262 0.07937755 -0.034483965
0003d0 40 dc 35 bc 1d 86 a6 bd e3 71 0d 3b db 11 45 bd
       -0.011099875 -0.08131049 0.0021582774 -0.04811273
0003e0 eb 74 bb bd 51 b7 65 3c d4 88 94 3d 03 fd 6a 3a
       -0.0915316 0.014020757 0.072526604 0.0008964093
0003f0 12 51 6d 3d 17 e5 77 3d 4f da 96 3d 62 11 52 3d
       0.057938643 0.06052121 0.07365858 0.05128611

encoder.layers.1.nn.net.2.bias f4 [128]
000000 f1 d8 8c bd 2f 47 69 3d d2 13 96 bc ad 8c a3 3d
       -0.06877316 0.05695265 -0.018319998 0.07985816
000010 03 14 81 39 4e 9e 94 bd 07 d8 28 3d 1c 47 98 3b
       0.00024619707 -0.07256757 0.041221645 0.004647149
000020 df 8f 0a 3d 10 49 c4 3c e5 69 88 bd 50 0c 9f bc
       0.033828612 0.02396062 -0.06660823 -0.01941505
000030 15 4c 87 bd 9a 5d 38 3d 2b 2b 81 bb b9 10 71 bd
       -0.06606308 0.04501114 -0.0039419136 -0.05885384
000040 52 e1 2a bd 38 8d ac 3d 1f 64 91 3d 21 ac 0f bd
       -0.04171879 0.08425373 0.07099175 -0.035076264
000050 5c 63 a2 bd 16 b1 4b 3c 9f 1b e4 ba 16 e9 d9 3c
       -0.079291075 0.012432357 -0.0017403251 0.026600402
000060 11 97 a3 3d 52 0a f1 3c ff 01 b2 bd cb 16 7d bc
       0.07987798 0.029423866 -0.08691787 -0.015447329
000070 fe 82 74 3d 25 57 e5 3b e9 db 38 bc 81 8f 65 3d
       0.059695236 0.006998914 -0.011282899 0.05604506
000080 38 72 be bb 71 9c 9b bd 11 66 88 3d 01 33 98 bc
       -0.005811956 -0.07598198 0.066600926 -0.018579008
000090 c2 5b 83 3d 12 48 4f bd 61 d8 a7 bd da e8 80 3d
       0.06413986 -0.05060584 -0.08195568 0.06294413
0000a0 97 05 6c 3b 12 d7 fb 3c 37 c8 c2 bb ed 34 76 3d
       0.0036014074 0.030742202 -0.0059442776 0.060109068
0000b0 e1 53 90 3d f4 57 9e bd 67 11 ce 3c dd 42 16 3d
       0.07047249 -0.077316195 0.025154782 0.03668486
0000c0 12 c0 9b bd 0e 6a 70 bd e5 31 9a bd 45 d1 cd bc
       -0.07604994 -0.05869489 -0.07529048 -0.025124202
0000d0 f3 d0 36 3d 6f 36 b5 3d f3 0d 01 3c 3c f1 45 bd
       0.044632863 0.08848273 0.007876861 -0.048325762
0000e0 47 48 24 3d a1 27 9c bc 49 fd ab 3d fa 8a 9b bd
       0.04010799 -0.019061865 0.0839792 -0.07594867
0000f0 5a 0c d1 bc 86 9b a2 3a 0d 4d 73 bd 26 48 7d bd
       -0.025518585 0.0012405969 -0.059399653 -0.061836384
000100 59 d6 a0 3d 3a 8d 86 3d 58 31 b4 3d 29 82 91 3d
       0.078533836 0.065699056 0.08798474 0.07104904
000110 16 82 a8 3d 77 6b 59 bd 96 34 91 bd 86 f6 8c bd
       0.08227937 -0.053081002 -0.07090108 -0.06882958
000120 6f 4c 92 3b c5 18 80 bc 03 57 81 3d 33 35 9a bc
       0.004464678 -0.015636811 0.06315424 -0.018824195
000130 fd 27 92 bd cb 38 ed bc 3d 81 0f bd 35 57 c3 bc
       -0.071365334 -0.028957745 -0.03503536 -0.023845294
000140 29 5b 8b 3d 66 08 ac bd cd c1 a4 bd a6 15 a5 bc
       0.06804497 -0.084000394 -0.08044777 -0.020151924
000150 2e f3 7d bd 69 4f 55 3c 42 07 59 3d f8 fd a8 bd
       -0.061999492 0.013019421 0.052985437 -0.08251566
000160 57 2b 83 3d 89 68 d7 3c dd dd 97 3d 35 8b c0 bc
       0.06404751 0.026294963 0.07415364 -0.02350388
000170 0f 64 b1 3d 32 38 b6 bd 62 c1 06 bd 76 1c 92 bd
       0.08661663 -0.08897437 -0.032899268 -0.07134335
000180 26 af 30 bc 1d 9e df bb 34 8e 37 bc c0 e5 6b bc
       -0.010783946 -0.0068242685 -0.011203337 -0.014398038
000190 f4 21 91 bc 85 e7 d2 bc 73 b0 2f bd bb 3a a7 bd
       -0.017716385 -0.025745163 -0.042892884 -0.08165499
0001a0 8c 0b d8 3c 1d 5f 48 3d 33 5b ff 3b 44 27 f9 bc
       0.026372693 0.048918832 0.007792854 -0.030414231
0001b0 7e c1 40 3d ec 4f 46 3d 9b 3f 76 3d 9c 9b 8e bc
       0.04705953 0.048416063 0.060119253 -0.017408185
0001c0 36 f3 97 bd 1e e1 d3 bc 62 ed aa 3d 5c 48 32 bd
       -0.07419436 -0.02586418 0.083460584 -0.04352604
0001d0 19 b9 e7 3c ec e7 50 3d ea d2 f8 3c c7 3e 2d bd
       0.028286504 0.051002428 0.03037401 -0.042296197
0001e0 8b b3 6d 3d 2d 23 a7 bd af 94 8f bd 8c 46 9e bd
       0.058032554 -0.08161006 -0.07010781 -0.077282995
0001f0 71 e6 0d 3d 11 5f 08 bc c2 1a 0b bd 45 58 10 bd
       0.034643594 -0.008323447 -0.033961065 -0.03524043

encoder.layers.2.nn.net.0.weight f4 [128, 128]
000000 43 0d 14 bc 96 86 14 3d 7b 19 a2 bd 7c 23 8a 3d
       -0.009036365 0.036261164 -0.07915016 0.06745049
000010 1f 98 5d bc 3b 8d 0a bd c1 a0 08 bd 40 cb 80 3d
       -0.013525038 -0.033826094 -0.033356432 0.06288767
000020 5a 1d 1d 3d 2f b5 8f bd f0 e5 93 bd 1e cc 4a bd
       0.03835807 -0.0701698 -0.072215915 -0.049511068
000030 af 97 04 bd 32 a2 3a bd 97 ee 1e bd be 96 ac bc
       -0.03237122 -0.045564838 -0.038801756 -0.021067973
000040 9b 65 bd bc bb b8 21 3d 79 44 6c 3d f5 d0 f3 3b
       -0.023119738 0.039482813 0.057682488 0.007440681
000050 00 b7 95 3d 1b 12 95 bd 70 a0 a6 3d 26 7d 63 bd
       0.07310295 -0.07278844 0.0813607 -0.055539273
000060 95 53 a4 bd 77 66 45 bd ba 1b 8c 3d 41 6a ec 3c
       -0.080237545 -0.04819342 0.06841226 0.02885926
000070 83 29 45 3d 83 36 45 3d 29 8a b8 bd 5a e0 67 bc
       0.04813529 0.04814769 -0.09010727 -0.014152611
000080 de 48 0b 3d fd 72 f5 3c f1 05 a4 3d 6c 88 5c bd
       0.03400504 0.029962057 0.08008946 -0.05384104
000090 56 7e a2 3d b6 a1 8e bd 06 40 5d bd f1 62 a5 3d
       0.07934253 -0.06964438 -0.054016136 0.08075512
0000a0 33 6f 4d 3d fe 05 87 3d d8 2a 73 bd 41 c9 57 3d
       0.050154876 0.0659294 -0.05936703 0.052682165
0000b0 84 fa 8e 3d 29 41 ac bd 93 62 15 bd 8f 77 93 bd
       0.06981376 -0.08410866 -0.03647096 -0.07200538
0000c0 9e 31 67 bc a9 27 95 3d f3 22 f0 3c 93 ac c3 3d
       -0.014110951 0.07282955 0.02931354 0.095544
0000d0 92 9b 1e bd 3f a3 97 bd 63 87 b1 3d e4 90 c0 3d
       -0.038722582 -0.074041836 0.08668401 0.09402636
0000e0 9d 37 69 bd 3d 68 41 3d af cc 91 bd 0a cb d3 bc
       -0.056937803 0.04721855 -0.071191184 -0.025853653
0000f0 b2 58 9c 3d c9 7d 52 3d 94 9c 1b bd 33 50 79 3d
       0.07634105 0.05138949 -0.03799112 0.0608675
000100 d5 6d 52 3d 8b b0 11 bd 22 29 9b 3d 8f 9c 27 bd
       0.051374275 -0.035568755 0.07576205 -0.04092079
000110 c5 2b de bb 51 e5 a8 bd 72 66 a8 bd 7d bc d0 bc
       -0.00678012 -0.08246864 -0.08222665 -0.025480503
000120 0e 37 71 3d 49 0e ac 3c 46 50 c7 3c f5 4a af 3c
       0.058890395 0.021002905 0.02433027 0.021398047
000130 33 1c f2 bc 01 4c a8 bd 17 a0 ad 3c 96 75 2d 3d
       -0.029554462 -0.082176216 0.0211945 0.042348467
000140 81 fa 23 3b 2e 13 a6 bc c3 fb 1e 3d 3e db 83 bd
       0.0025021138 -0.020272817 0.038814317 -0.064383015
000150 b3 29 bc bc b2 a9 52 3d 85 5a 7c bd 65 08 80 bd
       -0.022969102 0.051431365 -0.061609764 -0.06251601
000160 2f 54 42 3d 29 92 9f bc f7 0f b7 3d fc ca 73 3d
       0.047443565 -0.019478874 0.08938592 0.059519753
000170 ff 56 d0 3d 63 ba 48 3c 6f d0 85 3d ad ed 89 bb
       0.10172843 0.012251469 0.06533896 -0.0042092414
000180 95 93 69 bd 30 5e 80 3d 11 5f 8a bb 51 5e 2b bc
       -0.05702551 0.06267965 -0.0042227586 -0.0104594985
000190 d4 32 6d 3d b0 a5 09 bd 8b 8f 3a bd b9 ec 2f 3d
       0.0579098 -0.033605278 -0.04554705 0.042950366
0001a0 7e 02 97 3d 0f e4 c6 bb 8b 64 3a bd fe 2b 06 bd
       0.07373522 -0.006069667 -0.04550604 -0.032756798
0001b0 08 06 8d 3d 18 af be bc 24 cb 7d 3d 07 9f b6 3d
       0.06885916 -0.02327685 0.061961308 0.08917051
0001c0 e2 87 55 3d 2b 7f 80 3c 97 da 36 3c ea 01 1a bd
       0.05213154 0.015685638 0.011160514 -0.03759948
0001d0 71 56 80 3c 78 3f b7 bd 5b 8e a0 3d 07 54 72 bd
       0.015666218 -0.089476526 0.07839652 -0.059162166
0001e0 74 0c 2f 3c 17 8f 9a ba 1c 80 99 38 e0 84 42 bd
       0.010684121 -0.0011791912 7.319471e-05 -0.04749
0001f0 db be 68 3c 3e 35 0d bd f8 ef 5f 3d 3c 0d 9b bd
       0.01420566 -0.034474604 0.05467221 -0.07570884
000200 fb 66 42 3d 04 f2 88 bd df 6c 40 3d 9f 35 6a 3d
       0.04746149 -0.06686786 0.046978828 0.057180043
000210 fb 75 9a bd eb 6a 75 bd 58 a7 7d bd d2 de 66 3c
       -0.07542034 -0.059916418 -0.06192717 0.01409121
000220 db 3a 18 3d 95 06 ae 3d af ed cd bc d6 4b a6 3d
       0.037165504 0.08497349 -0.02513775 0.08119933
000230 52 f6 b4 bd d4 23 fc 3c ad 38 a6 3d b0 26 a0 bd
       -0.08836044 0.030778803 0.08116279 -0.07819879
000240 39 e4 47 ba 96 f8 cb 3c c4 19 f2 3b 1b 39 6a 3d
       -0.00076252554 0.024898808 0.0073883254 0.057183366
000250 4e f6 36 3c ad 61 a0 3d 8d 65 d7 bc 89 b6 39 bc
       0.011167122 0.0783113 -0.02629354 -0.011335024
000260 38 e0 a6 3d 0d 8b 9e bd 80 a2 37 bd 61 ee 96 bd
       0.08148235 -0.077413656 -0.044832706 -0.07369686
000270 45 44 85 3d d0 ae 1b bd 08 f5 9d bd fd 0f 3d 3c
       0.06507162 -0.03800851 -0.077127516 0.011539456
000280 a2 e5 e8 ba 7f 38 98 bc 0b 9d 00 3d f0 8c 79 bd
       -0.0017768631 -0.018581627 0.031399768 -0.060925424
000290 86 da 2c bc 87 97 ec 3c 66 01 80 3a a5 ae 09 3d
       -0.010550147 0.028880848 0.0009766042 0.03361382
0002a0 88 69 7a 3d 93 2f 1b 3d 3a ca ba bd bb cc b4 3c
       0.0611358 0.037887167 -0.09120603 0.02207028
0002b0 d9 ee 97 bd c7 52 7a bd b9 0d ce 3c ea cc 18 3d
       -0.074186035 -0.0611141 0.025153028 0.037304796
0002c0 87 7e d5 bc 6e 57 8e 3d 8f f1 fd bb 04 a9 82 bd
       -0.02606131 0.0695027 -0.0077497433 -0.063798934
0002d0 cb e5 8c 3d da 0b 9d bd e5 07 27 bd d9 b3 27 3b
       0.06879767 -0.07668276 -0.040779013 0.0025589375
0002e0 b3 e2 53 bd 57 9c 63 bd 46 b2 dd bc 53 f5 d6 bb
       -0.05172987 -0.05556902 -0.027062546 -0.0065600066
0002f0 4e 24 9a bd 20 78 9e 3d 22 3e 55 3c 19 6a 8c bd
       -0.07526456 0.07737756 0.013015302 -0.06856174
000300 30 4e c7 bd 8b 00 87 bd d9 1b bb 3d 43 a9 13 bc
       -0.0973171 -0.065919004 0.09136171 -0.009012523
000310 f7 0a 23 3d 43 af e8 3a 6d 99 cb bc 8a 7a c0 bd
       0.03980538 0.0017752427 -0.024853433 -0.093983725
000320 ee 52 2e 3d 54 98 23 bb 61 07 9d 3d 78 0c 6d 3c
       0.042559557 -0.002496262 0.07667423 0.014468305
000330 a1 db 0c 3a 43 33 40 3d 2a 6d 96 3c 3c 96 46 3c
       0.00053733034 0.046923887 0.0183626 0.01212078
000340 2d 80 f2 39 a9 4f a1 3d 3c 85 77 3d bf b6 a0 bc
       0.00046253335 0.07876522 0.060429797 -0.01961839
000350 48 7e a9 bd 66 17 a2 bd c1 98 be bd b1 48 3e 3d
       -0.08276039 -0.07914619 -0.09306479 0.046456043
000360 6c e1 4f bd f1 09 89 3d f4 2c c8 3d a0 a4 7a bc
       -0.05075209 0.06691349 0.09774199 -0.015298039
000370 21 7e b7 bd d0 4b d7 3c 98 3a 24 bd cb 22 4f bc
       -0.08959604 0.026281267 -0.04009494 -0.012642573
000380 c0 14 0d 3d 36 c5 8e 3d 52 e4 7b 3b 28 75 ad bc
       0.034443617 0.06971209 0.003843565 -0.021174029
000390 22 71 09 bd 56 92 21 3d 5c 6e d8 3c 1e 3b 51 bd
       -0.033555157 0.039446197 0.026419811 -0.05108177
0003a0 0b c1 a6 bc b3 eb 25 bd df b8 cd 3b d1 58 9f 3d
       -0.020355722 -0.040507983 0.006278142 0.07780612
0003b0 90 bc 95 3d d3 21 1d 3d a4 42 4f 3d 7e cd 6c bd
       0.07311356 0.038362335 0.050600663 -0.05781316
0003c0 f2 a3 4c 3c 76 6f 61 3d f7 e4 b6 b9 e9 b0 32 3d
       0.0124902595 0.055037938 -0.00034884337 0.043625746
0003d0 c6 1b ae bd a9 6d 50 bd 2d 38 99 bd c8 e3 1e 3d
       -0.08501391 -0.05088583 -0.07481418 0.038791448
0003e0 89 35 7b 3d 97 04 83 bd b8 db be 3a cd 8f 03 bc
       0.061330352 -0.0639736 0.0014561331 -0.00802989
0003f0 c9 20 fd bc f0 9e a9 3d b0 b2 ae 3d 02 f6 49 bd
       -0.030899422 0.08282268 0.08530176 -0.049306877
