scripts/embeddings_gin_version2/ENZYMES/gin_dim64_ep100_lr0.001_drop0.0/gin_classifier.pt (torch, 177117 bytes, 42 tensors)

encoder.layers.0.nn.net.0.weight f4 [64, 3]
00000000: 7db2 f93d d850 c3be c9b3 de3c 570c 11bf
00000010: a107 89be 88e3 cebe 6ca8 863e 8290 04bd
00000020: 2ea1 bfbe 0578 edbd 9d3b e43d 4745 11bf
00000030: 85af 6b3e e62f a53d da47 9e3e 0ad4 e63d
00000040: aed6 523c cd76 27be 6c5b bebe f557 00bf
00000050: 7d93 a8bd 6224 3b3e a519 8b3e 4eb1 043e
00000060: 5258 dfbe 7f56 b83e 4407 babe a79f 023f
00000070: 1ec1 1c3e 67d1 5c3e 9de9 e1be 0008 113e
00000080: d86a 943e 7851 fdbe f68c c7be c29d f6bd
00000090: 8dbe cabe 989f 0cbf a627 f0bd e133 cebe
000000a0: b5fc 4ebe 821c 513e fd9c 063f 17db cc3e
000000b0: ee8b 473e 3f48 093f a67e 09bf ab5a 4d3e
000000c0: 60e8 f73e c224 a2bd a3ba 7c3e e2f0 8cbe
000000d0: ed32 74be a770 a0be b981 b5bc 8a6b 183e
000000e0: ec2c f6be d467 12be c83b 0bbf b111 8bbd
000000f0: 5f58 ed3e a64c afbe e325 00bf 2c95 c33e
00000100: 06ac 0cbf c8e8 113f e865 58be 0a01 23be
00000110: 9c2a c83e 37fb fbbb a2a8 87bc 1b5d b4bd
00000120: f5b4 a3be c646 9ebe bd2b 013f cb3e b23d
00000130: bc1c bb3e 2392 543e 1ddb da3e 890c 963e
00000140: 31ac afbe 7ae3 cabe 770b aebe 9eed fc3e
00000150: 3c70 5cbc f41b 51be 9298 38be c148 c2be
00000160: b06d b13d e10b 03bf 3405 a5be 9ce1 c13c
00000170: 4af6 4b3d 8946 0ebf c7a3 d03e 8411 0dbe
00000180: b327 81be 8b72 d83e 5102 cebe 2d4f 9abe
00000190: 71ac 9dbe 8ad6 0a3f ba2d 01be 4c66 c43c
000001a0: 5ffd 1f3e 86b2 8fbe 2b9d 11be be8e 0fbf
000001b0: 2806 9bbe 7c5c 85be f083 e83e 8b62 acbe
000001c0: d6f3 5ebd 01b9 89be e56f f5be 6296 99be
000001d0: 9f7d d03d 3164 29bf a558 e63d d25a 24bd
000001e0: 5068 023d c09c f2be df20 8a3e 5e8a cabc
000001f0: f76c f2bd eba1 be3e 8993 82bd ab42 a5be
00000200: 07b7 fbbe d409 363e 179a 933e b62a a53e
00000210: 90e4 fbbe 3103 e73e 894a a7bc f5b1 f9bd
00000220: 644e a33e ce5d c5be 6404 dfbd 0e75 dd3e
00000230: 503f 24bc 82d1 fe3d 9794 223e b2c6 053f
00000240: d958 a43e a438 d8bd 11d6 bf3e 1061 d7be
00000250: dcfd 0dbd 4a7c 7cbe aeaa aabd 9eec 3f3e
00000260: cac9 9f3e b083 f03e a03d b6be 0556 803e
00000270: 874c 81be 413f cabe 0949 e4be 78ac 793e
00000280: 650f 023f b313 7abe ece6 1fbe fabd d13e
00000290: 708e f13e fe77 08bf 412b 063f 7642 dd3e
000002a0: d425 43bc d8a2 02bf af95 85bd 3cbf d5bd
000002b0: bee4 093e e0bd 63be c98a e3bc dfe2 063f
000002c0: 6162 cf3e c072 67be a64e 9bb8 36bc 76bd
000002d0: 8ea7 04be 4fd2 cb3e 4fe8 003f c26d b43e
000002e0: cc0d 16be ba10 50be f1a7 5f3e a3da d0bd
000002f0: 6ee5 723e f3a1 b03e 87bd 003e 7a49 253d
0.12192247 -0.38147616 0.027185338 -0.56659454 -0.26763633 -0.40407968 0.2630037 -0.032364376
-0.37427658 -0.115951575 0.11144183 -0.56746334 0.23016174 0.080657765 0.30914193 0.11270912
0.012868566 -0.16353913 -0.37179124 -0.5013421 -0.08231256 0.18275598 0.27168003 0.12958261
-0.4362207 0.3600349 -0.36333668 0.5102486 0.15308043 0.21564256 -0.44123545 0.14163208
0.28987765 -0.49476218 -0.38974732 -0.12041809 -0.39598504 -0.5493102 -0.11726312 -0.40273955
-0.20213588 0.20421031 0.52583295 0.40010902 0.19486973 0.53625864 -0.53708875 0.20054118
0.48419476 -0.07917167 0.24680571 -0.2752753 -0.23847552 -0.31335947 -0.022156583 0.14884773
-0.48081148 -0.1429742 -0.54388094 -0.06790484 0.46356484 -0.34238166 -0.5005781 0.38199747
-0.54949987 0.5699582 -0.21132624 -0.15918365 0.39095008 -0.0076898593 -0.016559903 -0.08806821
-0.31973997 -0.3091337 0.50457364 0.08703383 0.3654536 0.20758872 0.42745295 0.2930644
-0.3431106 -0.39626676 -0.33993122 0.49400038 -0.013454493 -0.2042082 -0.18026951 -0.37946132
0.08663499 -0.5119 -0.32230532 0.02366715 0.049795426 -0.5557638 0.40749952 -0.13776213
-0.252256 0.4227489 -0.40236142 -0.3013853 -0.30795625 0.5423361 -0.126151 0.02397456
0.15623997 -0.2806589 -0.14220111 -0.5607718 -0.30278134 -0.26047122 0.4541316 -0.33668932
-0.05443176 -0.2689896 -0.4793693 -0.29997545 0.1018021 -0.66168505 0.11247376 -0.040125675
0.03183776 -0.47385216 0.26978204 -0.024724182 -0.1183719 0.3723291 -0.06375796 -0.32277426
-0.49163076 0.17777187 0.288285 0.32259148 -0.49197817 0.45119622 -0.020421283 -0.12192146
0.31895745 -0.3854813 -0.10889509 0.43253368 -0.0100248605 0.12442304 0.15876995 0.5225631
0.32099035 -0.10557678 0.37468007 -0.4206624 -0.034665927 -0.24656788 -0.08333336 0.18742606
0.3120864 0.4697547 -0.3559389 0.25065628 -0.25253698 -0.39501384 -0.4458697 0.24382198
0.5080474 -0.24421577 -0.15615433 0.40965253 0.47178984 -0.53308094 0.5240975 0.43214768
-0.011910874 -0.5102973 -0.065226905 -0.10436866 0.13466164 -0.222404 -0.027776139 0.5268993
0.40504745 -0.22602367 -7.4056254e-05 -0.060238086 -0.12954542 0.3980889 0.50354475 0.3523999
-0.146537 -0.2031888 0.21841408 -0.10197952 0.23720333 0.34498557 0.12572299 0.040353276

encoder.layers.0.nn.net.0.bias f4 [64]
00000000: 5b09 31b9 a1dd 313e 27f0 a73e 6b18 6abe
00000010: a7ad 663e 77f8 16bf a4f9 8b3e 05ef 893d
00000020: 2cda 8cbe edfc ad3e 8263 a33e 386c f1be
00000030: e50e c03d b1f2 f8be 9b35 44bf 927f 30bc
00000040: 2230 b53e 2691 b2bc c2c3 cf3e 3fe7 bcbe
00000050: 867f db3e cbc9 dabe db10 7d3e a2ae fb3e
00000060: 3ec1 683e ea5d 8abd a2db a23e 50f9 a73e
00000070: e240 83bd 0c2c 74bd 2d8e ce3e 8a4e 05be
00000080: c1be 0d3e ecc2 2dbe 2e49 e3be d746 823e
00000090: f9a7 0bbf fbc1 e1be 414a ba3e fe41 423e
000000a0: 0ca9 65be 8363 d1bd 8b2c 9a3e e3ab 29bf
000000b0: cb39 d13d 4564 13be 1c86 d83d 9015 97be
000000c0: 08a0 d43e ac8c 033f db30 c6be 260e 86be
000000d0: f435 bd3b 84a3 a1be f8ff 553e 8ed6 b33e
000000e0: c2ac c3be bec1 38be ad85 cfbe a878 a3bd
000000f0: 60d8 c6bb 06fb 86be bb14 e8be 3183 76bd
-0.0001688352 0.17369701 0.3280041 -0.22860877 0.2252718 -0.5897288 0.27338898 0.067350425
-0.27510202 0.3398203 0.31911856 -0.47152877 0.09377841 -0.4862266 -0.76644295 -0.010772603
0.35388285 -0.021797728 0.4057904 -0.36895177 0.4287073 -0.4273208 0.24713461 0.49156672
0.22729966 -0.06756194 0.31808192 0.32807398 -0.0640886 -0.05961232 0.40342847 -0.13018242
0.13842298 -0.16968888 -0.4439177 0.25444672 -0.5455318 -0.44093308 0.36384776 0.18970487
-0.22427768 -0.102240585 0.3011211 -0.66277903 0.10216101 -0.14393719 0.10572454 -0.29508638
0.41528344 0.51386523 -0.3870915 -0.2618267 0.005774254 -0.31570065 0.20898426 0.3512463
-0.3821774 -0.18042657 -0.40531674 -0.07981998 -0.0060682744 -0.2636339 -0.45328316 -0.060183708

encoder.layers.0.nn.net.2.weight f4 [64, 64]
00000000: 61e3 5b3d 10d9 d83d 05c3 63bd 5a7e 3b3d
00000010: 9d9a 913d 8c9a 863d 0076 09bc d810 a73d
00000020: ccfd 6b3c 3ee6 c63d 0d0f 9b3d 54b4 a7bd
00000030: 6e37 f1bd 9cff 20bd b107 bf3c f08c fbbd
00000040: 9db4 ca3d 9268 f03d 67f0 b3bd 2027 9d3d
00000050: 2a82 11bd bebc dabc 473e 8e3c 6fbf b0bd
00000060: 65aa 20bc 1d52 ac3d 06b7 b0bb 5104 07be
00000070: 0033 c93a 07d1 1e3d 4381 2b3d 765f b3bd
00000080: ab5f f43c cec4 5cbd 83bb f6bc 9be7 213c
00000090: 5639 03bd 708d ec3c 6fbb 56bc a282 f2bd
000000a0: 36ce 2cbd cb75 73bd 012a 03be 43a9 003d
000000b0: 6ffe fcbd 98e4 e43d c09f 9a3d 27be 0dbd
000000c0: de02 db3d 7c04 adbc 0cb8 35bc c23b b2bc
000000d0: d222 d3bd bd5a 68bd 3a42 a83c 650c b03d
000000e0: 30e8 1f3d 77cd 943d 42b1 0f3e 2c5a febd
000000f0: 4d4d 01bc 7a9f 13be ff1d 64bd 36dc b7bc
00000100: 5816 a23c eef3 fdbd d05b 96bd 5d4c 8dbd
00000110: 56b8 a4bd 900a f03d 706d cb3c 1a95 44bd
00000120: ffba e33b fd62 c53d 801b 7e3b e0d6 f83d
00000130: a051 303d 9cba b43d 0b84 a63d 88ad e9bd
00000140: 7c07 9a3d 64c7 103d 5b1a 51bd f422 bdbd
00000150: 3bcc 383c 5364 223e f172 ac3d f7d8 32bc
00000160: dcb0 8e3d 2bcf 293c efe8 233d 5f63 93bd
00000170: dc27 3e3d 1bdd 1b3e a840 ad3b d9fa 703d
00000180: 743b d63a c0f9 e43c b0ca 05be 3d81 723d
00000190: 81ee a9bd c890 c0bd 29cf cd3c a437 d63d
000001a0: f0f2 063e 8d9f 913d d205 32bc ba3b 2c3d
000001b0: d84f ddbd 2ac8 c53d dd3d a03d 2332 71bc
000001c0: 1053 82bd b4d5 85bb a73b 9ebd def4 45bd
000001d0: 0036 e03b f89b d9bd deac 7a3c a364 25bd
000001e0: 4887 bd3c bc05 b83c 7cbe 95bc 328d b8bd
000001f0: 8a7f b5bc 3eee b43d ffaa 863d fab9 013e
00000200: 4a92 f2bc 68fa 423d 3baa 3f3d 581a 073e
00000210: 31d1 87bb 6cb8 eebb a4cd d93d d51f 24be
00000220: a2be 103d 10b5 8a3d f30e c43d 60bc b2bc
00000230: debf a0bd d98e a43d bab9 1fbe c3d2 97bd
00000240: 0400 383d 546b 6f3d 17d1 dfbd 7a73 f33d
00000250: e0b5 023b 7fdb a5bd 7f47 bcbc bdf6 c3bc
00000260: 2270 02be fbfe 47bd ee0d 4e3d 2f93 4bbd
00000270: 08cc 3d3d 6919 63bd c277 0dbd 3e81 ecbd
00000280: a398 53bd 42da eabd 562d 5bbd 9de3 9d3d
00000290: a5da 1c3e 4ce5 c13d 89c6 0e3e 1080 e63d
000002a0: 3854 0f3a b560 08bd aadc 1f3e c6ab 163d
000002b0: 35b7 fbbd 97e6 98bd 52ed 8cbd d81d 01be
000002c0: 0380 92bd f750 ec3d 833d 793d 8979 fabd
000002d0: fe6d aebd 50ca 17bd de3c 3bbd 4521 c7bd
000002e0: e416 41bd e31b 14bd 7703 7f3c 08e6 493d
000002f0: 4f10 693c 9102 bbbc 7bde 22bd 2817 a2bd
00000300: a484 693d e69b c53d 95b8 2b3b bb0e d0bd
00000310: 4326 4cbd a4fc 9a3d 80ab 7d3c 3771 0cbd
00000320: d31f f7bd e5f9 b33d 49dd 72bd 82fe 95bd
00000330: 9cbd 843d 9fce 27bd cc2f 3ebd a9ef bebc
00000340: 62e3 843c 8006 b4ba b180 043e b88c ab3d
00000350: 86ef c0bd 03de c2bd 9d31 15be a1a3 94bd
00000360: 15e9 92bd 8ce5 8bbc 3022 fdbc bb5f 99bd
00000370: 2ccc c6bd 2fab c13c 730e a53d ac63 02be
00000380: d904 bd3c 245e debd 91cd d03d c7ed 89bd
00000390: 825f 103e 1e00 ccbd 5fdf 4dbc 4902 5d3d
000003a0: ceed a3bd c64c fdbd ccab 0c3e adcb 30bd
000003b0: 822d 983d 5244 a4bd c0a4 e73c 72c0 cbbd
000003c0: d0b4 6e3d 235b 1ebe 63dd 00be 947f f5bc
000003d0: e8b8 3c3d 6452 11bd 2687 fd3c 2c94 4abd
000003e0: d207 da3d 5cbb 10be 7277 b33d 0656 9fbd
000003f0: 5646 4fbd 838c 3bbc c22d eabc d1f9 ce3d
0.053683642 0.105882764 -0.055605907 0.045774795 0.07109568 0.06572446 -0.00838995 0.081575096
0.014403772 0.09711884 0.0757123 -0.08188692 -0.117781505 -0.039306268 0.023319097 -0.12282741
0.098977305 0.11738695 -0.087860875 0.07673478 -0.035524525 -0.026701327 0.01736368 -0.08630263
-0.00980625 0.08414099 -0.005392912 -0.1318524 0.0015350282 0.038773563 0.04187132 -0.08758442
0.029830774 -0.053898625 -0.03011871 0.009881879 -0.0320371 0.028876036 -0.013106211 -0.118413225
-0.042188846 -0.059438508 -0.12808992 0.03141142 -0.12353217 0.11176413 0.07550001 -0.03460517
0.10693906 -0.021120302 -0.0110912435 -0.02175701 -0.10309376 -0.05672716 0.020539392 0.08596114
0.03903979 0.07265752 0.14032462 -0.12419543 -0.007891965 -0.14416304 -0.05569267 -0.022443872
0.019786045 -0.124000415 -0.073417306 -0.06899331 -0.08042972 0.11720765 0.024832457 -0.047993757
0.006949782 0.09638021 0.0038773715 0.12150359 0.043046594 0.088246554 0.08130654 -0.114100516
0.07520959 0.035346404 -0.051050525 -0.092351824 0.011279161 0.15858583 0.08420361 -0.010915986
0.06967327 0.010364334 0.040017065 -0.07196688 0.04642473 0.15221064 0.0052872486 0.058832977
0.0016344623 0.027951121 -0.130656 0.059205282 -0.08297444 -0.09402615 0.025123196 0.10459831
0.13178611 0.0711051 -0.0108656455 0.042049147 -0.108062446 0.09657319 0.078242995 -0.014721426
-0.06363499 -0.0040843133 -0.077262215 -0.048329227 0.006842375 -0.10625452 0.015300004 -0.040379178
0.023135796 0.022463672 -0.018279307 -0.09011306 -0.022155542 0.088345036 0.06575584 0.126686
-0.029610772 0.047602087 0.046793204 0.13193643 -0.0041448106 -0.0072851684 0.10634926 -0.16027768
0.03533805 0.06772816 0.09573164 -0.02181834 -0.07849096 0.080350585 -0.15598193 -0.074132465
0.04492189 0.058451965 -0.109285526 0.1188726 0.0019944832 -0.08098506 -0.02298331 -0.023921365
-0.12738088 -0.048827153 0.050306253 -0.049700912 0.046337157 -0.055444155 -0.034538038 -0.115480885
-0.051659238 -0.114674106 -0.053510033 0.077094294 0.15317781 0.09467563 0.13942923 0.11254895
0.00054675667 -0.033295352 0.1561152 0.03678491 -0.12290803 -0.074658565 -0.06881203 -0.1260904
-0.071533225 0.1153888 0.060849678 -0.12230212 -0.08517073 -0.037058175 -0.045712344 -0.097231425
-0.04714097 -0.036159407 0.015564791 0.04929164 0.01422508 -0.022828372 -0.039762955 -0.07914573
0.05701126 0.09648876 0.0026202549 -0.101590596 -0.049841177 0.075677186 0.015482783 -0.034287658
-0.12066617 0.08787898 -0.059293065 -0.07323934 0.064814776 -0.040968534 -0.0464323 -0.023307638
0.016221706 -0.0013734847 0.12939717 0.08376449 -0.094206855 -0.095150016 -0.14569707 -0.07257772
-0.07173363 -0.01707723 -0.030900091 -0.07488962 -0.097069114 0.023641197 0.080593966 -0.12733334
0.0230736 -0.108578 0.10195459 -0.067348056 0.14098933 -0.0996096 -0.012565463 0.053957257
-0.08004342 -0.12368159 0.1373741 -0.04316299 0.07430555 -0.080208436 0.028276801 -0.099488154
0.058277905 -0.15464453 -0.12584452 -0.02996806 0.046074778 -0.035478964 0.030948233 -0.049457714
0.10646023 -0.14133972 0.08763017 -0.077800795 -0.050604187 -0.011447075 -0.028586272 0.101062424

encoder.layers.0.nn.net.2.bias f4 [64]
00000000: 0e4a bf3d aa0b d73d b74b 58bd ee0e b53d
00000010: 99ae 8f3d 7ce7 73bd 055f 1dbc 399c 7f3d
00000020: 0846 1cbd 0c6e 76bc a2ff 263d 11b8 8b3d
00000030: 51c3 a4bd 830d 35bd 1d3d b13d 9e25 cc3d
00000040: bde5 6bbc c991 a2bd b819 893d 6a73 cb3c
00000050: 34f0 bd3b 7bb4 67bd 1398 1a3d 80d1 27bc
00000060: 1197 713d 1816 0dbe c52f fe3b af31 f43d
00000070: 8339 d0bd f799 c7bc 0733 583d 9d5b 00bd
00000080: d84f 9fbd c6ab 7ebd 6b41 5e3d 4ab4 3abb
00000090: c96d 3f3d 8e46 123d 9569 cfbd aabf e8bd
000000a0: 8d2d acbd 0873 81bd 821a a83d c65c 92bd
000000b0: ac58 fabc 419a 8f3d f2bc 233c 8c33 903d
000000c0: e9f7 da3c e31c 84bd 6ba9 ff3d fc2c 873d
000000d0: c602 a0bc 3d37 6ebd d552 11be ede3 d3bc
000000e0: c0a8 b13d b258 39bd b80c 2a3c f68d f13d
000000f0: 88f3 173c bb4e d7bd 260d 183e a386 03be
0.09340297 0.105002716 -0.052806582 0.08840738 0.07015724 -0.059546933 -0.009605174 0.062404845
-0.038152725 -0.015040886 0.040771134 0.06822217 -0.08045066 -0.04420234 0.086542346 0.099681124
-0.014398036 -0.079379626 0.066943586 0.024835307 0.0057964567 -0.056568604 0.037742686 -0.01024282
0.05898196 -0.1377796 0.0077571594 0.11923539 -0.101672195 -0.024365408 0.05278304 -0.03133737
-0.07778901 -0.062175535 0.054261606 -0.0028488808 0.04673556 0.035711817 -0.1012756 -0.11364682
-0.084071256 -0.063207686 0.08208181 -0.071466014 -0.03055986 0.070118435 0.009993779 0.07041082
0.02672954 -0.06450822 0.12483486 0.06600377 -0.019532572 -0.058158148 -0.14191754 -0.02586552
0.08674765 -0.045250602 0.010379009 0.11794655 0.009274371 -0.105130635 0.14848766 -0.12844329

encoder.layers.1.nn.net.0.weight f4 [64, 64]
00000000: 85af 393c 5939 ea3d cdac 80bd 3da2 e1bd
00000010: dbd0 36bd 458a 70be 636b 9abd a8b2 98bd
00000020: 70ec 2dbd 6d17 5fbc 73c0 d73d b94a b4bc
00000030: 2b10 c9bd f8d7 f2bd 07ae 95bd ee14 89bc
00000040: ed99 b3bd a17a debd 1439 5cbd d6a9 74be
00000050: efd6 023d 67a0 46bd 981f 13bd f98d da3d
00000060: f1d1 88bd 997e f9bc b6b5 c8bd 7a89 a23d
00000070: 44b0 22bd 14df e53c 8b2e 923c a2da 3ebe
00000080: 68c7 1ebe 90b0 f93c 81a6 bf3c f66b 07bd
00000090: bfac e33d 77c0 90bc 1c22 6ebd c231 bcbd
000000a0: 9d90 083e 5666 013e bc4f dcbd 88ea ae3c
000000b0: 8f04 173d 86b9 f43c bc5b b43d aa8b 713d
000000c0: 2be5 003e 1b47 56be 6368 7dbc f2e4 b43d
000000d0: ec55 ca3d c369 99bd 05d5 3abe 408e debd
000000e0: 2972 4bbc 04d2 8dbd 9999 85bd 79e2 3c3d
000000f0: 5785 a6be 392b fd3d 19da 7fbd 9f21 0cbe
00000100: b816 3cbe 2240 9abd 8b8d b83c cdd1 d63d
00000110: 5dba 39bd 69ae b33d 7c97 c8bb d2d0 193c
00000120: a70a a23d a685 7bbd cca6 75bd b1ec eebd
00000130: 2f47 aabd 4946 0e3d dd00 303d 2eaf a73d
00000140: a22b b5bd 5761 863c 8c20 87bd 2f87 efbd
00000150: 89fc 0a3e a679 af3b 761f efbd 7e37 943d
00000160: 7f2b c93d c039 ee3c 0841 2ebd 0040 4bbe
00000170: ba05 14be e592 0dbe 05f2 e23c 3e1e 72bd
00000180: c2d7 d3bd 1308 97ba e61b 2e3d 3b97 5b3d
00000190: 07e0 d63c 8934 ea3d ff78 45bc 6372 833c
000001a0: 858a 27be 4672 d43d aabb f1bc 46e8 c23d
000001b0: 2594 04be de29 9d3d 317d 463d f8d1 78bd
000001c0: 2963 c9bc e552 75bd 827d a8bd 6642 b8bd
000001d0: f3fa cd3b ef05 953d 0349 bfbd 1432 23be
000001e0: 933f 84bd ac46 54bb ce00 f53d 58b2 43bd
000001f0: 1d1d 933d 8e2b 13bd aaf8 593d 873f 7a3d
00000200: a471 08be 41f9 d43d cad9 0a3d b2c1 dd3c
00000210: 8558 05be 0f72 a4bd ef47 e7bc c83a c3bd
00000220: f8a5 bcbd 0009 d0bd 749f 493d c7ef e1bc
00000230: a81e 05be d206 87bc e069 b43c 91e5 e73d
00000240: 6362 afbd 86c7 eabd db9e 1cbd cd1d ee3c
00000250: 3dd7 a5bd 0027 2ebd aeff a33d 4102 00be
00000260: 7107 88bd 40d3 713d 855a e4bd f70c 84bd
00000270: 76e0 12bd e2c0 df3c 9581 4d3c 13b2 143d
00000280: 990c c7bd e4fc a03d 6a4b 4a3c 958d e1bc
00000290: f51d 3d3d 27ad d2bd 825e d9bc 5040 393d
000002a0: ced3 edbd c512 66bd 4656 cc3d f1f4 0fbc
000002b0: aea3 d83d 175d c9bc be52 9e3d 8307 02be
000002c0: 28ba 923d 6122 f3bd b5d5 4dbd d1c3 71bd
000002d0: ab73 7d3d a2f0 0b3b c753 0dbe baba b13d
000002e0: 5318 e2bd f3b7 4f3d 53a0 253d b0ab d53d
000002f0: 44cd a0bd 1c80 a03d 7c44 ca3d c6f6 c23d
00000300: 33c1 153d b9b1 a2bd 24ba 263b 4e6a 473d
00000310: 92e1 82bd 8c18 ab3d 5921 e43d 9355 7b3d
00000320: ef8b f13d ce16 b7bd 879c adbc 1f84 933d
00000330: 53df 603d 1589 b0bd d32e cc3a 09aa cbbd
00000340: e77c 153e ce88 883d a614 1abc a4e9 8bbb
00000350: 6e68 cabc 5382 c6bd df7f 9c3c 1c58 7abd
00000360: 94f1 913c 7e5b 7bbd 5fc9 b2bb 4390 1abd
00000370: bfd1 ff3d 47f9 fbbd 4e7c 4e3c 7b10 a7bc
00000380: 35ac f33d 306e 4e3d ad4f 01be 37e8 cbbb
00000390: 68af c43c 9f19 a53d 9453 9c3d b4cc dd3c
000003a0: 86db a2bd 113b 223d 243c 1dbb ec6d 973c
000003b0: 8391 43bc d5a2 63bd 6de0 9d3d 3dfd 1abc
000003c0: 8224 a6bd 1712 ab3d 4d9f d3bc f377 373b
000003d0: 3405 043e 72c6 a4bc 1c94 86bd 26f5 dbbc
000003e0: d84b bc3d 09b2 d6bd 657a d63d d77d 15bd
000003f0: 4e87 b53d 35b6 c7bd fc90 cc3c 780c a43b
0.011333351 0.114367194 -0.06282959 -0.110172726 -0.044632774 -0.23490246 -0.07540014 -0.07455951
-0.042461812 -0.013616425 0.10534754 -0.022008287 -0.09817537 -0.11857599 -0.07308584 -0.016733613
-0.087695934 -0.10863233 -0.05376537 -0.23892912 0.031943258 -0.048492815 -0.035918802 0.106716104
-0.06680668 -0.030455874 -0.098002836 0.07936378 -0.03971888 0.028060474 0.017844459 -0.1863809
-0.15505755 0.0304797 0.023394825 -0.033061944 0.11116933 -0.0176699 -0.058137998 -0.09189178
0.13336416 0.12636694 -0.107573956 0.021352068 0.03686958 0.02987362 0.088065594 0.058971085
0.1258742 -0.20925562 -0.015466782 0.0883273 0.098796695 -0.074908756 -0.18245323 -0.10866976
-0.012417355 -0.06924823 -0.06523437 0.04611442 -0.32523605 0.1236176 -0.062463854 -0.136847
-0.18368042 -0.075317636 0.02252843 0.10489235 -0.045343745 0.087735005 -0.006121574 0.009388166
0.07912188 -0.061406754 -0.059973523 -0.11666239 -0.083143584 0.034734998 0.042969573 0.0818771
-0.08846213 0.016403837 -0.06598005 -0.11695706 0.13572897 0.005355078 -0.116759226 0.07237147
0.09822749 0.029080272 -0.042542487 -0.19848633 -0.1445531 -0.13825567 0.027703295 -0.059110872
-0.10343887 -0.0011522792 0.042507075 0.05361102 0.026229871 0.114358015 -0.0120527735 0.016045755
-0.16361435 0.103733584 -0.02950843 0.09516959 -0.12947138 0.07674001 0.048459236 -0.060747117
-0.024583416 -0.059893508 -0.08227064 -0.089970395 0.006286019 0.07276522 -0.09340098 -0.15937072
-0.06457438 -0.0032390757 0.11963044 -0.047777504 0.07183287 -0.03593021 0.05321566 0.06109574
-0.133246 0.10399104 0.033899106 0.0270699 -0.13022049 -0.080295675 -0.028232543 -0.09532696
-0.092113435 -0.101579666 0.049224332 -0.027580155 -0.12999976 -0.016482744 0.022023141 0.11323083
-0.08563688 -0.11463837 -0.038237434 0.029066944 -0.08097694 -0.042517662 0.080077514 -0.1250086
-0.06642044 0.059039354 -0.11150078 -0.06447785 -0.035858594 0.027313653 0.012543102 0.036302637
-0.097192 0.07860735 0.012347082 -0.027533332 0.046171147 -0.102869324 -0.026534323 0.04522735
-0.11612664 -0.056170244 0.09977393 -0.008786426 0.105780944 -0.024580522 0.077306256 -0.12698178
0.07164413 -0.11871792 -0.050252635 -0.059024636 0.061877888 0.0021353145 -0.1380149 0.086781934
-0.11039796 0.050712537 0.0404361 0.104331374 -0.07851651 0.07836935 0.098763436 0.095197245
0.036561202 -0.07944054 0.0025440538 0.048685364 -0.063906804 0.08354291 0.11139173 0.061360907
0.11794268 -0.089398965 -0.021192802 0.072029345 0.05490048 -0.08619896 0.001557792 -0.09944541
0.14598428 0.066667184 -0.009404337 -0.0042697955 -0.024708 -0.09692826 0.019103942 -0.061119184
0.017815389 -0.06136655 -0.005456134 -0.037735235 0.12491178 -0.12303405 0.012602879 -0.0203936
0.1189808 0.05039805 -0.1262805 -0.0062227505 0.024009421 0.080615275 0.07633129 0.02707515
-0.07952027 0.03960711 -0.0023992145 0.018485032 -0.011936548 -0.05557521 0.077088214 -0.009459791
-0.08112432 0.0835306 -0.025832796 0.002799508 0.1289261 -0.020114157 -0.06571218 -0.026850294
0.091941535 -0.10483176 0.10472564 -0.036496963 0.08863698 -0.0975155 0.024971478 0.005006369

encoder.layers.1.nn.net.0.bias f4 [64]
00000000: b051 ec3d ece2 e43d 71bc 14bd 940f fdbd
00000010: 9d84 033e d40b a93d e88b 933d 1449 b73d
00000020: bea1 013e a387 37bd a194 a53d 21f1 d6bc
00000030: eba4 c73d b7e2 e03d 206a 053e 61fc c9bd
00000040: 7e26 533e 44c9 8f3d b55c e23d 6b7c 7bbd
00000050: 97d5 9cbd 0c13 6bbd d09b 9b3c 0f66 a3bc
00000060: 4c31 51bd d9ac b33c 2ff4 9d3c 63c0 aa3d
00000070: d7e1 bdbd df29 84bd 8fb9 9fbd a086 833d
00000080: 98ea 3cbc 9ce1 913d 199e 26bb 1043 eabd
00000090: 2ade 023e 33c6 bf3d 6b13 54bd 2495 033d
000000a0: 6338 393d 65ab 78bd 3168 0f3e fb80 683d
000000b0: d36f d03d 8ce6 303b 56d2 863d 4908 653d
000000c0: 9e28 efbb 951e fe3d e68f 6bbc ec1d d53c
000000d0: 4f23 cdbd 1abc f7bd 6df8 adbd 0333 77bc
000000e0: 12f3 b93d 66eb b53d ef76 f7bc b679 9e3d
000000f0: fe0f 353d 9491 f93d 3b35 d43d b477 be3d
0.11539018 0.111760944 -0.036312524 -0.12356487 0.12843557 0.08254209 0.072044194 0.089494854
0.12659356 -0.044807088 0.08084989 -0.026238026 0.097482525 0.109807424 0.13028765 -0.098625906
0.20620152 0.0702081 0.11052839 -0.06139795 -0.076579265 -0.05739121 0.018995196 -0.019946126
-0.051072404 0.021933006 0.019281475 0.08337476 -0.09271591 -0.06453299 -0.07799064 0.06422162
-0.011530541 0.0712311 -0.0025423823 -0.114385724 0.12780061 0.093639754 -0.05177633 0.032124653
0.04521979 -0.06071033 0.1400459 0.05676363 0.10177579 0.0026992885 0.06583087 0.055916104
-0.007298543 0.12408177 -0.01437757 0.026015244 -0.100165 -0.120964244 -0.08494649 -0.015087846
0.09079565 0.08882789 -0.03020808 0.07738058 0.044204704 0.1218597 0.103617154 0.09300175

encoder.layers.1.nn.net.2.weight f4 [64, 64]
00000000: 858b bebd 72fc 5b3c 4b09 dabd e203 10be
00000010: c9fd 003e 2228 dabd ff1b 1d3d 3d13 103e
00000020: 3562 b23d 90ba a4bd b055 7fbc b117 5bbb
00000030: 4582 bfbc 74f5 d0bc 03d6 61bc 8ffe f53d
00000040: d89b 8dbd bc71 f03c 3260 b13d bc27 be3d
00000050: 2b6e 083e 1529 2bbd aa81 463d 00d9 b33d
00000060: cbee febc 1010 ecbc 4a46 133e 7311 c6bd
00000070: f757 29bd 46c2 4a3d 007b 003d 6bc2 8e3c
00000080: 708b 42bc ac74 4abc 6adc c7bd 6537 53bd
00000090: c611 9e3d 0cc9 d0bd 5083 b13c 68e3 8cbd
000000a0: 9c4c af3d 873e 93bc 605c 0abe 36b7 1b3d
000000b0: f079 0b3e 8393 d0bb 0045 d2bd ee9a 7d3d
000000c0: e698 80bd 94f7 a8bc c289 e5bd 76c1 f63d
000000d0: 8a22 70bc 969e b43d 7a30 143d c9fa f5bc
000000e0: 1e6b 203d d78e 323d 07ee 323d 1934 e2bd
000000f0: 4000 d03c b76b f53d 99b9 d4bd 4207 813d
00000100: c316 5cbc adce 0f3e a365 e4bd 25f6 853d
00000110: 5eab d7bd 2644 f63d e485 f2bd 9973 1fbd
00000120: fb0a ae3d b3a1 de3a d3fa ae3d 02ca 283d
00000130: c68f 0f3e a4dc bfbd ca5d 7bbb 0ab1 1fbd
00000140: a008 d13d 22ed c8bc 8dce f93d e72a d0bd
00000150: b728 b23a 5662 d9bd 1fbf c83d 980f cabd
00000160: 3752 c13d ef8b 70bd 173c 6bbd ec90 dfbd
00000170: 47da af3d 7f81 863d 5952 073e 10e0 00be
00000180: 0c0b 6dbd 4c39 9ebb b93f bf3d 1754 093c
00000190: f770 933d 1462 99bc c703 9dbd 1c1d fe3c
000001a0: 077a 90bd fc1e a73c 04f3 2dbd 2a63 7c3d
000001b0: a656 dabc 0d74 1c3d 35d8 bfbd d973 b7bd
000001c0: f3e9 23bc 1c3b 803d 1605 1bbb e0ec 7b3c
000001d0: 8df2 43bd b552 9ebd 3f94 ce3c 5848 513d
000001e0: d070 a23d 9549 f7bc b4fb 0dbd 03d9 f2bc
000001f0: e72d b5bd a054 d1bd 69b8 aabb 6367 34bd
00000200: 83a0 d43d 007d 81bd c3cd 51bd ddaa 823d
00000210: 66a6 853d 723e 6d3d 99d9 7ebd cdbf e4bd
00000220: f110 9c3d dc64 943c 7fd3 e53c 9033 8b3d
00000230: 6d3c 363c ee4b 6a3a 313b cc3c 4209 153d
00000240: 60f5 6d3d e86c c8bd 813a 9c3d 4221 fe3c
00000250: 496e 1ebd ec3c ecbd f96b 0f3c 7890 f03d
00000260: 75ed 48bc 36f6 e83d 1c5b 16be dfda bf3d
00000270: 57f0 51bd 2d94 16be 287c 063d df55 933d
00000280: d52f 5a3c 44a1 53bd a2f8 10be bcc1 bebd
00000290: 0a0c a23d d61a 00be bea6 a8bd 2020 8e3d
000002a0: 81d1 c33d 6763 6e3d 1791 9bbd 93c6 d8bc
000002b0: 741c f23d 77da 5dbd b02e 0dbd d119 eb3d
000002c0: 083f d2bd 1aec 4d3d 60f4 38bd 8653 dabd
000002d0: a7fd 1e3d fe35 a7bd a3fa e23d 5299 e8bc
000002e0: e984 113d 33dd 23be 5108 823c 180a 7f3d
000002f0: a1d9 98bd 7056 b83d 1e68 c7bd 29c9 bdbc
00000300: c992 a1bd 93fb 773d da68 dbba 6eac d5bd
00000310: 1c3c fb3d 2e59 de3d c4d1 e5bc 93ef 9b3d
00000320: 44a3 adbd 4c66 bdbd 7724 60bd 781d e03c
00000330: f42c e63c f8d3 453d 966f 62bd 31d8 7bbd
00000340: 8917 47bd 17c2 b0bd 2ac8 b9bd 50ff e13d
00000350: d5d4 053d 0002 aabd 5a8f b6bd 9ef0 b0bb
00000360: 2770 253e 7cf5 403d a58f 713c 178e 30bd
00000370: 443f f4bb d6e8 473d 4881 b3bd 476d 22bd
00000380: 3cd1 09be 0146 60bd b133 fdbc a056 a83d
00000390: 58c8 603c dd65 d63d b9bc aa3d ff73 d63d
000003a0: 4472 dcbd 2c06 86bd eace 56bd 905a 203d
000003b0: 476f f53d 6b68 c43d 1d2e 923d 55b4 ea3d
000003c0: 88f5 c1bc 3288 003d ade0 a43d 69f7 0dbd
000003d0: 57d4 c73d bd0e 24be 4444 d33d 3a55 98bc
000003e0: 456f a9bd b923 88bd 7d67 c6bd 063c 8b3c
000003f0: 4962 b7bd 4f54 353d 8026 f7bd 398d 94bd
-0.09303955 0.013426887 -0.10646304 -0.14063981 0.12596811 -0.10652186 0.038356777 0.14069839
0.08710138 -0.080433965 -0.015584394 -0.003343087 -0.023377547 -0.025507666 -0.0137839345 0.12011444
-0.069144905 0.029351108 0.08660926 0.092849225 0.13323276 -0.041787226 0.0484635 0.08781624
-0.031119725 -0.028816253 0.14382282 -0.09671297 -0.041343655 0.04950168 0.031367302 0.01742669
-0.011874065 -0.012356918 -0.097588375 -0.0515665 0.07718234 -0.10194597 0.02166906 -0.06879312
0.08559534 -0.017974151 -0.13511801 0.03801652 0.13620734 -0.006365241 -0.10267067 0.06191533
-0.06279163 -0.020625867 -0.11207916 0.120486185 -0.014656672 0.0881931 0.036179043 -0.03002681
0.039164655 0.043593254 0.04368403 -0.11045093 0.025390744 0.119834356 -0.103869624 0.063002124
-0.013433161 0.14043684 -0.11152198 0.06541089 -0.105307326 0.12024717 -0.11841944 -0.038928602
0.08498188 0.0016985446 0.08543935 0.041208275 0.14019689 -0.09368256 -0.0038355463 -0.038987197
0.10206723 -0.024527136 0.121975996 -0.10164433 0.0013592456 -0.10614459 0.098020785 -0.098662555
0.09439509 -0.0587272 -0.057430353 -0.109163135 0.08586555 0.06567668 0.13215007 -0.12585473
-0.057871863 -0.0048286077 0.09338326 0.008381865 0.07199281 -0.018723525 -0.07666736 0.03101974
-0.07054525 0.020400517 -0.042468086 0.061618008 -0.026652645 0.038196612 -0.0936741 -0.08957643
-0.010004508 0.06261274 -0.0023654155 0.0153763 -0.047838736 -0.07730619 0.025217174 0.051094383
0.079316735 -0.030186454 -0.03466387 -0.029644495 -0.08846646 -0.10221219 -0.0052099717 -0.04404391
0.10382178 -0.0632267 -0.05122162 0.06380246 0.065258786 0.05792088 -0.062219236 -0.111693956
0.07620419 0.0181145 0.02805495 0.06796944 0.011122805 0.0008937706 0.024930568 0.036385782
0.058095336 -0.09786397 0.07628346 0.031021718 -0.038679395 -0.115350574 0.00875377 0.11746305
-0.012263645 0.11375086 -0.14683193 0.09367918 -0.051254597 -0.14704962 0.03283325 0.07194113
0.013317068 -0.051667467 -0.14157346 -0.09314296 0.079124525 -0.12510237 -0.082349285 0.06939721
0.09561444 0.058200266 -0.07596033 -0.026461875 0.11821833 -0.054163422 -0.034468353 0.114795335
-0.102659285 0.050273992 -0.04515493 -0.10660462 0.03881612 -0.08164595 0.110829614 -0.028393421
0.035527144 -0.1600235 0.015873106 0.062265486 -0.074633844 0.09000862 -0.09736656 -0.02316721
-0.07889325 0.060542654 -0.0016739622 -0.10433279 0.12267324 0.108568534 -0.028054126 0.076140545
-0.08478406 -0.09248027 -0.054722276 0.027357802 0.028097607 0.048297852 -0.055282198 -0.061485473
-0.04860643 -0.0863077 -0.090713814 0.11035025 0.032673676 -0.08301163 -0.08914061 -0.0053997776
0.16156064 0.047109112 0.01474372 -0.043104257 -0.007453831 0.048806034 -0.08764893 -0.039654996
-0.13458723 -0.05475426 -0.030908437 0.082196474 0.013719641 0.10468648 0.08336777 0.10471343
-0.10763982 -0.06544146 -0.052443422 0.039148867 0.11984115 0.09590229 0.07137702 0.11460177
-0.023676649 0.031379886 0.08050666 -0.034659777 0.097572975 -0.16021247 0.10315755 -0.018595327
-0.08273176 -0.066474386 -0.096877076 0.016996395 -0.08954293 0.044269856 -0.1206789 -0.072534986

encoder.layers.1.nn.net.2.bias f4 [64]
00000000: 2062 a6bd 88c0 213c 6f3d 6b3b 28c0 c33d
00000010: 5eec 423d 4208 ca3d 84f1 03bd f723 4bbd
00000020: ff73 f7bb f386 8d3c c071 f2bc dde7 c73d
00000030: d705 c4bd bb31 413d 62bc 46bd 4f6a f73d
00000040: 8270 b7bd ffa6 95bc 0564 1a3d 71c1 843d
00000050: ccce 9e3d 391d e8bd 75ff e6bd 8d19 0bbd
00000060: abda 833d 502f cb3d ed31 023e 948c bd3d
00000070: 7882 dd3d 803d fd3c 69a9 7a3c 0463 fbbd
00000080: 8fbd 44bc e855 1c3c 6f46 f93b 9349 ea3c
00000090: 13f1 42bd 21d5 b4bd cb05 cd3d 433e 993d
000000a0: 9b8d f7bb a2ac a73d 2953 99bd a8bc 873b
000000b0: 97e7 ed3b 563a 20bd 4b5c 6b3d ff5c abbd
000000c0: b89e 303d 2c36 d53d 2025 93bd 7d8b 723d
000000d0: 527e ab3c fe72 afbd 7f78 f9bd c5f8 b13d
000000e0: c5df d7bd 15bc f8bc 8286 f63c 441a 543d
000000f0: 65ff dd3d 7f0b 773d 1166 bfbc 81bf 3abd
-0.081241846 0.009872563 0.0035894772 0.09558135 0.0475887 0.09864856 -0.03221275 -0.049594846
-0.0075516696 0.017276263 -0.029595256 0.09761021 -0.09571426 0.047166567 -0.0485195 0.12080824
-0.08957006 -0.018268107 0.037693042 0.064822085 0.07754287 -0.11333699 -0.11279193 -0.033959914
0.06438192 0.099211335 0.12714358 0.09255329 0.108159006 0.030913115 0.01529918 -0.12274745
-0.012008085 0.009541966 0.0076072733 0.028599536 -0.047593188 -0.088297136 0.100108705 0.074825786
-0.0075547225 0.08187224 -0.07486565 0.0041423626 0.0072602737 -0.039118133 0.057461064 -0.08367347
0.043120116 0.10410723 -0.071848154 0.059215058 0.020934258 -0.08566855 -0.12181186 0.08690027
-0.105407275 -0.030363122 0.030093435 0.05178286 0.10839728 0.060313698 -0.023364099 -0.04559279

encoder.layers.2.nn.net.0.weight f4 [64, 64]
00000000: eaf7 54bc 5678 a1bc 0f99 023d 4147 c63d
00000010: 4d1a 11be 06fc 06bc c442 493d 789e bcbd
00000020: 2eb7 903d d27c 003e 7d26 cb3c cce5 b4bd
00000030: 5108 383d c2f7 18bd 0076 c6bd cd0f ae3c
00000040: 1bec 62bd 2033 66bd b7af 65bd 31b4 dfbc
00000050: 60ca fa3d fbc2 633d 2e26 a43d ab60 fdbd
00000060: 68f7 803d f939 ca3d 6260 e43d 6d21 b63d
00000070: ab73 6b3d e6f0 06be 0b6b 153d 0a30 4b3d
00000080: 3fe4 21bd 98f9 0abd 05b7 1d3d 37ef 51bd
00000090: a8bc 813d f629 03be 4463 503d f400 bbbd
000000a0: 0efa bfbd f286 cc3d a7ef 493c 8e3d 63bd
000000b0: 9600 a53d 9007 a23d 988c 99bd 9efa 5a3d
000000c0: fac9 18bd a5f6 a2bd fb13 9ebd e57e d43d
000000d0: c03c 8d3d 3314 b23d 0c96 d2bd 7e40 603d
000000e0: 5a39 52bd 7b8f 0fbc dd6b 463d b6a8 9d3d
000000f0: 73de a73d 9004 153e 521c 0e3c 82cc 70bc
00000100: 0fc7 95bd 10c6 4e3d 1232 a33c 45ac c23c
00000110: 18ae e53d bf63 9d3c aaad 79bc 32d0 2abd
00000120: 7fbc 37bd efa4 b43d 46ce e53d 0f1f 98bd
00000130: e1f2 413d ddd8 b1bc 27b9 7d3b 748a c9bd
00000140: f9e1 9fbd ae96 843d b9b1 5bbd accf be3d
00000150: cdd9 f7bd bef7 bf3c 2483 9b3d 9f54 e2bd
00000160: f309 b23d c0e6 963d 6b73 693c fedf c9bd
00000170: 22a0 bf3c e024 5b3c 6e5c e2bd 0f11 a63d
00000180: 9212 973d aae9 83bd 3b03 94bc c8d8 38bd
00000190: e1b5 9fbd 02fc 183d 7809 0fbb decc 8fbd
000001a0: db15 2bbd f7e3 9a3d a1f0 5a3d 3d5c 973a
000001b0: ef36 d53d 24c0 53bb 4e11 18ba 40fc d13d
000001c0: 079d 88bd e168 e3bd e5f0 67bd c1f9 a03d
000001d0: 4e6a bbbd d0b0 443c e828 4a3d fd22 0d3d
000001e0: 80de 29bd cce6 0d3d 37fd 5dbd 8992 59bc
000001f0: 9364 d43d 8fd9 38bd c1c6 f03d 33c8 763d
00000200: 9538 b5bd ba96 9ebc afdd ecbc f2a8 d43c
00000210: 6c70 a83d c461 cd3d 3faa 0ebe 2405 9f3d
00000220: 89a4 a33c 9256 d03d f8bf 0abe 4294 cebd
00000230: 01c8 253d 948a 22be 84c9 46bd fc78 453d
00000240: bfc4 c2bc b4f2 033e 3e2a c3bd 6679 bbbd
00000250: 0d06 3cbd 4ad1 55bc d70b e93c dfb3 84bd
00000260: ff6d 59bd 5be7 f5bc c9e9 b9bd cd14 18be
00000270: c444 31be 6307 df3d add4 763d 4a48 c8bd
00000280: b060 8c3c 8008 c43c 12b2 003e db26 b9bd
00000290: 998b 833c 2aef 7cbb bc93 d1bd cba6 1abe
000002a0: b0d3 1bbe feed eabd 96f5 02be 53a0 78be
000002b0: 0754 58bd 5867 9039 b0bf 66be 3f54 743d
000002c0: 83d7 e63c d3e6 0fbe fe40 eabc 22fa 1f3c
000002d0: 5f0a 043e 59ad 59bd 4348 39bd ceb3 01be
000002e0: 53c7 ea3c e6e7 fdbd e656 6dbc c890 e8bd
000002f0: aca0 25be 0dbb d7bd cb52 1d3b f6e9 8a3d
00000300: e94d 90bd fb13 713c b56f 5b3d c74f e8bd
00000310: 6878 74bd 0c09 883d 1ffb 113e ac75 0a3c
00000320: 1407 21bd 5c01 003e 026e dd3d 55fc b23d
00000330: bf96 adbd b437 883d 3cc2 923b 1296 963d
00000340: 4593 c93d 6cc9 693c ef35 5a3d 47b4 923d
00000350: 35e7 ebbd 19e4 e03d 3508 b93b c390 b3bd
00000360: 1aa0 8d3a c522 723d 15ce 51bd 7f03 363c
00000370: a9fd 163d ed2d 893d b2d4 0a3e 6367 403d
00000380: a53f acbd 1816 a0bd 3ca0 08bd 05fd 053e
00000390: e9a0 a0bb 1fe1 9d3d 22ee 61bd 446c 18bc
000003a0: 83a9 403c a3eb 963b 21ad 66bd 1196 7b3d
000003b0: e9ee 7ebd cd59 38bd 86af 62bd 8cbd 5fbd
000003c0: 69a4 a53d 6ceb ee3d a4ce 093d adab f2bd
000003d0: 262c 8bbd fbaf 493d 725a c8bd 7aa8 c7bd
000003e0: 1a49 4cbc a3c7 45bd 4d41 cfbc 5b61 313d
000003f0: f64c c3bd 3105 923d 1d0d d33c 2e31 823b
-0.01299856 -0.019710701 0.03188425 0.09681559 -0.14170189 -0.008238798 0.04913594 -0.09209913
0.07066189 0.12547615 0.024798626 -0.08832893 0.044929806 -0.037345655 -0.096904755 0.021247769
-0.05540095 -0.0562011 -0.056075778 -0.027307602 0.12245631 0.05560587 0.08015095 -0.123719536
0.06297189 0.09874339 0.11151196 0.08893094 0.057483356 -0.13177833 0.036479037 0.04960636
-0.039524313 -0.033929437 0.03850462 -0.051253524 0.063348114 -0.12808976 0.050875917 -0.09131041
-0.09373866 0.09986676 0.012325204 -0.055478625 0.080567524 0.07911599 -0.07497519 0.053461663
-0.037301995 -0.079572 -0.07718655 0.10375766 0.06896353 0.08695259 -0.102825254 0.054749005
-0.051324226 -0.008762236 0.04844271 0.07698195 0.08196726 0.14552522 0.008673744 -0.014697196
-0.07313358 0.050481856 0.019921336 0.023763785 0.112148464 0.019212602 -0.015239159 -0.041702457
-0.0448575 0.08820521 0.11220984 -0.07427799 0.047350768 -0.021709854 0.0038715096 -0.09840861
-0.07806773 0.06474052 -0.053636286 0.09316954 -0.12102089 0.023433562 0.075933725 -0.110512964
0.08693304 0.07368231 0.014248709 -0.09857176 0.023391787 0.013375491 -0.11052786 0.081087224
0.07376589 -0.06441052 -0.018067947 -0.045128614 -0.077983625 0.03734971 -0.0021825712 -0.07021497
-0.04176889 0.07563012 0.053452138 0.0011547875 0.104108684 -0.003231057 -0.00058009184 0.10253191
-0.066705756 -0.111039884 -0.05662622 0.07860137 -0.091511354 0.012005046 0.049355417 0.034457196
-0.04147196 0.034643933 -0.054196563 -0.013279566 0.103707455 -0.045129355 0.11756659 0.06024952
-0.08848683 -0.019358981 -0.0289143 0.025959466 0.08224568 0.10028413 -0.13932131 0.07764652
0.019975917 0.10172762 -0.13549793 -0.10086872 0.04047394 -0.15873176 -0.048532024 0.048211083
-0.023775456 0.12885553 -0.095295414 -0.09154014 -0.045904208 -0.013050387 0.028448028 -0.0647962
-0.053083416 -0.030017545 -0.09077794 -0.14851685 -0.17311388 0.10890081 0.060261417 -0.09779413
0.017135948 0.023929834 0.12567928 -0.09040614 0.016057776 -0.0038594701 -0.10233256 -0.15102689
-0.15217471 -0.11471175 -0.12788996 -0.24279909 -0.05281451 0.00027542817 -0.2253406 0.059650656
0.028178936 -0.14052896 -0.028595444 0.009764226 0.12894581 -0.053143833 -0.04523493 -0.12666246
0.028659498 -0.12397747 -0.01448605 -0.1135574 -0.16174573 -0.10533724 0.0024005647 0.06782906
-0.0704611 0.014714236 0.05357333 -0.11343341 -0.05968514 0.066423506 0.14255951 0.008450907
-0.03931339 0.12500519 0.10811998 0.08739535 -0.08476018 0.066512495 0.004478721 0.073528424
0.098425426 0.014269214 0.05327409 0.071632914 -0.115187086 0.10981006 0.0056467303 -0.087678455
0.001080516 0.05911519 -0.051221926 0.011109232 0.036863003 0.06698213 0.135577 0.046973597
-0.08410577 -0.07816714 -0.033355936 0.130848 -0.0049019945 0.07708954 -0.05515874 -0.009303156
0.011759165 0.004605727 -0.056317452 0.06142241 -0.06223956 -0.045007516 -0.055343173 -0.054624125
0.080879994 0.11665997 0.033644333 -0.11849151 -0.0679553 0.049240094 -0.09782876 -0.09748931
-0.012468601 -0.04828609 -0.025299693 0.043305736 -0.095361635 0.071298964 0.025763089 0.003973148

encoder.layers.2.nn.net.0.bias f4 [64]
00000000: d697 f63c e337 49bd 6c79 943d 8e30 e13c
00000010: 7bb4 913c 9701 e63b ab6f 98bd f43e 10bd
00000020: 4570 c1bd d93d debd bc30 ebbc 0fbc ea3d
00000030: 3e2d 21bc 73ab 6cbd 96f8 4d3d 26de 9dbd
00000040: 39a3 033c fe75 a4bd 5dc6 49bd efe6 afba
00000050: b1bc 92bd 16ec ffba 1da2 53bc be34 12be
00000060: 8cba c6bd 86c6 433d f63c ca3c 14e9 913d
00000070: 336f b53d 6be0 fb3d 33e1 34bc aa2d 443d
00000080: 9954 c73d 35e8 86bd cd56 c1bb 2241 c1bd
00000090: 27eb f83d ebdc 94bd a1cc 49bd f120 0bbd
000000a0: 0310 8dbd e37e 323d 4601 80bd 7ed4 6d3d
000000b0: e436 6c3d 2b11 f73d fe0c 9abc 3165 bb3d
000000c0: ee50 5f3d 83e1 02bb b371 b23d 9b50 843d
000000d0: 6e88 7ebc 4e95 26bb 6a62 ef3d 656b a43c
000000e0: c782 c03d 968e e33b b598 18bc ee62 a83d
000000f0: 2bdc 6f3d 0ac3 c13d 7fbf d83c 72e6 95ba
0.030101698 -0.049125563 0.07249722 0.027488973 0.017786255 0.0070192325 -0.07443174 -0.035216287
-0.09445242 -0.1085164 -0.028709762 0.114616506 -0.009837447 -0.057780694 0.0502859 -0.07708387
0.008034521 -0.08030318 -0.04926144 -0.0013420264 -0.07164896 -0.0019525315 -0.012917069 -0.14277932
-0.0970355 0.04779675 0.024687272 0.07124534 0.088591 0.12298664 -0.01104002 0.04789511
0.097329326 -0.06587259 -0.00590024 -0.09436251 0.12154227 -0.07268699 -0.049267415 -0.033966962
-0.068878196 0.04357804 -0.06250243 0.058063976 0.057669535 0.120638214 -0.018805023 0.0915016
0.05452054 -0.0019970841 0.08713093 0.06460687 -0.015535457 -0.0025418582 0.11688693 0.020070741
0.09399944 0.006944488 -0.009313752 0.08221994 0.058559578 0.09461029 0.0264585 -0.0011436476

encoder.layers.2.nn.net.2.weight f4 [64, 64]
00000000: 1571 9fbd 8edf bcbd 25fd e8bd 86a0 5b3b
00000010: e35e e4bc 16c7 7bbc 5dbb d5bd aa30 6f3d
00000020: 3240 b9bd 10e9 8bbc 54d9 8a3d 443b 82bd
00000030: 333f 99bd 4a48 c0bd 1834 603d 5f16 f3bd
00000040: 7fa1 c5bd 4dd4 efbd 4027 b73d e2ef 0e3d
00000050: 153b 41bc 1db0 d43d 113c d63d e30f 40bd
00000060: 880a 463d f436 6abd 0c0e 38be ed73 d73d
00000070: 0766 47bc 0056 c5bd 83b6 dbbd 2fdd e4bd
00000080: cabc 0a3e 553f b7bd dacb 843d b9d4 ed3d
00000090: 83bf 8ebd b7df a2bd 2082 043e 41da 91bd
000000a0: a5c6 fc3d 0308 e03c 59da 5a3d 1764 cc3d
000000b0: 1b61 a8bd bd46 df3d 5920 233d e0cb bcbd
000000c0: 79c0 bd3d 8c4c 923d d9d5 9c3d 6d5c e23d
000000d0: 7efe d0bc b3eb b5bd a92a 993d 141d 873d
000000e0: 5860 66bd 6b6e 18bd ad1a bc3c e757 8c3d
000000f0: f19b ebbd bf95 b93d d618 77bc f379 b73c
00000100: c85a 05bd a02c 5ebb a332 2dbd 1a63 9dbd
00000110: 09c6 e2bd 3556 f93d 3359 fc3c 4fa1 613d
00000120: 693c d3bd 125b 463d 1163 c53d 5e30 88bd
00000130: 1d3f 39bd 41a5 af3c 92d4 6c3d 6fa0 6ebd
00000140: 2d03 a1bd 09a9 0e3e 5254 cbbd c6e0 e3bd
00000150: bc49 dbbd 1fe9 383d d9cb 7cbd 90f2 053d
00000160: a57b f9bc f0ba 003d aa89 a33d e6c2 9f3c
00000170: b7b2 983d c7a8 8dbd 6ae2 893d fc51 4cbc
00000180: 8133 343d 8085 e33d 0c0f 4dbd 3d4c 9abc
00000190: c9be b0bd db1e 89bd 55da c53d 0e6d ae3c
000001a0: 559f 08bd 6a65 0fbd d215 9dbd 0fe7 8a3d
000001b0: 8150 3e3c 9939 753d b787 98bd c08d bbbb
000001c0: 318f 553d 865c c2bd 187e 9cbd 0a85 cc3d
000001d0: 13db b9bd 2679 df3d e416 893c a507 22bd
000001e0: d20a c6bd f8c3 05be ec3c 9fbc fb95 3cbe
000001f0: 9fbf c83d 1416 98bd 2274 ae3d 799c 14bc
00000200: 1b93 843d 824d 8fbd a78d d33d c1f9 27bb
00000210: c6be 47bc 040a 04bd 2e77 56bd cc14 bfbd
00000220: d8a3 e03d 052e 303b a243 183d e309 ecbc
00000230: 8ac5 353d 0046 58bd 73df 9dbd 4a50 6a3b
00000240: 73a0 01bd 139b 4cbd 462e 42bd e312 8a3d
00000250: 64f1 a7bc 5f35 cb3c 6420 403d 6fcc acbb
00000260: d7c5 183d 8be7 b43d 105a 6abd 13da 073d
00000270: bed2 953d 0841 3f3d 1e34 1f3d 5c94 e63d
00000280: e334 363d 3661 413b 6ec4 04be 21ff 7cbd
00000290: 7659 543d 3761 30bd 1b05 c0bc 66d2 dabc
000002a0: ae5e 2bbd 911d 913d c020 ed3d e708 99bb
000002b0: 38fd 133c 32a8 97bd 9896 193e 1367 fe3d
000002c0: f44c e83d f8ce a8bd 63ad 733c 31e8 feba
000002d0: 2d42 ecbd 34fd c5bd 0077 363a 1258 243d
000002e0: d3a9 1d3d e6a8 253e 082c ba3d 2510 643d
000002f0: 2a3c f4bd d78f bc3c 445e 8cbd 72e4 fabd
00000300: fe80 27bd 371d 9a3c b0f6 40b9 0abe 9a3d
00000310: ac3e f8bd 52f2 fcbd a24e 58bd 412a e3bd
00000320: 000c 163e d7ec 05bc 3874 49bd 3e2e 003e
00000330: f9cb aa3d 56c0 33bd dd0e 6c3d 4e66 8a3d
00000340: 9dcc 513d fbe0 95bd 7e9c 26be dea2 003d
00000350: cbac b6bc 7e33 0bba a4d0 4abc 2c22 9a3d
00000360: fc70 4c3d b342 fa3d 3427 cfbc 5ee9 d03d
00000370: d1e4 84bd d160 c63d f7e9 a2bd 1e3f eb3d
00000380: 6f78 2dbe 50fa 7d3d 332d e43d f2f7 b83d
00000390: 0ace 983d 9564 f4bc a00f 0e3e 8fce 0d3c
000003a0: 96c4 203d 2f6f a5bd a68b e5bc 623b 8f3d
000003b0: d253 81bd 9410 b3bd 1457 f73d ef5b 523c
000003c0: 3934 043e b72c fa3d 3203 dbbc d5ef 363d
000003d0: 2ace 3abd 6549 89bd f3b6 503d 863f 563d
000003e0: d85b 9c3d fd5e 47bd b1c7 10bd 4b90 b5bd
000003f0: 6fd6 cbbd 50ac 0a3e 5aad f1bd 0f33 94bd
-0.077852406 -0.09222327 -0.113764085 0.0033512427 -0.027877277 -0.01536729 -0.10436127 0.05839602
-0.090454474 -0.017078906 0.06779733 -0.0635896 -0.074827574 -0.09388788 0.05473718 -0.11869501
-0.096499436 -0.11710415 0.08943033 0.03489674 -0.011793871 0.103851534 0.104606755 -0.04689015
0.048349887 -0.057181314 -0.17974108 0.10520158 -0.012170321 -0.09635544 -0.10728171 -0.11175
0.1354858 -0.089476265 0.06484194 0.11612839 -0.06970122 -0.079528265 0.12940264 -0.07121707
0.12342576 0.02734757 0.05343089 0.09980028 -0.082216464 0.10902164 0.03982577 -0.092185736
0.09265227 0.071435064 0.07657976 0.11052785 -0.025511976 -0.08882847 0.0747884 0.06597343
-0.056244224 -0.037214678 0.022961939 0.068527035 -0.11504353 0.09061765 -0.015081605 0.022397017
-0.03255728 -0.003390111 -0.04228462 -0.07684918 -0.110729285 0.12174646 0.030804252 0.055085476
-0.10314257 0.048426695 0.09638036 -0.0664985 -0.045226205 0.021441104 0.05781991 -0.05825847
-0.07861934 0.1393167 -0.09928192 -0.111268565 -0.10707423 0.045144197 -0.06171784 0.03270203
-0.030454466 0.031428277 0.07985242 0.019502115 0.07455962 -0.06916957 0.06732638 -0.0124707185
0.04399443 0.111094475 -0.050063178 -0.018835181 -0.086301394 -0.06695338 0.09660784 0.021292236
-0.033355076 -0.035008825 -0.076701775 0.06782352 0.011615873 0.059869383 -0.074477606 -0.005723685
0.05213851 -0.09490304 -0.07641238 0.09986313 -0.09074988 0.10911779 0.016734548 -0.03955807
-0.096700326 -0.13063037 -0.01943823 -0.18416588 0.09802174 -0.07426086 0.08518244 -0.009070509
0.06473371 -0.06997205 0.103297524 -0.0025631043 -0.01219148 -0.032236114 -0.052359752 -0.093301386
0.10968751 0.0026882899 0.037173875 -0.028813308 0.04437784 -0.052801132 -0.07708635 0.0035753422
-0.031647157 -0.049952578 -0.04740741 0.067418836 -0.020500846 0.024805723 0.04690589 -0.005273394
0.03729805 0.08833226 -0.057214797 0.033166956 0.073155865 0.046692878 0.038868062 0.11258766
0.04448403 0.0029507405 -0.12965557 -0.061766747 0.05184313 -0.04306146 -0.023439934 -0.026711654
-0.04183834 0.070857175 0.11578512 -0.0046702507 0.00903254 -0.074051276 0.14998853 0.124220036
0.11342803 -0.08242601 0.014872882 -0.001944786 -0.115360595 -0.09667435 0.00069604814 0.040123053
0.038492035 0.16177711 0.090904295 0.05567946 -0.11925538 0.023017807 -0.06853917 -0.12250604
-0.0408945 0.018812759 -0.00018402445 0.07555778 -0.12121329 -0.123509064 -0.052809365 -0.11092044
0.14653015 -0.008174143 -0.0491831 0.1251764 0.08339686 -0.043884598 0.057631362 0.06757794
0.051220525 -0.07318302 -0.16270635 0.031405322 -0.022299191 -0.0005310102 -0.012378845 0.07526049
0.049912438 0.12219753 -0.025287248 0.10200761 -0.06488956 0.09686435 -0.079547815 0.11486648
-0.16940473 0.062006295 0.111414336 0.09031667 0.07461174 -0.029833117 0.13873148 0.008655204
0.03924998 -0.08077847 -0.028020691 0.06993748 -0.063148156 -0.087433964 0.12077156 0.0128393015
0.12910546 0.1221556 -0.026734922 0.044662315 -0.04560677 -0.06703452 0.050955724 0.052306674
0.07634705 -0.048674572 -0.03534669 -0.08865412 -0.09953009 0.13542295 -0.11800642 -0.07236301

encoder.layers.2.nn.net.2.bias f4 [64]
00000000: 06fe 95bc c8c1 2b3d bf27 8abc 450d e3bd
00000010: 1c93 e63d 21a4 82bd 0844 db3d df54 a5bd
00000020: 6621 48bc 1e3e d23d 31b7 e83d 8df4 14bd
00000030: 426d 32bc 91d8 75bd b38f 53bd 44d5 69bc
00000040: ad27 2ebd 9e2f 82bd 0849 e13c d554 6c3d
00000050: 4021 663d ed29 313c 1bba b7bd 7c16 b73d
00000060: 9595 04be 7da7 e73c f02c e73d ac88 89bc
00000070: 8e50 a53d acbc 92bc 8cf1 b9bd 67dd 25bd
00000080: 16ed c63d 63dc dfbd 85ae 373d a9dc eebd
00000090: 91b0 e03d e708 773c 4531 8d3d 3679 2ebd
000000a0: 188b 1e3d b9be bdbd 67bb 043e df7d a2bd
000000b0: 418f f0bd 485c bc3d 812d 5ebd 639b cdbb
000000c0: c07e b5bd 574f 3cbd e608 2a3d b5ed f0bd
000000d0: f92f b53d 67d6 a3bd fcb0 bcbd c9ca d53d
000000e0: aec9 23bc a23c d9bc 8e08 493d 0e1e dc3d
000000f0: 72d2 efbc 8399 e53c 54e2 573d ff8e 38bd
-0.018309604 0.04193285 -0.016864656 -0.11086515 0.11258528 -0.06378961 0.10706335 -0.080728285
-0.012214994 0.10265754 0.11363066 -0.036366034 -0.010890307 -0.060020987 -0.051650714 -0.014272038
-0.042518307 -0.063567385 0.027500644 0.05769809 0.056184053 0.010813219 -0.08971044 0.089398354
-0.12947686 0.028278107 0.11287868 -0.016788803 0.08072005 -0.017912231 -0.090792745 -0.04049435
0.09713189 -0.10930707 0.04484417 -0.11663181 0.10971177 0.015077806 0.06894163 -0.042596065
0.03870687 -0.09264893 0.12962113 -0.07934164 -0.117460735 0.09197289 -0.054242615 -0.006274627
-0.08862066 -0.045974102 0.041512392 -0.11764089 0.08847041 -0.079998784 -0.092134446 0.10439069
-0.009996815 -0.02651817 0.049080424 0.1074792 -0.029275153 0.028027302 0.052706078 -0.045058247
