scripts/embeddings_gin_version2/IMDB-MULTI/gin_dim128_ep40_lr0.0005_drop0.0/gin_classifier.pt (torch, 626909 bytes, 42 tensors)

encoder.layers.0.nn.net.0.weight f4 [128, 1]
000000 6f 69 1e 3f fc 5b 67 bf d6 22 65 bf e7 e3 e1 3e
       0.6187963 -0.9037473 -0.8950628 0.44119188
000010 6c 61 30 3f 68 96 78 be 1e 3b 57 bf 63 3b ec 3d
       0.68898654 -0.24276125 -0.8407458 0.115347646
000020 b0 d1 4f bf 5f fe 12 3f c2 53 6f bf bc 02 b0 be
       -0.8117933 0.5741939 -0.9348718 -0.34377086
000030 91 48 2f 3f 0a 48 6f bf 50 cd 9e be 74 72 52 3d
       0.684701 -0.934693 -0.31016016 0.051378682
000040 a6 5a 8d 3e 20 bd 5f bd a8 9b 52 bf e8 81 e1 be
       0.27608222 -0.054623723 -0.8226876 -0.44044423
000050 1e 4a 3d bf 34 eb e2 be 1f dc ae 3e 9c dd 38 3f
       -0.7394122 -0.4432007 0.34152314 0.7221315
000060 a8 76 d6 be 20 a5 7c 3e ca a7 2e bf 26 51 76 3e
       -0.41887403 0.24672365 -0.68224776 0.24054393
000070 f0 d4 07 be e0 6f c5 be 1c c8 08 bf 73 98 30 3f
       -0.13264823 -0.38561916 -0.5343034 0.6898262
000080 a6 a8 58 bf ad 63 1b 3f 60 e0 da be 35 8a 25 3f
       -0.8463234 0.6069897 -0.4274931 0.6466401
000090 94 2f 2b bf 3c 9b 31 bf 74 bc 48 bf 90 fd cd be
       -0.66869473 -0.69377494 -0.78412557 -0.40232515
0000a0 8a 7d 40 3e db d8 35 3f d8 5c 1e bf c4 bf c0 be
       0.1879789 0.7103402 -0.6186042 -0.37646306
0000b0 48 37 6d be 68 5c 0d 3f 72 96 cc 3e a5 f3 70 3f
       -0.2316562 0.55219126 0.3995853 0.9412177
0000c0 d7 9b 76 3f 0c 00 ff be 41 a8 00 3f 10 9a 52 bf
       0.9633154 -0.49804723 0.50256735 -0.8226633
0000d0 6a cf 3f bf 78 e0 7f be 84 30 61 3f 37 09 18 3f
       -0.74925864 -0.24987972 0.87964654 0.5938906
0000e0 1d df c3 3e d1 8d 33 3f cb 02 68 3f 9f 60 43 3f
       0.3825616 0.7013827 0.9062926 0.7631931
0000f0 64 d2 1e 3f 64 4b 18 bf 3c f3 cb be 81 be 0c 3f
       0.6203978 -0.59490037 -0.3983401 0.54978186
000100 62 81 4a bf 52 ac 3f bf 76 d7 a9 3d 48 42 5e be
       -0.7910367 -0.74872315 0.08293049 -0.21704972
000110 7b b6 38 3f b8 45 29 bd 64 36 c9 3e 04 eb 1c 3f
       0.72153443 -0.041326255 0.3929931 0.61296105
000120 14 0f a7 3e a8 9d 65 bf 8d f1 c0 3e 98 66 73 3f
       0.3262869 -0.8969369 0.3768429 0.9507842
000130 db 4d 66 3f d0 3c 2d 3f 9c a4 8e be 40 1d ab bc
       0.8996255 0.6767092 -0.27859962 -0.02088797
000140 d0 c6 ac bd 8a f5 39 bf 96 2d e0 3e 76 11 dd 3d
       -0.08436358 -0.7264029 0.4378478 0.10794346
000150 c0 2d 88 be 00 31 25 bf d6 ce 39 3f 91 ea 0c 3f
       -0.26597404 -0.64527893 0.7258123 0.5504542
000160 ec b0 a5 be d4 0a a8 be 0c 99 aa be 71 27 b4 3e
       -0.32361543 -0.3282076 -0.3331989 0.3518634
000170 10 84 a8 bd 56 91 76 bf c5 87 d2 3e b7 b7 e2 3e
       -0.08228314 -0.96315515 0.4111921 0.44280788
000180 04 d0 b5 3e 68 3f d9 be 28 52 08 be 22 c3 a5 3e
       0.35510266 -0.42431188 -0.1331259 0.32375437
000190 08 2f 72 bf fe 6a 7e bf a6 93 28 bf f4 17 7a bf
       -0.94603014 -0.9938201 -0.65850294 -0.976928
0001a0 e2 46 77 3f 40 47 46 3f 3d 7b 11 3e b1 83 6a bc
       0.96592534 0.7745247 0.14207168 -0.014313624
0001b0 a6 ce 1d bf 80 1e c2 bd b8 a7 5f bf 14 5b 16 3f
       -0.61643445 -0.09478474 -0.87365294 0.58732724
0001c0 00 20 d5 3b 76 35 52 bf 46 6b 5d 3f ec 3e 60 3e
       0.006504059 -0.82112825 0.8649181 0.21899003
0001d0 aa 12 b3 3d 8e d7 40 bf 7e 02 76 bf 8a 63 48 bf
       0.08743794 -0.7532891 -0.9609755 -0.78276885
0001e0 28 72 c5 be cc 05 79 bf 16 1b 44 bf dc 91 db be
       -0.38563657 -0.9727447 -0.7660383 -0.4288472
0001f0 40 60 28 bf 60 3d 15 be 9d c0 5a 3d b6 6c 3f bf
       -0.65771866 -0.14574194 0.053406347 -0.74775255

encoder.layers.0.nn.net.0.bias f4 [128]
000000 54 5f c7 3e 30 3a 77 3f 0c 0a 4f bf 17 5e 67 bf
       0.38939917 0.9657316 -0.80874705 -0.90377945
000010 33 69 59 bf 14 0a 59 bf c6 82 6b bf 0d 30 ae be
       -0.84926146 -0.84781003 -0.9199642 -0.34021035
000020 66 3c 08 3f b1 e2 b5 3d 50 91 c5 3e a0 7a 6b 3e
       0.5321716 0.088811286 0.38587427 0.22995996
000030 fe 23 54 3f c0 18 f2 bd 90 28 a3 be 3d 24 67 bf
       0.8286742 -0.11821127 -0.31866884 -0.9028967
000040 a0 d8 5c 3f 98 73 21 bf 98 0f 47 bf 68 c4 7b 3e
       0.86268044 -0.6306701 -0.7775817 0.24586642
000050 40 ef c2 3d b6 eb 08 bf 05 65 53 bf ba ca 4e bf
       0.095182896 -0.53484666 -0.8257602 -0.80778086
000060 8e 18 67 bf c2 aa 87 be e0 68 5d be c4 02 09 3f
       -0.9027184 -0.26497465 -0.21622038 0.53519845
000070 40 73 f1 bc a0 af a7 be 60 47 96 be 24 46 9d 3e
       -0.0294739 -0.3275118 -0.2935133 0.30717576
000080 f4 ee 4b 3f a2 ea 12 bf 68 ec ce be 16 76 29 3f
       0.7966149 -0.5738927 -0.4041474 0.6619581
000090 ac c9 c5 be 14 f5 f3 3e 5a 6f 1b 3f ea 0b 77 bf
       -0.38630426 0.47647917 0.60716784 -0.96502554
0000a0 4f 76 d2 be f6 50 81 3d 78 3a 3c be 50 cd 4c 3f
       -0.41105887 0.0631427 -0.18381679 0.8000078
0000b0 30 0f dd bd de 8c b0 3e 80 d2 aa 3e ca 7a 08 3f
       -0.107939124 0.34482473 0.33363724 0.5331236
0000c0 67 cb 4f 3f 7a 4e 69 3f ae c5 b0 3d e4 c1 f5 3e
       0.8116974 0.9113537 0.086314544 0.4799949
0000d0 48 47 d1 be 00 0a 20 bd 39 a0 42 be 12 3f 6d bd
       -0.40874696 -0.039072037 -0.19006433 -0.057921477
0000e0 c1 50 47 bf 71 c9 c4 be 22 a9 3e 3d ab 80 04 3f
       -0.77857596 -0.38434938 0.046548016 0.5175883
0000f0 a1 a0 51 bf aa 5f 7f bf 1e e8 32 3f 98 bb fa 3e
       -0.81885725 -0.99755347 0.6988543 0.48971248
000100 00 02 2e bf 48 4b 30 be 62 16 01 bf be d0 54 3f
       -0.679718 -0.17216218 -0.5042478 0.83131015
000110 90 95 7d 3f ac 4b fa 3e 7a 15 51 bf 46 8f 36 bf
       0.9905634 0.48885858 -0.81673396 -0.7131237
000120 d4 59 4b bd 60 ad 2b be bd 01 13 be e6 db 90 be
       -0.049646214 -0.16765356 -0.14356132 -0.2829277
000130 c7 89 59 be 59 f9 a1 be ee aa 48 3f 2c 4c 9e be
       -0.21243964 -0.3163555 0.7838582 -0.3091749
000140 56 64 00 3f 46 c9 59 3f 00 3c 76 3d 1a 8b 94 be
       0.501531 0.85072744 0.060115814 -0.29012376
000150 94 c7 35 bf 98 f4 8f 3e 0e 92 42 be 36 81 c6 3d
       -0.7100766 0.28116298 -0.19001028 0.09692614
000160 f4 d5 10 bf 1c 06 40 bf 80 f6 60 be a2 af 51 3e
       -0.56576467 -0.7500932 -0.21969032 0.20477155
000170 2c 40 97 3e f8 5a d4 3e 2c 7f aa be 92 f9 01 3e
       0.29541147 0.41475654 -0.3330015 0.1269286
000180 05 96 39 bf b8 1e 8e 3e 48 75 3b be dc 0a 5b 3f
       -0.72494537 0.27757812 -0.18306458 0.85563445
000190 58 43 09 bf 10 d5 81 3d 60 9c 80 3e 88 95 58 bf
       -0.53618383 0.063394666 0.25119305 -0.84603167
0001a0 c9 42 30 bf 86 e6 fd bd 7b aa 59 3f de 06 73 3f
       -0.68851906 -0.123974845 0.8502576 0.94932353
0001b0 84 d7 cc 3e 7c 7d fc 3e d8 09 7a be ac 64 50 bf
       0.40008175 0.49314487 -0.24417818 -0.81403613
0001c0 aa 5e b7 3e 86 bc 3c 3f df 2f 64 bf 36 c2 1d 3f
       0.3581441 0.73725164 -0.89135545 0.6162447
0001d0 37 ec dd 3c 7c 7c b3 be 88 79 b8 3e 50 3d 91 3d
       0.027090175 -0.35055912 0.3603022 0.070917726
0001e0 84 85 11 bf 0e a0 45 3f 92 2c 6d bf 68 9f c7 be
       -0.56844354 0.7719735 -0.92646134 -0.38988805
0001f0 82 3a 2a bf c2 20 31 bf ad 98 00 3e 68 9f 61 bf
       -0.66495526 -0.6919061 0.12558241 -0.8813386

encoder.layers.0.nn.net.2.weight f4 [128, 128]
000000 45 60 af 3d cf aa 83 3b b0 d1 ee 3c 09 b8 30 bd
       0.08563284 0.0040181647 0.029152721 -0.04314426
000010 f0 93 29 3d 78 90 35 3d 50 a3 21 bd 78 ea 6a bd
       0.04140085 0.04432723 -0.039462388 -0.057352513
000020 29 84 14 bd 94 20 5d 3d d2 9b ab bd b3 0f 09 bd
       -0.03625885 0.053986147 -0.0837933 -0.033462238
000030 7e d7 2f bd b4 83 9f 3c f8 1c 88 bd 1a 88 5c bd
       -0.04293012 0.01947198 -0.0664615 -0.053840734
000040 31 c8 ad bd 6a 63 3b bd ce 0a 70 bd 4e 79 b0 3d
       -0.08485449 -0.045749106 -0.058604054 0.08616887
000050 8a 7a a5 3d ff 72 a9 bd fa f3 1c 3d 81 25 a5 bd
       0.08080013 -0.08273887 0.03831861 -0.08063794
000060 05 2a 91 3d 76 07 a3 3d c1 81 8f 3c c0 c0 4c bc
       0.07088093 0.079604074 0.017517926 -0.012497127
000070 d7 f3 8a 3d de 9f 81 bd 42 b3 95 bd a6 97 6c 3d
       0.0678479 -0.0632932 -0.07309581 0.05776181
000080 0f 95 ae 3c 52 a8 5a 3d 0b 52 40 3d f2 72 63 3b
       0.021311311 0.05338318 0.046953242 0.0034705964
000090 e9 cd 9f 3d 99 70 e9 3b ed 4b a4 3d be ca 3d 3d
       0.07802946 0.0071240184 0.08022294 0.04633593
0000a0 14 ac 3b 3d 00 85 af bc 50 41 ad bd 16 e4 b3 3d
       0.045818403 -0.021425724 -0.08459723 0.08783738
0000b0 65 ae 25 3d aa eb bf 3c 41 e5 9c bd e9 54 4d bb
       0.04044952 0.023427803 -0.07660914 -0.0031331128
0000c0 59 9e 30 3d af 42 9f bd 3f 2a 27 3d 9e 74 f2 3c
       0.043119762 -0.07776391 0.040811773 0.029596623
0000d0 40 93 a3 bd ae 58 47 3d 72 e4 87 bd 56 fb 5e bd
       -0.0798707 0.048668556 -0.06635369 -0.05443891
0000e0 77 9a 85 bc c5 99 a0 3c 0c c0 8d 3a 4e 2c a6 3d
       -0.016309006 0.019604573 0.0010814681 0.08113919
0000f0 56 6f 06 bd 6c 5d ad 3d 3e 72 a4 bd 7b 8b 6b 3d
       -0.032821022 0.084650844 -0.080296025 0.057506066
000100 5b 6e 84 3d 80 cd 3c 3d ad f3 79 3d f2 c0 ad 3d
       0.06466361 0.046094418 0.061023403 0.08484067
000110 b4 3d d5 bc 51 f2 15 bc 36 ba 7a bd 76 57 3d bd
       -0.026030399 -0.009152011 -0.06121274 -0.046225987
000120 94 62 83 bd ef e3 99 bd 95 28 9f 3d 20 e9 3a 3d
       -0.06415287 -0.07514178 0.07771412 0.04563248
000130 db 95 81 3d c8 16 1f 3d 76 04 ab bd 0e e3 a7 bd
       0.06327411 0.038840085 -0.0835046 -0.08197604
000140 f0 66 b7 3c 54 08 83 bc 3a 33 1d bd 71 fa 99 3d
       0.022387952 -0.015995182 -0.03837893 0.07518471
000150 00 ed 6a bd 0e b1 94 bd c8 02 0f 3d cc a0 ad bd
       -0.057354927 -0.07260333 0.03491476 -0.08477935
000160 8b 4b 86 bd 24 1b b2 bd 1c c1 a8 3d ac 2c 1b 3d
       -0.065573774 -0.08696583 0.08239958 0.0378844
000170 4f 43 7c bc 4b 6e 8d bd fe be 84 3d 6d 46 ae 3c
       -0.015396907 -0.06905802 0.06481741 0.021273816
000180 52 21 29 3d 52 1c 80 bc c7 22 64 bd 3f 07 2e 3d
       0.041291542 -0.015638504 -0.05569723 0.04248738
000190 85 4a 88 bd d8 f1 52 bd b6 65 fd bc ec ac 50 3d
       -0.066548385 -0.05150017 -0.030932289 0.05094616
0001a0 33 b8 4e 3d 57 bd 72 bd 54 c0 bb bc f0 56 8c 3d
       0.050468635 -0.0592626 -0.022918858 0.068525195
0001b0 da 58 31 3d 7b 10 4f bc fa 14 a4 bd 98 76 ab 3c
       0.043297626 -0.012638207 -0.080118135 0.020930573
0001c0 c0 19 d0 3c 9a f3 b0 bc 76 94 59 bc fa d1 6b 3d
       0.025402904 -0.021600533 -0.013280025 0.057573296
0001d0 78 36 1b 3c bc 20 8b 3d 3a 70 68 bd dc d0 1c 3d
       0.009473436 0.06793353 -0.056747653 0.03828512
0001e0 2b dd 07 bc ec dc 98 3c 5e 65 d5 bc 40 40 1d 3d
       -0.008292477 0.018660031 -0.026049312 0.03839135
0001f0 6c 9c c2 3c 68 3f 8a bd f7 5e 66 bd ab 84 c2 3c
       0.023756228 -0.06750375 -0.05624291 0.023744902
000200 57 f9 04 bd a4 8f 96 bd 02 53 a3 bd b5 fc 5f 3d
       -0.03246435 -0.07351616 -0.07974817 0.05468436
000210 d5 9c 34 3d c6 d6 7e 3d 69 da fc 3c e7 1a 89 bc
       0.04409488 0.062216543 0.030865865 -0.01673646
000220 05 e4 f4 3c 9c 41 ea 3a be 25 a3 3d 38 74 8c bd
       0.029893884 0.0017872336 0.07966183 -0.068581045
000230 ba 15 d9 3a 3c cc 65 3c c3 a4 90 3d ba 30 dd 3c
       0.0016562261 0.014025744 0.07062676 0.027000774
000240 c7 25 aa 3c 51 4a 75 3d 32 82 b2 bd 97 c1 2d 3d
       0.020769967 0.059885327 -0.08716239 0.04242095
000250 88 2d 91 39 d0 ab e2 3c 65 b8 4c 3d 2d 3c 39 bd
       0.0002769048 0.027669817 0.04998054 -0.045223404
000260 36 4a 09 3b f4 86 85 3d a3 a3 62 bd 3c fe 4f bd
       0.0020948774 0.06519881 -0.055331837 -0.050779566
000270 61 f2 21 bc a9 2d c0 3a 36 4c 8e 3d b0 8b 69 3d
       -0.009884448 0.0014662045 0.0694813 0.057017982
000280 3f a0 8b bc 5b 0d 12 bc b3 0e 8d 3d 94 dc 4c 3d
       -0.017044185 -0.008914317 0.06887569 0.050015047
000290 79 7d 92 3d 61 6b 4a 3d 93 fd 61 bd 17 36 a5 3d
       0.07152838 0.04941881 -0.055173468 0.080669574
0002a0 02 ba 67 39 17 cc b4 bc 11 00 8b 3c 6f 80 b2 3d
       0.0002209917 -0.022069974 0.016967805 0.08715903
0002b0 30 97 33 3d 62 9b 03 3d 4b 5f 8d 3c 77 9d d0 3c
       0.043845356 0.032130606 0.017257353 0.02546571
0002c0 41 a7 3c 3d a8 d5 1e 3d c4 bb ae bd eb ad 15 bd
       0.046057943 0.038777977 -0.08531907 -0.036542814
0002d0 0d a4 61 bd 03 18 04 3d 96 2b 84 3d 9d f5 1d 3d
       -0.05508809 0.03224946 0.06453626 0.038564313
0002e0 14 9d 6d bd 57 a8 ad 3c 56 c7 40 bd 0c cb 12 3d
       -0.05801113 0.021198435 -0.0470651 0.03583817
0002f0 8c 20 29 bc 92 7c 05 bd 9e d1 9f 3d 2d 43 ef bb
       -0.010322701 -0.032589503 0.07803653 -0.007301709
000300 cf ca 83 bd 8b c2 5d 3d f1 7d 71 bd 8e 47 a4 3d
       -0.06435167 0.05414061 -0.058957998 0.080214605
000310 1b ad 7b 3c 30 d3 83 bd 74 9b 34 bc ee 06 ac 3d
       0.015361096 -0.06436765 -0.011023391 0.08399759
000320 47 e9 85 3c f3 b0 38 3d 16 3c 2e 3b 59 93 9c bd
       0.016346587 0.045090627 0.0026586107 -0.07645292
000330 ab d3 ab bb 70 17 61 bd fc e4 15 bd 92 7d 84 3c
       -0.0052437386 -0.054953992 -0.03659533 0.016173158
000340 ed 98 04 3c b6 b5 90 3d 23 33 94 3d bb 63 e5 3c
       0.008093101 0.070659086 0.07236316 0.028001657
000350 d6 18 9a bd ee 7a b3 3d c8 cf 0b bd c8 41 7f bd
       -0.07524268 0.08763681 -0.034133703 -0.062318593
000360 ef 38 09 bc 51 8c 8b 3c 41 a3 df bb 7a 5c a9 3d
       -0.00837539 0.017034682 -0.0068248813 0.08269592
000370 a6 c5 8d bd 23 07 13 bd 41 ce 21 3c 16 2a 15 3d
       -0.06922464 -0.035895478 0.009875835 0.03641709
000380 0b 53 96 3c 75 8a 75 bd ab 46 7a bd 59 35 35 bd
       0.018350145 -0.059946496 -0.06110255 -0.04424033
000390 cf 60 ad bd 88 5a a1 3d 5b 78 c3 bb 73 79 43 3d
       -0.084657304 0.078785956 -0.005965275 0.047723245
0003a0 29 b4 33 3c cb 3b af 3d 2d a2 d8 bc 4b 13 80 bc
       0.0109682465 0.085563265 -0.026444519 -0.0156342
0003b0 5a 16 8f 3d 68 88 ce 3b 6f 64 80 3d 4b d7 86 ba
       0.06986685 0.006302882 0.06269156 -0.0010287551
0003c0 8c 67 85 bc 0c 09 1a bb 21 76 77 3d 13 30 12 3d
       -0.016284727 -0.0023503928 0.06041539 0.03569038
0003d0 84 34 f3 bc 8c 1d 17 bd d7 fe f1 3c aa 85 b0 bd
       -0.029688127 -0.036893412 0.029540462 -0.086192444
0003e0 4d bb 6f bd 42 cd 82 bd 0a 35 b8 3c 57 c4 27 3c
       -0.058528233 -0.06386806 0.022486228 0.010239682
0003f0 c3 37 d9 bc 33 cc 80 bd 34 2a 8d 3c b6 6a 97 bd
       -0.026515847 -0.06288948 0.017232038 -0.073934

encoder.layers.0.nn.net.2.bias f4 [128]
000000 cf 3f 10 bc b8 7d 21 3d bf 2b 08 bd 9b c7 bd 3c
       -0.008804276 0.039426535 -0.033244845 0.023166468
000010 42 85 18 3d da 8e c1 bc 40 98 a8 bd da d4 7b 3d
       0.03723646 -0.023627687 -0.082321644 0.061482288
000020 9a a9 a3 bd 99 0c 80 3d 88 b8 ad 3d b1 e5 1a bc
       -0.07991333 0.06252403 0.08482462 -0.009454177
000030 e4 d4 2d bd dd 29 a5 bd f9 b9 30 bc b0 a4 82 3d
       -0.042439356 -0.080646254 -0.010786527 0.06379068
000040 54 df 91 bd 1e 85 62 3d 12 16 f0 3c ea 3a 14 bd
       -0.071226746 0.05530273 0.029307399 -0.036188997
000050 78 70 30 bd 8a 7f b3 bd 5e 35 67 bd 10 96 1d 3d
       -0.04307601 -0.087645605 -0.05644738 0.03847319
000060 73 ad 59 3d 0a 4a 52 3c 00 35 81 bd 8b 46 ca 3b
       0.05314393 0.012835035 -0.06308937 0.00617296
000070 7a 0f 9c bd 13 bc 5f bd e3 1f 17 3d 41 47 af bd
       -0.076201394 -0.05462272 0.036895644 -0.085585125
000080 6e fc 71 bc c8 82 eb 3c 8b d0 23 3d 59 24 a7 bd
       -0.014769657 0.028748885 0.039993804 -0.0816123
000090 9f 9c 4e bd ed 62 88 3d 83 c8 43 bd 60 f3 28 3c
       -0.050442334 0.066594936 -0.047798645 0.010311931
0000a0 36 a4 1f 3d d6 2b 44 bc 90 6a a1 3d 4e c9 ad 3d
       0.038974963 -0.011973342 0.07881653 0.084856614
0000b0 11 8e 81 bd f6 48 83 3c 1d ea 87 bd 17 62 35 bd
       -0.06325925 0.016026001 -0.066364504 -0.044283
0000c0 4f 89 73 bd 29 d9 b0 bd ef cf 57 bd 7a 2d 86 bd
       -0.05945712 -0.0863517 -0.052688535 -0.06551643
0000d0 d4 60 9a 3b 78 f3 92 bd d8 7a 1b bd 9e c0 86 bd
       0.00471125 -0.07175344 -0.03795895 -0.065797076
0000e0 a4 c1 88 bc 8a 01 cf 3c 91 4f 1f 3d 3a 54 6e bd
       -0.016693898 0.025269289 0.03889424 -0.058185793
0000f0 88 a5 94 bd d3 61 89 bd 90 a1 e5 bb d6 0b c7 3b
       -0.07258135 -0.067081116 -0.007007785 0.006074409
000100 87 d3 0d bd 0f af 66 3c 30 6d 6d bc 40 6f cb 3b
       -0.034625556 0.014079823 -0.014491364 0.0062083304
000110 ea 9d 10 3d e6 ab 83 bd 9e ea c3 3c a2 87 54 3d
       0.03530685 -0.064292714 0.023915585 0.051887162
000120 3a 20 02 3d f2 34 3d 3c 84 a4 38 3d 59 3c 12 3c
       0.031769015 0.011548268 0.04507877 0.008925521
000130 f4 c5 96 bd 4e 46 56 3d ab 10 06 bc f6 6d 1a 3d
       -0.07361975 0.05231314 -0.008182685 0.037702523
000140 56 31 7d 3c a4 9a 70 3d 83 6f 3b 3d 16 2f 80 bd
       0.015453657 0.058741227 0.045760643 -0.06258981
000150 d2 e4 84 3d 0b b8 ee 38 0a 25 06 bd 76 4f b7 3c
       0.064889565 0.00011383005 -0.032750167 0.022376757
000160 02 f2 6f bd 01 af 1b bd 74 74 5a 3d d2 59 9a 3c
       -0.058580406 -0.038008694 0.053333715 0.018841658
000170 2e 54 92 3d 34 4e 1c bc e4 76 71 bd ef 45 2f bd
       0.07144962 -0.009540129 -0.058951274 -0.042791303
000180 36 44 7f bd b8 07 2f bb fb 92 55 bd 95 7e 88 3d
       -0.06232091 -0.0026707482 -0.052142125 0.066647686
000190 2f 23 81 3b ce 9c 80 bd 5a d5 87 bd 13 5d 37 bd
       0.003940962 -0.06279908 -0.066324905 -0.044766497
0001a0 b9 93 c5 bc d7 7f 8d bd 7a 7e 88 3d df 6b 67 bc
       -0.024118291 -0.06909149 0.066647485 -0.01412484
0001b0 20 b3 4a bc 98 1a 4d 3d 66 bd a0 bd 9a 55 76 bd
       -0.012371808 0.05007419 -0.07848625 -0.06014023
0001c0 34 a6 1b 3d 52 74 bf 3c f2 46 6c bd 10 cf 1e 3c
       0.0380003 0.023370896 -0.057684846 0.009692922
0001d0 6c 99 9a 3c fe 27 6b bd 7f e6 98 3d 34 0d 5c bd
       0.018871985 -0.057411186 0.07465839 -0.05372353
0001e0 3f b3 ac 3d 22 45 18 3d 65 81 59 bb ca d4 a4 3d
       0.08432626 0.037175305 -0.0033188697 0.08048399
0001f0 bb 15 03 bd cb 15 6e bd 59 1b af bd 68 a7 48 bd
       -0.032003146 -0.058126252 -0.08550138 -0.048987776

encoder.layers.1.nn.net.0.weight f4 [128, 128]
000000 96 33 8d bd 67 ff b1 3d 2d 35 da 3c 68 b8 0b 3d
       -0.06894605 0.08691292 0.026636684 0.03411141
000010 3c e1 f4 3c 75 ff b7 3d f5 4c 82 3d 15 7a 8e 3d
       0.029892556 0.089842714 0.06362335 0.06956879
000020 9d 62 9f 3c 93 d9 c6 bc 48 51 86 bd 85 c6 00 3d
       0.019456202 -0.02427367 -0.06558472 0.031439323
000030 71 ae ab 3d 95 a2 25 bd f5 52 03 3d 2b 2e 9b 3c
       0.083828814 -0.040438253 0.032061536 0.018942913
000040 c8 a2 a0 bd cd f9 04 3d 8d ef a4 3d 45 9c 9d 3c
       -0.07843548 0.03246479 0.08053503 0.019239554
000050 57 33 3e 3d 15 8c 58 bd 4f d5 9a bc c3 24 a1 3d
       0.04643568 -0.052867968 -0.018900542 0.0786834
000060 7b 6a 90 3d c4 6f 44 3d 3a 5c 48 3d 02 e3 a9 3d
       0.070515595 0.04795815 0.04891608 0.082952514
000070 03 91 83 3d 6e b6 69 3c f7 dc 9a 3c fa 99 b2 bc
       0.06424143 0.014264686 0.018904192 -0.021801937
000080 37 bd 61 bd 85 de dc bc d0 d5 85 bd a3 a9 79 bd
       -0.05511209 -0.026961574 -0.06534922 -0.060952794
000090 92 38 99 bd 73 ab 5d bd 91 48 76 3d 31 5f a2 3d
       -0.07481493 -0.054118585 0.0601278 0.079283126
0000a0 53 9c 37 3c 32 2c cc 3c b8 3c 38 3c 7b 8a 39 3c
       0.011206704 0.024923418 0.011244945 0.01132452
0000b0 df b1 80 39 74 de c8 3c 95 f4 82 bd b5 c6 4a 3d
       0.00024546587 0.024520136 -0.063943066 0.049505908
0000c0 f2 1e 65 bc 89 f9 5f 3d ee 1e a9 3d e6 c0 a1 bb
       -0.013984429 0.054681335 0.082578525 -0.0049363254
0000d0 42 63 28 3c 86 d0 01 3d f1 c5 2a bc 03 a7 66 3d
       0.010277571 0.031693004 -0.0104231695 0.05631162
0000e0 e2 d8 63 bd 91 61 97 3d 9b 2f 4d 3d d5 da ab 3d
       -0.055626757 0.07391656 0.05009423 0.08391348
0000f0 bb bb 37 3d eb df 04 3d e0 6b 27 3d 20 4d 8a bd
       0.044856768 0.032440107 0.040874362 -0.06752992
000100 c0 7d 2f bd 2e b3 7c 3d 25 6f 67 3d a1 2b 94 3d
       -0.042844534 0.061694317 0.05650248 0.07234884
000110 bf c1 82 bc e7 ca 3e bd 02 c1 b6 ba 6c 72 81 3d
       -0.015961526 -0.04658022 -0.0013943019 0.06320652
000120 2b 6c c3 3d d6 35 73 3c 21 85 d8 bc 8f b9 9c bd
       0.09542116 0.014844378 -0.026430668 -0.0765258
000130 61 15 be 3c f7 4d 8f 3d f7 e5 9f bd f7 ce 12 bc
       0.023203554 0.069972925 -0.07807534 -0.008960477
000140 f1 cf 3f 3d 65 c0 72 bd 79 6e 56 3d 8d 7f eb 3b
       0.046829168 -0.059265513 0.05235145 0.007186836
000150 5a c8 27 3d b3 80 14 bd 0a 2c 3e bd 2f 4e 90 bd
       0.040962555 -0.03625555 -0.046428718 -0.07046162
000160 48 0c 91 bd 00 4e 3f 3d c0 4b 13 bd 93 fb 8d 3c
       -0.070824206 0.046705246 -0.035960913 0.017331874
000170 d0 4c 21 bd 58 9c f8 bc 36 68 91 bc cb 33 87 bd
       -0.039379895 -0.030347988 -0.017749887 -0.066016756
000180 23 00 c9 3c 1c 2f 33 3b 3c 55 93 bd 85 e1 e1 bc
       0.024536198 0.0027341312 -0.071939915 -0.027573356
000190 44 b5 1a 3d a2 2d b3 bb b5 5f 9f bd 3f 1d 86 bd
       0.037770525 -0.0054680863 -0.077819265 -0.06548547
0001a0 8c c0 28 3d c1 25 86 3d 46 a9 b1 3d 29 ce a4 bc
       0.041199252 0.0655017 0.086748645 -0.020117836
0001b0 fe 71 1a bd 74 fd 8b bd 5a d2 8e 3c 16 4b a7 3d
       -0.037706368 -0.06835452 0.017434288 0.081686184
0001c0 52 5b 27 bd c8 4b 71 bd 48 e4 19 bd 9c ef b3 3d
       -0.040858574 -0.05891016 -0.03757122 0.08785936
0001d0 6a f3 a1 bc 72 a5 f7 3c 4c de ad bd 7d 61 82 bc
       -0.01976939 0.030230258 -0.084896654 -0.015915627
0001e0 9b f8 1b bd 3b 82 6b bd 43 e8 13 bd d1 db 84 bb
       -0.038078886 -0.057497244 -0.036110174 -0.0040545245
0001f0 a7 e9 8f bd 9a 90 61 bd ee 78 95 3d 34 be 25 bb
       -0.070269875 -0.055069543 0.07298456 -0.0025290372
000200 5a 31 83 bd 70 89 73 3d 13 99 81 3d fa 5c 28 3d
       -0.064058974 0.059457242 0.06328025 0.041104294
000210 37 1a b2 bd 4a 7e 01 bd c4 ee 41 3d 3c a4 88 3d
       -0.08696406 -0.03161458 0.047346845 0.0667195
000220 4a 3a 6d bd 4c 4d f6 3c 6e 9a 36 3d f9 c7 86 bc
       -0.057916917 0.030066155 0.04458087 -0.016452776
000230 15 2d 6b 3d b7 9e 35 bd 5c e7 f4 bc e3 8c 3e bd
       0.05741604 -0.044340815 -0.029895477 -0.04652108
000240 78 5b 66 3d d6 27 b3 bd 0f df 30 bb da 61 19 3d
       0.056239575 -0.087478325 -0.0026988422 0.037446834
000250 49 b1 5f bd 7b 3f 06 bd 95 2d be bc 03 b1 dc 3c
       -0.05461243 -0.032775383 -0.023215095 0.026939875
000260 28 9e 9a 3d c3 42 61 bd 2b 8d 2c 3d 9c c6 6e 3d
       0.07549697 -0.05499531 0.042126816 0.058294877
000270 72 2e 6f bd c3 20 ad 3d 8a d5 b9 bc 2d 5e 83 bc
       -0.058393903 0.084535144 -0.022684831 -0.016036117
000280 26 69 11 3d 1d ac ac 3b 47 e9 9d bd 33 58 a7 3d
       0.035500668 0.005269541 -0.0771051 0.081711195
000290 2c de 00 bd 93 ee 65 3d 46 9e 22 bc d9 fd 09 3d
       -0.03146188 0.056135725 -0.009925431 0.033689354
0002a0 af 1c 23 3d 1e 99 a0 3d 99 92 01 bd 03 94 29 bd
       0.039822277 0.07841705 -0.031633947 -0.04140092
0002b0 6b 45 98 bd de be 74 3d c8 f7 9a bd af 0c c3 ba
       -0.074351154 0.059752338 -0.07566792 -0.0014881099
0002c0 72 a9 61 3d f1 3f 01 bd 04 03 a1 3c ab a9 5a 3d
       0.055093236 -0.03155512 0.019654758 0.053384464
0002d0 05 fb c2 bc 81 dd ee bc 43 52 0f 3d 1c 62 9a bb
       -0.023801336 -0.029158356 0.03499056 -0.0047114026
0002e0 22 86 a6 bc 90 d9 80 bd 2b a7 d5 3c 1b 39 42 3d
       -0.020327631 -0.06291497 0.026080688 0.04741774
0002f0 b1 b3 c7 bb f7 9e a1 bd d6 d5 73 bd 72 85 b1 3d
       -0.006094419 -0.07891648 -0.0595301 0.08668031
000300 a7 b6 81 3d 76 95 db bc f5 46 63 3d 09 5e 11 bd
       0.06333666 -0.026804667 0.05548759 -0.03549007
000310 2d d0 73 bc aa 2b 8a bd ed 72 26 bd 67 b3 12 bd
       -0.014881176 -0.067466095 -0.040636946 -0.035815623
000320 cd 5a 10 bd 4d 5e 9f 3d 6f 20 2d 3d 0b 03 63 bd
       -0.035242844 0.07781658 0.04226726 -0.055422824
000330 89 e8 f9 3b b8 4a c9 bc 12 3e 9f 3d d4 40 f0 bc
       0.0076265973 -0.024571761 0.07775511 -0.029327787
000340 b2 14 52 bb 17 3b e4 3c 07 e5 87 bd f0 18 42 3d
       -0.0032055792 0.027860207 -0.066354804 0.047387064
000350 f5 34 4a 3d f3 af b2 3d ea 95 85 3c 70 9c a3 bd
       0.04936691 0.08724966 0.016306836 -0.079888225
000360 7f 96 4d bd e9 de a5 3b 20 bc 8c 3d 1b 7a 8d bd
       -0.050192352 0.0050619734 0.068718195 -0.069080554
000370 9a 3a 64 bd ec 0c 46 bd 7b a4 f2 3c 23 1e 0f bd
       -0.05571995 -0.048352167 0.029619446 -0.03494085
000380 cb e7 6f 3d d2 80 75 bd ec d2 c0 3c a6 5b 8a 3d
       0.058570664 -0.059937306 0.023538075 0.06755762
000390 f6 84 4f bd f3 72 14 bd 78 67 6f 3b 87 47 18 bb
       -0.05066391 -0.036242437 0.0036530178 -0.0023235993
0003a0 30 30 66 3d a7 52 3b bd c0 be 26 3c d6 b4 f5 bc
       0.0561983 -0.04573312 0.010177314 -0.029993456
0003b0 2e 69 92 bd 83 37 8c bb 3c b1 c6 bc 4d 1c 7b 3d
       -0.07148968 -0.0042790785 -0.024254434 0.061306287
0003c0 dc c2 2d 3b f7 59 a2 bc 33 a3 d0 ba 49 03 2a 3d
       0.002651385 -0.01981829 -0.0015917778 0.04150704
0003d0 f7 a9 15 bc 89 02 4c 3d 91 61 cb 3c 3c 27 b0 bd
       -0.009134761 0.049807105 0.024826797 -0.08601233
0003e0 db 2e 2d 3d d3 9b b4 bc 0c a2 8e bd 7d 7d b0 3d
       0.042281013 -0.022046959 -0.06964502 0.08617685
0003f0 a3 23 84 3d 79 48 1d 3d fe fa 0b bd f0 77 88 bd
       0.0645211 0.038399193 -0.03417491 -0.06663501

encoder.layers.1.nn.net.0.bias f4 [128]
000000 48 03 81 ba 71 99 a2 3d 29 d8 a8 3d bb ef d1 bc
       -0.0009842897 0.07939423 0.08244354 -0.025627008
000010 45 a8 b1 3d 95 d0 13 bd 5a bd 81 bc 8b 97 1e bd
       0.08674673 -0.03608759 -0.01583736 -0.03871874
000020 d8 85 f7 3a c5 5a 64 3c 41 1b b0 bd 3d 55 21 3d
       0.0018884493 0.013937657 -0.08598948 0.03938793
000030 4d 14 85 bd 45 5d 70 3d 84 8c 20 bd 66 2a ac 3d
       -0.06498013 0.0586827 -0.039196506 0.08406524
000040 40 61 a0 bc 50 f5 21 3d 74 69 47 bd 87 fb 51 bc
       -0.019577622 0.03954059 -0.048684552 -0.012816316
000050 b8 a4 5a bb 38 40 01 3d 9f 06 1b 3c 64 ad 73 3d
       -0.003336234 0.031555384 0.009462028 0.05949153
000060 15 70 f3 3b 4d 1c a9 3d 2e f2 a6 bc b4 4f 87 3a
       0.0074291327 0.08257351 -0.020379152 0.0010323436
000070 23 fd 69 bd 6e 49 15 3a 13 f2 5a 3c a5 44 0e bd
       -0.057126176 0.0005694841 0.013363379 -0.034733433
000080 a0 70 89 3d bb 14 04 3d b4 78 1b bb 63 06 4a 3d
       0.06710935 0.032246333 -0.0023723068 0.049322497
000090 54 34 67 bc 05 6c 70 3d e6 0b ec bc 9e 62 8a 3d
       -0.014111597 0.058696765 -0.028814267 0.06757091
0000a0 a9 9b 8d 3d db 28 52 3d 1f e0 98 3d b3 eb 35 bc
       0.069144554 0.051308494 0.07464623 -0.011103558
0000b0 1a af 91 bd 48 cd 6f bd 11 9e ac 3c fe 0e 40 3c
       -0.07113476 -0.05854538 0.021071466 0.011722324
0000c0 73 c7 96 bc 52 5e b9 bd 46 f5 89 bb 09 2e 85 bd
       -0.018405652 -0.09051193 -0.004210147 -0.06502921
0000d0 c8 c1 c4 3c db 7d a1 bc 98 ec 95 3c 6a 34 7b bd
       0.024018183 -0.019713333 0.018301293 -0.061329283
0000e0 ff ca 94 bc b9 72 9d bd a4 a0 4e 3d 16 31 33 bd
       -0.018163202 -0.07687897 0.050446168 -0.043747984
0000f0 d7 82 26 3d 33 de 0e bd b6 95 a7 bd 8c 77 c3 3d
       0.040652122 -0.034879874 -0.08182852 0.09544286
000100 31 9a 2e 3c 22 5e d8 bc 22 14 8e b9 b1 78 98 bc
       0.010656879 -0.026412074 -0.0002709935 -0.018612238
000110 d0 db 66 bc 52 16 24 bd 77 cf 98 3d d5 97 b2 3d
       -0.014090493 -0.04006035 0.07461446 0.08720366
000120 b4 c1 55 3d fd 77 a0 bd 83 3f 0e bd 99 34 8c bc
       0.052186683 -0.07835386 -0.03472854 -0.017114924
000130 a6 87 50 3d 0a 94 55 bd c9 1e 53 3d 70 70 85 bd
       0.050910614 -0.052143134 0.05154303 -0.065155864
000140 8f 17 98 3b a0 a3 79 bd 58 b9 aa bc 0a b4 e8 3c
       0.0046414803 -0.06094706 -0.020840332 0.028406162
000150 a8 90 c0 bb 72 9b de bc 48 4f 27 3c 14 2f 3b 3c
       -0.0058766194 -0.027173731 0.010211773 0.0114247985
000160 c9 6e 4a bd c7 25 a5 bd 0e 4d 8d bd 47 c1 94 3d
       -0.04942206 -0.08063846 -0.06899463 0.07263427
000170 53 56 1d 3c 9b 23 55 bd eb 31 9e 3d 63 41 86 bd
       0.009603101 -0.05203591 0.07724365 -0.0655544
000180 c2 a3 11 3c e3 84 6c bd 76 11 a2 3d 80 ce 54 3d
       0.008889141 -0.05774392 0.07913487 0.051954746
000190 a6 ab 5e bd 5c 6e 81 bd 77 ba ea 3c 7a c1 a5 bc
       -0.054362915 -0.063198775 0.028653366 -0.020233858
0001a0 16 d9 5e bc 02 ea 8a 3d 30 dd 2e 3d 1d 97 78 3d
       -0.013601562 0.06782915 0.04269141 0.060690988
0001b0 a0 54 ac 3c f0 15 a1 3d 83 13 ac bc 3f 08 5c bd
       0.021036446 0.07865512 -0.021005398 -0.0537188
0001c0 a3 41 77 bd 84 4e a5 3d c8 a3 a0 bc 97 9c 0d bd
       -0.06036533 0.08071616 -0.019609347 -0.034573164
0001d0 b9 1a 0f 3d 57 c3 00 bd c8 66 cd bc fa da 14 3d
       0.034937594 -0.03143629 -0.025073424 0.036341645
0001e0 0f 56 45 3d 1d 34 d8 3c 5f 09 6a bd 8d f6 5b 3c
       0.048177775 0.026392037 -0.057137843 0.0134254815
0001f0 b3 bf 95 bd 4b f9 cd bc b2 79 5f bd 91 f2 9f 3d
       -0.07311954 -0.025143286 -0.054559417 0.07809938

encoder.layers.1.nn.net.2.weight f4 [128, 128]
000000 95 f0 21 3c d6 14 71 3d b0 55 df bc 7a 7b ff bc
       0.009884019 0.05885776 -0.027262539 -0.031186808
000010 3a eb 4b bd c0 a1 db 3c 23 11 98 3d 39 ab 8c bd
       -0.049784876 0.026810527 0.074251436 -0.06868596
000020 93 2b 33 3d b2 be 69 bd 53 ac 48 3c 0e 69 9b 3d
       0.043742727 -0.057066627 0.012248117 0.07588397
000030 0d 88 83 3d 49 79 a0 3c 66 a3 b1 bc b5 e2 8c bd
       0.06422434 0.019589083 -0.02168436 -0.068791784
000040 a2 43 9c 3c e3 2f 36 3d 40 3b 8b 3d 41 7e 45 3d
       0.019075219 0.044479262 0.067984104 0.04821611
000050 fb c4 45 bd 68 88 55 3d 61 53 9d 3d 9c 6b a5 3c
       -0.04828356 0.05213204 0.07681919 0.020192914
000060 7d 3c 2b 3d 2f 76 fc bc bf 35 0e bd 26 d3 a0 bd
       0.041805733 -0.030818073 -0.034719225 -0.07852773
000070 6c 42 88 3d f3 cc f3 39 58 8f 51 3b 7b bc 57 bd
       0.06653294 0.0004650127 0.0031976309 -0.052669983
000080 5f be c0 3c 89 e9 a6 bc 94 5f 91 3d 73 99 b2 3d
       0.023528276 -0.02037503 0.07098308 0.08720674
000090 d6 d1 78 bd 1c be b4 3d eb 7d 54 3d bb fa 05 3d
       -0.06074699 0.08825323 0.051877897 0.03270982
0000a0 1d e4 37 bd d5 83 46 3d ef d7 81 3b 3c ed 49 bb
       -0.04489528 0.04846557 0.003962509 -0.0030811569
0000b0 c2 63 73 bb 2d 89 96 3b aa a7 11 3d 30 b6 3d 3d
       -0.0037138318 0.0045939893 0.035560288 0.046316326
0000c0 42 c6 89 3d 6f 4b 6a bd b0 90 30 3d 92 df 49 3d
       0.06727268 -0.057200845 0.043106735 0.04928548
0000d0 cf 72 a9 bc b9 a5 56 3d 08 e4 f2 3c 42 f2 af 3d
       -0.020684628 0.05240414 0.02964975 0.08591129
0000e0 c8 69 90 3d 33 15 92 3d 85 ee 9b bc 84 56 f3 bc
       0.07051426 0.0713295 -0.019034633 -0.02970434
0000f0 3b be 65 3d 09 39 b1 bc ba 8a 63 bd a1 2d 42 bd
       0.05608962 -0.021633642 -0.05555222 -0.047406796
000100 95 ac 49 3d b4 a2 b6 bb 47 53 82 3b 09 c4 b3 3d
       0.049236853 -0.005573595 0.0039772126 0.08777625
000110 72 27 c8 3c b1 8a 2c 3d 35 d5 4e bd c7 47 b6 3d
       0.024432871 0.042124454 -0.0504963 0.08900409
000120 72 c0 91 bd 83 44 48 ba 99 a2 c8 3c 47 e3 e6 bc
       -0.07116784 -0.00076396036 0.024491595 -0.028184546
000130 14 55 0d bd a2 e0 9e 3d 4c f7 10 3c cf 1d 0b bd
       -0.034504965 0.07757689 0.008848023 -0.033963975
000140 68 9f 3d bc 37 1a b8 3c f1 d4 0f bc ef 07 53 3b
       -0.01157365 0.022473438 -0.0087787965 0.0032200774
000150 b1 d6 95 3d 17 4f 66 3d f4 0c 21 3d 2b 89 7b bd
       0.0731634 0.05622777 0.039318994 -0.06141011
000160 e7 93 d6 3c 6d 08 a0 bd c1 52 45 ba 25 fc 5c bd
       0.026193572 -0.07814107 -0.0007527285 -0.0539514
000170 6d b7 8c 3c 65 ae 9b 3d bc 5d 37 bd e9 b0 3d 3d
       0.017177308 0.076016225 -0.044767126 0.046311293
000180 cc fa 4f 3d a0 76 37 3d c8 c7 4f bd 99 2e 55 3d
       0.050776288 0.044790864 -0.050727636 0.052046392
000190 2f 27 92 3c 26 a1 b8 3d 86 3c bd 3c 4a cb 22 3d
       0.01784095 0.090151116 0.023100149 0.039744653
0001a0 42 dd a5 bd 94 14 39 3d b8 db 1e bc 25 4b 38 bd
       -0.08098842 0.04518564 -0.00969594 -0.04499354
0001b0 c9 ba 40 bc 9c bb 5f bd 7b d8 2d bd 5b 59 f9 3b
       -0.011763283 -0.054622278 -0.04244278 0.007609529
0001c0 f2 8b e0 bc df 33 3f 3d 37 00 47 3d f8 e9 1a 3c
       -0.027410481 0.046680328 0.04858419 0.009455197
0001d0 cb e6 9a bd d6 f6 aa 3c fa 2d bd 3b 45 70 78 bd
       -0.075635515 0.020869654 0.005773303 -0.060653944
0001e0 df 73 f5 3c 47 b7 5a bd 57 38 63 bd 94 53 86 bd
       0.029962478 -0.053397443 -0.05547365 -0.0655891
0001f0 b1 eb 9a bd f0 be 66 bd ad e1 05 bd b0 50 9e 3d
       -0.07564486 -0.056334436 -0.032685924 0.07730234
000200 ca 99 b6 3c 19 81 96 3c a3 88 10 3d f7 0e 78 bd
       0.02229013 0.018372105 0.035286557 -0.060561147
000210 e0 45 83 bc 39 a5 9b bd 39 a9 e8 3c c0 52 93 3d
       -0.01602453 -0.07599873 0.028401004 0.07193518
000220 05 1e 0a 3d 92 9c 52 3d 1b 26 91 3b 3d c4 09 3c
       0.033720035 0.05141885 0.0044295914 0.008408603
000230 5e 92 30 3d 8c fc 9d 3c a2 a0 ac bd f1 20 b4 ba
       0.043108337 0.019285463 -0.08429076 -0.0013742727
000240 1c f7 b2 bd 31 8c 27 3d 7f a2 08 3c c9 6f 81 bd
       -0.087385386 0.04090518 0.008339523 -0.063201495
000250 13 37 75 bc a0 c7 fb 3c a5 05 3b 3d a1 d1 c4 3c
       -0.014966744 0.030734837 0.04565968 0.02402574
000260 9d 27 87 bd cb 2b df bc f3 d4 84 3d a6 ef b5 bd
       -0.065993525 -0.027242562 0.06485929 -0.088836
000270 f6 e3 4a bd 11 5b 84 bd d2 dc 91 3d 65 5f 86 3d
       -0.049533807 -0.06462682 0.07122196 0.06561164
000280 84 c5 f0 3c 21 ac 87 bd 2f c0 b0 bc c7 5d 0b bd
       0.029391058 -0.06624628 -0.021576015 -0.03402498
000290 cf 2e ac 3d ab ac 40 bd 80 5f d4 3c e3 4a 35 3d
       0.084073655 -0.04703967 0.025924444 0.04426087
0002a0 8e be a5 3c 98 89 04 bb 36 be 1e 3d c2 7d 92 bc
       0.020232465 -0.0020223614 0.038755618 -0.017882232
0002b0 9d 63 01 3d 17 2f 86 3b 1d c4 82 bd e3 91 09 bd
       0.03158914 0.004094969 -0.06385062 -0.033586394
0002c0 d6 2c 8a bd 13 08 8e 39 ab d8 e3 3b 47 fd b7 bb
       -0.06746833 0.00027090366 0.006953319 -0.00561491
0002d0 33 b6 92 3d 83 0f 8a bd 57 78 a6 3d d5 70 71 3d
       0.07163658 -0.0674124 0.08128422 0.058945496
0002e0 b8 f9 07 3d f4 e4 a0 3c d4 a3 8f bd eb 6c f8 bc
       0.033197135 0.019640423 -0.070136696 -0.030325374
0002f0 69 55 a1 3d 23 a5 62 3d 03 03 ad bd 26 84 22 3d
       0.07877619 0.055333268 -0.0844784 0.039676808
000300 58 9e 27 3c ef 79 48 3c 37 1c 94 3d a1 59 17 bd
       0.010230623 0.0122361025 0.07231944 -0.03695071
000310 a6 d5 01 bc 23 35 51 bc f3 33 ae bb ea 7b 7f 3c
       -0.007924473 -0.012769016 -0.0053162514 0.015593508
000320 9d ad e6 bc fa 12 8d bd 46 8d b2 bd b0 6b 91 3c
       -0.028158957 -0.06888385 -0.08718352 0.017751545
000330 0d db 55 bd b1 74 69 bc 46 cd 3e bd 7d 65 e4 3c
       -0.052210856 -0.014249013 -0.046582483 0.027880425
000340 ce 5d 94 bb be 16 b8 bc 02 93 84 bd 96 9a 8f 3d
       -0.004527784 -0.022471782 -0.06473352 0.07011907
000350 99 d6 fa bc 55 6e 02 3d ce af b4 bd 49 0d aa bd
       -0.030619906 0.031843502 -0.088225946 -0.08303315
000360 e2 11 39 ba 12 b8 8f 3d 8a db 6f bc 2a 2d 1d 3d
       -0.00070598547 0.070175305 -0.014639745 0.03837315
000370 97 8d c4 bc ea bf 13 bd 86 fa 4c bc e2 33 b4 bd
       -0.023993297 -0.036071695 -0.012510901 -0.08798958
000380 40 ea 4d bd fd 9a b3 bb d2 ed 5b bd 82 00 03 3d
       -0.050272226 -0.0054811225 -0.0536936 0.031982906
000390 74 a7 5e 3d 84 23 ac bd b6 62 ae bd d1 6b 9c bc
       0.054358914 -0.084052116 -0.08514921 -0.01909438
0003a0 2f 51 9e 3d d8 30 99 3d 4b db 88 3d f6 c8 2c 3d
       0.07730328 0.07480019 0.06682452 0.04218384
0003b0 42 9c 90 3d 25 87 7e bb 29 8e 09 3b fc 19 36 bc
       0.07061054 -0.0038837877 0.0020989275 -0.011114594
0003c0 b2 9c 69 bd 44 97 ae bd b1 11 9d bd a0 6c 61 bd
       -0.057034202 -0.085249454 -0.0766939 -0.055035233
0003d0 14 a2 7a 3d 40 1b 06 bc 80 bd 85 3d dc b1 71 bc
       0.061189726 -0.008185208 0.06530285 -0.014751878
0003e0 b2 10 95 bc cc c6 c1 3c 89 8b 6d 3d a0 58 38 bd
       -0.018196438 0.023654364 0.0579944 -0.045006394
0003f0 99 c1 8c bd 91 4d b4 bd e6 db 66 bd 62 53 95 bd
       -0.06872863 -0.08803857 -0.056362055 -0.07291295

encoder.layers.1.nn.net.2.bias f4 [128]
000000 e6 a4 ca 3c d1 86 c2 3c c8 cb 1a 3d 63 5a 1c 3d
       0.024736833 0.023745926 0.037791997 0.038172137
000010 6b b6 67 3d 4b 79 83 3d aa aa 97 3c c4 aa 8a 3a
       0.05657045 0.06419619 0.018513996 0.0010579457
000020 14 14 8e bd 0c 54 7a bd 53 a4 ed bc c8 c4 e3 3c
       -0.06937423 -0.06111531 -0.02900902 0.027803794
000030 51 82 40 bd 60 d9 d6 3c 66 07 a3 3a ce c8 8d bd
       -0.04699928 0.0262267 0.0012438118 -0.06923066
000040 98 1a f7 3c 35 99 5f 3d c9 b7 cf bc 04 45 83 bd
       0.030164048 0.05458947 -0.02535619 -0.06409648
000050 39 ef 37 3d 3f 51 93 bd 11 bf 86 bc d3 bf 86 3b
       0.044905875 -0.07193231 -0.01644853 0.0041122227
000060 c7 b8 41 3d e7 70 9d bd 70 35 a6 bc cb 36 bb bc
       0.047295358 -0.0768755 -0.020289153 -0.022853276
000070 23 54 f4 3c c2 2c d5 3c ec 7c a0 bd c5 1d 95 3d
       0.029825276 0.026022319 -0.07836327 0.07281069
000080 e1 c7 08 3d 02 bc 8b bd 6e b1 c3 3c 56 30 dd ba
       0.033393744 -0.06822969 0.023888316 -0.0016875367
000090 59 5d d8 bb 99 46 d7 3c f7 6f 38 3d 6a c6 13 3d
       -0.006602925 0.02627878 0.045028653 0.036077894
0000a0 92 7f 58 3d 02 1c 8b bd 96 6e 58 bd 5a 5c 84 bd
       0.052856036 -0.067924514 -0.052839838 -0.06462927
0000b0 b7 99 95 bd 6d b8 83 3d 39 d7 aa 3d fc 6d d5 bc
       -0.073047094 0.06431661 0.08341832 -0.026053421
0000c0 3f 91 2b 3c 43 d3 e7 bb 82 07 88 bd 86 f8 bd 3b
       0.010471641 -0.007074745 -0.06642057 0.0057974486
0000d0 e6 c6 a0 3c 2b 31 8c 3d 9b 6a 83 bc f8 6d 70 3c
       0.019626092 0.068453155 -0.016042044 0.014674656
0000e0 d8 81 ac 3d 97 d3 a1 3d f6 a0 2d 3d d6 49 44 bd
       0.08423203 0.07901686 0.042389832 -0.047921978
0000f0 46 41 40 3d 4b a9 53 3b e5 ee 8b bd 19 11 6b 3d
       0.04693725 0.0032296951 -0.06832675 0.057389352
000100 bf 33 75 bd 99 1e a0 3b 3d f2 99 3c 86 85 aa bd
       -0.059863802 0.00488646 0.018792266 -0.08326249
000110 6e 27 94 bd 7c b0 25 3d 00 26 84 3d bf e7 b1 3d
       -0.07234083 0.04045151 0.064525604 0.0868678
000120 c9 8c 34 3d 83 3f 57 bc 48 9f 8c 3d ca 79 a2 3d
       0.044079576 -0.013137701 0.06866318 0.07933386
000130 e8 34 07 bd 71 e5 30 3d b7 ec 96 bd 34 ba 28 3d
       -0.03300944 0.043187562 -0.073693685 0.041193202
000140 9a 13 21 bd de 6a eb bc 4a ec 40 3d ab 2f 90 3d
       -0.039325334 -0.028737482 0.047100343 0.07040342
000150 48 50 94 3d 0c 78 ad 3d f5 34 65 3d 92 c3 4f 3d
       0.07241875 0.08470163 0.055958707 0.05072362
000160 77 b3 8b 3d 19 4c c0 bb a3 9a ae bc 62 42 8f bd
       0.068213396 -0.0058684465 -0.02131397 -0.069950834
000170 48 a1 7c 3d 71 00 95 3b a4 38 91 bc eb be 1f bd
       0.061677247 0.0045471718 -0.017727204 -0.039000433
000180 11 c4 02 3d 80 28 41 3d 46 4e 3c bd 46 07 86 bd
       0.031925265 0.047157764 -0.045973085 -0.06544356
000190 1c 92 44 bc 71 3d 70 bc 0e 42 9b bd fb 6b a7 3d
       -0.011997726 -0.014663086 -0.07580958 0.081748925
0001a0 40 19 97 3d fa 8d 2d 3d 8a a8 3e bd 37 a3 78 bd
       0.07377863 0.042371728 -0.04654745 -0.06070253
0001b0 85 4f 7a 3b 3d 77 b3 3c ab af 32 bc 06 5e ad 3d
       0.003819437 0.021907443 -0.01090614 0.08465199
0001c0 22 d5 30 bc 31 c0 79 3b 41 08 94 bd 10 69 1a bd
       -0.010793002 0.003810894 -0.07228137 -0.03769785
0001d0 66 5f 7e 3d a6 a3 01 3d af bc 2b 3c 60 31 96 3d
       0.062102698 0.031650208 0.010481997 0.07333636
0001e0 2f 7e ae 3c a4 24 8e bc ae c2 77 bd 51 f7 8c bd
       0.021300403 -0.017351456 -0.060488395 -0.06883109
0001f0 41 cf f5 3a 0b 30 3b 3d 0f 23 a2 3d 51 7c b5 3c
       0.0018753783 0.045700114 0.07916843 0.022154005

encoder.layers.2.nn.net.0.weight f4 [128, 128]
000000 f8 2f 24 3d 99 d4 2e 3d b2 b6 bc 3d 02 8e 0b 3d
       0.04008481 0.042683218 0.09214534 0.034070976
000010 a9 76 05 3d 33 a3 13 3d 80 ca 8c 3d ca 91 7a 3d
       0.032583866 0.03604431 0.06874561 0.06117419
000020 32 8b d7 3b ec 2e 1a bc bc 6d 19 3d f8 83 c7 ba
       0.0065778727 -0.009410601 0.037458166 -0.0015221825
000030 1c 6f a3 3d d6 e6 bb 3d 92 6f 0e bd 51 7c 15 bc
       0.07980177 0.09174888 -0.03477437 -0.009123878
000040 d8 fb 7d bd 1b e2 6d 3c 73 86 3e bd b4 30 e0 bc
       -0.062007755 0.01451924 -0.04651494 -0.027366973
000050 b7 3c 18 bd a1 c3 a3 bc 7d 14 1d 3c 11 08 47 3c
       -0.037167277 -0.019990744 0.009587404 0.012147919
000060 48 a9 a4 bd 5e de ad 3d c9 40 59 3d 2b d3 98 bd
       -0.080401 0.08489679 0.0530403 -0.07462152
000070 ee 07 88 3d a7 b4 41 3d f6 b5 10 bd 90 e1 1e bd
       0.066421375 0.047291424 -0.03532978 -0.038789332
000080 90 1d 13 3d 29 a2 27 3d 53 a0 8e 3d 11 94 56 3d
       0.035916865 0.040926132 0.06964173 0.0523873
000090 6e 1d 59 3d 47 9d 46 bd 2d 4b e2 bb b4 3a 6c 3d
       0.053006582 -0.048489835 -0.0069059343 0.05767317
0000a0 b6 bb 43 bd f4 0e 93 bc 5c 0e a9 bc 6a 15 96 3d
       -0.047786437 -0.017951466 -0.02063673 0.07328303
0000b0 b2 64 b2 bc 0f 6e 35 3d 95 4f 83 3d 5c 41 9a 3b
       -0.02177653 0.044294413 0.064116634 0.0047074985
0000c0 12 7a 1e bd 78 a3 f5 bc 25 0c 41 bc f8 9e 6b 3c
       -0.038690634 -0.029985175 -0.011782681 0.014381163
0000d0 38 44 9b 3d 33 98 a7 3b e8 28 89 bd 53 28 9d bd
       0.07581371 0.005114579 -0.066972554 -0.07673707
0000e0 da e2 82 bd 49 aa 83 ba 54 05 cc 3d 15 53 9d 3d
       -0.06390925 -0.0010045256 0.09961954 0.07681862
0000f0 76 7b 5a 3d 67 e2 85 bd ad b9 73 3d 28 6e 99 bd
       0.053340398 -0.065373234 0.059503246 -0.07491714
000100 44 e5 29 bd ad 98 02 3c e7 8e 84 bd a3 a1 73 3c
       -0.04147841 0.007970971 -0.06472569 0.01487008
000110 de d0 b0 3d ef c3 b6 3d d7 61 93 3d 2e 85 0c bd
       0.08633588 0.0892409 0.07196396 -0.034306698
000120 15 35 47 bd 4c c8 5a 3d 78 3e 80 3d 1e a2 1d 3d
       -0.048634607 0.053413674 0.06261915 0.038484685
000130 9d 94 54 3d 61 64 aa bc 74 48 e8 3b be b9 8f 3b
       0.05189954 -0.020799818 0.007088715 0.004386156
000140 a6 42 69 bd 7a 4a 97 3d 57 a7 48 bb db 80 02 bd
       -0.056948327 0.07387252 -0.003061732 -0.031861167
000150 8b 57 03 3d eb 2f 35 bd 37 ee 82 3d 3b 67 e5 bc
       0.03206591 -0.04423515 0.06393092 -0.028003326
000160 57 4d 23 bb 11 3b f9 bc 08 2b 06 3d c7 98 87 3d
       -0.0024917924 -0.030423673 0.03275588 0.06620937
000170 d1 a9 de ba 03 27 4f bd 15 43 91 bd bc d3 6d 3d
       -0.0016987865 -0.050574314 -0.07092873 0.058063254
000180 52 c0 9b bd 13 1f d1 3c a8 8c 9d bc a3 af 88 3d
       -0.076050416 0.025527513 -0.01923211 0.06674125
000190 ca bf ec bc f5 69 06 3d 24 63 a1 3d 7f 48 0a 3d
       -0.028900046 0.032815892 0.07880238 0.033760544
0001a0 68 40 91 bd da 5d 6c 3d e8 42 72 bb cd 98 d0 3c
       -0.07092363 0.05770669 -0.0036966149 0.025463486
0001b0 d1 97 65 3b 76 b4 39 3c 5b 1a 23 bd 13 69 7b bd
       0.0035033117 0.011334529 -0.039820056 -0.061379503
0001c0 0e 56 8e bd ad c5 80 bc 1c 49 81 3d 0f 07 6f bd
       -0.069500074 -0.01571926 0.06312773 -0.05835634
0001d0 a9 9e 8e bc 23 97 9f bc 3e a0 d9 bc 78 7d a2 bd
       -0.01740964 -0.019481247 -0.026565667 -0.079340875
0001e0 45 50 88 3b ea a4 0b bd 47 7b 9c 3d 25 7e 86 3d
       0.0041599595 -0.03409282 0.07640701 0.06567029
0001f0 9b eb 49 3d ce 14 0a bd e3 eb 00 3b 60 3b 46 3d
       0.049296957 -0.033711247 0.001967185 0.04839647
000200 b2 43 91 3d bd 86 8c bd 3d 6e 2f bc 89 cd 04 bd
       0.0709299 -0.06861637 -0.010707435 -0.032422576
000210 1d 79 b0 bc d1 42 a5 3d 51 9d ab 3d 20 d8 b0 39
       -0.021542126 0.08069385 0.08379615 0.00033730362
000220 0f 41 6a 3d ab 7c 6b 3d 25 33 b1 bd ef b9 b5 bc
       0.05719095 0.05749194 -0.08652333 -0.022183387
000230 00 82 33 bd 8d 03 5a bc 2c 7d 8e 3d 1c 89 83 3c
       -0.04382515 -0.013306511 0.069574684 0.01605659
000240 44 0b 76 bd fd c0 fe bc 78 09 26 bd 7c f9 61 bd
       -0.060069337 -0.031097883 -0.040536374 -0.055169567
000250 3b ce f8 bc e4 df a8 bd 14 c2 61 bb e7 c9 b7 bd
       -0.030371776 -0.08245829 -0.0034447955 -0.08974057
000260 a0 a3 6c 3c 8a 25 84 bd f1 dc ea bb 20 23 44 3d
       0.014443308 -0.064524725 -0.0071674515 0.04788506
000270 30 28 15 3c f6 0f 08 3d 86 3b 72 bd d9 ec b7 bd
       0.00910382 0.033218347 -0.059138797 -0.08980722
000280 65 b6 08 3d 39 56 ac 3c f1 e7 31 3c db df 74 3d
       0.03337707 0.021037208 0.010858522 0.059783798
000290 81 83 1b bd df 88 63 bd ab 7f a9 bc 77 d3 8d 3c
       -0.03796721 -0.055550452 -0.02069076 0.017312748
0002a0 44 57 57 bd ab a8 6d bd 6a df 9f 3c c9 93 53 3d
       -0.052573457 -0.058022182 0.019515712 0.05165461
0002b0 e2 63 86 3d 4c 1e 9d 3c 24 74 a1 3d 78 75 28 3c
       0.0656202 0.019179486 0.0788348 0.010281913
0002c0 da 54 80 3d 4b 5e 1c bd 6e 5a 41 3c 67 ab a9 bd
       0.06266184 -0.038175862 0.011801345 -0.082846455
0002d0 7d b1 2f bd 98 e3 a1 bd e9 8e 61 3d 36 fb 5f bd
       -0.042893875 -0.07904738 0.05506793 -0.054682933
0002e0 e6 c7 6f 3d 9d bb 6c 3d ea a9 db 3c b6 bf 97 3b
       0.058540247 0.05779611 0.02681442 0.004631008
0002f0 11 ee 10 bd d7 57 99 3d f8 1e 41 bd 7e 6d 14 3d
       -0.035383288 0.07487457 -0.047148675 0.036237232
000300 43 5f 22 bd 84 81 3a 3c 8b de 45 ba 3e d4 a2 bd
       -0.03964163 0.011383418 -0.0007548115 -0.07950638
000310 e3 59 10 bd be 3f b5 3c 58 53 90 bb 2e 23 71 bd
       -0.035241973 0.022125121 -0.0044044666 -0.05887144
000320 10 e3 d7 bb 9d 07 71 3d 13 02 c0 3c 9e ab 4c 3d
       -0.0065883473 0.05884515 0.023438489 0.049968354
000330 7a 8c b0 bd 17 af 65 bd 9a 82 8d 3d ac d8 a9 bd
       -0.08620544 -0.05607518 0.06909676 -0.0829328
000340 7a 11 89 bd f8 4f 62 bd a4 e4 17 bd 8b f6 b2 bc
       -0.066927865 -0.055252045 -0.037083283 -0.021846076
000350 a7 72 60 bb 82 66 11 bd 2d 6a 4d bc db a5 a7 bd
       -0.0034248026 -0.03549815 -0.012537521 -0.08185931
000360 55 34 50 bd 4a 9d 66 3d 28 fd 1f 3d f1 61 27 3d
       -0.050831158 0.056302346 0.039059788 0.04086489
000370 73 a1 8b bb 9e 10 0f bc 1c 29 65 bd 37 a1 c9 bc
       -0.0042611896 -0.008731989 -0.055947408 -0.024613006
000380 5d 67 ae 3d 89 71 e1 bc 5a 23 02 3d a1 e2 83 bd
       0.08515809 -0.027519958 0.031771995 -0.064397104
000390 4b 9c 7f bd d6 1d 92 bd d5 d2 55 bd fc 4a b2 bd
       -0.062404912 -0.07134597 -0.05220302 -0.087057084
0003a0 ea c2 8c 3b c8 6b 4b 3d 71 04 04 bd 6c 4c 5b 3d
       0.0042956965 0.049663335 -0.0322308 0.05353968
0003b0 ef 09 75 3d 10 0a 57 3d 10 56 78 bc c2 36 f0 3c
       0.059823927 0.05249983 -0.015157238 0.029322986
0003c0 0d 26 9e 3b cf 78 f9 bb fb ac 8b bd 94 70 1d 3c
       0.0048263134 -0.0076132785 -0.06820103 0.00960936
0003d0 64 2a c1 bc f7 3e 76 bd 74 dc a5 bd d8 3c 32 bd
       -0.023579784 -0.06011864 -0.08098689 -0.043515056
0003e0 43 c4 42 3d 7e 12 91 bd 50 41 49 bd 73 01 8b 3d
       0.04755045 -0.07083605 -0.049134552 0.06787386
0003f0 d2 ef fc 3c 73 60 8f bd a3 e9 73 bd 38 ad 70 3d
       0.030876074 -0.07000818 -0.059548985 0.058758944

encoder.layers.2.nn.net.0.bias f4 [128]
000000 ce 68 aa 3d 0c 5d 1a 3d a5 84 03 3d 78 f8 f6 3c
       0.08320771 0.037686393 0.03210892 0.030147776
000010 dc d5 9d 3d aa 41 bc 3c b0 4b 5e bb 25 b7 17 bd
       0.07706806 0.02298053 -0.0033919625 -0.037039895
000020 2f 2f a9 3c 04 57 02 bd cb 94 48 3d 51 12 b4 bc
       0.020652382 -0.031821266 0.048970025 -0.02198139
000030 0f 66 1f bd 00 2d 8c 3c 83 41 41 3d 8b 34 8e bd
       -0.03891569 0.017111301 0.047181617 -0.069436155
000040 80 e7 02 bd 56 e5 89 bd 47 e1 a1 3c 53 9b 73 bd
       -0.031959057 -0.067331955 0.01976074 -0.0594743
000050 eb ea 8a 3b 69 79 59 3c 2d c6 d3 3c ad 85 16 bc
       0.00423943 0.013273575 0.025851334 -0.009187144
000060 32 bd 40 bb 9c a6 05 3d fd a0 51 3d 41 0c 9e 3c
       -0.0029409644 0.032629594 0.05117892 0.019292952
000070 36 b7 ab bd e5 29 7b 3d a0 57 16 3d f4 da 81 bd
       -0.08384554 0.06131925 0.03670466 -0.0634059
000080 0f 99 d2 3c 36 6c 47 bd 4a 82 90 bd da 21 0f 3b
       0.02570775 -0.048687182 -0.07056101 0.0021840245
000090 3c af 3f b9 e0 39 81 3d 3f 37 c0 bc 00 9b 63 bd
       -0.0001828046 0.06309867 -0.023463843 -0.05556774
0000a0 73 df 88 bc ec 6a 8e bb dd d6 d7 bb 46 9a 29 bc
       -0.016708111 -0.004346242 -0.006586893 -0.010351723
0000b0 b9 87 b2 3d c3 ad 94 3d 01 18 66 bc cd b6 bc 3c
       0.08717293 0.07259705 -0.014043809 0.023036385
0000c0 61 34 3d bd 8d 0d 94 3d 23 42 90 bc 24 4e 36 3d
       -0.04619253 0.07229147 -0.017609661 0.044508114
0000d0 c2 b6 98 3c 10 56 10 3d 53 88 9c bd de f8 3b 3d
       0.018641833 0.035238326 -0.07643189 0.045891635
0000e0 64 d8 4b 3c 28 1f b5 3d df b0 ec bb 33 d6 a8 3c
       0.012441728 0.08843833 -0.007223233 0.02060995
0000f0 99 22 4e bd c6 66 1e bd 59 a3 95 bd d0 a8 94 3d
       -0.050325964 -0.03867223 -0.07306547 0.07258761
000100 0d d8 f4 bb 3c ac f9 3c 76 1b 5a bd ac 61 8c 3d
       -0.0074720443 0.030477636 -0.053248845 0.06854567
000110 fe 12 8b bd 01 d2 91 bd 3a d8 a9 b9 9d 96 28 3d
       -0.06790732 -0.07120133 -0.00032395293 0.04115926
000120 04 1c 9f 3d 44 ec 30 3d 24 fd d4 3a 06 92 9b bd
       0.077690154 0.04319407 0.0016249758 -0.07596211
000130 11 d0 80 bd 85 69 f0 3c 55 91 3a 3d 9f 87 b2 bd
       -0.062896855 0.02934719 0.045548756 -0.08717274
000140 84 01 41 3d c5 e2 a3 bd d7 4b b7 3d 00 fa 14 bd
       0.047120586 -0.08002237 0.08950012 -0.03637123
000150 63 72 93 bd 1c 07 f7 3c ac 73 a5 bd 75 e4 31 bd
       -0.07199552 0.030154757 -0.08078703 -0.043430764
000160 0f ac 99 3c d4 0d 44 bc 1d 4c 12 3d d0 01 fd 3c
       0.018758802 -0.0119661875 0.03571712 0.030884653
000170 09 a3 80 3d 4d 65 5b bd 7c e7 40 bd a3 c2 3e bc
       0.062810965 -0.053563405 -0.04709576 -0.011643085
000180 e4 65 1c ba 15 f8 82 3d 09 ea 4d bd be 52 17 3c
       -0.00059661106 0.06394974 -0.05027202 0.009236036
000190 8e cc c7 3c 33 c2 01 3d f3 0e 91 bd fc e7 a1 bd
       0.024389531 0.031679343 -0.070829295 -0.07905576
0001a0 91 5f 7e bd 07 e4 1f 3d 37 00 2d 3c 23 7c 87 bd
       -0.062102858 0.039035823 0.010559133 -0.06615474
0001b0 0a dc 51 3c f0 d4 3e bd 24 5a 86 3d 08 e9 3b 3d
       0.012808809 -0.04658979 0.06560162 0.045876533
0001c0 40 0b 9b bd 34 e7 16 bc 01 07 86 3d 16 ec 28 3d
       -0.07570505 -0.009210397 0.06544305 0.041240774
0001d0 f6 26 b2 3d cf 3c 83 3c a9 cb 8b bd 5f 03 88 bd
       0.086988375 0.016020207 -0.068259545 -0.06641268
0001e0 57 23 62 bd 11 55 2d 3c a8 c5 1b bc 0d 31 1c bd
       -0.055209484 0.010579363 -0.009507574 -0.038132716
0001f0 0d f3 72 bd 9e e4 8e bd b2 3c b8 3d 07 6d 8b bd
       -0.059313823 -0.06977199 0.08995952 -0.06807905
