scripts/embeddings_gin_version2/IMDB-MULTI/gin_dim128_ep100_lr0.001_drop0.0/gin_classifier.pt (torch, 626909 bytes, 42 tensors)

encoder.layers.0.nn.net.0.weight f4 [128, 1]
0	0xbf44a91e	-0.7682055
1	0x3f38732b	0.7205073
2	0xbf18a51e	-0.5962695
3	0xbef52220	-0.47877598
4	0xbecec9e8	-0.40388417
5	0x3eda60fe	0.42652124
6	0x3eced25d	0.4039487
7	0xbf49ae50	-0.78781605
8	0xbf13e9d8	-0.5777869
9	0xbf004362	-0.5010282
10	0xbdefcba0	-0.1170876
11	0x3e2f1297	0.17096935
12	0xbe35cd00	-0.17753983
13	0xbe5fd110	-0.21857095
14	0x3f2a2626	0.6646446
15	0xbd7a9f44	-0.061187044
16	0xbf641b3e	-0.8910407
17	0xbe0e69b8	-0.13907516
18	0x3e8be334	0.2732178
19	0x3f379c94	0.71723294
20	0xbdd03b60	-0.10167575
21	0xbf58d5b8	-0.8470111
22	0x3f4c62d3	0.79838294
23	0x3e0f8e91	0.14019229
24	0x3f3af9c8	0.73037386
25	0xbf1318f2	-0.5745994
26	0xbf5a9718	-0.853868
27	0xbf1901be	-0.59768283
28	0x3f824882	1.0178378
29	0x3f6ef11b	0.9333665
30	0xbe92d728	-0.28679776
31	0x3f3b1ea0	0.73093605
32	0x3e94cc92	0.29062325
33	0x3f4d85be	0.802822
34	0xbf222afe	-0.6334685
35	0xbdfac930	-0.12245405
36	0x3e9a3b5f	0.30123422
37	0x3f5aed6e	0.8551854
38	0xbf243016	-0.64135873
39	0xbf433cea	-0.7626482
40	0x3eb5bf93	0.35497722
41	0xbf363c48	-0.7118573
42	0xbf225098	-0.63404226
43	0xbf77e242	-0.9682962
44	0x3f1e36af	0.6180219
45	0x3d32297b	0.04349659
46	0x3da73253	0.081638955
47	0x3d399e1a	0.045316793
48	0xbebbc9d0	-0.36677408
49	0xbf23d2e2	-0.63993657
50	0x3e38df8d	0.18054028
51	0x3f099809	0.5374761
52	0x3eb26f82	0.348507
53	0xbf08a2bc	-0.5337331
54	0x3f7cfd57	0.98824066
55	0xbe7d1880	-0.24716377
56	0xbef693d8	-0.4815967
57	0xbf0fa2f2	-0.5610801
58	0x3ec8e1cb	0.39234766
59	0x3f24351e	0.6414355
60	0xbe0c6620	-0.13710833
61	0xbf6b3cf2	-0.9188987
62	0x3f6995bb	0.91244096
63	0x3f3c7f13	0.736314
64	0xbe9b6034	-0.30346835
65	0xbed6c010	-0.41943407
66	0xbf0c480e	-0.54797447
67	0x3e227d39	0.15868081
68	0xbedc71c8	-0.43055558
69	0xbea63844	-0.32464802
70	0xbf28b546	-0.659016
71	0x3f0a4f92	0.54027665
72	0x3efe00fa	0.4961012
73	0x3ebe59c6	0.37177867
74	0x3f384641	0.719822
75	0xbf31ca68	-0.6944947
76	0xbe90ac8c	-0.28256643
77	0xbe81d534	-0.25357974
78	0xbf4163c0	-0.7554283
79	0x3f220b8d	0.63298875
80	0x3ed333e8	0.4125054
81	0xbed38e08	-0.413193
82	0xbebc1dd8	-0.3674152
83	0x3ec06a07	0.37580892
84	0xbf2bbcd4	-0.67085004
85	0x3f1594b4	0.5843003
86	0xbf3d6912	-0.7398845
87	0x3f42f2d7	0.76151794
88	0xbf17cd78	-0.59297895
89	0xbecf1198	-0.4044311
90	0x3f44b713	0.7684185
91	0x3f5d0b24	0.86345124
92	0xbeb67060	-0.3563261
93	0x3f40ada8	0.7526498
94	0x3f724d55	0.9464925
95	0x3e9a51d8	0.30140567
96	0x3ef744b8	0.48294616
97	0xbed3a310	-0.41335344
98	0x3f5bc8a6	0.8585304
99	0x3f09afd9	0.5378395
100	0xbec4bd7c	-0.38425815
101	0xbe9b12c8	-0.30287766
102	0xbbf4cf10	-0.007470973
103	0xbf551a06	-0.83242834
104	0xbe287560	-0.16451025
105	0x3f544f3e	0.82933414
106	0x3e37488c	0.17898768
107	0x3f35fc34	0.71087956
108	0x3f6800b3	0.90626067
109	0xbf0aff50	-0.54295826
110	0xbc5b970f	-0.013402714
111	0x3f2403ba	0.64068186
112	0x3f039bff	0.51409906
113	0x3e24a07a	0.16076842
114	0x3f59bc2b	0.85052747
115	0x3e4da98a	0.20084205
116	0xbeafa984	-0.34309018
117	0xbf6a670a	-0.91563475
118	0x3f6ed771	0.9329749
119	0xbf4b5c0c	-0.7943733
120	0x3eff59e7	0.49873278
121	0x3f5a0c7c	0.851753
122	0xbed0ca4c	-0.4077934
123	0xbd7c4380	-0.06158781
124	0xbc0c7200	-0.008572102
125	0x3d761ff1	0.060089055
126	0xbf647338	-0.8923831
127	0xbebfb6c0	-0.37444115

encoder.layers.0.nn.net.0.bias f4 [128]
0	0xbe990d6c	-0.29893053
1	0x3f1a087a	0.60169184
2	0x3f220204	0.63284326
3	0x3e8aebe8	0.27133107
4	0xbe63bd80	-0.22240257
5	0xbdc8708c	-0.097870916
6	0xbf40d992	-0.75331986
7	0xbf773296	-0.96561563
8	0xbf3a3896	-0.72742593
9	0xbf69efe6	-0.9138168
10	0x3f5acd3e	0.85469425
11	0xbe5794a0	-0.2105279
12	0xbec21a60	-0.37910748
13	0xbf5b2772	-0.85607064
14	0x3f1cef17	0.6130232
15	0x3f195b3a	0.59904826
16	0xbf72ac18	-0.94793844
17	0xbf2a1254	-0.66434216
18	0xbcec3108	-0.028831974
19	0xbe86d92b	-0.2633756
20	0xbe99b700	-0.3002243
21	0x3f5815a2	0.8440801
22	0xbd44ef5f	-0.048079845
23	0x3f142f73	0.578849
24	0x3f34d01c	0.7063005
25	0x3e847098	0.25867152
26	0xbf0275dc	-0.5096109
27	0xbede7d30	-0.43454885
28	0xbf780ac5	-0.96891433
29	0xbd604fdf	-0.05476367
30	0xbf3b7352	-0.7322284
31	0x3f7bfee7	0.98435825
32	0xbddcbf8e	-0.10778724
33	0xbe98003b	-0.29687676
34	0x3ed5c24c	0.417498
35	0x3f3fe108	0.74952745
36	0xbf3b8104	-0.7324374
37	0x3eec4b77	0.46151325
38	0xbe909f08	-0.2824633
39	0x3f6f64aa	0.93512976
40	0x3f6bca3c	0.9210546
41	0x3e3b72d0	0.18305516
42	0x3e56c118	0.20972097
43	0xbe3dac38	-0.18522727
44	0xbe886daa	-0.26646167
45	0xbf5e67a2	-0.8687688
46	0x3f396781	0.7242356
47	0xbebb23f3	-0.36550865
48	0x3edff410	0.43740892
49	0x3ea580dc	0.32324874
50	0x3e8bba52	0.2729059
51	0x3f5c9601	0.8616639
52	0x3f659e86	0.8969501
53	0x3ec01760	0.37517834
54	0x3eb8730a	0.36025268
55	0xbd39ed60	-0.045392394
56	0x3f24b3bc	0.6433675
57	0xbf093d70	-0.5360937
58	0x3eb3f3b4	0.35146868
59	0xbf2f865a	-0.6856438
60	0x3f744a42	0.9542581
61	0xbf3bd404	-0.73370385
62	0xbe7c1246	-0.24616346
63	0xbf60a14f	-0.8774614
64	0x3ee93318	0.45546794
65	0xbe81d3d4	-0.25356925
66	0x3eb75580	0.3580742
67	0xbee55ca0	-0.4479723
68	0x3e81ba04	0.2533723
69	0xbf5c54ee	-0.8606709
70	0xbe8b9768	-0.2726395
71	0xbf4b2594	-0.79354215
72	0x3efcafb5	0.49352804
73	0xbf5be56a	-0.85896933
74	0xbf3cd1d6	-0.73757684
75	0x3efbe85c	0.49200714
76	0xbea07b1c	-0.31343925
77	0x3f77fdb2	0.96871483
78	0x3f765764	0.962271
79	0x3f14342e	0.5789212
80	0xbd94019a	-0.07226868
81	0x3f2be708	0.671494
82	0xbf109c02	-0.5648805
83	0xbee1e666	-0.44121093
84	0xbef1aadc	-0.47200668
85	0x3f04f951	0.51942927
86	0x3f699972	0.91249764
87	0xbf2fd1ee	-0.686797
88	0x3e7b1e38	0.24523246
89	0xbee3e798	-0.4451263
90	0x3f61837b	0.8809125
91	0x3e64ebd4	0.22355586
92	0x3f590424	0.84771943
93	0x3f7f8310	0.9980936
94	0xbf61f74c	-0.8826797
95	0x3f557e25	0.83395606
96	0x3f3c7aef	0.7362508
97	0xbdad8b00	-0.08473778
98	0xbf23a078	-0.6391673
99	0xbf3b3f55	-0.7314351
100	0x3e3bd2c8	0.18342125
101	0xbc138c80	-0.009005666
102	0x3f49b18b	0.78786534
103	0xbf0ad400	-0.54229736
104	0x3e22a090	0.15881562
105	0xbdf2dc6c	-0.118584484
106	0xbe583bea	-0.21116605
107	0xbea83fe1	-0.32861236
108	0x3cfda0d2	0.030960474
109	0x3f721e94	0.9457791
110	0x3ee77653	0.45207462
111	0x3f02710c	0.50953746
112	0x3e5ed862	0.21762231
113	0xbe02d135	-0.12775119
114	0x3f41ab2f	0.7565183
115	0xbf28a73f	-0.658802
116	0x3f74ff30	0.95701885
117	0x3f617158	0.88063574
118	0x3f49c538	0.78816557
119	0xbf60bc20	-0.87787056
120	0x3f25023e	0.64456546
121	0xbdde87f9	-0.108657785
122	0xbf328e40	-0.69748306
123	0xbecbbf98	-0.39794612
124	0xbf18ea32	-0.59732354
125	0x3e7102ea	0.23536268
126	0xbca6e200	-0.020371437
127	0x3f05e494	0.5230191

encoder.layers.0.nn.net.2.weight f4 [128, 128]
0	0x3d85d698	0.06535071
1	0x3d8be478	0.06830686
2	0xbd98df9c	-0.07464525
3	0xbc40f81d	-0.011777905
4	0xbce87840	-0.028377652
5	0xbd8c541a	-0.068519786
6	0xbd8ebae7	-0.069692425
7	0xbcff2023	-0.031143254
8	0xbcdff6e4	-0.027339406
9	0xbbfeb295	-0.0077727535
10	0xbd728051	-0.059204403
11	0xbd70c1e1	-0.058778647
12	0xbcaa3b3c	-0.020780198
13	0x3d0efb2f	0.034907516
14	0x3db0e5ae	0.08637558
15	0xbc60a698	-0.013711594
16	0x3d72ccf3	0.059277486
17	0xbd1166f3	-0.03549857
18	0x3dd0283a	0.101639226
19	0x3d65c2df	0.056094047
20	0x3d5e0d95	0.05421217
21	0xbda30394	-0.07959667
22	0xbcd3385b	-0.025783708
23	0x3d2ab01e	0.041671865
24	0xbd169cba	-0.03677056
25	0xbd29a14b	-0.041413587
26	0xbcca355d	-0.024683649
27	0x3c065393	0.008198637
28	0x3db05537	0.086100034
29	0xbd7e2bdb	-0.062053543
30	0xbd094573	-0.033513498
31	0x3c97807f	0.018493889
32	0x3dbb1f06	0.091367766
33	0x3d9e5d76	0.0773267
34	0xbd9b698b	-0.0758849
35	0x3d8d000f	0.06884777
36	0x3d887ad2	0.06664051
37	0x3d863abc	0.065541714
38	0xbc30ab4d	-0.010783029
39	0x3c5161a7	0.01277963
40	0x3d6723a7	0.056430485
41	0xb9df7d6c	-0.0004262732
42	0xbdb42c48	-0.087975085
43	0x3d5afdf4	0.053464845
44	0xbc7d3c0d	-0.015456212
45	0xbccd4179	-0.025055634
46	0xbd55f7eb	-0.052238386
47	0x3d1cc8ca	0.038277425
48	0xbcd8ae9b	-0.026450446
49	0x3d81d151	0.06338752
50	0xbd8f8ea3	-0.07009628
51	0xbd7fe125	-0.062470574
52	0x3d7020de	0.058625095
53	0x3d7a074e	0.061042123
54	0x3d80db9d	0.06291888
55	0x3c944403	0.018098837
56	0x3ba6d3a8	0.0050911494
57	0xbdafe1f6	-0.085880205
58	0x3d37a37c	0.044833645
59	0xbd25e239	-0.040498946
60	0x3b662fa0	0.0035123602
61	0xbcc73830	-0.024318784
62	0xbd88e8e6	-0.06685047
63	0xbd74d63c	-0.059774622
64	0x3c83754f	0.016047148
65	0x3d0cb684	0.034353748
66	0x3cd3e28f	0.025864867
67	0xbd93cdb5	-0.0721697
68	0x3bb404fa	0.0054937573
69	0xbb1a3d05	-0.0023534906
70	0x3d47a6b7	0.048742976
71	0xbd50fb34	-0.051020816
72	0x3d99034a	0.074713305
73	0x3d8f1487	0.06986337
74	0x3c1a71db	0.009426559
75	0xbd80f8da	-0.06297465
76	0x3cee0013	0.02905277
77	0x3c9effa7	0.019409014
78	0xbd38d55d	-0.045125354
79	0x3d7aa3d9	0.061191414
80	0x3dc87016	0.09787004
81	0x3d993b5f	0.07482027
82	0x3cf7a9cd	0.030232335
83	0xbd344496	-0.04401072
84	0xbd5404e8	-0.05176249
85	0x3c3dad06	0.0115768965
86	0x3d4fa699	0.05069599
87	0x3d8b094c	0.067888826
88	0x3a531958	0.0008052788
89	0x3d88c79d	0.06678698
90	0xbd62f50e	-0.055409484
91	0xbcbc19ae	-0.022961464
92	0x3d7a11cd	0.061052132
93	0x3dbf2212	0.0933267
94	0x3d29fb84	0.04149963
95	0x3b468eb8	0.003029747
96	0xbcd25d70	-0.02567932
97	0xbd2a07ea	-0.041511454
98	0xbd19aa96	-0.0375162
99	0x3d81b8ec	0.06334099
100	0x3ba2b0f1	0.0049649407
101	0xbd2edd98	-0.042691797
102	0x3e2c3176	0.16815743
103	0xbd0a1ae0	-0.033717036
104	0xbd9ab6f2	-0.07554425
105	0xbd0e939a	-0.034808733
106	0xbd0d3ed7	-0.034483757
107	0x3d85ea41	0.06538821
108	0xbd284a21	-0.04108632
109	0x3d20e17a	0.03927753
110	0x3d160090	0.03662163
111	0x3d8949e7	0.06703549
112	0xbd950239	-0.072758146
113	0x3dc15e3f	0.09441804
114	0x3da1f6f1	0.079084285
115	0x3d505a4a	0.050867356
116	0xbd2b93e7	-0.041889098
117	0xbccabded	-0.024748767
118	0xbd51b46e	-0.05119746
119	0x3d9dbdc3	0.0770221
120	0xbc27542c	-0.010212939
121	0x3ccd6277	0.025071366
122	0x3cca7649	0.024714606
123	0x3d87705f	0.0661323
124	0x3d698ed9	0.057020996
125	0x3d777a80	0.06041956
126	0xbd443546	-0.047902368
127	0xbc7e1c52	-0.015509682
128	0xbdb14a18	-0.086567104
129	0x3c96971e	0.018382605
130	0xbdaa3da3	-0.083125375
131	0xbd638a65	-0.055551905
132	0x3da27f36	0.0793442
133	0xbd000e23	-0.03126348
134	0xbd21d3b5	-0.03950854
135	0x3cbf551c	0.023356013
136	0xbc8ad193	-0.016945636
137	0xbdaa5524	-0.083170205
138	0x3dad846a	0.084725216
139	0x3d864fed	0.065582134
140	0xbd6c8087	-0.05773976
141	0xbda03017	-0.078216724
142	0x3da84910	0.082170606
143	0xbdb0664c	-0.086132616
144	0x3c245b81	0.010031582
145	0x3d9f0386	0.07764344
146	0xbd9c74bb	-0.07639452
147	0x3dbc683f	0.09199571
148	0xbd5fddb0	-0.054654777
149	0x3d8b122e	0.06790577
150	0x3c9324fe	0.017961975
151	0xbd3f96ca	-0.046774663
152	0xbd68ac8e	-0.056805186
153	0xbdaa0302	-0.08301355
154	0xbd8d0e67	-0.06887513
155	0x3d9ca0a9	0.07647831
156	0x3d34f6af	0.04418057
157	0xbce5e78f	-0.028064517
158	0x3db2a3be	0.087226376
159	0x3d961e0a	0.07329948
160	0x3d089627	0.03334632
161	0x3dc59fc6	0.09649615
162	0x3c718ba6	0.014742767
163	0x3da3e3d5	0.0800244
164	0x3dc06517	0.09394281
165	0x3d9c29c3	0.07625153
166	0x3cd60757	0.026126547
167	0xbda3c563	-0.07996633
168	0x3cafc42f	0.021455852
169	0xbd5b59c7	-0.053552415
170	0x3d9acb10	0.07558262
171	0x3d80e81b	0.062942706
172	0x3be360c7	0.006939027
173	0x3da0df0a	0.07855041
174	0xbce9b5df	-0.028529106
175	0x3c8df896	0.01733045
176	0xbd1b7321	-0.037951592
177	0x3c841eaf	0.016127912
178	0x3d08f0f9	0.033432934
179	0xbd299cfd	-0.04140948
180	0x3c695b08	0.014242895
181	0x3d8ca8e2	0.06868149
182	0x3d87b2da	0.0662591
183	0xbd077753	-0.03307278
184	0x3ca952d1	0.020669373
185	0x3d5cc3b8	0.05389759
186	0x3d5729b0	0.05252999
187	0x3db58a0c	0.08864221
188	0xbd063c8a	-0.03277258
189	0xbd81f69c	-0.06345865
190	0x3b2a0f37	0.002594901
191	0xba8ad7a5	-0.0010592832
192	0x3c0d92ab	0.008640925
193	0x3c13eaa1	0.009028108
194	0x3d6b57f9	0.057456944
195	0x3db5d5c1	0.08878661
196	0x3d3105f1	0.043218557
197	0x3d62219b	0.05520783
198	0x3c8bd904	0.017071255
199	0x3db84bd2	0.089988366
200	0x3d91f8cb	0.071275316
201	0x3d2e9f15	0.04263218
202	0xbd5888a7	-0.052864697
203	0x3dacf13d	0.0844445
204	0x3d96002c	0.073242515
205	0x3d972a0c	0.07381067
206	0xbdb31c30	-0.08745611
207	0x3b48ef16	0.0030660084
208	0x3d178a09	0.036996875
209	0xbc5e031f	-0.013550549
210	0x3cd05938	0.025433168
211	0x3d31caf2	0.043406434
212	0x3d403023	0.046920907
213	0xbcdeed39	-0.027212726
214	0x3d1de0c1	0.03854442
215	0x3bf5c9c1	0.0075008576
216	0xbcb336d5	-0.021876732
217	0xbc95646c	-0.018236361
218	0xbd53c39d	-0.051700223
219	0x3caf0ef9	0.021369444
220	0x3d5500af	0.052002605
221	0x3cadb0ac	0.021202408
222	0x3ccc88ce	0.024967577
223	0xbb7f0fd3	-0.0038919344
224	0xbd43991b	-0.047753435
225	0xbda264b6	-0.07929365
226	0xbd502d00	-0.050824165
227	0xbb3dcf9a	-0.0028962852
228	0xbccba898	-0.024860665
229	0xbd8fb95e	-0.07017778
230	0x3dd151d3	0.10220685
231	0x3d93d046	0.072174594
232	0xbda8a66c	-0.082348675
233	0xbc255583	-0.010091188
234	0x3d5b4a46	0.05353763
235	0x3d4ceec9	0.05003241
236	0xbd941221	-0.0723002
237	0xbdb28752	-0.087172166
238	0xbb75d44d	-0.0037510574
239	0x3d855e6b	0.065121494
240	0x3d2368e9	0.039894972
241	0x3cec3163	0.028832143
242	0x3caf38d2	0.021389399
243	0xbd98f3bb	-0.07468363
244	0x3d8e30ae	0.06942879
245	0x3a314d2f	0.00067635154
246	0x3d799c0b	0.06093983
247	0x3d15d5ea	0.036580957
248	0xb8547aae	-5.0658993e-05
249	0x3ce79bbb	0.0282725
250	0x3d45b0b4	0.04826422
251	0x3d34dfbd	0.044158686
252	0xbd95c719	-0.073133655
253	0xbd5a2ddb	-0.053266387
254	0x3d267f67	0.040648844
255	0x3d02cf8d	0.031936217

encoder.layers.0.nn.net.2.bias f4 [128]
0	0xbb7ded20	-0.0038746074
1	0xbd7cbaeb	-0.061701696
2	0xbd9231cd	-0.07138405
3	0xbced1dfe	-0.028944965
4	0x3d24ade4	0.040204898
5	0xbd0681e9	-0.032838736
6	0x3adb0105	0.0016708678
7	0x3c93f513	0.018061196
8	0x3ceff588	0.029291883
9	0x3db16c9f	0.08663296
10	0xbc500d82	-0.012698533
11	0xbd01ce71	-0.03169102
12	0x3d497c77	0.049190965
13	0x3d82b53d	0.06382225
14	0xbda8d3c9	-0.0824352
15	0x3c83df4a	0.016097683
16	0x3c4dedc0	0.012568891
17	0xbd809f38	-0.062803686
18	0xbd8af727	-0.06785422
19	0xbc3bcda8	-0.0114626065
20	0x3ce646bd	0.028109903
21	0xbd869073	-0.0657052
22	0xbdb0ba62	-0.086293
23	0x3d8decfe	0.06929968
24	0xbd8a582c	-0.06755099
25	0x3d9d5fa9	0.07684261
26	0xbd77e0c5	-0.06051709
27	0x3d8efd75	0.06981937
28	0x3db0e44a	0.08637293
29	0xbd8b4d19	-0.068018146
30	0xbd4cbb5d	-0.04998337
31	0xbd2de579	-0.04245517
32	0x3ca0478d	0.019565368
33	0x3c5718e3	0.013128492
34	0xbd3bf222	-0.045885213
35	0x3d231282	0.039812572
36	0xbd6f57dc	-0.0584334
37	0xbd788cac	-0.06068103
38	0xbcaf0757	-0.021365805
39	0x3dae5c05	0.08513645
40	0x3d358cee	0.044323854
41	0xbcc373a4	-0.023858853
42	0xbd8fe3ea	-0.07025893
43	0xbd8843c5	-0.06653551
44	0x3d5d02c2	0.05395771
45	0xbc8db0a9	-0.017296152
46	0x3da6cc3c	0.08144423
47	0xbda3fafe	-0.08006857
48	0xbda616ae	-0.081097946
49	0xbd991e4d	-0.074764825
50	0x3d3f8ad1	0.046763245
51	0x3c67cb8e	0.014147652
52	0xbdaa1c0e	-0.08306132
53	0xbd497fbb	-0.04919408
54	0xbc5176ce	-0.012784673
55	0xbafe6882	-0.0019409808
56	0x3d8261b2	0.0636629
57	0xbd2d43e0	-0.04230106
58	0x3ce7086c	0.028202258
59	0xbd88d7da	-0.066817954
60	0x3cbe767b	0.023249855
61	0xbd859835	-0.06523172
62	0xbd4adcb2	-0.049526878
63	0x3ccd4c65	0.025060842
64	0xbd5e2f91	-0.05424458
65	0x3db4e5bc	0.08832881
66	0x3d0d3f20	0.03448403
67	0x3ce20b0c	0.027593158
68	0xbd240ee9	-0.040053282
69	0x3ce938aa	0.028469402
70	0xbd4c1cf7	-0.04983231
71	0x3d9bbc62	0.076042905
72	0xbd97a28f	-0.074040525
73	0x3d58c650	0.0529235
74	0xbd6ea654	-0.05826409
75	0xbd98415b	-0.074343406
76	0xbc5cf6b0	-0.013486549
77	0x3bddc034	0.006767297
78	0xbca458a8	-0.020061806
79	0x3d2ae203	0.041719448
80	0xbd206514	-0.039158896
81	0x3c19b094	0.009380478
82	0x3da1ddce	0.07903634
83	0xbd64f022	-0.05589307
84	0xbd94925a	-0.07254477
85	0x3cf0ed95	0.029410163
86	0xbd23d8b8	-0.0400016
87	0xbb46f92d	-0.0030360923
88	0xbc1de71e	-0.009637622
89	0xbd185ab2	-0.03719587
90	0x3da87598	0.08225554
91	0xbd66f09c	-0.056381807
92	0xbbb6076b	-0.0055550835
93	0xbd526f96	-0.051375948
94	0xbda881dd	-0.082278945
95	0x3d546dcd	0.051862527
96	0x3a9617ca	0.0011451181
97	0xbd9b8e20	-0.075954676
98	0xbd2010cf	-0.03907853
99	0xbd9e7344	-0.07736829
100	0xbd7c64c6	-0.061619543
101	0xbb134554	-0.0022471743
102	0xbc01f5d7	-0.007932148
103	0x3d5c2668	0.053747565
104	0xbd832676	-0.0640382
105	0x3d9f7711	0.07786382
106	0xbd11623c	-0.035494074
107	0x3d2fe6db	0.04294477
108	0x3d9e2f23	0.07723834
109	0x3cc429da	0.023945738
110	0x3d41f710	0.047354758
111	0xbd42be17	-0.047544565
112	0xbbb4004f	-0.005493201
113	0x3d9e5924	0.07731846
114	0x3a8e5014	0.0010857605
115	0xbc5bddc3	-0.013419571
116	0x3d97abd4	0.074058205
117	0x3d286933	0.04111595
118	0xbd8af952	-0.06785835
119	0x3d1a2ab7	0.037638392
120	0xbd6ac0d1	-0.05731279
121	0xbc530c94	-0.012881417
122	0xbd658ba0	-0.05604136
123	0x3d76bde1	0.060239676
124	0x3d034237	0.03204557
125	0xbd19414e	-0.037415795
126	0xbda1a4a2	-0.07892729
127	0xbd393817	-0.045219507

encoder.layers.1.nn.net.0.weight f4 [128, 128]
0	0x3d2f7c42	0.04284311
1	0xba30bae8	-0.00067417184
2	0x3c127423	0.008938822
3	0xbc9509b4	-0.018193103
4	0xbd8a89eb	-0.06764587
5	0xbda5e49d	-0.08100245
6	0x3d6bd4f3	0.05757613
7	0x3d0bcf7f	0.03413343
8	0x3d2d6431	0.042331878
9	0xbccef73d	-0.025264377
10	0xbd3af410	-0.045642912
11	0xbd833ef7	-0.06408494
12	0xbd72d0b5	-0.05928107
13	0x3d14c2e6	0.036318682
14	0xbd9009ac	-0.07033095
15	0xbc066572	-0.008202897
16	0xbd1e4aed	-0.038645674
17	0xbc9ca7bc	-0.01912295
18	0xbda80170	-0.08203399
19	0xbca1db04	-0.019757755
20	0x3cab8307	0.020936502
21	0xbd82396b	-0.06358608
22	0x3d9b8560	0.07593799
23	0x3c8bbef2	0.017058823
24	0x3d73fb9a	0.059566118
25	0xbda0a54a	-0.078440264
26	0xbd8eedd3	-0.06978955
27	0x3da763dd	0.08173344
28	0x3d3965e0	0.04526317
29	0xbd88058a	-0.066416815
30	0xbdaf4c57	-0.085594825
31	0xbd86705e	-0.06564401
32	0xbcd83e93	-0.026397025
33	0x3da105bc	0.07862422
34	0xbdb7cd70	-0.08974731
35	0x3d8e820a	0.06958397
36	0xbd857321	-0.065161
37	0xbce4a8e2	-0.02791256
38	0x3c8d7145	0.017265925
39	0xbd7e66d7	-0.062109794
40	0x3dbc5547	0.09195953
41	0xbbe67b13	-0.0070337146
42	0xbca4b612	-0.02010635
43	0xbd2f92aa	-0.04286448
44	0x3d482ae1	0.048869018
45	0xbd2f31eb	-0.042772215
46	0x3d7b0eaf	0.0612933
47	0xbd4cc59e	-0.04999315
48	0x3ca146ad	0.019687021
49	0x3da6c487	0.08142953
50	0x3d3e0948	0.04639557
51	0xbd95db02	-0.07317163
52	0xbd7cdcff	-0.061734196
53	0xbd4cdaff	-0.05001354
54	0x3daa66bf	0.083203785
55	0x3d446cec	0.04795544
56	0x3c4df09f	0.012569576
57	0xbd764dde	-0.060132854
58	0xbc993339	-0.018701183
59	0x3d4c0e85	0.049818534
60	0x3d8748b2	0.066056624
61	0xbcf6041b	-0.030031255
62	0xbc70bcc1	-0.01469344
63	0xbd5f55b7	-0.054525103
64	0xbd9d47bd	-0.076796986
65	0x3d433e54	0.047666863
66	0x3d4df974	0.050286725
67	0x3b86fda4	0.004119592
68	0x3d6282b2	0.055300422
69	0xbd26c4a8	-0.04071489
70	0xbd3b2925	-0.045693535
71	0x3dba09e1	0.090839155
72	0x3d959069	0.07302935
73	0x3b723b48	0.0036961604
74	0x3da11936	0.07866137
75	0x3d015168	0.031571776
76	0x3b682ec9	0.0035428277
77	0xbd9e91ae	-0.0774263
78	0xbd8497f4	-0.06474295
79	0xbdabdbdf	-0.083915465
80	0xbd56289c	-0.052284822
81	0xbd2983ae	-0.041385345
82	0x3d82c320	0.063848734
83	0xbd14bfb0	-0.03631562
84	0x3d835b60	0.06413913
85	0xbcc14072	-0.0235903
86	0x3d27b569	0.04094449
87	0xbda6d567	-0.08146172
88	0x3ab404e4	0.0013734368
89	0xbd91aa70	-0.071125865
90	0xbaa33073	-0.0012450352
91	0x3d2d0aca	0.042246617
92	0x3d273bc6	0.04082849
93	0xbd52ec2c	-0.051494762
94	0x3d755cf5	0.059903104
95	0x3d301fa2	0.042998917
96	0xbda2d808	-0.07951361
97	0x3d4a8da2	0.049451478
98	0xbce2dfc5	-0.027694592
99	0x3d4e129e	0.050310723
100	0xbd9735da	-0.07383318
101	0xbd153643	-0.0364287
102	0x3d07a23a	0.033113696
103	0xbcb3b0fc	-0.021934979
104	0xbce601dc	-0.028077058
105	0xbcbb68c0	-0.022877097
106	0xbd9bb301	-0.07602502
107	0x3c18b2fe	0.009320019
108	0xbc121669	-0.008916476
109	0xbd934496	-0.07190816
110	0xbd02d927	-0.031945374
111	0x3b033498	0.0020020362
112	0x3c3c72a1	0.011501939
113	0xbd12f53b	-0.0358784
114	0x3d9f7b30	0.07787168
115	0xbdb9b5c8	-0.09067875
116	0xbd5faa42	-0.05460573
117	0x3d313f0e	0.043273024
118	0x3c6bae0d	0.014384759
119	0xbd1a8666	-0.03772583
120	0x3da4a862	0.08039929
121	0xbd1dac15	-0.03849419
122	0xbd72275b	-0.059119564
123	0x3c9ef34c	0.019403122
124	0xbd72cde2	-0.059278376
125	0xbdaf0fff	-0.08547973
126	0x3d91dedd	0.07122586
127	0x3c9a27ea	0.01881786
128	0x3d8b5adb	0.06804439
129	0xbbf6617b	-0.007518945
130	0x3c071ea4	0.008247051
131	0x3da2262d	0.07917438
132	0x3d17a89d	0.037026037
133	0x3d650aa5	0.055918355
134	0x3c679172	0.014133798
135	0xbda1777c	-0.07884118
136	0xbd45ae18	-0.048261732
137	0xbd5fce2d	-0.054639984
138	0xbca1d25b	-0.019753626
139	0x3cecef3b	0.028922668
140	0x3c3cb7bb	0.011518414
141	0x3dc9eed0	0.09860003
142	0xbc70114d	-0.014652562
143	0xbbef0ccf	-0.007295228
144	0x3da41d27	0.08013373
145	0x3d2c7c32	0.04211063
146	0xbbda8da9	-0.0066697192
147	0xbde27ab5	-0.11058561
148	0xbbe74e4f	-0.0070588957
149	0x3ceef67c	0.029170267
150	0x3d1f644e	0.038914017
151	0x3d3fb279	0.046801064
152	0xbd76eb41	-0.06028295
153	0x3d6fb1ce	0.058519177
154	0x3d36653e	0.044530146
155	0xbc0d5075	-0.0086251395
156	0xbdae089a	-0.08497734
157	0x3da11005	0.078643836
158	0x3d702d81	0.058637146
159	0xbd9edd44	-0.07757047
160	0xbd8a409f	-0.06750607
161	0x3dad20b2	0.08453502
162	0x3d70d013	0.058792185
163	0xbccd3858	-0.02505128
164	0xbd7db62a	-0.061941303
165	0x3d394e73	0.04524083
166	0x3c3cb324	0.01151732
167	0xbd72330f	-0.059130725
168	0xbd845741	-0.06461955
169	0x3d86ff70	0.065916896
170	0xbc7f9cb6	-0.015601328
171	0xbdbd0300	-0.09229088
172	0xbda852a4	-0.082188874
173	0xbd91834b	-0.0710512
174	0x3ce0711b	0.027397683
175	0xbd9a33e5	-0.07529429
176	0xbd8fd2a0	-0.070225954
177	0xbd50f6aa	-0.051016487
178	0x3d3cfec3	0.046141397
179	0xbcc6cdf5	-0.02426813
180	0xbbd8a4bd	-0.006611435
181	0xbc8df8fa	-0.017330635
182	0xbd0dc60b	-0.034612697
183	0x3d9aca13	0.07558074
184	0xbd939fd2	-0.07208218
185	0xbd508d10	-0.050915778
186	0xbd0732a4	-0.03300728
187	0xbd265a25	-0.040613312
188	0xbde71e4b	-0.11285075
189	0x3b48a644	0.003061668
190	0xbda72adc	-0.08162472
191	0xbd130014	-0.035888746
192	0x3c9a01a4	0.01879961
193	0x3d889b5d	0.06670258
194	0xbd3e9a38	-0.046533793
195	0xbdbd4964	-0.09242514
196	0xbd4fdca9	-0.050747547
197	0x3d91fdae	0.07128464
198	0xbd08bc72	-0.03338284
199	0xbd95d9fe	-0.07316969
200	0x3d58e2e4	0.052950755
201	0xbbaeedd4	-0.00533841
202	0x3a898676	0.0010492343
203	0xbda73042	-0.08163501
204	0xbd0cb4cb	-0.034352105
205	0x3d882b79	0.06648917
206	0x3d8a88f3	0.06764402
207	0x3b919613	0.004442939
208	0x3d30bb45	0.043147344
209	0xbc65c200	-0.014023304
210	0x3cad3b1f	0.021146355
211	0xbe01b933	-0.12668304
212	0x3d8933eb	0.06699356
213	0x3d280835	0.04102345
214	0xbcc12940	-0.02357924
215	0xbdc1d521	-0.09464479
216	0xbdb3ae5f	-0.08773493
217	0x3d954b10	0.07289708
218	0x3d4f65ac	0.05063407
219	0xbd80e55c	-0.06293747
220	0xbd5c3201	-0.053758625
221	0xbcf1a6aa	-0.029498417
222	0xbcfb0e5c	-0.030646496
223	0xbd93ade1	-0.07210899
224	0x3cce5683	0.025187736
225	0xbd4b37b0	-0.049613655
226	0xbd104ff5	-0.035232503
227	0x3cc4e7dd	0.024036342
228	0xbda5eff7	-0.0810241
229	0xbd90ac96	-0.07064168
230	0x3d1abe06	0.037778877
231	0xbc38cfd8	-0.011280023
232	0x3d86f471	0.06589592
233	0x3da03155	0.07821909
234	0x3d1138b9	0.035454486
235	0xbcfdd54f	-0.030985503
236	0xbc951693	-0.01819924
237	0x3d6f0544	0.05835463
238	0xbd903d71	-0.07042969
239	0x3d8937f3	0.067001246
240	0x3d0b11e4	0.03395261
241	0xbd0fc450	-0.035099328
242	0xbd992505	-0.07477764
243	0xbd822d35	-0.06356279
244	0x3d931112	0.0718099
245	0xbd856e61	-0.06515194
246	0xbb99fab0	-0.0046990737
247	0x3d929b19	0.07158489
248	0xbda32f26	-0.07967977
249	0xbc153181	-0.009106041
250	0x3d96207c	0.07330415
251	0x3d9d4459	0.07679052
252	0xbd24a53c	-0.040196642
253	0xbd1afbe8	-0.037837893
254	0xbdad31c8	-0.08456761
255	0xbd713567	-0.05888882

encoder.layers.1.nn.net.0.bias f4 [128]
0	0x3d24b386	0.04021027
1	0x3cb1a91f	0.021687089
2	0x3d3e6411	0.04648215
3	0x3d3ecec4	0.046583906
4	0x3cbda3a6	0.023149323
5	0x3dad2e5b	0.08456107
6	0xbb8e988b	-0.0043516806
7	0xbd4eb834	-0.05046864
8	0x3d6115e4	0.054952517
9	0x3d8e5353	0.069494866
10	0x3d8836c1	0.066510685
11	0xbd103997	-0.035211172
12	0x3d37d5ec	0.044881746
13	0x3d63034e	0.055423073
14	0x3c6ba775	0.014383187
15	0x3d9764af	0.07392251
16	0x3d8b228e	0.067937
17	0x3d5618ae	0.05226963
18	0x3da4c888	0.08046061
19	0x3d8d7c3f	0.06908464
20	0xbdbfccf0	-0.093652606
21	0xbdb4e47d	-0.08832643
22	0xbd54efed	-0.051986624
23	0x3da39036	0.079864904
24	0xbdaaba7e	-0.08336352
25	0x3d9d586c	0.07682881
26	0xbbd7c493	-0.006584713
27	0xbb9e4811	-0.0048303683
28	0x39bb2685	0.0003569612
29	0xbcb2a624	-0.021807738
30	0x3d5e0136	0.054200374
31	0x3dc2fd6e	0.09520994
32	0xbd91959d	-0.071086146
33	0xbd83b066	-0.0643013
34	0xbdb865f3	-0.0900382
35	0xbd396d8f	-0.0452705
36	0xbb6deb2d	-0.0036303506
37	0x3cc81bf0	0.024427384
38	0xbd83b221	-0.0643046
39	0x3d935826	0.07194547
40	0x3d256a1d	0.0403844
41	0xbdc01e75	-0.09380809
42	0x3d224b73	0.039622735
43	0xbd3eaa53	-0.046549153
44	0x3cce9731	0.025218578
45	0xbd0f786f	-0.035026964
46	0xbc9be3c5	-0.019029507
47	0x3d9379a5	0.07200936
48	0x3cac96a8	0.021067932
49	0x3da71df6	0.081600115
50	0xbd7a40ff	-0.06109714
51	0xbd688a3e	-0.056772463
52	0x3d7d7a3b	0.061884146
53	0xbdc9f555	-0.098612465
54	0xbd0d2503	-0.034459125
55	0x3cd15cf4	0.025557019
56	0x3ca44663	0.020053094
57	0x3d85af81	0.06527615
58	0x3d9cefca	0.07662924
59	0xbda7bf1b	-0.08190747
60	0x3bdb81f5	0.0066988417
61	0xbdaf4cff	-0.08559608
62	0x3d832fb8	0.06405586
63	0xbcdfab74	-0.027303435
64	0x3dae9ff5	0.08526603
65	0x3dd7bbc4	0.1053386
66	0xbc42ff69	-0.011901715
67	0xbc716c41	-0.014735282
68	0x3daa7df4	0.08324805
69	0xbd540bd3	-0.05176909
70	0xbd84a420	-0.06476617
71	0x3d52c01e	0.05145275
72	0x3caca5ee	0.021075215
73	0x3d5efccf	0.054440316
74	0x3ccf4213	0.025300061
75	0x3ca9c6ce	0.02072468
76	0xbcce4ee9	-0.025184112
77	0xbd595253	-0.053057026
78	0x3cf848fa	0.030308235
79	0x3db011f4	0.08597174
80	0xbd8b186a	-0.06791766
81	0x3d7e5be1	0.06209934
82	0xbb4383b0	-0.002983313
83	0xbccf3b23	-0.025296753
84	0x3c1b75ea	0.009488562
85	0xbddc6838	-0.10762066
86	0x3d82e406	0.06391148
87	0x3dbddd9d	0.09270785
88	0xbd11448f	-0.035465773
89	0xbbe74864	-0.00705819
90	0xbd99ef84	-0.07516387
91	0xbcfe3471	-0.031030865
92	0xbd9f143c	-0.07767531
93	0xbda2e963	-0.07954671
94	0x3b527cbd	0.0032117807
95	0x3db1d050	0.086823106
96	0xbdb8d6de	-0.09025358
97	0xbc2df01a	-0.010616327
98	0x3da81e74	0.082089335
99	0x3dc2d702	0.09513666
100	0xbd4bdec1	-0.04977298
101	0x3acb4421	0.0015507975
102	0xbd8a063f	-0.067394726
103	0xbd1c73ee	-0.038196497
104	0x3dafb599	0.08579559
105	0x3d00d665	0.031454463
106	0xbd22016f	-0.03955215
107	0x3d94513c	0.07242057
108	0x3db14f52	0.08657707
109	0x3d78019a	0.060548402
110	0xbcc6e3eb	-0.024278602
111	0xbc46de6d	-0.012137991
112	0xbd8dea4f	-0.069294564
113	0x3dbeb796	0.0931236
114	0xbc7d734d	-0.015469384
115	0xbd34eeb5	-0.04417296
116	0xbdb90e39	-0.09035916
117	0x3da6aa0f	0.08137905
118	0x3d9340cf	0.07190096
119	0x3cd43d24	0.02590806
120	0xbd105583	-0.0352378
121	0x3dd0485b	0.10170051
122	0x3d14b3d6	0.036304317
123	0xbd0135b3	-0.031545352
124	0x3da2e61f	0.07954048
125	0xbcea3a2a	-0.028592188
126	0xbcef6b54	-0.029225983
127	0xbdb63407	-0.08896642

encoder.layers.1.nn.net.2.weight f4 [128, 128]
0	0xbd106af0	-0.035258234
1	0x3d38dec9	0.04513434
2	0x3c07e3c1	0.008294047
3	0x3d0784e7	0.03308573
4	0x3d4f0f73	0.050551843
5	0xbdb3fcae	-0.08788429
6	0xbdaee14f	-0.08539068
7	0xbdb901a4	-0.09033516
8	0x3c20adc7	0.009807057
9	0xbda8a3ad	-0.08234344
10	0xbcb1eaa1	-0.021718325
11	0xbdb0b6f0	-0.086286426
12	0x3d74b472	0.0597424
13	0xbcc2d237	-0.023781879
14	0x3c51af73	0.012798178
15	0xbd93fa21	-0.07225443
16	0x3c061e91	0.008185999
17	0xbd7aa772	-0.061194845
18	0x3d62c95d	0.055367816
19	0xbd727f97	-0.05920371
20	0xbd9ae678	-0.0756349
21	0x3d41ebe4	0.047344103
22	0x3ae710fd	0.0017628964
23	0xbcc8be4c	-0.024504803
24	0xbc5c2084	-0.013435487
25	0xbdb56162	-0.08856465
26	0xbd1e31aa	-0.038621582
27	0x3c37d719	0.011220717
28	0xbdb822c4	-0.08991006
29	0xbda1416c	-0.07873806
30	0xbbcdf0bc	-0.0062848013
31	0x3d4bc565	0.049748797
32	0xbd0f9009	-0.035049472
33	0x3cae597b	0.021282902
34	0x3d2db815	0.042411882
35	0xbd81925c	-0.06326744
36	0xbcc26a8d	-0.023732448
37	0xbd4262b4	-0.047457412
38	0x3d899184	0.06717208
39	0xbd8cd3ac	-0.06876311
40	0x3d0f23a0	0.034946084
41	0x3d61eff0	0.055160463
42	0xbd55ec45	-0.052227277
43	0xbdd4a054	-0.10382143
44	0xbd2fa59e	-0.042882554
45	0x3d742959	0.059609745
46	0xbdce80c1	-0.100831516
47	0x3bb6919b	0.0055715567
48	0x3cc225bc	0.023699634
49	0xbd26c18a	-0.040711917
50	0xbd920d3e	-0.07131432
51	0xbbf59a92	-0.007495233
52	0x3d93c736	0.07215731
53	0xbccdcd5f	-0.025122343
54	0xbd41753a	-0.047230937
55	0xbcf23d2e	-0.029570188
56	0xbd5f2a44	-0.054483667
57	0x3d333022	0.043747075
58	0x3d82c8f5	0.06385986
59	0x3d9f9dca	0.07793768
60	0xbd18023b	-0.037111502
61	0xbd845430	-0.0646137
62	0xbc9a3f6f	-0.018829076
63	0xbd5dd400	-0.054157257
64	0xbd85b64b	-0.0652891
65	0x3cf8977d	0.030345673
66	0xbd4602c0	-0.048342466
67	0x3b91a6af	0.004444919
68	0xbd9a3148	-0.07528931
69	0xbdafa1f7	-0.08575814
70	0x3d042214	0.032259062
71	0xbd6e45e4	-0.05817212
72	0x3d9bf86e	0.076157436
73	0x3d3284f5	0.04358383
74	0xbd4942f6	-0.049136125
75	0x3da56e43	0.080776714
76	0xbccdb763	-0.02511186
77	0x3d839289	0.06424434
78	0xbd5361a4	-0.05160679
79	0xbc04467a	-0.008073444
80	0x3d431176	0.047624074
81	0x3dbc0247	0.09180122
82	0xbbb0475e	-0.0053796014
83	0x3cf9f223	0.030510968
84	0xbcf870d8	-0.030327246
85	0x3da8d837	0.08244365
86	0xbdbc349e	-0.091897234
87	0x3d8e9787	0.06962495
88	0xbd5f474b	-0.05451135
89	0x3d39235e	0.045199744
90	0xbd0692fc	-0.03285502
91	0x3d9947b3	0.07484379
92	0x3d31069b	0.04321919
93	0x3d2f878a	0.04285387
94	0x3cc5302d	0.024070824
95	0xbd0b1581	-0.033956055
96	0x3d9d1045	0.07669119
97	0xbd5666a8	-0.052343994
98	0xbd9ca6b8	-0.076489866
99	0xbd64a956	-0.055825554
100	0x3d389b1c	0.0450698
101	0xbda81622	-0.082073465
102	0x3d0c6633	0.034277152
103	0xbd0f2c40	-0.03495431
104	0x3d9f86bb	0.0778937
105	0xbc0e1183	-0.008671167
106	0xbdac27e0	-0.08406043
107	0xbd44acbf	-0.048016306
108	0xbd1264ce	-0.035740666
109	0xbd0b41a1	-0.033998135
110	0x3d567a15	0.05236252
111	0x3c9823b0	0.018571705
112	0xbc9e7111	-0.019341024
113	0x3cc6d58f	0.024271755
114	0xbde31af9	-0.11089129
115	0x3c8e78e3	0.017391628
116	0x3db69cca	0.08916624
117	0xbc5fee89	-0.013667711
118	0x3d799712	0.060935088
119	0x3d728461	0.059208278
120	0x3cbd6a69	0.02312203
121	0xbcdbf57c	-0.026850455
122	0xbd1b588f	-0.037926253
123	0xbd73d62b	-0.05953042
124	0xbd66a482	-0.05630923
125	0x3cb060d8	0.021530554
126	0x3d532a03	0.051553737
127	0xbd014e65	-0.031568903
128	0x3c2a89cc	0.01040883
129	0x3d09bc6f	0.03362697
130	0xbcc9fc18	-0.02465634
131	0xbccffa8f	-0.02538803
132	0x3da60c2f	0.081077926
133	0x3d4829a0	0.04886782
134	0x3ceee289	0.029160755
135	0xbd7537b9	-0.059867594
136	0x3d8a992a	0.06767495
137	0x3db318f1	0.087449916
138	0x3cc2dbaf	0.023786394
139	0x3c981d43	0.01856864
140	0x3db66a6c	0.08907017
141	0xbda7e574	-0.081980616
142	0xbd4cee76	-0.0500321
143	0xbc0a37ba	-0.008436138
144	0xbd99436b	-0.07483562
145	0x3d5ce70e	0.05393129
146	0x3d0c564c	0.034261987
147	0x3dc6c624	0.09705761
148	0x3dd27083	0.10275366
149	0xbdaae973	-0.08345308
150	0x3d802810	0.06257641
151	0x3cf36c0a	0.029714603
152	0x3da90fa2	0.08254935
153	0xbcbbda4a	-0.022931237
154	0x3a25c855	0.0006324102
155	0x3d21db8f	0.039516028
156	0x3a9faf4f	0.0012182983
157	0x3d5bec4a	0.05369214
158	0x3d6ad921	0.057335977
159	0xbd19a52d	-0.03751104
160	0xbb9ce182	-0.004787625
161	0xbd8b9b91	-0.06816781
162	0x3d21cb37	0.03950044
163	0xbd9c9b32	-0.07646789
164	0x3be70b11	0.0070508798
165	0x3d37006c	0.044678137
166	0x3d99fa27	0.07518416
167	0xbd66ddb9	-0.056363795
168	0x3cfba9a4	0.03072054
169	0x3d30cb76	0.043162785
170	0xbc43363c	-0.011914786
171	0xbd1e26b3	-0.038611125
172	0xbd90e8fc	-0.07075688
173	0x3d639e0a	0.05557064
174	0xbc9b4909	-0.018955724
175	0x3cdefe9f	0.027221022
176	0x3d785e7f	0.060636993
177	0x3c8b9453	0.0170385
178	0x3d8103f3	0.062995814
179	0x3d04156b	0.03224699
180	0xbd36a90e	-0.044594817
181	0x3d33a02c	0.043853924
182	0xbd4c9d4a	-0.04995469
183	0xbca2fbff	-0.019895552
184	0x3c953ed0	0.018218428
185	0xbc97c111	-0.018524678
186	0x3bca0ee8	0.0061663277
187	0x3d45dbb7	0.04830524
188	0x3d31c49a	0.043400384
189	0xbd61b9f0	-0.055108964
190	0xbc817e30	-0.015807241
191	0x3d399d86	0.04531624
192	0x3dbcbc4b	0.092156015
193	0xbd88f594	-0.06687465
194	0x3db166b0	0.08662164
195	0x3d881215	0.06644074
196	0xbd324a90	-0.04352814
197	0xbd4b44ec	-0.049626276
198	0xbd9c1cb9	-0.07622666
199	0xba24824b	-0.00062755187
200	0xbd295768	-0.041343123
201	0x3d766fa8	0.060165077
202	0xbd8b9e5d	-0.06817315
203	0xbd3be3e8	-0.045871645
204	0x3cc5fa2e	0.024167147
205	0xbd883ce5	-0.0665224
206	0x3daaa3d7	0.08332031
207	0xbbd68483	-0.0065465583
208	0x3d9a1aa1	0.0752461
209	0x3d53c6e1	0.051703338
210	0xbd8cb2b2	-0.06870021
211	0xbd7baeb0	-0.06144589
212	0xbcc7d863	-0.024395173
213	0x3da0dcf6	0.07854645
214	0x3c98a112	0.018631492
215	0xbd0128f5	-0.0315332
216	0xbd6e11a0	-0.058122277
217	0x3d4ed2ab	0.050493877
218	0x3d8656f9	0.065595575
219	0xbbefbfdc	-0.0073165726
220	0xbd9fc518	-0.078012645
221	0x3c12ae55	0.008952697
222	0x3d2fa639	0.04288313
223	0x3d6898c2	0.056786306
224	0x3db6ed29	0.089319535
225	0x3d77a4af	0.06045979
226	0xbd80aed9	-0.062833495
227	0x3c3c70fb	0.011501546
228	0x3ba604af	0.0050664763
229	0x3c7d296c	0.01545177
230	0xbd4172ed	-0.047228742
231	0x3d29de4a	0.041471757
232	0x3dcb9d16	0.09942071
233	0x3c75fba4	0.015013609
234	0x3c1b5f79	0.009483212
235	0xbd8ffcef	-0.07030665
236	0x3b05b5ed	0.0020402626
237	0xbab9b0d0	-0.0014167074
238	0x3c690f82	0.014224889
239	0xbd876d9b	-0.066127025
240	0xbd5d2466	-0.05398979
241	0x3d2a149a	0.041523553
242	0x3da76202	0.081729904
243	0xbce0beb8	-0.027434692
244	0xbbd881fa	-0.0066072913
245	0x3daa7279	0.08322615
246	0x3d912471	0.07087029
247	0x3cb9092b	0.02258738
248	0x3c45914a	0.012058565
249	0xb9b3abc2	-0.0003426951
250	0x3d3d7060	0.046249747
251	0x3d97e0f6	0.07415955
252	0xbd250c00	-0.040294647
253	0x3bd0edc9	0.0063760024
254	0xbcd7881e	-0.026310023
255	0x3b789c9b	0.003793514

encoder.layers.1.nn.net.2.bias f4 [128]
0	0xbccc5fef	-0.024948088
1	0xbd3778b4	-0.044792846
2	0xbcb28a48	-0.021794453
3	0xbd5375fc	-0.05162619
4	0x3d20fb68	0.03930226
5	0x3d9e9926	0.077440545
6	0x3cc5514d	0.024086619
7	0xbd8f88bc	-0.07008502
8	0xbdb08063	-0.08618238
9	0xbd0625a2	-0.032750733
10	0xbd5a2edf	-0.053267356
11	0x3d7aa772	0.061194845
12	0x3da3a67d	0.079907395
13	0xbd6a0eb0	-0.057142913
14	0xbd5e1bf0	-0.054225862
15	0xbbfbec67	-0.0076880935
16	0xbd745918	-0.05965528
17	0xbda75005	-0.081695594
18	0xbcf9105e	-0.030403312
19	0xbc09f586	-0.008420354
20	0x3d0886b2	0.03333158
21	0x3d9e27ab	0.0772241
22	0xbd20827c	-0.03918694
23	0xbd42115f	-0.047379848
24	0xbd90a78a	-0.070632055
25	0xbd9e899c	-0.07741091
26	0x3d8b146d	0.06791005
27	0xbd6b0eae	-0.057387047
28	0x3cdcc21b	0.026948025
29	0xbdafd255	-0.085850395
30	0xbd4e23bf	-0.05032706
31	0x3ce33ef5	0.027739981
32	0xbc317c8c	-0.010832917
33	0x3dae0c0b	0.08498391
34	0x3cbaad3d	0.022787685
35	0x3c8e71e2	0.017388288
36	0x3d50d83d	0.05098747
37	0x3d87b290	0.06625855
38	0x3d677f84	0.056518093
39	0xbce7504e	-0.028236534
40	0x3a118f9b	0.000555271
41	0x3d946761	0.072462805
42	0x3d4c8011	0.04992682
43	0x3da28738	0.07935947
44	0xbc1a6ca4	-0.009425316
45	0xbda534a9	-0.08066685
46	0xbcc95f2f	-0.02458152
47	0xbd6ebbd1	-0.058284584
48	0x3d2ac0d6	0.04168781
49	0xbda5a868	-0.080887616
50	0x3d2bb1df	0.041917678
51	0xbca4dd18	-0.020124957
52	0xbd8d0315	-0.068853535
53	0xbd545176	-0.0518355
54	0x3b9d058b	0.0047919205
55	0x3c5063c6	0.0127191
56	0xbd3096c1	-0.04311252
57	0xbd5a774e	-0.053336434
58	0x3d3ac1c5	0.04559495
59	0x3ccea64b	0.025225779
60	0x3d1578c4	0.036492124
61	0xbd77c138	-0.060487002
62	0x3cfb05b2	0.030642364
63	0xbc33102d	-0.01092915
64	0x3d1e1003	0.03858949
65	0x3d9226be	0.07136296
66	0x3d2b2d51	0.041791264
67	0xbd3767ec	-0.044776842
68	0x3d0c9987	0.034326103
69	0x3d821a74	0.06352702
70	0x3d4b53dd	0.049640525
71	0xbdb2feb6	-0.087399885
72	0xbd09ad8e	-0.03361278
73	0xbd93180e	-0.071823224
74	0x3d277825	0.040886063
75	0x3d080231	0.033205215
76	0xbd8820f0	-0.06646907
77	0xbd517a4f	-0.051142033
78	0xbd7f5c9c	-0.06234418
79	0xbd557b81	-0.052119736
80	0x3d809bf9	0.062797494
81	0x3d8d7d68	0.06908685
82	0xbd420171	-0.047364656
83	0x3d8a1423	0.06742122
84	0x3c23f446	0.01000697
85	0xbd8f06c3	-0.069837116
86	0xbd1e51a7	-0.03865209
87	0xbc56e9a0	-0.013117224
88	0x3c67790e	0.014127983
89	0x3c07f848	0.008298941
90	0x3c35dd20	0.011100084
91	0x3ca2c430	0.01986894
92	0x3ce46ec0	0.027884841
93	0x3d9bf879	0.07615752
94	0x3c0b5217	0.008503458
95	0xbccea7fa	-0.025226582
96	0xbd3d950f	-0.04628473
97	0x3c8437a9	0.016139822
98	0xbd07c34e	-0.03314524
99	0x3d9a2748	0.075270236
100	0xbd84ec6d	-0.06490407
101	0x3d4fdc19	0.05074701
102	0xbd5bb071	-0.053635065
103	0x3da2bac7	0.07945781
104	0x3d4f5b57	0.050624218
105	0x3c9a33c7	0.018823517
106	0x3c5f9428	0.013646163
107	0xbb2e496f	-0.0026594063
108	0x3c3edb9c	0.011649039
109	0xbcd08dc3	-0.025458222
110	0xbd0fb722	-0.03508676
111	0xbd53878d	-0.051642943
112	0x3d574f54	0.052565888
113	0x3d1d27ba	0.038367964
114	0xbd26d3b5	-0.040729243
115	0xbd1d12ea	-0.038348116
116	0x3bc534c1	0.0060182516
117	0x3d353376	0.04423853
118	0x3cdef589	0.02721669
119	0x3d8a89df	0.06764578
120	0x3c73605f	0.01485452
121	0x3d06e4b7	0.032932963
122	0xbc86813d	-0.016419047
123	0xbc12bc5f	-0.008956044
124	0xbc14d496	-0.009083888
125	0xbb9124c1	-0.0044294302
126	0x3cb51f9f	0.022109805
127	0x3d416da6	0.04722371

encoder.layers.2.nn.net.0.weight f4 [128, 128]
0	0x3dae52cf	0.08511888
1	0xbd7f148e	-0.06227546
2	0xbda9ac2c	-0.08284792
3	0xbda5bfba	-0.080932096
4	0xbc436ec6	-0.011928266
5	0x3c904e63	0.017615503
6	0xbd96503c	-0.07339522
7	0xbc9890ad	-0.018623674
8	0x3c057796	0.008146187
9	0x3d5e27cf	0.054237183
10	0xbd053375	-0.032519776
11	0x3d12ceab	0.035841625
12	0xbd69dcc6	-0.05709531
13	0xbd6be197	-0.057588186
14	0x3c74e0bf	0.014946162
15	0xbdb5f47a	-0.08884521
16	0xbd3bbd64	-0.045834914
17	0x3d228c05	0.039684314
18	0xbd155caf	-0.036465343
19	0x3d199791	0.03749806
20	0x3dac94c0	0.08426809
21	0x3becb31d	0.0072235004
22	0x3b6fab6e	0.0036570686
23	0xbd98703a	-0.074432805
24	0x3d548efc	0.051894173
25	0x3d3eca46	0.04657962
26	0xbc450bcd	-0.012026739
27	0x3d5fa288	0.05459836
28	0x3d90dcb6	0.07073347
29	0xbc9f4762	-0.019443218
30	0x3c191148	0.009342499
31	0x39e2c2a6	0.00043251103
32	0x3d79dcfa	0.061001755
33	0x3d548390	0.05188328
34	0xbc61fe2d	-0.01379351
35	0xbd20dd87	-0.039273765
36	0x3d7d8624	0.061895505
37	0x3d01ba73	0.031671952
38	0xbbd212b4	-0.006410921
39	0x3c5914d7	0.0132495975
40	0xbdb9258b	-0.09040364
41	0x3c93e640	0.018054128
42	0x3ce0fc1b	0.027463963
43	0x3c7901b2	0.015198158
44	0xbcd22748	-0.025653496
45	0xbdba9bf0	-0.09111774
46	0xbdb3e71a	-0.087843135
47	0x3d418ef8	0.047255486
48	0x3c055008	0.008136757
49	0x3c95ca00	0.018284798
50	0xbd65f01e	-0.056137197
51	0xbd79ef12	-0.06101901
52	0x3d41f4c6	0.047352575
53	0xbcc38b92	-0.023870263
54	0xbcca8fb8	-0.024726734
55	0x3ca0e015	0.0196381
56	0x3d05626c	0.032564566
57	0xbc9b6e9e	-0.018973645
58	0x3c29f8cf	0.010374262
59	0x3d0ecf6b	0.034865778
60	0x3c67d77e	0.014150498
61	0xbd8e563c	-0.06950042
62	0xbd7157bd	-0.058921564
63	0xbd5bef29	-0.053694878
64	0xbd90796d	-0.0705441
65	0xbc8af342	-0.016961697
66	0xbd6679d4	-0.056268528
67	0x3bbf6d04	0.005841853
68	0x3d3b9dba	0.045804717
69	0xbd39ed1c	-0.04539214
70	0xbd2d0122	-0.04223741
71	0x3da5aed6	0.08089988
72	0xbdab00e3	-0.083497785
73	0xbd9628bc	-0.07331988
74	0x3d812a3a	0.06306882
75	0xbcce360e	-0.02517226
76	0x3bb6bf04	0.00557697
77	0x3c9c3683	0.019068962
78	0xbd80cbf9	-0.06288905
79	0xbd9859e7	-0.074390225
80	0x3c8c5856	0.017131966
81	0x3d132352	0.035922356
82	0x3d15c8c7	0.03656843
83	0xbd0f7289	-0.03502134
84	0x3ba89890	0.00514514
85	0xbd82feb1	-0.06396235
86	0x3d97635f	0.073920004
87	0x3bcace5b	0.0061891503
88	0xba6d0493	-0.0009041514
89	0xbd97696c	-0.073931545
90	0xbd7f3255	-0.06230386
91	0xbd4ca2fa	-0.049960114
92	0xbd84e2f7	-0.064886026
93	0x3d933c98	0.07189292
94	0x3d5ea217	0.0543538
95	0x3c19858f	0.009370222
96	0xbd8766e3	-0.06611421
97	0x3cef4544	0.029207833
98	0x3d90ef44	0.07076886
99	0xbd70ab0d	-0.058756877
100	0xbc9fc690	-0.019503862
101	0x3d5e5fbd	0.054290522
102	0x3da5f6f1	0.08103741
103	0x3d1f70ec	0.03892605
104	0x3cbf991a	0.023388434
105	0xbd1711b6	-0.036882125
106	0xbb4c4948	-0.0031171609
107	0x3d999854	0.074997574
108	0x3cab1d85	0.0208881
109	0x3d4182d1	0.047243897
110	0x3caed545	0.02134193
111	0xbdd23bf1	-0.10265339
112	0xbc63d2a8	-0.013905205
113	0x3c3bfd15	0.011473914
114	0xbd9bd643	-0.076092266
115	0x3c10fe38	0.008849673
116	0xbd74fd64	-0.059811965
117	0xbd9ed334	-0.077551275
118	0xbd4e786a	-0.050407805
119	0x3c9dfcc5	0.019285569
120	0x3d1a61ac	0.037690803
121	0x3d98e477	0.07465451
122	0x3d791468	0.060810477
123	0x3d952c77	0.072838716
124	0xbd6bc9a7	-0.057565358
125	0xbd5bb491	-0.053639
126	0xbd750b5b	-0.059825283
127	0x3d83e31e	0.064398035
128	0x3d3e5249	0.046465192
129	0xbcf7ce61	-0.030249776
130	0xbc83013d	-0.015991801
131	0xbd89564d	-0.06705914
132	0x3e30f9c1	0.17282774
133	0x3ba9c7f2	0.005181306
134	0x3d144eb2	0.036207862
135	0x3c10ca2c	0.008837264
136	0x3d9772c4	0.07394937
137	0x3d5ad8e9	0.053429518
138	0x3dc3e1e2	0.09564568
139	0x3d4f00ba	0.050537802
140	0x3d80b136	0.062838
141	0x3d6bacdd	0.057537902
142	0x3e14a55e	0.14516208
143	0xbd48fd9a	-0.04906998
144	0xbd87da78	-0.066334665
145	0x3d9f2097	0.07769888
146	0x3a3dcb86	0.0007240105
147	0x3d461bf2	0.048366494
148	0xbc914255	-0.017731825
149	0x3e17a3dd	0.14808603
150	0x3e13a8b2	0.14419821
151	0x3d18de6a	0.037321486
152	0xbaa7ced5	-0.001280273
153	0x3d60aca2	0.054852135
154	0xbbfb2828	-0.007664699
155	0xbcb4530e	-0.02201226
156	0xbca10c92	-0.019659314
157	0x3d381235	0.04493924
158	0xbb8feab8	-0.0043919943
159	0xbc260054	-0.010131914
160	0x3d5779c9	0.052606378
161	0x3d7cc0c3	0.06170727
162	0x3c4a09e3	0.012331459
163	0x3d2551c1	0.04036117
164	0x3d7b4783	0.061347496
165	0xbd56944e	-0.052387528
166	0x3d9aba0f	0.07555019
167	0xbb3a9cf4	-0.00284749
168	0xbc8f7bb0	-0.017515033
169	0x3d5a5e21	0.053312425
170	0xbd21f032	-0.03953571
171	0x3d9624ee	0.073312625
172	0xbac24874	-0.0014822618
173	0x3c3c0d2e	0.011477752
174	0x3e0742ac	0.13209027
175	0x3db4bdda	0.08825274
176	0x3cb56870	0.022144526
177	0x3e08ed57	0.13371788
178	0x3dbb48e8	0.09144765
179	0x3e287d77	0.16454111
180	0x3d6e0812	0.058113165
181	0xbd4ec25d	-0.050478328
182	0x3e137fe2	0.14404252
183	0x3df77fcd	0.12084923
184	0xbcb31729	-0.02186163
185	0x3c804aea	0.015660722
186	0xbb4cb3c4	-0.0031235078
187	0x3dcfe293	0.101506375
188	0xbd892e34	-0.06698266
189	0x3d6bb774	0.057548
190	0x3e253517	0.16133533
191	0x3d245593	0.040120672
192	0x3de2c97e	0.11073588
193	0x3d81f254	0.063450485
194	0xbd4b873d	-0.04968952
195	0xbceeb527	-0.029139115
196	0xbc9c55be	-0.019083854
197	0x3ddc0827	0.107437424
198	0xbd59981a	-0.05312357
199	0x3d98875c	0.07447693
200	0xbd4b6912	-0.04966075
201	0x3ca75c17	0.020429654
202	0x3d997271	0.07492531
203	0x3db8ff65	0.09033088
204	0x3d9cc723	0.0765517
205	0xbd2e2a15	-0.0425206
206	0xbda380bf	-0.07983541
207	0x3cf02143	0.029312735
208	0xbd311e74	-0.043241933
209	0x3dd4c038	0.10388225
210	0xbcc301d2	-0.023804579
211	0x3d5af961	0.053460483
212	0x3de60ebf	0.11233281
213	0x3d2376f7	0.039908376
214	0x3e0dd981	0.13852502
215	0x3d72ce1f	0.059278604
216	0x3be3adb5	0.0069481977
217	0x3d70b0d5	0.05876239
218	0x3ca2e5dc	0.019884996
219	0x3db35e9d	0.087582804
220	0x3d8d7f6f	0.06909072
221	0x3d1fd21a	0.039018728
222	0x3d13ffa6	0.036132477
223	0x3c74c5eb	0.014939765
224	0xbcd5fecf	-0.026122479
225	0x3e019417	0.12654148
226	0x3be0e735	0.0068634995
227	0x3e2767ab	0.1634814
228	0x3d72a533	0.059239578
229	0x3da13e47	0.078732066
230	0x3db2320c	0.08700952
231	0x3c8bde44	0.017073758
232	0x3d593b0f	0.05303484
233	0x3cec04de	0.028810915
234	0x3d193027	0.037399437
235	0xbd5c152e	-0.053731136
236	0xbc5146b7	-0.012773207
237	0x3d7bd045	0.06147792
238	0x3cbf4180	0.023346663
239	0xbd247568	-0.04015103
240	0xbd92fa70	-0.071766734
241	0x3e25c8cc	0.16189879
242	0x3b9e55ae	0.004831991
243	0xbd4f9645	-0.050680418
244	0x3e1ec4f9	0.15504827
245	0xbd8ff6b9	-0.070294805
246	0xbd4f8c7d	-0.05067109
247	0xbc4ca5a3	-0.012490663
248	0x3e1bbb7a	0.15208235
249	0xbb611341	-0.0034343752
250	0xbda16cd3	-0.07882085
251	0xbdb2754d	-0.087137796
252	0x3e06e773	0.13174228
253	0x3ce6c83c	0.028171651
254	0xbd873fe4	-0.06603983
255	0x3d61c86c	0.055122778

encoder.layers.2.nn.net.0.bias f4 [128]
0	0xbdd342fe	-0.10315512
1	0xbdd34985	-0.10316757
2	0xbdb77419	-0.08957691
3	0xbd3b214b	-0.045686048
4	0x3e0fc08c	0.14038295
5	0xbd038cd3	-0.032116722
6	0xbca2c017	-0.019866986
7	0x3b5302b2	0.0032197651
8	0xbd94d1ff	-0.07266616
9	0xbe2c5371	-0.16828705
10	0x3de6c1b0	0.11267412
11	0xbdd671be	-0.10470913
12	0x3c79dfd6	0.015251121
13	0xbd322bfb	-0.043498974
14	0x3d82dd09	0.06389815
15	0x3da273fb	0.07932278
16	0x3b1aabc8	0.0023600925
17	0xbcd9a5af	-0.026568262
18	0x3cffe9b4	0.031239368
19	0x3d855130	0.06509626
20	0x3c58fea0	0.013244301
21	0x3dbc1387	0.09183412
22	0xbd638e08	-0.055555373
23	0xbd2ff596	-0.04295882
24	0xbdbc0367	-0.091803364
25	0x3d4ffe29	0.050779495
26	0x3d24a524	0.040196553
27	0xbd1f7726	-0.03893199
28	0x3cf5edbf	0.030020593
29	0x3e0ceac3	0.1376143
30	0x3d9e77a2	0.07737662
31	0x3d420e3f	0.047376867
32	0x3c68ba8d	0.014204633
33	0xbdb4ad8b	-0.08822163
34	0x3d576988	0.052590877
35	0x3ba2d6dc	0.004969461
36	0xbcd09e72	-0.025466178
37	0xbdac224b	-0.08404978
38	0x3d6efd4a	0.058347024
39	0xbc8b1752	-0.016978893
40	0xbc76c88b	-0.015062462
41	0xbdf2c54a	-0.11854036
42	0x3d56bdf8	0.052427262
43	0x3dcac06e	0.09899984
44	0x3d3d2226	0.046175145
45	0xbd6f723d	-0.058458555
46	0xbe17c5c3	-0.14821534
47	0xbb8659f4	-0.0041000787
48	0xbd09ee75	-0.033674676
49	0xbc2aef7c	-0.010433074
50	0xbbd50fa3	-0.006502108
51	0x3d080cb0	0.033215225
52	0xbd2c4fd2	-0.04206831
53	0xbd62e70e	-0.055396132
54	0x3d1db1aa	0.03849951
55	0xbd2b4798	-0.041816324
56	0x3d3f4314	0.04669483
57	0x3d7d6671	0.061865274
58	0x3db8c76f	0.09022414
59	0xbd4d573e	-0.05013203
60	0xbd6d1f6d	-0.057891298
61	0xbde2ae62	-0.11068417
62	0xbd3d9c86	-0.04629185
63	0xbdc67004	-0.09689334
64	0xbd180f02	-0.037123688
65	0xbdc85579	-0.097819276
66	0xbddbe231	-0.10736502
67	0x3db04164	0.08606222
68	0xbba91381	-0.0051597957
69	0x3c88a533	0.016680336
70	0x3d80c1d1	0.062869675
71	0x3ce9dd02	0.028547768
72	0x3dae0e43	0.08498814
73	0xbcf6073a	-0.030032743
74	0x3ce0b03f	0.02742779
75	0xbd887e2a	-0.06664689
76	0x3d5db50c	0.054127738
77	0xbd5514f5	-0.05202194
78	0xbdd11867	-0.102097325
79	0x3d0c75bb	0.034291964
80	0x3db2c8a2	0.08729674
81	0x3d0baf54	0.034102753
82	0x3ce79bd5	0.028272549
83	0xbb90094d	-0.00439564
84	0x3ce5d2e6	0.028054666
85	0xbd18056e	-0.037114553
86	0x3d0e7ff5	0.034789998
87	0x3d9f4372	0.07776536
88	0x3d31bb42	0.043391474
89	0x3d8eab99	0.069663234
90	0x3c2974d9	0.0103428
91	0x3da8e0b6	0.08245985
92	0x3d57ceec	0.05268757
93	0x3d23e30d	0.040011454
94	0x3d89e1d4	0.067325264
95	0x3d1b4159	0.037904117
96	0x3acb2e51	0.0015501474
97	0xbc2c304c	-0.010509562
98	0x3cc23dc1	0.023711087
99	0xbd20b5a0	-0.03923571
100	0x3bc08759	0.0058755097
101	0xbba24153	-0.004951635
102	0xbdb55567	-0.0885418
103	0xbd05c2d2	-0.0326565
104	0x3da2ee0d	0.07955561
105	0x3d011fa5	0.03152432
106	0xbd8ff951	-0.07029975
107	0x3d923340	0.071386814
108	0xbc5d2229	-0.013496914
109	0xbda6e523	-0.08149173
110	0xbd617342	-0.05504156
111	0x3b260297	0.0025331134
112	0x3ded403a	0.11584516
113	0xbe0bb427	-0.13642941
114	0x3ca9a472	0.020708296
115	0xbd982f4a	-0.07430895
116	0x3ba56803	0.0050477996
117	0xbdb52386	-0.08844666
118	0x3d836eca	0.06417616
119	0xbd1df907	-0.03856757
120	0xbd0db65c	-0.03459774
121	0xbd27e094	-0.04098566
122	0xbe0370d0	-0.12836003
123	0x3d8a3c18	0.06749743
124	0x3c469d02	0.0121223945
125	0xbd25bf2d	-0.040465523
126	0x3d541288	0.051775485
127	0x3dc29fb7	0.095031194
