scripts/embeddings_gin_version2/IMDB-MULTI/gin_dim64_ep40_lr0.0005_drop0.3/gin_classifier.pt (torch, 175837 bytes, 42 tensors)

encoder.layers.0.nn.net.0.weight f4 [64, 1]
000000 c0 37 81 bc a6 81 73 bf b8 7f 15 3f e6 e1 33 bf
       -0.015773654 -0.951197 0.5839801 -0.7026657
000010 e4 3b 11 bf 98 0c 17 be 11 40 f4 3d a8 94 2d bf
       -0.5673201 -0.14750898 0.11926282 -0.67804956
000020 29 0a ae 3e de ff 37 bf 5e 87 37 bf 00 dc aa be
       0.33992127 -0.718748 -0.7169093 -0.33370972
000030 e0 2e 0e be 82 7b 36 bf ab 09 dc 3e e8 ae 2f bf
       -0.13885069 -0.7128221 0.42976126 -0.6862626
000040 79 ea 50 3f a2 98 7b 3e 48 49 b7 3e c4 01 2b 3f
       0.81607777 0.24569944 0.35798097 0.6679957
000050 cf a4 44 3e 82 2e ff bb 10 94 cd be 2c 1d 52 bf
       0.19203494 -0.0077875266 -0.40152025 -0.8207576
000060 d5 20 0a 3f d5 c5 37 3d 43 8f 2e 3f b4 93 02 bf
       0.5395635 0.0448664 0.6818735 -0.5100663
000070 b8 7a 3a bf 9a f7 48 bf 96 73 57 bf 00 59 70 be
       -0.72843504 -0.7850281 -0.84160745 -0.23471451
000080 ce f9 10 3f 39 20 ef 3e 9a 61 07 bf f2 a1 59 bf
       0.5663117 0.4670427 -0.52883303 -0.85012734
000090 74 f9 05 bf 57 b4 8e 3e a0 e2 28 bf 16 cc 59 3f
       -0.5233376 0.27871963 -0.659708 0.85077035
0000a0 a6 82 6f bf 55 a8 d8 3d 7f 60 78 3e 26 08 60 bf
       -0.9355873 0.10578982 0.2425556 -0.87512434
0000b0 70 c9 2c be 32 10 0c 3f 44 cc 23 bf e4 22 ec 3d
       -0.16873717 0.5471221 -0.6398356 0.11530092
0000c0 04 09 b2 3e 1e bd 3b 3d ca cd 46 3f 7d eb 70 3e
       0.34772503 0.045834653 0.7765776 0.23527332
0000d0 68 c7 d8 3e 24 0f 03 bf f0 1f e4 be 20 a4 32 bf
       0.42339635 -0.5119498 -0.44555616 -0.69781685
0000e0 2a 03 07 3f 54 1f 5d 3f 01 1b 20 3f 42 86 e0 3c
       0.527392 0.8637593 0.62541205 0.02740777
0000f0 8f 33 74 3f c0 e9 a8 be c9 6c 30 3f b0 60 40 be
       0.9539117 -0.32990837 0.6891599 -0.18786883

encoder.layers.0.nn.net.0.bias f4 [64]
000000 20 03 7d be e0 b7 55 bd e6 10 d2 be 1c 84 53 bf
       -0.24708223 -0.05217731 -0.41028517 -0.8262346
000010 74 41 e1 be 34 61 1c 3f 07 c3 00 3f 08 e9 97 be
       -0.4399525 0.6108582 0.5029759 -0.29669976
000020 77 7d 6d 3f 58 6c c7 be ec a1 f2 3e 4a 46 5b bf
       0.9276957 -0.38949847 0.47389162 -0.8565413
000030 68 5c e3 be 2a f0 59 3f ad d2 ad be 98 bc 26 bf
       -0.44406438 0.85132086 -0.33949795 -0.6513152
000040 72 2b e9 be d6 fa 8b bd f6 1c 76 3f 87 95 39 3f
       -0.4554096 -0.068349525 0.9613794 0.72493786
000050 8d 3f 24 3e 7b 31 0c 3f 04 4b 6b 3f 5c 3e e6 be
       0.16039868 0.54763 0.9191134 -0.4496945
000060 34 7a 48 3f e2 f0 e8 3d 5d f3 a5 3e 46 bd 4f 3f
       0.7831147 0.1137407 0.32412234 0.81148183
000070 00 94 59 bf 9e 0c 65 bf 9a ab 53 3f 58 3d 53 be
       -0.84991455 -0.8947238 0.8268372 -0.2062887
000080 54 ff 1b 3e 8a 9c d5 3e 24 b0 06 bf 20 2a 30 bd
       0.15234119 0.41720992 -0.5261252 -0.043008924
000090 28 e8 c3 be be 34 14 3e 68 39 80 3e c7 f2 dc 3d
       -0.3826306 0.14473245 0.25043797 0.107884936
0000a0 3e ce 0c 3f e1 f4 d6 be 60 ce 31 bf 36 57 0f 3f
       0.550022 -0.41983703 -0.6945553 0.5599245
0000b0 e2 58 71 3f ce 1b 1c bf 2c 8c ab be f3 30 da 3e
       0.9427625 -0.60979927 -0.3350538 0.4261547
0000c0 52 fd 2c 3e 28 17 6c 3f 98 81 3c be b0 42 0b 3f
       0.16893509 0.92222834 -0.18408811 0.5439863
0000d0 2c f5 58 bf d8 3c 51 bf 90 68 e6 3d 90 5a 45 bf
       -0.847491 -0.81733465 0.112504125 -0.7709131
0000e0 bc 2b 53 be b7 e6 0a bf 1b b7 23 bf 46 77 29 3f
       -0.20622152 -0.5425829 -0.6395127 0.6619762
0000f0 48 5f eb 3d 7e a6 20 3f 46 c1 21 bf dc 04 36 bf
       0.11492783 0.62754047 -0.63185537 -0.71101165

encoder.layers.0.nn.net.2.weight f4 [64, 64]
000000 d6 3a d9 bd 3c c4 3b bd 4b 70 f8 3c be f5 95 bd
       -0.10606925 -0.04584144 0.030326983 -0.07322262
000010 18 2a a1 bd d0 ba c7 3d 39 c9 da bd f0 ff eb bd
       -0.07869357 0.097524285 -0.106829114 -0.115234256
000020 a0 48 f3 3a c6 13 94 bd a2 26 83 3d 9c 34 58 3d
       0.0018561073 -0.07230334 0.06403853 0.052784547
000030 ca 69 d1 bd d0 f1 28 bd 4d 1f a9 3d 92 aa f7 3d
       -0.10225256 -0.041246235 0.08257923 0.120930806
000040 47 c9 bf 3d ca 26 76 3d d1 f2 b3 3d 8b 99 cb bc
       0.093645625 0.060095586 0.08786548 -0.024853488
000050 45 23 a0 3d b2 91 97 bd 54 bc 3f 3d 98 0a aa 3d
       0.07819227 -0.07400836 0.046810463 0.08302802
000060 e6 99 1e 3d fb be b1 bd c2 c8 00 3e be 30 d2 3d
       0.038720988 -0.08679005 0.12576583 0.10263203
000070 78 5d 28 3d 38 98 15 3d 8a 1b bc 3d ce ac dd bd
       0.041104764 0.03652212 0.0918494 -0.108239755
000080 79 c8 80 3d bc 89 05 3e c0 a3 94 3b 70 7a 88 3d
       0.06288237 0.13040823 0.004536122 0.06663978
000090 7a 56 be bd 6d 54 5d bd 66 06 f6 3d 01 11 ae 3d
       -0.09293838 -0.054035593 0.12012939 0.08499337
0000a0 fc e6 b7 bd c8 fd 48 3d 2b 10 a7 bd 18 74 fe bc
       -0.08979604 0.04907015 -0.08157381 -0.031061217
0000b0 58 b0 b5 3d 89 5a c4 bd 88 02 29 bd eb 9b db bd
       0.088715255 -0.09587581 -0.04126218 -0.10723098
0000c0 83 2a 81 bb d2 75 c6 bd 31 cb 2d bd eb c3 85 3d
       -0.0039418354 -0.09690441 -0.042430107 0.06531509
0000d0 66 9d b4 3d 62 b7 e6 bd d4 1b 65 bd d8 f4 35 3d
       0.08819084 -0.11265446 -0.055934742 0.044422954
0000e0 d0 1e 92 bc bb 2a a3 bd 1a 27 83 bb 2c f1 89 3d
       -0.017836958 -0.079671346 -0.004002464 0.06735453
0000f0 49 fb 39 bd 84 85 ab 3d 48 a1 bd bd 80 4e d9 3d
       -0.04540566 0.083750755 -0.092592776 0.10610676
000100 76 e7 b5 bd ba 3c bc bd ac 93 97 bb 26 dd ad bd
       -0.08882038 -0.0919127 -0.004625758 -0.08489446
000110 e0 cc 32 3c 5e 85 b3 3d 5e 2e ef bd 34 91 fa 3d
       0.010913104 0.08765672 -0.11678766 0.122347265
000120 61 05 17 bd 18 0b 2f 3d 3e 45 9f 3d 84 c3 a1 3d
       -0.036870364 0.04273519 0.07776879 0.0789862
000130 78 2c 9c bd f6 60 c2 3d ef c7 fb bd 10 13 58 bc
       -0.07625669 0.0949115 -0.12293994 -0.013188139
000140 f8 5d b8 bd 4f 2a 09 bd 04 77 c1 bd d8 c4 fe bd
       -0.09002298 -0.033487614 -0.094465286 -0.12439889
000150 f5 83 8e bc 1d e4 c9 3c b8 26 c8 bd 24 5a 55 bd
       -0.017396906 0.024644906 -0.0977301 -0.052087918
000160 44 2b 8c 3d bf 8c 0e 3c 35 af fc 3c 00 4c 38 3a
       0.0684419 0.008700549 0.030845264 0.0007030368
000170 44 62 79 bd cc d4 6b 3d d8 95 32 bd 06 1f f9 bd
       -0.06088473 0.057575986 -0.043599933 -0.121641204
000180 8a 72 56 bc 77 44 27 3d b0 46 d8 bd 10 99 65 bd
       -0.013088832 0.040836778 -0.105603576 -0.056054175
000190 00 8a 0b ba 8b 94 7a bb d0 c0 a1 bd 27 b3 ab 3c
       -0.0005322993 -0.0038235511 -0.07898104 0.02095945
0001a0 ca c6 a2 3d 3a 7a 36 3d 4f 97 f8 3c 10 d5 7a 3c
       0.07948072 0.044550158 0.030345587 0.015309587
0001b0 90 07 23 bc a2 70 0a bc 70 2c b1 bd c2 db 90 bd
       -0.0099505335 -0.008449705 -0.08651054 -0.070731655
0001c0 f1 42 c2 3d 4c 1d 93 3d e1 86 2c 3d 74 da f6 bd
       0.09485424 0.07183322 0.042120818 -0.120533854
0001d0 74 27 a0 bd bc 18 74 3d 10 29 92 bd 70 4d af 3c
       -0.07820025 0.0595939 -0.07136738 0.02139923
0001e0 63 85 df bd 71 ca ef 3b bd 1c cf 3b 22 dc f2 3d
       -0.109141134 0.007317834 0.0063205645 0.11858393
0001f0 f8 45 da bc b4 2b 43 3d 0a 13 54 3c c8 99 88 3d
       -0.026644692 0.0476491 0.012943992 0.066699564
000200 f2 f7 c4 bd 18 b7 3f bd 42 f4 c9 3d 80 8d 6a bd
       -0.09617604 -0.04680547 0.098610416 -0.05726385
000210 c6 9e a4 bd 00 13 2d 3c b3 30 ca 3d ec 98 ec bd
       -0.08038096 0.010563612 0.0987257 -0.11552605
000220 9d f0 62 bd 90 97 1c 3d 80 7c fa 3b dc 5d 67 bd
       -0.055405248 0.03823048 0.007644236 -0.056485996
000230 40 73 3f 3b ec 44 c9 3d 69 4f ae bc 08 85 c4 bc
       0.0029212981 0.09827599 -0.0212781 -0.023989215
000240 57 e6 b0 3d a6 f7 c2 bd ff 5b 7c 3d 46 bf 19 3d
       0.08637684 -0.095198914 0.06161117 0.03753593
000250 f4 41 54 bc da 68 8a bd 90 a6 e4 bd 92 de b0 3d
       -0.012955178 -0.0675828 -0.11164582 0.08636202
000260 6b 1c 1a bc 61 ab 79 3d 43 a3 d7 3d 9c cd 59 3d
       -0.009406189 0.060954455 0.105291866 0.0531746
000270 ea 31 ec 3d e8 39 da bd b0 09 df bd e8 4e 0b bd
       0.11532958 -0.10655576 -0.108905196 -0.034010798
000280 97 31 b5 3d a3 76 dc bd 00 7a 76 bc 12 ae e3 3d
       0.08847349 -0.10764816 -0.0150437355 0.11117186
000290 8e d0 bf 3d de 1c a7 3c 90 92 ba bd b1 5b 50 bc
       0.093659505 0.020399507 -0.09109986 -0.012717173
0002a0 a2 17 b6 3d 34 4e 1e bd 26 fd 3d 3d bc cc f1 bd
       0.08891226 -0.0386488 0.046384 -0.11806628
0002b0 24 5b 4b bd 5c 32 5d bc 18 40 a0 bc ae 78 8e bd
       -0.049647465 -0.013500776 -0.019561812 -0.069566116
0002c0 1a 8c c3 3d 1f 42 b9 bd 2b 8f 96 3d fb 59 aa bd
       0.095482066 -0.09045815 0.07351526 -0.08317944
0002d0 f9 07 cf 3d 38 b2 d7 3d 18 3f e0 3d c6 69 ff 3d
       0.101089425 0.105320394 0.10949534 0.124713466
0002e0 7f 3a 08 3d bc d7 de bd f9 6e dc bd fc 80 ae 3d
       0.03325891 -0.10880992 -0.10763354 0.085206956
0002f0 2a ca 1f bc ec 6c 0f 3d cc 35 1c 3d 50 b1 c7 3c
       -0.0097527895 0.035015985 0.038137242 0.024376541
000300 ac 0e 6c 3d c8 2c d9 bc b9 8c f0 3d 6a 3a 9c 3d
       0.05763118 -0.026510611 0.11745591 0.07628329
000310 56 1c dd bd dc ab e2 bd d7 c0 f8 bd 5a e6 b9 3d
       -0.1079642 -0.11067936 -0.12146156 0.09077139
000320 35 06 95 3c 70 4c 33 bc 38 04 af bc 44 6b b0 bd
       0.018191436 -0.010943517 -0.021364316 -0.08614209
000330 20 be ec bb 70 0f e1 bd 54 8a 12 3d 36 32 9d bd
       -0.007224813 -0.109892726 0.03577645 -0.076755926
000340 51 a9 ef bc db 12 0b bd c7 73 b4 3d c8 32 51 bc
       -0.029255541 -0.03395353 0.08811145 -0.012768455
000350 d6 27 82 3d 64 ae 06 bd 34 29 8f 3d 82 1b db 3d
       0.06355254 -0.032881156 0.06990281 0.10698606
000360 ee ec d9 3d 56 bf f9 3d 5c 7b 11 bd 70 fc 94 3d
       0.10640894 0.121946976 -0.035518035 0.07274711
000370 4a 3c a5 3d d0 e6 d3 3d bc bf 20 bd f0 6d 1e bc
       0.0806814 0.10346758 -0.039245352 -0.009669766
000380 db 6f a1 bc 68 37 82 3d 78 a0 5c bd 44 43 21 3d
       -0.019706657 0.06358224 -0.053863972 0.03937079
000390 60 a8 7c 3c eb 85 e1 bd f2 f5 f4 bd ed 98 77 bd
       0.015421003 -0.11011871 -0.11960973 -0.060448576
0003a0 56 27 e6 bd a8 ac 99 3d 75 32 11 bd 00 02 4e bc
       -0.112379715 0.07503635 -0.03544851 -0.012573719
0003b0 d0 5d 02 3d a6 fd e7 bd 2c 9a 42 3d a7 a1 9a bd
       0.031827748 -0.113276765 0.04751031 -0.07550364
0003c0 fd 62 93 bd 15 95 34 3d b4 d3 e4 bd 45 5b 9d 3c
       -0.07196615 0.04408749 -0.11173192 0.01920856
0003d0 83 d0 f2 bd 36 f9 f9 3d 80 51 34 bd 24 ca 1a 3d
       -0.11856177 0.12205736 -0.044023037 0.037790433
0003e0 04 55 78 bd 6b 6b ad 3c 1c 1a 84 bd 72 71 d8 bc
       -0.060627952 0.021169385 -0.064502925 -0.026421282
0003f0 59 f1 3e 3d b8 15 de 3d eb 40 cf 3d 60 ab f0 3c
       0.046616886 0.10843986 0.10119804 0.029378593

encoder.layers.0.nn.net.2.bias f4 [64]
000000 30 2e c5 3c f6 e4 2f bd 56 5e 51 bd 9a bf f4 bd
       0.024069875 -0.042942964 -0.051115356 -0.119506076
000010 dd 3e e4 bd f1 f5 e4 bd 55 15 e4 3d 49 f6 e2 3d
       -0.11144803 -0.11179722 0.11136881 0.110821314
000020 44 f2 a8 3d b4 4c 6a 3d d1 19 d1 bd 6a ba 5d 3c
       0.082493335 0.057202056 -0.10210002 0.013533214
000030 e3 36 16 3d d7 a5 ef bd 7c 1e ed 3d ad 24 c7 bd
       0.036673438 -0.11701553 0.1157808 -0.09723792
000040 7d 98 c5 3d 85 01 a6 3d d7 8c 9b 3c e9 82 dd bd
       0.096482255 0.081057586 0.018988056 -0.10815985
000050 0f 8c 90 bd df 67 d3 bc a3 50 8d bd 5f 03 2a 3d
       -0.07057964 -0.025806366 -0.06900146 0.04150712
000060 85 a6 ad 3d 14 f1 e0 3d 30 50 78 3d 1b 0b aa 3d
       0.08479027 0.10983482 0.060623348 0.083028995
000070 dc 28 d1 bd c1 4b c3 3d 93 ce 13 3c 00 5d 1e bd
       -0.102128714 0.09535933 0.009021419 -0.03866291
000080 e3 d9 8c bd fd c7 ac 3d 47 75 e8 3d fd 5b 3a 3d
       -0.06877496 0.08436582 0.11350494 0.045497883
000090 71 f1 fd 3c c8 11 07 3d 08 40 59 bd fc a7 ec 3d
       0.030998917 0.032975942 -0.05303958 0.11555478
0000a0 b6 dc 86 3d 76 f8 de bc e4 e4 67 bb 27 87 68 bd
       0.06585066 -0.027218085 -0.0035384232 -0.056769516
0000b0 17 ba c7 3d 9c c5 eb 3c 88 c1 e6 3d 84 97 fa bd
       0.09752291 0.02878075 0.11267382 -0.122359306
0000c0 f1 68 a1 3d 06 bb a5 3d 45 c1 3a bd 0c 5d ec 3c
       0.07881344 0.080923125 -0.045594472 0.028852962
0000d0 45 e7 f1 bd 3d 33 d8 bd eb 77 6e bd 57 8f c2 3d
       -0.11811689 -0.10556648 -0.05821983 0.09499996
0000e0 19 ec a9 bd 0c 84 e5 3c 57 b6 11 bd dc ed ce 3d
       -0.08296985 0.028017066 -0.035574283 0.10103962
0000f0 a7 c4 88 3c aa 41 6d 3d ff 5b b1 bd f5 dc fe 3c
       0.016695334 0.05792395 -0.08660125 0.03111122

encoder.layers.1.nn.net.0.weight f4 [64, 64]
000000 85 c3 3b bc 45 4d 83 bd a7 ca e4 bd 0a e3 f8 bd
       -0.01146019 -0.06411222 -0.11171465 -0.12152679
000010 d4 87 7d 3b fb b3 0b 3d 7c 89 c0 3d 00 5c e2 3d
       0.0038685696 0.03410719 0.09401223 0.11052704
000020 d3 4a 86 3d 1d 19 f6 3c 07 c0 1e bd bf 7d 9d 3d
       0.0655724 0.030041272 -0.03875735 0.0769
000030 55 a5 c1 bd 49 dd 62 bc b4 30 8e bc 6d 7e cd bd
       -0.09455363 -0.013846704 -0.017357208 -0.100338794
000040 63 d8 8e bd d5 17 eb 3a b3 51 ef bd 98 9f 37 3d
       -0.06974866 0.001793618 -0.11685505 0.044829935
000050 4b 9f e3 3d 34 0d 54 bd 1b c1 72 bd 87 86 91 3d
       0.11114367 -0.051770404 -0.05926619 0.07105737
000060 ba cf bc 3d 05 48 46 bd e9 0a dc 3d f4 5a f4 3c
       0.09219308 -0.048408527 0.107442684 0.029828526
000070 b1 b2 46 bd a5 0f 43 3b 8e 88 97 bd 51 7f e5 bd
       -0.048510257 0.0029763964 -0.073990926 -0.11205924
000080 0a fe f7 3d 57 80 80 bd 48 f0 07 be f6 dc 7f bc
       0.12109001 -0.06274479 -0.13275254 -0.015616646
000090 41 48 96 3d ac 2c a3 bd 35 ff c6 bd a3 5b 24 bd
       0.07338 -0.07967505 -0.09716646 -0.040126454
0000a0 1c 41 d1 bc 21 60 e1 bd 31 18 50 3d 56 f2 69 bd
       -0.025543742 -0.11004663 0.05080432 -0.057115875
0000b0 ff 63 9c 3d ed a0 9a 3d 27 32 c0 bd 50 87 e9 3d
       0.0763626 0.075502254 -0.09384566 0.11402762
0000c0 78 99 79 3d 64 9c 4b bd 73 3f 2d 3d f1 6c 33 3d
       0.060937375 -0.049709693 0.042296838 0.043805066
0000d0 16 21 f8 3d 9f 42 3e bc eb 24 d2 3d 94 9f 15 3d
       0.12115686 -0.011612563 0.10260948 0.03652914
0000e0 ad 83 a2 bd b9 13 89 bd f2 5f db bd e1 54 47 bc
       -0.079352714 -0.06693215 -0.107116595 -0.012166233
0000f0 97 f2 45 bd ad 08 f2 3c 4f 33 be bd 83 05 c4 3d
       -0.048327055 0.029545153 -0.0928713 0.09571364
000100 cc 53 11 bd 73 1a 96 bd 56 2d 24 bd fd dc 96 bd
       -0.035480306 -0.073292635 -0.0400823 -0.07366369
000110 83 70 a0 bd 81 4b 83 3d 73 94 f3 3d ce 27 e7 bc
       -0.0783396 0.064108856 0.11893549 -0.028217223
000120 9f 49 bd bd 9b 52 0c bd 71 46 d1 bd 53 d8 4d bd
       -0.09242558 -0.034258466 -0.10218514 -0.05025513
000130 18 ac bf bc ce 7f 79 bd 0b 41 10 bd e3 0f 05 bc
       -0.02339749 -0.0609129 -0.03521828 -0.0081214635
000140 9c 96 da 3d 71 43 7a bd 49 b0 53 bc 20 7d 70 3d
       0.10673258 -0.061099473 -0.012920448 0.05871308
000150 b2 d4 18 bd 40 46 9b 3d be 32 d1 3d 56 e6 e5 3d
       -0.037312217 0.075817585 0.102147564 0.11225574
000160 b6 06 fe 3d 49 3a 66 bd d4 d3 fe 3c 85 c0 a0 3a
       0.12403624 -0.05620793 0.031106867 0.0012264407
000170 86 60 3d bd 08 eb 8c 3d 5d 5c 06 bd 9e 63 f3 bd
       -0.04623463 0.06880766 -0.03280293 -0.11884235
000180 e0 e1 93 bd d8 3f a9 bd c3 56 4f bd 1d d0 c4 bd
       -0.072208166 -0.0826413 -0.05061985 -0.09610007
000190 49 a4 21 bd f9 0e a6 bc b6 71 ab 3c 4e 57 fd bd
       -0.039463315 -0.020270811 0.020928245 -0.12370168
0001a0 4e f8 e7 bd 5e 6e 6c bd 27 a7 b7 bd 39 5a 14 3d
       -0.11326657 -0.05772244 -0.08967429 0.036218856
0001b0 1f c7 86 3c d1 14 99 bd 58 38 63 bc c3 ed 68 3d
       0.01645237 -0.074746735 -0.013868414 0.056867372
0001c0 8d 38 b8 3c 3b 79 8d 3d 2d 60 1d bc eb cf e8 bc
       0.022487903 0.069078885 -0.00960545 -0.028419456
0001d0 f0 36 85 3d b4 57 ab bd 1e 9d 8b 3d f7 a9 b1 bd
       0.06504619 -0.083663374 0.06817077 -0.08674996
0001e0 42 66 f5 bd 45 c1 a5 bd 17 c0 1f bd 36 d5 57 3b
       -0.11982395 -0.08093504 -0.03900155 0.003293348
0001f0 ed 6b dc bd 81 54 f7 3d f4 e3 e1 3d 92 8d 58 bc
       -0.10762773 0.12076665 0.11029807 -0.013217347
000200 60 49 df 3d 1e cf 8c 3c ff 12 23 3c c3 0a c5 bd
       0.10902667 0.017188605 0.0099532595 -0.09621193
000210 7a ea d6 3d 19 89 b7 bd 48 ab f1 3d 8e eb f2 3b
       0.104939416 -0.08961696 0.118002474 0.007413334
000220 a7 c2 35 bd 20 48 9f bd 26 6b c0 bd 2a 52 a0 3d
       -0.044375088 -0.077774286 -0.09395437 0.078281716
000230 a5 01 54 bc f2 ec f5 3d 2d 16 da bd 5e 23 05 3e
       -0.012939845 0.12008084 -0.10648761 0.13001773
000240 eb 2b fa 3d 96 a4 86 3c 25 f3 78 bd 43 89 d2 3d
       0.12215408 0.016435903 -0.060778756 0.10280087
000250 a3 eb 87 ba 41 54 c1 bc 7e 5a b7 3d 37 93 5a bd
       -0.0010369908 -0.023599746 0.08952807 -0.05336305
000260 f0 cd fe 3d ed 39 dc bc a1 b1 cc bc 02 b8 d1 3d
       0.12441623 -0.02688309 -0.024987044 0.10240175
000270 2b 2e cd bc 69 6e 26 bd 2a c8 a6 3d 92 63 d8 3d
       -0.025046429 -0.04063264 0.08143647 0.105658665
000280 2d d9 5c bd 00 12 c5 bd 57 14 c7 bd e8 75 da bd
       -0.053918052 -0.09622574 -0.097206764 -0.1066702
000290 4f 79 ee 3d 5f f4 01 3e 28 d8 95 3c a3 81 77 3d
       0.116442315 0.12690876 0.018291548 0.060426366
0002a0 0c 55 c3 bd 7d 00 a8 3d e9 c8 67 bd 63 df 87 3d
       -0.09537706 0.08203218 -0.056588087 0.066344045
0002b0 4d d8 77 3d d3 b4 08 3e cf 6f 23 bd 3f 8f 0e bd
       0.060509015 0.13350229 -0.03990155 -0.03480458
0002c0 3a ed a5 3d de 74 2d bd 7a 19 b4 bd dc 80 63 3d
       0.08101888 -0.04234778 -0.08793922 0.05554281
0002d0 4b 39 5e bc eb 9a e9 bd ea 82 ea bd 02 a9 5d 3d
       -0.013563464 -0.114065014 -0.11450751 0.054116257
0002e0 69 5b d0 3d ce 5f 0e 3e ba ae 99 bd 1e b0 f7 3c
       0.10173685 0.13903734 -0.075040296 0.030235346
0002f0 c4 ee a6 3d 75 1b 93 3d 1d 07 cf 3d 38 a1 d0 3d
       0.0815101 0.071829714 0.101087786 0.10187
000300 7e c1 dd bd ee 9f 8b bc 7b 66 8e bd b6 a2 d0 bd
       -0.10827921 -0.017044034 -0.0695314 -0.10187285
000310 68 1c 09 3d 1a c9 be bd e6 4e ac 3d 55 14 8b 3d
       0.033474356 -0.09315701 0.08413486 0.067909874
000320 18 ae 20 3d 07 b0 9a 3d 89 70 dc 3d 37 90 cc bc
       0.03922853 0.07553106 0.10763652 -0.02497111
000330 9a 75 ff bd 5a d6 e1 3b 60 ba 80 bc e5 43 8f 3d
       -0.124736026 0.006892008 -0.01571387 0.06995372
000340 ef 69 0a 3d e7 10 03 3e 4d 26 96 bd bf 79 b0 3d
       0.033792432 0.12799416 -0.07331524 0.08616971
000350 39 d5 55 bc 39 11 0a bd 8a aa d7 3c a2 90 8b 3c
       -0.0130513245 -0.03370783 0.026326437 0.01703674
000360 fe 78 a1 bd f0 32 00 bd 61 48 a2 3d 27 59 0b 3d
       -0.078844056 -0.031298578 0.079239614 0.03402057
000370 cc d5 95 3d 50 b7 34 bd 26 64 b5 bd 37 8d b4 3d
       0.07316169 -0.044120133 -0.088569924 0.08815997
000380 1a f5 af 3d 81 40 85 bd 7e 6d 2c bd 1d a0 3a 3d
       0.08591671 -0.06506444 -0.042096607 0.045562852
000390 c5 2f d3 3d f6 bb 7b bd cf ed 9a bd 32 bc 42 bd
       0.10311846 -0.06145855 -0.0756489 -0.04754276
0003a0 d1 cd 85 3d fb 23 1c bd 04 18 ce bd 02 ba 00 bd
       0.06533397 -0.03812025 -0.10063174 -0.03142739
0003b0 64 81 b9 bd 50 a8 c2 bd 5c 83 b5 3d 5c 81 f3 bc
       -0.090578824 -0.09504759 0.088629454 -0.02972477
0003c0 86 21 86 bd 65 97 bf bd d2 d7 95 ba fe a0 d2 bd
       -0.06549363 -0.09355048 -0.0011432117 -0.10284613
0003d0 12 7e f5 bd c2 bb 1a 3d 6a 66 b6 bd 64 d0 a3 3d
       -0.11986937 0.037776716 -0.08906253 0.07998732
0003e0 8d b9 d7 3d dc b6 a8 bd 79 d3 58 3c 95 c3 7a 3d
       0.10533438 -0.08238003 0.013234013 0.061221678
0003f0 26 be 16 3d 10 d2 80 3c ab 58 db bd d4 85 d9 3b
       0.036802433 0.015725166 -0.107102714 0.006638268

encoder.layers.1.nn.net.0.bias f4 [64]
000000 60 fb a1 3d c0 e3 93 3c d0 a5 6a 3d 53 ee 1c bd
       0.07909274 0.018052936 0.057287037 -0.03831322
000010 fe 4b 60 3b 97 b4 1e bd ee 57 ae bd cd 73 fd bd
       0.0034224982 -0.038746443 -0.08512865 -0.12375603
000020 68 9e 31 bd 5d 5b 0b 3e 29 0e 95 3d d0 6c d3 bd
       -0.04336396 0.13609071 0.072780915 -0.10323489
000030 26 e9 ab bd ed 1d 95 3c 82 46 81 bd 49 e4 8f bd
       -0.08394079 0.018202746 -0.063122764 -0.07025964
000040 c8 61 75 3d 89 a8 ef bc ba 4e e6 bd a7 4b 0f 3d
       0.059907705 -0.029255169 -0.11245485 0.034984257
000050 07 04 d7 bd 39 52 3d 3d d4 50 3c ba f7 32 5a bd
       -0.10498815 0.04622099 -0.0007183675 -0.05327126
000060 14 90 fa bd 7e 07 d6 bd 59 97 af bd 47 e3 8b bd
       -0.12234512 -0.10450648 -0.08573789 -0.06830459
000070 c0 6f f9 bd 8a d0 ed 3d 44 f8 1b 3c 98 bc dd 3d
       -0.12179518 0.11612041 0.00951964 0.10826987
000080 45 83 9f 3d fa 18 b5 3d 64 98 2e bd ba 9a fd 3c
       0.077887096 0.088426545 -0.0426258 0.030957568
000090 ac 9a b9 bd 76 ca 5a bc b8 3d 90 bd af 3a a1 bd
       -0.090627044 -0.0133539345 -0.07043022 -0.07872521
0000a0 87 6d 49 bc d3 93 1e bd 92 07 d8 3c c8 6a d4 3d
       -0.01229418 -0.038715195 0.026370797 0.103719294
0000b0 19 53 71 3d f4 bb 9a bd ea c3 9f bd c1 06 2f bd
       0.05891714 -0.075553805 -0.078010395 -0.04273105
0000c0 51 6d 74 bc bf dd ad bb 89 37 e3 bd 5e 7e 69 3d
       -0.014918641 -0.005305975 -0.11094577 0.05700528
0000d0 c7 e5 82 3c 12 18 ba bd bf a8 c6 3c 36 1d 94 3d
       0.015978707 -0.09086622 0.024250386 0.07232134
0000e0 f1 90 89 3d d1 3d a3 3d 12 04 4f bd a3 4d 85 bc
       0.067170985 0.07970775 -0.05054099 -0.016272372
0000f0 aa 28 fa bc fd 8e 10 3d 41 2e 54 3d a8 d2 a0 bc
       -0.030536968 0.035292614 0.051801924 -0.019631699

encoder.layers.1.nn.net.2.weight f4 [64, 64]
000000 5d 81 4e bd 45 52 05 be d6 f4 bd 3d e9 46 23 bd
       -0.05041634 -0.13019665 0.092752144 -0.039862547
000010 c7 37 b3 bd ff ca 9c 3d ea 76 ba bd 96 77 cb 3b
       -0.08750873 0.07655906 -0.09104712 0.006209324
000020 be 2d 8c bd 39 b0 b9 bd b3 0a 78 bc f4 85 6b 3c
       -0.06844662 -0.09066815 -0.01513927 0.014375199
000030 58 64 b9 3c 6c 07 bf 3c 79 30 97 3c 1f b9 83 3a
       0.022630855 0.023318969 0.01845573 0.0010049677
000040 6a 00 54 3d f6 87 92 3d 13 de 5a bd 5a 5a 51 bc
       0.051758207 0.07154839 -0.053434443 -0.012777889
000050 cf 21 d6 3d 0f 01 ac bd 62 c6 0e 3c 4b 22 04 3e
       0.10455667 -0.083986394 0.00871429 0.12903707
000060 a7 56 97 3b e1 2a b5 bd c4 be 7f bd 33 21 b2 bd
       0.004618484 -0.08846069 -0.062437788 -0.086977385
000070 bc 8d 63 3d 54 c0 1f bd 62 b8 18 bd f2 3c 13 3b
       0.05555509 -0.039001778 -0.037285216 0.0022466746
000080 45 e3 64 3d 46 96 be 3c dc f2 07 bd 7c 9f ca bd
       0.055880804 0.023265015 -0.033190593 -0.098937005
000090 40 b8 a3 3c dd 88 78 bd 4c 9c 70 3d ca e9 86 3d
       0.019985318 -0.060677398 0.058742806 0.065875605
0000a0 aa 78 20 bd 0e 85 24 bd bb 26 6f 3d 32 c4 de bd
       -0.039177574 -0.040165953 0.058386546 -0.10877265
0000b0 e4 09 e1 bd 30 5c a3 3d e8 8c b7 3d f9 58 83 3d
       -0.109882146 0.07976568 0.089624226 0.064134546
0000c0 19 73 78 3d 36 e4 b7 3c 8f 13 b5 bd c7 58 b5 bc
       0.06065664 0.022447687 -0.08841621 -0.022137059
0000d0 25 f4 1f 3c 1e a2 ce bd 95 3b ac 3d d6 56 dc bc
       0.009762798 -0.10089515 0.08409802 -0.026896875
0000e0 b2 f5 07 3e eb f6 a4 3d 45 bb c7 3d cf 4b 12 3d
       0.13277319 0.08054908 0.09752516 0.035716828
0000f0 99 8f a0 3d e4 7e 07 3e 1e 2e f4 3d ee 76 a6 3d
       0.07839889 0.13231999 0.11922859 0.08128153
000100 b6 0a 2d 3d 15 20 04 bd d3 fd 46 bc cc 56 35 bc
       0.042246543 -0.03225716 -0.012145477 -0.011068057
000110 d3 c8 06 3d f7 3c a1 bd d9 9b 9b 3d a0 63 3c 3d
       0.032906365 -0.07872956 0.07598085 0.045993447
000120 ba 7e bd bc ce 90 b4 bd 9c a0 e7 3d 5e 2e fb bd
       -0.023131717 -0.08816682 0.11309931 -0.12264703
000130 5c 79 9a bd ac 81 ad bd fc bb 06 be e4 fc d5 3d
       -0.07542679 -0.084719986 -0.13157648 0.10448626
000140 bc 49 82 3d 54 97 f4 bc 38 5e 34 bd 4e 7a 88 3c
       0.0636172 -0.029857315 -0.044035167 0.016659882
000150 18 86 90 3c 2b 3c b2 bd 86 b6 92 3d cf ff 0b 3d
       0.017642066 -0.087028824 0.0716372 0.034179505
000160 95 43 08 be ea 1f c7 3d bf 81 a2 bd 5b 3a a5 3d
       -0.1330703 0.09722884 -0.07934903 0.08067771
000170 c8 67 50 bb c4 9a ec bd 28 ca 6a bc 46 96 97 bd
       -0.003180014 -0.11552957 -0.014330424 -0.07401709
000180 db 64 30 bd 9f f9 95 bd 17 3e 86 bd 57 21 cf bd
       -0.043064933 -0.07323002 -0.065548114 -0.10113781
000190 60 57 b7 3c 5e 51 16 3b 18 06 c4 3d 39 a6 97 3d
       0.02238053 0.0022936682 0.09571475 0.07404751
0001a0 c3 16 0b bd e9 f3 d2 bd e9 1c ee 3c bf 65 16 3d
       -0.033957254 -0.103004284 0.02906652 0.036718126
0001b0 35 ab cc bd dd 20 b3 bb de 79 8f bd 8e 2a ea bd
       -0.09993593 -0.005466564 -0.07005666 -0.11433898
0001c0 b5 ea d9 bd aa a9 e0 bd 2d 34 03 bc 60 2f 3f 3d
       -0.1064047 -0.10969861 -0.008008045 0.04667604
0001d0 7c 7f 84 3c 58 01 af 3d 07 4c fd bc c1 c7 b6 3b
       0.01617407 0.08545178 -0.030920042 0.0055780117
0001e0 9e 97 86 bd fa 39 bd bc b2 ff 43 bd eb fc d6 bd
       -0.065718874 -0.023098934 -0.047851272 -0.10497459
0001f0 fb f6 57 3d c2 57 de 3d 06 71 8b 3d 8e 70 8c 3d
       0.052725773 0.10856582 0.06808667 0.068574056
000200 51 42 cf 3d 3b 69 8c bb 6f f7 d7 bd 8c d6 35 3d
       0.10120071 -0.0042850054 -0.10545241 0.04439406
000210 e8 a7 e2 3c 97 b7 b2 3d 3f ad 18 bd 1e 47 ee bd
       0.027667955 0.08726423 -0.037274595 -0.11634658
000220 b7 f8 20 3d 76 74 09 be be f7 c9 3d d8 d6 b7 3d
       0.039299693 -0.13423333 0.09861706 0.08976525
000230 76 62 c6 bd f5 0a 26 bd 97 61 f5 3d f1 26 0e bd
       -0.09686749 -0.040537793 0.119815044 -0.034705106
000240 5f eb 57 bd 1c be 51 bd d4 41 98 bc c1 42 9f bd
       -0.0527147 -0.051206693 -0.018586077 -0.07776404
000250 22 55 01 be 4b 5b af 3d 7b 27 13 3d 7e 4a 1a 3c
       -0.12630132 0.085623346 0.035926323 0.009417174
000260 b7 2f 34 bd eb de 00 bd e9 ca c5 3d 10 31 83 bd
       -0.043990817 -0.03146259 0.09657843 -0.06405842
000270 5c df f8 3d f5 1f 0b bd 5b 99 0d 3d 68 99 25 bd
       0.121519774 -0.033966023 0.03457008 -0.040429503
000280 e0 8b 1f 3d 31 01 4c 3d fc 04 14 3d 75 3a 0f b9
       0.038951755 0.049805824 0.036137566 -0.0001365932
000290 95 85 9d 3d d7 56 76 bd f7 ca 10 bc 28 f8 71 bd
       0.076914944 -0.06014141 -0.008837453 -0.05907455
0002a0 39 95 af 3d 8d 0a f0 bd 42 d1 3e 3d eb ae 54 3c
       0.08573384 -0.117207624 0.046586283 0.012981157
0002b0 a2 b2 7e 3b 93 7f f6 bc 7e 25 82 bd d3 61 04 bc
       0.0038863798 -0.030090129 -0.06354807 -0.008079964
0002c0 f3 ae ba 3d ce 94 7f bd 12 90 fd bd cb 12 d0 bd
       0.091154 -0.06239777 -0.12380995 -0.101598345
0002d0 7f 6c 2b 3d 8b c3 77 bc 5e c2 e9 3d 85 83 8c bd
       0.041851517 -0.015122305 0.11414026 -0.06861023
0002e0 62 66 ad bd db 36 6c 3d f9 39 e1 bd 0d ed b4 3d
       -0.084667936 0.0576695 -0.109973855 0.08834276
0002f0 07 69 41 bd d8 12 96 bd 4c f8 8f bd 75 46 9b bc
       -0.047219303 -0.07327813 -0.07029781 -0.018954495
000300 7d 36 f7 bd e7 37 a2 3d f4 8c b4 3d ec 32 09 3c
       -0.1207094 0.07920819 0.08815947 0.008373957
000310 b2 f2 e9 bc 9b 56 f1 bd f5 79 42 bd 6b 9f f8 3d
       -0.028558109 -0.11784097 -0.04747959 0.121397816
000320 99 0d f8 3d 8a d9 b7 bd bc df ec bd 3b 36 91 3d
       0.121119685 -0.08977039 -0.115661114 0.07090422
000330 b0 44 f1 3d 0c 2b 8f 3d d7 1c c6 bc bc 0b d7 bd
       0.11780679 0.069906324 -0.024183674 -0.10500285
000340 24 1b 63 bc 74 52 3a 3d 87 d7 d6 bd e3 40 94 bd
       -0.013861451 0.04548879 -0.10490327 -0.07238939
000350 0f 6a 72 39 4b ef 85 bd 8a ba a7 3d d9 55 7f bd
       0.00023118428 -0.06539782 0.081898764 -0.06233773
000360 04 38 80 3d 21 83 ae bc 54 e2 dc 3d b7 ca 87 bd
       0.06260684 -0.021302762 0.10785356 -0.06630462
000370 9c 78 4e 3c 56 e5 f2 bd 85 18 59 bd b3 91 c2 3d
       0.012601998 -0.118601486 -0.0530019 0.09500446
000380 aa 1b 62 bd c2 67 e4 bd a4 8a 9f 3d 4a 15 ef 3d
       -0.055202164 -0.11152603 0.077901155 0.116739824
000390 be 76 5f 3d 2b 72 b1 bd 55 8f 68 3d 30 f9 9b 3d
       0.0545566 -0.08664354 0.056777317 0.07615888
0003a0 89 8e 4a 3d e3 6d 02 bc e0 ec d1 3b 7a 01 8b 3c
       0.04945234 -0.007960769 0.0064064115 0.016968478
0003b0 11 db 87 3c 55 aa ef 3d 6e 20 64 3d 1a 55 f9 bd
       0.016583951 0.1170241 0.05569499 -0.12174435
0003c0 32 70 f4 bc 7d df 50 bd 3e 88 63 3d 0c 88 c7 3d
       -0.029838655 -0.050994385 0.055549853 0.09742746
0003d0 c4 99 44 bc 91 03 76 3d 5d 57 31 bc 62 68 d7 bc
       -0.011999551 0.060061995 -0.010824052 -0.02629489
0003e0 81 a1 e8 3c fe 12 5b bd 2b 04 98 bd f3 9d 5a 3c
       0.028397324 -0.05348491 -0.0742267 0.013343322
0003f0 d1 ae 0a bd ba c2 d3 3d bc 84 cf bd ff ac 46 3c
       -0.033858124 0.103398755 -0.10132739 0.012126206

encoder.layers.1.nn.net.2.bias f4 [64]
000000 7e 6e f6 bd 41 47 f1 3d cb 10 c6 bd b1 cf ce 3d
       -0.120327935 0.11781169 -0.09671172 0.10098208
000010 8f 73 ab bd de 8c f7 3d e8 68 05 bd eb 7e 39 3d
       -0.083716504 0.12087415 -0.03257075 0.045287054
000020 b5 1b 2c bd 32 34 83 bd 4f 6b ea bd 61 92 65 3d
       -0.04201861 -0.0640644 -0.11446249 0.0560478
000030 db fb dd 3d 19 76 c4 3d d9 f5 00 bd d4 57 a5 bd
       0.10839053 0.09592838 -0.03148446 -0.080733925
000040 e2 e0 96 3d 8a 3a a7 bd 5d 35 9e 3d db 58 a2 3d
       0.07367112 -0.08165462 0.07725022 0.07927104
000050 ec 04 be 3d 13 43 b2 3d cc d3 7d bd 80 74 a2 3d
       0.092782825 0.087042 -0.061969563 0.07932377
000060 35 90 e5 3d f0 3d 2b 3d 66 9f 91 bd d4 dd 04 3d
       0.11209146 0.041807115 -0.07110481 0.032438114
000070 b3 bb 9c 3d 2c 89 9b 3d ce 1f 88 bb 5f f0 07 bd
       0.07652988 0.07594523 -0.004154182 -0.03318822
000080 e7 50 5a 3c 8d f4 9f 3d 84 62 8f bc c1 34 1c bd
       0.013324953 0.07810316 -0.01750303 -0.038136248
000090 a0 c5 0f bc 88 2c d6 bd eb a6 fc 3d 97 0d a8 bd
       -0.008775145 -0.104577124 0.123365246 -0.08205717
0000a0 49 9a 20 bd 6e 68 f7 3d d9 a7 5b bc 4e 81 e4 3d
       -0.039209638 0.12080465 -0.013406717 0.111574754
0000b0 65 db 8c bd ca d7 d2 3d a9 e6 48 bd 68 8c 9e bd
       -0.06877784 0.10295065 -0.0490481 -0.07741624
0000c0 04 ef 73 bd b0 e2 e5 3d 80 18 cb bd d6 87 d2 3d
       -0.059554115 0.11224878 -0.099167824 0.10279815
0000d0 c9 f8 dc 3c 93 07 bb 3d ba 71 8d bc 36 0f ec 3d
       0.026974099 0.09132304 -0.017266143 0.11526339
0000e0 f3 82 9f bd 56 f3 87 3c 02 97 e6 3d 9a 34 ad bd
       -0.077886485 0.016595524 0.11259271 -0.084572986
0000f0 31 a2 d5 bd 82 bd c4 3c cb b5 d0 3d 12 1f fa 3d
       -0.10431326 0.024016146 0.10190924 0.122129574

encoder.layers.2.nn.net.0.weight f4 [64, 64]
000000 59 97 90 bd 0b f9 64 bc 55 db 5c bc 1f 23 95 ba
       -0.07060117 -0.013975392 -0.013480027 -0.0011378265
000010 63 5b c3 bd ff 11 24 bc 88 59 e2 3d f5 1f 60 bd
       -0.09538915 -0.010014056 0.11052233 -0.054717977
000020 78 ff 01 bb c3 e0 00 bd 28 02 b3 3d cb 92 1e 3c
       -0.001983611 -0.03146435 0.08740646 0.009678553
000030 ac 63 d6 bd 5b b4 fd bc 25 ec 34 3d f8 f8 50 3d
       -0.1046823 -0.03096979 0.044170517 0.051018685
000040 6f 8f 30 bd 59 95 1c 3d e2 26 e7 3d 1c 22 34 bc
       -0.04310554 0.038228367 0.11286713 -0.01099446
000050 63 ed 5a 3d 3f 03 a6 3d ba e8 a6 3d 0d 09 85 3c
       0.053449046 0.08106088 0.08149858 0.016239667
000060 61 5f 68 bd ac 07 de bc 83 8b 98 3d 9e 40 df bd
       -0.056731585 -0.027103268 0.07448485 -0.109009966
000070 df 29 30 bd 36 27 9a 3d ad ab e8 bd a3 5d a3 bc
       -0.04300868 0.0752701 -0.113608696 -0.01994211
000080 2b 5e 93 bd 52 61 62 3d d4 1b 61 bd 3f 7d 44 bd
       -0.071956955 0.055268593 -0.05495818 -0.047971006
000090 1f 99 cc 3d 81 81 ed 3d 18 f5 45 bd 3a fe 07 3d
       0.09990143 0.115969665 -0.048329443 0.033201434
0000a0 6e c7 b4 bd c0 70 a7 3d 15 a2 8a bd 1c 92 18 bd
       -0.08827101 0.08175802 -0.06769196 -0.037248716
0000b0 77 3d c6 3c 77 b3 ec 3d f7 b1 08 bd 15 93 55 3d
       0.02419923 0.11557668 -0.033372846 0.05214222
0000c0 60 24 28 bd 48 89 dc bd 95 6b ed 3c a2 dc c3 3d
       -0.041050315 -0.10768372 0.028981963 0.09563567
0000d0 3f 55 dd 3d 77 bb f3 3d b2 9b 29 3c 4a 37 e1 bd
       0.10807275 0.119009905 0.010352062 -0.10996874
0000e0 88 f2 ab bd 72 86 11 bb b4 f8 da bd 08 b6 c0 bd
       -0.083958685 -0.002220538 -0.106919676 -0.0940972
0000f0 40 2e dd bd b9 a0 46 3d b8 72 2c bd db 8c 61 bd
       -0.10799837 0.04849312 -0.04210159 -0.05506597
000100 4d 13 62 bd 99 6e ad 3d 72 de c3 3d 92 20 50 bd
       -0.055194188 0.084683605 0.095639125 -0.05081231
000110 df 0c a3 3d a8 b8 9f bd e5 fd 93 bd 5c 90 b4 3b
       0.07961439 -0.07798892 -0.07226161 0.005510373
000120 66 61 75 3d 1d 0b 9f bd 56 d8 b0 bd 75 ab 74 bd
       0.05990734 -0.077657916 -0.08635013 -0.059733827
000130 14 5a 13 bd d8 c2 c2 3d 91 60 da 3d a4 a4 42 bd
       -0.035974577 0.0950982 0.1066295 -0.047520295
000140 ab d9 0b 3d 9c 6f 0a bd 72 2c 31 bd 0c 6e 14 3d
       0.03414313 -0.033797845 -0.043255277 0.03623776
000150 f6 08 10 3e 8a 7c 02 be 13 76 eb 3c 6f 8e dc bd
       0.14065918 -0.1274282 0.028742826 -0.107693546
000160 5c c7 19 be 56 42 e8 bc 1d b6 93 3d 03 df 11 3e
       -0.15017456 -0.028351944 0.0721247 0.14245228
000170 d3 3e ad bd e3 54 20 3b c0 40 58 3d 08 26 1a 3e
       -0.084592484 0.002446466 0.052796125 0.1505357
000180 8d fd bc 3c c8 b6 b8 3d 24 53 8a bc 32 50 f5 bd
       0.023070121 0.09019238 -0.016885348 -0.11978187
000190 20 fb e1 bd cc 5f 6c bd 78 a7 9a bd 25 bf 92 3d
       -0.110342264 -0.057708547 -0.075514734 0.07165364
0001a0 95 1e 65 bd ef 02 0d 3d a9 82 6d bd 35 ee 08 bd
       -0.05593737 0.034426626 -0.057985935 -0.033430297
0001b0 96 fd 0a be a9 11 70 bd 1d 9b a8 3d 79 65 c7 3d
       -0.13573298 -0.058610592 0.082327105 0.09736151
0001c0 22 90 f6 3b b4 0e 06 3e 65 5f 54 3d cf ea aa 3d
       0.007524506 0.13091546 0.051848788 0.083455674
0001d0 19 f1 e3 3d fc 29 85 bd a6 e8 fd 3d ff 76 c5 bd
       0.1112997 -0.065021485 0.1239789 -0.09641837
0001e0 1c 8b 4e 3d 8a 65 8a 3c fb e9 80 3d 6c 69 fe bd
       0.050425634 0.01689412 0.06294628 -0.124224514
0001f0 01 04 8b bc d6 39 e0 3d 87 85 a3 bd e1 95 90 bd
       -0.016969683 0.10948531 -0.07984453 -0.07059837
000200 eb 43 52 3d 5b 57 ee bc 9d c5 0b 3e 2e b6 5e bd
       0.051334303 -0.029094389 0.13649602 -0.05437296
000210 00 f6 be bd 6c 6e 31 3d 83 3a 87 bd 2f b1 8f 3d
       -0.093242645 0.043318197 -0.06602957 0.07016217
000220 33 3f f8 3d 1d f8 4a 3c e1 2e d1 3d 5a b6 8a bc
       0.12121429 0.012388256 0.102140196 -0.016932655
000230 9b 71 2a 3d 75 85 a7 bd c3 f2 66 3d 95 2c d6 3d
       0.04161225 -0.08179752 0.05638386 0.10457722
000240 ba 7e f5 3d e8 0e 51 3d 9b 68 62 3d 9e 3a fb bc
       0.11987062 0.051039606 0.05527554 -0.0306676
000250 a8 3a 79 bd 41 a9 e7 3d 51 fd 7d bd 94 fa 07 3d
       -0.060846955 0.113115795 -0.06200916 0.033197954
000260 04 8e ae 3d c2 60 13 bc 85 e4 83 bd 58 29 0c 3e
       0.08523181 -0.008995237 -0.06440071 0.13687646
000270 22 ac ba 3c 5b 3e ca 3c 33 2f e9 bc 4f 5d ce 3d
       0.022787157 0.024687937 -0.02846489 0.10076391
000280 b8 f1 a3 bd 88 5d bc 3c ce 8f 61 bb 12 62 e5 3d
       -0.080050886 0.022993818 -0.003441799 0.11200346
000290 1d 84 50 bd 08 4a c2 3c 96 11 01 be 7d a2 bd 3d
       -0.050907243 0.023716941 -0.12604365 0.09259508
0002a0 ce 3a 1f 3d 19 88 6d 3c c8 73 80 3d db 78 b7 bd
       0.03887444 0.01449778 0.062720835 -0.08958598
0002b0 5d 90 97 bc b1 7b 8e 3d 75 c8 f2 bd 23 fc c4 bd
       -0.018501455 0.06957186 -0.118546404 -0.09618404
0002c0 d1 05 e9 3d 82 2a bd bc bc 6d b6 3c 6b bd c9 bd
       0.113780625 -0.023091558 0.022269122 -0.09850582
0002d0 1b b4 8f 3d 2a f0 53 3d 62 d0 0a 3e 2d ee d4 bd
       0.07016774 0.05174271 0.13556054 -0.10396991
0002e0 37 fd bf 3d 6f 5a 21 bd f0 9b 34 3c 3a b3 90 bc
       0.09374469 -0.039392885 0.0110235065 -0.017663587
0002f0 fb c9 dc 3d 5d 42 9a 3d 29 62 b8 3d 88 91 4a 3b
       0.10780712 0.07532189 0.090030976 0.0030909497
000300 96 c9 12 bc 08 ef de 3b 66 5d 62 3c 57 37 99 bd
       -0.008959195 0.006803397 0.013816213 -0.07481258
000310 62 26 c8 bd 4d d9 6c bd 66 56 99 3d f5 3e 93 3d
       -0.09772946 -0.05782442 0.07487182 0.071897425
000320 16 f6 63 bd d7 a8 ba 3d d2 4a f4 3c ac 93 e1 3c
       -0.055654608 0.09114235 0.029820833 0.027536236
000330 46 5f af bd fa 87 56 3d 62 89 cc bd 67 45 9c 3d
       -0.08563094 0.05237577 -0.09987141 0.07630425
000340 6f 4b c0 3c 9d 5a e6 3c 28 60 80 3d 3a f6 2c bd
       0.02347347 0.02811938 0.0626834 -0.042227007
000350 8b cd bd 3d 81 9c b0 3d 31 d4 c8 bd 2e 64 a4 bb
       0.0926772 0.08623601 -0.09806097 -0.005016825
000360 1c 3d 7c 3d c5 cf e0 3d 40 14 bb bb 7d 18 a7 3d
       0.061581716 0.10977129 -0.005709201 0.08158968
000370 83 7c 03 3e e8 0d c6 3d 27 40 c6 bd f3 e0 b4 3d
       0.12840466 0.09670621 -0.09680205 0.08831968
000380 0b c9 cd bc a3 6d 09 be 20 89 fa 3c d4 d9 89 3d
       -0.025120279 -0.1342073 0.030582964 0.067310005
000390 57 be b4 bd db 96 32 bd 58 6e 2c bd b3 04 42 bc
       -0.08825367 -0.0436009 -0.04209742 -0.011841941
0003a0 70 6e f2 3c cf 32 95 3d f6 ca 4b bd 8a f0 e9 3d
       0.029593676 0.072850816 -0.049754106 0.11422832
0003b0 d1 55 b0 bb f6 cf 53 3c ed b3 c8 bd e5 84 a6 3d
       -0.005381324 0.012928 -0.09799943 0.08130816
0003c0 49 93 8f 3b 73 02 29 3d a0 dc 17 3e c2 c3 ac 3d
       0.0043815714 0.0412621 0.14830256 0.08435775
0003d0 a1 fc ae bd 21 6a 60 bd 2e 64 ae bd 5a 54 d7 bd
       -0.08544279 -0.054788712 -0.085152015 -0.10514136
0003e0 da 2a d3 3d 42 36 19 3d a0 f5 8f 3d 56 21 67 bd
       0.10310908 0.03740526 0.07029271 -0.056428276
0003f0 4d 7b 07 bc 69 62 e3 bc a2 1c dc bd ef 63 03 be
       -0.008269143 -0.027756887 -0.10747649 -0.1283109

encoder.layers.2.nn.net.0.bias f4 [64]
000000 d4 b0 d6 bd b7 ea 97 3d 76 6d 10 3d 0e 42 38 bc
       -0.10482946 0.07417815 0.03526064 -0.011246217
000010 9a 91 db 3d fc 18 02 3c f2 45 8d bd 67 8c a4 bb
       0.10721131 0.007940527 -0.06898107 -0.00502162
000020 a5 41 df 3c 6f e1 6a bd c2 d5 8d 3d a7 8e 65 3c
       0.027252981 -0.057343896 0.06925537 0.014011062
000030 f2 e4 d2 ba f0 15 ba 3d b9 19 bb 3d 8a 74 aa 3d
       -0.001608996 0.090862155 0.091357656 0.08323009
000040 c6 d6 d8 bc f3 25 85 bc d2 97 47 bb a1 62 e9 3c
       -0.0264696 -0.016253447 -0.0030455482 0.028489413
000050 c4 58 f5 bd fe 3c b0 3d 16 fd c0 3d d5 0d 14 3d
       -0.11979821 0.08605383 0.09423272 0.036146004
000060 28 8a f8 3c c7 86 2d 3d 15 46 40 bd c4 39 d1 bd
       0.030339316 0.04236486 -0.046941835 -0.10216096
000070 10 0a c0 3c 50 42 e6 bd 56 91 87 3d 1b 05 f6 bd
       0.023442298 -0.11243117 0.066195175 -0.120126925
000080 a4 9f 96 bd c4 71 37 bc 68 78 0c 3e 56 45 a5 3d
       -0.07354668 -0.011196557 0.13717806 0.080698654
000090 bc 0a dc 3c b4 1b 90 bd 69 74 9a 3d 7d 52 51 3d
       0.026860587 -0.07036534 0.07541735 0.051104058
0000a0 60 e0 d0 3d aa 79 e0 3d 38 49 67 bd 97 26 04 3e
       0.10199046 0.109607056 -0.05646631 0.12905346
0000b0 f9 be 18 bd a3 95 bc bd 96 60 d3 bc bb 45 5c 3d
       -0.0372915 -0.092082284 -0.025802892 0.053777438
0000c0 83 8f 0a bd 25 e4 2a 3d b0 db 5c 3c c3 06 d6 bd
       -0.03382827 0.04172148 0.013480112 -0.104505084
0000d0 c0 a6 6b bd 1f 43 dc 3c 6a 9e f5 bb 63 cc d2 bd
       -0.057532072 0.026887475 -0.007495691 -0.1029289
0000e0 7c f6 71 3d 67 3f 4e bd bf e3 0a 3d e4 56 54 bd
       0.059072956 -0.050353434 0.0339086 -0.051840678
0000f0 a2 22 fc 3d 4f de d7 bd ac dc d9 3d 42 49 be 3d
       0.12311293 -0.10540449 0.10637793 0.092913166

encoder.layers.2.nn.net.2.weight f4 [64, 64]
000000 69 89 b0 3d af 0d af 3d e7 bb 27 3d a8 cf 8a bd
       0.08619959 0.08547532 0.040950682 -0.067778885
000010 91 bb cf 3c bf e5 72 bd 71 58 e4 3d 35 61 ab bc
       0.025357993 -0.059301134 0.11149681 -0.020920375
000020 86 6f 81 bd f0 c1 01 3e 58 0a 0d bd bb e3 76 3d
       -0.063200995 0.12671638 -0.034433693 0.060275774
000030 8f 53 b2 3d 20 53 81 bd 72 e0 9b bd b7 4c 45 3d
       0.08707344 -0.06314683 -0.07611169 0.048168864
000040 38 9d 4d bd 01 33 d0 3c 28 90 cc bd 75 08 d9 bc
       -0.050198764 0.025414946 -0.09988433 -0.02649329
000050 f3 e5 99 bd 91 64 ce bb 3a 00 85 bd b6 9f cd 3d
       -0.075145625 -0.0062986095 -0.06494184 0.10040228
000060 86 42 c3 bc 40 48 1e 3d 62 97 41 bd 00 5e 3e 3d
       -0.023835432 0.03864312 -0.04726351 0.046476364
000070 85 67 33 3d 73 d7 56 bd cf 02 a4 3d ac 15 03 be
       0.043799896 -0.052451562 0.08008348 -0.12801236
000080 e8 88 ce bd aa 29 ff bd 6d e7 33 bd 95 d0 ae 3c
       -0.100847065 -0.12459119 -0.043921877 0.021339694
000090 87 0e b3 bd 6c 23 13 3e 7a 48 db bd bd 76 00 bd
       -0.08743005 0.14368981 -0.10707183 -0.031363238
0000a0 2f 46 3a bd 5d 22 6e 3d 42 1f b6 3d 99 9c df bc
       -0.04547709 0.05813824 0.08892681 -0.027296351
0000b0 e2 15 b3 bd 7d b5 93 bd 92 1b dc bd 34 a4 a0 3d
       -0.08744408 -0.072123505 -0.10747446 0.07843819
0000c0 1e 4c 01 bb a2 e1 9c bb a1 d2 a3 3d 2c 16 46 3d
       -0.0019729207 -0.0047876397 0.07999159 0.04836099
0000d0 48 fc ae bc 21 fe e4 3d 71 e7 87 3d d5 af b1 3d
       -0.021360531 0.11181284 0.06635941 0.086761154
0000e0 09 67 b1 3d b7 a3 89 bb e2 f4 2b bd c1 a2 99 bc
       0.086622305 -0.0042004245 -0.041981585 -0.018754365
0000f0 f6 80 f6 3c 54 0e 87 bd d5 6d 7c 3d 2b 45 c2 3c
       0.03009079 -0.0659453 0.06162818 0.023714622
000100 9c 74 96 bd 85 af fa 3d 39 6f 8b bd d9 bc 89 bc
       -0.0734646 0.12240509 -0.068083234 -0.016813682
000110 f8 7c 00 be 94 9f b4 3d 42 7e 86 3d b0 70 9b 3d
       -0.12547672 0.088194996 0.065670505 0.07589853
000120 9d bf cb bc b7 3f cd 3c ca b6 91 3d ed 9a 23 3d
       -0.024871642 0.025054796 0.07114942 0.03994267
000130 c0 39 99 bd 90 8c a6 bd 9f 89 b8 bd 84 e9 df bd
       -0.07481718 -0.08132279 -0.09010624 -0.109332114
000140 d2 e8 5a bd 89 6d 7f bb b4 05 e4 3c 33 98 64 3d
       -0.05344469 -0.00389752 0.02783475 0.05580921
000150 1a e3 24 3c b7 11 11 bd 59 62 50 3d 3c b4 51 bd
       0.010063911 -0.035417285 0.05087504 -0.051197276
000160 02 50 6b bc 13 16 83 3c b5 1f ad 3d bf 50 92 bc
       -0.014362337 0.016001737 0.08453313 -0.017860768
000170 fa 8f aa 3c 7b eb bf bd c2 4c f4 3d ff d7 e7 bd
       0.020820606 -0.09371086 0.11928703 -0.11320495
000180 e6 ef e3 bb 03 da bb 3c f8 20 cb 3d 55 eb 7b 3d
       -0.0069560884 0.022931105 0.09918398 0.061503727
000190 6d 8b f6 bd 8f 58 cd bd 9e d4 ca 3d 9b 0a 56 3b
       -0.12038312 -0.10026657 0.09903835 0.003266013
0001a0 c2 7d 99 3d 50 ee 2b 3d f2 ea ab bd ed 73 e8 bd
       0.074946895 0.04197532 -0.08394422 -0.11350236
0001b0 ac e0 b9 bd 64 52 a4 bc 2a 20 bb 3d 2f d9 a3 3a
       -0.09076056 -0.020058818 0.09136994 0.0012500639
0001c0 51 e2 95 3c 9a b2 68 bb 5c ef 94 bd 33 b7 2c 3b
       0.018296393 -0.0035506845 -0.07272217 0.0026354312
0001d0 2b 30 53 3d 3b 10 20 bd 8d 00 2b 3d a7 2d cc bc
       0.05155961 -0.03907798 0.041748572 -0.024924112
0001e0 a1 1d 0a bd a5 30 50 bc 71 c3 a2 3d 1f 10 e3 bd
       -0.033719663 -0.01270691 0.07947434 -0.11087059
0001f0 74 8f 34 3d 8e 0f 4c 3d 5f 22 db 3d d6 9b ef 3d
       0.04408212 0.04981952 0.10699915 0.11699645
000200 86 73 c7 bd f8 4b 0b be 46 5f 95 bd 91 dc a5 bd
       -0.09738831 -0.13603199 -0.072935626 -0.0809871
000210 9e a8 db bc b3 00 3f bd 23 f6 73 bc cb 4c 8c bd
       -0.026813801 -0.046631526 -0.014890227 -0.068505846
000220 eb d3 84 3d f8 84 ca 3c aa 78 21 3d fc 60 e4 3d
       0.06485733 0.024721608 0.039421715 0.11151311
000230 38 01 d3 3d 31 9b ae bb 6a ed 3a 3d 38 e3 ab bd
       0.10302967 -0.005328559 0.045636572 -0.08392948
000240 4e ab 91 bd df 1b bf 3d 1e 08 d3 bd 10 bb cc 3d
       -0.07112752 0.09331488 -0.103042826 0.09996617
000250 a3 45 f0 3d 6b 9a 10 3d bc c9 46 3d fb 00 cb 3d
       0.11732032 0.035303514 0.048532233 0.099122964
000260 06 29 8f 3d 78 85 f4 bd 59 89 2c 3d b4 e3 97 3c
       0.069902465 -0.1193952 0.042123172 0.018541194
000270 b4 0f f8 3c 36 d6 d3 bd 29 88 bb 3c 54 ca 8e bd
       0.030280925 -0.10343592 0.022892075 -0.06972185
000280 38 02 62 bd 8a 78 d4 3d fc 7a 93 bc 58 3f 28 3d
       -0.055177897 0.103745535 -0.01800298 0.041076034
000290 c5 50 a9 3d 37 37 86 bd b3 02 bb 3d d5 d9 5b 3d
       0.08267359 -0.065535 0.09131374 0.053674538
0002a0 5d 3d 4b bd da 33 f7 bd 28 d9 bf 3d e5 5b b8 bd
       -0.049619067 -0.12070437 0.09367591 -0.090019025
0002b0 35 22 f3 3d e3 be 9b bd bd 4f f3 3c c9 0b dc bd
       0.11871759 -0.07604768 0.029701108 -0.10744435
0002c0 94 60 a9 bd 00 7a 34 3d a0 53 f5 bd 93 6a ce 3c
       -0.08270374 0.04406166 -0.11978841 0.025197303
0002d0 f8 36 ef bc 5f 6e e1 3d 60 80 a1 bd e2 cd 44 3d
       -0.029201016 0.1100738 -0.07885814 0.048047908
0002e0 54 e7 a8 bd c7 2a 63 bb e9 03 11 3d d7 89 85 bd
       -0.08247247 -0.0034662948 0.03540412 -0.065204315
0002f0 9c 25 3f 3d dd 98 a6 bd 76 c3 62 3d 3e 65 b2 3d
       0.046666726 -0.08134625 0.055362187 0.08710717
000300 c6 08 3b bd 92 ad 91 bd cf f7 5f bd 31 15 eb 3d
       -0.045662664 -0.07113184 -0.054679688 0.11478651
000310 f7 56 92 3c 73 f9 e1 bd 62 e6 34 3c 00 fd 59 3a
       0.017863734 -0.11033907 0.011041256 0.0008315593
000320 95 0f bd bd 91 41 2b bc ef af 11 3d 42 2c e7 bb
       -0.09231488 -0.010452644 0.035568174 -0.0070548365
000330 6a b8 81 3d 2b 8b db 3d 7c f5 98 3d 78 4b 63 3d
       0.06334002 0.107199036 0.074686974 0.055491894
000340 a2 88 ad 3d f1 59 f1 3d 04 1c 93 bd a9 42 51 3d
       0.08473326 0.11784733 -0.07183078 0.051088963
000350 9e c1 03 be 7e 58 eb bc 2b f0 c4 bc f6 6b 1f bd
       -0.12866828 -0.02872872 -0.024040302 -0.03892132
000360 63 06 5a bd 7c 66 b5 3c 08 4c db 3d 34 fd e9 3c
       -0.053228747 0.022143595 0.10707861 0.02856312
000370 b8 e3 2e 3d 23 b4 6a 3d 3b 24 be 3d 70 35 b9 3d
       0.04269764 0.057300698 0.09284254 0.090433955
000380 26 0d ac bb 96 33 92 3c c8 43 bd bd e8 dd b8 bd
       -0.005250591 0.017846864 -0.09241444 -0.090267
000390 67 ee 9d 3d fe b0 74 3c bf be cb 3d 05 0a be 3c
       0.07711487 0.014934776 0.09948491 0.023198137
0003a0 52 bc db 3a d1 ca 44 3c 33 f5 2c 3c 07 96 06 3d
       0.0016764498 0.012011246 0.010556507 0.03285792
0003b0 5e d4 66 3c 71 7e ca bd d8 5e 6e 3d 7d 19 55 3d
       0.014088718 -0.09887398 0.05819592 0.05202626
0003c0 a5 92 53 bd c0 ea 31 bd 63 1f 82 3d 89 c0 d9 bb
       -0.051653523 -0.043436766 0.06353643 -0.0066452664
0003d0 68 25 b9 bd ee e8 bb 3c ef 2f cf bd 55 25 b5 bd
       -0.09040338 0.022938218 -0.101165645 -0.08845011
0003e0 17 ec de bd 1a 3d 4e 3c 4d a4 e7 3a 96 61 84 bd
       -0.10884874 0.01258781 0.0017672867 -0.064639255
0003f0 8c 3b f4 bd 6c ec 59 3c 1a bb e1 3c 98 9b 67 3c
       -0.1192542 0.013300996 0.027555037 0.014136218

encoder.layers.2.nn.net.2.bias f4 [64]
000000 ab b5 c8 bd c8 7c 45 3d f4 37 fb 3d 19 a3 c7 3b
       -0.098002754 0.048214704 0.122665316 0.006092441
000010 a1 f7 e3 3d 0f fe 80 bc 7f ed 94 bd 81 76 1e bc
       0.11131216 -0.015746145 -0.07271861 -0.009671808
000020 51 8a e2 bd 6f b3 1c 3d cd 3f 8b 3d 6d e7 d1 bd
       -0.11061538 0.03825706 0.067992784 -0.10249219
000030 96 aa 02 bd e4 80 d5 3d bb 40 fa bd bd 7a bc bd
       -0.031900965 0.104249746 -0.122193776 -0.09203098
000040 29 7d ec 3d fa 08 bb bd 1c c6 78 bd 18 22 a7 bd
       0.1154731 -0.091325715 -0.060735807 -0.081608
000050 b9 34 99 bd cf ab d1 3d b0 da 8c bd ae 45 83 bd
       -0.07480759 0.10237848 -0.06877649 -0.06409775
000060 72 0b c4 bd 9b 01 fb 3c b9 31 10 bd 0e bd e2 3c
       -0.095724955 0.030640414 -0.03520367 0.027678039
000070 92 ef d8 3c df d0 b3 bd 9e 88 a2 3c a6 63 e9 3d
       0.026481424 -0.087800734 0.019840535 0.113959596
000080 c4 63 7e bd 2b 44 9c 3c 96 f2 58 bd 58 01 de bc
       -0.062106863 0.019075474 -0.052965723 -0.02710025
000090 4a 9c bf 3d ca cd e9 b9 e5 e1 57 3d 7f 5b 12 bd
       0.09355982 -0.00044594548 0.052705664 -0.03573179
0000a0 f1 3d a8 bd 4e e2 be bd 6c db 23 3b b0 b4 c3 bd
       -0.082149394 -0.09320508 0.0025002612 -0.09555948
0000b0 b2 b8 f0 bb 4b 83 18 bc b0 ba c9 3d b1 f8 cf bd
       -0.007346236 -0.009308646 0.09850061 -0.10154856
0000c0 58 d8 c2 3b c9 81 19 3d b5 dc 41 bd 6e 69 2e bd
       0.0059462003 0.03747729 -0.047329623 -0.042581014
0000d0 e4 f3 c0 3d 08 bb 33 3d ab fa ae ba 05 22 f4 3d
       0.094215184 0.04387954 -0.0013349851 0.11920551
0000e0 65 39 94 3c f8 fe b7 bd 05 a0 77 ba 72 5d cf 3d
       0.018093774 -0.08984178 -0.0009446147 0.10125245
0000f0 50 5a 46 bd 56 f2 a1 bd 8d 83 1c 3d 7e 4e f1 3b
       -0.048425972 -0.0790755 0.038211394 0.0073640933
