scripts/embeddings_gin_version2/IMDB-MULTI/gin_dim64_ep100_lr0.001_drop0.0/gin_classifier.pt (torch, 175837 bytes, 42 tensors)

encoder.layers.0.nn.net.0.weight f4 [64, 1]
00000000: a48c b3be 882d 28bf d09e ad3d 40fe 793f
00000010: 404a 23bf 378f 233f ace0 52bf b832 4bbe
00000020: b444 ee3e e80f cdbe 1046 093e cb43 0b3f
00000030: 6e39 de3c 48db 19bf ce08 27bf 8e38 5a3f
00000040: 12d3 66bf b089 193e 7796 3e3f 00a9 b9bb
00000050: 008a 00be 00fc 55bb a899 afbe 8846 28be
00000060: d4a8 9b3d c120 393f 738c 2d3f 1830 a13e
00000070: ef4c c7bc 954a bb3e 36c6 52bf ec95 e0be
00000080: f881 37be 0c77 45bf a12c 393f 69d7 003f
00000090: 64f7 12bf 9253 70bf 462e 2c3e 5173 643f
000000a0: 73f5 4f3f 8221 3e3f b299 6dbf 8ece 57bf
000000b0: e01f dfbd acf5 a7be 3844 2fbe e36b 913d
000000c0: f179 f4bc 8f67 7f3f 60a7 78be 6c3c c9be
000000d0: f5df 613f 55af 543f be3a cabc c0c6 56bf
000000e0: 20b2 663f 8a0e 733e 065e 07bf fed4 52bf
000000f0: b04d 9ebe 9a41 2c3f 9d84 763f 715b 213f
-0.35068238 -0.65694475 0.08477557 0.9765358 -0.6378517 0.63890404 -0.8237407 -0.19843566
0.4653679 -0.40051198 0.13405633 0.5440032 0.027126994 -0.6010022 -0.6524781 0.85242546
-0.9016582 0.1499393 0.7444834 -0.0056658983 -0.12552643 -0.0032651424 -0.34296918 -0.16433156
0.07600561 0.72315603 0.67792434 0.31482005 -0.024328677 0.3658034 -0.82333696 -0.4386438
-0.17920673 -0.77134776 0.72333723 0.5032869 -0.5740874 -0.9387752 0.16814527 0.8923846
0.812339 0.7426988 -0.92812645 -0.8429955 -0.108947515 -0.3280462 -0.17115867 0.07100656
-0.029843302 0.9976739 -0.24282598 -0.3930391 0.88232356 0.83080035 -0.024686214 -0.8389702
0.9011555 0.23736015 -0.52877843 -0.8235625 -0.30918646 0.672876 0.962961 0.63030154

encoder.layers.0.nn.net.0.bias f4 [64]
00000000: 3859 513f 90c0 d7be 58a6 a43e 455c aabe
00000010: ccec da3e 3d0b 053f e0b4 2cbd 4061 7c3e
00000020: 85e3 1e3f 5050 97bd 183a 0b3e 1d49 5fbe
00000030: a72a 17bf 103b 98bd 248d 983e a656 213f
00000040: f8c8 863e fa34 c73e 9b9e 77bd 9e84 43bf
00000050: 34e5 863e 248d 34bf e4c9 5c3f 729f 14bf
00000060: 7bbc 913e 2a35 7abf eff5 7d3d 2e59 573f
00000070: ca6f 493f 6a00 503f 1a65 51bf c83e 3abf
00000080: f2b6 6abf d0b7 4d3e 2e34 173d 460b 013e
00000090: 0c80 b63e 30f3 48bf 6b91 26bf a0bf 1bbf
000000a0: 4f7e 12be 34bf fd3e fc88 03bf f044 86be
000000b0: fc20 b23e b23a 29bf 8029 7b3c d897 453e
000000c0: d377 303f f2b2 34bf 4c18 45bf 98ae 393e
000000d0: 1a0d a5be e766 3f3f 245a b83e 708d 67be
000000e0: 28c0 153f 6f17 793e 42db 02bf c8f1 5bbf
000000f0: f013 18bf 8129 54bf aa28 78bd 8794 5dbe
0.8177676 -0.421391 0.3215816 -0.3327352 0.42758787 0.51970273 -0.042164683 0.24646473
0.6206592 -0.07388365 0.1359638 -0.21805234 -0.5904946 -0.0743314 0.29795182 0.6302284
0.26325202 0.38907605 -0.060453992 -0.7637423 0.26346743 -0.70527864 0.8624556 -0.58055794
0.28464112 -0.9773737 0.06200212 0.8412045 0.786862 0.8125063 -0.81794894 -0.72752047
-0.916854 0.2008965 0.036914997 0.12601957 0.35644567 -0.78496075 -0.6506564 -0.6083927
-0.14305995 0.4955994 -0.51380897 -0.2622447 0.3479079 -0.66105187 0.015329719 0.19296205
0.6893284 -0.7058555 -0.769902 0.18133008 -0.32236558 0.7476639 0.36006272 -0.22612548
0.5849633 0.24325345 -0.5111581 -0.85915804 -0.5940542 -0.8287583 -0.060585655 -0.2163869

encoder.layers.0.nn.net.2.weight f4 [64, 64]
00000000: bca7 e9bd 2056 50bc b1b7 a0bd 6b0f 143c
00000010: 6eb5 adbd 2853 7e3d cc3c 503d 00a1 393b
00000020: ae36 213d 4083 fa3d ebcf b83d 48d6 4ebd
00000030: 9cf7 52bc c8a6 b3bd f8c7 c03d 608a f93d
00000040: c08c b1bb 2398 c93b f869 ac3d 3894 19bd
00000050: 604c 07bc 16f1 8d3d 28fa 6fbd a834 b3bc
00000060: 2ea6 f43c fc4a ce3d af1a 66bd 4f60 76bd
00000070: 3a59 2a3d a16c 213e e0e1 9d3c bad9 87bd
00000080: c25d d33d c8d1 1a3d 73b2 40bd ce70 15bd
00000090: f875 4ebd 08ee 773d 65ac 153e b620 66bc
000000a0: f7a7 0b3d befe 82bd 40c7 6bbd b449 29bd
000000b0: a8b6 1f3d 76b9 873d d245 de3d 3c4a 223d
000000c0: a0d4 79bd b700 f4bc 107b bf3c 5612 aa3d
000000d0: 7a5d e23d 6905 9c3c 2866 8f3c f4c4 9d3d
000000e0: 0785 8cbd 6459 9f3b 5cf7 5e3d 8016 cfbb
000000f0: c09f 26bd c8bd 39bd ddc5 4d3d a340 bb3c
00000100: f852 3d3d ace6 e93d d01c 2ebd 0f01 ea3c
00000110: fc30 823d 199d 30bd 36a3 d9bd 00e2 48bd
00000120: 3570 d23c 5802 b0bd 3451 4fbd 225c a6bd
00000130: 9d7b 65bd 9455 c33d 5065 513c 178c 3ebd
00000140: 123b 923d 98dc 483d cf8b 033e 2cca 52bd
00000150: 1098 a7bd 101e e23d 8eec cabd 720a 923d
00000160: 8722 9d3d c370 99bd 166b 843d 1449 433d
00000170: 785c b43c 122a c23d 3401 5a3d 1c31 34bd
00000180: 80a9 903a 6c62 523d 200a 98bd 4035 fabc
00000190: 98ab 7d3d 22c3 a23d 996f 003e 7bef cdbd
000001a0: 8f14 1c3d e779 f73d 30fe 14bd b859 d83c
000001b0: a0c3 83bb c48f 57bd d660 bbbd c57a f2bd
000001c0: 2f2f 42bd 7647 90bd 28b9 563d 7211 e3bd
000001d0: 767c 7abc 3479 c43c 3a6d 37bd 94eb ce3d
000001e0: ecab 77bc 0680 d33d 60a1 d63d ba2d 9d3d
000001f0: f84f d93d a30c c13d 9a45 073e adae bd3c
00000200: bc3a 3cbd 6053 afbd 6876 343d 2295 4abd
00000210: 144e dcbd 1717 12be 60d6 323d d00a ac3c
00000220: a4fd 9cbd 74d0 043d 4bc3 993d aeae f1bd
00000230: 60f0 13be cc81 2cbd c004 eabd 49ef 463d
00000240: f0d8 043d 6622 703d 0d76 4abd 58ba 84bd
00000250: 669e 9e3d 2621 c0bd e4a3 28bd 80c2 74bc
00000260: 484e 4ebc 2e17 883d 275d ecbd 3054 e6ba
00000270: c043 7ebd 8c32 6c3d 248c 9c3d 98e1 19bd
00000280: d2ff bfbd 0e1b b0bd e846 01be 045a 17be
00000290: f803 78bd 4c76 7e3d 66f4 c8ba 5eef 2dbd
000002a0: a8b8 9cbd 5807 063c 9e1f a13d 8e9a cb3d
000002b0: 6c04 31bd d6ab ab3d 6076 c2bb bf7e a63d
000002c0: abac 31bd 693a a4bd 0c3c 9bbd 3a3c f9bd
000002d0: 9230 74bc 08d0 753d 97ac c1bd b061 263c
000002e0: 4ffe b0bd 9eff 84bd 8e22 fbbd 2629 d1bd
000002f0: b6d5 ff3d a61c 6d3d 23b1 8ebd 236d fbbc
00000300: 447a 81bd 1cd1 023d ffe0 abbd 3e2c 84bd
00000310: c8be c03d d44d a03d 9054 65bc 5001 3b3d
00000320: 12db 323d e809 18bd 1199 b1bb 0218 953d
00000330: e453 97bd 7033 e6bc dc5a 48bd 8cac 233c
00000340: 18f3 efbd 4d57 bebd 6a8a 3b3d 3070 be3d
00000350: d4a2 e23d b040 55bd 1edd fb3d d859 3ebd
00000360: 4d41 bf3c 1f3a d8bc 9226 1b3e 265c 843d
00000370: 9ec9 babc 567b 21ba 287b b3bc b01f 823d
00000380: 4c8e d0bd bc1f a43d 6f6e f6bc b295 b43d
00000390: d67a e03d e09e 2b3c 31be e0bc 03ad 1cbd
000003a0: 175c 843b 2d77 b93c ca1c 99bd fc9f c1bd
000003b0: fea8 89bd 007c 163d b0b4 c83c 2cd2 533d
000003c0: 82d1 26bd 095e 71bd 4460 f83d 6c00 6ebd
000003d0: 40a9 193e 9b55 a3bd 09f3 273c d239 eebd
000003e0: 8787 e4bb be01 b0bd da68 e6bd ea7a c7bd
000003f0: a05b 443c 4361 c03d 908c f4bc 891c f93d
-0.11408946 -0.012715846 -0.07847536 0.009036879 -0.084818706 0.062091023 0.05083923 0.0028324723
0.039358787 0.12232065 0.09024032 -0.050497323 -0.0128764175 -0.087720454 0.09413141 0.12184596
-0.00541839 0.0061521693 0.084186494 -0.037494868 -0.008257955 0.06930749 -0.058588177 -0.021875694
0.029864397 0.10072896 -0.05617779 -0.06015044 0.041589 0.15764095 0.019272745 -0.06633325
0.10320617 0.03779772 -0.047045182 -0.036484532 -0.050405473 0.06052974 0.14616545 -0.014045885
0.03409573 -0.063962445 -0.057563066 -0.041330054 0.038992554 0.06627171 0.10853161 0.039621577
-0.06099379 -0.029785497 0.02337411 0.083042786 0.110529855 0.019045549 0.017504767 0.077035815
-0.068613105 0.004862951 0.05443512 -0.006319821 -0.040679693 -0.045347005 0.050237525 0.02285797
0.046221703 0.1142095 -0.042507946 0.028564958 0.06356999 -0.04311857 -0.10626833 -0.049043655
0.02568827 -0.08594197 -0.05061455 -0.08123042 -0.05602609 0.09537807 0.012780502 -0.04652032
0.07140173 0.0490385 0.12846301 -0.051462337 -0.081833005 0.1104089 -0.099084005 0.071308985
0.07672601 -0.07492211 0.064657375 0.047677115 0.022016749 0.094806805 0.053223804 -0.043992147
0.0011036843 0.051363394 -0.07423806 -0.03054297 0.061931223 0.07947375 0.12542571 -0.10055443
0.038105544 0.12083798 -0.036375225 0.026409969 -0.004021123 -0.05262734 -0.09149329 -0.11839823
-0.04740828 -0.0704488 0.052422673 -0.11087312 -0.015288463 0.023983575 -0.0447819 0.10103527
-0.015116673 0.10327153 0.104799986 0.07674737 0.10610956 0.094262384 0.13210145 0.023154581
-0.04595445 -0.085608244 0.044058233 -0.04945863 -0.1075708 -0.1426662 0.043661475 0.02100125
-0.076655656 0.03242536 0.07507952 -0.11800896 -0.14447165 -0.04211597 -0.11426687 0.048568044
0.03243345 0.058626555 -0.04942899 -0.06480855 0.07745056 -0.093813226 -0.041171923 -0.014938951
-0.012591906 0.06645046 -0.11541205 -0.0017572697 -0.06207633 0.057665393 0.07643917 -0.03756866
-0.09374966 -0.0859891 -0.12624705 -0.14780432 -0.06055066 0.062124535 -0.0015331625 -0.042464606
-0.07652408 0.008180462 0.078673586 0.09941588 -0.043217108 0.083823845 -0.0059345216 0.08129644
-0.04337756 -0.08018953 -0.075798124 -0.121696904 -0.014904158 0.060012847 -0.09456747 0.010155126
-0.086422555 -0.064940676 -0.1226245 -0.102129266 0.12491934 0.05788865 -0.0696738 -0.030691689
-0.063221484 0.031937703 -0.08392524 -0.06453751 0.09411389 0.078273445 -0.013997212 0.04565555
0.043665953 -0.037118822 -0.0054198583 0.0727997 -0.07389048 -0.0281007 -0.048914775 0.009989869
-0.11716288 -0.09293995 0.0457863 0.09298742 0.11066213 -0.052063644 0.12298034 -0.0464724
0.023346568 -0.026394902 0.15151432 0.064628884 -0.022801217 -0.0006160041 -0.021909311 0.063537
-0.10183391 0.08013865 -0.030081956 0.088176146 0.10960929 0.0104748905 -0.02743444 -0.038250934
0.0040392983 0.022639835 -0.07476194 -0.09454343 -0.06721686 0.03673935 0.024500221 0.051714107
-0.040727146 -0.05892757 0.12127736 -0.05810587 0.1500597 -0.07975312 0.010250815 -0.11632122
-0.006974164 -0.08594082 -0.112504676 -0.09740241 0.011984736 0.09393551 -0.029852182 0.12163646

encoder.layers.0.nn.net.2.bias f4 [64]
00000000: 5498 cdbc 5280 673d dae8 a6bd badc 68bc
00000010: 71f5 d8bd 6b8c cabc 21a3 c23d e159 a53d
00000020: cf8e 06bc 1254 5e3d 1e8d 933b 9767 b13d
00000030: d3c7 773c 3a21 763d feb4 e43d 0fc0 6439
00000040: 4415 de3d 7b9e cb3d 0640 50bd 56ea 8e3d
00000050: 5217 8d3d c61c 87bd c6c5 fb3d a932 7d3d
00000060: 6192 543d 57ad 78bd a886 12bd 46ff 763d
00000070: 411b 0c3d 3e5c 923d 334a 993d e380 bd3c
00000080: b9d8 813d 926e edbc 68ec e6bc b6dc cc3d
00000090: 995d 653d 801c bcbd b1a4 cabc 2f31 0dbd
000000a0: f139 62bd e54b cabc f042 8ebd 886a fe3c
000000b0: 909c 0a3d 3594 573d 3c43 ef3d 6e88 be3c
000000c0: 812d e33d 1f7e 7c3d 36e4 b8bd a4ec 81bd
000000d0: 5090 cf3d 9156 d0bd 4896 d0bc a561 e4bd
000000e0: 8a25 e4bc 7542 b0bd 3a73 bc3d 70f7 8cbc
000000f0: 1c4f ac3d 3834 52bd ea81 9f3d b25a cabd
-0.02509705 0.05651886 -0.08149882 -0.014212782 -0.10593689 -0.02472516 0.095037706 0.08073784
-0.008212759 0.054279394 0.0045029065 0.08662336 0.015123325 0.06009028 0.11167334 0.00021815322
0.108439 0.09942337 -0.050842308 0.0697829 0.068892136 -0.06597285 0.12293582 0.06181589
0.05189741 -0.060712185 -0.03577295 0.06030204 0.03420568 0.071465 0.074848555 0.023132747
0.06340165 -0.028983388 -0.0281889 0.10003035 0.055997465 -0.091851234 -0.024736734 -0.034470733
-0.05523104 -0.024694392 -0.06946361 0.031056657 0.033840716 0.052631576 0.11682746 0.023258414
0.110926636 0.061643716 -0.09027903 -0.06343964 0.10134947 -0.10172761 -0.025462285 -0.11151437
-0.027849931 -0.08606426 0.09201665 -0.017207831 0.084135264 -0.05131933 0.07788451 -0.0988058

encoder.layers.1.nn.net.0.weight f4 [64, 64]
00000000: 0644 1abd 33c5 b1bd 5994 853c 16c0 d43d
00000010: 360f e6bd dc1c c4bd b963 31bc a75c cebd
00000020: 923c 63bc 5dab 1dbd 3ae0 4abc d307 ce3c
00000030: f164 93bd 5505 a6bc 7588 26bd eaf9 dd3c
00000040: d439 e73d fc34 fe3d b2a6 043e d1f5 323d
00000050: 2f63 7dbd abd9 babd 392e b43d 9483 9e3d
00000060: ec39 65bc 46c3 9e3d 12b0 53bd 25b5 f83d
00000070: b0c7 95ba 9c0d 29bd 369e e5bd 6c62 4c3d
00000080: bb0f aabd e49d 18bd 26b4 bfbd 3f30 993d
00000090: a2fd 6f3c 04a8 c3bd ce92 463d fc20 dd3c
000000a0: c4ad d03d 6059 b73b 4c36 a7bd 484c 3bbd
000000b0: 3cbf 253d be5b 363d a204 1c3b b5ef 3ebd
000000c0: 5cbf 363d 7850 e93d 52c5 943d 8de7 b3bd
000000d0: 8e3f eebc 9368 9dbd c20e 283c 5981 7a3c
000000e0: 0845 db3c 4210 433c 2cef 8b3d 8963 d43d
000000f0: c665 bbbd c364 b63c daa1 70bd f5ea 003e
00000100: f0a0 cdbc 6676 d2bd 003a 373c 209c b63b
00000110: 1815 b83d ec8c 5ebd 641d f3bd 10c6 37bc
00000120: f85f 26bd d067 b03d 74c9 833d ca0f ccbd
00000130: 6a6f fdbd a480 5cbd 7015 483d 269b f5bd
00000140: a0de 0bbd feaf a93d 9842 dd3c b0c7 1d3c
00000150: 3c68 b9bd a67f 85bd 8889 f63d 1e5f 943d
00000160: d027 a33d 1090 053d bc4f 65bd 60e4 07bc
00000170: e06f c13b e827 d4bd 50ee acbd 9043 e8bd
00000180: 387a 12bd 40a0 96bc 8878 403d 8259 903d
00000190: 6a2a 853d 88df d03c f86e 0a3d e8ef 72bd
000001a0: a0d0 b33c 181d 83bd 283e 853c cccc 7ebd
000001b0: b849 3cbd c00c dfbb e012 fbbd 1645 f93d
000001c0: 505c 363c 2c97 713d 4245 cf3d 2c58 e4bd
000001d0: 6c73 a4bd e847 b53c a20f a9bd 508d c53c
000001e0: 4039 8d3b 42c2 abbd e057 6cbc 804b 523d
000001f0: 8cd6 433d 6855 d2bc f899 d5bd 10ed 7abc
00000200: 1b7f b2bd d4b8 b63d 5965 65bd 909d 8d3c
00000210: 1ace 423d 33a6 5c3d 9f0c d8bd c1b3 2c3d
00000220: cb02 94bd 1297 883d 16ad ebbc 31d4 79bc
00000230: 3cb2 5dbc d13b 813d 9001 febd b83a e0bc
00000240: b0fd 403c d05b 8d3b 938b c3bd e734 c9bd
00000250: f6ca d7bd 95b4 8dbd 3f26 ecbc db8c f4bd
00000260: 476e babc 9ab0 b93d 608c 6f3d c1ea dcbd
00000270: e344 87bd c71b 793d 172b 6d3d a13f 163c
00000280: 0ef1 71bd 0a7a 363d 1378 3ebd a7b0 c33d
00000290: 1173 0b3d 418a 0c3e df77 f6bd 0af1 003d
000002a0: b217 6f3d 83e0 cd3d 9a38 b63d 5456 f7bb
000002b0: 57ea cb3d c466 8b3d 9a59 963d b433 aebd
000002c0: 1c66 d43d f4b3 e6bd 7d0c 09bd 6842 c73d
000002d0: 727a c2bd 73b5 c13b 503d 343d f630 00be
000002e0: 65d3 95bd dd63 01bd 2eb6 83bd c2f7 e0bd
000002f0: a368 d7bd 00b3 8f3b 7612 be3c 439d 0fbd
00000300: 9a4b b63d 9a68 a03d 36cf 953d 056a 583d
00000310: 4c56 95bd 553b 923d e0ef dc3c 982d e13d
00000320: 1906 b43d 06a5 883d cb64 143c 4926 983c
00000330: eeed d4ba b4cf cb3d f31b a9bd 52c9 903d
00000340: 5279 083e cef3 d0bd 14a1 1b3d 6ef4 c13d
00000350: e7ba df3d e127 9b3d a43c 643d ad6d 963d
00000360: 948f c2bd d918 a23c 6a8e d5bd 7b67 cfbd
00000370: 92d1 08bd 46fd 82bd cabb ba3b 9f1a 2abd
00000380: 7dc9 e63d f90e 86bd bd45 ff3d eb13 a53c
00000390: 4896 54bc 3dce a6bb 8725 bbbd 39a8 3c3d
000003a0: b35a a23d 8058 df3d 5b58 0dbd a647 993d
000003b0: e6d1 743d b4f7 d7bc 5212 8c3c 3f5c a7bd
000003c0: 630c 0a3e d98e c73c b9a2 0d3e 0a45 ed3d
000003d0: 41c3 ec3d 8728 a83d 8a36 d6bd ec92 f83d
000003e0: 18c5 0f3e 1ef0 4f3a ef66 9ebd 41a1 f43c
000003f0: b079 29ba 73af 90bd ab45 e1bd d495 ec3d
-0.03766253 -0.08680191 0.01630609 0.103882 -0.1123337 -0.09575817 -0.010826998 -0.10076266
-0.013869422 -0.038493503 -0.012382561 0.025150215 -0.071969874 -0.020266214 -0.04065748 0.027096707
0.11290327 0.1241245 0.12954214 0.04369146 -0.061862167 -0.09123548 0.08797879 0.0773994
-0.01399086 0.07752089 -0.051681586 0.121439256 -0.0011427309 -0.041272745 -0.11211817 0.04989855
-0.083037816 -0.03725995 -0.093605325 0.07479905 0.014647873 -0.09553531 0.048479848 0.026993267
0.10189393 0.005595371 -0.08164653 -0.045727044 0.04046558 0.044521086 0.0023806472 -0.04661532
0.04461609 0.11392301 0.07264198 -0.08784399 -0.02908304 -0.076859616 0.010257425 0.015289628
0.026766315 0.011905732 0.06832728 0.10370547 -0.09150271 0.022264844 -0.058748104 0.12589629
-0.025101155 -0.10276489 0.011183262 0.005572811 0.08988398 -0.054333612 -0.1187084 -0.011216655
-0.040618867 0.08613551 0.064349085 -0.09963949 -0.12374766 -0.05383362 0.04884857 -0.11992483
-0.03414786 0.08285521 0.027009293 0.009630129 -0.09053084 -0.06518488 0.12037951 0.07244705
0.07966578 0.03260809 -0.055984244 -0.008294195 0.005903229 -0.10359174 -0.08443892 -0.113410115
-0.035761088 -0.01838696 0.046989948 0.07048322 0.065022305 0.025497213 0.033797234 -0.059310824
0.021950066 -0.064020336 0.01626499 -0.06220703 -0.04596874 -0.00680694 -0.122594595 0.1217138
0.011130407 0.05898206 0.10120632 -0.1114963 -0.080298275 0.022129014 -0.08254935 0.024115235
0.0043098032 -0.08386661 -0.014425248 0.051341534 0.04781203 -0.02567549 -0.10429758 -0.015315309
-0.0871565 0.08921972 -0.056004856 0.017287046 0.047559835 0.053869437 -0.10549282 0.042163614
-0.07227095 0.066694394 -0.028769057 -0.015248344 -0.013531264 0.06310237 -0.12402642 -0.02737175
0.011779234 0.0043139234 -0.09548106 -0.098245434 -0.105367586 -0.06919209 -0.02882683 -0.119409285
-0.022757662 0.09066887 0.05848348 -0.10786963 -0.06604936 0.060817506 0.05790242 0.009170444
-0.05906778 0.04454998 -0.04650123 0.09555178 0.034045283 0.13724615 -0.12034582 0.031479873
0.058372207 0.10052588 0.08897515 -0.007548133 0.09956806 0.0680671 0.07341309 -0.08505955
0.10371038 -0.11264792 -0.033459175 0.09729463 -0.09496011 0.005911523 0.044003785 -0.12518677
-0.07315711 -0.031589378 -0.064312324 -0.10984756 -0.10518005 0.004385352 0.023202162 -0.035062086
0.089011386 0.07832451 0.07314913 0.052835483 -0.072918504 0.07140223 0.02696985 0.109950244
0.087902255 0.06672101 0.009057234 0.018572943 -0.0016245225 0.099517256 -0.08257284 0.07069649
0.1332753 -0.10202752 0.037995413 0.094704494 0.10924321 0.07575966 0.055721894 0.07345138
-0.095000416 0.019787239 -0.10427554 -0.10127159 -0.033402987 -0.06395964 0.0056986557 -0.041529294
0.112688996 -0.065458246 0.124644734 0.0201511 -0.012975283 -0.0050905035 -0.09138017 0.046058867
0.07927456 0.10905552 -0.03450809 0.07484369 0.059770487 -0.026363231 0.01709858 -0.081718914
0.13481288 0.024360107 0.13831605 0.11585434 0.11560679 0.08210855 -0.10459621 0.12137398
0.14040029 0.00079322036 -0.07734477 0.029862048 -0.0006464971 -0.07064714 -0.10999616 0.11552015

encoder.layers.1.nn.net.0.bias f4 [64]
00000000: 26c0 bbbd 16ea aebd d786 463d 7d32 103e
00000010: 3b34 adbc b426 2d3d bbff c6bd 598b 6f3d
00000020: d0c1 f7bc 85df 8f3b e11c 183e f535 f3bc
00000030: b372 cc3c 29a1 fb3d 014c 40bd 58ad 02bc
00000040: caec ac3d 9719 df3b 1b29 af3d 82be b33d
00000050: 3034 c23c 28d2 d9bd 8c35 a43d c6c5 ca3d
00000060: 70d0 7a3d 4fd9 a13d 077c 6ebd 4796 c93d
00000070: ac71 2b3d b3a1 e63d 7a52 2f3d 2a62 53bc
00000080: d80f 973d 8e3a 80bd 942e 18be d39c 3c3c
00000090: fdfe 793d f35d a73d e399 333d adf9 abbd
000000a0: dfef f83d 4704 f3bd 5cc3 e2bd c5fd f3bc
000000b0: 4ae7 973d 258a ee3d ab22 fe3d 7f64 c83d
000000c0: 2d4a 443d 7ee3 f6bd 262c 003e 580e aabd
000000d0: f9ec c33d fdf8 b93d 073a 7f3d 4ba6 6bbb
000000e0: ee79 f03c 694b cfbc 18f8 b2bd 8246 edba
000000f0: 3589 e63d 7711 9bbd 85db 1bbd c00e b4bd
-0.09167509 -0.08540742 0.048468437 0.1408176 -0.02114307 0.04227324 -0.097167455 0.0584825
-0.030243784 0.0043906593 0.14854766 -0.029688815 0.024957037 0.12286598 -0.046947483 -0.007975899
0.084436014 0.0068084705 0.08552762 0.08776571 0.023706526 -0.10635787 0.08018026 0.099010035
0.061233938 0.079027764 -0.05822375 0.09843116 0.041856453 0.112613104 0.042803265 -0.012901822
0.07376069 -0.062611684 -0.14861518 0.011511999 0.06103419 0.08172216 0.04384793 -0.08397231
0.12155127 -0.1186605 -0.11072418 -0.029784093 0.07417162 0.11647443 0.12408956 0.09784793
0.047922302 -0.120551094 0.12516841 -0.08303517 0.09566683 0.09080694 0.0623112 -0.0035957273
0.029355016 -0.025304513 -0.087387264 -0.0018102678 0.11256639 -0.075716905 -0.038051147 -0.08791876

encoder.layers.1.nn.net.2.weight f4 [64, 64]
00000000: 76b5 bebd 22e1 e93d 73e1 8b3d 2a4e 9fbc
00000010: 35d8 e239 4064 0d3d 6185 f3bd 1927 f0bc
00000020: 52d5 fb3d 9b4a 233d 0f87 463d 10b6 0b3e
00000030: b1ec 9f3d d67b 65bd 705d 643c 0684 1d3d
00000040: 320c 0a3e 9758 9e3d 5ab7 cc3d 0301 2d3d
00000050: b74c d5bc 8dbd bb3b 8d8d 5339 64e4 9fbd
00000060: c469 35bc 3509 1a3d c099 dabd 6149 33bd
00000070: baa8 993d 0687 85b9 b9cf 56bd 266f 443d
00000080: 40c8 94bd 582c 22bb 5028 973d 5ae6 8c3d
00000090: 2857 c0bd 4a4a bebd 1250 04bd 7c7d cebd
000000a0: 398e 243a 994a 0fbc 3fa9 ecbd 8866 233e
000000b0: e834 83bd 5f53 13be f438 bdbd df1a 4a3d
000000c0: 3b2f 1abe b0c3 803c 1066 423d 8a18 c2bd
000000d0: 86a6 d8bd 6309 4abd a344 ebbd afaa 033d
000000e0: b59a 2c3c 1737 da3d cf15 9cbb 938c bb3d
000000f0: 52ed b13d 29f8 e2bd 7722 a23c 7afc 40bc
00000100: 7335 e8bd 5085 0cbc a243 aa3d 60b7 e8bd
00000110: d301 d4bd efea fcbd 6662 6cbd 1c44 853d
00000120: eaf5 ef3d 7274 e63d 34a4 26be ff6e 923d
00000130: 736c a73d c44a 85bd 8dc2 dabc adf6 6abd
00000140: 9994 c83d 7ebd 2f3d 0cb6 60bd d2a2 243d
00000150: 3b98 78bd cbca 673c 937f edbd b2a5 763d
00000160: e243 f3bd f2cf 32bc 3e73 0abd e0fc 23be
00000170: 8ec8 963d 463d d2bd f853 debd 5dc9 cc3d
00000180: 1ba9 133d f968 823c 1de4 a13d f53c d6bc
00000190: e622 fabd 6949 ecbc c225 d23a 0bee 313d
000001a0: 543d 9a3d 36e7 8ebd f0d5 db3c 667b 8e3b
000001b0: 982d 60bb a63a 12be 2279 8abd 7fc4 f13d
000001c0: 024b b1bd 6445 1e3d 4cd4 bcbd 89b3 b23d
000001d0: 5070 963d ab03 14be 1e4d 8cbb f1de 99bc
000001e0: f64a 303d 12c8 aa3d ecd3 873d e4af c7bd
000001f0: 8676 d33c 0e07 17bd ff4a d13d a8dd 0abe
00000200: 476d c33d 7098 203d 9fe6 0c3e 4255 c13d
00000210: fb77 a3bd 09e9 0f3d 4981 ca3d 63cf cbbd
00000220: 80ca fd3a af1e f33d 6441 d33d 4455 9bbc
00000230: a697 a2bd 7da2 ccbd 552d bf3d b4e4 d3bd
00000240: 7649 51bd dc73 abbd 94b9 a63d 9895 b3bd
00000250: 07b8 9cbd a55b 1fbd eeed 173d 6769 b53d
00000260: 673a 01bd 6d97 6fbd 0177 f23c 3ee3 cabd
00000270: 13ad 583d 3704 a8bd 1f5a 213c b91d 8a3d
00000280: cbb9 e83c f7ae 383c daff 2c3d c698 6bbd
00000290: ddcd a1bc 0f62 64bd 4e75 e03b 7ba3 903d
000002a0: 806b e2bd 29fd 06be 6ac3 a3bd df12 da3d
000002b0: d615 4dbc 987f 09be 2f1d c1bd 86df e2bd
000002c0: 43e2 e0bd 2864 393d a7a7 9cbd d475 9bbd
000002d0: 0fca 74bd d59c f93d 1403 383d 26a7 47ba
000002e0: ddf8 c33d 7405 773d 01ff e13d 9f92 7f3d
000002f0: be2b c3bd 6749 ae3d a5c3 7a3d 6ddb d0bd
00000300: 7c06 dcbd 1ab4 863d 3231 053d d6e0 ff3c
00000310: ab06 dc3c f94a 1a3c 7ec7 08be d931 853d
00000320: e0f0 80bd 6cf5 ddbd f383 18bd 553c 9c3d
00000330: d755 e2bd 0d2d eebd a4a1 7b3d 6b46 acbd
00000340: 37f7 0fbd 1acb c3bc 7135 68bd 7d92 43bd
00000350: d5e3 653d b755 2bbd 6424 0d3d 4444 3cbc
00000360: fb38 03be 6bf7 f0bd a25a a83d 0102 a53d
00000370: a2e9 f6bd e387 a6bd 4d5f 483b 1219 283d
00000380: 1911 58bd a2aa 3a3d 0574 0dbe ae19 94bc
00000390: d67e a33d b5ba e6bd 2598 93bd 253e 853a
000003a0: 8dd9 3fbd b5d5 603d aea3 09bd 14a2 bc39
000003b0: 1f02 dfbc c33a 7b3d 0e96 0abe d58b ec3c
000003c0: c6a1 8cbd c017 9abc 69f0 c6bd 9f16 203d
000003d0: d502 e83d a8af c5bd 4044 de3d 8284 12be
000003e0: d88c a9bd f85d d4bd 0cca a1bd 438e cd3d
000003f0: 0dd1 8b3d ed03 c0bd 2e57 3a3d 5727 9cbd
-0.09311955 0.11419894 0.068301104 -0.019446451 0.00043267166 0.034519434 -0.118906744 -0.029315518
0.12296547 0.03986607 0.048468646 0.1364367 0.07808817 -0.056026302 0.013938293 0.038455985
0.13481215 0.07731741 0.09995909 0.042237293 -0.026037557 0.0057293833 0.0002017526 -0.07807234
-0.01107258 0.037606437 -0.10673857 -0.04377115 0.07502885 -0.00025468337 -0.052444194 0.047957562
-0.07264757 -0.002474567 0.07380736 0.068798736 -0.09391624 -0.09291513 -0.032302924 -0.10082528
0.00062772963 -0.008745813 -0.11555719 0.15957081 -0.064065754 -0.14387272 -0.092393786 0.049342033
-0.1505708 0.015718311 0.047460616 -0.09477337 -0.10578637 -0.049325358 -0.11487701 0.0321452
0.010534932 0.10655039 -0.004763342 0.09157672 0.086878434 -0.11082489 0.019791825 -0.011778945
-0.1133832 -0.008576706 0.08313681 -0.11363101 -0.103519104 -0.123494975 -0.057711028 0.065071315
0.11716826 0.11252679 -0.16273576 0.07150077 0.08174982 -0.06508401 -0.026704097 -0.057364155
0.09793968 0.042905323 -0.054861113 0.04019434 -0.060692053 0.014147471 -0.115965985 0.060216613
-0.11878182 -0.010913836 -0.03380131 -0.16014433 0.073624715 -0.10265593 -0.108558595 0.099993445
0.036049943 0.015919195 0.07904837 -0.026152113 -0.122136876 -0.028843598 0.0016032981 0.043439906
0.07531229 -0.06977694 0.026835412 0.0043482063 -0.0034206863 -0.14280185 -0.067613855 0.11805057
-0.08656885 0.038640395 -0.0922018 0.0872565 0.07345641 -0.14454524 -0.004281654 -0.018783065
0.04304024 0.08338942 0.06632218 -0.09750345 0.025813352 -0.036871962 0.102193825 -0.13561118
0.095423274 0.039207876 0.1375985 0.0944009 -0.07981869 0.03513435 0.098879404 -0.09951665
0.0019362718 0.11871087 0.10315207 -0.018961556 -0.07939081 -0.0999193 0.09334818 -0.10346356
-0.05109545 -0.08371708 0.08140865 -0.08768767 -0.07652288 -0.03890576 0.03709214 0.088579945
-0.031549837 -0.05849402 0.029597761 -0.09906624 0.05289943 -0.08203929 0.009848147 0.067439504
0.028408905 0.011272184 0.042236187 -0.057518743 -0.019751484 -0.05575758 0.0068499213 0.070624314
-0.1105566 -0.1318251 -0.07996257 0.106481306 -0.012517413 -0.1342758 -0.094293945 -0.1107779
-0.10980656 0.045261532 -0.07649165 -0.07590833 -0.05976301 0.121881165 0.04492481 -0.00076161546
0.09568951 0.060307935 0.11034966 0.06239569 -0.095298275 0.08510094 0.061221737 -0.10198102
-0.10743424 0.065773204 0.03251762 0.03123514 0.026858648 0.009417289 -0.1335735 0.06503648
-0.06295943 -0.10837826 -0.03723521 0.07628695 -0.11051529 -0.116296865 0.06143345 -0.08411869
-0.03514787 -0.023900557 -0.05669159 -0.047747124 0.05612548 -0.04182979 0.034458533 -0.011490885
-0.12814705 -0.11765941 0.08220412 0.08057023 -0.12056281 -0.08131387 0.0030574382 0.041039534
-0.05275068 0.045572884 -0.13813789 -0.018078651 0.079831764 -0.1126608 -0.07206754 0.0010165615
-0.046838332 0.054891307 -0.033603363 0.00035978912 -0.027222691 0.061335336 -0.13533804 0.02887527
-0.06866793 -0.018810153 -0.09713823 0.039084073 0.11328665 -0.096526444 0.108528614 -0.1430836
-0.08278817 -0.103694856 -0.078998655 0.100369 0.06826983 -0.09375749 0.045493297 -0.07624691

encoder.layers.1.nn.net.2.bias f4 [64]
00000000: e9ff b63d 7583 c8bc ddf4 70bd e891 b6bd
00000010: bd67 4c3c f337 5c3d 926a a83d bddf d2bd
00000020: 928b c5bd 5c7e 3abd 74bf c93c be02 c73d
00000030: 47ad a93d e5a4 c63d ef5e bcbc dd07 853d
00000040: aa69 2a3d 0ff8 e1bc 1b9a e4bd 44a1 193d
00000050: 9033 65bd 7054 bcbd 7657 e53d 2938 573d
00000060: 12ad 833d 2b28 533d acac 9b3d d005 f9bd
00000070: 2c84 94bd 8cdd 5dbd 75be 9abd 01d7 e0bc
00000080: f22a c33d 658a c3bd 631e e7bd 8f35 c0bd
00000090: c93a 9cbd 4184 babd 1b95 9cbd 9d36 943c
000000a0: f615 d1bd 8933 a43c 6799 e4bd 13d4 fa3d
000000b0: a0d1 553b bef6 7b3d 9d3b 74bd 6de1 dabd
000000c0: 7515 863d d0cf 06bd 4cfa 70bc 8874 043d
000000d0: 8c83 7b3d 16fe ea3c f7d0 cc3d 80c7 3ebd
000000e0: 31f1 b53d 9896 19bd a4ad 9fbd 0be6 f7bc
000000f0: ab3f a9bb 58ce c43d 03bc dbbc abea 8f3d
0.0893553 -0.024476746 -0.05882727 -0.08914548 0.012475905 0.053764295 0.08223452 -0.10296581
-0.096457615 -0.045530662 0.024627425 0.0971732 0.08285003 0.0969942 -0.022994487 0.064956404
0.041604675 -0.027584104 -0.11162206 0.03750731 -0.055957377 -0.09195793 0.111983225 0.052543793
0.06429495 0.05155198 0.07601294 -0.12159312 -0.07251772 -0.05416636 -0.07555858 -0.027446272
0.095296755 -0.09547881 -0.11285093 -0.093852155 -0.076284 -0.09107257 -0.07645627 0.018092448
-0.10209267 0.020044105 -0.11162072 0.12247481 0.0032626167 0.06151461 -0.059627164 -0.10687528
0.06547061 -0.03291303 -0.014708113 0.032337695 0.06140475 0.02868561 0.100007944 -0.046576977
0.08883894 -0.037497133 -0.07796791 -0.03026106 -0.0051650605 0.096096694 -0.02682305 0.07027181

encoder.layers.2.nn.net.0.weight f4 [64, 64]
00000000: 10a9 0fbe 6b3b 3fbd 38d6 193d 9846 143e
00000010: 776c 013d 142d 063d e7d8 06be fdee 73bd
00000020: a534 413c 4589 b9bd 091f 233e ba4f 0e3c
00000030: 8cfb c0bc c1eb 7cbd 8b52 a13d 0dcf 21be
00000040: 554b cbbc 4487 0e3e 938d ecbc e5ad c53c
00000050: e239 92bd a862 e7bd 68c6 68bc b80c f2bc
00000060: e307 c13c eb50 27bd 15cf 26be e02c d0bc
00000070: e80e 103c 796b c8bc 0770 87bd dba9 01be
00000080: e6a9 893d 0ef6 a0bd fcb8 8d3c 391d f5bd
00000090: 750b 65bd 08e5 f83c 3159 bc3d f53a 06be
000000a0: 0ef4 a33b 1527 203e 3646 9bbd be6f 54be
000000b0: 4f6d 2dbd a9aa b03b 6aaa 41bc 435c 78bd
000000c0: 2471 313d 19aa 003e 2077 013e b8f1 ca3d
000000d0: 7d7e f83d bb5d fbbd b2ea a4bd d69e 10bc
000000e0: 7a85 0c3e 8d7c b43a 5175 a83d 5e90 2ebe
000000f0: 6ba3 ce3d a4a8 df3d 351d abbd bdd3 83bd
00000100: e669 023d f0df 96bd 5f20 ab3d 066c bb3d
00000110: bceb 7abd d8e7 053d 2fbc f83d f99f ccbd
00000120: c08c 84bc 9186 e1bc 80cf 7b3c b64c f4bd
00000130: a1a0 593d e7b2 98bd 4867 6ebd ff64 80bc
00000140: 1454 84bd 7b85 0b3c 0421 89bd c6b5 7b3c
00000150: df91 b83d 0810 45bd 5163 c8bd dab8 afbc
00000160: dca8 c5bc 5943 de3c e1c7 ce3c 4d28 e83d
00000170: 1637 90bd 9d7d ac3d 6a71 d73d 3d10 233c
00000180: 8cf7 afbd 9c0e a13b cde1 e9bd 435f f23d
00000190: 4e2c 043d d4c8 9f3d 730c df3c b484 85bd
000001a0: 5986 853d cf72 9cbd ee1a 5c3d 3000 d9bd
000001b0: 41f8 3a3d 1e2c c3bd 56c1 c0bd 7625 713c
000001c0: a0a5 a9bd 1a79 bb3d d1ac d63d 0894 d8bd
000001d0: 741b de3d d0a2 9b3c e40a 893d 681c e33d
000001e0: 7c90 60bd b9a6 ba3d fbd7 92bd fe47 053e
000001f0: a760 d33d eb11 d2bd aa36 63bd 430d 3e3d
00000200: d653 7ebc 3b1c 8f3d 8bc2 b2bd 9e39 f93d
00000210: 5b9c 72bd 5172 643d be44 cf3d 8da3 d63c
00000220: cd2f 283d 7606 d5bd 5ed0 993c 109e d53d
00000230: 91b5 c63d 466a 883d 6630 8ebd 9110 cdbd
00000240: f8da 4bbc f66c 8a3d bf6f 15bd 7acb cf3d
00000250: 16a3 13bd a4f2 80bd 2caf 553d a714 8cbd
00000260: c20c e1b8 6900 f3bb e39c 3f3c 4411 943d
00000270: 0af6 9d3d 9837 c93d 3adb 953d 13c4 f3bd
00000280: 0952 8dbc f3b1 12bd 672d e83d 40c4 953b
00000290: 072d 4fbc 2a19 dcbc f664 783d 26df 4c3d
000002a0: 4149 c03d 0642 00be e23c 8e3c c572 8f3c
000002b0: 6534 ccbd 1874 1d3d 967d b9ba 0d8f a53d
000002c0: eb26 efbd 1c0f b7bd 692f 0fbd 212e 08bd
000002d0: 038a 41bd 1158 6a3d 88f1 793c 6b47 4bbd
000002e0: 44d5 fc3c 645e abbc 2993 c7bc c1ef 87bc
000002f0: d34e a3bd 8ca9 84b9 ca88 d3bd 2694 01be
00000300: 24d7 3f3d 99d8 98bc 99fc 9b3d 0f3f 09bd
00000310: 5572 72bd 232f 643d 843d fb3a f74b 4ebd
00000320: c57a 61bd 79f1 ba3c ca82 cabd 6950 01be
00000330: 3500 a6bd 9b50 283d e248 1d3d be6a 01be
00000340: baf1 f9bb d388 ee3d db23 2cbd c554 06bd
00000350: 4583 353d d251 b5bd dcdd 383d a544 ddbd
00000360: f243 45bd 8601 d9bd a72a dbbc fd9a e0bd
00000370: bf6e 9bbd 862d a73d 0800 ec3a 84ee 893c
00000380: 5664 babd 2f41 ef3d 9243 ef3d 3ee5 5a3d
00000390: 6a19 873d dcac a2bd 2e8a f9bd e544 06be
000003a0: abe7 853c 08ca 1cbd 9eb7 dcbd 10e1 ed3c
000003b0: 48da de3c 03bc 9cbd 05cd e1bd 7fd7 7d3d
000003c0: 9082 50bd 7e6d 6fbd 7bfe 98bd 072e eabb
000003d0: bb9e ae3d 1744 96bd f0a3 a13d 5abe a3bd
000003e0: 5fd7 9c3b cfdd c1bd 8440 f4bd b9f7 9c3b
000003f0: d13a b2bd 84bf a8bd dc19 3ebd 2eb1 b73d
-0.14029336 -0.046687525 0.03755781 0.14480054 0.03159758 0.032757834 -0.13168679 -0.05955409
0.011792337 -0.09059385 0.15929808 0.0086860005 -0.023557447 -0.06174827 0.07877072 -0.1580164
-0.024816195 0.13918787 -0.028876102 0.024130771 -0.071399465 -0.11298114 -0.01420746 -0.02954708
0.023563331 -0.040848654 -0.16289933 -0.025412023 0.008792616 -0.02446531 -0.066131644 -0.12662451
0.06721859 -0.07859431 0.017300121 -0.119684644 -0.05591913 0.030382648 0.091966994 -0.13108428
0.005003459 0.15639909 -0.07581751 -0.20745751 -0.042340573 0.005391438 -0.011820415 -0.060634863
0.04332079 0.12564887 0.12643099 0.099093854 0.12133501 -0.12273737 -0.08052577 -0.008826932
0.13722792 0.0013770029 0.08225501 -0.17047259 0.10089763 0.109208375 -0.0835518 -0.0643687
0.031839274 -0.073669314 0.08355784 0.09151463 -0.06125997 0.032691807 0.12145268 -0.0999145
-0.016180396 -0.027529987 0.015369296 -0.11928694 0.053131703 -0.07455998 -0.058203965 -0.015673159
-0.06461349 0.008515711 -0.0669575 0.015363162 0.09012198 -0.04811099 -0.09784568 -0.021450449
-0.02412837 0.027131723 0.025241794 0.11335812 -0.07041757 0.08422396 0.10519679 0.009952602
-0.08592138 0.0049150717 -0.11420021 0.11834576 0.032268815 0.07801977 0.027227616 -0.06519452
0.065197654 -0.076390855 0.05373662 -0.10595739 0.04564691 -0.09529899 -0.09411876 0.014718404
-0.082835436 0.09153958 0.10482181 -0.1057511 0.1084508 0.018998533 0.0669153 0.110894024
-0.05482529 0.09113831 -0.07170101 0.13015744 0.10321169 -0.10257324 -0.055472054 0.046399366
-0.015522918 0.069878064 -0.087285124 0.12169193 -0.059231143 0.055773083 0.101205334 0.026201034
0.04106121 -0.10401623 0.018776115 0.10430539 0.097026 0.06660895 -0.06942825 -0.100129254
-0.012442343 0.06759064 -0.036483523 0.10146232 -0.036044203 -0.0629628 0.05216901 -0.068398766
-0.000107312124 -0.0074158204 0.01169512 0.07229856 0.07712944 0.09825057 0.07317205 -0.119026326
-0.017251031 -0.035814237 0.11336785 0.004570514 -0.012645013 -0.026867468 0.06064316 0.0500175
0.09388972 -0.12525186 0.017363016 0.017510781 -0.09970931 0.038440794 -0.0014151807 0.080839254
-0.11677345 -0.08938429 -0.034957323 -0.033247117 -0.04725076 0.057212893 0.015255339 -0.049628656
0.030863412 -0.020919032 -0.024362164 -0.016593816 -0.07974019 -0.00025303324 -0.10328825 -0.1265417
0.046836033 -0.01865797 0.076165386 -0.033507403 -0.059191067 0.055709016 0.0019168113 -0.050365414
-0.055048723 0.022820221 -0.09888227 -0.1262833 -0.08105508 0.041092496 0.038399585 -0.12638375
-0.007627693 0.11647191 -0.042026382 -0.032795686 0.04431464 -0.088534966 0.045133457 -0.108041085
-0.0481605 -0.10595994 -0.026753737 -0.10967062 -0.075894825 0.0816298 0.001800538 0.016837366
-0.09101169 0.11682355 0.1168281 0.05344128 0.06596644 -0.079431266 -0.12184559 -0.13112219
0.01634582 -0.03827861 -0.1077721 0.029037982 0.027203694 -0.07653048 -0.110254325 0.06197309
-0.050905764 -0.05845403 -0.07470413 -0.0071466 0.08526369 -0.07337206 0.07892597 -0.07995291
0.0047864164 -0.09466135 -0.11926368 0.004790273 -0.087026246 -0.08239654 -0.04641138 0.08969341

encoder.layers.2.nn.net.0.bias f4 [64]
00000000: f6a1 ad3d bdbc 83bc 7df0 3cbd 7a99 c3bd
00000010: 5ff0 6ebc 0e42 fe3b 0540 123e 76e6 633d
00000020: fad0 97bd 5c79 b53d 97f7 3ebd 8b01 d2bd
00000030: 9e58 f23d b0c4 5abd 3146 66bd 1a1d b9bc
00000040: 8033 f33c 384e 733d 9a29 fb3c dfd8 09be
00000050: a2f6 94bc b3de 0cbc 3d45 85bd e831 b6bd
00000060: 6c3b 5bbd 2205 adbd 0beb bc3d f2f1 ff3d
00000070: 4425 e2bd 9e3a 793d d207 f3bd d2bc 17bd
00000080: 9135 febc a0e4 dcbd d494 833d 9c90 fa3d
00000090: 69d1 0d3e df94 c5bd 2bd7 a63d 5c27 95bd
000000a0: 84ec fe3c fe0a a5b9 8761 e8bc 74b6 98bd
000000b0: 7f3e 38bd 380d 01be 6ee3 a4bd b115 213e
000000c0: 02f4 233e 1ba4 ecbc 950c 77bd 6284 223d
000000d0: b6d1 1a3c 90fb df3b 1d9b 2abc 425a d8bd
000000e0: c0a8 a5bd 45e4 f33d 95bc 223a 882e 3cbd
000000f0: 6d69 d5bd 5de6 1fbd 5b18 1c3c c45a aabc
0.08478157 -0.016081208 -0.046127785 -0.09550758 -0.014583676 0.007759339 0.14282234 0.055639707
-0.07412906 0.08861038 -0.04662284 -0.102542005 0.11833309 -0.053410232 -0.056219283 -0.022596885
0.029687643 0.059400767 0.030659486 -0.13461636 -0.01818401 -0.0085980175 -0.06507347 -0.088962376
-0.053523466 -0.08448245 0.092245184 0.12497319 -0.11042264 0.060846917 -0.11866726 -0.037045307
-0.031031402 -0.10785794 0.06424871 0.12234613 0.13849415 -0.096475355 0.08146509 -0.07282898
0.031118639 -0.00031479442 -0.028366817 -0.07456675 -0.044981476 -0.12602699 -0.08051191 0.15730931
0.1601105 -0.028886845 -0.060314734 0.03967703 0.009449413 0.0068354085 -0.010412958 -0.1056409
-0.08088827 0.11908773 0.00062079105 -0.045942813 -0.10420499 -0.03903805 0.009527291 -0.020795234

encoder.layers.2.nn.net.2.weight f4 [64, 64]
00000000: 2086 fabc fd40 653d 88f4 17bd 0047 263c
00000010: 9192 e43c cae8 c2bd ddaa b4bb 12e7 22bd
00000020: 0788 b5bd de9f 5b3d fe01 373c 753b cbba
00000030: 442d 873b 409c d3bd 8074 20bd 3562 04be
00000040: 99d2 fabd e479 e13a 528f 7ebd edfe 8bbd
00000050: 584f a1bd 3029 19bd 035e ebbc 0d05 233c
00000060: 7d4b 073d c32a 293d 2cc2 35be 1d4b c13d
00000070: 9d7e 8c3c 0823 dfbd d259 31bd 9343 ab3d
00000080: c452 d3bd 291b 59bb 9fe1 2dbe 6219 01be
00000090: 7468 903d a850 d7bd 4b3d eabd 13e3 15bd
000000a0: d761 eb3c 178f 6e3a 6908 2ebe 7c07 c0bc
000000b0: 706d 79bc 103e 463c b967 4b3d 4097 63bb
000000c0: 289f bd3c 4be0 62bd 4d74 883d 75f6 d1bd
000000d0: 2a81 8fbd 1558 4abb 79db 47bc b079 b73c
000000e0: a118 b03c aa44 803d 12fc 273c d37b dbbd
000000f0: 76cd 86bd bfaf 8c3d 8b26 4dbc b53e ec3d
00000100: 681c 4f3c 257f c9bd 642d 2f3d 321b 0ebd
00000110: 7470 8dbd 11fb afbd 050a 91bd 5a2a 81bd
00000120: 1ec8 3ebd ccea 193d d301 973d 2f29 173d
00000130: 69d8 d9bd 6d7f 003d 0feb 5bbb c576 753d
00000140: 6845 773d c91d 173d 550e 0cbd e271 903d
00000150: 9aee 803d 502e 5b3d 0a92 ef3d ba58 923d
00000160: 8d4a b73d bcc6 c63d 2275 dbbd 3f22 81bc
00000170: a873 f93d 2007 97bb 1087 aa3d 2680 113d
00000180: c3a9 14bd d613 8f3d 6951 e43b 809b abbd
00000190: a50e f8bd 5d15 a6bb 06b3 e0bd b01c c83d
000001a0: 4961 e93d 4b1d 95bd 3f87 83bd 96a5 023e
000001b0: f799 2c3d 8caa 853d 6a53 e5bd 98a1 0cbe
000001c0: 203f a73d b3af 793c e2e6 1abb 5d79 a53a
000001d0: b450 eabd f6f6 a6bd 5be3 833d f13e 013d
000001e0: d4dd 58bc 03fb 8dbd 380d debd 4ed6 04be
000001f0: d1cb 04bd ad4a b6bc 40af 97bd c543 edbc
00000200: 5618 a9bc f67d f9bd cfc5 1d3d 944b f3bd
00000210: ca21 c73d e1dd a83d 439e 9c3d 1336 36bd
00000220: a9d3 be3d 15c4 843c 8291 9bbd a59a a4bd
00000230: 79d9 f7bd f94e f73a db91 c43d ba2d 3b3d
00000240: bea2 4f3d c0e5 243e f6f5 793d 73c2 c8bd
00000250: 6e80 ff3d d139 f73d 0606 3abd 951a 573d
00000260: 539f 93bd ba9b 9dbd 4bf9 f2bd 1e23 203d
00000270: b74c 713d 6a27 11bc 99f0 b2bc 477b 11be
00000280: 8e07 be3b 66df 363c e663 bebd 46c4 12bd
00000290: 569f a2bd bacc f5bd 6e98 acbd 5e58 713d
000002a0: 693a 813d f48f 643b 45f4 f63b 774d 363d
000002b0: ba11 4c3d e8e7 31bd 14cd ae3c 948a f93c
000002c0: 0212 4cbd ebf5 d63d af49 cbbd b488 00be
000002d0: 1eca e1bd fb3f e13d 991e 70bd 7c7a 4abd
000002e0: 9c0f 5cbd 3ed1 09bc 5efb 5abd d92a b3bd
000002f0: 2b9f 003b 1df3 29bd c017 10bc 2196 f73d
00000300: 8412 753d eb03 13bc 671b 313d f151 cdbd
00000310: 8831 7ebc 440e c13d 0644 1b3d 7554 113c
00000320: 903a 51bd 0680 b6bd 1f83 b7bd 9083 273c
00000330: 5208 04bd bfa6 9c3d d64f babd 22fc cbbd
00000340: c958 e63d 86a3 10be d41c bc3d a254 f2bd
00000350: 671b fbbc b608 82bd 11c2 253d 0039 41bd
00000360: b97c 783d 5507 413d c9f7 693d 24d9 4d3d
00000370: 259c ef3c a212 15bd 420f fcbc 02b4 8ebd
00000380: ab1e e7bd f316 7a3d 6c2e fe3d 660b dbbd
00000390: 57e4 a83c 8c45 1f3d b650 8ebd f6ab 953d
000003a0: eff8 33bd 91bf 9a3d 0ea9 303d f346 21bb
000003b0: 3981 51bd 463d 4a3d 5a35 2cbb c095 9c3d
000003c0: 5089 7cbc 6ac9 123d abc5 4f3d 0665 873d
000003d0: 77c7 df3d 19d4 583d 914c d23d 3def 143d
000003e0: c8d3 853d 807b 813c 2cca 0ebd 9d26 223d
000003f0: 029a 18bb 27f5 683d 0e83 99bd 03de b2bd
-0.030581534 0.05597018 -0.037098438 0.010148764 0.02790192 -0.09517057 -0.0055135326 -0.039771147
-0.08863836 0.053619258 0.011169909 -0.001550539 0.004125269 -0.10332537 -0.039173603 -0.12928088
-0.122471996 0.0017202464 -0.0621484 -0.068357326 -0.07876462 -0.037392795 -0.028731352 0.009949935
0.033030976 0.041300546 -0.17749852 0.09438155 0.017150218 -0.108953536 -0.04329855 0.08362498
-0.10318521 -0.003312776 -0.16980599 -0.12607339 0.07051173 -0.10513431 -0.11437472 -0.036593508
0.028733177 0.00091003015 -0.16995396 -0.023441069 -0.015223846 0.012099758 0.049659465 -0.0034727603
0.02314718 -0.055389684 0.066628076 -0.10252086 -0.07007058 -0.0030875255 -0.012198322 0.022396892
0.021496119 0.06263097 0.010252969 -0.10716977 -0.06582157 0.068694584 -0.012521396 0.11535398
0.01264105 -0.09838704 0.042767897 -0.034693904 -0.06906214 -0.08592809 -0.07081989 -0.06306906
-0.046577565 0.037577435 0.07373395 0.03690451 -0.1063698 0.031371523 -0.0033556854 0.05992772
0.060368925 0.03689364 -0.034193356 0.070529714 0.0629551 0.053510964 0.116977766 0.071458295
0.08949766 0.09705874 -0.10715701 -0.0157634 0.12180263 -0.0046090037 0.083265424 0.035522602
-0.03629471 0.06986205 0.0069677127 -0.08379269 -0.12112168 -0.0050684647 -0.10971646 0.09771097
0.11395509 -0.07280978 -0.064222805 0.12758479 0.04213902 0.0652667 -0.111975506 -0.13733518
0.08166337 0.015239644 -0.0023636152 0.001262467 -0.11441174 -0.08152573 0.06439849 0.031554166
-0.013236482 -0.06932642 -0.10842365 -0.12972376 -0.032420937 -0.022252405 -0.07406473 -0.02896298
-0.020641487 -0.12182228 0.038518723 -0.1187965 0.097232416 0.08245445 0.076473735 -0.044485163
0.09317715 0.01620678 -0.07596113 -0.080373086 -0.121020265 0.001886814 0.09598132 0.045697905
0.050692312 0.16103268 0.061025582 -0.09802713 0.12475668 0.120715745 -0.0454159 0.052515585
-0.07208123 -0.07695718 -0.11863955 0.03909599 0.05891105 -0.008859495 -0.021843242 -0.14207183
0.0057992404 0.011161661 -0.09296398 -0.035831712 -0.07940547 -0.12001939 -0.08427511 0.058922164
0.06309969 0.0034875842 0.0075364434 0.04450747 0.049821593 -0.043434054 0.021338023 0.030461587
-0.04982186 0.10496124 -0.099261634 -0.12552148 -0.11024879 0.109985314 -0.05862293 -0.049433216
-0.053725824 -0.008411704 -0.05346238 -0.08748407 0.0019626122 -0.041491617 -0.008794725 0.12089182
0.05983211 -0.008973102 0.043239024 -0.10025395 -0.015514739 0.09426549 0.03790667 0.008870234
-0.05108124 -0.08911137 -0.08960556 0.010224238 -0.032234497 0.07648992 -0.09097259 -0.099602
0.11247403 -0.14124879 0.09185186 -0.11832549 -0.030652715 -0.06349318 0.04046828 -0.0471735
0.06066582 0.047126133 0.057121072 0.05025591 0.02924926 -0.036394723 -0.030768994 -0.069679275
-0.11285146 0.061057042 0.12411198 -0.106955335 0.020616693 0.038884684 -0.06948988 0.073081896
-0.043938573 0.0755607 0.043129973 -0.002460894 -0.051148627 0.04937484 -0.0026276917 0.0764575
-0.015413597 0.035836615 0.05072562 0.066110656 0.10926717 0.052936647 0.1026851 0.036360968
0.06534535 0.01580596 -0.034860775 0.039587606 -0.0023285155 0.05687442 -0.074957 -0.087337516

encoder.layers.2.nn.net.2.bias f4 [64]
00000000: a3bb 283d 7c0e 1dbd bac3 4f3d 3f0b c03d
00000010: 6e77 0fbd 916e 733d 893a 403d 1952 8e3d
00000020: b3a1 ee3d 1e2d debc 5ddf efba 8428 f03d
00000030: 7241 2cbb 10f3 c53d 3ea8 763d 1fcf f3bd
00000040: 1520 f1bc a25f a6bd 5cf2 cfbd bdc4 ac3d
00000050: 3fbc cc3d 2ebc b23d 7b89 fd3d 9a02 7fbd
00000060: d632 8b3d 9395 10bc eaaf d13d 3e55 c93d
00000070: 84b7 e0bd ac2a dabb 07f1 c33d 6c78 dc3d
00000080: eb63 003d f1f4 973c 945e 4a3d 09a1 1abc
00000090: 68b2 5a3c 7851 893d 53aa 40bc ef7d 4dbd
000000a0: 064d cabd 5b43 65bd aebd fc3d 38be e5bd
000000b0: 331c ddbd fabf 94bd acf7 56bc b000 583d
000000c0: 3fd6 7a3d 17e8 ac3d c3c9 edbd 5fa3 d73d
000000d0: e8b3 0b3d c56f 2ebd 6bdb 863d d5e8 083d
000000e0: 6c24 debc 157f 923a 7e88 2039 be5e 763d
000000f0: 6c81 293d e9fb 8fbb 804e 99bd 6637 47bc
0.04119457 -0.03834389 0.05072377 0.09377145 -0.035026006 0.059431616 0.046930823 0.06949253
0.116519354 -0.027121123 -0.001830082 0.11726478 -0.0026284126 0.09665501 0.060219042 -0.119047396
-0.029434243 -0.08123709 -0.10153648 0.08435962 0.099968426 0.08727299 0.12379738 -0.06225834
0.067968056 -0.008824724 0.10238631 0.09830712 -0.10972503 -0.006657919 0.09567457 0.10765156
0.03134529 0.018549414 0.049406603 -0.009437808 0.013348199 0.06704992 -0.011759358 -0.050168928
-0.09877972 -0.05597244 0.12340866 -0.11217922 -0.10796394 -0.07263179 -0.013120573 0.05273503
0.061239477 0.08442705 -0.116107486 0.105292074 0.03410712 -0.04258706 0.065848194 0.03342517
-0.027116977 0.0011176789 0.00015309636 0.060148947 0.041383192 -0.0043940437 -0.07485676 -0.012159204

encoder.layers.3.nn.net.0.weight f4 [64, 64]
00000000: a52a 43bd 4eb6 0e3d dc66 c93c 6f3a 6bbd
00000010: 8580 81bd 0946 99bc 9f3e d7bc 4e47 ccbd
00000020: 855d 043e 36dc 80bc 6e7b f53c fac9 a4bd
00000030: 5058 63bc d41e bebd 01a3 bebc 4597 3a3d
00000040: 300e eb3d 953b c5bd 20a8 973d 761f 58bc
00000050: 1f74 19bd fc7e 683d 778e 073e fdbf ffbc
00000060: db2c eabd 8496 b63d 69cd c03d 7263 d33d
00000070: b9c2 afbd b1cc b9bc a282 3e3c 2c51 db3c
00000080: 091c bc3d ad0d de3d 8fb8 25bd ebfc 273d
00000090: cab9 d7bd b826 9f3d f360 b2bc 2b19 373d
000000a0: 0d3a 91bc 3dc5 103d 297a d2bd 997e 943d
000000b0: 8b21 12be 1a60 abbc 1aa9 cdbd de4e 053d
000000c0: 3a75 86bc 6d22 8dbd 4234 8ebc 3ae4 11be
000000d0: 753e e73c 731c 8abd f167 e73d 0136 f3bc
000000e0: e038 f33d 8e9a eebc ca2b 923d ef86 883d
000000f0: 04ae b0ba dbb5 483d e578 1cbb 41c6 903d
00000100: a060 6e3d fa51 c3bd a78e f7bd 8ebc 5ebc
00000110: c010 2f3d 9d7e 2fbd 2f41 733c 0e99 6dbd
00000120: 4c18 8d3d 290f 8b3d 6422 02be a905 9d3d
00000130: c305 e0bd e4c2 b33d df1c 54bd 5a6c c93d
00000140: ebe1 05bc 7e02 3e3d 8e10 173d 363f ea3d
00000150: 3bd7 523d 8ae0 04be bd34 c93d 6b1b 383d
00000160: da10 963d 288e f1bd 6b02 4f3d 2ecd a5bd
00000170: 2d6d fabb 849c d5bd 3444 f93c 0317 31bd
00000180: f3a5 a5bd 6bbd 3bbd 1188 e2bd 38b1 0abd
00000190: 1560 ac3d 6874 bc3d 846a d83b 5836 a93d
000001a0: 2600 c13d 4388 b0bd b776 d7bd e3ab ff3c
000001b0: e30e 563d 3d6e 713d 1c20 343d 5cc6 4bbd
000001c0: 8bcb 08bc cb78 babd 9710 9eba 8967 f4bd
000001d0: f809 f2bd 6349 553d c47b b93c 5c90 763d
000001e0: 7fc4 083d f378 06be 2976 2e3c f7e6 70bd
000001f0: 560e 29bd 953b efbd 7743 80bd f5cc 063d
00000200: 245d abbc b34c fbbd c3d9 eebd ae10 a23c
00000210: 0ef5 bd3d 9607 253d c9c0 debd 03f5 f7bd
00000220: de71 81bd de6d ee3b cca0 b2bd e7ce b5bd
00000230: c9d1 c3bc a098 9a3d db64 b7bd 11ca c13d
00000240: b336 cc3d c695 8bbd 85cf 943d 508a f03d
00000250: 0f5b b1bc 597c 8fbd eadc 4ebc 48d8 91bd
00000260: 1edc 04be 0917 d53c a50c d53c 67a5 f6bd
00000270: 21ca 8b3c d587 7fbc a6f7 6abd dd3e d3bd
00000280: bc76 bfbd e207 58bd 3992 7c3d 184d 82bc
00000290: da99 a9bd 1f1e babd 533a 16bc c7fb 1bbe
000002a0: 8de0 cb3d 3ae1 d2bc da95 d4bd 9fd9 bd3d
000002b0: 1988 35bd 212e b43d a9b5 48bc e835 263d
000002c0: a901 8f3d e1a6 873d 181c f3bd 3b92 e2bc
000002d0: f7c3 5abd 362c d4bc f6da d93c 76dd 533d
000002e0: 094a 493d 084f cdbb e0e9 a93c ffc2 99bd
000002f0: 3548 173d ee4a 873d 545f a1bd b327 63bc
00000300: 6702 893d e388 4ebd 2545 0d3d 7fce 0a3d
00000310: ed21 a1bd 2e22 cdbd 3542 6abd 3396 d5bc
00000320: bfd8 d03b f2c5 e5bd 0faf 8fbd 3f64 ddbd
00000330: adcc 5abc a1d5 aabc 4c6f e7bc e2b2 d1bc
00000340: 2b72 fbbd d10b 7b3d 881f c8bc 0435 cbbd
00000350: 71f2 1dbe 4558 143d a369 633d f17b dbbc
00000360: 2f28 053c fa40 753d 7b11 81bd e18a 56bd
00000370: f47f ce3d f576 d0bd 7bd9 8a3d e5fd 38bd
00000380: 854f 263b 4e5a c63d 29c0 453d 5029 b7bd
00000390: 3fef 0bbe a762 dfbc 2a8c 22bc 4b95 ecbd
000003a0: 6d8c f9bd 1aec 7e3d a079 a13d ea83 f3bd
000003b0: 5cd5 8b3d 63ad debd 096b dcbd 04e2 eabd
000003c0: 475f e7bd 9e9e 8e3d 625f 43bd b9cb 66bc
000003d0: 75f2 efbd 9b9b 61bd 5cbf 10bc 566c 3c3d
000003e0: 0e89 97bd 34ea 4b3d ff40 1fbd c4c5 8d3d
000003f0: c706 4cbd 8e58 c2bd 9ed0 aebc beca 83bd
-0.04764809 0.034841828 0.02458518 -0.057428773 -0.06323341 -0.018710153 -0.026274977 -0.09974538
0.129263 -0.015730005 0.029966082 -0.080463365 -0.013876036 -0.09283224 -0.023271086 0.045554418
0.114773154 -0.09630505 0.07405114 -0.013191095 -0.037464257 0.056761727 0.1323794 -0.031219477
-0.11434337 0.08915427 0.09414179 0.10321702 -0.08582062 -0.022680612 0.011627825 0.026772104
0.09185035 0.10842452 -0.040459212 0.041012686 -0.10533483 0.07771057 -0.021774745 0.044701736
-0.017727876 0.03534435 -0.102772065 0.07250709 -0.14270608 -0.020919848 -0.10042019 0.032545917
-0.01641332 -0.06891332 -0.017358903 -0.14247218 0.028228024 -0.067437075 0.11299122 -0.029688837
0.118760824 -0.029126432 0.07137258 0.066663615 -0.0013479595 0.049001556 -0.002387577 0.07069064
0.058197618 -0.0953712 -0.12087756 -0.01359476 0.042740583 -0.042845357 0.014847084 -0.058007292
0.068894 0.06790001 -0.12708431 0.07667095 -0.10938599 0.08777407 -0.051785346 0.098351195
-0.008171539 0.046389095 0.036881022 0.11437838 0.05147479 -0.1297628 0.09824512 0.044948023
0.07327433 -0.11794692 0.050539415 -0.080957755 -0.0076424093 -0.104302436 0.03042803 -0.043234836
-0.08088293 -0.04583494 -0.11061109 -0.033860415 0.08416764 0.0920189 0.0066044945 0.082623184
0.094238564 -0.0861974 -0.1052069 0.031209892 0.05226029 0.058943022 0.043975934 -0.049749717
-0.00834931 -0.09105071 -0.0012059388 -0.1193381 -0.11818308 0.05207194 0.022642024 0.060196266
0.03339052 -0.13132076 0.010648289 -0.058814015 -0.041273437 -0.11681286 -0.06262868 0.032910306
-0.020918436 -0.122704886 -0.116626285 0.019783344 0.09275256 0.040290438 -0.108766146 -0.12107279
-0.063205466 0.007276281 -0.08722076 -0.08877354 -0.023903744 0.07548642 -0.089547835 0.09462369
0.099713705 -0.068156764 0.07266144 0.11745131 -0.021649865 -0.07006139 -0.012625912 -0.071213305
-0.12974593 0.02601196 0.026007006 -0.12043267 0.017064156 -0.01559635 -0.057365082 -0.103147246
-0.09348819 -0.052741893 0.061662886 -0.015905902 -0.08281298 -0.090877764 -0.009169179 -0.15232764
0.09954939 -0.025742162 -0.103801444 0.092700236 -0.044319246 0.08797861 -0.012250342 0.040578753
0.069827385 0.066236265 -0.11870593 -0.027657619 -0.053409543 -0.025899988 0.026593667 0.051724873
0.04914287 -0.006265525 0.020741403 -0.07507896 0.036934096 0.066060886 -0.078795105 -0.0138644455
0.06689911 -0.050423514 0.03448977 0.033888336 -0.07867799 -0.10016285 -0.057192046 -0.026072597
0.0063734944 -0.11219396 -0.07015812 -0.10810136 -0.013354463 -0.02085382 -0.028251313 -0.025597993
-0.12277635 0.061290566 -0.024429098 -0.09922221 -0.15424515 0.036216993 0.055520665 -0.026792498
0.008127256 0.05987642 -0.06302162 -0.05237854 0.10082999 -0.10178939 0.06779762 -0.045164008
0.0025376987 0.09685193 0.04827896 -0.089434266 -0.13665484 -0.02726872 -0.009921113 -0.11551913
-0.12184987 0.062236883 0.07884526 -0.11890395 0.068278044 -0.10872915 -0.10762603 -0.1146889
-0.112974696 0.069638476 -0.047698386 -0.014086657 -0.11716167 -0.055080038 -0.008834686 0.046001755
-0.07399188 0.0497839 -0.038880344 0.069224864 -0.04981115 -0.09489547 -0.02133971 -0.064351544
