scripts/embeddings_gin_version2/MUTAG/gin_dim128_ep100_lr0.001_drop0.3/gin_classifier.pt (torch, 629469 bytes, 42 tensors)

encoder.layers.0.nn.net.0.weight f4 [128, 7]
00000000: 9eeb a73d 113f 233e 0a3d 2abe cf31 363d
00000010: 7215 163d 6c78 fd3c 1538 003e 24d1 97be
00000020: 34e3 0a3e 9e36 8b3e 1f0d 47be 4a79 0cbd
00000030: 3593 81be f3f5 d5bc a73f 2ebe cefb 8ebe
00000040: 72a9 a1be 6ece dc3d eca7 47be b330 a43e
00000050: de20 80be a876 b83e f5a6 babe 1532 aebd
00000060: 765a b4be ffa1 fdbd af50 b1be 26af ae3e
00000070: b88c 0d3e 4d3e a0be 1379 663e 9788 843e
00000080: 7c4b c3bd 2541 9cbe 897c 103d f67a d03d
00000090: 44d2 e93b 2652 5bbe 5615 1b3e e024 b73e
000000a0: 1f4e e83d 074c 3bbe f0cd 24bd 086c aebe
000000b0: f4a0 db3c 30bf 913e 6bc1 81be 71bb a13d
000000c0: 8824 4a3d 1bd0 9bbd b420 b1bd 9aa7 763c
000000d0: 3019 833e a923 0d3c 8646 173e 8352 b23e
000000e0: 5431 adbd ff51 82be e56b 8cbd 894f ab3e
000000f0: 7c82 73be d520 af3e 1d49 57be a60a bc3e
00000100: 549a 94bc ec24 b6be 1cdb be3e 0bb4 a8be
00000110: b36d 8cbd 6fc8 673d ba89 e43d 6ab3 693d
00000120: 764e 25be 8fdb 5a3e f4f4 a7be d980 26be
00000130: 852d a5be b827 a0bc 763e 0d3d ffaa 37bd
00000140: 94cd bfbd 1bc7 6fbc 71ab 59bd f99b 753e
00000150: 61a2 f7bd 0fd9 ddbd 1a3d 64be 339f 543e
00000160: 6f76 db3d 6efb 573d 17a9 1f3e 5fe1 cf3d
00000170: be33 433e b2b7 f53d 11ad 94be 2126 15be
00000180: cf42 32be a759 543e f2fd dabd b110 e2bd
00000190: a114 b5be 0843 a3be 2e1f be3e 3e8d 95be
000001a0: 5628 6e3d bf4d bd3e 9f28 2fbd 4622 7a3e
000001b0: 1bfe 8f3e 49e0 b93e 38a0 43be e73a b53e
000001c0: 5c8e a33e cb4f 1a3e 41f0 ed3c fb9c a6be
000001d0: 32c3 82be 83e8 223e 3198 3dbd e8e0 b6be
000001e0: a709 4c3d fe6c adbe 18da 003e b4e3 9dbe
000001f0: 4645 acbe c7b0 bc3e ac17 f5bd 0cfb 493e
00000200: 19fc 8abe 3141 acbe 81a0 a63c 9dcb 903e
00000210: 9d94 5bbe 3276 3a3e 6d86 a43e 9446 523e
00000220: 6a63 053e 8689 fcbd da61 293e a6fe febd
00000230: c107 adbb 9e89 243e 653c 86be 7cc4 7cbe
00000240: f8e5 663e d68e b9be 71e4 0d3e cc04 dc3d
00000250: 972f 643e 2ad3 94bb 2494 c43d 5c74 53bd
00000260: adbd 713e a6df 2d3d 056f 7a3e 1d3e 6e3e
00000270: 148a eb3d d3f7 d9bd 1214 8d3e eb44 bfbc
00000280: 36cc a2be b125 b83e 62fc 273d e6c3 de3d
00000290: 9b0a b7be 87ac 28be 0701 6e3e 716a bc3e
000002a0: e207 3ebe b289 913e 205e 803c ce0a 25bd
000002b0: 40f4 57bd e0a3 89be 6370 83be 6538 853c
000002c0: e940 07be 5644 1f3e 9333 3d3e dc5c a93e
000002d0: 8edc 2b3e 3ae1 1a3e 9aa6 92be aea6 593d
000002e0: b3a8 5d3e e960 3c3d 34d2 223e 8ea7 3e3e
000002f0: 3efc 303e 7a9e 513e 0471 22bd 6a04 b33c
00000300: a296 c13e 5f23 17be 6d57 a9be 13d9 81be
00000310: db70 b1be fcdc 643d b7bb 8f3e 6858 b7bd
00000320: f886 c13e b0f2 aa3e 243e d239 ebd5 993d
00000330: a04a af3d 8cc0 6a3e 8be2 85be 0ebe 003e
00000340: c7d9 2fbe dd47 bb3e 47b4 343c ff35 b4be
00000350: 21a1 9bbe ded2 afbe 6acc 0bbd a024 a2bd
00000360: 172f 263e deb5 20be 6bea 453e 434e a53e
00000370: 3f8e 87be ae9f 60be d2d5 51bc 8bbc afbc
00000380: 203d 413e c624 e33d df08 b03d 59d6 ae3e
00000390: 1605 0fbe d620 6bbe 9097 a23e 45bf 09bb
000003a0: fcf9 8dbe f2e8 d63d 3689 39be 2ee8 6ebd
000003b0: 7dba 483d 97ed afbe 4b9d 81be 3460 783d
000003c0: e21b 653e d9a6 60be bdba 59be bf84 31be
000003d0: 7f13 9b3b 9831 2abc 4816 92be b347 fc3d
000003e0: ecc1 9e3e 3451 933d 6fda 7cbd 7bbb 06be
000003f0: 7883 98bd 6de0 a5be 9bc9 82be a3b6 87bd
0.08199237 0.15942027 -0.16624847 0.044481095 0.036641546 0.03094121 0.12521394 -0.2965175
0.13563234 0.27190107 -0.19438599 -0.034295358 -0.25307623 -0.026118254 -0.17016469 -0.27926487
-0.3157459 0.10781561 -0.19497651 0.32068405 -0.25025076 0.36028028 -0.36455503 -0.08505646
-0.35225266 -0.12384414 -0.3463187 0.34118003 0.13823211 -0.31297532 0.22507124 0.2588546
-0.09535882 -0.3051845 0.035275016 0.10179703 0.0071356613 -0.21418056 0.15144858 0.3577032
0.113430254 -0.18290721 -0.04023546 -0.34066796 0.026810147 0.28466177 -0.2534288 0.0789708
0.049351245 -0.07608052 -0.08648816 0.015054608 0.25605154 0.008614459 0.14772996 0.34828576
-0.08456674 -0.25453183 -0.06856517 0.33459118 -0.23780245 0.34204736 -0.21023984 0.36726874
-0.018139996 -0.35575044 0.37276542 -0.32949862 -0.06856861 0.056587633 0.11159082 0.05705587
-0.16143212 0.21372817 -0.32804072 -0.16260089 -0.3226129 -0.01955019 0.034483396 -0.04484081
-0.09365383 -0.014634873 -0.053142015 0.2398528 -0.12091518 -0.10832416 -0.22288933 0.20763855
0.10715949 0.052730016 0.15591846 0.10150408 0.19062707 0.11997928 -0.2903829 -0.14565326
-0.17408298 0.20737325 -0.106929675 -0.1103834 -0.353673 -0.31887078 0.37133163 -0.29209322
0.058143936 0.36973378 -0.04276335 0.24427137 0.28123555 0.36303928 -0.19104087 0.353965
0.3194455 0.15069501 0.029045226 -0.32541642 -0.25539547 0.15909009 -0.04628772 -0.35718465
0.049813893 -0.33872217 0.12583196 -0.30837786 -0.336466 0.3685362 -0.11967406 0.19724673
-0.2714546 -0.33643487 0.020340206 0.28280345 -0.2144341 0.1820915 0.3213381 0.20534736
0.13026205 -0.12330918 0.16541234 -0.12450914 -0.0052804654 0.16068122 -0.26217952 -0.24684328
0.22548664 -0.36241788 0.13856675 0.107431024 0.22283779 -0.0045417743 0.09598568 -0.05162464
0.23607512 0.042449616 0.24456413 0.23265882 0.11500946 -0.10642972 0.27554375 -0.023348292
-0.31796426 0.35966256 0.041012175 0.108772084 -0.3575028 -0.16472064 0.2324258 0.36799958
-0.18557695 0.28425366 0.015669882 -0.040293507 -0.05272317 -0.2688284 -0.25671682 0.016262243
-0.13208355 0.15553412 0.18476705 0.3307866 0.16783354 0.1512498 -0.28642732 0.053137474
0.21646385 0.04599086 0.15900499 0.18618605 0.17283723 0.2047061 -0.03965856 0.02185269
0.37810236 -0.14759587 -0.33074513 -0.25360927 -0.34656414 0.05587481 0.28072903 -0.08952409
0.37798285 0.3338828 0.0004010062 0.07511505 0.085591555 0.22925013 -0.261494 0.125725
-0.17172919 0.36578265 0.01102931 -0.35197446 -0.3039637 -0.34340566 -0.03413049 -0.07917142
0.16228901 -0.15694377 0.19327705 0.3228627 -0.26475713 -0.21935913 -0.012807326 -0.021452209
0.18870974 0.11090998 0.08595442 0.3414791 -0.13966784 -0.22961745 0.31756258 -0.0021018547
-0.27729785 0.104936495 -0.18118748 -0.058326893 0.049005974 -0.34360954 -0.25315318 0.06063862
0.22373918 -0.21938647 -0.21262641 -0.17335795 0.0047325487 -0.010387801 -0.28532624 0.12318363
0.31007326 0.07193223 -0.061731752 -0.13157456 -0.07446951 -0.32397786 -0.25544438 -0.06626632

encoder.layers.0.nn.net.0.bias f4 [128]
00000000: 3ccd 43be e4aa 43be 7a87 0a3c b133 0a3d
00000010: b5ac a2be b8a6 9dbe 01e7 a8bc dbfe 943e
00000020: 9c68 d8bd b08b 723e e4fe 81be 2c75 8b3d
00000030: 4626 88be 39ed ba3e f8fb 1c3e 8a04 8d3e
00000040: a10c 85be a127 ccbb 4ebc 633d f8f5 233e
00000050: d774 a3be d566 043c 92d8 7dbe d715 a03d
00000060: 6e03 5fbe c87a 55be 2ad1 40be 052c 41be
00000070: d851 3c3e 6abf aa3e 9923 1ebe ca7e f83c
00000080: 1b73 9ebc 5864 06be 63ee 5dbc 6db7 943e
00000090: e0c3 83be 2645 cfbd 6d47 19be afe2 883e
000000a0: 2b5d b8be 95ba 37be 14d9 97bd 263a 523e
000000b0: f4e0 a43e f9b4 f63d 83f9 aabd ac19 7d3e
000000c0: 533a fabb 75ab be3e 3a80 efbd bcb2 9c3e
000000d0: d95f 473e 04be 453e eed1 993d f106 f03c
000000e0: 8690 db3d e7d8 81be 4b22 34bd be85 61be
000000f0: 51ec e93d 5ff2 e7bd 115b 7c3e 63a6 253e
00000100: 10dc c9bd 5df1 c1be c481 ffbb 1c5c 1abd
00000110: 3477 203b b3c9 82bd 93c7 9e3d bf2a f33d
00000120: 8dc1 713e 8d4c 873e cb3a 553e 1a47 213d
00000130: 1e5e aa3e 1ad6 803d 31af 253e dfe8 4e3e
00000140: 6507 b8be 3561 883d 4233 893e b0be 10be
00000150: ddbe 0d3e 327a 96be 5770 a9bd eef9 343d
00000160: 7544 44be dfbc 113e 8086 263e d4dd 86be
00000170: f527 503e 1f95 20be 5d13 0ebe c32c a4be
00000180: d4ce 903a 8749 85be 6205 00be 8d34 963d
00000190: 2dc8 8f3e af2d 1b3e dc6b 3f3d bbec a33e
000001a0: dcca fb3d 75f1 55be 3a8d 703e e5f2 83be
000001b0: 1ab0 8a3e e38a aabe 01b8 a0be 7914 a83e
000001c0: aa03 53be ed8b 9e3e 5361 16be 453c 893e
000001d0: 9d28 863e 5607 31bc 5aa2 823c 133d 4d3e
000001e0: 4859 763e 1463 803e 2868 393e 974e a1be
000001f0: cc3e a7be c04c 91be 2122 723e edaf c23e
-0.1912126 -0.19108158 0.008455152 0.033740703 -0.3177239 -0.3079126 -0.020617964 0.2910069
-0.10566828 0.23686099 -0.2538978 0.06809458 -0.265917 0.36509112 0.15330493 0.27542526
-0.25986198 -0.00623031 0.055599503 0.16011798 -0.3192508 0.008081158 -0.24789646 0.078166656
-0.21778652 -0.20847619 -0.1882979 -0.18864448 0.18390596 0.33349162 -0.15443267 0.030333895
-0.019341996 -0.13124216 -0.013545605 0.29046193 -0.25735378 -0.10120611 -0.14968653 0.26735446
-0.36008582 -0.17942269 -0.07414451 0.20529994 0.32202876 0.120462365 -0.08348372 0.24716824
-0.0076363473 0.37240186 -0.11694379 0.30605114 0.19470157 0.19310766 0.07510744 0.029300185
0.10720925 -0.25360796 -0.043978017 -0.22023675 0.11422027 -0.113255255 0.24644114 0.16176753
-0.09856427 -0.37879458 -0.0077974517 -0.0376855 0.0024485113 -0.06386127 0.077529095 0.118733875
0.2360899 0.2642559 0.20823209 0.03937445 0.3327493 0.06290837 0.16180111 0.20206021
-0.35943142 0.06659166 0.2679692 -0.14135242 0.1384234 -0.29390103 -0.0827338 0.044183664
-0.1916674 0.14232205 0.16262245 -0.26341116 0.20327742 -0.15681885 -0.13874574 -0.320654
0.0011047968 -0.2603266 -0.12502053 0.07334242 0.2808241 0.15154146 0.046733722 0.3201655
0.12294552 -0.2089289 0.23491374 -0.2577125 0.2708748 -0.33309087 -0.31390384 0.3282812
-0.20606866 0.3096613 -0.14685564 0.26803795 0.2620286 -0.010804972 0.015946556 0.20042829
0.24057496 0.2507559 0.18106139 -0.31505272 -0.32665098 -0.28378868 0.23645832 0.38024846

encoder.layers.0.nn.net.2.weight f4 [128, 128]
00000000: cd4e 323d 35f5 e9ba 2ca5 fdbc ce7e ae3d
00000010: d849 82bd 2a25 b0bd db3c b5bd 0100 3ebc
00000020: 1089 3e3c d6a5 03bd 8a03 4dbc 0067 bcbd
00000030: 4e7b b23c 386e 083d fb54 6abd 4fb9 a53d
00000040: 0f8f b5bc 051d 523d bbc7 993d 68dc 803d
00000050: fffa 193c b696 4dbd f16c 733d 5514 c93c
00000060: 1104 2b3d bdef 903c 0218 12bd 1159 563d
00000070: fcda 6fbd fcf9 823d 1d63 8a3d d48d bbbd
00000080: a16a 503b fcbf 823d 7dcf 9bbd e769 26bd
00000090: a72d f4b9 d60b 34bc 9df9 913d 55cf 7f3d
000000a0: 0927 503d a9ed 923d 88de aebd 8ad3 19bd
000000b0: c816 0abc 72d7 c0bd e89c 923d 4358 6ebd
000000c0: 406a 543c 6f94 8dbc 35e4 a63d a833 d4bc
000000d0: 562b 463d bcb5 a23d c0ef 5cbd ef09 633d
000000e0: 3e85 7f3d 7a8c e13c ecfe 3b3d 38dc c0bd
000000f0: 167a b0bd d2cb b9bc e3cd 21bd 4970 4dbd
00000100: 0312 06bd aea4 80bd eefc 3e3d c549 643c
00000110: 8d81 45bd 4b34 953c 8e75 91bd 1bc6 963d
00000120: e742 e0bc 795d 81bd 4780 70bd 6dca 32bd
00000130: 2246 9fbd 8856 4cbc a77f 093d 7bb7 4c3d
00000140: 1c4f 3d3d d6c1 87bd 844b ff3b f3be bc3d
00000150: f204 9b3d 9380 0b3d c1ae 7d3c 65fe 553d
00000160: 368e 4bbd 1113 86bd fa55 7c3c 14d8 2c3d
00000170: ad58 353d 0601 383d ce80 06bd 6e3c 80bd
00000180: 3b9c a0bd c88d 6f3d 78fc a53c afce 93bc
00000190: 0457 343d 5b61 8fbd e978 a9bd 8668 7abd
000001a0: c890 1abd 4aa0 9d3d 8160 063d 6389 723d
000001b0: 7e95 1cbd 0bca 37bd 4616 92bd c7e1 91bd
000001c0: b5b0 863c 36e8 623d 17bd 03bd acd0 67bd
000001d0: f5ad c93d e517 5bbd 58a5 57bd 8728 8fbd
000001e0: 8c0b abbd 776b 89bd 1a32 d6bc 0fa5 433d
000001f0: 6032 8a3c adc6 9dbd 91fe 923d 7be6 b53d
00000200: 0ad1 cfbb ce61 5b3d c9e2 3b3d 4888 833d
00000210: de80 1f3d fe19 43bd d52a 3bbc 9c08 e1bc
00000220: 53fe 29bd bd3a fb3c 840d 32bd 08a5 7c3d
00000230: 479e 65bd 43cb 9a3a 5e05 0d3d 650e 983d
00000240: bc3c 96bd 1525 74bc 5e47 853d 143c 6c3d
00000250: 47ff 2fbd 64be b33d e63a adbd 1a4c e4bc
00000260: 4cf7 f6bc fe48 4fbd ec5d b0bd 0530 8dbd
00000270: 65d3 8d3c fcb8 90bd 7c6c 6dbd a7a0 acbd
00000280: 329b 503c 1fdd 86bd 4f27 92bb 9c8e c0bd
00000290: c1dc 97bc d6e5 efbc 0a9e 923d 68b2 a73d
000002a0: d056 883c d5cd 073c 9367 b3bd 111e b03b
000002b0: e459 96bd c2a8 393d 1d53 db3b f29d 9b3c
000002c0: fc76 8f3c b1c6 8cbd c366 debc ded8 a03d
000002d0: 23f1 433c c0c3 583d 37cc 8b3d 083a 9e3c
000002e0: f4e7 aabd aadb cdbd f6b5 9fbc 0b17 2abd
000002f0: e1f4 b43c b17c 98bd 1ff6 a8bd 24f8 5f3b
00000300: 9955 7a3c e3ad 963c 46b6 d13c 1b76 cabd
00000310: 2f70 cabb c1fb a33d 5c81 b6bd 3534 05bd
00000320: 1640 b63d fef6 86bc a875 ecbc 2c85 6c3d
00000330: c142 ad3c 13a3 43bd 07d6 113c 85be 06ba
00000340: 2fc6 053d 7ad9 203d 92e3 573d 62fe 873d
00000350: 367f a13c 2d95 26bd 9a21 9ebd 3e3b e1bd
00000360: 2bac 053d 5b1d aa3d 62d5 a23c a4b2 653d
00000370: a095 fb3b c18f 9cbd b7a0 903d c48c 0f3d
00000380: bd1a cabc 6ea6 c2bd c5d1 3f3c 0041 1fbc
00000390: 2073 0e3c e06d ccbc c2d4 91bc 2ff0 c4bd
000003a0: 3238 69bd 8614 d6bd 590e afbd 9589 34bd
000003b0: 44c1 abbc d1d6 72bd ef12 383d 6f52 7bbd
000003c0: 101b 343d 9c95 b23b 2db4 81bd b44f 763c
000003d0: e51c a4bd 38b1 5bbd fd66 55bd dae8 493c
000003e0: ea1c bdba 5e99 4339 f573 d0bd 107d 453d
000003f0: cab9 cabd 92b9 41bd b9ed 5a3d 8211 003d
0.04353218 -0.0017849567 -0.03096255 0.0852028 -0.06361741 -0.086008385 -0.08849498 -0.011596681
0.011629358 -0.032140575 -0.012513051 -0.09199333 0.021787312 0.033308238 -0.05720995 0.080919854
-0.022162942 0.051297206 0.07508799 0.06292039 0.009398221 -0.050192557 0.059430066 0.024545828
0.041751925 0.017692441 -0.035667427 0.052331034 -0.05855845 0.06395337 0.067571856 -0.09157911
0.0031801837 0.06384274 -0.076079346 -0.04062834 -0.0004657332 -0.01098915 0.07127688 0.062453587
0.050818477 0.07174236 -0.08538538 -0.037555255 -0.008428283 -0.09416093 0.07158834 -0.05818964
0.012964785 -0.017282693 0.08148996 -0.025903538 0.048381172 0.07944819 -0.05393958 0.055429395
0.06238293 0.027532805 0.04589741 -0.094170034 -0.08617036 -0.022680197 -0.03950299 -0.05015591
-0.03273202 -0.0628141 0.04662793 0.013933604 -0.048219252 0.018213412 -0.071025 0.07362004
-0.027375652 -0.063166566 -0.058716085 -0.04365008 -0.07777049 -0.0124718025 0.033569004 0.049979668
0.046218023 -0.06628768 0.0077909846 0.09216108 0.075693026 0.034058165 0.015483559 0.052244563
-0.04969617 -0.065466054 0.015401358 0.042198256 0.04427402 0.04492285 -0.03283768 -0.06261526
-0.078422986 0.058484823 0.020261988 -0.01804289 0.044028297 -0.07000991 -0.08275015 -0.061134838
-0.03773573 0.07696588 0.032806877 0.059213053 -0.038228504 -0.044870418 -0.071331546 -0.07123142
0.016441682 0.055397235 -0.032162752 -0.05659549 0.09847633 -0.053489584 -0.05264792 -0.06990152
-0.08351812 -0.067099504 -0.026146937 0.047764834 0.016869724 -0.0770391 0.07177461 0.08881851
-0.006342058 0.05356007 0.045870576 0.06422478 0.038941257 -0.04763221 -0.011423786 -0.027469926
-0.041502308 0.030667657 -0.04346992 0.061680824 -0.05605915 0.0011809844 0.034428947 0.074246205
-0.07335803 -0.014901419 0.06507753 0.057674482 -0.04296806 0.087765485 -0.084584996 -0.02786832
-0.030147217 -0.05060672 -0.08611664 -0.068939246 0.017312715 -0.07066533 -0.057964787 -0.084290795
0.012732314 -0.06585144 -0.0044602524 -0.094022006 -0.01853788 -0.029284399 0.0715905 0.08188325
0.016642958 0.00828882 -0.087599896 0.005374678 -0.07341364 0.045326956 0.0066932575 0.018996213
0.01751279 -0.06873835 -0.02714861 0.07853864 0.011959347 0.052921057 0.0682606 0.01931478
-0.08345023 -0.10051663 -0.019495945 -0.04152588 0.022089424 -0.07445658 -0.08250069 0.0034175003
0.015279197 0.018393463 0.02559961 -0.09885808 -0.006177924 0.080070026 -0.08911392 -0.03252049
0.08898942 -0.016475197 -0.028864697 0.05774419 0.021149995 -0.04776294 0.008901126 -0.0005140084
0.032659706 0.0392699 0.052707262 0.066403165 0.01971398 -0.04066961 -0.07721253 -0.10997628
0.032634895 0.0830638 0.01987714 0.056078568 0.007677749 -0.076446064 0.07061904 0.035046354
-0.024670953 -0.095044 0.011707728 -0.009720087 0.00869444 -0.024954736 -0.017801646 -0.09616124
-0.056938358 -0.10453133 -0.085476585 -0.04407652 -0.02096618 -0.059286896 0.04493993 -0.06135791
0.04397112 0.0054499637 -0.06333194 0.015033651 -0.08013324 -0.053635806 -0.05210017 0.012323583
-0.0014428173 0.00018653783 -0.10178367 0.048214972 -0.09898718 -0.047296114 0.053449366 0.031266697

encoder.layers.0.nn.net.2.bias f4 [128]
00000000: 42d8 b43c e5dd 69bc d35f f8bc 2611 453d
00000010: 4733 2abb 185f a6bd d311 87bd c096 5abc
00000020: 8534 7c3d dccf 3bbd 67ba 4b3d 9919 3abd
00000030: b679 a7bd 2a50 0d3d a690 b1bd 6b45 023d
00000040: 0fe2 2abd 293b 75bd 83c9 dbba 2d95 d6bb
00000050: b47b d3bc 9928 82bc 7396 e1bc 5596 9ebc
00000060: 221a 12bd db95 e0bc 6d54 1abd 48ad 953d
00000070: 8fea 8b3d a589 d5bc 66b7 a63d c9d8 74bc
00000080: 4f50 9cbd a3e2 1e3d 962e 9d3b 1609 3b3d
00000090: e225 0abd d3f4 bdbc b46d c53c e8cf 10bb
000000a0: 8f12 843d f582 163d e4dc a1bd 2fc8 35bd
000000b0: 87cf 543b e1cc 55bd f686 123c 591f 283d
000000c0: 55f5 51bc 3b96 a53d 76ca 1fbc ba03 95bd
000000d0: 1c65 3abd 61f0 60bd 44c4 8a3d 8cbc 8dbd
000000e0: fcaf 98bc d4d5 12bd cd04 9ebd 3d49 1ebd
000000f0: 5e63 33bd 4794 f73c 36aa 53bd 6d50 843c
00000100: 2b77 fab9 a924 4d3d baef 36bd 8cef 93bd
00000110: 8699 97bc 5530 adbd 05b5 75bd b3f0 96bd
00000120: b0de 9cbd 4a4e e9bb 9c2b 133d 3541 4d3d
00000130: a660 433d 7658 28bd 69b3 acbd a989 9c3c
00000140: 7162 2ebd ac26 20bd ad8c 533d c533 923c
00000150: e9dd 9c3d 5cb3 c4ba a4c6 8fbd 7412 3a3c
00000160: 2435 25bd cb97 b3bc 5e20 843d 7f59 81bd
00000170: 27dd 67bc b5ac 023d 35a5 5dbb 6e94 9e3c
00000180: 50c5 22bc 48ad 243d 17a7 a53d 4385 aabd
00000190: 1c6f 793d eb0b 76bc 0ee6 a9bd 7e4e a43d
000001a0: bea0 1a3d d953 54bd 947b ac3b c536 8b3d
000001b0: 31ea 773d e914 8dbd 80b0 07bd 1d21 4fbd
000001c0: 1410 543d 7b4a 65bd c50f 133c 7cbb c03b
000001d0: f8ec 65bd 2263 00bd 1f7e 643d e3c6 b03b
000001e0: 22d2 2e3d 022f 253d 95f9 b33d e97e 11bc
000001f0: 1437 84bd 601c a03d 2f9a 7bbd cd46 913d
0.022075776 -0.014274095 -0.03031913 0.048112057 -0.0025970505 -0.081236064 -0.065951966 -0.013341606
0.061573524 -0.045852527 0.049738314 -0.045434568 -0.081775114 0.03450028 -0.086701676 0.031804483
-0.041719493 -0.059870873 -0.0016768429 -0.006548545 -0.025815822 -0.0158885 -0.02753756 -0.019358793
-0.035669453 -0.027415207 -0.03767817 0.073084414 0.06831848 -0.02606661 0.08140449 -0.014944264
-0.07632505 0.038790356 0.0047968132 0.045662962 -0.033727534 -0.02318803 0.024100162 -0.0022096578
0.06448852 0.036745984 -0.0790346 -0.044380363 0.0032472329 -0.05219734 0.00894331 0.04104552
-0.012814839 0.08085295 -0.00975286 -0.072761014 -0.04550658 -0.054916743 0.06775716 -0.06920728
-0.018638603 -0.035848454 -0.077157594 -0.038644064 -0.043795936 0.030222071 -0.051675998 0.016151631
-0.00047772503 0.05008379 -0.044662215 -0.07223424 -0.018505823 -0.08456484 -0.059987087 -0.073701285
-0.07659662 -0.0071199285 0.03593026 0.050111014 0.047699593 -0.041099988 -0.08432657 0.01910861
-0.04257435 -0.03909938 0.05164783 0.017846951 0.076595135 -0.0015007067 -0.070203096 0.011356939
-0.040333882 -0.021922966 0.06451486 -0.06315898 -0.014151848 0.031902988 -0.0033820395 0.019357886
-0.009934738 0.040204316 0.080885105 -0.08326199 0.060896978 -0.01501749 -0.082958326 0.08022784
0.037750952 -0.051837776 0.005263755 0.06797556 0.060526077 -0.06888754 -0.033127308 -0.05056869
0.051773146 -0.055979233 0.008975928 0.005881725 -0.056134194 -0.03134454 0.05578434 0.005394803
0.042680867 0.040328033 0.08787838 -0.008880355 -0.06455818 0.07817912 -0.061426338 0.07093582

encoder.layers.1.nn.net.0.weight f4 [128, 128]
00000000: c783 a0bd 6a60 293d b9a6 84bc e4cb 8d3d
00000010: 4148 1cbd 2f9a 043d 5dd2 113d c02b a5bd
00000020: 1546 b9bd a67e 5a3d fd3b 643d 1cec 903d
00000030: 92b2 59bd 211e a8bd e005 21bd 58f4 37bd
00000040: 1971 63bd 9fb7 8b3d 7032 adbd 860f 903d
00000050: 081e 893d 561e 263d f833 3d3d 26b9 a63d
00000060: c266 f93c db88 2c3d 00ad a4bc ee87 52bd
00000070: 2c91 22bc b8f1 803d 4d79 94bd 87a7 9cbd
00000080: 56a7 ab3d ee71 75bd 69c1 593d 132f a1bd
00000090: 745e c2bc 8d78 fa3b 037a 83bc 61a2 f6bc
000000a0: ea85 af3d 5b6c 66bd c400 a53d 302e 41bd
000000b0: 8e3e 09bd a71f 063d e71c 973c 3562 2b3d
000000c0: 9039 2abd 09fa 173d 5dc5 843c af6d a7bd
000000d0: 0203 78bd d4d8 083d 9364 9ebd 8916 94bd
000000e0: bf10 6e3b e07d 953d afaa be3c e910 5eba
000000f0: 9809 b53c 1fa3 143d 6daf 743d 5caf a83d
00000100: 945f c43b 06a8 803d 5b5c 8a3d 9d5b 163d
00000110: 4f80 b23d 0e65 243d 3442 40bb a658 573c
00000120: c14d f43c 1296 1cbd 78b8 c9bc 02ad 80bd
00000130: 0894 c33c eb6e afbd 5917 9a3b cd37 94bd
00000140: 854c 95bc af79 063d a750 ac3c 2d87 adbd
00000150: 7c01 e53c d2a0 ff3b 3786 693c 2059 abbd
00000160: 1317 273c 6f6a dabc c360 86bd 116a 05bd
00000170: 1687 863d 46db a1bb 0fd6 8b3d fd6c d73c
00000180: 46e2 0cbd 2228 33bd 36ae 5cbd b739 33bb
00000190: 7168 fcbc e3fd d43c 3b36 f6bc ecd7 c03b
000001a0: 4127 a0bc 7ab6 943c b89c a43d e562 cb3c
000001b0: 6d76 a1bd 9630 09bd acb8 013d ebce 483d
000001c0: 5027 233c 17a4 e7bc 76a2 a1bd c0ba 81bc
000001d0: e9dd b43d f1bf 843c f249 efbb cc20 5d3b
000001e0: 5ced 8ebd 6909 63bd 16d2 b53d dfd0 b43d
000001f0: 6dc9 403d 7324 a73c 7eb6 70bc 9d2e 3fbd
00000200: 6714 51bd b3c7 33bd 4997 17bd eb3b 4dbd
00000210: c856 60bc ad94 2b3d 7fd0 7fbc e40a 103d
00000220: db2c 64bd f3c1 fd3c ddfe 583b dbf4 543d
00000230: 6d08 273d 3aac 79bd 5aed 67bd af18 133d
00000240: 06b8 6c3d 2139 a8bd 1e92 b9bc 218e 233c
00000250: 91f9 5b3d 850e a2bd 85e4 a7bc f240 c23c
00000260: 729e 96bd dec3 cabc 24eb c3ba dde7 863d
00000270: 300f 16bd 4f30 1b3c 097e 1e3d 5884 383d
00000280: 5c47 1abd 36b2 0dbb c2ce bd3d b524 0e3d
00000290: 52a2 f5bc b68f 57b7 e9d4 843d 2ede 70bc
000002a0: 17e4 70ba 0c74 8f3d 889e 68bd 33ea 503d
000002b0: 4faf 853c 06e5 4bbd d466 c43d 97f3 a6bc
000002c0: 83f7 4d3d 4bc2 3d3d 7c74 3b3d b420 9b3b
000002d0: f978 9ebd 728b 58bc 6330 c93d 4f73 833d
000002e0: 0a2d e33c 1481 8dbd ccab c53d d2e3 843d
000002f0: c514 79bc c36e 993d dab6 14bd bc1c 523d
00000300: f4ba b6bd 5cd0 8e3d 1c6f 603c 27bc 40bd
00000310: 7182 9ebd dc2e 3e3c 5730 b63d 0b56 2ebd
00000320: 289a d8bc 7874 e2bc a14c 713c 435f a13d
00000330: 677d e83c 542c 18bd d127 e33c d744 813d
00000340: 676b 023d 76f8 243d c76a b7bd ab5d 873c
00000350: 2efe 1c3d 0201 493d db39 843d a72d 853b
00000360: 8669 abbd dd72 4abc b3c5 143d 9f56 153d
00000370: a492 763d 1b10 84bd b9d8 7d3d f438 493d
00000380: 40ee bdbd 7f96 e13c accf 033d 7572 cebd
00000390: 06e5 993c 7a2a 83bb b97f 483d 59b9 2fbc
000003a0: d83e 083d c667 92bd 9435 7c3c 03f4 bcbd
000003b0: d75d f0bc 80dd 2dbd 03fd 2b3d c457 83bd
000003c0: 19f3 183d 2a8d b8bd db1a d63b 077a a63d
000003d0: 9f46 2abd dfe1 2dbd f7b5 8ebc ef1e b93b
000003e0: 013e 813d 2612 6fbd 8503 d43c a13a abbd
000003f0: 2214 de3c a2d1 b4bc 18cd 35bd 427f b5bd
-0.078376345 0.041351713 -0.01619278 0.06923655 -0.038154844 0.032373603 0.03560101 -0.08064985
-0.0904657 0.053343438 0.05572127 0.07076284 -0.053148814 -0.08208872 -0.039312243 -0.04491076
-0.05552778 0.06822132 -0.08456886 0.07034211 0.06695181 0.040556274 0.04619214 0.08140783
0.030444507 0.042122703 -0.020102024 -0.051399164 -0.009922307 0.06296104 -0.07249699 -0.07649141
0.08381526 -0.059923105 0.053162966 -0.07870307 -0.02372668 0.0076437653 -0.01604939 -0.030106725
0.08570464 -0.05625568 0.08056787 -0.04716319 -0.033506922 0.03274503 0.018446399 0.041841704
-0.041558802 0.037103686 0.016207391 -0.08175217 -0.060549743 0.03340991 -0.07734027 -0.07230861
0.00363259 0.072993994 0.023274748 -0.0008471148 0.022099301 0.036288377 0.05973761 0.08236572
0.005992839 0.06282048 0.06755897 0.036708463 0.08715879 0.040135436 -0.0029336335 0.013143694
0.029822232 -0.038229056 -0.024624094 -0.062829986 0.023874298 -0.08566078 0.0047024903 -0.07237206
-0.018224964 0.03283089 0.021034552 -0.08473048 0.02795481 0.0078011537 0.014253191 -0.083666086
0.010198372 -0.02666208 -0.065614246 -0.032571856 0.06568734 -0.0049394695 0.06827938 0.026297087
-0.03439548 -0.043739446 -0.053877078 -0.0027347633 -0.03081152 0.025999969 -0.030055156 0.005885115
-0.019549968 0.018153418 0.08037704 0.02482743 -0.07883916 -0.0334936 0.031670257 0.049025457
0.009958103 -0.028276486 -0.07892315 -0.01583612 0.088313885 0.016204806 -0.007302516 0.0033741472
-0.069788665 -0.055428896 0.08877961 0.088289015 0.047067095 0.020403123 -0.014691947 -0.046675313
-0.051044848 -0.04389162 -0.03700951 -0.05010597 -0.013692565 0.041889835 -0.015613674 0.035166636
-0.05570684 0.030976271 0.0033110895 0.051991325 0.04077952 -0.060955264 -0.05662284 0.035912212
0.057792686 -0.082140215 -0.022652682 0.009982617 0.053704802 -0.07912926 -0.020494709 0.023712609
-0.0735444 -0.0247516 -0.0014947397 0.06587193 -0.036635578 0.009471967 0.038694415 0.045048088
-0.03766571 -0.0021621115 0.092679515 0.034702975 -0.029984627 -1.2848459e-05 0.06485922 -0.014701409
-0.00091892615 0.07004556 -0.056791812 0.0510046 0.016318945 -0.04977896 0.095899254 -0.020379825
0.050284874 0.04632787 0.045765385 0.004734123 -0.077379175 -0.01321684 0.09823682 0.06418478
0.027731437 -0.06909385 0.09651908 0.06488766 -0.015202706 0.07491829 -0.036307193 0.051296934
-0.08922377 0.06973335 0.013698366 -0.047054436 -0.077397235 0.011607852 0.08895939 -0.042562526
-0.026440695 -0.027643427 0.014727742 0.07879498 0.028380109 -0.03715165 0.027728947 0.06311958
0.031840708 0.040276013 -0.08955913 0.016524157 0.038328342 0.049073227 0.064563476 0.00406428
-0.083697364 -0.012356487 0.036321353 0.03645956 0.06019844 -0.064483844 0.06197426 0.04912658
-0.09273958 0.027537582 0.032180473 -0.10080425 0.018785965 -0.0040028663 0.04894993 -0.010725343
0.033263057 -0.071486995 0.015393633 -0.09226229 -0.029341621 -0.042447567 0.041989338 -0.06413224
0.03734121 -0.090113 0.006533963 0.081287436 -0.041571256 -0.042451736 -0.017420752 0.0056494395
0.063106544 -0.058366917 0.025880584 -0.08360792 0.02710921 -0.022072617 -0.044385046 -0.08862163

encoder.layers.1.nn.net.0.bias f4 [128]
00000000: c9ff 18bd 1d25 a8bd 696d 7d3d 941e 5fbc
00000010: d1af 01bd b3d8 73bd 9a17 003c 76d9 a9bd
00000020: f4b1 753b 5274 933d 0938 e23c 7fea 70bd
00000030: 3122 b3bc c7b1 323b dcea 51bd b8ba 37bd
00000040: 4a39 acbd bddf 22bc 402b e7bc 764f f13b
00000050: 7dba dc3c 47b9 513c 9bd7 89bd 69d8 94bd
00000060: 7c79 e5bb c1f4 8dbd c0bf 3d3d f423 74bb
00000070: a7f0 aebc 3504 18bd e8f4 e23a 19e8 513d
00000080: b6c0 6dbd 898f 4d3d 28c6 13bc 37b5 d8bc
00000090: 0e0e 813d 2355 173c 954c 80bd 23a0 573d
000000a0: cd53 aa3c 699f 3ebd 018d 01bd 5620 86bd
000000b0: 7fdb 33bd a53a 633d 28f7 80bd 41b1 c13c
000000c0: bc38 98bd 9f1f c3bb 155a 9d3c a673 fa3c
000000d0: c207 91bc e501 863c bc47 fc3a 59e2 693d
000000e0: 85e1 ba3b 8708 f6ba b409 a73c 420d 293d
000000f0: e76b 5e3d db48 08bd b635 8a3d 6ba1 4b3d
00000100: 1562 3e3d 1bf8 293d ddd2 2e3d 880e ce3d
00000110: 418f d43c 21f2 b3bd 3cb0 613d f3c8 9bbc
00000120: 531b 083d 5553 913d 91b4 473d 2927 573d
00000130: be72 dabc ab8b 47bd 1f8c 3bbd 5903 4d3d
00000140: 23e6 4a3d d9b8 80bd c3d2 ebbc ec46 633d
00000150: 00f5 95bd c562 82bd 026b 363d 9e94 403c
00000160: 3b6d 4f3d 100f 3f3d 3db3 70bd 2a43 6c3d
00000170: be3f 2bbd d4bf 91bc 1cc6 87bd b646 8d3d
00000180: 13b2 7fbc 4833 88bc 8e31 7d3d b52c b9bd
00000190: 1787 18bd 5916 5d3d 2968 2f3c 88cc 1a3c
000001a0: 13c9 1cbd e9f8 3c3d 30d3 173d 36a2 7c3d
000001b0: 7706 d43c 0a5b c63b 3e4b 8dbc ea54 a1bd
000001c0: c963 a3bd b228 343d 0a4f e6bc c57f 79bc
000001d0: c3cd a0bd 1180 b6bd 54be 81bd ef34 8ebd
000001e0: 14fb 8fbd 1f45 7d3d be45 903d 8c95 28bd
000001f0: 2679 4abd d2a1 b23d efd1 0ebd d390 4fbd
-0.03735331 -0.08210204 0.06187192 -0.01361813 -0.031661812 -0.059532832 0.007818127 -0.082934305
0.0037490102 0.07199921 0.02761461 -0.058817383 -0.02186689 0.0027266608 -0.05124937 -0.044855803
-0.084093645 -0.009941039 -0.028218865 0.007364209 0.026944393 0.012800521 -0.067305766 -0.072678395
-0.0070030075 -0.06931449 0.046325445 -0.0037252875 -0.021354986 -0.037113387 0.0017315419 0.051246736
-0.05804511 0.050185714 -0.009019412 -0.026453597 0.06301509 0.009236607 -0.06264607 0.052642953
0.020791912 -0.046538744 -0.031628612 -0.06549136 -0.0439105 0.05547585 -0.06297141 0.023644092
-0.07432696 -0.0059546973 0.019207994 0.030572724 -0.017703895 0.016358325 0.0019247453 0.057100628
0.0057031536 -0.0018770852 0.020390369 0.04127241 0.054302122 -0.033272605 0.06748526 0.049714487
0.046480257 0.041496377 0.042681564 0.10061365 0.025947215 -0.08786417 0.05509971 -0.019016718
0.033229183 0.070959724 0.048756186 0.05252758 -0.026666041 -0.048717182 -0.045787927 0.05005202
0.04953588 -0.06285257 -0.028787022 0.05548756 -0.07322121 -0.06366495 0.044535644 0.011754183
0.05064128 0.046645224 -0.058764685 0.05768124 -0.041808836 -0.017791666 -0.06629583 0.06898253
-0.015606421 -0.016626015 0.061814837 -0.0904173 -0.037238207 0.05397639 0.010705986 0.009448178
-0.038277697 0.046135817 0.03706664 0.061678134 0.025881989 0.006053333 -0.017247792 -0.07877524
-0.07978017 0.043984123 -0.02811386 -0.015228217 -0.07851746 -0.089111455 -0.0633513 -0.0694369
-0.07030311 0.061833497 0.07044552 -0.041158244 -0.049431942 0.08722271 -0.034868177 -0.050675225

encoder.layers.1.nn.net.2.weight f4 [128, 128]
00000000: a690 ae3c 2cfd ddbc 53ce ae3d 0141 393d
00000010: 05b3 a4bc 5481 c53b d5ac ce3c d8f1 25bc
00000020: e735 55bd ed84 f43c 9f31 f73c bd5e 583c
00000030: a868 28bc 0319 60bd 2306 163d 1f95 4f3c
00000040: c8b8 293d 50d2 19bd 9bf8 57bd 321f 633c
00000050: f873 c0bd dd17 ebbc 444a 0bbd 98c8 933d
00000060: ee84 873b 5e54 ae3c abc0 b53d 9ad2 d8bc
00000070: 5411 8fbc 8a61 943c 80a8 bb3b 0360 4e3d
00000080: efc0 843d d4a1 ca3b 1779 92bc 8a25 4fbd
00000090: 6029 203d 0ef4 b1bd 2d87 d9bc 576d 60bd
000000a0: 0224 77bd 9f8f 16bc e11e 16bc 560a 443c
000000b0: 9a10 443b 8dba 683d 6b20 a6bd 91df ab3d
000000c0: 0e0d 37b9 6b60 86bd bb02 ea3c dacd 93ba
000000d0: 0862 82bd f6dd 2fbc 78d5 56bd 3773 493d
000000e0: 1a25 27bc c499 84bd d4ed 133c 5d29 ef3c
000000f0: 76a2 6abc 421e 8fbc 4725 3f3d e163 69bd
00000100: 24af 1fbd bc54 1d3c 3b39 993d ddab a13d
00000110: b653 273d 161e 2ebd 9844 01bc 608e 993d
00000120: 6c3d 86bb 99da 9a3d 1cce 65bd 8a79 8abc
00000130: 7534 223d 4991 1c3d 954e 88bc 2613 a73c
00000140: d33e a83d 6ae6 b0ba 1d55 c9bc b0ac 0f3d
00000150: 119a 9ebd 1910 b7bc 56ee 4f3d 92b0 6f3d
00000160: fde6 813c a556 a03d 10e7 e7bc 64a4 4fbc
00000170: e1b9 31bd 38f1 793d 2c7a 853d ad3f 7cbc
00000180: da52 a9bd a200 96bd b394 b53c 5861 a13d
00000190: ebe9 9b3c f6f2 a8bc bb40 a0bd 659b 403d
000001a0: 9ec4 793d 8b82 a8bd fb91 02bd 64bb 8d3d
000001b0: 2fee 423c 5ec6 81bd fdad cdbb 5c4a 82bd
000001c0: 0af2 82bc ae71 b23d c365 2d3d 5af1 a6bd
000001d0: 7981 003d 777b 99bd 2e2b 16bd f84d cd3d
000001e0: 4e8e 4cbd 3aeb 25bd 6c83 c5bd a953 b7bd
000001f0: 85c2 6c3d 1804 273d 4af1 11bc 7109 65bd
00000200: 215d 24bc de89 b0bd 3637 e03b 0e7c 913d
00000210: b363 053d a102 23bd 7334 033c 836b 65bd
00000220: c0a4 183c 6c75 b43d f408 983d 5cb4 ac3d
00000230: cb46 f93c fe09 91bd 70d2 8dbd 70a7 11bd
00000240: b43d 8abd b93d 9abd ae88 b43c 8567 8c3d
00000250: 65f4 b23c 0962 57bd 93e9 69bd 1c11 6c3d
00000260: bd68 793d 1ec7 813d 89da 253d 48ea 763d
00000270: a105 d33d ddc2 dcbc 4122 a3bd 0a12 97bd
00000280: 7ff5 28bd 9b31 533d 5baf 61bd ff0d a4bb
00000290: 9292 c53c 98e4 453d 63f7 c03d 20b9 8fbd
000002a0: cc99 86bd 6cb0 4fbd 4e2c 94bd 1f73 a93c
000002b0: 749c adbd e5ee 4a3d f8c6 75bd 675d 39bc
000002c0: 5d70 8d3d 9f8b 0fbd b2bc 863d d0ee 81bd
000002d0: 222e 85bd c61e 873a 7854 7a3c 8edf ae3b
000002e0: 945d 9a3d 48da 8b3c 70e0 493d 31f5 9fbc
000002f0: 792e 993d e109 413d 4950 95bd b7f1 31bd
00000300: 65a1 833d 5981 29bd 0cd2 b6bd 358d 933d
00000310: a0cf 363c e3a4 e7bc 1ce3 0c3d 2ca2 b4bc
00000320: 750e ee3a e567 b03c 61bc 9e3c 67f1 423d
00000330: 0220 93bd b359 82bd a213 77bc d7e6 c8bd
00000340: 9cda 6a3d 5df4 77bd 545f 46bb 59e7 413c
00000350: ead2 bcbd 0fb7 ab3d 9adb 153d 009e a23d
00000360: a20d 2c3c 450e abbd 65ca 823d 3709 4c3d
00000370: 5440 e8bc 8b53 463d 77c0 39bd aca3 85bd
00000380: 0d01 94bd d681 b8bc bd77 b7bc 04b6 aebd
00000390: deb3 103d 2987 1fbc d961 d23b a133 523d
000003a0: 6619 793d 639f a6bc 3a26 433b 24fd bb3d
000003b0: 39bc 4a3d 431d 1fbd 5855 e53c bbc9 b83c
000003c0: e3d3 363d 67df 5abd b40b 53bd 5c25 40bd
000003d0: c4b8 25bd eded 8f3d 076b 10bd d07b 663d
000003e0: 8a79 fdbc 4654 933d 6a30 4f3d b647 2c3d
000003f0: d9ef 4e3d 610e 42bd 02d1 023d 97c2 99bd
0.021309208 -0.02709826 0.08535447 0.04522801 -0.020104894 0.00602738 0.025228897 -0.010128461
-0.05205336 0.02984854 0.030175028 0.013206181 -0.010278858 -0.054711353 0.036626946 0.012669831
0.041435987 -0.037554085 -0.052727323 0.013862418 -0.09397119 -0.028697902 -0.034006372 0.072159946
0.0041357195 0.021280464 0.08874639 -0.02646761 -0.017464317 0.018112916 0.005726874 0.050384533
0.06482112 0.006183842 -0.017880006 -0.05057291 0.03910196 -0.08689128 -0.026553715 -0.054791775
-0.060337074 -0.009189515 -0.009162636 0.011965355 0.0029917122 0.056818534 -0.08111652 0.08392251
-0.00017457103 -0.06561359 0.028565755 -0.0011276559 -0.06366354 -0.010734072 -0.052449673 0.049182143
-0.010201717 -0.06474641 0.009028871 0.029194528 -0.01432096 -0.017470483 0.04666641 -0.056980018
-0.038985386 0.009602722 0.07481619 0.078941084 0.040851317 -0.04250916 -0.007889889 0.07497859
-0.0040966775 0.075612254 -0.056104764 -0.016903657 0.03960081 0.038224492 -0.016639033 0.020394873
0.08215108 -0.0013496403 -0.024576718 0.035076797 -0.077442296 -0.022346543 0.050764404 0.058518
0.015857214 0.07829026 -0.028308421 -0.012673471 -0.04339016 0.06102106 0.06517443 -0.015396041
-0.08267756 -0.073243394 0.022165632 0.07879895 0.01903244 -0.020623665 -0.07824846 0.047023196
0.060978524 -0.08228024 -0.0318775 0.069205076 0.011897608 -0.06336664 -0.0062768445 -0.06361839
-0.015984554 0.08713089 0.042333376 -0.08151503 0.031373475 -0.07494252 -0.036662273 0.10024637
-0.0499404 -0.040507533 -0.09644207 -0.08951504 0.057802696 0.04077539 -0.008907625 -0.055917207
-0.010031969 -0.08620046 0.006842519 0.0710374 0.032565784 -0.03979743 0.00800811 -0.056010734
0.009316623 0.08811459 0.07423583 0.08432838 0.030429265 -0.07081984 -0.069249034 -0.03556007
-0.0675005 -0.07531304 0.02203783 0.06855682 0.021845052 -0.052583728 -0.05710752 0.057633504
0.0608909 0.06336807 0.040491614 0.06028202 0.10303808 -0.026948387 -0.07965518 -0.073764876
-0.04124975 0.05156098 -0.055098873 -0.0050065513 0.024117742 0.048313707 0.09422185 -0.07017732
-0.06572303 -0.05070536 -0.07235013 0.020684777 -0.08477107 0.049544234 -0.060004205 -0.011313773
0.06906197 -0.035045262 0.065789595 -0.06344378 -0.0650294 0.0010308854 0.015278928 0.0053367084
0.0753738 0.017071858 0.049286306 -0.019526096 0.07479567 0.047128562 -0.07290704 -0.043443408
0.06427268 -0.04138312 -0.08926782 0.072046675 0.0111579 -0.028276866 0.034396276 -0.022049986
0.0018162268 0.021533916 0.019376935 0.0475935 -0.071838394 -0.06364765 -0.015080364 -0.09809654
0.05733739 -0.060535777 -0.0030269222 0.011834943 -0.09219916 0.08384525 0.03658638 0.07940292
0.010501297 -0.08352331 0.0638626 0.049813475 -0.028350987 0.048419517 -0.045349564 -0.065253586
-0.07226763 -0.022522848 -0.022395963 -0.085308105 0.035327785 -0.009736815 0.0064203558 0.05131877
0.060815237 -0.020339673 0.0029777423 0.09179142 0.04949591 -0.038846266 0.027994797 0.02255713
0.044635665 -0.05343571 -0.051524833 -0.04691063 -0.04045941 0.070278026 -0.03525832 0.05627042
-0.030941743 0.07193808 0.05058328 0.042060576 0.050521705 -0.047376994 0.031937607 -0.07507818

encoder.layers.1.nn.net.2.bias f4 [128]
00000000: 1ac3 c43c 9145 7e3d 71c3 fb3b 341b 27bc
00000010: 9987 29bd a526 a03d d194 85bd e22a 13bc
00000020: 82b4 093d 2de7 a3bd 0877 a93c c747 3e3d
00000030: 97d5 3dbd b708 6fbd e4d7 5b3d 33f4 943c
00000040: 3b49 ad3d 4cb4 983d 4a43 ee3c a438 62bd
00000050: 6d0b 18bd 235b 51bd 06eb a33d 780d abbd
00000060: 05b5 2d3c 9c94 3dbd 0762 f6bc 286c 2d3d
00000070: f6bf 92bd 00c4 de3c 6dce 583d 5731 4b3d
00000080: 2720 48bd 4815 37bc d1d4 853d 6491 5a3d
00000090: 0556 9ebd 2bb0 02bc 15f9 54bd feb7 d83c
000000a0: 20bf 663d 0a83 b23d beff 053c a01a 73bd
000000b0: 8716 313b 955c 96bd e8bd af3d 9a44 b23d
000000c0: 68a1 cb3c 260d a83d ebd4 9a3d f32d 1d3d
000000d0: c937 253d 70b2 8dbd c2d1 19bc 6e64 1bbd
000000e0: a7dd 353d 5f1c b53d 3785 7e3d 050c 913d
000000f0: e6ec a9bd a544 91bd 93b3 d33c c881 4abc
00000100: 861c b13d 1df3 123d 84d5 7c3d 9fd9 a73d
00000110: 845d 333d f432 8fbd 9e80 a73d 0711 87bd
00000120: f0f5 34bd 818a 8abd a9c1 8fbd afdc 1e3d
00000130: c36a 98bd ea42 88bd f1dc 81bd ab25 5bbc
00000140: 501d f23c 31c1 5b3c 10d1 8bbd 2ec3 42bd
00000150: 756b 4d3d 1d9d 6d3d e695 f63b 90a3 babc
00000160: 6b51 653d 2c52 b1bd 8586 68bd 0ea4 ebba
00000170: e9f8 e63c 219b aa3d 7f58 ab3d 64f3 b33d
00000180: f597 dc3c 168b 10bd 38dc 87bc 8d3f 953c
00000190: 1f11 f3bb 4fb3 f43c 4d53 b0bd 60a8 0b3c
000001a0: 5f38 ae3d 31ac a83c d6a6 d13b e13d 343d
000001b0: c8d1 5fbb 3699 a5bd 7460 97bd 4f98 39bd
000001c0: 75ee a7bd dcd0 b33d 7a13 cbbc 6b2c b03d
000001d0: eb0b 303b f32a c4bc 1f5a b1bc c696 a4bd
000001e0: 4212 323d 7a6a 88bd 59b9 aebd b884 bebc
000001f0: 35ab 0c3b 6023 5ebd 1085 0e3d c937 953d
0.024018813 0.062078062 0.0076832105 -0.010199357 -0.04138908 0.07819871 -0.06522525 -0.008982392
0.03361941 -0.08003078 0.020686641 0.04645517 -0.046346273 -0.05835792 0.053672686 0.01818285
0.08461233 0.07456264 0.02908482 -0.055229798 -0.03712027 -0.051112305 0.080038115 -0.08352178
0.01060224 -0.046284303 -0.03007604 0.042339474 -0.0716552 0.02719307 0.052931238 0.0496076
-0.048858788 -0.011174507 0.06534732 0.05336131 -0.07731251 -0.007976572 -0.051995356 0.026454922
0.056334615 0.087164 0.0081786495 -0.059351563 0.0027021484 -0.07341877 0.085811436 0.08704491
0.024857238 0.08205633 0.07560142 0.0383739 0.040336404 -0.069188 -0.009388389 -0.037937574
0.044400837 0.08843302 0.062138762 0.07082371 -0.08297138 -0.07093171 0.025842464 -0.012360044
0.086480185 0.035876382 0.061727062 0.08195805 0.043790355 -0.069921404 0.08178829 -0.065950446
-0.044179857 -0.06764699 -0.070193596 0.03878468 -0.07442238 -0.06653388 -0.06340969 -0.01337568
0.029554993 0.01341276 -0.06826985 -0.04754942 0.050151307 0.058011163 0.0075251935 -0.02278307
0.05598585 -0.08658251 -0.056768913 -0.0017977969 0.028194861 0.0833037 0.08366489 0.087866575
0.026927928 -0.035288893 -0.0165845 0.01821878 -0.0074178125 0.029870657 -0.08609638 0.00852403
0.08506846 0.02058992 0.006398062 0.044004325 -0.003415214 -0.08085863 -0.07391444 -0.04531127
-0.08199779 0.08780071 -0.02478956 0.08602222 0.0026862572 -0.023946261 -0.021649418 -0.0803657
0.043474443 -0.06660934 -0.08531446 -0.023256645 0.0021464352 -0.054232955 0.034794867 0.07286031

encoder.layers.2.nn.net.0.weight f4 [128, 128]
00000000: 2532 d03d ee73 17bd b805 95bd f88d 03bc
00000010: 1e1a 0c3d 3c18 a9bc b542 3b3d 2945 2b3d
00000020: 7d96 91bd fd11 00bc e02b 89bd f751 91bd
00000030: 3505 efbc e2bd 503c be0a 18bd bad0 03bd
00000040: 8681 afbd 0ae7 f63c 9b80 ae3d 2a32 d6bc
00000050: 9267 433d ae68 6dbd 4e5c b6bc b8f4 37bd
00000060: 63ca a63d 5dbf 4cbd a9a4 3abb dc81 033d
00000070: 01a7 71bd b1d9 813d c9e2 2cbd 07be 84bd
00000080: 17f6 de3d c2b0 6f3c 6a72 053d 25f5 77bd
00000090: 9898 a6bd d717 133d 5bd6 7d3c d50d 943d
000000a0: 16f4 973d 8790 743d 3572 38bd 9f3b be3d
000000b0: 712b a9bd d9ab c7bc ee81 183d 039b 05bd
000000c0: 4406 a53b d3f8 f13b 20c8 933b 0049 98bd
000000d0: ca76 b3bc e71e 99bd 77ea edbc 01b4 feb9
000000e0: 500c 11bc d8d6 2a3d 91d7 79bc 8547 aa3b
000000f0: 6a5a fa3b b300 b43d fc14 30bd c851 683d
00000100: 4c50 d7bc 8f45 713d a99e e93c 36d7 1d3d
00000110: 64d2 f33c 6f87 8bbd f455 5d3d 2894 36bd
00000120: be5c a33c e952 5abc ad25 913d c62d 283c
00000130: 2085 613c cdfd c33c a48b 99bc 7101 2c3c
00000140: 8efb 52bd 56db 08bc a897 36bd 8958 b9bd
00000150: 3d97 993c cbfb b63d 666f 3cbd 9cb8 be3d
00000160: f7b3 1c3d 0a3a c63d 77ef 04bb 10fb 1f3d
00000170: 1e97 643c c8e1 babc 725b 81bb 8d5b 863d
00000180: 6195 c33d 226a 783d 8ce2 d83c 32cd bdbb
00000190: 36b8 6ebd 803e 37bc 4b48 943d 13f8 8fbb
000001a0: 29ef 5cbc c62b 73bd 39dc 87bc a715 dabb
000001b0: 98de babc 8b5a c83b 5e57 cf3d b32e c53d
000001c0: 7503 90bd 82fc 3f3d 3323 743d 6f46 0e3d
000001d0: 0d6a 4e3d 8ce7 1cbd 8204 90bd 1e50 a43d
000001e0: 594f 273d c454 7ebd 7499 18bd f425 5c3c
000001f0: cebb 65bc 825e 403d 0f12 1dbc eb82 be3c
00000200: fa47 9b3d 17df a7bd b3dd 9dbd cdb1 803d
00000210: ee5c 0cbd f339 e4bc 0ba5 533d a5d7 e9bb
00000220: a4d0 133d 6d1f 163c fbec 653d ffca b0bc
00000230: 7f1c 1abd 7823 753d 09c8 43bc 3579 d1bc
00000240: b3f3 203d 7c6e 793d 9282 55bc 268a ae3d
00000250: 49e7 e03d 8cc9 8ebc 955b efbb b2c8 17bd
00000260: 4db8 663d 2ac1 3fbd 9019 afbd ca93 4dbd
00000270: f1ca 75bd 3487 cfbc f587 e7bc 988c b83d
00000280: e31c 97bd 0d0f 593d 1cb6 573d 0711 633a
00000290: e599 5dbd 704f 69bb 7c84 643d bcdc 903d
000002a0: a52d 58bd eb6b 0a3d 5b2e 803c 687e b83d
000002b0: f03a 5a3d bc90 693c 39f9 ce3c 83bb 313c
000002c0: 4945 2ebd 8509 173d f600 263c a709 9b3d
000002d0: fbba 223c 3c2f 0a3d 98ce 923d 387c d7bc
000002e0: 471f 22bd ad1f 0f3d 0175 09bc 7ab9 593d
000002f0: e108 5a3d a44d 9f3c 0856 b83d 3f75 973d
00000300: fda3 16bd 43b2 64bd 6ae4 7bbd 1b7b 9c3d
00000310: a1ed b6bd a52b 53bc 8e6e 133d 8f96 c03d
00000320: 052a ca3b cf2f 7dbc 2770 8b3d 3ad2 93bd
00000330: ed74 6cbd 98ea 0ebb eae6 4c3c 3823 90bd
00000340: 7ddc 4cba 3249 b63c dd9b 863d e5c3 793d
00000350: 0253 e73c 2035 c03c f2a5 a4bb f7c1 71bd
00000360: e38c f5bb a6da 723d 89bb 27bd 194c e7bc
00000370: 57f5 9c3d 30c2 82bd b222 7cbc c40a d438
00000380: fece 5d3d bcba 53bb 363e 96bd fdce f53c
00000390: 86e9 9c3c 6a93 11bd 615a 65bd b157 2dbd
000003a0: 95ed 2a3c 8886 4fbd 0d32 b03d c9c9 4e3d
000003b0: 13dc fc3c fe87 53bc dc10 9a3d 14b9 1e3d
000003c0: 239a d03c a750 a8bd f4ff a53d 93c5 04bc
000003d0: e79c 963d 49df 1e3d dd64 31bd 1856 a43c
000003e0: 0ee3 2d3d ff2b 0b3d 0018 13bd 6f93 ca3c
000003f0: b53e 9b3d 7d5e 39bd 8834 893c c29f bfbd
0.10165814 -0.036975794 -0.072764814 -0.008029453 0.034204595 -0.020641439 0.045717914 0.041814003
-0.071087815 -0.007816789 -0.066978216 -0.07095712 -0.029177288 0.012740584 -0.03711962 -0.03218148
-0.085696265 0.030139465 0.08520623 -0.026146967 0.047706194 -0.05796116 -0.022260811 -0.044911116
0.08144071 -0.049987186 -0.0028479493 0.032106265 -0.058997158 0.063403495 -0.042208467 -0.06481557
0.10886782 0.014629545 0.032579817 -0.060536522 -0.08134574 0.035911407 0.015493001 0.07229201
0.074196026 0.059708145 -0.04503079 0.092887156 -0.08260239 -0.024373936 0.037233286 -0.032618534
0.0050361473 0.0073843985 0.0045099407 -0.07435799 -0.021907229 -0.07476597 -0.029042466 -0.0004858077
-0.008853033 0.041708797 -0.015249149 0.005196514 0.0076401727 0.08789196 -0.042988762 0.056718618
-0.026283406 0.058904227 0.028518038 0.03853532 0.029763408 -0.06812941 0.05403705 -0.044574887
0.019941684 -0.013325431 0.07087264 0.0102648195 0.01376465 0.023924733 -0.018743344 0.0104983905
-0.051509432 -0.008353075 -0.044578224 -0.0905009 0.018748874 0.089347444 -0.046004675 0.09312555
0.038257565 0.09679039 -0.0020284334 0.03905779 0.013952045 -0.022812739 -0.0039476687 0.06560431
0.09549976 0.06064809 0.026475213 -0.0057922835 -0.058281146 -0.011184335 0.07240351 -0.0043935864
-0.013484755 -0.059367917 -0.016584503 -0.006655413 -0.02281122 0.006114309 0.10124086 0.09628048
-0.070319094 0.04687167 0.05960388 0.03473514 0.050394107 -0.038306758 -0.0703211 0.08023094
0.040847156 -0.062092558 -0.03725572 0.013436783 -0.014021827 0.04696513 -0.009586825 0.023255786
0.07582088 -0.08196848 -0.077083014 0.06283913 -0.034268312 -0.027859664 0.05167107 -0.0071363025
0.036087647 0.009162766 0.056134205 -0.021581171 -0.037624832 0.05984828 -0.011949548 -0.025570491
0.03929491 0.06089638 -0.013031619 0.085224435 0.10981614 -0.01743009 -0.0073046186 -0.037056632
0.056328107 -0.046815075 -0.085497975 -0.05018977 -0.060007993 -0.025333025 -0.028263072 0.09011191
-0.073785566 0.05299287 0.052663907 0.00086619 -0.054101843 -0.0035600327 0.05579041 0.07073352
-0.052777905 0.033794325 0.015647104 0.09008485 0.053278863 0.014255699 0.025265323 0.010847929
-0.042546544 0.036874313 0.010132065 0.075702004 0.009932275 0.033736452 0.07168311 -0.02630435
-0.03958061 0.034942318 -0.008389712 0.0531554 0.053231124 0.019446202 0.09000784 0.0739541
-0.036777485 -0.055834066 -0.06149713 0.07640668 -0.08932043 -0.012888824 0.035994105 0.09403717
0.00616956 -0.015453293 0.06808501 -0.07217832 -0.057728697 -0.002180731 0.012506226 -0.070379674
-0.0007814838 0.0222517 0.06572697 0.060977835 0.028237823 0.023462832 -0.005024665 -0.05902287
-0.0074936016 0.05929055 -0.04095033 -0.028234528 0.07663982 -0.063846946 -0.015389131 0.00010110953
0.05415248 -0.0032307347 -0.073360845 0.030005926 0.019154321 -0.035540976 -0.055994395 -0.042319957
0.0104326205 -0.05066541 0.086032964 0.050485406 0.030866658 -0.012910841 0.07522747 0.038750723
0.025464123 -0.08218508 0.0810546 -0.008103746 0.073541455 0.03878716 -0.04330908 0.020060584
0.042452864 0.033977505 -0.03591156 0.024728505 0.0758032 -0.045256127 0.016748682 -0.09356643

encoder.layers.2.nn.net.0.bias f4 [128]
00000000: 0cea 003d d6d9 87bd 4b1f 0c3d 266f db3b
00000010: 9cb5 3dbd 2fc8 3cbd 4661 71bb 6216 d7bc
00000020: 55ee a13d 8e47 a6bb e525 8dbd cbf5 a3ba
00000030: 8bb8 903d 047a e8bc f806 6ebd 7756 473c
00000040: 6681 8b3b 9c9d 683c ea87 17bd 4fd2 87bd
00000050: 2904 85bc 29a8 5ebd c2a7 873d 7c14 c0bd
00000060: 235a a6bd 5937 9bbd 5300 febc 2fff c5bd
00000070: e314 dd3c f6ae 5f3d 6bca afbd a24c f0bc
00000080: b8a4 5f3d f711 a1bd 2c9e 833c 4151 35bc
00000090: cd56 73bd 41e9 d83c a1b1 93bd a816 98bc
000000a0: d6ab 50bd b382 343d 5e1c ab3a ac61 043d
000000b0: 5868 463d a07c 50bc 4d85 2a3d 8360 013d
000000c0: 9407 c53c bf54 9c3d c1d4 bfbb 7538 203d
000000d0: d929 703d e3f7 a13d 99a5 db3c fb78 9ebc
000000e0: 8d8a 983d 1237 a4bd d6e0 e23b 3adc c83b
000000f0: 575c 653d db5f 6c3c 62bb a13d 5c70 c63c
00000100: fbf5 9f3d b577 eb3b bacf b63d 369c 8ebd
00000110: 187d 28bd 3fdf 363b c8f5 723d e926 2b3d
00000120: 02eb e23b d1d9 79bd beb9 01bc 694e 963d
00000130: 2f4d 61bd f574 693d 5a43 663d a93e 28bc
00000140: 4e18 1c3c 4451 9a3d d315 65bd fe5f 50bd
00000150: c235 1dbd 0e71 4f3d 5f0c 473c 596b af3c
00000160: d749 c639 3eeb 69bd 2499 0b3d 1bee 6e3d
00000170: 447f 3abd f584 b1bd 4c45 993d 66b0 a13d
00000180: d00d 02bd 12df adbd 0656 9a3d 5565 98bd
00000190: 4485 10bd f763 223d 252e 353c 0964 313d
000001a0: 91e7 b1bc bf9a 04bd 5d97 52bd a8d4 2ebc
000001b0: a70a 943d 26f7 4abd 33bd ac3d c27d 7d3c
000001c0: c9a5 95bd 25dd 7c3d 9193 0b3d 8842 503d
000001d0: bfd0 9e3d 9333 dabc dbcb 213d 2b07 513d
000001e0: 7161 a0bd 514a 69bc 02e6 783b 92fd d63b
000001f0: fe37 7dbc 53d3 9f3d 5efe af3d 098c 863c
0.031473204 -0.06633346 0.03420953 0.0066965995 -0.046315774 -0.046089347 -0.003683166 -0.02625579
0.07906786 -0.005074448 -0.068919934 -0.0012509165 0.07066449 -0.028378494 -0.058112115 0.012166611
0.004257369 0.014197733 -0.036994852 -0.0663191 -0.016237335 -0.05435959 0.06623794 -0.09378907
-0.08122661 -0.07578916 -0.031006014 -0.09667813 0.026987499 0.054610215 -0.0858353 -0.029333416
0.054600447 -0.07864755 0.016066633 -0.011066736 -0.05940895 0.026478412 -0.072116144 -0.01856549
-0.050945126 0.044069957 0.0013054719 0.03231971 0.048439354 -0.012725025 0.04163103 0.03158618
0.024051465 0.076333515 -0.0058542197 0.03911634 0.05863366 0.07908609 0.026812362 -0.019344797
0.074483015 -0.08018316 0.006923775 0.0061297687 0.055996265 0.014427151 0.078970686 0.024223499
0.07810589 0.007185901 0.089263394 -0.069633886 -0.041134924 0.002790406 0.059316427 0.041785154
0.006924988 -0.06099874 -0.00791782 0.07339174 -0.05500525 0.056996305 0.056216575 -0.010268846
0.009527279 0.075350314 -0.055929016 -0.050872795 -0.038381346 0.050644927 0.012148946 0.021413492
0.00037820518 -0.05710911 0.034081593 0.058332544 -0.045531526 -0.08667938 0.074839205 0.078949735
-0.031751454 -0.08489813 0.07535939 -0.074412026 -0.035283342 0.039646115 0.011058365 0.04330829
-0.021716865 -0.03237414 -0.051413883 -0.010670818 0.07228594 -0.049552105 0.084345244 0.0154718775
-0.07307012 0.061734337 0.034076277 0.0508447 0.07754659 -0.02663592 0.039501052 0.051032227
-0.078310855 -0.01423891 0.0037978892 0.0065609897 -0.015455244 0.07803979 0.085934386 0.016424196
