scripts/embeddings_gin_version2/IMDB-MULTI/gin_dim64_ep100_lr0.0005_drop0.0/gin_classifier.pt (torch, 175837 bytes, 42 tensors)

encoder.layers.0.nn.net.0.weight f4 [64, 1]
-0.25584877 0.30155665 0.20679525 -0.31734073 0.9634525 -0.46928728 -0.25753462 -0.75511324
0.36686072 -0.6140779 -0.21559048 0.025934553 -0.5170889 -0.60232675 -0.065951705 0.004485747
0.929862 0.091811754 0.4249966 -0.7741432 -0.3477279 -0.43404818 -0.89254344 0.9017457
-0.2224282 0.59239316 -0.52030087 0.5150335 -0.5460918 -0.38377976 -0.012724894 -0.07096875
0.10950043 0.94959027 -0.98682344 -0.104653716 -0.70595396 -0.18386912 -0.94899976 -0.34084213
0.98475134 -0.049848914 0.24799643 0.4848727 0.53472984 0.4623102 -0.3773135 0.17701705
-0.91323745 -0.5984328 -0.30859613 -0.7299074 0.68681514 -0.14818263 0.80296624 -0.6575465
-0.39168394 -0.0939579 -0.5134741 -0.672282 -0.70255136 0.66684544 -0.70238495 -0.4289801
00000000: 9cfe 82be a265 9a3e 22c2 533e 7c7a a2be
00000010: d3a4 763f 6c46 f0be 94db 83be 1a4f 41bf
00000020: 2bd5 bb3e 3634 1dbf c0c3 5cbe b374 d43c
00000030: f05f 04bf 1632 1abf b011 87bd 2cfd 923b
00000040: 700b 6e3f cd07 bc3d 2899 d93e 402e 46bf
00000050: 6409 b2be 903b debe ba7d 64bf ced8 663f
00000060: 38c4 63be 14a7 173f 7032 05bf 3cd9 033f
00000070: accc 0bbf c87e c4be 137c 50bc 1058 91bd
00000080: c341 e03d 5918 733f 76a0 7cbf b054 d6bd
00000090: 66b9 34bf 3048 3cbe a6f1 72bf dc82 aebe
000000a0: aa18 7c3f 602e 4cbd c7f2 7d3e 3c41 f83e
000000b0: 0ee4 083f ecb3 ec3e 3c2f c1be f543 353e
000000c0: eec9 69bf e432 19bf 5000 9ebe 36db 3abf
000000d0: 1ed3 2f3f 30bd 17be 328f 4d3f f854 28bf
000000e0: cc8a c8be 006d c0bd 0a73 03bf ac1a 2cbf
000000f0: 68da 33bf 62b6 2a3f 80cf 33bf 48a3 dbbe

encoder.layers.0.nn.net.0.bias f4 [64]
-0.6699394 0.24639769 -0.9632906 -0.98745346 -0.5500169 0.2083236 0.75338614 0.6476046
0.39221257 -0.41772997 0.588637 0.12388129 0.13323867 0.03574395 0.62987554 -0.36207825
-0.19446331 0.49391901 -0.924195 -0.5663893 -0.9433136 -0.8445277 -0.68545175 0.89867765
-0.33080757 0.89185834 -0.5033827 0.016855668 -0.2643634 0.6314204 0.9558137 -0.65430474
-0.3303988 0.5192451 -0.16083062 -0.8022268 -0.43455625 0.28455997 0.4986168 -0.030801296
0.5914686 0.18313968 0.5182905 0.7302867 0.75071496 0.23021743 0.6177702 -0.56791705
0.83545566 -0.3722738 0.36270142 0.6425276 -0.66984135 -0.6904181 0.76573145 0.98911214
-0.05446565 -0.45564568 -0.59611 0.57929707 -0.07193124 -0.21190527 0.47600448 -0.42888844
00000000: 2681 2bbf ad4f 7c3e 369a 76bf c0c9 7cbf
00000010: e8cd 0cbf c852 553e eadd 403f 6ac9 253f
00000020: 16d0 c83e b4e0 d5be eab0 163f 79b5 fd3d
00000030: b86f 083e 4068 123d 863f 213f 5262 b9be
00000040: 6421 47be f4e2 fc3e 0b98 6cbf e4fe 10bf
00000050: 007d 71bf f832 58bf c479 2fbf bd0f 663f
00000060: 9c5f a9be d450 643f b0dd 00bf e614 8a3c
00000070: a45a 87be c4a4 213f 35b0 743f 8480 27bf
00000080: 082a a9be 3fed 043f c8b0 24be bc5e 4dbf
00000090: 287e debe d8b1 913e b44a ff3e 0053 fcbc
000000a0: 7c6a 173f f888 3b3e b0ae 043f 12f4 3a3f
000000b0: db2e 403f 1ebe 6b3e 3026 1e3f 0363 11bf
000000c0: 6ce0 553f ac9a bebe 00b4 b93e b07c 243f
000000d0: b97a 2bbf 3ebf 30bf fa06 443f 7436 7d3f
000000e0: 6017 5fbd 644a e9be aa9a 18bf d04c 143f
000000f0: b050 93bd b2fd 58be dcb6 f33e 4497 dbbe

encoder.layers.0.nn.net.2.weight f4 [64, 64]
-0.044376433 0.05415638 -0.064974606 -0.009413004 -0.036395535 -0.0149048865 0.030339837 0.038830698
0.040790863 -0.034869805 0.030779302 0.08541753 -0.10853851 0.06054087 -0.03927143 0.07075853
-0.09354644 0.06812456 0.02358027 -0.076000705 -0.00077204406 0.121868566 -0.11782578 0.09190471
-0.09870058 -0.09192225 -0.106058404 0.014253862 -0.003398776 0.023866981 -0.056632467 0.038845494
0.020644896 -0.07934269 -0.08366899 -0.05888678 -0.07494694 -0.081358716 -0.10902819 -0.09132779
-0.0030664224 0.09404898 -0.030534817 -0.036960427 0.029053984 0.017170185 0.037553713 -0.043812092
0.0699909 -0.09621838 0.105946705 -0.022959635 0.02360195 0.09102096 -0.093192734 -0.07661809
0.036790445 -0.00527215 -0.04886587 0.086398244 0.114415616 0.07164762 0.07438518 0.08217527
-0.059589893 -0.07670963 -0.06470406 0.036192194 -0.12024359 -0.006125331 -0.11281589 -0.034145847
-0.10832896 -0.08346273 0.021355718 0.05932549 -0.033226788 0.07596928 0.0068727434 0.046635896
0.080080524 0.08639989 0.050548892 -0.06010516 0.07174133 -0.050218344 0.056956798 -0.14383855
0.011027291 0.05688952 -0.05893302 -0.14246294 -0.049040124 -0.09517929 0.027605023 0.009484276
0.015679006 0.020739472 0.0217247 0.01925756 0.054974943 -0.016379163 0.10948332 0.08685644
0.0074313725 0.094575346 -0.05694378 0.041228037 -0.022329677 -0.13635771 -0.059665456 -0.03271098
0.0006285757 0.040649116 0.083342135 0.034038022 -0.1410831 -0.10009748 -0.14366463 0.07661095
0.06561291 0.109589085 -0.10346097 0.048501357 0.053610027 -0.015377334 0.05030328 -0.014613718
-0.08789155 -0.05481636 -0.10252599 0.03596428 0.018669294 0.053315476 -0.055042684 0.10787791
-0.005566466 0.0031344295 -0.027207687 0.08453862 0.07633133 0.0156485 -0.10096039 -0.10822942
-0.009150843 0.062163077 0.10906206 0.058256134 -0.10587208 0.08938736 -0.05385293 0.01363681
0.10376948 0.067691386 0.06901541 0.11027706 0.0855667 -0.0977696 -0.035734687 -0.03686817
-0.086360045 -0.027026057 0.024992898 -0.06653446 0.013600677 -0.060221955 0.077857584 0.05137825
0.07407691 0.035531983 -0.099686004 0.13010229 0.024910713 0.062810175 -0.04018277 0.12028121
0.07564895 0.052847266 0.06886101 -0.0026356876 -0.01724911 -0.054954484 -0.10234552 -0.11922054
0.08784376 -0.027856275 0.06038499 0.01296103 -0.08649495 0.055320874 0.07987507 -0.05171153
0.07528527 0.0077343746 0.12451918 -0.02586326 -0.07433903 -0.0044177175 0.072381556 0.07703997
0.014194323 0.11822592 -0.084586084 0.068632655 0.05615689 -0.070284426 -0.05914606 -0.061680112
-0.034319475 -0.0764769 0.09850832 0.040095672 -0.07735962 0.09327605 -0.007172048 -0.08946835
0.087604195 -0.026783226 0.044860423 0.026533587 -0.1049705 0.108388215 0.06401188 0.058569297
-0.061917078 0.0040386915 0.038646206 0.06575549 0.015229091 0.013864413 0.047240674 -0.09511505
0.09585545 0.0056298673 -0.089347824 0.119422294 0.10117266 0.074879184 0.01236327 -0.09430259
0.110040665 0.041884527 -0.11163233 0.11093037 0.028359992 -0.025908366 -0.049030535 -0.011168793
-0.07809794 0.12123226 0.042673945 -0.10854192 -0.032723904 0.080101535 -0.08143449 -0.00968717
00000000: 10c4 35bd 15d3 5d3d 6811 85bd 0039 1abc
00000010: 7c13 15bd a033 74bc 408b f83c f00c 1f3d
00000020: 5214 273d a4d3 0ebd e024 fc3c 63ef ae3d
00000030: 7049 debd b4f9 773d 14db 20bd d9e9 903d
00000040: 4795 bfbd e484 8b3d 692b c13c 42a6 9bbd
00000050: 0063 4aba 3a96 f93d a44e f1bd 8938 bc3d
00000060: 8823 cabd bc41 bcbd 2635 d9bd 0889 693c
00000070: 00be 5ebb b084 c33c 72f7 67bd 741c 1f3d
00000080: 7c1f a93c 6c7e a2bd a65a abbd 4433 71bd
00000090: c87d 99bd 669f a6bd 2c4a dfbd 100a bbbd
000000a0: 08f6 48bb c09c c03d 2724 fabc d163 17bd
000000b0: 9f02 ee3c 7da8 8c3c ecd1 193d 4f74 33bd
000000c0: 6457 8f3d 240e c5bd 96fa d83d d815 bcbc
000000d0: e058 c13c 3269 ba3d d5db bebd f2e9 9cbd
000000e0: 94b1 163d 00c2 acbb 9427 48bd 90f1 b03d
000000f0: bc52 ea3d fdbb 923d 4257 983d 824b a83d
00000100: 8814 74bd f019 9dbd 9083 84bd 443e 143d
00000110: 4542 f6bd 00b7 c8bb 040c e7bd 84dc 0bbd
00000120: 93db ddbd 82ee aabd 30f2 ae3c 49ff 723d
00000130: d018 08bd c895 9b3d c034 e13b 4805 3f3d
00000140: 4201 a43d 6df2 b03d 5b0c 4f3d d430 76bd
00000150: 1eed 923d c0b1 4dbd 884b 693d 6a4a 13be
00000160: d0ab 343c fc04 693d c063 71bd cee1 11be
00000170: 4cde 48bd 5ced c2bd ee23 e23c f063 1b3c
00000180: 4271 803c d3e5 a93c 00f8 b13c 08c2 9d3c
00000190: 682d 613d 982d 86bc ca38 e03d cae1 b13d
000001a0: df82 f33b b8b0 c13d e23d 69bd bbde 283d
000001b0: baec b6bc 5ba1 0bbe c463 74bd f3fb 05bd
000001c0: 00c7 243a b07f 263d 48af aa3d 746b 0b3d
000001d0: 1778 10be e8ff ccbd d21c 13be 34e6 9c3d
000001e0: 1060 863d 3e70 e03d 58e3 d3bd 5ca9 463d
000001f0: 3096 5b3d 37f1 7bbc d00a 4e3d 606e 6fbc
00000200: 7c00 b4bd 1f87 60bd 25f9 d1bd 484f 133d
00000210: 59f0 983c 5461 5a3d 7074 61bd 18ef dc3d
00000220: e766 b6bb 006b 4d3b a8e2 debc 9622 ad3d
00000230: 9a53 9c3d 4831 803c 52c4 cebd 63a7 ddbd
00000240: 6bed 15bc b69e 7e3d ee5b df3d fc9d 6e3d
00000250: 76d3 d8bd b810 b73d e494 5cbd ed6c 5f3c
00000260: 1885 d43d c8a1 8a3d f457 8d3d f0d8 e13d
00000270: 983d af3d 6e3b c8bd 895e 12bd 1403 17bd
00000280: 89dd b0bd c065 ddbc e8bd cc3c 3843 88bd
00000290: 60d5 5e3c 4cab 76bd cc73 9f3d 0072 523d
000002a0: a3b5 973d fc89 113d 2d28 ccbd 8939 053e
000002b0: 8d11 cc3c 9fa2 803d b096 24bd ff55 f63d
000002c0: d6ed 9a3d 6076 583d 0007 8d3d 80bb 2cbb
000002d0: 014e 8dbc f417 61bd 879a d1bd e629 f4bd
000002e0: 6ee7 b33d d832 e4bc 4056 773d 805a 543c
000002f0: 4424 b1bd 2498 623d 8a95 a33d 78cf 53bd
00000300: 2a2f 9a3d a370 fd3b e903 ff3d 30df d3bc
00000310: 103f 98bd 80c2 90bb c83c 943d 22c7 9d3d
00000320: 4e8f 683c 6e20 f23d 783b adbd 478f 8c3d
00000330: c404 663d 48f1 8fbd 2443 72bd 49a4 7cbd
00000340: 9492 0cbd ec9f 9cbd bbbe c93d 5c3b 243d
00000350: b86e 9ebd 8407 bf3d 8003 ebbb 2f3b b7bd
00000360: d469 b33d 7f68 dbbc 90bf 373d f75c d93c
00000370: c6fa d6bd a4fa dd3d a918 833d 5ce6 6f3d
00000380: c39c 7dbd 0057 843b 7c4b 1e3d d0aa 863d
00000390: 7083 793c 9027 633c 707f 413d aecb c2bd
000003a0: dd4f c43d c07a b83b fefb b6bd ad93 f43d
000003b0: 9d33 cf3d 425a 993d 508f 4a3c b721 c1bd
000003c0: 005d e13d 1c8f 2b3d 7e9f e4bd 762f e33d
000003d0: 3753 e83c c83d d4bc 3ed4 48bd 50fd 36bc
000003e0: d0f1 9fbd 9e48 f83d e0ca 2e3d 3a4b debd
000003f0: 8009 06bd 460c a43d 20c7 a6bd f0b6 1ebc

encoder.layers.0.nn.net.2.bias f4 [64]
-0.05694773 0.04639794 0.05687712 -0.028972303 -0.093766354 0.122967094 0.008716717 -0.018910946
0.0723526 -0.008037134 -0.123039745 0.09619791 -0.11774282 -0.021156734 0.056970794 -0.07979591
0.06860729 0.10552167 -0.060267817 -0.069955826 0.08548877 -0.014030033 0.053551707 0.018642193
-0.039585818 0.07388288 0.011412309 0.09731853 0.02164104 0.012540363 -0.02335893 -0.033540886
-0.028364291 0.016316703 -0.02991747 0.020083955 0.021341782 -0.07219563 0.011151715 0.0998189
0.026441598 0.09432836 -0.03126048 -0.018163716 0.119728684 -0.014134126 -0.114139326 0.09446442
-0.039568163 0.023959845 -0.0953409 -0.009346225 0.046159834 -0.124517664 0.06618812 -0.00074647396
-0.10016539 0.111978285 -0.053423993 -0.040332116 0.027030177 0.040908188 -0.069988735 0.08856037
00000000: 0642 69bd c40b 3e3d fcf7 683d 5357 edbc
00000010: 9308 c0bd 2cd6 fb3d 90d0 0e3c 21eb 9abc
00000020: 9a2d 943d 2fae 03bc 43fc fbbd 6903 c53d
00000030: 2623 f1bd e350 adbc 355a 693d 0a6c a3bd
00000040: fb81 8c3d bf1b d83d 63db 76bd 0045 8fbd
00000050: bc14 af3d 39de 65bc 0959 5b3d 83b7 983c
00000060: bd24 22bd e84f 973d b1fa 3a3c f04e c73d
00000070: 8d48 b13c 1876 4d3c 3a5b bfbc 2b62 09bd
00000080: 3b5c e8bc 9baa 853c 7b15 f5bc 1b87 a43c
00000090: f6d4 ae3c 4ddb 93bd afb5 363c da6d cc3d
000000a0: 0d9c d83c 3a2f c13d fd0a 00bd 13cc 94bc
000000b0: 5034 f53d d292 67bc e1c1 e9bd 9076 c13d
000000c0: 3a12 22bd 7047 c43c 1742 c3bd e920 19bc
000000d0: 1812 3d3d 1e03 ffbd a38d 873d 05af 43ba
000000e0: 8323 cdbd df54 e53d 1ed3 5abd 4a33 25bd
000000f0: 646e dd3c 588f 273d 4156 8fbd 245f b53d

encoder.layers.1.nn.net.0.weight f4 [64, 64]
-0.07186662 -0.05964821 0.03556886 -0.085690275 0.072967656 0.078903146 0.082558535 -0.089853585
-0.08468976 0.0394667 0.03514804 0.11953478 0.03321253 0.008232534 0.048877362 -0.056647047
-0.1338942 0.07749455 -0.09748052 0.05893376 0.030462325 -0.1104857 -0.12450131 0.12883253
-0.109697565 0.1175363 -0.09645031 0.11913338 0.033925254 -0.013321115 0.034239795 0.028999012
0.0788627 -0.116551295 -0.017308755 0.11716157 0.11764085 -0.005994143 0.028312841 0.08353991
0.06823287 -0.14419478 0.048298534 0.024714408 0.03642909 0.0004791496 0.03144102 0.02713929
0.00325987 0.049027067 -0.10272207 -0.15014173 -0.14178085 0.024531627 0.06979873 -0.0958761
0.09221686 -0.07125889 -0.09021219 0.06855556 -0.036583465 -0.054921538 -0.06224012 -0.11168393
0.016488738 0.083750494 0.02495908 -0.06858302 0.09526837 -0.05063065 0.11766128 0.07872039
-0.10026793 -0.011990038 -0.06529526 -0.03388462 0.090698555 0.050770372 -0.074080296 0.031590205
0.046960212 0.041038975 -0.06426014 0.015468985 -0.114415474 0.109577276 -0.06124218 0.09270674
0.10815384 -0.10075973 0.06918591 0.0993117 0.13246082 0.003723312 -0.09407171 -0.007034585
-0.110119894 -0.0710968 0.0054406566 0.044788398 -0.017213995 -0.04942697 -0.010265141 0.048525814
0.0455205 0.066488914 -0.07267007 0.10355263 0.02145655 -0.030764367 0.020581895 0.0915903
0.017120259 0.04237928 0.05603983 0.065823115 -0.11358951 -0.07061242 0.019979969 -0.08589732
-0.02557672 0.06915911 0.07567363 0.07435213 0.016372185 0.11176417 0.036932625 -0.10001191
0.035584506 -0.1377731 0.10034996 -0.028582726 0.019798368 -0.022860682 0.11816656 -0.04862263
-0.12295285 -0.1325815 0.054833397 0.037749324 0.1417899 -0.18114044 0.010883087 -0.08132431
-0.110524476 0.07210414 0.0021745535 0.026125932 0.0778735 -0.07374531 0.0062740357 -0.013970901
0.035211634 -0.062284417 -0.077464685 -0.00046224467 0.03379538 0.114995636 -0.0067632054 -0.10690117
0.079346895 0.08855201 -0.118599564 -0.0020864676 -0.07838248 -0.037312374 -0.078783795 0.07570176
0.037104227 0.010442555 0.03454494 -0.031189367 -0.08892453 -0.15252636 0.051664308 0.06615627
-0.09809809 -0.17710117 -0.12944096 -0.027843473 -0.14384052 -0.0863357 -0.07326411 -0.040358387
-0.117461614 0.08565614 -0.0054749846 -0.088328145 0.100755 0.05825962 0.047130696 0.014818832
-0.06384726 -0.113631494 0.029513218 -0.04152371 0.014654057 0.0670872 0.110204935 0.00076174544
-0.110735595 -0.0329481 0.013875972 0.089306936 0.07634277 0.1039253 0.024173433 0.041702334
0.018004596 -0.037318517 -0.02533666 0.023980508 0.008667162 0.09502338 -0.083440505 0.12627026
0.07841323 0.11959056 -0.021132752 0.030241437 0.037475973 -0.082679816 0.05327889 -0.007678008
0.07379689 -0.11326625 -0.08256408 0.016418656 0.1126979 -0.1120097 -0.09495494 0.067667104
-0.11053464 0.07718073 0.011898113 -0.07082013 -0.041438445 -0.117210075 -0.10635308 -0.10195363
0.052529186 -0.07181735 0.010571968 -0.05833976 -0.091016926 0.10885047 -0.03511983 -0.023328094
0.121667795 0.07308267 0.0048066434 0.09586096 -0.058898233 -0.06939138 -0.072634235 -0.07924393
00000000: ce2e 93bd ae51 74bd a7b0 113d 627e afbd
00000010: 1170 953d f997 a13d 7314 a93d 2805 b8bd
00000020: d371 adbd d6a7 213d 64f7 0f3d a7ce f43d
00000030: dd09 083d c0e1 063c a133 483d bc06 68bd
00000040: 901b 09be 76b5 9e3d dea3 c7bd 8764 713d
00000050: 208c f93c 5446 e2bd 8bfa febd adec 033e
00000060: 1ea9 e0bd dfb6 f03d bd87 c5bd 34fc f33d
00000070: 35f5 0a3d ce40 5abc 073f 0c3d 568f ed3c
00000080: c482 a13d 72b2 eebd 17cb 8dbc 68f2 ef3d
00000090: b0ed f03d 846a c4bb 55f0 e73c f916 ab3d
000000a0: adbd 8b3d cca7 13be afd4 453d df75 ca3c
000000b0: ab36 153d 5f36 fb39 4dc8 003d 3753 de3c
000000c0: 8ba3 553b 9bd0 483d f35f d2bd c1be 19be
000000d0: 002f 11be 8df6 c83c a3f2 8e3d b05a c4bd
000000e0: 31dc bc3d 2ef0 91bd 2bc1 b8bd dc66 8c3d
000000f0: 8bd8 15bd 68f5 60bd 7fef 7ebd 8bba e4bd
00000100: 6413 873c 6185 ab3d fc76 cc3c 4175 8cbd
00000110: 101c c33d 1662 4fbd 66f8 f03d 2838 a13d
00000120: 4659 cdbd dd71 44bc 85b9 85bd 99ca 0abd
00000130: 2ac0 b93d 98f4 4f3d 69b7 97bd bb64 013d
00000140: 5a59 403d 7c18 283d d29a 83bd a071 7d3c
00000150: a952 eabd 0d6a e03d 15d9 7abd 08dd bd3d
00000160: c37f dd3d 1e5b cebd 58b1 8d3d ef63 cb3d
00000170: cfa3 073e cf02 743b aba8 c0bd 6082 e6bb
00000180: 8a86 e1bd 339b 91bd 8947 b23b 0a74 373d
00000190: 5d04 8dbc ef73 4abd 1f2f 28bc 01c3 463d
000001a0: b473 3a3d 572b 883d 0cd4 94bd 6713 d43d
000001b0: a6c5 af3c 8e05 fcbc 5d9b a83c b293 bb3d
000001c0: c93f 8c3c e595 2d3d 058a 653d 45ce 863d
000001d0: 9ea1 e8bd 3f9d 90bd 08ad a33c efea afbd
000001e0: 4586 d1bc 4ba3 8d3d c7fa 9a3d ee45 983d
000001f0: f61e 863c 9de4 e43d aa46 173d 0bd3 ccbd
00000200: 0fc1 113d 6414 0dbe 4884 cd3d 5226 eabc
00000210: 3030 a23c 5346 bbbc 4f01 f23d 8628 47bd
00000220: b4ce fbbd 72c3 07be fc98 603d 099f 1a3d
00000230: 5f31 113e e17c 39be fa4e 323c 5c8d a6bd
00000240: a85a e2bd 56ab 933d f482 0e3b 0d06 d63c
00000250: 247c 9f3d c807 97bd 6d96 cd3b 35e6 64bc
00000260: 133a 103d f21d 7fbd cea5 9ebd 6e59 f2b9
00000270: 066d 0a3d d582 eb3d e19d ddbb 00ef dabd
00000280: a080 a23d c25a b53d 54e4 f2bd 1ebd 08bb
00000290: fe86 a0bd dcd4 18bd 6659 a1bd 8609 9b3d
000002a0: 9afa 173d 4017 2b3c ff7e 0d3d d880 ffbc
000002b0: 101e b6bd df2f 1cbe f49d 533d f07c 873d
000002c0: a7e7 c8bd 025a 35be 2c8c 04be ff17 e4bc
000002d0: ee4a 13be c5d0 b0bd 7e0b 96bd d64e 25bd
000002e0: b78f f0bd 7d6c af3d 8067 b3bb 63e5 b4bd
000002f0: a358 ce3d a4a1 6e3d 1e0c 413d b0ca 723c
00000300: 5ac2 82bd a1b7 e8bd b4c5 f13c c414 2abd
00000310: 9217 703c 0465 893d 20b3 e13d dfaf 473a
00000320: 58c9 e2bd 96f4 06bd 0b58 633c 8ee6 b63d
00000330: 9959 9c3d cad6 d43d 5d07 c63c 11d0 2a3d
00000340: 607e 933c 4ddb 18bd d48e cfbc c572 c43c
00000350: b600 0e3c 9e9b c23d dbe2 aabd fe4c 013e
00000360: 1e97 a03d e5eb f43d 981e adbc e4bc f73c
00000370: 6880 193d 0954 a9bd f73a 5a3d cd97 fbbb
00000380: d322 973d 23f8 e7bd 5b17 a9bd 6b80 863c
00000390: 28ce e63d 5765 e5bd bc77 c2bd 0d95 8a3d
000003a0: fc5f e2bd ee10 9e3d 4ef0 423c 250a 91bd
000003b0: 5cbb 29bd d60b f0bd a5cf d9bd 11cd d0bd
000003c0: d828 573d fa14 93bd 0c36 2d3c acf5 6ebd
000003d0: 1567 babd ffec de3d d0d9 0fbd 8f1a bfbc
000003e0: f72c f93d 5eac 953d 0c81 9d3b c052 c43d
000003f0: 463f 71bd 111d 8ebd 42c1 94bd a44a a2bd

encoder.layers.1.nn.net.0.bias f4 [64]
0.12941474 0.059509277 -0.10119195 -0.06641347 -0.0906357 0.061798714 0.11899233 -0.05369272
0.080412 -0.057960242 0.1317329 0.11129221 0.12797801 -0.040638264 -0.050571524 0.011327669
0.09979505 0.097677246 0.10310724 -0.12051554 0.12214045 -0.08357705 -0.06725579 0.0053505474
0.06373727 -0.08899143 -0.094116695 -0.038747206 0.091960624 -0.08434009 -0.082281575 0.09701724
0.1151135 -0.11773751 0.04980263 -0.11917195 -0.022958752 -0.12227329 0.024194673 0.09276295
0.072007075 -0.095393166 -0.028854135 0.1321741 -0.030721355 -0.07829264 -0.022969054 0.038312245
-0.1033787 -0.03704893 0.066534385 0.0052861907 0.050650064 0.0043916963 -0.058250695 0.09921615
-0.1189206 0.07814079 0.03123948 0.05880115 0.029035166 -0.034134354 0.07760327 0.029767692
00000000: 4c85 043e 00c0 733d ba3d cfbd c903 88bd
00000010: 369f b9bd a620 7d3d 40b2 f33d e6ec 5bbd
00000020: 0caf a43d b867 6dbd fde4 063e 2ced e33d
00000030: ab0c 033e 4f74 26bd 1624 4fbd b097 393c
00000040: 5961 cc3d 020b c83d e329 d33d dad0 f6bd
00000050: c624 fa3d 722a abbd 67bd 89bd a553 af3b
00000060: b088 823d 2441 b6bd 41c0 c0bd 64b5 1ebd
00000070: da55 bc3d 7fba acbd 3e83 a8bd fab0 c63d
00000080: a0c0 eb3d 5d20 f1bd d8fd 4b3d 6c10 f4bd
00000090: fe13 bcbc 6b6a fabd e833 c63c 80fa bd3d
000000a0: 7278 933d 7e5d c3bd 825f ecbc a658 073e
000000b0: 5aab fbbc e457 a0bd 9929 bcbc 4ded 1c3d
000000c0: 36b8 d3bd 9ec0 17bd 2e43 883d c837 ad3b
000000d0: 7176 4f3d 38e8 8f3b 4898 6ebd d631 cb3d
000000e0: a58c f3bd 4708 a03d f0e9 ff3c 7ad9 703d
000000f0: 28db ed3c 77d0 0bbd 77ee 9e3d 60db f33c

encoder.layers.1.nn.net.2.weight f4 [64, 64]
-0.034894973 -0.036262397 -0.06840982 0.049990967 -0.014931786 0.15369916 0.0757914 -0.040182836
0.025364868 -0.073247716 -0.11102799 0.055054765 0.09793541 -0.032851025 -0.001237222 -0.089635976
-0.04587213 0.116811596 0.06634473 0.09421301 -0.03113732 0.021903366 0.02787233 0.08933777
0.11205345 0.03426076 -0.059447773 0.021444203 0.08761245 -0.10925275 -0.023982225 -0.08914123
0.1194013 0.05135236 0.057503276 -0.050050884 -0.051583484 -0.066250615 0.10953061 0.0013159559
0.011258714 0.050311293 -0.04270079 0.0930736 -0.07637555 -0.061002567 0.094102345 -0.104076356
-0.085956536 -0.0623803 -0.07511248 -0.0685663 -0.029572358 0.102688394 0.09955187 0.08117533
0.08885387 0.007958789 -0.03991147 0.04690922 -0.03570383 0.06506598 0.13594648 -0.086547196
0.022250019 0.016219236 0.06658112 -0.12944895 -0.044881918 -0.08965975 0.05217051 0.029398976
-0.060745947 0.01094605 0.0010929938 -0.024146104 -0.024072103 0.04468994 0.0170092 -0.008565908
0.03228166 -0.111349106 -0.07506717 -0.08172862 0.021230046 0.07554661 -0.08260364 -0.056118425
-0.009481859 -0.10055039 0.105236255 0.10096221 0.08891695 -0.069733545 0.12557003 0.116862334
-0.09752421 -0.02069249 0.10468402 -0.12394793 0.06509232 0.08175977 0.08208449 0.006812727
-0.025152598 -0.050508935 0.023441123 0.011348758 0.08736143 -0.09000159 -0.038775228 0.07979279
0.06636442 -0.050716165 -0.05456636 0.1080875 -0.11118256 0.091840275 -0.018366322 -0.100389816
0.07923338 0.08304795 -0.084340416 0.03739163 -0.085772626 0.047557123 0.1261417 -0.019326009
0.027628226 0.0016802559 0.055047482 0.12405582 0.04717753 -0.033867635 -0.04948308 -0.09173962
-0.11001988 -0.08848432 0.07437494 -0.08941281 -0.0107651 0.097720735 -0.07738479 -0.033013538
-0.0032017545 -0.029287368 0.0070200614 0.106015384 0.060813617 -0.011313796 0.058230758 0.06566338
-0.051253866 0.048048045 -0.110616714 -0.09620476 -0.101928785 0.020999268 -0.0548291 -0.09327259
-0.042956006 0.0075325198 0.027457783 0.092500806 0.058606163 -0.028816622 0.040874235 0.07392101
-0.055118952 -0.08949268 -0.06612426 0.101926886 0.09575034 0.118519925 -0.11753502 -0.005548893
-0.0724013 -0.0021613487 0.081824996 -0.09124648 -0.019870404 0.056802068 0.00029076284 -0.06733288
-0.027035965 -0.08281184 0.072569855 -0.09043328 -0.028685465 0.054277785 -0.041044366 0.093084835
-0.027072495 0.023139367 0.09379864 -0.021223163 -0.044940304 -0.100280486 0.047327343 -0.10198682
0.052915767 -0.006745577 0.06054262 -0.068110846 -0.102007 -0.011729648 0.0067139133 -0.017064858
0.0145269 -0.018347777 0.06775084 0.06820312 0.023228291 -0.08986744 0.070335776 -0.04268683
0.031322524 0.023814268 0.067507505 0.070905864 -0.0011205749 -0.119950786 -0.11454918 -0.082563415
-0.09717596 -0.027903307 -0.108579755 -0.05920793 -0.051744863 0.07802308 0.07728667 0.016926281
-0.10860487 -0.04501118 0.011062072 -0.050747767 -0.107544184 -0.09295758 -0.036616083 0.016484888
-0.10973588 0.03070025 -0.040162805 0.082525685 -0.023802638 0.039907664 0.11075831 -0.12205133
-0.06441584 0.1482936 -0.028243903 0.12573457 -0.009782866 0.11018376 0.11072463 0.10757391
00000000: 08ee 0ebd e187 14bd 731a 8cbd 54c3 4c3d
00000010: 73a4 74bc 5063 1d3e 8638 9b3d c296 24bd
00000020: fcc9 cf3c e602 96bd a562 e3bd 1b81 613d
00000030: 5c92 c83d cc8e 06bd 482a a2ba 1193 b7bd
00000040: 6ae4 3bbd eb3a ef3d bfdf 873d c0f2 c03d
00000050: b113 ffbc b06e b33c 8354 e43c b9f6 b63d
00000060: 477c e53d 0355 0c3d 827f 73bd c1ab af3c
00000070: 286e b33d e8bf dfbd 5f76 c4bc ad8f b6bd
00000080: ab88 f43d da56 523d 8e88 6b3d 2802 4dbd
00000090: 3449 53bd 67ae 87bd 9651 e03d 277c ac3a
000000a0: 7876 383c 3713 4e3d 06e7 2ebd 5f9d be3d
000000b0: c96a 9cbd d4dd 79bd bbb8 c03d fc25 d5bd
000000c0: fb09 b0bd 7c82 7fbd 92d4 99bd 7d6c 8cbd
000000d0: bb41 f2bc 4b4e d23d dae1 cb3d 403f a63d
000000e0: 05f9 b53d 9565 023c 367a 23bd e223 403d
000000f0: 2e3e 12bd 5041 853d 8e35 0b3e a83f b1bd
00000100: ac45 b63c 34de 843c af5b 883d 448e 04be
00000110: 1ad6 37bd 889f b7bd bfb0 553d 1fd6 f03c
00000120: bed0 78bd 1057 333c c942 8f3a 0dce c5bc
00000130: dc32 c5bc cc0c 373d e156 8b3c 0658 0cbc
00000140: c639 043d 000b e4bd d1bc 99bd 5661 a7bd
00000150: a2ea ad3c 2eb8 9a3d 192c a9bd 6fdc 65bd
00000160: cd59 1bbc 5ded cdbd 1b86 d73d 46c5 ce3d
00000170: 171a b63d 76d0 8ebd 6e95 003e 8555 ef3d
00000180: c6ba c7bd 4c83 a9bc 9364 d63d 6ad8 fdbd
00000190: 1f4f 853d ab71 a73d ea1b a83d 4c3d df3b
000001a0: d20c cebc 75e2 4ebd 9907 c03c 24f0 393c
000001b0: 8dea b23d c152 b8bd c6d2 1ebd 676a a33d
000001c0: 12ea 873d c1bb 4fbd fa80 5fbd fb5c dd3d
000001d0: afb3 e3bd c116 bc3d f874 96bc 2d99 cdbd
000001e0: 1c45 a23d 0b15 aa3d abba acbd f727 193d
000001f0: 8fa9 afbd 42cb 423d 4a2b 013e 9451 9ebc
00000200: 9754 e23c 083c dc3a 7879 613d fa10 fe3d
00000210: 3a3d 413d cab8 0abd c5ae 4abd fbe1 bbbd
00000220: 1a52 e1bd 4437 b5bd e351 983d 101e b7bd
00000230: 1a60 30bc cf21 c83d eb7b 9ebd 3439 07bd
00000240: 87d4 51bb 10ec efbc 8b08 e63b 981e d93d
00000250: b317 793d 805d 39bc 6083 6e3d 867a 863d
00000260: 93ef 51bd 07ce 443d 048b e2bd 0007 c5bd
00000270: 0ac0 d0bd a806 ac3c 7a94 60bd b305 bfbd
00000280: a3f2 2fbd 5bd3 f63b 25ef e03c 1071 bd3d
00000290: 040d 703d d610 ecbc be6b 273d e663 973d
000002a0: 69c4 61bd f047 b7bd 286c 87bd 0bbf d03d
000002b0: c118 c43d 93ba f23d 33b6 f0bd 7dd3 b5bb
000002c0: 2247 94bd 6aa5 0dbb dd93 a73d 6fdf babd
000002d0: 42c7 a2bc 49a9 683d 8771 9839 d2e5 89bd
000002e0: 877a ddbc 4199 a9bd 819f 943d 1535 b9bd
000002f0: c8fd eabc 6252 5e3d 231e 28bd 43a3 be3d
00000300: 23c7 ddbc c58e bd3c 8019 c03d 33dc adbc
00000310: 5313 38bd db5f cdbd 51da 413d 77de d0bd
00000320: 34be 583d 000a ddbb 8afb 773d b37d 8bbd
00000330: 0ce9 d0bd b62d 40bc 6300 dc3b 9acb 8bbc
00000340: 3c02 6e3c 144e 96bc f4c0 8a3d 14ae 8b3d
00000350: 4249 be3c 6c0c b8bd 340c 903d 63d8 2ebd
00000360: 0c4c 003d 2416 c33c 6041 8a3d 1837 913d
00000370: 41e0 92ba c2a8 f5bd c398 eabd 0217 a9bd
00000380: 3104 c7bd 7a95 e4bc 105f debd 0484 72bd
00000390: 6cf2 53bd 91ca 9f3d 7948 9e3d fca8 8a3c
000003a0: 3b6c debd a55d 38bd b13d 353c e4dc 4fbd
000003b0: 2040 dcbd 8b60 bebd bffa 15bd 510b 873c
000003c0: 34bd e0bd 177f fb3c c181 24bd 3a03 a93d
000003d0: c0fd c2bc 3876 233d 41d5 e23d 0cf6 f9bd
000003e0: 74ec 83bd 47da 173e c25f e7bc 90c0 003e
000003f0: 5048 20bc 06a8 e13d 98c3 e23d b64f dc3d

encoder.layers.1.nn.net.2.bias f4 [64]
0.011108952 0.071766205 0.020020347 -0.07402292 -0.11045357 0.06741294 -0.034864772 0.023062762
-0.019202363 -0.1135077 -0.09385695 0.07728919 -0.099442676 -0.031210663 -0.09037301 -0.059909742
0.10833365 0.02478158 -0.061447076 -0.051354427 -0.011869709 0.038375266 0.090590455 -0.0007869293
-0.092973106 0.008805763 0.033240154 -0.107200295 0.07716527 0.007842936 -0.0070025683 0.07319184
-0.07618271 0.040281214 -0.055390317 -0.012855994 -0.09831549 0.04431217 -0.119475916 0.010750685
-0.11378721 -0.10099532 0.10219005 -0.07938741 0.028360233 -0.039303984 -0.113539346 0.10252792
-0.0016824366 -0.036281567 -0.09805179 -0.09243608 -0.07430801 -0.11376723 -0.10243935 0.008133159
-0.07069733 0.051057454 0.0012026132 0.007824569 -0.104086146 0.07874721 0.07434013 0.051176418
00000000: 5202 363c 29fa 923d b601 a43c 5499 97bd
00000010: 7b35 e2bd cc0f 8a3d 5dce 0ebd 1eee bc3c
00000020: 464e 9dbc ba76 e8bd 1338 c0bd cb49 9e3d
00000030: 9aa8 cbbd 81ad ffbc 7c15 b9bd eb63 75bd
00000040: 08de dd3d bd02 cb3c eeaf 7bbd 0559 52bd
00000050: 2b79 42bc 622f 1d3d 7d87 b93d ee49 4eba
00000060: af68 bebd 0c46 103c d426 083d d48b dbbd
00000070: d308 9e3d a87f 003c cd75 e5bb 9ae5 953d
00000080: ae05 9cbd eafd 243d f5e0 62bd f2a1 52bc
00000090: a259 c9bd ae80 353d caaf f4bd a423 303c
000000a0: 4509 e9bd a2d6 cebd 0449 d13d de95 a2bd
000000b0: b853 e83c 37fd 20bd 5187 e8bd 28fa d13d
000000c0: 3485 dcba fb9b 14bd 60cf c8bd 214f bdbd
000000d0: cc2e 98bd cbfe e8bd b9cb d1bd f140 053c
000000e0: c3c9 90bd 9f21 513d 01a1 9d3a 9f32 003c
000000f0: 1e2b d5bd 3846 a13d a33f 983d 5d9e 513d

encoder.layers.2.nn.net.0.weight f4 [64, 64]
0.05355749 -0.1012293 0.053613536 0.10461662 0.11249247 -0.053519364 -0.05457167 -0.02318853
-0.06893574 0.10976827 -0.07123782 0.02268502 -0.010016522 0.07050202 0.115250565 -0.08608903
0.1251772 0.12834974 0.15135972 0.10360699 0.029697666 0.065697104 -0.062045883 -0.0052570323
0.00052748196 0.04073306 0.06811014 0.035262696 -0.10510291 -0.09285367 0.06989719 0.0039712144
0.033681773 0.14797017 -0.023189323 0.055938486 0.11771608 0.10612579 -0.014589436 -0.0757615
0.08955287 0.14362635 0.031828195 -0.08617493 -0.020739457 -0.044373214 0.019612746 0.07499713
-0.02554198 -0.053838532 0.09550804 -0.087621704 -0.12036667 -0.02682546 0.10962982 0.029488662
0.0036335178 -0.07252569 -0.1267762 -0.0834474 0.007761752 0.103647165 -0.0030234107 -0.09186767
0.10348758 0.11582818 0.068864726 -0.01065908 0.04973412 0.0875019 -0.05985648 0.14608242
0.09123797 0.08480147 -0.004046792 -0.16074175 -0.099296495 -0.08942744 -0.04242092 -0.11414786
0.13906194 0.033667237 0.13488422 -0.0998653 -0.13526316 -0.112121336 -0.036982317 -0.09456399
0.08140149 -0.09392905 -0.084666006 0.0261858 -0.055451497 0.0024670125 0.15859047 0.16372989
-0.014548362 0.05425749 0.15796289 -0.093727104 -0.04539682 0.09935862 0.061123386 -0.13824263
0.04187561 0.01497187 -0.064607784 -0.040016536 -0.058530994 -0.040277466 -0.032251544 -0.16585536
0.054848444 0.03733111 -0.05755573 -0.096039206 0.03826065 -0.0876871 0.07504391 0.038322613
-0.15254605 -0.1680655 0.018022696 -0.08117182 -0.1087829 0.055247575 -0.09753839 -0.06371596
0.008011291 0.06662377 -0.12654972 0.10521304 -0.019127453 0.068024196 0.042490285 0.01933964
0.07987045 -0.08030138 0.0441455 0.03754601 -0.10344726 -0.023251243 0.033222217 0.008162986
0.1675477 0.032850306 0.12277155 -0.011614442 0.011044973 0.07899827 -0.015260783 0.047871724
0.13424966 -0.097884364 -0.03625848 -0.10822676 0.027274808 0.068286374 0.012689388 0.07514959
-0.039236773 0.1675114 0.031687196 0.10681822 0.013490329 0.16349398 0.047727343 -0.080864266
-0.12982966 0.07102662 0.07417048 -0.071784 -0.008355078 -0.07030207 -0.09104324 -0.120690756
-0.027210152 0.09225792 0.10437956 0.008865774 0.122570306 -0.114565775 0.15642849 0.1587542
-0.03054139 0.11450215 -0.0032596982 -0.047954414 0.11327132 -0.05145747 -0.008086281 -0.04455078
-0.011433067 -0.05813886 0.040023435 -0.026432475 -0.042193223 0.03779541 0.09747372 -0.010186859
0.012176633 -0.0038201725 0.05455479 -0.031617668 -0.120877974 0.09331383 -0.028921712 -0.024435097
0.110822156 -0.120700166 -0.06990578 -0.067355074 0.13258219 0.0826281 0.015348006 -0.0652552
-0.04799089 0.1058327 -0.07983637 -0.00848241 -0.03533649 -0.077437855 -0.10029465 0.06363855
0.07031622 -0.10316082 -0.042532958 -0.09523752 0.0007734154 -0.008643481 -0.0794972 -0.048975606
-0.040673267 -0.04081973 0.13501292 0.037296116 0.07565964 -0.09006702 -0.106217116 -0.005720693
0.0660265 0.06698653 0.13538751 -0.04888415 0.052670427 -0.08691472 -0.0782516 -0.0004813559
0.031659704 -0.015020371 0.09196677 0.07762861 -0.061121415 0.032705285 -0.03696244 -0.030632766
00000000: 195f 5b3d 4f51 cfbd de99 5b3d 3d41 d63d
00000010: 7462 e63d 1f37 5bbd 8b86 5fbd dff5 bdbc
00000020: 2e2e 8dbd 30ce e03d 22e5 91bd efd5 b93c
00000030: 571c 24bc 5d63 903d 7d08 ec3d 724f b0bd
00000040: 742e 003e 1d6e 033e 0bfe 1a3e e72f d43d
00000050: 8548 f33c 348c 863d d323 7ebd 2f43 acbb
00000060: b746 0a3a b6d7 263d 547d 8b3d 9e6f 103d
00000070: 3240 d7bd 112a bebd 4226 8f3d f620 823b
00000080: e6f5 093d 7e85 173e 89f7 bdbc c11f 653d
00000090: 2115 f13d 7a58 d93d 8808 6fbc d828 9bbd
000000a0: 7f67 b73d c912 133e 485e 023d 7b7c b0bd
000000b0: cbe5 a9bc b0c0 35bd e9aa a03c 1898 993d
000000c0: 6a3d d1bc cb85 5cbd b899 c33d 0273 b3bd
000000d0: cd82 f6bd 11c1 dbbc 9985 e03d 3592 f13c
000000e0: 5020 6e3b 5988 94bd 9fd1 01be 78e6 aabd
000000f0: 4b56 fe3b f744 d43d 6a24 46bb 1e25 bcbd
00000100: 4cf1 d33d 5337 ed3d f308 8d3d 6ca3 2ebc
00000110: 01b6 4b3d 3234 b33d 122c 75bd a196 153e
00000120: f9da ba3d 65ac ad3d f49a 84bb 7c99 24be
00000130: f65b cbbd bc25 b7bd 8fc1 2dbd 5ac6 e9bd
00000140: 4166 0e3e a8e6 093d 171f 0a3e 2e86 ccbd
00000150: 6d82 0abe df9f e5bd c57a 17bd c4aa c1bd
00000160: d3b5 a63d e05d c0bd 5f65 adbd 9a83 d63c
00000170: 1c21 63bd 9aad 213b 8a65 223e cfa8 273e
00000180: 415c 6ebc 1a3d 5e3d 06c1 213e fff3 bfbd
00000190: 04f2 39bd 887c cb3d 845c 7a3d 7a8f 0dbe
000001a0: c285 2b3d 934c 753c 1651 84bd 61e8 23bd
000001b0: 32be 6fbd fcf9 24bd 321a 04bd fdd5 29be
000001c0: c3a8 603d 82e8 183d 8fbf 6bbd 34b0 c4bd
000001d0: 33b7 1c3d 4b95 b3bd 9fb0 993d 2cf8 1c3d
000001e0: 0835 1cbe 5d19 2cbe 55a4 933c 693d a6bd
000001f0: 92c9 debd 484b 623d 35c2 c7bd 837d 82bd
00000200: ca41 033c 0b72 883d 4096 01be ef79 d73d
00000210: 2db1 9cbc 4550 8b3d 4b0a 2e3d 2a6e 9e3c
00000220: 1e93 a33d 0d75 a4bd e9d1 343d d8c9 193d
00000230: 28dc d3bd 6479 bebc 0514 083d 0bbe 053c
00000240: a091 2b3e 0b8e 063d a76f fb3d 804a 3ebc
00000250: f9f5 343c d8c9 a13d 5d08 7abc 2415 443d
00000260: be78 093e 9977 c8bd c683 14bd fea5 ddbd
00000270: 6b6f df3c bad9 8b3d 27e7 4f3c 07e8 993d
00000280: bdb6 20bd 1c88 2b3e 6fca 013d 83c3 da3d
00000290: 8a06 5d3c f76a 273e bf7d 433d 2a9c a5bd
000002a0: 11f2 04be 6876 913d b1e6 973d 7d03 93bd
000002b0: bde3 08bc 88fa 8fbd e174 babd b72c f7bd
000002c0: d3e7 debc b8f1 bc3d f3c4 d53d c041 113c
000002d0: 2406 fb3d 76a1 eabd ca2e 203e 7690 223e
000002e0: f031 fabc 1a80 ea3d a9a0 55bb d96b 44bd
000002f0: cbfa e73d 11c5 52bd 527c 04bc e17a 36bd
00000300: c251 3bbc 0323 6ebd 9def 233d eb88 d8bc
00000310: cdd2 2cbd 5ccf 1a3d 4da0 c73d c9e6 26bc
00000320: 8080 473c dc5b 7abb d874 5f3d 8781 01bd
00000330: df8e f7bd 521b bf3d 3aed ecbc 1d2c c8bc
00000340: baf6 e23d a631 f7bd c32a 8fbd 75f1 89bd
00000350: a0c3 073e ec38 a93d 3476 7b3c 85a4 85bd
00000360: 1892 44bd d1be d83d 4081 a3bd cef9 0abc
00000370: ffbc 10bd bd97 9ebd 4867 cdbd ee54 823d
00000380: f301 903d fb45 d3bd 0a37 2ebd e40b c3bd
00000390: 07bf 4a3a 639d 0dbc 6ecf a2bd a59a 48bd
000003a0: 0399 26bd 9732 27bd d440 0a3e d0c3 183d
000003b0: 71f3 9a3d 0f75 b8bd 5c88 d9bd a774 bbbb
000003c0: e738 873d 3c30 893d 06a3 0a3e bf3a 48bd
000003d0: f2bc 573d 5800 b2bd 6042 a0bd 7f5e fcb9
000003e0: 9bad 013d 0118 76bc 1359 bc3d c0fb 9e3d
000003f0: 735a 7abd faf5 053d ed65 17bd 91f1 fabc

encoder.layers.2.nn.net.0.bias f4 [64]
-0.13377364 0.038145933 -0.06199284 0.12856911 0.09456017 -0.06634103 0.08714412 0.044449992
0.045006327 0.020911768 0.06998963 0.021967566 -0.034416262 -0.06155283 -0.017594064 0.078333504
0.0045158905 0.044048436 -0.08431161 -0.05464934 -0.10398704 0.0038377524 0.13886283 -0.10665419
0.0035773204 0.05782011 -0.057850804 0.07593417 0.056847226 -0.08410299 -0.021153228 -0.016976926
-0.10415553 0.07080999 0.13907987 -0.10781037 0.035370205 -0.06525426 0.050404042 -0.0117406165
0.06512478 0.0362991 -0.0595239 -0.14256577 -0.13209303 0.06468393 -0.025434984 0.088972695
0.030401506 -0.06597265 -0.124248415 -0.09754186 -0.1337084 -0.13624883 0.037116755 -0.08318784
0.046402358 -0.0035774903 -0.12018411 -0.047991402 0.10359966 -0.029962173 -0.12181712 -0.08539169
00000000: f5fb 08be e93e 1c3d 34ec 7dbd 9fa7 033e
00000010: c3a8 c13d cedd 87bd 9e78 b23d 3211 363d
00000020: 8e58 383d 284f ab3c b956 8f3d 53f5 b33c
00000030: 11f8 0cbd d21e 7cbd 6d21 90bc 516d a03d
00000040: 09fa 933b 226c 343d 91ab acbd fdd7 5fbd
00000050: 28f7 d4bd cd82 7b3b 0f32 0e3e 836d dabd
00000060: 7a71 6a3b c8d4 6c3d f7f4 6cbd 6083 9b3d
00000070: a3d8 683d 303e acbd 8949 adbc 3213 8bbc
00000080: 7f4f d5bd d404 913d f46a 0e3e afcb dcbd
00000090: 59e0 103d 07a4 85bd 7874 4e3d b75b 40bc
000000a0: 2460 853d 5dae 143d 55cf 73bd c3fc 11be
000000b0: 6543 07be 0279 843d 075d d0bc 5137 b63d
000000c0: 940c f93c ab1c 87bd f475 febd 07c4 c7bd
000000d0: dbea 08be d084 0bbe bd07 183d 635e aabd
000000e0: 6610 3e3d 5474 6abb 1623 f6bd a292 44bd
000000f0: 0f2c d43d 3b73 f5bc 417b f9bd d7e1 aebd

encoder.layers.2.nn.net.2.weight f4 [64, 64]
-0.011336268 0.0645041 -0.044522166 0.08190342 0.06536212 0.080232315 0.026807038 -0.058127105
-0.0044339728 -0.074240014 -0.0756221 -0.02087491 -0.06917172 0.10610171 0.005837111 0.10546484
-0.0959532 -0.07329626 0.012798675 0.092931256 0.068542115 -0.07291958 0.1031639 -0.10811236
0.06787967 -0.13327016 -0.09605603 0.054742355 0.018123638 0.053588714 0.0011010532 0.048703913
0.026304115 -0.050387792 0.081983015 0.012072065 -0.062967695 0.09161646 0.04674493 -0.041158196
-0.060731187 0.0132689085 0.02210795 -0.034178074 0.09165363 -0.0912465 0.026491107 0.033552077
-0.04777125 0.05430536 -0.07174444 -0.09659615 0.12648532 0.06039972 -0.031249132 -0.084877685
-0.0605994 -0.13670821 -0.10813394 0.035244472 0.030739887 0.02823585 0.07354635 -0.13125187
0.12322038 -0.044948187 0.09193422 -0.0032649054 -0.010819426 0.030086892 -0.08072858 0.050192222
-0.050926484 -0.06530166 0.012414903 -0.030532897 -0.088074215 -0.055129237 -0.10456214 0.09233441
0.08072634 0.01114773 -0.066722885 -0.011384386 -0.009181792 -0.12017496 -0.012552877 -0.0792235
0.03144727 0.048224743 0.041376 0.120816514 0.10555951 -0.054971986 0.031373832 -0.117022865
-0.021713391 0.11643725 0.0279206 0.069770716 -0.073124774 0.05003035 0.09382668 0.042708386
-0.009423665 0.102754325 0.03267496 -0.11123714 0.010332651 -0.022484733 0.088211246 -0.11134142
-0.08533697 -0.12297599 -0.1161108 0.12378241 0.035608195 0.0042402023 -0.03410506 -0.016951103
0.022066701 0.120956 0.042473126 -0.09253908 0.08738969 -0.081037484 0.036636792 0.060713567
-0.049424574 0.028559921 0.091732316 0.12288232 -0.06489556 0.036564726 0.0028716747 0.055410486
0.12938023 0.0830097 0.026175944 -0.078621484 -0.080196895 0.0849956 -0.09271437 -0.027905248
-0.010851628 0.030629832 -0.034473315 -0.016600378 -0.038178965 -0.03531834 -0.018341566 -0.04759775
-0.050991926 0.026461113 0.11148516 0.04814705 -0.00365355 -0.021959618 0.08825439 0.037636958
-0.033790927 0.0027107466 -0.054796748 -0.051313985 -0.035164386 0.047463924 0.00093898695 -0.09031694
0.005110985 0.084394775 -0.10829934 0.053497378 0.061109226 0.028888691 -0.09971262 -0.020308683
0.07723729 0.06980741 0.050483454 -0.10200487 0.11261903 -0.018510815 -0.012561078 0.109388635
-0.027667798 0.07031658 -0.024775507 -0.08704248 -0.078485884 0.06255757 0.082052566 0.07549345
-0.07992951 0.03859413 0.0941845 -0.024644637 -0.15890908 0.08988219 0.11501827 -0.023563491
-0.024459517 -0.09166834 -0.041288693 -0.0051797302 -0.12911858 -0.066349044 0.0008614438 -0.14222711
0.037292674 -0.07724924 -0.02564318 -0.034125727 -0.025659142 -0.064288706 -0.0073635653 -0.017480649
-0.08294036 0.07507754 -0.09958171 0.042294633 0.08360339 0.035022564 0.04433244 0.040806264
0.0538898 0.034134787 0.08253804 0.050176054 -0.13745846 0.05171252 -0.05142231 -0.037698645
-0.06251424 -0.046641424 0.056412008 0.13314965 -0.10402161 -0.032371823 0.07514782 -0.09522184
-0.11186929 0.10662437 -0.037851702 0.06738771 -0.045610517 -0.059915166 0.07003345 -0.056369994
0.06117963 0.07501101 0.0024552369 -0.10314291 0.08957111 0.12363248 -0.011628626 0.11102262
00000000: c1bb 39bc ba1a 843d e05c 36bd fbbc a73d
00000010: 93dc 853d d750 a43d 6f9a db3c b016 6ebd
00000020: dc4a 91bb 260b 98bd c2df 9abd dc01 abbc
00000030: e7a9 8dbd da4b d93d 3c45 bf3b f3fd d73d
00000040: 1c83 c4bd 591c 96bd 89b1 513c be52 be3d
00000050: cf5f 8c3d dc56 95bd 9847 d33d 036a ddbd
00000060: 7f04 8b3d f977 08be 06b9 c4bd 8539 603d
00000070: 0678 943c d77f 5b3d 3751 903a c17d 473d
00000080: ba7b d73c 6e63 4ebd b6e6 a73d e9c9 453c
00000090: 35f5 80bd 69a1 bb3d 9d77 3f3d 7f95 28bd
000000a0: 44c1 78bd d665 593c bb1b b53c 4ffe 0bbd
000000b0: e6b4 bb3d 72df babd e103 d93c e76d 093d
000000c0: c9ab 43bd 4c6f 5e3d c0ee 92bd 34d4 c5bd
000000d0: 5e85 013e b265 773d 2efe ffbc 5ad4 adbd
000000e0: 1437 78bd 3dfd 0bbe 5475 ddbd 825c 103d
000000f0: 37d2 fb3c df4e e73c 789f 963d e466 06be
00000100: f75a fc3d 971b 38bd 0248 bc3d 06f8 55bb
00000110: f643 31bc c978 f63c 0755 a5bd 5c96 4d3d
00000120: 4a98 50bd e0bc 85bd e167 4b3c 2020 fabc
00000130: 4160 b4bd 32cf 61bd ad24 d6bd d319 bd3d
00000140: da53 a53d f8a4 363c 02a6 88bd 9385 3abc
00000150: 3a6f 16bc 4a1e f6bd 95aa 4dbc ee3f a2bd
00000160: dace 003d 4f87 453d e179 293d a66e f73d
00000170: 962f d83d 4e2a 61bd d981 003d afa9 efbd
00000180: 48e0 b1bc a776 ee3d beb9 e43c f3e3 8e3d
00000190: 71c2 95bd a0ec 4c3d 3428 c03d fdee 2e3d
000001a0: b765 1abc dc70 d23d 2ed6 053d 4cd0 e3bd
000001b0: 484a 293c e731 b8bc 19a8 b43d f806 e4bd
000001c0: 26c5 aebd d6da fbbd 80cb edbd a281 fd3d
000001d0: e6d9 113d 65f1 8a3b bfb1 0bbd 0add 8abc
000001e0: 3ac5 b43c c8b7 f73d 4df8 2d3d 2185 bdbd
000001f0: 5ef9 b23d fbf6 a5bd 7610 163d caae 783d
00000200: 6c71 4abd 7ff6 e93c 27de bb3d baa9 fb3d
00000210: f7e7 84bd e5c4 153d b532 3c3b 1bf6 623d
00000220: 407c 043e fd00 aa3d ef6e d63c 4d04 a1bd
00000230: 453e a4bd 2c12 ae3d 08e1 bdbd 8c99 e4bc
00000240: 07cb 31bc 6aeb fa3c e433 0dbd 84fd 87bc
00000250: 8c61 1cbd f7a9 10bd 0d41 96bc dcf5 42bd
00000260: e9dc 50bd fac4 d83c 5552 e43d d735 453d
00000270: 6670 6fbb a8e4 b3bc b8be b43d 3629 1a3d
00000280: 5b68 0abd c8a6 313b 8e72 60bd 9d2e 52bd
00000290: 8808 10bd 8869 423d 5926 763a 16f8 b8bd
000002a0: 0d7a a73b 2bd7 ac3d 0bcc ddbd 1120 5b3d
000002b0: ab4d 7a3d faa7 ec3c 2136 ccbd 655e a6bc
000002c0: 962e 9e3d 30f7 8e3d bdc7 4e3d eee7 d0bd
000002d0: cea4 e63d fea3 97bc fbcc 4dbc 2607 e03d
000002e0: 94a7 e2bc 2402 903d 01f6 cabc 5443 b2bd
000002f0: 35bd a0bd 2f1e 803d 2d0b a83d 4f9c 9a3d
00000300: 15b2 a3bd e114 1e3d cee3 c03d 8de3 c9bc
00000310: 10b9 22be 2714 b83d b38e eb3d 3908 c1bc
00000320: 535f c8bc 9cbc bbbd 551e 29bd baba a9bb
00000330: a937 04be 02e2 87bd 84d2 613a fca3 11be
00000340: 34c0 183d d934 9ebd a511 d2bc 6bc7 0bbd
00000350: 1f33 d2bc cca9 83bd 104a f1bb 9433 8fbc
00000360: a3dc a9bd 41c2 993d 7ff1 cbbd 233d 2d3d
00000370: 4138 ab3d d273 0f3d ef95 353d 7824 273d
00000380: 8dbb 5c3d ebd0 0b3d b409 a93d 6885 4d3d
00000390: e9c1 0cbe 82d0 533d 33a0 52bd e569 1abd
000003a0: 7707 80bd 140b 3fbd 4710 673d 6258 083e
000003b0: 4809 d5bd 5198 04bd 1ae7 993d ab03 c3bd
000003c0: ba1b e5bd e15d da3d 630a 1bbd 9102 8a3d
000003d0: 18d2 3abd 9b69 75bd b36d 8f3d 39e4 66bd
000003e0: 7e97 7a3d 5f9f 993d 0ae8 203b 973c d3bd
000003f0: 0f71 b73d 0733 fd3d fe85 3ebc d45f e33d

encoder.layers.2.nn.net.2.bias f4 [64]
0.070534 0.057925638 -0.019850265 0.081137456 -0.008649078 -0.060987506 -0.09174249 0.053007167
-0.0026212195 0.12495086 0.024718478 -0.04321991 0.05947342 -0.046117604 0.1179755 -0.064769365
0.11363792 0.063995644 0.025832025 0.109318025 0.11021732 0.047692016 -0.08045806 -0.046602894
-0.1199828 0.08722444 -0.07562621 -0.010006041 -0.045201637 0.030640384 -0.066697426 0.01884107
-0.036792185 -0.10171218 -0.004801389 0.121794425 -0.009476575 -0.07592425 0.007385289 -0.061202355
0.11291172 -0.03241661 -0.052539907 0.0067172227 -0.10960191 -0.08328885 -0.054369662 -0.091188565
0.09676525 0.05080564 -0.07904948 0.12643783 0.0991203 -0.05977101 -0.03997766 -0.06212856
-0.006562894 -0.085473455 0.03701752 -0.04138312 -0.0521658 0.10958488 0.07340073 -0.022336699
00000000: 2174 903d 6f43 6d3d 069d a2bc 652b a63d
00000010: ddb4 0dbc 09ce 79bd 7de3 bbbd 0b1e 593d
00000020: c4c8 2bbb 3de6 ff3d 687e ca3c 5c07 31bd
00000030: 679a 733d d0e5 3cbd 249d f13d cda5 84bd
00000040: ffba e83d 2610 833d af9d d33c 21e2 df3d
00000050: 9eb9 e13d b458 433d 32c7 a4bd ade2 3ebd
00000060: 8bb9 f5bd baa2 b23d eae1 9abd 61f0 23bc
00000070: 5a25 39bd 8b01 fb3c a998 88bd 9658 9a3c
00000080: 67b3 16bd 7a4e d0bd f854 9dbb 5b6f f93d
00000090: a343 1bbc 2c7e 9bbd 4b00 f23b 52af 7abd
000000a0: 433e e73d 47c7 04bd 1634 57bd 261c dc3b
000000b0: f776 e0bd 5893 aabd b9b2 5ebd 12c1 babd
000000c0: dc2c c63d 9319 503d b2e4 a1bd eb78 013e
000000d0: 95ff ca3d 72d2 74bd 9dbf 23bd 847a 7ebd
000000e0: 8c0d d7bb b50c afbd af9f 173d 5981 29bd
000000f0: ceab 55bd 0a6e e03d 1f53 963d 74fb b6bc

encoder.layers.3.nn.net.0.weight f4 [64, 64]
-0.02652815 -0.068941064 0.108581394 0.14194697 0.089949325 -0.07529052 -0.028885547 -0.115920134
0.11369586 0.09194561 0.079664364 0.029858602 0.07104104 -0.050771642 0.007908379 0.07951486
-0.11892177 0.008027928 0.04877271 -0.09814476 0.035813637 0.08560039 -0.018792648 -0.027099185
-0.01947376 0.032433365 -0.022366375 0.11795167 -0.051075272 -0.020310419 0.092402995 -0.02373287
-0.06202822 0.048628706 0.08319648 0.03630289 -0.053376183 -0.09590627 -0.0742579 0.067167774
-0.024697674 -0.108378924 -0.015969628 0.11239457 0.043020222 0.012296715 0.115958884 -0.050330218
0.03149344 0.011851974 -0.08315603 -0.008408756 0.08325363 0.023200085 -0.09454747 -0.0034774912
-0.09270846 -0.11146441 -0.044867713 -0.0017038414 -0.10534623 0.11126558 0.021754514 -0.032736406
-0.12143871 0.101360835 -0.1426261 0.11550195 0.11410024 -0.13009985 0.06277646 0.09279159
0.03660764 -0.09225147 -0.09717206 -0.058895923 -0.01145743 -0.0654734 0.09749362 0.108518064
-0.042775594 -0.04161587 -0.037265483 -0.061023366 -0.08874975 -0.008609915 -0.0018680783 -0.09846755
-0.032817792 -0.045973442 -0.019047624 -0.1287939 0.019531889 -0.06731906 0.044955507 0.05804444
0.09068756 0.048074983 -0.0808063 -0.043246463 -0.07451455 -0.061899886 0.06163197 0.14099601
-0.08191092 -0.0043022553 0.1301491 -0.15468988 0.07505975 -0.08092124 0.005133922 -0.117866054
0.11106248 0.10467429 -0.063067615 -0.118797354 -0.04091077 0.03784134 -0.115892135 -0.07449291
0.08125893 -0.0047858465 0.06108015 0.012636163 -0.049185503 0.02877462 -0.04337052 -0.070865
0.053953156 0.036648568 -0.06452938 -0.104650274 0.0010582834 0.06877768 0.043048307 0.102764025
0.049724072 0.09674799 0.03874525 0.09614167 -0.01996946 -0.04857103 0.018483916 -0.09178047
-0.0617897 -0.08753176 -0.12053373 -0.025565114 -0.02181463 -0.12578134 0.0023121594 0.055327553
0.0049013435 -0.07500005 -0.029585809 0.1148698 0.109214626 -0.056342803 0.0632677 -0.094048105
-0.012884694 -0.086633585 0.09562769 0.019926287 -0.0538926 -0.015622499 -0.08361052 0.08244952
-0.0069980863 0.08126284 -0.048759013 -0.03876465 0.012081171 -0.10501747 -0.006570544 -0.02752876
0.03001545 -0.07957957 -0.12857583 -0.035572723 -0.017983427 -0.004534663 -0.06681652 -0.04034993
0.054979127 -0.016480446 -0.019570721 0.06265498 -0.025435027 -0.0021152557 0.10188908 0.07183778
0.013609254 0.08786388 -0.09754127 0.045330003 -0.06039798 0.09487728 0.12575468 0.13179575
-0.06441447 0.049381975 -0.11287495 -0.060425367 -0.11473501 0.053214036 0.018458692 -0.09740396
0.09794714 0.073794276 -0.044630047 -0.12783384 -0.025394438 -0.08791137 0.14501634 -0.012452187
0.029757297 0.08879608 0.06700524 -0.10436763 0.07303924 -0.04394242 0.14054602 -0.098037265
0.00020750897 -0.009786337 0.15727621 -0.092809685 -0.07256093 0.02246614 -0.09382089 -0.08325301
0.06931268 -0.11351236 0.046561006 -0.12329709 0.040512074 0.07067533 -0.03521867 0.12222366
0.08800811 0.059714615 -0.053549923 -0.13997392 -0.104689516 0.061490912 0.079079464 0.046583533
-0.05753709 -0.207798 -0.044646062 0.092111595 -0.055645626 -0.037998535 0.089635424 -0.051879764
00000000: 9051 d9bc f930 8dbd ec5f de3d 8c5a 113e
00000010: 5a37 b83d eb31 9abd 62a1 ecbc 8967 edbd
00000020: 60d9 e83d fb4d bc3d 1227 a33d 079a f43c
00000030: f77d 913d edf5 4fbd 2592 013c b0d8 a23d
00000040: 428d f3bd 9287 033c e5c5 473d 1f00 c9bd
00000050: 52b1 123d 424f af3d 0af3 99bc 1cff ddbc
00000060: 6f87 9fbc d9d8 043d b039 b7bc a590 f13d
00000070: 4e34 51bd 0962 a6bc c83d bd3d 706b c2bc
00000080: 4e11 7ebd e52e 473d eb62 aa3d 57b2 143d
00000090: fca0 5abd 826a c4bd 8714 98bd 428f 893d
000000a0: c752 cabc c5f5 ddbd bdd2 82bc 202f e63d
000000b0: f935 303d 2978 493c da7b ed3d 0f27 4ebd
000000c0: 44ff 003d c82e 423c b54d aabd e1c4 09bc
000000d0: e180 aa3d 1b0e be3c 1ba2 c1bd 9fe6 63bb
000000e0: efdd bdbd 7447 e4bd 35c7 37bd 6e53 dfba
000000f0: c4bf d7bd 35df e33d 8636 b23c 9c16 06bd
00000100: dcb4 f8bd 4596 cf3d 940c 12be 498c ec3d
00000110: 63ad e93d e538 05be f290 803d 8409 be3d
00000120: e5f1 153d 57ee bcbd 2502 c7bd da3c 71bd
00000130: f2b7 3bbc eb16 86bd bcaa c73d b83e de3d
00000140: 7635 2fbd 6775 2abd b1a3 18bd a3f3 79bd
00000150: 6ec2 b5bd 9a10 0dbc 4eda f4ba 5ba9 c9bd
00000160: f36b 06bd a64e 3cbd c309 9cbc 8ce2 03be
00000170: 5701 a03c 93de 89bd 4423 383d 02c0 6d3d
00000180: 66ba b93d 46ea 443d c67d a5bd 3423 31bd
00000190: 169b 98bd bc8a 7dbd ce71 7c3d 4261 103e
000001a0: eac0 a7bd eff9 8cbb ce45 053e 0667 1ebe
000001b0: edb8 993d 09ba a5bd 763a a83b c263 f1bd
000001c0: ba74 e33d 795f d63d 9829 81bd 074c f3bd
000001d0: 0d92 27bd 85ff 1a3d db58 edbd bd8f 98bd
000001e0: 156b a63d 97d2 9cbb 2e2f 7a3d e907 4f3c
000001f0: bd76 49bd c0b8 eb3c 49a5 31bd ab21 91bd
00000200: fcfd 5c3d cf1c 163d fb27 84bd e252 d6bd
00000210: 19b6 8a3a 50db 8c3d 6c53 303d f275 d23d
00000220: 78ab 4b3d cf23 c63d 57b3 1e3d ede5 c43d
00000230: fe96 a3bc 6bf2 46bd 956b 973c 66f7 bbbd
00000240: 3217 7dbd da43 b3bd 63da f6bd ee6d d1bc
00000250: 98b4 b2bc d3cc 00be 9987 173b 259f 623d
00000260: 739b a03b a099 99bd f05d f2bc dc40 eb3d
00000270: ebab df3d b6c7 66bd 7f92 813d 4b9c c0bd
00000280: 531a 53bc f36c b1bd 73d8 c33d 743c a33c
00000290: 7dbe 5cbd 83f5 7fbc fe3b abbd 4bdb a83d
000002a0: 3450 e5bb 226d a63d 88b7 47bd aec7 1ebd
000002b0: 1bf0 453c 6613 d7bd b84d d7bb fe83 e1bc
000002c0: f6e2 f53c 9dfa a2bd 62a9 03be b4b4 11bd
000002d0: fb51 93bc 8397 94bb 1ad7 88bd f845 25bd
000002e0: cb31 613d 0002 87bc c752 a0bc 4151 803d
000002f0: 1e5d d0bc 1aa0 0abb 39ab d03d b01f 933d
00000300: 59f9 5e3c faf1 b33d b8c3 c7bd f4ab 393d
00000310: df63 77bd 054f c23d d6c5 003e 77f5 063e
00000320: bceb 83bd c144 4a3d fb2a e7bd 9780 77bd
00000330: 30fa eabd f6f6 593d af36 973c ba7b c7bd
00000340: 8398 c83d 7421 973d ffcd 36bd e0e6 02be
00000350: ff07 d0bc e00a b4bd 2a7f 143e 4204 4cbc
00000360: 93c5 f33c b8da b53d 0b3a 893d b2be d5bd
00000370: 9995 953d f8fc 33bd 4ceb 0f3e c3c7 c8bd
00000380: c496 5939 df56 20bc 040d 213e 0113 bebd
00000390: d39a 94bd e90a b83c 2b25 c0bd 8e80 aabd
000003a0: cef3 8d3d 2b79 e8bd c1b6 3e3d 2f83 fcbd
000003b0: fdef 253d 3abe 903d 7441 10bd 6650 fa3d
000003c0: 993d b43d 5097 743d 2a57 5bbd 5355 0fbe
000003d0: 7567 d6bd e5dd 7b3d 6af4 a13d 60ce 3e3d
000003e0: 03ac 6bbd 00c9 54be cade 36bd 01a5 bc3d
000003f0: abec 63bd 5aa4 1bbd c792 b73d e07f 54bd
