scripts/embeddings_gin_version2/MUTAG/gin_dim128_ep40_lr0.0005_drop0.0/gin_classifier.pt (torch, 629469 bytes, 42 tensors)

encoder.layers.0.nn.net.0.weight f4 [128, 7]
0	0xbc15f23a	-0.00915199
1	0x3e804737	0.25054333
2	0xbe3240c3	-0.17407517
3	0x3e53b917	0.20676075
4	0xbe631a1b	-0.22177927
5	0xbe68e392	-0.22743061
6	0xbe51d8c6	-0.20492849
7	0xbe39d8d6	-0.18149123
8	0x3ebc9f1d	0.36840144
9	0x3e9abd53	0.30222568
10	0xbe39fc44	-0.18162638
11	0xbebef96c	-0.3729967
12	0x3e820e10	0.25401354
13	0x3e8cc35e	0.27492803
14	0xbd711bc7	-0.05886438
15	0x3e60c8db	0.2195162
16	0xbeb92c49	-0.361666
17	0xbd01eda1	-0.03172076
18	0xbea13988	-0.31489205
19	0x3d056fd0	0.032577336
20	0xbdd9bd35	-0.106317915
21	0x3cb83d6d	0.022490228
22	0xbe997632	-0.29972988
23	0xbe30b4b0	-0.17256427
24	0xbd9927f2	-0.07478322
25	0xbec16e45	-0.3777944
26	0xbeaaaac1	-0.333334
27	0x3daa3775	0.08311359
28	0x3e65f29e	0.22455832
29	0xbdcef43a	-0.10105176
30	0x3e2984ae	0.1655452
31	0xbe888d0e	-0.26670116
32	0x3e49e15b	0.19714873
33	0xbea83dd5	-0.32859674
34	0x3dfeb1aa	0.124362305
35	0xbde39858	-0.11113042
36	0xbe834da3	-0.2564517
37	0x3dccf57d	0.10007761
38	0xbe967fa1	-0.29394248
39	0xbba1883e	-0.0049295714
40	0xbea60951	-0.32428983
41	0x3ebbc64b	0.36674723
42	0x3e97c513	0.29642543
43	0xbe3ad402	-0.18244937
44	0xbdf541f2	-0.11975469
45	0x3d45acfd	0.048260678
46	0xbda8376a	-0.082136944
47	0x3e6b938d	0.23005505
48	0x3e68b814	0.2272647
49	0xbe1e92a6	-0.1548563
50	0x3e93f600	0.2889862
51	0xbd6f1ddb	-0.05837808
52	0x3eac25d1	0.33622602
53	0xbe813081	-0.25232318
54	0xbdd74ea7	-0.105130486
55	0x3e9507fb	0.2910765
56	0xbe9fe26c	-0.31227434
57	0x3e143031	0.14471509
58	0xbebde6c9	-0.37090138
59	0x3e88af70	0.26696348
60	0x3d93b255	0.072117485
61	0xbe360ea5	-0.17779024
62	0x3e7e7123	0.24847846
63	0xbd073e3c	-0.033018336
64	0x3ea47b84	0.32125485
65	0x3cf81da6	0.030287575
66	0xbdf7c256	-0.120976135
67	0x3d886f70	0.0666188
68	0xbdc27f81	-0.09496976
69	0x3d37ccfc	0.044873223
70	0x3e691511	0.22761942
71	0x3dacb2d8	0.08432549
72	0xbdb548ca	-0.08851774
73	0xbe6d5a74	-0.23179036
74	0x3e808110	0.25098467
75	0x3e743eb4	0.23852044
76	0x3d223324	0.039599553
77	0xbe90e6d2	-0.28301102
78	0x3e8b90c9	0.272589
79	0xbe3c9afb	-0.18418495
80	0xbc0f3280	-0.0087400675
81	0xbe17b36c	-0.14814538
82	0xbea9cc3e	-0.33163637
83	0xbe1ec744	-0.15505701
84	0x3d60cab7	0.054880824
85	0xbd12c14d	-0.035828877
86	0x3d8dbc18	0.06920642
87	0xbeabc62d	-0.33549634
88	0x3ea53201	0.32264712
89	0xbe64c589	-0.22340979
90	0xbe9509a4	-0.29108918
91	0xbdceb5d2	-0.10093273
92	0x3e4dd0f6	0.20099244
93	0xbd5adf5d	-0.053435672
94	0xbe6f663e	-0.23378846
95	0xbe17ebc7	-0.14836036
96	0xbe7b91e3	-0.2456737
97	0x3e822e68	0.2542603
98	0xbeb7b2a2	-0.35878474
99	0xbe8c17cd	-0.2736191
100	0x3e809d3f	0.2511997
101	0xbc207f93	-0.009796041
102	0xbda7b9c1	-0.081897266
103	0xbe86ac07	-0.2630312
104	0xbe601396	-0.21882471
105	0xbe43e0e8	-0.19128764
106	0xbe86ef5e	-0.26354498
107	0x3e3144da	0.17311421
108	0x3d565195	0.052323896
109	0xbe91b00c	-0.28454626
110	0xbe215dd7	-0.15758453
111	0x3e1fe678	0.1561526
112	0x3dcde7a4	0.100539476
113	0xbda40089	-0.080079146
114	0x3c932c04	0.017965324
115	0x3ceeed1e	0.0291658
116	0x3e7effbb	0.24902241
117	0xbdd8a5c6	-0.10578494
118	0x3d97831a	0.073980525
119	0x3dafd786	0.0858603
120	0xbeb87157	-0.3602397
121	0x3e9b4221	0.3032389
122	0x3e25804c	0.16162223
123	0x3eb786cd	0.35845032
124	0x3d655d39	0.055997107
125	0xbe97e2ce	-0.29665226
126	0x3e4988a3	0.19681029
127	0xbde44fb7	-0.11148017
128	0xbcec1655	-0.028819242
129	0xbe07370a	-0.1320459
130	0xbe18db00	-0.14927292
131	0x3b7e16b6	0.003877086
132	0x3e52a1b7	0.20569502
133	0xbdfcfc74	-0.12352839
134	0x3e06d3d2	0.1316674
135	0xbd99a5c1	-0.07502318
136	0x3e6645bd	0.2248754
137	0xbea23775	-0.31682935
138	0x3ea5359b	0.3226746
139	0xbe01adc7	-0.12663947
140	0xbe16314d	-0.14667244
141	0xbe90766e	-0.28215355
142	0x3ebd144c	0.36929548
143	0x3e630a6e	0.22171947
144	0xbe941e28	-0.28929257
145	0xbe83a815	-0.25714174
146	0xbe1cf867	-0.15329133
147	0x3e6c69de	0.2308726
148	0x3e324494	0.17408973
149	0xbe0e5e62	-0.13903192
150	0xbea8c618	-0.32963634
151	0x3bb01f3b	0.0053748167
152	0xbe58b368	-0.21162188
153	0xbead5f6a	-0.33861858
154	0x3e536bcf	0.20646594
155	0xbd44a159	-0.048005436
156	0xbe9935e8	-0.2992394
157	0xbe1fb4ec	-0.1559636
158	0x3e838a1d	0.2569131
159	0xbcaa0f6f	-0.020759312
160	0x3ec2ac02	0.38021857
161	0xbea4c7d9	-0.32183722
162	0xbeba3fa4	-0.3637668
163	0xbdf9bbc5	-0.12194017
164	0xbe943524	-0.28946793
165	0xbe8f8e00	-0.28038025
166	0xbe789f8a	-0.2427961
167	0x3e942de7	0.2894127
168	0x3e96ee33	0.29478607
169	0xbe218549	-0.157735
170	0x3e38abb4	0.1803425
171	0x3d1c2109	0.038117442
172	0xbe215c0b	-0.15757768
173	0x3e63a343	0.22230248
174	0x3e387e57	0.18016945
175	0x3e54e24b	0.20789449
176	0x3e834709	0.25640133
177	0x3eb4b605	0.3529512
178	0xbe9853a4	-0.29751313
179	0xbe190bcc	-0.14945906
180	0xbd096c68	-0.03355065
181	0xbe1593be	-0.1460714
182	0x3dc1c2b3	0.09460964
183	0xbd4e50ef	-0.050370153
184	0xbe90337b	-0.28164276
185	0xbd867087	-0.06564432
186	0xbdba8c22	-0.091087595
187	0x3d6d5584	0.057942882
188	0x3b64efed	0.0034933046
189	0x3e94359f	0.2894716
190	0x3e6da28a	0.23206535
191	0x3e6ee7d9	0.2333063
192	0x3d711170	0.05885452
193	0x3e8273fa	0.25479108
194	0x3d841b1d	0.06450484
195	0xbe324885	-0.17410477
196	0xbe777cab	-0.24168651
197	0xbe662581	-0.22475244
198	0xbb8dadd9	-0.004323703
199	0xbe7f6ebf	-0.2494459
200	0x3e80abae	0.2513098
201	0x3eab9ad9	0.33516577
202	0x3d94fcea	0.07274802
203	0x3d9694a9	0.073525734
204	0x3d0e6360	0.03476274
205	0x3e9f642d	0.31131116
206	0x3ea2bf41	0.3178654
207	0xbeb66219	-0.35621718
208	0x3eaa326c	0.33241594
209	0xbda6bd1a	-0.08141537
210	0x3e2d3020	0.1691289
211	0x3e7644c3	0.24049668
212	0x3e9c6f38	0.30553603
213	0xbded5278	-0.11587995
214	0xbdebb9a1	-0.11510015
215	0xbe85357a	-0.26017362
216	0x3e05daec	0.13071793
217	0x3eb3b42e	0.35098404
218	0xbe823472	-0.25430638
219	0xbe174417	-0.14772068
220	0x3e746a25	0.23868616
221	0xbe20018a	-0.15625587
222	0x3e863e43	0.26219377
223	0xbea37c91	-0.31930974
224	0xbe8891b7	-0.26673672
225	0x3ebe5021	0.37170509
226	0x3e4c6221	0.19959308
227	0xbe840f61	-0.25792983
228	0x3e8749b9	0.26423433
229	0xbe5b24b6	-0.21400723
230	0x3eb6d5be	0.35709947
231	0x3e1899dd	0.14902444
232	0xbe7910c7	-0.24322806
233	0x3e259ed8	0.16173875
234	0xbe9956ba	-0.2994898
235	0xbe33ae7a	-0.17547026
236	0xbeb8f9a5	-0.36127964
237	0x3e0729fd	0.13199611
238	0xbe8e5040	-0.277956
239	0xbc2e3070	-0.010631666
240	0xbe91dc9c	-0.28488624
241	0x3e48adf8	0.19597614
242	0x3ea7720b	0.32704195
243	0x3eb96e60	0.36217022
244	0xbe5a37c9	-0.21310343
245	0xbe471ba6	-0.19444141
246	0xbe8344ab	-0.25638327
247	0x3e61280e	0.21987936
248	0xbc129a8c	-0.00894798
249	0xbe8ca6ac	-0.2747091
250	0xbdb4b000	-0.08822632
251	0xbdc8ca21	-0.09804178
252	0xbe061fde	-0.13098094
253	0x3eb9dc99	0.36301115
254	0xbe9e886a	-0.3096345
255	0xbde4e14e	-0.11175786

encoder.layers.0.nn.net.0.bias f4 [128]
0	0xbe001238	-0.1250695
1	0xbe649d29	-0.22325577
2	0xbe80e495	-0.25174394
3	0x3e669be2	0.22520402
4	0x3ec2948c	0.38003957
5	0x3e022c82	0.12712291
6	0x39cf766b	0.00039570345
7	0xbe00aefd	-0.12566753
8	0x3e7f1b6f	0.24912809
9	0xbe12479f	-0.14285134
10	0x3bc45bd8	0.005992394
11	0x3ea3c6e0	0.31987667
12	0xba52613c	-0.00080253533
13	0xbdd7fdc1	-0.105464466
14	0xbeaf51f2	-0.34242207
15	0x3e4dd0cb	0.2009918
16	0xbe19cf96	-0.15020594
17	0x3e8a3ad5	0.2699801
18	0xbea99ad0	-0.33125925
19	0x3de16466	0.110054776
20	0x3eaacf3a	0.33361226
21	0x3d45bd8e	0.048276477
22	0x3cc5b1bf	0.024132608
23	0x3e845d4d	0.25852433
24	0x3e7471ae	0.2387149
25	0x3eaa3ea6	0.33250922
26	0x3ebedbe4	0.37277138
27	0xbe85aa57	-0.2610652
28	0x3e1ff6a9	0.15621437
29	0xbd1ad907	-0.03780463
30	0x3e3af3ce	0.18257067
31	0xbeb1bbef	-0.34713694
32	0xbe94bd86	-0.29050845
33	0xbdb47760	-0.088118315
34	0xbd9e0ce7	-0.07717305
35	0xbe0f3590	-0.13985276
36	0xbe94c0ae	-0.29053253
37	0xbe40e089	-0.18835653
38	0x3ea5b810	0.3236699
39	0x3dfab655	0.12241808
40	0x3d8fb1d3	0.07016339
41	0x3d4ab153	0.049485516
42	0x3e6cd309	0.23127379
43	0xbe757194	-0.23969108
44	0xbe70c379	-0.23512067
45	0x3e7558b2	0.23959616
46	0xbeb163fd	-0.34646598
47	0x3ec2d0bd	0.3804988
48	0x3dc3cbdc	0.095603675
49	0x3e0c7032	0.13714674
50	0xbe037106	-0.12836084
51	0x3ebe51b5	0.37171713
52	0xbea0311c	-0.31287467
53	0xbdaef32c	-0.08542475
54	0x3e829a0e	0.2550816
55	0xbdbbb1f5	-0.09164802
56	0x3e0c4217	0.13697086
57	0x3eb75bae	0.35812134
58	0xbd09be02	-0.03362847
59	0xbcf7af65	-0.030235002
60	0xbe632d10	-0.22185159
61	0xbe2029db	-0.15640967
62	0x3e36fb8a	0.17869392
63	0x3de65d76	0.11248295
64	0x3eacf960	0.33784008
65	0x3eb5defb	0.35521683
66	0x3e42cc0d	0.19023152
67	0xbeb010f2	-0.34387928
68	0xbe8514c2	-0.259924
69	0xbe24dd98	-0.16100156
70	0xbe09efbc	-0.13470358
71	0xbeaad6f4	-0.3336712
72	0xbe77756d	-0.24165888
73	0x3ebe71d4	0.3719622
74	0xbe0ad3c6	-0.13557348
75	0xbc99323b	-0.01870071
76	0xbe526ddf	-0.20549725
77	0x3e8f8487	0.28030798
78	0xbe8e5910	-0.27802324
79	0xbeb8ab3f	-0.3606815
80	0xbeaf0d0c	-0.3418964
81	0xbd519800	-0.05117035
82	0xbd2859b7	-0.041101184
83	0xbded269d	-0.115796305
84	0x3c6b5a62	0.014364811
85	0x3e76afdc	0.24090523
86	0xbce870a7	-0.02837403
87	0x3e177233	0.14789657
88	0xbe846a74	-0.25862467
89	0xbe62ca48	-0.22147477
90	0xbe4cfc89	-0.2001821
91	0x3da9342d	0.08261905
92	0xbe3099e7	-0.17246209
93	0xbea81faa	-0.32836658
94	0x3eb37e2a	0.35057193
95	0xbe44f548	-0.19234192
96	0xbe39ec39	-0.18156518
97	0x3def68ab	0.11689886
98	0xbe0da840	-0.13833714
99	0x3e96182d	0.2931532
100	0xbe5c68a3	-0.2152429
101	0xbe699730	-0.2281158
102	0xbe7af1b7	-0.2450627
103	0xbe99da67	-0.3004944
104	0x3e613dc1	0.21996213
105	0xbe961c34	-0.29318392
106	0x3e89a5d4	0.2688433
107	0xbeadb47e	-0.33926767
108	0xbe1396b7	-0.14412962
109	0xbc98581d	-0.018596703
110	0xbe5d013d	-0.21582504
111	0xbca77375	-0.020440796
112	0xbe6fd33f	-0.23420428
113	0x3e9d2b5f	0.30697152
114	0xb83f1ada	-4.5562956e-05
115	0xbda1949f	-0.07889675
116	0x3ea1a647	0.31572172
117	0x3de89a44	0.11357549
118	0xbe5edef4	-0.21764737
119	0x3cb0e3cd	0.021592999
120	0x3e67eea3	0.22649626
121	0x3bd31c3e	0.0064425757
122	0x3dc1d05d	0.0946357
123	0xbeabbd7c	-0.33543003
124	0x3e9fd16a	0.31214458
125	0x3d48b6e5	0.049002547
126	0x3ebe966f	0.37224147
127	0xbdddc08c	-0.10827741

encoder.layers.0.nn.net.2.weight f4 [128, 128]
0	0xbda68c5b	-0.081322394
1	0x3c83e88a	0.016102094
2	0xbda6a252	-0.08136429
3	0xbd575d3f	-0.05257916
4	0xbd94aebf	-0.07259893
5	0xbdaeebc4	-0.085410625
6	0xbd18dad0	-0.03731805
7	0x3d834523	0.06409671
8	0x3daad481	0.08341313
9	0x3c401298	0.011723183
10	0x3d876297	0.066106014
11	0xbcaa5c20	-0.020795882
12	0x3d5045df	0.050847884
13	0xbd60a4ce	-0.05484467
14	0xbdb2f33e	-0.08737801
15	0xbd4415cd	-0.047872353
16	0xbbbf3224	-0.0058348347
17	0x3bcdcbed	0.0062804134
18	0xbcd986a8	-0.026553467
19	0xbbaea820	-0.0053301007
20	0xbdabfdfa	-0.083980516
21	0xbd1b334c	-0.037890717
22	0x3d9ef7c1	0.07762099
23	0xbd361728	-0.044455677
24	0xbd647c11	-0.05578238
25	0xbda3e484	-0.0800257
26	0x3c966b85	0.018361816
27	0xbd8391cd	-0.06424294
28	0x3d4be603	0.049779903
29	0x3c70b081	0.014690519
30	0xbd1e98bc	-0.038719878
31	0x3d3d066c	0.046148703
32	0x3d788674	0.0606751
33	0x3cdcb988	0.026943937
34	0x3d538846	0.051643632
35	0x3d16e1df	0.0368365
36	0x3d2c9f75	0.042144258
37	0xbc66234d	-0.014046502
38	0xbd9387dd	-0.07203648
39	0x3da8466a	0.082165554
40	0x3d6dd700	0.058066368
41	0x3d4e4e8c	0.050367877
42	0x3d4a3d4f	0.049374875
43	0xbccd1590	-0.025034696
44	0xbd7b8bb4	-0.06141253
45	0xbc494d12	-0.012286441
46	0xbd308ba3	-0.043101918
47	0xbd335538	-0.043782443
48	0xbd9e48ba	-0.07728715
49	0xbc97e610	-0.01854232
50	0xbcde1276	-0.027108412
51	0xbd0a42bb	-0.033755045
52	0xbd443a60	-0.047907233
53	0xbc1c4677	-0.0095382845
54	0x3c9fd284	0.019509561
55	0xbd927eb3	-0.07153072
56	0x3c9d66ef	0.019214122
57	0xbc8623fe	-0.016374584
58	0x3c044ee6	0.0080754515
59	0xbdb2e689	-0.08735377
60	0x3d4953b8	0.049152106
61	0xbcdda2ed	-0.027055228
62	0xbda4b885	-0.08043007
63	0x3d6cf580	0.057851315
64	0xbd7aa467	-0.061191943
65	0xbd8c6c59	-0.06856603
66	0x3c33469a	0.010942126
67	0xbd8096f8	-0.06278795
68	0xbccfb422	-0.025354449
69	0xbd9d3864	-0.07676771
70	0xbd00ff11	-0.03149325
71	0xbd97568c	-0.073895544
72	0x3d8e400e	0.06945811
73	0xbd26f88d	-0.04076438
74	0x3d2c0271	0.041994516
75	0xbd74717b	-0.059678536
76	0x3d481f81	0.04885817
77	0xbd48ee47	-0.049055364
78	0x3da224b2	0.07917155
79	0xbda5226e	-0.080632076
80	0xbd91e589	-0.071238585
81	0x3dbba779	0.09162802
82	0xbd675272	-0.05647511
83	0x3d0385b8	0.032109946
84	0x3d6ae3b8	0.057346076
85	0xbd523d95	-0.05132826
86	0xbceb76df	-0.028743206
87	0xbcb60038	-0.022216901
88	0xbdb0929d	-0.08621714
89	0xbd1d774c	-0.03844385
90	0x3d56d6c9	0.05245093
91	0xbd4787fa	-0.04871366
92	0xbbe6056d	-0.00701969
93	0xbc276c19	-0.010218644
94	0xbd2dfe21	-0.042478684
95	0x3d849091	0.06472886
96	0xbd5f39b5	-0.054498393
97	0xbd9c165e	-0.07621454
98	0xbdb22d2f	-0.08700024
99	0x3d584d83	0.052808296
100	0x3b9467c9	0.0045289737
101	0xbbd69fda	-0.0065498175
102	0xbd204379	-0.039126847
103	0x3da0ad4f	0.07845556
104	0xbcfb4713	-0.03067354
105	0x3da25315	0.07926003
106	0xbdad78eb	-0.08470329
107	0xbdbc405e	-0.091919646
108	0x3c84b568	0.016199782
109	0xbd449d1f	-0.048001405
110	0x3ccea7be	0.02522647
111	0x3d1e9100	0.0387125
112	0x3d80787a	0.06272979
113	0xbd8fea51	-0.07027114
114	0xbd745928	-0.05965534
115	0x3d96860f	0.073497884
116	0x3d14ef31	0.036360923
117	0x3c0ac555	0.008469899
118	0x3da9c03e	0.082886204
119	0xbd4d019d	-0.050050367
120	0x3d8bdf7d	0.068297364
121	0xbd0f3488	-0.034962207
122	0x3d5d716a	0.05406324
123	0x3ce285e4	0.027651735
124	0x3c1a5e59	0.009421908
125	0xbd16d385	-0.036822814
126	0x3ccac287	0.024750961
127	0x3d301c6d	0.04299586
128	0x3d8f4a61	0.069966085
129	0x3d30089a	0.042976953
130	0x3d8623ed	0.06549821
131	0xbdab4cee	-0.083642825
132	0xbc2f5649	-0.010701724
133	0x3c5d19dc	0.013494935
134	0x3da9a4a7	0.08283358
135	0xbc587a11	-0.013212697
136	0x3d6ad2e7	0.05733004
137	0x3cf52718	0.029925868
138	0xbda415d9	-0.080119796
139	0x3d2af967	0.041741755
140	0xbd1a9173	-0.037736367
141	0x3d28cdc2	0.04121185
142	0xbda15c25	-0.07878903
143	0xbda3860f	-0.07984554
144	0x3d19a78f	0.037513312
145	0xbc96c6e8	-0.018405393
146	0x3c5ecbf8	0.013598435
147	0x3c8b8ad8	0.01703398
148	0xbd8f51cc	-0.069980234
149	0x3bd0495b	0.006356401
150	0x3c6c2c1d	0.014414814
151	0x3d96de6d	0.07366643
152	0x3d467c86	0.0484586
153	0x3cce0487	0.025148643
154	0xbc59baa0	-0.013289124
155	0x3da74967	0.08168297
156	0xbc67b7a6	-0.014142906
157	0xbd1aeafd	-0.03782176
158	0xbd985715	-0.074384846
159	0x3b1db45f	0.0024063808
160	0x3d82dda7	0.06389933
161	0x3d3376bd	0.04381441
162	0x3d6e43ec	0.058170244
163	0xbdaf0e6d	-0.085476734
164	0x3d61da30	0.05513972
165	0x3d9e5c49	0.07732446
166	0xbd8bd96f	-0.068285815
167	0x3d0f8bb3	0.035045337
168	0x3d950e58	0.072781265
169	0xbd9eb48f	-0.077492826
170	0x3d18c1db	0.03729425
171	0x3c3329ef	0.010935291
172	0xbd8573fd	-0.06516264
173	0xbd962368	-0.07330972
174	0x3d248279	0.04016349
175	0xbd4f6d51	-0.05064136
176	0x3db2f3fc	0.087379426
177	0x3db240e3	0.087037824
178	0x3d777fa9	0.06042448
179	0x3d26532e	0.04060667
180	0xbc45cd3a	-0.012072856
181	0xbc8b22a6	-0.016984295
182	0x3d54bb1d	0.051936258
183	0x3d6cfe0d	0.05785947
184	0xbb494b7e	-0.0030715163
185	0x3d767b15	0.060175974
186	0xbd4e677b	-0.050391655
187	0x3d8580f3	0.06518736
188	0x3d0fc0e3	0.03509606
189	0x3d9b468c	0.07581815
190	0xbd8698a9	-0.06572086
191	0xbdb11be5	-0.086478986
192	0x3da5d83d	0.08097885
193	0x3cccbe62	0.024993125
194	0xbc5ac57d	-0.013352749
195	0x3c5f0515	0.0136120515
196	0xbda3f98e	-0.08006583
197	0x3d2ed739	0.04268572
198	0xbcfbaf30	-0.030723184
199	0xbd95050f	-0.072763555
200	0xbd8e611f	-0.06952118
201	0xbd3a30cd	-0.045456696
202	0xbd6f9319	-0.058489893
203	0xbd44ddff	-0.048063274
204	0xbcb8809f	-0.022522269
205	0x3d9167db	0.07099887
206	0x3d6d1afd	0.057887066
207	0xbcc0d035	-0.02353678
208	0x3c39f74c	0.011350464
209	0x3d0029aa	0.031289734
210	0xbcf7849b	-0.030214598
211	0xbc645f9b	-0.01393881
212	0x3b476f76	0.0030431426
213	0x3d68063d	0.056646574
214	0xbd7bef06	-0.061507247
215	0x3cd93ad9	0.026517319
216	0x3d9436ae	0.07236992
217	0xbd8b57e7	-0.068038754
218	0x3d2e7220	0.042589307
219	0xbdaa3e14	-0.08312622
220	0x37869fef	1.604852e-05
221	0x3cc61d0f	0.024183778
222	0xbda3cbe9	-0.07997877
223	0xbbd19027	-0.006395358
224	0x3c75cc08	0.015002258
225	0xbd31999f	-0.043359395
226	0xbc5e020d	-0.013550294
227	0x3d4bac23	0.04972471
228	0xbd3cd00d	-0.04609685
229	0xbd13f0b7	-0.036118235
230	0x3cc763be	0.024339553
231	0xbd915b01	-0.07097436
232	0x3d2f2939	0.042763922
233	0xbd936011	-0.071960576
234	0x3a98737c	0.0011631097
235	0xbc471fd2	-0.012153583
236	0x3cc6942e	0.02424058
237	0x3c0de589	0.0086606825
238	0xbd8685fa	-0.06568523
239	0xbb3842b7	-0.0028115937
240	0xbbf51a01	-0.0074799065
241	0x3d680bd3	0.0566519
242	0x3d605281	0.05476618
243	0x3daa317e	0.08310221
244	0xbd22500c	-0.03962712
245	0x3d1f81d6	0.03894218
246	0x3b92f665	0.004484939
247	0x3d9ba13f	0.075991146
248	0x3d287ada	0.041132785
249	0x3c40da22	0.011770757
250	0x3b02adf5	0.0019940112
251	0x3c9cd3cd	0.019143963
252	0x3cb54ecc	0.0221323
253	0xb93e027d	-0.00018120739
254	0xbd0bd3ca	-0.034137525
255	0x3d069994	0.032861307

encoder.layers.0.nn.net.2.bias f4 [128]
0	0xbda30469	-0.079598255
1	0xbcba758b	-0.022761127
2	0xbce6ef99	-0.028190421
3	0xbc251efb	-0.010078187
4	0xbd42ae7b	-0.04752968
5	0x3bd8ed1b	0.006620062
6	0xbd87a80a	-0.06623848
7	0x3cf0317b	0.02932047
8	0xbd99faba	-0.075185254
9	0x3bf9932b	0.0076164207
10	0xbbb16bfb	-0.0054144836
11	0xbb5db049	-0.0033826998
12	0x3d98d177	0.07461827
13	0xbb27c77d	-0.0025601082
14	0x3d66c0ee	0.056336336
15	0x3d91f3c6	0.07126574
16	0x3d06af43	0.032881986
17	0x3cbb9b63	0.022901243
18	0x3c661c6a	0.01404486
19	0x3d9bbc77	0.07604306
20	0xbd990cbc	-0.07473132
21	0xbdb86e7f	-0.090054505
22	0x3c588d47	0.013217277
23	0x3cdebb64	0.027188964
24	0xbd79c56f	-0.060979303
25	0xbc98ccaa	-0.018652279
26	0xbd8344d9	-0.06409616
27	0xbcd9f6bf	-0.026606916
28	0x3dba3d54	0.09093729
29	0xbd20f957	-0.03930029
30	0x3c120e67	0.008914567
31	0x3d42946b	0.047504824
32	0x3daa44ab	0.083138786
33	0xbb6ecf6f	-0.0036439558
34	0xbd096cc8	-0.033551008
35	0xbd655816	-0.05599221
36	0xbdac7512	-0.08420767
37	0x3d3d2570	0.04617828
38	0xbd6de6de	-0.0580815
39	0x3c3c396d	0.011488301
40	0x3d4a2183	0.049348366
41	0xbd204925	-0.039132256
42	0x3d21db50	0.039515793
43	0xbcc4655f	-0.023974119
44	0xbd868da3	-0.06569984
45	0x3d8c6624	0.06855419
46	0x3c33da9f	0.010977416
47	0x3d19719e	0.03746187
48	0x3c86ac27	0.01643951
49	0x3d3b266b	0.045690935
50	0xbd60d518	-0.054890722
51	0x3db9f5a1	0.09080053
52	0x3d2196eb	0.039450567
53	0x3c99f58a	0.01879384
54	0x3d6f9fd1	0.058502022
55	0x3da41d54	0.080134064
56	0xbd90e01b	-0.07073995
57	0xbd7f4f2f	-0.062331375
58	0x3c53ed5c	0.012935009
59	0xbd34f7f3	-0.044181775
60	0xbdb0c8cd	-0.0863205
61	0xbda7542b	-0.08170351
62	0x3d86f1c7	0.06589084
63	0x3c3fd7b0	0.011709139
64	0xbd1654ef	-0.036702093
65	0x3d7c4fa0	0.061599374
66	0xbd94ac04	-0.07259372
67	0xbc8f33a6	-0.017480683
68	0x3db54c73	0.08852472
69	0x3d62e95f	0.05539834
70	0xbd2b29a6	-0.041787766
71	0x3d4e941b	0.050434213
72	0xbda097d8	-0.07841462
73	0xbd2b8745	-0.04187705
74	0x3d850a04	0.06496051
75	0x3d97a7a3	0.07405021
76	0xbd84a43a	-0.06476636
77	0x3ca286fb	0.019839754
78	0x3d81fc90	0.063470006
79	0xbd8dd1b7	-0.069247656
80	0x3d2e8167	0.042603876
81	0xbc91b964	-0.017788596
82	0xbc067615	-0.008206864
83	0xbd937566	-0.07200126
84	0x3c71add8	0.01475092
85	0xbc78bcb9	-0.015181714
86	0x3d5db068	0.054123312
87	0x3cb547a6	0.022128891
88	0x3c543719	0.012952589
89	0x3d81a735	0.0633072
90	0xbdb07f73	-0.08618059
91	0x3c5ce379	0.013481968
92	0x3c457515	0.01205184
93	0x3ca07fb7	0.01959215
94	0xbd53b5f9	-0.051687215
95	0xbd8ee978	-0.069781244
96	0x3cdc6dec	0.026907884
97	0xbd1b9d08	-0.037991554
98	0xbd8c0ea2	-0.068387285
99	0xbd9cf5d9	-0.07664079
100	0x3d01d0e0	0.03169334
101	0x3da1b0ef	0.078950755
102	0x3d6eba53	0.05828316
103	0xbd6c5f40	-0.057708025
104	0x3d606368	0.0547823
105	0xbc3752dd	-0.01118919
106	0xbd8dd9a8	-0.0692628
107	0x3d088462	0.033329375
108	0x3d296d1f	0.04136383
109	0x3cda3db7	0.026640756
110	0x3d8a67cd	0.0675808
111	0xbd418a8c	-0.04725127
112	0x3cce8c48	0.025213376
113	0xbd1a429b	-0.037661176
114	0x3d07fe62	0.033201583
115	0x3d6b1543	0.057393324
116	0x3d7187d5	0.05896743
117	0xbd5775df	-0.052602645
118	0xbda32b85	-0.07967285
119	0xbdb378ad	-0.087632515
120	0xbd8a9d03	-0.06768229
121	0xbd9580fa	-0.07299991
122	0x3c8ebade	0.01742309
123	0x3cc4c929	0.024021702
124	0xbd12231d	-0.035678018
125	0x3d1f8b77	0.038951363
126	0x3c84d8d1	0.016216667
127	0xbd51f2aa	-0.051256813

encoder.layers.1.nn.net.0.weight f4 [128, 128]
0	0x3d47f9cb	0.048822206
1	0xbd3a685a	-0.045509674
2	0x3da091e9	0.0784033
3	0xbd8938d1	-0.0670029
4	0x3cb97923	0.02264077
5	0x3b557d65	0.0032575962
6	0x3caadecf	0.020858197
7	0x3d65d234	0.05610867
8	0x3b6e2697	0.003633892
9	0x3c2ae7f5	0.010431279
10	0xbd3da261	-0.046297435
11	0x3d99ac8d	0.075036146
12	0xbccf2801	-0.02528763
13	0xbd7097c5	-0.05873849
14	0xbbe8b0fb	-0.007101176
15	0x3db493c6	0.08817248
16	0x3d4b382e	0.049614124
17	0x3d1da7bb	0.03849004
18	0x3d25709b	0.040390592
19	0x3cdd723a	0.027032007
20	0xbc8707e8	-0.016483262
21	0xbc15b978	-0.0091384575
22	0x3db39d20	0.087702036
23	0x3db78115	0.08960167
24	0x3d9b3825	0.07579068
25	0x3d70d9b2	0.05880136
26	0xbbfe11e0	-0.0077535957
27	0xbd781e1e	-0.060575597
28	0x3d1dcd9e	0.03852617
29	0xbb88d27a	-0.0041754814
30	0x3dae434d	0.0850893
31	0xbc87a735	-0.016559223
32	0x3b9480a9	0.004531939
33	0x3d3c42cc	0.04596214
34	0xbd952d9e	-0.072840914
35	0x3d51a64b	0.05118398
36	0xbd6b6d17	-0.057477083
37	0x3c0c9382	0.0085800905
38	0xbd482ba8	-0.04886976
39	0xbd855010	-0.06509411
40	0x3c1d4b65	0.009600495
41	0xbcc2dced	-0.023786986
42	0xbd9564b7	-0.072946005
43	0xbd48926a	-0.048967756
44	0xbb62a385	-0.0034582329
45	0x3cec918b	0.028877994
46	0xbd973a78	-0.07384199
47	0x3c28e3dd	0.010308233
48	0xbd0520cc	-0.03250198
49	0x3da1723b	0.07883116
50	0xbd4baef5	-0.0497274
51	0x3cd546c7	0.026034726
52	0xbcac315a	-0.021019626
53	0xbd8f74f8	-0.07004732
54	0x3ba54ea0	0.005044773
55	0x3d92e1a8	0.07171947
56	0xbd29a00f	-0.04141241
57	0x3d853d84	0.06505874
58	0x3c8114bd	0.01575696
59	0xbd8a410f	-0.0675069
60	0x3bc4b35a	0.0060028257
61	0x3d2835a9	0.0410668
62	0x3c9e489f	0.019321738
63	0x3dacadaf	0.08431565
64	0x3cb6eb9d	0.022329146
65	0xbd180f56	-0.037124
66	0xbd93a689	-0.072094984
67	0xbd5feaa2	-0.054667123
68	0x3c26f06e	0.010189159
69	0x3dbf91e7	0.093540005
70	0x3b8f1800	0.0043668747
71	0xbda4b2f4	-0.08041945
72	0xbc97e76f	-0.018542973
73	0xbca5fd57	-0.020262403
74	0xbd282f11	-0.04106051
75	0x3da4378b	0.080184065
76	0x3d5cd78e	0.053916506
77	0xbc2c44f4	-0.010514487
78	0xbda7c926	-0.08192663
79	0x3d48b259	0.04899821
80	0x3d4ce1c6	0.05002
81	0xbd6c5a38	-0.057703227
82	0x3ca34b23	0.019933289
83	0x3c935691	0.017985614
84	0x3daf65da	0.085643485
85	0xbd955aea	-0.07292731
86	0x3d3f121d	0.046648134
87	0xbb72ec66	-0.0037067174
88	0xbd915023	-0.07095363
89	0x3d7fb2d5	0.062426407
90	0x3d6fe0d5	0.058564026
91	0x3d251ea0	0.04031241
92	0xbd0b8635	-0.034063537
93	0x3d8bd883	0.06828406
94	0xbc89792e	-0.016781416
95	0xbd22a4cf	-0.039707955
96	0xbda3b7b5	-0.07994024
97	0x3cb0f7c0	0.021602511
98	0x3d9b1ef4	0.07574263
99	0xbd2e9355	-0.042620976
100	0x3d961a17	0.07329195
101	0xbc634094	-0.013870377
102	0x3db3a6a9	0.08772022
103	0xbd73d270	-0.05952686
104	0xbdac99ae	-0.084277496
105	0x3cddbb34	0.027066804
106	0x3cf0742d	0.029352272
107	0x3cc4642f	0.023973553
108	0xbc82c4bd	-0.015962953
109	0xbd31809c	-0.043335542
110	0xbd4888d3	-0.04895861
111	0x3c5507dd	0.013002363
112	0x3c3afd91	0.011412994
113	0x3c66d8a1	0.014089734
114	0x3ca5c5d0	0.020235926
115	0xbc9a0f88	-0.018806234
116	0xbd10bb0b	-0.035334628
117	0xbd76b710	-0.060233176
118	0xbd248c37	-0.04017278
119	0xbd9aee19	-0.07564945
120	0x3daed133	0.08535995
121	0xbd99a39c	-0.07501909
122	0xbd5bc6d1	-0.053656403
123	0x3b08dfba	0.0020885305
124	0xbc6048f4	-0.013689268
125	0xbcffd6dd	-0.031230384
126	0x3da4b54a	0.08042391
127	0xbc9dfc4b	-0.019285342
128	0x3d910585	0.07081131
129	0x3d466da3	0.0484444
130	0x3d972c08	0.07381445
131	0x3ba61b3b	0.005069164
132	0x3d9736e7	0.07383519
133	0xbc2bccb8	-0.0104858205
134	0x3d2a7778	0.04161784
135	0x3cac944c	0.021066807
136	0xbd948f88	-0.07253939
137	0xbd4749c6	-0.04865434
138	0xbd655cd2	-0.055996723
139	0x3c40bc37	0.011763624
140	0x3cf5e9ba	0.030018676
141	0xbda19a3d	-0.07890747
142	0xbd9a8a16	-0.07545869
143	0xbd4d60c3	-0.050141107
144	0xbd4163f5	-0.047214467
145	0x3cc00661	0.023440542
146	0x3d6f9c78	0.05849883
147	0x3ca49618	0.020091102
148	0xbd1f1699	-0.03883991
149	0x3dac6a4b	0.08418711
150	0x3d099bcd	0.03359585
151	0x3d073126	0.033005856
152	0x3d27adb1	0.04093713
153	0x3c8e6fad	0.017387236
154	0x3d06f915	0.032952387
155	0xbcc539db	-0.02407544
156	0xbda6552e	-0.081217155
157	0xbcbfcb38	-0.023412332
158	0xbda2382d	-0.07920871
159	0x3c9d1364	0.019174285
160	0x3c9c5692	0.019084249
161	0xbc164bea	-0.009173373
162	0xbd2f9632	-0.042867847
163	0x3d845ee5	0.06463412
164	0x3d5bc8b4	0.053658202
165	0xbdaf3bb2	-0.08556308
166	0x3d0ec4b0	0.034855545
167	0xbd4bf5ab	-0.049794834
168	0x3d159960	0.036523223
169	0x3d018a4e	0.03162604
170	0xbdaa2ad5	-0.08308951
171	0x3d34dde4	0.044156924
172	0xbd8e7acb	-0.06957015
173	0xbd88aa86	-0.0667315
174	0x3c1fb5b6	0.009747913
175	0xbd3caf31	-0.046065513
176	0x3d2cd519	0.042195413
177	0x3c2d7773	0.010587561
178	0xbcfe8b6e	-0.031072345
179	0xbc9b323d	-0.018944854
180	0xbd328490	-0.043583453
181	0xbcb5afa4	-0.022178479
182	0xbd7574c2	-0.059925802
183	0x3caa2d6c	0.020773612
184	0xbd96c43c	-0.073616475
185	0x3d865f96	0.065612
186	0x3d41a147	0.047272947
187	0x3d2797a0	0.040916085
188	0x3c6d05d9	0.014466726
189	0x3da7d334	0.08194581
190	0xbc517ac1	-0.0127856145
191	0x3b2f7774	0.002677408
192	0xbd9f1b23	-0.07768848
193	0x3c00e49a	0.007867003
194	0xbce5fb5d	-0.02807396
195	0xbc7a5c43	-0.015280786
196	0x3b161490	0.002290044
197	0x3daf08b8	0.08546585
198	0xbac86738	-0.0015289551
199	0xbcca237c	-0.024675123
200	0x3d003786	0.03130295
201	0xbd7d66e0	-0.061865687
202	0x3d7ee791	0.062232558
203	0x3cc1d2ea	0.023660142
204	0xbd070219	-0.032960985
205	0x3cf03997	0.029324336
206	0x3d170c55	0.036876995
207	0x3db336c3	0.08750679
208	0x3d89fcdd	0.06737683
209	0xbd0997f1	-0.03359217
210	0x3c9fdb42	0.01951373
211	0x3d76ac70	0.060223043
212	0xbd1ff9fc	-0.039056763
213	0x3d623d0d	0.055234004
214	0xbd650368	-0.05591145
215	0x3d3b92df	0.045794364
216	0xbc502b71	-0.01270567
217	0xbcb15dd1	-0.02165118
218	0xbc74ff4d	-0.014953447
219	0xbd13246c	-0.035923406
220	0xbd3e876b	-0.046515863
221	0xbd876996	-0.06611936
222	0x3da819a2	0.08208014
223	0xbd8537e0	-0.06504798
224	0x3d746879	0.059669945
225	0x3d26040f	0.040531214
226	0x3d813fda	0.06311007
227	0x3d69703b	0.056991797
228	0x3d2f4262	0.042787917
229	0xbac53c8e	-0.0015047954
230	0x3ca9d9a6	0.020733666
231	0x3d024a6c	0.031809255
232	0xbd0265f9	-0.03183553
233	0xbce53358	-0.027978584
234	0x3d987cb9	0.07445664
235	0xbdabd6a8	-0.08390552
236	0xbc956237	-0.018235309
237	0x3da6b36d	0.081396915
238	0xbd8630ee	-0.06552301
239	0x3c6b5d92	0.014365571
240	0x3d8b2b9f	0.067954294
241	0xbd71f2af	-0.05906933
242	0x3d104042	0.03521753
243	0xbd998216	-0.07495515
244	0xbdb48f4f	-0.088163964
245	0x3d66d373	0.056353997
246	0x3d7451d2	0.059648342
247	0xbc22ae25	-0.009929215
248	0xbd942a2e	-0.07234608
249	0xbda0446c	-0.078255504
250	0x3d619142	0.05507017
251	0xbd245e75	-0.040129144
252	0xb9328244	-0.0001702393
253	0xbcfc2c56	-0.03078286
254	0xbb44e464	-0.0030043358
255	0x3d979ef7	0.07403367

encoder.layers.1.nn.net.0.bias f4 [128]
0	0x3c03b6cf	0.00803919
1	0xbd91100b	-0.07083138
2	0xbd89198c	-0.06694326
3	0x3cedfd3f	0.029051421
4	0xbd9e011d	-0.07715056
5	0xbd9ac349	-0.07556779
6	0x3daa018b	0.083010755
7	0x3d81847c	0.063240975
8	0x3dae8f90	0.08523476
9	0xbcf954b7	-0.030435903
10	0xbb24c743	-0.0025143183
11	0xbd0f553a	-0.034993388
12	0xbd4b4a4b	-0.0496314
13	0xbd1e08be	-0.038582556
14	0x3d3368aa	0.043800987
15	0x3d9b3e3f	0.07580232
16	0x3d7003e8	0.058597475
17	0xbc079b44	-0.008276764
18	0xbb390c6d	-0.0028236166
19	0xbd80a9f1	-0.06282414
20	0xbcf873c4	-0.030328639
21	0xbcf706aa	-0.030154545
22	0xbd9c0377	-0.07617848
23	0xbd89d348	-0.06729752
24	0x3da3136d	0.079626895
25	0x3d8ba141	0.06817866
26	0xbcdcb707	-0.026942743
27	0xbd6ea61f	-0.058263894
28	0x3d484361	0.048892383
29	0xbd4070d0	-0.046982586
30	0x3c9feed9	0.019523071
31	0xbd0da41e	-0.034580342
32	0xbb7e2207	-0.0038777606
33	0x3c5acce5	0.013354515
34	0xbcefbb63	-0.029264158
35	0xbd98f93d	-0.074694134
36	0x3d9c5cb1	0.07634867
37	0x3d665814	0.05623634
38	0xbd03f43b	-0.03221534
39	0xbd5ef499	-0.054432485
40	0x3ca8123d	0.02051651
41	0xbc5b4daf	-0.01338522
42	0xbd86cd2a	-0.06582101
43	0xba8f66c6	-0.0010940663
44	0x3d2722d3	0.040804695
45	0x3d987b37	0.07445376
46	0xba65d022	-0.0008766671
47	0xbbb045fa	-0.0053794356
48	0x3db3ca65	0.08778838
49	0x3d9db884	0.07701209
50	0xbc701fcd	-0.014656019
51	0xbcf7754e	-0.030207302
52	0xbd240a16	-0.04004868
53	0x3d64c443	0.055851232
54	0xbd6cfc4f	-0.057857808
55	0x3cb79290	0.022408754
56	0xbd54a9e9	-0.05191985
57	0xbdabad97	-0.08382719
58	0xbd82a995	-0.063800015
59	0xbd212c67	-0.039348986
60	0x3da817bd	0.08207653
61	0xbd5842f3	-0.052798223
62	0x3d4cbd4a	0.049985208
63	0x3ccc9a62	0.02497596
64	0x3d503e0e	0.05084043
65	0x3d1782ce	0.03698998
66	0xbd3adf49	-0.045623098
67	0x3d680582	0.056645878
68	0x3d76fe0e	0.06030088
69	0x3db85f2c	0.090025276
70	0x3c49e9ab	0.012323777
71	0xbcab944e	-0.02094474
72	0xbd9e9d08	-0.07744795
73	0xbd5c3fb7	-0.0537717
74	0x3d27b64b	0.040945332
75	0x3b817765	0.0039510005
76	0xbcb149ab	-0.021641573
77	0xbd54e6a7	-0.05197778
78	0xbdadaf9b	-0.0848076
79	0x3b4948f2	0.0030713645
80	0xbc2a0b7d	-0.010378716
81	0xbb6ea16e	-0.0036412138
82	0x3bb6ad2b	0.0055748424
83	0x3cd4c5a7	0.025973154
84	0xbaf8711a	-0.0018954605
85	0xbcc7bdd5	-0.024382511
86	0x3d84bcd8	0.064813316
87	0xbd12d847	-0.03585079
88	0x3acd1c9f	0.0015648789
89	0x3c8f7e59	0.017516302
90	0x3d658607	0.05603602
91	0xbaadafe1	-0.0013251269
92	0x3da28726	0.07935934
93	0xbca44dd1	-0.020056637
94	0xbd8537b7	-0.065047674
95	0x3d89208e	0.066956624
96	0x3d8be595	0.06830899
97	0x3d1728ae	0.03690403
98	0xbd592f31	-0.05302352
99	0x3bf77e0e	0.0075528687
100	0xbd921ee2	-0.07134797
101	0xbc80e0f8	-0.015732273
102	0x3ca1abff	0.019735334
103	0x3d994fc0	0.07485914
104	0x3cb8a8cf	0.022541432
105	0xbce0a38c	-0.027421735
106	0xbd98b6ee	-0.07456766
107	0xbda7a7da	-0.08186312
108	0x3daace58	0.08340138
109	0x3a5f533d	0.00085191784
110	0x3d976586	0.07392411
111	0xbcb143ba	-0.02163874
112	0xbc5fe233	-0.01366477
113	0x3d6542e3	0.05597199
114	0x39424004	0.0001852513
115	0xbc105363	-0.008808943
116	0xbcdc2a5e	-0.026875671
117	0x3d1a41a0	0.03766024
118	0xbd617358	-0.05504164
119	0xbd5d7243	-0.054064047
120	0xbd8f0a7d	-0.06984422
121	0xbd96888f	-0.07350265
122	0x3d57816d	0.052613664
123	0xbbde955e	-0.0067927083
124	0xbd00577a	-0.031333424
125	0xbcdda63b	-0.027056804
126	0x3d2667df	0.040626403
127	0x3ca302c0	0.019898772

encoder.layers.1.nn.net.2.weight f4 [128, 128]
0	0x3a9032e6	0.0011001497
1	0xbc77b8d7	-0.015119753
2	0x3c57c114	0.013168592
3	0x3da8ef95	0.08248822
4	0xbc34070b	-0.010988007
5	0xbc94ff09	-0.018188016
6	0x3d31a3f2	0.04336924
7	0x3d9a655d	0.07538865
8	0x3d3995f1	0.04530901
9	0x3d2b0bdb	0.041759353
10	0xbc8ba8d6	-0.01704828
11	0x3d3a9f94	0.04556234
12	0x3d6c1ffc	0.05764769
13	0x3d7e016a	0.062013067
14	0x3c32eb9e	0.010920433
15	0xbd83025b	-0.06396934
16	0xbbd513f9	-0.006502625
17	0x3d55175a	0.052024223
18	0xbdad7f83	-0.084715866
19	0x3d81c707	0.063367896
20	0x3c1177bb	0.008878644
21	0x3d831866	0.06401138
22	0x3b0015dd	0.0019544282
23	0xbc925f40	-0.017867684
24	0x3d4f5ef2	0.050627656
25	0x3d2dbb30	0.042414844
26	0x3d9062af	0.070500724
27	0x3d90fa4a	0.07078989
28	0x3c4c77c0	0.0124797225
29	0x3d4dd713	0.05025394
30	0xbd933138	-0.07187122
31	0x3db1792a	0.08665688
32	0xbd1788a3	-0.03699554
33	0x3bf8fa48	0.007598195
34	0xbd95a3b4	-0.073066145
35	0x3d119dfc	0.035551056
36	0xbd835c44	-0.06414083
37	0x3d5bda9b	0.053675275
38	0x3d913e3b	0.07091948
39	0x3d144b3d	0.036204565
40	0xbd5c0d02	-0.053723343
41	0xbd93cf11	-0.07217229
42	0x3c702c03	0.014658931
43	0x3da2240a	0.0791703
44	0x3daf21b3	0.085513495
45	0x3cf62324	0.030046053
46	0xbdb1a3c8	-0.08673817
47	0x3c9c5d1e	0.01908737
48	0x3cddb13d	0.027062053
49	0x3d3f044b	0.046634953
50	0xbd53d9c8	-0.051721364
51	0x3bf6dd90	0.0075337365
52	0x3daa766c	0.083233684
53	0x3cc11b91	0.023572715
54	0x3d83d38e	0.06436835
55	0xbbb772c1	-0.0055983965
56	0xbb7e4570	-0.0038798712
57	0x3d76b5e4	0.06023206
58	0xbd81623d	-0.063175656
59	0x3d2b0574	0.041753247
60	0x3c98c5ae	0.018648949
61	0x3cdf3826	0.027248453
62	0xbd479842	-0.04872919
63	0x3cbe6365	0.023240754
64	0xbc896357	-0.016771002
65	0xbc20edb5	-0.009822299
66	0xbc83ce00	-0.01608944
67	0xbd07e742	-0.03317953
68	0xbd8c985e	-0.06864999
69	0xbd07bdb2	-0.033139892
70	0x3d3a60d4	0.0455025
71	0xbb02a39c	-0.0019933945
72	0xbd2a3cf1	-0.041562025
73	0x3b621c5d	0.003450177
74	0x3d873a79	0.0660295
75	0x3d84dffd	0.06488035
76	0xbd7e58ce	-0.06209641
77	0x3d178e80	0.037001133
78	0xbc952c64	-0.018209644
79	0x3d2bc169	0.041932497
80	0x3c4768ca	0.01217098
81	0x3c0ca13c	0.008583363
82	0x3a9415c0	0.0011297986
83	0x3cd06333	0.025437927
84	0x3d7fd5f5	0.062459905
85	0xbd0806ac	-0.033209488
86	0xbab77b4e	-0.001399854
87	0x3d0ccc23	0.034374367
88	0xbc94f134	-0.01818142
89	0x3d90925d	0.070591666
90	0xbd87461b	-0.066051684
91	0xbd81de3d	-0.06341217
92	0x3d920316	0.07129495
93	0x3da86c33	0.08223762
94	0xbd5c9ccd	-0.053860474
95	0x3b4ffa27	0.0031734796
96	0x3bda41db	0.0066606826
97	0x3d80ed88	0.062953055
98	0x3d8bbaf3	0.06822767
99	0x3c2b347c	0.010449525
100	0x3d973ed3	0.0738503
101	0xbd845c5f	-0.06462931
102	0xbcf06be0	-0.029348314
103	0xbd88cf7b	-0.06680199
104	0x3d809843	0.062790416
105	0x3abfe3b7	0.0014640008
106	0x3b3f3c8a	0.0029180371
107	0x3a1b815a	0.00059320556
108	0xbd366f23	-0.044539582
109	0x3d9ab29b	0.075535975
110	0xbc11fcd9	-0.008910381
111	0xbc43c532	-0.0119488705
112	0x3d9f7735	0.07786409
113	0xbd8f65d8	-0.07001847
114	0xbcff508a	-0.031166334
115	0xbda277ec	-0.079330295
116	0x3a366d70	0.00069590565
117	0xbd9e71a3	-0.07736518
118	0x3da9bbf0	0.08287799
119	0xbbb3a905	-0.005482795
120	0xbae55f60	-0.0017499737
121	0x3da0368d	0.07822905
122	0xbd7adaa7	-0.06124368
123	0x3db43711	0.087995656
124	0xbd6db563	-0.058034312
125	0xbca2823d	-0.019837493
126	0xbd860ec6	-0.065457866
127	0x3cfebac9	0.031094925
128	0xbc0d7d90	-0.008635893
129	0x3cdbb754	0.026820816
130	0xbd16d07d	-0.036819924
131	0x3d518dec	0.051160738
132	0xbd64749e	-0.055775277
133	0x3cb026ac	0.021502815
134	0x3d593ce2	0.053036578
135	0xbd449fb8	-0.048003882
136	0x3d4ac6b9	0.049505923
137	0xbca6d531	-0.02036533
138	0xbd89de2c	-0.06731829
139	0xbc47abfe	-0.012187002
140	0x3dadb013	0.08480849
141	0xbd8e59b5	-0.06950704
142	0x3c375508	0.011189707
143	0xbcc16ed8	-0.023612425
144	0xbda29589	-0.07938678
145	0xbd22c3dc	-0.039737567
146	0xbd87c8eb	-0.06630119
147	0x3da61ef6	0.08111374
148	0x3d12f1f9	0.035875294
149	0x3cebc073	0.02877829
150	0xbcc8fa0f	-0.0245333
151	0xbd2ba3ee	-0.041904382
152	0x3caa33d6	0.02077667
153	0x3d3d4ed3	0.04621775
154	0x3d001ef7	0.03127953
155	0xbd89bf94	-0.06725994
156	0xbda5613e	-0.08075188
157	0xbdb27f6b	-0.08715709
158	0xbd61a901	-0.055092815
159	0xbca9662d	-0.020678604
160	0xbd7a781d	-0.061149705
161	0x3c8d4337	0.017243965
162	0xbd9b0d1e	-0.07570861
163	0x3c145434	0.009053279
164	0x3d03f65b	0.032217365
165	0x3aa2f40c	0.0012432351
166	0x3dacbef1	0.08434857
167	0x3c9dc10d	0.019257093
168	0xbd608ff6	-0.05482479
169	0x3d80e231	0.062931426
170	0x3db726ee	0.08942972
171	0xbd37d645	-0.044882078
172	0x3b651f22	0.0034961184
173	0xbda968d8	-0.082719505
174	0x3d6b6196	0.057466112
175	0xbdabbe28	-0.08385879
176	0xbd738219	-0.059450243
177	0x3d5635cf	0.05229741
178	0x3d5f8d4e	0.054578118
179	0x3d9b3374	0.07578173
180	0x3b7b967e	0.003838926
181	0x3d34d236	0.044145785
182	0xbd9f097b	-0.0776548
183	0xbd1815cf	-0.037130173
184	0xbc94c634	-0.018160917
185	0x3d616db5	0.055036265
186	0xbc4cd2e9	-0.012501457
187	0xbb81202c	-0.0039406028
188	0xbd67583a	-0.056480624
189	0x3b632a78	0.0034662765
190	0x3dade6b9	0.084912725
191	0xbb569b95	-0.0032746543
192	0xbd06bac3	-0.032892954
193	0xbdbaaf0f	-0.09115421
194	0xbd143b96	-0.036189638
195	0xbd975de4	-0.07390955
196	0x3da113cd	0.07865105
197	0xbd4cc1f9	-0.049989674
198	0xbc85e0cc	-0.016342543
199	0x3d1c1b8f	0.03811222
200	0xbd435c49	-0.04769543
201	0x3d057111	0.03257853
202	0x3c84a269	0.016190724
203	0x3d64ea61	0.055887584
204	0xbda8c054	-0.08239809
205	0x3d0b3db8	0.033994406
206	0xbccaa3cc	-0.024736308
207	0xbda85481	-0.08219243
208	0x3d43cf82	0.047805317
209	0xbda19170	-0.07889068
210	0xbd876ebe	-0.06612919
211	0x3cc43f48	0.023955956
212	0x3d906b3a	0.07051702
213	0xbd86b6fd	-0.06577871
214	0x3dae9051	0.0852362
215	0xbda4e4cd	-0.08051453
216	0xbae817a8	-0.0017707245
217	0x3d0222e2	0.031771548
218	0x3d4f6a4d	0.050638486
219	0x3ca99baa	0.02070411
220	0x3d946a72	0.07246865
221	0x3d77d938	0.06050989
222	0x3cea791f	0.028622208
223	0xbdb63335	-0.08896486
224	0xbd81cea3	-0.06338241
225	0x3d8a3e10	0.06750119
226	0xbd0b6698	-0.034033388
227	0xbd46dfdb	-0.04855333
228	0x3d8e2af2	0.06941785
229	0x3da9d8d7	0.08293312
230	0x3cca6441	0.024706008
231	0x3d321fe8	0.04348746
232	0x3d177699	0.036978338
233	0xbce7858a	-0.028261919
234	0x3a437669	0.0007456304
235	0x3cd717c8	0.026256457
236	0xbd915a4c	-0.07097301
237	0xbd413ad1	-0.047175232
238	0xbd4273d2	-0.047473736
239	0xbda786bf	-0.08179998
240	0xbcd01f11	-0.025405439
241	0x3d95f5dd	0.07322285
242	0x3a1d760b	0.00060066645
243	0x3d7dd50c	0.061970755
244	0xbc0011ca	-0.007816741
245	0x3da5de28	0.080990136
246	0x3c6e3cd6	0.014540872
247	0xbd8ea18d	-0.06964407
248	0x3b9bb312	0.0047515715
249	0x3ca5cafd	0.020238394
250	0xbbe1d287	-0.006891552
251	0xbd8de827	-0.06929045
252	0xbd9ff2de	-0.07809995
253	0xbd8fcbec	-0.07021317
254	0x3d63418b	0.05548243
255	0x3d6348e9	0.055489454

encoder.layers.1.nn.net.2.bias f4 [128]
0	0x3d0cc141	0.03436399
1	0xbda5eb4b	-0.08101519
2	0x3cb5367e	0.02212071
3	0xbd3d6d7b	-0.046246987
4	0x3db2e55a	0.087351516
5	0x3d76b2c5	0.06022908
6	0xbd94c635	-0.072643675
7	0x3da96e00	0.08272934
8	0xbd8dd4e4	-0.06925371
9	0xbd232356	-0.03982862
10	0xbdae7d8e	-0.085200414
11	0x3da2d14b	0.07950076
12	0xbc53f312	-0.01293637
13	0x3da7862d	0.08179889
14	0x3d334956	0.04377111
15	0xbd9914c9	-0.074746676
16	0x3cb56219	0.022141503
17	0x3d712d21	0.05888093
18	0x3d3c1b2d	0.045924354
19	0xbd16fbda	-0.036861278
20	0xbd400073	-0.04687543
21	0xbc09e119	-0.008415484
22	0x3b1acade	0.0023619453
23	0x3d878609	0.06617362
24	0xbcc2decd	-0.02378788
25	0xbd052891	-0.03250939
26	0xbd53d339	-0.05171511
27	0xbd06f163	-0.032945048
28	0x3da86398	0.08222121
29	0x3d1c9511	0.0382281
30	0x3ceed1c7	0.029152764
31	0xbb6db9a6	-0.0036273985
32	0xbcba9dcf	-0.022780327
33	0xbcf3a1ff	-0.029740332
34	0x3da6e38b	0.08148869
35	0xbc943545	-0.018091807
36	0x3da3baa9	0.07994587
37	0xbdb26595	-0.087107815
38	0xbdaf0d0b	-0.085474096
39	0x3a2c9495	0.000658342
40	0xbd4ded5d	-0.050275195
41	0x3d7eea61	0.06223524
42	0x3cc91eb0	0.024550766
43	0x3cb73811	0.022365602
44	0x3b021cb8	0.0019853543
45	0xbd504e00	-0.050855637
46	0xbd9e7701	-0.07737542
47	0x3cb6b6c2	0.022303943
48	0x3d54b0ea	0.05192653
49	0xbc94d5d2	-0.018168364
50	0xbc5b593d	-0.013387975
51	0x3c8ae22b	0.016953548
52	0x3d4f712b	0.050645035
53	0x3d5a77ae	0.05333679
54	0x3da278e5	0.07933215
55	0xbb07296f	-0.0020624062
56	0x3cc18325	0.023622105
57	0x3d847553	0.0646769
58	0x3cbf67b9	0.023364889
59	0x3d37a045	0.04483058
60	0x3db0b95c	0.086291045
61	0xbcaa9509	-0.020823019
62	0xbd922291	-0.07135499
63	0x3cb8512e	0.022499647
64	0xbd96d5bb	-0.073649846
65	0x3d325b38	0.043544024
66	0x3d7d67f4	0.061866716
67	0x3cf35722	0.029704634
68	0x3d9db93f	0.077013485
69	0xbd9c9637	-0.07645839
70	0xbd9cf5a8	-0.07664043
71	0x3d07aa17	0.033121195
72	0xbd7ca28a	-0.061678447
73	0x3cb789fe	0.022404667
74	0xbcc7932d	-0.024362171
75	0x3d9d7131	0.07687605
76	0xbc070ed9	-0.008243286
77	0x3c4ef84b	0.01263244
78	0x3cdbc36b	0.026826581
79	0xbcc29aef	-0.023755519
80	0xbd622a50	-0.055216134
81	0x3c978bf4	0.018499352
82	0x3d09c51f	0.033635255
83	0xbcb73747	-0.022365225
84	0x3cb1b15c	0.021691017
85	0x3cd3a873	0.025837159
86	0xbd8171bb	-0.063205205
87	0xbd83003d	-0.0639653
88	0xbcf648a5	-0.030063936
89	0x3d8944ad	0.06702552
90	0x3c0f9f91	0.008766071
91	0xbccc1ea3	-0.024916952
92	0x3db59a62	0.08867337
93	0x3d2b084c	0.04175596
94	0xbd91f0bd	-0.07125995
95	0xbda8288e	-0.0821086
96	0x3c45003f	0.012023984
97	0x3da6a940	0.081377506
98	0xbd3b5961	-0.045739535
99	0xbd9960fd	-0.07489202
100	0x3d027bb4	0.031856254
101	0x3c74e86a	0.01494799
102	0x3dadc2a4	0.084843904
103	0xbd81efb8	-0.06344551
104	0x3d97fb05	0.07420925
105	0xbce597ca	-0.02802648
106	0xbb9fac55	-0.0048728385
107	0xbba02f2d	-0.0048884363
108	0xbb88880c	-0.0041666087
109	0xbd9108b9	-0.07081742
110	0x3db04dd9	0.08608598
111	0x3d3f150a	0.046650924
112	0xbd31301e	-0.04325878
113	0xbda08c69	-0.07839281
114	0x3c83e421	0.016099991
115	0x3d89d4c7	0.06730037
116	0x3a5a2d2a	0.000832277
117	0x3da3d6f4	0.079999834
118	0x3d852ddf	0.0650289
119	0x3c3abd1c	0.011397626
120	0x3c9b7861	0.0189783
121	0x3cc196fb	0.023631563
122	0x3c857a5a	0.016293693
123	0xbd3b77df	-0.045768615
124	0xbd2dd32b	-0.042437714
125	0x3c79202e	0.015205426
126	0xbc30ed0e	-0.010798706
127	0xbd7b9302	-0.061419494

encoder.layers.2.nn.net.0.weight f4 [128, 128]
0	0x3b1ad7ed	0.0023627237
1	0x3d8b069d	0.06788371
2	0xbbc7a23e	-0.006092339
3	0x3c8f3b36	0.017484289
4	0x3da65200	0.08121109
5	0xbcc6777c	-0.024226896
6	0xbda302ec	-0.07959542
7	0x3d8d13c3	0.06888535
8	0x3d9a3928	0.07530433
9	0x3d9cfbd3	0.07665219
10	0xbcdba6fa	-0.026813019
11	0x3c0337c6	0.008008903
12	0x3d47872d	0.048712898
13	0xbd2144be	-0.0393722
14	0x3d5e9fa3	0.05435146
15	0x3cbc0127	0.022949768
16	0xbc46b5aa	-0.012128273
17	0x3ced5728	0.028972223
18	0x3cc89afa	0.024487961
19	0xbd4df366	-0.05028095
20	0x3d528f90	0.051406443
21	0x3d12b634	0.035818294
22	0x3c96a9aa	0.018391449
23	0x3d44e04d	0.048065472
24	0x3c93c612	0.018038783
25	0xbd14e6c1	-0.036352877
26	0x3d9ecb36	0.07753603
27	0x3d20feab	0.03930537
28	0x3bc53eac	0.006019434
29	0xbcaade2e	-0.020857897
30	0x3c9e4d42	0.019323949
31	0x3d9c8bc8	0.07643849
32	0x3d93dfb6	0.07220404
33	0x3c374a00	0.011187077
34	0x3d407f4b	0.046996396
35	0xbd4f2db0	-0.05058068
36	0x3bfce895	0.0077181556
37	0x3cba570c	0.022746585
38	0x3bc3c0c5	0.0059739077
39	0xbd1867bf	-0.037208315
40	0xbd5e7ce3	-0.05431832
41	0xbc715d0c	-0.014731657
42	0x3d0ce98b	0.03440241
43	0x3bd0351b	0.006353987
44	0x3d069827	0.032859948
45	0x3d5d9dae	0.054105453
46	0xbc294fb5	-0.010333945
47	0x3da0af4f	0.078459375
48	0x3da8aeb0	0.08236444
49	0xbb0ac5b2	-0.0021174964
50	0xbca2b01f	-0.019859372
51	0x3d4d62a0	0.050142884
52	0x3d5a3e6e	0.053282194
53	0xbc6bdbe6	-0.01439569
54	0xbd88fb99	-0.066886134
55	0x3d69643a	0.05698035
56	0xbc922c9d	-0.017843539
57	0xbd97da79	-0.07414717
58	0xbba4a412	-0.0050244415
59	0x3bae8a7a	0.0053265663
60	0xbca5b601	-0.020228388
61	0x3b54c48e	0.0032465789
62	0x3d0989ad	0.033578563
63	0x3b6821db	0.003542057
64	0x3c4ed80d	0.012624753
65	0xbdb1d402	-0.086830154
66	0x3c6d1a32	0.0144715775
67	0xbd87c3d9	-0.06629152
68	0xbdb06f7d	-0.08615015
69	0xbd622935	-0.05521508
70	0x3d92c376	0.071661875
71	0x3ce82541	0.028338077
72	0xbafc4895	-0.0019247705
73	0x3da3b94f	0.07994329
74	0x3c82ea68	0.015980914
75	0xbd6f6609	-0.058446918
76	0xbc37adcc	-0.01121087
77	0xbdb7cd2b	-0.089746796
78	0x3c4578f6	0.012052765
79	0x3ca09065	0.019600103
80	0x3da123ce	0.07868157
81	0xbd9b30a0	-0.07577634
82	0xbbc249e4	-0.0059292186
83	0x3ba31d26	0.00497784
84	0xbd9c73ec	-0.07639298
85	0x3d2e305a	0.04252658
86	0x3d60345e	0.05473744
87	0x3d9acec4	0.07558969
88	0x3d44f5b3	0.04808588
89	0xbc77a88a	-0.015115866
90	0xbd0527d7	-0.032508697
91	0xbd83b377	-0.064307146
92	0xbd6b0762	-0.057380088
93	0x3cd654ee	0.026163545
94	0xbd881104	-0.066438705
95	0x3d94359a	0.07236786
96	0xbdb38f7d	-0.087676026
97	0xbd696fe9	-0.05699149
98	0xbc890e58	-0.016730472
99	0xbc454263	-0.012039754
100	0xbd65056e	-0.05591338
101	0xbd8318b3	-0.064011954
102	0x3d117fcf	0.03552228
103	0x3cb071c4	0.021538623
104	0x3d7682d8	0.060183376
105	0xbd9f2057	-0.0776984
106	0x3d973365	0.073828496
107	0xbce3021e	-0.02771097
108	0x3d009f38	0.031401843
109	0x3d2177af	0.03942078
110	0x3d7b4abe	0.061350577
111	0x3d8074e8	0.06272298
112	0xbd675595	-0.0564781
113	0x3d03516d	0.032060076
114	0x3d34770b	0.04405884
115	0xbd44ad56	-0.04801687
116	0xbd8b8cab	-0.0681394
117	0xbd9966d8	-0.07490319
118	0xbdaf3f06	-0.08556943
119	0xbd8fa980	-0.070147514
120	0xbb7ed53a	-0.0038884417
121	0x3dad0507	0.084482245
122	0x3d84d1d8	0.06485337
123	0x3ac7495d	0.0015204359
124	0x3c046f64	0.008083198
125	0xbd1c343f	-0.038135763
126	0xbd854772	-0.06507768
127	0xbd96d4c5	-0.07364801
128	0xbd7b57c0	-0.06136298
129	0x3c7e0aec	0.015505534
130	0x3da33483	0.07969
131	0x3c394cc5	0.011309807
132	0xbd35e7f6	-0.04441067
133	0xbd8dcf8a	-0.069243506
134	0xbd5e2575	-0.05423494
135	0xbd7a905a	-0.06117282
136	0x3cceac15	0.02522854
137	0x3c85cc84	0.016332872
138	0x3da97e2e	0.0827602
139	0x3da2be33	0.07946434
140	0x3d9a9edf	0.075498335
141	0x3d05df7e	0.032683842
142	0x3d3b495a	0.04572425
143	0xbda83e73	-0.08215036
144	0xbd834a94	-0.06410709
145	0xbd08a572	-0.033360906
146	0x3c61149e	0.013737826
147	0x3d1a78dd	0.03771292
148	0x3db4aa07	0.08821493
149	0xb9c54709	-0.00037627693
150	0xbd75198e	-0.059838824
151	0x3d9a5d4a	0.07537325
152	0xbbb71cec	-0.0055881646
153	0xbda739cf	-0.08165323
154	0xbc89b978	-0.016812071
155	0xbc0b94a7	-0.008519328
156	0xbc160e1d	-0.009158638
157	0x3d88d90a	0.06682022
158	0xbb3d3b79	-0.002887456
159	0x3cf70213	0.030152356
160	0xbd73d794	-0.059531763
161	0x3d99951e	0.07499145
162	0x3c87f0cb	0.016594311
163	0x3d95cf7b	0.073149644
164	0x3d83875f	0.06422304
165	0xbc36ab0a	-0.011149177
166	0x3d7619e3	0.06008328
167	0xbd902df3	-0.07040014
168	0x3c9fd8a5	0.019512484
169	0x3cd2e3a6	0.025743317
170	0x3c84e8cb	0.016224286
171	0x3c88312a	0.016625006
172	0xbd0cbdd5	-0.034360725
173	0xbd9e5e32	-0.0773281
174	0xbd5331e5	-0.051561255
175	0xbda89d97	-0.08233183
176	0x3d557673	0.052114915
177	0x3da05cd5	0.07830206
178	0xbd8be643	-0.06831028
179	0x3c9a42c6	0.018830668
180	0x3dad524f	0.08462965
181	0x3ca37bff	0.019956587
182	0x3da303b1	0.079596885
183	0x3d609779	0.054831956
184	0x3da9ff9b	0.08300706
185	0xbc904387	-0.017610325
186	0x3db13803	0.086532615
187	0xbd46ed30	-0.048566043
188	0xbbeafd26	-0.007171291
189	0x3c962bf0	0.018331498
190	0x3d60cab7	0.054880824
191	0x3d3b4e83	0.04572917
192	0xbd78d8a3	-0.060753476
193	0x3db886b9	0.09010071
194	0x3d7252f2	0.059161134
195	0xbdada5b9	-0.08478875
196	0x3d76c824	0.060249463
197	0x3d2a81fe	0.041627876
198	0xbc609059	-0.01370629
199	0xbdad606d	-0.084656574
200	0xbcdd3404	-0.027002342
201	0xbda0e679	-0.07856459
202	0xbccb1846	-0.024791848
203	0xbd0a0918	-0.03370008
204	0x3cfa8b37	0.030583961
205	0x3db4d5f1	0.088298686
206	0xbc250391	-0.010071651
207	0xbb2667fc	-0.002539157
208	0x3da46d74	0.08028689
209	0xbc10001e	-0.00878909
210	0xbd3b771f	-0.0457679
211	0x3d84f805	0.064926185
212	0x3c3adf39	0.0114057595
213	0xbd9e8f78	-0.07742208
214	0x3b97dda5	0.0046345764
215	0x3d81a18a	0.06329639
216	0x3d9e6ff2	0.077361956
217	0xbdb34bf5	-0.08754722
218	0x3ce2b1f8	0.027672753
219	0x3da18cea	0.07888205
220	0xbcb9e547	-0.022692336
221	0x3cd4889b	0.025944045
222	0x3bc81e16	0.006107102
223	0x3d9b5612	0.07584776
224	0xbd7b792e	-0.061394863
225	0x3d4c0a37	0.04981443
226	0xbd386529	-0.04501835
227	0x3d355bde	0.044277065
228	0xbd03b243	-0.032152425
229	0xbd3ced6a	-0.046124853
230	0x3d280a09	0.041025195
231	0xbd857c6b	-0.065178715
232	0x3d9f6559	0.077830024
233	0xbd98b96a	-0.0745724
234	0x3c2063ed	0.009789449
235	0x3d4cb1c5	0.04997422
236	0xbd8a88ce	-0.06764375
237	0xbc693191	-0.014233009
238	0x3d96a193	0.073550366
239	0xbb25b6ba	-0.0025285915
240	0x3d99dd50	0.07512915
241	0xbc892e61	-0.016745748
242	0x3d9237f2	0.07139577
243	0x3d033a20	0.032037854
244	0xbc944143	-0.018097525
245	0x3d933d49	0.071894236
246	0x3d792c75	0.060833413
247	0x3d022309	0.031771693
248	0x3c5fb9ce	0.013655139
249	0x3d340ae5	0.043955702
250	0x3d9d9e88	0.07696253
251	0x3d0676f9	0.032828305
252	0x3d2add3c	0.04171489
253	0xb820f561	-3.83755e-05
254	0xbdb45161	-0.08804584
255	0xbd6c3323	-0.057665955
