scripts/embeddings_gin_version2/IMDB-MULTI/gin_dim64_ep100_lr0.0005_drop0.3/gin_classifier.pt (torch, 175837 bytes, 42 tensors)

encoder.layers.0.nn.net.0.weight f4 [64, 1]
000000 fb 15 5e 3f ee 92 e4 3e 5b 95 3b 3f 50 84 b0 bd
       0.8675229 0.44643348 0.73274773 -0.086189866
000010 d7 fe 4d 3f 1a ea 47 bf e0 a8 4b be 16 21 4c bf
       0.8046698 -0.78091586 -0.1988864 -0.79737985
000020 01 b4 c1 3e f5 d3 2c 3f 3e 2f 1a bf 6b 9a 1e 3f
       0.37832645 0.6751092 -0.60228336 0.61954373
000030 cd 53 6f 3f f3 c2 b3 3e f4 59 df be 49 2b 27 3d
       0.93487245 0.35109672 -0.43623316 0.040812764
000040 ef 7f 0d 3f f6 6d 3d bf 6a 14 59 3e f0 6e 59 be
       0.55273336 -0.7399591 0.21199194 -0.21233726
000050 00 f6 1a 3f 60 9a 90 bd 2a cc 71 3e 86 33 2b bf
       0.60531616 -0.07060695 0.23613039 -0.66875494
000060 18 ee 00 bf 2f 3e 59 3f 30 72 74 be 0c e4 04 bf
       -0.503633 0.8486051 -0.23871684 -0.5191047
000070 18 e6 3b 3f dc 7d 83 be 2a 79 77 3f a0 ee 49 bd
       0.7339797 -0.2568196 0.96669257 -0.049299836
000080 04 e9 c1 be fb 7a 00 3f f8 71 3a bf 08 8c e9 3e
       -0.3787309 0.50187653 -0.7283015 0.45614648
000090 3c f7 21 3f c2 8d 6e 3f ae 4c 4f bf c8 a6 38 3f
       0.63267875 0.93185055 -0.8097638 0.7212949
0000a0 e0 ab 02 bd 10 7c 5c bf bb fc 0d 3f 59 65 4f 3e
       -0.031902194 -0.86126804 0.5546376 0.20253505
0000b0 64 d4 08 3c 39 04 8f 3e 58 3c a2 be e6 66 1d 3e
       0.008351419 0.2793291 -0.31686664 0.15371284
0000c0 dc 96 d4 be 7a 90 4d 3f 7b f9 aa 3e 27 6e 0d 3f
       -0.41521347 0.8029858 0.33393463 0.55246204
0000d0 af 0e 30 3f 18 4b 6e 3f 12 46 3f 3f 71 c2 f9 3d
       0.68772405 0.93083334 0.74716294 0.1219529
0000e0 28 28 97 3d 78 fe d3 3c 96 60 6f bf cd 3d 4e 3f
       0.07380706 0.025878176 -0.93506753 0.8056305
0000f0 a0 8c 27 be d6 c9 05 bf 28 01 fb be 89 14 77 3c
       -0.16362238 -0.522611 -0.4902432 0.01508058

encoder.layers.0.nn.net.0.bias f4 [64]
000000 57 e5 46 3f a2 32 01 be fa 20 54 bf 20 2a b5 3d
       0.77693695 -0.12616971 -0.8286282 0.08845925
000010 e7 7f 65 bf ac b5 07 bf 9e 52 09 3f 88 b3 76 3e
       -0.8964829 -0.53011584 0.5364169 0.24091923
000020 3c 20 39 bf f3 9c 53 bf 90 e6 12 be 39 ea 6f 3f
       -0.7231481 -0.8266136 -0.14345765 0.9371677
000030 31 7d 9b be da 23 32 bf 78 51 6d 3f 66 0c 48 bd
       -0.3036895 -0.69585955 0.92702436 -0.04883995
000040 b0 72 0f bf 40 44 af 3e 71 18 2c 3f 66 c3 09 bf
       -0.56034374 0.34231758 0.67224795 -0.5381378
000050 11 71 88 bc bc ba 32 3f 5a 0d 05 3e aa 7a 5a 3f
       -0.016655477 0.69816184 0.12993374 0.8534342
000060 ee ac 47 3f 99 3a ec 3e 00 fa 51 be 6c 1d 49 bf
       0.77998245 0.46138456 -0.20505524 -0.7856052
000070 45 67 21 bf 76 18 22 3f 4d c7 78 3f 80 36 16 3c
       -0.630482 0.63318574 0.9717911 0.009168267
000080 44 d1 a3 3e dd 55 56 be 90 9c 25 3e d4 8d a4 be
       0.31995595 -0.20931192 0.16173005 -0.32139456
000090 bc 25 37 be e9 b4 27 3f 78 2a b0 be 2b 8b 2e 3f
       -0.17885488 0.6551042 -0.344074 0.68181103
0000a0 be 33 0b bf 2c 40 ed be a5 8d 96 be a7 bb 7a 3d
       -0.5437583 -0.46338022 -0.2940494 0.061214115
0000b0 fd e8 23 be d0 ef 2c bf 44 62 a5 3e aa 51 77 3f
       -0.16006847 -0.67553425 0.32301533 0.96608984
0000c0 f8 f4 38 be dc 89 4e 3f 5a 76 06 3f c9 d1 0c 3f
       -0.18062198 0.80679107 0.5252434 0.55007607
0000d0 dc 52 a9 be 2b ec 5e bf a7 4a de be 9b a7 50 bd
       -0.3307103 -0.87079114 -0.4341633 -0.05094109
0000e0 1e 3b 8a 3e 33 a1 9e be 78 12 50 3f dc 30 64 3f
       0.26998228 -0.3098236 0.8127818 0.89137053
0000f0 30 ec de bd 50 25 e3 be 58 e5 27 3e 2a c6 76 bf
       -0.10884893 -0.44364405 0.16396081 -0.96396124

encoder.layers.0.nn.net.2.weight f4 [64, 64]
000000 c3 f5 4f bd 9d 39 ba bd 8e 17 0c 3e cc 89 93 3d
       -0.050771486 -0.0909302 0.1368086 0.07204017
000010 94 25 e7 bc ee 4d 95 bd b8 87 b1 3c 38 ed e0 3d
       -0.02821616 -0.072902545 0.021671161 0.10982746
000020 b0 59 90 3a 99 79 0e 3d 08 e9 52 3d 47 f6 ec 3d
       0.0011013057 0.034783933 0.051491767 0.11570411
000030 99 dc ed 3d 13 f5 f5 3d a8 fb dd bc ea 0d 92 bd
       0.11614341 0.12009635 -0.027097538 -0.0713156
000040 aa bd 82 3d b0 7b c1 3c 48 c0 9b 3d 7c 51 5c bd
       0.06383832 0.02361855 0.07605034 -0.053788647
000050 1f c9 a9 3d 30 9e 24 bd 23 97 1a 3d 50 6b 04 3d
       0.08290314 -0.04018992 0.03774179 0.032328904
000060 f6 f2 ed bd c7 3f c6 bd b8 ef 85 bc c0 ad d3 3d
       -0.11618607 -0.09680133 -0.016349658 0.103358746
000070 8d 16 a4 3c 00 4d 98 bd 20 6a 4d bd 80 bf 8c ba
       0.020030284 -0.074365616 -0.050150037 -0.0010738224
000080 c8 ac c7 bd de a2 40 bc 00 91 e1 3c 9d 1c 1d bd
       -0.09749752 -0.011757581 0.027534962 -0.038357366
000090 91 b8 63 bd 1c 03 a7 bd 78 7b c0 3d 8c d9 ab bd
       -0.055595938 -0.0815489 0.0939855 -0.08391103
0000a0 e4 ee 60 3d 00 93 29 bb cb 05 b6 3d 1b 53 a9 3d
       0.054915324 -0.0025874972 0.08887824 0.08267804
0000b0 16 4c 4d 3d 36 3a 9b 3d b0 1f 23 3d 1d 17 44 bd
       0.05012139 0.07579462 0.03982514 -0.047873605
0000c0 9a 7d a1 bd 4f 47 49 bd 43 c8 cf bd cb 62 4b bd
       -0.07885285 -0.04914027 -0.10145619 -0.049654763
0000d0 fd 98 91 3d af 43 de 3d 57 89 21 3c 1f 63 4e bd
       0.07109258 0.10852753 0.0098594045 -0.050387498
0000e0 9f 28 d3 3d 6f 67 d7 3c 58 1e 88 bc ff e1 4f bd
       0.10310482 0.026294438 -0.016616032 -0.050752636
0000f0 c8 f8 ab 3c 00 72 cc b9 00 31 bc ba c3 4c d2 bd
       0.020992652 -0.0003899485 -0.0014357865 -0.102685474
000100 f9 e6 27 3b d7 a0 42 3d 83 d4 b1 3d 30 c9 56 3c
       0.0025619848 0.04751667 0.086831115 0.01310949
000110 97 62 e0 bd 86 66 d2 bd 68 70 be bd d6 63 d2 bd
       -0.109563045 -0.10273461 -0.092987835 -0.102729484
000120 82 98 fc bd 56 21 c5 bd 92 49 ea bd 59 b1 70 bc
       -0.12333776 -0.09625499 -0.11439814 -0.0146907205
000130 84 82 17 be b1 0d 4a bc 92 6e 93 3d e0 c5 45 3d
       -0.14795882 -0.012332366 0.07198824 0.04828441
000140 35 2f cf 3d b0 3e a4 bd 73 29 14 3c 0c 43 cf 3d
       0.10116426 -0.08019769 0.009043085 0.1012021
000150 89 83 69 bd 3e ac e0 bd 62 bb 1b 3d 40 60 b0 3d
       -0.057010207 -0.109703526 0.0380205 0.08612108
000160 a0 0f d9 3c b5 3c ba 3d c0 31 9a bd c0 ac 3b 3c
       0.026496708 0.0909361 -0.0752902 0.011454761
000170 a5 06 e7 bb 9c 81 89 3d 22 0d c6 3d e0 42 8c 3c
       -0.0070503526 0.06714174 0.09670474 0.017121732
000180 ec 44 26 bd 7c 2c db bd 80 0b 8e bb 89 ad 92 bd
       -0.040593073 -0.10701844 -0.004334867 -0.071620055
000190 6c 0f 4d 3d af 9e de bd 40 68 97 3c 05 4b 19 3d
       0.050063536 -0.1087011 0.018482327 0.03742506
0001a0 dc 5d 06 3d 14 fd 37 bd 25 73 21 3d 9d c7 cb bd
       0.032804355 -0.04491909 0.03941645 -0.099501826
0001b0 38 e2 a5 bb bb c6 db bd c6 f8 a8 bd 02 2a 98 3c
       -0.0050623678 -0.10731264 -0.08250575 0.018574718
0001c0 98 98 06 bd 24 94 34 3d af 45 aa 3d 33 43 b1 3d
       -0.03286037 0.04408659 0.08314072 0.08655395
0001d0 98 e8 5c bd 32 f8 7a 3c 3a 3b 6d bd cb 97 27 3d
       -0.053932756 0.015317963 -0.05791781 0.040916245
0001e0 1c 2b f8 3c f2 65 ca bd 80 3c 3d bd 16 fe b4 3c
       0.030293994 -0.09882726 -0.046200275 0.022093814
0001f0 d0 a4 e8 bc e4 bd d2 3d 58 74 87 3c dd 28 be 3d
       -0.028398901 0.10290125 0.01653497 0.09285138
000200 8c 43 cf 3d 9e 1b fa bd 32 c4 96 bd 8a 58 d4 bd
       0.101203054 -0.12212299 -0.0736164 -0.1036845
000210 47 86 00 be 86 d3 94 3d 42 5f ed bd 86 91 bf 3d
       -0.12551223 0.072669074 -0.115904346 0.09353928
000220 1f 8f 03 bd 44 75 e4 3b 68 b6 11 3d 78 b5 ec bc
       -0.032118913 0.006971987 0.035574347 -0.028895125
000230 e5 cb df bc d1 89 d5 3a 80 9b d5 3a 48 3f 00 be
       -0.027318904 0.0016291683 0.0016296953 -0.1252414
000240 c3 80 11 3d 34 20 93 3d 8f 04 b1 bd ec da d4 bd
       0.035523187 0.07183877 -0.086434476 -0.103933185
000250 36 a8 45 3d 20 e7 74 3d 52 b3 82 bd 70 42 63 bd
       0.04825612 0.05979073 -0.06381859 -0.05548328
000260 b0 df cc 3d 9a 79 a0 bd 60 d4 09 3d a0 7d 87 bd
       0.100036025 -0.07835694 0.033649802 -0.06615758
000270 35 a0 ca 3d c4 b1 37 3d 4b 19 be 3d 38 45 3d 3d
       0.09893838 0.044847265 0.09282168 0.04620859
000280 6c 60 68 3d 81 33 b8 bd fe 60 d0 bd 1a 22 1c bc
       0.05673258 -0.089941986 -0.1017475 -0.009529615
000290 0b cb a8 3d 88 63 20 3c dc 36 b1 3d 54 c0 fd bd
       0.082418524 0.009789355 0.08653042 -0.12390199
0002a0 de 8a f8 3d 10 ba 33 bc de f5 a3 bd d8 44 dc bd
       0.12135862 -0.010969654 -0.0800588 -0.107553184
0002b0 b5 42 8c bc 96 e6 e6 3c 04 66 07 3d a2 35 bd 3c
       -0.017121652 0.028186124 0.033056274 0.023096863
0002c0 12 9d ff 3d c7 6c b0 bd 59 46 ef ba 28 12 b4 3d
       0.12481131 -0.08614498 -0.0018255218 0.087925255
0002d0 4a fd 1e 3d a9 98 a1 3d 90 fb d9 bd 3c 68 0b 3c
       0.038815774 0.07890446 -0.10643685 0.008508738
0002e0 69 52 93 bd 98 15 8c 3d 08 d7 f3 3d ac a1 08 be
       -0.07193453 0.06840056 0.11906248 -0.13342923
0002f0 88 5a af bd 8c f8 ce 3d 30 eb f4 3d 2d e8 0e 3c
       -0.08562189 0.10106 0.11958921 0.008722347
000300 08 be e1 bd 3a 3b 15 3c 61 91 b9 3c cc ef e7 bd
       -0.11022574 0.009108359 0.02265233 -0.113250345
000310 f6 84 66 3d c4 b5 22 bd d6 db e8 bd 68 11 07 bd
       0.056279145 -0.039724126 -0.113700554 -0.032975584
000320 9e a7 25 3d 53 ed cf 3d 54 f2 01 3d e7 b8 9f bd
       0.040443055 0.10152688 0.031725243 -0.07798939
000330 b4 50 74 bd da 3e d8 bd a2 e1 9d bd 1c f7 01 3c
       -0.059647277 -0.10558863 -0.07709052 0.007932451
000340 8a 82 85 bd 84 06 86 3d ed 46 b8 bd 48 f9 a1 3c
       -0.06519039 0.065442115 -0.08997903 0.019772187
000350 32 8f 2d 3d a8 6a a4 bd d4 e4 fd bd a4 33 8d bd
       0.04237289 -0.080281556 -0.12397161 -0.06894615
000360 80 1e d4 bc c8 f6 d5 bd a8 6f a5 bc 14 61 cb bd
       -0.02589345 -0.104474604 -0.020194843 -0.099306256
000370 51 6d e9 bd 4a ff 8b 3d 8f d8 38 3b c0 e6 d5 bb
       -0.113978036 0.06835802 0.002820525 -0.0065277517
000380 1c 15 e3 bd eb d4 9d bd 62 99 83 bd e4 dd c3 3d
       -0.11088011 -0.077066265 -0.0642574 0.09563807
000390 c4 56 d0 bd 40 cf 04 bd e0 f9 79 3d 88 36 e4 bb
       -0.10172799 -0.03242421 0.061029315 -0.0069645084
0003a0 d2 be 85 3d b0 6f ad bc 5e 3c ee bd 75 dc fb bd
       0.06530537 -0.02117142 -0.11632608 -0.12297908
0003b0 17 4b 87 3d 08 03 ca 3d 46 ed f0 3d cc 98 9e 3d
       0.06606119 0.098638594 0.11764006 0.077439874
0003c0 ac 3a e7 3d b0 e8 dd 3d a4 6c 4b bd 5e 85 ec bc
       0.11290488 0.10835397 -0.049664155 -0.028872188
0003d0 e5 4a 39 bd 7c 42 16 bd 96 e7 00 be 70 32 9e bc
       -0.04523744 -0.0366845 -0.12588343 -0.01931116
0003e0 34 d2 34 bd c2 b5 b3 bd 60 ad 2f 3d 46 ac 04 3d
       -0.044145778 -0.08774902 0.042889953 0.032390855
0003f0 be 67 d4 bd d8 14 ce 3d d8 93 b9 bc fa 04 09 3c
       -0.1037135 0.100625694 -0.022653505 0.008363003

encoder.layers.0.nn.net.2.bias f4 [64]
000000 62 eb d0 3d e1 7a be 3d 47 5b 73 3d f4 6c df 3b
       0.10201146 0.09300781 0.05941322 0.006818408
000010 2f 4c 56 bd 8e 8d 07 bd 4d 41 ef 3d 21 cc 81 3d
       -0.052318748 -0.03309398 0.11682377 0.063377626
000020 1d f8 5e 3d 4e f1 a2 bc 16 f6 5b 3c c8 f5 65 3d
       0.054435838 -0.019890454 0.013425371 0.0561426
000030 e8 4a 4b 3d 10 45 ea 3d 97 29 80 bb 7d cf bf 3c
       0.049631983 0.11438954 -0.003911208 0.023414368
000040 5d 3e 94 bd ec 5f 4c 3d 05 34 ef bd 56 da 4c bd
       -0.07238457 0.049896166 -0.11679844 -0.05001291
000050 85 f4 34 bd 91 9f 44 3d bd 79 1d 3c 5d 47 aa 3d
       -0.044178504 0.048003737 0.009611544 0.08314393
000060 56 c5 bd bb 1c b0 ee 3d 0c 26 b8 3d f2 37 82 bb
       -0.0057913465 0.11654684 0.08991632 -0.0039739544
000070 ca 94 99 bd e8 c6 f7 bd 47 e4 2f 3d a6 ca f4 3c
       -0.074990824 -0.12098485 0.04294231 0.029881787
000080 a4 9a 77 3d 8c f9 0e 3b 3c ac 63 bc c2 60 81 3b
       0.06045021 0.0021816222 -0.013896044 0.003948302
000090 8d 9f bb bd 60 96 e9 3d 98 6c a0 bd d8 24 e2 bd
       -0.09161291 0.11405635 -0.078332126 -0.11042184
0000a0 4c 33 63 3d 99 65 3c bd a4 1c dd 3d e0 ef a0 3b
       0.055468842 -0.04599533 0.107964784 0.004911408
0000b0 31 e4 b4 bd ba ac eb bd f6 f0 8c 3d 74 57 a0 bd
       -0.088325866 -0.11507554 0.06881897 -0.0782918
0000c0 8b 12 cd bd c0 08 bb bd 43 d1 24 3d 34 a9 48 3d
       -0.100133024 -0.09132528 0.04023863 0.04898949
0000d0 cb 57 61 3d 19 9c c6 3c d9 fe 5e bd ab 0e 19 bd
       0.055015367 0.024244355 -0.05444226 -0.037367504
0000e0 97 ae 93 3d 0b 9c 63 bd 7b fa d2 3d d5 34 4a bc
       0.07211035 -0.055568736 0.103016816 -0.012341698
0000f0 a2 96 c7 bb eb f0 76 3d 0a 11 7a 3c 2d 81 f0 3d
       -0.006090955 0.06028835 0.0152628515 0.11743388

encoder.layers.1.nn.net.0.weight f4 [64, 64]
000000 d5 fb bf bc a3 25 b1 3d 8a 8d 86 3d 20 17 a8 bc
       -0.023435513 0.08649757 0.06569965 -0.02051884
000010 d3 92 f0 bd 88 a0 bf 3d 81 72 91 bd 02 41 8e 3d
       -0.117467545 0.09356791 -0.07101918 0.06945993
000020 58 21 33 bd 12 e6 a3 3d 11 fd 83 bd 6d 21 f1 bc
       -0.04373297 0.08002867 -0.06444753 -0.029434884
000030 71 a1 80 bd 19 53 56 3d 0a 1f 89 3c 45 76 d4 3d
       -0.062807925 0.05232534 0.016738433 0.103741206
000040 0c cf bb bd 60 12 68 bd 0e f9 a4 3c 5c a4 d7 3d
       -0.091703504 -0.05665815 0.02013829 0.10529396
000050 f8 be 83 bd 8d 8d a2 bd 1b 47 ed 3b 33 e5 a3 3d
       -0.06432909 -0.07937155 0.0072411424 0.08002701
000060 8b 07 00 bd 11 32 d5 3c 05 a3 87 bd 72 ca 37 3c
       -0.031257194 0.02602485 -0.066228904 0.0112177
000070 c8 0a b4 bd 0f c1 d2 bd 10 75 ab bd fc 7b e7 bd
       -0.08791119 -0.10290729 -0.08371937 -0.11302945
000080 a1 ee 55 bc d1 c5 c3 3d 8b 4c 89 bd 7b de 8c 3c
       -0.013057382 0.09559215 -0.067040525 0.01719593
000090 a3 b2 b8 3c fd f3 e6 bd e3 30 11 bd d7 73 8c bd
       0.022546118 -0.11277006 -0.035447013 -0.06858032
0000a0 70 ac 74 3d ec c1 88 3d b5 ca a4 3d b2 81 3a 3d
       0.05973476 0.06677613 0.08046476 0.045533843
0000b0 5e 8e 04 3d 91 0b c9 3d 8f 5e 7a 3d b9 f4 8d bd
       0.032362334 0.09816659 0.061125334 -0.06931443
0000c0 d5 6b 24 3d ff ef a9 bc 65 22 08 3d ae 3b b4 3d
       0.0401419 -0.020744322 0.033235926 0.088004455
0000d0 72 94 56 bd 7e 0d a9 3d 0e 1f 29 bd e8 b3 e2 bd
       -0.052387662 0.082545266 -0.04128938 -0.11069471
0000e0 bf 68 9d bc 11 94 09 3e 99 ac 7b bd 36 d5 d7 3d
       -0.019214986 0.13435389 -0.0614439 0.10538714
0000f0 68 3d a1 bd ba 46 b0 bd 4e 48 bd 3d b0 5d cc 3d
       -0.078730404 -0.0860724 0.09242307 0.09978807
000100 97 2c d1 bb 4c 8d 1a 3d 42 15 89 3d 3c 79 93 3d
       -0.0063834894 0.037732407 0.06693508 0.07200858
000110 3b f5 96 bd dd 74 8a bd 33 cd d8 bd ae 71 15 3d
       -0.07370993 -0.06760571 -0.10586014 0.036485367
000120 b2 3a 4c 3d d2 1a 84 bd c7 a6 40 bd d8 a2 05 3d
       0.049860664 -0.06450428 -0.04703405 0.032626003
000130 c1 16 7f 3c e5 87 82 3b f7 98 f7 bd 45 be 1a bc
       0.01556939 0.003983485 -0.120897226 -0.009444778
000140 72 95 f3 bd ae 96 e9 3c 23 92 e1 3d dc 2f a9 3c
       -0.11893739 0.028514232 0.110142015 0.020652704
000150 84 46 05 3d 39 7f 21 3c b3 87 90 3d 0a 19 0e 3d
       0.032537952 0.009856992 0.070571326 0.034691848
000160 96 0a db 3d 91 bc 01 3d 13 f0 e2 bc 27 16 98 3d
       0.106953785 0.03167397 -0.027702367 0.074261
000170 b8 13 b1 3d 16 99 c7 bd 20 a1 80 ba ed b1 c1 b7
       0.08646339 -0.09745996 -0.0009813644 -2.3090246e-05
000180 69 85 44 3d 10 e6 75 bc ae 00 69 3d 7d 09 be 3d
       0.047978792 -0.015008464 0.056885414 0.092791535
000190 db dc aa bd 40 71 af 3d 01 6d ca 3d 10 ba 9d bc
       -0.08342906 0.085665226 0.09884072 -0.01925376
0001a0 69 55 45 3d 07 89 91 3d 29 88 52 bd 8c c3 0a bd
       0.048177157 0.07106214 -0.051399384 -0.033877894
0001b0 50 d7 24 3d b4 b6 c4 bd 7e 11 98 3d 05 8e c2 bc
       0.0402444 -0.0960516 0.07425211 -0.02374936
0001c0 1e c5 e0 ba 6f da e1 3d ea 03 7b bd ee d2 72 bc
       -0.0017148589 0.11027991 -0.06128303 -0.014820797
0001d0 ec 6d 8d 3d 0d d5 f3 bd 2f eb e9 3d 75 53 f4 bb
       0.069057316 -0.119058706 0.11421811 -0.007456238
0001e0 15 a9 b3 3d ea 0d ca bd 23 45 b0 3d 97 ae a6 bd
       0.08772484 -0.09865935 0.08606937 -0.08138769
0001f0 92 71 12 bd 99 df 9c bb cd 6a 17 3d a3 88 d1 bd
       -0.03575284 -0.004787397 0.036967088 -0.102311395
000200 6d 19 82 3b 50 5a 92 3d 8d b8 92 3d b1 00 65 bd
       0.003970316 0.07146132 0.071641065 -0.055908863
000210 0a 91 b5 bd 8d 9a e0 3c 05 58 83 3d 47 0d 68 bd
       -0.08865555 0.027417446 0.06413273 -0.056653287
000220 38 2b 8e bd bb 75 d5 3d b9 11 4b 3d 0c aa 86 3d
       -0.06941837 0.10422846 0.04957745 0.065754026
000230 69 0f 46 3c d1 5b b6 3d f0 b4 c3 bc 7b 18 10 3d
       0.012088635 0.08904231 -0.023889989 0.035179596
000240 57 1c e5 bd a0 0c 4a bb 37 f2 6f bc c4 be db bd
       -0.11187046 -0.003083028 -0.014645151 -0.10729745
000250 74 d8 a4 bd 07 60 88 3d 57 65 fc bc e3 f8 b9 3d
       -0.08049098 0.06658941 -0.030810041 0.090806745
000260 9b ed 17 bd 6e 20 c8 3d 78 c6 d3 bd 1b e1 28 bd
       -0.037091833 0.097718105 -0.10340589 -0.041230302
000270 27 3f 42 3d 3b a9 d8 bd e4 fb bc bd 97 7b 7d 3d
       0.047423508 -0.10579153 -0.09227732 0.061885443
000280 0b 74 72 bd 03 77 f1 3d 1f d0 e7 3d 78 11 d8 bc
       -0.0591927 0.11790278 0.11318993 -0.026375517
000290 44 76 b9 bc 28 57 a5 bc de 48 c1 3d 66 d2 bc 3d
       -0.022639401 -0.02018316 0.094377264 0.09219818
0002a0 d2 bd 91 bc a9 95 cc bc f8 3e b5 3c 26 38 e4 3d
       -0.017790709 -0.024973707 0.022124752 0.11143522
0002b0 16 a4 e6 3d b7 54 99 bd 4d c2 93 3d bf a9 4e 3d
       0.11261766 -0.07486861 0.07214794 0.05045485
0002c0 7b 44 2a bd ca 53 ac 3d 50 8c b6 bd 4b 58 98 3c
       -0.041569214 0.08414419 -0.08913481 0.018596789
0002d0 64 b2 ae 3d 53 45 ba bd 2d b2 8f 3c ea db 85 bc
       0.08530119 -0.09095254 0.017541016 -0.016340215
0002e0 e8 76 0f 3d 40 88 aa bd ff 39 6a 3d d7 49 eb 3d
       0.035025507 -0.08326769 0.057184216 0.11488693
0002f0 94 13 3f 3d 6e 0a 93 bd 48 7a 8d 3d b6 69 29 3b
       0.04664953 -0.07179724 0.06908089 0.0025850362
000300 3a d8 c7 bd 1d 9f a1 3d 15 4b b8 ba 27 eb 40 bd
       -0.09758039 0.078916766 -0.0014060462 -0.04709926
000310 73 bb ed 3d bf c1 f2 3d db f2 27 3d 41 96 25 bd
       0.11608019 0.118533604 0.04100309 -0.040426496
000320 3d f1 61 bd 16 44 00 3e 5e 54 a1 3d 9f f8 4a 3a
       -0.055161703 0.12525973 0.0787742 0.0007742736
000330 b9 4d ba 3d ba c1 00 3d ec 5f 16 3d db 85 3f 3c
       0.09096856 0.031434752 0.036712572 0.0116896285
000340 4f 66 ae 3d 2f da 48 3d 48 de be 39 a2 a7 d9 bc
       0.085156076 0.0490362 0.00036405236 -0.026569191
000350 22 7e ad 3d 06 35 fa bd 11 86 99 3d bf f3 84 3d
       0.084713235 -0.12217145 0.07496274 0.064918034
000360 29 fe b0 bd 6e 0e 0f 3d c9 bd 11 3d 25 e7 cf 3d
       -0.08642227 0.03492587 0.035581384 0.10151509
000370 88 e1 39 3d ae 18 f1 bd 0c 05 57 3d 7d 75 0b 3d
       0.0453811 -0.117722854 0.052495047 0.034047592
000380 8d e2 82 3d 07 56 e6 bd e7 df 9a bd 95 4b 72 bd
       0.063908674 -0.11246877 -0.07562237 -0.059154112
000390 4e ab ae 3d 26 d1 f5 3d bb 1b b4 bc 50 95 ae bd
       0.085287675 0.120027825 -0.02198588 -0.08524573
0003a0 b9 16 f0 bd 07 10 93 3d 41 2e 82 bd 5d 99 26 bd
       -0.11723084 0.07180791 -0.063564785 -0.040673602
0003b0 7b 7f e4 3d b2 5d c5 bd 80 24 29 bd 01 8d 3d bd
       0.111571275 -0.096370116 -0.041294575 -0.04627705
0003c0 c5 87 a9 bd fc 7e 9e bc 51 af d8 3d cc 85 a0 bd
       -0.08277849 -0.01934766 0.10580314 -0.0783802
0003d0 0c d5 e2 bc d9 81 9e 3d 89 cc f1 3d 11 76 a8 3d
       -0.02768948 0.0773961 0.1180659 0.082256444
0003e0 5d c8 ee bd 98 67 b3 3d 2e 03 68 bc 23 a6 a7 3d
       -0.1165931 0.08759993 -0.014160914 0.08185985
0003f0 dc c3 3d bd 53 51 db 3c 2b 31 71 3d a2 22 8b 3d
       -0.046329364 0.026772177 0.05888478 0.06793715

encoder.layers.1.nn.net.0.bias f4 [64]
000000 bf e7 1a 3d 32 d1 bc bd 87 c8 a4 bd b3 d0 42 bc
       0.037818667 -0.09219588 -0.0804606 -0.011890578
000010 de 59 47 bc ec d8 c6 3d 71 68 29 3d a4 67 af 3c
       -0.012167422 0.09709343 0.04135937 0.021411724
000020 28 5f 9c bd c6 53 d6 bd 11 6b 5a 3d 27 57 ac bd
       -0.07635337 -0.10465197 0.053324763 -0.084150605
000030 e2 c3 85 3d 7d 72 c2 bd 65 ee 88 3d fa a9 df 3d
       0.06531502 -0.09494493 0.06686095 0.10921092
000040 24 5f 8e 3c e7 b3 b6 bd 70 ad 59 3d 0e bc f4 bc
       0.017379351 -0.089210324 0.05314392 -0.029874828
000050 cd 9a ef 3d f5 96 6f bd da 6c f0 3d 3a ea 0b 3d
       0.11699448 -0.058493573 0.11739512 0.034158923
000060 4b 1c dc bd 8a dd 17 3d 6a 3a de bb 34 a0 07 be
       -0.10747584 0.03707651 -0.006781866 -0.13244706
000070 dc 08 06 3d 49 c0 e5 bd 77 af 65 3d d4 da b7 bd
       0.032723293 -0.11218316 0.05607554 -0.08977285
000080 0e e7 c5 3d 93 3f 52 3d ae e6 f9 bd cc 70 01 3d
       0.09663211 0.05133016 -0.12202202 0.031601712
000090 ba 4a 77 bd 72 cc 3d 3c 68 f5 da bd 68 3f 2e bc
       -0.060374 0.011584388 -0.10691339 -0.010635234
0000a0 d4 be f1 bc 0c 4f e4 3c f1 40 20 3d 03 cf 82 bd
       -0.02950994 0.027869724 0.039124433 -0.063871406
0000b0 41 9b 05 bd af c7 e5 3d 96 91 89 bd 19 14 9c bc
       -0.032618765 0.11219727 -0.067172214 -0.019052552
0000c0 03 6d c2 bd b4 74 cc bd be df 74 3d 89 ea 8c bd
       -0.094934486 -0.09983197 0.05978369 -0.068806715
0000d0 aa 47 8f 3d e7 f5 c3 3d 92 cb 0a bd a0 fe 84 bd
       0.06996091 0.095683865 -0.033885546 -0.06493878
0000e0 6d ac ad bd e2 99 ee 3d 62 40 ef bd 29 30 69 bc
       -0.08480153 0.116504446 -0.11682202 -0.014232674
0000f0 c9 15 cf 3c 23 56 8f 3d b1 30 85 bd d9 4f 26 3d
       0.025278943 0.06998851 -0.06503428 0.040603492

encoder.layers.1.nn.net.2.weight f4 [64, 64]
000000 2b 48 41 bc 0b 3c 95 3d 4c 3f df 3d 1e 9b bc 3d
       -0.011796991 0.07286843 0.10900745 0.09209274
000010 6b d4 9d bd 26 39 98 3d 78 21 81 3d ab 49 28 bd
       -0.07706531 0.07432775 0.06305212 -0.04108588
000020 62 10 83 3c 2f a6 b4 bd 3d a1 9b 3d f8 a0 f1 bd
       0.015999023 -0.088207595 0.07599113 -0.117982805
000030 c7 7b 83 bc 48 9e f6 3c 96 6b e4 3c 65 d2 29 bc
       -0.016050233 0.030104771 0.027883332 -0.010365103
000040 8e 87 c5 bd 77 86 e7 bd 21 6a f0 bd 88 60 a4 bd
       -0.09644996 -0.11304944 -0.117389925 -0.080262244
000050 03 95 41 3d a1 dc 81 3d 5c 70 00 bd b9 95 18 3d
       0.04726125 0.0634091 -0.031357154 0.03725216
000060 ad 7c 2b bd c6 d0 36 3d a3 77 f2 bd f2 ea 63 3d
       -0.041866947 0.044632696 -0.11839225 0.055643983
000070 38 de e5 bd 23 7e c0 bd d8 e6 9e 3d ad 39 ae bd
       -0.112240255 -0.09399059 0.07758874 -0.085070945
000080 40 77 4f bd f1 82 ff bd d5 17 0e 3c c6 9a 93 3d
       -0.050650835 -0.12476147 0.008672674 0.07207255
000090 e0 db 98 bd 06 bb 62 bd 93 07 46 3d 56 ee c2 bd
       -0.07463813 -0.05535414 0.048347067 -0.09518115
0000a0 2e 36 97 3d 0f f3 36 bd d5 00 9c 3c d2 3a d1 3d
       0.07383381 -0.044665392 0.019043365 0.10216297
0000b0 50 7c 5f bd e3 7a 3c 3c d3 2b e9 3d 67 4f dc 3d
       -0.054561913 0.011503908 0.11385312 0.10757332
0000c0 d4 90 01 be c0 0d d4 bd 4e 93 db 3d 5c af 96 bd
       -0.12652904 -0.10354185 0.107214555 -0.07357666
0000d0 c9 d5 3f 3d 9b d2 be bd eb 56 3b 3c 5b 3f 73 bd
       0.04683474 -0.093175136 0.011434297 -0.059386592
0000e0 82 e6 47 3d 63 b8 85 3d d6 00 cc bb 6f 14 d3 bd
       0.048803814 0.065293096 -0.0062256856 -0.10306632
0000f0 5d b9 e9 3d c0 b4 cf bd 16 28 db bd 4a 1c 07 3d
       0.11412308 -0.10141897 -0.10701005 0.032985963
000100 93 26 65 bc 24 63 91 3c c3 7c 66 bd 37 69 89 3c
       -0.013986248 0.01774747 -0.056271326 0.016773803
000110 30 50 38 bb f2 67 1f bd ec 82 10 bd 91 11 a2 3b
       -0.0028123967 -0.03891749 -0.035281107 0.0049459417
000120 76 5d 29 bd 12 35 b3 3c 66 03 4d 3d 94 c2 d0 bc
       -0.041348897 0.021875892 0.05005207 -0.025483407
000130 fe 38 95 3d 03 8a c3 bd e3 75 b9 3d 27 02 e7 bd
       0.07286261 -0.09547808 0.09055688 -0.112797074
000140 0c 73 df 3d 04 8c b5 bd a9 9b 2c 3d d0 b4 c0 3d
       0.10910615 -0.088645965 0.042140637 0.09409487
000150 17 a2 47 3d 69 9d 22 bd 01 fc 0c 3e 23 36 ba bc
       0.048738565 -0.0397009 0.13768007 -0.022730893
000160 57 28 4e bd 07 f8 a3 bc d6 81 0f bc d2 25 4a 3c
       -0.05033144 -0.02001573 -0.008758983 0.012338119
000170 f7 bd c9 3d 13 bd 00 3d 50 43 e5 bd fc 85 ae bd
       0.09850686 0.031430315 -0.111944795 -0.08521649
000180 fe 04 d9 3b ee 0e e7 bc e6 16 3f 3d 04 7b 8c bc
       0.0066229096 -0.028205361 0.046652697 -0.017148502
000190 65 9d ae 3d 29 79 47 bd d9 3c 91 bd ba 59 cd bd
       0.085261144 -0.04869953 -0.07091684 -0.100268796
0001a0 e5 a0 81 3d 3c ae d5 3d f6 d8 93 3d e7 ae 36 bd
       0.06329516 0.10433623 0.072191164 -0.044600394
0001b0 2e 02 a8 3b 4a 19 df bc 42 83 f2 3d c3 ed e8 bc
       0.005127213 -0.027233738 0.11841442 -0.028433686
0001c0 84 7a 09 bd 00 1b 22 3d 20 f1 9a 3d 58 02 df 3d
       -0.033564106 0.03957653 0.07565522 0.10889119
0001d0 7e 82 93 bd b9 01 a9 bd 7e 09 b8 bd 19 0f 60 bd
       -0.07202624 -0.08252282 -0.089861855 -0.0547019
0001e0 4d 11 83 3d 9c 83 ae 3d 00 94 cf 3d 15 be dc bd
       0.06399784 0.08521196 0.10135651 -0.10778443
0001f0 06 ec a6 3d 1c 6d df 3c 89 be c0 3d 8d ab 81 bd
       0.08150487 0.027273707 0.09411342 -0.06331549
000200 f1 5b 9b 3c 54 e0 34 bd 3c c6 b8 3c d1 65 99 3b
       0.01896474 -0.04415925 0.022555463 0.004681327
000210 72 76 f5 3d c7 f7 01 3e 78 90 74 bd fb c5 98 bd
       0.11985482 0.12692176 -0.05970809 -0.07459637
000220 55 9e c5 3d 28 c3 f0 3d da a4 0b bc 09 2c a9 bd
       0.0964934 0.11755973 -0.00852319 -0.08260352
000230 09 3c 48 bd 3e 7d 9a 3d 27 eb 45 38 37 06 e0 3d
       -0.04888538 0.07543419 4.7187463e-05 0.109386854
000240 51 60 c1 bc 71 dd fb 3d 01 d3 ed 3c 0f 9b 30 3d
       -0.023605498 0.12298096 0.029031279 0.043116625
000250 33 16 47 bd 52 91 80 3d 7f f1 91 bd 25 79 c0 3c
       -0.048605155 0.06277718 -0.0712614 0.023495266
000260 ac 09 7c bd 7a 80 91 bd f0 88 4d 3c 68 42 07 3d
       -0.06153266 -0.07104583 0.0125448555 0.033022314
000270 64 18 a6 3b f7 c3 9e 3d e7 4d a6 bd 25 a3 e7 bc
       0.0050688256 0.07752221 -0.081203274 -0.028276036
000280 16 77 c8 bd f8 32 b0 3d 52 0d 31 3d 5b 32 93 bd
       -0.09788339 0.086034715 0.043225594 -0.07187339
000290 d9 8b 85 3d 91 e2 e5 3d 2e 29 51 bd 23 2e 94 bd
       0.065208144 0.11224855 -0.051064663 -0.072353624
0002a0 5e 6d 2a 3d 14 a4 b8 bd 4b 3a 5f bd 12 2b b7 3d
       0.041608207 -0.090156704 -0.054498952 0.08943762
0002b0 31 7a 37 3d bb 88 a8 bd 21 2b c1 bb 9d 58 c9 3d
       0.044794265 -0.08229204 -0.005895034 0.09831355
0002c0 57 97 4a 3d 8c 8d d4 3c 0b fa 58 bd 9e ce 0e 3d
       0.049460735 0.025946401 -0.052972835 0.034865014
0002d0 0f 65 ef 3d cc 5e 1e bc 8b 3e fc bd 7d 05 b6 bd
       0.11689197 -0.009666156 -0.123166166 -0.088877656
0002e0 21 26 62 3d 29 5a 0e bd 00 b0 30 bd 4f f9 88 3d
       0.055212144 -0.034753952 -0.043136597 0.06688177
0002f0 39 bc 4f bd 06 84 9a 3d 41 a3 01 be cf 96 79 bd
       -0.050716612 0.07544713 -0.12659933 -0.060934838
000300 a4 ac 9a 3d ce 22 85 3d 72 35 bc bd 4c c1 d7 3d
       0.0755246 0.06500779 -0.091898814 0.10534915
000310 3f 8f 48 3d 27 9e 24 bd e7 4f b7 bd fe 1d e1 bb
       0.048964735 -0.04018989 -0.08950787 -0.0068700304
000320 00 01 21 3d f1 e3 a5 bd 41 bb e1 3d a0 36 2c bd
       0.039307594 -0.08100117 0.11022044 -0.042044282
000330 73 66 f3 3d 0d e2 c1 3d 4c cf a8 bb 5d cf ca 3d
       0.11884775 0.09466944 -0.005151665 0.09902833
000340 e5 ee 31 3d 9e 71 02 bd 8c 9d 13 bd 48 2e 08 bd
       0.04344072 -0.031846635 -0.03603892 -0.033247262
000350 54 0b 8b bd a2 44 22 bd d8 99 cc bc 99 98 89 3d
       -0.0678927 -0.039616235 -0.024975702 0.06718559
000360 aa e2 e4 bb f3 f7 67 bd 12 e5 f7 bc 64 9f ae bd
       -0.0069850283 -0.056632947 -0.030260596 -0.08526495
000370 5e 09 9d 3d 32 21 0b bc 01 b4 47 3d f3 6c c7 3d
       0.07667802 -0.008491801 0.04875565 0.09737577
000380 6a 2f e3 3d 8e af 5c bd 05 0f d9 bd bf 01 d7 3d
       0.11093028 -0.05387836 -0.10598568 0.1049838
000390 4e 6d 76 3d 62 57 1b bd 1e 1e 9c 3d e3 7c 48 3b
       0.060162835 -0.03792513 0.07622932 0.0030592016
0003a0 30 05 e9 3c 0c bb d8 3d ae 9a a8 3d f6 bf 77 bb
       0.028444856 0.10582551 0.08232628 -0.0037803627
0003b0 57 c6 a3 3d 3a f7 9b bd f5 c1 18 bc f4 96 57 3d
       0.07996815 -0.07615514 -0.009323587 0.052634194
0003c0 96 53 3d bd 52 ba 3e 3d 11 89 18 bd 08 59 e5 3d
       -0.046222292 0.046564408 -0.03724009 0.11198622
0003d0 1e e9 a7 3d 88 da c8 3d f0 3e 8f 3a 50 5c 93 bd
       0.081987604 0.098073065 0.0010928791 -0.071953416
0003e0 f7 e8 58 3d 70 00 7f 3d b5 72 b9 bc c7 c8 a1 bc
       0.052956548 0.062256277 -0.022637704 -0.019749058
0003f0 d9 27 e0 3d ac 39 b9 3d e9 ee d9 3d 70 e0 3e bc
       0.109451 0.09044203 0.106412716 -0.01165019

encoder.layers.1.nn.net.2.bias f4 [64]
000000 dc 32 f6 3d 71 da 94 3d 83 f4 ec 3d 7f 19 9d 3d
       0.120214194 0.07268227 0.115700744 0.076708786
000010 e1 f3 f3 bc c7 7f 79 bd a8 3d 19 3b 37 3d df 3d
       -0.029779376 -0.060912874 0.0023382697 0.10900348
000020 a4 06 00 be 78 69 83 bd 43 76 8e bd c9 50 a3 3d
       -0.12502533 -0.06416601 -0.069561504 0.07974393
000030 b7 5d ee 3c 0b 39 2b bc 8c 89 66 bd 3c ca 71 bd
       0.029097421 -0.010450612 -0.05628352 -0.059030756
000040 27 99 fd 3d 8e fe f1 3d 86 75 9b 3d 6f 8a 47 3c
       0.12382727 0.118161306 0.07590775 0.012179001
000050 9c 83 8d bd b8 4d fa bd 3a 77 a8 3d 51 2b a0 3d
       -0.06909868 -0.12221855 0.08225866 0.07820762
000060 09 0f d1 3c 51 9b 6d bd bb ba a1 3d 6e 4b 1c bd
       0.025519865 -0.05800945 0.07896944 -0.038157873
000070 ea 9d 29 bd 44 8a 56 bd 5b 1e cc bd c9 4e 15 bc
       -0.041410364 -0.052377954 -0.09966727 -0.009113022
000080 25 e8 8f 3d 1a c9 51 3d 15 50 c7 3d 40 fc f6 bd
       0.070267 0.051217176 0.09732071 -0.120598316
000090 4f 49 9a bd 02 bd cf bd 63 4e c1 bd 1d ad 69 bd
       -0.07533514 -0.10143472 -0.09438779 -0.05704986
0000a0 a6 5b d5 b8 5f 07 de 3d 0e 54 fa 3d 67 30 2b bd
       -0.00010173702 0.1084125 0.122230634 -0.041794207
0000b0 66 17 11 bd 47 8f 8a ba 7b f2 bb 3d f6 1f d8 bd
       -0.035422705 -0.0010571264 0.09177109 -0.10552971
0000c0 45 c8 95 3d a8 52 c6 bd 10 6c 81 3d 95 1c bb 3d
       0.07313589 -0.09683734 0.063194394 0.09136311
0000d0 7a c8 74 bd 07 d8 24 bc a6 74 93 bc 38 08 8f 3d
       -0.0597615 -0.010061271 -0.017999958 0.069839895
0000e0 49 02 32 bc e4 6b 79 3d 5f cb e8 bd c2 e6 94 3d
       -0.010864803 0.06089391 -0.11366915 0.07270576
0000f0 73 fa f3 bc 76 98 7e bd 3e 95 d2 bd ae 09 b2 3d
       -0.02978251 -0.062157117 -0.10282372 0.086932525

encoder.layers.2.nn.net.0.weight f4 [64, 64]
000000 68 e5 cd 3d 57 2f d3 bd ac b7 a4 3d 02 e6 c5 3d
       0.100535214 -0.10311764 0.08042845 0.09663011
000010 d3 d7 45 bd e2 ca 3a bd 5d 98 07 3d 0d 69 7b bc
       -0.04830153 -0.04560364 0.03310429 -0.01534487
000020 7a af a1 bd 9c 54 e1 3d 97 79 14 3d 86 70 00 3e
       -0.078947976 0.11002466 0.03624877 0.12542924
000030 d8 27 fa bc 89 a3 8d 3d 31 6f 8c bd 4a e1 87 3d
       -0.030536577 0.069159575 -0.068571456 0.06634767
000040 11 7a cb 3d 38 68 a9 3c 62 4c a9 3d ef 63 cf 3a
       0.09935392 0.020679578 0.08266522 0.0015822629
000050 6f a6 cc bb bf ef e2 bd ed 79 5b 3d 79 f2 a8 3d
       -0.0062454264 -0.11080884 0.053583074 0.08249373
000060 3b 59 c3 bd 98 32 d0 bc 6b f4 c9 bd 2e 0d be bc
       -0.09538504 -0.02541475 -0.09861072 -0.023199644
000070 65 cd ba 3d dd 33 4b bd 7d 53 d4 3d f5 68 1b 3d
       0.09121207 -0.049610008 0.103674866 0.03794189
000080 97 4a 88 3d 61 78 db bd 50 35 d5 bd df 07 de 3d
       0.06654852 -0.1071632 -0.10410559 0.10841345
000090 80 ac cf bb 48 20 09 3d 73 07 90 3d 3e 51 b1 bd
       -0.0063377023 0.03347805 0.07032671 -0.08658074
0000a0 8c 0f d1 bb 53 84 c3 3d 50 cd f6 3b 95 62 11 3e
       -0.006380027 0.09546723 0.0075317994 0.14197762
0000b0 8a 50 0b bb 8a 39 b6 bd b2 0b 02 3e 20 3b 13 bd
       -0.0021257722 -0.088976935 0.12699774 -0.035945058
0000c0 48 2e ec bd 9f 60 38 bc 8e 7b 69 3d 9e 03 47 3c
       -0.11532265 -0.011253505 0.057002597 0.0121468585
0000d0 ee 9a 13 bd ac ef 30 bd 06 a5 be 3d da ca 96 bd
       -0.036036424 -0.04319732 0.093088195 -0.073629096
0000e0 d7 a2 be bd d6 8e 1c bd 26 bb d3 3d 9c 33 e8 3d
       -0.09308403 -0.038222156 0.1033843 0.11337969
0000f0 18 71 77 3c 05 20 1c 3d ea 70 10 3e 62 26 8a bd
       0.015102647 0.038116474 0.14105573 -0.06745602
000100 14 01 a8 3d cc 4e 47 3d 9f fa eb bd d5 76 f9 3d
       0.08203331 0.04865913 -0.115224116 0.121808685
000110 03 c6 6d 3d 4e 54 ea 3c 13 4d 6d bd cf 36 d5 3d
       0.058050167 0.028604653 -0.05793483 0.104108445
000120 28 65 b2 bc 21 7c e8 3d fe 91 20 bd 6b e4 3c bd
       -0.02177675 0.11351801 -0.03920173 -0.046116274
000130 1a ac c5 3c 1c 63 25 bc 5b 84 63 3d 0b 8a 20 3d
       0.024129916 -0.01009443 0.055546146 0.039194148
000140 5b 17 09 3b 5c 80 d9 bc 81 c0 8a 3d 1e 38 29 3d
       0.0020918462 -0.026550464 0.067749985 0.041313283
000150 51 43 ac bd ac df d6 3d a2 e2 11 3d d1 1b eb bd
       -0.08411277 0.10491881 0.035616525 -0.11479915
000160 f9 ec 31 bd d0 3c e7 bd 94 a4 c3 bd 99 f8 6f 3d
       -0.043438885 -0.11290896 -0.09552875 0.05858669
000170 19 3a a6 3d e4 42 55 3c 8d aa 85 bd a5 e6 d0 3d
       0.0811655 0.013016436 -0.065266706 0.10200242
000180 e2 25 e2 bd 88 50 6c bd ff 20 e0 3c 14 6a c3 3d
       -0.11042382 -0.057693988 0.027359484 0.09541717
000190 d2 e5 c9 bc 59 f3 5d bd 13 cb db bc 5a 53 eb 3d
       -0.02464572 -0.054187153 -0.026830232 0.114905074
0001a0 2e e4 0a bd d2 c7 fd bc 18 ae a1 3d 49 b1 94 bd
       -0.033909015 -0.03097907 0.07894534 -0.07260377
0001b0 f7 e7 e3 bd 37 64 00 be c9 8c ee bd 8e dc ee 3c
       -0.11128228 -0.12538229 -0.116479464 0.029157903
0001c0 dd da db 3d 3b 58 cb 3d 49 ad 78 bb 17 7a f6 bd
       0.10735104 0.09928938 -0.0037945083 -0.120350055
0001d0 61 31 f9 bd ed 44 ee 3c 15 2a dc bd 77 c6 73 bd
       -0.121676214 0.0290856 -0.10750214 -0.059515443
0001e0 81 97 d9 bd 0f a2 4d 3d ac d6 c6 bd ea 29 b8 bd
       -0.106246 0.05020338 -0.09708914 -0.089923695
0001f0 49 7e d9 bd 2c bc f8 bd d2 cf aa bc dd 99 f4 3d
       -0.1061979 -0.12145266 -0.02085105 0.119434096
000200 70 11 3f 3d ea 2c ec bc 96 d5 d7 bd 89 3f ae bd
       0.04664749 -0.02883001 -0.10538785 -0.08508212
000210 45 45 42 bd bc f1 91 3d b4 ac 5f bd ba 0b 9b bc
       -0.04742934 0.07126185 -0.054608062 -0.01892649
000220 bc d8 dc bd 9c 3b d8 bd cd 66 e4 3d 47 37 23 3d
       -0.10783526 -0.105582446 0.1115242 0.03984764
000230 56 bd f5 bd ce eb e8 bd e9 60 94 3d 51 07 96 bd
       -0.119990036 -0.11373101 0.07245047 -0.07325614
000240 7b 67 08 bd 61 ca ef 3d f7 51 c2 bd be a0 b5 3d
       -0.03330181 0.117085226 -0.0948829 0.0886855
000250 18 fe c5 3d 5e 7d f4 3d e3 d2 d8 bd 79 b6 aa 3d
       0.09667605 0.119379744 -0.105870984 0.08335585
000260 19 58 9e 3d ef ce b2 39 e0 cb 02 bc db e5 26 bc
       0.07731647 0.00034104983 -0.007983178 -0.010186638
000270 96 76 96 bc 82 87 e9 3d 3c ba 8e bd a9 bd 97 3d
       -0.018367093 0.11402799 -0.06969115 0.07409222
000280 0d 45 95 3d c2 fa 72 bd 32 b9 64 bd 7d 14 05 3e
       0.07288561 -0.059321173 -0.05584068 0.12996097
000290 5f ce a2 3d 2d cb ca bd 7d 6c 8d 3d 33 22 c8 3d
       0.079495184 -0.09902034 0.06905458 0.09772148
0002a0 ac 1d 50 3a 5a 86 95 bd 6c 54 da 3d d5 6a 9e 3d
       0.0007938992 -0.07301016 0.106606334 0.0773522
0002b0 22 a0 08 bc 1b 50 cd bd 68 ad 62 3c 1d 14 96 3d
       -0.00833896 -0.100250445 0.013835289 0.07328055
0002c0 2b 62 00 be a3 27 c7 3d 86 da 79 bd 72 cd a4 3b
       -0.12537448 0.09724357 -0.060999416 0.005029374
0002d0 80 d2 a8 3d d2 f2 80 bd 02 fd 07 3d 1b 6b a6 bd
       0.08243275 -0.06296314 0.03320027 -0.081258975
0002e0 c3 c1 7b bd 79 99 09 3e d1 f8 9a 3c 7f 95 1d 3d
       -0.061464082 0.13437451 0.018917473 0.03847265
0002f0 21 21 61 3c 3c e1 c5 bd 01 d4 0b bd ac cf 15 bd
       0.013740809 -0.09662101 -0.03413773 -0.036575004
000300 30 61 c7 bc 0d b8 a2 bd d8 30 0b bc 68 ba dd bd
       -0.024338335 -0.07945261 -0.008495532 -0.1082657
000310 19 7f a0 bd 44 1f a2 3d d3 5f 8a 3d 16 53 b2 3d
       -0.07836742 0.0791612 0.06756558 0.08707254
000320 cc 74 81 bd 2c af a7 3d 56 31 a9 bd ee 3b 3a bd
       -0.06321105 0.08187708 -0.08261363 -0.04546731
000330 e1 40 94 bd 82 66 05 3d 35 39 a0 3d ab 57 38 bd
       -0.07238937 0.032568462 0.078234114 -0.04500548
000340 62 1c 99 bc 8e 39 c7 bd 5c d0 99 3d af 73 4e bd
       -0.018690292 -0.097277746 0.075104445 -0.050403293
000350 ca 83 bc 3d be 98 ca bc a8 a5 1a 3d b2 c9 dd bd
       0.09204824 -0.024731036 0.03775564 -0.10829486
000360 6f 54 ef 3c b4 c4 ea bb 32 d1 bd bc 7b b4 4f bd
       0.029215066 -0.007164562 -0.023171041 -0.05070923
000370 b4 2f f7 bc ce cc 16 bd 82 0c 1c 3d fb 0a e5 bd
       -0.030174114 -0.03681641 0.038097866 -0.11183735
000380 eb 4c b0 bd f9 9e ec bd f9 82 23 bd 77 31 8d bd
       -0.08608421 -0.11553759 -0.039919827 -0.068942
000390 e0 33 06 be bb 5e 0a be 90 11 69 3d 4f 40 97 3d
       -0.13105726 -0.135127 0.056901515 0.07385313
0003a0 a6 0f 6b bc 8c a7 c5 3d 63 06 b2 3d fd bd 69 bb
       -0.014346993 0.09651098 0.086926244 -0.003566622
0003b0 14 53 0c bd 4b 82 72 bd 6e b9 7c 3d 31 d3 aa bd
       -0.034258917 -0.05920629 0.061700277 -0.08341063
0003c0 f7 26 fe bd 3a 97 ea bc cf 27 b5 bd 80 eb f9 bc
       -0.12409776 -0.028636564 -0.088454835 -0.030507803
0003d0 26 7d 7f 3d ef 06 10 3d 6f 2e ed bb db 4b f8 bd
       0.06237521 0.035162862 -0.0072382013 -0.12123843
0003e0 47 e1 e0 bd 04 c3 c8 bd a9 1f 60 3d 8b 64 86 bc
       -0.10980468 -0.09802821 0.054717693 -0.016405364
0003f0 be d2 a7 3d b3 87 ac 3d 90 f3 0c bc 4f 5c b3 bd
       0.08194493 0.0842432 -0.008602992 -0.08757841

encoder.layers.2.nn.net.0.bias f4 [64]
000000 52 ee c2 3d a9 eb f3 3d 0c 58 14 3d 83 87 ce bd
       0.09518112 0.11910183 0.03621678 -0.100844406
000010 30 27 af 3c 77 f4 7d 3d 47 e6 77 3d 8c 89 84 bd
       0.02138099 0.062000718 0.060522344 -0.064715475
000020 f4 7d 04 be c7 a0 06 bd 57 5c 9e bd 3d 79 16 3e
       -0.12938672 -0.032868173 -0.07732456 0.14694686
000030 88 34 9e bd 65 85 aa 3d 9e 17 c7 bc 52 6f 28 3b
       -0.07724863 0.08326224 -0.024303254 0.0025701118
000040 33 e7 c3 bd f5 29 9c 3d 13 50 dd bd cf f6 7b bd
       -0.09565582 0.0762519 -0.108062886 -0.061514672
000050 7c 60 d8 bd 3d 20 83 bd 50 fb 00 be 5c 64 94 3d
       -0.10565278 -0.06402633 -0.12595868 0.072457045
000060 13 16 e1 3d ed f5 7f bb 86 10 0b bd e1 14 39 bd
       0.109905384 -0.0039056495 -0.033951305 -0.045185927
000070 f1 d1 98 3d b0 4e e2 3d cc cb 03 3e b8 54 97 3c
       0.07461918 0.11050165 0.12870711 0.018473014
000080 fd 5b 8d bd 67 0d 69 3b 1d d0 66 bc af 83 02 bb
       -0.06902311 0.0035560967 -0.014087704 -0.0019914915
000090 a3 29 91 3d c6 e0 cf b9 8c c2 35 bd 87 72 8b bb
       0.0708802 -0.00039649586 -0.044374987 -0.004255596
0000a0 6a a3 6c 3c 7d 63 83 3d 29 53 d2 3c 2e 35 a4 bd
       0.014443258 0.0641546 0.02567442 -0.08017956
0000b0 49 04 16 3d 2f b1 f2 3c 57 08 fe bd e6 c4 a2 3d
       0.03662518 0.029625503 -0.124039344 0.07947712
0000c0 a0 e5 00 3e d8 54 a7 3d 91 c7 99 3d 7e ac 64 bd
       0.12587595 0.081704795 0.075087674 -0.055828564
0000d0 0b 72 88 3d 26 c0 b2 bd e4 1a b0 3d 98 01 43 3d
       0.06662377 -0.08728056 0.08598879 0.04760894
0000e0 d5 16 85 bd 6f 16 bf 3c a2 ce 92 3d e3 17 11 3d
       -0.064984955 0.023326127 0.07168318 0.03542317
0000f0 4b de 36 3d 2c c1 8d bd ad 83 f6 bd c7 64 cd bd
       0.04464559 -0.0692161 -0.12036834 -0.100289874

encoder.layers.2.nn.net.2.weight f4 [64, 64]
000000 4c 06 3d 3d 45 7f d7 bc 88 3e 9a bd 60 53 f5 3d
       0.046148583 -0.026305804 -0.07531458 0.11978793
000010 a6 df bc bc 1a dd 94 bd 6e ca 08 3d 83 de 84 3c
       -0.023055863 -0.07268734 0.033396177 0.016219383
000020 1f 00 e0 3d d4 82 55 bd 0e c5 aa 3d 14 03 55 bd
       0.10937523 -0.05212672 0.083383664 -0.05200489
000030 c9 d2 ca bd ec 6b 68 3d 0a 35 80 bd 5b 5a c5 3d
       -0.09903485 0.056743547 -0.062601164 0.096363746
000040 0d 90 ce 3c 8c e8 23 3b 6d bc 72 bd 4d 7b cc bd
       0.025215173 0.0025010435 -0.059261728 -0.09984455
000050 b7 f6 0c 3d 2f b3 4b 3b 54 b4 a5 3c bc f7 d5 bd
       0.034414973 0.0031082144 0.020227589 -0.10447642
000060 71 f4 68 bd ec 68 40 3d df 3d c0 bd 24 2b 4d 3d
       -0.056873742 0.04697506 -0.09386801 0.05008997
000070 49 ee bc 3d 40 f1 0f 3d d5 96 21 bd b4 95 fd 3d
       0.09225137 0.035142183 -0.039450485 0.12382069
000080 2b aa d6 bd 0f 4a 5d 3d bc a4 fb 3c da b2 b8 bd
       -0.10481676 0.054025706 0.0307182 -0.09018488
000090 4f 2a 06 3d 04 a1 e4 bd 64 26 1f 3b 09 88 cb bc
       0.032755192 -0.11163524 0.0024284357 -0.02484514
0000a0 9a 61 9f 3d 26 03 bc bd 73 bd 24 3c 4d b3 09 bd
       0.07782288 -0.09180288 0.010054934 -0.03361826
0000b0 64 1b 29 3d 1b f9 db bd 7c 5d c2 bd 3a 6a ae 3d
       0.041285887 -0.107408725 -0.09490487 0.08516355
0000c0 bd cc 21 bd 07 23 94 3a 98 01 20 3c 69 d9 6d bd
       -0.039501894 0.0011301943 0.009766005 -0.058068667
0000d0 cc a3 ff bd 70 f4 d3 3d a8 77 26 bd a0 77 e0 bc
       -0.12482414 0.10349357 -0.040641457 -0.027400792
0000e0 29 7a 0f 3c e8 e6 9e bd 0d 45 9b 3c 63 74 b5 bd
       0.008757153 -0.077588856 0.018953824 -0.0886009
0000f0 a4 67 c6 bb 09 ed aa 3d 1f f2 d7 bc b6 10 be 3d
       -0.0060548354 0.08345992 -0.02636057 0.09280531
000100 77 e9 51 3d e1 15 e0 3a c2 5b af bc e4 67 e8 3c
       0.05124804 0.0017096364 -0.021406058 0.028369851
000110 99 29 ca 3d 50 bd c7 3c 33 a9 81 bc 65 4d 31 bd
       0.098712154 0.024382263 -0.01582775 -0.0432867
000120 a2 18 92 bd 8c 83 d5 bc 57 83 ec 3d 4c 49 8b bd
       -0.071336046 -0.026063703 0.115484886 -0.0680109
000130 66 20 c1 bd 4d ee bc 3d 38 a1 20 bd 27 75 bb 3c
       -0.09430008 0.0922514 -0.03921625 0.022883011
000140 65 97 a3 bd c7 e2 5b 3d fa f2 25 bc 2b ec b5 3d
       -0.079878606 0.05368307 -0.010128731 0.08882936
000150 91 e6 cc 3c 9c dc 00 3d 0c 49 f4 bc 71 88 81 bc
       0.025012286 0.03146039 -0.029819988 -0.01581213
000160 b6 1d bc bd 9a d3 06 3e 07 2e 7f 3c d5 5b df 3d
       -0.091853544 0.13166657 0.015574939 0.109061874
000170 06 d5 d1 bd cd c1 26 3c da de 0b be b5 8b 19 bd
       -0.10245709 0.010178042 -0.1365923 -0.03748675
000180 a3 cc d6 bd d1 85 79 bc 43 5e 83 3d 1f 4b e4 bd
       -0.1048825 -0.015229658 0.06414463 -0.11147141
000190 c1 3e e1 3d 70 f2 99 bd 6f 7a e5 bc 9a 99 c3 3d
       0.109982975 -0.075169444 -0.028012482 0.095507815
0001a0 da 98 bb 3d cd f8 03 3d 68 9d ec 3d db cc d5 bd
       0.091600135 0.032219697 0.1155346 -0.10439464
0001b0 5a 5c 90 3d 8f 5c 94 3d d3 24 c8 bd 6c f6 80 3d
       0.07048865 0.07244217 -0.09772649 0.06297001
0001c0 fc d9 aa 3d 59 97 9e bd bc 05 ff 3d f9 d4 d0 3d
       0.083423585 -0.07743711 0.124522656 0.10196871
0001d0 92 d4 9f bd 5e df 8d 3c 34 cf 29 bc 6b 19 07 3e
       -0.078042164 0.017318424 -0.0103643425 0.1319329
0001e0 28 8a 95 bd 7d a1 3e 3d e5 27 d6 bd 0e b5 2d 3d
       -0.07301742 0.046540726 -0.10456828 0.042408995
0001f0 81 f3 8e 3c c6 55 51 bd 67 51 18 bd ef 54 c7 bd
       0.017450096 -0.05110719 -0.037187006 -0.09732997
000200 d1 87 14 3d 53 df 91 3d 2f b1 f8 3c 0e 89 6a 3b
       0.036262337 0.07122674 0.030357925 0.0035787257
000210 19 8a 9b 3d f8 4a 0a 3d dd 47 31 3c f8 b6 9b 3c
       0.075946994 0.033762902 0.010820356 0.019008145
000220 e2 2d 7f bd f9 11 3d bc 8c f5 4b bd 08 4e b9 3c
       -0.062299617 -0.01153993 -0.04979472 0.022620216
000230 1d 00 9b 3d 29 c0 3f bd 32 96 a2 bd a1 05 a8 3d
       0.07568381 -0.046814118 -0.07938804 0.08204199
000240 58 a9 fc bd dc 97 ef 3b 69 28 c0 bd a6 47 8e 3d
       -0.12336987 0.007311804 -0.093827076 0.069472596
000250 ec e5 c5 bc ae bd 05 3e f9 52 81 3d 27 d8 eb bd
       -0.024157487 0.13060638 0.06314654 -0.11515837
000260 a6 8b 7a 3d 7a 26 32 bd 05 70 61 3a 69 21 9a bd
       0.061168335 -0.043493725 0.0008599761 -0.07525904
000270 4d 21 71 bd 65 53 bb 3d e0 21 e2 bd af c5 1a bd
       -0.05886965 0.091467656 -0.110416174 -0.037786182
000280 3a 15 b2 3d 22 2f d7 3d 9f e7 86 3d d0 f9 ea 3d
       0.08695455 0.10507037 0.06587147 0.11473429
000290 d5 f1 90 3b a6 b8 df 3d 36 76 9b bd 11 35 d6 3d
       0.00442336 0.10923891 -0.07590906 0.1045934
0002a0 0b 87 20 bd ce 9e b7 bc 34 7d 62 3d f2 ed ae 3d
       -0.039191287 -0.022414591 0.055295184 0.08541478
0002b0 3f d7 ee bd fd 4f 97 3c ea c2 6e 3d d2 35 ac 3d
       -0.11662149 0.018470759 0.058291353 0.08408703
0002c0 70 90 7b 3d 5a cc 16 bd fb 31 b8 bd c7 8e e7 bd
       0.061417043 -0.03681598 -0.08993908 -0.113065295
0002d0 2a d3 8e bc e9 e3 95 3d 80 83 76 3d 4d a0 88 3d
       -0.017434675 0.07318861 0.060184002 0.066712
0002e0 82 1d 58 3d 32 4b 41 3d 2b a1 7b 3d 5f 60 c6 bd
       0.052762516 0.047190852 0.061433 -0.0968635
0002f0 a3 00 99 bd cf 95 80 bd 04 a2 c7 bc 5f ce d6 bd
       -0.074708246 -0.06278574 -0.024369247 -0.10488581
000300 41 de e4 3c b2 44 e7 bd df db 08 3d f5 88 96 bd
       0.02793801 -0.112923995 0.03341281 -0.07350341
000310 68 18 e3 3d 5b 9e ea bd d9 bb 88 bb de b8 98 bc
       0.110886395 -0.11455985 -0.004172784 -0.018642839
000320 42 51 54 bd 18 be f5 bd 88 0a bf bd 79 c8 dd 3d
       -0.051835306 -0.11999148 -0.093281806 0.10829253
000330 bd 3c 6e bd f5 5c 90 bd 28 9d f6 bd 97 c0 a5 bc
       -0.058163393 -0.0704898 -0.12041694 -0.020233436
000340 bc 46 8d 3c ae a1 ca 3c 51 d3 51 3d 9b 42 8f bd
       0.017245643 0.024735298 0.051226918 -0.06995126
000350 e8 54 d7 3d ca ab 61 bd 9b 2e fd bd 03 b3 76 3d
       0.105142415 -0.05509547 -0.12362405 0.060229313
000360 49 fb a0 bd 3d bb 0a 3d ea b1 78 3d c9 ef 5c bd
       -0.07860429 0.03386997 0.060716547 -0.053939614
000370 2d fb 92 bd 20 74 66 3d d2 61 c3 bb 6c a6 6f 3d
       -0.07176814 0.05626309 -0.005962589 0.05850832
000380 f0 df 21 3d 25 57 a5 bc 87 8d c6 bd e9 d5 80 bd
       0.039520204 -0.020183155 -0.09694963 -0.062908
000390 bc 14 dd 3d 44 49 c9 bc 64 df 21 bd c8 98 72 bd
       0.107949704 -0.024571069 -0.039519683 -0.059227735
0003a0 99 41 b2 3c ac 5c a1 bd e7 ab cc 3d fa 0d a2 3d
       0.021759795 -0.07879004 0.09993725 0.07912822
0003b0 6c 98 e7 bc 0b 38 f5 bd 77 dc 7b bd 62 36 97 3d
       -0.028270923 -0.1197358 -0.06148955 0.073834196
0003c0 ca d8 4c bd 79 36 ab bd 88 93 c0 bd 11 54 59 bd
       -0.050011434 -0.08359999 -0.09403139 -0.053058688
0003d0 b2 a2 a4 bd d9 fa eb 3d 8d c4 98 3d e5 e5 b2 3d
       -0.08038844 0.11522455 0.07459364 0.08735255
0003e0 01 91 e0 bd 9b 2e 5b 3d ad 53 24 3d ea 31 fc bd
       -0.10965157 0.053511243 0.040118862 -0.12314208
0003f0 2b 24 f1 3d 74 ae f1 bb a3 5e ec 3d e1 9b dc 3d
       0.117744766 -0.0073755328 0.11541488 0.10771919

encoder.layers.2.nn.net.2.bias f4 [64]
000000 da 44 9c 3d 72 b8 de bd f1 b6 11 bd 25 df 28 bd
       0.0763032 -0.10875024 -0.035574857 -0.041228432
000010 a7 ca d6 bc 71 96 26 bd 34 73 f2 bd 21 41 ff bd
       -0.026219679 -0.040670816 -0.118383795 -0.12463594
000020 c6 54 59 bd 2e d9 28 bd c2 3b fc 3d 9f 30 90 bd
       -0.053059362 -0.041222744 0.123160854 -0.07040524
000030 52 9d 03 3d 1b 0f 89 bd ac 23 93 bd 59 74 64 bc
       0.032132454 -0.06692334 -0.07184538 -0.013943755
000040 cc 6d e6 3d 9e 5d ea bd 48 20 f6 3d de ff da 3d
       0.11251411 -0.11443637 0.12017876 0.10693334
000050 37 75 8b bc 33 8e 06 bd b0 34 eb bd be e1 42 3d
       -0.017023666 -0.032850455 -0.11484659 0.047578566
000060 1f a3 e0 3d 03 f9 c4 3d f1 c5 4b bd bd cb 2c bd
       0.10968613 0.09617808 -0.04974932 -0.042186487
000070 78 67 41 bd e8 6f 31 bb 2c 0a 92 bd 69 71 70 bd
       -0.047217816 -0.0027074758 -0.071308464 -0.058701906
000080 99 df ae bd fb a3 8d bc af 6b 95 bd fa 76 3c bc
       -0.085387416 -0.017290106 -0.0729593 -0.011502976
000090 26 d4 51 3c b1 ec 2f bd 08 f4 c3 3d 54 35 29 bc
       0.012806928 -0.042950336 0.0956803 -0.010327656
0000a0 75 57 c7 bd d3 72 23 bd 5a 94 85 bd 41 aa 89 3d
       -0.09733478 -0.039904427 -0.065224364 0.067219265
0000b0 ba 61 86 3d 9c 79 fa 3d 53 28 b7 bd a1 30 c1 3d
       0.065616086 0.122302264 -0.08943238 0.09433103
0000c0 3a 18 27 3d a6 e0 b0 bd 64 db 18 3b 63 83 8e bd
       0.04079459 -0.08636598 0.0023324126 -0.06958654
0000d0 f9 24 a0 bb e5 ec a1 3d ca 7e 5c bd 9e 3b 52 bd
       -0.00488722 0.07906512 -0.053831853 -0.051326387
0000e0 d2 63 14 bd 33 22 9d 3d 31 b6 bf bd 6c 19 d8 3d
       -0.03622801 0.076725386 -0.09360922 0.10551724
0000f0 75 b4 ad bd 21 52 d3 3d bb 56 9a 3d db 2f 16 bd
       -0.08481685 0.10318399 0.07536074 -0.036666732
