scripts/embeddings_gin_version2/IMDB-MULTI/gin_dim128_ep40_lr0.001_drop0.3/gin_classifier.pt (torch, 626909 bytes, 42 tensors)

encoder.layers.0.nn.net.0.weight f4 [128, 1]
0	0x3f622ec0	0.88352585
1	0x3e745de5	0.23863943
2	0xbedd2cd8	-0.43198276
3	0x3f4d42c0	0.8017998
4	0x3ed869ba	0.42268163
5	0xbe4cc6c0	-0.19997692
6	0x3edc6dd6	0.43052548
7	0x3f758219	0.9590164
8	0x3f1b39dc	0.6063516
9	0x3e4d48be	0.2004728
10	0xbf5629c4	-0.8365748
11	0xbf4fb998	-0.8114257
12	0xbecae03c	-0.39624202
13	0xbf7d7fbc	-0.9902303
14	0x3f23d4d2	0.63996613
15	0x3f26b893	0.6512539
16	0xbf6b646e	-0.9195012
17	0xbd5f6f40	-0.054549456
18	0x3e69dd13	0.2283824
19	0xbe9eb274	-0.30995524
20	0x3f420df7	0.7580256
21	0x3ceecdc9	0.02915086
22	0x3f310277	0.69144386
23	0xbf4d887a	-0.8028637
24	0xbf0082ec	-0.5019977
25	0x3f041552	0.5159503
26	0xbe867894	-0.2626387
27	0x3e8eafd2	0.27868515
28	0xbf0e7f18	-0.5566268
29	0x3f3c1572	0.7347022
30	0x3f339e69	0.7016359
31	0xbe388a10	-0.18021417
32	0x3ebd7415	0.37002626
33	0x3f061707	0.52378887
34	0x3f2cc413	0.67486686
35	0x3f61706e	0.8806218
36	0x3e84c3b1	0.2593055
37	0xbe4750b8	-0.19464386
38	0x3f48e70c	0.7847755
39	0xbeb9a064	-0.3625518
40	0xbf589a30	-0.8461027
41	0x3eb9e488	0.36307168
42	0x3f17fd5f	0.5937099
43	0x3f6da645	0.9283183
44	0xbf06a39a	-0.52593386
45	0x3e726238	0.2367028
46	0xbf4246c8	-0.75889254
47	0xbf75f1e8	-0.96072245
48	0xbf32a352	-0.6978046
49	0x3c850abb	0.016240468
50	0x3eaccebd	0.3375148
51	0xbf0fe42e	-0.5620755
52	0xbea71c50	-0.32638788
53	0xbf35803a	-0.70898783
54	0xbd1f1f80	-0.0388484
55	0x3f7969bd	0.9742697
56	0xbf145e2c	-0.57956195
57	0xbbf78b00	-0.007554412
58	0xbf654890	-0.89563847
59	0xbf612cd8	-0.8795905
60	0x3ecd9d73	0.40159187
61	0xbe05bb48	-0.13059723
62	0xbf52124a	-0.82059157
63	0xbd3dc6e0	-0.04633224
64	0xbf46379a	-0.7742859
65	0x3d8d244f	0.06891691
66	0x3f304896	0.6886076
67	0x3f4aa5d4	0.79159284
68	0x3ec78304	0.38967144
69	0xbf6793b2	-0.9045974
70	0xbf4f19ac	-0.8089855
71	0x3e0ef7d8	0.13961732
72	0xbeafdfc8	-0.3435042
73	0x3e9ac744	0.30230153
74	0xbf3a13e0	-0.72686577
75	0xbe1d6e50	-0.15374112
76	0xbf49344c	-0.78595424
77	0x3efab558	0.4896648
78	0xbeb5ae30	-0.35484457
79	0xbeef2710	-0.4670949
80	0x3eb96e4d	0.36216965
81	0xbf316a48	-0.693028
82	0xbf15dbce	-0.5853852
83	0x3f136a1c	0.57583785
84	0xbf0a6820	-0.5406513
85	0x3d24d465	0.040241618
86	0xbebf9178	-0.3741567
87	0x3f23f035	0.640384
88	0x3f22f6f0	0.63658047
89	0x3e975a66	0.29561156
90	0x3f08c039	0.5341831
91	0xbf748676	-0.9551767
92	0x3f17453f	0.59090036
93	0xbf69b562	-0.91292393
94	0xbe179090	-0.1480124
95	0xbf621ef0	-0.88328457
96	0x3e84f7b4	0.25970232
97	0x3f5a127c	0.85184455
98	0xbf54e38c	-0.8315971
99	0x3f629850	0.8851366
100	0xbf0a78dc	-0.54090667
101	0x3ef47f7f	0.47753522
102	0xbe98ed5c	-0.2986859
103	0xbea7b9f4	-0.32759058
104	0xbe2c4200	-0.16822052
105	0xbe221098	-0.15826643
106	0xbf63af10	-0.88939
107	0xbee4f4b0	-0.44717932
108	0x3eb66c87	0.35629675
109	0xbf3a24f4	-0.72712636
110	0x3c89537f	0.016763447
111	0xbc354a20	-0.011065036
112	0xbf3acad2	-0.7296573
113	0x3f2f36f7	0.68443245
114	0x3f09a0d2	0.5376102
115	0xbe091858	-0.13388193
116	0xbf75694e	-0.9586381
117	0xbf29534e	-0.6614274
118	0x3f3f0764	0.7462065
119	0x3ece96aa	0.40349323
120	0x3edfa62a	0.4368146
121	0xbd28053f	-0.041020628
122	0x3f3b6055	0.73193866
123	0x3f4876b1	0.7830611
124	0xbf79a82c	-0.97522235
125	0xbf337f3a	-0.7011601
126	0xbf130886	-0.5743488
127	0x3f1b1d6c	0.6059177

encoder.layers.0.nn.net.0.bias f4 [128]
0	0x3ec3a773	0.3821369
1	0xbf2790a3	-0.65455073
2	0x3e9217e4	0.28533852
3	0xbf242e58	-0.64133215
4	0x3e00e844	0.12588602
5	0xbecb811c	-0.3974694
6	0xbf43a487	-0.76422924
7	0x3f3c2302	0.7349092
8	0x3f4c9f30	0.799304
9	0xbe6c36a8	-0.23067725
10	0xbf701bb6	-0.93792284
11	0xbdc27c60	-0.09496379
12	0xbed4a99c	-0.41535652
13	0x3f50f632	0.81625664
14	0xbf53f64b	-0.8279769
15	0xbf396807	-0.7242436
16	0xbec98aec	-0.393638
17	0xbf329f0e	-0.6977395
18	0x3e1866e4	0.14883
19	0x3f06fb44	0.5272715
20	0x3ec51e1d	0.38499537
21	0xbdc04e85	-0.093899764
22	0xbee3a990	-0.44465303
23	0x3ec6cef4	0.38829768
24	0xbf0c4ccc	-0.5480468
25	0x3d9ecfa1	0.07754446
26	0xbe1d05d0	-0.15334249
27	0x3ddbbbfe	0.10729216
28	0x3e645688	0.22298634
29	0xbdabb733	-0.08384552
30	0xbf0c9bf5	-0.5492547
31	0x3e4fdcf0	0.20299125
32	0x3e032810	0.12808251
33	0xbe9c00b7	-0.30469295
34	0xbeb9b740	-0.3627262
35	0xbf49f44d	-0.788884
36	0xbf1bc989	-0.60854393
37	0xbf3f6c34	-0.7477448
38	0xbe5b7c3b	-0.21434109
39	0xbec99604	-0.39372265
40	0xbeea0b60	-0.45711803
41	0x3ed4fc85	0.41598907
42	0x3f187d18	0.5956588
43	0x3f59c37d	0.85063916
44	0x3efd77b0	0.49505377
45	0xbf4f226b	-0.8091189
46	0xbba8ec00	-0.0051550865
47	0x3e0d5240	0.13800907
48	0x3ef54af4	0.47908747
49	0xbebf2702	-0.37334448
50	0xbef63bf1	-0.48092607
51	0x3e9b7470	0.30362272
52	0x3f4f10c0	0.80884933
53	0xbeb7b390	-0.35879183
54	0x3e8d61b8	0.27613616
55	0x3ebcb98e	0.36860317
56	0x3ec1fe68	0.3788941
57	0xbee847b8	-0.45367217
58	0xbf52f0d0	-0.823987
59	0xbf6f4f08	-0.9347997
60	0x3ec50993	0.38483867
61	0xbf1dd80a	-0.61657774
62	0x3ea5bf28	0.32372403
63	0xbf3c0656	-0.7344717
64	0x3f5c62bc	0.86088157
65	0x3db408ac	0.087907165
66	0x3f071bf2	0.52777016
67	0xbf5cd275	-0.8625863
68	0x3e744b15	0.23856767
69	0x3de3e510	0.111276746
70	0xbf299a18	-0.66250753
71	0xbef6fb70	-0.48238707
72	0xbea44330	-0.3208251
73	0x3ec82dcd	0.39097443
74	0x3f2ea342	0.6821786
75	0xbf7df7c0	-0.9920616
76	0x3cf23000	0.029563904
77	0xbd543667	-0.051809695
78	0xbc0db180	-0.008648276
79	0xbf180512	-0.59382737
80	0xbef5c183	-0.479992
81	0x3eb51608	0.3536837
82	0x3f1779be	0.5917014
83	0xbf51d5bf	-0.81966776
84	0xbeebd8e4	-0.46063912
85	0x3f4e93f5	0.80694515
86	0x3d63a220	0.055574536
87	0x3f3142f4	0.6924279
88	0xbde9778a	-0.113997534
89	0x3f09beb6	0.53806627
90	0x3ee3ef6c	0.44518602
91	0xbe9549d8	-0.291579
92	0x3e6c8801	0.23098756
93	0xbe258708	-0.16164792
94	0xbf33fc8e	-0.7030724
95	0xbf3a32de	-0.7273387
96	0x3da45eb4	0.08025876
97	0x3f78ec52	0.97235596
98	0x3e076f70	0.13226104
99	0xbdacc849	-0.08436639
100	0x3f5f89ca	0.87319624
101	0xbf20d8df	-0.6283092
102	0xbea452f8	-0.3209455
103	0x3dc20120	0.09472871
104	0x3ebd5430	0.36978292
105	0xbe4e2288	-0.2013036
106	0x3d561f80	0.052276134
107	0xbe1e3d60	-0.154531
108	0xbe9a193d	-0.3009738
109	0x3f295064	0.6613829
110	0xbf56815a	-0.83791125
111	0x3eabc1a1	0.33546165
112	0xbddf7fd0	-0.1091305
113	0xbe90ee5e	-0.2830686
114	0x3eb3e5de	0.35136312
115	0x3e9aaaac	0.30208337
116	0xbdd48c60	-0.10378337
117	0xbe1c1ef8	-0.15246189
118	0x3efa64f6	0.48905152
119	0xbef3a555	-0.47587076
120	0xbf54d867	-0.83142704
121	0x3f79c116	0.9756025
122	0xbd946ced	-0.072473384
123	0xbe43ac67	-0.19108735
124	0x3f3fd100	0.74928284
125	0xbf40af3c	-0.75267386
126	0x3f5eb7f8	0.86999464
127	0xbe334abc	-0.17508978

encoder.layers.0.nn.net.2.weight f4 [128, 128]
0	0x3b92702b	0.004468938
1	0x3c2a185d	0.010381785
2	0x3d170787	0.036872413
3	0x3d59be06	0.053159736
4	0x3c048f36	0.008090785
5	0xbc36822b	-0.011139433
6	0xbd946db3	-0.07247486
7	0xbd85ece3	-0.06539323
8	0x3d9d27e5	0.07673625
9	0xbca6d107	-0.020363344
10	0xbd7bb044	-0.061447397
11	0x3d71f9e9	0.059076224
12	0xbd67c6ee	-0.0565862
13	0xbd382f56	-0.044967018
14	0x3d6f805f	0.058472034
15	0xbda57758	-0.08079404
16	0xbcba384c	-0.022731923
17	0xbd2e5440	-0.042560816
18	0xbd87702e	-0.066131935
19	0x3d5a66b0	0.053320587
20	0x3ceaa3e0	0.028642595
21	0xbbde4e40	-0.0067842305
22	0x3c8a3c07	0.016874326
23	0xbc085495	-0.008320947
24	0xbcc1071e	-0.023562964
25	0x3cd8854a	0.026430745
26	0xbcbd77ec	-0.023128472
27	0x3c5c4a74	0.013445485
28	0xbdb45752	-0.088057175
29	0xbda26c41	-0.07930804
30	0x3cc4fbfc	0.024045937
31	0x3d87b26d	0.06625829
32	0x3ba6b85a	0.0050878944
33	0xbd2697ad	-0.040671993
34	0x3d926189	0.071475096
35	0xbd6d905c	-0.057999
36	0x3d027ea8	0.03185907
37	0x3da189a0	0.07887578
38	0x3c75bc12	0.014998453
39	0xbd41d99b	-0.047326665
40	0xbc218395	-0.009858032
41	0x3d56bcab	0.05242602
42	0xbd6196a9	-0.05507532
43	0xbbce44b5	-0.0062948116
44	0xbcd07126	-0.025444578
45	0x3d16e518	0.036839575
46	0x3d76da47	0.06026676
47	0xbbcb21b1	-0.0061990847
48	0xbd5d8827	-0.054084923
49	0xbd1fccae	-0.039013557
50	0x3c98498d	0.01858976
51	0xbd49c77f	-0.04926252
52	0x3dae2374	0.08502856
53	0xbd769528	-0.06020084
54	0x3c230412	0.009949701
55	0x3d074410	0.033023894
56	0xbc793f81	-0.015212894
57	0x3d898a4b	0.067158304
58	0xbd69a1aa	-0.05703894
59	0xbc8fd356	-0.017556828
60	0xbd8ad232	-0.06778373
61	0xbbb4e302	-0.0055202255
62	0x3d9b1b45	0.075735606
63	0xbbd6ad4f	-0.0065514217
64	0x3c7ad59a	0.015309716
65	0xbd0a833d	-0.033816565
66	0x3c905e3e	0.017623063
67	0x3d7c0d8b	0.061536353
68	0x3d5be80c	0.053688094
69	0xbd706564	-0.058690444
70	0xbcf15873	-0.029461121
71	0x3dbb064d	0.09132061
72	0xbc37fbad	-0.011229438
73	0xbd7ebc33	-0.0621912
74	0x3d58ba4e	0.05291205
75	0xbca35f8e	-0.019943025
76	0x3cd9f1cc	0.026604556
77	0x3d9d7a78	0.07689375
78	0x3d2c2808	0.042030364
79	0xbce6378a	-0.028102655
80	0x3ce74d97	0.02823524
81	0xbc4aa1cb	-0.012367676
82	0xbd55759f	-0.052114125
83	0xbda23568	-0.07920343
84	0xbd9ce9bf	-0.07661771
85	0x3d5a60f5	0.05331512
86	0xbc4c9443	-0.01248652
87	0xbbf5bb30	-0.007499121
88	0x3cfa317f	0.03054118
89	0x3d9e6f13	0.077360295
90	0x3d869094	0.06570545
91	0x3d04d370	0.032428205
92	0xbc135b0f	-0.008993878
93	0x3c29744b	0.010342668
94	0x3da3f22f	0.08005177
95	0xbc33fa1b	-0.010984923
96	0xbca01570	-0.019541472
97	0x3b22567c	0.0024770787
98	0xbd8fcc93	-0.07021441
99	0xbc0835d6	-0.008313617
100	0x3d4304f7	0.047612157
101	0x3d5d62ce	0.054049306
102	0xbdaeb28e	-0.0853015
103	0xbda7ec9a	-0.08199425
104	0xbd71eea7	-0.059065487
105	0xbb9ac4b2	-0.004723155
106	0x3d914f56	0.0709521
107	0xbca813bc	-0.020517223
108	0xbd299fbe	-0.041412108
109	0x3d432945	0.04764678
110	0x3d68d92b	0.056847733
111	0x3bc6860c	0.00605846
112	0xbdafe93c	-0.08589408
113	0xbc9b9bf0	-0.018995255
114	0x3dc1aca4	0.09456757
115	0xbd21e770	-0.039527357
116	0xbc0faf41	-0.008769811
117	0x3d98ec60	0.0746696
118	0xbbd04639	-0.0063560274
119	0xbc9db427	-0.019250942
120	0xbcbd699e	-0.023121651
121	0x3d314f61	0.043288592
122	0xbc4d46e2	-0.012529107
123	0x3d87f413	0.0663835
124	0xbc0e5b22	-0.00868872
125	0x3c1b3410	0.009472862
126	0x3d9d7cf5	0.07689849
127	0xbbaf6cb1	-0.005353533
128	0xbca9a699	-0.020709323
129	0x3b9ad291	0.0047248085
130	0x3c0f99f3	0.008764732
131	0x3ce43e80	0.027861834
132	0x3c74b932	0.014936732
133	0xbcdca219	-0.026932763
134	0xbcd6ef6c	-0.026237212
135	0x3d7ac38a	0.061221637
136	0xbd979af6	-0.07402603
137	0xbdca1009	-0.0986634
138	0xbca59e5d	-0.020217115
139	0x3c3549e4	0.01106498
140	0xbd9b8f80	-0.0759573
141	0xbc1f4a24	-0.009722266
142	0x3c81bacd	0.015836144
143	0x3d5dec4c	0.05418043
144	0x3d123f48	0.03570488
145	0xbd2d4f0a	-0.042311706
146	0x3d318dca	0.04334811
147	0x3dad3bf0	0.08458698
148	0x3ce1a065	0.027542302
149	0xbd2458c6	-0.040123723
150	0x3c58ae7e	0.013225196
151	0xbd4e64d2	-0.05038912
152	0x3cf9544c	0.030435704
153	0xbd0b7f4b	-0.034056943
154	0xbd7b2d49	-0.061322484
155	0xbdd634ea	-0.10459311
156	0xbb0d62ad	-0.0021573708
157	0x3d044547	0.03229263
158	0xbdb78632	-0.089611426
159	0xbd79bc84	-0.060970798
160	0x3d02ccca	0.031933583
161	0xbde0c1e4	-0.10974482
162	0xbbce038b	-0.0062870434
163	0xbcaacc54	-0.020849384
164	0xbdc644e6	-0.0968111
165	0x3cb39612	0.021922145
166	0x3c04317f	0.008068441
167	0x3d8a300d	0.06747446
168	0xbd265757	-0.040610638
169	0x3c33e781	0.010980488
170	0xbc0cc7b6	-0.008592537
171	0xbdd281f3	-0.10278692
172	0x3d29604e	0.04135161
173	0xbd2ca348	-0.042147905
174	0x3d696bfe	0.056987755
175	0x3d177ae8	0.036982447
176	0x3d6963f8	0.056980103
177	0x3d7aa8a8	0.061196
178	0xbd7cd6f7	-0.061728444
179	0xbc8a93ca	-0.016916174
180	0xbd85c3ed	-0.065315105
181	0x3dab2e4a	0.08358438
182	0x3bb38021	0.0054779206
183	0x3d1dea4b	0.038553517
184	0xbce9c552	-0.028536472
185	0xbc420e7e	-0.0118442755
186	0x3cb73b0e	0.022367027
187	0x3d08b5e3	0.033376586
188	0xbc00a060	-0.007850736
189	0x3c982130	0.018570513
190	0x3d94baae	0.07262169
191	0xbd5a3501	-0.053273205
192	0x3d3b70df	0.04576194
193	0x3ca77297	0.020440383
194	0x3c9ebf40	0.019378304
195	0xbdd89f87	-0.105773024
196	0xbca40a62	-0.020024482
197	0x3d4de387	0.050265815
198	0xbc2c9e5f	-0.0105358055
199	0x3d48e7c5	0.049049158
200	0xbd7a570e	-0.061118178
201	0xbdac29c1	-0.084064014
202	0x3d889268	0.0666855
203	0x3d9abc08	0.07555395
204	0xbd2a5f05	-0.041594524
205	0x3cee5ead	0.02909788
206	0x3d884dd2	0.06655468
207	0xbd5c0b95	-0.053721983
208	0xbd9bfa62	-0.07616116
209	0x3d7969dd	0.060891975
210	0xbd5eb0e7	-0.054367926
211	0xbd38feee	-0.045164995
212	0xbcc6cf3f	-0.024268745
213	0xbc8c37ba	-0.017116416
214	0xb9bb53fb	-0.0003572999
215	0xbd5c48e6	-0.05378046
216	0xbce0bead	-0.027434671
217	0xbcd586f0	-0.02606532
218	0x3c622d8e	0.013804806
219	0xbd0d6c71	-0.034527246
220	0xbd863e99	-0.06554908
221	0x3d213e6e	0.03936618
222	0xbd660298	-0.056154817
223	0xbd34ba38	-0.044122905
224	0x3c0387d7	0.008027992
225	0x3d0c223c	0.034212336
226	0xbd5ecdaa	-0.054395355
227	0xbdd1c67e	-0.102429375
228	0xbc023788	-0.00794781
229	0xbd5b4838	-0.05353567
230	0xbd13b741	-0.036063436
231	0x3cdd2cbc	0.02699887
232	0xbd33b93d	-0.04387783
233	0xbc38923f	-0.011265337
234	0xbd81f259	-0.06345052
235	0xbd6c503b	-0.0576937
236	0x3d28e3d6	0.041232906
237	0xbcae6390	-0.02128771
238	0x39f24733	0.00046210884
239	0x3d6283e0	0.055301547
240	0xbd29882b	-0.041389626
241	0x3d7844d4	0.060612515
242	0xbde77b47	-0.1130281
243	0xbd0506ed	-0.032477308
244	0x3d8d1327	0.06888419
245	0xba510f7f	-0.00079750264
246	0x3d281972	0.04103989
247	0xbdd438e0	-0.103624105
248	0x3bbcb6d2	0.0057590986
249	0xbda60570	-0.08106506
250	0x3c9e6d4c	0.019339226
251	0xbd9352d0	-0.071935296
252	0x3d83e9b5	0.064410605
253	0x3b2af46e	0.0026085633
254	0x3d350553	0.04419453
255	0x3c982ef1	0.01857707

encoder.layers.0.nn.net.2.bias f4 [128]
0	0xbd92cc62	-0.07167889
1	0xbd0e9ee4	-0.0348195
2	0xbc913252	-0.01772419
3	0x3c82b443	0.015955096
4	0xbb8d6141	-0.004314572
5	0xbd87a3ac	-0.06623015
6	0x3bc13409	0.0058960957
7	0xbc4c7883	-0.012479904
8	0x3d8129b4	0.06306782
9	0xbd3d53e2	-0.046222575
10	0xbd0c1e1c	-0.034208402
11	0xbd41e0e0	-0.047333598
12	0x3da427e5	0.08015422
13	0xbd80a66e	-0.06281744
14	0xba9ac21b	-0.0011807116
15	0x3bb5d846	0.0055494634
16	0xbd5c0675	-0.053717095
17	0x3d460996	0.048348986
18	0x3c8858fc	0.016643994
19	0x3d2bec23	0.041973244
20	0xbd328259	-0.04358134
21	0x3d9fbb8d	0.07799444
22	0xbd1c7ce0	-0.038205028
23	0xbcf5c4d0	-0.030001074
24	0x3c8124c5	0.015764603
25	0x3d92bdd1	0.07165111
26	0x3bd763d8	0.0065731816
27	0x3d50f34e	0.051013283
28	0xbcd04305	-0.025422582
29	0x3d5a053b	0.053227644
30	0xbbf488e1	-0.0074626063
31	0xbb893669	-0.0041873944
32	0xbd9e1ea9	-0.07720692
33	0xbca81929	-0.02051981
34	0xbd8e5ab9	-0.06950898
35	0x3d30eac1	0.04319263
36	0xbd885b0a	-0.06657989
37	0xbc5551ee	-0.013020022
38	0xbcb00501	-0.021486761
39	0x3d8c768a	0.06858547
40	0xbd9a94cf	-0.07547914
41	0x3d3937a5	0.045219082
42	0x3d9ea298	0.07745856
43	0xbc7de47d	-0.01549637
44	0x3d820d5f	0.063502066
45	0xbd05c07b	-0.032654267
46	0x3d863372	0.06552781
47	0xbd724475	-0.059147317
48	0x3d802d5f	0.06258654
49	0xbd725a6d	-0.059168268
50	0x3da3b9db	0.079944335
51	0xba0725cc	-0.00051554735
52	0xbd1655be	-0.036702864
53	0x3c91e04a	0.017807145
54	0x3d696448	0.0569804
55	0x3d9985ef	0.07496249
56	0x3c0bb5de	0.008527247
57	0x3d87111b	0.065950595
58	0xbd6fbdc9	-0.058530603
59	0xbd75539a	-0.05989418
60	0xbd8fb724	-0.07017353
61	0x3cef43be	0.029207107
62	0xbda76e33	-0.08175316
63	0x3b57dd79	0.0032938404
64	0xbca0ce76	-0.019629698
65	0xbd334ed4	-0.04377635
66	0x3d8f1341	0.06986094
67	0x3daa6b8e	0.08321296
68	0xbca9b58b	-0.02071645
69	0xbdafb4ae	-0.08579384
70	0xbda78081	-0.08178807
71	0x3d89e8f3	0.06733885
72	0xbd78127c	-0.060564503
73	0xbd682034	-0.056671336
74	0xbda02185	-0.07818893
75	0x3bbdba8c	0.0057900604
76	0x3cd68dda	0.026190687
77	0xbc338972	-0.0109580625
78	0xbd958061	-0.07299877
79	0xbd512c50	-0.05106765
80	0x3c876b3c	0.016530626
81	0xbcc98acd	-0.024602318
82	0x3c267d4e	0.010161711
83	0x3c3656d8	0.011129104
84	0xbcf3856e	-0.02972671
85	0x3cdbfe5f	0.026854692
86	0x3db3369e	0.08750652
87	0xbd6c6306	-0.057711624
88	0x3d1827d2	0.03714735
89	0x3c1cdcd8	0.009574138
90	0x3d8d7626	0.06907301
91	0x3ca233d2	0.0198001
92	0x3cc84c54	0.024450459
93	0x3d0af4b8	0.03392479
94	0xbd9c7c46	-0.07640891
95	0x3d30a039	0.04312155
96	0xbd619195	-0.05507048
97	0xbda89956	-0.082323715
98	0x3d94566d	0.07243047
99	0xbbd97c03	-0.006637098
100	0xbd40075c	-0.04688202
101	0x3d8d3ef7	0.06896775
102	0xbdb3e84d	-0.08784542
103	0xbd240c04	-0.04005052
104	0x3ae6245e	0.0017558446
105	0x3d97c043	0.07409718
106	0xbd9c9472	-0.07645501
107	0x3d976783	0.0739279
108	0x3cf94d5e	0.0304324
109	0xbdb223be	-0.086982235
110	0x3d94611a	0.07245083
111	0xbd8d3a6d	-0.068959095
112	0xbc87f903	-0.01659823
113	0xbd2f20b2	-0.04275579
114	0x3cad6496	0.021166127
115	0xbd98d96e	-0.074633464
116	0xbd0fdf23	-0.03512491
117	0x3c8ef31d	0.01744991
118	0x3cfa97c0	0.030589938
119	0x3cf0c776	0.029391985
120	0xbd896a67	-0.06709748
121	0xbd3b69d0	-0.045755208
122	0x3c36756c	0.011136394
123	0x3d6a9ec7	0.057280328
124	0x3aa07937	0.0012243156
125	0xbd65ffea	-0.05615226
126	0x3d9cf647	0.07664161
127	0x3a74a6c4	0.00093327113

encoder.layers.1.nn.net.0.weight f4 [128, 128]
0	0x3c1a4b03	0.009417298
1	0xbd23c1b4	-0.03997965
2	0xbcd6d04c	-0.02622237
3	0xbd962f99	-0.07333297
4	0x3c298b70	0.010348186
5	0x3d7fef57	0.06248411
6	0xbc382e32	-0.011241483
7	0x3dedb74a	0.11607225
8	0xbcb28979	-0.021794068
9	0x3d7368aa	0.059425987
10	0x3ba580c7	0.005050752
11	0x3d418774	0.04724832
12	0x3d8cd5c8	0.06876713
13	0x3d8a6e71	0.06759346
14	0x3d94e71d	0.07270644
15	0x3d2748c8	0.040840894
16	0xbcd87489	-0.026422756
17	0xbc8a5ca5	-0.01688988
18	0xbce79c27	-0.028272701
19	0x3d119511	0.03554255
20	0xbc87d5a1	-0.016581358
21	0xbd894143	-0.06701901
22	0x3b61a6d7	0.003443172
23	0x3ce04b27	0.027379585
24	0xbd4eed6c	-0.050519392
25	0xbd735910	-0.05941111
26	0xbcb2822d	-0.021790588
27	0xbcc2e475	-0.023790577
28	0xbd96aca1	-0.07357145
29	0xbdad7a8b	-0.08470639
30	0x3d0c5715	0.034262735
31	0x3d998d6a	0.07497676
32	0x3d6e70d2	0.058213063
33	0x3d2b8d94	0.041883066
34	0x3d90fe52	0.07079758
35	0x3d5a0545	0.05322768
36	0x3da67ab2	0.08128871
37	0xbd63a80e	-0.05558019
38	0xbd324330	-0.043521106
39	0xbdb94c15	-0.090477146
40	0x3d2fb470	0.042896688
41	0x3d85c832	0.06532325
42	0xbd738ce7	-0.059460547
43	0x3c89432c	0.016755663
44	0x3dbce1d9	0.092227645
45	0x3d4b66d4	0.04965861
46	0x3c2c7b23	0.010527405
47	0xbdaf914b	-0.08572634
48	0x3c8cee6d	0.017203534
49	0xbae09a0f	-0.0017135757
50	0xbd7387fd	-0.05945586
51	0x3d378240	0.04480195
52	0xbca9c671	-0.020724507
53	0xbd8702e6	-0.0659235
54	0xbc6458b2	-0.013937162
55	0x3b3df7f1	0.0028986896
56	0xbc9ef33c	-0.019403093
57	0xbd58faad	-0.052973438
58	0x3d81bbc6	0.06334643
59	0x3cb31fa3	0.021865672
60	0xbd8d6944	-0.069048434
61	0xbc822591	-0.015887054
62	0xbd8b53ad	-0.06803069
63	0x3b9e8241	0.004837305
64	0xbd4a3e3c	-0.049375758
65	0xbd1e030f	-0.038577136
66	0xbd648a38	-0.05579588
67	0xbd9c1213	-0.07620635
68	0x3d0e882c	0.034797832
69	0xbc612d90	-0.013743773
70	0xbc98704f	-0.01860824
71	0xbd239889	-0.03994039
72	0x3d62a4c7	0.055332925
73	0xbd15629c	-0.036470994
74	0xbcdcc7e4	-0.026950784
75	0x3d987b65	0.07445411
76	0x3dafd8b3	0.08586254
77	0xbd1a42e7	-0.03766146
78	0xbc403ce7	-0.01173327
79	0xbd7d4db6	-0.06184169
80	0xbc512914	-0.012766141
81	0x3d1191c2	0.035539396
82	0xbd4f4652	-0.050604172
83	0xbd1c1585	-0.03810646
84	0x3c6bd4b8	0.014393978
85	0x3c853c8a	0.016264219
86	0xbd23bb1d	-0.039973367
87	0x3d84c743	0.06483319
88	0xbda23a0b	-0.07921227
89	0x3d182345	0.03714301
90	0x3b2e62d4	0.00266092
91	0xbd45ece2	-0.048321612
92	0x3d9b7235	0.07590143
93	0x3d115174	0.03547807
94	0x3d3d5b3a	0.04622958
95	0xbcb64252	-0.02224842
96	0x3d69ea4a	0.0571082
97	0x3d0d5a40	0.034509897
98	0xbd0c16ec	-0.034201548
99	0xbdb84588	-0.08997637
100	0x3d85727f	0.06515979
101	0x3d531d4c	0.05154161
102	0x3dbce65e	0.092236266
103	0x3d8131cd	0.06308327
104	0xbd9a2d3b	-0.07528158
105	0xbbb938b8	-0.0056525134
106	0xbc20ce99	-0.009814882
107	0x3b6faf33	0.0036572933
108	0xbcfb3176	-0.030663233
109	0x3dc6b5ba	0.0970263
110	0x3d8f3e45	0.06994299
111	0xbd6d32bd	-0.057909716
112	0xbc48ad5e	-0.012248365
113	0x3dc5978b	0.09648045
114	0x3d6089d6	0.05481895
115	0xbc476656	-0.012170395
116	0xbbd621fd	-0.0065348134
117	0x3d909949	0.07060487
118	0x3b491e01	0.003068805
119	0xbd42669c	-0.047461137
120	0xbcafb63d	-0.021449203
121	0xbd032284	-0.03201534
122	0xbcc6f278	-0.02428554
123	0x3ca23ca8	0.019804314
124	0x3d136d74	0.035993055
125	0xbdb4a202	-0.08819963
126	0x3d8adcc5	0.0678039
127	0x3d58f535	0.052968223
128	0x3cb4e1a5	0.022080252
129	0x3caa3fdb	0.020782402
130	0x3d9bd362	0.076086774
131	0xbd21a661	-0.039465312
132	0x3d9a4408	0.07532507
133	0x3c18b2c5	0.009319966
134	0x3d1a9a9e	0.03774511
135	0x3d85791a	0.06517239
136	0xbce36046	-0.027755868
137	0x3d42afb6	0.047530852
138	0xbd4dc4a2	-0.05023635
139	0x3da81608	0.08207327
140	0x3d5eabde	0.054363124
141	0xbd29e3ba	-0.041476943
142	0x3d29477f	0.04132795
143	0xbd0d366f	-0.03447574
144	0xbd9c5000	-0.07632446
145	0xbd7f54f0	-0.062336862
146	0x3d5b399c	0.053521737
147	0xbd9975e2	-0.074931875
148	0xbc619cd4	-0.013770301
149	0xbd6b1788	-0.057395488
150	0x3c8a4743	0.016879683
151	0xbd937893	-0.07200732
152	0x3cf071bb	0.029351106
153	0xbc9ea102	-0.019363884
154	0xbd5d4ffb	-0.054031353
155	0x3d73c6fa	0.05951593
156	0x3c85124e	0.01624408
157	0x3d05c009	0.032653842
158	0xbcda932d	-0.026681507
159	0xbd84eb55	-0.064901985
160	0xbd29b7fa	-0.04143522
161	0x3c9f188d	0.019420886
162	0x3d000567	0.031255152
163	0xbd096d51	-0.033551518
164	0xbcc8a72a	-0.024493773
165	0x3d390abf	0.045176264
166	0x3dbf881b	0.09352132
167	0xbd9051bb	-0.07046839
168	0xbc1cb2e6	-0.009564137
169	0xbd676e0e	-0.05650144
170	0x3d900248	0.07031685
171	0x3d9de825	0.07710294
172	0x3d04875b	0.032355648
173	0x3c3f54e3	0.011677953
174	0x3ce4c00c	0.027923606
175	0x3d876478	0.0661096
176	0xbc9d9615	-0.019236604
177	0x3c84cc09	0.016210573
178	0xbdc0f173	-0.09421053
179	0x3a9302db	0.0011216061
180	0xbd09f5bc	-0.033681616
181	0xbd508a4c	-0.05091314
182	0x3c9de02a	0.019271929
183	0xbcb717cc	-0.022350214
184	0x3d906566	0.0705059
185	0xbd7f930d	-0.062396098
186	0x3d25fa13	0.040521692
187	0xbda3f481	-0.0800562
188	0xbccca33a	-0.024980176
189	0x3d024b55	0.031810123
190	0xbd152477	-0.03641173
191	0x3d90730b	0.07053193
192	0x3c642e8b	0.013927112
193	0xbd14385d	-0.036186565
194	0xbbef704c	-0.007307088
195	0xbd8ea8de	-0.069658026
196	0xbca1fa17	-0.019772572
197	0xbd21e647	-0.03952625
198	0x3d9421d6	0.07233016
199	0x3da08a0e	0.07838832
200	0xbd341616	-0.043966375
201	0xbc4dbaa0	-0.012556702
202	0xbda3dc4b	-0.08001002
203	0x3c865487	0.016397728
204	0x3d55a6b7	0.052160945
205	0xbd29bd13	-0.04144008
206	0xbd22b01e	-0.03971874
207	0x3dbb579c	0.091475695
208	0x3c72bd6c	0.0148156695
209	0xbd748d57	-0.059705105
210	0x3d010caa	0.031506218
211	0x3d80eb99	0.06294937
212	0xbc198ba0	-0.009371668
213	0x3d5a1c25	0.053249497
214	0xbd02f852	-0.031975098
215	0xbd42ef84	-0.0475917
216	0xbd902195	-0.07037655
217	0x396c3007	0.00022524605
218	0x3b4e7e87	0.0031508522
219	0x3d5ddff2	0.05416865
220	0xbca7d382	-0.020486597
221	0xbc8c2114	-0.017105617
222	0xbdbc59fe	-0.09196852
223	0x3d9cf916	0.07664697
224	0x3c353107	0.011059052
225	0xbd77855d	-0.06042992
226	0x3d876bb7	0.06612342
227	0xbbe4c106	-0.006981018
228	0x3d478cd5	0.048718292
229	0x3c89db85	0.016828308
230	0xbda5527e	-0.08072375
231	0xbc6929f8	-0.014231198
232	0x3d8bc3d2	0.06824459
233	0x3da3b46c	0.07993397
234	0xbc2bbb02	-0.010481598
235	0xbd799e5d	-0.060942043
236	0xbcc7a028	-0.02436836
237	0x3c1223d3	0.008919674
238	0x3d773bd4	0.06035979
239	0x3dc549f7	0.09633248
240	0xbd8f615b	-0.07000991
241	0xbd988c62	-0.07448651
242	0xbd3c131e	-0.04591667
243	0x3cc33849	0.02383055
244	0x3da1b5bd	0.07895992
245	0x3c8b98eb	0.01704069
246	0x3ce0b33d	0.027429217
247	0xbccab6af	-0.024745313
248	0xba93260b	-0.0011226548
249	0x3d8a13e0	0.06742072
250	0xbdb37951	-0.08763374
251	0x3d8a455b	0.0675151
252	0x3bce0edc	0.0062883925
253	0x3d73f450	0.059559166
254	0x3cda2ce0	0.026632726
255	0x3db945ea	0.09046538

encoder.layers.1.nn.net.0.bias f4 [128]
0	0xbd28f5b5	-0.04124995
1	0xbe030fe4	-0.1279903
2	0xbd98160e	-0.074260816
3	0xbda22dd0	-0.07918894
4	0xbd7c4cc6	-0.061596654
5	0x3d69e7ff	0.057106014
6	0xbcc7ef75	-0.024406174
7	0x3d98d46c	0.07462391
8	0xbd5a0ff6	-0.053237878
9	0xbd1d1c2c	-0.038356945
10	0xbd2ec2d0	-0.042666256
11	0xbdcb5710	-0.09928715
12	0x3cfe4960	0.031040847
13	0x3b8a8810	0.0042276457
14	0x3bec1b81	0.007205427
15	0xbda77c93	-0.081780575
16	0x3d5f8292	0.05456788
17	0x3d6aa1bf	0.05728316
18	0x3d0c1004	0.03419496
19	0x3de9f580	0.114237785
20	0xbc6996a3	-0.014257106
21	0x3c3e1937	0.011602691
22	0x3d7bce6c	0.061476156
23	0xbd922529	-0.07135994
24	0xbdbf6182	-0.0934477
25	0x3d3313b9	0.04371998
26	0xbd7f9dd0	-0.06240636
27	0xbe27e20e	-0.16394827
28	0x3c965546	0.018351208
29	0xbd09e42b	-0.033664864
30	0xbd65469c	-0.05597554
31	0xbe051497	-0.12996136
32	0x3dc23484	0.09482673
33	0xbd694c0c	-0.05695729
34	0x3c42f0ab	0.0118982
35	0x3cd0a5b7	0.025469644
36	0xbda42e94	-0.080166966
37	0xbd65c770	-0.0560984
38	0xbda5d4e5	-0.08097247
39	0xbd75729e	-0.05992376
40	0x3dcbb7de	0.09947179
41	0xbdbdb593	-0.09263148
42	0x3d83deb1	0.064389594
43	0xbdb3762d	-0.087627746
44	0x3d94b05a	0.07260199
45	0x3c941124	0.01807458
46	0xbc1d930a	-0.009617576
47	0xbdb74a04	-0.08949664
48	0xbd21728b	-0.039415877
49	0x3d361e52	0.04446251
50	0x3d6b91f1	0.057512227
51	0x3d048661	0.032354716
52	0xbc80630a	-0.015672226
53	0xbd547fe9	-0.051879797
54	0x3d6341d2	0.055482693
55	0x3c88763a	0.016657937
56	0xbcda06fa	-0.026614655
57	0x3d5422ec	0.051791117
58	0x3c99ea62	0.01878852
59	0x3d1e5909	0.03865913
60	0x3d6aa4cf	0.05728608
61	0x3d2565bc	0.040380225
62	0x3d05ad44	0.032635942
63	0x3d058726	0.03259959
64	0x3d7e4e85	0.0620866
65	0xbd6b9235	-0.05751248
66	0x3d7ac62a	0.06122414
67	0x3d8c6d32	0.06856765
68	0x3d5c43cc	0.053775594
69	0xbd413e42	-0.047178514
70	0x3d1783d7	0.036990967
71	0xbd77df2b	-0.060515564
72	0x3d24de77	0.04025122
73	0xbdb2c25c	-0.08728477
74	0xbd87823f	-0.06616639
75	0x3c7c7fca	0.015411327
76	0x3bf045b1	0.0073325266
77	0xbc996a61	-0.018727483
78	0x3ccd4a98	0.025059983
79	0xbd6757b6	-0.056480132
80	0x3d3d5530	0.04622382
81	0xbd9ee891	-0.07759202
82	0xbbde80bf	-0.00679025
83	0xbd67149c	-0.05641614
84	0x3d997509	0.07493026
85	0x3d97f235	0.07419244
86	0x3c6a2cac	0.014292877
87	0x3d1acec1	0.037794832
88	0x3dbc4204	0.09192279
89	0x3ab69862	0.0013930912
90	0x3cb89dee	0.022536244
91	0xbd727570	-0.05919403
92	0x3c060b22	0.008181365
93	0x3d55d9a8	0.052209526
94	0x3cc45ae2	0.023969118
95	0x3d5338dc	0.051567897
96	0xbd1de8d3	-0.038552117
97	0xbdc9318f	-0.09823906
98	0xbd9bd6b8	-0.07609314
99	0xbd815c53	-0.063164376
100	0xbd301af0	-0.04299444
101	0x3d02a0ce	0.031891637
102	0xbd9bfd35	-0.07616655
103	0x3dbeb9e9	0.09312803
104	0x3d9cc1ca	0.0765415
105	0xbd894e3b	-0.067043744
106	0xbdb1a704	-0.08674434
107	0x3accd2ac	0.001562675
108	0x3db24d4d	0.0870615
109	0x3c7c093c	0.015383061
110	0xbbe7906f	-0.0070667784
111	0xbc149520	-0.009068757
112	0xbd62d2ec	-0.055376932
113	0xbd5ab5ef	-0.05339616
114	0xbd520c3f	-0.05128121
115	0xbbaf9108	-0.0053578652
116	0xbd4cb759	-0.04997954
117	0xbd5e8d4d	-0.054333974
118	0x3d8ecc95	0.06972615
119	0xbd8728d6	-0.06599586
120	0x3d771bad	0.060329128
121	0xbc307e3c	-0.010772284
122	0xbcbd6e87	-0.023123993
123	0x3b9bc8cd	0.004754162
124	0xbc37a49f	-0.011208682
125	0x3cc51536	0.024057966
126	0x3d0df1b3	0.03465433
127	0x3d8ba3f6	0.068183824

encoder.layers.1.nn.net.2.weight f4 [128, 128]
0	0x3d8129da	0.06306811
1	0xbdbf580c	-0.093429655
2	0x3d44d227	0.04805198
3	0x3dbacbd9	0.09120912
4	0x3d81424b	0.063114725
5	0x3daf0171	0.08545197
6	0xbd88bebf	-0.06677007
7	0xbd589578	-0.05287692
8	0xbd985a51	-0.074391015
9	0x3d9f27aa	0.07771237
10	0x3d717179	0.058946107
11	0xbd09ae40	-0.033613443
12	0xbd8b3b27	-0.06798392
13	0xbcf02bdf	-0.029317794
14	0x3c299f69	0.010352948
15	0xbdae050c	-0.08497056
16	0xbdc845bb	-0.09778925
17	0xbd9f8fc5	-0.07791094
18	0x3c6223bd	0.013802466
19	0xbcf1d91e	-0.029522475
20	0x3d964861	0.07338024
21	0xbdae7213	-0.08517852
22	0xbd5a287a	-0.053261258
23	0xbd6e939e	-0.058246247
24	0x3dba4aa2	0.09096266
25	0x3d9d385a	0.07676764
26	0x3d47ec36	0.048809253
27	0xbdcec6ca	-0.1009651
28	0xbd3b32d1	-0.04570276
29	0xbda249ca	-0.079242304
30	0xbd5ec4d8	-0.054386944
31	0xbbabbe8b	-0.0052412204
32	0x3d28d6ff	0.04122066
33	0xbdfb8bf0	-0.1228255
34	0xbd797f25	-0.06091227
35	0xbc8e92fe	-0.017404076
36	0x3cc6929f	0.024239836
37	0x3c942d8a	0.018088121
38	0x3c5da89b	0.013528968
39	0xbdb35182	-0.08755781
40	0x3d35a241	0.04434419
41	0x3d004156	0.03131231
42	0xbdaba074	-0.083802134
43	0xbd2a0bbb	-0.041515093
44	0xbdd64ca4	-0.10463837
45	0x3d6bdf9b	0.057586294
46	0x3d29ca7b	0.041452866
47	0xbc8e5cd6	-0.017378252
48	0xbdb56475	-0.08857051
49	0x3d2791c7	0.04091051
50	0xbdc2691c	-0.09492704
51	0x3dadcba4	0.08486107
52	0x3cd34a34	0.025792219
53	0xbc9e5e68	-0.019332126
54	0xbd4c48ec	-0.04987423
55	0xbb2f8049	-0.0026779345
56	0xbd0da196	-0.03457793
57	0x3b61b253	0.0034438565
58	0x3d0a8072	0.0338139
59	0xbd4acbaf	-0.049510654
60	0xbdd331ca	-0.10312231
61	0x3d6205c8	0.055181295
62	0xbd65d41b	-0.056110483
63	0xbd8590f8	-0.06521791
64	0x3cbc686a	0.022999007
65	0xbdbd6444	-0.0924764
66	0xbcb7caa3	-0.022435492
67	0x3cf26602	0.029589657
68	0xbcfad8a2	-0.030620877
69	0xbd7c1bf4	-0.061550096
70	0xbd866f5a	-0.065642074
71	0x3d82da8c	0.06389341
72	0xbd4672e6	-0.04844942
73	0xbdb0002f	-0.08593785
74	0xbca057b0	-0.019573063
75	0xba42c155	-0.00074293214
76	0x3cf9b697	0.030482573
77	0xbc873b8d	-0.016507888
78	0x3d973c76	0.07384579
79	0x3cff3a2c	0.031155668
80	0x3d200d95	0.039075453
81	0x3d40041e	0.046878926
82	0xbd642cbd	-0.05570673
83	0xbda77064	-0.08175734
84	0x3cb84788	0.022495046
85	0x3d815a64	0.06316069
86	0xbc95c73d	-0.01828348
87	0xbde9c2e0	-0.114141226
88	0x3cec98c8	0.028881446
89	0xbd6e509b	-0.05818234
90	0xbda99826	-0.08280973
91	0xbd16a93d	-0.036782492
92	0x3d081084	0.033218876
93	0xbd47c059	-0.04876742
94	0xbdacd9ba	-0.084399655
95	0xbdb3192e	-0.08745037
96	0x3c84b5b7	0.01619993
97	0xbd30838e	-0.04309421
98	0xbc9c6498	-0.019090936
99	0x3ca980b0	0.020691246
100	0xbd5c23d8	-0.05374512
101	0xbc7802c1	-0.015137375
102	0x3cf554f6	0.02994774
103	0xbd38777c	-0.045035824
104	0x3d1fa109	0.038971934
105	0x3afc965e	0.0019270887
106	0x3d92050f	0.07129871
107	0x3d6dee19	0.058088396
108	0x3d7bc860	0.06147039
109	0x3d77c553	0.060490917
110	0xbcde8027	-0.027160717
111	0x3d0b5236	0.03401395
112	0xbdbb2d44	-0.09139493
113	0xbdd2d80b	-0.10295113
114	0x3d4a4113	0.049378466
115	0x3d7e4b32	0.06208343
116	0xbd50b28f	-0.050951537
117	0xbc0493be	-0.008091865
118	0x3cce0707	0.025149835
119	0xbdca782d	-0.09886203
120	0xbd1fc77a	-0.039008595
121	0x3d6aeef0	0.057356775
122	0x3d7e3615	0.062063295
123	0xbcf00554	-0.029299416
124	0xbca54d2b	-0.020178398
125	0xbd53b56e	-0.051686697
126	0xbd9accc6	-0.07558589
127	0x3db62169	0.08893091
128	0x3ca3ffaf	0.02001938
129	0xbdcabb9d	-0.09899066
130	0xbd6e0b5a	-0.058116294
131	0xbdb46fc3	-0.08810379
132	0xbd88ecf7	-0.066858225
133	0x3dc0b4ca	0.09409483
134	0x3cfa4273	0.030549264
135	0x3d44fa1b	0.04809008
136	0xbcceafb7	-0.025230272
137	0x3b159d31	0.002282929
138	0xbb0a80a4	-0.0021133805
139	0xbda8575f	-0.0821979
140	0xbd9c9fc0	-0.076476574
141	0x3d86e93b	0.06587454
142	0x3c881e28	0.016615942
143	0xbd89fb15	-0.06737343
144	0xbd1416c0	-0.03615451
145	0xbd82cae0	-0.063863516
146	0x3acacdfe	0.0015472767
147	0x3d23482c	0.03986375
148	0xbd8b71f2	-0.06808843
149	0xbd888bc0	-0.0666728
150	0x3d51e6ee	0.051245622
151	0x3d2aaf0e	0.04167085
152	0xbd98e223	-0.07465007
153	0x3d9b98fa	0.07597537
154	0x3d282ab6	0.041056357
155	0x3c952354	0.018205322
156	0xbd07d17b	-0.03315876
157	0xbd9c4086	-0.07629494
158	0xbd863254	-0.06552568
159	0xbd9ee330	-0.07758176
160	0x3d82857d	0.06373117
161	0xbd45c058	-0.048279136
162	0x3c2793fb	0.010228152
163	0x3cdd8414	0.027040519
164	0xbdc7a463	-0.09748151
165	0x3c9cd2ce	0.019143488
166	0xbd6962b5	-0.0569789
167	0xbc91d81b	-0.017803242
168	0x3d2ffb8d	0.042964507
169	0x3da01d77	0.0781812
170	0x3d1a1ac1	0.03762317
171	0xbd24b90c	-0.040215537
172	0x3d4bea75	0.049784143
173	0xbc23ac4a	-0.009989807
174	0x3d024c35	0.031810958
175	0xbc791537	-0.015202812
176	0x3d866538	0.06562275
177	0xbd49fd87	-0.04931405
178	0xbc5baf5b	-0.013408507
179	0x3c6bc47f	0.01439011
180	0xbd1c117b	-0.03810261
181	0xbdb25dfd	-0.08709333
182	0x3d4bfdb5	0.0498025
183	0x3d2aa44e	0.0416606
184	0xbc47ad86	-0.012187367
185	0xbcd3ab12	-0.025838409
186	0xbd6f7fa2	-0.05847133
187	0x3d93ee33	0.07223167
188	0xbcdb5699	-0.026774691
189	0x3c4d2d09	0.012522944
190	0xbbc289d9	-0.005936843
191	0x3d44263a	0.04788802
192	0x3c5e5f55	0.013572534
193	0xbdaba959	-0.0838191
194	0x3b80d449	0.0039315564
195	0xbda8d03c	-0.082428426
196	0xbdaa5021	-0.083160646
197	0xbce52657	-0.027972383
198	0xbd064154	-0.032777146
199	0x3d3e183a	0.046409823
200	0x3d9641c9	0.07336766
201	0xbd84a346	-0.064764544
202	0xbd9c9088	-0.07644755
203	0x3e0ec415	0.13941987
204	0x3d02af48	0.031905442
205	0xbdb4eab1	-0.08833826
206	0x3d8dd872	0.06926049
207	0xbc4d6abc	-0.0125376545
208	0xbd9f98c6	-0.07792811
209	0xbc80aa96	-0.015706342
210	0xbda8d68c	-0.082440466
211	0xbd356a5b	-0.04429088
212	0x3d14258e	0.036168627
213	0xbd141c3e	-0.036159746
214	0xbdc0fdbf	-0.09423398
215	0x3c80ac6f	0.015707223
216	0x3d3f62ab	0.046724956
217	0xbd515076	-0.051102124
218	0xbda90512	-0.0825292
219	0xbb9e7ddb	-0.0048367805
220	0xbdb38c36	-0.087669775
221	0xbd8c7fe5	-0.068603314
222	0xbc7baf62	-0.015361639
223	0xbd54321c	-0.0518056
224	0xbdac9905	-0.08427624
225	0xbc5c9a05	-0.0134644555
226	0xbc3b13d1	-0.011418299
227	0x3c24bd11	0.010054843
228	0xbd293ebd	-0.041319598
229	0xbd311d2d	-0.043240715
230	0xbc8f70d4	-0.017509855
231	0x3cf89ab3	0.030347204
232	0xbd188ef9	-0.037245724
233	0x3c54b233	0.012981939
234	0x3c0bf48b	0.00854219
235	0x3da4056b	0.08008846
236	0x3d8fd204	0.07022479
237	0xbc6d228c	-0.014473569
238	0x3d199ae0	0.037501216
239	0xbd38991f	-0.045067903
240	0xba434aaf	-0.00074497884
241	0xbdabbff4	-0.083862215
242	0x3cb415d2	0.021983061
243	0xbcdd4ddc	-0.027014665
244	0xbab16dbe	-0.0013536734
245	0xbd5bb39b	-0.053638082
246	0xbcd5526d	-0.02604028
247	0xbc4dc630	-0.012559459
248	0xbd336a53	-0.04380257
249	0xbb6f3916	-0.0036502532
250	0x3da49b38	0.08037418
251	0x3c247736	0.010038188
252	0xbba8fba2	-0.00515695
253	0x3d968565	0.07349662
254	0xbd39da53	-0.045374226
255	0x3d466b40	0.048442125

encoder.layers.1.nn.net.2.bias f4 [128]
0	0x3d373590	0.044728816
1	0x3da6e952	0.08149971
2	0xbd0669dd	-0.032815803
3	0xbcb50ced	-0.02210089
4	0xbbd4ad48	-0.0064903833
5	0xbd11326c	-0.035448477
6	0x3da96f8d	0.0827323
7	0xbd4c3a12	-0.049860068
8	0xbd7728f5	-0.060341794
9	0x3d745c18	0.05965814
10	0xbcabb677	-0.02096103
11	0x3d492894	0.049110964
12	0x3cc163a0	0.023607075
13	0xb94cca4a	-0.00019530315
14	0x3c772cde	0.015086381
15	0x3daa8661	0.08326412
16	0xbd79f696	-0.06102618
17	0x3d0ad57c	0.033895
18	0xbd8824ef	-0.066476695
19	0xbd60d147	-0.054887082
20	0xbdb3f3f7	-0.08786767
21	0xbd3a4c4d	-0.045482922
22	0xbd27faa5	-0.041010518
23	0x3cec5cdb	0.02885287
24	0x3d50054d	0.050786305
25	0xbda9e5dc	-0.08295795
26	0x3da72bb2	0.08162631
27	0xbd6ce17d	-0.05783223
28	0xbdb08ea8	-0.086209595
29	0x3dadf8cd	0.084947206
30	0x3cb7c7f0	0.022434205
31	0xbd4ca935	-0.049966056
32	0x3caa685b	0.020801714
33	0xbda72613	-0.08161559
34	0xbd9c8c71	-0.076439746
35	0xbdb1e32c	-0.08685908
36	0xbc79d06b	-0.015247445
37	0x3cea948f	0.028635291
38	0x3daf37f6	0.085555956
39	0xbd835e08	-0.064144194
40	0xbd5cfae3	-0.0539502
41	0xbdac281d	-0.084060885
42	0x3b9424c4	0.0045209844
43	0x3d425481	0.04744387
44	0x3d188548	0.037236482
45	0xbdb27dfa	-0.08715434
46	0x3da2ef06	0.07955746
47	0x3d7f9f2e	0.062407665
48	0x3d1707d4	0.0368727
49	0xbbab36f2	-0.005225056
50	0xbda7b7bf	-0.08189344
51	0x3d752b59	0.059855793
52	0x3d9ab776	0.07554524
53	0x3d845520	0.06461549
54	0xbda81748	-0.082075655
55	0xbc689505	-0.014195685
56	0x3d39188d	0.04518943
57	0x3d927a6a	0.07152255
58	0xbda83c02	-0.082145706
59	0xbd68ad33	-0.0568058
60	0x3d03d262	0.03218306
61	0x3d78367a	0.060598828
62	0xbcaea9a6	-0.021321129
63	0xbd9f4a32	-0.077778235
64	0x3d811144	0.06302121
65	0x3b286140	0.002569273
66	0x3d9f7c36	0.07787363
67	0x3d586dd3	0.05283911
68	0x3c8425d3	0.016131317
69	0x3c8e7ce4	0.017393537
70	0x3d602004	0.054718032
71	0x3c5fb953	0.013655025
72	0xbba3e469	-0.005001594
73	0x3da882ff	0.082281105
74	0x3daba62c	0.08381304
75	0xbba51560	-0.0050379485
76	0x3d840e2a	0.06448014
77	0x3d0be051	0.03414947
78	0x3d0145aa	0.031560577
79	0xbc762092	-0.015022414
80	0x3da83b01	0.08214379
81	0xbd9e76bf	-0.07737493
82	0x3d8924bd	0.066964604
83	0xbd4c0e4f	-0.049818333
84	0xbd45ef07	-0.048323657
85	0xbd7f9f41	-0.062407736
86	0x3d8f3778	0.06993002
87	0x3bc1e6c1	0.0059174006
88	0xbd966255	-0.07342974
89	0xbd9e5e2d	-0.07732806
90	0x3d353599	0.044240568
91	0x3c0c09cf	0.00854726
92	0x3c5c4a8e	0.01344551
93	0x3d302759	0.043006275
94	0xbc4c4bc2	-0.012469234
95	0xbd51c0f2	-0.051209398
96	0x3d803dcc	0.06261787
97	0x3c9cd926	0.019146513
98	0xbcaa0b85	-0.020757446
99	0x3d8695a0	0.065715075
100	0x3c9ce9a9	0.019154387
101	0x3ce7b803	0.028285986
102	0x3c4a1d37	0.012336067
103	0xba7871fa	-0.0009477433
104	0xbb1edc9f	-0.0024240387
105	0xbcfe59d1	-0.031048687
106	0xbd91f13a	-0.071260884
107	0x3da506d8	0.08057946
108	0x3cbb89c0	0.022892833
109	0x3d763d96	0.060117327
110	0xbd02c1b8	-0.031923026
111	0x3dab2314	0.083563
112	0xbcf349e4	-0.02969832
113	0xbd80b802	-0.06285097
114	0x3c801c41	0.015638473
115	0x3b0d63a0	0.0021574274
116	0xbd15fd32	-0.03661842
117	0x3ce83433	0.028345203
118	0x3ceee043	0.02915967
119	0xbcd6d8f9	-0.026226507
120	0x39057ebd	0.00012731082
121	0x3d72ac6d	0.05924647
122	0x3db3b10f	0.087740056
123	0x3cc51fea	0.02406307
124	0x3c087757	0.008329234
125	0xbd5c02dc	-0.053713664
126	0xbd70f4ed	-0.05882733
127	0x3da81b93	0.08208384

encoder.layers.2.nn.net.0.weight f4 [128, 128]
0	0x3da0b940	0.07847834
1	0xbd8afc2f	-0.067863815
2	0x3d9c97f1	0.07646168
3	0x3d664e30	0.05622691
4	0x3c981a45	0.018567214
5	0xbd332ad7	-0.043742027
6	0x3c7d8d41	0.015475572
7	0xbd91858d	-0.07105551
8	0x3d1814f2	0.03712935
9	0xbd9c20c3	-0.07623436
10	0x3dae8cce	0.0852295
11	0x3d01618f	0.03158718
12	0xbd52080f	-0.051277217
13	0xbd78cfab	-0.060744923
14	0x3d7ad2f2	0.06123633
15	0xbcbc1d30	-0.022963136
16	0xbda4abf2	-0.080406085
17	0x3d0c7f03	0.034300815
18	0x3d464646	0.04840686
19	0xbca02dfa	-0.019553173
20	0xbd4dc46f	-0.05023616
21	0xbcf38ced	-0.029730285
22	0x3d03147c	0.032001957
23	0xbd0f1148	-0.03492859
24	0x3d85100a	0.064972
25	0x3d1f0784	0.038825527
26	0x3d2adb84	0.041713253
27	0xbd1e3fcd	-0.038635064
28	0xbabaaff8	-0.0014243117
29	0x3d6bc280	0.057558537
30	0xbd688174	-0.05676408
31	0xbdb55fa3	-0.08856132
32	0x3d54df21	0.051970605
33	0x3db4aa41	0.08821536
34	0x3dc7e1de	0.097598776
35	0x3dd1095e	0.10206865
36	0xbdb42173	-0.087954424
37	0xbdae3d22	-0.08507754
38	0xbd83fc91	-0.064446576
39	0x3da18294	0.07886234
40	0xbcadc833	-0.021213626
41	0xbcf44665	-0.029818723
42	0x3ccd4ecf	0.025061993
43	0xbd95579a	-0.07292099
44	0x3da3c36a	0.07996257
45	0x3d8d6a71	0.06905068
46	0xbd218f0e	-0.03944307
47	0x3c9e8d06	0.019354355
48	0x3ccca31c	0.02498012
49	0x3d9d4961	0.076800115
50	0x3d4531d3	0.04814322
51	0xbbed3398	-0.0072388165
52	0x3d974194	0.07385555
53	0x3d82a110	0.063783765
54	0x3d3196ca	0.043356694
55	0xbd046d74	-0.032330945
56	0xbd6acd6c	-0.05732481
57	0xbcae4542	-0.02127326
58	0x3d199059	0.037491176
59	0x3cbce529	0.02305849
60	0x3d59eae6	0.053202532
61	0xbd332e9f	-0.043745633
62	0xbd4c1909	-0.049828563
63	0x3d44e845	0.048073072
64	0x3c146faf	0.009059831
65	0x3d59742a	0.0530893
66	0xbc1db3f2	-0.009625422
67	0xbd0c39db	-0.034234863
68	0x3d35a522	0.044346936
69	0x3ca04879	0.019565808
70	0xbd1d2279	-0.038362954
71	0x3d285c1c	0.041103467
72	0x3d8e8f8e	0.06960975
73	0x3d9becc5	0.076135196
74	0x3c3c1bc0	0.0114812255
75	0xbd837545	-0.06418852
76	0xbcba8985	-0.022770653
77	0xbc23cc80	-0.009997487
78	0x3c18596a	0.009298662
79	0xbdac6c3f	-0.08419084
80	0xbd922181	-0.071352966
81	0xbd6ce1c6	-0.0578325
82	0x3d302966	0.04300823
83	0x3d06e9b4	0.03293772
84	0x3d24bbbe	0.040218107
85	0x3d5efbf4	0.0544395
86	0x3c9aefdd	0.018913204
87	0xbc580292	-0.013184207
88	0xbdaa3b8e	-0.083121404
89	0xbc50ee97	-0.012752197
90	0x3c1093ff	0.0088243475
91	0xbcec0cdf	-0.028814731
92	0xbbea4b94	-0.007150123
93	0x3c74dde0	0.014945477
94	0x3d0868b3	0.033302974
95	0xbd20e56d	-0.039281297
96	0xbd251919	-0.040307138
97	0x3d81fe36	0.06347315
98	0xbda411a3	-0.080111764
99	0xba0e763d	-0.0005434489
100	0x3d6e2ea6	0.058149956
101	0x3d0c9f6c	0.034331724
102	0x3c81e15b	0.015854528
103	0x3c958c84	0.01825548
104	0x3d628b24	0.055308476
105	0xbda0b367	-0.07846718
106	0xbd88221d	-0.066471316
107	0x3d92012d	0.071291305
108	0x3d8be0ee	0.06830011
109	0x3d658a8a	0.056040324
110	0xbd94c0f9	-0.07263369
111	0x3db1262d	0.086498596
112	0xbdb7b083	-0.08969214
113	0x3d9c4004	0.076293975
114	0x3d3ca42f	0.046055015
115	0x3bc1eb0f	0.0059179137
116	0x3cb32376	0.021867495
117	0xbca27774	-0.01983235
118	0x3cd71f72	0.026260111
119	0x3d58eea2	0.052961953
120	0xbdad85ce	-0.08472787
121	0x3cb60a25	0.022221634
122	0xbdb58460	-0.08863139
123	0x3d87af71	0.0662526
124	0xbd0ca944	-0.03434111
125	0x3d95a6d6	0.07307212
126	0x3c9a401c	0.018829398
127	0x3d226eb9	0.039656375
128	0xbb00f8e6	-0.0019679605
129	0x3d649ed1	0.05581552
130	0x3d7ae575	0.061253984
131	0xbc8dbdd1	-0.017302426
132	0x3d11a827	0.035560753
133	0xbd1bfc78	-0.03808257
134	0x3d97619b	0.07391664
135	0x3c46a6ad	0.0121247
136	0x3d67b97c	0.056573376
137	0xbd5d36f7	-0.054007497
138	0xbba79f3e	-0.0051154187
139	0x3cb786ee	0.022403207
140	0xbd2431bc	-0.040086493
141	0xbc4448d7	-0.011980257
142	0x3d05f9da	0.03270898
143	0x3d6c166e	0.057638578
144	0x3c83964b	0.016062876
145	0xbd69a72b	-0.05704419
146	0xbc04bb22	-0.008101257
147	0x3cea0891	0.028568538
148	0xbc1d3e36	-0.009597352
149	0xbc86b723	-0.016444748
150	0x3ce87a3d	0.0283786
151	0xbc913e25	-0.017729828
152	0xbdb5d0dd	-0.08877728
153	0xbd3d705a	-0.046249725
154	0xbd9303b9	-0.071784444
155	0xbcc18490	-0.023622781
156	0xbd1d46f9	-0.038397763
157	0xbd1037a3	-0.03520931
158	0x3d98567e	0.07438372
159	0x3d409810	0.047020018
160	0xbd44f525	-0.04808535
161	0x3bb8e500	0.0056425333
162	0xbda50496	-0.08057515
163	0x3d272c8a	0.04081396
164	0x3db2623a	0.087101415
165	0xbd0c0575	-0.03418489
166	0x3d38430d	0.04498582
167	0xbd89b173	-0.06723299
168	0xbd6c3a95	-0.057673056
169	0xbd7b8acd	-0.061411668
170	0x3db8aead	0.09017692
171	0x3d6108a9	0.0549399
172	0x3d84f08e	0.06491195
173	0x3d7b0f58	0.06129393
174	0xbc7262b4	-0.0147940405
175	0xbd82019d	-0.06347964
176	0x3d498705	0.04920103
177	0x3d961990	0.073290944
178	0x3d8a36e0	0.06748748
179	0xbd6f2bbd	-0.05839132
180	0xbd766113	-0.06015117
181	0x3d3d0fcb	0.04615764
182	0x3cd591bb	0.026070466
183	0x3d96afb7	0.07357734
184	0xb93fbc5a	-0.00018285346
185	0xbd6d5c51	-0.057949368
186	0xbca8b239	-0.020592796
187	0x3bff45cc	0.007790303
188	0x3cca762f	0.024714557
189	0xbd98b036	-0.074554846
190	0x3cfa4b51	0.030553492
191	0xbcae881f	-0.021305142
192	0xbdd8df00	-0.10589409
193	0x3d855823	0.06510951
194	0xbca3e0ee	-0.020004716
195	0x3da3372c	0.079695076
196	0x3d3b8f72	0.045791097
197	0xbd918415	-0.07105271
198	0x3ccbbf5d	0.024871523
199	0x3d37f9e8	0.044916064
200	0xbd2d8c2c	-0.042370006
201	0x3daea0af	0.08526742
202	0x3d8d366f	0.06895148
203	0xbd645bac	-0.055751488
204	0x3d203e92	0.03912217
205	0xbce104e8	-0.02746816
206	0xbd8d1196	-0.0688812
207	0x3d9224d4	0.07135931
208	0x3db98dcd	0.090602495
209	0x3db9729e	0.090550646
210	0x3d5dac91	0.05411965
211	0xbc9bba77	-0.019009812
212	0x3cf9fc21	0.030515732
213	0xbd819095	-0.06326405
214	0x3d644f5a	0.055739738
215	0x3d64abff	0.05582809
216	0x3934423a	0.00017190809
217	0xbd88601c	-0.066589564
218	0xbc11d4e9	-0.008900859
219	0x3d247d8a	0.040158786
220	0x3cb83119	0.02248435
221	0x3d0c7ef5	0.034300763
222	0x3db628af	0.088944785
223	0xbd526c8a	-0.051373042
224	0xbd6b85a6	-0.057500504
225	0x3d75f90e	0.06005197
226	0x3ca19240	0.019723058
227	0x3dceabe2	0.10091378
228	0xbd99c373	-0.07507982
229	0x3da09909	0.07841689
230	0xbd38f636	-0.04515668
231	0xbc0d288b	-0.008615623
232	0xbd9a0bf1	-0.07521809
233	0xbdb128ce	-0.08650361
234	0x3c8ff52c	0.017572962
235	0x3cdf063a	0.027224649
236	0xbd97c560	-0.07410693
237	0xbd8e7c21	-0.069572695
238	0xbd0bcba4	-0.034129754
239	0x3c3982ab	0.011322658
240	0x3d6c5f6a	0.05770818
241	0xbd3c60e5	-0.045990843
242	0xbd4518fe	-0.048119538
243	0x3d169c08	0.036769897
244	0x3cd1e82e	0.025623407
245	0xbcdf70af	-0.027275411
246	0x3d5af9a0	0.053460717
247	0xbcf945ea	-0.030428845
248	0xbd5adfcb	-0.05343608
249	0x3d88a739	0.0667252
250	0x3d5c5501	0.053792004
251	0x3c2ea69e	0.010659842
252	0x3c0d3a29	0.0086198235
253	0xbd7dcb43	-0.061961424
254	0xbd8e3d96	-0.0694534
255	0x3dc9e66b	0.09858402

encoder.layers.2.nn.net.0.bias f4 [128]
0	0x3d7dee10	0.061994612
1	0x3d1353e8	0.03596869
2	0xbd3cd748	-0.046103746
3	0xbcf060bd	-0.029343003
4	0xbd1ce527	-0.038304474
5	0x3d2c6ae9	0.042094145
6	0xbd4830af	-0.048874553
7	0xbc9f86a7	-0.019473387
8	0x3d04e7e3	0.032447707
9	0x3c7de3b6	0.015496185
10	0x3d0f53ec	0.034992144
11	0x3bb2409a	0.00543983
12	0x3c6014ee	0.013676865
13	0xbd35fd9c	-0.044431314
14	0x3cb0ebd9	0.021596836
15	0xbd844f63	-0.06460454
16	0xbc0c4b67	-0.008562899
17	0xbba5ff72	-0.005065852
18	0xbd2a4ffa	-0.041580178
19	0xbd2e67a3	-0.042579304
20	0x3d128028	0.03576675
21	0xbd8826bc	-0.06648013
22	0x3d425792	0.047446795
23	0x3d2107b7	0.039313998
24	0x3cfad752	0.03062025
25	0x3d3f1ed8	0.046660274
26	0xbced302d	-0.028953636
27	0xbd0b3e87	-0.033995178
28	0x3d4cc45f	0.04999196
29	0xbd04ec9d	-0.032452215
30	0x3d4ad449	0.049518857
31	0x3d3018a2	0.04299224
32	0xbc41e70e	-0.011834873
33	0xbd33fbf0	-0.04394144
34	0x3bd1f569	0.006407429
35	0xbd6d310c	-0.057908103
36	0xbcf039e9	-0.029324489
37	0xbd11bca1	-0.03558028
38	0x3d0e0787	0.034675147
39	0xbd58db63	-0.0529436
40	0xbc8ddac0	-0.017316222
41	0xbb9c5ce3	-0.004771815
42	0xbd4a9726	-0.049460553
43	0x3d7e13e2	0.06203068
44	0xbccbd79d	-0.024883086
45	0xbd5e63ef	-0.054294523
46	0xbdc791b2	-0.09744586
47	0xbd48490d	-0.04889779
48	0xbc94e5fc	-0.018176071
49	0x3d61b2fc	0.055102333
50	0x3bb3e3b0	0.005489789
51	0xbdaa4d8a	-0.08315571
52	0x3c7e7271	0.015530215
53	0x3d2cf69e	0.04222738
54	0xbac262f9	-0.0014830522
55	0xbd9552a5	-0.07291154
56	0x3d5832cb	0.052782815
57	0x3d032a54	0.03202279
58	0xbda8b1cf	-0.08237039
59	0x3ad2928e	0.0016065405
60	0x3d15dc54	0.036587074
61	0xbcc506c3	-0.024051076
62	0x3d3342cb	0.04376487
63	0xbc5a7af3	-0.013334977
64	0xbd329b2a	-0.043605007
65	0x3cb4e077	0.02207969
66	0xbcc736c0	-0.024318099
67	0xbd93d25d	-0.07217858
68	0xbd8ca8b0	-0.06868112
69	0x3c2d2682	0.010568263
70	0x39ae0269	0.00033189662
71	0x3d2df7ac	0.042472526
72	0x3d9dff4b	0.07714709
73	0x3d2d2a1e	0.042276494
74	0x3d76dcb6	0.06026908
75	0x3d9a4e61	0.07534481
76	0x3cc14bd9	0.023595737
77	0xbba63318	-0.005072009
78	0x3ccffe53	0.025389826
79	0x3c789c12	0.015173929
80	0xbd31abc8	-0.043376714
81	0x3d096767	0.033545878
82	0xbd3bf074	-0.04588361
83	0x3d90c11c	0.07068083
84	0x3d334bb4	0.043773368
85	0xbcf28f81	-0.029609444
86	0x3d10e102	0.035370834
87	0x3c72ab37	0.014811329
88	0x3d659ea0	0.05605948
89	0x3c8c39aa	0.01711734
90	0x3ca5b635	0.020228485
91	0xbd3551d5	-0.044267494
92	0x3b93159c	0.00448866
93	0x3cef9aa2	0.02924854
94	0x3dd9facd	0.106435396
95	0xbd0e5827	-0.034752037
96	0x3d38bc01	0.04510117
97	0xba632811	-0.0008665333
98	0xbb981952	-0.0046416903
99	0xbcaa7b07	-0.020810617
100	0x3ca2f36c	0.019891463
101	0xbcc9792b	-0.02459391
102	0xbc561847	-0.013067312
103	0x3d90131e	0.07034896
104	0xbd2415f5	-0.040060002
105	0xbd33580f	-0.04378515
106	0x3d40e0e8	0.047089487
107	0xbdb5164d	-0.08842144
108	0x3d0c7c3e	0.034298174
109	0x3ce2eb29	0.027700024
110	0x3cd521ab	0.02601703
111	0xbd46e2a1	-0.048555974
112	0xbdbe96d2	-0.093061104
113	0x3cbb398b	0.022854587
114	0x3c9a87f1	0.01886365
115	0xbd09db4a	-0.033656396
116	0x3d8d3c5b	0.068962775
117	0x3d751e94	0.059843615
118	0xbc83fd33	-0.016111946
119	0x3bc0be8f	0.0058820914
120	0x3c473ae1	0.012160034
121	0xbcfaf467	-0.030634118
122	0xbcf20107	-0.029541506
123	0x3d2c4330	0.042056262
124	0xbda84a2e	-0.08217274
125	0xbc68f5cb	-0.014218758
126	0xbc0364d5	-0.008019646
127	0x3c372e2c	0.011180442
