scripts/embeddings_gin_version2/ENZYMES/gin_dim64_ep40_lr0.001_drop0.0/gin_classifier.pt (torch, 177117 bytes, 42 tensors)

encoder.layers.0.nn.net.0.weight f4 [64, 3]
00000000: 5907 e53e 7fb3 1bbc 1e52 55be bc9b df3e
00000010: a169 d5bc b5c1 16bf 72bc d13e aac1 6bbe
00000020: 9d30 9bbe 2a83 253e 3e3b a1bc 7248 c03e
00000030: e10c 133f 8274 cbbd a4da f5be 13c3 ad3e
00000040: 40a8 903c bec1 ec3d 8fea f5bd 4956 2e3e
00000050: 47ca d33d 4278 0fbf 43eb 0ebf 4d2b b2be
00000060: 01ca f0be 6433 c6bd e3ba b83e b2dd ac3e
00000070: a6d5 5f3e 9374 f7be 432d 6b3e b23f a73e
00000080: f61b 07bf ea06 ab3d 1d32 873d 38bb dfbe
00000090: c7a3 14bf 8e2a c1be 85fc ee3e 467f 123d
000000a0: 5c1f e03d 62a3 23be 80f9 68be ef8e c0be
000000b0: 4e8a 5cbe d84a ca3d d708 40be ad89 12bf
000000c0: 82c0 94be 5e19 d8be f8c4 c3be efb6 52be
000000d0: d7e9 c3be 0b8a 34bb 5b12 733e 5359 0ebf
000000e0: ae6f d8bc 2eea 1f3d 5877 b6be a57a 443e
000000f0: 2a3a bdbd a386 103f fdce 55be 30ec 96be
00000100: 5cf2 b13e 96ec 843d d499 8e3e 8612 fb3e
00000110: a1bb a2be 9f57 04bf 2b71 f1be 76a7 543e
00000120: f0c5 36be a54a 9a3e c04a 6cbe 3945 103d
00000130: c1b2 a5be a409 033f a9fb 15be 8cde f9be
00000140: f9be 7b3e 5604 5dbe bc9b 753e da36 c9bc
00000150: fa03 b33c e46a 9b3d 2a5d 85be ed38 51be
00000160: 0ced e93e 9c62 043f cba2 683e 810f 0bbf
00000170: ea16 ec3e 9c03 be3e ff94 f8be 752a 8f3e
00000180: 3dbd b23e 1692 a0bd afd9 0bbf 5d67 07be
00000190: 3a40 f7be 1f56 3a3e 3fb4 bc3e 067e c0be
000001a0: d7fc c1be a332 dabe de7c 013f c471 0d3f
000001b0: c1fb 36be 6e4d bc3e 148e 10bf 843b 9a3e
000001c0: 78c2 cfbe 99ec 6fbe 1fd1 0a3f e614 37be
000001d0: d4cc fbbe adc8 9c3e fb7a f7bd 37c8 a73e
000001e0: f437 02bf 0445 abbe 4998 b2be e760 dfbe
000001f0: 26f5 e73d 6c51 79bd f958 ad3e 7e92 043f
00000200: 8fd0 923e a9b7 553d 9641 4dbe 7da1 da3b
00000210: ebc4 9c3e c6ee 1c3e d682 6bbe 0d9f 39be
00000220: c2d9 153f e217 dbbe ef35 b03d 4f7e 2b3e
00000230: adae 973e faa1 0fbf 8395 24be 05c7 29be
00000240: 6643 b0bd 2fe7 043f 1f75 383e 289e 073f
00000250: b09a 773e 0532 e43e 5256 f33e d182 fd3e
00000260: 3cb1 ef3d 3e28 3d3e 7c41 20be d848 f6be
00000270: 8366 84be dffb 4fbe d122 5fbe b92e 3abe
00000280: e60a 12bf 765b e23e d56c c33e 2cf1 6bbd
00000290: 1045 df3e db2b 963d da62 7a3e 6720 253e
000002a0: 37d0 e1be 19da d7be 11be ab3d ed41 fabd
000002b0: b56a 073f 79a6 e4be 01fc cfbe cc23 8f3e
000002c0: ca52 9fbd 32c9 58be 8732 b2bd 09b3 12be
000002d0: 62cf 16bf 3968 053f 8d89 813d ec3f 613e
000002e0: 1991 ce3e 123d d13d dc27 0fbf 29aa ac39
000002f0: 8978 0c3f 582a 7dbe 0d78 acbe 42a7 1fbe
0.44732168 -0.009503244 -0.20832106 0.43673503 -0.026051344 -0.58889323 0.40964085 -0.23023096
-0.30310526 0.16163316 -0.01968157 0.3755527 0.57441527 -0.099343315 -0.48018372 0.33937892
0.017658353 0.11560391 -0.12007629 0.17025103 0.10341316 -0.56042874 -0.5582773 -0.3479866
-0.47029117 -0.09677771 0.36080083 0.3376289 0.21858844 -0.48331127 0.22966485 0.32665783
-0.5277704 0.08350928 0.06601355 -0.43697524 -0.58062404 -0.3772778 0.46677032 0.03576591
0.10943481 -0.15980294 -0.22751427 -0.3760905 -0.21537134 0.098775566 -0.18753372 -0.57241327
-0.29053122 -0.42206854 -0.38236213 -0.20577596 -0.38264343 -0.00275481 0.23737471 -0.5560505
-0.02642044 0.03904169 -0.35637927 0.1918741 -0.092396095 0.5645544 -0.20879741 -0.29477072
0.34755218 0.06490438 0.27851737 0.4903757 -0.31783774 -0.516962 -0.47156653 0.20767006
-0.17848945 0.30135074 -0.2307539 0.035222266 -0.3236294 0.51186585 -0.14646782 -0.48802602
0.24584569 -0.21583685 0.23985189 -0.024562288 0.021852482 0.07588747 -0.2604764 -0.20431872
0.45688665 0.51712966 0.2271835 -0.5432053 0.46111232 0.3711213 -0.48551175 0.2796208
0.34910002 -0.07840364 -0.54629034 -0.13223024 -0.48291188 0.18196915 0.36856267 -0.37596148
-0.37888214 -0.42616758 0.5058116 0.5525172 -0.17869474 0.36777824 -0.56466794 0.30123532
-0.40578055 -0.23430099 0.54225343 -0.17879066 -0.4917971 0.30621853 -0.120840035 0.3276994
-0.5086663 -0.33451092 -0.3488181 -0.43628618 0.11326055 -0.060868666 0.33856943 0.5178603
0.28674743 0.052177105 -0.2004455 0.006672083 0.30618986 0.1532546 -0.22999129 -0.1812708
0.585354 -0.4279166 0.08604037 0.16747402 0.29625455 -0.5610653 -0.16072659 -0.16579826
-0.08606605 0.5191526 0.18013428 0.529757 0.24180102 0.44569412 0.47526795 0.49513867
0.11703727 0.18472382 -0.1564998 -0.4810245 -0.2585946 -0.20310925 -0.21790625 -0.18181886
-0.5704788 0.44210404 0.3816897 -0.057603046 0.43607378 0.073325835 0.24451771 0.16125642
-0.44104168 -0.42158583 0.08385862 -0.122196056 0.52897197 -0.4465826 -0.4062195 0.27956998
-0.07779463 -0.211705 -0.087010436 -0.14326109 -0.5891019 0.52112156 0.06325064 0.2199704
0.40345076 0.10216726 -0.55920196 0.00032933176 0.5487142 -0.24723184 -0.3368534 -0.15591148

encoder.layers.0.nn.net.0.bias f4 [64]
00000000: ccd6 d6be 15b3 fe3c 1388 c63d a10d 16bf
00000010: 2f7a 85be bdf1 02be ce3b 0cbf bb72 073f
00000020: 9261 bd3e 63c6 0d3f a958 babe d8c6 fd3e
00000030: 3753 8a3e 9163 08bf 7355 063f 196d d4be
00000040: 58a1 ffbe 7385 8dbe c610 cf3d b1e9 d1be
00000050: 40a6 00be 30c4 023f 23e3 053f 60a3 9c3e
00000060: 1f09 1f3d c11b 123f b595 d8be 8222 f73e
00000070: 05c7 213e 1902 e1bd af0c babe f912 8cbe
00000080: 48e2 dcbd 960c 173f 17a5 df3c b5e5 873e
00000090: 2fbd dcbe 1c5a 18be 232f 80be 062d c9be
000000a0: 6a96 91bd 2b75 bf3e b495 05bf b364 f9be
000000b0: 982b 5f3e 1170 a1be 3f10 64bd 4dbd 913e
000000c0: cdab 0b3e aadc c23e 22b6 fbbe 8af9 d83e
000000d0: 7a5b 83bc 431a b03e 4af6 e5be ea4a 8e3e
000000e0: 93e7 603e 600a 6bbe f34e 70be c676 113f
000000f0: cdee 96be 75f3 823d 776b 073f 4563 b1bd
-0.41960752 0.031091252 0.09693923 -0.58614546 -0.2606978 -0.12787528 -0.54778755 0.5290944
0.36988503 0.5538084 -0.36395767 0.49565768 0.27016613 -0.53276926 0.52474135 -0.41489485
-0.49927783 -0.27640876 0.10110621 -0.40998605 -0.1256342 0.5108061 0.5229971 0.30593395
0.038827058 0.570736 -0.42301717 0.48268515 0.15798576 -0.10986728 -0.36337802 -0.27358225
-0.10785347 0.5900358 0.0273004 0.2654244 -0.43113086 -0.14878124 -0.25035962 -0.39292163
-0.07108767 0.3739408 -0.52181554 -0.4870964 0.21793973 -0.31530812 -0.055679556 0.28464738
0.13639756 0.38058978 -0.49162394 0.42377883 -0.01603483 0.34395036 -0.44914466 0.2779153
0.21963339 -0.22953176 -0.23467617 0.5682186 -0.29479066 0.06394092 0.52898353 -0.08661512

encoder.layers.0.nn.net.2.weight f4 [64, 64]
00000000: 94b8 97bd c57e 6fbc b319 e33d 566f 0d3c
00000010: 606b 41bd e61a 9b3d 1018 cbbd a09d b33d
00000020: a24a 823d a4a8 d5bd 6081 793c aa93 c83d
00000030: 48fa cabd 6524 93bd c935 7fbd a663 493d
00000040: b4c0 783d e0f2 bcbd aa58 4f3d af28 463c
00000050: fdc7 83bd 6192 a83d 49e1 8f3d 15a6 493d
00000060: c486 ae3c 0cc9 de3d 13a4 803d d1e2 c4bd
00000070: 4d45 e6bd d835 0bbd 8265 eb3c 4f58 c4bd
00000080: f0dc 15bc f7c8 01be a20e 9b3d 1b20 603c
00000090: 6797 e83d f751 dc3d 9110 4bbd f761 da3d
000000a0: b87c 77bd 229f acbd 8f5b dbbd d87b a73d
000000b0: 20c7 73bd 2b19 e8bc 7aeb 893d 3f68 96bd
000000c0: d030 25bd 1dd5 5cbc 38a7 6fbd d727 883d
000000d0: d034 b63c 2d27 a1bb 7732 673d 1b6b a03c
000000e0: 39d3 df3c e72f 0fbd bf39 abbd 66e6 f8bc
000000f0: 4acc c1bd 500d 64bd e515 56bd 6408 75bd
00000100: ce34 ad3a abf9 243d d896 a2bc 8b9a 7f3c
00000110: 5cb9 c2bd 1335 0c3d 91a2 043e 4852 e7bd
00000120: 0623 50bd 76e1 683d 5b5c 9abc 2b4e 1f3d
00000130: 971f 37bd a14c bbbd 7bde 173d 8197 d9bd
00000140: 3821 dd3d fe82 f63d bba3 54bc 4744 9dbd
00000150: 57e4 e7bd ea4d da3d f5a9 bcbd 2f0c 7cbc
00000160: 7f0e 723d 00f0 94bd 500f 313d af60 4b3c
00000170: ffd1 b2bc 43bc 6a3d c92e f2bc cc02 84bd
00000180: 527c e3bc 5cb9 9f3d 1680 5c3d a062 6d3d
00000190: 984c f7bd 5e7c c3bd f037 ca3d 410c ab3c
000001a0: c8cd cf3d 7f54 9abb b397 57bd 4c6d 6e3d
000001b0: 741a 9bbd 1d89 f73c e7bb a73d 2364 69bd
000001c0: 050b d13c 40aa 15bc 067b 3b3c a2c2 0a3e
000001d0: 18db 113d 8c05 82bb 00c4 a3bd 0edf aabc
000001e0: d496 ad3c 135a ea3d 27b3 3fbd 4637 c1bd
000001f0: 3924 15bd 87d1 a73d 2945 5dbd ccb3 a8bd
00000200: 6994 16bd 8656 f73d 0b84 cdbd b805 26bc
00000210: 82e1 163c 2666 893d 6b0d 0abe 82d9 f4bd
00000220: 4fd7 ed3d 127e b83d 49ab 5abd a5fe e03d
00000230: fdff b03d 84e6 2bbe 8940 b13d ea95 873d
00000240: 34ec cdbd 8466 d93d 505e b9bd ceed 0ebd
00000250: 6ae1 403d ef26 773d 60c8 d1bd 42ea a93d
00000260: bb03 46bc 44e5 063d 753f 9cbd 9696 d33d
00000270: f0df ee3d 1567 6a3d 6dc7 be3c 6a97 aa3c
00000280: e3fd 1ebb f58f 0d3e 23e2 513d f36a 763d
00000290: 2f38 0dbd 9f7a 12bd 4306 a7bd 03d6 0fbd
000002a0: c633 a0bd eaa0 1d3d a770 b73d b8d7 e4bc
000002b0: 2d11 e93c 4e4f 65bd c49d f13d 0c42 27be
000002c0: 6ce1 bd3d dd2e f0bd 29c7 013d 06a5 58bd
000002d0: c036 b6bb 32d0 743d 2cab cabd f84c 95bd
000002e0: e5a4 81bd 16cf 893d bbff d9bd f228 76bd
000002f0: e1f1 c33d 2332 f3ba b91d 563d 908c c1bc
00000300: d8a1 5cbd bd05 6c3c 402d c13d 4031 d3bd
00000310: 6044 f6bc 1e4c 7d3d 2f8e c53a 5a7f cf3d
00000320: 9ddd d8bd 9d32 29bd b75c 403d 13c5 f43d
00000330: 3227 a1bd eb80 34bd 0222 cc3d f97f 18bd
00000340: e09e a13d b401 e2bd 9712 cf3d 972f 49bd
00000350: c4fd cc3d c206 5fbd 987d c23d 4f06 ac3c
00000360: 89dd ae3c d35d 3bbd 14fb 62bd 738d f53d
00000370: 7ac9 a63d cd2a 283d 02c1 0cbd adbd b5bd
00000380: fbe6 90bd c663 6fbd d7fa 77bd 46d5 133c
00000390: b735 da3d 9c4e a8bd 7368 8e3d dabf 2f3d
000003a0: 90bc 75bc 4ef4 173e 1856 edbc 8cf7 393d
000003b0: f459 e6bd b3c6 e0ba c1ac a3bd 1c26 b73d
000003c0: fee5 81bc 905c 98bd 3664 fbbd 6727 b93d
000003d0: a82c ccbd f44a 073c f872 783c 17ec 7ebd
000003e0: 2771 a8bd 055c dabd 52b3 913d 364d b8bd
000003f0: d782 8e3c 1c02 8d3c 52b4 8a3d c8a2 98bc
-0.07408252 -0.014617627 0.11088886 0.008632502 -0.04722154 0.0757349 -0.09916699 0.08770299
0.06361891 -0.10432556 0.015228599 0.0979379 -0.099110186 -0.07184676 -0.062307153 0.049167298
0.06073065 -0.09226012 0.050621666 0.012094661 -0.06434629 0.082310446 0.070253916 0.049230654
0.021304496 0.108781904 0.06281295 -0.09613574 -0.11243687 -0.033986896 0.028734926 -0.09587156
-0.009146914 -0.12674318 0.0757115 0.01367953 0.11357003 0.10757821 -0.049576346 0.106632166
-0.060421675 -0.0842879 -0.10710823 0.08177918 -0.059516072 -0.028332314 0.06734367 -0.07344102
-0.040329754 -0.013478545 -0.05850908 0.06648224 0.02224198 -0.004918 0.05644461 0.019582322
0.027322398 -0.034957793 -0.083606236 -0.0303833 -0.09462793 -0.05567676 -0.052266974 -0.059822455
0.001321459 0.040277164 -0.019847319 0.015600811 -0.09508011 0.034230303 0.12952639 -0.11294991
-0.05081465 0.05685564 -0.018842867 0.038892906 -0.04470786 -0.09145475 0.03707741 -0.106246
0.107973516 0.120367035 -0.0129784895 -0.076790385 -0.11322849 0.10659392 -0.09212104 -0.015383764
0.059095856 -0.07272339 0.043227494 0.012413188 -0.02182865 0.057308447 -0.029563325 -0.06445846
-0.027769241 0.07799026 0.05383309 0.057955384 -0.12075156 -0.095452055 0.098739505 0.020879867
0.101466715 -0.0047097798 -0.052634906 0.058209702 -0.07573405 0.030216748 0.081901364 -0.056980263
0.02551795 -0.009134829 0.011442905 0.13550809 0.035609335 -0.0039679464 -0.079963684 -0.020858314
0.021190085 0.114429615 -0.046801712 -0.09434371 -0.036411498 0.08194261 -0.054021034 -0.082374185
-0.03676263 0.1207705 -0.10034951 -0.010133199 0.009209039 0.067089364 -0.13481681 -0.11955549
0.116133325 0.09008421 -0.053386007 0.109860696 0.08642576 -0.16787153 0.08654887 0.06620391
-0.10054818 0.106152564 -0.09051192 -0.034894757 0.04708997 0.060339864 -0.102432966 0.08296634
-0.01208585 0.03293349 -0.07629291 0.10331456 0.116638064 0.057227213 0.023288453 0.020824153
-0.0024260215 0.13824446 0.05124105 0.06016059 -0.03447741 -0.03576147 -0.08155491 -0.035116207
-0.07822375 0.038483538 0.089570336 -0.027934894 0.028450573 -0.055983834 0.117976695 -0.16333789
0.092715114 -0.117276885 0.031684075 -0.052891754 -0.005560726 0.059768863 -0.0989593 -0.07290071
-0.06330279 0.06728952 -0.1064448 -0.060097642 0.09567619 -0.0018554371 0.05227444 -0.023626596
-0.053865284 0.014405665 0.09432459 -0.10312128 -0.0300619 0.06184017 0.0015072281 0.10131712
-0.105891444 -0.041308034 0.04696342 0.119516514 -0.07868804 -0.04406826 0.09967424 -0.03723142
0.07891631 -0.11035481 0.101109676 -0.04911765 0.100093395 -0.054449804 0.09496611 0.020999102
0.02134587 -0.045743775 -0.055415228 0.1198987 0.08143897 0.041056443 -0.034363754 -0.088740684
-0.07075306 -0.05844476 -0.060541954 0.009023016 0.106547765 -0.082181185 0.06953516 0.042907573
-0.01499857 0.14839289 -0.028971717 0.045402095 -0.11247626 -0.0017149061 -0.079919346 0.08942816
-0.01585674 -0.0743953 -0.12274973 0.090407185 -0.09969455 0.008257616 0.015164129 -0.06223687
-0.08224707 -0.106620826 0.07114281 -0.08999102 0.017396374 0.01721292 0.067726746 -0.018632308

encoder.layers.0.nn.net.2.bias f4 [64]
00000000: 8452 a7bd c04f ffbd e357 f5bd 6d8a 02be
00000010: 314b cc3d 7010 a7bc a7ba 68bc 78c1 9aba
00000020: 9f9d cfbd 1105 8dbd 2fd7 dbbd 87db f53c
00000030: 8f82 81bd a92d e63d 9662 8cbd 4edc 00bc
00000040: fa59 5b3d fa77 76bc aa00 7dbd 8f14 643c
00000050: de2a b3bc adcb 003d a082 a63d 045d 50bc
00000060: 42a6 c1bc 2b8c eebd 0396 293d e0c5 803d
00000070: a517 d03a cde8 b5bd 0503 e93c bffa b8bd
00000080: a67d fabc abc6 47bc 9b4f a0bd 5647 a03d
00000090: fea4 9438 d32f 943d b014 aabc 0f9f 50bd
000000a0: 9a4b 873d 48d9 4abd c1b6 843b e628 d3bd
000000b0: 83a5 a1bd ad2f af3d 952a 46bb 06a9 87bd
000000c0: 3788 f8bc c521 d23c 55de d0bd 4fa9 86bd
000000d0: 4052 843d 9b51 eebc 2b06 293d b672 84bc
000000e0: f711 753c 74f1 b63d 2908 dabd e5e6 8b3b
000000f0: 134c 983d d31f 63bd c601 e33d 4ca5 c5bd
-0.081700355 -0.12466383 -0.11979654 -0.12748118 0.09975279 -0.02039358 -0.014204658 -0.0011806926
-0.10137486 -0.06885732 -0.107344024 0.030011905 -0.0632373 0.11239178 -0.06854741 -0.007865025
0.053552605 -0.015043253 -0.06176821 0.013920917 -0.021871027 0.03144424 0.081303835 -0.012717489
-0.023638848 -0.11647829 0.041402828 0.06287742 0.0015876187 -0.08882294 0.028443823 -0.09032201
-0.030577492 -0.012193362 -0.078276835 0.07826106 7.087922e-05 0.07235684 -0.020761818 -0.05093294
0.06606217 -0.04952362 0.0040501063 -0.10310535 -0.07892897 0.08554015 -0.0030237783 -0.066240355
-0.03033839 0.025650868 -0.101986565 -0.06575262 0.064610004 -0.029091647 0.041265648 -0.01616798
0.014957896 0.08932772 -0.10646088 0.004269468 0.07436385 -0.05545027 0.11084323 -0.096506685

encoder.layers.1.nn.net.0.weight f4 [64, 64]
00000000: 0e96 b43d 1df6 c1bd a804 23bc c45b 5dbd
00000010: 85cf d3bd 90cb 8a3d fe27 af3c ffe5 86bd
00000020: fd3d 12bd 2333 d5bd 5e27 cbbd db22 4c3c
00000030: 6467 5c3d 943a a73b b5a7 eebc de0e 903d
00000040: a9ae 003e 1003 483d fd03 9dbc 4006 c13c
00000050: 44d3 67bb a42d 12bd 616a 9d3d f34a 96bb
00000060: 62d8 07bd 72ab f1bd 4c4f 4a3d 4e87 b43c
00000070: 84f5 c8bd 77e7 af3d abed 1abe 8a21 933d
00000080: 9632 0f3c f47b 99bd 1419 543d dae6 c6bc
00000090: 7a3e ef3c 2686 e8bc 9113 9f3d b8fa 28bd
000000a0: ef98 093d 113f 5dbd 9ed3 e1bb 7051 76bd
000000b0: ae42 c5bd 8af1 023e bb3e 5dbc f506 383d
000000c0: da0c ea3c d07f 49bc 7fa2 d1bd 3198 f43c
000000d0: c483 8ebd 4f12 f5bc 9fe9 febc 5228 5d3d
000000e0: 2273 b0bd dc82 923d 58bf f0bd 89ac 433d
000000f0: 2152 69bd a887 de3d 7d61 823c 953f f8bd
00000100: 45b0 c13b b405 213d d41d 2c3d 72b9 f4bd
00000110: 6cdb 9fbd f814 d53d 67a7 2f3d 7ff1 e83c
00000120: e76a aebd 142a bcbd 6dd0 de3d 5f4a 0f3d
00000130: 5527 1fbd 86ee bcbb aaa6 8e3d 9f91 e53d
00000140: 6da4 023c 5391 ab3b 6be1 4a3c 4be9 843c
00000150: 772f d53d 751c 4d3d b077 8ebd 9534 a0bd
00000160: eec2 ed3d 18fb c23d 1931 a6bd 455b 123d
00000170: 3f47 393d 9afc 113e 1234 e83d cd21 14bd
00000180: 01bf d2bd 7688 d13d 8aad c2bc 051e 94bd
00000190: 69d5 c13d 29d9 4fbd d550 003d 47b6 a0bd
000001a0: 52f8 a33d ec66 48bc 528d fc3d 8daa e03d
000001b0: 824a fe3d 1ba6 e43c f0b6 55bd 3ba7 b53d
000001c0: 908d e43d 6338 92bd 328e abbd 79c3 843d
000001d0: b650 ea3d fd65 bebd 37a0 fe3d 3f9a ca3c
000001e0: eaa8 a1bd bb69 2c3c e003 833c 2ec5 fe3d
000001f0: 0b76 c93c 4033 243e c974 2e3d a219 d43d
00000200: eaf4 c2bd 7c8b 96bd d77f ce3d 2bf4 adbc
00000210: 683b 47bd dd35 a8bd 8919 ecbc ba71 febd
00000220: 5828 b3bd 66d2 a8bd 07a8 bd3c 61f3 17be
00000230: 6771 9bbd b984 c0b8 7495 0abe ef0a e03d
00000240: 7394 d33c c75d 58bd c9d1 a8bd 4bdc b6bd
00000250: df77 073d 10a8 a8bc 2126 913d e74e a3bd
00000260: 9928 4ebd a7cb a63d 6d53 afbd 0cb8 dabc
00000270: 5c88 0e3d f280 6b3d c2eb e5bc 8176 463d
00000280: 2660 ec3c e206 c33d 7ca6 c5b9 af93 913d
00000290: 84d7 f3bd 6676 933d ae54 9e3d 43e2 86bd
000002a0: 9e38 eabd 7fff ca3d e837 093d f14b 11be
000002b0: a627 453d 4aec e93d 3d76 8e3c c648 f23c
000002c0: e732 d8bc 80aa 0ebe 7ea4 aa3d 8a0c a1bd
000002d0: 9d6c d0bd 2292 eb3d 945e a2ba 1a1e b2bc
000002e0: 1616 923d 5d10 59bd b328 26bd 1303 ba3c
000002f0: 7871 62bd 202c 923d c585 90bd 2f7a 0fbe
00000300: a2a7 0fbd 1647 9dbc b458 0fbd 1649 e03c
00000310: 5a5f 0a3d 339e 65bd b7d1 aebd dfc6 533d
00000320: 9d7d 5bbd 76e0 5b3c 8204 a7bd bc71 de3d
00000330: bf30 97bd 5721 74bd 7f32 b13d aefa aebd
00000340: 0323 d3bd b573 84bd edcf c43d e854 4cbd
00000350: 3890 e0bd 6da5 92bd dfcd 803d 44a5 dfbd
00000360: ccb6 643c 1763 803d 337c dbbc d218 ddbc
00000370: 5ea0 0abe bee6 2f3d fe11 2f3c cd91 78bd
00000380: 0181 93bd 62f5 003d ed0f d3bd 573f 1abd
00000390: 4f8d 633c 33ca 1e3d 351a 5e3d 194b 4f3d
000003a0: 37d9 9fbc d0da a7bd 753d 51bb 62a6 ebbd
000003b0: aec8 963d 7767 bcbc 5267 20bd a580 02be
000003c0: a8e6 6fbd c507 ae3d 5673 4b3d 97f8 133d
000003d0: e4d3 4abd f473 d03d ffa7 ba3c 59a3 f9bd
000003e0: 56ea c1ba badd 803c 5448 d5bd fe64 5abc
000003f0: 2e13 9bbc 574c c1bd 7388 80bd 3574 1f3d
0.08817683 -0.094707705 -0.009949841 -0.054042593 -0.103423156 0.06777108 0.021381374 -0.06586837
-0.035703648 -0.10410144 -0.09919618 0.012459482 0.05380954 0.0051034186 -0.029132703 0.07034086
0.12566628 0.048831046 -0.01916694 0.02356255 -0.0035373727 -0.035688058 0.07686306 -0.0045865714
-0.033165343 -0.11800279 0.04939203 0.022037175 -0.098124534 0.0858907 -0.15129726 0.071841314
0.008740088 -0.07494345 0.05178173 -0.02428 0.029204596 -0.02838428 0.07767404 -0.04125473
0.033593114 -0.054015223 -0.006891682 -0.06013626 -0.09631859 0.12787452 -0.013503726 0.04492851
0.028570581 -0.012298539 -0.10236072 0.029857727 -0.06958726 -0.029915957 -0.031117259 0.05399353
-0.0861571 0.07153866 -0.11755246 0.047771964 -0.05696309 0.10865718 0.015915627 -0.12121502
0.0059109055 0.03931208 0.042020634 -0.119494334 -0.07805523 0.1040439 0.042884257 0.028435467
-0.08516484 -0.09187713 0.10879598 0.034983035 -0.03885587 -0.005765739 0.069653824 0.11209416
0.0079737725 0.00523583 0.012382845 0.016224524 0.10409444 0.050075967 -0.06956422 -0.07822529
0.116094455 0.095205486 -0.081148334 0.035731573 0.04523396 0.14256516 0.113380566 -0.036165047
-0.10290337 0.10231106 -0.02376439 -0.07232288 0.09464533 -0.05074421 0.031327087 -0.07847267
0.08006348 -0.01223157 0.12331642 0.1097003 0.12416555 0.027911237 -0.052176416 0.08869787
0.111598134 -0.07139661 -0.08376731 0.06482596 0.11441176 -0.092967965 0.12432902 0.024731753
-0.07893546 0.010523255 0.015993059 0.12439953 0.02459242 0.16035175 0.042591844 0.103564516
-0.0951937 -0.07350823 0.10082977 -0.021234592 -0.04864064 -0.082133986 -0.02882077 -0.12424035
-0.08747929 -0.08243255 0.02315141 -0.14838935 -0.07589989 -9.179995e-05 -0.13533574 0.109395854
0.025827622 -0.052823808 -0.08243138 -0.08928736 0.033073302 -0.020587951 0.07087351 -0.07974034
-0.050331686 0.08144312 -0.08560834 -0.026699089 0.03479801 0.05749602 -0.02806652 0.048452858
0.02885444 0.09522797 -0.0003769881 0.071082465 -0.11906341 0.07200317 0.07730995 -0.06586125
-0.1143658 0.09912013 0.033500582 -0.14189126 0.048133515 0.11422022 0.017390365 0.029575717
-0.02639146 -0.13932228 0.08332156 -0.0786372 -0.10176966 0.11502482 -0.0012387806 -0.02174287
0.07133119 -0.05299412 -0.040566158 0.022706544 -0.055283993 0.071373224 -0.070567645 -0.14011453
-0.035071976 -0.019198935 -0.034996703 0.0273786 0.03378234 -0.056059074 -0.08536094 0.05170333
-0.05358659 0.013420215 -0.08155157 0.10861537 -0.073823445 -0.059602108 0.086522095 -0.08543907
-0.10309412 -0.06467382 0.09609971 -0.04988566 -0.109650075 -0.07160459 0.06289267 -0.10920194
0.013959598 0.062689 -0.026792621 -0.026989374 -0.13537738 0.042944662 0.010685442 -0.06068592
-0.0720234 0.031484015 -0.10305772 -0.03765806 0.013888671 0.03876705 0.05422421 0.050608728
-0.019512756 -0.08196032 -0.00319275 -0.115063444 0.07362495 -0.022998555 -0.039161034 -0.12744386
-0.05856958 0.08497576 0.04967054 0.036125746 -0.04951848 0.10178366 0.022785185 -0.12189359
-0.0014794569 0.015730727 -0.10414186 -0.0133297425 -0.018930044 -0.09438389 -0.062760256 0.038929183

encoder.layers.1.nn.net.0.bias f4 [64]
00000000: c291 033e 4089 653d 7fc8 003e 44ea 93bd
00000010: 8d11 ab3c 245c 8e3d 2ef7 a63d 139a 073d
00000020: 4d62 a8bd 290c 803c fc45 80bd ccee 7c3d
00000030: fbdc 86bd 9546 9b3c d40a c83d e6e1 35ba
00000040: d877 99bd 0d7c 3a3d c698 593c 632a a93d
00000050: 8976 14bd 392b e1bc 20e0 223d 5bc6 a53d
00000060: 4fc7 2cbd cc1a d9bc 9ace e2bd 714a cd3b
00000070: 4dc7 febc ccb0 173e 890e aebc 23af ce3d
00000080: fbe7 6a3d c044 0e3e 69ac e23d ff45 713d
00000090: 42dc cebd aba9 25bd 6636 243d e457 78bd
000000a0: 3bb1 bdbd 4538 82bd cd9b bb3c 6f6e da3d
000000b0: 1192 c73d d067 c6bd 7db2 19bd afd4 393c
000000c0: 84f1 ac3d 1cd4 ab3d 057b f43c 3cda e73d
000000d0: 6719 efbd 8521 09be 7cb1 5bbd e27b 753d
000000e0: 97e6 12be 90e0 a8bd cac0 89bd e8c0 fa3d
000000f0: 8de0 973d 49aa 7bbd e2c8 a73d c8dd eb3d
0.12848571 0.056039095 0.12576483 -0.07222417 0.020882392 0.06951168 0.081526145 0.03310592
-0.082218744 0.015630798 -0.062633485 0.061751172 -0.065851174 0.018954555 0.0976769 -0.00069382635
-0.074935615 0.04552846 0.013281053 0.08260038 -0.036245856 -0.02748643 0.039764524 0.08094474
-0.042182263 -0.026502036 -0.11074562 0.0062649776 -0.031100893 0.14813536 -0.021247165 0.100919984
0.05735014 0.13893414 0.11068041 0.058904644 -0.101006046 -0.04044501 0.04009094 -0.060630694
-0.0926232 -0.06358389 0.02290144 0.10665595 0.09744657 -0.096877694 -0.037523735 0.011342212
0.08444503 0.08390066 0.029843817 0.11320922 -0.11674767 -0.13391693 -0.05363606 0.059932597
-0.14345776 -0.08245957 -0.06726225 0.12243825 0.074158765 -0.061441693 0.08192612 0.11516911

encoder.layers.1.nn.net.2.weight f4 [64, 64]
00000000: 4732 9cbd 4a82 e33d b523 5639 6fd6 e83c
00000010: d2d0 dc3d 9430 c63c bd55 b1bd a683 8f3d
00000020: c50c cebd a7c2 15bc ed4d 043d 62ad eb3d
00000030: c1c6 b23d e43b 2fbc 45fe 8b3c 91b2 95bc
00000040: 6f06 0abe 6281 053e f574 97bd 2d46 ae3b
00000050: f05c 05bd d071 fb3d 6a2e d63d c8e4 0ebd
00000060: ca1f a13d ea0d b1bc b347 983c 1884 bf3d
00000070: 9141 db3d f339 293b ba51 e03d c938 68bd
00000080: 5b17 e73d 21af b03d 4ceb 92bd 67c5 963c
00000090: 9577 543d ba27 07bd ff21 573d 8a6b 0f3d
000000a0: 6963 86bc 7098 0ebd ccf0 acbc e09d e6bc
000000b0: 8945 6f3c 6143 a8bd 6311 bfbc 53e6 933d
000000c0: f0cb a53d d300 afbd 59ac 6bbd 8858 ad3d
000000d0: cde9 a23d c483 c93d 7a29 ea3d ee14 1bbd
000000e0: 13b9 7cbd cf0f ad3c 0c39 003e 1369 22bd
000000f0: 899b a9bd 407d 2abc 964e 31bd 0182 0cbd
00000100: 811a c4bc d74d 42bd 6823 d03d 6fbb e53b
00000110: b08c edbd 33cb 8dbd dce4 0abd 9e9f a33d
00000120: 01b0 82bd 8121 083e 1182 aebd 6fe9 593d
00000130: 80fb 32bd 1314 c7bc 8ff2 863d 08a9 cfbc
00000140: 6e34 c7bd a3d6 fd3d f80c 92bd ec7d 053d
00000150: 0bb4 3f3d 65a0 80bb 20a6 bd3d db30 c4bd
00000160: 7f4f ec3d e06e b8bd 325a 013d f5d2 c63d
00000170: 9574 d83b 2c68 82bd afd8 04be 8e13 2cbc
00000180: 7213 d83a 1130 f33d 08e7 02be 8ee3 b53d
00000190: 99af 273b d263 f8bd a071 973d f9bf 9cbd
000001a0: a710 c5bd 48b8 3b3d b521 e23d 7afd d93d
000001b0: 6148 a13d 295b 2c3d 7bec d73d 0819 c83d
000001c0: 2dfd 99bd 03d1 02be 52a6 df3c 10dc 3bbd
000001d0: c455 cd3d 25c9 6fbc 8b04 253d ed28 b23d
000001e0: b188 5b3d 0862 e83b c391 d5bd 5fce e83b
000001f0: eb77 c43b 7297 f83d 6e32 993d 90bc 6f3d
00000200: 9106 03be b7b9 58bd d080 303c e6e3 243c
00000210: 44c5 94bd e52d 86bd 089a b93c aa26 3a3d
00000220: 1bba a03d e179 2b3c 3318 e1bd 698d 6abd
00000230: f718 07be a3ac e4bc acd1 03bc 897f aa3c
00000240: 7379 b0bd c799 b8bc d7cd bfbd 4b7c 58bb
00000250: 833f dbbd cb01 033d 7a4d 8abd f925 6c3c
00000260: b1db b53c 580e 54ba fd4b aa3d f219 96bd
00000270: 0f0a debc 6f51 f5bd 704d bbbd d1ae af3d
00000280: 592c 71bc 09fe cdbd 48b2 473d d2c7 8abd
00000290: d474 af3d 76c8 86bd e843 813d cce4 b93d
000002a0: c87a 3d3c 28bb 06be 0b75 bbbd 65f2 e23b
000002b0: 2910 0d3d e693 593d d76d b2bd 2025 a1bc
000002c0: 0667 b83d e804 bfbd 2929 6cbd f0f2 78bd
000002d0: c216 dbbd 2b0b 1f3c 549f 373d ebdb dbbd
000002e0: 653c 05be ed48 babd 3486 cb3a 099d c93d
000002f0: 1524 d3bd 3335 a6bb 391d 45bd 9f0b 913d
00000300: 60e1 ce3c fdcd 67bd 00d1 f1bd c321 013d
00000310: 20d7 86bc 45ce 8fbd 95b8 6a3d dc92 f6bd
00000320: 92f4 de3d d390 a4bd c46f eb3d 20f2 7839
00000330: 2051 d7bd 236a bf3d 6a17 d5bd a4da b6bd
00000340: e2ac 523d 3767 acbc c698 cc3d d4aa ecbd
00000350: f59d 8e3c fb81 d63c 762c ebbd 6c4c ccbd
00000360: db85 c9bd 64c6 0e3d 7d4e 5e3c 39ba 5ebd
00000370: ee29 fcbd b450 ffbd 8616 253d b0de 07bd
00000380: 81af 3fbd 8aec cbbc 77a4 be3d c268 583d
00000390: 0e49 0c3c 776f c9bd 97fe 823b 31cf 003e
000003a0: f36b 00bd df9b 333e e605 d23d e53f ee3d
000003b0: 6974 573c 08e8 bdbc 1197 49bd 4cde 953c
000003c0: 7fe1 d53c 8ea2 0d3c b8d3 1bbe 0dd7 913d
000003d0: 626c 85bc 2407 883b 9309 36bd 5df3 f03d
000003e0: d45e 533d 3ae9 08bd 47bb 86bd b068 0ebc
000003f0: 5581 9ebd 0b71 933d 5070 6f3d f27e e6bd
-0.07626777 0.11108835 0.00020421932 0.028422562 0.10782017 0.024193086 -0.086589314 0.07007532
-0.10061029 -0.009140647 0.03230088 0.115076795 0.087293155 -0.010695431 0.017089019 -0.018273624
-0.13479017 0.13037637 -0.07395355 0.005318424 -0.032559335 0.122775674 0.104580715 -0.03488615
0.078673914 -0.02161308 0.018588876 0.09351367 0.10705865 0.0025821894 0.10953088 -0.05669478
0.112837516 0.08627153 -0.071737856 0.018404676 0.051871855 -0.03299687 0.052522656 0.035014667
-0.016404824 -0.034813344 -0.021110915 -0.028151453 0.014603981 -0.082159765 -0.02332372 0.07221665
0.080955386 -0.08545079 -0.05753741 0.084641516 0.0795475 0.098395854 0.11433692 -0.037861757
-0.061699938 0.021125702 0.12521762 -0.039650988 -0.08281619 -0.0104058385 -0.043287836 -0.03430367
-0.02393842 -0.047437515 0.10163003 0.007010869 -0.115991 -0.06923523 -0.033909664 0.07989429
-0.06381226 0.1329403 -0.08520902 0.053201135 -0.04369688 -0.024301564 0.06589233 -0.025349155
-0.09726797 0.12394454 -0.0713138 0.03259079 0.04680256 -0.0039253705 0.092602015 -0.09579631
0.115386 -0.09005523 0.031580158 0.097082056 0.0066056945 -0.063675255 -0.12973283 -0.010502709
0.0016485287 0.11874402 -0.12783444 0.08881293 0.0025586842 -0.12128414 0.07394719 -0.076538034
-0.09622317 0.04583004 0.11041585 0.1064405 0.07875133 0.042079125 0.10543152 0.09770399
-0.075189926 -0.12775044 0.027300987 -0.045864165 0.10026124 -0.014635359 0.040287536 0.08699212
0.053597156 0.0070917644 -0.104281925 0.0071046795 0.0059957406 0.12138261 0.07480322 0.058529437
-0.12795474 -0.052911486 0.010772899 0.010064101 -0.07264188 -0.065517224 0.022656456 0.04544703
0.07847997 0.01046607 -0.10990944 -0.057263765 -0.13193117 -0.02791435 -0.008045595 0.020812767
-0.086169146 -0.022534264 -0.09365433 -0.0033033069 -0.10705473 0.03198413 -0.06753059 0.01441335
0.022199484 -0.00080892956 0.08315275 -0.073291674 -0.027104406 -0.11978423 -0.091456294 0.085782655
-0.014720046 -0.10058219 0.048754007 -0.06776394 0.08567205 -0.06581204 0.0631178 0.09076843
0.011564918 -0.13157332 -0.091531835 0.0069258683 0.03443924 0.053119563 -0.087123565 -0.019671023
0.09004025 -0.09327108 -0.05765644 -0.06077856 -0.106977 0.0097072525 0.04482968 -0.107353054
-0.1301132 -0.09095941 0.0015527667 0.09844405 -0.103096165 -0.00507226 -0.048123572 0.07082295
0.025253952 -0.05659293 -0.11807442 0.03152634 -0.016460001 -0.07021765 0.057304937 -0.1203973
0.10886492 -0.080354355 0.11495927 0.00023741322 -0.1051352 0.09346416 -0.104048565 -0.08928421
0.051434405 -0.02104531 0.09990077 -0.115560204 0.017409304 0.026185026 -0.114830896 -0.09975514
-0.09839984 0.03485717 0.013568518 -0.054376815 -0.12312685 -0.12466565 0.040304683 -0.033171356
-0.046798233 -0.024893064 0.09308713 0.05283428 0.0085623395 -0.09835713 0.0039976346 0.12579037
-0.03135295 0.17539929 0.10255031 0.11633281 0.013150313 -0.02318193 -0.049216334 0.018294476
0.026108501 0.008644713 -0.15217483 0.07121096 -0.016287033 0.004151242 -0.044442724 0.11765168
0.051604107 -0.033425547 -0.06578689 -0.008691952 -0.07739512 0.071992956 0.05845672 -0.11254682

encoder.layers.1.nn.net.2.bias f4 [64]
00000000: fc95 edbd 14ca b83d 7636 c3bb 1554 1dbc
00000010: ada5 053d 3474 22bc faa1 7abd bacd c23d
00000020: ee77 9abd d56b 693d 13b4 eebc 8400 5cbb
00000030: 3d5a 633d 9ec6 dc3d 66fb 7b3d 8380 eb3d
00000040: 3424 993d 5166 783b 71a4 91bd ed62 043d
00000050: e28d 8f3d 59c9 3bbd e66f 343d e497 bbbd
00000060: 1833 94bd 6860 4c3c 33b9 763b e446 ee3d
00000070: 5e1f 09be 3e92 fabd 3635 49bd df86 d1bd
00000080: 9c1d 8d3d 7980 debd c745 343d d13e dd3d
00000090: 59dd 673d eb83 55bb 14d9 d13c 45f7 a53d
000000a0: 4e38 81bd 9ba6 bf3d e04f c13d 784d 073e
000000b0: f812 fbbc a8fd e23c e27b cd3d cd4b 03bd
000000c0: 4bb1 ec3c 845b 3d3d 1282 e9bc 1383 bebd
000000d0: 372e 97bd b32e a83d 8cf5 8cbd 590f 113d
000000e0: c781 da3d e123 4cbd 11b9 dc3d f6eb df3d
000000f0: 15af f3bb f584 f93d 92fa f83d 7a3d afbc
-0.11600873 0.09022918 -0.00595742 -0.009602566 0.032628704 -0.0099154 -0.06118963 0.095118955
-0.07542406 0.056987602 -0.0291386 -0.0033569643 0.05550598 0.10780071 0.06151905 0.11499121
0.07477608 0.0037902782 -0.07111443 0.032320905 0.07009484 -0.045846317 0.044052027 -0.0915983
-0.07236308 0.012474157 0.0037647008 0.11634615 -0.13390872 -0.12234925 -0.04912301 -0.10230803
0.06890413 -0.10864348 0.044011857 0.10802997 0.056607578 -0.003257985 0.025616206 0.081038035
-0.063095674 0.09357949 0.09439063 0.13213146 -0.030648693 0.027708843 0.100333944 -0.03205471
0.028893134 0.046229854 -0.028504405 -0.09302344 -0.07381862 0.08212032 -0.06882772 0.035415027
0.10669284 -0.049838904 0.10777486 0.10933678 -0.007436643 0.12183563 0.121571675 -0.021391619

encoder.layers.2.nn.net.0.weight f4 [64, 64]
00000000: 14ba 0abe 5e4a a9bd 4452 fa3b c0a7 82bd
00000010: c439 19bd 3bb0 0fb8 e104 a63c 1998 e8bd
00000020: d507 8d3c 1e8e 9a3d 9375 75bd 36b1 b13d
00000030: 53be a03c 78c7 9b3d 2316 943d 1052 30bc
00000040: f5a5 06bd 0140 793d 020b 993d 69b5 923d
00000050: 6fe2 e53c f8ff 0b3e 271a 2b3d 99eb a2bd
00000060: d7c3 b0bd 9a5a a93d 7336 96bd 9557 8bbd
00000070: 4bc4 f9bd 2896 d0bd 383e b03d 7ad0 1abe
00000080: da59 c6bd e42a 85bc 3a3b afbd 9006 85bc
00000090: 6aa5 d23d 4655 b1bd b7d0 aabc f5f1 db3d
000000a0: 6a6e f23d 7e49 0f3d 6dd2 033e 3eed f7bd
000000b0: 4d37 e83d e8a7 cabc 23d8 d4ba 2f92 913d
000000c0: f4da f3bc 54bd 04be cfd4 0bbd 931f a6bd
000000d0: dfc9 adbd 0697 97bd 19c4 fdbd 225d a5bc
000000e0: 79e4 923d 845a eb3d 8b9e 27bd 5221 7bbd
000000f0: d49a d93c c1a1 ae3d 187c 083e 89b5 d13d
00000100: 64ad 893d 4444 013d 3dc9 59bd b7fd acbd
00000110: 0913 80bc a897 c03d 2242 7fbd 1a95 8e3d
00000120: 6fe7 04bd f00f c43d 0cc2 7fbc e298 abbd
00000130: 9af5 f0bd 9d57 483d ace1 083c 9b44 86bd
00000140: 9d96 d9bd 5bb2 eb3c 25a4 f8bc b5e8 33bd
00000150: 1a37 ce3d 26e7 60bd 558f 633c bc93 0ebe
00000160: 5398 adbc b2c1 4cba aa2b 403d f0e9 4f3d
00000170: 247d 653d f085 d23d 4857 f03d 166b d03d
00000180: 7685 c4bb 56c4 79bd f507 b33d 7fd9 063b
00000190: a556 c43d c32c bbbc 2178 17bc 3943 123c
000001a0: 1ba2 bdbd 9384 643d 62f7 b93c 9289 e53d
000001b0: d347 c43d ae27 063e 2d6a 893d d902 b43c
000001c0: 8e0a 2cbd 8419 b63c 6df8 4e3c b1cb b0bd
000001d0: 0e53 e63d 9539 a4bd 650f cabd 9a17 a43d
000001e0: c416 cdbc ca8e 983d 0f40 943d 4ada 993c
000001f0: 23cb e2bd e8b1 b1bd d53f 97bd e6c8 78bd
00000200: 9dbb abbd ec14 b0bd e2ba c0bd 9e18 aa3d
00000210: 77b7 af3d b6f4 0cbd c842 e8bd 42c5 c13b
00000220: 8664 9b3d 7bab 083d 00b1 743d bf3d f43c
00000230: 069f adbd 89a0 ac3d 7a78 bdbd 78b5 e7bd
00000240: 1806 023c e35e 0d3e 7e9f 9bbd 3ae0 0abd
00000250: 1784 90bd 8a3e 3fbd f061 c9bc 1f14 c1bc
00000260: e991 c8bd 4716 a7bd 336a 753d 1031 9fbd
00000270: 3212 bdbd 473c bc3d 4f12 ddbc f99c 47bd
00000280: e702 d43d 1c86 93bc 90b3 ed3c 27d2 e33d
00000290: 8c62 c23d 110e 9b3c aec9 4e3d b2c0 de3d
000002a0: bb81 933d f01b 063e 2352 5fbd 2dc0 573d
000002b0: 7d4e d3bd 9db5 fc3d 592b 973d 447c d6bd
000002c0: e9d8 c2bd d341 0dbd 240c 033e 16cd a3bd
000002d0: 1dc4 17bd fbea ab3d fa66 f2bc 4843 4fbc
000002e0: 8915 52bc b105 bfbd fb50 183d d9b0 ef3d
000002f0: 8c79 2abd 8b2f d93d 9086 31bd 7c35 19be
00000300: aeb5 0e3d b3ac 9abd 6ce3 32bd f5db 723c
00000310: 4aa0 af3d 7b1f c03b 746a 13be 82c7 913d
00000320: bc11 eebc 9ede 09bd cc7f 233c 8a25 693d
00000330: 2b29 f0bc 5a03 cc3d 7e40 15bd 85ec e1bd
00000340: 2bb6 a9bd a4e1 c7bb 6533 83bd a101 873c
00000350: a2c7 76bd 96dc e63d ce4e 89b9 a554 debd
00000360: cd07 c43d d4ac 253d e2c8 123c 5db3 debd
00000370: 3320 f9bd 2191 e13c 47d5 f93c 3d48 733c
00000380: 0b06 95bd 372b cd39 3776 fa3d 03ea 8a3d
00000390: 618e 88bb 0fcd 47ba b291 92bc f4fb d43d
000003a0: d451 143d b0ca ddbd 7a64 24be 677e 5cb8
000003b0: 87e3 05be fe3c afbd f084 8dbd e6f7 91bd
000003c0: 0c1e fe3d ccf0 153d edc2 d9bd dc77 c4bd
000003d0: 0a05 623d 7776 b43d 54ca 41bc a2b4 043e
000003e0: 47c2 d43b 3caf 033e dd43 cfbd dff1 5f3d
000003f0: ff36 1b3d 9787 7b3c a775 873b 2cf9 97bd
-0.13547546 -0.082661375 0.0076392014 -0.06379652 -0.037408605 -3.4257984e-05 0.020265998 -0.11357135
0.017215649 0.07546638 -0.05992658 0.086763784 0.019622004 0.07606405 0.07230785 -0.010761753
-0.032873113 0.060852055 0.07472803 0.071635075 0.028062074 0.13671863 0.041772988 -0.07955093
-0.086311035 0.08269234 -0.07334604 -0.06803814 -0.12195643 -0.1018489 0.08605617 -0.1511859
-0.096851066 -0.016255803 -0.085562184 -0.01623848 0.102854565 -0.08658843 -0.020851476 0.10739509
0.11837466 0.034982197 0.1287324 -0.12105797 0.11338673 -0.024738267 -0.001623873 0.071079604
-0.02976749 -0.12962848 -0.034138497 -0.08111491 -0.084857695 -0.07401852 -0.12390918 -0.02018601
0.07172484 0.11491874 -0.040922683 -0.061311074 0.026563086 0.08526946 0.13328588 0.10239703
0.06722525 0.031559244 -0.05317043 -0.0844683 -0.015634077 0.09403926 -0.06231893 0.069620326
-0.032447275 0.09573352 -0.015610229 -0.083787695 -0.11765595 0.04891168 0.008354586 -0.06556054
-0.1062443 0.02877157 -0.030351708 -0.0439231 0.100691035 -0.05490794 0.0138891535 -0.13923544
-0.021190798 -0.0007810845 0.04691664 0.05076021 0.056027547 0.10279453 0.117353976 0.10176675
-0.005997355 -0.060978256 0.08741752 0.0020576415 0.09586839 -0.022848492 -0.00924495 0.00892716
-0.09259435 0.055790495 0.02270097 0.1120788 0.09584012 0.13101074 0.067097045 0.021974014
-0.042002253 0.022228964 0.0126324715 -0.08632601 0.1124631 -0.080187954 -0.098662175 0.08012314
-0.02503527 0.0744911 0.07238781 0.018780846 -0.110739015 -0.08676511 -0.07385222 -0.060738467
-0.08385394 -0.085977405 -0.09410645 0.083054766 0.08579915 -0.034413062 -0.113408625 0.0059134075
0.07587533 0.03336666 0.059739113 0.0298146 -0.08477597 0.08429057 -0.09251495 -0.11313909
0.007936023 0.13805728 -0.0759878 -0.033905245 -0.07056444 -0.0466905 -0.024582833 -0.023569165
-0.09793455 -0.08158546 0.059915733 -0.0777303 -0.09231986 0.091911845 -0.02698627 -0.048733685
0.10352116 -0.018008284 0.029016286 0.11124068 0.094914526 0.018927606 0.050485305 0.108765975
0.072024785 0.13096595 -0.05452169 0.052673507 -0.10317705 0.123393275 0.07381315 -0.104729205
-0.095140286 -0.034486603 0.127976 -0.079981014 -0.037052263 0.08394428 -0.029590119 -0.012650318
-0.012822517 -0.093272574 0.037186604 0.11703653 -0.041619822 0.10604771 -0.04334122 -0.14961809
0.034841232 -0.07552471 -0.043673918 0.01482295 0.085754946 0.0058631278 -0.14396077 0.07118131
-0.02906119 -0.03365957 0.0099792 0.056920566 -0.029316505 0.09961577 -0.036438458 -0.11031441
-0.08286699 -0.0060998965 -0.06406287 0.016480269 -0.06024898 0.11272542 -0.0002618939 -0.108559884
0.095718004 0.040448025 0.008959027 -0.108740546 -0.12164345 0.027535023 0.030497206 0.014848766
-0.07276543 0.00039132845 0.12229579 0.067829154 -0.0041673635 -0.00076218037 -0.017891739 0.10399619
0.03621085 -0.10829675 -0.16053954 -5.256981e-05 -0.13075076 -0.08556555 -0.069101214 -0.07127361
0.12408075 0.036606595 -0.10632882 -0.09593174 0.055180587 0.08811658 -0.011828024 0.12959531
0.006492886 0.12859815 -0.10120366 0.054674026 0.037894245 0.015352151 0.0041338983 -0.07420573

encoder.layers.2.nn.net.0.bias f4 [64]
00000000: f513 013e 4726 40bd 3e2e fabd 2679 b2bc
00000010: 427b 343d 6081 5ebd 2702 833d 2e3a 42bd
00000020: f947 f8bd 45b8 eebd 15ae 6a3c 18cd dbbd
00000030: 03c9 133e 1d00 ea3d 2558 22bd 70ca 96bd
00000040: 693d f33d 95f0 fe3d de16 b63d efa9 bc3c
00000050: fe85 ddbd 0fcd 963d fd8b 1dbd acb9 cabd
00000060: 98d3 24bc a6f3 283d 42eb 5d3d 64db bd3d
00000070: a3dd 8abd 3a8f 9abd c302 ba3d 93e4 d93d
00000080: 4712 d5bd 1987 e8ba 48a2 873d 2832 cd3d
00000090: d884 f7bd 31eb afbd 8d4f fcbd d766 bf3b
000000a0: 6e28 b4bd a7a3 213d 00a2 6cbd 6fd2 08be
000000b0: 9ab6 a1bd 567c a4bd 73ec 6c3d 229a 793d
000000c0: b104 8fbd da4e 80bd 3fa5 293c 2faa cabd
000000d0: e3dd abbc 3ed1 153e b0a3 e8bd f184 5b3d
000000e0: 55da 1cbc 2af7 a93d 812d 22bd 91b1 22bd
000000f0: 748f d3bd aab2 523d a85e 76bd f057 bdbd
0.12605269 -0.046911504 -0.12215851 -0.021786284 0.04406286 -0.0543226 0.06396895 -0.047418766
-0.12123103 -0.116562404 0.014323731 -0.10732478 0.14432149 0.11425803 -0.039634842 -0.07362831
0.118769474 0.12448231 0.0889108 0.02303025 -0.108165726 0.073633306 -0.03846358 -0.09898695
-0.0100602135 0.041247986 0.054179437 0.09270361 -0.06780555 -0.075468495 0.09082558 0.106393
-0.10403877 -0.0017740458 0.066227496 0.10019332 -0.12085885 -0.08589781 -0.123198606 0.005841117
-0.08796774 0.03946271 -0.057771683 -0.13361524 -0.078961566 -0.08031528 0.057842683 0.060938008
-0.06983317 -0.0626504 0.010354339 -0.09895741 -0.020979827 0.14630601 -0.11359346 0.05359358
-0.009573539 0.08299096 -0.039594177 -0.03972012 -0.10330096 0.05143992 -0.060148865 -0.09245288

encoder.layers.2.nn.net.2.weight f4 [64, 64]
00000000: bf21 09be cdfe 0a3c a5e7 3dbd ad4f 8ebc
00000010: ead6 5bbd 8872 b83c f093 09be 734e ca3c
00000020: 58e0 cc3d f2e7 c33d 44d7 c73d 679a 9fbd
00000030: 896c 9c3d af62 383d 58b1 8dbd bcec 7c3d
00000040: 5e9a ec3d 40a6 9f3d 1f97 c73c ea30 f3bd
00000050: 6943 b33c 4f0f 9f3d 9b81 273b e5b0 113d
00000060: 4b82 dd3d e170 813d 84fc 6a3d e0d6 94bd
00000070: 8361 e4bb 53bc d1bd 3599 193c 5a4c 543d
00000080: 9ae1 1f3d 98cd fa3d 44df 033e 9036 81bd
00000090: 500e 54bd 87f2 053d 36f0 c2bd 47cd 85bd
000000a0: d387 f9bc 1c21 133d dc14 ba3d 8bdd 9f3c
000000b0: d9ae 173d a741 7e3d 97bd 9cbd 9274 913d
000000c0: 4a08 cbbd 0ace 4fba 8f79 983d 1752 2cbd
000000d0: 2107 e8bd 486a de3c 310b 5c3d afa7 e53c
000000e0: 2aa5 f4bd 758e bf3d d9aa b7bd aede 453d
000000f0: df82 8fbc 1af1 c73d de7f a03d 1eec 8c3d
00000100: 97f8 d83d cee8 913d f940 a6bd c002 a0bd
00000110: ee36 b53c c571 3d3d 1bc4 823c e7a4 d13d
00000120: 9c71 9f3d 3223 a63c c5c7 513d 5fd9 a03d
00000130: 8dbd 2cbd 930c c6bd c06b 33bd 628e cbbd
00000140: d27a 893d 10b0 5abd fe35 3e3c 8678 5c3d
00000150: 1e4d 6dbc c2c8 7bbd 18d2 3ebd 1a6a 033d
00000160: 32d0 a53a adc5 183d 9093 a0bd bdb4 fcbd
00000170: 0f67 373d 9c8a 013e 43ae 82bc 37bd f8bc
00000180: e767 1b3d 4d49 0a3d 97e9 a4bb 64db b23d
00000190: 4f87 a13d bf66 eb3d 1865 f7bd 9240 0b3d
000001a0: e6e0 8a3d b494 873d 0cf6 a23d d89f c13d
000001b0: b929 d0bd 877b 5abd 5b9e babc aec8 f3bd
000001c0: f570 39bd e78b 193d 3d04 593d 497d 943d
000001d0: 50f1 afbd 1c3a 1cbd 5250 8a3d d296 acbb
000001e0: dfb3 58bd 2f84 c6bd ef35 0fbc 017f 1cbd
000001f0: e177 d5bd c116 cf3d 8fe4 8cbd 87f5 f8bb
00000200: e2b9 30bd 9fe3 8dbd 7c91 bfbd 01e0 c1bd
00000210: 4332 cd3d b45d 9c3b b97d 953d 868e ab3d
00000220: a907 ec3d 3a06 b63d bded fdbc e81b bb3d
00000230: 06b3 f6bd d631 553c 6ea1 973d 89c5 5e3d
00000240: 00e3 3dbd abc4 be3d f407 85bd 265b fbbc
00000250: 2f2e 08be ac1c d6bb 4145 68bd 98bf 0b3e
00000260: 35fc 2ebd b09e e33b c8da ecbd fe02 3dbd
00000270: 3c6e 1fbd 64b0 ddbd 4ebe f43c d4e3 d2bd
00000280: 2f05 ce3d 6b6d c73d e952 143c 2ced 47bc
00000290: 5cb8 71bd 03ce eabd ff8a b3bd 18c0 fb3d
000002a0: 45c4 c1bd 359e f33d 4908 ac3d aaa6 913b
000002b0: 55c9 9c3d 01ed ed3d a784 213c a8f6 fa3c
000002c0: 9e4f d43d 35c0 acbd de02 323c 5a77 61bc
000002d0: de70 d43c 2023 bfbd 390a 9e3d ddfc 303d
000002e0: 31d1 1b3e 33fc 7ebd b41e a73d c502 243c
000002f0: ab67 b7bd 8555 d83d 2b39 0f3d 3d40 a8bd
00000300: e810 cabd ecf4 b13d f841 7a3d fc30 7c3c
00000310: ad77 813d 25c5 9f3d 4440 693d 4310 cbbd
00000320: c09c f73d 60a4 efbd 42d2 7bbd be71 83bd
00000330: d2bc f9bd c9be c2bd 4e5a 623d e305 e0bd
00000340: 538a d13d d37d b63d 87e9 023d 399a cfba
00000350: 9ad8 23bc f0ea e3bd 09b9 81bd d56c fb3d
00000360: 8df1 2e3d 5db1 953c d3b7 013e 7c59 d53d
00000370: ee77 82bc 1f6e f9bc e245 aa3d 7e4c 12be
00000380: 9f6e b1bc f7a6 c43d bf32 edbc 046d b83c
00000390: c69c dc3c e902 92bb e98a 75bc 7f9a 0ebd
000003a0: ab94 1d3d 785b e63d 7c4d ce3c 4d10 52bd
000003b0: eee5 f93d 4f55 7fbd 2619 e7bd 62d2 403d
000003c0: ec7d b0bd 1516 1fbc 00a1 e8bc ff1c aa3d
000003d0: 064d a03d d541 9e3d 1844 c03d 0793 dcbd
000003e0: 92f8 043e cf40 173e e411 b23d 58ba 7f3c
000003f0: 3fa6 5abd 1be1 f3bd e827 91bd 6f3b 23bb
-0.1339178 0.008483601 -0.04636349 -0.017371977 -0.053671755 0.02251555 -0.1343534 0.02469561
0.10003728 0.095657244 0.097578555 -0.07793122 0.07637889 0.045015987 -0.06918591 0.061749205
0.11552881 0.077953815 0.024364052 -0.11874564 0.02188273 0.07766592 0.0025559429 0.03556909
0.10815867 0.06320358 0.057369724 -0.07267547 -0.006969632 -0.10240998 0.009374906 0.051830627
0.03903351 0.12246245 0.12878138 -0.06309235 -0.051771462 0.032701995 -0.09518473 -0.06533294
-0.030460274 0.035920247 0.0908601 0.01951482 0.037031982 0.06207433 -0.07653349 0.07102312
-0.099136904 -0.00079271256 0.074450605 -0.042070474 -0.11329485 0.027150288 0.05372161 0.02803406
-0.11945565 0.093533434 -0.089681335 0.048308067 -0.017518459 0.09762783 0.07836889 0.06880973
0.1059429 0.07124482 -0.08117861 -0.078130245 0.02212092 0.046251077 0.015962651 0.10236531
0.07785341 0.020280454 0.051215906 0.0785396 -0.042172957 -0.09670367 -0.04380393 -0.09939267
0.06712879 -0.053390563 0.011609552 0.053825878 -0.014483718 -0.061470754 -0.04658708 0.03208361
0.0012650548 0.037297893 -0.07840645 -0.123391606 0.04477602 0.12650532 -0.015952235 -0.030363662
0.037940886 0.03376131 -0.005032729 0.08733252 0.07887136 0.11494207 -0.12079829 0.033997126
0.06781177 0.0662016 0.07957086 0.09454316 -0.10164208 -0.05334046 -0.022780588 -0.11903511
-0.04527374 0.037486937 0.052982558 0.07250459 -0.085909486 -0.038141355 0.06753601 -0.0052670026
-0.052905913 -0.09693181 -0.008740886 -0.038207058 -0.10423256 0.10111762 -0.068795316 -0.0075976285
-0.04314602 -0.06928181 -0.09353921 -0.094665535 0.10019352 0.0047719125 0.0729937 0.083767936
0.115248986 0.088879064 -0.030997152 0.09136182 -0.12045865 0.01301237 0.07403837 0.054387603
-0.046359062 0.09314855 -0.064956576 -0.030683111 -0.13298868 -0.0065341797 -0.05670667 0.13647306
-0.042720992 0.0069464073 -0.11565167 -0.04614543 -0.038923487 -0.108246595 0.0298759 -0.10297361
0.100595824 0.09737667 0.00905297 -0.012202542 -0.05901371 -0.11465075 -0.08766746 0.12292498
-0.094612636 0.1189541 0.08400018 0.0044449167 0.076555885 0.116174705 0.009858287 0.030635193
0.10366748 -0.08435098 0.010864941 -0.013761366 0.025932726 -0.093328714 0.077167936 0.0432099
0.15216519 -0.062252235 0.08160153 0.010010426 -0.0895532 0.105631866 0.03496663 -0.082153775
-0.09866506 0.08689293 0.06109807 0.015392538 0.063216545 0.07801274 0.056946054 -0.09915211
0.120904446 -0.11701274 -0.061479814 -0.06418179 -0.12194218 -0.09509046 0.055261903 -0.10938623
0.102314614 0.08910718 0.03196099 -0.0015838809 -0.010000372 -0.11128795 -0.06334121 0.122766174
0.04271083 0.01827305 0.1266778 0.104174584 -0.015926328 -0.030448018 0.0831411 -0.14286992
-0.021659194 0.096021585 -0.028954862 0.02251292 0.026930224 -0.0044559133 -0.014986732 -0.034815308
0.03847186 0.11247915 0.025183432 -0.051285077 0.12202059 -0.062337216 -0.112840936 0.047075637
-0.08617768 -0.009709855 -0.028397083 0.08306312 0.07827191 0.077274 0.09387988 -0.10770231
0.12985447 0.14770816 0.086948186 0.015608393 -0.0533812 -0.1190817 -0.0708769 -0.0024907251

encoder.layers.2.nn.net.2.bias f4 [64]
00000000: 7c36 d0bd 948d 48bd 0e2d aabb 35f9 72bd
00000010: e076 b43d d3bf 8ebd 4de4 603d 15f5 bcbc
00000020: 2e2b 003d dfcf 503d 39ad 4e3d 055d ac3c
00000030: c37a 5a3d 2612 89bd b089 ad3d 332f a2bd
00000040: 971a 663b f9f4 963d 59cb 433d 1ebb eb3d
00000050: cd9e 63bd e605 ab3d 150d abbc d3ae e03d
00000060: 238c 113d a01b 56bd 6167 fcbd c394 283d
00000070: d96c aebd 4195 7fbd 0125 943c 5413 bf3d
00000080: 061a 913c 0d13 abbd 67ad c5bd c015 c63d
00000090: 715c 04be 0f09 c83c 7129 e7bc 551f 52bd
000000a0: f11e ce3d e64f 383c 00b5 ac3d a61d cc3d
000000b0: 8f9a 2c3d bdf0 14bd 83b9 033e d48b bdbd
000000c0: fc5a 11bd ef31 d53d 7beb f73d 4a2b f53d
000000d0: 0d20 aebd 5ebf 3a3b 5de7 8dbc 11c6 bcbd
000000e0: 1d91 f93c 5732 ffbd d697 73bd 6d2f 94bd
000000f0: 5616 9abc dbf8 d73d a79d 7c3d b610 f73c
-0.10166642 -0.048963144 -0.005193359 -0.059319694 0.08811736 -0.06970181 0.054905225 -0.023066083
0.03129118 0.05097949 0.050458167 0.021040449 0.05333973 -0.06692915 0.084735274 -0.07919159
0.0035111064 0.073709436 0.04780135 0.11510299 -0.055571366 0.083507344 -0.020880261 0.10970845
0.035534035 -0.05227244 -0.123244055 0.041157495 -0.08516855 -0.0623982 0.018084051 0.093298584
0.017712604 -0.08353243 -0.096522145 0.09672117 -0.12925889 0.024418382 -0.028218003 -0.05129941
0.10064495 0.011249518 0.084329605 0.099665925 0.042139586 -0.0363624 0.12863736 -0.09255186
-0.03548716 0.10409915 0.12105461 0.11971147 -0.08502207 0.0028495411 -0.017322237 -0.09217466
0.030464703 -0.124607734 -0.059470974 -0.07235608 -0.018809479 0.10545512 0.061673786 0.030159336
