scripts/embeddings_gin_version2/IMDB-MULTI/gin_dim64_ep40_lr0.0005_drop0.0/gin_classifier.pt (torch, 175837 bytes, 42 tensors)

encoder.layers.0.nn.net.0.weight f4 [64, 1]
000000 9e c1 44 3f a6 b0 7b bf 95 f4 d6 3e 8e 97 b7 3e
       0.76857936 -0.9831642 0.41983476 0.35857815
000010 f2 b3 4f 3f 8e 41 7b bf 3e 3f 0f 3f 44 31 77 3f
       0.8113395 -0.98146904 0.55955875 0.9655955
000020 72 82 63 3f a0 d2 9e bd c6 46 7b bf 70 d5 06 be
       0.8887092 -0.07755017 -0.98154867 -0.13167357
000030 f7 27 9f 3c f0 db e3 3e d9 2c 2e 3f e8 89 bc be
       0.019428236 0.44503736 0.6803718 -0.36823964
000040 06 bc 09 3e a0 98 71 be 48 fc 27 bf b4 91 48 bf
       0.13450631 -0.23593378 -0.65619326 -0.78347325
000050 00 aa 64 bf 9a 6f 77 bf 92 91 0b bf d7 55 26 3f
       -0.893219 -0.96654665 -0.54519 0.6497473
000060 22 e3 2a 3f 18 92 7d be ee c0 11 bf 32 cf 15 bf
       0.6675283 -0.24762762 -0.5693501 -0.5851928
000070 04 80 d2 be b3 43 20 3e c6 8d ef 3c 2b ca 88 3e
       -0.41113293 0.15650825 0.029242408 0.26716742
000080 6c ad 0c 3f 43 ed 05 3f 44 ad f1 3e 2d 28 d9 3e
       0.5495212 0.5231516 0.47202504 0.42413464
000090 0d 19 12 3f e7 9f 64 3f 4e e0 77 3d 75 cd 49 3f
       0.57069474 0.8930649 0.060516648 0.7882913
0000a0 0c 06 73 bf 5a 79 df 3e b8 e6 f1 be b0 ac 85 bd
       -0.949311 0.4364727 -0.47246337 -0.06527078
0000b0 86 73 70 bf c8 7f 2b 3f aa 97 53 3f 4a f8 48 3f
       -0.93926275 0.66991854 0.82653296 0.7850386
0000c0 dc 02 1b bf 38 e2 2d 3e 3a 29 65 bf 90 d5 34 3f
       -0.6055124 0.16980827 -0.8951603 0.7063837
0000d0 6a ff 3c bf 71 c8 35 3f 36 55 5e bf 5e 77 41 bf
       -0.7382723 0.71008974 -0.8684877 -0.75572765
0000e0 e3 87 83 3d b0 a2 45 3f 08 ba 86 be bb c0 9a bc
       0.06422403 0.77201366 -0.26313806 -0.01889073
0000f0 d1 1f b6 3d 69 b0 7c 3f 58 0e 13 bf 4c f2 7e 3f
       0.08892787 0.9870668 -0.5744376 0.99588466

encoder.layers.0.nn.net.0.bias f4 [64]
000000 30 7e 66 bf 00 b2 dc 3d ec fb 6b bf 4e 29 13 bf
       -0.90036297 0.10776138 -0.9218128 -0.574849
000010 af 16 ce be 80 19 64 3d 34 a5 f8 3d 53 df 32 3f
       -0.4025168 0.05568838 0.12140885 0.69872016
000020 cb 5e 19 bf f8 ec e2 be 72 83 57 3f 20 89 90 be
       -0.5991027 -0.44321418 0.84184945 -0.28229618
000030 bf b2 71 bf 57 14 05 bf c3 45 58 bf 52 6d 7a bf
       -0.9441337 -0.5198416 -0.8448145 -0.9782306
000040 37 c7 38 bf 96 09 7a bf e4 3b f2 3e aa aa 5f 3f
       -0.7217898 -0.97670877 0.47311318 0.8736979
000050 40 d9 d5 bc 80 cb 4d bf 40 9d c4 3d 38 d2 32 3e
       -0.02610457 -0.8038864 0.096003056 0.17463005
000060 2b 52 e2 bc a2 64 23 bf 2c b3 4c bf 58 63 22 be
       -0.027627071 -0.6382543 -0.79960895 -0.15858209
000070 b0 3b 7b bf 5e 78 dc be c3 1a 93 3d d7 da 61 bf
       -0.9813795 -0.43060583 0.07182839 -0.8822455
000080 95 d5 72 3e 98 92 64 3f 5f 6f e3 3e 68 d5 14 3f
       0.23714288 0.89286184 0.44420907 0.5813813
000090 6d a6 14 bf 70 24 d3 3e 46 5f ea be a5 0a e0 3d
       -0.58066446 0.41238737 -0.45775813 0.1093953
0000a0 9a b0 57 bf 6e 96 30 be 6c 20 b7 be 78 80 bb be
       -0.8425385 -0.17244884 -0.35766923 -0.3662145
0000b0 ac 10 18 3f d6 d7 06 3f 5c 4d b4 bd d1 84 39 3e
       0.5940044 0.5267309 -0.08803818 0.18117072
0000c0 b8 73 88 be 6a 80 cb 3c 58 9b f1 3e 3d 77 e9 be
       -0.26650786 0.024841506 0.4718883 -0.45598784
0000d0 d0 b9 76 3e 91 e1 c7 bd 68 e7 6e be a4 c5 84 3e
       0.2409432 -0.0975982 -0.23330462 0.25932038
0000e0 5f da 41 bf d8 b1 55 3f f4 0c 38 bf 1b 08 6b 3e
       -0.7572383 0.83474493 -0.71894765 0.2295231
0000f0 fc 2a 0a bf b8 5e 5c bf 58 f8 ab 3e 48 27 88 3e
       -0.5397184 -0.8608203 0.3358791 0.2659247

encoder.layers.0.nn.net.2.weight f4 [64, 64]
000000 d5 6d 9a bd 80 40 59 3b 1d 39 eb bd 4d cb 81 3d
       -0.0754048 0.0033150017 -0.11485503 0.06337605
000010 37 f6 e7 bd 50 48 58 3d 33 03 05 bb 61 0e aa bd
       -0.11326259 0.052803338 -0.0020296096 -0.08303524
000020 bf 76 af bd 04 13 0f 3d 30 d1 51 3c bc 8b 6c bd
       -0.08567571 0.034930244 0.012806222 -0.05775045
000030 80 a7 c5 bd 0b 38 b3 3d d9 2f 32 bc 80 dc 5a 3b
       -0.09651089 0.08750924 -0.010875666 0.0033395588
000040 8c 8c 9b 3b c0 77 8d bc fe 4d 97 3d 8e 52 c4 3d
       0.004746979 -0.017269015 0.07387923 0.095860586
000050 2c e7 80 bd ee 6b 9b bd aa d1 9f 3d ae a2 cf 3d
       -0.062940925 -0.07588945 0.07803662 0.101384506
000060 b5 c8 f9 bd 44 bf 3b 3d b4 79 ac bd cc 64 6e 3d
       -0.12196485 0.045836702 -0.084216505 0.058201596
000070 e8 d8 ba 3d 13 0f 4d bd bc 68 4b bd 37 60 55 3d
       0.09123403 -0.050063204 -0.04966043 0.05209371
000080 29 18 d8 bc a4 cc 8c bd 17 35 b4 bb a4 91 17 3d
       -0.026378708 -0.068749696 -0.005499493 0.037004128
000090 ba b0 1d bc 4d 37 c1 bd a3 b1 ec bd 20 64 59 3d
       -0.009624654 -0.09434376 -0.11557319 0.053074002
0000a0 28 7b 58 bd c9 86 c9 bd 66 3f cf bd 28 9e 33 bd
       -0.052851826 -0.09840161 -0.10119514 -0.043852
0000b0 20 a3 96 bc 32 91 72 bd bd 55 83 3d 09 10 a6 bd
       -0.018388331 -0.0592205 0.06412838 -0.08108527
0000c0 20 dc 67 bd c5 41 64 bd c0 22 54 bd 01 02 f3 3c
       -0.056606412 -0.055726785 -0.051790953 0.029664041
0000d0 00 ce b4 b9 00 72 de 3d 42 f4 cf 3d c8 b3 a9 3c
       -0.00034485757 0.108615875 0.1015401 0.02071561
0000e0 f4 78 7a 3d 13 53 a6 3d de 02 b7 bd 2e 2a 40 bd
       0.061150506 0.08121314 -0.08936094 -0.046915226
0000f0 3c 76 6e bd 6f e0 b6 bd d4 a4 d3 bd db a0 89 3c
       -0.058218226 -0.08929526 -0.10334173 0.016800335
000100 0d 48 d1 3d 5e 71 a1 bd 27 b8 d1 3d 1b f6 ab bd
       0.10218821 -0.07882951 0.102402024 -0.0839655
000110 7c 56 c3 3d 60 a8 62 bd 26 98 b3 3d 4a eb dd 3c
       0.0953798 -0.055336356 0.087692544 0.027089734
000120 ef 9f 9b bd 20 6c 2b bc 5e 14 f8 bd 50 5f 2b bd
       -0.07598864 -0.010462791 -0.1211326 -0.041838944
000130 b3 e8 c7 3d 55 b1 ec 3d 01 f8 c1 bc 34 52 b0 bd
       0.09761181 0.11557261 -0.023677828 -0.08609429
000140 6e 7a ae 3c 1a b4 a6 bd 6c ff d3 3d bc 3b bf bd
       0.021298613 -0.081398204 0.10351452 -0.09337565
000150 b8 bb af 3c 20 ea e2 bb f8 d3 73 3d c5 f5 e4 bd
       0.021451816 -0.0069248825 0.05952832 -0.11179689
000160 5d 13 01 3e 34 a9 06 3d e0 76 92 bb ae 06 97 bd
       0.12605043 0.03287621 -0.0044697374 -0.07374321
000170 60 49 a3 bc 4d 86 de bd 7f a4 13 bd f2 d3 ed bc
       -0.019932449 -0.108654596 -0.036045548 -0.029031727
000180 ba 7b 39 3d ea 50 c2 bd 4b fb af bd 75 ca 4e bc
       0.04528401 -0.094880894 -0.08592852 -0.012621512
000190 64 2a c5 3d 47 06 ca bc d6 b5 60 bd 72 76 1c bd
       0.09627226 -0.024661196 -0.054860912 -0.038198896
0001a0 78 fb cc 3c e0 9c bc 3d e0 55 e3 bc cc c3 83 3d
       0.025022253 0.09209609 -0.02775091 0.0643383
0001b0 6c 45 30 bd b7 ba a8 bd 1d d2 dd bd 59 d1 53 bd
       -0.043034956 -0.08238738 -0.108310916 -0.05171332
0001c0 10 94 0e 3c 41 e2 97 b8 1c d8 93 bd d8 4e 80 3c
       0.008702293 -7.242384e-05 -0.07218954 0.015662596
0001d0 88 91 ef 3d de 0a c5 bd 32 28 df bd a0 9e 7e bd
       0.1169768 -0.096212134 -0.108963385 -0.062162995
0001e0 6e 49 6a 3d cd e7 4c 3d 80 92 4b bd 51 35 87 3d
       0.057198934 0.05002575 -0.04970026 0.06601966
0001f0 90 a5 c8 3d 3a 93 84 bd bc 8d 4b bd ab ea 57 bd
       0.097972035 -0.06473394 -0.049695715 -0.05271403
000200 7a 2a 7c bd c8 2d b9 3c b2 c4 94 bc c7 4b 05 bd
       -0.061563946 0.022604838 -0.018160198 -0.03254297
000210 6e fa de bc 72 be 8b 3d b1 f3 f2 3c 86 24 b0 bd
       -0.027219024 0.06823434 0.029657217 -0.08600716
000220 d3 c9 8d bd 30 09 3c bd d2 6e a5 3d dc 44 2c bd
       -0.069232605 -0.0459072 0.08077778 -0.042057857
000230 14 42 c1 3d c7 b1 73 3d 00 f7 f9 bd e0 61 7f 3d
       0.094364315 0.059495714 -0.12205315 0.0623492
000240 a9 32 e5 bd fc 3c 0e 3d 8c c9 d2 bd 8a 1f c2 3d
       -0.11191303 0.034726128 -0.10292348 0.09478672
000250 c0 0b 4a bc a6 68 82 bd 58 f4 c3 3d d9 de e2 3d
       -0.012331903 -0.06367616 0.09568089 0.11077661
000260 49 99 c8 3d 80 64 5a bc 90 9d 0b bd 52 25 d2 bd
       0.09794862 -0.013329625 -0.03408581 -0.102610245
000270 5e 97 8d 3d 59 fc 91 bd f3 04 99 3d cb 29 44 b9
       0.069136366 -0.071282096 0.07471647 -0.00018707586
000280 a2 5d 98 bd 92 ab ac bd 20 d9 d3 3d 3f 2b d9 3d
       -0.07439734 -0.08431162 0.10344148 0.10603952
000290 27 12 95 bc 66 9a c0 bd 8a 0b 1e bd 37 da a8 ba
       -0.018197132 -0.09404449 -0.038585223 -0.0012882416
0002a0 fa 27 eb bd 0d 58 bf 3d b4 37 ac 3d c0 50 3f bb
       -0.11482234 0.09342966 0.08409062 -0.0029192418
0002b0 3e 77 a3 3d 73 01 82 bd ec 4f 87 3d 42 08 b8 bd
       0.07981728 -0.06347933 0.06607041 -0.0898595
0002c0 0c 37 2d bd b7 e8 7e 3b 90 66 da 3d 1b be 92 3b
       -0.042288825 0.0038896033 0.106640935 0.0044782287
0002d0 a2 85 96 3d 49 50 17 bc d0 62 3d bc a0 44 6d bd
       0.07349707 -0.00923545 -0.011559203 -0.057926774
0002e0 a4 9a 7e 3c 5e 11 b7 bb b2 9b ec bd ee 5d d0 3d
       0.015539799 -0.005586787 -0.11553134 0.10174166
0002f0 73 75 8b 3d 63 55 72 3d f0 e0 a6 3d 8f ac 68 bd
       0.06809511 0.059163462 0.08148372 -0.05680519
000300 8c f3 68 bd 68 c6 f4 3c c2 5c f9 3d 59 08 ba bd
       -0.05687289 0.029879764 0.12175895 -0.090836234
000310 d3 70 c8 3c 08 6b a7 3d 8f 2d 10 3a fa e5 de 3d
       0.024467861 0.081747115 0.0005499953 0.10883708
000320 49 90 e6 bc 30 21 6b 3c b8 55 b3 bd 64 c1 a4 bd
       -0.028144972 0.014351174 -0.08756584 -0.08044699
000330 9f f4 b8 3c 58 6b 9e 3d 08 40 c2 3c f4 dd 4b bd
       0.022577582 0.07735318 0.023712173 -0.049772218
000340 96 79 13 3e 00 6d 10 ba e0 6b 1b 3c 06 80 ac bd
       0.1440185 -0.00055094063 0.009486169 -0.08422856
000350 32 ae d5 3d 70 ef 9e bd 08 a9 f5 bc 25 d2 a5 bd
       0.10433616 -0.07760513 -0.029987827 -0.080967225
000360 2b 88 95 bb 9c 46 d1 bd 40 44 f0 3b 00 2d f3 ba
       -0.0045633516 -0.10218546 0.007332355 -0.001855284
000370 00 f8 a7 3d 2d a8 b8 bd 31 22 e5 b9 e8 bc d8 3d
       0.08201599 -0.09016452 -0.00043703758 0.10582906
000380 e7 38 a0 bc a6 21 11 bd 79 b5 73 3c db d4 0d 3d
       -0.019558383 -0.03543248 0.014874809 0.034626823
000390 76 7a 29 ba 9d 0f 82 3d 20 91 33 bc 5b d2 c9 bd
       -0.00064650865 0.06350634 -0.010959893 -0.09854575
0003a0 7c e5 7a bd 1f d1 43 3d 28 01 ca 3d f4 ef 62 3d
       -0.06125401 0.047806855 0.09863502 0.05540462
0003b0 44 4d 91 bd 78 30 53 bd 3d 13 61 bd 09 f9 14 3c
       -0.070948154 -0.051559895 -0.054949988 0.009092578
0003c0 72 8c 85 bd f4 75 8a 3d 00 c6 3c ba 83 b0 20 bd
       -0.065209284 0.06760779 -0.0007201135 -0.039230835
0003d0 a8 59 95 3c af 48 93 bd d0 c7 f1 bd 30 df 5f 3c
       0.018231228 -0.07191598 -0.11805689 0.013664052
0003e0 fd 93 15 bd ba 47 b8 3d d8 a3 a5 3c d4 7a a0 3d
       -0.036518086 0.08998056 0.020219728 0.078359276
0003f0 e8 2c d3 3d 72 e7 08 3d be 40 d5 3d 96 c3 73 3d
       0.103112996 0.03342385 0.10412739 0.059512697

encoder.layers.0.nn.net.2.bias f4 [64]
000000 37 16 92 3d a6 60 b0 3d d3 d2 c7 3d 5a 5b 5d bc
       0.071331434 0.08612184 0.097570084 -0.013510549
000010 79 c1 41 3d 76 da 37 3d f9 57 23 3c fa 69 fb 3d
       0.04730365 0.044886075 0.009969705 0.12276073
000020 93 ab f9 bd dd b4 c4 bd c9 ed 27 bd dd ab 5e bb
       -0.12190928 -0.096048094 -0.040998254 -0.003397695
000030 2d 5e c9 bd 8b 63 aa 3d da c0 dc 3d bf 61 aa bd
       -0.09832416 0.083197676 0.10778971 -0.08319425
000040 7d aa 3a bc f5 62 66 3d 89 15 50 bd 07 4d 10 3d
       -0.011393187 0.056246717 -0.050801788 0.03522971
000050 ea 96 88 3c 5e e2 cd bd d4 c2 9d 3d 21 15 53 bd
       0.016673524 -0.10052942 0.07703176 -0.051533822
000060 f1 4f d7 3d 34 51 d5 bd 78 c5 b9 bd 22 f7 94 3c
       0.105132945 -0.10415879 -0.09070867 0.018184248
000070 e8 48 13 bc da 35 d2 bc 8f fa 2f bd 40 6a 3f bd
       -0.00898955 -0.025660444 -0.04296356 -0.046732187
000080 d0 45 fe 3d ed eb aa 3c fa 89 7f bd e8 17 a0 bd
       0.124156594 0.020864451 -0.062387444 -0.0781706
000090 eb b2 a2 bd 81 3e 02 3c aa 31 c8 3c b1 68 20 3d
       -0.07944282 0.007949472 0.024437744 0.03916234
0000a0 49 b7 2a 3d a2 85 68 bd dd c3 a4 bd 9e c9 12 bd
       0.0416787 -0.056768067 -0.080451705 -0.03583681
0000b0 ad 9b e3 3d 19 13 b3 bd c4 87 3a 3d ca f4 eb bd
       0.11113677 -0.08743877 0.045539632 -0.11521299
0000c0 ab c6 b7 3d 98 86 f0 3d 22 11 1c 3b 98 24 85 bd
       0.0897344 0.11744422 0.0023813923 -0.0650112
0000d0 6a fb 2d bd f7 22 c0 3d 6a 62 eb 3d ca 9c b2 3d
       -0.042476095 0.09381669 0.1149338 0.087213114
0000e0 a0 91 b4 bd 36 49 1f bd 0a a1 e8 3d c9 87 7a 3d
       -0.08816838 -0.03888818 0.11358841 0.06116465
0000f0 e4 5a 26 3b d7 47 e1 bd a5 e6 8f 3d 34 d7 b9 b9
       0.0025383765 -0.110000305 0.07026414 -0.00035446289

encoder.layers.1.nn.net.0.weight f4 [64, 64]
000000 64 04 ec 3d 12 6b e4 bd 5f 40 00 3e ec 14 10 3d
       0.11524275 -0.111532345 0.12524556 0.035176203
000010 3a 09 85 3d 8b 43 79 3d 75 a7 dc bd 70 07 a4 3c
       0.064959005 0.06085543 -0.107741274 0.020023078
000020 87 f7 9e bd ae 91 55 3c fe e5 01 3e f1 66 57 3d
       -0.07762056 0.013035221 0.12685391 0.052588407
000030 67 9c 04 be e0 e9 95 bd 23 ed d5 3d 43 67 6e bc
       -0.12950288 -0.07319999 0.10445621 -0.014550987
000040 b2 51 bd 3d 35 90 e8 3d e2 ee e9 3d 54 5d b2 bb
       0.09244098 0.1135563 0.114225164 -0.0054432545
000050 1a 56 0c bc eb 97 a2 3d c3 74 b1 bd e1 0e 91 3d
       -0.00856545 0.07939132 -0.08664849 0.07082916
000060 5c 51 8b 3d 85 0f 98 bc 19 41 3e 3d 25 bd 83 3d
       0.068026274 -0.018562088 0.0464488 0.06432561
000070 de e9 99 3d 66 ae c7 bc 7a cd 0f 3d 24 98 73 3d
       0.0751531 -0.024375152 0.035108067 0.059471264
000080 34 22 09 bd b7 ea 06 3d 7e 3a a9 3d 75 e9 6e bb
       -0.033479884 0.032938685 0.082631096 -0.003645507
000090 37 58 9d 3d 8f df 80 3c 3b ad 4b bb a3 6b d6 3d
       0.07682841 0.015731601 -0.0031078595 0.10469749
0000a0 7f 3d 89 bd a3 33 b9 3d a2 fb 8a 3d de e4 cf 3d
       -0.067011826 0.09043052 0.067862764 0.10151075
0000b0 65 4a d3 bd 8a 9e f0 3d 4f fb e1 bd 1f 62 ba 3d
       -0.10316924 0.11748989 -0.110342614 0.09100746
0000c0 db 32 bb 3d bb 91 c8 3d 23 80 f9 bc 5e 70 fa 3d
       0.09140559 0.09793421 -0.030456608 0.122284636
0000d0 83 8c 22 bd 4d ea d5 3d 48 79 e6 3d 92 79 98 bd
       -0.039684784 0.1044508 0.11253601 -0.07445063
0000e0 28 08 03 be 24 9f c0 bc b3 ff ca bd 70 67 10 3d
       -0.1279608 -0.023513384 -0.09912052 0.035254896
0000f0 eb ef 66 bd c4 82 9f 3d e5 74 82 3c c1 28 ce bd
       -0.056381147 0.077886134 0.01592488 -0.10066367
000100 7c 2f cb bd 64 8c 11 3d 75 06 19 bd 60 5d bf 3d
       -0.09921166 0.035534278 -0.037359674 0.09343982
000110 f9 2d e2 bb db d0 da bd 6f 66 29 3d 35 57 cd bd
       -0.006902453 -0.10684367 0.041357454 -0.10026399
000120 77 5c d3 bc 61 1f 05 bd 20 49 f0 3d 2a bd a4 3d
       -0.025800927 -0.03250063 0.117326975 0.08043893
000130 11 e3 b3 bd be 82 6b bd 36 e6 e0 bd 76 ad e9 3d
       -0.08783544 -0.057497732 -0.10981409 0.11410038
000140 0d 27 95 bd a4 af 86 3d fc 78 c4 bd 30 4b 83 bd
       -0.07282839 0.065764695 -0.095933884 -0.06410825
000150 4a 16 8c bd 5e 13 96 bd 76 21 3a 3d f6 cf 13 3d
       -0.06840189 -0.07327913 0.045442067 0.036087
000160 19 71 f1 bd b5 f6 38 3d 25 bf 9b 3d 28 11 5c 3d
       -0.1178915 0.045157153 0.07604817 0.0537273
000170 75 8e 07 be e8 c9 f1 3d 12 2f 77 bb 91 0b f5 3d
       -0.13237937 0.11806089 -0.0037717265 0.11965097
000180 5e b8 8b 3d 11 4d ae 3d 8d 07 e2 bd 1a 7b be bd
       0.068222746 0.08510793 -0.110365964 -0.093008235
000190 1d 8c 58 3d 0f 8a 83 bd 2a e5 c2 bd 9f e2 9f 3d
       0.052867997 -0.06422817 -0.09516366 0.078068964
0001a0 a4 11 01 bc 65 c7 0b be af 54 6c 3d c3 2d bb 3c
       -0.007877741 -0.13650282 0.057697948 0.02284897
0001b0 d2 e2 26 bd f0 63 a5 3d 4f db 8b bd 0b 63 89 3d
       -0.040743656 0.08075702 -0.06828939 0.06708344
0001c0 c7 15 50 bd 93 70 0d 3d b9 ae 3f 3d fa ba f3 bb
       -0.05080202 0.034531187 0.046797488 -0.007438061
0001d0 4a 96 dd 3d a6 29 9b 3d c7 61 04 bd 7b eb ba 3d
       0.10819681 0.07576303 -0.03231981 0.091269456
0001e0 d1 29 ad 3d 58 f2 90 3d 2b d0 b9 bd f9 26 2d 3d
       0.084552415 0.070774734 -0.09072908 0.042273495
0001f0 f7 54 2f bd e6 df 3a 3d 06 91 98 3c 40 ad e3 3c
       -0.04280564 0.045623682 0.01862384 0.027792573
000200 dd f2 de bd b7 d3 3f bd 35 c1 88 bd d0 af 94 3d
       -0.10886166 -0.046832766 -0.06677476 0.07260096
000210 90 0f d2 bd 4a 51 a2 bd c6 4b c1 3d 2f 94 e9 3d
       -0.102568746 -0.07925661 0.09438281 0.11405217
000220 38 fa b6 bd bc 76 c5 3d a4 58 1e 3c 5e 05 f7 bd
       -0.08934444 0.096417874 0.009664688 -0.120615706
000230 20 36 eb bd 05 a6 9e 3d e3 1b e8 bd 4a 2a 6a 3d
       -0.11484933 0.077465095 -0.11333444 0.057169236
000240 72 81 00 3d e1 a6 9d 3c 7e 0d e2 bd 6c 20 87 bd
       0.03137345 0.019244613 -0.1103773 -0.06597981
000250 20 a1 87 3d 65 78 aa bc b5 b4 de 3d f1 b5 e5 bc
       0.06622529 -0.020809362 0.10874311 -0.028040858
000260 53 47 ae 3d ad 5d 51 3d e0 da 8c bc ca e8 71 bc
       0.08509698 0.051114727 -0.017194211 -0.014764974
000270 a4 3d 5d 3d 63 bb 6e 3d b5 62 c3 3d 95 09 86 3d
       0.054013863 0.058284175 0.09540311 0.065447964
000280 be 1c 9f bd ba 9b 97 bd a9 f5 a1 3d 73 71 03 be
       -0.07769154 -0.07402749 0.07908184 -0.12836246
000290 47 d9 8f bd 4b 6d b0 3d 10 18 00 be 54 02 f6 3c
       -0.07023864 0.08614596 -0.12509179 0.030030407
0002a0 b1 02 b4 bd dc f0 b3 ba 8c 0c 54 3d 26 65 af 3d
       -0.08789576 -0.0013728398 0.051769778 0.085642144
0002b0 6c 4f 9a bd 2b 4a fd bd ba 89 63 bd cd 5a e5 bc
       -0.0753468 -0.12367662 -0.05555127 -0.027997399
0002c0 99 64 08 be 77 cf eb bd 61 c4 89 3d 5e 8b 9f 3d
       -0.13319625 -0.1151418 0.067269094 0.07790254
0002d0 3e 37 a9 bd 1a a4 d1 3d e6 6f 02 bd 49 14 81 bd
       -0.0826249 0.10236378 -0.031844996 -0.06302697
0002e0 52 ed be 3d d1 65 60 3c 0d 57 b5 bd fe f1 b5 bd
       0.09322609 0.01369615 -0.08854494 -0.08884047
0002f0 d0 d1 0f 3d e1 e5 ef 3d 19 c6 ca bd b0 22 17 3d
       0.035112202 0.11713768 -0.099010654 0.036898315
000300 19 bb 71 bd 65 79 e4 bd 9a 95 04 bc 26 9d cb bd
       -0.05901632 -0.11155967 -0.008092308 -0.09942083
000310 3e d5 e2 3d c2 5b ad bd 4b 96 84 3d 0b 7a bf 3c
       0.11075829 -0.08464767 0.064739786 0.023373624
000320 40 a2 7e bd 1b 51 66 3d 64 7a a1 bd 0c 5d dd 3d
       -0.062166452 0.056229692 -0.07884672 0.10808763
000330 4f 4b e5 3d 8c 50 01 bd db 0e d1 bd 46 e4 fb bc
       0.111960046 -0.031570956 -0.102079116 -0.030748498
000340 59 44 df 3d 17 59 ee 3c d5 19 50 bd 92 95 df bd
       0.10901708 0.029095216 -0.050805885 -0.109172
000350 65 59 6a bd 46 52 65 3c a1 cc 0a 3d 86 91 32 3d
       -0.05721416 0.013996666 0.033886556 0.043595813
000360 f5 5b 20 3d b1 f9 c6 bd bd 18 05 3d 38 6d 00 be
       0.039150197 -0.097155936 0.032494295 -0.12541664
000370 8a 21 da 3c 6a 56 54 3d 50 55 11 3d fd af e7 bd
       0.02662732 0.051840223 0.03548175 -0.11312864
000380 02 4e ac 3d 91 67 87 3d 4d 10 be bd d8 b5 2e 3d
       0.08413316 0.066115506 -0.09280453 0.04265389
000390 73 bc e9 3c 0d d8 a2 bd 66 7a f9 bd f8 1c d9 3c
       0.028532242 -0.07951365 -0.12181549 0.026503071
0003a0 1a a5 02 be 42 16 25 3c 5c 2f de bd fa fd 2f bd
       -0.12758294 0.010076107 -0.10848877 -0.04296682
0003b0 e7 f5 03 3d 1d 44 0d bd 83 08 fd bd c0 af 3f bc
       0.032216933 -0.034488786 -0.12355139 -0.011699617
0003c0 e6 6c 88 3d b3 74 df bd 4d ac 48 3d db 41 e8 bd
       0.06661396 -0.109109305 0.048992444 -0.11340686
0003d0 01 a5 dd 3c a1 bb 41 bd 15 65 7e 3b b2 3a 13 3c
       0.027056219 -0.047298077 0.0038817574 0.008986162
0003e0 2c b9 41 bd 01 00 94 3c 5a 3d 88 3d 4a 50 d7 bd
       -0.047295734 0.018066408 0.06652327 -0.10513361
0003f0 b7 cb bc bd 49 19 39 bc 8c 3b a7 bd 12 1e c9 3b
       -0.09218543 -0.011297532 -0.081656545 0.006137618

encoder.layers.1.nn.net.0.bias f4 [64]
000000 8d e6 82 3d 31 9e 77 3d 1f e9 47 3b c7 c0 de 3d
       0.0639163 0.060453597 0.0030503941 0.10876613
000010 34 6f ea bd 75 7f 0b 3e 84 88 c6 bd 36 9c 88 bc
       -0.114469916 0.1362284 -0.09694007 -0.01667605
000020 c4 46 77 3d 31 ae db 3d 0e 54 07 3d e7 4b 47 3b
       0.06037022 0.10726584 0.033039145 0.0030410232
000030 31 b2 da 3d b3 ec 5c 3d a6 86 a5 3d 57 57 a5 bd
       0.106785186 0.05393667 0.08082323 -0.080732994
000040 72 dc e5 3c e6 c7 f8 3d 1f 75 81 bd 48 6c fb 3c
       0.028059218 0.121475026 -0.06321167 0.030691281
000050 97 1d d7 3d 87 97 6c 3d c3 f1 a7 bd a8 16 b3 bd
       0.10503691 0.057761695 -0.08200409 -0.08744556
000060 fd 40 37 3d 14 5e 9e 3d 20 6c 44 bc d5 24 95 3d
       0.044739712 0.07732788 -0.01198867 0.07282416
000070 c8 f5 73 3d 99 b3 e4 3d 0e a3 c2 bd 18 7d d3 3d
       0.059560567 0.11167068 -0.095037565 0.10326594
000080 8e 1b 4d bb fe d3 fc 3d 85 5a c3 3d a1 58 b9 bd
       -0.0031296941 0.12345122 0.095387496 -0.09050108
000090 58 b0 a3 bc b5 09 2c 3d 4d 61 14 3d c0 09 e8 bd
       -0.019981548 0.042001445 0.036225606 -0.11329985
0000a0 1f 9f a0 3d 1e 46 04 3e cc ed 6a 3d ce bf cf bd
       0.0784285 0.12917373 0.057355687 -0.10144006
0000b0 a3 e4 07 bd 3b a1 35 bc 64 94 95 bd c4 7e 93 3d
       -0.03317703 -0.011085804 -0.07303694 0.07201913
0000c0 43 29 05 bd 2c 48 a4 bb 54 b8 40 bd ef 37 bd bd
       -0.032510053 -0.0050134864 -0.04705079 -0.09239184
0000d0 46 41 43 bd e5 64 d4 bd 5f 0a c4 bd ae 5a a6 3d
       -0.04766967 -0.103708066 -0.09572291 0.081227645
0000e0 89 ca c1 3d 41 c3 cf bc 4e 0d c3 bd 18 a1 8a 3c
       0.09462459 -0.025361659 -0.09524022 0.016922519
0000f0 dc 5a 5e bd 1c ec 43 bd cf d1 bf 3d dd b7 ba bd
       -0.05428587 -0.047832593 0.0936619 -0.091171004

encoder.layers.1.nn.net.2.weight f4 [64, 64]
000000 51 3a 8f 3d ca f5 22 bc 1a 16 2b bc ab 13 bf 3c
       0.06993545 -0.009946296 -0.010442281 0.023324808
000010 87 7e 29 bd 2a a5 fb bc a1 76 3d b9 ef 82 8d 3d
       -0.04138043 -0.030718405 -0.00018068637 0.06909739
000020 8f 78 95 bd db 16 6e bd 14 20 79 3d 9f a9 b1 3d
       -0.07298385 -0.058127265 0.060821608 0.08674931
000030 10 3c 9f bd e9 87 b9 bd 10 66 16 bd 0f 4e 9e bd
       -0.07775128 -0.09059126 -0.036718428 -0.07729732
000040 97 9d 8d 3d a9 15 44 3b 5b dc 0b 3d 1d 8c d1 3d
       0.069148235 0.0029920137 0.034145694 0.102318026
000050 8d 7c 0e 3d 85 4c 94 bd 14 2a f4 bd 08 6b dc 3c
       0.03478675 -0.072411574 -0.11922088 0.026906505
000060 db f9 9c bd 42 d7 91 bd 5e 3a e9 3d 0e 71 42 3d
       -0.07664844 -0.07121135 0.11388086 0.0474711
000070 5a e8 cf 3d 35 ce 99 bd a1 45 56 bd 8d ea aa bd
       0.101517394 -0.07510034 -0.052312497 -0.08345518
000080 0a ef 75 bd b5 37 9c bd ef 3a 0b 3d 5c bf c1 bd
       -0.06004242 -0.07627813 0.03399175 -0.09460327
000090 42 97 bb 3b 68 41 81 3d 0c a1 a0 bd 90 b5 91 3d
       0.0057248184 0.063113034 -0.07843217 0.071147084
0000a0 3b d3 99 3d b1 3c fd bd 75 4e 97 bd 0f 97 b1 3d
       0.07510992 -0.123650916 -0.07388011 0.0867139
0000b0 bf d9 ac bd 97 83 c5 bc 71 2f 4b bd 27 56 95 3d
       -0.08439969 -0.024110598 -0.04960579 0.07291823
0000c0 16 d6 b9 3c c4 a7 9c 3c 02 87 b0 3d 79 d7 b0 3d
       0.022685092 0.019122966 0.08619501 0.08634848
0000d0 90 13 e1 bd 04 62 52 bb d9 b9 0d bc 81 fe 84 3d
       -0.109900594 -0.003210188 -0.008650267 0.06493855
0000e0 01 a4 78 3d 56 c9 aa 3d 2a ca f5 3d 70 9a cd bd
       0.06070328 0.08339183 0.1200145 -0.10039222
0000f0 b1 f8 3c bd 8b 44 4d bd 0e 77 c3 bd 6b 60 9d bd
       -0.046135608 -0.050114196 -0.09544192 -0.07684406
000100 df 51 ef bd 78 d4 a4 3d 44 25 b4 3b bd 5e a3 3d
       -0.116855375 0.08048338 0.0054976065 0.07977054
000110 b9 a0 ec bc 65 a2 d0 bb 21 30 83 3d 2f 9e 16 bd
       -0.028885232 -0.006367015 0.06405664 -0.03677195
000120 0a d0 b9 3d 2c 14 82 3c 61 c6 c9 bd 66 00 81 3d
       0.090728834 0.01587876 -0.09852291 0.06298904
000130 d6 1f 58 bd b3 a8 aa 3d 56 dc be bc 94 42 81 3d
       -0.052764736 0.08332958 -0.023298424 0.06311527
000140 0e 6f 3c 3d fe 5c e1 3d 8b b8 b1 bd b6 41 f5 bc
       0.046004348 0.11004065 -0.08677777 -0.02993856
000150 a4 85 e2 3d 3a c5 79 3d f0 7d 06 be e0 76 91 bb
       0.11060646 0.060979106 -0.13133979 -0.00443922
000160 8f fa dc 3c 55 73 77 bd 42 d5 29 ba 3f d2 e3 3d
       0.026974944 -0.060412724 -0.0006478616 0.11124086
000170 c3 d8 0f be 1a 87 a9 3d 89 24 84 3d 4b 89 fd bd
       -0.14047532 0.08277722 0.06452281 -0.12379702
000180 28 92 b2 3d ec 34 33 bd 50 b3 42 bd 0d 2c f7 bd
       0.08719283 -0.043751642 -0.047534287 -0.12068949
000190 df f7 83 bd 2f 67 88 3d 27 c7 87 bd 79 77 be bb
       -0.06443762 0.06660306 -0.06629782 -0.005812582
0001a0 07 59 1c bd b2 14 a8 bd bc f4 81 bd 64 6c 25 3d
       -0.03817084 -0.08207072 -0.063455075 0.040386572
0001b0 8d e9 d1 bd 61 60 12 bd 72 ae e8 bd 49 b3 44 bc
       -0.102496244 -0.035736445 -0.11361398 -0.012005636
0001c0 4c 32 a1 bd c2 6a ba bd 48 29 ce 3d 31 09 1b bd
       -0.078709215 -0.09102394 0.100664675 -0.037850562
0001d0 23 e9 f0 bc 7a 59 12 3d 5e eb d7 3d c2 42 58 bd
       -0.029408043 0.035729863 0.105429396 -0.05279804
0001e0 f2 b9 b2 bd 65 36 95 bc a6 9d 84 3d 07 fb 73 bd
       -0.087268725 -0.018214414 0.064753816 -0.05956557
0001f0 e4 a1 79 bc 02 d0 bd bd 42 c1 e8 bd e7 2d ab 3d
       -0.015236352 -0.0926819 -0.11364986 0.083583646
000200 4b 15 cd 3d 95 c6 4d 3d 20 c0 a0 3c 49 75 9e 3d
       0.10013827 0.05023821 0.019622862 0.07737214
000210 a6 00 df 3d ce 26 a3 bd 78 16 42 bd 0f e3 a4 bd
       0.108887956 -0.07966386 -0.04738471 -0.080511205
000220 bb 9a 3c 3d ca 52 7f 3d 52 be 22 3d 52 1e 87 3d
       0.046046 0.062334813 0.039732285 0.0659758
000230 03 12 a7 bd 2d 52 02 be f3 ef 4f bd 5f fa 36 bc
       -0.08157732 -0.1272666 -0.050765943 -0.011168092
000240 98 77 d7 bd 10 81 aa bd 8c 2a 99 3c 83 aa 4c 3d
       -0.105208576 -0.08325398 0.018697046 0.0499673
000250 a9 b5 e2 bd 68 09 8b 3d 58 56 84 bd e8 67 09 3d
       -0.11069805 0.067889035 -0.06461781 0.03354636
000260 bf 11 01 be 97 02 de bd be 0d 7a bd c7 a4 2b bd
       -0.12604426 -0.10840338 -0.06104826 -0.04190519
000270 51 15 b5 bd 72 56 be 3d 30 d0 44 bd 1c 65 3b 3d
       -0.088419564 0.09293832 -0.048050106 0.045750722
000280 b9 97 de 3b 74 c8 0d 3d ca 55 30 3d 7b 65 ed bd
       0.006792989 0.034614995 0.043050565 -0.115916215
000290 46 21 d6 bd 92 77 c6 3d 18 75 d6 bb 5a 83 e2 bd
       -0.10455565 0.09690775 -0.0065447204 -0.110602096
0002a0 27 ba a8 bd 19 2b 41 3d d3 42 5a ba 83 58 b3 bc
       -0.08238631 0.04716024 -0.00083259976 -0.021892792
0002b0 2b c6 ca 3c 1a 16 a0 3d 62 d9 ef 3c 26 10 00 3d
       0.024752697 0.078167155 0.02927846 0.0312654
0002c0 c2 af dc bd 69 34 bb bd 40 23 d1 bc c4 eb 60 bd
       -0.10775711 -0.09140856 -0.025529504 -0.054912344
0002d0 94 da 07 3e 5a 2d d1 bd 04 d9 c0 bc ea 54 c8 3d
       0.13266975 -0.10213728 -0.023540981 0.09781821
0002e0 22 95 95 bc 8f 46 3e bb 30 72 a1 3d ef d6 2c bd
       -0.018259589 -0.0029033755 0.07883108 -0.042197164
0002f0 04 6e 73 bc 94 d3 bc 3d 47 ac f3 3d e0 13 a6 bd
       -0.014857773 0.09220043 0.11898094 -0.081092596
000300 0f 37 a8 3d 78 ec 6b 3d d1 b8 00 3d fb 35 ad bd
       0.082136266 0.05759856 0.031426255 -0.084575616
000310 71 83 e2 3d 29 0f c9 bc 44 b1 af bd 20 f2 c2 bd
       0.11060227 -0.024543362 -0.085787326 -0.09518838
000320 35 f7 3d 3d 75 e4 d9 3c 0c ca b2 bd 57 3b 9e bd
       0.046378333 0.026598195 -0.08729944 -0.07726162
000330 f9 bc 91 bc a3 d5 c2 bd f6 89 f5 3d 37 4e dc bd
       -0.017790304 -0.09513404 0.119892046 -0.10757106
000340 5e fe 0a 3d 5e 53 bd 3d ec d9 d5 3c 1e 24 aa bc
       0.03393399 0.09244417 0.02610489 -0.020769175
000350 97 69 d6 3d 26 f6 ec 3d 46 e6 98 3d 34 eb 68 bd
       0.104693584 0.115703866 0.07465796 -0.056864932
000360 a4 bc 0b bd 94 17 54 3d 81 43 75 bd 9f b0 fd bd
       -0.03411545 0.0517803 -0.05987883 -0.123872034
000370 a2 f2 e4 3d 6a 1d ff bb a0 fe 7c 3d 00 cf ef 3d
       0.11179091 -0.007785489 0.061766267 0.11709404
000380 36 45 c1 bb 37 0b 82 3d 9c 9a bc bd 56 43 ca bd
       -0.005898143 0.06349795 -0.09209177 -0.098761246
000390 e3 89 ab 3d 84 73 a8 3d 02 15 c9 bd 52 f9 60 3c
       0.08375909 0.08225158 -0.0981846 0.013731318
0003a0 2f ce 9e bc 62 c1 1b 3c 82 21 db 3b d9 72 af bc
       -0.019385425 0.009506555 0.006687344 -0.021417068
0003b0 c3 0f bf 3a 61 0f 10 bc 0c ea f3 3d c3 5d da bd
       0.0014576841 -0.008792729 0.11909875 -0.10662415
0003c0 d9 75 4c 3d ae 05 e1 3c 74 4a 50 3d e9 be f1 3d
       0.049917076 0.027468529 0.050852254 0.11803991
0003d0 63 79 bc b9 0b ca cf bd 8e ac 08 bc a1 96 43 3d
       -0.00035948594 -0.101459585 -0.0083419215 0.047751073
0003e0 94 db be 3d 04 70 a3 bc d0 c7 ac 3c 43 d8 e9 bc
       0.09319225 -0.019950874 0.021091372 -0.028545504
0003f0 84 24 d1 bd 37 3f f2 3d 13 a5 e0 bd 0b aa b2 3d
       -0.10212043 0.118284635 -0.109689854 0.08723839

encoder.layers.1.nn.net.2.bias f4 [64]
000000 4c 9e b4 bc 9f c4 be bd f7 1f 2a 3c 87 71 17 bd
       -0.022048138 -0.09314846 0.010383598 -0.036973502
000010 f6 b3 1c bc 81 68 45 3d a2 f3 f8 bd 91 f1 77 3d
       -0.00956439 0.048195366 -0.12155844 0.06053311
000020 5e 66 cf 3d ca e5 e8 3c 79 dc b3 3c c2 81 59 bd
       0.10126947 0.028429884 0.021955715 -0.053102262
000030 0a 50 cb 3d 06 a2 41 ba c5 50 7f 3c 25 be f2 bd
       0.099273756 -0.0007386509 0.015583222 -0.118526734
000040 5a 00 fe bb 90 78 6d bd 6d 6e cd 3c a2 28 84 3d
       -0.0077515068 -0.057976305 0.02507707 0.064530626
000050 f4 27 40 3d d3 ae b9 ba 8f ca 8b 3d ab 48 1e bb
       0.046913102 -0.0014166482 0.06825744 -0.00241522
000060 1c 9c c3 3d c4 e9 1c bd f1 bb da bc 5c 11 6c bc
       0.0955126 -0.038308874 -0.026700946 -0.014408436
000070 6a bf fe 3c 67 2e a8 bd b2 cc f2 bc 4e 39 d5 3d
       0.031097133 -0.082119755 -0.029638622 0.104113206
000080 b5 69 8c bd 8e 0f c9 bb d2 1b bf 3d 37 77 ea 3d
       -0.068560995 -0.0061358875 0.09331478 0.1144852
000090 39 b9 ee bd 2e 8d e3 3d f9 0d e8 3d ba 57 89 3d
       -0.11656422 0.11110912 0.1133079 0.06706186
0000a0 75 b6 a0 bd ec d2 dd bd 57 3d e3 bb 1c 09 3d bc
       -0.07847301 -0.10831246 -0.0069348025 -0.011537816
0000b0 07 15 90 bd b4 70 c0 3d 0e d2 b2 bc 88 85 b3 3d
       -0.07035261 0.093964964 -0.021828678 0.087657034
0000c0 de 8d a4 bd 76 b7 b3 3d c6 13 83 bc 1d 26 b1 3d
       -0.080348715 0.08775227 -0.01600064 0.08649848
0000d0 a7 6c f0 3c cd 4c 5d 3c 79 10 e9 bd 0c 9a c7 3d
       0.029348684 0.01350708 -0.11380095 0.09746179
0000e0 53 b4 e5 3d 4e 83 e4 3d 83 fe 4c 3d cb c1 9d 3d
       0.11216035 0.11157857 0.05004741 0.07702979
0000f0 df 16 76 bc 48 bf ad bd 9c e1 84 bd 01 d9 a9 3d
       -0.015020101 -0.0848375 -0.06488344 0.08293343

encoder.layers.2.nn.net.0.weight f4 [64, 64]
000000 85 c5 94 bd d7 d5 98 bd 9b 6e 8e 3d 47 5b fa bc
       -0.07264236 -0.07462662 0.0695469 -0.030561103
000010 e1 86 53 bd 7d 90 73 3d 4e 94 51 bd 73 c9 4c 3d
       -0.051642302 0.059463967 -0.051166825 0.049996804
000020 0a 06 c2 bd f0 7c ca 3d 11 a9 0e 3d b4 d0 d8 3d
       -0.09473808 0.09887111 0.034829203 0.10586682
000030 07 33 8a 3d 4e 58 00 3e 52 7c 6d 3d ce fa c7 3d
       0.06748014 0.12533686 0.05797989 0.09764634
000040 d6 25 0a bd d7 42 cd 3d 7e b3 14 bc 00 65 dd 3d
       -0.03372749 0.10022514 -0.009075997 0.1081028
000050 a9 2e cb bd f5 82 d9 3d 01 85 e5 3d 3d 9b 5a 3d
       -0.09921009 0.10620681 0.11207009 0.053370703
000060 83 79 4f bc 75 94 3e bd 05 eb b6 bd 08 ed ca bd
       -0.012663248 -0.0465283 -0.08931545 -0.099084914
000070 87 fa 93 3d 79 60 9a bc b3 97 55 bc 82 e2 b3 bd
       0.07225519 -0.01884483 -0.013036656 -0.08783437
000080 04 b1 68 bd 50 02 b7 bd 2e 7e f0 bd 69 9b ab bd
       -0.05680944 -0.08935988 -0.11742817 -0.083792515
000090 59 36 f0 3d a1 b6 72 bd 73 fe 4f 3d 39 7e f5 3d
       0.11729116 -0.0592562 0.05077977 0.11986966
0000a0 1e ab 1d 3d a2 3f c7 3c db 8d a9 bd b4 f5 ab 3d
       0.03849327 0.024322335 -0.0827901 0.083964735
0000b0 f3 e4 9a bc f5 cf 6d bd 24 94 34 3d d9 5a b5 3d
       -0.018908 -0.05805965 0.04408659 0.088552184
0000c0 57 5f c1 3d 11 dc a7 3b bf 0c b7 3d 20 1e 12 3d
       0.09442013 0.0051226695 0.08937978 0.03567326
0000d0 76 19 e0 bd 4f 48 db bc af 67 88 3c cb 55 03 bd
       -0.10942356 -0.026767878 0.016651003 -0.03206424
0000e0 c8 e5 1f bc c9 60 f3 bd d9 64 b5 bd e6 cb 3b bd
       -0.009759374 -0.11883695 -0.08857126 -0.04584875
0000f0 0f b3 c3 3c 8c d4 b5 bb 4f 06 b2 3d 79 06 ef 3d
       0.023889093 -0.005549019 0.086926095 0.116711564
000100 ca 27 f0 3c f2 73 4e 3d 01 c3 38 bc bb 1f e8 bd
       0.029315848 0.050403543 -0.011276961 -0.11334177
000110 bb d4 5a 3d cd 43 a2 3d 9b f7 a3 bd a9 b4 14 3d
       0.05342553 0.07923088 -0.08006211 0.036305103
000120 61 bd 34 3d 4c fe 9e 3d 71 7e bf 3d dd 93 d4 bd
       0.04412592 0.07763347 0.09350289 -0.10379765
000130 d3 72 fc 3d 8c 76 e7 3d d8 6f 96 3c 56 28 cf bd
       0.123265885 0.11301908 0.018363878 -0.10115115
000140 30 98 b5 3d c2 ee b1 3d 0b e1 93 3d cb 2c fc 3c
       0.08866918 0.086881176 0.07220658 0.030783078
000150 10 d6 a0 3d 23 ea 84 bc 22 4d d2 3d 52 5d 08 3d
       0.07853329 -0.016224926 0.10268618 0.033292122
000160 a5 d6 9e bd ef 74 8e 3d 72 a8 8a 3d 81 0e 64 bd
       -0.07755784 0.06955897 0.0677041 -0.055677895
000170 fb db aa bd 01 0d d5 bd e5 7a 37 bd a4 19 05 3d
       -0.08342739 -0.10402871 -0.044794936 0.032495156
000180 46 f7 b6 3d 2b 6e 0a 3e 76 5a e7 3d 76 76 c9 bc
       0.089338824 0.13518588 0.11296551 -0.02459262
000190 07 d2 f6 bd 4c 40 bb bd 5a 96 a2 bd 24 19 82 3d
       -0.12051778 -0.09143123 -0.079388335 0.063524514
0001a0 c9 95 bd 3c b5 0a 07 3d 03 d1 08 bd 5f 58 bd bd
       0.023142712 0.032969195 -0.033402454 -0.09245371
0001b0 c6 93 4a 3d 51 62 06 3d 57 c6 99 bd f4 33 c8 3d
       0.049457334 0.032808606 -0.075085334 0.09775534
0001c0 a6 5e 4a 3d 40 2d f3 3d 1f 20 12 3e 60 dd d5 bd
       0.04940667 0.11873865 0.14270066 -0.104426146
0001d0 55 86 5b 3d 8d 1c 93 bd 17 11 dd bd 00 47 f5 bd
       0.053594906 -0.0718318 -0.10794275 -0.11976433
0001e0 e6 81 91 3d 73 43 c5 bd 57 ee 81 bd ca c4 97 bc
       0.07104854 -0.096320055 -0.06344288 -0.018526454
0001f0 33 6a bf bd e5 94 f6 bd e2 7c d2 3d 70 e4 c6 3d
       -0.09346428 -0.12040118 0.10277726 0.0971154
000200 c2 8e e5 3d 5f 13 0f bd fc b4 03 bd 1e 0e 58 bd
       0.112088695 -0.034930583 -0.032155022 -0.05274784
000210 1c 9b c2 bd a9 35 df 3b 48 a2 ab 3d ec 01 e4 3c
       -0.09502241 0.0068118167 0.08380562 0.027832948
000220 30 3f b7 3d 1c 29 39 bd 4c ba a6 3d ed e6 d6 3d
       0.08947599 -0.04520522 0.08141002 0.10493264
000230 3b 6f 19 3e f7 da ca 3c 28 39 32 3d 34 58 bd 3c
       0.14983837 0.024762614 0.04351154 0.023113348
000240 7a 24 ba 3d 52 94 d6 bd a7 2f f0 bd 96 53 ed bd
       0.090889886 -0.104775086 -0.11727839 -0.115882084
000250 39 1f c0 bd da 49 c6 3d 34 91 d0 bc 80 08 18 bd
       -0.09380955 0.09682055 -0.025459863 -0.03711748
000260 6c f5 5c bd 04 bc f5 bb 9e 37 03 be 42 e8 08 be
       -0.05394499 -0.00749922 -0.12814185 -0.1336985
000270 6f 7c c4 3d 13 f0 39 3c 59 a3 df 3d 14 1b a0 3d
       0.09594046 0.011348742 0.10919828 0.07817665
000280 94 cc 8d bd 6d 69 39 3d b7 7e 9b bd db 7d 16 3c
       -0.06923786 0.045266557 -0.07592528 0.00918528
000290 bb 32 f1 3d b5 33 c8 bc 8e 35 eb 3d 0e 5c 89 3d
       0.11777254 -0.024438718 0.11484824 0.06707011
0002a0 2b b2 3a bd 34 3c 13 3d 5b 00 74 3d 25 6c 00 be
       -0.04558007 0.035946086 0.05957065 -0.12541254
0002b0 75 da 00 3e 7b d6 60 3d 1b c0 df 3d aa ba bf 3d
       0.12583335 0.054892045 0.10925313 0.09361775
0002c0 e7 36 69 bd 90 98 7b bd 81 ea c4 bd d5 75 49 bd
       -0.056937125 -0.06142479 -0.096150406 -0.04918464
0002d0 4d d3 8c bd 98 e1 56 bd de bc 13 bd 80 bb c9 bd
       -0.0687624 -0.052461237 -0.03606879 -0.09850216
0002e0 ea 04 ae bd f7 0c 79 3d 40 00 4e 3c d1 69 e3 3d
       -0.08497031 0.06080338 0.012573302 0.11104167
0002f0 5d 2e 98 3c 90 e4 77 3d 7e 8c c5 bd 0b aa 19 bd
       0.018576795 0.06052071 -0.096459374 -0.03751568
000300 f5 12 de 3d 55 9e ed bd 8d 45 b4 bd 2e 4c 1f bb
       0.108434595 -0.11602465 -0.08802328 -0.0024306881
000310 ab d2 9a bd 32 dc 9e bd 82 c7 29 3d 0d 3f 97 bd
       -0.07559713 -0.07756843 0.04145003 -0.07385073
000320 91 46 b8 bd 8d 9f e1 3d 60 fc c8 bc 25 65 a3 3c
       -0.089978345 0.1101676 -0.024534404 0.01994569
000330 21 8f 0b bd ac e1 eb 3d 98 60 a9 3c b0 e9 f1 bd
       -0.034072045 0.11517653 0.020675942 -0.118121505
000340 2c 6d 56 3d e5 3d 5b bd 22 2b 25 3d 1e 83 a8 3d
       0.05235021 -0.053525824 0.040324338 0.082281336
000350 55 29 e7 3d e4 a2 2a 3d 75 83 bf bd 0a 40 eb 3c
       0.1128718 0.04165925 -0.09351245 0.02871706
000360 95 1b 86 bd f6 7c bd bd 27 69 1c 3d 16 92 9b 39
       -0.065482296 -0.0925235 0.03818622 0.00029672746
000370 6e 7f f5 3d a4 f3 66 3d d3 3e bc 3c d7 64 77 bd
       0.11987196 0.056384698 0.022979176 -0.060398903
000380 8b 11 e6 3d 44 20 b1 3c c1 ae 4f 3d 41 a7 63 3c
       0.11233815 0.02162183 0.050703768 0.013894857
000390 90 90 f4 bd 12 bd d3 bd 2b 08 aa bd b8 15 34 bc
       -0.119416356 -0.10338797 -0.08302339 -0.010991506
0003a0 8b ff 85 bd 99 9b c7 3c f8 32 c3 bd ad 70 80 3c
       -0.065428816 0.024366187 -0.09531206 0.015678728
0003b0 d9 cc 96 bd 4f fa 26 3d e6 52 0a 3d 84 d3 ac bd
       -0.0736329 0.040766057 0.033770464 -0.08438781
0003c0 56 c4 f2 3d a2 44 ca bd 02 fd c2 bd 58 b9 da bd
       0.11853854 -0.09876372 -0.09520914 -0.10679883
0003d0 76 31 a8 3d a2 52 41 3c 5a 2e e7 3d f7 1a 8b bc
       0.08212559 0.011799486 0.11288138 -0.016980631
0003e0 33 a7 da bd be fb 15 3d 29 08 f1 3d c5 56 93 bd
       -0.10676422 0.036617033 0.117691346 -0.07194284
0003f0 b3 aa d3 3d af 3d 21 3d 4e f9 c7 bd e9 db ff 3d
       0.10335293 0.039365467 -0.09764348 0.124931164

encoder.layers.2.nn.net.0.bias f4 [64]
000000 5c 3e 23 bd 10 7d ba bd fd 98 dd 3d 3a f3 6e bd
       -0.039854392 -0.09105885 0.10820196 -0.058337428
000010 f0 87 8a 3c ae 2a 97 3d de 9c 9a 3d d2 9f ee bd
       0.016910523 0.073811874 0.07549451 -0.11651577
000020 df bf e5 bd 1d fb f6 bc 3f b7 cf 3d a4 d0 bd bd
       -0.11218237 -0.030149037 0.10142373 -0.09268311
000030 3d 90 53 3d be 07 3f bd cc e1 ae bd d0 f7 78 bd
       0.05165123 -0.046638243 -0.08539161 -0.060783207
000040 0a 62 aa bd e0 94 51 bd 81 01 d7 bd 76 12 ed 3d
       -0.08319481 -0.05116737 -0.10498334 0.11575787
000050 ac ce 88 bd 12 a2 ed 3c 1b 9f de bc d3 49 c3 3d
       -0.066800445 0.029007945 -0.027175477 0.09535565
000060 da 97 18 3d b9 f6 86 3c 4b 15 f6 bd 5a ac 57 3d
       0.037254192 0.016475068 -0.1201578 0.0526546
000070 22 8d 2c 3d f6 58 b5 3d ef 11 a7 3d 49 09 84 bd
       0.042126782 0.088548586 0.081577174 -0.064470835
000080 9f cc 94 bd d4 8f 3e bc f8 22 b9 bd 38 3e ff bd
       -0.07265591 -0.011630971 -0.09039873 -0.12463039
000090 ba 68 43 bd 27 a6 68 bd 6a 00 80 3d b1 15 a5 bd
       -0.047707297 -0.05679908 0.06250079 -0.08060778
0000a0 e6 eb 6f bd bf 02 7d bc 27 37 ca bd b4 17 37 3d
       -0.05857458 -0.015442549 -0.09873801 0.04470034
0000b0 5e d8 ba bc 1a e6 dc 3d b5 fd d0 3d 96 e4 c7 bd
       -0.02280825 0.10786076 0.10204641 -0.09760396
0000c0 7a 8b e3 3d 57 84 7f bd 6a f1 c1 bc 06 ce 85 bd
       0.111105874 -0.06238207 -0.023674686 -0.065334365
0000d0 2a 91 00 3d bd 17 ac bd 93 42 84 bd e4 13 9c 3d
       0.03138844 -0.08402965 -0.064580105 0.07620981
0000e0 9b dc 7e bd 8c 9e 56 3c c8 a0 b5 3c e8 ec cd 3d
       -0.062222105 0.013099324 0.022171393 0.10054952
0000f0 ee 78 a4 bd fe b6 9c bd 9b cb 00 be 74 8d bd 3d
       -0.08030878 -0.076520905 -0.1257767 0.09255496

encoder.layers.2.nn.net.2.weight f4 [64, 64]
000000 02 5e 80 bd 50 0f c6 bd 44 37 54 bd a0 29 4a 3d
       -0.062679306 -0.096708894 -0.051810518 0.049356103
000010 e9 b5 d5 bd 8a c3 9e 3d 57 64 2f 3d 3a 82 b2 3d
       -0.10435087 0.0775214 0.0428203 0.08716245
000020 66 4e 22 bd 07 8e 33 bd 63 5e db 3d cf 1e 8c 3c
       -0.039625548 -0.04383662 0.10711362 0.017104534
000030 12 90 84 bb fb 8b e8 3d 47 57 b3 bd b9 fe ab 3d
       -0.004045495 0.11354824 -0.08756881 0.08398194
000040 2c b0 9a bd 9d bc 83 bc ee 30 4f 3d 29 7b 00 3c
       -0.07553133 -0.016081149 0.050583772 0.007841864
000050 b1 a4 98 bd fe f6 82 bc 01 d4 08 3d 0e d7 f0 3d
       -0.074532874 -0.015986916 0.033405308 0.117597684
000060 9f 4a e7 3c 1c 4a 86 bd 14 70 92 3d 5b 34 87 bc
       0.028233824 -0.06557104 0.071502835 -0.016504457
000070 12 76 0d 3c 9e fc bb bd 8f 51 01 3e 63 f8 b5 3a
       0.008634107 -0.09179042 0.12628768 0.0013883229
000080 06 ea 5c 3d d1 c4 ce 3d cb 58 ab bd 6d 46 6d 3b
       0.05393412 0.100961335 -0.08366545 0.0036205307
000090 17 71 b6 bd 86 be 01 3e e4 48 af 3d cf 86 3d bd
       -0.08908289 0.12670335 0.08558825 -0.04627114
0000a0 d4 27 ed bd d6 f8 b8 3c db 94 36 bd 28 84 bf bd
       -0.11579862 0.022579592 -0.044575553 -0.09351379
0000b0 a1 b5 45 3d 26 d8 71 bb b6 75 8b bd eb ff 94 3c
       0.048268918 -0.0036902516 -0.06809561 0.018188437
0000c0 42 5e ed bc 50 00 71 bd b6 57 9d bd 77 38 e4 3d
       -0.02897561 -0.05883819 -0.07682745 0.11143582
0000d0 bd 01 fc bc ae 24 a0 bc e7 54 e0 bd 30 c4 eb bc
       -0.030762548 -0.01954874 -0.10953694 -0.028780073
0000e0 b4 e1 f2 3d 6c 58 fd bc 57 d2 8a bd 53 0a db bd
       0.11859456 -0.030925952 -0.067784004 -0.106953286
0000f0 70 19 76 3c 85 03 8e 3d bd 5c 2a bd 21 ed 98 bd
       0.015020713 0.06934265 -0.04159235 -0.07467104
000100 6c 16 b5 3d 6a 3f 94 3d b5 c4 30 3d 2b 96 48 bd
       0.08842167 0.07238658 0.043156344 -0.048971336
000110 72 a5 01 bd d5 eb 9a bd 49 a9 cd 3d ea 6b af ba
       -0.03165192 -0.07564513 0.10042054 -0.0013383601
000120 eb 29 41 3d 18 fd 94 3d 5e 97 14 3d 12 5b b2 bd
       0.047159117 0.07274836 0.036277167 -0.087087765
000130 84 77 13 3d fa 0b 43 bd bb 75 57 3c db 84 f3 3d
       0.03600265 -0.047618844 0.013150628 0.118905745
000140 7e 09 34 bd f7 46 40 3d b2 b6 77 bd f8 c2 b4 3d
       -0.043954365 0.046942677 -0.060476966 0.0882625
000150 87 7a 41 bc 67 81 fd 3d b6 89 9d 3d 87 db f1 3d
       -0.011808998 0.12378197 0.07692282 0.1180945
000160 3e 25 f7 3c 6c 7d 84 bd 2e 13 b4 bd 81 53 e9 3c
       0.030169126 -0.06469235 -0.08792721 0.0284822
000170 32 9b 67 3d a1 49 8b bc b8 0f d8 3d b3 2b 89 bd
       0.05654449 -0.017002882 0.10549873 -0.06697788
000180 04 76 c0 3d 1c c6 14 bd 80 a0 8b bd c0 f0 7d 3d
       0.0939751 -0.036321744 -0.06817722 0.061997175
000190 c8 9d cf bd 05 fb f8 3d f6 68 91 3d 50 e5 55 bd
       -0.10137516 0.12157253 0.07100098 -0.052220643
0001a0 6d 85 7c bd 27 66 dd bc 0e 61 b4 3d 10 20 ff 39
       -0.061650682 -0.02702625 0.08807574 0.0004866128
0001b0 73 90 3b bd 90 cb 64 3d 36 0c ac bc ca 6e d6 3d
       -0.045792054 0.055858195 -0.021001916 0.1047035
0001c0 dc ad 1d bd 27 23 4d bd 2b 05 01 bd 3d b6 47 bc
       -0.038495883 -0.050082352 -0.03149907 -0.012189445
0001d0 b5 8c ce 3d 64 61 8a bd 2e ab 08 bd 6d 83 c3 bd
       0.100854315 -0.06756857 -0.033366375 -0.09546552
0001e0 d3 c9 da 3d 11 e8 ef 3d d0 f6 2f bd de ca db bd
       0.10683026 0.11714185 -0.042959988 -0.10732053
0001f0 9f 8e 62 bd 59 87 9c bd 4c 28 74 3c 53 9c 5c 3d
       -0.055311795 -0.07643003 0.014902186 0.05386002
000200 37 29 f3 bd f9 a5 1c 3c a5 02 6b 3d b5 b1 93 3d
       -0.118730955 0.009561055 0.05737557 0.07211629
000210 7b 33 d7 3d 7d 80 51 3d 89 59 c8 bd e4 7e cb bd
       0.10507866 0.051147927 -0.097827025 -0.09936312
000220 97 bd ec 3d 7d 95 72 bd 48 32 00 bd e2 c4 c7 bd
       0.11559599 -0.059224594 -0.031297952 -0.09754349
000230 37 b3 19 3c 99 92 c1 ba b1 16 cd bc e2 4d af bd
       0.009381107 -0.0014768421 -0.025035234 -0.08559777
000240 03 51 e9 3c 78 4f 10 3d b7 bd cf 3d 1a 7f 81 ba
       0.028481012 0.035232037 0.10143607 -0.0009879798
000250 97 a3 8b bb 6d f7 56 3c 2e a8 c6 3d 40 0b b1 3d
       -0.004261445 0.013120514 0.097000465 0.08644724
000260 32 4f 54 bc 65 03 ea bc 55 1c d5 bd 37 52 7d 3c
       -0.012958335 -0.028566072 -0.104057945 0.015461496
000270 0a 0f 26 ba b1 e8 ae bd a0 17 01 be 8f 84 6a 3d
       -0.00063346385 -0.08540476 -0.12606668 0.057255324
000280 4d 46 43 3c 02 40 4f 3d 7b 43 88 3d 70 91 fe 3a
       0.0119186165 0.050598152 0.06653496 0.0019422006
000290 5b 80 a7 bb 3d 94 17 3d d8 75 b1 3d bb 81 f8 bc
       -0.0051117367 0.037006605 0.08665055 -0.030335298
0002a0 10 f6 0d bd 95 ba 99 bc 88 f3 7e bd d0 b2 03 bd
       -0.03465849 -0.018765727 -0.06224397 -0.03215295
0002b0 e5 a9 a7 bd 3d 81 05 bd 5b 42 27 bd 4f b4 41 bd
       -0.08186702 -0.032593954 -0.040834766 -0.047291096
0002c0 64 04 27 3d 3e 28 3c 3d 8a 37 36 bd 71 67 bf 3d
       0.04077567 0.045936815 -0.04448656 0.09345902
0002d0 6e a8 6f bd 07 7a be bc f7 0f 44 bd c6 9a 89 bd
       -0.058510236 -0.023251547 -0.047866788 -0.06718974
0002e0 a2 b3 7c bd 81 52 d8 3d d3 3a cf 3d a8 fa 88 bc
       -0.06169475 0.10562611 0.10118642 -0.016721085
0002f0 33 ac dc 3d d1 18 4f 3d 0a 0b c8 3c eb c8 cf 3d
       0.10775032 0.050560776 0.024419326 0.10145744
000300 bf 61 4e 3d af 39 74 3c a6 25 a0 bd a2 86 d1 3c
       0.050386187 0.014906331 -0.07819681 0.025576893
000310 80 d1 8e bd 3e 33 01 be 9f 5d df bd 37 fc 7a bd
       -0.06973553 -0.12617204 -0.10906529 -0.061275687
000320 f9 d5 14 3d 2d 9f 84 bd 9d b2 48 bc 4f be 16 bd
       0.036336873 -0.06475673 -0.012249616 -0.036802586
000330 6f 7d 33 3d 9c eb f8 3d c7 98 82 bd c0 35 a5 3d
       0.043820795 0.12154314 -0.06376796 0.080668926
000340 fb ab 30 bd 2e 11 65 bd 65 8f cb 3c 7e eb 4b bd
       -0.043132763 -0.055924587 0.02484865 -0.04978513
000350 18 42 a7 bd 44 46 7d bd b7 53 b6 bc 88 57 a8 bd
       -0.08166903 -0.06183459 -0.022256715 -0.0821982
000360 19 83 ae bd 47 e6 a9 3b 90 01 e8 bd 26 5a 29 bc
       -0.08521099 0.005184922 -0.11328423 -0.0103364345
000370 5b 32 11 3c 9d ed 2d 3d b6 f8 16 3d 10 52 c6 3d
       0.008862103 0.042462934 0.036858283 0.09683621
000380 63 8e 46 bd e1 f0 b6 3d be 23 f2 bd 36 68 9c bd
       -0.048475634 0.08932663 -0.118232235 -0.07637064
000390 fc 3f ad bb 05 b7 31 3d 92 55 99 3d 13 5d da bc
       -0.0052871685 0.04338743 0.07487024 -0.02665571
0003a0 66 20 ff bd 7f bc 5b 3d f6 eb ca 3c b9 8a a0 bb
       -0.124573514 0.05364656 0.024770718 -0.0048993495
0003b0 8a 82 49 3d 48 a2 87 3d cb a9 9d 3d 11 a7 19 bd
       0.049196757 0.066227496 0.07698401 -0.037512843
0003c0 d3 6b b7 3d 17 28 ef 3d f7 26 75 3d 1f d1 5d bd
       0.08956113 0.116775684 0.059851613 -0.05415451
0003d0 0f 2b 09 3d 39 1b 68 3d 39 da 89 bd 3e e7 10 bd
       0.03348833 0.056666587 -0.06731076 -0.03537678
0003e0 03 c3 b4 bd f7 30 ab 3d 54 15 0a 3d d4 e3 e1 bc
       -0.08826258 0.08358949 0.033711746 -0.027574457
0003f0 6e 29 d9 bd 4b 5f f1 3d 64 c7 cd 3c 92 ff f5 3c
       -0.10603605 0.11785754 0.02511949 0.030029092

encoder.layers.2.nn.net.2.bias f4 [64]
000000 13 c3 fd 3d e3 05 d1 bc 4d 53 6e bd 03 4f 99 bd
       0.12390723 -0.025515502 -0.05818491 -0.074857734
000010 66 39 05 bd d5 10 96 bd 8b a4 1c 3d 51 0c 15 bd
       -0.032525443 -0.07327429 0.038242858 -0.0363887
000020 82 c1 d6 3d 0f 43 e3 3d 7d bf dc bd a1 97 ae bc
       0.104861274 0.11096775 -0.10778711 -0.021312537
000030 63 ee 02 3c 61 3f 8b 3d 63 eb 11 3d 4a 3f 0a 3d
       0.007991406 0.06799198 0.035624873 0.033751763
000040 7e b5 c3 3d 94 ca f6 bc 3a 23 a6 bd 39 99 1a 3d
       0.09556101 -0.030125894 -0.08112188 0.03774378
000050 19 90 a0 bd 1c 1d 17 bd 09 c8 ee bd 94 57 6e bd
       -0.078399844 -0.036892995 -0.116592474 -0.05818899
000060 97 2f ad 3d 58 08 a3 3d 13 54 51 bd 54 b1 f9 3d
       0.08456343 0.07960576 -0.05110557 0.12192026
000070 fa d8 b2 3d d8 94 e4 bd 6a d6 a3 bd 3e 12 61 bd
       0.08732791 -0.11161202 -0.079998806 -0.054949038
000080 f1 91 86 3d f1 35 7f bd 23 84 f4 3d 3e 12 c2 3c
       0.06570805 -0.062307302 0.119392656 0.02369034
000090 ca 5b 68 bd 72 62 c1 3d 2f d1 a7 bd 64 5a 8b bc
       -0.056728162 0.09442605 -0.081941955 -0.017010875
0000a0 75 a2 27 bd d7 03 bf bd b0 0d 5c bd ac c6 fb 3c
       -0.040926415 -0.09326904 -0.05372399 0.030734383
0000b0 8b f5 52 bd 51 30 67 3d 46 08 d6 3b 10 94 d8 3d
       -0.0515037 0.056442562 0.006531748 0.10575116
0000c0 8c 1a e7 3d da 62 90 bd fb 4a 9e b8 8f 07 cd 3d
       0.1128436 -0.070501044 -7.547993e-05 0.10011207
0000d0 a4 77 35 bc 0f 76 8d 3d 82 ce 4a 3d 87 5a 0b bd
       -0.011075888 0.069072835 0.049513347 -0.03402188
0000e0 f1 4d 6c 3c 19 02 96 bd 33 eb 38 bd 31 25 23 3d
       0.01442288 -0.07324619 -0.04514618 0.03983039
0000f0 a4 b5 f5 3d 14 ed 58 bd 3b 36 58 bd a8 47 a1 bd
       0.11997536 -0.05296047 -0.052786093 -0.078749955
