scripts/embeddings_gin_version2/MUTAG/gin_dim64_ep40_lr0.0005_drop0.3/gin_classifier.pt (torch, 177117 bytes, 42 tensors)

encoder.layers.0.nn.net.0.weight f4 [64, 7]
00000000: f69c 013e f9b4 8fbe bbfb 933e 60a4 7abe
00000010: 35a5 86be cf1a a83e 4e87 3dbe 7967 c03b
00000020: 973f 02be 607f 3dbe 45c3 823e f2a4 583d
00000030: 6f97 b1bd 4085 b4be ca91 73be 90f3 38bd
00000040: 4cc5 32be 2c8b 293d 0cf0 b8be 9a15 a63c
00000050: 8509 3b3e 0c93 cb3c 569d bf3e bd22 cebc
00000060: 56d2 cfbd 03c4 ce3c a05e bebe ef2b 1f3e
00000070: 3a6c 743e ee27 3abe 8798 8cbe 48c7 a7be
00000080: 93c4 803d db37 693d 2fc9 babe 9c67 a9be
00000090: 4679 d93d 3eb1 5bbe 0319 1c3c 9e56 203e
000000a0: 38b0 acbe a9ec 86be 0101 abbd 2711 babe
000000b0: fcf2 823e 9af8 8f3e 1961 99be a8e0 b43e
000000c0: cb30 8f3d ebb3 a63d df8b 74be ecb3 603e
000000d0: 5926 01bd a3f7 3abe 85db bfbe e3f5 03be
000000e0: 60df bbbe e102 b0be 4f77 89be f48b 62bd
000000f0: e636 b33e ac15 29be d821 7ebd 83ef 363e
00000100: 84d0 fdbd a6aa 69be 3d63 d1bd 680e 9c3e
00000110: 8dcf a63e 2088 7e3e cb0c 303e 2f51 b1be
00000120: 949b 323e 7ffa 37bd 19d4 6c3e 279f 513e
00000130: 8699 873e 8814 3d3e b351 51be 740a 74bd
00000140: 1c50 8bbe 89fe 82be 9778 363e 64ed 91be
00000150: 4f1d 82be 8090 27be 0082 d23d 8f01 36be
00000160: 8e64 92be 6ebc 8cbe b8d9 213e 993e 3fbd
00000170: 7e3e 39be cf8e a1be ebbb 58bd b111 31be
00000180: 25ee 2d3e b6a5 95bc 3354 19be cbd8 1fbd
00000190: 4401 58be 6cd6 9abe 5f37 8bbb c081 6abe
000001a0: 9d52 bb3e a2e5 453e 36be 9b3d a849 c73c
000001b0: e49b a23e 119f 04be 5d47 4b3d 427f 72be
000001c0: 7f64 9abe 3cea 0d3d 1e7d 2a3e caed 70be
000001d0: 9f61 2b3e 3dab 8e3e bc67 04be 4f05 adbe
000001e0: 00a8 38be e875 933e 4946 0c3e f14d 18be
000001f0: 981f 2abe 97d1 34bd 86e7 833d b29f 173e
00000200: fadd c0be de7f 8ebd f0d6 713e b37e 393e
00000210: ccd8 52be fc19 c0be 7a48 013e 8248 a8bd
00000220: ebb7 db3b 6bd8 403e 51ff 973e 82c4 f23d
00000230: 4730 3f3e 3416 a23e 6df9 ed3b d543 7dbe
00000240: c679 573e db6c f2bd b929 76be 0e9a aebe
00000250: 555e 243e 0029 60be afdd ae3e d219 443e
00000260: 0f14 733e 84fc b73c 9c4c e1bc b122 8cbe
00000270: c7c1 3cbe 55a5 03be 862d 4cbd 7d5e 19be
00000280: 98d1 bcbd 5377 37be 32a5 753e cc7f 9ebe
00000290: 11a4 84bd 0583 a2bc 2fbe 9d3e 177f 2bbe
000002a0: db70 bfbe 8c50 fe3d 7926 a8be be04 b4be
000002b0: 577b c1be 29cc 37be 8709 113d a73c 86be
000002c0: 8032 b4be 4c07 0f3e c5f1 a7be 5ccf 9fbe
000002d0: 6362 adbe e049 90bd 7d02 423e ed51 47be
000002e0: 381c f0bd 3b1e 073e 2206 f3bd 667e 60be
000002f0: 248f 753e 4ebd 10be 29c0 89be 4b41 ab3e
00000300: 7beb 28bc 0975 02bd 0085 ad3e 4dcc b93d
00000310: 9b04 bbbe 4fc8 b6bd e632 ffbd d30c 153e
00000320: 50ed 143e 5fa6 87be 361d 9c3e 2974 9a3e
00000330: 1885 773e 8472 a73e a0be 843e 830d c63d
00000340: 4d7c 88be 1718 8a3e 8c08 9abd aaa7 6f3c
00000350: c83c b1be 831c 81bd 1154 503e 6b63 0e3e
00000360: 24af 71be 73e6 43be 0b17 8fbe 43b5 7d3e
00000370: 3499 963d 7734 9fbc 4413 8bbd ad8a 9cbe
00000380: d49c a7be f3b6 893e ee40 02be 022f 8c3e
00000390: a49b 55be c00b 23be 6bb2 183e 8591 cd3d
000003a0: 7968 64bd 2c66 423e 3c55 51be 769d 60be
000003b0: 5df1 bb3e 4b38 443e 86fd 74be 886c 14bd
000003c0: 6f40 f5bb fb2e 13be fc48 f73d 346a 05be
000003d0: 5304 91be 7594 283e 3e02 a3be 1e03 0bbe
000003e0: 33d3 1fbe e384 4a3e e1cc a13e 8313 b7be
000003f0: d18a f13d 091f 80be a425 93be 3150 a93e
0.12657532 -0.2806776 0.28902993 -0.24476767 -0.26297918 0.32832953 -0.18508646 0.00587171
-0.1271957 -0.18505621 0.25539604 0.05289168 -0.08671462 -0.35257912 -0.23786083 -0.045154154
-0.17458075 0.04139249 -0.3612064 0.020273972 0.1826535 0.02485039 0.37424725 -0.025163049
-0.1014754 0.02523995 -0.37181568 0.15544103 0.2386941 -0.18179294 -0.2746012 -0.32769227
0.062874936 0.056938034 -0.36481616 -0.3308686 0.10618834 -0.21454331 0.009527448 0.15658042
-0.33728194 -0.26352432 -0.08349801 -0.3634121 0.25576007 0.28119355 -0.29956892 0.3532765
0.069917284 0.081397854 -0.23881482 0.21943635 -0.03153071 -0.18258528 -0.37472168 -0.12886767
-0.3669386 -0.34377196 -0.26848838 -0.05530925 0.35002822 -0.16512173 -0.062043995 0.17864804
-0.12393287 -0.22819003 -0.10224006 0.3047974 0.32580224 0.24856615 0.1719238 -0.3463225
0.17442161 -0.044916626 0.23127784 0.20470868 0.26484317 0.18464863 -0.20441322 -0.05958028
-0.27209556 -0.2558482 0.17819439 -0.28501427 -0.25412986 -0.16363716 0.10278702 -0.17774032
-0.28592342 -0.2748751 0.1580571 -0.046690557 -0.18090245 -0.31554267 -0.052913588 -0.17291905
0.16985376 -0.018267494 -0.14973526 -0.03902511 -0.21094233 -0.30241716 -0.004248544 -0.22901058
0.36586466 0.19325879 0.07604639 0.024327114 0.3175956 -0.12951304 0.049628604 -0.23681358
-0.30154797 0.03464721 0.16649291 -0.2352821 0.16736458 0.2786502 -0.12930197 -0.33793113
-0.18032837 0.28800893 0.13698687 -0.14873482 -0.16613615 -0.044145193 0.06440644 0.14807013
-0.37669355 -0.069579825 0.23617148 0.18114738 -0.20590514 -0.37519825 0.12625304 -0.08216955
0.0067052743 0.18832557 0.29686978 0.11853887 0.1867076 0.31657565 0.0072624 -0.24732907
0.21042547 -0.11837169 -0.24039353 -0.3410191 0.1605161 -0.2189064 0.34153506 0.19150475
0.2373812 0.022459276 -0.02750235 -0.27370217 -0.18433295 -0.12856038 -0.049848102 -0.1497745
-0.09219664 -0.17916612 0.23988798 -0.30956876 -0.06476606 -0.019837866 0.3080916 -0.167477
-0.3739079 0.12417707 -0.32841852 -0.35159868 -0.37789413 -0.17948975 0.035409477 -0.2621815
-0.35194778 0.13967627 -0.32801643 -0.3121289 -0.33864126 -0.070453405 0.18946262 -0.19464846
-0.11724132 0.13195126 -0.11866404 -0.21923217 0.23980385 -0.14134714 -0.2690442 0.33448252
-0.010310049 -0.031849895 0.33890533 0.090721704 -0.3652695 -0.089249246 -0.1246088 0.14555673
0.14543653 -0.2649412 0.30491036 0.30166748 0.24171865 0.32704556 0.25926685 0.09670546
-0.26657334 0.26971504 -0.075211614 0.014627377 -0.34616685 -0.06304266 0.20344569 0.13905112
-0.23601967 -0.19130878 -0.27947268 0.24776177 0.0735344 -0.019434197 -0.06790784 -0.3057455
-0.32736838 0.26897392 -0.12720081 0.27379614 -0.20860153 -0.15922451 0.14911811 0.10037521
-0.055763695 0.18984288 -0.2044267 -0.21935067 0.36707583 0.19162099 -0.23924837 -0.036236316
-0.0074844877 -0.1437339 0.120744675 -0.13028795 -0.28323612 0.16462882 -0.31837648 -0.13575408
-0.1560791 0.19777255 0.31601623 -0.35757074 0.11794055 -0.25023678 -0.28739655 0.33068994

encoder.layers.0.nn.net.0.bias f4 [64]
00000000: 2229 f03d 7fe6 9dbe 6aee 6ebe dd58 b93e
00000010: 0c20 2fbe 3a30 ab3e d995 9a3e b8bf bcbe
00000020: d0df a2be 4cfc 91be 4e4e b6be 34ae f53d
00000030: 6d00 533e 26e0 063e 64d3 203e 7fe6 6bbe
00000040: 3829 84bd 1dd8 783d de29 013d 7922 83be
00000050: 8e32 7bbd 9325 81be 0f21 c93d 26ac 0c3c
00000060: e34e 74be 4ca2 953d 856b 473e 903c afbe
00000070: b481 d63c 14a6 88be a00d 9f3e 4d5d aa3e
00000080: c302 553d 18d5 093e 7e38 113d a581 50be
00000090: d163 b3be 2312 88be 10ff 783d 4134 b2be
000000a0: f740 9a3e bde4 8f3e aa10 d8bd 5075 12be
000000b0: c36a 093e afd9 4bbe cc66 863d 90cb 83be
000000c0: 4503 f63d a618 74bd 7681 1bbe 310f 0c3e
000000d0: 7242 b23e 99fc 873e ccfb f13d 7254 8bbe
000000e0: c660 283e e5d1 bcbe cf4d 953d 2ffc 323e
000000f0: c5ad 62be 3e9d 02be f7a4 ae3b 0ddd 293e
0.117265955 -0.30839917 -0.23333135 0.3620061 -0.17102069 0.3343523 0.3019245 -0.3686502
-0.3181138 -0.285128 -0.35606617 0.11996117 0.20605631 0.13171443 0.15705639 -0.23037146
-0.06453174 0.060752977 0.03153407 -0.25612238 -0.06132751 -0.2522398 0.098207586 0.008585965
-0.23858218 0.07306346 0.19474609 -0.34225893 0.026184894 -0.26689208 0.31065083 0.33274308
0.052004587 0.13460195 0.035454266 -0.20361955 -0.3503709 -0.26576337 0.06079012 -0.34805492
0.3012769 0.281042 -0.105500534 -0.14302564 0.13419633 -0.19907258 0.06562576 -0.25741243
0.12012342 -0.05959382 -0.15186104 0.1367767 0.3481632 0.26559904 0.118156046 -0.27212864
0.16443166 -0.36878887 0.072902314 0.17479013 -0.221366 -0.12755296 0.005329724 0.1658823

encoder.layers.0.nn.net.2.weight f4 [64, 64]
00000000: d486 bc3d 7c89 c43b b2db 84bd ebb8 fabd
00000010: 4672 78bd 4448 98bd 3d30 ab3c 559e 8cbd
00000020: 0825 cebd 6373 5ebd c75a 64bd a909 e0bd
00000030: 79ed 903d 3572 b33d c822 babd dbfd 74bd
00000040: 9629 dabd 11cb f2bd ab2f 373c 79f1 fabc
00000050: dbcf c6bd 9988 e4bc 6afa 40bd ef1c 66bd
00000060: 6bee 3f3d 3011 fc3d 0243 c03d 5b6c b7bd
00000070: 809d ebba f005 54bb 48ca 3e3d 752d 46bb
00000080: 8126 c53c dbfd 96bd 6889 afbc 553a d6bc
00000090: 475b e2bd 04ef 94bd 80b1 eb3d 9a23 f03d
000000a0: 9d27 b93d d10c c83d 9f1a 9f3d 8b6a 6d3d
000000b0: 57e8 8fbd 04d0 a6bd 8d2b a0bd df5a dfbd
000000c0: c866 be3c f33d 74bd 189e 2fbd 9a32 2a3d
000000d0: ba82 293c 88a4 c13d c1f4 f73d 55ae 8fbd
000000e0: 7c52 ee3b 94ab f2bd 1f98 a1bb bc9d b4bd
000000f0: 4d25 a93d 2bb7 5a3d 4876 a73d 1658 53bd
00000100: 0040 34bc 4965 5abd a0f0 493c 3140 91bc
00000110: 52af 353d 9b1f a5bd 8cc3 76bd b263 a5bd
00000120: 00e4 a2bc d96c e83d 7b9c 97bd 7f3d 003e
00000130: c8d6 dfbd ce57 cf3d d4a3 e0bd bb13 603d
00000140: d09f 213d d4b2 d83d 6816 5f3d 8ea4 5f3c
00000150: f9d8 8ebd b970 fabd 1745 57bd 4506 f03d
00000160: 1a85 76bd 1a87 b23d 3509 b7bd 3a25 a93d
00000170: 6004 64bd 5e26 20bd 213d f73d 8897 8c3d
00000180: a384 9e3d 72a1 e73d 2c5c 7e3d e43b debd
00000190: b11a a53d c864 753d 4542 943d f4e1 c8bc
000001a0: 5bf0 0d3d 7344 fe3c 2180 b3bc 8c3d adbd
000001b0: fce6 9d3d 504d 603c eaea 0cbd ffb2 c03d
000001c0: 5afb 5dbd 237e 80bd 819f 39bc ca1b b6bd
000001d0: a162 24bd 0514 99bd 2724 fabc 8ef0 3abd
000001e0: 8e1c 073d 50c6 4bbd 61c7 57bd 8f18 96bc
000001f0: 34ad 84ba 29ea f53d 3a1d 9b3d 31e3 b93d
00000200: e87d e73c 678b 8c3d 827c 81bd 92f0 41bd
00000210: 8792 7bbd d464 9fbd 73a8 85bd cd84 cebd
00000220: 0092 f03a 54d0 ec3d 0449 76bc 537a e5bd
00000230: d545 dd3d 5c3f 9cbd b38a 32bd b239 f0bd
00000240: 934b e33d 4f33 cabd 23cc e6bd dfa6 9a3d
00000250: f153 67bc 4bd3 d1bd 8be0 953d 6879 61bd
00000260: a25c d7bd f47e 6f3d 37b3 cfbd 4c9f dbbd
00000270: d865 393d 16ba c73c 1229 b93a 0408 ecbd
00000280: edfd a9bd 033a 0cbd d0bb 9a3d 34f4 d4ba
00000290: ba72 70bd f2d6 8b3d fda2 9dbc 5f3a cabd
000002a0: 0f0b 7e3d 308e 8fbd 3200 ad3d 9952 683c
000002b0: 1abd c0bb 16ca 9d3d fda4 cc3c 35a8 3b3d
000002c0: 936c e73c b883 8ebc f532 a1bd 7abb 283d
000002d0: 3c26 673d 15a5 aa3c c8af cebd 3f92 a1bd
000002e0: 8365 f43d f867 6dbd 18b2 403d 6722 903d
000002f0: a1a6 9a3d fdb2 fdbc f216 903b f5fb 5ebd
00000300: 99a6 eabb d6a9 99bd 045d 7a3d a013 a53d
00000310: 0729 053e 9641 ff3c 3730 a0ba a180 9fbd
00000320: f8fa d2bc b3b0 0c3b dbf1 6ebd d789 c7bb
00000330: 530a 71bd 407b e4bd 3765 0dbc 5e47 ccbd
00000340: bf2a 073d c5f9 9c3d a981 d83c 026d 263a
00000350: d522 983d b32b 00be 8038 1f3c 108e 99bd
00000360: 3354 b3bc 8ede d13d 6fef 81bd de41 2a3d
00000370: e0a4 093c 736b 95bc ee93 25bd c568 bfbd
00000380: 380e 2ebc f25a b53b a686 f7bd f57d b6bd
00000390: b6b9 c83d 941e 23bd 0840 c1bc 726c 4fbb
000003a0: 74b0 b73d 50f9 b53d 27c3 c0bd b507 37bd
000003b0: 4eab 433d be7a bcbd 71eb f4bd 910e 08be
000003c0: b71c a73d 1ea0 c73d 290c c6bc ac48 1bbd
000003d0: b1ee c33d 915c ae37 4daa 333d e204 f6bd
000003e0: f2f8 f2bd 0ceb 78bd d4bb 4c3d 74bc 933d
000003f0: c734 793d c14b b33d 453a ff3d 1b42 00be
0.09205404 0.0059978347 -0.06487216 -0.122423016 -0.060655855 -0.074356586 0.020897025 -0.06866137
-0.10065657 -0.05430926 -0.055750635 -0.109393425 0.07076544 0.08762018 -0.09088665 -0.059812408
-0.10652463 -0.11855138 0.0111807985 -0.030632721 -0.09707614 -0.027897166 -0.047113813 -0.056179937
0.046858232 0.12307966 0.09387781 -0.08956214 -0.0017976016 -0.0032352172 0.04657963 -0.0030239497
0.024066212 -0.07372638 -0.021427825 -0.026150862 -0.11052566 -0.07272151 0.11508465 0.117255405
0.09040759 0.097680695 0.077687494 0.057962935 -0.07026737 -0.081451446 -0.07820807 -0.10906004
0.02324237 -0.059629392 -0.04287538 0.041552164 0.010346109 0.0945521 0.1210723 -0.07015673
0.0072730165 -0.11849132 -0.0049314643 -0.08819148 0.08259068 0.05339734 0.08176857 -0.051597677
-0.011001587 -0.05331925 0.012325436 -0.017730804 0.04435665 -0.08062669 -0.06024508 -0.08075656
-0.01988411 0.11348886 -0.07402893 0.12523459 -0.10929638 0.10124169 -0.10968748 0.054706316
0.03945905 0.10580984 0.054464728 0.013650073 -0.06974978 -0.122285314 -0.052556124 0.11719946
-0.06018553 0.08717175 -0.08937303 0.082590535 -0.055668235 -0.03909909 0.12072206 0.0686484
0.07740142 0.1131009 0.06209962 -0.10851267 0.080617316 0.059910566 0.072392024 -0.024521805
0.03465305 0.031038499 -0.021911683 -0.08459005 0.077100724 0.013690308 -0.03440372 0.09409141
-0.054194786 -0.06274059 -0.011329533 -0.08892019 -0.040133122 -0.074745215 -0.030534817 -0.045639567
0.032986216 -0.049749672 -0.052680377 -0.018322257 -0.0010122419 0.12007553 0.07573934 0.090765364
0.028258279 0.068625264 -0.06322576 -0.047348566 -0.061419036 -0.07782903 -0.0652627 -0.100839235
0.0018354058 0.11563173 -0.015032057 -0.11204972 0.10804335 -0.07629272 -0.043589305 -0.117297545
0.11098399 -0.098730676 -0.11269405 0.075513594 -0.014119134 -0.10245379 0.07318219 -0.055047423
-0.10515715 0.05847068 -0.101416044 -0.10723743 0.04526314 0.024380725 0.001412662 -0.11524966
-0.083003856 -0.03423501 0.07555354 -0.0016247095 -0.05870316 0.06828107 -0.019242758 -0.09874415
0.062022265 -0.07009542 0.08447303 0.014179849 -0.0058819177 0.077045605 0.024981016 0.04581471
0.028250014 -0.017396793 -0.078710474 0.041194417 0.056432948 0.02083067 -0.10092121 -0.07889222
0.11933424 -0.05796048 0.047044843 0.07037812 0.07551313 -0.030969137 0.0043972665 -0.054439504
-0.0071609733 -0.07503097 0.061123863 0.08060384 0.13003932 0.031159203 -0.00122214 -0.07788206
-0.025754437 0.0021467626 -0.05833612 -0.00608943 -0.058847737 -0.111563206 -0.0086300885 -0.0997455
0.03299975 0.07664827 0.026429014 0.0006348641 0.07428519 -0.1251667 0.0097180605 -0.074977994
-0.021890735 0.10247527 -0.063444965 0.041566722 0.008401126 -0.018239712 -0.04042428 -0.09346155
-0.010623507 0.005534523 -0.12086229 -0.08910743 0.098010466 -0.039824083 -0.023590103 -0.0031650332
0.08969203 0.08885443 -0.09412222 -0.044685084 0.04777079 -0.09203099 -0.119589694 -0.13286807
0.08159774 0.09747337 -0.02417572 -0.037911102 0.09567011 2.0785521e-05 0.043863583 -0.1201265
-0.11863889 -0.060771033 0.049983814 0.07213679 0.060841348 0.08754683 0.12462286 -0.12525217

encoder.layers.0.nn.net.2.bias f4 [64]
00000000: 7909 f7bd f478 393d 19f3 37bd ea70 b73d
00000010: 7684 22bd 0f99 63bd f658 acbd bc9e d2bc
00000020: cf81 c4bd 83f7 a6bd 4d2d fabc 4665 a0bd
00000030: f6b7 783a a474 cc3d 2d5a 3e3d df6f 873d
00000040: a282 a33d 785e b3bd 507f 0e39 e697 423d
00000050: 4555 c13c 7e46 97bd 0055 c03d 0953 e93d
00000060: 1d81 6fbc 9396 a1bd 5d16 813c 116a fd3d
00000070: 5ac7 02bc 72a8 b6bd c803 96bd b4b3 993c
00000080: ccba 7abd 5bc5 12bc d5f7 8d3b bca1 e43d
00000090: fe19 2e3d 2fcc 5ebd f09f 193d efe6 743d
000000a0: d041 c9bd 26bb b5bc 8d18 3dbd 06f1 dbbc
000000b0: 1b8a b3bc 8554 b1bd 59b1 99bd 865f 13bd
000000c0: 6048 27bd d89c 7e3d ae4b f73b 7051 f8bd
000000d0: 8411 693d 0603 6d3d 4029 a4bd bf09 91bd
000000e0: 777f ed3d fe1d 0dbd 46b3 e0bd c15f 9abd
000000f0: 0b53 62bd dfb2 16bd 5438 d5bd 4948 a6bd
-0.12062354 0.045281366 -0.04490957 0.089570835 -0.039677106 -0.05556589 -0.084154055 -0.025710456
-0.095950715 -0.08152678 -0.03053918 -0.078318164 0.00094878615 0.09983185 0.046472717 0.066131346
0.079839006 -0.08758253 0.00013589603 0.047508143 0.02360023 -0.07386492 0.093912125 0.11392791
-0.014618185 -0.07890048 0.015757734 0.12373746 -0.007982099 -0.08918847 -0.0732494 0.018762447
-0.0612133 -0.008958186 0.0043325224 0.11163661 0.042505257 -0.054393943 0.037506044 0.059790548
-0.09827006 -0.022183966 -0.04616599 -0.026848327 -0.02191644 -0.08658699 -0.075045295 -0.03597977
-0.040840507 0.062161297 0.0075468635 -0.12124908 0.05690147 0.05786421 -0.0801568 -0.07081937
0.115965776 -0.03445243 -0.10971694 -0.07537795 -0.055254977 -0.03679168 -0.10411134 -0.08119256

encoder.layers.1.nn.net.0.weight f4 [64, 64]
00000000: e349 963d aecb cd3d 2562 4b3d ed65 efbd
00000010: b0e2 51bb 8ecd d93d 8341 9d3d 070b dc3d
00000020: 3f5b dfbb 924c 893c 759a 03be d7e1 8f3b
00000030: 2e6d 833c 32c6 593d e749 10bd 6e5a 3d3c
00000040: f114 723c 9e90 b83d f216 bc3d 0119 a73d
00000050: 28c2 debc 7f0b 0dbd 0705 f63b c301 833d
00000060: 946f 9d3d b8bb bcbd 74ed 9bbd 792a d5bd
00000070: 5aff 513d fe87 0a3d 2a73 483d b9d3 f8bd
00000080: 3c0d d13d 9e25 1abd 6075 97bd 50e7 da3d
00000090: 477b d83c 01b6 843d d952 81bd 06c3 ad3c
000000a0: 7055 94bd c7f9 91bc 6987 04be 1f0d d8bc
000000b0: 105d 6e3c 361b e3bc f08e 51bd febf ad3d
000000c0: e65a bdbd 43b1 153c 5918 803d 3e33 9abd
000000d0: 68ca 8a3d fe98 bb3a e16b 2b3c 29da d7bd
000000e0: a2af a7bc bd78 77bd c08e cdbd e986 7abc
000000f0: 0e79 66bd e617 8cbd edbf b73d 0feb 1cbb
00000100: b7d0 d23d 5ecc 693d 384a 3a3d eb75 b33d
00000110: c12a 443d cb46 9f3c a510 0b3e 00a9 96bc
00000120: b084 2dbc c644 cb3d 7242 ccbd 1abc fbbc
00000130: 3182 febc 9b79 f53a 0518 d93d 443c 39bd
00000140: 38a5 e0bd 2bfd ee3d 912a 5dbd 02c0 90bd
00000150: f032 84bd e3b3 aabd f225 f13d 75a9 c9bd
00000160: 88ca 28bd b2c9 c73d ae3e babd 2314 b7bd
00000170: 9514 3dbd 124e 053d 3d45 403d 2a85 c13d
00000180: 1559 fd3d 1540 453d d990 87bc 57d4 593d
00000190: e9bb 583d 6eda 573c 7116 93bd 0d21 523d
000001a0: 7fa9 393b 5b6a bcbd 04b4 9f3d 859e 9cbd
000001b0: b590 06bc 4d19 ec3d ef8d 6b3b dbcb debd
000001c0: 64e0 c7bd eb70 943d cf42 39bb 8ba7 f7bc
000001d0: 3b7e 8bbd 2b1b ea3c 5004 d6bd dffb c73d
000001e0: 033a bf3d 432f 063c e850 babd c28b 043d
000001f0: 9c1c cd3d 83fb cdbc f138 a93d 3f7e 9fbd
00000200: 317d adbc 2ac8 e9bd 0895 503d 334e b6bd
00000210: 3241 e4bc 6642 ab3d f5f0 853c 5739 8d3d
00000220: 65aa 03bc 314b b73d 74cd bcbc 2dc1 a23d
00000230: a874 08be 3e10 e93d 3b7e bd3d a5e0 22bd
00000240: e546 98bd 88dc ed3d b3e7 8c3d a701 e7bd
00000250: 8a3f a73d 7124 c3bd 2f79 d33d 1e38 fa3d
00000260: c44a aabd 7352 ce3d d353 b33d d7c7 8fbd
00000270: 9139 86bc 922d 74bc 6a7c 4d3d c2ce f1bd
00000280: 268b 7cbd 1dd8 99bd 081a 063e 0e55 07bd
00000290: d457 7b3d fc72 ca3c 3bd8 583d 23e6 6e3b
000002a0: a479 ba3d 903f 98bd 47d9 a4bd 586b 9c3d
000002b0: 3ec8 e13d fb09 7ebd 8d9e 633d 5333 bdbd
000002c0: 9567 cbbc 5db0 0dbc 4d21 b23d b742 fbbd
000002d0: 12eb ba3d 546e b1bd 948b 8fbd 0e2f 7fbc
000002e0: 96ac f83d 9117 edbd 53af 933d 7c34 633c
000002f0: c82e 973b 9bb6 73bd 6c42 73bd dda3 ef3c
00000300: eb18 5c3d 37ef 6b3d 9af3 9fbd 37aa ec3d
00000310: c57c e3bc 30b2 323a e961 b03d 10d7 c23d
00000320: a2f4 7bbd 839f 793d fbb9 b93d 5314 003e
00000330: eeca 85bd 0d00 003e 915c ef3d 5951 b4bd
00000340: 8520 07bd ab56 33bd 43c5 9e3c 0218 c8bd
00000350: 6e8b 79bd 451f 8f3d 4966 cfbd bfdf cbbd
00000360: 903c f13d b49b 953d 448e 85bd d41f 033b
00000370: 2c77 ca3d bf53 3439 19e9 21bd dd8b 7d3d
00000380: f672 c9bd 83f1 89bc d6aa 82bd aefa 0a3d
00000390: 5a82 883d 30cb 82bd e863 713d 5134 bd3d
000003a0: d39c 45bd 5cb8 9ebd a2e2 313c f329 ffbd
000003b0: ed70 943a e5c6 d6bc 4436 6cbd 784c c43d
000003c0: c8f8 5c3d b199 e0bd cc36 ddbd 6ab5 643d
000003d0: 2c01 e73d f213 5a3c 8281 6d3d bcf9 e43d
000003e0: 166d f1bd 1bc9 95bd 22ec a3bd ac45 95bd
000003f0: 3f9e 8dbd fd0a 97bd 0594 9cbd 5b89 8a3d
0.073383115 0.100486144 0.049654145 -0.11689363 -0.0032025985 0.106349096 0.07678511 0.10744291
-0.0068162973 0.016760144 -0.1285189 0.004390936 0.016043272 0.05316753 -0.03522673 0.011557205
0.014775501 0.090119585 0.09184064 0.08159066 -0.02719219 -0.03443479 0.0075079235 0.063968204
0.076872975 -0.09215492 -0.0761365 -0.10408492 0.051268913 0.0338211 0.048937954 -0.12149758
0.102076024 -0.03763353 -0.073954344 0.106886506 0.02642597 0.06480027 -0.0631463 0.021211158
-0.072428584 -0.017819298 -0.1294228 -0.026373444 0.014548555 -0.027722936 -0.051161706 0.08483885
-0.09245853 0.009136501 0.06254644 -0.07529305 0.06776887 0.0014312563 0.010462732 -0.105396576
-0.02046949 -0.06041788 -0.10036993 -0.015290954 -0.05626779 -0.06840496 0.08972154 -0.0023943817
0.102937154 0.057079665 0.045480937 0.087627254 0.047892336 0.019442936 0.13580568 -0.018391132
-0.010590717 0.09925227 -0.09973611 -0.030729342 -0.03106794 0.0018728258 0.106002845 -0.04522349
-0.10969013 0.11669382 -0.053995673 -0.070678726 -0.06455028 -0.08335092 0.117748156 -0.098467745
-0.041208774 0.09755267 -0.090939865 -0.08939388 -0.046162207 0.032545157 0.04694103 0.09449227
0.12370507 0.048156817 -0.016548561 0.05318102 0.05291358 0.013174636 -0.07182015 0.05130105
0.0028329787 -0.09199973 0.07798007 -0.07647423 -0.008213212 0.11528263 0.0035942753 -0.10878726
-0.09759596 0.072481 -0.002826858 -0.030231258 -0.06811186 0.028577408 -0.10450041 0.097648375
0.09337237 0.008189979 -0.09097463 0.032359846 0.100152224 -0.025144344 0.08262814 -0.077877514
-0.02117786 -0.114151314 0.050923377 -0.08901634 -0.027863119 0.08362274 0.016350249 0.06895702
-0.008036231 0.089498885 -0.023047186 0.079470016 -0.13325751 0.11380051 0.09252592 -0.03976502
-0.07435397 0.116143286 0.068801306 -0.11279612 0.08166416 -0.09528435 0.10325848 0.12217735
-0.08315042 0.1007432 0.087562226 -0.07020538 -0.016384872 -0.014903443 0.05016748 -0.11807014
-0.06165614 -0.075119235 0.13095868 -0.0330401 0.061363056 0.024713032 0.05294059 0.003645309
0.09105232 -0.074339986 -0.08049255 0.07637662 0.11024521 -0.062021237 0.055571128 -0.09238305
-0.024829665 -0.008648005 0.08697758 -0.12268584 0.09126867 -0.086636215 -0.07009044 -0.015575184
0.12142293 -0.115767606 0.07211175 0.013867494 0.004613731 -0.059500318 -0.059389517 0.02925294
0.0537347 0.05760118 -0.07810135 0.115559034 -0.027769456 0.0006816713 0.08612425 0.09513676
-0.061512597 0.060943138 0.09068676 0.12507753 -0.065328464 0.1250002 0.116875775 -0.08804578
-0.032989997 -0.043783825 0.019381171 -0.09770204 -0.060923986 0.06988386 -0.10126931 -0.099547856
0.117791295 0.07305089 -0.06521276 0.0020007985 0.098860115 0.00017197336 -0.03952894 0.061900962
-0.0983638 -0.016838795 -0.063802406 0.033930473 0.066654876 -0.06386411 0.05893317 0.09238494
-0.048245262 -0.077500075 0.010857256 -0.12459173 0.0011325158 -0.026217887 -0.05766894 0.09584898
0.053948194 -0.10966814 -0.10801467 0.055837072 0.112795204 0.013310419 0.057984836 0.111804456
-0.117883846 -0.073137484 -0.08004023 -0.072886795 -0.06914949 -0.07375143 -0.0764542 0.0676448

encoder.layers.1.nn.net.0.bias f4 [64]
00000000: 1d67 ad3d 3768 013e f9e5 593d b1ed ff3c
00000010: 99da a43d a552 cd3d ab65 983d 5f37 df3c
00000020: db66 a6bd 9a3a 603a e59e 79bd 65ee bcbc
00000030: 96c7 44bd 42bf a93c 9e69 bdbc b368 c5bd
00000040: 0706 00bd 34b8 843d 3ac1 ea3d 212d 123c
00000050: f3b6 cebd 6af9 a3bc d26d fcbc 5f31 e3bd
00000060: 751c 853d 7177 e1bd 208f cb3c 6a73 6fbc
00000070: d422 553d c6f2 cdbd ffb4 34bd 1223 9fbd
00000080: 643f b93c 52f0 a33d 5a46 94bd 8f72 dcbd
00000090: 272b 63bd 887e e63d 5e03 633d 4207 cfbd
000000a0: 79d3 1e3c 9c48 c93c 06bf 8e3c 4edf 58bd
000000b0: 9073 efbd d0a0 afbd 05b0 023e 8707 ff3d
000000c0: ebf1 ae3d a5d2 a8bd 57ae a0bd 3839 95bd
000000d0: 60e6 c93d be2f 8cbc febd 6a3d 3826 92bd
000000e0: e5ff bd3d 1a6c ff3d 267d dabd 0783 ca3d
000000f0: fb4f 923d 3970 083e 6ebc 28bd e6ef d83c
0.08466933 0.12637411 0.053197835 0.03124127 0.08049507 0.10025529 0.074412666 0.027248083
-0.08125087 0.0008553654 -0.06094255 -0.023062894 -0.048041902 0.020721082 -0.023121651 -0.096391104
-0.031255748 0.064804465 0.11462636 0.008921892 -0.100934885 -0.02001639 -0.030814085 -0.11093401
0.064995684 -0.1100911 0.02484852 -0.014614919 0.052035168 -0.10056071 -0.044117924 -0.07770361
0.022613235 0.08004822 -0.07239981 -0.10764038 -0.055461075 0.11254603 0.055423133 -0.10108806
0.009693974 0.024570756 0.017425071 -0.052947335 -0.11691964 -0.085755944 0.12762459 0.124526076
0.08542236 -0.08243302 -0.07845753 -0.07286304 0.09858394 -0.017112609 0.057310097 -0.07136196
0.09277324 0.124717906 -0.106684014 0.09888273 0.07144161 0.1332406 -0.041195326 0.02648158

encoder.layers.1.nn.net.2.weight f4 [64, 64]
00000000: 93f1 d6bc 8abd 01bc 06f1 a23c dc64 283d
00000010: 0350 43bd 5e7c 66bd c7b0 bebd 044e 843d
00000020: 4fd6 21bd ef53 e43d a34a e23c d8a5 413b
00000030: d7e8 453d 32b2 923d 6e75 f7bc d673 9dbd
00000040: 8ba5 cdbd dd50 ad3d e6a3 0cbd d2e5 a1bd
00000050: b757 c83c d958 613c 683c ef3b 211c 9f3d
00000060: dc14 aa3c 9983 943a e07c 9e3d f862 32bd
00000070: db16 c73d 21f0 573d bf38 fcbd 5136 63bc
00000080: 292d 9f3c e072 d2bd 1ad0 c9bd 57c5 64bd
00000090: 4af6 9cbc f824 663d 62bf a7bd 544f c1bd
000000a0: 9f39 063c d004 de3d 96d3 a63d a692 34bd
000000b0: 47e9 51bd 4902 62bb 07bd 403c 95f8 853d
000000c0: 1608 7e3d 2fe0 d63c c68a 2f3c 8672 10bd
000000d0: 229a 3fbd 4b80 8d3d e9f2 0f3d a292 fe3d
000000e0: b392 9d3d b9cb b9bd 8fb6 70bc da7d dfbd
000000f0: 1f0a f0bd f7bb 2dbd e6bd f6bb 9271 1c3d
00000100: 9329 84bc 5411 a83d 9ebb 513d 1c01 2ebc
00000110: 8a49 d3bc 7b1a 4abd 644c 4b3d f796 703c
00000120: d4a0 323d ccd7 60bd 7dbe 9abc a00e e63d
00000130: 8ac7 c03c c0b4 acbc 3a41 b93d 36ad 873d
00000140: 27fb b5bc 0219 efbb a5f4 b7bd d863 903d
00000150: 216a 63bd b2bb c23d 0976 e53d e2b0 a33d
00000160: e5cd 10bd baeb ab3d 3bc3 80bc cadc c9bd
00000170: 5a1d 99bb 0b1a 12bd ff24 f63d 6b3e 8abd
00000180: 8393 8a3c 4568 513d c85c c1bd 6ec8 35bd
00000190: ac2b 3fbd 599c 9a3d ba1f 033e f35b b93d
000001a0: 5494 abbd 3f36 bc3d b4fb 483d 0518 e83d
000001b0: c787 eb3d bc43 45bc dbb8 823d 8f91 ab3c
000001c0: 1f85 eabd b27e 2d3d 40bc ee3d efe7 ce3d
000001d0: 3887 5cbd dc14 bb3d 5244 c73d b988 a53d
000001e0: 8bac 223d 07a4 963d dfc9 f93d 8eaf 8a3d
000001f0: 82f7 b4bd ddd0 8cbd 7d77 bf3c 7231 38bd
00000200: 25af 82bd 8e31 53bd e67d b2bd 7b5a 7cbd
00000210: 9169 e1bd 090d c63d cfd7 f8bd 4dee cabc
00000220: 5e1c 89bd 3c67 8a3c 1cb5 5b3d 6d1c 733c
00000230: a4ce 00be b2fa 7ebb 9113 8e3c aba8 aebc
00000240: 9e35 c63d 810a 88bc bb12 a63d f548 e0bd
00000250: 4ed3 9abc f9b2 39bd 6c2f 363c 985d 573d
00000260: 9879 1dbd 932d 01be 0649 f839 b738 353d
00000270: 445c 00be 883c 303d 36d0 d83d e1f9 6abc
00000280: 764e 03bd 5b64 47bd 6d89 8bbd 4f75 8c3d
00000290: 0083 90bd 49c5 f7bd d9ba 54bd 8f7f 03bd
000002a0: 8c74 f93d 6827 93bd 939a 813d 77fd 793d
000002b0: a9ba f73c a1eb a63d fb5c c2bd 5b82 c9bd
000002c0: 2c33 013d 10aa f4bd b02d d63c d7a3 b03d
000002d0: 7419 bcbd c121 8dbd 77d9 00bd 9aa2 0fbd
000002e0: dda4 c03d 7d5a ec3d 5f17 763d 9ffd 8a3d
000002f0: 3540 9c3d 5d32 1bbd ee41 f2bd a06e 3f3d
00000300: 5ee6 893d 34c2 28bd 236a dabd 8a6d d13d
00000310: 70c8 c53c 47c6 003e dbcb f3bd 35a8 edbd
00000320: f657 233b 9e4e 623c 3a4f 5abd 69db 00bd
00000330: 385a 813d aea1 98bd 6420 01bd d7a5 cc3c
00000340: b9de 6f3d f93b 4f3d bcae f5bd b0b1 ba3d
00000350: 6d87 80bd 3f23 ae3d a85b eb3d 8860 b8bc
00000360: 4783 463d fdf1 213d fbaa 933b 2772 87bd
00000370: 8fdf 8a3d 6138 a83d 1166 74bd 572c dfbd
00000380: c6b5 6cbd 0bb1 a73d f902 e0bd 0370 9d3c
00000390: 58d5 7c3d bbe2 85bd 5a9b 953c b339 d43d
000003a0: 9bc2 9bbd 97ec 813d 4582 2bbd 359d ea3d
000003b0: be45 acbc d100 ce3d d5de b1bd 7620 0fbe
000003c0: 6580 943c d800 10bd b732 74bd 62e9 9dbd
000003d0: 36f3 273d c7e5 8eb8 3c9f e2bd ec2b 95bc
000003e0: 7050 983b 6807 de3d 1feb e53d cae6 6bbd
000003f0: 1941 8abd 8582 5cbd 9c18 9e3d e337 1d3d
-0.026238238 -0.007918725 0.01989032 0.041111812 -0.047683727 -0.05627095 -0.09311061 0.06460193
-0.03951102 0.111488216 0.02762348 0.0029548313 0.048317757 0.07162894 -0.030207362 -0.076881096
-0.100413404 0.08462689 -0.034335993 -0.07905163 0.024455888 0.013754093 0.007300902 0.07769037
0.0207619 0.0011330723 0.07738662 -0.043551415 0.09721156 0.05271924 -0.12315511 -0.0138679305
0.019430714 -0.10275817 -0.09854145 -0.05585226 -0.019160409 0.0561876 -0.081908 -0.09438959
0.008192449 0.10840762 0.081458256 -0.044085167 -0.05124786 -0.0034486225 0.011763818 0.06541554
0.06201943 0.026229946 0.0107142385 -0.035265468 -0.046777852 0.069092356 0.035143767 0.12430312
0.07693996 -0.0907206 -0.014691963 -0.10912676 -0.117206804 -0.042415585 -0.007529962 0.038194247
-0.016133105 0.0820643 0.051204316 -0.010620382 -0.025791902 -0.04934166 0.0496334 0.01468443
0.04361041 -0.0548933 -0.01888966 0.11233258 0.023532648 -0.021082282 0.09045644 0.06624834
-0.022214485 -0.0072966823 -0.08982209 0.07050294 -0.055521134 0.09508456 0.11204154 0.07992722
-0.035352606 0.08394571 -0.015718093 -0.09856565 -0.0046726884 -0.035669368 0.12018775 -0.067501865
0.016916042 0.05112483 -0.09441525 -0.044380598 -0.046672508 0.07549352 0.12805071 0.09050741
-0.08377901 0.09190034 0.049068168 0.11332706 0.11500507 -0.012040075 0.06382915 0.020943431
-0.11451172 0.042357154 0.116569996 0.101028316 -0.053839892 0.09134838 0.09729828 0.080827184
0.03971533 0.073555045 0.12196707 0.06771766 -0.08836271 -0.06875775 0.023372406 -0.04496903
-0.063810624 -0.05156093 -0.087154195 -0.061609726 -0.11006463 0.09670455 -0.12150537 -0.024771834
-0.06694864 0.01689493 0.053639516 0.01483832 -0.12578827 -0.003890675 0.017343314 -0.021320662
0.096781954 -0.016606571 0.08109041 -0.109514154 -0.018899586 -0.045336697 0.011119705 0.052579492
-0.03844604 -0.12615041 0.00047356653 0.04424354 -0.12535197 0.043026477 0.10586588 -0.014341802
-0.032057248 -0.04867969 -0.06813321 0.06858312 -0.07056236 -0.12098176 -0.051936004 -0.03210407
0.12180433 -0.071852505 0.06328311 0.06103274 0.030240374 0.081504114 -0.09490391 -0.098393165
0.031542942 -0.11946499 0.026144832 0.08625 -0.09184542 -0.06891204 -0.03145739 -0.03506718
0.09406445 0.11540697 0.060080882 0.06786656 0.07629434 -0.037889827 -0.11828981 0.04673636
0.06733392 -0.04120083 -0.10664775 0.10225971 0.024143428 0.12575637 -0.11904117 -0.116043486
0.0024924255 0.013812689 -0.053298213 -0.031459246 0.06316036 -0.07452713 -0.03152503 0.024981422
0.058562014 0.050594304 -0.119962186 0.091159225 -0.062758304 0.085028164 0.114920914 -0.022506967
0.04846504 0.03953742 0.0045064664 -0.0661357 0.06780922 0.082138784 -0.05966765 -0.10897129
-0.05779054 0.08188065 -0.10938067 0.01921845 0.061726898 -0.06537386 0.018262554 0.10362568
-0.076054774 0.06343954 -0.04187228 0.11455766 -0.02102935 0.100587495 -0.0868508 -0.13977227
0.01812763 -0.035157055 -0.059618678 -0.0771053 0.04100343 -6.813887e-05 -0.11065528 -0.01820942
0.004648261 0.108412564 0.112264864 -0.057593144 -0.06750698 -0.05383541 0.077195376 0.038383376

encoder.layers.1.nn.net.2.bias f4 [64]
00000000: e063 833b 41ec ed3d dfd9 82bd 80a7 a43c
00000010: 6f12 903d 01b9 f23d d4e2 793d d4d8 efbd
00000020: 505a a6bd 4a26 d03d 7b89 7dbd dae8 d23d
00000030: a2e1 66bd 60c3 613d 285c bd3d 1aea 18bd
00000040: 7695 a03d 97ea ea3d 4093 d7bd 2ff8 69bd
00000050: 3f3f d2bd e810 2cbd 6263 1e3d c206 5cbd
00000060: 40fe 6fbc d0a3 56bd 6f21 093c b6b5 13bd
00000070: f523 593d 43d0 103d f81e c73d 3f58 e53d
00000080: a6e1 c1bd bd29 bc3d 83af e43d b874 0e3d
00000090: 2222 dbbd 2739 b3bd b90b d83d b666 38bd
000000a0: ae68 0e3c 1f1b eabd 57e4 bc3d 1c22 cd3d
000000b0: a28a d93d 2eea 6dbb c9d1 9b3d 9087 ddbb
000000c0: b180 d0bc a783 d8bc 9898 563d 33a5 c63d
000000d0: 14bc e6bc f76c 4c3c 84cd ff3d 052a a6bb
000000e0: e83f ebbd d3d3 e33d d68a c73d ef95 c7bd
000000f0: 0e04 463d 1f6a 24bd d457 e4bc ce19 273d
0.0040097088 0.116173275 -0.06389212 0.020099401 0.07034766 0.11851693 0.061007336 -0.117112786
-0.081226945 0.10163553 -0.06189869 0.10298319 -0.056367524 0.055117965 0.09246093 -0.03733263
0.078410074 0.11470526 -0.105261326 -0.057121452 -0.102659695 -0.04200831 0.038668998 -0.053717382
-0.01464802 -0.052402318 0.008369788 -0.036061965 0.053012807 0.035354864 0.09722704 0.11198472
-0.09466867 0.091876484 0.11166289 0.03477928 -0.1069987 -0.08751135 0.10549111 -0.045019828
0.00869195 -0.11430954 0.0922324 0.100162715 0.10622145 -0.0036302912 0.07608373 -0.006760545
-0.02545199 -0.026429964 0.05239162 0.09699478 -0.028165855 0.012477151 0.12490371 -0.005070927
-0.114867985 0.11124387 0.09743278 -0.097453944 0.04834371 -0.040140267 -0.027873911 0.040796094

encoder.layers.2.nn.net.0.weight f4 [64, 64]
00000000: 32c1 9b3d 9dc3 05bc bf99 933c 847e 03bd
00000010: ca4d c2bb d851 7bbd a1af 56bc abdf f93c
00000020: 3c47 033e 0ea4 a03d 5be4 cd3d d89a 91bd
00000030: 7b4a 633c a9b3 1a3c 7e06 303d d8fd ff3d
00000040: 80f0 953c 80ef 1e3d 9c76 a93d 25aa 7b3c
00000050: 4ec9 6dbc c98c e6bc 04f0 30bd d13e 563d
00000060: 57c3 7f3d 2258 543d 6ce6 61bd c10b 74bc
00000070: 6027 a1bb ec6d 4e3d 5494 7a3d c867 f53d
00000080: f8e4 163d 3452 203d 1f8f 9bbc ea92 a83d
00000090: 3aa1 073e 2883 80bc 3062 ad3d c551 413d
000000a0: 2bf1 b83d 8ed3 8e3c 9289 af3c 4b66 e2bd
000000b0: 0682 78bd 9845 993d b90d f33d 54ba d8bd
000000c0: f0c7 a33d 4876 bbbd 0b7d 913d b4f5 183d
000000d0: 2a0e 8dbc f7de 94bd 5be8 bf3d 5132 91bd
000000e0: 4638 b73d 0f6b 683d 902b b33d b1e0 173d
000000f0: 0b16 cdbd 8fd4 b73c 0260 68bd b686 66bd
00000100: eb6b 523c d7b6 d93d e199 f0bc c749 973d
00000110: 4ecb 6abc cb5b f33c 6777 f23d 917a 73bd
00000120: e51d 4f3d 6f2b a23c daad c83c 353e 383d
00000130: 7b6f bfbd 2f84 32bd 9110 8e3d 813f e2bd
00000140: afd9 353d f04b f73d 6e94 55bd da16 883d
00000150: 5472 52bd 266b c73d 3890 193c f88d f03d
00000160: 2a06 d6bd 8d71 00bd f5ba a33c bc01 91bc
00000170: 23e4 2ebc 2d92 ce3d d3ce 8f3d 6126 6a3d
00000180: 6d2b 64bd 9816 873d 608a 6dbc f097 93bc
00000190: 73a3 d03c dc96 91bd 5c12 45bd cee7 edbd
000001a0: eec6 c53d 9b20 acbd 005f d3bc 8833 80bd
000001b0: 284a d3bd 5654 93bd 93e4 6a3c 4171 873d
000001c0: 865e ce3d 1aec 093a 742e 9f3d 91a1 d6bd
000001d0: aa95 5bbd a800 973c 5b96 e13d 6a23 ae3d
000001e0: f46b f3bd c918 68bd 7ebc f13d 4537 fb3d
000001f0: cac5 663d fc8a bd3d ede8 9ebc 220d 8d3d
00000200: 2cba a03d a7a3 c4bd db56 e33c 4ad3 323d
00000210: e5df bc3d 8eb4 12bd 6f31 863d 260f adbd
00000220: 84c8 ad3c 303a 44bd 44d7 8b3d 1684 843d
00000230: f0e8 33bd 860d 78bd 0fc3 aa3d d46e e63d
00000240: 6429 9d3d 1f36 4b3c 31c4 133d 69cc a1bc
00000250: a132 3f3d 432b 1dbc c284 27bd 880c 87bb
00000260: ee61 a83d 0bba df3d 276e b73d bae8 91bd
00000270: 12cb cdbd f350 dfbd 1d5d d03c 2bb2 983d
00000280: b10a 573d 2307 803d 37c4 df3d ed42 9ebd
00000290: b324 92bc 2a96 ae3c d185 363c d63f a0bc
000002a0: af4c 0d3d c592 b23d b242 df3d 6c51 89bd
000002b0: 86bb 943c ce7d d6bd 3828 303d 1b46 b5bc
000002c0: a39e f13d e763 b13d 5b52 cdbc b8cd 91bd
000002d0: 3b89 213d aa55 c83d d8f8 c5bd 19f1 e4bd
000002e0: b854 b43d 021a 49bd 4ac3 043e 1df2 fdbc
000002f0: 9467 db3d c55a 5d3c f889 aabc 81af 393d
00000300: 9545 de3d 1b6e 4dbd bc1f 643d b4d8 f23d
00000310: d969 c73c 58b1 a2bd 423e f53d 91e4 c2bc
00000320: 300e b3bc de28 5dbd 00ac f43d b69a 8c3d
00000330: 5b2b 5fbd 2d0c 953d 020d ebbd 50e6 d13c
00000340: 58a8 fbbc 74e8 993d 7c0e 91bd b06d b83d
00000350: 43df 21bd cd0d 55bd 9f5f aebd 01a9 d9bd
00000360: a02c 81bb e955 1ebd 0820 983d ca7c f83d
00000370: 0c55 02bd fe43 04bd ef75 83bd 7458 913d
00000380: df1f e73d c230 96bd 8782 26bd 25ab 7abc
00000390: 9528 ad3c 1892 b1bd a1d5 823b b9a7 3a3d
000003a0: a6c8 e0bd 27dd ef3d 54ad d13d 67bc f73d
000003b0: c0a8 c5bd dcf3 d8bd ea3a 0b3d 9000 4c3d
000003c0: e209 303c 6c9a b9ba dbf3 e9bc fd2a c3bd
000003d0: 7efd f53c 86c0 d3bd 85fe 5d3d 20b1 84bd
000003e0: 6146 8aba 2b18 af3d 4683 2fbd 9277 2e3c
000003f0: 17f5 d4bd 8276 0ebd e29a 75bd 0647 f03c
0.076052085 -0.008164314 0.018017648 -0.032103077 -0.0059296833 -0.06135735 -0.013103397 0.030502161
0.12820143 0.07843791 0.10053321 -0.07109612 0.013872738 0.009442248 0.04297494 0.12499589
0.018303156 0.038802624 0.08274576 0.01536039 -0.014513327 -0.028143303 -0.043197647 0.052306
0.06244215 0.051841862 -0.055151388 -0.0148953805 -0.004918024 0.0503978 0.061176613 0.11982685
0.036839455 0.039140895 -0.018989144 0.08231147 0.13245097 -0.01568754 0.084659934 0.047197122
0.09030374 0.017434862 0.021427903 -0.11054667 -0.060670875 0.07483977 0.11867852 -0.10582414
0.079971194 -0.0915342 0.07103928 0.037343696 -0.017218668 -0.0726909 0.0937049 -0.07089675
0.0894628 0.056742724 0.08748543 0.037079517 -0.1001397 0.022440223 -0.056732185 -0.056280814
0.012843112 0.10630577 -0.02937025 0.07387119 -0.014330698 0.029706856 0.118391804 -0.05944306
0.05056562 0.019796101 0.024496961 0.0449812 -0.09347435 -0.04358309 0.069367535 -0.11047269
0.044397052 0.12075031 -0.052143507 0.066449836 -0.051378563 0.09737234 0.009372763 0.117458284
-0.104503945 -0.03135829 0.019986609 -0.017701022 -0.010674509 0.100864746 0.070218705 0.057165507
-0.055705477 0.06596106 -0.014498323 -0.018016785 0.025468564 -0.07108852 -0.048113212 -0.11616479
0.096570835 -0.084046565 -0.025802135 -0.06259829 -0.103168786 -0.0719382 0.014336723 0.06613398
0.10076623 0.0005261317 0.07772532 -0.10480035 -0.053609528 0.01843293 0.11015006 0.085028484
-0.11885825 -0.056664262 0.1180353 0.12266401 0.05634097 0.09255025 -0.019398177 0.068872705
0.078480095 -0.09601527 0.027751377 0.043658532 0.09222392 -0.03581672 0.065523975 -0.08450155
0.021213777 -0.047907054 0.06828168 0.06470506 -0.04392332 -0.060559772 0.08337986 0.112516075
0.0767391 0.01240304 0.036075775 -0.01975079 0.046679143 -0.009592834 -0.040898092 -0.004121367
0.082218036 0.10924157 0.08956557 -0.07124467 -0.10048498 -0.10904112 0.025435025 0.07455858
0.05250043 0.06251361 0.10926097 -0.07727609 -0.017839765 0.021311838 0.011140303 -0.01956169
0.03449696 0.087194 0.10901393 -0.06704983 0.018155824 -0.10473214 0.043007106 -0.022128155
0.11797836 0.08661633 -0.025063684 -0.07119316 0.039437514 0.09781964 -0.09666604 -0.11178798
0.08805221 -0.04909707 0.12965122 -0.030999238 0.10713115 0.013510411 -0.020817742 0.04533339
0.108531155 -0.050153833 0.055694327 0.11857739 0.024342464 -0.07943982 0.11974765 -0.02379063
-0.021857351 -0.053994052 0.11946869 0.06865446 -0.054484706 0.07277713 -0.114770904 0.025622517
-0.030719921 0.0751504 -0.07082841 0.09005296 -0.03951956 -0.052015115 -0.08514332 -0.10627938
-0.0039420873 -0.03865615 0.074279845 0.121331766 -0.03181939 -0.032291405 -0.064189784 0.07096949
0.11285376 -0.073335186 -0.040651824 -0.015299593 0.021137515 -0.08670443 0.0039927517 0.04557011
-0.10975771 0.11712103 0.10238138 0.12096482 -0.09651327 -0.105933875 0.03399173 0.049805224
0.010744544 -0.0014160401 -0.028558662 -0.09529684 0.030028101 -0.10339455 0.054197807 -0.064790964
-0.0010549539 0.085495315 -0.0428498 0.010648625 -0.1039831 -0.034780987 -0.05996216 0.029330742

encoder.layers.2.nn.net.0.bias f4 [64]
00000000: aa07 01be 21e1 86bd 19ff 4ebd 5106 d4bc
00000010: 5ac9 50bd 528d 943d c43c 4fbd aa12 36bd
00000020: 21a3 cbbc 9b5f 763d da0b 1f3d a368 80bd
00000030: f5e5 be3d afb5 f1bb 0af7 683d 725d 78bc
00000040: cba2 65bd 7bf4 42bd 7052 6b3d 7584 06bd
00000050: 572c f2bd bf0b 3dbc 065c da3c 269b 9a3d
00000060: 55fe eb3d 3fbc eabd 8af1 ba3d 3f56 42bc
00000070: 2be1 b5bd 642b e1bd 1046 7d3c 8a3a 913d
00000080: bcb5 afbc c6ef 9cbd 605b c43d 69f9 913d
00000090: 0615 b9ba d85d f0bd 821d 923c 224c 4fbd
000000a0: 4eb3 a0bd fe3c e03c 87ea 553c 9fe9 6f3b
000000b0: ce2f 273c 6bc4 68bd f5fb 90ba df74 97bd
000000c0: 2994 d3bc 65f7 a43c 97c6 bfbd 8b31 a33d
000000d0: 49bc b2bd 6a22 dcbd 2315 7abd 1c44 003e
000000e0: 2592 54bd 9619 913d d81a bebd 27c1 893d
000000f0: 1717 fb3d 40d1 96bd fc2a 9dbd 52f7 a5bc
-0.1260058 -0.06585909 -0.05053625 -0.025881918 -0.050973274 0.07253517 -0.05059506 -0.044451393
-0.02485806 0.06014977 0.038829662 -0.06269958 0.093212046 -0.0073763947 0.05687622 -0.015158998
-0.056063455 -0.047596436 0.057451665 -0.032841165 -0.118248634 -0.011538445 0.026655208 0.075491235
0.11523119 -0.11461686 0.09128101 -0.011861383 -0.08880838 -0.10994604 0.015458599 0.070912436
-0.021448962 -0.07662921 0.09587741 0.07127649 -0.0014120645 -0.11736649 0.017836336 -0.050609715
-0.078467 0.027372833 0.013056404 0.0036607755 0.010204269 -0.056827944 -0.0011061417 -0.07395338
-0.025827484 0.020137498 -0.0936405 0.07968434 -0.08727319 -0.107487515 -0.061055314 0.12525982
-0.051897187 0.07084958 -0.09282464 0.06726294 0.122602634 -0.0736413 -0.07674214 -0.020259533

encoder.layers.2.nn.net.2.weight f4 [64, 64]
00000000: c0b4 eebd 36a2 a6bd 4220 873d 47a3 993d
00000010: f3c5 043e 6c44 f83c cfa1 013e b498 41bd
00000020: 7988 a2bc a5ba 30bd e9ad df3b 94af c73d
00000030: 2d02 fd39 661e e5b9 1886 223d 8863 b5bd
00000040: c865 dcbd 22d2 a6bc a61c 243c fd55 13bd
00000050: cedf bcbd cd82 dabd d89e 0fbd e187 9e3c
00000060: bdac de3d 8cd8 c23d 5714 2cbc e89b 08bd
00000070: b388 f0bd e6b7 203d 7e92 2a3b 57ca ae3d
00000080: 2cc1 56bd f5f8 1ebd 4ba4 d7bc 4bb1 9c3d
00000090: 469c a43d fcb9 93bd 973c d2bd 7a48 993c
000000a0: dff9 fabc a300 a33d b682 b4bd bec6 3f3d
000000b0: edae d2bc 3f2d 9bbc d002 cdbd ee1b 98bd
000000c0: f5c0 c8bc d508 8bbc 978e a33d 4212 853d
000000d0: 3def 033d 4987 d23c 0c36 40bd 1acf 673d
000000e0: 1ac2 64bd 58a1 083d c175 82bd a257 8cbd
000000f0: e255 48bd bf4f 8bbd 59e0 b4ba f810 843d
00000100: 326f 31bd 83a7 f63b 2472 1bbd d638 d83d
00000110: 7a07 643d b495 c63d 5e43 a1bd fdb3 a8bc
00000120: 5e51 aa3d 75b2 d63d 0cde b1bd a837 ef3c
00000130: 2b3d c5bd bfb6 e0bd 7416 663d ae69 af3d
00000140: 0218 d6bc 293e b1bc 5fb7 893d ca3a a13d
00000150: 9de4 e0bd 9ab6 a93c f84d f43a 5780 99bd
00000160: eda4 cfbd 904a 8f3d fc5a b43d 8178 bb3c
00000170: 6b0e d2bd 49c9 aabd 904f d1bd dd57 df3d
00000180: ec9c 6ebd dca5 29bc 499b cebd cb25 33bc
00000190: 9377 ff3c 6d79 7bbd 851b 9d3d f57b d6bd
000001a0: 2a4b 54bd b7cc 76bd cdbc d73d 6091 e63b
000001b0: 6872 123b 4f85 f1bb be63 94bd abfb 353d
000001c0: 7149 213d 8cda 48bd 73b8 a6bd 7dfa d1bd
000001d0: e401 a33d 41b8 d83d ea03 bd3d 91ad 8b3d
000001e0: 5d7a c13c afba 06be 8614 d83c 4d50 8e3d
000001f0: 0618 05be 6c0f 8bbd 3830 ffbd 3fe6 11bd
00000200: 109f b0bd 5933 29bd 387b 8cbd a05a ebbc
00000210: 2b4a 14bd e81f c53b 5f88 04bd d1f3 a1bd
00000220: 8fca 78bd ed1f 8f3d d79b ed3c 1e1c 1e3c
00000230: 64a6 85bd 8d48 9bbd 2712 b6bd 331a 0b3d
00000240: 5eea ad3b 06ef 9a3d b03e ed3d 01ba 6e3d
00000250: 131b 83bc 2c15 103c 4a47 cebb 2c45 8d3d
00000260: 9078 e13d da59 f7bd 7048 b23c 23c0 bcbd
00000270: f736 843d 6b04 87bd 7758 b0bd 4e0d 08bc
00000280: 40c5 863b 62cd 4f3d 89e7 853c 9d1b fe3b
00000290: e4c7 cebd 2917 703d 1bf7 ab3d 1e0b 623d
000002a0: 37b2 b0bd b38c 84bd e2e4 833d bb55 4b3d
000002b0: 0d19 b1bd 7422 84bd eba0 debd 30a8 80bc
000002c0: 7055 5abd 2791 95bd e9f1 243c 216b 63bd
000002d0: aa8c bd3d 608c 99bd fbf6 d6bd ffe8 693d
000002e0: 4c2e 4ebd c87d f13d 2228 df3d 034a af3d
000002f0: 13d2 8e3d 1c31 6dbd 0e84 c93c 0c36 e83d
00000300: 038b c93c 2dc2 b6bd d5e0 f7bd 33b8 99bd
00000310: 333a 043e cb5a afbc 8f93 b4bd a604 bfbb
00000320: 0066 d23d 9e2e e73c 4f26 a43c 8b3a 003e
00000330: 1c58 433d 574e fabc 8b8e 833d e35a 3c3d
00000340: 67d1 de3d c9d7 8a3c b0a3 93bd 92a9 82bd
00000350: a6f9 923d 1270 c8bd fbcd c53d 7f7b 93bd
00000360: bccf 993d 26ff 643d 7c3c fcbd d952 c4bc
00000370: a039 28bd a1c2 d13c 3412 fc3d 179f bebc
00000380: e617 e0bd 835e 8a3d 0765 f43d 09e2 cebd
00000390: e149 ed3d 7f26 873d b38c 96bd f7db a9bc
000003a0: f066 f4bc 6c84 743c 20f3 b03d bea7 f3bd
000003b0: 4c61 52bd 0fbf b63d 15a7 293c e950 51bd
000003c0: f8ab 493b 2011 ca3d dff9 12bd 585f ef3d
000003d0: c24d 4bbc d2fe e5bd 6c4e 87bd ca0d df3d
000003e0: edba b13c ab54 d4bd 90aa d63d fee3 59bd
000003f0: 25c5 48bd 7d23 a43d 8f5d c7bd fa69 d73d
-0.11655569 -0.08136408 0.065979496 0.07501846 0.12966137 0.030306064 0.12659381 -0.04726477
-0.019840466 -0.043146748 0.0068261516 0.09750286 0.00048257541 -0.00043700932 0.039678663 -0.08856875
-0.10761601 -0.020363871 0.010016596 -0.035970677 -0.09222375 -0.106694795 -0.035063595 0.019351901
0.10872791 0.09513959 -0.010502896 -0.03335181 -0.11744823 0.03923788 0.0026027258 0.08534687
-0.052430317 -0.038811643 -0.026323458 0.076510035 0.08037619 -0.07213208 -0.10265463 0.018711317
-0.030636726 0.07959106 -0.08813994 0.046820395 -0.025718177 -0.018942473 -0.10010302 -0.07427202
-0.024506072 -0.016971985 0.07986181 0.06497623 0.032210577 0.025699275 -0.046926543 0.05659399
-0.055849172 0.033356994 -0.06370116 -0.06852652 -0.04891003 -0.0680232 -0.0013799771 0.06448549
-0.043318935 0.007527293 -0.03795065 0.105577156 0.055671193 0.09696522 -0.078741774 -0.020593638
0.08316301 0.10483257 -0.0868493 0.029201344 -0.096308075 -0.10972356 0.056173757 0.08565079
-0.026134495 -0.021636086 0.067244284 0.07872541 -0.109811045 0.020716954 0.0018638959 -0.07495182
-0.10138879 0.069966435 0.088064164 0.02288461 -0.10256656 -0.08339173 -0.102202535 0.109054305
-0.05825512 -0.010354485 -0.10088212 -0.0109343035 0.031184947 -0.061395098 0.076712646 -0.10472862
-0.051829495 -0.060253825 0.10534058 0.007036373 0.0022346023 -0.007370628 -0.07245587 0.044429462
0.03937668 -0.049036548 -0.0814065 -0.10252855 0.07959345 0.10582019 0.09229262 0.068202145
0.023617918 -0.13157152 0.026376974 0.0694891 -0.12997445 -0.06790051 -0.12460369 -0.03561997
-0.08624089 -0.041308735 -0.068594396 -0.028729737 -0.036203545 0.0060157664 -0.032356616 -0.079078324
-0.06074005 0.06988511 0.029004974 0.009650258 -0.06525877 -0.07582197 -0.08890181 0.033960532
0.0053074798 0.07565121 0.11584222 0.058282856 -0.01600412 0.00879411 -0.0062951194 0.06897959
0.110093236 -0.12077685 0.021763057 -0.09216335 0.06455796 -0.065926395 -0.08610623 -0.008303953
0.0041128695 0.050732978 0.016345756 0.0077547566 -0.1009672 0.058615837 0.08396741 0.055186383
-0.08627742 -0.06472149 0.0644014 0.049642306 -0.08647356 -0.06451884 -0.108705364 -0.015705198
-0.053304136 -0.07303076 0.0100674415 -0.055522088 0.09255345 -0.074974775 -0.104963265 0.057106968
-0.05033712 0.11791569 0.108963266 0.085590385 0.06973662 -0.057908162 0.024599101 0.113384336
0.024602419 -0.08923755 -0.1210343 -0.07505836 0.12912826 -0.021405598 -0.08817207 -0.0058294116
0.10273361 0.028220471 0.020037798 0.12522332 0.04769145 -0.030554933 0.06423672 0.045985114
0.10879784 0.016948598 -0.07208955 -0.06379999 0.07176523 -0.09787001 0.09658428 -0.072012894
0.07510325 0.05590739 -0.12316224 -0.023965286 -0.04107058 0.025605502 0.123081595 -0.02326922
-0.10942058 0.06756308 0.11933332 -0.101017065 0.11586357 0.065991394 -0.07351055 -0.02073477
-0.02983424 0.01492415 0.086401224 -0.11897229 -0.05136232 0.0892316 0.010354777 -0.051102553
0.0030772667 0.098665476 -0.035882827 0.11688107 -0.012408676 -0.11230244 -0.06606755 0.10891302
0.021695578 -0.10367712 0.10481751 -0.053195946 -0.049016137 0.08014581 -0.09734642 0.1051826

encoder.layers.2.nn.net.2.bias f4 [64]
00000000: 396a 06bd d26f a7bd 35ee 273d cdaa 8bbd
00000010: 765f 38bd adf7 913d d0bb 943d c66f 963d
00000020: b668 a7bd eb49 98bd 26ab c7bd 3cc9 d63d
00000030: 459d 9dbd 0880 d1bd 9b45 e7bd 1fc8 873d
00000040: 0f74 913d f4ce 693d a327 39bb 1dcd 94bd
00000050: cf79 413c fb36 a43d 3149 d7bc f529 3bbc
00000060: d731 c53c b48c 803d ebc8 30bd 09ed 25bd
00000070: 383f dcbd aec0 133d ab0b 92bd ec44 393b
00000080: 440e 023b 993a cdbd 5ea1 23bd e3f2 583d
00000090: 3d51 863d af2a c13d 725c acbd 99ba 573d
000000a0: d7c0 ef3d 5d07 3a3d 84f1 a2bd 50ac 633d
000000b0: fe50 d6bd 5d0d 52bc 869c 513c 47a4 f1bd
000000c0: b848 ae3d 1d48 13bd c5e9 32bd 7df3 853d
000000d0: 9bbd f4bc 6ea1 8dbd 6c9e af3d 387a c6bd
000000e0: d2be 6e3d 2679 a43d 14d4 edbc b80b c33d
000000f0: eb34 2b3d a265 9e3d 3595 d43d 256b db3d
-0.032816146 -0.08175625 0.040998656 -0.06819687 -0.045012914 0.071273185 0.07262385 0.07345538
-0.08174269 -0.07435974 -0.09749441 0.10487601 -0.076960124 -0.10229498 -0.11292573 0.06629967
0.071022145 0.05708213 -0.0028252385 -0.07265685 0.011808827 0.08018299 -0.026280018 -0.011423578
0.024071617 0.06276837 -0.04316036 -0.040509257 -0.107542455 0.036072426 -0.07131132 0.002826984
0.0019844929 -0.10020942 -0.039948814 0.05296601 0.06558464 0.094319694 -0.0841607 0.052668188
0.11706703 0.04541718 -0.07956222 0.055584252 -0.10464667 -0.012820569 0.012793666 -0.117989115
0.08509964 -0.035957444 -0.04367997 0.06540582 -0.029875567 -0.06915556 0.085751384 -0.0969128
0.05828745 0.0803092 -0.02903179 0.095237195 0.041798513 0.07734229 0.103800215 0.107137956
