scripts/embeddings_gin_version2/IMDB-MULTI/gin_dim128_ep100_lr0.0005_drop0.3/gin_classifier.pt (torch, 626909 bytes, 42 tensors)

encoder.layers.0.nn.net.0.weight f4 [128, 1]
000000 c0 0a 5b 3e 2a 29 5b 3f 70 89 43 be 9e b2 12 3e
       0.2139082 0.85609686 -0.19095397 0.1432595
000010 45 d2 5e 3e ea be 23 bf d4 7c f4 be ac 0b 96 3e
       0.21759899 -0.63963187 -0.47751486 0.2930578
000020 76 e8 04 bf 5a 60 33 3f 60 3b 70 bf 56 52 02 bf
       -0.5191721 0.70068896 -0.938406 -0.50906885
000030 3e 20 04 3f a5 85 ee 3e 54 92 57 3f 9a 44 2f 3f
       0.516117 0.46586338 0.84207654 0.6846405
000040 c8 d8 6b bf 0d 9c 19 3f 18 49 40 3f b0 b7 69 3f
       -0.92127657 0.6000374 0.7511153 0.9129591
000050 9c 11 f5 be 91 b2 78 3e 90 c7 27 bf 18 a9 1e be
       -0.47864997 0.24286868 -0.65538883 -0.15494192
000060 a0 18 dc be 32 dc fd 3e 0c e5 ac 3e 20 16 1a be
       -0.42987537 0.49582058 0.337685 -0.15047503
000070 89 6f 36 3e 32 81 15 3f 2c af a9 be 60 7e be bd
       0.17815985 0.5840026 -0.33141458 -0.09301448
000080 ec 09 77 bf fd 5d 42 3f 8d c1 50 3d ac e0 4b bf
       -0.96499515 0.75924665 0.050965834 -0.796397
000090 20 98 c7 bd af ba f1 3e 00 85 b4 bd 28 40 0e 3f
       -0.097458124 0.4721274 -0.0881443 0.55566645
0000a0 a5 f5 ee 3e 4e 10 46 bf ee 70 28 bf 22 28 8a 3e
       0.46671787 -0.7736863 -0.6579732 0.26983744
0000b0 dd f7 69 3f 4c 61 ae be 03 e1 05 3e 1d ff 9f bc
       0.91393834 -0.34058607 0.13074116 -0.019530827
0000c0 c8 d4 ec be 4c d2 ef be 65 e1 7b 3f 9f 7d c7 3e
       -0.4625609 -0.4684013 0.983908 0.3896303
0000d0 b4 52 85 be 61 84 4f 3f 54 1e 4c bf 1b 46 26 3f
       -0.2603966 0.8106137 -0.7973378 0.6495072
0000e0 b8 5c dc be 98 49 74 bf 80 fd 8f be f4 b4 54 bf
       -0.4303949 -0.95424795 -0.28123093 -0.8308861
0000f0 6f 5a 5e 3e 44 7f 5c bf 7c 13 7e bf f2 b1 4b 3e
       0.21714185 -0.8613169 -0.9924848 0.198921
000100 2c 43 49 3f 14 c7 db be 5a 7c 7e bf b8 90 87 bc
       0.7861812 -0.42925322 -0.99408495 -0.0165485
000110 e0 0b 9c bd 79 ec 88 ba 08 0a e9 3d 08 5e 34 3f
       -0.076194525 -0.0010446451 0.113788664 0.7045598
000120 13 66 10 3e 1b 06 c5 3e 18 b5 42 bf c4 a4 c2 be
       0.14101438 0.3848122 -0.7605758 -0.3801633
000130 fe 3c 8d 3e c4 0e 0d bf 00 b6 74 bc 64 85 d0 be
       0.27585596 -0.55100656 -0.01493597 -0.4072677
000140 94 37 67 3f 7b 5c 7c 3e 28 83 75 bf 9a bc 2a bf
       0.9031918 0.24644653 -0.95903254 -0.66694033
000150 13 76 19 3f 50 d6 b7 be e4 47 f5 be 6c 9d ed 3e
       0.5994579 -0.35905695 -0.4790641 0.46409166
000160 ae 75 17 3f 92 c5 2f bf 12 bc 26 bf 90 01 79 bf
       0.5916394 -0.68660843 -0.6513072 -0.9726801
000170 e9 a3 4e 3f 22 e3 19 bf c8 4a 63 be 5c 82 18 3f
       0.8071886 -0.601122 -0.22196496 0.5957391
000180 6d 45 37 3f c0 9d c5 be 9c 9e 23 bf 16 62 70 bf
       0.7159031 -0.38596916 -0.63913894 -0.9389967
000190 27 1e 89 3e 9c 0e 50 bf dd de a2 3b 04 3c 64 bf
       0.26780817 -0.8127229 0.004970415 -0.89154077
0001a0 e9 c2 ec 3e 39 0c 34 3f a8 d7 89 3d b0 66 c9 bd
       0.46242455 0.7033115 0.06730586 -0.09834039
0001b0 39 2e 04 3e b6 cd 87 3b c5 95 91 3e 20 9f 4f be
       0.12908258 0.0041443957 0.28434578 -0.20275545
0001c0 12 2b 73 3f 5a 22 62 bf 24 85 33 bf a8 22 df 3c
       0.94987595 -0.88333666 -0.7012503 0.027238205
0001d0 e4 01 0c 3f 48 ee 6d be c8 b4 c3 be 40 2d 60 bd
       0.54690385 -0.23235428 -0.38223863 -0.054730654
0001e0 a7 8b 1a 3f 58 98 fd be b8 04 45 bf 1b f8 0e 3f
       0.6036934 -0.49530292 -0.76960325 0.5584733
0001f0 80 6d 66 bd 18 1d 5e 3e e8 b9 46 3f bc 13 dc be
       -0.05625677 0.21690786 0.7762742 -0.42983806

encoder.layers.0.nn.net.0.bias f4 [128]
000000 e3 f9 4c bf 3c 98 86 be 34 54 f6 be 09 70 36 bf
       -0.80068797 -0.2628802 -0.48111117 -0.712647
000010 09 bd 88 be 10 97 23 3f 90 78 3e 3f 7e a5 ad bd
       -0.26706722 0.6390238 0.74402714 -0.08478831
000020 60 ff 5a bd d9 ac 19 3f 30 1b bf 3e 60 7d 60 bf
       -0.0534662 0.6002937 0.3732543 -0.8769131
000030 bb 7b 40 bf ab 8c dd 3e bb f9 6e 3f 29 f1 0c bf
       -0.751888 0.43271384 0.9334981 -0.5505548
000040 70 46 d2 bd d9 51 02 3f 5f 2e 1b bd f7 92 44 bf
       -0.10267341 0.5090614 -0.03788602 -0.7678675
000050 8c 7a 8d be bf b3 14 3f 78 59 bb 3e 8e e9 7a 3f
       -0.27632558 0.5808677 0.36591697 0.98012626
000060 f4 27 2a 3f 81 50 4c bf ba 71 85 be 80 53 ae bd
       0.66467214 -0.7981034 -0.2606333 -0.0851202
000070 5e bc 7d bf 12 b0 b9 bd c0 5e 77 3f 60 f2 f5 bd
       -0.9911555 -0.09066786 0.9662895 -0.1200912
000080 08 1c 2d bf 7e 31 9f 3c f7 6e 24 3f 2c 7a f0 3e
       -0.676209 0.01943278 0.6423182 0.4696821
000090 a4 ae c6 be bf 45 77 bf 10 a0 5f 3f 0e cf 33 3f
       -0.38805115 -0.965908 0.8735361 0.70237815
0000a0 32 e9 bd bb 68 91 24 bf 00 dd 3c 3e 08 70 54 3f
       -0.0057956213 -0.6428437 0.1844368 0.82983446
0000b0 67 88 77 3f 48 a7 f5 be db 19 cb 3e 27 03 e9 3e
       0.9669251 -0.47979188 0.39668164 0.45510218
0000c0 a8 d1 13 3e 4c d2 89 be 17 de cc bd a7 01 4b be
       0.14435446 -0.26918256 -0.10003298 -0.19824849
0000d0 2e 1a 4c 3f 0d c9 36 3e 00 41 2c 3d db 37 fd 3e
       0.7972745 0.17850132 0.042054176 0.49456677
0000e0 18 ee 46 bf 3a f0 0e 3f 66 4e 1e bf bc 46 8b be
       -0.7770705 0.55835307 -0.61838377 -0.27202404
0000f0 2d 75 b4 bd 60 49 68 bd 14 f8 73 3f 5b b6 0d be
       -0.08811412 -0.0567106 0.9530041 -0.13839094
000100 4e e4 17 3f 00 28 70 3b 58 7a 76 bf 05 62 1c 3f
       0.5933274 0.0036644936 -0.9628043 0.61087066
000110 3c 01 67 bf 2a da ae 3d 88 e5 38 3f 66 e3 2e bf
       -0.9023626 0.08537705 0.72225237 -0.6831573
000120 bc a8 2e 3f 21 82 8f be 8a 91 63 bf 48 27 ac 3e
       0.6822622 -0.28028968 -0.8889395 0.3362372
000130 16 9a 22 3f b4 a5 f7 be a4 4f 87 be f0 27 15 3f
       0.63516366 -0.4836861 -0.26427948 0.58264065
000140 f1 3b 57 3e 3d 0b 04 bf 70 9c cd be 84 4c b1 3e
       0.2101896 -0.5157965 -0.40158415 0.3462869
000150 5c a1 0e 3f 10 c9 5c be 6a ae 57 3f a0 f4 6e bf
       0.55714965 -0.21561074 0.8425051 -0.9334202
000160 4b 6b 4d 3f bc cd fa be 90 7b f9 3e 68 cb 80 3e
       0.8024184 -0.48985088 0.48727083 0.25155187
000170 2e 6b 4b 3f 60 9e 02 bf 90 68 3b 3e 1c ff 5c 3f
       0.7946042 -0.5102291 0.18301606 0.86326766
000180 ad 61 0b bf 80 ab 0e bd c0 d8 ad 3d a8 81 91 be
       -0.54445916 -0.034831524 0.084886074 -0.28419232
000190 b1 08 9a be 2c 0a 8b 3e ec 49 85 3d 68 77 d9 be
       -0.30084756 0.27156198 0.0650824 -0.42473912
0001a0 c8 85 57 3f 1c c5 58 bf cd f6 8b bd 30 9c 64 bf
       0.8418851 -0.84675765 -0.06834183 -0.89300823
0001b0 99 0c a7 3e c1 d0 02 bf 50 e0 54 3f 18 30 fb 3e
       0.326268 -0.51099783 0.83154774 0.4906013
0001c0 8e 27 01 3f aa ad 57 3f d0 96 91 3e 14 3f 72 bf
       0.5045098 0.84249365 0.28435373 -0.946275
0001d0 bd ac 20 3f 00 23 65 bf c0 60 34 3e 00 76 70 bf
       0.6276358 -0.8950653 0.17615032 -0.93930054
0001e0 79 1c 54 3f ca 70 6e 3f e8 f0 0b be c2 0c 2b 3f
       0.82855946 0.9314085 -0.13666117 0.6681634
0001f0 e4 b7 ae be d4 f1 51 3f b8 32 38 bf e0 d9 d3 3e
       -0.34124672 0.82009625 -0.7195239 0.41377163

encoder.layers.0.nn.net.2.weight f4 [128, 128]
000000 87 50 22 3c d2 7a e6 3c a3 63 92 3d 13 f5 10 3d
       0.0099068945 0.028134737 0.071479104 0.03538997
000010 49 b1 0c 3c 25 1d 7d 3b fb 5c 57 bc 06 81 a3 3d
       0.00858719 0.0038622108 -0.013144727 0.07983594
000020 b1 fc 1e bd 19 e3 15 bc 94 8c 64 3c 16 33 03 bc
       -0.038815204 -0.009148383 0.013949532 -0.008007785
000030 fb b0 d3 3b 8e ab 8a bd 71 e0 93 3d 8e d1 8a 3d
       0.0064603067 -0.06771003 0.07220543 0.06778251
000040 89 20 b0 3d 0f 21 32 3d 59 c0 b5 bc 73 35 08 3d
       0.085999556 0.04348856 -0.022186445 0.0332541
000050 40 d0 64 3d f8 6a f2 3c a1 ab 95 3d 76 2d ff 3c
       0.055862665 0.029592022 0.07308126 0.031149607
000060 4f 82 c1 3c b9 ed 49 bd 69 cc 08 ba de f8 8d 3d
       0.023621706 -0.049298976 -0.0005218448 0.06932233
000070 29 f1 56 bd 0d 8b 72 3d 6e 87 a7 3d 09 70 54 3d
       -0.052476082 0.05921464 0.08180128 0.051864658
000080 c2 2c a2 bc b4 39 90 bd ee 29 3c 3d 61 c4 7c 3d
       -0.019796733 -0.07042256 0.045938425 0.06171072
000090 e1 3f 60 3c c6 ac 47 3d b3 ac f6 3b f2 d1 63 3d
       0.013687105 0.048748754 0.0075279116 0.05562014
0000a0 39 90 8c 3c 2c 20 57 bc d1 73 94 3d 57 07 08 3d
       0.017158614 -0.013130229 0.07248653 0.033210125
0000b0 ad 8f 66 3b e5 2a 04 3d 66 f4 a4 3d fc c9 d6 bc
       0.0035180852 0.03226747 0.08054428 -0.02621936
0000c0 76 52 b1 bd 53 2d 97 3d ed 1c 84 3d e0 cb 22 3d
       -0.08658306 0.07381692 0.0645083 0.03974521
0000d0 56 ed 98 bd 4a e3 ac bd 50 30 f7 bc 69 6a 5b bd
       -0.07467143 -0.084417894 -0.030174404 -0.053568278
0000e0 38 b3 02 3d 41 0e 97 ba 4b a7 60 3b e0 8c b2 3d
       0.031909198 -0.0011524634 0.0034279402 0.08718276
0000f0 67 7b b2 bd 91 39 5c bd d6 c0 29 3c b5 2c a5 3d
       -0.087149434 -0.053765837 0.010360917 0.08065168
000100 bf ee 67 3d c4 20 ad bd ec af a5 3d 2d e2 5f 3d
       0.05662417 -0.08453515 0.08090195 0.054659057
000110 7b ec 7d 3d ed 5b 6b bd 8b ea a5 3d 13 5a b6 ba
       0.061993103 -0.057460714 0.08101376 -0.0013912342
000120 76 e8 62 bd df 1e c1 bb 2a 46 b1 bd ee 2d 84 bc
       -0.055397473 -0.0058935727 -0.08655961 -0.016135182
000130 70 48 ac 3d 94 4d 21 3c 26 f8 4a 3b 7c 54 80 bd
       0.08412254 0.009845156 0.0030970662 -0.06266114
000140 1b e8 89 3d 3a a5 e2 3c 75 57 aa 3d 38 db f5 bb
       0.06733724 0.027666677 0.08317462 -0.0075029396
000150 7d 0c 31 bd 9b 8b 4f bd a7 72 98 bd fe 78 80 3d
       -0.0432248 -0.050670248 -0.07443743 0.062730774
000160 9c 16 ac bd fc fc be bc e9 c9 86 3d 09 cd e4 3c
       -0.0840275 -0.023313992 0.0658148 0.0279298
000170 2e 6f dd bc e7 6b 7c bd cd 00 8b 3d a8 e2 ae 3d
       -0.027030554 -0.06162634 0.06787262 0.08539325
000180 45 65 fd bc e9 54 02 3d 35 01 a7 3d b3 1c 12 3d
       -0.030932078 0.031819258 0.08154527 0.0356719
000190 3d ba 84 3d f3 32 b3 3d ad c2 2d bd 30 06 e7 3c
       0.06480835 0.08749952 -0.042421985 0.028201193
0001a0 c6 3c d5 bc c3 b4 7f 3d c6 62 a7 3d 5a cb 9f 3d
       -0.026029956 0.062428247 0.081731364 0.07802458
0001b0 2a a4 4b bd 5c a9 a4 3d 59 29 c3 3c 2e c0 f8 3b
       -0.049717106 0.08040115 0.023823427 0.007591269
0001c0 a1 d5 92 bd ef e3 a4 bd e3 68 2a bd e4 c4 11 bd
       -0.07169653 -0.080512874 -0.041603934 -0.03558816
0001d0 56 40 da 3c 2b 3c 33 3d 18 2a 35 bd 8d 39 70 bd
       0.026642006 0.043758553 -0.044229597 -0.058648635
0001e0 c9 7e 01 bc a8 73 9d bd 58 93 a8 bc 26 85 40 3c
       -0.007903763 -0.07688075 -0.020578071 0.011750495
0001f0 f0 f1 4d 3d ae 6c a6 3d 53 28 39 3b e5 4e d9 3c
       0.050279558 0.08126198 0.0028252795 0.026526878
000200 67 69 4e bd d7 96 23 3d 42 0a 4b bd e9 10 dd bc
       -0.05039349 0.039938774 -0.04957033 -0.026985602
000210 34 e4 bc bd 3e 8f 9f 3d 63 b9 15 3c 64 80 61 bd
       -0.09223214 0.07790993 0.009138438 -0.055054083
000220 8b 0f d9 3c 72 bd 76 bd af 77 62 ba df b7 e7 3c
       0.02649667 -0.060239263 -0.000863905 0.028285919
000230 b8 06 cc bd e3 6c b1 bd fe 46 67 3d 21 4a f5 bb
       -0.09962219 -0.086633466 0.056464188 -0.0074856435
000240 08 2b 27 3c 60 31 59 bd f6 d1 a5 bd e6 eb cd bd
       0.010203131 -0.053025603 -0.080966875 -0.1005476
000250 52 21 9d 3d f0 8f ea 3a 99 8e 5e bd 4e 3f 07 bc
       0.07672371 0.001789568 -0.05433521 -0.008254839
000260 87 16 9f bd e0 99 83 bd 37 ba 7a bd 6c f9 4a bd
       -0.077679686 -0.06425834 -0.061212745 -0.049554273
000270 b5 e1 07 3d 3c fe 52 bd bc 33 de 3b 91 dc a1 bc
       0.033174235 -0.051511988 0.0067810696 -0.019758495
000280 e0 83 df bc c4 a5 00 bd 65 51 89 bd 29 a1 34 3d
       -0.027284563 -0.031408086 -0.06704978 0.044099007
000290 61 f8 75 3d ef 52 3a bd d7 da 74 3d 10 9c 1c 3d
       0.060051326 -0.045489248 0.059779014 0.03823477
0002a0 09 2c 3c bc ae 39 62 3c fb e2 b2 3d f5 fc ab 3b
       -0.011485108 0.013807697 0.08734699 0.0052486607
0002b0 e5 92 86 3d 27 ba 4d 3c 08 86 64 3b 3e 2b 85 3d
       0.06570987 0.012556589 0.0034869928 0.065023884
0002c0 5e b6 a0 bc 5b 76 d2 3a b2 15 71 3b ec f4 2e 3d
       -0.01961821 0.0016057001 0.0036786613 0.042714044
0002d0 28 91 97 bb 61 1a 46 bc d1 90 bf 3c 63 88 2b bd
       -0.0046254583 -0.01209125 0.023384484 -0.041878115
0002e0 04 ef 04 3d 54 4a 88 3d fe 61 fe bc 34 84 64 3d
       0.032454506 0.06654802 -0.031052586 0.05579014
0002f0 f9 b0 3f 3d 96 82 fa 3c d3 02 80 3d 03 82 88 bd
       0.046799634 0.030579846 0.06250539 -0.06665423
000300 e9 bc ac bd f3 2c da bb 12 51 7f 3d 75 aa ae 3c
       -0.08434469 -0.0066581904 0.062333174 0.021321515
000310 01 25 a7 bd 7f b1 d4 3c fe 15 8e 3d 38 ca 62 3c
       -0.08161355 0.025963543 0.069377884 0.013842158
000320 b4 c1 6d bd d2 46 6e 3d e0 fd ac 3d ba 39 ff 3c
       -0.058046058 0.05817301 0.0844686 0.031155456
000330 83 f6 a7 bc 7d ed 24 bd 50 72 04 3d 72 9c 2f bd
       -0.020503288 -0.04026555 0.03233558 -0.042873807
000340 a7 67 88 bd 35 e0 81 bd 33 d1 03 3d 48 6f e3 bc
       -0.06660395 -0.06341592 0.03218193 -0.027763024
000350 13 d4 3f ba 21 aa 6f bd 26 18 9c bc d2 38 64 bd
       -0.00073176733 -0.058511857 -0.019054484 -0.05571825
000360 87 03 2b bd f2 d6 2b 3d d1 ec 92 3d 57 8b ad bb
       -0.04175141 0.041953035 0.071740754 -0.0052961516
000370 9d 08 ea bc 3d f2 a3 3d b7 1a 5f 3d b6 09 ca bd
       -0.02856856 0.08005188 0.054468837 -0.098651335
000380 ad f3 3b bd 49 a7 63 bd 7c a3 af 3d d6 37 10 bd
       -0.045886684 -0.055579457 0.08576104 -0.0352095
000390 b6 7b f8 3c 6b 1a bf 3c 47 e1 ff bc 85 25 9e bd
       0.030332427 0.023328027 -0.03123535 -0.07722
0003a0 df dd d6 bd 86 eb 28 3c f9 b8 c8 bd a0 27 10 bd
       -0.10491537 0.010310059 -0.09800906 -0.03519404
0003b0 fc 61 8b 3d 4b 49 c8 bc 11 c8 8f 3d 88 12 02 bd
       0.068057984 -0.024449011 0.070205815 -0.031755954
0003c0 35 b3 d2 bd d1 f9 35 bd 61 7e 4d bd 3e da c3 3c
       -0.10288087 -0.044427697 -0.050169352 0.023907777
0003d0 c0 a0 35 bd e2 15 62 3c 36 a0 0e bd 3d ed 9b bb
       -0.044342756 0.013799163 -0.034820758 -0.0047585056
0003e0 4f db fc bc 3f 17 8c bd e9 13 4c 3d d5 96 7e bb
       -0.030866293 -0.06840371 0.049823675 -0.0038847227
0003f0 4a 65 75 3d 99 11 73 3d 1f 59 c9 bd 05 21 93 3d
       0.05991105 0.059342954 -0.098314516 0.07184032

encoder.layers.0.nn.net.2.bias f4 [128]
000000 ad 49 b0 bd 58 6e 1b bb af b6 2e 3d 5c 20 90 3c
       -0.086078025 -0.0023716893 0.04265469 0.017593555
000010 b7 87 c4 3b 9e 5f 1a 3d ea 44 8f bd 8d 05 b2 bd
       0.005997624 0.037688844 -0.06995566 -0.08692465
000020 b1 1d 24 bd 69 50 3c bd 48 82 a1 bd c9 4c 8c 3d
       -0.04006738 -0.045975123 -0.07886177 0.06850583
000030 68 89 a2 bd d8 99 12 39 0d be 87 bd 97 94 33 3c
       -0.079363644 0.00013980956 -0.06628046 0.01096072
000040 ef 8e 75 bd 06 8f a9 3d f7 36 94 3d 59 fb 5c bd
       -0.059950765 0.08279233 0.07237046 -0.05395064
000050 3e b4 61 bd 7d 07 81 bd ae 77 f9 bb 1c 77 3e 3d
       -0.055103533 -0.063002564 -0.007613144 0.04650031
000060 06 e8 8f bd f7 92 3f 3d 3e cb 93 3c 16 45 9a bd
       -0.07026677 0.046771016 0.01804125 -0.07532708
000070 fc 3e 04 3d a6 e6 ae 3c 7b 90 18 3d f0 3f 85 bd
       0.03228663 0.021350216 0.037247162 -0.06506336
000080 63 22 06 3d 76 23 ac 3d e3 b1 4e bd 4d f4 88 3d
       0.032747637 0.08405201 -0.050462615 0.06687222
000090 59 81 ae 3d 75 12 8c bc cc 68 b9 bc f2 c9 b1 bd
       0.08520765 -0.017098645 -0.022632979 -0.08681096
0000a0 c0 32 2d 3d fb 94 88 bd 88 77 bf 3c 95 94 a9 bd
       0.042284727 -0.06669041 0.023372427 -0.08280293
0000b0 de 14 5d 3c bd ff aa 3c 1b 56 2b bd 4a 73 a2 bd
       0.013493745 0.020873899 -0.041830163 -0.07932146
0000c0 ca 5c 99 3d 59 5b 4f bd 1c 07 b3 bd 7f 65 b1 bc
       0.07488401 -0.050624225 -0.087415904 -0.021654842
0000d0 b4 d1 8a 3d a9 a8 46 3d 85 56 50 3d 63 bb f3 3c
       0.06778279 0.04850069 0.05086376 0.029752439
0000e0 8c fe a8 3d e1 d9 ac 3d 15 2b 4b 3c c9 ec 81 bd
       0.08251676 0.084399946 0.012400408 -0.06343991
0000f0 3e 07 88 bd 88 14 a1 bb 90 fa b3 3c 66 07 79 3d
       -0.06642006 -0.0049157776 0.021970063 0.06079807
000100 68 58 7c bd 3b 02 b9 3c 15 af 73 bd f4 68 09 3d
       -0.06160775 0.022584071 -0.059493143 0.033547357
000110 e5 51 68 3d 5c ad cf 3c 6f fa 82 bc 7f 4a 9f bd
       0.056718726 0.025351219 -0.015988557 -0.07777881
000120 51 66 92 bc 00 7c 20 3d 73 b0 9a bd d1 c0 eb 3c
       -0.017871054 0.039180756 -0.07553186 0.028778465
000130 64 7b 05 bd 37 ac df 3b e5 79 68 bd f4 14 81 bd
       -0.032588378 0.0068259495 -0.056756873 -0.063028246
000140 cf e8 92 3c e6 5a 35 3c 45 54 bd 39 6c 69 65 3d
       0.017933277 0.011069035 0.00036111675 0.05600874
000150 39 03 2c bc 50 6d a8 3d 5b 22 23 3d e7 f2 85 bd
       -0.010498815 0.08223975 0.039827686 -0.065404706
000160 d3 26 97 bc 3d 83 8c 3d ac fb 72 3d 2e 46 25 3d
       -0.01845113 0.06860969 0.059322044 0.04035013
000170 0c e4 8e 3d b1 ff 2e 3d 61 4d 20 bd 7b 8c 84 3c
       0.0697709 0.042724315 -0.039136294 0.016180268
000180 42 4f a3 3d 73 67 36 bd c3 32 21 bd fd f9 ad bb
       0.079741016 -0.04453225 -0.03935505 -0.005309342
000190 c8 a8 73 3c 4e dd f9 bc 3f 4c 3a bd 14 64 00 bd
       0.014871784 -0.030501034 -0.04548287 -0.031345442
0001a0 1f 4d 84 bc e2 3b cc 3c 9b 94 a8 bd 67 d1 88 3d
       -0.016150055 0.024930898 -0.08231469 0.06680565
0001b0 38 ec a9 3d d2 be 2f 3d ca 68 f2 3c 1e 71 a9 3c
       0.08297008 0.04290659 0.029590983 0.020683821
0001c0 43 1e 93 bb d6 ff 9a 3c d7 84 a4 bd 27 9c 8e bd
       -0.0044896915 0.01892082 -0.0803315 -0.069633774
0001d0 f7 f6 85 3d ac f7 08 bd 6c 6b a0 bd 19 18 88 bd
       0.065412454 -0.033439323 -0.07832989 -0.06645221
0001e0 98 ee 99 bd c7 f3 0f bd 66 4c a6 3d 6a ae c9 3c
       -0.07516211 -0.035144594 0.081200406 0.0246193
0001f0 d7 94 47 bd b9 21 82 3d cc da 86 3d 2c ae 47 3d
       -0.04872593 0.06354088 0.06584701 0.048750088

encoder.layers.1.nn.net.0.weight f4 [128, 128]
000000 91 7b 9a bd 48 a9 4e 3d e9 df 47 bc d4 3f a6 bd
       -0.075431 0.050454408 -0.01219938 -0.08117643
000010 b5 4a 49 bc 8a 6f 86 bd c1 02 31 3c 5a bb 84 3d
       -0.012285878 -0.06564243 0.010803879 0.06481047
000020 a8 8b 69 bd ba 64 2b bd a7 cf 55 3d 56 02 04 3d
       -0.057017952 -0.041844107 0.052199986 0.03222879
000030 f2 23 db bc 3f 45 77 bd 43 02 2d 3a d0 c3 92 bd
       -0.026750538 -0.060368773 0.00065997633 -0.071662545
000040 b9 62 77 3d af b8 28 3d f1 99 12 bd 29 2d 91 bd
       0.060396884 0.041191753 -0.03579134 -0.07088692
000050 63 6a 13 3d a7 bc 0b 3d 4b bd d2 bc 6c 25 9c 3d
       0.03599013 0.03411546 -0.025725028 0.07624325
000060 5e b8 3b bd 1d 63 32 3d e6 7c e5 3c 2b 51 85 bc
       -0.045830123 0.043551553 0.028013658 -0.016274055
000070 0d 23 a8 bc d4 ca 9e 3d 6d 5b 18 3d fe 3f 3c 3d
       -0.020524526 0.0775353 0.037196565 0.045959465
000080 92 d9 7c 3d ad 23 82 3d 72 a7 85 3d 8c 39 ad bd
       0.06173093 0.06354461 0.06526078 -0.08458242
000090 14 e9 23 3d 9e c3 7e 3d c5 58 46 3d 37 99 e3 bc
       0.040017202 0.062198274 0.0484245 -0.02778302
0000a0 6b fa 74 3d 54 06 15 3d 3b 71 0d 3c 10 ed 9a bc
       0.05980913 0.036382988 0.008632953 -0.018911868
0000b0 07 85 f2 3b 12 39 f1 3c 6d 22 86 3d af dd df bc
       0.007401112 0.029446159 0.06549535 -0.027327387
0000c0 73 6c 36 3d ad a9 9e bb 86 37 85 3d 9c ce db 3c
       0.04453702 -0.0048420043 0.06504731 0.026831917
0000d0 c7 d4 07 3d 87 4b 65 3c 73 be 93 3d f8 52 aa 3b
       0.033161905 0.013995058 0.0721406 0.005197879
0000e0 e7 5f 1a 3d 4b 63 d9 3c f5 11 80 bd 57 14 b3 3d
       0.037689116 0.026536604 -0.06253425 0.08744114
0000f0 67 e2 bb 3d f7 b6 aa 3d 8a d8 a1 3d 79 ee 44 bd
       0.09174042 0.08335679 0.0790263 -0.048078988
000100 5f 58 4b bd 91 40 4b bd 70 37 b6 3d bc 2f ee bc
       -0.049644824 -0.049622122 0.088972926 -0.029075496
000110 ad 0b 5d bd c7 a7 a0 bd 49 80 99 bd c0 50 65 3d
       -0.053966213 -0.07844501 -0.074951716 0.055985212
000120 54 cf 5b bc d9 e7 8b 3d 3e 5f 7d bd 90 52 4b 3d
       -0.01341613 0.06831331 -0.06185841 0.049639285
000130 e7 20 cf bc 94 21 26 3d 01 99 8b bd 4d aa 96 bd
       -0.025284244 0.040559366 -0.068162926 -0.07356701
000140 07 52 47 3d c3 74 9e 3b 82 01 98 bc 84 a0 bc bd
       0.04866221 0.0048356964 -0.018555406 -0.092103034
000150 be 19 14 bc 8e 28 02 3c 0a 61 3f 3b cf a4 86 3d
       -0.009039341 0.007944239 0.0029202127 0.065744035
000160 e9 65 69 3d 1e 69 6a 3d 60 d8 95 3d 53 1b 9f 3d
       0.056981955 0.057229154 0.07316661 0.077688836
000170 53 9c f8 3c 8e 9d 98 3d 75 56 71 bd 00 48 85 bd
       0.030347979 0.07451926 -0.058920342 -0.065078735
000180 7e 4a 36 bc 2f bc b3 3d f6 67 56 3d 21 00 82 3d
       -0.011126159 0.087761275 0.05234524 0.06347681
000190 e1 7e de bc d8 21 9a 3d 9f 8e 2a 3c 83 4d 1d 3d
       -0.02716011 0.075259864 0.01040998 0.038404
0001a0 71 55 26 bd a2 b1 a6 bd 24 c0 58 bd 2d 43 70 3d
       -0.040608827 -0.081393495 -0.052917615 0.058657814
0001b0 b9 ab 8d 3d 44 48 c7 3d a1 83 62 bb 7d 11 65 bc
       0.06917519 0.097305804 -0.003456332 -0.01398122
0001c0 64 e7 d7 ba 8a bd 50 3d 10 a8 93 bd 9d c2 9a bd
       -0.0016472158 0.05096201 -0.0720979 -0.07556651
0001d0 86 0d 35 bc d6 a3 66 3d 13 d7 a5 3d c5 60 19 bd
       -0.0110505875 0.05630859 0.08097663 -0.037445802
0001e0 17 32 07 bc 7a 5b 46 3d e2 71 66 bd 9a ae 28 3d
       -0.008251688 0.048427083 -0.05626095 0.041182138
0001f0 0f 3f 99 3d 86 3a 3b 3c 13 d2 01 3c 7e 5d 74 bc
       0.074827306 0.011427527 0.007923621 -0.014914868
000200 f9 fe a3 bd a0 c8 42 3c 07 8d bb 3c a2 1c d9 3c
       -0.080076165 0.011888653 0.022894396 0.026502911
000210 b5 54 4f bd 63 6f 20 bd 94 23 83 bd 31 2b 5a bc
       -0.050617892 -0.039168727 -0.0640327 -0.013315962
000220 db 4d 9a bd ef b6 8a 3b 2e f8 f6 bc 1f 87 06 bb
       -0.07534381 0.004233233 -0.030147638 -0.0020527316
000230 71 2b 61 3d 9b f1 f7 bc b1 60 9a 3d a7 96 e7 3c
       0.05497307 -0.030266574 0.07537974 0.028270079
000240 c5 11 94 3b fa ba 42 3b 78 88 7e bd 97 2c ac 3d
       0.00451872 0.0029713497 -0.062141865 0.08406942
000250 61 63 96 bd 06 eb 54 bd d4 5e d9 3c 60 75 60 bb
       -0.07343174 -0.05198195 0.026534475 -0.0034249648
000260 b7 fd 16 3d 8a 51 5b 3d be d5 79 bc ee aa 88 bd
       0.036863055 0.05354456 -0.015248714 -0.06673227
000270 00 cd e8 bc 54 e6 6a bc 3a 62 8c bd bd f0 a9 bd
       -0.028418064 -0.014337141 -0.06854673 -0.0829787
000280 48 c1 a0 3d 1f 69 6f 3d 6f c2 91 3d 4f 75 93 bd
       0.078493655 0.05844986 0.071171634 -0.07200109
000290 8e c9 05 bc 06 f9 9f bd e9 e4 9f 3b e0 e4 09 bd
       -0.00816573 -0.07811169 0.004879583 -0.033665538
0002a0 e3 0a b8 bd 10 9e c6 3c 8b 94 24 3d 4f b9 16 bd
       -0.089864515 0.024245292 0.040180724 -0.036797818
0002b0 50 4a 82 3d c4 1d 2c 3c d2 21 a0 bd 7b 18 f4 bc
       0.0636183 0.010505144 -0.07818951 -0.02979683
0002c0 0d 69 56 3d f6 16 89 bd 39 0e 5c bd 78 f2 99 3d
       0.052346278 -0.066938326 -0.0537245 0.0751695
0002d0 03 46 11 bc 03 9c a3 bd ac 54 28 bd 4f 3c 46 bd
       -0.00886679 -0.07988741 -0.041096374 -0.04839736
0002e0 eb 10 ca bb 4f ea b5 3c f1 0b 4c 3d b0 59 3b bd
       -0.0061665676 0.022206454 0.049816076 -0.04573983
0002f0 0f 93 81 bb ea 15 ae bd 4c f6 b6 bc ff e5 bc bb
       -0.0039542983 -0.085002735 -0.02233424 -0.0057647224
000300 4d 1a b2 bd 70 24 82 bd 5d 23 82 bc 12 24 b8 bb
       -0.08696423 -0.06354606 -0.015886003 -0.0056195343
000310 8c b1 42 bd 45 60 83 bd 3e c8 b0 bd ce 47 65 bd
       -0.047532603 -0.06414846 -0.08631943 -0.05597668
000320 2a c6 ac bd cc 6b 9a 3c ef 75 9d 3c d4 18 8a 3c
       -0.08436234 0.01885023 0.019221274 0.016857542
000330 3b 0d 09 3d 53 a6 6c 3d a0 29 36 bd 20 5f 7d 3d
       0.033459883 0.057775807 -0.04447329 0.061858296
000340 d1 0f 79 3a bc 1c 8c 3c c0 88 47 bd df a4 25 bd
       0.0009500953 0.017103545 -0.0487144 -0.040440436
000350 36 cd 72 3d 97 8d 1a 3c 74 db 48 bd 86 ab 9a bd
       0.059277736 0.009433172 -0.04903741 -0.07552247
000360 ca 82 1a bd 69 dc 83 3d da f0 a9 bc ea 1e 1e 3d
       -0.037722386 0.06438524 -0.02074473 0.0386037
000370 ee af 35 3d 17 84 88 3d 0b 52 d6 bb 3b fa 9f 3d
       0.044357233 0.06665819 -0.006540542 0.078113995
000380 cb f8 f4 3c 6a 26 5d bd 68 c4 03 bd 61 42 36 3d
       0.02990379 -0.053991713 -0.03216973 0.044496898
000390 e6 e2 8a bd a8 66 7c bd c1 1c 7c bd a2 ee a4 bd
       -0.06781559 -0.061621338 -0.06155086 -0.08053328
0003a0 14 62 dd bb c2 dc 01 bd 70 49 a3 bd 48 f6 7e bc
       -0.0067560766 -0.03170467 -0.079729915 -0.015561648
0003b0 06 dc 44 bd 05 bd b6 bc f8 96 46 bd 09 e6 d5 bc
       -0.048061393 -0.022306928 -0.04848382 -0.026110666
0003c0 fd 0c 32 bd 1a 14 46 bd c5 95 79 3d 92 54 9f 3d
       -0.043469418 -0.048359014 0.060933847 0.077798024
0003d0 03 df 7f 3c 02 a3 06 bd 92 35 b3 bb 54 c0 85 bc
       0.015617135 -0.0328703 -0.0054690326 -0.01632706
0003e0 fa c7 fb 3b b8 c8 ac bd 47 5e bf 3b 23 9e 8f 3a
       0.007683751 -0.084367216 0.005840096 0.0010957163
0003f0 8e ba 8f 3d 86 3d 90 bd bb 84 04 bd 90 9a 6b 3d
       0.07018004 -0.07042985 -0.032353144 0.05752045

encoder.layers.1.nn.net.0.bias f4 [128]
000000 0b b9 31 3d 21 5f 97 bb eb 1b 9e 3b 71 65 b0 bc
       0.04338936 -0.0046194945 0.0048251054 -0.021532746
000010 78 0b 93 3c 36 7b 97 bc 0b 04 af bd 5a e6 f5 3c
       0.017949805 -0.018491369 -0.08545693 0.030017067
000020 17 2c 02 3d 14 03 2a 3d db 62 9e 3d 0c 7c 36 3d
       0.03178033 0.04150684 0.07733699 0.044551894
000030 c7 ed a3 bd b5 a0 80 bc 07 f7 1d 3d 10 2b 38 3d
       -0.08004337 -0.015701631 0.03856566 0.044962943
000040 4d 88 8f 3c e4 e0 89 3b 00 78 d9 3b 33 98 b9 bd
       0.017521048 0.0042077173 0.0066366196 -0.09062233
000050 f5 f6 b2 3d e6 23 75 3d 76 07 a2 bd c7 68 a6 3b
       0.087385096 0.05984869 -0.07911579 0.0050784084
000060 b1 76 a8 3d bf b0 21 bc f9 63 98 3d b4 4e 4b bb
       0.082257636 -0.0098688 0.07440943 -0.0031022253
000070 b0 47 13 3d 8e 58 26 3d 00 dd d2 3c cf 1c 86 bc
       0.03595704 0.040611796 0.025740147 -0.016371159
000080 40 17 88 3d e4 17 7c bd 3e 82 8a 3d ae d0 8f bd
       0.066450596 -0.06154622 0.06763123 -0.07022224
000090 49 83 6a 3d b1 6b 88 3d 73 51 48 bd 81 83 25 bd
       0.05725411 0.066611655 -0.0489058 -0.040408615
0000a0 8f 65 ff bc 44 57 c5 3c 89 cf f8 3c e1 68 a5 bc
       -0.031176357 0.024089463 0.030372398 -0.020191612
0000b0 da 90 89 3d 3f fb 69 bc 40 37 2c bc ec 57 d7 3b
       0.06717081 -0.014281093 -0.0105112195 0.0065717604
0000c0 6b 3e 9f 3c ac d8 78 bd 4f 80 5a bd 5f d8 7b 3d
       0.019438943 -0.06075351 -0.05334502 0.061485644
0000d0 04 9f 8b 3d 13 74 7b bc 37 80 41 bd 59 18 45 bb
       0.06817439 -0.0153474985 -0.047241416 -0.0030074327
0000e0 04 24 2f 3c fd 7e dd bc 35 90 3a 3d 4a 57 9c bc
       0.010689739 -0.027038092 0.045547683 -0.019084591
0000f0 01 67 14 3d a9 55 89 bd d7 7d a6 bd aa 0b 9b 3d
       0.036231045 -0.067057915 -0.08129471 0.07570584
000100 fc f8 88 bd 6d d3 30 3c 75 9b 72 3d 33 53 a2 3c
       -0.06688115 0.010792595 0.059230287 0.019815063
000110 fd 9f a8 bd c5 a8 a6 3d 9b 0e 8e bd 70 64 67 3d
       -0.0823364 0.08137659 -0.069363795 0.05649227
000120 25 19 f2 bc 84 1f 45 3d 11 45 17 3d 38 19 ce 3d
       -0.029553005 0.04812576 0.0369311 0.10063404
000130 68 c6 65 3d 5b 86 38 bd 6b 17 00 bd de b9 37 3d
       0.056097418 -0.045050006 -0.031272333 0.04485499
000140 4a 2f b5 3c d8 75 7f bd 74 80 89 3d aa ac 33 bd
       0.022117276 -0.062368244 0.067139536 -0.043865837
000150 87 a4 20 3d 10 fb c1 3c 10 68 11 bd e7 a9 02 3d
       0.039219406 0.023679286 -0.035499632 0.031900313
000160 11 d2 33 3c bc 38 eb bc f0 55 f0 3c a4 a4 54 3d
       0.010975377 -0.028713576 0.029337853 0.051914826
000170 b6 f8 a8 bd 78 5d a3 bd 27 4c b7 bc 68 07 04 3d
       -0.08250563 -0.07976812 -0.02237518 0.032233626
000180 a0 9d 34 3d 6b e3 90 bc df 39 5b 3c d4 bb 35 3c
       0.044095635 -0.017686566 0.013380497 0.011092145
000190 b0 50 61 bd 4d 33 9c bc 5b 2a e6 3c fc d9 6d 3d
       -0.05500859 -0.01906743 0.028096369 0.058069214
0001a0 31 6f 0c 3d 9a f5 23 bb 97 2f 9e bd c3 f3 e1 bc
       0.034285728 -0.0025018216 -0.07723921 -0.027582055
0001b0 32 64 4a 3d af f6 aa bc 3f c7 4a 3d e8 bd 36 bc
       0.04941196 -0.020869581 0.049506422 -0.011153676
0001c0 9d 08 b1 3d 91 2d 80 3d b2 18 a2 3d a6 91 8b 3d
       0.08644221 0.06258691 0.079148665 0.068148896
0001d0 65 6b c6 bb 52 59 6d bd d8 1b 28 3d 1e df 4a bd
       -0.006055283 -0.05794651 0.04104218 -0.049529187
0001e0 aa ce 1d bd 14 fe 81 bd 72 39 03 bd aa 1b b8 3d
       -0.03852717 -0.0634729 -0.032037206 0.089896515
0001f0 5d 63 de bc d2 87 15 bd 8e 48 e3 bc c2 3d d2 3c
       -0.02714699 -0.03650648 -0.027744558 0.025664214

encoder.layers.1.nn.net.2.weight f4 [128, 128]
000000 c2 7f dd bc e1 c8 bf bc 19 5b bd bd d6 70 ac 3b
       -0.027038459 -0.023411216 -0.09245891 0.0052624745
000010 df 75 85 bd 9d 41 13 bd 30 db 79 3d bf b5 ef bb
       -0.06516623 -0.035951246 0.06100005 -0.007315367
000020 6a c6 6c ba ad a4 4e bd e9 4c a0 3b 01 63 94 3c
       -0.00090322515 -0.050450016 0.004891981 0.018113615
000030 2b e9 89 bd 7e cb 8f bd 62 c1 0f bd 10 36 11 3d
       -0.067339264 -0.07021235 -0.035096534 0.03545195
000040 65 02 fc 3c 74 55 70 3d ea 0e d5 39 50 c3 61 3d
       0.03076286 0.058675244 0.00040637638 0.055117905
000050 80 6e 95 3d 55 37 67 3d 3c c4 bc 3c f6 34 5d 3d
       0.07296467 0.056449253 0.02304279 0.054005586
000060 52 9b b7 3c 55 a0 b5 3d 5f 52 07 3d ea fe ec bc
       0.02241293 0.088684715 0.03303754 -0.028930146
000070 60 40 f5 bc 3a 50 41 bd de 34 c7 bd 3c 27 0c bd
       -0.029937923 -0.04719565 -0.097268805 -0.034217104
000080 db 0f 5b bd 53 12 1a bd 26 9a e2 3c f0 4f 93 3d
       -0.053481918 -0.03761513 0.027661394 0.07192981
000090 f9 ee 88 bc cb d8 21 3d dd 4a 78 bc 8b dc a2 3d
       -0.016715514 0.03951339 -0.015154568 0.079522215
0000a0 49 a6 15 3d 6c 76 a1 3c be fa 54 3d 03 f2 80 3d
       0.036535535 0.019709788 0.05199694 0.0629616
0000b0 93 76 9d bd 45 70 b8 bb ba cf 59 3c 71 87 01 3c
       -0.07688632 -0.005628618 0.013294155 0.007905827
0000c0 f8 cd 70 3c a5 a8 a5 bd bf 00 2a bd b2 0f 73 3d
       0.014697544 -0.08088807 -0.041504618 0.05934114
0000d0 fb e1 42 3d 80 d9 50 bd 11 61 10 bd 9c 6b 3d 3c
       0.047578793 -0.050988674 -0.03524882 0.011561301
0000e0 0c 8d a3 bc 6c 4a 6c 3d 02 1b 85 bd ca 6e 02 bd
       -0.019964717 0.05768816 -0.06499292 -0.031843938
0000f0 a2 58 a7 3d 28 32 5b 3c f1 2a 6e bd ff e8 92 3d
       0.08171202 0.013378657 -0.05814642 0.07173347
000100 1a 49 92 bd fa 5b 8b 3b 09 a3 04 3d 3d eb 6a bd
       -0.07142849 0.004252908 0.032382045 -0.057353247
000110 0a ae 97 3d 6b 7e 99 bd 23 71 db 3c ea ff 17 bd
       0.07406242 -0.074948154 0.026787346 -0.037109293
000120 26 3c a4 bd 4c b4 5d bd 23 cf c3 3b 6c 35 7c bd
       -0.08019285 -0.054127023 0.0059756204 -0.061574385
000130 a0 0f a8 bd 52 36 6e 3d 8b 9b 70 3d 69 80 9e 3d
       -0.08206105 0.058157273 0.058742087 0.07739336
000140 09 c4 bb bc 76 69 85 bd 8b 3a 0a bc 08 06 58 bd
       -0.022920625 -0.06514256 -0.008436809 -0.052740127
000150 23 8d 26 3d 8f ff 63 bc 7b f9 17 3d 25 16 67 3d
       0.040661942 -0.01391591 0.037103157 0.056417603
000160 9d 9b ab 3d 94 40 1e 3d c4 a6 8b bd 0a 90 96 bc
       0.0837929 0.038635805 -0.068189174 -0.01837923
000170 51 84 8c bd d3 a8 9d bd 30 20 30 bd 3f 06 28 bd
       -0.06861175 -0.07698216 -0.042999446 -0.04102158
000180 49 10 78 bd bd c1 46 bd 65 20 83 bd c9 8e ac bd
       -0.060562406 -0.048524607 -0.06402663 -0.084256716
000190 10 63 db 3c 15 83 71 bd 76 9e 7b bd 61 c6 bf 3c
       0.026780635 -0.0589629 -0.061430417 0.023410024
0001a0 eb 22 f1 3c 05 79 45 3d 0c bc b4 bd 3a 10 43 3c
       0.029435595 0.048211116 -0.088249296 0.011905724
0001b0 0a 6f 2a 3d a0 c7 33 bd 87 4e c6 3b 82 b8 d4 bc
       0.0416098 -0.04389155 0.0060518417 -0.025966886
0001c0 aa 02 9b bd fb bc 98 3d 4e 76 a2 bc d6 34 28 bd
       -0.075688675 0.0745792 -0.019831803 -0.041066013
0001d0 0d ce 61 bc 8f 3c 7c bd b1 8c 5d 3d cb e4 c0 bd
       -0.0137820365 -0.06158119 0.054089252 -0.09418639
0001e0 d2 bd 74 3d 39 6f b5 bd e2 dc 71 bd 3b 1d 56 bd
       0.05975134 -0.08859105 -0.05904854 -0.05227397
0001f0 69 9a 20 bd 77 6e 97 bd 2c 9b dc bb 3c 4f 60 3d
       -0.039209757 -0.07394116 -0.006732365 0.054763064
000200 c4 c2 69 3d 36 ee b6 bd a9 b9 2e 3d 01 0d 81 39
       0.05707051 -0.08932154 0.042657528 0.00024614486
000210 b5 84 8f bc 7f 53 67 bd 89 fe cf 3c 12 bc a6 3d
       -0.017519334 -0.056476112 0.025389927 0.0814134
000220 20 6b 6a bd 25 cc 5b 3d 22 5f f6 3c ea 5b 98 3d
       -0.05723107 0.053661484 0.03007466 0.07439406
000230 14 83 03 3c 1a 8c a9 3d c3 b6 9e 3c 60 9b 83 3d
       0.008026857 0.082786754 0.019374257 0.0642612
000240 67 43 a6 3d e2 0b bb bb 56 69 15 bd af 16 94 3d
       0.08118325 -0.0057082037 -0.03647741 0.07230889
000250 db f0 6d 3d 85 93 37 bd 57 0f a3 bd 25 aa 2c bc
       0.058091026 -0.04481842 -0.0796191 -0.0105386125
000260 5f fb 4f bc 51 ea a3 bd 10 49 81 bd e3 bf 89 3d
       -0.012694209 -0.08003677 -0.06312764 0.067260526
000270 f4 04 88 bd a1 3f cf 3c d0 dc 27 bd 04 72 12 3d
       -0.0664157 0.025298895 -0.040982068 0.035753265
000280 71 df dc 3c 4e 13 55 bc cb 6c e6 ba 91 cb 9d 3d
       0.026962014 -0.013005091 -0.001758003 0.07704843
000290 13 83 d9 3d 17 bb 96 3c b8 09 18 3d 29 ce aa 3d
       0.106207035 0.018399758 0.037118644 0.08340103
0002a0 8e 27 90 3d 48 2e 9b bd d7 48 9f 3d 0f c7 87 bc
       0.070387945 -0.07577187 0.07777565 -0.01657441
0002b0 6a af f9 bc 84 6d c4 3d 43 c8 fb 3c e0 b0 c1 bc
       -0.030479152 0.09591201 0.03073514 -0.02364391
0002c0 b9 02 a8 bd 57 86 75 3c 60 8f 15 bd 8c cf a4 3d
       -0.08203644 0.014985642 -0.036513686 0.08047399
0002d0 0a a8 76 3d 87 ab 1f bd 54 48 08 bc 63 41 95 bc
       0.06021885 -0.03898194 -0.008318026 -0.018219655
0002e0 dd 1a 9c 3d 53 18 24 bd 13 37 77 bd 7e 2c ac 3d
       0.07622311 -0.04006226 -0.060355257 0.08406924
0002f0 72 5c 63 bd e7 86 91 bd c2 81 89 bd 5c bd 86 3b
       -0.055508085 -0.07105809 -0.067142025 0.004111929
000300 a9 1b 49 3d 01 56 89 bd 29 fb 33 bd dd c8 8a 3d
       0.049098644 -0.06705857 -0.043940697 0.06776593
000310 19 74 9d bd 15 f5 41 3c 45 23 6d 3c f8 67 7a bd
       -0.076881595 0.011838217 0.014473741 -0.06113431
000320 7d bc c5 3c d5 65 a9 3d f2 e1 00 bd f3 af cb bc
       0.02413773 0.08271376 -0.03146548 -0.024864173
000330 01 13 eb 3c 57 a7 48 bd a8 20 18 3c a8 9f 90 3d
       0.028695585 -0.048987713 0.00928513 0.07061702
000340 dc 9b 09 3d 0d 39 1c 3d 00 1e 91 bd d1 39 a4 bd
       0.033595905 0.038140345 -0.070858 -0.0801884
000350 41 e6 20 3d 13 57 1b bc 8a 8e 92 bd e5 b6 67 3c
       0.039282087 -0.009481209 -0.071560934 0.014142727
000360 dc 6f 9e 3d c1 c0 4a bd 17 82 0c bd 79 fb 85 3d
       0.07736179 -0.04950023 -0.03430375 0.06542105
000370 80 82 9e bd 17 17 09 bd 37 5f 5c bd cd c8 98 3d
       -0.07739735 -0.033469286 -0.05380174 0.07460175
000380 eb 89 96 bb b6 e0 9c ba ec 04 83 bd 36 f0 a5 3c
       -0.004594078 -0.0011968825 -0.06397423 0.020256143
000390 8c 1a 94 bd 99 8b ab 3d 04 d9 75 bc bd f2 3a 3d
       -0.07231626 0.083762355 -0.015005354 0.04564165
0003a0 7d 97 8f bc 3a db 85 3d 00 57 41 3d 5d 88 1b bd
       -0.01752829 0.06535955 0.04720211 -0.037971843
0003b0 80 fb a6 3d 06 7e 76 3d e0 bb 5f bd 40 21 5d bc
       0.081534386 0.06017878 -0.05462253 -0.013496697
0003c0 a2 35 12 3d 7f e9 a5 bc aa 63 73 3d d8 0e 01 3c
       0.03569568 -0.020252941 0.05942122 0.007877074
0003d0 0f 1e 97 3d 61 97 43 3d 42 b4 99 bb c6 54 89 3d
       0.0737878 0.047751788 -0.004690678 0.067056224
0003e0 27 9d 25 bd fe 9a 89 3c 0a ca 93 3d c0 dc 61 bd
       -0.040433075 0.016797539 0.0721627 -0.055142164
0003f0 f1 6e 87 3d 85 5c 06 3d 3d 82 14 3d 76 09 18 bd
       0.06612957 0.032803077 0.036257017 -0.037118398

encoder.layers.1.nn.net.2.bias f4 [128]
000000 02 8d 1c bd 5d 0c 56 3d 4d 56 8c 3d 31 66 66 39
       -0.038220413 0.052257884 0.06852398 0.00021972579
000010 c8 a9 80 bd a4 0d cc 3b 77 ae ab bd 42 ab bf bc
       -0.06282383 0.006227212 -0.08382886 -0.023397092
000020 16 58 b0 bd c0 ea 80 3d ab b1 c2 bc cc 45 e1 3b
       -0.08610551 0.06294775 -0.02376636 0.0068747755
000030 2e 83 2f 3d 95 a8 8f 3c 58 46 00 bd b0 6c 99 3c
       0.042849712 0.01753644 -0.031317085 0.018728584
000040 aa c2 b1 bc ee 16 2a bd 07 1e 1b bd a8 7a 73 bc
       -0.021699268 -0.041525774 -0.037870433 -0.0148607865
000050 13 3d 42 bc 6c be 28 3d 15 e5 75 bd df 29 50 bd
       -0.011855382 0.041197225 -0.060032923 -0.05082118
000060 49 16 e3 3c d5 64 42 bd 3f 01 98 bd f2 84 9d 3d
       0.027720587 -0.047459442 -0.07422113 0.07691373
000070 4a a9 5f bd 1f 60 ad 3c 9f 02 95 bd 06 d9 91 3b
       -0.054604806 0.021163998 -0.072758906 0.00445092
000080 40 be 9e bd 5f 45 d1 3b d3 3d 19 bc e2 77 9d 3d
       -0.07751131 0.0063864435 -0.009353119 0.076888815
000090 4d 36 77 bc 1d e0 d6 3c 06 0a a5 3d de da 84 3d
       -0.01508863 0.026229912 0.080585524 0.06487058
0000a0 06 90 ed 3c 7b 2e 98 bb 85 5d 3a 3d 85 ee 81 3d
       0.02899934 -0.004644213 0.045499343 0.06344322
0000b0 91 71 99 bd 1b 5f db bb ce 9b 9f 3d 42 e3 85 bd
       -0.07492364 -0.006694687 0.07793389 -0.065374866
0000c0 3d f2 ec 3c 4f 69 e7 3c 2d 09 94 3d ee 7b 58 3c
       0.028924102 0.028248457 0.07228313 0.013213141
0000d0 d0 1e 4e 3d 6c d1 51 bd 7c 83 08 bd fa 35 7d bc
       0.050322354 -0.05122511 -0.03332852 -0.015454764
0000e0 3e 44 83 3b 37 23 15 3d ab 9f 90 3d f9 47 26 bd
       0.004005938 0.036410537 0.07061704 -0.040595982
0000f0 2d a3 a3 bd e6 42 c0 3c ff 26 d6 bc 68 22 38 bd
       -0.07990108 0.0234694 -0.026141642 -0.044954687
000100 91 ce 9b bd cb b9 a1 bd 69 4c 13 bd bf 81 04 3d
       -0.07607759 -0.07896765 -0.035961542 0.032350298
000110 86 35 b4 3d a3 af 7e bc 79 c7 0b 3a 32 2d a2 3d
       0.08799271 -0.015544805 0.0005332153 0.079187766
000120 48 02 8f 3d 5b c7 8d 3d 46 62 1d bd 3b 31 8b 3d
       0.06982857 0.0692279 -0.0384238 0.06796499
000130 56 b5 94 3d bf 5d 3a bd 83 c0 a5 bd c3 c1 27 3c
       0.072611496 -0.04549956 -0.08093359 0.0102390675
000140 f7 00 f1 bc a5 40 11 3d 47 8f 82 bd 42 53 c4 bb
       -0.029419405 0.03546204 -0.06374984 -0.0059913704
000150 e0 07 8e bd 63 06 0b 3d 98 21 22 3d a5 0f 85 bd
       -0.06935096 0.033941638 0.03958282 -0.064971246
000160 3c 5c d2 bc f3 81 6c 3d 00 3a e1 bb 28 59 47 bd
       -0.025678746 0.057741117 -0.006873369 -0.04866901
000170 f4 2b 17 3d f7 39 28 bd fb fb 59 bc b2 50 06 3d
       0.03690715 -0.041070905 -0.013304706 0.0327918
000180 8c f8 ad 3d c5 8d 17 bc d8 92 0d bc c2 59 b2 bd
       0.08494672 -0.009250109 -0.008640967 -0.08708526
000190 66 87 81 3d e0 bd 49 3c 6a be 18 bd 47 21 33 bc
       0.06324653 0.012313336 -0.037290968 -0.010933227
0001a0 62 83 2a 3d 66 62 8a 3d c6 c7 4d bd 5b 7c 00 bd
       0.041629203 0.06757049 -0.050239347 -0.031368595
0001b0 57 3c 0b 3c f6 29 a9 3d c1 90 ee bc a2 d7 9d bd
       0.008498273 0.082599565 -0.029121758 -0.07707144
0001c0 fe 9f d5 3c 35 bb db 3b fb 78 ab 3c 1e c4 06 3d
       0.026077267 0.0067056664 0.020931711 0.032901876
0001d0 81 73 08 3d 47 0c 92 3c b9 62 83 bd 3b 6a 88 bd
       0.033313278 0.01782812 -0.06415314 -0.06660887
0001e0 26 57 aa bd e3 2e e6 3b b2 d0 22 bd 8d d7 80 3c
       -0.083174035 0.0070246323 -0.03974981 0.015727783
0001f0 fc a7 2f 3d 3b 11 32 3d 91 40 9e bd 80 ef 4f bc
       0.04288481 0.043473464 -0.07727159 -0.012691379

encoder.layers.2.nn.net.0.weight f4 [128, 128]
000000 3f 8b b5 b7 22 44 8e bc d2 0d 12 3d 85 7e cc bc
       -2.1641723e-05 -0.017366473 0.03565771 -0.024962673
000010 d2 04 79 3c 98 d9 4e bd ec e4 71 bd ea 6b 9e bd
       0.015198903 -0.050500482 -0.059056208 -0.07735427
000020 dd 0e 8f 3d ee ba 97 bd 41 dc 9b bc 07 7b 6f bd
       0.06985257 -0.07408701 -0.019025924 -0.058466937
000030 fd 13 cb 3a 57 79 23 bd ea 21 a1 bc 4e f0 97 bd
       0.0015493628 -0.03991064 -0.019669492 -0.07418881
000040 4c 4a a7 3d 62 b2 ca 3c ea 6a fa bc 76 69 0b bd
       0.08168468 0.024743263 -0.030568559 -0.034036122
000050 e6 bb 8f 3d 62 35 3b bd 44 92 aa 3d 5c 84 92 3c
       0.07018261 -0.045705207 0.08328679 0.01788538
000060 53 85 8b 3c 1e 2d 9f 3d a2 8c 53 bd 16 43 a4 bd
       0.017031347 0.07772277 -0.05164779 -0.08020608
000070 a4 e8 91 bd 5a 1d 76 3d 15 10 8e 3d c5 59 be bd
       -0.07124451 0.060086586 0.06936661 -0.09294466
000080 9c 06 51 bc 23 80 09 bd bb b6 4b 3d 4a 97 7c 3d
       -0.012757923 -0.033569466 0.049734812 0.061667718
000090 db 25 b7 bd 4d bb 0c bd ff ed 5c bd 5a 02 9a 3c
       -0.08942767 -0.03435831 -0.05393791 0.01879995
0000a0 e7 a6 34 3d 38 7e 44 bd a3 8c 6c 3d 13 2d de bc
       0.044104483 -0.047971934 0.05775131 -0.027121102
0000b0 06 ed 4d bd e1 aa 31 bd 4e 61 5f bd 95 cc 57 bc
       -0.05027487 -0.043375853 -0.054536156 -0.013171335
0000c0 d5 42 99 3d 74 da 84 3d 40 89 70 3c 64 50 20 bd
       0.0748345 0.06486979 0.01468116 -0.039139166
0000d0 c3 75 94 bd 7a 7d 8c 3c 1c 89 a0 3c a8 ea 82 3d
       -0.07249024 0.017149676 0.019596629 0.063924134
0000e0 ea 66 20 3d 52 c1 2b 3d e4 70 90 3c af 39 82 3c
       0.039160646 0.04193241 0.017631955 0.015896646
0000f0 34 67 51 3b c0 e5 bc 3c 37 7d d2 bc 4f 38 6a 3d
       0.0031952383 0.023058772 -0.025694473 0.057182606
000100 6a 17 4b bd 46 3e 37 3d 42 f9 98 3d 7b d7 54 bd
       -0.049582876 0.044737123 0.07469417 -0.05196331
000110 aa 81 d0 bc ed 7a 58 3d a7 06 4a bd 6b 03 97 bd
       -0.025452454 0.052851606 -0.04932275 -0.07373699
000120 08 47 c0 bc 32 8d 68 3d ae 94 ab bd 9f 27 6d bd
       -0.02347137 0.05677528 -0.08377968 -0.057899114
000130 06 84 e1 bc 21 a1 6f bd f3 a2 8e 3b de 7f b4 bd
       -0.027528774 -0.058503274 0.004352921 -0.08813451
000140 01 2b 35 3d ab be a7 3c 7c 98 ae 3b 35 e3 28 3b
       0.044230465 0.02047666 0.005328236 0.0025770192
000150 50 eb c3 bb ed 75 3c 3d 44 e9 23 bd 0d 9a 2c 3d
       -0.005978979 0.0460109 -0.04001738 0.0421391
000160 57 23 94 bc df 72 dd 3b 97 eb 7d 3d 35 19 05 3d
       -0.018083258 0.0067580785 0.061992254 0.032494742
000170 f8 00 a1 bd 8a 26 dd 3a 9c 63 21 3c 15 59 16 bd
       -0.07861513 0.0016872447 0.009850409 -0.03670605
000180 53 3a 83 bd b3 f6 82 3b a2 39 09 bc 5f e5 a8 3d
       -0.06407609 0.003996694 -0.008375557 0.08246874
000190 dd 3a 61 bd f2 af 19 3d 83 be 85 bd f3 c2 ba bd
       -0.054987777 0.03752131 -0.06530478 -0.09119215
0001a0 b9 d1 5c 3b 88 85 bb bd 73 49 93 3d 59 c4 64 bb
       0.003369434 -0.091563284 0.07191744 -0.0034907071
0001b0 53 e9 47 bd e9 45 16 bd 96 e6 8a 3c ad 01 1f bc
       -0.0488065 -0.036687765 0.016955655 -0.009704989
0001c0 48 dc b6 3c bb 9a fa 3c 87 a7 22 bb 33 16 89 3d
       0.022321835 0.03059136 -0.0024819092 0.06693687
0001d0 77 40 28 3d f0 0b 23 bd cc bd 89 3d 7e d4 a8 bd
       0.041077103 -0.039806306 0.06725654 -0.08243655
0001e0 03 10 34 bc 36 dc 74 3d af 5e 2f bd a4 8b 61 3c
       -0.010990146 0.059780322 -0.042814907 0.013766203
0001f0 4f bd a8 3d 77 dd 4f bd 28 87 98 bd 85 f8 0f 3d
       0.08239233 -0.050748315 -0.07447654 0.035149116
000200 b1 8f 78 3d 81 f1 41 3c eb b4 cf 3c 2d c1 86 bb
       0.06068391 0.011837364 0.025354823 -0.004112384
000210 75 3d 35 3d 3c 90 3a bd 62 33 b7 3c a8 4a c6 bc
       0.044248063 -0.04554771 0.022363368 -0.02420552
000220 80 a0 1b 3d 68 3d 44 3d dd 15 63 3d 12 48 f4 bc
       0.03799486 0.047910124 0.055440772 -0.029819522
000230 cb 34 3a 3d 88 70 c8 3d ab c1 2b 3d fd 50 e3 3c
       0.045460504 0.09787089 0.041932743 0.02774858
000240 1b a2 e5 bc 91 f5 f1 3b 3e d9 21 3d af 36 3d bd
       -0.0280314 0.00738401 0.03951382 -0.04619473
000250 0d 7c 14 bd 28 4a ab 3d 6f 24 a6 bd bb 4a 35 bd
       -0.036251117 0.083637536 -0.08112418 -0.04426072
000260 14 1a 6b bd 74 d4 b4 bd 19 38 ac bd d1 5c 85 3d
       -0.057397917 -0.08829585 -0.08409137 0.06511844
000270 8f 82 e6 bc 53 d5 8a 3d 3c d7 11 bd c7 d8 63 3d
       -0.028138427 0.067789696 -0.035605654 0.055626657
000280 77 e0 56 3d 78 82 b2 bd 46 0e 97 bd dd e5 52 bc
       0.05246016 -0.08716291 -0.07375769 -0.0128721865
000290 14 b0 b3 bd 76 00 42 bd 42 4c a0 bd dd 4c 92 bd
       -0.087738186 -0.04736372 -0.07827045 -0.07143567
0002a0 13 36 8e bc 41 75 ac bd 83 ad 8b 3d 54 87 65 3d
       -0.017359769 -0.08420802 0.06820204 0.056037262
0002b0 83 fa 93 bd 1b 04 19 3d f5 9c 89 bd 42 48 24 3d
       -0.07225516 0.03735743 -0.0671939 0.040107973
0002c0 c6 66 5e bd c3 33 bf 3c 61 b8 cb 3c ec 72 41 bd
       -0.05429723 0.023340112 0.024868192 -0.04722874
0002d0 47 b1 b8 3d 95 da 5b bd e8 5f 9c 3d d1 75 ce 3c
       0.09018188 -0.053675253 0.0763548 0.025202664
0002e0 13 27 15 bd d8 56 65 bd a3 1a ae bd ec 44 2d bd
       -0.036414217 -0.055991024 -0.08501174 -0.042302057
0002f0 73 82 7f bd 0f 7c 2d 3c 1b 06 1f 3d 47 34 60 bd
       -0.062380265 0.01058866 0.038824182 -0.054737356
000300 23 c8 7b 3d dd 50 83 3d c8 d3 20 bd 1b cb 48 3d
       0.061470162 0.06411908 -0.03926447 0.04902182
000310 02 c3 d6 bc 65 f9 e7 3c fb 90 71 bd 65 9c 9a bc
       -0.026216034 0.028317163 -0.058976155 -0.018873403
000320 f2 a8 cc bc e0 0a 3c 3d ad 2b 2b bc 89 50 a6 bc
       -0.024982903 0.04590881 -0.010447425 -0.020302074
000330 72 64 24 bd 04 f4 04 bd 7b e7 4e 3d 11 dc 20 3b
       -0.040134855 -0.032459274 0.050513726 0.0024545232
000340 b1 58 a9 bb 07 3a 2c 3d 75 ad a9 bd 81 46 93 bd
       -0.0051680435 0.042047527 -0.082850374 -0.07191182
000350 71 e4 8e bd 9b 5c 47 3d af cc b3 3c ab 5c b2 bd
       -0.069771655 0.0486723 0.021948187 -0.08709081
000360 7f ab a6 bd dc 30 fb 3c 74 70 e5 3c d3 07 ea bc
       -0.08138179 0.030662946 0.028007723 -0.028568184
000370 19 a3 85 3d f3 7e cb 3b dd f4 46 3d b1 82 78 bc
       0.06525249 0.006210202 0.048573364 -0.015167878
000380 a2 d2 8f 3d 50 c4 5d 3d 4c 6f 20 3d e6 d2 37 3d
       0.07022597 0.054142296 0.03916864 0.044878863
000390 1d 3c c0 bd a2 47 71 3b 86 7c e3 3c 31 f9 af 3c
       -0.09386466 0.0036816378 0.027769338 0.021481128
0003a0 b4 15 a7 3d 56 d9 53 3d 3b eb 5b 3b c1 f0 dc 3c
       0.081584364 0.05172094 0.0033556956 0.02697027
0003b0 ab 3e 61 3d c7 08 65 bc f1 20 f1 ba e4 6e 64 bd
       0.054991405 -0.013979143 -0.0018396658 -0.055769816
0003c0 df 8d c9 3b c8 3d 6c 3d 85 45 92 bc 0c bd a4 3d
       0.0061509456 0.057676107 -0.017855415 0.0804387
0003d0 ae b7 a1 bd d4 2a d6 bb c2 8e db 3c 2d b5 18 3d
       -0.07896362 -0.006535867 0.02680147 0.037282158
0003e0 a4 ff 48 bd e8 c2 ea 3b 1e 56 a1 3d d1 e6 27 bd
       -0.049071923 0.007164348 0.07877754 -0.040991608
0003f0 63 06 ce bc 95 db 58 bc 52 4d 3f bd 65 61 af 3d
       -0.02514953 -0.013235946 -0.046704598 0.085634984

encoder.layers.2.nn.net.0.bias f4 [128]
000000 34 a8 c5 3b 48 98 ab 3d ad 1d c3 3c 0b 4e 96 bd
       0.0060320143 0.08378655 0.023817861 -0.07339104
000010 b9 ac 73 3d 7c 2e 7d 3b c4 72 a0 bc a5 2e b4 bd
       0.059490893 0.0038632443 -0.019585975 -0.08797959
000020 03 b7 ba 3b 9a 30 ad 3d 98 6a 34 3d 90 65 8e 3d
       0.005698086 0.08456536 0.04404697 0.06952965
000030 98 fb 53 bc 67 33 bd bd 3e bb c7 bd 40 d6 0f 3d
       -0.012938403 -0.0923832 -0.097525105 0.035116434
000040 42 91 08 3c 5c 09 56 bd cf d0 08 bc 1a 9b ef 3c
       0.008335413 -0.05225502 -0.008350565 0.029248763
000050 7a 67 f1 3c 51 d9 14 3d c0 d6 5a 3d ed 46 7e bc
       0.029468287 0.03634006 0.053427458 -0.01551984
000060 70 37 33 bd 38 68 f8 bc 65 a7 c3 bc 70 60 9c bd
       -0.04375404 -0.030323133 -0.02388353 -0.076355815
000070 69 1e 9a bd b2 5e 84 3c 75 88 ad bd 83 3c 1f 3d
       -0.075253315 0.016158435 -0.08473293 0.038876068
000080 9d 8c 9a 3d ab 2d 03 3a 88 54 81 3d 3c 64 af 3d
       0.07546351 0.00050040585 0.06314951 0.0856404
000090 ba 5e 9b 3d d1 3f 36 3d 77 45 c0 3c 77 16 4f 3c
       0.07586427 0.044494454 0.023470623 0.012639633
0000a0 17 28 28 bd 12 8e 92 3d 32 f0 ce bb df fa d8 bb
       -0.041053858 0.07156004 -0.0063152546 -0.006621703
0000b0 30 04 43 bd 81 51 2d 3d 41 9e 60 3d be 02 ac bd
       -0.047611415 0.042314056 0.054838423 -0.083989605
0000c0 25 33 46 bd 4f 11 73 bd f2 a2 8b 3d 39 7a 70 3d
       -0.04838862 -0.05934268 0.06818189 0.05871031
0000d0 84 a9 2a 3c d6 97 23 bc 77 21 9a 3d 17 d6 2f bd
       0.010416392 -0.009984931 0.07525914 -0.04292878
0000e0 cb a4 ed 3c 7b 46 30 3d 6a 30 9a 3d 9e cd b3 3a
       0.029009243 0.043035965 0.075287655 0.0013717895
0000f0 ec eb a0 bd 0d c6 e1 3d 69 c5 20 bd c7 60 a6 3d
       -0.078574985 0.11024103 -0.039250765 0.081239276
000100 7f 1e 88 bd 43 86 56 bd 5e de 16 3b c1 fb 94 bd
       -0.06646442 -0.052374136 0.0023020725 -0.07274581
000110 ec 7c fa 3b 5b a2 f1 ba d5 89 48 3c fa d5 46 3c
       0.0076442864 -0.0018435227 0.012239893 0.012135977
000120 66 11 bc bb 1c 00 76 bd 41 46 0f bd 2d b0 09 3d
       -0.0057393787 -0.060058698 -0.03497911 0.03361528
000130 8a aa 29 3c 0a e6 de 3c 89 12 76 bd e5 de 11 bd
       0.010355601 0.0272093 -0.06007627 -0.03561296
000140 1f 96 bf bb c4 9c 89 3d b8 15 81 3c 8c c7 54 3d
       -0.0058467533 0.06719354 0.015757427 0.051948115
000150 b1 39 8b bd c9 e2 96 bd 22 7e a4 3d 5f 8d c1 3c
       -0.06798113 -0.073674746 0.080318704 0.023626981
000160 f7 a7 92 bd d5 ed b8 3d c5 49 8c bd db 12 97 3d
       -0.07160943 0.09029738 -0.06850008 0.07376643
000170 7e cc d4 bc d5 f1 7a bd f7 0e 75 3d 53 35 f6 ba
       -0.025976416 -0.061265785 0.059828725 -0.0018784202
000180 57 43 08 3d 35 8a 5f bc 79 76 50 3d f9 ed 7e 3c
       0.033267345 -0.013643791 0.050894234 0.015559667
000190 dd f1 b4 bc b7 8c 31 3d cb 78 19 bd 2d 33 23 3d
       -0.022087986 0.043347087 -0.037468713 0.039843727
0001a0 03 52 66 bd d1 f7 b6 3d 80 9c 76 3c 67 61 60 bc
       -0.056230556 0.08933986 0.015051961 -0.0136950975
0001b0 3d 81 a1 3d 7b 88 8e bd 7a 7a 97 bd 55 b2 1b 3d
       0.07885978 -0.06959625 -0.073964074 0.038011868
0001c0 ca d6 76 bb 17 55 6f bb 91 3b 08 bd ee 35 b4 bd
       -0.0037664645 -0.0036519223 -0.033259932 -0.08799349
0001d0 01 cf 5c bd 7e fb 08 3d 86 e7 90 3d 86 97 f3 3b
       -0.05390835 0.033442967 0.070754096 0.0074338345
0001e0 b8 1a 22 bd 80 9b f8 bc bb 15 83 bd 0d 5d 11 bd
       -0.039576262 -0.030347586 -0.06400629 -0.03548913
0001f0 27 fd b1 bd 34 42 73 3d 99 5a 8c bc 8d 2d 68 3a
       -0.08690863 0.059389308 -0.017133044 0.0008856885
