scripts/embeddings_gin_version2/IMDB-MULTI/gin_dim64_ep100_lr0.001_drop0.3/gin_classifier.pt (torch, 175837 bytes, 42 tensors)

encoder.layers.0.nn.net.0.weight f4 [64, 1]
-0.8986087 -0.4599787 0.17507094 0.30668157 0.3795553 -0.8309622 -0.62787044 -0.9113816
-0.2901076 -0.5724938 -0.9109446 -0.1620779 -0.5016706 0.121803686 0.4570072 -0.5896119
-0.7076248 0.20702372 0.2502431 0.14299266 -0.514312 -0.45622408 0.6950528 0.77135795
0.35308084 0.9427559 -0.9032197 -0.73594296 0.8489991 -0.93051887 0.18291038 -0.65928507
-0.8098147 -0.6108408 0.5807277 -0.020403355 -0.9570339 -0.39748824 0.22730061 -0.26687837
-0.015060406 0.28710574 -0.33684564 -0.6431879 -0.5599885 0.2045623 -0.23653078 -0.24006104
0.25656328 0.21275961 0.74127406 0.97062457 0.8819766 0.25583333 0.93986046 0.8495375
0.030757047 -0.87895894 -0.8767439 -0.8869759 0.6071829 0.5250418 -0.5966977 0.82390624
00000000: 380b 66bf 5482 ebbe cc45 333e 5e05 9d3e
00000010: 1355 c23e f0b9 54bf 1ebc 20bf 4e50 69bf
00000020: fc88 94be f48e 12bf aa33 69bf c0f7 25be
00000030: 7c6d 00bf 3674 f93d d9fc e93e cef0 16bf
00000040: e626 35bf 07fe 533e dd1f 803e ab6c 123e
00000050: f4a9 03bf 3496 e9be fbee 313f b777 453f
00000060: 03c7 b43e 7358 713f 6839 67bf c266 3cbf
00000070: 0158 593f 7c36 6ebf dc4c 3b3e e8c6 28bf
00000080: 0450 4fbf 1060 1cbf 92aa 143f f024 a7bc
00000090: 2c00 75bf 9483 cbbe 7ec1 683e 48a4 88be
000000a0: ecbf 76bc 86ff 923e 0877 acbe f6a7 24bf
000000b0: 685b 0fbf c878 513e 2035 72be 90d2 75be
000000c0: 435c 833e a8dd 593e 23c4 3d3f da7a 783f
000000d0: 38c9 613f 96fc 823e b29a 703f 4a7b 593f
000000e0: 34f6 fb3c 7403 61bf 4a72 60bf da10 63bf
000000f0: 5770 1b3f 2469 063f 2ec1 18bf 85eb 523f

encoder.layers.0.nn.net.0.bias f4 [64]
0.3018011 -0.99029064 -0.760137 0.7357169 -0.590641 0.8479177 -0.37274992 0.9378685
-0.3500589 -0.9128667 0.25349224 0.8044343 0.8213868 0.2374108 -0.67821056 0.3910284
0.039333344 -0.22308104 0.34577835 -0.9034066 -0.9042698 -0.36823666 0.19039172 0.8914924
0.6443831 0.95236206 0.89342415 0.023390532 0.39939433 0.46362448 -0.6567675 -0.83333135
0.1688801 -0.26823986 -0.040341824 0.4678391 0.41780722 0.52187777 -0.6232983 0.3773284
-0.4479544 0.57957923 -0.5661429 -0.62233734 -0.5260335 -0.9063075 -0.115903854 -0.82390535
-0.815687 -0.62497216 -0.8610523 -0.23311526 -0.77248985 0.16167095 -0.8955905 0.00941341
0.77824074 -0.038688302 -0.7863815 0.70007634 -0.7731509 0.99426174 0.69381404 -0.55829704
00000000: ac85 9a3e b083 7dbf 5798 42bf f157 3c3f
00000010: 4034 17bf 2211 593f 14d9 bebe 2618 703f
00000020: ec3a b3be a2b1 69bf bcc9 813e 68ef 4d3f
00000030: 6846 523f d11b 733e 359f 2dbf e034 c83e
00000040: 001c 213d 5b6f 64be dc09 b13e a845 67bf
00000050: 3a7e 67bf 8489 bcbe 0cf6 423e d938 643f
00000060: 4af6 243f 00ce 733f 72b7 643f 809d bf3c
00000070: 6a7d cc3e 3060 ed3e ea21 28bf 3455 55bf
00000080: e8ee 2c3e bc56 89be 783d 25bd 9b88 ef3e
00000090: d4ea d53e c899 053f 7a90 1fbf 3031 c13e
000000a0: 475a e5be 4e5f 143f beee 10bf 8051 1fbf
000000b0: 22aa 06bf c503 68bf 005f edbd 76eb 52bf
000000c0: ddd0 50bf 2dfe 1fbf ec6d 5cbf c4b5 6ebe
000000d0: e5c1 45bf 128d 253e 6b45 65bf b43a 1a3c
000000e0: c93a 473f a077 1ebd 4c50 49bf 3438 333f
000000f0: 38ed 45bf f087 7e3f cc9d 313f 8eec 0ebf

encoder.layers.0.nn.net.2.weight f4 [64, 64]
0.10948594 0.046460032 -0.010187533 -0.0478835 0.08583006 -0.110487565 -0.07244648 -0.08311322
0.07283972 0.0003554523 0.019734144 -0.119582534 0.11024174 -0.0071355477 -0.11258669 0.08946577
0.009526759 0.091193154 -0.10418971 0.027313193 -0.09908301 0.101366684 0.04359435 0.060999822
0.10748904 -0.060374074 -0.012383178 -0.077227056 -0.107476935 0.022024944 -0.0545403 -0.0656497
0.021479398 -0.10095021 0.07454143 0.1020452 -0.01976867 -0.078454524 -0.02003879 -0.117145
0.09633587 -0.08108825 -0.1151683 0.07718773 0.042896733 -0.07189289 -0.041493773 -0.11937961
0.0065014586 0.10274162 0.068550445 0.009558578 -0.0076231533 -0.036836274 -0.09303234 -0.11391629
0.05097605 -0.0017706752 0.0046419203 0.009638444 -0.13346586 -0.054157473 0.036964744 0.06811651
-0.10654849 -0.040997118 0.087860644 -0.026194418 0.077869266 -0.07251844 -0.037050575 0.079513595
0.011006951 -0.023106828 0.09211761 -0.04655038 -0.060805783 0.0124164745 -0.07954501 -0.022334203
0.11461198 -0.010284953 0.08306759 -0.13684136 0.11578046 0.01393567 -0.031320833 -0.08941578
-0.078783035 0.00954958 -0.12091008 -0.08027311 -0.108136974 -0.100897565 -0.05307192 0.017015502
-0.1088361 -0.05740133 0.06812464 -0.11171629 0.03207715 -0.078419566 0.08175605 -0.010754541
0.11823563 -0.06874739 0.027291536 -0.054136395 0.045350954 0.08406341 -0.009794936 0.09427343
0.094812445 0.05654726 -0.042506337 -0.10705226 0.108905286 0.01315551 -0.03443211 -0.05995135
-0.13799809 -0.09644838 0.1209836 0.103393495 0.050379742 -0.0416499 -0.11853558 -0.09038325
0.03751728 -0.10010779 -0.082579605 -0.096671924 -0.053351857 -0.118279904 0.059484556 -0.017185763
0.079261914 -0.065008864 -0.024091542 0.038160354 -0.07218365 0.03121327 0.09128234 0.08923085
0.0940927 0.08725341 -0.010708705 0.14751247 0.0049922615 0.012413695 -0.013688245 0.014863941
-0.07153645 0.023905955 0.022255406 -0.09336522 0.061220802 0.017532453 0.08441175 -0.054808736
0.05419433 -0.09257385 0.028371587 0.13864692 -0.11055176 0.017689839 -0.009580673 -0.0003658682
-0.024448482 -0.00808079 0.06941889 -0.051736668 0.086346954 -0.065677956 -0.049833193 -0.11829294
-0.02135573 -0.05477684 0.095611 -0.093653366 0.083870456 0.061572272 -0.05934129 0.008764815
-0.023339048 0.10496864 0.10886915 0.10852432 0.14239953 0.101339206 -0.066818535 -0.022630561
0.0074793845 0.007424608 -0.04493308 -0.09966215 -0.13480452 -0.047491476 0.044417918 0.050356865
0.08296153 -0.040559098 0.057759017 0.039149776 0.019859478 0.07811883 -0.039194927 -0.018430814
0.09241626 -0.10299566 0.07267034 0.041054223 -0.10644068 -0.12230502 -0.061655954 -0.11610518
-0.0362328 -0.14095071 0.09914641 0.099801704 0.026847215 -0.121620506 0.0435217 0.01980573
0.04494542 -0.088504806 0.09260119 -0.023046415 -0.0025697201 0.028970912 -0.088592544 0.048353046
0.008577571 0.057963043 0.050848722 -0.10553439 -0.040624738 -0.08554403 -0.105276376 -0.10285315
0.010427958 0.032189682 -0.09225378 -0.09694251 -0.025477119 -0.024553275 0.07574782 0.023908472
-0.07925375 0.022851765 0.04450278 -0.059135377 -0.01621429 -0.009661546 -0.031396076 -0.11737895
00000000: 2a3a e03d e04c 3e3d 9ce9 26bc 7d21 44bd
00000010: acc7 af3d 4e47 e2bd d25e 94bd 4437 aabd
00000020: fe2c 953d 005c ba39 80a9 a13c b0e7 f4bd
00000030: 6cc6 e13d 50d1 e9bb da93 e6bd d439 b73d
00000040: 2016 1c3c 7ac3 ba3d 6a61 d5bd ebbf df3c
00000050: 08ec cabd 5699 cf3d fd8f 323d f3da 793d
00000060: 3723 dc3d ce4a 77bd d0e2 4abc 3829 9ebd
00000070: de1c dcbd a86d b43c a665 5fbd 5a73 86bd
00000080: 90f5 af3c fcbe cebd 2da9 983d 13fd d03d
00000090: e8f1 a1bc c4ac a0bd 6328 a4bc b8e9 efbd
000000a0: be4b c53d 9911 a6bd 5cdd ebbd 9a14 9e3d
000000b0: 7cb4 2f3d 943c 93bd 60f5 29bd 4c7d f4bd
000000c0: 300a d53b 336a d23d 2d64 8c3d 959b 1c3c
000000d0: a5cb f9bb a2e1 16bd bd87 bebd f24c e9bd
000000e0: 43cc 503d 0016 e8ba 401b 983b 90ea 1d3c
000000f0: 46ab 08be 3ad4 5dbd 5868 173d ab80 8b3d
00000100: 1836 dabd 98ec 27bd 48f0 b33d ad95 d6bc
00000110: ec79 9f3d 8c84 94bd 58c2 17bd 06d8 a23d
00000120: 8056 343c 884a bdbc 28a8 bc3d 9cab 3ebd
00000130: 7c0f 79bd 786e 4b3c 7fe8 a2bd 38f6 b6bc
00000140: b0b9 ea3d 3882 28bc 571f aa3d 2420 0cbe
00000150: 4e1e ed3d 7052 643c 464a 00bd 9f1f b7bd
00000160: 0059 a1bd d775 1c3c b49f f7bd 3a66 a4bd
00000170: eb76 ddbd 62a3 cebd f161 59bd 1864 8b3c
00000180: 76e5 debd a81d 6bbd ee84 8b3d 83cb e4bd
00000190: 5463 033d 709a a0bd b76f a73d d033 30bc
000001a0: 8625 f23d 6ecb 8cbd 8092 df3c 20be 5dbd
000001b0: ecc1 393d 7029 ac3d f07a 20bc 6e12 c13d
000001c0: 072d c23d 1a9e 673d 201b 2ebd 373e dbbd
000001d0: bc09 df3d 358a 573c af08 0dbd 8c8f 75bd
000001e0: 5f4f 0dbe ba86 c5bd 40c6 f73d f8bf d33d
000001f0: fd5a 4e3d 1699 2abd c8c2 f2bd da1a b9bd
00000200: b8ab 193d 5005 cdbd 7f1f a9bd eefb c5bd
00000210: 7a87 5abd bc3c f2bd 14a6 733d 28c9 8cbc
00000220: 1254 a23d 5e23 85bd a05b c5bc 084e 1c3d
00000230: 06d5 93bd f9b2 ff3c 3cf2 ba3d aabe b63d
00000240: acb3 c03d eab1 b23d 9073 2fbc 820d 173e
00000250: 2096 a33b d062 4b3c a944 60bc e387 733c
00000260: b481 92bd 6cd6 c33c f850 b63c 4436 bfbd
00000270: aac2 7a3d 38a0 8f3c 11e0 ac3d 207f 60bd
00000280: e0fa 5d3d 5c97 bdbd 886b e83c 75f9 0d3e
00000290: f668 e2bd 48ea 903c 41f8 1cbc 00d2 bfb9
000002a0: 2f48 c8bc 4a65 04bc 7e2b 8e3d d4e9 53bd
000002b0: acd6 b03d 2a82 86bd e41d 4cbd 9243 f2bd
000002c0: 36f2 aebc ae5d 60bd b3cf c33d 56cd bfbd
000002d0: 46c4 ab3d 3533 7c3d da0f 73bd 4c9a 0f3c
000002e0: 8831 bfbc ccf9 d63d caf6 de3d 0042 de3d
000002f0: 2fd1 113e ee8a cf3d 28d8 88bd ba63 b9bc
00000300: a015 f53b 204a f33b c00b 38bd ab1b ccbd
00000310: 320a 0abe 6c86 42bd 90ef 353d 0043 4e3d
00000320: bce7 a93d 4c21 26bd b894 6c3d 845b 203d
00000330: 58b0 a23c c4fc 9f3d dc8a 20bd 38fc 96bc
00000340: bc44 bd3d 63ef d2bd 30d4 943d 7928 283d
00000350: 92fd d9bd 0e7b fabd f48a 7cbd 8dc8 edbd
00000360: d868 14bd 6255 10be 460d cb3d d664 cc3d
00000370: b1ee db3c 2c14 f9bd cf43 323d a03f a23c
00000380: b018 383d 0242 b5bd b1a5 bd3d d6cb bcbc
00000390: c068 28bb 6854 ed3c 0270 b5bd d80d 463d
000003a0: f188 0c3c a86a 6d3d c046 503d 6a22 d8bd
000003b0: 2066 26bd b531 afbd 249b d7bd aca4 d2bd
000003c0: 07da 2a3c 54d9 033d 8def bcbd cb89 c6bd
000003d0: 64b5 d0bc f323 c9bc ac21 9b3d b3db c33c
000003e0: ca4f a2bd a033 bb3c 8c48 363d f037 72bd
000003f0: d5d3 84bc 764b 1ebc 2c99 00bd 6064 f0bd

encoder.layers.0.nn.net.2.bias f4 [64]
0.03375828 -0.0058509777 -0.061817225 -0.08463013 0.12428895 0.09370882 0.08130805 0.11539552
-0.09962242 0.020407518 0.085027866 0.09862574 0.08583561 -0.006926182 0.0089176055 -0.092637755
0.09033992 0.043366328 0.110433534 -0.081614695 -0.008342749 -0.026640695 -0.1061277 -0.07258446
-0.06703904 -0.098986834 0.035696376 -0.08005012 0.11349069 -0.060547113 0.0029529906 0.06716985
-0.09152285 0.08383216 -0.018927533 -0.074242875 -0.023855356 -0.11958762 -0.029310206 -0.0035752736
-0.03809133 -0.06930039 0.106739365 0.122631 0.09340709 -0.1223289 0.014052274 0.03667044
-0.07887408 -0.029169839 0.03855521 0.11410551 -0.086842045 -0.1214347 -0.07968583 -0.060470443
0.06486308 -0.09019293 0.030808743 0.020011581 0.02684801 0.0023577847 0.09098865 -0.00460737
00000000: 1f46 0a3d 8fb9 bfbb 0f34 7dbd 9052 adbd
00000010: 348b fe3d 69ea bf3d d684 a63d 7d54 ec3d
00000020: d706 ccbd ab2d a73c 1723 ae3d 4bfc c93d
00000030: 95ca af3d 07f5 e2bb 261b 123c ddb8 bdbd
00000040: 2304 b93d e4a0 313d fa2a e23d 9b25 a7bd
00000050: 07b0 08bc 963d dabc 7b59 d9bd 29a7 94bd
00000060: c44b 89bd 9cb9 cabd 5d36 123d 51f1 a3bd
00000070: cf6d e83d 4000 78bd f686 413b 5990 893d
00000080: 5570 bbbd 32b0 ab3d ea0d 9bbc a60c 98bd
00000090: 4f6c c3bc 5bea f4bd f51b f0bc 234f 6abb
000000a0: a805 1cbd 5ded 8dbd 2b9a da3d f625 fb3d
000000b0: 374c bf3d 9387 fabd 823b 663c be33 163d
000000c0: bc88 a1bd 96f5 eebc 11ec 1d3d 26b0 e93d
000000d0: 3eda b1bd c2b2 f8bd 5332 a3bd dbaf 77bd
000000e0: efd6 843d 12b7 b8bd 9e62 fc3c 54ef a33c
000000f0: 5cf0 db3c 1085 1a3b 4258 ba3d 6cf9 96bb

encoder.layers.1.nn.net.0.weight f4 [64, 64]
0.054160904 0.137315 -0.0926214 0.083196774 -0.036460903 0.006840089 -0.07634609 -0.01626408
0.048097424 -0.07796535 0.08690032 0.020263378 0.030242875 0.01547605 0.054156277 0.101706
-0.105554104 -0.03810852 -0.004916529 0.11221727 -0.043322604 -0.07433754 -0.118774176 0.11302302
-0.083994 -0.005606114 -0.031019652 0.035380106 -0.110702895 -0.1135135 -0.008249256 -0.041385766
-0.016624432 -0.06782452 0.12045936 0.09408731 0.063573524 0.12831688 0.03197899 0.015862811
-0.08665219 0.050870974 0.08723678 -0.0056578224 0.020433808 -0.043852266 0.06851584 0.020985143
0.058265053 0.09528056 0.08849585 0.109972626 -0.0379391 0.10304615 0.00097601576 0.052453954
0.110785335 -0.05476869 0.064873226 -0.030672476 -0.05076408 -0.08744577 0.09661069 0.11178055
-0.055438343 0.031651057 -0.07405162 0.057886492 0.06394983 -0.032993387 0.076317355 0.029484171
-0.0044758804 0.073136345 -0.06384705 0.011021928 -0.043544628 0.073609896 -0.047053702 8.356536e-05
0.022959303 0.06955654 -0.03036509 -0.021017298 0.035836723 0.011978723 -0.08983189 0.08703259
-0.031141168 0.09540309 -0.039535474 0.10835893 -0.08925887 -0.14023814 0.09901028 0.047189284
-0.11859175 0.0038752686 0.09878337 -0.014668576 -0.08315083 0.055239506 0.004707801 0.049485873
0.06236969 0.09290517 0.028028542 0.0030681908 0.022535684 0.043242518 -0.077230655 -0.080578335
0.09587512 -0.025983026 0.05056367 0.060647104 0.09708269 0.062069748 -0.093973264 -0.026420755
0.0674082 -0.077542864 0.035477363 0.03247175 -0.06494965 0.11270973 0.018247394 -0.08607585
-0.09091915 -0.0500632 0.032597344 0.0022714275 -0.13596348 0.10585175 0.03238409 -0.115996316
-0.055145904 -0.11868972 -0.08967905 -0.13254824 0.1164149 -0.0017561988 0.0707511 0.016155517
-0.104030736 -0.12454082 -0.09130899 -0.14972584 -0.036520354 -0.04356388 -0.07543397 -0.120988406
0.084372476 -0.09672025 0.019080717 0.08620991 -0.09748256 0.031000847 0.058445755 -0.06471512
-0.020624071 0.039747357 0.06697748 0.021483656 0.018100882 0.06253377 -0.030790687 -0.057577852
-0.12336938 -0.05469196 0.04021396 -0.054723658 -0.04411005 -0.06529153 -0.058107097 -0.087532066
-0.02992848 -0.0060202247 -0.047862776 -0.07617175 -0.10871813 -0.032397483 -0.01740736 -0.033443686
0.10470322 -0.009548196 -0.110101625 -0.0646634 -0.036452238 0.11843954 -0.05155067 -0.040174
-0.10704482 0.06529118 -0.1252472 -0.134305 0.011911891 0.041896787 -0.0898491 -0.076175146
0.051121272 -0.034810454 -0.10325444 -0.0399568 -0.081250735 0.073539935 -0.0031169641 0.06277875
0.08890848 0.11116707 0.09671829 -0.13204408 -0.08874837 -0.043540496 0.04643519 -0.056383014
-0.112032175 0.03381511 0.107927494 0.09766921 -0.11492257 0.0071266554 0.09429551 -0.09019482
-0.0021931818 -0.003630012 0.00014393087 -0.054116603 0.06167364 0.09445604 0.014649173 0.0608022
0.017728208 -0.05159742 -0.006972422 0.025464365 0.011077252 0.036849495 -0.15728016 -0.01978848
0.0025810762 0.054308962 -0.03892342 0.052869514 -0.00974282 -0.08629425 -0.12026587 -0.028780645
-0.08391346 -0.07941753 -0.105111256 0.082184084 0.05336545 0.03855841 -0.028293438 0.105652004
00000000: d3d7 5d3d 4e9c 0c3e 4ab0 bdbd 1263 aa3d
00000010: 0758 15bd d322 e03b 575b 9cbd 3f3c 85bc
00000020: ce01 453d 4cac 9fbd ccf8 b13d 62ff a53c
00000030: e8bf f73c 428f 7d3c f9d2 5d3d 3c4b d03d
00000040: c02c d8bd ae17 1cbd d61a a1bb 2bd2 e53d
00000050: 0b73 31bd 483e 98bd e03f f3bd 9d78 e73d
00000060: 0c05 acbd 7eb3 b7bb ed1c febc bbea 103d
00000070: 33b8 e2bd c479 e8bd e327 07bc 1f84 29bd
00000080: f62f 88bc 95e7 8abd 66b3 f63d d9b0 c03d
00000090: d632 823d 8065 033e 67fc 023d baf2 813c
000000a0: b476 b1bd 155e 503d 32a9 b23d 4165 b9bb
000000b0: cd64 a73c 6f9e 33bd 0852 8c3d 09e9 ab3c
000000c0: 56a7 6e3d 7422 c33d 503d b53d 5439 e13d
000000d0: 0866 1bbd dc09 d33d 4fdb 7f3a f5d9 563d
000000e0: 6ce3 e23d 2255 60bd 41dc 843d d844 fbbc
000000f0: ffed 4fbd c516 b3bd d3db c53d 33ed e43d
00000100: 5113 63bd 8aa4 013d 60a8 97bd 631a 6d3d
00000110: 21f8 823d 1324 07bd 464c 9c3d ca88 f13c
00000120: 68aa 92bb 82c8 953d 3ec2 82bd 5195 343c
00000130: da5b 32bd c9c0 963d 62bb 40bd d03f af38
00000140: 2615 bc3c a973 8e3d 36c0 f8bc 782c acbc
00000150: 87c9 123d 6842 443c c8f9 b7bd 243e b23d
00000160: c31b ffbc b262 c33d f3ef 21bd 49eb dd3d
00000170: 5bcd b6bd 969a 0fbe e7c5 ca3d 8d49 413d
00000180: 3be0 f2bd 38f8 7d3b ef4e ca3d 7854 70bc
00000190: fb4a aabd d242 623d e643 9a3b b3b1 4a3d
000001a0: 5c77 7f3d 1145 be3d 1d9c e53c b313 493b
000001b0: c19c b83c 111f 313d 1b2b 9ebd 4106 a5bd
000001c0: 2d5a c43d 5bda d4bc da1b 4f3d 1969 783d
000001d0: 4ad3 c63d d93c 7e3d 0e75 c0bd 5770 d8bc
000001e0: 4f0d 8a3d cbce 9ebd b650 113d 1901 053d
000001f0: 5204 85bd 5cd4 e63d 8f7b 953c 8948 b0bd
00000200: d233 babd 120f 4dbd cb84 053d 3bdc 143b
00000210: 033a 0bbe cdc8 d83d 2ea5 043d 7a8f edbd
00000220: ace0 61bd 9913 f3bd a6a9 b7bd baba 07be
00000230: ef6a ee3d 4130 e6ba f4e5 903d 9358 843c
00000240: 110e d5bd 420f ffbd 3500 bbbd bb51 19be
00000250: 5e96 15bd 0a70 32bd 207d 9abd c5c8 f7bd
00000260: 7acb ac3d 4415 c6bd 2a4f 9c3c d28e b03d
00000270: f0a4 c7bd 7df5 fd3c d164 6f3d 5c89 84bd
00000280: d0f3 a8bc 20ce 223d 7d2b 893d 7efe af3c
00000290: 4d48 943c b511 803d c03c fcbc c1d6 6bbd
000002a0: 16a9 fcbd ad04 60bd 65b7 243d ea25 60bd
000002b0: bdac 34bd 91b7 85bd b501 6ebd 0344 b3bd
000002c0: 922c f5bc 4e45 c5bb c20b 44bd efff 9bbd
000002d0: 9ca7 debd 39b3 04bd e199 8ebc 3ffc 08bd
000002e0: a46e d63d 0970 1cbc f67c e1bd 3f6e 84bd
000002f0: f14e 15bd 6e90 f23d cc26 53bd 7e8d 24bd
00000300: 513a dbbd 62b7 853d cd40 00be 4087 09be
00000310: 182a 433c f79b 2b3d ce02 b8bd b701 9cbd
00000320: 8a64 513d 6895 0ebd 1077 d3bd bea9 23bd
00000330: c966 a6bd 1b9c 963d fb45 4cbb 2592 803d
00000340: a615 b63d 90ab e33d 3d14 c63d 9036 07be
00000350: b5c1 b5bd 8557 32bd d332 3e3d e0f1 66bd
00000360: 2071 e5bd b681 0a3d 1709 dd3d cb06 c83d
00000370: 865c ebbd b886 e93b 011e c13d 10b8 b8bd
00000380: 7cbb 0fbb 7fe5 6dbb 26ec 1639 5fa9 5dbd
00000390: 809d 7c3d 2b72 c13d 1603 703c ba0b 793d
000003a0: bf3a 913c d157 53bd ea78 e4bb a59a d03c
000003b0: 5d7d 353c 7fef 163d 0d0e 21be 731b a2bc
000003c0: 4627 293b 1373 5e3d 2a6e 1fbd b48d 583d
000003d0: 59a0 1fbc 0abb b0bd f44d f6bd 63c5 ebbc
000003e0: d2da abbd a8a5 a2bd 9244 d7bd 2150 a83d
000003f0: bb95 5a3d 6cef 1d3d a4c7 e7bc 1460 d83d

encoder.layers.1.nn.net.0.bias f4 [64]
-0.037724145 -0.051756144 0.05598687 -0.06319314 -0.026407776 -0.041161437 0.05098571 -0.11728621
-0.0006863554 -0.097619444 -0.08266942 0.10790991 -0.10158245 -0.13120455 0.00868061 0.05284401
0.10190288 0.08492188 0.090045705 0.061641894 0.05152145 -0.05233012 -0.12901495 -0.10129035
0.059026908 -0.008755047 -0.10559938 0.112139285 -0.09475657 -0.11890079 -0.054180473 -0.11784557
-0.12983157 -0.022133088 0.05477436 0.06114522 -0.1624876 0.048161745 -0.06194789 0.040898856
-0.08036411 -0.07795119 0.0054301145 0.06452996 -0.03716744 0.080218144 0.09803841 -0.053004812
-0.09298767 0.02572935 0.00478325 -0.008532277 0.1357422 0.12795275 0.1328226 -0.067783535
-0.07643123 -0.025359793 0.05146651 0.12999512 0.12323251 0.08287755 0.013657918 -0.14852037
00000000: a284 1abd 40fe 53bd 7d52 653d 686b 81bd
00000010: 1f55 d8bc e598 28bd 64d6 503d c133 f0bd
00000020: 88ec 33ba b4ec c7bd 964e a9bd dfff dc3d
00000030: 760a d0bd 7c5a 06be 1e39 0e3c f672 583d
00000040: 75b2 d03d 86eb ad3d e269 b83d 367c 7c3d
00000050: 2808 533d 1c58 56bd 7f1c 04be 5171 cfbd
00000060: 33c6 713d 5471 0fbc 7d44 d8bd 48a9 e53d
00000070: bc0f c2bd 4282 f3bd 58ec 5dbd 0559 f1bd
00000080: 91f2 04be 7350 b5bc 145b 603d 6973 7a3d
00000090: 2663 26be 4045 453d 12bd 7dbd 8f85 273d
000000a0: f095 a4bd e0a4 9fbd 1aef b13b 4928 843d
000000b0: e33c 18bd 6949 a43d 5dc8 c83d 931b 59bd
000000c0: 5270 bebd 5cc6 d23c cfbc 9c3b f7ca 0bbc
000000d0: 0100 0b3e 0c06 033e a602 083e 18d2 8abd
000000e0: fa87 9cbd 57bf cfbc 8cce 523d 711d 053e
000000f0: 5461 fc3d b4bb a93d 76c5 5f3c b915 18be

encoder.layers.1.nn.net.2.weight f4 [64, 64]
-0.0679716 0.030600004 0.09013984 -0.08855692 0.035764825 0.066542216 -0.057556838 -0.07929753
-0.09252693 -0.027474722 0.0052897115 0.044505186 0.010953431 -0.046839982 -0.053933132 0.022181153
0.07739743 0.09022589 0.123939805 0.06673279 -0.04671316 0.07535185 -0.09784659 0.0872872
0.033878263 0.035212077 -0.08841028 0.035100512 -0.0074408203 -0.04272183 -0.078701474 0.036249112
-0.0297095 0.058525782 0.11779369 0.04315045 0.08990678 -0.03580946 0.015800007 -0.10188922
0.1215818 -0.0243323 0.06710041 0.0070991106 0.14479932 0.062485233 -0.008309541 0.012967734
-0.009149035 0.061941043 0.113243505 0.032394487 0.10115058 -0.093425274 0.003087801 0.025207626
0.050749402 -0.033161346 -0.033886958 -0.017420111 0.014394143 0.029640505 -0.05717485 0.08751005
-0.10752179 0.14347881 0.045524623 -0.04594469 -0.0063818046 0.17255634 0.02350493 -0.101331756
-0.1084874 0.056154184 0.0692711 0.09061867 0.13526307 -0.0074378154 0.08213754 0.076249585
0.091116585 0.031478237 -0.062385637 -0.060317308 0.039062023 0.16052438 0.06969214 0.06724849
-0.029795803 0.12440415 0.06882033 0.15361212 -0.0064844056 -0.03483877 0.0368902 -0.01347415
-0.050696805 -0.045356274 -0.007810591 0.13546944 0.01485617 0.12220131 -0.07877048 -0.100430205
-0.0382663 -0.07160247 -0.083345085 0.017120214 0.10389684 0.011126842 0.09495254 -0.046782807
0.13770808 -0.1164999 -0.09546955 0.10317714 -0.056118775 -0.0426142 0.11395708 -0.045724403
0.1104874 0.09784641 0.0759774 -0.040768053 0.04941165 0.14032312 0.026052477 -0.037175555
0.11404821 0.02507876 -0.046691537 0.11048566 -0.058606394 -0.0032710673 0.10285744 -0.007238142
-0.013320436 0.13140881 -0.084210575 0.07931286 0.026962928 -0.025823545 0.121647626 -0.040057033
0.06223441 0.04049437 0.044012163 -0.08176338 -0.14066741 0.07817775 -0.015195184 -0.019632388
-0.03933607 0.06326914 0.0417613 0.07363846 0.013142092 0.0904346 -0.027974375 0.089741044
-0.11276469 -0.12481003 0.025491487 0.1844798 -0.047163904 0.10084199 0.18712653 -0.0143729225
0.08237719 -0.12755713 -0.06999285 0.009105321 0.036991682 -0.088190526 0.026790366 0.07874452
-0.023717232 0.0091879275 0.07133203 -0.009364638 -0.07299822 -0.018947337 -0.04389089 0.03936562
0.027418602 -0.09355214 0.038112756 0.05410613 0.12409909 -0.024775362 0.0009042139 0.09199631
-0.012125631 -0.022337645 -0.056975566 0.08611871 0.0015436569 -0.13433087 0.09814449 -0.05378493
0.07056719 -0.035736952 -0.06694056 0.082743764 -0.07027496 -0.026629912 -0.05184787 0.0045536375
-0.028189542 0.01799478 -0.07955727 -0.10162177 -0.0020246343 -0.16515608 -0.042524975 0.051225666
-0.10911185 0.03320915 -0.09958133 -0.051794745 -0.13060138 -0.004696203 0.1738041 0.08023951
0.119609065 0.0068739583 -0.012032619 -0.099024005 0.04991271 -0.015410158 -0.093404435 -0.12453876
-0.1278002 -0.065682754 -0.068696976 0.03616366 0.10182713 -0.12073436 0.13623361 0.0883432
-0.119381174 0.054680407 0.09836452 -0.016478121 0.06872831 -0.079956695 -0.15719698 -0.059615035
-0.10477945 0.14125878 -0.004187242 0.04516593 0.049122408 -0.06137183 0.081441134 -0.09837491
00000000: b234 8bbd dcac fa3c 3d9b b83d 555d b5bd
00000010: 237e 123d 4947 883d b8c0 6bbd be66 a2bd
00000020: c27e bdbd ab12 e1bc 5155 ad3b 124b 363d
00000030: 0576 333c 48db 3fbd fde8 5cbd 40b5 b53c
00000040: 8b82 9e3d 5ac8 b83d 27d4 fd3d 33ab 883d
00000050: 4c56 3fbd 1252 9a3d cb63 c8bd a2c3 b23d
00000060: efc3 0a3d 8a3a 103d 7310 b5bd 8ec5 0f3d
00000070: 20d2 f3bb 16fd 2ebd 3d2e a1bd f379 143d
00000080: 5661 f3bc bbb8 6f3d d13d f13d 87be 303d
00000090: 0c21 b83d f1ac 12bd 046f 813c 4cab d0bd
000000a0: e1ff f83d 8854 c7bc f16b 893d a89f e83b
000000b0: 4646 143e 84f0 7f3d be24 08bc 9e76 543c
000000c0: d6e5 15bc e4b5 7d3d 36ec e73d 15b0 043d
000000d0: 0928 cf3d c055 bfbd b45c 4a3b 3980 ce3c
000000e0: 9bde 4f3d 31d4 07bd 0dcd 0abd 9fb4 8ebc
000000f0: 69d5 6b3c a5d0 f23c 2d30 6abd 7838 b33d
00000100: 6234 dcbd 1cec 123e 0778 3a3d 8030 3cbd
00000110: 751e d1bb 9cb2 303e 698d c03c 0687 cfbd
00000120: a42e debd ee01 663d 02de 8d3d 4896 b93d
00000130: 6782 0a3e ebb8 f3bb ba37 a83d be28 9c3d
00000140: 559b ba3d 53ef 003d 1588 7fbd 480f 77bd
00000150: 80ff 1f3d 8160 243e c1ba 8e3d 94b9 893d
00000160: 5416 f4bc 9ac7 fe3d acf1 8c3d 7f4c 1d3e
00000170: 237b d4bb 19b3 0ebd 2e1a 173d aec2 5cbc
00000180: 74a7 4fbd 80c7 39bd fcef ffbb 80b8 0a3e
00000190: 4b67 733c ae44 fa3d 6b52 a1bd 5aae cdbd
000001a0: 20bd 1cbd 51a4 92bd d4b0 aabd b13f 8c3c
000001b0: dec7 d43d 5c4d 363c 7a76 c23d 549f 3fbd
000001c0: 5903 0d3e 8097 eebd 8a85 c3bd 894e d33d
000001d0: cddc 65bd 3a8c 2ebd 5462 e93d 8349 3bbd
000001e0: 3847 e23d b363 c83d 0a9a 9b3d 67fc 26bd
000001f0: df63 4a3d ddb0 0f3e 016c d53c 6545 18bd
00000200: 1c92 e93d f971 cd3c a03f 3fbd 4e46 e23d
00000210: 420d 70bd 675f 56bb eca6 d23d f02d edbb
00000220: f53d 5abc 0890 063e 9876 acbd c86e a23d
00000230: 5ce1 dc3c e68b d3bc 6422 f93d d812 24bd
00000240: 82e9 7e3d 6ddd 253d 1946 343d 8f73 a7bd
00000250: 1e0b 10be a81b a03d 39f5 78bc 1ad4 a0bc
00000260: dc1e 21bd 4093 813d e60d 2b3d c3cf 963d
00000270: ee51 573c c735 b93d 842a e5bc 27ca b73d
00000280: 2cf1 e6bd 679c ffbd 86d3 d03c 46e8 3c3e
00000290: f02e 41bd 3f86 ce3d 199e 3f3e 687c 6bbc
000002a0: 5fb5 a83d 569e 02be 6958 8fbd 7c2e 153c
000002b0: 9784 173d 3c9d b4bd 7877 db3c cf44 a13d
000002c0: a44a c2bc f688 163c 8716 923d 236e 19bc
000002d0: 1780 95bd 7237 9bbc efc6 33bd d83d 213d
000002e0: fa9c e03c 4498 bfbd 1f1c 1c3d 649e 5d3d
000002f0: aa27 fe3d b3f5 cabc c508 6d3a 9068 bc3d
00000300: 95aa 46bc 70fd b6bc 365f 69bd 025f b03d
00000310: 8854 ca3a 088e 09be faff c83d 964d 5cbd
00000320: 8885 903d e960 12bd 2218 89bd 9075 a93d
00000330: 51ec 8fbd f926 dabc 6f5e 54bd ae36 953b
00000340: c1ed e6bc ca69 933c ecee a2bd 131f d0bd
00000350: baaf 04bb ad1e 29be ab2e 2ebd 01d2 513d
00000360: 0976 dfbd 5106 083d 4cf1 cbbd ba26 54bd
00000370: 5ebc 05be 9be2 99bb b4f9 313e 9d54 a43d
00000380: 99f5 f43d f13e e13b 7624 45bc 19cd cabd
00000390: 4571 4c3d e37a 7cbc d34a bfbd 2d0e ffbd
000003a0: 0ede 02be ae84 86bd 00b1 8cbd 5920 143d
000003b0: be8a d03d 9343 f7bd d380 0b3e 48ed b43d
000003c0: 1e7e f4bd 90f8 5f3d 5673 c93d 20fd 86bc
000003d0: 6ec1 8c3d 56c0 a3bd 3ff8 20be e52e 74bd
000003e0: 9c96 d6bd 24a6 103e 2235 89bb e9ff 383d
000003f0: 9434 493d 0761 7bbd 9cca a63d c978 c9bd

encoder.layers.1.nn.net.2.bias f4 [64]
-0.054263752 -0.07866082 0.027884267 0.07958235 0.045211285 0.036868956 0.07392032 -0.09935993
-0.021849712 0.10996064 0.03748333 -0.07824698 -0.08826014 0.06744077 -0.07365682 -0.11478064
-0.10713707 -0.054935288 0.078011714 0.031819362 -0.006046698 -0.037219938 0.069000356 -0.0016276777
0.07725404 -0.036237918 -0.036285505 -0.036773905 -0.05053786 -0.079150446 -0.025976317 -0.0012142606
-0.043624345 -0.10903835 -0.106572896 -0.010991649 -0.12021516 0.098774105 0.019297069 0.021981234
0.11905611 -0.09509038 0.06722409 -0.075512975 0.014218903 0.06826724 -0.026029529 -0.045319278
-0.059651345 0.110497326 -0.07153459 0.066669 0.016423497 0.05196125 -0.08278976 0.07795845
0.10879284 -0.06771008 -0.0114399 0.043798104 -0.008772047 0.022075757 0.115908846 0.024997562
00000000: ab43 5ebd ed18 a1bd 8c6d e43c 12fc a23d
00000010: 782f 393d e703 173d 8963 973d 387d cbbd
00000020: 2bfe b2bc 0b33 e13d 1f88 193d f43f a0bd
00000030: bbc1 b4bd 631e 8a3d 63d9 96bd 1d12 ebbd
00000040: ae6a dbbd d303 61bd 9bc4 9f3d 0555 023d
00000050: 6123 c6bb ef73 18bd 0f50 8d3d cd57 d5ba
00000060: 5e37 9e3d 366e 14bd 1ca0 14bd 3ca0 16bd
00000070: c900 4fbd a119 a2bd 49cc d4bc d327 9fba
00000080: 71af 32bd 804f dfbd e442 dabd 5116 34bc
00000090: 5e33 f6bd 144a ca3d e314 9e3c fd11 b43c
000000a0: b1d3 f33d bfbe c2bd c9ac 893d 8ca6 9abd
000000b0: 67f6 683c b2cf 8b3d e13b d5bc b5a0 39bd
000000c0: f854 74bd 6c4c e23d ba80 92bd c289 883d
000000d0: 928a 863c 52d5 543d ad8d a9bd aea8 9f3d
000000e0: c8ce de3d 95ab 8abd 6b6e 3bbc a465 333d
000000f0: a2b8 0fbc 38d8 b43c 9e61 ed3d b0c7 cc3c

encoder.layers.2.nn.net.0.weight f4 [64, 64]
-0.035375983 -0.12157189 -0.11442075 0.047581196 -0.058270045 -0.025577249 -0.10182214 0.15377201
-0.0684446 0.08661101 0.15363148 0.07644321 0.0510196 -0.013689956 -0.080227956 0.07607479
0.058503367 0.10911254 -0.08228814 -0.02530139 -0.04244132 0.19118662 -0.016992822 -0.064799905
0.037502762 0.06034285 0.089059055 0.029251738 -0.118784435 0.039185435 -0.19627212 -8.927887e-06
0.09323144 0.044407625 0.061511237 0.13664992 0.19240217 0.0031210396 0.12696691 0.06581272
0.15503214 0.092198014 0.16203056 -0.09378032 -0.077674784 -0.00029214355 -0.08696317 0.14657228
-0.05689034 0.10091939 -0.016175995 0.114074595 -0.044517934 0.028157603 -0.067791514 0.0752716
0.1893299 0.12584355 -0.026735798 0.12196535 -0.08100088 0.103468694 0.1488131 -0.07032599
-0.071326554 0.061807793 0.025015645 -0.14650325 -0.08240315 -0.078772135 -0.11911584 0.027498426
0.08615674 -0.009972326 -0.10041284 -0.043745857 -0.026866652 0.040558856 0.09159262 0.0008925488
-0.060470235 0.015707245 0.040870123 -0.08464524 -0.047185034 -0.036636364 0.042199273 0.0871328
-0.11451591 -0.11912371 0.033317145 0.07483904 -0.112967975 -0.06940957 -0.09439152 0.075242005
-0.079590276 -0.08569404 -0.047595423 -0.032726966 -0.13131037 0.10648509 0.07485216 -0.12534067
0.0012432543 0.12407489 -0.115869366 0.011535951 -0.119418025 -0.1600803 -0.12905583 -0.037247226
-0.078931995 0.09406121 0.09033701 -0.05680633 -0.08984556 0.004576933 -0.10628587 0.10344509
0.058349732 0.04178041 0.062036533 -0.099242724 0.090357184 0.07289218 0.03743109 0.037332658
0.113455534 -0.06868082 -0.11905733 -0.0028731006 -0.04896328 0.048585307 0.09352607 -0.06304364
-0.022116808 0.09256909 0.06120177 -0.06389756 0.09825548 -0.017200602 0.041092478 -0.08383064
-0.07378326 -0.06005649 0.05204935 0.036165386 0.096075535 0.063972026 0.095852874 -0.036143407
-0.076617494 -0.0019499777 -0.10125473 -0.10780589 0.0066190525 -0.018721519 0.06374057 0.0059318775
-0.05627738 0.0951046 -0.12728497 -0.09567088 0.06060353 -0.09865534 0.08404908 -0.17177531
0.011968164 -0.028131563 -0.085537575 -0.10944882 0.100113854 0.07692677 0.04530597 -0.061991833
0.100952074 0.018216869 -0.10138191 -0.09889192 0.063427344 0.09095225 0.034873895 0.02801226
0.059323 -0.12603912 -0.06742654 -0.06050495 0.018910827 -0.0062815025 0.03708508 -0.018809961
0.10015569 0.0005085909 -0.053365767 0.16569647 0.05420084 -0.031002086 0.10761246 0.17133816
0.12288541 -0.016005497 0.09968361 0.09579648 -0.11490327 -0.02691874 -0.052031167 -0.09478102
0.06651855 -0.071636826 0.011179023 -0.04064164 -0.055410232 -0.10427591 0.06529542 0.13250518
0.046403937 -0.0058247102 -0.006741482 -0.16375159 0.018265437 0.097706124 0.13253973 -0.039851706
-0.09935443 -0.08774772 -0.04372598 -0.019238295 0.032974526 0.08230256 -0.054212634 -0.09250666
0.12186464 -0.0064805765 -0.13110252 -0.049888425 0.042896643 0.018403381 0.06566176 0.04759365
-0.029343074 -0.057885222 0.046365075 0.100394875 -0.097821906 -0.042804796 -0.065132566 -0.08979792
0.15747617 -0.061223987 0.003356823 -0.100297496 0.12876065 0.10013691 0.047039486 0.10791499
00000000: 68e6 10bd affa f8bd 6d55 eabd 80e4 423d
00000010: 92ac 6ebd 6187 d1bc 2088 d0bd 6976 1d3e
00000020: af2c 8cbd 1d61 b13d 9251 1d3e 428e 9c3d
00000030: eef9 503d d64b 60bc 8e4e a4bd 19cd 9b3d
00000040: 3aa1 6f3d 6576 df3d af86 a8bd dc44 cfbc
00000050: f3d6 2dbd 6dc6 433e 8834 8bbc d0b5 84bd
00000060: 7f9c 193d 102a 773d 9864 b63d 57a1 ef3c
00000070: 4145 f3bd e880 203d 8ffb 48be fcc8 15b7
00000080: 20f0 be3d c5e4 353d 35f3 7b3d f5ed 0b3e
00000090: 1305 453e 5b8a 4c3b 9d03 023e d2c8 863d
000000a0: bfc0 1e3e 50d2 bc3d 57eb 253e e50f c0bd
000000b0: f513 9fbd d82a 99b9 bf19 b2bd 0b17 163e
000000c0: d805 69bd d3ae ce3d 8583 84bc f19f e93d
000000d0: 7058 36bd c6aa e63c 47d6 8abd ff27 9a3d
000000e0: b3df 413e 22dd 003e 0805 dbbc f8c8 f93d
000000f0: cae3 a5bd 65e7 d33d 7662 183e 1307 90bd
00000100: a813 92bd 2b2a 7d3d 9ced cc3c f304 16be
00000110: fcc2 a8bd 4953 a1bd 01f3 f3bd 6144 e13c
00000120: f272 b03d f862 23bc 3fa5 cdbd db2e 33bd
00000130: 7417 dcbc 0b21 263d e994 bb3d f0f9 693a
00000140: a3af 77bd 7bac 803c 6e67 273d 7c5a adbd
00000150: 1845 41bd 0310 16bd 25d9 2c3d ae72 b23d
00000160: 5187 eabd 22f7 f3bd 8f77 083d 3645 993d
00000170: c15b e7bd 9b26 8ebd 5750 c1bd 7b18 9a3d
00000180: 3a00 a3bd 5b80 afbd 6bf3 42bd b60c 06bd
00000190: 3a76 06be db14 da3d 174c 993d 4e59 00be
000001a0: b1f4 a23a fa1a fe3d eb4c edbd 4901 3d3c
000001b0: 7091 f4bd 17ec 23be 3627 04be 8c90 18bd
000001c0: 19a7 a1bd 2aa3 c03d 9c02 b93d c1ad 68bd
000001d0: f300 b8bd 19fa 953b 68ac d9bd 05db d33d
000001e0: 2100 6f3d ef21 2b3d 051a 7e3d c53f cbbd
000001f0: 300d b93d 7f48 953d 5851 193d 21ea 183d
00000200: 605b e83d 88a8 8cbd 54d4 f3bd a14a 3cbb
00000210: b88d 48bd 6301 473d 998a bf3d 061d 81bd
00000220: 4f2e b5bc dd94 bd3d b5ae 7a3d b9dc 82bd
00000230: 2b3a c93d 47e8 8cbc 9650 283d 66af abbd
00000240: ae1b 97bd cbfd 75bd b331 553d 2822 143d
00000250: 40c3 c43d c403 833d 834e c43d 1c0b 14bd
00000260: a2e9 9cbd 6596 ffba a45e cfbd 56c9 dcbd
00000270: a3e4 d83b df5d 99bc 6a8a 823d 3260 c23b
00000280: 1c83 66bd 33c6 c23d fe56 02be 18ef c3bd
00000290: 683b 783d d00b cabd ed21 ac3d dee5 2fbe
000002a0: 1e16 443c 2a74 e6bc 532e afbd b426 e0bd
000002b0: 7e08 cd3d c88b 9d3d c192 393d 26eb 7dbd
000002c0: f6bf ce3d 8b3b 953c 52a1 cfbd d987 cabd
000002d0: 32e6 813d 2c45 ba3d eed7 0e3d f879 e53c
000002e0: adfc 723d 6610 01be ed16 8abd 0ad4 77bd
000002f0: e1ea 9a3c 10d5 cdbb 86e6 173d 5917 9abc
00000300: 6d1e cd3d f552 053a 1096 5abd 56ac 293e
00000310: b301 5e3d 16f8 fdbc ec63 dc3d 4573 2f3e
00000320: 59ab fb3d f61d 83bc ec26 cc3d f230 c43d
00000330: 6852 ebbd b084 dcbc a21e 55bd 8d1c c2bd
00000340: e13a 883d 54b6 92bd 3928 373c d977 26bd
00000350: d7f5 62bd 9c8e d5bd 9bb9 853d 70af 073e
00000360: 0e12 3e3d 36dd bebb a6e7 dcbb 7fae 27be
00000370: 66a1 953c 261a c83d 7fb8 073e 8b3b 23bd
00000380: 567a cbbd 14b5 b3bd 031a 33bd a199 9dbc
00000390: 4c10 073d 3f8e a83d 110e 5ebd 2274 bdbd
000003a0: 2b94 f93d 045b d4bb bd3f 06be ce57 4cbd
000003b0: 64b4 2f3d b0c2 963c ac79 863d 8ff1 423d
000003c0: e360 f0bc 0e19 6dbd 4ee9 3d3d d49b cd3d
000003d0: da56 c8bd 1554 2fbd 3964 85bd f9e7 b7bd
000003e0: 6f41 213e 01c6 7abd 25fe 5b3b c668 cdbd
000003f0: d5d9 033e 9514 cd3d 7aac 403d 8902 dd3d

encoder.layers.2.nn.net.0.bias f4 [64]
-0.042272042 0.049762867 0.091310896 0.06175824 0.11247359 -0.029009456 0.09150145 0.045165062
-0.08482806 -0.108733855 -0.038984887 -0.037311073 -0.06080136 -0.15422283 -0.09842156 -0.060850907
0.07875984 0.046269447 0.12282899 -0.010402475 -0.056668844 0.06207556 0.08444131 0.09798667
0.0059758914 -0.078323655 -0.07067397 -0.0024622967 -0.032340176 0.15247533 0.1521536 -0.02494056
0.0027216203 -0.00236174 -0.013102116 0.14536467 0.06003064 -0.0058394205 0.088361345 0.14443594
-0.11763736 0.057833232 0.005531559 0.089007534 0.045855567 0.04786152 0.106690824 -0.06041389
0.09092243 -0.040381074 0.095891505 -0.04929107 0.11560849 -0.03629663 -0.07098978 -0.019318871
-0.038928125 -0.015810719 0.047286566 0.09025005 0.0051748753 -0.09463049 0.07282063 0.10221279
00000000: 7325 2dbd 26d4 4b3d 3501 bb3d 35f6 7c3d
00000010: 8e58 e63d 3da5 edbc 1d65 bb3d 00ff 383d
00000020: 55ba adbd dbaf debd 9eae 1fbd 7fd3 18bd
00000030: d90a 79bd 97ec 1dbe 3e91 c9bd cd3e 79bd
00000040: d74c a13d 0885 3d3d c48d fb3d 246f 2abc
00000050: 971d 68bd f142 7e3d 91ef ac3d 3cad c83d
00000060: 69d1 c33b 2768 a0bd 84bd 90bd 7c5e 21bb
00000070: 2277 04bd 7e22 1c3e 27ce 1b3e 2550 ccbc
00000080: 365d 323b 6cc7 1abb 42aa 56bc 7ada 143e
00000090: b0e2 753d 9c58 bfbb cbf6 b43d 04e7 133e
000000a0: dbeb f0bd 8ae2 6c3d 1542 b53b 9549 b63d
000000b0: 0cd3 3b3d 710a 443d b880 da3d 8e74 77bd
000000c0: 8a35 ba3d a066 25bd c462 c43d 6fe5 49bd
000000d0: 25c4 ec3d c6ab 14bd 1763 91bd 9c42 9ebc
000000e0: 1973 1fbd 7b85 81bc 8faf 413d 05d5 b83d
000000f0: 0092 a93b a1cd c1bd fc22 953d f054 d13d

encoder.layers.2.nn.net.2.weight f4 [64, 64]
0.18525288 0.115158856 -0.06633881 -0.021466808 -0.08596802 -0.052240036 -0.13698085 -0.04222417
-0.026941549 0.071655676 -0.09100553 0.08115777 0.017041683 -0.04548567 -0.0054465123 -0.0151450755
0.061123587 0.07122694 0.036317237 -0.094433494 -0.115227744 0.06584313 0.0236598 0.2089016
0.03145421 0.053554654 0.10937492 -0.0073378505 -0.09623565 -0.067066915 -0.10693783 0.10017563
0.031013526 0.109363385 -0.004615081 0.029217772 0.15168938 0.1310374 0.07459198 0.09007784
0.053778496 0.020422116 -0.09512703 -0.012423971 0.04427368 0.0778962 0.09873162 -0.046166565
-0.06408011 0.10100086 0.01557059 -0.025197042 0.011882592 0.012105305 0.16356024 0.031389534
-0.12028358 -0.0072287717 0.04822158 0.18315715 -0.05807162 0.13414189 -0.03208191 -0.05948559
0.05493229 0.0643133 -0.1189542 -0.14829957 0.090066224 0.10552972 0.06724922 -0.052458063
0.119461216 0.021284997 0.005665651 -0.069403656 -0.11436449 0.012066047 -0.07894474 -0.12080881
0.022589555 -0.07680546 0.05799398 -0.106363826 0.02222825 -0.115149714 0.11928563 0.09851951
-0.111857854 0.018360673 0.06383741 0.008788202 -0.11403912 0.043943856 -0.077432334 -0.03416753
0.018257821 -0.07460178 0.10028356 -0.04675345 0.07069265 0.09240625 0.096570976 0.015379949
-0.07653051 -0.009562256 0.04310803 -0.122429304 0.16838278 0.0043686745 -0.008279272 0.051565938
-0.046107836 0.124071896 -0.09571722 -0.07295127 -0.08635186 0.06669901 -0.05320109 -0.06604974
0.020721601 -0.067935444 0.03433202 -0.010547765 -0.07970134 0.06533909 0.026913503 0.00046583277
-0.025566705 0.08703063 -0.011049544 -0.09761335 -0.010172258 -0.07697926 0.041575395 0.07814173
0.14347325 0.024019863 -0.05039304 -0.12842122 -0.14037465 0.046004344 0.1158127 -0.081906
-0.06581304 -0.068493575 0.06759397 -0.033789635 -0.13766974 -0.04423864 0.09195849 -0.044114422
0.026517795 -0.035372246 0.06787596 0.06657618 -0.13604565 -0.05565081 -0.018676445 -0.023809733
0.0644318 -0.057269987 0.04765911 -0.0009565031 0.08239624 -0.09282936 0.00018007835 -0.065585494
0.1233573 -0.08224298 -0.044844065 -0.1606944 -0.09083489 -0.04681098 -0.11769478 0.040669378
0.04372938 -0.03620167 -0.11961204 -0.032559182 0.10518907 -0.020910805 -0.010394973 0.096528985
-0.010974332 -0.037122887 -0.106253326 0.037950363 0.09922676 -0.055090807 -0.1286547 -0.062478133
0.11943799 -0.10971405 -0.08190956 0.07509288 0.038608965 0.04700718 0.0479323 -0.03101402
0.11920353 0.085654944 0.07973628 -0.008272923 -0.012184475 -0.11396667 -0.004714151 0.13070504
0.12615053 0.12637427 0.06399309 -0.024551373 0.12277602 0.021713655 0.094729684 0.112839274
0.0029567718 -0.0745569 0.08765592 0.02979906 0.091754794 -0.048210926 -0.057867695 -0.010701103
0.10476255 0.007966185 0.010142368 0.05645094 0.0050767898 -0.09635922 0.12167771 0.03396942
0.01703931 -0.0317278 -0.09368795 0.09678301 0.053389374 -0.02498609 0.030314397 0.09065891
-0.09017214 -0.0035320302 -8.847192e-05 -0.10693076 -0.046562396 0.051912062 -0.076553546 0.030761959
0.05669808 -0.10606764 -0.08306045 0.03442097 0.12956588 -0.029906182 0.12164946 0.04410729
00000000: eeb2 3d3e 68d8 eb3d a4dc 87bd 29db afbc
00000010: 0010 b0bd a6f9 55bd b544 0cbe 40f3 2cbd
00000020: 86b4 dcbc 36c0 923d 1b61 babd 0b36 a63d
00000030: 009b 8b3c 2f4f 3abd a878 b2bb 0d23 78bc
00000040: ba5c 7a3d 6edf 913d 62c1 143d 5966 c1bd
00000050: 86fc ebbd c3d8 863d 32d2 c13c 4dea 553e
00000060: 21d6 003d 205c 5b3d f5ff df3d 5a72 f0bb
00000070: 3217 c5bd 615a 89bd 3902 dbbd e128 cd3d
00000080: 1410 fe3c e9f9 df3d 1b3a 97bb 1c5a ef3c
00000090: 7654 1b3e ab2e 063e aec3 983d bb7a b83d
000000a0: d746 5c3d 484c a73c f6d1 c2bd e98d 4bbc
000000b0: 5158 353d 0b88 9f3d ce33 ca3d 2719 3dbd
000000c0: 6f3c 83bd 8ad9 ce3d ca1b 7f3c 076a cebc
000000d0: 34af 423c 5455 463c 567c 273e 5092 003d
000000e0: 3d57 f6bd 55df ecbb fe83 453d 8c8d 3b3e
000000f0: 82dc 6dbd 7e5c 093e 5268 03bd 29a7 73bd
00000100: ae00 613d b1b6 833d 429e f3bd d8db 17be
00000110: a474 b83d f71f d83d f6b9 893d 44de 56bd
00000120: 15a8 f43d e05d ae3c eda6 b93b 8123 8ebd
00000130: ee37 eabd abb0 453c c8ad a1bd 9c6a f7bd
00000140: bb0d b93c 2e4c 9dbd 188b 6d3d 47d5 d9bd
00000150: 0518 b63c 9dd3 ebbd 064c f43d 99c4 c93d
00000160: bb15 e5bd 1f69 963c 30bd 823d 64fc 0f3c
00000170: 588d e9bd 79fe 333d d894 9ebd 40f3 0bbd
00000180: 6d91 953c d1c8 98bd 7861 cd3d 8c80 3fbd
00000190: 4fc7 903d 7d3f bd3d 01c7 c53d 2efc 7b3c
000001a0: 07bc 9cbd 02ab 1cbc 0c92 303d 37bc fabd
000001b0: 896c 2c3e 1927 8f3b c9a5 07bc ce36 533d
000001c0: 92db 3cbd 6819 fe3d 6407 c4bd 7a67 95bd
000001d0: 3ed9 b0bd 7e99 883d 63e9 59bd 1645 87bd
000001e0: 59c0 a93c bd21 8bbd bb9f 0c3d 88d0 2cbc
000001f0: 753a a3bd 80d0 853d b579 dc3c 043b f439
00000200: 4471 d1bc 1d3d b23d 2609 35bc 82e9 c7bd
00000210: 8ba9 26bc 4da7 9dbd f64a 2a3d c508 a03d
00000220: a7ea 123e 4ec5 c43c ef68 4ebd da80 03be
00000230: 5fbe 0fbe 0d6f 3c3d 352f ed3d 55be a7bd
00000240: fdc8 86bd 5c46 8cbd b56e 8a3d 0067 0abd
00000250: 4cf9 0cbe 9433 35bd bc54 bc3d 53b1 34bd
00000260: d93b d93c 7de2 10bd 8d02 8b3d 1859 883d
00000270: 8d4f 0bbe 1bf2 63bd 58ff 98bc a10c c3bc
00000280: d2f4 833d ef93 6abd 3336 433d d6bd 7aba
00000290: 5cbf a83d 521d bebd 6ad3 3c39 b051 86bd
000002a0: c1a2 fc3d 026f a8bd 69ae 37bd 138d 24be
000002b0: a507 babd dfbc 3fbd f609 f1bd ef94 263d
000002c0: 941d 333d 3448 14bd 28f7 f4bd c75c 05bd
000002d0: 5e6d d73d 234d abbc ad4f 2abc fdb0 c53d
000002e0: afcd 33bc 2b0e 18bd 589b d9bd d771 1b3d
000002f0: 6637 cb3d e6a6 61bd 0fbe 03be 12e9 7fbd
00000300: e89b f43d c3b1 e0bd 33c0 a7bd 4cca 993d
00000310: 6f24 1e3d 9a8a 403d a954 443d 1d11 febc
00000320: fb20 f43d dc6b af3d c64c a33d 278b 07bc
00000330: 64a1 47bc 5c67 e9bd 2a79 9abb 8bd7 053e
00000340: 9b2d 013e 4268 013e cf0e 833d f61f c9bc
00000350: fe71 fb3d d6e0 b13c a301 c23d 4718 e73d
00000360: 66c6 413b 4ab1 98bd f284 b33d 291d f43c
00000370: f0e9 bb3d d278 45bd ad06 6dbd ae53 2fbc
00000380: bf8d d63d 9a84 023c 2d2c 263c 1a39 673d
00000390: 335b a63b fc57 c5bd 2a32 f93d 8523 0b3d
000003a0: 0696 8b3c 02f5 01bd 78df bfbd 2c36 c63d
000003b0: d1ae 5a3d a1af ccbc e655 f83c 61ab b93d
000003c0: 2cac b8bd a279 67bb 008a b9b8 84fe dabd
000003d0: 36b8 3ebd bea1 543d 1bc8 9cbd 8100 fc3c
000003e0: 3f3c 683d fe39 d9bd 991b aabd 01fd 0c3d
000003f0: ebac 043e cffd f4bc 5a23 f93d d9a9 343d

encoder.layers.2.nn.net.2.bias f4 [64]
-0.10886511 0.05192878 0.011356201 -0.0057900916 0.120059215 -0.031000234 0.067282334 -0.057629466
0.0597511 -0.09445089 -0.07668524 -0.04460319 -0.10104342 0.06911164 -0.09455914 -0.1090674
-0.010251139 0.082491964 0.11341108 0.10722883 0.08310685 -0.11191581 0.039190564 -0.05449089
-0.02789808 0.08488735 0.094121516 0.055675812 0.07226202 -0.09891027 -0.043453854 -0.02960482
0.05909752 0.04960873 -0.02159072 0.026533062 0.057371482 -0.06281457 -0.06916752 0.113805525
0.03772083 0.08571187 0.014160871 -0.098884836 -0.07266522 -0.012868277 -0.030211426 0.009627986
-0.03974042 0.11724901 0.037273593 -0.07915376 0.034070216 0.06266303 0.01513114 -0.04049955
0.03747242 0.04736361 0.073793784 0.014824008 -0.09829916 0.018833667 -0.11016299 0.050876003
00000000: acf4 debd 46b3 543d 5c0f 3a3c cfba bdbb
00000010: 9be1 f53d 34f4 fdbc 52cb 893d e00c 6cbd
00000020: 92bd 743d 786f c1bd 270d 9dbd d6b1 36bd
00000030: daef cebd 678a 8d3d 39a8 c1bd bb5e dfbd
00000040: 65f4 27bc 8cf1 a83d 1144 e83d ca9a db3d
00000050: ed33 aa3d 1e34 e5bd 4986 203d d731 5fbd
00000060: 848a e4bc 6bd9 ad3d c8c2 c03d 520c 643d
00000070: 1cfe 933d 7891 cabd abfc 31bd cf85 f2bc
00000080: 3e10 723d 8632 4b3d 06df b0bc dd5b d93c
00000090: 5cfe 6a3d eda4 80bd b3a7 8dbd df12 e93d
000000a0: 2881 1a3d b489 af3d ff02 683c 2284 cabd
000000b0: 81d1 94bd 77d5 52bc f47d f7bc b3be 1d3c
000000c0: dac6 22bd 4020 f03d 32ac 183d 5e1b a2bd
000000d0: 368d 0b3d 7a55 803d 9ae8 773c dbe2 25bd
000000e0: ae7c 193d 5800 423d 3221 973d 65e0 723c
000000f0: 1251 c9bd 1049 9a3c 229d e1bd 5b63 503d

encoder.layers.3.nn.net.0.weight f4 [64, 64]
-0.0287915 0.047236186 -0.0582298 0.09350154 0.111834355 0.031476717 0.013385467 -0.031037413
0.12034109 -0.12631708 -0.006963782 0.17879252 0.030035567 0.00033050316 -0.111535564 0.048059635
0.07822537 -0.025473947 0.07949263 -0.033814296 0.044752095 0.07758745 0.113791205 -0.0056365775
0.09763995 0.02575769 -0.073687814 -0.08725484 -0.016944483 0.045258064 -0.004069587 0.029365618
0.17834814 0.0041613723 0.089665286 0.07558294 -0.009943692 0.1424223 -0.026085554 0.16333589
0.08862123 0.030145073 0.09723479 0.09333503 0.05415332 -0.0736974 0.009970271 -0.11030942
-0.02623161 0.08799006 -0.13461691 -0.07463123 0.069508836 -0.038912103 0.030824665 0.1327431
0.19142331 -0.04110179 -0.054446343 -0.082676366 -0.0898498 -0.11626529 -0.06876176 0.034672245
-0.17593122 0.00023959506 0.10686338 0.018894294 0.07912761 -0.0779533 0.13010958 -0.031069528
-0.10678228 -0.01729298 0.0026630964 0.10676051 0.1399534 0.069762334 0.09496256 -0.018808762
-0.08238507 -0.08956912 0.008835313 0.00978482 0.010697043 0.005491467 -0.12911424 0.046319287
-0.18461382 -0.02583823 0.06293949 -0.081318766 -0.05934748 0.071310475 0.006855392 0.058871794
0.010296249 0.039128274 -0.0010846362 -0.09023668 0.07964019 0.0002839424 0.089321 -0.1469061
0.05735683 0.03901767 0.11033641 0.06207358 -0.014210293 0.04205256 0.012015521 0.039096747
0.034555953 -0.17285521 0.15207061 -0.02094577 0.13876133 0.04794453 0.17849998 -0.04378974
-0.07028802 0.06417582 0.15860164 0.09653699 0.1024027 0.06756638 -0.092235476 -0.10459064
0.027734028 0.07783678 0.04441461 -0.0803849 -0.12125681 -0.09625973 0.015265617 0.0013440246
-0.07482328 -0.09933913 0.091986 -0.09358732 0.10608448 -0.0007055584 0.05056781 0.08119899
0.04418446 0.009856503 0.07462102 -0.09433309 -0.11398054 0.07141874 0.07337104 -0.093258955
0.047179315 0.07876983 0.022860777 0.06403791 -0.03894399 0.11365289 0.03185428 0.023482695
0.08356436 0.0041589392 -0.039154842 0.05443087 -0.005797119 -0.017942937 -0.12545943 0.111467384
-0.09638072 0.053935453 0.030342028 0.08628124 -0.08043904 -0.027610647 -0.08412099 0.08109148
0.11446675 -0.044943124 -0.016034024 -0.0650775 0.10258084 0.08917433 0.04697437 -0.014777098
-0.117128566 0.106226355 -0.1354891 0.070512526 -0.09357699 0.040525872 0.02387248 -0.10089062
-0.044902194 0.15708798 0.10568392 -0.0025466634 0.11327702 -0.0696512 0.028826525 0.123419955
-0.073711425 0.030587342 0.036652166 0.037553396 -0.016044544 0.034300104 0.073263064 0.11894162
-0.03334923 -0.06413869 -0.031741522 0.06465437 0.03597173 -0.06742803 0.028332606 -0.02238965
0.041129228 0.07645209 0.06315774 -0.06697224 0.038640622 0.12626624 0.11632085 -0.047337465
0.013935946 -0.0018991044 -0.024450086 -0.006117077 0.11473849 -0.0039129844 -0.071446404 0.092004985
-0.11264995 0.033536393 0.12049768 0.069375984 0.026917983 0.09884287 0.014520231 -0.106933065
0.06777769 -0.10813755 0.010018522 -0.01571719 -0.09316251 -0.07353079 0.12097464 0.10209998
0.06172142 0.072828725 0.012245637 -0.0024163157 0.013938151 0.07244705 0.06940631 0.08158183
00000000: 27dc ebbc bb7a 413d 5f82 6ebd bc7d bf3d
00000010: 6909 e53d bbed 003d b84e 5b3c 2c42 febc
00000020: 6475 f63d 4459 01be 7030 e4bb 6315 373e
00000030: 260d f63c 6247 ad39 c26c e4bd 2eda 443d
00000040: 9f34 a03d bdae d0bc 08cd a23d dc80 0abd
00000050: f94d 373d 2be6 9e3d 5d0b e93d 0ab3 b8bb
00000060: 74f7 c73d cb01 d33c a3e9 96bd aab2 b2bd
00000070: 28cf 8abc 8560 393d 2c5a 85bb 2a90 f03c
00000080: e5a0 363e 1f5c 883b 6fa2 b73d 3acb 9a3d
00000090: deea 22bc 27d7 113e 5fb1 d5bc 8641 273e
000000a0: 0c7f b53d cdf2 f63c 0923 c73d 7026 bf3d
000000b0: dfcf 5d3d aaee 96bd 595a 233c e8e9 e1bd
000000c0: ace3 d6bc 2234 b43d 04d9 09be 42d8 98bd
000000d0: a65a 8e3d 4c62 1fbd 0284 fc3c cfed 073e
000000e0: 7904 443e 5a5a 28bd 2103 5fbd 3a52 a9bd
000000f0: 2c03 b8bd 7f1c eebd f7d2 8cbd 7c04 0e3d
00000100: 5027 34be cf3b 7b39 30db da3d 35c8 9a3c
00000110: a80d a23d fba5 9fbd 723b 053e 8685 febc
00000120: abb0 dabd 02aa 8dbc 5887 2e3b 41a5 da3d
00000130: f24f 0f3e 8edf 8e3d bb7b c23d d514 9abc
00000140: 81b9 a8bd 0470 b7bd fdc1 103c 8250 203c
00000150: a642 2f3c c4f1 b33b 8636 04be 4bb9 3d3d
00000160: 680b 3dbe b2aa d3bc 6be6 803d 748a a6bd
00000170: 5816 73bd 3a0b 923d 32a3 e03b 8d23 713d
00000180: 99b1 283c f844 203d 5a2a 8eba 02ce b8bd
00000190: 651a a33d 1bde 9439 eeed b63d 8d6e 16be
000001a0: ffee 6a3d fed0 1f3d 0ef8 e13d de40 7e3d
000001b0: 4ad2 68bc 4e3f 2c3d bfdc 443c e923 203d
000001c0: 8b8a 0d3d f500 31be 66b8 1b3e 7796 abbc
000001d0: 7317 0e3e 7c61 443d b3c8 363e df5c 33bd
000001e0: 2af3 8fbd 9d6e 833d 7868 223e 2fb5 c53d
000001f0: 82b8 d13d 3e60 8a3d f4e5 bcbd 9e33 d6bd
00000200: 7932 e33c e468 9f3d 18ec 353d d7a0 a4bd
00000210: 7e55 f8bd d223 c5bd a31c 7a3c fb29 b03a
00000220: f33c 99bd 5072 cbbd 2863 bc3d b5aa bfbd
00000230: d242 d93d 39f5 38ba 3120 4f3d a84b a63d
00000240: c4fa 343d 2c7d 213c e8d2 983d b531 c1bd
00000250: a16e e9bd fd43 923d 8e43 963d 8dfe bebd
00000260: 193f 413d 1452 a13d 8646 bb3c 4f26 833d
00000270: bc83 1fbd d9c2 e83d a279 023d c85e c03c
00000280: cb23 ab3d b647 883b d460 20bd e7f2 5e3d
00000290: c2f5 bdbb 11fd 92bc 7078 00be 0349 e43d
000002a0: 4163 c5bd 6ceb 5c3d d88f f83c 38b4 b03d
000002b0: 39bd a4bd b92f e2bc a047 acbd 4a13 a63d
000002c0: 8b6d ea3d 4816 38bd c959 83bc 5a47 85bd
000002d0: e715 d23d 08a1 b63d 3268 403d a41b 72bc
000002e0: 1ae1 efbd 348d d93d a8bd 0abe df68 903d
000002f0: 4ba5 bfbd 75fe 253d 3890 c33c be9f cebd
00000300: 5deb 37bd acdb 203e d070 d83d ece5 26bb
00000310: c8fd e73d 4aa5 8ebd 9b25 ec3c 9ac3 fc3d
00000320: 04f6 96bd 4e92 fa3c 9520 163d 97d1 193d
00000330: d96f 83bc 447e 0c3d f20a 963d aa97 f33d
00000340: 3499 08bd 255b 83bd 6603 02bd 8369 843d
00000350: 1857 133d b517 8abd c819 e83c 806a b7bc
00000360: 1f77 283d ea92 9c3d d858 813d be28 89bd
00000370: a145 1e3d f04b 013e a039 ee3d eee4 41bd
00000380: 9853 643c 5feb f8ba 8c4b c8bc c371 c8bb
00000390: 03fc ea3d 7e38 80bb 7e52 92bd 1c6d bc3d
000003a0: 04b5 e6bd 755d 093d 7dc7 f63d ff14 8e3d
000003b0: 1a83 dc3c 216e ca3d 43e6 6d3c b9ff dabd
000003c0: 08cf 8a3d 3877 ddbd ba24 243c 56c1 80bc
000003d0: fccb bebd 5097 96bd 8dc1 f73d cb19 d13d
000003e0: 9acf 7c3d 3a27 953d eda1 483c 0d5b 1ebb
000003f0: d85c 643c 1e5f 943d e524 8e3d 6014 a73d

encoder.layers.3.nn.net.0.bias f4 [64]
-0.03411014 0.061377533 0.0020030483 -0.106095746 -0.013874126 0.044967454 0.06732213 -0.034641124
-0.028772645 -0.109095976 -0.08017856 0.1261625 0.03822977 -0.13210694 0.09202062 -0.1095053
0.081916936 -0.08368466 -0.034490544 0.09054376 -0.037751365 -0.12978584 0.035490643 0.091615155
0.060919818 -0.042563166 -0.06164177 -0.039969265 -0.12544677 0.03074285 -0.057159502 0.04598375
0.10828278 -0.004182103 0.052790083 0.15300621 -0.019412352 -0.11319439 0.050175574 -0.14408879
-0.075579114 -0.08062432 0.0828486 -0.0991342 0.048520792 -0.02271266 -0.08996208 0.120419726
-0.042644497 -0.10848334 0.0313289 0.017876484 -0.022821318 0.022645207 0.023270024 0.123872526
0.0998229 0.033024747 -0.052860644 0.05473516 -0.12778148 -0.04844108 -0.12728354 -0.04537372
00000000: 13b7 0bbd 0267 7b3d 9345 033b ba48 d9bd
00000010: 4d50 63bc cb2f 383d 2fe0 893d dae3 0dbd
00000020: 9cb4 ebbc b66d dfbd a834 a4bd be30 013e
00000030: d296 1c3d 0b47 07be 4f75 bc3d 5144 e0bd
00000040: 11c4 a73d dd62 abbd f545 0dbd 026f b93d
00000050: 2da1 1abd 94e6 04be a35e 113d baa0 bb3d
00000060: 0f87 793d b756 2ebd 157c 7cbd d0b6 23bd
00000070: 1e75 00be 6ed8 fb3c 1520 6abd 7559 3c3d
00000080: 5dc3 dd3d 060a 89bb 6a3a 583d a9ad 1c3e
00000090: a706 9fbc 76d2 e7bd e784 4d3d 038c 13be
000000a0: 39c9 9abd 5d1e a5bd 87ac a93d df06 cbbd
000000b0: bdbd 463d e60f babc 0a3e b8bd 9e9e f63d
000000c0: ffab 2ebd 832c debd bc52 003d b471 923c
000000d0: c6f3 babc 7182 b93c c7a0 be3c e1b0 fd3d
000000e0: f36f cc3d f544 073d 6784 58bd fa31 603d
000000f0: 26d9 02be 276a 46bd 9e56 02be cbd9 39bd
