scripts/embeddings_gin_version2/IMDB-MULTI/gin_dim128_ep100_lr0.001_drop0.3/gin_classifier.pt (torch, 626909 bytes, 42 tensors)

encoder.layers.0.nn.net.0.weight f4 [128, 1]
000000 d0 14 0d be 84 40 5b 3e bc 1a ea 3e 78 83 8e be
       -0.1377747 0.2141133 0.45723522 -0.27834678
000010 64 fb d3 be ce a4 64 3f cc 03 64 bf 56 2d 7a bf
       -0.41402733 0.8931397 -0.89068294 -0.9772543
000020 fc cd 3e 3f c0 af 38 bf 30 09 2c 3f a2 dd 9c 3e
       0.7453306 -0.72143173 0.6720152 0.30637842
000030 c6 de 48 3f 46 0c 77 bf 40 42 27 bf 54 7b 55 bf
       0.78464925 -0.965031 -0.65335464 -0.8339131
000040 b4 2d af be b8 e9 22 3f e4 c6 8a be 0c f4 7a bf
       -0.34214556 0.63637877 -0.27104867 -0.98028636
000050 9b 8d 59 3f b6 eb fe 3e 6e d0 5a bf 08 ac fd be
       0.849817 0.49789208 -0.8547429 -0.49545312
000060 bc 26 53 3f 5c 80 51 3f 81 c1 22 3f f2 3f 09 bf
       0.8248098 0.81836486 0.63576514 -0.536132
000070 ab e3 64 3f bb b5 ad 3e 35 b0 07 3f 70 d1 f7 bd
       0.89409894 0.33927712 0.53003246 -0.12100494
000080 70 da 77 bf d0 db 1d be fe 83 15 3f 6e d6 7d bf
       -0.96817684 -0.15415883 0.5840453 -0.9915532
000090 bc 85 23 bf 06 d4 f3 3e 00 c9 66 be 30 7c 33 3f
       -0.6387594 0.476227 -0.22537613 0.7011137
0000a0 d4 04 a5 be 5a 7a 28 bf 74 e1 d9 be a2 86 04 bf
       -0.32230246 -0.65811694 -0.4255482 -0.51767933
0000b0 50 e7 76 bf 52 f7 5f bf a5 62 e6 3e 48 f3 69 3f
       -0.96446705 -0.87486756 0.44997135 0.9138684
0000c0 d0 d3 22 bf 70 e5 6e bf 62 9a 68 bf 2f 80 71 3f
       -0.6360445 -0.93318844 -0.9086057 0.9433622
0000d0 03 4b 40 3f 78 df 70 be 9f 68 bc 3e c4 b1 05 3c
       0.7511446 -0.23522747 0.3679857 0.008160058
0000e0 d0 4d bc bd 00 fa 01 3f 96 10 25 bf 06 f7 10 bf
       -0.09194529 0.50772095 -0.64478433 -0.5662693
0000f0 4a 2a 19 bf c0 4d 41 bf 90 52 f8 3e 7c 62 d7 be
       -0.59830153 -0.7550926 0.4850049 -0.42067325
000100 40 92 6b bf 70 90 26 be 61 8d c5 3c f6 b6 4d 3f
       -0.92020035 -0.16266036 0.024115266 0.803573
000110 de 7d 58 3e c3 36 65 3e d0 b9 97 be 08 33 ab be
       0.21141765 0.22384171 -0.2963395 -0.3343737
000120 2a 2b 0d bf fb 62 1c 3f 28 54 4c be 80 f5 23 bf
       -0.5514399 0.6108853 -0.19953978 -0.6404648
000130 f0 cf f7 bd 78 39 7b bf 9e e6 71 bf 38 83 38 be
       -0.12100208 -0.98134565 -0.9449252 -0.18018806
000140 2f 7f 77 3f 38 90 68 be 78 fa 1e be 00 16 4f bf
       0.9667844 -0.22711265 -0.15525234 -0.80892944
000150 34 26 14 bf 46 3b 59 3f 70 84 60 be 90 31 4d bf
       -0.57870793 0.8485607 -0.21925521 -0.8015375
000160 c6 9e 40 bf be 26 30 bf 86 39 33 3f 38 96 0f bf
       -0.7524227 -0.68809116 0.7000965 -0.5608859
000170 f2 fc 10 bf 8c ba 22 bf bc c3 80 be dc 92 86 3d
       -0.56635964 -0.635659 -0.25149333 0.0657098
000180 a2 6e b8 3e 2f 69 17 3d 40 03 5d bf 10 96 77 3e
       0.36021906 0.036965545 -0.86333084 0.24178338
000190 ac 66 d8 be 43 15 72 3f 06 18 2c 3d ba a6 2b 3f
       -0.42265832 0.9456369 0.042015098 0.6705128
0001a0 83 5b 80 3f 5f 16 46 3e 08 49 42 be 21 86 66 3f
       1.0027927 0.19344471 -0.18973172 0.90048414
0001b0 9b 4a 38 3f c4 2a 12 3f 4b c7 a3 3e 14 0d e3 be
       0.7198884 0.57096505 0.31987986 -0.44345915
0001c0 f6 14 6f bf da b9 e5 3e 1a 8d 21 bf 2a fb 13 3e
       -0.9339136 0.44868356 -0.6310593 0.1445128
0001d0 9c cd ae be ae 67 74 3f 78 8d d5 be c0 2e 10 bf
       -0.34141243 0.954707 -0.41709495 -0.56321335
0001e0 a8 7a 8b be 00 87 c3 bd e0 4c 1c bf 3a 06 07 bf
       -0.27242017 -0.095472336 -0.610548 -0.52743876
0001f0 6f 3a 37 3d aa 29 67 3f 0c 89 a4 3c 78 ba 8d 3d
       0.04473346 0.9029795 0.02008488 0.06920332

encoder.layers.0.nn.net.0.bias f4 [128]
000000 ee b4 0e 3f 21 38 3b 3f 97 87 23 bf 94 73 cf 3e
       0.55744827 0.7313252 -0.6387877 0.40517867
000010 14 5a c2 be 45 b6 67 bf 34 7e 6e 3f f4 55 ae be
       -0.3795935 -0.90512496 0.9316132 -0.34049952
000020 9f 4f 37 3f b2 2d 4f 3f ff c3 83 3e 99 f6 54 3f
       0.7160587 0.809291 0.2573547 0.8318878
000030 32 b0 7a 3e c0 aa d2 be 00 c9 1d 3f c0 26 33 3f
       0.24481276 -0.41145897 0.61634827 0.69981
000040 bc 25 77 bf c1 f6 10 3f 42 96 02 3f 9a aa 46 3f
       -0.96541953 0.56626517 0.51010525 0.7760407
000050 e1 f4 4f 3f a7 81 ae 3e 88 0e 5f 3f d6 1f 68 bf
       0.8123303 0.34083292 0.8713155 -0.9067358
000060 61 f6 b1 3d f5 68 36 bf 23 d5 74 bf 78 ca 4a be
       0.08689571 -0.712539 -0.9563772 -0.19803798
000070 f7 33 a0 be ab 83 cc bd 34 de 52 3f a8 bf 09 be
       -0.31289646 -0.09986051 0.82370305 -0.13452017
000080 d4 4e 35 3f c8 4a bf be 3c 5f 22 3f c0 8d 0b bf
       0.7082341 -0.3736174 0.63426566 -0.5451317
000090 80 3b 33 bf 4b c2 07 bf a8 82 50 be ec 8c 44 bf
       -0.70012665 -0.5303084 -0.20362341 -0.7677753
0000a0 da e6 35 bf 5e 8f 53 3f d4 2d 41 3f 20 cf 41 bf
       -0.71055377 0.82640636 0.75460553 -0.7570667
0000b0 50 8f 7f 3e e0 47 bf bd 1f 2a cd be 4d b2 5d bf
       0.24957013 -0.09339881 -0.40071198 -0.8660019
0000c0 a0 a4 80 3d f8 47 4e bf 02 51 24 3f 08 e5 47 bf
       0.062814 -0.80578566 0.6418611 -0.7808385
0000d0 40 0b 06 3f 14 4b 22 bf 83 3a 67 3e be 7a 59 3f
       0.52360916 -0.6339581 0.22580914 0.84952915
0000e0 80 0f 2c 3c 05 f3 7c 3e 5c 16 02 3f 52 6b 34 3f
       0.010501742 0.2470208 0.5081537 0.7047626
0000f0 80 66 66 be 6c 37 b3 3e 16 f0 1e 3f 8c 65 1c bf
       -0.22500038 0.3500322 0.6208509 -0.6109245
000100 8a dd 56 3f 50 98 b7 bd 1f a3 69 3f fc bb 85 be
       0.8393179 -0.08964598 0.9126453 -0.26119983
000110 a5 68 3d bf 4a 53 00 bd c4 30 f5 be 06 a3 3e bf
       -0.739878 -0.03132943 -0.47888768 -0.74467504
000120 48 5f 1b be 09 da 56 bf 64 42 1f bf 18 1d f2 3e
       -0.15173066 -0.83926445 -0.6221068 0.47287822
000130 00 3d 6f 3d a0 8a ba 3e 28 21 d0 3e 86 4c 07 3f
       0.058407784 0.36433887 0.40650296 0.5285114
000140 e3 6c 17 bf 00 66 fe 3c 48 44 0f be 60 0f ab 3d
       -0.5915052 0.031054497 -0.13990891 0.08352542
000150 a0 29 fc be 78 a6 77 3e c0 b7 43 bf de 9a 18 3f
       -0.49250507 0.24184597 -0.76452255 0.5961131
000160 52 c7 0b 3f 2c da 3a bf b3 7c 15 3f d0 7b d5 be
       0.54601014 -0.72989154 0.583934 -0.41696024
000170 d6 12 21 3f 50 cf b9 3d 90 f9 9b 3d bf fd a7 be
       0.62919366 0.09072745 0.0761596 -0.3281078
000180 a7 ad f0 3e a2 57 c2 be 32 60 4f 3f 9c 35 0a bf
       0.47007486 -0.37957484 0.8100616 -0.5398805
000190 7c 27 cd 3e b9 c2 65 3f af a1 34 bf e8 57 48 3f
       0.40069187 0.8975025 -0.7055921 0.78259134
0001a0 c6 d5 34 3f 37 a5 bc be d0 7d d3 3e e0 7c 6f 3f
       0.7063869 -0.368448 0.41306925 0.9354992
0001b0 db 91 02 3e c4 22 1f 3f 12 07 8f be 3e c7 24 3f
       0.12750952 0.62162423 -0.27935082 0.6436652
0001c0 84 bd c7 3e 8e 11 0f bf 5c c5 26 bf c7 53 74 3f
       0.39011776 -0.5588616 -0.65144897 0.95440334
0001d0 6a 67 74 bf 4f a0 35 bf be 04 14 3f ee 20 30 bf
       -0.954703 -0.70947737 0.57819736 -0.68800247
0001e0 c0 4c 78 3e 00 92 70 3c 68 13 85 be 32 0f 55 3f
       0.24248028 0.014683247 -0.25991368 0.8322631
0001f0 b4 80 7a 3e 80 a3 4c bf 91 a7 90 3e 57 c5 09 be
       0.24463159 -0.7993698 0.28252843 -0.13454185

encoder.layers.0.nn.net.2.weight f4 [128, 128]
000000 ee 69 a6 3d 4f 23 9b 3b 7b bd 58 bc 14 45 99 3d
       0.08125673 0.0047344337 -0.013228769 0.07483879
000010 17 a9 34 bd 3c b6 f3 3c a8 ad c7 bc ab 58 d4 bc
       -0.04410657 0.029749982 -0.024374798 -0.025921186
000020 cb a4 73 bd 84 3e 83 bd 1f 1b b3 3c b1 f7 14 bc
       -0.05948333 -0.06408408 0.021863518 -0.009092257
000030 71 ce a4 bc ad a4 31 3d a6 5d 4e 3d b2 c4 87 bd
       -0.02011797 0.043369938 0.05038228 -0.066293135
000040 64 e4 a1 3d 99 0a 6b 3a ef 8a ee bc d0 fa 33 3d
       0.0790489 0.0008966118 -0.029118983 0.043940365
000050 22 a8 98 bd 49 43 86 bd 3e 85 96 bd 22 08 74 3d
       -0.07453944 -0.065558024 -0.07349633 0.05957807
000060 ef 1a a5 bd 56 d1 f9 bc 4e c4 b7 bd 89 5b 57 3d
       -0.08061778 -0.030495327 -0.08972989 0.05257753
000070 eb d7 7d bd 17 29 13 3c 62 67 9f 3d c1 65 b1 bb
       -0.061973494 0.008981965 0.077833906 -0.0054137413
000080 88 fd 72 bd c6 6f 79 bd 73 28 a6 bc 47 d2 56 3d
       -0.059323817 -0.06089761 -0.02028296 0.05244663
000090 5f ba 1d bd 34 a3 bb bd fa 69 5d bd 27 61 19 bd
       -0.038507815 -0.09161988 -0.054056145 -0.037446167
0000a0 11 fc 6b 3c ac 2c 2a 3c a1 62 6e 3c 73 5b fa 3b
       0.014403359 0.010386627 0.014549882 0.007640296
0000b0 f4 7a e2 3c 86 2c a1 bd 2d 15 9b 3d 4c 4a ab bd
       0.02764652 -0.0786982 0.07572398 -0.083637804
0000c0 27 d7 17 3d 80 0d 0d bd f8 7d 9a bd 7d 32 b0 3d
       0.03707042 -0.034436703 -0.07543558 0.0860338
0000d0 e7 2c 08 3d 06 d3 84 bd aa c4 8e bc b1 9e 7c be
       0.033245947 -0.06485562 -0.017427761 -0.24669911
0000e0 cb 76 99 bd d8 ce 2f bd df 13 a0 bd 5e 3d 32 bd
       -0.07493361 -0.04292187 -0.0781629 -0.043515556
0000f0 47 08 d8 bc 56 5c 58 bd 6b c9 ba bd 25 7a ac bd
       -0.026371134 -0.052822433 -0.09120449 -0.08421735
000100 70 69 a4 bd 14 90 1b bb 5e 06 43 3d 8a a0 ad bd
       -0.08027923 -0.0023737 0.047613494 -0.08477886
000110 c8 80 45 bd 02 66 7a 3c 0c d9 ad 3d 69 b5 c3 bc
       -0.04821852 0.01528311 0.08488664 -0.023890214
000120 ce c7 9d 3d 74 d5 e1 bc a6 8c 8f 3d 8d 03 cb bc
       0.07704125 -0.027567603 0.070092484 -0.024781967
000130 85 1e 34 bc 5d f0 65 3d fe 5e d3 bb c0 2f f0 bc
       -0.010993605 0.05613743 -0.006450533 -0.029319644
000140 61 69 38 bd bd 6c a4 bd 50 a7 47 3d 80 0c e9 bc
       -0.045022372 -0.08028553 0.048743546 -0.028448343
000150 c8 8e 96 3d a9 5b 15 3d d8 3f 8d bd f0 44 25 3c
       0.07351452 0.036464367 -0.06896943 0.010087237
000160 f8 78 9e bc 24 0f b1 3d 33 80 5c 3d 5e ec a1 3a
       -0.019344792 0.08645466 0.053833198 0.0012353768
000170 ea 33 9e 3c 7f bb 19 3d 39 16 89 3d 1c 0d 1b bd
       0.019311864 0.037532326 0.06693692 -0.0378543
000180 ec 1f ec 3c df 7a e1 3c c6 1c 93 bd ce d8 4b 3d
       0.028823815 0.02752441 -0.071832225 0.049767308
000190 2c 05 41 bd a8 58 99 bd 26 7b d2 bd 65 87 b3 3c
       -0.047124073 -0.07487613 -0.10277395 0.021915147
0001a0 79 f1 82 bd 8c bb f5 bc 1b c2 58 bd da 29 0b 3d
       -0.063937135 -0.029996656 -0.05291949 0.03397546
0001b0 30 04 2c bd fe 09 21 3d 8f 8f db 3c df 56 a7 bd
       -0.04199618 0.03931617 0.026801853 -0.08170866
0001c0 ab 36 89 3d ae 15 7a 3d 81 56 32 bd da 8d 8c 3d
       0.0669988 0.06105583 -0.043539528 0.068629935
0001d0 8e 68 95 bd a6 63 60 3d 13 62 77 bc fd 9d 10 3c
       -0.07295333 0.054782532 -0.015099066 0.00882673
0001e0 00 84 7e bb ed 1e 04 bd ef 40 11 3c 3c b4 91 bb
       -0.0038836002 -0.032256056 0.008865579 -0.0044465344
0001f0 69 bb 82 bc 97 6a ab bd 44 a2 2c 3d 28 27 b3 bd
       -0.015958505 -0.0836994 0.042146936 -0.08747703
000200 84 99 73 3b 81 fc 4e 3d ff 7e 63 bd ff 84 30 3d
       0.003717036 0.050533775 -0.055541035 0.043095585
000210 3a 3b 62 bb a4 50 85 3d aa 78 9b 3d 7f c9 2e bc
       -0.0034520165 0.065095216 0.07591374 -0.010668158
000220 bb f2 4a bd 27 0d d6 3b 5b 3a 54 3d 0b 65 39 bd
       -0.049547892 0.0065323296 0.051813465 -0.045262378
000230 9e 53 46 3c ed 6b 86 bc 82 30 b4 3d 04 35 a2 bd
       0.012104897 -0.016408885 0.08798315 -0.07920268
000240 a8 b0 96 3d 60 49 4d 3c 21 74 81 3d c3 4e ff 3c
       0.07357913 0.012529701 0.06320978 0.031165486
000250 11 cb 59 3d 10 f9 a0 3d 09 42 09 bc eb fa 36 bd
       0.053172175 0.07860005 -0.00837756 -0.044672888
000260 1c b7 a6 3d 79 63 5b 3d 02 73 a8 3d 1e 47 96 3c
       0.08140394 0.05356166 0.08225061 0.018344458
000270 43 40 a7 3d 63 95 f6 bc ba eb 24 3d aa cb f5 3c
       0.08166554 -0.03010053 0.04026387 0.030004341
000280 1f 55 a9 3d 6c 10 7c bd 8e 20 1e 3c 47 20 f5 3c
       0.08268189 -0.0615391 0.009651316 0.029922618
000290 5c 93 36 bd ed 69 2a bd 18 a5 64 3d b1 35 a1 bb
       -0.044574127 -0.041604925 0.05582151 -0.0049197306
0002a0 e4 df a8 bc 08 d6 31 3d d5 74 c9 ba 5b 02 4e 3d
       -0.020614572 0.043417007 -0.0015369902 0.050295215
0002b0 f3 62 d3 3c 84 17 1b 3d c5 fa b3 bc 21 61 a6 bd
       0.025804019 0.037864223 -0.021970162 -0.081239946
0002c0 60 8c a8 bd 43 4c 92 3a 04 dc 14 bc f7 af 0a 3d
       -0.082298994 0.0011161644 -0.009085659 0.03385922
0002d0 45 89 96 3d 3b 8f 3a bc 30 f1 85 3d 9a f2 bb 3d
       0.07350401 -0.011386688 0.065401435 0.09177132
0002e0 d2 24 62 bc 85 24 b6 3d 7d 4d 99 3d 0a cd 88 3d
       -0.013802724 0.08893684 0.07485483 0.06679733
0002f0 ed 11 bc 3b ef e7 6f bd 5e 36 9e bd 9d 0b f6 bc
       0.0057394416 -0.0585708 -0.077252135 -0.030034835
000300 76 84 dd 3b 62 d4 57 3d 54 01 87 bd e4 bf 55 3d
       0.0067601753 0.05269278 -0.0659205 0.052184954
000310 50 3e c2 bc af b3 a9 bd 69 f3 22 bc 01 a6 b3 3d
       -0.023711354 -0.08286225 -0.009945729 0.08771897
000320 bd 01 ed 3b 77 e1 65 3d ff 63 ae bd 62 bb 13 bc
       0.0072328732 0.056123223 -0.085151665 -0.0090168435
000330 52 6b 4f 3d 61 dd 85 bd 27 23 16 3d 65 9c 85 3d
       0.050639458 -0.06536365 0.036654618 0.065239705
000340 8b 28 23 3b 3c 83 50 bd de 16 e4 bc 77 76 90 3d
       0.0024895992 -0.050906405 -0.027842935 0.070538454
000350 6d e6 2d 3c 5d 70 8f 3d 09 55 b4 bc ad f8 62 3d
       0.01061402 0.070038535 -0.022013204 0.055412937
000360 55 5e 9e bd 48 94 cc bc 70 cf 87 3d f5 dd 04 ba
       -0.07732836 -0.02497305 0.066313624 -0.00050684746
000370 a9 1a a6 bc 7e e9 ad bd 55 d6 82 bd 41 3d 21 3d
       -0.020276384 -0.08491801 -0.06388537 0.039365057
000380 db 29 b9 bc 96 2d 7b 3d 96 90 4b 3d e2 4b 6e bd
       -0.022602966 0.06132277 0.049698435 -0.058177836
000390 0b 91 b2 3d 36 9a 51 bd 85 20 29 3d 3b 5e a1 bd
       0.08719071 -0.051172458 0.04129078 -0.07879301
0003a0 75 1d a3 bd 0c 40 f0 3c f3 65 5e bd f6 d6 8f bd
       -0.07964603 0.029327415 -0.054296445 -0.070234224
0003b0 bc 0f 9e 3d 10 4b 8a 3c 47 03 70 bc 1f f6 86 bd
       0.07717845 0.016881496 -0.014649219 -0.065899126
0003c0 27 78 37 3a 9e 6a 40 3d 3a 6d 24 bc fa 79 6c 3d
       0.00069988 0.046976678 -0.010035807 0.057733513
0003d0 95 6d 87 bd 40 c2 b9 3d 55 eb 66 bd 7e b4 28 3c
       -0.06612698 0.09070253 -0.056376774 0.010296939
0003e0 39 c7 5c bd ce 0b a5 3d 9e 11 3e bd 0a 6e cf 3b
       -0.05390093 0.08058892 -0.04640352 0.0063302564
0003f0 ee 28 54 3c 6d 4a 74 bd 60 77 ef 3c a0 13 9e 3a
       0.0129492115 -0.05964129 0.029231727 0.0012060292

encoder.layers.0.nn.net.2.bias f4 [128]
000000 a0 34 cb 3c cc 32 a1 bd b6 29 3d bd 3d 28 9f 3d
       0.024805367 -0.07871017 -0.046182357 0.07771347
000010 d8 4f 94 3d 21 cd 2c bd 77 b2 63 3d 1b 6e ec 3c
       0.072417915 -0.042187814 0.05559012 0.028861096
000020 a4 03 c5 3b 6d f2 9a 3d e5 dd 8b bd 74 b9 08 bd
       0.006012397 0.0756577 -0.068294324 -0.033379987
000030 94 bf 75 bd d0 3a a1 bd 12 4a f5 bc 8d b9 96 3d
       -0.059997156 -0.07872546 -0.029942546 0.0735961
000040 40 20 f1 3c 8f 82 01 bd dd f9 2b 3b 79 82 ac 3c
       0.029434323 -0.03161865 0.002624146 0.021058308
000050 a8 d8 33 bd cd 99 4a 3c 6d 0a a5 bd eb 9c 99 bc
       -0.04390779 0.0123657705 -0.08058629 -0.018751582
000060 d9 1a 5c 3d 13 ab 8c bd 9e 46 ce 3c 6d f9 91 bd
       0.05373654 -0.06868567 0.025180157 -0.07127652
000070 36 71 42 3c 07 18 25 3c bc 67 2f bd fe 62 b3 3d
       0.011867812 0.010076529 -0.04282354 0.08759116
000080 00 6b 22 bc 76 7f c4 3b 1e 2e e9 3c 7e a2 6b 3c
       -0.009913206 0.00599664 0.028464373 0.014382003
000090 e8 f7 89 bd 2a 00 29 3d 19 43 14 3d 15 83 50 bd
       -0.067367375 0.041259922 0.0361968 -0.05090626
0000a0 7c 39 aa 3b 38 6d 93 bc 20 3c 90 3d be ab 82 3d
       0.005194841 -0.017996415 0.07042718 0.063804135
0000b0 aa 8b 19 bd 38 2b 85 bd b1 1a af 3d 96 7d 36 bc
       -0.03748671 -0.06502384 0.08550013 -0.01113834
0000c0 48 73 32 3c 97 0e d2 3c b1 dc 4c bd 4d 02 ac 3b
       0.010891743 0.025641723 -0.050015155 0.0052492977
0000d0 be 61 3a bd 82 95 b1 3d 8e 4e 3d 3c a3 c5 56 bd
       -0.04550337 0.086710945 0.011554373 -0.052434575
0000e0 a2 36 81 bd 5c ee 23 3d 32 06 84 bc 42 a1 77 3d
       -0.063092485 0.04002224 -0.016116235 0.06045652
0000f0 35 28 b6 3a 08 ca 34 bc 05 f4 40 bc 53 f7 64 bc
       0.0013897481 -0.011034496 -0.011776929 -0.013974982
000100 71 b9 8f bd cb 84 16 bd ec 16 71 bc d6 f9 21 3c
       -0.07017792 -0.036747735 -0.014714938 0.009886226
000110 5c 37 46 bb 78 07 7f bc 98 f4 a9 3d ba 51 b2 bd
       -0.00302454 -0.0155657455 0.08298606 -0.08706994
000120 1c 6f d8 3c 90 1e 07 bd 64 73 4c bc b7 46 30 3d
       0.026420169 -0.03298813 -0.012478683 0.04303619
000130 8c a2 89 3d e3 88 6b bd e3 1a 44 bb cc 10 7e bc
       0.067204565 -0.057503592 -0.0029923252 -0.015506934
000140 d5 a5 8b 3d 39 33 6d bd 77 dd 7b bd 0e a8 a5 bc
       0.06818739 -0.057910178 -0.061490502 -0.020221736
000150 07 03 9b bd 9c cf 71 3d 79 9d 40 bd 08 d6 9d bc
       -0.07568937 0.059035882 -0.047025178 -0.019267097
000160 0c 7f 9f bd 1c f0 9e bd 4b 09 aa bd a9 4c db 3c
       -0.07787904 -0.07760641 -0.08302554 0.026769953
000170 72 80 38 3c f0 c3 94 bd 93 cc ef 3c 4e 26 2a 3d
       0.0112610925 -0.072639346 0.029272353 0.041540436
000180 72 c2 d8 bb c1 e5 94 bd da d5 59 3c a6 56 f7 3c
       -0.0066149766 -0.072703846 0.013295615 0.030192684
000190 cc 88 a4 3d 4a 15 dc bc 0a ab a6 bd 3b 1c 0c bd
       0.080339044 -0.02686562 -0.08138092 -0.03420661
0001a0 65 04 85 bd 10 e6 1d bd 5e 93 6a 3d e3 7c 7a bc
       -0.06494979 -0.038549483 0.057269447 -0.015288564
0001b0 28 ff 0c 3d 30 de a9 bc e1 d7 22 bd 42 2f 84 bd
       0.034423023 -0.02073583 -0.03975666 -0.06454326
0001c0 6d ae 50 bd c6 e3 ef bc d6 77 ad bd 01 25 af 3d
       -0.050947595 -0.029283416 -0.084701225 0.0855198
0001d0 b5 18 72 3d 49 8c 9c 3d 8a 61 6f bd 42 01 72 3b
       0.059105594 0.07643945 -0.05844263 0.003692702
0001e0 22 f3 8d 3d 6e 87 50 3d d1 c0 82 bd a5 85 52 bb
       0.069311395 0.050910406 -0.06384433 -0.0032123115
0001f0 c9 86 fe 3c 20 67 96 3d bc b0 d4 3c e3 1e 4b 3d
       0.03107013 0.07343888 0.02596318 0.049590003

encoder.layers.1.nn.net.0.weight f4 [128, 128]
000000 20 1e 95 bd e0 0e a6 3d a2 99 e1 3a f1 a0 6e 3d
       -0.072811365 0.08108306 0.0017211924 0.058258954
000010 e7 27 2c bb c5 76 74 3c f5 c6 8a 3d a1 75 18 bc
       -0.00262689 0.014920895 0.06776229 -0.009305389
000020 ca cd 67 bd de 6a 0e bd 38 8f a6 bc d8 2b 86 bc
       -0.05659274 -0.034769885 -0.020331964 -0.016378328
000030 1c c6 51 3d 76 9b e2 bc 94 e0 41 3d 06 e6 b6 3c
       0.051214322 -0.02766202 0.047333315 0.02232648
000040 8e c1 83 3d 16 44 74 bc 23 d7 93 bd e5 dc 06 bd
       0.06433402 -0.014908811 -0.072187684 -0.032925505
000050 18 d3 80 3d 6e 4f 9b 3d 1e a1 40 bd cd d7 86 3d
       0.06290263 0.075835094 -0.047028653 0.065841295
000060 d2 47 61 bd cf dd b3 3c 50 b4 1b bc b5 1d cc 3b
       -0.055000134 0.021956353 -0.009503439 0.0062291273
000070 d8 2a 25 3d 60 2b 67 bc 6d 23 90 3c cb 2c ac 3d
       0.040324062 -0.0141094625 0.017595017 0.08406981
000080 e1 ef 78 3b 4a 13 b3 bc e2 a2 fa bc 70 02 47 bd
       0.0037984776 -0.021859784 -0.030595247 -0.04858631
000090 59 6d ad bd 53 84 28 bd 08 a3 91 3d 6b bd ca bd
       -0.08468122 -0.04114182 0.07111174 -0.0989941
0000a0 b4 10 47 3d ce 02 f5 bc 31 7f 60 3c d5 35 93 3d
       0.048599914 -0.029908564 0.0137022 0.07188002
0000b0 08 e2 b2 3d 81 b5 59 3c 9d 54 60 bd ab 70 40 bd
       0.08734518 0.013287903 -0.054768194 -0.04698245
0000c0 5e 10 aa bb c2 4b 94 bd 2f dc ad 3c fb 65 a0 3d
       -0.0051899394 -0.07241012 0.021223156 0.07831951
0000d0 04 95 0a 3d 4e d5 92 3c a0 b9 b6 bd 7f 80 10 3d
       0.03383352 0.017923977 -0.08922124 0.035278793
0000e0 6b 0b ad 3c 9c a6 47 3d b6 78 12 bd a2 61 52 3d
       0.021123609 0.048742875 -0.03575965 0.05136264
0000f0 9a 44 85 3d a4 a8 74 bd df d8 0f 3c 66 1f d0 bc
       0.06507225 -0.05973114 0.008779733 -0.025405597
000100 6a da 98 bd 27 27 a2 3d 8b e9 9b 3d 2e 07 6e 3c
       -0.07463534 0.07917624 0.07612904 0.014528079
000110 23 aa a3 3d 94 d0 da 3c bf 81 2f bd 5e eb c5 bd
       0.079914354 0.026710786 -0.042848345 -0.09664033
000120 41 4e 59 3c 5c 9e 02 bd 5e 40 e2 3c cd 48 9b bd
       0.013263286 -0.031889305 0.027618583 -0.07582245
000130 59 7f 82 3d e5 a8 b1 3d 39 86 a5 3d 7b fa 74 bd
       0.06371946 0.08674792 0.080822416 -0.05980919
000140 70 c0 dc 3c 88 31 ce bd d8 e3 8f 3d bf ed 18 bd
       0.02694723 -0.10068041 0.070258796 -0.037336107
000150 ea 37 22 3d 04 8e 91 3d 5d 4f 05 bd 72 a3 4f bd
       0.039604105 0.071071655 -0.03254639 -0.050692983
000160 cd 53 e2 bb 7c c6 9a 3d cb 31 99 3c 87 b5 c6 bb
       -0.0069069625 0.07557389 0.018700501 -0.00606412
000170 20 2d 74 bc 26 a0 f8 3c 0e 75 57 bd ba 31 54 bd
       -0.014903337 0.030349802 -0.052601866 -0.051805235
000180 ef 4c 4b bd 3e f7 8e bd 8b d6 96 bd 37 26 67 bd
       -0.049633916 -0.069807515 -0.073651396 -0.05643293
000190 e2 a7 82 bd 28 a9 0d bd ec b1 b3 bd 66 dd 40 3d
       -0.06379677 -0.034585148 -0.0877417 0.047086142
0001a0 6c 3e 8d bc e2 c0 ba bd 12 8f be 3b 7c c9 99 3d
       -0.01724168 -0.09118821 0.005815395 0.07509133
0001b0 49 51 9c bd 56 e5 42 3c 08 b1 cf bc e3 3c 6c bd
       -0.076326914 0.011895498 -0.02535297 -0.057675254
0001c0 03 dc ea 3c ca 6d ac 3b a5 3b bb 3d 7a e5 be 3b
       0.028669363 0.0052621113 0.09142236 0.0058256956
0001d0 52 e1 56 bd 8f 9a dd bc 67 5e 5a 3a 85 ad a8 3d
       -0.052460976 -0.027051238 0.0008330107 0.08236221
0001e0 1f 03 89 bd bf a7 a6 3d a5 a8 05 3d 28 4a ca bb
       -0.066900484 0.08137464 0.032631535 -0.006173391
0001f0 ef 7c 0a bd fe 0c 02 bc bb bc e3 bc 63 84 32 3c
       -0.033810552 -0.007937668 -0.027799955 0.010895821
000200 8e 8b c8 bd f4 6f 87 3d 5a fd c0 3d c6 fd 9a 3d
       -0.09792243 0.0661315 0.09423323 0.07567935
000210 f6 da 45 3d db 12 39 bc 1d cd 57 bd fd 76 9f 3d
       0.04830452 -0.011295999 -0.052685846 0.07786367
000220 86 9d 4b bd 9f 59 38 bd 44 d9 99 bd 92 26 b2 3d
       -0.049710773 -0.045007344 -0.07512143 0.08698763
000230 ad d0 d1 3a 7a b0 04 bb 57 2e 55 3d 20 f2 7c 3d
       0.0016007625 -0.002024679 0.052046146 0.061754346
000240 53 0a a7 ba 49 30 38 bc 40 e0 8f bc 0e 76 66 3d
       -0.0012744166 -0.011241981 -0.017562985 0.05626493
000250 e1 c2 b1 3d 28 21 bf 3c 6e 0e a2 3b 04 4a 65 3d
       0.08679748 0.02333124 0.004945568 0.05597879
000260 49 ae b1 3c 0a 30 08 3d d6 5e b1 3d ba 95 b8 3d
       0.021689551 0.03324894 0.08660667 0.09012933
000270 33 0e 2c bd 0c 78 5e bd 3d 19 7b bb 9f e0 6c bd
       -0.04200573 -0.054313704 -0.0038314604 -0.057831403
000280 57 65 0c 3d 93 cc 8e 3d 35 be 88 3d ab 71 97 bd
       0.034276333 0.06972613 0.06676904 -0.07394727
000290 5a d0 af 3d 56 49 a9 3c 37 da 14 3c e2 87 80 3c
       0.08584662 0.020664852 0.00908523 0.015689794
0002a0 58 af 39 bd 6e 27 c4 3c b0 4e 52 3b 3a 1f 44 3d
       -0.045333236 0.023944583 0.0032090358 0.047881342
0002b0 a3 74 8b bc 7c d3 6e 3d a0 6b 4e bc 6f 78 b7 3d
       -0.01702339 0.058307156 -0.012598902 0.08958518
0002c0 ef a1 16 3d 21 40 ff bd 33 ba f3 3c 81 b1 86 bd
       0.036775526 -0.124634035 0.029751873 -0.06576825
0002d0 9b 5a 10 be 65 d8 94 3d 85 d8 9f 3d cb c9 9a 3d
       -0.14097063 0.072678365 0.0780497 0.0755802
0002e0 fd ad 06 be 79 63 c3 bc c9 19 14 3d 02 b0 38 bc
       -0.13152309 -0.023851143 0.036157403 -0.011272432
0002f0 f4 fb 68 bd 93 1f 79 bd b8 7c 02 be 92 9a 50 bd
       -0.056880906 -0.060821127 -0.12742889 -0.05092866
000300 af 6c 92 bd 7a e3 e4 bc 8f 06 26 bd b4 07 ae 3d
       -0.07149636 -0.0279405 -0.0405336 0.08497563
000310 42 b4 91 bd 51 2c ab bd ec ee 34 bd 50 1a ed bc
       -0.071144596 -0.08358062 -0.044173166 -0.02894321
000320 f2 de 1d 3d fd 40 b1 bd a6 c4 0b bd 9f 48 a4 3d
       0.038542695 -0.08654974 -0.034123085 0.08021664
000330 c9 12 9e bd d4 c3 25 3d 0c b9 c5 3d 06 09 fb bc
       -0.07718427 0.04046996 0.096544355 -0.030643951
000340 c8 31 69 bd 80 57 65 bd 41 b3 4d bd 74 38 ef 3c
       -0.05693224 -0.05599165 -0.050219778 0.029201724
000350 f5 0e 39 bd b4 0e d4 bc 26 4d 2d be 46 77 52 bd
       -0.04518028 -0.025885917 -0.16923961 -0.05138328
000360 6a 73 bc 3c 37 2f b1 3c 11 54 fe 3c 8a cb 65 bd
       0.023004252 0.02162896 0.031045945 -0.056102313
000370 87 45 89 3b 5f e9 c0 bd 2f 62 7a bd 8a 49 e2 bd
       0.0041891965 -0.09419512 -0.06112879 -0.11049183
000380 01 5e 8b bd ef e5 88 bd 2b 3b 99 3d 85 2c 9b bd
       -0.06805039 -0.06684481 0.074819885 -0.07576851
000390 ae 70 ba bb 8e d0 af 3d 45 5f 5d 3d e6 35 26 bd
       -0.005689702 0.085847005 0.054045934 -0.040578745
0003a0 c9 56 a2 3d 2c 9e e4 ba 57 b3 73 bd 82 8e c3 3d
       0.07926709 -0.0017442158 -0.059497204 0.095486656
0003b0 ca 7f 83 3d 27 17 33 bd 43 24 94 bd e2 4b 3a bd
       0.06420858 -0.04372325 -0.07233479 -0.045482524
0003c0 6e 67 de 3c bb 3a 6b bd c8 9c f1 b9 0f 7d 40 3d
       0.027148928 -0.057429057 -0.00046083913 0.046994265
0003d0 c2 0b 74 3d 26 79 b4 3d 6c 45 63 bd 2b de 9f bc
       0.059581526 0.0881217 -0.055486128 -0.019515118
0003e0 ed 2b 45 bc e7 02 8c bd e1 c8 0b bd 0e 8b 4f 3d
       -0.0120343985 -0.06836491 -0.03412712 0.050669722
0003f0 b4 41 a7 bd 7e 7f 01 3d 81 70 de bd 2e a6 79 3c
       -0.08166829 0.031615727 -0.10861302 0.015237374

encoder.layers.1.nn.net.0.bias f4 [128]
000000 43 bc 0e bd 43 ad 5e ba ca ee e4 ba 5b 91 d5 b8
       -0.03484751 -0.0008494446 -0.0017466184 -0.00010183706
000010 1e d7 91 3b 08 84 d4 3d 1d 9b a2 bd 73 b2 05 bd
       0.004450693 0.103767455 -0.07939742 -0.032640886
000020 50 78 71 bd 48 86 52 bd 83 89 ca 3c 08 51 41 3c
       -0.05895263 -0.05139759 0.024723774 0.0117991045
000030 d7 51 6e 3d fa 49 21 bd bc c6 2f 3d d5 35 2a bd
       0.058183517 -0.03937719 0.042914137 -0.041555244
000040 a7 20 4c bd 1a b9 0d 3c 70 07 63 bd e8 71 86 3d
       -0.049835827 0.008650089 -0.055427015 0.06564695
000050 30 90 f3 3d 2a d5 40 bb 5f be 63 bd 95 f8 0b 3d
       0.11892736 -0.002942393 -0.055601474 0.034172613
000060 ec 36 03 3e e1 a9 63 3d bd ad 32 bc e7 75 9d bd
       0.1281392 0.05558193 -0.01090568 -0.07688504
000070 df 84 a7 bd 5c 7c 89 bb 77 43 92 3d f0 25 8a 3d
       -0.0817964 -0.004195733 0.07141774 0.06745517
000080 6d d1 6c bd 5c c9 b2 bd 31 31 05 3e d0 4d eb 3d
       -0.05781691 -0.087298125 0.13007046 0.11489451
000090 2a 04 c2 3d 25 3a b7 bc 0e f4 3f 3c e2 20 2c bd
       0.094734505 -0.022366593 0.011715902 -0.042023547
0000a0 cb 4c 33 3c 4a d1 82 3e bc 59 6c 3d 2f 7e 8d bd
       0.010943602 0.255503 0.057702765 -0.06908833
0000b0 ab 2b 05 3e 17 58 8e bc 8e 94 a0 bd 8c c6 b3 3d
       0.1300494 -0.017375989 -0.078408346 0.08778104
0000c0 1a c9 0c 3d e7 af 8a 3e 2f 53 81 3d 94 3c 05 bd
       0.034371473 0.27087328 0.06314694 -0.032528475
0000d0 00 d6 91 3d b2 09 c8 3c bf 26 5b bd ab 5c 26 3c
       0.071208954 0.024418686 -0.053503748 0.01015393
0000e0 8d 83 a1 3b f9 3a bf 3d 87 d1 78 bc 01 63 a1 bc
       0.004929012 0.0933742 -0.015186674 -0.019700529
0000f0 a8 79 2f bd d4 5f 5b 3d ef 6e 9d bd 23 fa 54 bd
       -0.04284063 0.053558186 -0.076871745 -0.05199636
000100 17 ed d6 3d 3a 96 8a 3d c1 b8 f6 3c fc 22 bb bd
       0.1049444 0.06766935 0.030117394 -0.09137532
000110 96 d5 96 3d d9 d1 c1 3d 01 09 20 3d d4 7f f4 bc
       0.07364957 0.094638534 0.039071087 -0.02984611
000120 ec 09 e2 3d 5e 0d c7 bc 09 f0 98 bd 1b e6 84 bd
       0.11037049 -0.024298366 -0.07467658 -0.06489202
000130 b7 87 eb 3c 77 de ca 3a 7b 8c 99 bd 53 ab af bc
       0.028751237 0.0015477677 -0.07497498 -0.021443998
000140 6b 98 2b bd b0 9d 18 be d0 67 c7 bd aa 4d 6d 3d
       -0.041893404 -0.14903903 -0.097365975 0.057935394
000150 ea 2c 2c bd 24 94 ac 3d 86 37 25 3c 51 1f 2a 3d
       -0.04203502 0.08426693 0.010084039 0.041533772
000160 02 cf e0 3a 4e e3 24 bc 75 a8 4e 3c 5f 88 be 3d
       0.0017151537 -0.010063959 0.0126134055 0.093033545
000170 83 27 59 bd 0c 7d 9e 3d 82 77 90 3d e1 9e 73 bd
       -0.053016197 0.077386945 0.07054044 -0.05947769
000180 bd ed a0 3d f3 5a 33 3d 65 b9 c9 3d 94 93 04 bc
       0.07857845 0.043787908 0.09849814 -0.008091826
000190 5a 52 c3 bc ec 9c bc 3d 33 33 5b 3d df 19 77 3a
       -0.02384298 0.09209618 0.053515624 0.00094261573
0001a0 9b 56 d1 3c ae c4 21 3c ae a6 b8 bb d9 1f 42 bd
       0.025553992 0.009873552 -0.005635104 -0.047393654
0001b0 b0 26 ae 3d 98 de 74 3d ff 35 78 bd b8 9f 97 bd
       0.08503473 0.059782594 -0.06059837 -0.07403511
0001c0 f8 9e 0d bd df 6c 86 bd ae ee 57 3c e6 38 81 3c
       -0.034575433 -0.06563734 0.013179464 0.015774202
0001d0 25 b2 35 3c 56 da 21 bd e3 f2 f4 3d bd a8 90 3d
       0.011089836 -0.039514862 0.119603895 0.07063434
0001e0 66 0b 04 3e c9 a3 8c 3d bb e5 6e bc ff d6 81 bd
       0.12894973 0.06867177 -0.014581139 -0.063398354
0001f0 cf 9d 98 3c 36 0d 89 3c 96 52 10 bc 4a 6d 08 bd
       0.018629937 0.016729932 -0.0088087525 -0.03330735

encoder.layers.1.nn.net.2.weight f4 [128, 128]
000000 66 37 8b bc e3 72 8a bc ba a5 41 3d 83 98 96 bb
       -0.01699419 -0.016900485 0.04727719 -0.0045958175
000010 91 43 81 3d 09 c0 8f 3d a2 56 eb bd 02 94 85 bd
       0.063117154 0.0701905 -0.11491133 -0.06522371
000020 7a c7 6c bd 12 3f 31 bd 7a 8a bb bd 64 42 ca bb
       -0.057807423 -0.04327304 -0.09157272 -0.006172465
000030 fe 18 2f bd 55 cd c5 bd 94 85 88 bd 9d 15 ea bd
       -0.042748444 -0.096583046 -0.06666103 -0.11429904
000040 30 bf 3a 3c 89 49 53 bd d5 b5 0e bd 68 76 c5 3c
       0.011398122 -0.0515838 -0.034841377 0.024104312
000050 7c f0 3a 3d 53 9b 18 bd df d2 f0 3a ab e8 af 3d
       0.0456395 -0.037257504 0.0018373391 0.085893
000060 4b c0 57 bd 1d 5b 4c 3d f9 ad 46 bd 3a 2e 8d bb
       -0.05267362 0.04989158 -0.048505757 -0.004308489
000070 39 0d 9f bd db 7a b9 bc 3a 6e 6d bd cf a9 f1 bc
       -0.07766194 -0.02264159 -0.05796645 -0.029499916
000080 94 4b c6 b7 66 f2 81 3d c5 b4 0d bc 09 c1 e0 bd
       -2.3638633e-05 0.06345062 -0.008649056 -0.109743185
000090 36 71 77 3d 24 00 27 3d 9f f6 3a bd f0 0f fc 3d
       0.0604107 0.04077162 -0.045645352 0.12307727
0000a0 5d 38 a6 3c 71 fd 71 bd bb 86 68 bd f4 6c b1 bb
       0.020290548 -0.05907959 -0.056769114 -0.0054145996
0000b0 9d 03 a7 bc 2e 4b dd bd 6e 9b 84 3c df bd 3b bd
       -0.020387465 -0.10805355 0.016187396 -0.045835372
0000c0 e9 e1 39 bc 3a 15 a0 3d fd 44 3e 3c 35 05 6b bc
       -0.011345365 0.07816549 0.011613128 -0.014344503
0000d0 ac b8 99 3b 42 33 84 bd 26 fd ce bd 5a c4 79 bd
       0.004691204 -0.06455089 -0.10106878 -0.06097827
0000e0 16 c6 78 3c 84 b3 a1 3d e1 c2 99 bd 61 30 67 3d
       0.015183946 0.07895568 -0.07507873 0.056442622
0000f0 25 af de bc af c2 75 bd dc 5a 73 bd 02 8e 83 3c
       -0.027183125 -0.060000118 -0.059412822 0.016058926
000100 0d 91 17 bb 39 2b df bd ad c8 82 3c 9c ff 0b 3c
       -0.0023127228 -0.10896916 0.01596483 0.008544829
000110 dc 3c 94 3d b6 33 97 3d c1 8f ad bd 63 38 69 bd
       0.072381705 0.0738291 -0.084746845 -0.05693854
000120 86 1f de bc 07 ea 3f 3c a8 f5 8a 3d 98 29 5d 3d
       -0.02711464 0.011713511 0.067851365 0.053994745
000130 c8 67 13 bd 9a 47 ac bd c1 82 f1 bb 4f d0 8f 3c
       -0.035987645 -0.084120944 -0.0073703234 0.017555384
000140 97 88 9a bd 45 7c 66 3c 26 73 db 3d b7 ac 72 bc
       -0.07545584 0.014067714 0.10715322 -0.014811686
000150 b6 8d d0 3b 2e 33 ab 3c b4 d8 e2 3c e2 79 5d bd
       0.0063645495 0.020898428 0.027691223 -0.054071315
000160 4d 97 bd bc af 51 6e 3d 97 d1 3c 3c 86 c1 80 3d
       -0.023143435 0.05818337 0.0115245795 0.06286912
000170 b5 9d 96 bd e5 b2 2d 3b 57 84 07 bd 3b 63 23 3d
       -0.07354299 0.0026504335 -0.033085193 0.039889555
000180 08 be bc 3d ce 3b 31 bd be 78 1a bd b8 9e bb 3d
       0.09215933 -0.043269925 -0.037712805 0.091611326
000190 b7 55 87 bd 4b 88 16 3b ec 2a 74 bd fa ec 61 bc
       -0.06608146 0.002296942 -0.059611246 -0.01378941
0001a0 05 14 76 3c c7 8b 24 3d 4b c8 98 bd 60 0a 99 bc
       0.0150194215 0.040172365 -0.07460078 -0.018681705
0001b0 30 10 21 bd 7b d4 13 bd bb a1 2c 3d ad 21 da bc
       -0.03932208 -0.03609131 0.042146426 -0.026627386
0001c0 54 a1 fd bd e6 99 7c 3d 75 3c 98 3d 1b 27 43 bd
       -0.123842865 0.061670206 0.07433406 -0.047644716
0001d0 db 17 a4 bc b6 27 6f 3c 3f 9b c2 bb 16 90 a2 bd
       -0.020030906 0.01459687 -0.005938917 -0.079376385
0001e0 9f 35 72 bb f4 a4 af 3d b6 29 7f 3d 3f df 89 3d
       -0.003695823 0.08576384 0.062295638 0.06732034
0001f0 b6 54 ad bd f7 8c 89 3d 20 58 6f bc e6 cc ce 3c
       -0.08463423 0.0671634 -0.014608413 0.025244188
000200 33 cf 63 bd 72 8c cb bd 80 f8 cb bd d0 0d 98 bd
       -0.055617522 -0.09938897 -0.09959507 -0.074245095
000210 e5 13 03 bd bf ee 4d 3d 6c f9 fe 3a b9 df 22 3d
       -0.032001395 0.050276514 0.0019452996 0.03976414
000220 b4 1e 2b 3c 3a d4 df 3c aa ea 8c 3d 88 fe 96 3c
       0.010444332 0.027322877 0.06880696 0.018431917
000230 21 81 e1 bd dd 2a 57 bb 63 c5 55 bd 7c 03 24 3d
       -0.110109575 -0.0032831945 -0.052190196 0.040042385
000240 2a 58 89 bc c2 56 b6 bc 55 8f ab bc 17 5e a3 bd
       -0.016765673 -0.022258166 -0.02094237 -0.079769306
000250 29 4d 15 3c 60 e9 42 3d 3b 01 ca bd 23 cb 84 3d
       0.009112635 0.047585845 -0.09863516 0.06484058
000260 55 6d 9f 3d 99 90 37 3d 82 d1 ec bd 0e 11 3f 3c
       0.07784525 0.044815633 -0.11563398 0.011661781
000270 fe 6a c4 3d c7 cc ac 3d 70 19 73 bc db 97 60 3d
       0.0959072 0.08437496 -0.014837608 0.05483232
000280 5b bc 26 bc 54 4f 5d 3d b6 6f 1b 3d 4d 06 f5 bd
       -0.010176743 0.05403073 0.037948333 -0.119640924
000290 f5 59 80 3d e2 d5 e3 3c 55 f1 9d 3b 35 2f 32 bc
       0.06267158 0.027811948 0.004820029 -0.010875513
0002a0 65 61 67 3d 1b dd 3d 3d 57 6f ff 3c 90 ad 23 3d
       0.056489367 0.04635344 0.03118102 0.039960444
0002b0 8d 1f fa bc 23 8e 18 bb f1 b0 2e bd 0b cf 9c 3c
       -0.030532623 -0.002327808 -0.042649213 0.019141695
0002c0 e9 dd 36 bd ff ad 72 bd a2 66 ad bd 97 99 34 bd
       -0.044645224 -0.059247967 -0.08466841 -0.044091787
0002d0 33 e1 a7 3b e7 1f ce bc 02 42 c9 bd 51 54 37 3d
       0.0051232814 -0.025161697 -0.09827043 0.044758145
0002e0 81 4e 88 3c e8 4f c3 3c e7 a7 4f 3d 5c 3f 35 3d
       0.016638996 0.023841813 0.050697234 0.044249877
0002f0 06 0e 5d 3d 0a db 55 3d 07 95 88 ba 51 bc 84 bd
       0.053968452 0.052210845 -0.001042039 -0.06481231
000300 34 d2 2f bd c6 1a 46 bd a5 71 64 bd a1 d9 8b bd
       -0.042925075 -0.048365377 -0.055772442 -0.06828619
000310 2b 9a 08 3c e4 f7 bd 3b 2e 95 94 bd ff b9 7c bc
       0.008337538 0.005797373 -0.07255016 -0.015425204
000320 b8 6a bc bc 99 9a 38 3d 76 d1 00 3d 42 d5 b5 bb
       -0.023000106 0.04506931 0.031449758 -0.005549104
000330 53 f2 84 3d dc ed 1c 3d 06 9c 18 bd 2f e8 5e bd
       0.06491532 0.038312778 -0.03725817 -0.054420646
000340 1f 70 cd 3a e6 01 0e bd 1a 91 7d bd 0c 25 cb 3c
       0.0015673673 -0.03466978 -0.061905958 0.024797939
000350 09 27 be bd 0c b2 8c bd 12 2a 12 bd fe 80 ea bc
       -0.09284789 -0.06869897 -0.035684653 -0.028625961
000360 e6 a8 68 bb 87 f8 68 3d b0 bf 42 3d 3a d8 3d bc
       -0.0035501062 0.05687764 0.04754609 -0.011587197
000370 37 ba a5 bd 9d c0 c2 bd 64 d8 78 3d d0 a8 60 bd
       -0.08092158 -0.09509394 0.06075324 -0.054848492
000380 90 80 a5 3d 8e 62 1a 3d 99 73 3c 3d ca 1a 91 3d
       0.08081162 0.037691645 0.04600868 0.07085188
000390 e8 e9 54 3d fa 88 79 3d 30 21 a1 bc ed 3a 49 bb
       0.051980883 0.060921647 -0.019669145 -0.0030705289
0003a0 5d 42 bf bc 1c a6 6d 3d 80 6e 69 3d e8 c1 2a 3d
       -0.023347074 0.058019742 0.056990147 0.04168883
0003b0 28 a5 ae bd bb bd e1 bc f3 8c 37 bd f6 b0 b6 bc
       -0.08527595 -0.02755629 -0.044812154 -0.022301178
0003c0 77 a9 93 3c 71 83 d0 3c 62 e2 4b bd d7 b7 3a bd
       0.018025143 0.025453301 -0.049776442 -0.04558548
0003d0 59 23 a1 3c d1 2b e3 3c 9b f0 64 bd 07 0c 79 3d
       0.019670175 0.027730854 -0.05589352 0.060802486
0003e0 da e4 fb bc 4a 04 e0 bc 79 31 24 bd 80 68 9e bd
       -0.030748773 -0.027345795 -0.040086243 -0.077347755
0003f0 7d 2e 78 bd 06 bd 51 3d c9 8b 49 bd 5b d7 27 bd
       -0.06059121 0.051205657 -0.049205575 -0.040976863

encoder.layers.1.nn.net.2.bias f4 [128]
000000 f3 e6 86 bd fb c3 51 3d 03 3a 16 3c ad e9 b0 3c
       -0.06587019 0.051212292 0.0091691045 0.0215958
000010 24 bb ac 3d 92 78 92 bd 57 02 b9 bc ee b5 9d 3d
       0.08434132 -0.07151903 -0.022584124 0.07700716
000020 bb 16 78 bc 8e 38 83 3d 5c 31 a6 bd 09 4a 80 3d
       -0.015142138 0.06407271 -0.08114883 0.06264121
000030 6b 67 2d bd cf a8 f4 bc cb 0a 31 3d 66 c5 33 3d
       -0.042334955 -0.02986565 0.043223184 0.043889426
000040 1b 6a a9 bc d0 88 91 bd 57 a1 81 bc 68 45 e8 3c
       -0.020680478 -0.07106173 -0.015824003 0.028353408
000050 4c 89 85 3d 27 e0 b1 bc 80 c1 79 bd e8 14 23 3d
       0.06520328 -0.02171333 -0.06097555 0.03981486
000060 42 aa 98 3b 05 a1 9f 3d 51 ce 80 bc 0f f1 e3 3c
       0.004658968 0.07794384 -0.01572338 0.027824907
000070 ed 35 cc 3c fd 25 af 3d 61 fa b2 bd a1 d5 79 bc
       0.024928058 0.085521676 -0.08739162 -0.015248687
000080 51 24 a8 3c 76 de 8a 3c fc ea 9f 3d ee c5 2e 3d
       0.02052513 0.01695178 0.078084916 0.04266923
000090 de e7 7e bd 6d 52 f3 3c 54 25 8e 3d d6 95 d9 3c
       -0.062232845 0.02970239 0.069407135 0.026560705
0000a0 46 e7 c6 3c 7a 72 77 3d 40 b4 d3 b8 69 de 86 bd
       0.024280202 0.060411908 -0.00010094838 -0.0658539
0000b0 03 e2 60 3d 82 fd 1e bc d4 0a 45 3d c3 b9 7e bd
       0.05490304 -0.009703996 0.04810603 -0.062188875
0000c0 6d 6e 05 3d cc 24 14 3d fd b8 44 3d c3 69 ed bb
       0.032576013 0.036167905 0.04802798 -0.007245274
0000d0 bd 68 99 3d a2 50 88 bd 21 01 6b bd ae 92 d8 3b
       0.0749068 -0.066560045 -0.057374123 0.0066092825
0000e0 16 31 de bc 5c 5a b2 bd 22 f0 06 3c 54 99 41 3c
       -0.027123015 -0.08708641 0.008235963 0.011816341
0000f0 95 2c 26 bd f0 7b b4 bd b8 10 46 3d 54 95 84 3d
       -0.04056986 -0.08812702 0.048355788 0.064737946
000100 81 34 b0 bd 52 1c 70 bd 16 f8 10 bc 99 81 2c bd
       -0.08603764 -0.05862076 -0.008848211 -0.04211578
000110 f3 fa 4d bd d1 2e 50 bd 51 b0 f9 3a 94 f7 47 bd
       -0.050288152 -0.050825898 0.0019049739 -0.048820093
000120 de 6f b1 3d a1 4c 44 3d ef 76 50 bd d1 61 a5 bd
       0.08663915 0.04792464 -0.050894674 -0.080752976
000130 3f ea 73 3d 82 bb 34 bd 4f ff 27 bc 08 f0 8a bd
       0.059549566 -0.044124134 -0.010253741 -0.067840636
000140 b5 e0 14 3a cd d3 2d 3d 5b 3d a6 bd 53 5d 7c bd
       0.0005679236 0.042438317 -0.081171714 -0.06161244
000150 e7 0f 13 3c c7 ba 9b 3d 2f 2c a8 bd d2 52 e2 3c
       0.008975959 0.07603984 -0.08211552 0.027627382
000160 f3 05 29 3d 6a f6 1c bd c0 5e de 3c 9b f1 c6 bc
       0.04126544 -0.038320936 0.02714479 -0.024285128
000170 7e f0 b3 bd a4 d9 97 bd ea 4f 8c 3d b4 91 93 3d
       -0.087861046 -0.074145585 0.0685118 0.07205525
000180 56 9f 9b bd 8f 8d 6f bd 0c 26 8b bd 21 b5 4d 3d
       -0.0759875 -0.05848461 -0.06794366 0.050221566
000190 46 fa 01 3d 39 c2 00 3b 4e 85 99 bd 60 2f a1 3c
       0.03173282 0.0019647016 -0.07496129 0.01967591
0001a0 82 57 2d 3d c7 53 5b 3b 7e 06 a4 bc 6d 7f 5c 3d
       0.042319782 0.0033466683 -0.020022627 0.05383246
0001b0 ed b3 9b 3d 6a bf f4 3c db 40 6e bd b4 b3 12 bc
       0.076026775 0.02987643 -0.05816732 -0.008953977
0001c0 b9 8b 52 3c 6f 11 77 bd 93 01 8c 3d da a7 b4 bd
       0.012850695 -0.06031936 0.06836238 -0.08821078
0001d0 de 35 3f bd 4d 60 f7 bc 89 23 1a bd 9f 6f 97 3d
       -0.04668223 -0.030197287 -0.037631545 0.07394337
0001e0 ba 07 3e 3b a7 07 6d bd 0d ab 97 3b be 66 4f bd
       0.0028996305 -0.057868626 0.004628545 -0.050635092
0001f0 7e 8f 6e bd 6a d3 2d 3d 23 d6 1e bd f9 6a b0 bd
       -0.058242314 0.04243795 -0.038778435 -0.086141534

encoder.layers.2.nn.net.0.weight f4 [128, 128]
000000 d0 b2 15 3d b3 31 7b bc 53 96 c7 bd a3 1c b9 3c
       0.036547482 -0.015331673 -0.09745469 0.022596663
000010 bf 03 34 bd cd 7f b3 bc 0c 54 bf 3d 30 36 a2 bd
       -0.043948885 -0.021911526 0.093422025 -0.07920492
000020 31 03 ee bd b1 5e 4b bc 38 f2 2d bd 19 50 90 3c
       -0.116217025 -0.012412713 -0.042467326 0.017616319
000030 ec 22 86 3d fb 7a 44 bd a6 d7 5c bd dd 1f 21 bd
       0.065496296 -0.047968846 -0.053916596 -0.039337028
000040 5c 07 d0 bd 0d 64 46 bd 07 dc ef 3b 39 83 58 bd
       -0.10157654 -0.04843526 0.0073199305 -0.05285952
000050 25 98 d1 3c cb 16 8a bd f8 50 a9 3d b7 d8 39 bd
       0.025585243 -0.06742629 0.08267397 -0.04537269
000060 71 ac b1 bd 47 fb 17 3e 5a 3d 73 bb bb f7 02 3c
       -0.08675469 0.14841948 -0.0037115426 0.007993634
000070 7a 8d a8 3d e8 a9 44 bd 25 62 cf 3d 98 41 8f 3d
       0.082301095 -0.048013598 0.101261415 0.06994933
000080 53 93 fa bc 08 1c 18 bd 3e 01 b0 bd 6f 0a 2a bd
       -0.030587828 -0.037136108 -0.08593987 -0.041513857
000090 6e b0 09 3a 44 a6 02 3d 89 1c c5 bd 5a 80 94 3d
       0.00052524253 0.031896845 -0.09624583 0.072510436
0000a0 66 5f af bb 9e ef 4e bd f5 90 4c bd 5a fa 08 3c
       -0.0053519486 -0.050521486 -0.04994293 0.00836047
0000b0 0c 37 84 bd fc af c2 3c b8 eb 11 bd cd d0 01 bd
       -0.06455812 0.023765557 -0.03562519 -0.03169327
0000c0 dd de 32 3d cd bf 5c 3c 6f 8c e4 bd 85 68 91 bd
       0.04366957 0.013473463 -0.11159598 -0.07100014
0000d0 9f ac a0 3d f7 51 44 bd fe 7e 6f 3d 28 6d 01 bd
       0.07845425 -0.04792973 0.05847072 -0.03159824
0000e0 66 11 e8 3b 24 d6 76 3c 00 b9 64 3d 01 2b c7 bb
       0.007082152 0.015065704 0.055840492 -0.0060781245
0000f0 26 ce 56 bc b2 d2 77 bd af ad a4 3d f9 c0 42 bd
       -0.013110673 -0.06050367 0.0804094 -0.047547314
000100 3e e2 e9 3c 33 8e 45 bb 58 ed 49 bc ae 2b 1d bb
       0.028550263 -0.0030144572 -0.012324654 -0.0023982334
000110 5c 42 ca bb 58 e2 99 bd f7 bf 2a 3c 8d 10 d0 3c
       -0.0061724614 -0.07513875 0.010421745 0.025398517
000120 b2 b4 13 3c d5 48 06 3d 49 b9 a5 3b 83 e3 c2 bc
       0.009015249 0.0327843 0.005057488 -0.023790127
000130 22 79 9d bc 90 61 75 3d a2 38 69 bd c0 17 8e bd
       -0.0192228 0.059907496 -0.056938775 -0.06938124
000140 78 92 ee bc dd d6 10 3c b7 95 3a 3d 21 71 59 bd
       -0.029122576 0.00884029 0.045552935 -0.053086404
000150 58 fb d5 3d 3b f9 23 bd ff 1d a0 3d 35 d2 35 3d
       0.10448331 -0.040032607 0.07818221 0.044389922
000160 20 5d 11 bc c5 bb c6 bd 41 58 1c bd 5b d9 b8 bd
       -0.0088723 -0.09703783 -0.038170103 -0.09025832
000170 26 65 92 3d 5d 35 a8 bd 33 28 02 3d a9 70 c2 bd
       0.07148199 -0.08213303 0.03177662 -0.094941445
000180 f9 4a 58 3d dd 35 65 bc 6d f0 36 bd f9 8c 71 3d
       0.052805874 -0.013989893 -0.04466288 0.058972333
000190 c2 1d fc bc 26 16 43 3b 24 0d 06 3c c1 5c ca bc
       -0.030775908 0.002976784 0.008181844 -0.024702432
0001a0 ff 7b fd bb 76 4e 77 bd aa 5e 42 3d 2c c8 28 bd
       -0.0077357288 -0.06037756 0.04745356 -0.041206524
0001b0 c7 7a 4b bd bc ca a4 bc bc ce 60 3a b0 d7 b2 bd
       -0.049677636 -0.020116203 0.00085757277 -0.087325454
0001c0 c7 92 a3 bc 08 7c 9d bc 0e 58 b7 3a 50 32 89 bd
       -0.01996745 -0.019224182 0.0013988034 -0.066990495
0001d0 25 f5 68 3a 85 8e 9c bd 98 0a f4 3a 0d 8d 98 3c
       0.0008886627 -0.07644371 0.001861888 0.018621946
0001e0 c8 09 39 bd c2 36 24 bd 25 c5 55 3d 21 70 8b 3c
       -0.045175344 -0.040091284 0.052189965 0.01702124
0001f0 45 21 d1 3b d7 a7 21 3d 7b 19 5e bd 96 37 82 bd
       0.00638214 0.039466705 -0.05422352 -0.063582584
000200 19 98 c8 3c 20 d3 94 bd e7 b7 6e bc 9c 8d 3d bd
       0.024486588 -0.072668314 -0.014570213 -0.046277627
000210 52 14 90 bc 91 49 e3 3d 8c 23 c2 bd db 8f 3c 3c
       -0.017587814 0.11098016 -0.09479436 0.011508907
000220 91 2b a3 bd 07 45 92 3d a3 5e 7a bd 24 90 67 3c
       -0.07967294 0.07142072 -0.06112541 0.014133487
000230 45 94 09 3d c1 90 6c 3c 5b be 00 bc 1b 9b 83 3d
       0.033588666 0.014438809 -0.007857884 0.064260684
000240 45 7a 03 bd 1b 12 d9 3c 30 d8 61 bd c6 bd 49 bd
       -0.032099027 0.026497891 -0.055137813 -0.049253248
000250 46 ae 29 3d e9 bf 60 3d 6a 2c b4 bd 9f 0a 2d bd
       0.041425966 0.05487052 -0.08797534 -0.042246457
000260 15 16 57 bd 66 08 c3 bd 2c 6f ab 3d f6 57 a1 bd
       -0.052511293 -0.09523086 0.08370814 -0.07878105
000270 88 8f a7 3b e6 db 8f 3c ed 5a 91 3d e6 a8 5e 3d
       0.005113546 0.01756091 0.07097421 0.054360293
000280 9f ae 4d 3d 6a 8e 36 3d 33 bb a8 bb 2e ae f9 3c
       0.05021536 0.04456941 -0.005149269 0.030478563
000290 b5 0a 29 3d a9 03 6c 3d 15 c2 bf 3d 32 b8 d9 3d
       0.041269977 0.057620678 0.0936319 0.106308356
0002a0 af c2 76 3d 62 58 ab bb de e1 1b bd 63 06 a4 3d
       0.06024426 -0.005229042 -0.0380572 0.08009031
0002b0 91 28 64 3d 3a 89 af 3d be d5 27 bd f4 f7 31 3d
       0.05570275 0.08571096 -0.040975325 0.043449357
0002c0 bd 16 54 bd 0d 8a 83 bd d1 ec 6e 3d b2 9d 3c 3d
       -0.051779497 -0.064228155 0.058331314 0.046048827
0002d0 e9 e3 f8 3b e4 37 2e bd e3 5c 46 bd 4d 9f 87 3d
       0.0075955284 -0.04253377 -0.048428427 0.06622181
0002e0 66 3a a3 bd fc 94 b1 3b fa e0 28 bb d5 bd 29 3d
       -0.07970123 0.0054193716 -0.0025768862 0.041440804
0002f0 42 64 41 bd 1c 4a 69 3d e6 3e 4a 3d 36 9a 0e bd
       -0.047214754 0.05695544 0.04937639 -0.034815036
000300 93 50 ce bd cc 66 23 3d c9 73 8b bd e7 fc 9a bd
       -0.10073962 0.039892957 -0.06809194 -0.075677685
000310 31 4b fe 3d fd 5a 57 bd f5 dc 56 bd dc c8 d4 3d
       0.124166854 -0.052577008 -0.052456815 0.103898734
000320 55 47 bb 3d 24 40 e5 bb 41 5f 00 bd 09 f2 66 3d
       0.09144465 -0.0069961715 -0.03134084 0.056383166
000330 cf c4 08 bd 48 60 d9 3d 81 14 a1 3d 63 3a 9a 3d
       -0.033390816 0.10614067 0.07865239 0.07530668
000340 53 57 9a 3d f1 1e 5e bc d2 da 3b 3d b5 91 88 3d
       0.07536187 -0.013557182 0.04586298 0.066684164
000350 36 00 a3 3d 02 39 4e b9 6d 47 65 3d 75 f1 9b 3c
       0.079590246 -0.00019666928 0.05597632 0.019036034
000360 39 12 0b bd e9 a8 d2 bd 60 cd 6e 3d ab b2 3e 3c
       -0.033952925 -0.10286123 0.05830133 0.011639277
000370 1b 81 af 3d 96 44 11 bc 1c 63 92 3b fd 78 02 3d
       0.08569547 -0.00886645 0.004467381 0.031853665
000380 4b cb a7 bd ea 44 1f 3b bd 50 d2 3c ed 37 3a 3d
       -0.08193072 0.002430255 0.025673265 0.04546349
000390 4d 93 ba 3d cb 8e ab bd 29 60 07 3d b5 19 b6 bd
       0.09110127 -0.08376845 0.03305069 -0.08891622
0003a0 58 2e 61 bd 41 6a 1c bd b6 72 65 bc aa de 17 3e
       -0.054975837 -0.03818727 -0.0140044 0.14831033
0003b0 00 d1 7f 3d 23 e0 71 3d 2e b3 22 3e c7 96 a2 bd
       0.062455177 0.059051644 0.15888664 -0.07938915
0003c0 85 04 36 bc 3d 0a c6 bd 4b e5 95 3d e1 3d aa bd
       -0.011109476 -0.096699215 0.07319125 -0.08312584
0003d0 5a e1 9f 3d 1a ad 93 3c 24 3c 26 bd e0 22 82 bd
       0.07806654 0.018026877 -0.0405847 -0.06354308
0003e0 89 65 1b 3d 6b 6a 96 bb a7 87 83 3c 65 9f 94 bd
       0.03793863 -0.0045903227 0.016055895 -0.072569646
0003f0 dc d7 91 3d 59 49 70 bc c7 bc 36 bd 3d 39 2a 3d
       0.0712125 -0.014665925 -0.044613626 0.041558493

encoder.layers.2.nn.net.0.bias f4 [128]
000000 4e 1b 49 bd 38 56 9c bc c4 19 f4 3d 4d 47 48 bd
       -0.049098305 -0.019084081 0.11918977 -0.048896123
000010 a4 6f 06 3d f2 a7 d6 bd b3 91 9f 3d 1d 2a f1 3d
       0.032821313 -0.10481252 0.07791462 0.117756106
000020 f3 b0 28 bd 18 f5 9e 3c 87 1c 89 3d 6a e2 91 3c
       -0.041184377 0.01940398 0.06694894 0.017808158
000030 37 8b 74 bd d7 f6 a0 3d c0 97 70 bd b9 ff 26 3e
       -0.059703078 0.07859581 -0.05873847 0.16308488
000040 85 de b5 3d 90 90 a5 bc f7 e7 d1 3c b0 0e af bd
       0.08880333 -0.020210534 0.025623305 -0.08547723
000050 c2 1c a1 bd 61 18 83 3d 89 cc 19 3e f5 ba 0d be
       -0.07866813 0.06401134 0.1501943 -0.1384085
000060 3c f1 db bd 2e 6d 77 3d 15 db b2 bc 2c f4 11 3d
       -0.10739371 0.060406856 -0.021832982 0.03563325
000070 9c 09 c0 bd 06 65 ac bc 5f 78 96 bd 56 15 6e bc
       -0.09376833 -0.021044265 -0.07347178 -0.014531454
000080 af a2 0f 3d 42 ae 62 3d 48 33 a9 bc d3 da 0c be
       0.035067257 0.055341966 -0.020654336 -0.1375535
000090 56 e0 64 bd 55 0f fa bd a4 05 ae 3d 85 9e 22 3d
       -0.055878006 -0.122099556 0.084971696 0.039701957
0000a0 f7 94 85 bc a3 72 49 bd 33 f4 86 bc f5 76 61 3d
       -0.016306384 -0.04918159 -0.016473865 0.055045087
0000b0 98 b0 11 3d e7 3a 68 bd 6e e3 75 bd 6e ea 7b bd
       0.035568804 -0.0566968 -0.060031347 -0.061502866
0000c0 ca 0e e3 3a 6d bd c2 3c 55 e6 aa bd e4 88 b1 bd
       0.0017323133 0.023771966 -0.083447136 -0.08668688
0000d0 52 1a 44 3d 30 5b 59 bd a9 0a ce 3d 69 c2 1f 3d
       0.047876664 -0.05306548 0.10060627 0.039003763
0000e0 9e 16 a0 bd 37 e3 e1 bc 1e 05 02 3d 42 12 b9 3d
       -0.07816814 -0.027574165 0.03174316 0.090366855
0000f0 c5 d1 33 bd fb 58 98 bd cc e0 3a 3d d4 b7 fe bc
       -0.043901224 -0.07438847 0.04562454 -0.031093515
000100 60 c4 26 bd 9d 76 fc bb 79 0f 66 3c b0 ec b5 bd
       -0.04071462 -0.0077045695 0.014041775 -0.08883035
000110 d2 3a a0 bd 7f c1 fe 3d 67 0f 1a 3a 19 ea fc 3d
       -0.07823719 0.1243925 0.0005876929 0.12349338
000120 f2 af a8 3b ba 14 6d bd 48 8a 13 3d 1e 1a 0d 39
       0.0051479274 -0.057881095 0.036020547 0.00013456537
000130 fe ab c3 3d 6a 94 40 bc 5c ff 8f bc 5d f0 4c 3d
       0.09554289 -0.011754135 -0.01757782 0.050033916
000140 6e 8a 9d 3d 94 88 47 3d 1c 58 84 bd bf ea 9e bc
       0.07692419 0.048714235 -0.06462118 -0.019399045
000150 90 10 11 bd cc 33 b7 3c 85 f5 36 bd 42 26 b5 3d
       -0.035416186 0.022363566 -0.04466774 0.08845188
000160 3c d8 a2 bd 48 25 24 3e 8e 61 93 3d 8e f4 2a bd
       -0.079514 0.16029847 0.071963415 -0.04173713
000170 69 00 e9 3c 88 64 b2 3d e1 3e 5b bc fb 46 1f 3e
       0.028442578 0.08710581 -0.013381691 0.1555442
000180 31 25 96 bd 44 6d 52 3d 6c 0b 94 bd e9 04 1d be
       -0.073313124 0.051373735 -0.07228741 -0.15333904
000190 16 f5 29 be 93 a3 bc bc b4 79 90 bd cb 30 a9 bd
       -0.16597399 -0.023027217 -0.07054463 -0.0826126
0001a0 88 bd ea 3c 0f ef 10 3a a6 97 b5 bd 30 f7 c9 3b
       0.028654829 0.00055287866 -0.08866815 0.0061635002
0001b0 50 14 12 bc 78 89 d4 3b af b2 12 bd 18 dd 6d bd
       -0.008915976 0.006486114 -0.035814937 -0.05807218
0001c0 a5 a2 09 be d6 85 d6 bd 6a e0 6f 3c 02 cb 65 3d
       -0.1344095 -0.10474746 0.014640907 0.056101806
0001d0 42 d3 a1 3d 11 a7 9e 3c 31 5e 21 3d ce a6 27 be
       0.07901622 0.019366773 0.03939647 -0.16372225
0001e0 7f 8c 63 bd b6 1b 96 bd 95 86 a3 bd ed c4 37 3c
       -0.05555391 -0.07329504 -0.07984654 0.011216384
0001f0 c8 6e 45 bd e2 79 b3 ba 08 ec 60 bd dd cb 88 bc
       -0.048201352 -0.001369294 -0.054912597 -0.016698772
