scripts/embeddings_gin_version2/ENZYMES/gin_dim64_ep100_lr0.0005_drop0.0/gin_classifier.pt (torch, 177117 bytes, 42 tensors)

encoder.layers.0.nn.net.0.weight f4 [64, 3]
0.08790044 0.13286467 -0.41359848 -0.5165726 -0.40608725 -0.3950738 -0.1407083 0.40088186
0.12059544 -0.5281022 0.33170608 -0.33485687 -0.52197194 0.3754703 -0.3914858 0.13615069
0.38409075 -0.4676897 -0.29965657 -0.09735815 0.47416142 0.19397739 -0.3878281 0.010207448
0.3641901 0.41799298 -0.52906185 0.045828212 -0.49916014 -0.34331563 -0.15376072 0.2518223
-0.13770352 0.15416154 -0.5326648 0.16102685 0.5354828 -0.3486905 -0.5025721 0.26983967
0.2156609 0.39826044 -0.39202407 -0.29923654 -0.46732503 -0.026902242 -0.29463053 -0.013228195
-0.5239846 0.024183545 -0.032394826 -0.21612667 -0.31945813 0.13460395 0.34626722 -0.23605566
-0.47540295 0.4494067 -0.14336477 0.4380727 -0.23508236 0.5834778 -0.2876349 0.44224828
-0.20055892 -0.4461458 0.49003136 0.4174266 -0.098264635 0.057223495 -0.29448166 -0.3798922
-0.25368634 0.5131802 -0.5633925 0.1525999 0.49683192 0.11611726 0.5690458 0.3321016
0.30929652 -0.09332134 -0.3017784 -0.2675858 0.16337521 0.4420441 0.29318005 -0.032212965
0.5035343 -0.5450207 -0.625106 0.07682586 -0.22288844 0.03498376 0.074885 -0.057231396
-0.41588792 0.20363723 0.45655906 0.44939888 -0.16590592 -0.3227701 0.2253778 0.32210913
-0.014703159 -0.31829956 0.49394685 0.029358579 -0.31100827 0.113519005 0.3398727 0.53677976
-0.0210158 0.50307083 0.29401267 0.45891508 -0.15656371 -0.10748867 0.44080228 -0.36644182
-0.24297047 0.10058356 0.056929942 0.14565179 -0.31216374 0.3114193 0.2664733 -0.056071717
-0.59011227 -0.45332032 0.20617554 -0.32273367 -0.17004898 -0.1114389 -0.47405976 -0.11750409
0.266093 -0.4469373 -0.14914685 -0.45430937 0.07271132 0.021898687 -0.079302266 0.15858883
-0.14872767 -0.44486865 -0.2604674 0.5654975 -0.57079047 0.13213529 -0.08609245 -0.21343747
0.5474791 0.10767027 0.26359597 0.072763935 -0.34809697 0.13775127 -0.39082623 -0.5545303
-0.56682163 -0.3826552 0.12396406 -0.19074844 0.029810302 -0.4061017 -0.32163006 0.19286913
-0.23125097 -0.4208954 0.42445755 0.49974898 -0.51383775 0.26391143 -0.59794134 0.16188107
-0.33360267 -0.17130657 -0.23702462 -0.22968501 0.3019014 0.27597493 0.3775079 0.2538994
-0.5122552 -0.25114247 -0.31629124 -0.017449401 -0.039820723 -0.4983958 0.38265747 0.24083681
00000000: 2505 b43d ad0d 083e 2ec3 d3be 1a3e 04bf
00000010: abea cfbe 1d47 cabe d615 10be 6340 cd3e
00000020: befa f63d b531 07bf 61d5 a93e 5c72 abbe
00000030: f49f 05bf a53d c03e d470 c8be 166b 0b3e
00000040: 8ba7 c43e 0675 efbe 966c 99be b663 c7bd
00000050: 49c5 f23e 02a2 463e 6891 c6be 243d 273c
00000060: 2077 ba3e 2d03 d63e 9970 07bf 5db6 3b3d
00000070: eb91 ffbe 11c7 afbe 7373 1dbe daee 803e
00000080: 2702 0dbe 86dc 1d3e b85c 08bf 39e4 243e
00000090: 6715 093f 9087 b2be 91a8 00bf 6d28 8a3e
000000a0: 36d6 5c3e cbe8 cb3e 61b7 c8be 8835 99be
000000b0: 3a45 efbe 1762 dcbc d0d9 96be 12bb 58bc
000000c0: db23 06bf 921c c63c 70b0 04bd 4f50 5dbe
000000d0: 0490 a3be 9ed5 093e f049 b13e 93b8 71be
000000e0: 0468 f3be a318 e63e 37ce 12be 114b e03e
000000f0: 6eb9 70be cd5e 153f e244 93be 5e6e e23e
00000100: 515f 4dbe 396d e4be 64e5 fa3e f0b8 d53e
00000110: f83e c9bd 2f63 6a3d 4dc6 96be 3b81 c2be
00000120: 2de3 81be c75f 033f 7e3a 10bf 2643 1c3e
00000130: c160 fe3e e3ce ed3d fcac 113f 3909 aa3e
00000140: 1d5c 9e3e 421f bfbd b382 9abe 0201 89be
00000150: d54b 273e 9b53 e23e b21b 963e bef1 03bd
00000160: a0e7 003f 7a86 0bbf f206 20bf e056 9d3d
00000170: de3c 64be 224b 0f3d 4f5d 993d 786b 6abd
00000180: 43ef d4be 4786 503e 1cc2 e93e 9c17 e63e
00000190: 3ee3 29be 1f42 a5be 70c9 663e 7deb a43e
000001a0: 85e5 70bc 29f8 a2be 9ae6 fc3e 6781 f03c
000001b0: 7a3c 9fbe a77c e83d cb03 ae3e 666a 093f
000001c0: 5429 acbc 40c9 003f d488 963e ebf6 ea3e
000001d0: 3d52 20be 0523 dcbd d6b0 e13e 439e bbbe
000001e0: 40cd 78be c1fe cd3d 5f2f 693d be25 153e
000001f0: edd3 9fbe 5a72 9f3e 306f 883e 75ab 65bd
00000200: 9911 17bf 9a19 e8be ae1f 533e 593d a5be
00000210: 5221 2ebe 143a e4bd f6b7 f2be fca5 f0bd
00000220: 573d 883e f7d4 e4be f4b9 18be 3d9b e8be
00000230: ace9 943d e064 b33c 3a69 a2bd 1c65 223e
00000240: 114c 18be d3c5 e3be fc5b 85be 72c4 103f
00000250: 531f 12bf 794e 073e 3d51 b0bd 5a8f 5abe
00000260: 9727 0c3f 3b82 dc3d 0df6 863e 4205 953d
00000270: c439 b2be ab0e 0d3e 601a c8be b3f5 0dbf
00000280: 391b 11bf 62eb c3be dee0 fd3d 8f53 43be
00000290: bc34 f43c 90ec cfbe b2ac a4be 7c7f 453e
000002a0: 0ecd 6cbe 9a7f d7be 8052 d93e 19df ff3e
000002b0: df8a 03bf 661f 873e af12 19bf 27c4 253e
000002c0: f8cd aabe fd6a 2fbe 95b6 72be 8c32 6bbe
000002d0: d292 9a3e 964c 8d3e b748 c13e 1aff 813e
000002e0: 2823 03bf bf95 80be edf0 a1be 0cf2 8ebc
000002f0: 0e1b 23bd bc2d ffbe aeeb c33e ed9d 763e

encoder.layers.0.nn.net.0.bias f4 [64]
-0.24980776 0.26355493 0.39210466 0.012873124 0.04153435 0.19070764 0.1299364 0.25443682
0.42442024 -0.12154996 -0.46129227 -0.45092857 0.48387757 -0.63069224 -0.33417284 -0.29014862
0.44372472 -0.48976484 0.33933818 -0.17862773 0.27991608 0.34283793 0.2406917 -0.27971122
0.4722815 -0.5254116 0.17670897 0.5801867 -0.50246245 0.054839052 0.48641273 -0.25931495
0.5794595 0.22198956 0.0858765 -0.034766156 0.4578598 -0.44913292 0.16403987 -0.53594637
-0.573723 0.3906404 0.10111562 0.28662232 0.10274226 0.1275271 -0.2715916 0.078990705
-0.12688424 -0.110846475 -0.17041841 0.0060443464 -0.33996928 0.2990317 -0.10779011 0.03411522
0.22583917 0.23101175 -0.49061227 0.5065396 -0.37724808 -0.50276375 -0.4585958 -0.54853475
00000000: 9bcd 7fbe acf0 863e f1c1 c83e cce9 523c
00000010: ec1f 2a3d dd48 433e 0c0e 053e 8b45 823e
00000020: 9c4d d93e 2fef f8bd 802e ecbe 1ce0 e6be
00000030: cdbe f73e 0c75 21bf b418 abbe 5c8e 94be
00000040: e32f e33e 75c2 fabe bcbd ad3e 30ea 36be
00000050: 2951 8f3e 7488 af3e e377 763e 4f36 8fbe
00000060: e1ce f13e 6081 06bf 32f3 343e 1e87 143f
00000070: 61a1 00bf ea9e 603d 170b f93e eec4 84be
00000080: 7557 143f 3b51 633e 05e0 af3d f566 0ebd
00000090: 9a6c ea3e c0f4 e5be 11fa 273e c833 09bf
000000a0: 83df 12bf 0502 c83e b515 cf3d 29c0 923e
000000b0: 896a d23d 7796 023e 0e0e 8bbe e1c5 a13d
000000c0: f1ed 01be 7a03 e3bd 2a82 2ebe a70f c63b
000000d0: 7410 aebe af1a 993e 10c1 dcbd 67bc 0b3d
000000e0: 6242 673e 588e 6c3e 8831 fbbe 94ac 013f
000000f0: a926 c1be 20b5 00bf 12cd eabe c66c 0cbf

encoder.layers.0.nn.net.2.weight f4 [64, 64]
0.009208243 -0.1029765 -0.024211869 0.03404971 -0.09708377 -0.0011875101 0.08691342 -0.114950575
0.0029774662 0.007044185 0.12886877 0.02534285 -0.0120482845 -0.126778 -0.0030353218 -0.057904348
0.1503469 -0.09807747 0.032678355 0.11325693 0.050516207 0.13330121 -0.08820245 0.011867038
0.020032188 -0.02806638 -0.1250888 0.1250951 -0.04373558 -0.10952332 0.009524292 0.1001306
0.034372944 -0.006690292 0.03140496 -0.011870667 0.10260878 -0.04582269 0.1224635 0.1239763
-0.06962214 0.0013305809 0.019942049 -0.06028509 -0.042352095 -0.08012766 -0.113717474 -0.011964849
0.074907586 -0.10818081 -0.12996072 0.08860762 -0.017592143 -0.076216 -0.12770864 0.07922043
0.009024421 0.06263159 -0.031304114 -0.18774985 -0.024092613 0.08632956 -0.02370812 0.035920434
0.07482354 -0.11165875 -0.037855197 -0.024846744 -0.04782507 -0.04467751 0.09531302 0.049069293
0.022555819 -0.046446282 -0.06628167 0.03680746 0.04440365 0.033837494 0.12202278 0.016440883
-0.020681825 0.07801019 0.05464993 -0.077811345 0.024321951 -0.02030535 0.106575705 -0.12475758
0.03372541 -0.05387463 0.114675 0.01235998 0.09528866 0.068121925 -0.029233716 -0.009044616
-0.079901695 0.035107475 -0.09255278 -0.013863113 -0.077039465 -0.09863761 -0.062438503 -0.0864835
0.024920443 -0.0851598 0.06268726 -0.059493 -0.034511417 -0.097412616 -0.07513958 -0.015116941
0.050961882 0.076383926 0.024126174 -0.03917508 -0.1221115 -0.02811791 -0.11429357 -0.049162954
-0.09169968 0.056732774 0.07270638 -0.119548894 0.065335095 -0.047692157 -0.096288875 -0.043954425
0.1281217 -0.087012395 -0.052722845 0.0067030443 -0.0739552 -0.012671168 0.048921067 -0.05191194
0.08952416 -0.078023866 -0.10134257 -0.08781955 0.070243604 0.049177267 0.041957155 0.0056776702
-0.05431068 -0.023497451 0.086236864 -0.04286647 -0.0038488256 0.078197874 0.07124422 0.0627702
-0.081756055 -0.0014245018 -0.02125757 -0.06512574 0.08033925 0.09513064 -0.026857993 -0.012346478
0.06420623 0.051128186 -0.048315953 -0.03426902 -0.092538826 -0.07749009 -0.041148722 0.06915422
0.08134267 0.0012789204 0.06914003 0.059318345 0.11306217 -0.032324743 0.08775651 0.06504047
0.030212387 0.022089269 0.10373752 0.097406976 0.105540276 0.07539284 -0.011357518 -0.108048424
0.114209935 -0.023520034 -0.055245116 -0.023497967 0.032244958 0.073382415 0.051181912 -0.03037709
0.122342356 -0.08956611 0.07461575 0.048227437 0.04609704 -0.065566845 0.02400595 -0.08735841
0.05012775 -0.048775367 0.024347873 -0.047629096 0.012701076 0.013413703 0.0008137673 0.0024322122
0.037233185 0.09282075 0.109987125 -0.049666848 -0.025009023 -0.06806941 -0.09647357 -0.01552294
0.050267104 -0.11992485 -0.01894828 -0.053688094 0.113952376 0.100140825 0.00022918865 -0.105342224
0.02217365 0.02265463 0.06040456 -0.047376733 0.00822865 -0.015721165 -0.05471141 0.10001288
-0.14022437 0.04413995 -0.008154566 0.11737335 -0.012884775 -0.08938702 -0.04767163 -0.049424328
-0.065882966 -0.080816 -0.079646 0.09009205 -0.13445073 -0.01306726 -0.053679653 0.09251766
-0.066014655 0.10156863 -0.06734905 0.0051382273 0.01706053 0.111955404 -0.07708749 -0.0819379
00000000: 2cde 163c 58e5 d2bd f857 c6bc b577 0b3d
00000010: dbd3 c6bd 3aa6 9bba aaff b13d 356b ebbd
00000020: 9821 433b e8d2 e63b 2df6 033e cf9b cf3c
00000030: 2b66 45bc 18d2 01be 40ec 46bb 1c2d 6dbd
00000040: 8af4 193e d7dc c8bd bdd9 053d 40f3 e73d
00000050: 15ea 4e3d 1d80 083e 7ca3 b4bd f76d 423c
00000060: 8b1a a43c 77eb e5bc 4717 00be ee18 003e
00000070: 1424 33bd c34d e0bd c70b 1c3c 4611 cd3d
00000080: a5ca 0c3d 3d3a dbbb 7da2 003d 307d 42bc
00000090: 8d24 d23d 93b0 3bbd 25ce fa3d 49e7 fd3d
000000a0: 0d96 8ebd e366 ae3a 825d a33c 80ed 76bd
000000b0: 6479 2dbd f819 a4bd b5e4 e8bd 3708 44bc
000000c0: 2669 993d e78d ddbd 6c14 05be e977 b53d
000000d0: 661d 90bc 2217 9cbd 0ec6 02be 523e a23d
000000e0: 2adb 133c fe44 803d be38 00bd 7f41 40be
000000f0: df5d c5bc 8dcd b03d 8837 c2bc 4e21 133d
00000100: 163d 993d 58ad e4bd 0d0e 1bbd 668b cbbc
00000110: 38e4 43bd c4ff 36bd 7933 c33d e2fc 483d
00000120: fbc6 b83c 753e 3ebd afbe 87bd 6bc3 163d
00000130: 9ae0 353d 2f99 0a3d 14e7 f93d 08af 863c
00000140: ee6c a9bc cec3 9f3d 9bd8 5f3d 8e5b 9fbd
00000150: d43e c73c 6857 a6bc 5d44 da3d e780 ffbd
00000160: a823 0a3d a5ab 5cbd bada ea3d 8381 4a3c
00000170: b326 c33d 8283 8b3d 8c7b efbc de2f 14bc
00000180: 80a3 a3bd dbcc 0f3d 508c bdbd 1c22 63bc
00000190: dec6 9dbd 8402 cabd 84bf 7fbd 431e b1bd
000001a0: f525 cc3c 4368 aebd 2e62 803d efae 73bd
000001b0: d85b 0dbd 4480 c7bd c8e2 99bd 0cad 77bc
000001c0: 68bd 503d 2d6f 9c3d 41a4 c53c 0c76 20bd
000001d0: 9815 fabd 8857 e6bc bf12 eabd 185f 49bd
000001e0: 0bcd bbbd a060 683d 15e7 943d 0dd6 f4bd
000001f0: 68ce 853d da58 43bd 1a33 c5bd 8e09 34bd
00000200: 5632 033e 8e33 b2bd e9f3 57bd 36a5 db3b
00000210: d375 97bd bb9a 4fbc 7561 483d 9da1 54bd
00000220: 7158 b73d faca 9fbd b18c cfbd bcda b3bd
00000230: e1db 8f3d 1a6e 493d 44db 2b3d c00b ba3b
00000240: e074 5ebd ba7d c0bc f49c b03d c094 2fbd
00000250: 943c 7cbb 3526 a03d 7de8 913d aa8d 803d
00000260: b86f a7bd 59b6 baba 5b24 aebc a560 85bd
00000270: e888 a43d dad3 c23d 4b05 dcbc e248 4abc
00000280: 8e7e 833d ca6b 513d f3e6 45bd ac5d 0cbd
00000290: ff84 bdbd 20b3 9ebd 908b 28bd baa0 8d3d
000002a0: fc96 a63d 73a1 a73a 4a99 8d3d cbf7 723d
000002b0: 248d e73d f366 04bd afb9 b33d f033 853d
000002c0: f87f f73c 8ef4 b43c 5674 d43d 4f7d c73d
000002d0: 8025 d83d 9067 9a3d e214 3abc 7e48 ddbd
000002e0: e6e6 e93d 16ad c0bc b448 62bd cf7e c0bc
000002f0: 4a13 043d 8549 963d 20a4 513d 60d9 f8bc
00000300: a18e fa3d 706e b7bd 24d0 983d 228a 453d
00000310: 40d0 3c3d e947 86bd 20a8 c43c f7e8 b2bd
00000320: c152 4d3d aec8 47bd 3175 c73c ba16 43bd
00000330: 2d18 503c 26c5 5b3c 0053 553a c065 1f3b
00000340: d381 183d ce18 be3d ee40 e13d 776f 4bbd
00000350: b9df ccbc fa67 8bbd ef93 c5bd ee53 7ebc
00000360: e1e4 4d3d 299b f5bd 6c39 9bbc 0ce8 5bbd
00000370: dd5f e93d a216 cd3d 5c52 7039 aabd d7bd
00000380: 84a5 b53c 3496 b93c c66a 773d 1b0e 42bd
00000390: 76d1 063c acc9 80bc 1219 60bd 8ed3 cc3d
000003a0: fa96 0fbe 18cc 343d bb9a 05bc 7061 f03d
000003b0: aa1a 53bc 8b10 b7bd 5443 43bd 2a71 4abd
000003c0: a6ed 86bd dc82 a5bd 711d a3bd 2e82 b83d
000003d0: 74ad 09be 1018 56bc 32df 5bbd e679 bd3d
000003e0: b132 87bd 3703 d03d 4cee 89bd 935e a83b
000003f0: 86c2 8b3c e048 e53d 0ce0 9dbd 0fcf a7bd

encoder.layers.0.nn.net.2.bias f4 [64]
0.03786131 -0.06702765 -0.07069205 -0.08313535 -0.060514066 -0.032712504 0.045853645 -0.00411361
-0.11586955 -0.09314923 0.09155841 0.09576118 -0.07081448 -0.12534428 0.056292728 -0.050167244
-0.05712729 -0.061846483 0.12009553 -0.11863591 0.12494018 0.09528156 -0.094220795 0.084757894
-0.07417058 0.023484714 -0.089639105 0.1081214 -0.037081208 0.018042883 0.08506889 0.024959853
0.04164841 -0.006859886 -0.12984313 0.062419977 0.037484214 -0.03741013 0.112543836 0.0031812387
0.047257368 -0.05853184 0.09709612 -0.11788069 -0.08130464 -0.12846121 0.05916019 -0.049359296
0.054710172 -0.09414337 -0.026094409 -0.054260705 -0.1424668 0.036684636 0.008175757 0.036518447
0.009580446 -0.04312389 -0.08746568 0.09655439 -0.025758756 -0.011444587 0.08748299 -0.060718168
00000000: 7614 1b3d cb45 89bd fec6 90bd de42 aabd
00000010: 99dd 77bd 8cfd 05bd 08d1 3b3d 76cb 86bb
00000020: 044d edbd 06c5 bebd fa82 bb3d 701e c43d
00000030: 2f07 91bd 405a 00be 3493 663d 2b7c 4dbd
00000040: 4efe 69bd bd52 7dbd a5f4 f53d 62f7 f2bd
00000050: a3e0 ff3d fb22 c33d d5f6 c0bd 8c95 ad3d
00000060: bfe6 97bd 0463 c03c b594 b7bd c16e dd3d
00000070: 77e2 17bd abce 933c 9938 ae3d 9b78 cc3c
00000080: 8697 2a3d e5c8 e0bb 99f5 04be 17ac 7f3d
00000090: 0c89 193d 5d3b 19bd 627d e63d 547c 503b
000000a0: f190 413d 15bf 6fbd 55da c63d 6e6b f1bd
000000b0: 0c83 a6bd 568b 03be f551 723d f92c 4abd
000000c0: c617 603d 3dce c0bd f1c3 d5bc 7940 5ebd
000000d0: d1e2 11be a142 163d 9cf3 053c 5e94 153d
000000e0: 4ef7 1c3c ada2 30bd 3521 b3bd 4fbe c53d
000000f0: 0704 d3bc 1482 3bbc 482a b33d 9db3 78bd

encoder.layers.1.nn.net.0.weight f4 [64, 64]
0.0968707 -0.011708464 -0.066389725 0.039105844 0.091361724 0.03576723 -0.03797242 0.09924441
-0.084166005 0.010141861 0.02297398 -0.08567469 0.041501552 -0.16274814 -0.11324446 0.123355396
-0.11137552 -0.0050419834 -0.10913501 -0.073430315 -0.010621891 -0.16818514 0.0093976995 0.02922078
0.07164165 -0.101437606 -0.08938684 0.045171402 0.010894685 -0.11550406 -0.06531578 -0.041675817
-5.9520546e-05 0.122660026 0.083095685 0.06079272 0.05648408 0.09291143 -0.09745715 0.028541442
0.11591907 0.02637151 0.0025381558 -0.09589512 0.12109331 -0.06602254 -0.15748861 0.06921165
-0.09463581 -0.09612473 0.0232594 -0.07875549 0.110618494 0.00540985 -0.0029785198 -0.059491947
-0.091697134 -0.026801225 -0.04726339 0.0539304 0.08301616 0.030576846 0.011712113 0.107769445
0.07022409 0.07631678 -0.08414473 0.1162538 0.04114085 0.11325026 0.013605386 -0.01876433
0.10757892 0.04877144 -0.113949336 -0.042482376 -0.018292924 0.0812872 0.0007235342 -0.12058193
0.04852237 0.026885815 -0.12023816 0.023519991 -0.051140457 -0.09334153 0.04535298 0.110145085
-0.0040010903 0.034881167 -0.116948165 0.030634848 -0.010886957 -0.097415805 0.11805369 -0.011689498
-0.011601817 -0.01805868 -0.0436733 -0.014395019 0.11850696 0.09445332 0.106777325 -0.047275003
0.034961954 0.056766544 -0.03126444 0.12041635 -0.08944687 0.028506 -0.09191456 0.117297985
0.09704496 0.061603617 -0.10450755 0.0001451325 -0.039882865 0.12113568 -0.08406871 -0.03186532
-0.02167159 0.12233748 0.0553982 0.0021622384 0.035135496 0.08122163 -0.07488375 -0.12607053
0.09476753 -0.06351988 0.06365003 0.009022875 -0.03997722 -0.11456902 0.08072091 -0.121609785
-0.12250572 -0.056059822 -0.028613502 0.04015828 0.015646223 0.10717359 0.06529871 -0.011586476
-0.08216004 -0.09760803 -0.04005427 -0.028713576 0.11097122 -0.07705486 0.030706253 -0.037328813
-0.05521617 -0.039645374 -0.14273751 0.051248193 0.020064667 0.07641749 0.073190376 -0.018492509
0.0012552456 -0.05528108 0.08243717 0.08117856 0.004421649 -0.090751976 0.057958886 0.018805962
0.05054603 0.11636036 0.054781657 -0.15904777 -0.031966485 -0.07892602 -0.12275348 -0.009376297
0.11841313 -0.12279483 0.111985676 -0.066628605 -0.09388356 -0.1020999 0.05107238 -0.11957376
0.08086352 -0.11934965 0.09485066 -0.14542371 -0.15076496 0.07315913 -0.04996019 -0.1141199
-0.11181503 0.052151 0.026399253 -0.05695799 -0.019031856 -0.0053702993 -0.08537491 -0.057582643
-0.04775855 -0.0990166 -0.08218019 -0.08578454 -0.013198733 -0.054821055 0.07589294 -0.065994054
-0.13784984 0.082165316 -0.06781606 -0.09804733 0.10754209 -0.094265774 -0.0034939656 -0.099514514
0.051508006 -0.07455102 -0.13680294 -0.082225166 -0.15816103 0.062433098 -0.13555555 -0.0063145696
-0.12971817 -0.16028106 0.102995895 0.010577186 0.024839101 0.079723045 0.09869422 -0.10438005
-0.094934 -0.08848582 -0.070284925 0.0072359056 -0.04754054 0.076047234 -0.10550205 0.090174384
0.11346331 -0.019664554 0.016942613 0.031317588 0.04127297 0.011336244 -0.036114752 -0.004103488
0.10662226 -0.062110845 -0.06088041 -0.068320304 0.023720922 0.0070481994 -0.1114829 -0.10498436
00000000: 2564 c63d dbd4 3fbc 56f7 87bd 732d 203d
00000010: db1b bb3d a980 123d f888 1bbd a740 cb3d
00000020: 3a5f acbd 0c2a 263c ee33 bc3c 3676 afbd
00000030: 88fd 293d 73a7 26be b6ec e7bd c1a1 fc3d
00000040: d918 e4bd 3937 a5bb 2d82 dfbd a262 96bd
00000050: 7107 2ebc ba38 2cbe cff8 193c 6b60 ef3c
00000060: dbb8 923d 85be cfbd 7310 b7bd a605 393d
00000070: 9f7f 323c 658d ecbd 48c4 85bd 43b4 2abd
00000080: b3a5 79b8 2e35 fb3d 122e aa3d ca01 793d
00000090: da5b 673d 5948 be3d 9d97 c7bd becf e93c
000000a0: fa66 ed3d 1109 d83c 3057 263b a964 c4bd
000000b0: c5ff f73d d336 87bd b244 21be d6be 8d3d
000000c0: 6bd0 c1bd 0bdd c4bd 7f8a be3c 8f4a a1bd
000000d0: f38b e23d 1c45 b13b 4533 43bb d4ad 73bd
000000e0: b5cb bbbd 3e8e dbbc 4297 41bd 20e6 5c3d
000000f0: 6004 aa3d 4b7c fa3c 2ae4 3f3c 3ab6 dc3d
00000100: a6d1 8f3d f94b 9c3d 1254 acbd 7916 ee3d
00000110: 4f83 283d c1ef e73d 20e9 5e3c a7b7 99bc
00000120: 5652 dc3d 90c4 473d 455e e9bd 0002 2ebd
00000130: 0bdb 95bc e779 a63d 8fab 3d3a a9f3 f6bd
00000140: 65bf 463d a43f dc3c 6d3f f6bd ffac c03c
00000150: a878 51bd d829 bfbd 0cc4 393d bf93 e13d
00000160: 941b 83bb 8edf 0e3d 8582 efbd eff5 fa3c
00000170: 355f 32bc f081 c7bd 22c6 f13d 4f85 3fbc
00000180: 8c15 3ebc ccef 93bc c6e2 32bd 16d9 6bbc
00000190: c7b3 f23d be70 c13d 12ae da3d 6fa3 41bd
000001a0: 4434 0f3d 0984 683d 240f 00bd d99c f63d
000001b0: ec2f b7bd 6a85 e93c b33d bcbd ed39 f03d
000001c0: 82bf c63d 1354 7c3d 0e08 d6bd b52e 1839
000001d0: 375c 23bd fc15 f83d 372c acbd 3685 02bd
000001e0: 9e88 b1bc 138c fa3d 39e9 623d 57b4 0d3b
000001f0: 3dea 0f3d 8757 a63d a75c 99bd a218 01be
00000200: 7b15 c23d b616 82bd f25a 823d aed4 133c
00000210: 27bf 23bd 2aa3 eabd 0151 a53d 8d0e f9bd
00000220: 47e4 fabd fc9e 65bd dd66 eabc 027d 243d
00000230: 822c 803c d47d db3d 54bb 853d 34d5 3dbc
00000240: 8643 a8bd b8e6 c7bd f20f 24bd bc38 ebbc
00000250: e144 e33d f0ce 9dbd ae8b fb3c 19e6 18bd
00000260: 5a2a 62bd 3063 22bd c829 12be a0e9 513d
00000270: a85e a43c c680 9c3d d6e4 953d 9a7d 97bc
00000280: 0e87 a43a 6a6e 62bd d2d4 a83d f240 a63d
00000290: 7be3 903b 2cdc b9bd 4c66 6d3d f60e 9a3c
000002a0: 5b09 4f3d 574e ee3d bb62 603d 6bdd 22be
000002b0: 4aef 02bd f7a3 a1bd 2d66 fbbd 0a9f 19bc
000002c0: 9582 f23d db7b fbbd bf58 e53d 9474 88bd
000002d0: 0646 c0bd c119 d1bd 4631 513d 16e3 f4bd
000002e0: c69b a53d 976d f4bd 1041 c23d f4e9 14be
000002f0: 2162 1abe 74d4 953d 0ea3 4cbd b2b7 e9bd
00000300: 47ff e4bd 499c 553d 3f43 d83c c84c 69bd
00000310: b2e8 9bbc 56f9 afbb 0ad9 aebd c7db 6bbd
00000320: 789e 43bd 37c9 cabd 164e a8bd ceaf afbd
00000330: 803f 58bc 0b8c 60bd c26d 9b3d e427 87bd
00000340: 8228 0dbe 4a46 a83d 25e3 8abd 0acd c8bd
00000350: 073f dc3d 6a0e c1bd 04fb 64bb 44ce cbbd
00000360: 0ffa 523d 35ae 98bd 1216 0cbe ab65 a8bd
00000370: f7f4 21be d9b9 7f3d 13cf 0abe 73ea cebb
00000380: d7d4 04be b820 24be 83ef d23d ef4b 2d3c
00000390: 5f7b cb3c d645 a33d 3220 ca3d 35c5 d5bd
000003a0: c26c c2bd 0e38 b5bd 8bf1 8fbd 2d1b ed3b
000003b0: dfb9 42bd a7be 9b3d 7511 d8bd 59ad b83d
000003c0: 745f e83d 8f17 a1bc 3ccb 8a3c df46 003d
000003d0: d90d 293d a7bb 393c 10ed 13bd 8d76 86bb
000003e0: c55c da3d f167 7ebd bd5d 79bd 84eb 8bbd
000003f0: 6152 c23c 95f4 e63b 2651 e4bd 0a02 d7bd

encoder.layers.1.nn.net.0.bias f4 [64]
-0.008803119 0.1172054 -0.02856807 0.07952184 -0.07793764 0.08430611 -0.033464827 -0.036054906
0.109039344 -0.061740477 -0.098499775 0.12454144 -0.004693942 0.06380005 0.09589408 -0.09755154
-0.059788786 -0.02233082 -0.08453559 -0.036768585 -0.055383664 0.13538016 -0.058654804 -0.09795921
-0.12337092 -0.09399381 -0.12151325 0.037156835 -0.00907464 0.111097045 -0.10537881 -0.025003228
-0.014824232 -0.0018707765 0.0791536 -0.08367 -0.120269105 -0.08076126 0.009831952 -0.11785138
0.064089805 0.04475766 -0.105530486 0.035638765 -0.09097865 -0.030370653 -0.074180976 0.02007222
-0.05844151 -0.0133754825 0.051091116 -0.033335734 -0.031100815 -0.009983306 0.10280715 -0.040721487
0.08221785 -0.051784106 -0.10549773 -0.030854736 0.0064723613 0.058902867 0.0456551 -0.059673715
00000000: f53a 10bc 6209 f03d 9607 eabc 59dc a23d
00000010: c59d 9fbd afa8 ac3d 6a12 09bd 4fae 13bd
00000020: 0550 df3d 95e3 7cbd 40ba c9bd 950f ff3d
00000030: a4cf 99bb 9aa9 823d 1e64 c43d 1ac9 c7bd
00000040: 16e5 74bd 20ef b6bc ff20 adbd a89a 16bd
00000050: fbd9 62bd 19a1 0a3e 0540 70bd d79e c8bd
00000060: e5a9 fcbd d47f c0bd f0db f8bd c431 183d
00000070: cdad 14bc d986 e33d d8d0 d7bd 92d3 ccbc
00000080: 56e1 72bc d834 f5ba 481b a23d 2d5b abbd
00000090: a64f f6bd 2966 a5bd 3216 213c 105c f1bd
000000a0: 8441 833d cf53 373d 5e20 d8bd f4f9 113d
000000b0: 0453 babd e0cb f8bc 32ec 97bd 7f6e a43c
000000c0: 5d60 6fbd d724 5bbc eb44 513d 0d8b 08bd
000000d0: 23c7 febc 0591 23bc 8e8c d23d 93cb 26bd
000000e0: d561 a83d 921b 54bd 320f d8bd 12c3 fcbc
000000f0: 1a16 d43b 2244 713d d800 3b3d 6d6c 74bd

encoder.layers.1.nn.net.2.weight f4 [64, 64]
0.025596801 -0.038824692 -0.047805212 0.114733495 0.018619157 0.030356081 0.0025942512 -0.05488722
-0.009783805 0.093334496 0.021863477 -0.110751204 0.0023168616 -0.024586262 -0.024083912 0.030345358
0.121748544 0.08626764 -0.08367473 0.06340678 0.045036573 -0.07049598 -0.029849706 0.019817796
0.05911776 0.012365348 -0.10783389 0.07501496 -0.04532905 -0.009319764 -0.04028944 -0.017523315
0.072478965 0.08300449 0.03261948 0.033316415 -0.1242741 -0.10537082 -0.025545262 0.05004113
0.10753355 0.1038429 0.12331894 -0.10234772 0.092352584 0.016572038 -0.09438704 -0.031994548
-0.02104975 0.0622961 -0.07665013 0.010465249 -0.06502612 0.018326338 0.01385627 0.111381896
-0.07184286 -0.13159171 -0.033512842 0.060968574 0.077424675 -0.087735824 -0.04467345 -0.029978435
-0.026104314 -0.11705369 -0.0054675923 -0.1253218 0.108322434 0.03635638 -0.06704933 -0.034603573
-0.0038913921 -0.03139929 -0.042466223 0.037954755 0.011967955 0.10006858 0.106396504 0.07265169
0.078763254 -0.04157508 -0.04613758 0.060462423 -0.017519336 0.014114929 -0.02991214 0.014864725
0.10053925 0.12403702 -0.031976912 0.014730033 -0.0026292102 -0.034435716 -0.12625906 -0.07857203
-0.12121568 -0.06253701 0.0550739 -0.11639864 -0.019750694 0.0060120174 0.13754061 0.08763931
0.03523834 -0.044757362 0.025402805 -0.013318688 -0.020373136 0.11626333 0.03696087 -0.12831476
0.07643667 0.059041567 0.12750216 0.056096118 -0.09579865 0.13722761 0.08175612 0.064573735
0.09376704 0.11102095 0.035390303 -0.024735216 0.03622483 0.029890813 -0.0837082 -0.09185256
-0.08696609 0.09394404 0.019085104 -0.032362647 -0.002328162 0.099544615 -0.054643665 0.08637268
0.027938392 -0.022595445 0.092306815 0.10298153 0.05720279 0.15126698 -0.0110947415 0.006949075
0.09695455 -0.016596861 0.076847404 -0.101330675 -0.0027678479 -0.016780179 -0.1102057 -0.079556875
0.048531152 -0.085825674 -0.04600821 0.119224176 0.027956251 -0.08682598 0.029785085 -0.09853249
0.0044733672 0.10439368 -0.096903026 0.00037637548 -0.04651899 -0.024849737 -0.026615685 0.026933964
0.0037335274 0.0095113395 -0.053091157 -0.029746234 0.057828486 -0.0011450023 -0.0034494419 -0.07909057
0.11189439 -0.026974536 0.06879184 -0.09378971 0.056060866 0.0027018476 0.025744006 -0.018528625
-0.11163085 0.08422883 -0.011768187 -0.075264454 -0.09826671 -0.034574095 0.06486131 0.10281405
-0.0067018615 -0.06119329 -0.032917313 0.085322246 0.047022786 -0.09962968 0.028695097 -0.09574253
-0.024801858 -0.08960321 0.021953011 -0.0813709 0.10254121 -0.075909756 -0.063569255 -0.03359745
-0.060737573 0.028824758 -0.06046192 -0.103518054 -0.034165915 0.04593713 -0.008955701 0.0987264
0.019767914 0.075190224 -0.11237427 -0.025806572 -0.0351843 -0.0848497 -0.05829219 -0.08651296
-0.035251517 -0.04106551 -0.13562231 -0.059227556 -0.111317255 0.012518285 -0.042374324 -0.047366794
-0.069301754 -0.043449182 0.08482354 -0.018999115 -0.06734369 0.060819153 -0.119681545 -0.018956572
-0.13168631 -0.049287662 -0.052146826 0.10902293 0.10122322 -0.10541804 0.005982693 0.045107786
0.10765321 0.07525945 0.04696065 -0.075013354 0.13930427 -0.09101371 0.0033388736 0.0524688
00000000: 62b0 d13c a406 1fbd 66cf 43bd 65f9 ea3d
00000010: 3487 983c 51ad f83c 5004 2a3b 6cd1 60bd
00000020: 414c 20bc 2826 bf3d 091b b33c 87d1 e2bd
00000030: 7dd6 173b 2169 c9bc a04b c5bc d496 f83c
00000040: 4d57 f93d 17ad b03d a85d abbd 6adb 813d
00000050: 4578 383d 3260 90bd 5f87 f4bc ee58 a23c
00000060: 7725 723d 0798 4a3c 04d8 dcbd 71a1 993d
00000070: f4aa 39bd ecb1 18bc 8a06 25bd 0e8d 8fbc
00000080: da6f 943d 42fe a93d 019c 053d cb76 083d
00000090: 6b83 febd a8cc d7bd 4c44 d1bc eef7 4c3d
000000a0: 8d3a dc3d 96ab d43d a48e fc3d ae9b d1bd
000000b0: 5a23 bd3d 15c2 873c fe4d c1bd b70c 03bd
000000c0: 8670 acbc 322a 7f3d befa 9cbd 7076 2b3c
000000d0: 6a2c 85bd 1e21 963c 6905 633c 311c e43d
000000e0: 5922 93bd fabf 06be c344 09bd 2fba 793d
000000f0: d490 9e3d d7ae b3bd 82fb 36bd 5695 f5bc
00000100: b7d8 d5bc d8b9 efbd 7d29 b3bb 5c54 00be
00000110: 27d8 dd3d 6dea 143d 2951 89bd 7abc 0dbd
00000120: ba06 7fbb 8b9c 00bd 10f1 2dbd 7276 1b3d
00000130: 3e15 443c c1f0 cc3d 69e6 d93d 69ca 943d
00000140: a14e a13d a24a 2abd c2fa 3cbd 72a7 773d
00000150: b684 8fbc 4e42 673c 4e0a f5bc 2d8b 733c
00000160: 86e7 cd3d 1f07 fe3d 39fa 02bd 3d56 713c
00000170: d44e 2cbb 770c 0dbd 0e4a 01be 5fea a0bd
00000180: ed3f f8bd 6713 80bd 2b95 613d 6962 eebd
00000190: 35cc a1bc 7500 c53b 72d7 0c3e 3d7c b33d
000001a0: 1456 103d 7f53 37bd 8b19 d03c a036 5abc
000001b0: 90e5 a6bc 781b ee3d 4864 173d f264 03be
000001c0: d48a 9c3d 92d5 713d ed8f 023e 0bc5 653d
000001d0: 1532 c4bd 6585 0c3e c16f a73d 3c3f 843d
000001e0: ef08 c03d f45e e33d 6cf5 103d 82a1 cabc
000001f0: 7d60 143d 94dd f43c 346f abbd 321d bcbd
00000200: 471b b2bd bc65 c03d 5d58 9c3c b28e 04bd
00000210: 1494 18bb 0cde cb3d 09d2 5fbd 29e4 b03d
00000220: 0edf e43c 151a b9bc 5b0b bd3d fbe7 d23d
00000230: 794d 6a3d bbe5 1a3e b8c6 35bc 11b5 e33b
00000240: 1b90 c63d 24f6 87bc 2c62 9d3d 7586 cfbd
00000250: c864 35bb 9676 89bc 87b3 e1bd b7ee a2bd
00000260: 9ac8 463d 5fc5 afbd 1b73 3cbd ce2b f43d
00000270: 8204 e53c d2d1 b1bd daff f33c 67cb c9bd
00000280: 5395 923b 5bcc d53d 1875 c6bd 4354 c539
00000290: b28a 3ebd ad91 cbbc 2309 dabc 9ea4 dc3c
000002a0: 32ae 743b 73d5 1b3c 1d76 59bd 60ae f3bc
000002b0: 90dd 6c3d e713 96ba 0810 62bb 3dfa a1bd
000002c0: e328 e53d b4f9 dcbc bce2 8c3d d214 c0bd
000002d0: 14a0 653d 7b11 313b 18e5 d23c 58c9 97bc
000002e0: b79e e4bd 2a80 ac3d 5bcf 40bc 4024 9abd
000002f0: 0f40 c9bd 919d 0dbd 02d6 843d 2c90 d23d
00000300: 4a9b dbbb d1a5 7abd 4ed4 06bd 6ebd ae3d
00000310: f79a 403d a50a ccbd fb11 eb3c a914 c4bd
00000320: 442d cbbc e381 b7bd cdd6 b33c c9a5 a6bd
00000330: 2001 d23d 9376 9bbd 9930 82bd 7b9d 09bd
00000340: f6c7 78bd e621 ec3c eba6 77bd 4601 d4bd
00000350: 8ff1 0bbd 9228 3c3d efba 12bc 1131 ca3d
00000360: 52f0 a13c 55fd 993d 7b24 e6bd 4e68 d3bc
00000370: 6a1d 10bd aec5 adbd cbc3 6ebd b52d b1bd
00000380: e563 10bd 4f34 28bd 93e0 0abe 9898 72bd
00000390: 4dfa e3bd 7e19 4d3c b390 2dbd af03 42bd
000003a0: 14ee 8dbd c5f7 31bd f7b7 ad3d 08a4 9bbc
000003b0: 7deb 89bd 811d 793d 991b f5bd d04a 9bbc
000003c0: c7d8 06be dce1 49bd e997 55bd 6a47 df3d
000003d0: 1f4e cf3d 6ae5 d7bd 770a c43b f1c2 383d
000003e0: 4979 dc3d a021 9a3d cf59 403d 9aa0 99bd
000003f0: c7a5 0e3e 6565 babd 01d1 5a3b 86e9 563d

encoder.layers.1.nn.net.2.bias f4 [64]
0.103852324 0.020620743 0.053206183 -0.0006558048 -0.07441484 0.0069841784 -0.039463308 0.051819183
-0.11487354 -0.041650046 -0.09818787 -0.08212391 0.06693451 -0.10818255 0.0395756 0.09463624
-0.016285837 -0.027274905 0.009650857 -0.04691579 0.03237527 0.112672456 -0.118050575 0.024549263
-0.1099914 0.061264105 -0.022243412 0.07412271 0.057362463 -0.055435173 -0.037385195 -0.124807134
-0.09666794 0.055589553 0.07571974 0.11273551 0.060414072 -0.07088034 0.037828185 -0.11169635
-0.06918424 -0.008352047 0.10281608 -0.120004416 0.07716785 -0.09143458 0.022756135 -0.086256064
-0.080293894 0.049129717 -0.016626269 -0.0058908234 0.016065976 -0.023066036 -0.04234957 -0.09256973
-0.113167375 0.11403772 -0.004022934 0.0039290385 0.019616473 -0.025681924 0.014560475 -0.07726964
00000000: 87b0 d43d d5ec a83c baee 593d 51ea 2bba
00000010: cf66 98bd 89db e43b 47a4 21bd 5a40 543d
00000020: d242 ebbd 3d99 2abd b916 c9bd 9530 a8bd
00000030: f614 893d d08e ddbd 061a 223d a5d0 c13d
00000040: e069 85bc 9f6f dfbc a11e 1e3c c52a 40bd
00000050: ee9b 043d d1c0 e63d 80c4 f1bd 891b c93c
00000060: 2c43 e1bd 12f0 7a3d d137 b6bc a6cd 973d
00000070: e7f4 6a3d fe0f 63bd 3821 19bd e29a ffbd
00000080: d7f9 c5bd dfb1 633d f312 9b3d e0e1 e63d
00000090: bf74 773d b629 91bd baf1 1a3d 0ec1 e4bd
000000a0: 78b0 8dbd 06d7 08bc 3d91 d23d e0c4 f5bd
000000b0: 2e0a 9e3d 0e42 bbbd 136b ba3c 05a7 b0bd
000000c0: 2071 a4bd 3e3c 493d d033 88bc cf07 c1bb
000000d0: cb9c 833c fcf4 bcbc be76 2dbd 3395 bdbd
000000e0: 4cc4 e7bd 9c8c e93d d1d2 83bb 2abf 803b
000000f0: bab2 a03c e662 d2bc 0f8f 6e3c 8c3f 9ebd

encoder.layers.2.nn.net.0.weight f4 [64, 64]
-0.02899166 0.054046348 -0.01494956 -0.03362436 0.09287555 0.06309946 0.08011911 -0.113162905
0.03663658 0.0684269 -0.040118374 0.026253492 0.09118756 -0.05423545 -0.09102292 -0.13543986
-0.083320685 -0.11484787 -0.041602775 0.036967784 -0.07154746 -0.003864343 -0.022322897 -0.06823411
-0.069641605 0.12429097 -0.012043185 -0.0058329413 -0.01503162 -0.015146351 0.061460987 0.059720304
-0.08285867 -0.09548547 0.03209211 -0.08151205 -0.16722374 0.102888 0.09408518 0.07333931
-0.07254705 -0.02121848 -0.092294365 -0.10009953 0.055604935 -0.00672345 0.08727871 0.022814883
-0.063781604 -0.13666536 -0.071727045 0.10825343 -0.09370541 -0.094327785 0.07229292 -0.014081326
0.042129412 0.016821127 -0.042501967 -0.05506605 -0.06958392 0.111467436 -0.03648033 0.04319737
-0.06279839 -0.035709936 -0.03134564 0.046546977 0.07957657 0.0032573917 -0.10358008 -0.11987501
-0.06830739 0.11902664 0.031586118 -0.13190861 0.043651037 -0.11822803 -0.012114681 0.11623412
0.06229164 0.01519388 0.08512313 0.1195442 0.07307635 0.053012185 0.117513515 -0.09087187
0.049945347 -0.050705448 0.03123884 -0.07052925 -0.05681409 -0.087125376 0.07648594 -0.14462905
-0.07083225 0.028149413 0.010087625 0.08438708 -0.14755856 0.09722634 0.08344787 -0.12968968
0.0013096099 -0.13425867 -0.007753147 0.08844772 -0.08757113 0.121162646 0.07867164 0.017787937
-0.023996605 -0.040562563 0.06927984 -0.0055785435 0.016773522 -0.04791591 0.015557495 0.03305913
-0.017240355 0.06854373 0.05830295 0.06350942 0.08940901 -0.07019206 0.06228824 -0.048355125
0.012517681 0.14127517 0.08701849 0.0065928986 -0.008584367 0.0015788509 -0.037187602 -0.09539706
-0.022068793 -0.022096466 0.13885789 0.033721283 0.10404173 -0.06297184 0.02276965 -0.026298556
0.021164322 0.0262225 -0.006255799 -0.10724364 -0.060856886 -0.021312904 -0.059677135 -0.013142769
-0.0065882867 0.07714191 0.07445697 -0.024310369 -0.0065467753 -0.13717362 0.08085333 0.02201132
0.05102793 0.07586451 0.0690438 0.07543547 0.06703512 -0.026406443 -0.04751495 -0.07719533
-0.07332826 0.07161758 -0.10142315 0.097910106 0.024181025 -0.08060189 -0.010840616 -0.08404521
0.058761157 -0.13261433 0.036247447 0.07842488 -0.0240904 -0.105440065 -0.041084133 0.0543539
0.09069521 0.023202319 0.10651797 -0.039591376 0.058183577 0.014621475 -0.12716481 0.07945714
-0.05385637 0.10493958 0.00813463 0.11100518 -0.04393662 -0.07751999 0.11768013 0.03262152
-0.08414882 -0.13070227 0.116343126 0.062566206 0.11294241 0.015955476 0.052465957 -0.023527807
-0.013755504 0.087161735 -0.07735869 -0.07170919 0.01655451 0.027727505 -0.054461736 0.013698546
-0.10644921 0.059895184 0.0032783037 0.08319323 -0.07891749 -0.09417371 -0.077096716 -0.11841968
-0.048563987 0.10139185 -0.023888545 -0.011388987 -0.0112596685 0.059195895 -0.05539219 0.027163671
0.10098293 -0.11782608 0.041478883 0.13141383 0.11280141 -0.0088875815 0.12770902 -0.08738544
0.11990091 -0.030413145 0.074520156 0.05616394 0.046663336 0.0027973838 -0.055360433 -0.038667876
-0.08047209 0.10739287 -0.04472298 0.10201364 0.071171306 0.042238332 -0.0902073 0.10120091
00000000: eb7f edbc b45f 5d3d 00ef 74bc b2b9 09bd
00000010: 8935 be3d 4a3a 813d 7d15 a43d f4c1 e7bd
00000020: 3d10 163d 6723 8c3d 2a53 24bd 9011 d73c
00000030: 8bc0 ba3d fe25 5ebd 3a6a babd bfb0 0abe
00000040: 09a4 aabd 5c35 ebbd ac67 2abd 886b 173d
00000050: 7a87 92bd eb40 7dbb 82de b6bc 53be 8bbd
00000060: 42a0 8ebd 448c fe3d c750 45bc 4222 bfbb
00000070: 2f47 76bc 6728 78bc 84be 7b3d 479d 743d
00000080: ceb1 a9bd e38d c3bd 0473 033d caef a6bd
00000090: b33c 2bbe f2b6 d23d bbaf c03d ec32 963d
000000a0: 8c93 94bd 61d2 adbc d404 bdbd fb00 cdbd
000000b0: 00c2 633d 6350 dcbb 2ebf b23d 47e6 ba3c
000000c0: ee9f 82bd 01f2 0bbe a1e5 92bd f9b3 dd3d
000000d0: 9fe8 bfbd ed2e c1bd 4f0e 943d 5db5 66bc
000000e0: e48f 2c3d 76cc 893c 8b16 2ebd f08c 61bd
000000f0: 0482 8ebd 0a49 e43d 666c 15bd baef 303d
00000100: 719c 80bd 9544 12bd 4964 00bd 0ba8 3e3d
00000110: 0af9 a23d f779 553b cb21 d4bd 0781 f5bd
00000120: bfe4 8bbd 3dc4 f33d 7260 013d 0d13 07be
00000130: 6ecb 323d 8a21 f2bd a87c 46bc 280c ee3d
00000140: 8525 7f3d c0ef 783c 0955 ae3d 97d3 f43d
00000150: 0ea9 953d 4e23 593d edaa f03d 081b babd
00000160: 7e93 4c3d 84b0 4fbd 99e8 ff3c a471 90bd
00000170: e4b5 68bd ca6e b2bd a9a4 9c3d a319 14be
00000180: 8010 91bd 9999 e63c 9146 253c 22d3 ac3d
00000190: 9719 17be 9a1e c73d b8e6 aa3d 5fcd 04be
000001a0: 37a7 ab3a 1b7b 09be 1c0e febb 1424 b53d
000001b0: 7e58 b3bd 1f24 f83d 991e a13d 02b8 913c
000001c0: 8794 c4bc ee24 26bd 97e2 8d3d 37cc b6bb
000001d0: a068 893c 7943 44bd dde4 7e3c 0369 073d
000001e0: a53b 8dbc a860 8c3d 13cf 6e3d 3a11 823d
000001f0: 121c b73d dbc0 8fbd f421 7f3d 0610 46bd
00000200: f616 4d3c 70aa 103e c036 b23d 3e09 d83b
00000210: 72a5 0cbc 72f1 ce3a 0752 18bd 895f c3bd
00000220: 9dc9 b4bc a603 b5bc c330 0e3e 541f 0a3d
00000230: d513 d53d 61f7 80bd 6b87 ba3c 1270 d7bc
00000240: cd60 ad3c 91d0 d63c 72fd ccbb 8ea2 dbbd
00000250: 1245 79bd 6698 aebc 0370 74bd c554 57bc
00000260: 8ee2 d7bb 94fc 9d3d e57c 983d 8a26 c7bc
00000270: 5586 d6bb 3e77 0cbe 6e96 a53d 1551 b43c
00000280: aa02 513d da5e 9b3d d666 8d3d e97d 9a3d
00000290: b649 893d 5352 d8bc 099f 42bd 9618 9ebd
000002a0: 202d 96bd 3dac 923d f1b6 cfbd 1885 c83d
000002b0: 4917 c63c 9b12 a5bd d79c 31bc e51f acbd
000002c0: 8aaf 703d 0dcc 07be 3478 143d 399d a03d
000002d0: 3b59 c5bc f6f0 d7bd d647 28bd 32a2 5e3d
000002e0: 69be b93d ca12 be3c 1826 da3d 912a 22bd
000002f0: e751 6e3d e98e 6f3c 7e37 02be 6dba a23d
00000300: 7f98 5cbd 90ea d63d 1c47 053c af56 e33d
00000310: e3f6 33bd cdc2 9ebd 4802 f13d 259e 053d
00000320: 3756 acbd d1d6 05be 4e45 ee3d b622 803d
00000330: 5a4e e73d 0fb5 823c 8be6 563d 63bd c0bc
00000340: c45e 61bc da81 b23d 3c6e 9ebd 45dc 92bd
00000350: 539d 873c cb24 e33c 4513 5fbd de6f 603c
00000360: 0b02 dabd a754 753d cfd8 563b 3661 aa3d
00000370: 7e9f a1bd 25de c0bd e2e4 9dbd 0486 f2bd
00000380: 08eb 46bd 88a6 cf3d e9b1 c3bc e098 3abc
00000390: 797a 38bc 6577 723d ece2 62bd 5986 de3c
000003a0: 23d0 ce3d cd4e f1bd c3e5 293d 5991 063e
000003b0: 6d04 e73d 389d 11bc 27c6 023e 23f7 b2bd
000003c0: 9c8e f53d fd24 f9bc 069e 983d 290c 663d
000003d0: 0e22 3f3d 5054 373b 9fc1 62bd 3562 1ebd
000003e0: 8dce a4bd cbf0 db3d 722f 37bd 87ec d03d
000003f0: 43c2 913d 1a02 2d3d 9bbe b8bd 6c42 cf3d

encoder.layers.2.nn.net.0.bias f4 [64]
0.04388723 0.04463241 0.019517284 0.09657991 0.035143513 -0.036423516 -0.03679848 -0.06514265
0.018229382 -0.045732044 -0.030267576 -0.07123134 0.071221575 0.0060065067 0.018934634 0.024264537
-0.038027085 -0.029630342 0.074512266 -0.043186985 -0.07647217 0.12711632 0.12283294 0.07611059
0.109594434 -0.012658509 0.11083512 0.0628724 -0.083023496 -0.024333734 -0.0388123 0.09307317
0.13110378 -0.06909257 -0.016550915 0.035140753 -0.054099105 0.04319179 -0.061980132 -0.034307554
0.045468543 0.0017866343 0.072872035 -0.053032998 -0.008152174 0.042054683 0.03353121 0.117021844
0.0513724 0.11451074 0.081307165 0.023938974 0.038084622 0.013579033 -0.012787588 -0.037300967
-0.064440824 -0.049128983 0.12258281 -0.08482094 0.09888844 0.05554502 -0.08258842 -0.018660866
00000000: 19c3 333d 79d0 363d b6e2 9f3c b0cb c53d
00000010: a5f2 0f3d d330 15bd 01ba 16bd 8269 85bd
00000020: c955 953c 8651 3bbd b5f3 f7bc bde1 91bd
00000030: 9edc 913d 3bd2 c43b ce1c 9b3c 6cc6 c63c
00000040: 4ac2 1bbd 55bb f2bc e399 983d d6e4 30bd
00000050: 719d 9cbd c82a 023e d68f fb3d dedf 9b3d
00000060: 0c73 e03d a365 4fbc 86fd e23d 3fc3 803d
00000070: 3908 aabd 8a57 c7bc a5f9 1ebd 259d be3d
00000080: 1240 063e 6880 8dbd c995 87bc c0ef 0f3d
00000090: 0697 5dbd e0e9 303d e1de 7dbd 1486 0cbd
000000a0: 393d 3a3d 802d ea3a ef3d 953d 2139 59bd
000000b0: b290 05bc 8841 2c3d 0658 093d 26a9 ef3d
000000c0: de6b 523d 9b84 ea3d 5f84 a63d ab1b c43c
000000d0: 9ffe 1b3d 987a 5e3c 0883 51bc e6c8 18bd
000000e0: 8df9 83bd 793b 49bd b20c fb3d 9ab6 adbd
000000f0: 0686 ca3d 2d83 633d 1e24 a9bd acde 98bc

encoder.layers.2.nn.net.2.weight f4 [64, 64]
0.016755741 0.039776824 0.099043615 -0.060912114 -0.042969838 0.11650964 -0.09774265 -0.08658688
-0.015547113 0.045367356 0.0024646423 -0.034784798 -0.092384495 0.058464028 -0.021095777 0.06257802
-0.080201656 0.0027255116 -0.032338597 0.0847348 0.06622534 0.0736865 0.06592445 0.05252223
0.04825462 -0.096829586 0.051613294 0.042085353 -0.07958214 0.09650614 0.033235315 -0.07362889
-0.06069505 -0.004547237 -0.0875941 0.046137664 0.07737779 -0.10154458 0.12922555 -0.057827443
0.033535127 0.084256425 0.0771963 -0.12171968 -0.12098541 0.054206923 -0.12924504 -0.030030895
0.11792701 -0.044093322 0.15287635 -0.015746454 0.06798866 0.079145044 -0.0367951 0.045949843
0.0039176964 -0.012830288 -0.031579383 0.052764945 0.038740907 -0.12070959 0.083396 0.07781518
0.035689775 -0.05583236 0.011089585 0.016040692 0.080748275 -0.06319659 -0.0013393738 -0.08428727
-0.04239514 -0.14208393 0.01625907 0.028625347 -0.079619005 0.11471877 -0.08342695 0.032763712
0.045320842 -0.12450172 0.1203369 0.043188404 0.005893119 -0.13130096 -0.005664964 0.07671442
-0.09119706 -0.045169547 0.09658152 0.0644891 -0.11380495 0.019995255 0.08708981 0.10289265
0.0783066 -0.045232337 -0.048627153 0.04185649 0.017125374 -0.13487348 0.12386561 0.04709053
0.07640038 -0.053421855 -0.060072716 -0.038625546 -0.07642434 0.02693288 -0.042901453 -0.052452687
-0.09288259 0.014312629 0.08647318 -0.113396585 0.021801336 -0.024598524 0.10874254 -0.06573225
-0.045597874 -0.08119593 0.004199038 -0.097798534 -0.116795704 0.015049736 -0.097706996 0.007592845
-0.035495512 0.03926656 0.07987941 -0.07420844 -0.058628052 0.06602755 0.027538395 -0.066714026
0.11353019 0.01326031 -0.057911165 0.04047857 -0.059633296 0.15116073 0.034922373 -0.06963166
0.044804685 -0.042941075 -0.102156445 0.035991684 -0.05293746 -0.046606492 0.05837964 -0.0062425165
0.018071497 -0.046237044 -0.04668711 -0.037941415 -0.039586894 -0.022878453 0.12222466 -0.07560563
0.07816849 -0.05718989 0.012312748 0.11143047 -0.057909153 0.0548255 -0.11370441 -0.08697996
-0.03161692 -0.024403851 -0.011330229 0.11225684 -0.05114777 0.09695574 -0.05612802 0.036893144
0.0601492 0.07064776 0.050043803 -0.013589516 -0.08247015 0.0030196114 0.010949409 -0.00020168099
-0.006977285 -0.1076311 -0.055355795 0.106133796 -0.073302075 -0.011714684 0.0683007 -0.10050956
-0.07730623 -0.062403195 0.061436214 0.124692984 -0.03401634 0.07721877 0.047805715 0.06633387
0.08081806 -0.032353546 -0.017827524 -0.08341763 0.051793102 -0.0908468 0.009059987 0.025250671
-0.12329991 0.14506586 0.051161606 0.055598702 0.0722515 0.1301147 -0.09146391 0.0041443356
0.06479988 0.052844577 0.052965343 0.0025496203 -0.014173466 0.023186322 0.14974411 -0.037661362
-0.019225597 0.08132357 0.0258008 0.09013098 0.02619974 -0.15700696 0.098794125 -0.0032644367
-0.02974595 0.039498303 -0.02166362 0.071085885 -0.09451431 0.1375753 -0.06079949 -0.042779677
-0.10975002 -0.073362 0.10226898 0.121351995 0.021454751 0.033849735 -0.018997008 -0.07321846
-0.11346101 0.002759253 -0.084159955 -0.01913241 -0.13058528 0.025135312 0.041484732 0.07811296
00000000: 5643 893c 06ed 223d 61d7 ca3d fb7e 79bd
00000010: 2401 30bd 9b9c ee3d 4c2d c8bd 7654 b1bd
00000020: 51b9 7ebc 1fd3 393d d685 213b 817a 0ebd
00000030: 1534 bdbd fa77 6f3d 0dd1 acbc e828 803d
00000040: c440 a4bd 7f9e 323b 7a75 04bd 7089 ad3d
00000050: 27a1 873d f3e8 963d 6603 873d 8d21 573d
00000060: a3a6 453d 974e c6bd 7668 533d b161 2c3d
00000070: f6fb a2bd 03a5 c53d c121 083d beca 96bd
00000080: 5f9b 78bd fd00 95bb 8964 b3bd d9fa 3c3d
00000090: 3f78 9e3d 9bf6 cfbd b453 043e 78dc 6cbd
000000a0: 215c 093d a28e ac3d 1819 9e3d 2b48 f9bd
000000b0: 33c7 f7bd 1408 5e3d d058 04be 5a03 f6bc
000000c0: b783 f13d 339b 34bd 9e8b 1c3e b5fe 80bc
000000d0: a33d 8b3d cc16 a23d 75b6 16bd e735 3c3d
000000e0: 0560 803b 2136 52bc 6259 01bd 0e20 583d
000000f0: c9ae 1e3d 9736 f7bd 86cb aa3d 915d 9f3d
00000100: 712f 123d 79b0 64bd 17b1 353c c567 833c
00000110: 5a5f a53d 376d 81bd ed8d afba ce9e acbd
00000120: 87a6 2dbd 737e 11be be31 853c b47f ea3c
00000130: 4a0f a3bd adf1 ea3d c0db aabd 3e33 063d
00000140: 59a2 393d c2fa febd 3173 f63d 53e6 303d
00000150: 111b c13b c273 06be 2aa1 b9bb 731c 9d3d
00000160: 86c5 babd b403 39bd 88cc c53d dc12 843d
00000170: 9212 e9bd 17cd a33c 245c b23d 62b9 d23d
00000180: 365f a03d 8b45 39bd 442d 47bd b671 2b3d
00000190: 834a 8c3c 461c 0abe 41ad fd3d 00e2 403d
000001a0: cd77 9c3d e0d0 5abd cf0e 76bd d235 1ebd
000001b0: 5d84 9cbd 58a2 dc3c 6fb9 2fbd a1d8 56bd
000001c0: 3a39 bebd 847f 6a3c da18 b13d 783c e8bd
000001d0: b798 b23c d882 c9bc 69b4 de3d a19e 86bd
000001e0: d6c4 3abd 0d4a a6bd 1598 893b 994a c8bd
000001f0: 9632 efbd 2b93 763c 9b1a c8bd 66cd f83b
00000200: be63 11bd f9d5 203d d197 a33d 98fa 97bd
00000210: f823 70bd 7439 873d 3398 e13c 5da1 88bd
00000220: 8482 e83d c541 593c 4234 6dbd dbcc 253d
00000230: 0b42 74bd e1c9 1a3e c30a 0f3d 0b9b 8ebd
00000240: 1e85 373d fbe2 2fbd 6637 d1bd 046c 133d
00000250: f3d4 58bd 73e6 3ebd 7d1f 6f3d 068e ccbb
00000260: ad0a 943c 0e63 3dbd fc3a 3fbd 7568 1bbd
00000270: de25 22bd 986b bbbc ec50 fa3d 20d7 9abd
00000280: cd16 a03d f23f 6abd 68bb 493c a935 e43d
00000290: 2632 6dbd b490 603d dcdd e8bd 8d22 b2bd
000002a0: be80 01bd 96ea c7bc 6da2 39bc eae6 e53d
000002b0: 5380 51bd bb90 c63d 7fe6 65bd 441d 173d
000002c0: 025f 763d c6af 903d bbfa 4c3d 90a6 5ebc
000002d0: 1ce6 a8bd ace4 453b 2665 333c 547a 53b9
000002e0: b5a1 e4bb b26d dcbd c2bc 62bd ad5c d93d
000002f0: 661f 96bd f2ee 3fbc 3de1 8b3d f5d7 cdbd
00000300: bb52 9ebd 7e9a 7fbd 8aa4 7b3d 095f ff3d
00000310: b854 0bbd e024 9e3d edcf 433d 0dda 873d
00000320: f083 a53d 2785 04bd 070b 92bc ddd6 aabd
00000330: 0125 543d e30d babd 5770 143c 7fda ce3c
00000340: aa84 fcbd 258c 143e d58e 513d 77bb 633d
00000350: 98f8 933d ca3c 053e 6e51 bbbd 35cd 873b
00000360: cdb5 843d 8e73 583d 30f2 583d 8817 273b
00000370: d337 68bc 3ef1 bd3c 8556 193e cd42 1abd
00000380: 007f 9dbc f98c a63d 335c d33c 9796 b83d
00000390: d6a0 d63c 6fc6 20be 9354 ca3d 29f0 55bb
000003a0: c7ad f3bc f9c8 213d e777 b1bc 7a95 913d
000003b0: b890 c1bd 8ae0 0c3e e308 79bd be39 2fbd
000003c0: 9ec4 e0bd d13e 96bd 6672 d13d 6587 f83d
000003d0: e0c1 af3c 05a6 0a3d 9d9f 9bbc 8ff3 95bd
000003e0: 3f5e e8bd 95d4 343b 0e5c acbd 92bb 9cbc
000003f0: 26b8 05be 92e8 cd3c e5eb 293d b0f9 9f3d

encoder.layers.2.nn.net.2.bias f4 [64]
-0.0450754 -0.006640993 -0.04292441 0.1022697 -0.0610987 -0.08743072 -0.0144155 0.026605835
0.057298098 -0.010714053 0.035191856 -0.11422139 0.03785063 -0.039061025 0.05759086 -0.04517222
0.027531786 0.12551378 0.10694915 0.03612853 -0.114808336 0.03810944 0.0027023908 0.08311402
0.122017235 -0.023379572 -0.065359026 0.097975716 0.09020096 -0.100840546 -0.1265779 -0.01578622
-0.073760994 -0.007702028 0.039360076 0.026352825 -0.0781336 0.054422252 0.057444554 -0.055166736
0.007874859 -0.048261248 0.0029011695 0.043758098 0.091196805 0.03392027 0.0026373696 -0.07267137
0.06252019 0.030768612 -0.07293232 -0.035408493 0.025979191 -0.041553024 0.08388987 -0.09303497
-0.10433992 0.12898585 0.025545755 -0.055906244 -0.0706458 -0.024056375 0.101808704 0.11187059
00000000: fca0 38bd b09c d9bb 82d1 2fbd c772 d13d
00000010: a142 7abd e10e b3bd fd2e 6cbc 7bf4 d93c
00000020: 69b1 6a3d ff89 2fbc 5625 103d e7ec e9bd
00000030: 4309 1b3d 74fe 1fbd 65e4 6b3d 8106 39bd
00000040: 578a e13c af86 003e 2808 db3d 82fb 133d
00000050: a220 ebbd a518 1c3d 981a 313b af37 aa3d
00000060: 2ce4 f93d 8486 bfbc f4da 85bd 7ea7 c83d
00000070: 48bb b83d 7d85 cebd a39d 01be 1a52 81bc
00000080: 0110 97bd 4b61 fcbb 0838 213d e1e1 d73c
00000090: 8204 a0bd dee9 5e3d fb4a 6b3d 84f6 61bd
000000a0: 8d05 013c 96ad 45bd 8c21 3e3b b13b 333d
000000b0: 64c5 ba3d fbef 0a3d b8d7 2c3b bad4 94bd
000000c0: 960a 803d 750e fc3c 8a5d 95bd 7f08 11bd
000000d0: 50d2 d43c 8133 2abd 74ce ab3d 1e89 bebd
000000e0: 2bb0 d5bd de14 043e 5545 d13c f2fd 64bd
000000f0: bfae 90bd e011 c5bc 1581 d03d 681c e53d
