scripts/embeddings_gin_version2/MUTAG/gin_dim128_ep40_lr0.001_drop0.0/gin_classifier.pt (torch, 629469 bytes, 42 tensors)

encoder.layers.0.nn.net.0.weight f4 [128, 7]
000000 8d 32 8e be 84 28 0b 3e d4 18 0a be 42 89 23 be
       -0.27772942 0.13589674 -0.13486034 -0.15970328
000010 44 02 93 3e eb 25 aa 3e b5 61 31 3e 24 93 86 be
       0.28712666 0.33232054 0.17322429 -0.26284134
000020 2e f0 05 be c9 02 26 3e af aa 2d bd bd d7 6c be
       -0.13079903 0.16212 -0.042399105 -0.23129173
000030 a9 7e 57 3d 29 b7 45 bd 5f 95 93 be 04 bd 62 bd
       0.052611027 -0.04827038 -0.288249 -0.05535604
000040 69 e0 98 bb dd c0 12 be ab 61 58 be 89 7d 07 3e
       -0.0046654237 -0.14331384 -0.21131007 0.13231482
000050 70 bf 0a 3e 76 cb a8 be e6 81 98 3e 1a 4c 48 3e
       0.1354959 -0.32967728 0.29786605 0.1956028
000060 04 de 97 3d 82 74 43 be a4 d5 9d 3e 0a fa 99 3e
       0.07415393 -0.19087413 0.30827057 0.30073577
000070 93 ce 2b be 93 34 47 be ce 6d b9 3e 59 a5 74 3e
       -0.1677802 -0.19453649 0.36216587 0.238912
000080 3a 37 3e 3e c3 40 81 3e 60 c6 8a be ae 4b ad 3e
       0.18575755 0.25244722 -0.27104473 0.33846802
000090 e9 4f 84 3e 16 e5 9e be 6a e5 79 bc 02 ed f3 bd
       0.25842217 -0.31034154 -0.0152524505 -0.1191044
0000a0 22 dd 93 bd a7 cd c4 ba 22 75 1e be 68 6d ab 3e
       -0.07219912 -0.0015014902 -0.1547437 0.33481908
0000b0 05 67 46 be c4 9d f0 bd cb f9 52 3d 12 fe 99 bd
       -0.19375236 -0.117488414 0.051507752 -0.07519163
0000c0 c5 c3 43 3e 92 81 da 3d e7 17 a7 be e5 84 91 3b
       0.19117649 0.10669245 -0.32635424 0.004440891
0000d0 81 04 76 bd 8a 7a a6 bd 3e f2 d7 3d dc 2e 07 3e
       -0.06006289 -0.08128841 0.10544251 0.13201469
0000e0 d4 6d 6f bc 07 c7 14 3d 56 b2 d6 bc 22 49 e9 bd
       -0.014613587 0.03632262 -0.026208084 -0.11390902
0000f0 68 c2 07 be 6f cc 9f be 32 87 04 bc 00 8e c2 bd
       -0.13257754 -0.31210658 -0.008088874 -0.094997406
000100 14 1f 81 be 7d 19 ba 3e fe aa 1f be 04 4c 29 be
       -0.25219023 0.3634757 -0.15592572 -0.16532904
000110 4c 56 b7 be 9e db 21 3e b4 1b 1a 3e f6 77 9f 3e
       -0.35808027 0.15806434 0.1504963 0.3114621
000120 7c c0 b1 be 23 c1 b9 be 9a d8 69 3e f1 82 5a be
       -0.34717166 -0.36280164 0.22836533 -0.21339013
000130 59 21 ed 3c c9 ce a8 3e 5d 3c 6f bd 6f 09 8d be
       0.028946565 0.32970265 -0.058407176 -0.2754626
000140 a9 f7 a5 be c4 3d 86 3d 46 e5 48 3c b9 f8 cf bd
       -0.32415512 0.065547496 0.012261694 -0.10154862
000150 4e cc 11 bd 40 71 71 3e ea 38 28 3e 1b 4e 8a be
       -0.03559523 0.23578358 0.16427961 -0.27012715
000160 0b dc f5 3d 94 a8 57 3d 91 19 da 3d 47 c6 99 3e
       0.120048605 0.052651003 0.10649408 0.30034086
000170 00 96 b3 be 4e 11 10 be 01 7f cf 3d b1 1e ad be
       -0.35075378 -0.14069101 0.10131646 -0.33812478
000180 15 12 37 3d c3 02 bf 3e 7b 79 b4 be 2b af a7 bd
       0.04469498 0.37306795 -0.35248932 -0.081877075
000190 20 69 5a 3e 5d 5e 6c 3e 2c 8c 82 be ff 3c 72 be
       0.21329165 0.23082872 -0.25497568 -0.2365608
0001a0 64 90 0e bd d7 32 55 3e 04 ec 92 be dd ab 08 be
       -0.03480567 0.20820175 -0.2869569 -0.1334681
0001b0 59 ad 81 3e 13 c7 16 be b4 b0 c3 3e 02 4d 6b 3e
       0.25327566 -0.14724378 0.3822075 0.22978595
0001c0 c8 10 b1 bd a9 b4 a0 be 9a 6f 09 be 7c ee bc bd
       -0.08645779 -0.31387833 -0.13421479 -0.09225175
0001d0 98 31 86 3e 42 92 19 be 16 db 02 bd 6a 67 f5 bb
       0.26209712 -0.14997199 -0.031947218 -0.0074891346
0001e0 04 91 4e 3e 9c e2 88 be 48 f9 cc bd af f6 ab 3d
       0.20172507 -0.2673539 -0.10008484 0.083966605
0001f0 0e fc 66 be 71 c9 a6 be c4 17 99 3d ce eb 31 be
       -0.22557089 -0.32575563 0.07475236 -0.17375109
000200 dd 7f b2 bd 1a 85 4c 3e 03 f7 79 bb 99 8f 16 3c
       -0.08715794 0.19972649 -0.0038141615 0.00918951
000210 1b b4 c1 3e ba 0b 9d 3e 99 44 29 be 98 38 a5 bd
       0.37832722 0.3067301 -0.16530074 -0.08067435
000220 11 91 f3 3d e0 35 99 3e 4f 71 97 be 54 a9 85 3e
       0.118929036 0.29923916 -0.29578635 0.2610575
000230 b0 eb d8 bd ba f6 6e 3e 7d 11 a2 be c4 51 73 3e
       -0.10591829 0.23336306 -0.31653967 0.2376166
000240 0f 91 7a be f2 8a 7b bd 09 bc 4c 3e 4a 99 5a be
       -0.24469398 -0.061411805 0.19993605 -0.21347538
000250 cd 31 43 be 5f 4b 9b 3e 3a 5e bd 3e 21 28 4c 3e
       -0.19061966 0.3033094 0.36985952 0.19937183
000260 39 af 41 be 01 e9 f8 3d b6 59 88 bd f1 65 be 3c
       -0.18914498 0.12153817 -0.06657736 0.023241969
000270 3a e4 b4 3e e2 2f a3 be 1b a9 93 3e 70 33 1a be
       0.35330373 -0.3187247 0.28839955 -0.15058684
000280 d4 cc 35 3e 38 46 cd bd 40 44 a7 be 76 27 c3 3d
       0.17753917 -0.10023159 -0.32669258 0.09529011
000290 d9 86 aa bd f9 49 0c 3e 3c 11 80 be 39 79 d7 3d
       -0.083265014 0.13700093 -0.2501315 0.10521168
0002a0 41 f2 1f be 25 dc 69 be ab 82 b8 3e 63 7c 5a be
       -0.15619756 -0.22837885 0.36037192 -0.21336512
0002b0 35 93 fa bd 80 d1 62 be 9b 21 d5 bd 6d b5 bb 3e
       -0.12235109 -0.2215023 -0.104068 0.36661854
0002c0 e4 3b 9e 3d b0 42 e7 bd 1e 91 9d 3e ca d0 95 3e
       0.07726267 -0.112920165 0.30774778 0.29260856
0002d0 4b 3a 70 be 5e 34 77 be 59 04 3c 3e 39 f7 86 3e
       -0.23459737 -0.2414107 0.18361033 0.2636049
0002e0 ce 34 9a be e2 da 86 be 84 57 9c 3d ad 66 a7 3b
       -0.30118412 -0.2633887 0.0763388 0.0051086755
0002f0 52 0e 49 bd 69 d3 08 be d5 db 8f 3e 49 48 97 be
       -0.049085923 -0.13361897 0.28097406 -0.29547337
000300 df ea ab 3e fc c6 80 3e 44 f9 b1 be cc 38 04 be
       0.3357763 0.25151813 -0.34760487 -0.12912291
000310 69 1e be be ca da bc be 35 c6 0e 3e 6f 58 13 3e
       -0.37132576 -0.36885673 0.13942797 0.14389203
000320 d1 86 9c be 85 dd 2f be 51 1b 98 bc ab 4f 20 3c
       -0.30571607 -0.17174347 -0.018567713 0.009784619
000330 11 35 34 3d 53 93 e4 3b c4 6e 1f 3e dd 39 58 be
       0.04399592 0.00697557 0.15569597 -0.21115823
000340 36 a2 64 3e 96 38 b1 3c 1a 17 79 be f6 1d 9b 3e
       0.22327504 0.021633428 -0.24325219 0.30296296
000350 d8 12 dd bd 31 8a b1 be f3 a5 bf 3e 51 63 ad 3e
       -0.1079461 -0.34675744 0.37431297 0.33864835
000360 b2 b8 3c be 72 44 88 3e 3c a2 b4 3e 69 08 8e be
       -0.1842983 0.2661472 0.35280025 -0.2774079
000370 f0 86 f3 bd 03 88 5b 3e 0b 3c 49 be 31 b3 b0 be
       -0.11890972 0.21438603 -0.19651811 -0.34511712
000380 f7 d1 b6 be 21 f6 a5 3d 05 ec e9 bc 63 07 a6 3e
       -0.35707065 0.08103586 -0.028554926 0.3242751
000390 56 1c d0 bd 27 6d a7 be 34 90 be 3e 58 35 a5 3e
       -0.10161655 -0.32700464 0.37219393 0.3226726
0003a0 d1 d5 c0 3e ee e4 a7 3d 91 93 1a 3e 5e 03 a2 3d
       0.3766313 0.08197962 0.15095355 0.079107985
0003b0 d7 f2 7e be 78 dc 43 3e 14 12 b3 be 8e 4f 22 3d
       -0.24897324 0.19127071 -0.3497473 0.03962665
0003c0 b7 a0 a0 bd 84 71 bc 3e b4 9d 9c 3e 93 b6 b9 be
       -0.07843154 0.36805356 0.30589068 -0.36272106
0003d0 99 ee 9c 3d bd 35 2e 3e bb bb b7 be a5 2e 46 3d
       0.076626964 0.17012687 -0.35885414 0.048384327
0003e0 a4 49 ac be e6 4a d8 3b 2f 7d 95 bd 9c fa b8 be
       -0.33649933 0.0066007255 -0.072992675 -0.361287
0003f0 98 6c 58 bd 34 a5 99 bc 35 b8 5b bd 8b 7b bc 3e
       -0.052837938 -0.018755533 -0.05364247 0.36813006

encoder.layers.0.nn.net.0.bias f4 [128]
000000 c7 21 4f 3e d0 db 88 3e 59 68 29 3e 33 41 d9 bc
       0.20227729 0.26730204 0.16543712 -0.026520347
000010 4a 98 f3 3d c2 87 0d 3e c1 02 31 3e 25 d3 b5 be
       0.11894281 0.13821319 0.17286207 -0.35512653
000020 4b 7f 9d 3e 1b 0a 85 be 75 e2 a4 3b 11 cc 6e 3d
       0.3076118 -0.25984272 0.0050318786 0.05830008
000030 fb 63 27 3e fa 8e 90 bd 09 a2 d4 bd eb 41 bd 3e
       0.16346733 -0.070585206 -0.10382468 0.36964354
000040 2c 26 99 be 5c 33 a1 3d 72 18 ae 3c b6 7f cf 3c
       -0.29911935 0.07871124 0.02125189 0.025329452
000050 07 19 9c 3e a7 41 43 3c b3 15 88 bd 66 03 91 be
       0.30487844 0.011917508 -0.06644764 -0.28322905
000060 c8 35 e1 bd a2 b4 b6 be bf 5e 83 be 42 f4 c2 3c
       -0.10996586 -0.35684687 -0.25658223 0.023798112
000070 87 ad ac 3e c0 bc 1d be f4 57 14 3d a9 d6 64 be
       0.3372614 -0.15404034 0.03621669 -0.22347511
000080 fc fc 7e 3e c3 dd 96 be 09 8d b2 bd a7 05 ab 3d
       0.24901193 -0.29466066 -0.087183066 0.083506875
000090 a4 2c ba 3e 21 16 9f be f9 dc 9a be 32 c3 bc be
       0.36362183 -0.3107157 -0.30246714 -0.36867672
0000a0 7a 66 a9 be 13 9b 7b be a7 b0 60 be eb 68 b1 bd
       -0.33085996 -0.24570875 -0.21942388 -0.0866259
0000b0 00 5c 91 3e fd 87 3d be ef 6b 9a be 67 ab 7e 3e
       0.28390503 -0.18508907 -0.30160472 0.24870072
0000c0 a7 99 bc 3e af be 39 3e 1f 60 a5 be de 9c bf be
       0.36835977 0.18139146 -0.32299897 -0.37424368
0000d0 4e ee b7 bd ca 27 04 3e b4 c9 b6 3b 1e 63 9d 3e
       -0.08981 0.12905803 0.005578244 0.30739683
0000e0 37 a2 ce 3d 38 a6 06 be e8 86 14 3c fc 97 a7 3d
       0.10089534 -0.13149345 0.009065367 0.081832856
0000f0 c8 54 47 be 29 c4 25 3e 56 2a 99 be 4a 52 a3 be
       -0.19465935 0.1618811 -0.29915112 -0.3189872
000100 0e 56 98 be 17 0e 3b 3e 48 64 4f be 0f 85 43 3c
       -0.29753155 0.18267094 -0.20253098 0.011933579
000110 50 5e be 3e 8c 94 e3 bc 52 2a 44 3e f6 d8 b4 3d
       0.3718133 -0.027780794 0.19156769 0.088304445
000120 6f 85 84 be 2c ef 33 3e 2a bf 8e 3d a5 78 42 3e
       -0.25883052 0.17571706 0.069700554 0.18991335
000130 a5 ae 3b 3e 2c 41 8f bc 24 51 e6 3d a1 bf 8a 3e
       0.1832834 -0.017487131 0.11245945 0.27099326
000140 3b b5 b1 be e5 a3 37 3e a3 a0 84 be 43 4c 97 3c
       -0.3470858 0.17933615 -0.25903806 0.018468982
000150 9a 40 c1 be 85 19 10 3e 19 97 a2 be 04 6b 13 3e
       -0.377446 0.14072235 -0.31755903 0.14396292
000160 92 11 8d be 18 4f 80 be 79 7e 85 3e 25 76 1c bd
       -0.27552468 -0.25060344 0.26073053 -0.03819861
000170 84 37 61 3e a9 5f 6a be 12 52 76 be 0c 93 c3 bc
       0.21993834 -0.22888054 -0.24054745 -0.023873828
000180 c4 6e 3e bd fe 57 bc 3a cd dc 84 be 67 aa b6 3e
       -0.046492353 0.0014369485 -0.25949708 0.35676882
000190 93 1d c1 be 01 5d ba 3e fa 68 b1 be 94 72 16 be
       -0.37717876 0.3639908 -0.34650403 -0.14692146
0001a0 e7 ba 92 3d 37 07 76 be 41 e3 c7 bd b0 f6 b7 3e
       0.07164555 -0.2402619 -0.09760142 0.35930395
0001b0 c8 e3 b8 bd af 36 90 be fe 39 ab bd a7 dc 2b bd
       -0.09027821 -0.2816672 -0.083606705 -0.041958477
0001c0 97 a3 71 3e e7 c8 8c be 83 b6 b8 bd 19 d5 aa be
       0.23597561 -0.27497026 -0.09019186 -0.33365706
0001d0 12 de 8d 3e 43 c8 2c bc 8d 91 16 3e 06 9b 60 3d
       0.2770849 -0.010545793 0.1470396 0.054835342
0001e0 16 df ac 3e 4a 7c b5 be a9 38 b1 bc 63 77 8d be
       0.3376395 -0.35446388 -0.021633463 -0.27630147
0001f0 d7 4b ed 3d fc 90 37 be 50 8d 66 3e 82 ca 1d be
       0.11586731 -0.17926401 0.22514844 -0.15409282

encoder.layers.0.nn.net.2.weight f4 [128, 128]
000000 48 40 23 3c 66 9f f4 bb b9 b4 ac 3d d5 bd 7b 3d
       0.009964056 -0.007465291 0.084329076 0.061460335
000010 6b fe 3b 3d 54 7f b7 bc 37 39 68 bd 22 ee 97 bb
       0.04589693 -0.022399582 -0.05669519 -0.004636542
000020 f5 98 c2 bc d1 b7 ec 3a 68 c5 61 bc 72 3d 3c 3d
       -0.023754576 0.0018060153 -0.0137799755 0.045957036
000030 f0 01 5c 3c 9c 6b 7f bc 8e ad 89 bd 68 74 2e bd
       0.013428196 -0.015589621 -0.06722556 -0.042591482
000040 e7 73 8a 3b 42 74 82 3c e5 65 98 3b 2c 8f 9c bc
       0.0042252424 0.015924577 0.0046508186 -0.019111238
000050 32 1b 6b bc b1 cc 54 3c c7 18 c2 3d e9 b4 52 3d
       -0.014349746 0.012988255 0.09477382 0.05144206
000060 92 c7 17 bd 95 02 be 3b af 3a 5e bd 4a 11 d0 3c
       -0.03705556 0.0057986476 -0.054255184 0.025398869
000070 31 4c b9 3c e2 9c c7 bc ea 6c a4 3d 7a aa 8f 3d
       0.022619339 -0.0243668 0.08028586 0.07014938
000080 94 db f4 38 a5 64 03 bc 22 ca 35 bd 3f d0 1b 3d
       0.00011675726 -0.008019601 -0.044382222 0.038040396
000090 44 02 5d 3d b7 9b 95 3d c8 fe bc 3d dc d5 a1 bd
       0.05395724 0.07305091 0.09228283 -0.079021186
0000a0 17 b7 6b 3d c6 fe 64 3d 9f 41 f6 bc 82 de 5d bd
       0.057547655 0.055907033 -0.030060587 -0.054167278
0000b0 1c 75 0f bc 09 95 71 3d ab 70 7e 3a 9d d3 b6 3d
       -0.008755948 0.05898002 0.000970612 0.08927081
0000c0 e7 f6 99 3c 0f 3f 4c bd 89 96 b9 bc 28 82 ad 3d
       0.01879449 -0.049864825 -0.022654789 0.08472091
0000d0 71 54 9a bd 5d d9 60 bc ac 80 24 3d 44 e3 25 3c
       -0.07535637 -0.013723698 0.040161774 0.010124985
0000e0 0f ef ab 3b 0c bb a9 3b 52 f2 67 bd cc 0c a3 bd
       0.005247004 0.0051797684 -0.05662758 -0.07961425
0000f0 e6 90 1c bd 6f d5 95 3d 8e 99 bc 3c f9 db 93 3d
       -0.038224123 0.073161 0.02302244 0.07219691
000100 d9 94 f4 bc 38 32 8b 3d 5e 54 5f bc f7 2c ad 3c
       -0.029856132 0.06796688 -0.013630955 0.021139605
000110 f2 93 ac bc 74 5b f1 3c b7 e3 45 3d 73 1c a2 bd
       -0.02106664 0.029462554 0.04831287 -0.079155825
000120 9f 85 83 3d bf ae df 3a d2 e5 3b 3b 24 d1 ad 3d
       0.064219706 0.0017065628 0.002867092 0.08487156
000130 ae 2d 48 3d a6 d3 c0 3c 92 dc 2b bd 86 13 8c 3c
       0.04887169 0.023538422 -0.0419584 0.017099153
000140 7c c4 b3 bd cc 43 82 bd 6b 2a 00 bd 26 98 7d 3c
       -0.08777711 -0.063605875 -0.031290453 0.01547817
000150 e0 78 23 3c 41 d3 98 3c c6 bb 2e bd 4c 09 93 bd
       0.009977549 0.018655421 -0.042659543 -0.071795076
000160 ba 9d 27 bd 53 de 9d 3d b1 6d 9b bc ca a4 91 bd
       -0.040921904 0.077084206 -0.018973203 -0.07111509
000170 ae 58 ae bd 1d d6 88 bd 4f 49 76 3d 95 c9 0b bd
       -0.08513008 -0.06681464 0.060128506 -0.03412779
000180 ad 33 38 bd 46 5f 94 3d 46 cc 3c 3d 4c a6 99 bd
       -0.044971157 0.072447345 0.046093248 -0.07502422
000190 14 30 92 3d af 2d 4d 3c 08 98 65 3d ae eb a1 bd
       0.071380764 0.012523099 0.05605319 -0.079062805
0001a0 49 fc 9b bd 3f ac 36 3c 3c 1b 12 bc b7 1b a4 bc
       -0.07616479 0.011149465 -0.008917626 -0.020032747
0001b0 5b 9f 97 bd 88 86 4a bc 39 3e 72 bd a7 9e ba 3d
       -0.074034415 -0.012361176 -0.05914137 0.09112292
0001c0 e0 b8 5e 3d 05 13 aa 3d c4 9a a1 3c 64 8a 6e bd
       0.05437553 0.08304409 0.019727118 -0.05823745
0001d0 50 a6 55 3d 7e fb 26 3d 33 bf 0c bd ad 39 94 bc
       0.05216056 0.040767185 -0.03436203 -0.018093908
0001e0 30 5c 9a 3d ad f2 a5 bd 28 04 a9 ba f6 46 81 bc
       0.075371146 -0.08102927 -0.0012894915 -0.015780907
0001f0 93 3e 3d bd aa a2 90 3d 48 f4 33 3d a5 8f 6c bc
       -0.046202254 0.07062276 0.043934137 -0.014438544
000200 7d 11 4b 3d b4 a9 90 bc f9 ae 90 3c c2 e1 9d bc
       0.049577225 -0.017659046 0.017661558 -0.019272689
000210 76 5d 68 3c a9 fb 89 bd 45 90 3e bb cc 55 a9 3d
       0.014182439 -0.067374535 -0.002907769 0.082683176
000220 4b 6a 38 bd d8 1a 26 bc b6 55 4e 3d 0c e5 a3 3d
       -0.045023244 -0.010138236 0.05037471 0.080026716
000230 41 fd 73 3c df 29 c4 3c a0 86 81 3d 7c 27 3b 3d
       0.014891923 0.023945747 0.06324506 0.045691952
000240 2d 56 f9 bb 40 3e b1 bd f6 15 fb 3c aa 5f 75 3d
       -0.00760915 -0.08654451 0.03065012 0.059905685
000250 71 76 c6 3b 04 bd d3 3c f0 a9 8c 3d ae 4b 79 bd
       0.0060566 0.025846966 0.068683505 -0.06086319
000260 14 13 8d 3d 80 af a1 bd 77 af a6 3d 19 41 06 bd
       0.068884045 -0.07894802 0.08138936 -0.032776926
000270 c5 3b 8f bd d3 d4 90 bd 90 0d 7f 3d 69 7c 95 3d
       -0.06993822 -0.07071843 0.062268794 0.0729912
000280 d8 49 8c bd cc cc a0 bd 70 6c 49 3d 02 98 9f 3c
       -0.06850022 -0.07851562 0.04917568 0.019481663
000290 ff 89 0a bc a6 eb b0 3d 8d 18 a9 3c df 26 08 3d
       -0.008455752 0.08638696 0.02064159 0.033240195
0002a0 01 c4 98 3c ce e5 a9 bc 80 37 12 3d f7 72 3f bd
       0.01864815 -0.020739462 0.03569746 -0.0467405
0002b0 b4 bb 13 bd 2c 11 a0 bd 78 ef 6e bd 56 fb ad 3d
       -0.03606768 -0.07815775 -0.058333844 0.08495204
0002c0 d8 d9 b6 bc 98 42 8e bc 32 e0 b6 3c 9d 9b 4f bd
       -0.022320673 -0.017365739 0.022323702 -0.050685514
0002d0 fd ca 65 3d 20 40 a6 3d 0b cb 8d bd 3e a8 fc bc
       0.056101788 0.081176996 -0.06923493 -0.030841943
0002e0 c9 48 d7 bb 96 eb 07 3d 5b 0c ac bb ae 14 80 bd
       -0.006569956 0.033183657 -0.0052504963 -0.06253944
0002f0 c7 41 f8 3b b2 83 72 bd 4e 31 9a 3d da 4b b4 3c
       0.0075762006 -0.059207626 0.075289354 0.022008825
000300 08 ac 51 bd d3 90 a4 bd 04 72 c3 bc 62 80 92 3d
       -0.051189452 -0.080354355 -0.023858078 0.07153393
000310 6d cf 96 bc 7f 58 bd 3d f8 57 06 3d 45 0c 9b 3d
       -0.018409455 0.09245395 0.032798737 0.075706996
000320 64 5b 98 3d ff a0 74 bc e2 e4 11 3d 07 c3 be bc
       0.074393064 -0.014930963 0.03561867 -0.023286356
000330 f8 35 9e bc 3f 41 8e bd d1 41 98 bd 12 99 e7 bc
       -0.019312844 -0.069460385 -0.074344285 -0.028271232
000340 ab a4 4e bd 6e 8a d0 3c f7 39 1b bd 5e fc 5b bd
       -0.05045001 0.025456633 -0.037897076 -0.053707473
000350 b9 15 a5 bd b1 41 83 3d b1 93 38 3d 76 ee 9e 3b
       -0.08060784 0.06409014 0.045062725 0.004850204
000360 c4 1f 7d 3d 49 84 73 bd 0a 80 ac 3d b2 ba 02 bd
       0.061797872 -0.05945233 0.08422859 -0.031916328
000370 62 46 69 3d ca b6 93 ba 24 3c 72 3d 21 86 6d 3d
       0.056951888 -0.0011269685 0.059139386 0.057989243
000380 71 9b 96 3d e0 7c 96 3d 14 d7 ab bc 7f b3 6a bd
       0.07353867 0.07348037 -0.02097658 -0.057300087
000390 4c c2 bd 3d b9 1c 49 3d c1 0c 0a bc 19 c9 8c bc
       0.09265575 0.049099658 -0.008425892 -0.017185735
0003a0 6e 25 16 bd e0 4e 42 bd b6 43 6b bd e1 2c 04 bc
       -0.03665679 -0.047438502 -0.05743762 -0.008067341
0003b0 79 dc 8c bd c0 e0 aa bb 5c 86 80 3d e9 b1 97 bc
       -0.06877989 -0.0052147806 0.06275627 -0.018517451
0003c0 ba 39 97 3d 06 df 9b bd ad b8 a1 bc 6a 73 1f 3d
       0.07384057 -0.07610898 -0.01974138 0.038928427
0003d0 19 1e 07 bd 94 c9 2a bd 93 e3 9f bc 41 82 09 3c
       -0.032987688 -0.041696146 -0.019517696 0.008392871
0003e0 a4 4c 8e 3d 1a 4f 52 3c 08 71 4a bd 74 f7 1e 3d
       0.06948212 0.012836242 -0.0494242 0.03881021
0003f0 52 b4 37 bd b6 e4 20 3d ea f6 d4 3c ed 90 6d bc
       -0.0448497 0.039280616 0.025996644 -0.014499885

encoder.layers.0.nn.net.2.bias f4 [128]
000000 de 34 8b 3d 29 dc a9 bd 77 1f ac 3d 3e 70 1c bd
       0.06797193 -0.08293945 0.08404439 -0.03819298
000010 f8 be a4 3d 89 37 49 bc b3 dc b0 bc 88 5f 00 3d
       0.08044237 -0.012281307 -0.021589613 0.031341106
000020 ec 40 95 bd d4 28 19 bc 33 69 85 3d dc 35 10 bd
       -0.072877735 -0.009348113 0.06514206 -0.035207614
000030 11 3b a9 3d 9a 66 83 3d 35 bf 84 bd 90 26 39 3a
       0.08263219 0.06416054 -0.06481782 0.0007062936
000040 d6 37 c3 3a 8f 6f 2f bd 4a e7 9e 3d 63 10 36 bd
       0.001489396 -0.042831 0.07758959 -0.04444922
000050 d1 58 b6 bc b4 3a b9 bc 8e a4 18 bd 9c b2 33 bd
       -0.022259148 -0.022611 -0.037266307 -0.043871507
000060 24 3c 3d bd d3 57 05 3d 05 ca 9f bd c2 09 07 bd
       -0.046199933 0.03255446 -0.07802204 -0.03296829
000070 61 5b b2 bd 7c 2c 78 3d ac eb 8e bd 17 37 01 bd
       -0.087088354 0.0605893 -0.069785446 -0.03154668
000080 40 84 13 bd 33 5a 21 3c 71 3b 1c 3c b7 2b 31 bd
       -0.036014795 0.009848165 0.009535656 -0.04325458
000090 7f 54 a7 3d 42 a1 0d bd 30 76 a5 bd 92 b1 d9 3c
       0.08170413 -0.034577616 -0.08079183 0.02657393
0000a0 9c af 54 3d fe bb a6 3d 2f aa 50 bd 1d 27 be bd
       0.051925287 0.081413254 -0.05094355 -0.09284804
0000b0 6f fe 5c bd de 7d 56 bd e4 64 cf bc 6e b1 1c 3b
       -0.053953584 -0.05236613 -0.025316663 0.0023909467
0000c0 a5 4c 02 3d ef a0 2b 3c 28 2a 03 bd d3 cc 24 3b
       0.031811375 0.010475381 -0.032022625 0.0025146499
0000d0 95 fd 1a 3d de 5a 7d 3d f8 35 0e 3d 60 11 14 3d
       0.03783949 0.061854236 0.034719437 0.036149383
0000e0 c5 0b 75 3d 91 f8 71 3d 8b 85 f5 3b dd 48 09 bc
       0.059825677 0.059074942 0.007492726 -0.008379188
0000f0 02 4e 07 3d fc ce cd 3c 8f 49 9d bd 8f b6 8d bc
       0.03303338 0.025123112 -0.07680046 -0.017298965
000100 8f 5e db bb b0 f9 56 bd 0b 44 53 bd 89 1a b5 bd
       -0.006694622 -0.052484214 -0.051578563 -0.08842952
000110 02 ad 1a bd 16 c7 85 3d 8d 0a 9a bd ae 13 30 bd
       -0.03776265 0.06532113 -0.07521544 -0.042987518
000120 fe 72 fe bc 25 2c 13 3c 4a d5 1e bd fd 13 62 bd
       -0.031060692 0.008982693 -0.038777627 -0.055194844
000130 5d 77 c7 3d 73 8d a5 3d 3a 25 33 bd f0 15 10 3c
       0.097395636 0.0808362 -0.043736674 0.008794293
000140 06 2e 1e 3c 18 cf 38 3d 1d f3 06 3d dd 61 14 3d
       0.0096545275 0.045119375 0.032946695 0.036226142
000150 54 74 86 bd e8 43 b0 bd b8 8a 64 3d e8 14 1a 3d
       -0.065651566 -0.08606702 0.055796355 0.037617594
000160 81 ce 99 bd fd 68 c0 ba d8 96 1b bd 56 39 9b 3c
       -0.075100906 -0.0014679726 -0.037985653 0.018948238
000170 77 32 ac bd 08 03 27 bd fc c0 9d 3d d9 20 11 3d
       -0.08408063 -0.040774375 0.077028245 0.035431717
000180 f4 79 90 bd 17 76 2e bd 4a e2 96 bc ce 5b 94 bd
       -0.07054511 -0.042593088 -0.01841845 -0.07244073
000190 5e 77 6a 3d 01 65 5c 3d b2 3c b2 3c af 7c 77 bd
       0.057242744 0.053807262 0.021757457 -0.060421642
0001a0 f7 93 56 bd 3b ae 3d bd bf ff 73 bd e4 45 6d 3d
       -0.052387204 -0.046308737 -0.05957007 0.05792798
0001b0 00 2f 4b bd 8d 5f c7 3c 69 ee 3e bd 45 9d 15 bd
       -0.04960537 0.024337554 -0.046614084 -0.036526937
0001c0 6c 63 ad 3d 88 67 82 3d f0 31 90 bd af 69 2a 3d
       0.08466229 0.06367403 -0.07040775 0.041604694
0001d0 4a 4d 28 3d f9 5b 65 3d 94 2e 92 3c 36 2e 77 bd
       0.041089334 0.055995915 0.017844476 -0.060346805
0001e0 0b cd 8a 3d 3c 99 91 3d 49 23 8a bc b7 1b cc 3c
       0.0677739 0.07109305 -0.016862528 0.02491556
0001f0 46 98 6a bd 43 ef 8d 3d d6 f4 b9 3c 77 9e 6f 3d
       -0.057274126 0.06930401 0.022699755 0.058500733

encoder.layers.1.nn.net.0.weight f4 [128, 128]
000000 a9 39 6d 3c 65 4e 51 bd 30 2f a4 3d 96 9c a0 bc
       0.014479079 -0.051100153 0.08016813 -0.019605916
000010 f6 89 a5 3d 08 6a 19 3d 93 99 4a bc e1 4d 4f bd
       0.080829546 0.037454635 -0.0123657165 -0.05061138
000020 91 09 ef 3c 76 cf 7c 3d d4 f1 99 3a 2d ed 95 bc
       0.029179366 0.061721288 0.0011745044 -0.01830157
000030 a0 2d 47 bd b1 ff 94 bc e9 e2 4a 3c df f9 55 3c
       -0.048627496 -0.01818833 0.012383201 0.013060062
000040 27 a0 f1 3b 0e c7 ac bb fd b9 66 3d d9 2d 2a 3d
       0.007373828 -0.0052727526 0.056329716 0.04154763
000050 f2 76 88 3d 50 14 0a bd 95 fd ab 3d f5 63 b9 bc
       0.06663312 -0.033710778 0.08397976 -0.022630671
000060 9d b3 c8 bd c7 83 ae 3c 0d 1c c0 bc 8b b9 03 bb
       -0.097998835 0.02130307 -0.023450876 -0.0020099606
000070 49 b0 88 3d ff 2c 6f 3d 1f d4 95 bd 23 fb 63 bd
       0.06674249 0.05839252 -0.073158495 -0.055659425
000080 7d 30 87 3d 22 be c2 3b 5b 72 27 bd 2e f5 53 bc
       0.06601045 0.0059430758 -0.040880542 -0.012936873
000090 2d 95 16 3d 63 9e b5 bc c0 99 06 3d 58 cb eb 3b
       0.03676336 -0.022170251 0.03286147 0.0071958713
0000a0 8d 5a 88 bc 16 ac 9c 3d e6 72 07 3d 03 3e 7c bc
       -0.01664474 0.0765001 0.03306856 -0.015395644
0000b0 26 ba a6 bd 63 c8 f6 bb 49 27 76 bc 28 06 18 3c
       -0.08140974 -0.007531212 -0.015024015 0.0092788115
0000c0 c7 94 38 bd dc 48 01 3c d1 83 fb 3c 9c 4f cc bc
       -0.04506376 0.007890906 0.030702503 -0.024940304
0000d0 e2 c5 06 bc e3 59 af 3c 43 89 0b 3d 7a 08 fa 3c
       -0.00822589 0.021405166 0.03406645 0.03052162
0000e0 a0 b4 04 3d 92 5e 05 bb a0 f3 a3 bd fa 46 8a 3d
       0.03239882 -0.0020350558 -0.08005452 0.06751819
0000f0 63 4f b8 bd 4c f8 40 bd 57 00 14 3c d8 fe 9d 3d
       -0.08999517 -0.047111794 0.009033284 0.07714623
000100 b2 ec 39 3d 8d b7 99 3c d6 a7 37 bd a3 86 77 3d
       0.045391746 0.018764282 -0.044837795 0.060431134
000110 05 57 69 3d c3 b9 8a 3d cc 48 0c 3d be 79 31 bd
       0.056967754 0.067737125 0.034249112 -0.043328993
000120 e6 7f 3f 3c c5 67 80 3c 3f 31 80 3d bd 69 9d bd
       0.011688208 0.015674481 0.06259393 -0.076861836
000130 02 02 ac bc 93 e8 a5 bd 63 f8 a0 3d 33 e0 31 3d
       -0.020997051 -0.08101001 0.07859876 0.043426704
000140 5d 05 b5 bd 67 5e 97 bd 4e d7 7a 3d 99 16 34 bd
       -0.088389136 -0.07391053 0.061240487 -0.043966863
000150 93 84 a0 3d 6c 03 8a 3c e3 5d 8f 3b 7a d2 fa 3c
       0.078377865 0.016847335 0.004375206 0.030617941
000160 3b 5f 0a bd 4b 82 14 3d 88 df 37 3d 2c 91 1e 3d
       -0.033782225 0.03625707 0.04489091 0.038712665
000170 86 ef 97 3d 25 b1 83 3d 54 0f 00 bd dc 24 d8 3b
       0.07418732 0.06430272 -0.031264618 0.006596191
000180 27 79 36 bd 86 d8 98 ba 76 28 0c 3d 2d 8e 98 bd
       -0.044549134 -0.0011661209 0.034218274 -0.07448993
000190 f9 64 c7 3c 20 19 aa bd 16 95 31 3d bb d0 9a 3d
       0.02434014 -0.083055735 0.04335507 0.075593434
0001a0 d0 8e f1 3c a0 f7 96 bd e0 e5 8e bd 0e 8b 33 bc
       0.029487044 -0.073714495 -0.06977439 -0.010958446
0001b0 65 53 d2 bc b5 7a 43 3c 22 b5 82 bd f9 85 1f bd
       -0.025674531 0.011931111 -0.063822046 -0.038946126
0001c0 01 c8 9f bc b7 df 49 bc e5 44 66 3b ce ec 63 bd
       -0.019504549 -0.012321404 0.003513628 -0.055645756
0001d0 69 b1 b6 3b be 96 72 3d cf f4 29 3d 3b e3 62 bd
       0.005575348 0.05922579 0.041493233 -0.055392485
0001e0 9f 1e 9d 3d 11 52 13 bd b2 c7 25 3d 0c 54 ac ba
       0.07671856 -0.035966936 0.040473647 -0.0013147607
0001f0 be 18 8d bd c7 7d 89 3d 79 8e a9 3d 39 bf ab 3d
       -0.06889485 0.06713443 0.08279128 0.08386082
000200 da 68 8b 3d 6e ab 5e 3d e3 f1 4b bd a7 51 78 bd
       0.06807108 0.054362707 -0.049791228 -0.060624745
000210 1d 67 a0 3d 94 c9 b1 3d aa 0e 26 3d 2a 8e 71 3d
       0.07832167 0.08681026 0.04054133 0.05897347
000220 84 bd 7b 3c 9f 37 11 bd ed 7f b8 3d 90 f9 43 bd
       0.015365008 -0.035453435 0.09008775 -0.047845423
000230 77 46 0f bc da a7 90 3d 01 21 08 bb 15 73 8c bc
       -0.0087448275 0.07063265 -0.0020771625 -0.01714472
000240 d9 cd 61 3d 7a 37 81 bd f9 3b e9 3c e5 2e 15 bd
       0.055127952 -0.063094094 0.02847098 -0.036421675
000250 81 2c b3 3d 55 d5 7a bd a9 8e a5 3d 2c 36 42 bd
       0.08748723 -0.061238606 0.08083851 -0.047414944
000260 c8 c1 97 3d e9 8a 8d bd bc ac 2b bd 79 92 dc 3b
       0.07410008 -0.06911261 -0.04191278 0.006731328
000270 83 ca 06 bd 3f 74 a5 3c 7c 2f 53 bc d1 6a b3 3d
       -0.032907974 0.020197032 -0.012889739 0.08760608
000280 34 d5 8e 3d c6 08 cb bb aa 06 ac 3d 02 08 46 bd
       0.06974259 -0.0061961142 0.083997086 -0.04834748
000290 0c 4a 93 bd 1a 76 8f b9 d6 b2 19 bd b2 51 16 bd
       -0.07191858 -0.00027363078 -0.037524067 -0.036699004
0002a0 43 a5 3b 3d 9d 7c 28 bb 26 66 ae 3b 81 bb d2 bb
       0.045811903 -0.002570904 0.0053222356 -0.0064310436
0002b0 ad e7 95 3d 9e c3 94 3c 47 32 28 bd 52 08 1b 3d
       0.07319579 0.018159684 -0.041063573 0.03784973
0002c0 6b 5c 6e bd 6e 97 02 3d 26 c3 7c 3d b4 a5 90 3d
       -0.058193605 0.031882696 0.061709546 0.07062855
0002d0 ea 84 a3 bd ad b4 8b 3d 29 cc 54 3d a6 95 61 3c
       -0.07984336 0.068215705 0.051952515 0.013768589
0002e0 a0 5e 83 bd ce 67 9c 3d fa 0f ca bc 2e 0e 09 3d
       -0.06414533 0.07636987 -0.024665821 0.03346079
0002f0 45 ba 66 3d 44 5f f9 bc 00 80 83 3c d2 c3 1f bd
       0.056329984 -0.030440934 0.016052246 -0.03900511
000300 77 f3 e9 3c 9d fc d0 bc b4 f2 9f bd 44 4c c6 3b
       0.028558476 -0.02551108 -0.07809964 0.006051572
000310 ed 58 97 bb 4c 5a b4 3d ec aa b0 3d 0e a8 62 3d
       -0.004618755 0.08806285 0.08626351 0.05533605
000320 33 79 36 3d c0 66 82 3d 1b 34 13 3d 54 9b 9f bd
       0.04454918 0.06367254 0.035938364 -0.07793298
000330 7d 80 ab bd 1d 99 47 bd 60 36 92 bd 14 10 3e bd
       -0.083741166 -0.048730005 -0.071392775 -0.046402052
000340 45 57 ad bd 3b 2f 77 3d 02 18 05 3d b7 8d 98 3d
       -0.08463911 0.060347777 0.0324936 0.07448905
000350 97 55 e6 bc bf cd 10 bd 4a d4 a6 3d c6 0e ee bc
       -0.028116984 -0.035352465 0.0814596 -0.029059779
000360 b2 5f 60 3d 5f 59 88 bd f5 0f 95 3d af 14 60 bd
       0.054778762 -0.06657671 0.07278434 -0.054707225
000370 5b 5d 2d 3b 52 e5 9f bd 83 a3 9a 3d b9 3d d8 3c
       0.002645335 -0.07807411 0.07550719 0.02639662
000380 5d a1 21 3d f0 59 51 bd c6 92 b7 bd f3 cb 1f 3d
       0.03946053 -0.05111116 -0.08963542 0.03901286
000390 56 59 28 bc df f0 d0 3b ab 94 32 bd f2 c1 4a bd
       -0.010275206 0.0063763703 -0.043598812 -0.049501367
0003a0 d7 19 e4 bb ad e3 91 bc f1 1c fe 3c bb 71 77 bd
       -0.006961088 -0.01780876 0.03101966 -0.060411196
0003b0 4b d4 9d 3a 2a 4e 19 3d b2 39 b3 3c fc 1a ec 3c
       0.0012041418 0.03742806 0.021878097 0.02882146
0003c0 62 49 36 bd 1d 6a 2d 3d 83 2e 66 3d be f5 4b 3b
       -0.044503577 0.042337526 0.0561967 0.0031121816
0003d0 e8 df a7 3d ff 95 50 3d d5 fd 53 3d 34 aa a8 bc
       0.081970036 0.050924297 0.051755745 -0.020588972
0003e0 80 08 53 3d 86 88 59 bc 18 81 fa 3b b3 bb 56 3d
       0.051521778 -0.013277179 0.0076447837 0.052425098
0003f0 e8 d0 02 bc 7c 9c 3e 3d 61 c4 8a bd c7 20 09 3c
       -0.007984377 0.046535954 -0.067757376 0.008369631

encoder.layers.1.nn.net.0.bias f4 [128]
000000 5b 20 7c bd d6 d9 3d 3d 85 c1 01 3d da 42 0d bd
       -0.061554294 0.046350323 0.031678695 -0.034487583
000010 ae ca 4d 3d 5e e9 5b 3d 86 ce 5f 3b 1b 4c 2e 3b
       0.05024212 0.053689353 0.0034150197 0.0026595655
000020 3a ec 84 3d 99 cc a7 3d ba ad 1a 3d 7a b9 c0 bc
       0.06490369 0.08193321 0.037763335 -0.023525942
000030 00 bf b8 bc e1 a4 c8 3c 1d 5c 25 bd cc 6f 9f 3d
       -0.022552013 0.024492683 -0.04037105 0.077849954
000040 31 4e 1a 3d b0 df 54 bd 2a bf 93 3d d3 5d 75 3d
       0.037672225 -0.051971138 0.07214196 0.05990393
000050 8a ad 94 bb 91 34 b3 3c c5 9d 2b bd ef 72 2a 3c
       -0.004537289 0.021875652 -0.041898508 0.010403379
000060 ea 96 58 bd 1d fd 68 3d ca 92 87 3d 98 6a 6b 3d
       -0.052878298 0.056882013 0.06619795 0.057474703
000070 98 27 47 bc f2 24 03 3c 44 92 1c bd 7e 69 87 bd
       -0.012155436 0.008004414 -0.038225427 -0.06611918
000080 ad a3 e7 3c 50 6a ac 3d 66 6f ed 3c 40 0e 90 bc
       0.028276289 0.08418715 0.028983783 -0.01758492
000090 ce 4f 83 3d e7 97 6d 3d 0d a0 92 3d 54 c9 29 3d
       0.06411706 0.058006193 0.071594335 0.041451767
0000a0 cb 37 93 bd e0 7f 45 3d 5d bf 94 bd 4d 5a 2d bd
       -0.07188376 0.048217654 -0.07263062 -0.042322446
0000b0 35 cc a4 3d 8a 71 cb ba ba 01 1a bc e8 ee 5a bd
       0.08046762 -0.0015521508 -0.009399826 -0.053450495
0000c0 98 83 ab bd ed 48 30 bc 4a 7e 79 bd aa fd a3 3c
       -0.08374709 -0.010759574 -0.060911454 0.020018417
0000d0 c6 9d eb 3c 07 23 fa bc 9b 42 60 bd a6 e3 fc bc
       0.028761756 -0.03053428 -0.05475102 -0.03087027
0000e0 fa f0 a8 3b f9 e2 99 3d 64 53 fb bc 2b 0f 06 bd
       0.00515568 0.07513995 -0.030679412 -0.03272931
0000f0 7c d8 99 3d ab 02 53 bd 3b c8 48 3d e9 2c 81 bc
       0.07511994 -0.051516216 0.04901908 -0.015768485
000100 f5 4f 42 bc c5 5d da 3c 49 b8 0c 3d 4a 3d 21 3d
       -0.011859884 0.02665604 0.034355436 0.03936509
000110 3e 41 8e 3c df 7b e0 bc 37 4b b4 3b 53 c9 1c 3d
       0.017365094 -0.027402816 0.0055021304 0.038277935
000120 4e 44 7a 3d 14 fd 98 bd b0 c3 57 3d a4 74 bd bc
       0.061100297 -0.07470146 0.052676857 -0.023126908
000130 1a 95 91 3b 62 e5 1b bd de d3 51 ba 0a 23 35 b9
       0.004442823 -0.038060553 -0.0008004288 -0.00017274558
000140 69 19 c1 bc 7d ec a1 bc 5f 87 04 bd f7 3b 07 3d
       -0.023571687 -0.019766087 -0.032355662 0.03301617
000150 61 3f b3 3b 19 d2 ba bd 48 93 91 bd 27 35 8b bd
       0.005470202 -0.09122104 -0.0710817 -0.067972474
000160 db 8c 88 3d 53 9f 75 3c 89 3b 9f 3d b4 59 32 3d
       0.06667491 0.014991599 0.07775027 0.04354258
000170 0d 14 bb bd c3 68 22 3d 58 24 af bd 9e 7d 6b 3b
       -0.09134684 0.03965069 -0.08551854 0.0035933028
000180 5c 9a 4d bd a7 af 48 3c 2d 7c 32 3d 4c c4 57 bd
       -0.050196037 0.01224891 0.043575455 -0.052677438
000190 55 3a 4c bd 49 57 50 3d 50 b5 d9 3b 45 de 6c 3d
       -0.049860317 0.05086449 0.0066439286 0.05782916
0001a0 f0 83 bd bd 73 b1 96 3c 0d 44 52 3d f1 ec 9d 3d
       -0.09253681 0.018395161 0.05133443 0.077112086
0001b0 94 40 8c 3c d9 9a af 3c 94 6f a2 bd 98 54 42 bd
       0.017120637 0.021436142 -0.07931438 -0.047443956
0001c0 fb 68 3a 3d 15 6c bf 3d 8a a2 3a bd 31 1b 15 3d
       0.045510273 0.09346787 -0.045565166 0.036402885
0001d0 c5 08 87 bc 39 c5 ad bd 07 f5 90 bd ce 5a 25 3d
       -0.016483674 -0.08484883 -0.07077985 0.0403698
0001e0 42 b3 ff bc 5f 7b 94 bc ed 78 27 bd 5b 6b f2 3c
       -0.031213406 -0.018125234 -0.04088681 0.029592207
0001f0 59 9a 9f bd 8f 83 98 3d c7 ae 37 3d a0 7b 75 3d
       -0.07793111 0.07446968 0.044844415 0.05993235

encoder.layers.1.nn.net.2.weight f4 [128, 128]
000000 9f cc 0e 3d e2 dd ec 3c 9f e1 7d bc fe 05 0a bd
       0.03486311 0.028914396 -0.015495687 -0.03369712
000010 b6 d1 d4 3c f0 57 38 3c 8e 2d 8c bd 6a af 1c 3d
       0.025978904 0.011251435 -0.06844626 0.038253225
000020 7a 9d 4f 3d 1d 85 05 bd f2 7d 6f bc f8 d0 56 3d
       0.05068729 -0.03259765 -0.01461743 0.052445382
000030 34 bb 55 bd 62 7e 80 bd a9 92 ac 3d ed 2f 94 3d
       -0.052180484 -0.062741056 0.08426411 0.072357036
000040 2f 9a 90 3d e7 5e bc 3d e5 e5 4f 3c 59 0f 78 3d
       0.07060658 0.09197789 0.0126890885 0.06056151
000050 81 5b a4 bc 6b 99 34 3d 73 37 3f bd 24 22 7d 3d
       -0.020063164 0.044091623 -0.04668374 0.061800137
000060 fe 19 29 bd 5f 9c 4c 3d 2a 30 79 bb dc 64 ec bc
       -0.041284554 0.049953815 -0.0038023093 -0.028856687
000070 8e ee e5 3c 9d ae d6 ba b8 0d 82 3d 11 c8 ac 3d
       0.028067853 -0.0016378943 0.06350273 0.08436597
000080 95 dc 86 3d b7 f6 ea bb f9 29 bb bd 29 f9 ac 3d
       0.065850414 -0.007170524 -0.09138865 0.08445961
000090 20 0f 22 3d ea 6c 39 bd 40 b6 67 bd 75 e0 0c bd
       0.039565206 -0.045269884 -0.05657029 -0.034393746
0000a0 64 bb 12 3c 53 81 53 bd 20 51 75 3c 16 0a 61 3d
       0.00895581 -0.051637005 0.014972955 0.05494126
0000b0 13 11 a1 bd 2f d9 63 bd b6 98 91 bd ae 55 7d 3d
       -0.07864585 -0.055627044 -0.071092054 0.06184929
0000c0 82 d5 ae 3c 7b d5 4b bd 17 4d 7a 3d b5 5f 7a 3d
       0.021342043 -0.049764138 0.061108675 0.06112643
0000d0 8e 38 c1 3c 04 53 97 bd ab 32 fa bc 09 fb 6f 3d
       0.023586538 -0.07388881 -0.030541738 0.058589015
0000e0 e4 54 89 bd 08 97 a4 bd c5 f6 c6 3c 68 b1 96 bc
       -0.06705645 -0.080366194 0.02428759 -0.01839514
0000f0 3c 32 43 bd b8 22 2f bd 00 ad 70 bd a8 92 b2 bd
       -0.04765533 -0.04275772 -0.058758736 -0.08719379
000100 c6 7f b2 3d 2d fc ae 3d 0a e6 8f bb 64 88 1a 3d
       0.08715777 0.085441925 -0.0043914365 0.03772773
000110 90 aa 77 bc 42 c7 96 3c 68 a5 02 3d be 82 0e 3d
       -0.015116349 0.01840556 0.031896025 0.034792654
000120 f7 33 4c bc d6 dc 7d 3b c2 96 9a 3d 81 d6 79 3d
       -0.012463561 0.0038736365 0.07548286 0.060995582
000130 0d 57 ba 3d c9 d6 97 bb b1 5a 8e bd 9a 7d 79 3c
       0.09098635 -0.0046337587 -0.06950892 0.0152277
000140 2e 9a 48 bd 9e b6 84 3d ff bd 9c bd 4d e3 2f bc
       -0.048975162 0.06480144 -0.076534264 -0.010735345
000150 f0 5a 8f bc db 66 98 3d f8 40 14 3d cd 46 af 3d
       -0.017499417 0.07441493 0.03619477 0.08558426
000160 10 81 db bc cd 81 87 3c 47 be 19 3d 97 59 a4 bc
       -0.02679494 0.016541386 0.03753498 -0.020062251
000170 91 a1 03 3d ff dc a6 bc 36 55 b8 bc a8 a8 ec bb
       0.032136504 -0.020369051 -0.02250157 -0.007222254
000180 62 5e 2e 3d 41 28 41 3d 6d e2 3d bd 99 bd 5d bd
       0.04257048 0.04715753 -0.046358515 -0.054135893
000190 7c 6c c9 bc e8 f2 92 bd ca a3 53 3d f8 ac 76 3d
       -0.024587862 -0.07175237 0.051669873 0.06022355
0001a0 5a 78 7d bd 05 45 90 bc a1 67 97 3d ec a9 a8 bb
       -0.061882354 -0.017611036 0.073928125 -0.0051472094
0001b0 53 b9 9f 3d 58 67 bb 3c 75 34 36 bd 37 17 d6 3c
       0.0779902 0.022876427 -0.04448362 0.026134117
0001c0 94 f1 e1 3b 66 51 7d 3d 0b a1 81 3c c2 9d ef bc
       0.0068952534 0.061845206 0.015823862 -0.02925003
0001d0 0b d1 3a bd 86 c1 a1 3d 38 2b 99 3d e5 6e 5d bd
       -0.045609515 0.0789824 0.074789464 -0.054060835
0001e0 de 2f 4c 3d 39 18 c5 3c 9a 12 b6 3d 99 47 9a bc
       0.049850337 0.024059402 0.08890267 -0.018832969
0001f0 93 01 28 3d af 58 a4 bc 2a 6c 88 bd 8c 7a 98 3d
       0.041017126 -0.020061819 -0.06661256 0.07445249
000200 26 6e e0 bc 1e ad a8 3a bc ec 92 3d 22 cb db bb
       -0.027396273 0.0012868976 0.0717406 -0.006707565
000210 b2 91 81 3d 3a ce 12 3d 53 e8 36 3d 62 5e dc 3c
       0.06326617 0.035841204 0.044655155 0.026900474
000220 66 9e cd bc 28 e9 38 bb cf 54 62 3d 9b d4 33 bc
       -0.025099944 -0.0028215144 0.05525666 -0.010975982
000230 f6 37 ac bc c0 1a 78 bd 58 df 0b 3d 9a ac cd 3b
       -0.021022778 -0.060572386 0.034148544 0.006276679
000240 f7 99 48 bb c4 87 25 bd 37 e5 fb 3c e9 cd 69 3d
       -0.0030609348 -0.04041268 0.030748947 0.057081137
000250 1c 92 42 bc 67 97 86 bd fd 40 51 bc 48 f5 dd bc
       -0.0118756555 -0.065718465 -0.012771842 -0.027094498
000260 84 b5 ce 3d c2 af a1 bd ab b6 2b bb 10 ca 3d bd
       0.10093215 -0.07894851 -0.0026201408 -0.04633528
000270 1d cf 6c bc 84 d8 be bc a3 d0 cb 3c 94 80 6c bd
       -0.0144536765 -0.023296602 0.02487976 -0.05773981
000280 49 88 4e 3d 28 ab 9f 3b 3a 89 c9 bc fe 12 f1 bc
       0.05042294 0.0048726983 -0.024601568 -0.029428001
000290 8b 88 cf 3c 49 ab 92 3d 78 27 2d 3c d4 09 ca bc
       0.025333663 0.07161576 0.010568492 -0.02466289
0002a0 fc b4 5d bd 6d 8b 1b 3c f1 b9 63 bc 1f 27 af bd
       -0.05412768 0.009493691 -0.013899312 -0.08552384
0002b0 96 36 1a 3b 72 12 19 bd a6 86 a3 3b 29 c2 e3 bc
       0.002353107 -0.037371106 0.0049904166 -0.027802544
0002c0 dc d2 61 bd 3e 82 8e bd ed 14 1c 3d 82 f9 ce 3c
       -0.05513273 -0.069584355 0.038105894 0.025265459
0002d0 b9 c2 9e 3d d7 7e 8d 3d 86 b4 88 bd 01 f0 be bb
       0.07751984 0.069089584 -0.06675057 -0.0058269505
0002e0 1e 9c 61 3d de 01 b6 bc 40 41 61 3d 80 0e d4 3c
       0.055080526 -0.022217687 0.054993868 0.02588582
0002f0 d5 82 24 3c 71 57 5b 3d 21 0d 38 3d 95 a9 82 bd
       0.010040958 0.053550187 0.044934396 -0.063800015
000300 7b 25 83 3c 81 7d 3d 3d 44 d3 af 3d 1f e5 8f bd
       0.016009083 0.046262268 0.085852176 -0.07026123
000310 ca db b3 3d a9 dc 61 3d a3 80 8b bd 0b 1d a3 bd
       0.08782156 0.05514208 -0.06811645 -0.07964524
000320 51 d5 89 bd 50 38 72 3d 46 91 98 bd cd 7c 40 3c
       -0.0673014 0.059135735 -0.07449584 0.011748505
000330 b4 e7 7c 3d 02 1d 35 3d bc a9 39 3d ca d0 a8 bd
       0.061744407 0.044217117 0.045327887 -0.08242948
000340 c8 9f 0a 3d b8 34 65 bc b5 99 e2 3c 48 20 3f 3d
       0.033843786 -0.01398962 0.027661184 0.046661645
000350 a6 be 12 bd b9 4a 89 bd cb 26 26 3d 7f a5 e8 bc
       -0.035826348 -0.06703705 0.04056434 -0.028399227
000360 1b 9e 84 3d 26 64 25 3d 3a 47 25 3d 36 dd 59 bd
       0.06475469 0.040378712 0.04035113 -0.05318948
000370 ad 87 57 bd aa 98 8f bd d2 55 32 bd fb 92 31 3d
       -0.052619625 -0.0701154 -0.043538876 0.043353062
000380 dc c0 96 bd 51 a1 92 3d df 7d 5f 3d c1 d8 aa bd
       -0.07361004 0.07159675 0.0545634 -0.08342124
000390 88 10 31 3d bb 26 45 bd 99 1c 1a bd 06 de 4e 3c
       0.043228656 -0.04813264 -0.03762493 0.012626177
0003a0 b1 1b a5 bd 7e d5 09 bc 8b 81 39 3d 22 e9 45 bd
       -0.08061922 -0.008412717 0.045289557 -0.048318036
0003b0 69 b5 20 bd 77 9b 14 3d 2a 4e 9d 3c 30 91 a1 3d
       -0.039235506 0.036281075 0.01920231 0.078890204
0003c0 ca 9e 50 bd 63 a9 94 3d ce e5 71 3d 1f b4 e5 bc
       -0.050932683 0.072588705 0.05905705 -0.02803999
0003d0 4e f7 d4 bd ef e2 db 3b 0e f6 37 bb 29 a4 48 bd
       -0.10398732 0.006710402 -0.0028070244 -0.04898468
0003e0 81 e0 99 3d c2 28 f5 bc ee cf f0 3c ca 6a e2 3a
       0.07513524 -0.029926661 0.029396024 0.0017274257
0003f0 29 a2 4d 3c d1 20 aa 3d 7c 26 a3 bd fe a3 5d 3d
       0.012550869 0.083070405 -0.07966325 0.054111473

encoder.layers.1.nn.net.2.bias f4 [128]
000000 e7 9b 2b bd 9b 7f 79 3d e4 6c ad bd cc c2 b4 3d
       -0.041896727 0.06091271 -0.08468035 0.08826217
000010 73 d3 28 3d 4a 8c 84 3d a5 20 03 3d b3 ab 8c bc
       0.04121728 0.064720705 0.032013554 -0.017171716
000020 40 2c ad bb 32 19 37 bd 30 55 8e bd c9 70 0a bd
       -0.005284816 -0.044701762 -0.06949842 -0.033798967
000030 ce e7 8f bd 83 8a d9 3c fe af 95 bd 81 b3 e7 bc
       -0.07026635 0.026555305 -0.073089585 -0.028283836
000040 6c 7c a4 3d e0 cd 55 3d fe 8e 2b bd 66 76 a8 3d
       0.08031544 0.05219829 -0.041884415 0.08225708
000050 43 f4 9e 3d c6 77 be 3d 6d 7f 67 3d 88 8e 2e bc
       0.07761433 0.09300189 0.056518007 -0.010654099
000060 53 00 38 ba 7f 8a 22 3c c4 a2 31 bd 79 50 52 bb
       -0.0007019091 0.009920715 -0.043368116 -0.0032091422
000070 a2 ee 9c bd ba 53 9f 3c c3 e4 29 bd 44 26 a7 bd
       -0.07662703 0.019449104 -0.04147793 -0.081615955
000080 e7 c1 a2 3d c8 9b 81 bd f6 74 93 bd f8 98 8e b8
       0.0794714 -0.06328541 -0.07200043 -6.79958e-05
000090 b3 53 f2 bc 73 14 99 3c d4 7d a1 3c c9 dd a2 bd
       -0.029580927 0.018686509 0.01971332 -0.079524584
0000a0 ed 76 32 3d e3 d2 12 bd ce 76 a5 3d e2 3d 73 bc
       0.043570448 -0.03584565 0.08079301 -0.014846297
0000b0 82 48 48 bc 36 17 92 bd 9c 09 26 3d 5d 42 63 bd
       -0.012224318 -0.071333334 0.040536508 -0.05548321
0000c0 33 4e 54 3a 64 d8 14 bd 82 5b a2 3c 64 8d 24 bd
       0.0008098811 -0.03633918 0.019819025 -0.040173903
0000d0 7a d3 e8 bb 17 cc 39 bc 7b d3 4d bd c2 32 b1 3d
       -0.007105288 -0.011340163 -0.05025051 0.086522594
0000e0 e3 62 80 bc aa 10 db 3c 92 fa 97 3d af d7 93 3d
       -0.015672153 0.026741344 0.07420839 0.07218873
0000f0 08 b5 8f bd d6 ec 38 3d 99 fe a3 bd 1b 8c 8a 3d
       -0.07016951 0.04514774 -0.08007545 0.06765004
000100 3d b0 03 3d 53 5a 7a 3c ec c3 79 bd ae 1f 05 bd
       0.032150496 0.015280324 -0.06097786 -0.032500915
000110 3f 73 0c 3b 76 f0 46 3d 0c 79 d8 3c a7 1a 4b bc
       0.0021430997 0.048569165 0.026424907 -0.012396491
000120 72 44 b0 bc 87 53 10 bd 60 90 49 3c 2f cc 6a 3d
       -0.021517012 -0.035235908 0.012302488 0.05732363
000130 0a dc a3 bd db 78 65 3d 1d ab 6c bd 56 f0 a7 3d
       -0.080009535 0.05602346 -0.057780374 0.08200137
000140 d5 b6 c4 3c d1 68 8c 3d 1d 45 a6 bd ec e0 5f 3d
       0.024012962 0.0685593 -0.08118651 0.05465786
000150 77 de e5 bb e7 df 44 3a ff 6a 19 bc 7f 55 ac 3d
       -0.0070150453 0.00075101707 -0.009363889 0.084147446
000160 a1 7a 0e bd 4a e5 80 bc 78 b6 ad 3c ca 7d b0 3b
       -0.034784917 -0.015734334 0.021205172 0.005386089
000170 4c c5 cb 3a 28 3c f1 bc 4a 45 f5 bc 83 e5 21 3b
       0.001554647 -0.02944763 -0.029940266 0.002470345
000180 c8 5f 85 bc 73 52 aa 3d c8 a9 3f 3d b1 4e 07 bd
       -0.016281024 0.08316507 0.046792775 -0.03303403
000190 33 12 02 bd af 79 38 bd 72 04 ad 3b 13 54 5c 3d
       -0.031755637 -0.04503792 0.005280071 0.053791117
0001a0 eb 3d ed bb 62 22 9d 3d 36 4d 21 3d e0 0d a2 3d
       -0.007240047 0.076725736 0.039380275 0.07912803
0001b0 5c 64 5e bd 1d eb dd 3a e7 87 8d 3d 5a 68 b3 bd
       -0.05429493 0.0016931031 0.06910687 -0.08760138
0001c0 d7 1d 89 bd a3 89 a5 bd 2f 33 b9 3a e4 e0 8f bd
       -0.066951446 -0.08082893 0.0014129634 -0.07025316
0001d0 d0 1e 79 bd af 9b 58 3c 72 fd d5 bc 11 22 62 3c
       -0.0608204 0.013220712 -0.026121829 0.013802067
0001e0 6e 0e ab bd c4 fc af 3c 32 5f 0b 3d 9e 17 ab 3b
       -0.083523616 0.021482833 0.034026332 0.0052213212
0001f0 01 28 53 3d 8e 16 fe 3b d8 0f b9 bc 0b 14 fb 3c
       0.051551823 0.0077541536 -0.022590563 0.030649206

encoder.layers.2.nn.net.0.weight f4 [128, 128]
000000 9b b5 c5 bc 14 6c aa bd 81 02 a1 bd da 56 67 bc
       -0.024134448 -0.083213955 -0.07861806 -0.014119828
000010 fa 6e 49 3d 72 ff d1 3c da 37 e0 ba bd c6 a9 bd
       0.0491781 0.025634501 -0.0017106489 -0.082898594
000020 bd 2c d3 3c 82 fc 77 3d 0c 53 ac bd c3 1f 85 bc
       0.025778169 0.060543545 -0.084142774 -0.016250497
000030 ae 42 b0 3c 00 3e b3 3d ea 7a 97 3d 46 8e 57 bd
       0.02151617 0.0875206 0.07396491 -0.052625917
000040 9d 03 84 3c bd de 33 3d 15 2a 31 bd 46 0d 61 3d
       0.016115004 0.04391359 -0.043253023 0.0549443
000050 71 2f 0f bd 72 75 32 3c ba 2d 97 3b 07 01 40 bc
       -0.034957353 0.010892259 0.0046136053 -0.011718995
000060 ac 5e 89 3d ee 0a be bc f8 32 94 3d e9 9e 7a 3c
       0.0670751 -0.023198571 0.07236284 0.015296676
000070 77 57 52 bd 8a 08 35 3c 30 7c 1d bd b9 3d ca 3b
       -0.051352944 0.011049399 -0.038448513 0.0061719087
000080 35 fd d7 bc 54 e0 57 bd 0a d2 48 3d 61 68 fa 3c
       -0.026365856 -0.05270417 0.049028434 0.03056735
000090 ac 98 9b bd 75 ad ff 3c 3a 4b eb bc c9 62 91 bd
       -0.07597479 0.03121064 -0.028722394 -0.0709892
0000a0 13 4c bc 3b 8c ee 6f bc 22 32 03 3c 1b c6 95 3d
       0.0057463734 -0.014644276 0.008007558 0.07313176
0000b0 d2 3b 2d bc 27 96 27 3d e3 8d 7c bd b2 89 8f bd
       -0.010573344 0.04091468 -0.06165875 -0.07008685
0000c0 fb cb a1 bb de 02 6e 3d 51 1a ca bc b2 13 3d bd
       -0.0049376464 0.058108203 -0.024670752 -0.04616136
0000d0 55 9e 53 3a 45 69 be bd a3 83 70 bd 14 d7 a9 bc
       0.00080726045 -0.09297422 -0.05871929 -0.02073244
0000e0 8d d1 5b bc c0 ad a3 3d c9 98 4a 3b 92 89 a1 bc
       -0.01341666 0.079921246 0.003091382 -0.019718919
0000f0 fc 2b 21 3d a1 0d c7 bd 5a e4 e6 3c 91 18 5c bd
       0.039348587 -0.097193964 0.028185058 -0.053734366
000100 d0 e6 47 3d fb e3 25 3d 58 e8 d4 3a b5 c6 f2 39
       0.048804104 0.040500622 0.001624356 0.00046305885
000110 d1 c1 a2 3c f0 8d a4 3d 33 c2 88 bd ab ed 44 3d
       0.01986781 0.08034885 -0.066776656 0.04807822
000120 eb 03 04 bd 0d 4a b2 bd b8 ab 7b ba ad 16 aa 3d
       -0.0322303 -0.0870553 -0.0009600478 0.08305106
000130 a4 5f 50 bd ba 93 29 bd 9b 57 0d bd 73 02 5a 3c
       -0.05087246 -0.04140065 -0.034507375 0.013306248
000140 25 45 97 3d 4c 15 59 3d 8b e3 e6 bc 29 8f 3c 3d
       0.07386235 0.052998826 -0.028184673 0.046034966
000150 36 b5 6e bc 97 ac 30 3c 8d f1 c2 bc 78 51 2b bc
       -0.014569571 0.010783336 -0.023796821 -0.010456435
000160 01 27 9b bc 5e 19 89 3d e3 f5 b9 bc 45 c6 8e 3d
       -0.018939497 0.066942915 -0.022700256 0.06971411
000170 48 b8 f0 3c 6d e1 6e bd 34 51 16 bd fd a2 66 3d
       0.029384747 -0.05832045 -0.036698535 0.05630778
000180 c6 29 81 bb 0a 73 b7 3d cc 08 ae bb a8 6c 55 3c
       -0.0039417474 0.08957489 -0.0053111073 0.013026394
000190 dd a2 cb 3c 3a 86 62 bc 6c d6 0c 3c c4 f0 33 bc
       0.024857933 -0.013825947 0.008596044 -0.010982696
0001a0 d8 e5 fb bc ca 4d 27 bd 68 92 bf 3d ba 38 76 3d
       -0.030749246 -0.04084567 0.09354097 0.060112692
0001b0 74 62 d6 bc f6 ac 70 3d 1b 9d 78 3d 4b 8a 72 3d
       -0.026169993 0.0587587 0.060696702 0.059213918
0001c0 46 c9 32 bd d9 e4 bb 3b f9 f5 c5 bd cb 4f c6 3c
       -0.04364898 0.005734068 -0.09666056 0.02420797
0001d0 df 43 3a bd 21 fb b6 bd 5b 7a c4 bc b5 37 88 3d
       -0.045474883 -0.08934618 -0.023984125 0.0665125
0001e0 1d c2 75 ba 1a 97 b6 3c 85 5a 97 bd 18 58 a8 bd
       -0.00093749334 0.022288848 -0.07390312 -0.082199275
0001f0 9d 8d 21 bc c5 cd 6c bd 6b 37 24 bc 55 c9 31 3d
       -0.009860423 -0.057813425 -0.010022978 0.043404896
000200 a6 e2 88 3d fe d7 a4 3c 9f ea 2d bd e2 a2 e9 3b
       0.06683855 0.020122524 -0.04246008 0.007130013
000210 9c 6b 19 bd 47 46 e7 3c 18 a4 71 bd 52 1b 34 bd
       -0.03745614 0.028231753 -0.058994383 -0.043971367
000220 dd 08 0b bd 33 01 c4 bb 32 95 93 3d a9 c5 0b 3d
       -0.033944 -0.0059815883 0.07206191 0.03412405
000230 00 82 9d 3d e2 4c 7c bd 78 2f 6c bd b5 da 6a 3d
       0.07690811 -0.06159676 -0.057662457 0.05733748
000240 86 47 87 bd ed f0 89 3d fc ba 59 bc b2 59 bc bd
       -0.06605439 0.06735406 -0.013289209 -0.091967955
000250 c7 56 ac bd b6 71 96 bb da aa ba 3c 80 40 f8 3c
       -0.08414989 -0.004591192 0.022786546 0.030304193
000260 be c5 e8 bc 02 62 54 bd c0 0f fa 3c a6 34 aa bd
       -0.028414603 -0.05185128 0.030525088 -0.08310823
000270 0f 8b 99 3c 07 09 a9 bd 42 fe 63 bd f0 6b 86 bd
       0.018743066 -0.08253675 -0.0556624 -0.06563556
000280 00 aa 6e bd 61 6f 78 bd df 16 25 bd 79 96 5d 3d
       -0.058267593 -0.060653094 -0.040305015 0.05409858
000290 e0 86 cb bc 59 bb 4b bb 0e ee 08 bd 41 ab 22 bc
       -0.024844587 -0.003108701 -0.03343015 -0.009928525
0002a0 04 40 ba 3c 50 d5 8c 3d 8e 12 04 3d 0d ca f9 bc
       0.022735603 0.06876624 0.032244258 -0.030491853
0002b0 75 1b 08 bd b2 24 ae bd 29 59 04 3d b1 f5 6a bd
       -0.03322931 -0.08503093 0.032311592 -0.057363216
0002c0 37 d2 59 3d 57 93 bf bd 95 f7 82 3c 3d 2a 48 3b
       0.053178992 -0.09354275 0.015987197 0.0030542754
0002d0 26 20 84 bc 04 fd 0f bd 06 51 76 bd 65 4a 99 bd
       -0.01612861 -0.035153404 -0.060135864 -0.07484893
0002e0 c2 70 2c bd 22 52 1a bd 1f 99 d8 bc 06 a2 8d bd
       -0.04209972 -0.037675984 -0.026440201 -0.06915669
0002f0 ee 5e d1 bc ac d2 49 bd 84 ad 30 bd 3c 1e 3e bd
       -0.025557961 -0.049273178 -0.043134227 -0.046415552
000300 dc 97 5b 3d 72 39 03 3d 36 98 2d 3d 23 13 58 3d
       0.05361162 0.032037206 0.042381488 0.052752625
000310 25 dd 80 3d 60 b3 f4 ba 6f 11 5e bd 3a 21 e8 ba
       0.0629218 -0.001866918 -0.054215845 -0.0017710098
000320 cb 28 b4 bd c1 fc 83 3d 11 de b2 3c df 61 90 3c
       -0.08796843 0.06444693 0.021834405 0.017624794
000330 7d c0 ac bc 44 3e ca 3b c6 f2 46 b9 f5 af 4b bd
       -0.02108788 0.0061719734 -0.00018973192 -0.049728353
000340 9a 59 0a bd dd d1 49 3d b8 01 7e bd 57 74 89 bd
       -0.033776857 0.049272407 -0.062013358 -0.06711643
000350 e7 48 21 bd 36 4e 7e bd 7c 70 0f bd 6e 29 fd 3c
       -0.039376166 -0.062086307 -0.035019383 0.030903544
000360 4a 16 f4 bb 04 63 98 3d 55 86 f3 3c f3 5a ca bd
       -0.007448946 0.07440761 0.02972714 -0.098806284
000370 f7 94 1d 3d f2 28 d7 3c 03 33 65 3c 86 3f 81 3d
       0.038472142 0.026264641 0.013989213 0.06310944
000380 af c3 9f bd 15 8e b0 bd 27 24 3d 3d 93 14 18 3c
       -0.078009956 -0.0862085 0.046177056 0.009282249
000390 9b 62 56 3d 26 3c ea 3c 83 2d 63 3d 56 53 4e bd
       0.05234013 0.028593134 0.055463325 -0.050372444
0003a0 7d b4 aa bc 82 8c 87 bd 97 89 42 3d 69 22 63 3d
       -0.020838017 -0.066185966 0.047494497 0.055452738
0003b0 c4 ac c1 3c b2 ca c0 bd 91 f5 07 bd 95 89 10 bc
       0.023641951 -0.09413661 -0.033193175 -0.008821865
0003c0 63 c4 63 bd a2 d2 94 bd af b3 ae bd ad 14 70 bc
       -0.05560721 -0.072667375 -0.08530366 -0.014653367
0003d0 b4 63 ec bc b2 85 a9 bc f7 d7 25 bd b8 47 92 3d
       -0.028856136 -0.020693634 -0.040489163 0.071425855
0003e0 ce 16 5f bc b8 a4 0c bd cd ee ae bd 19 3e 82 bd
       -0.013616277 -0.034336776 -0.085416414 -0.063595004
0003f0 23 13 39 bc 96 ce 97 bd 99 b8 99 3c d3 ca 8f 3d
       -0.011296066 -0.0741245 0.01876478 0.070211075
