scripts/embeddings_gin_version2/ENZYMES/gin_dim128_ep40_lr0.0005_drop0.3/gin_classifier.pt (torch, 629469 bytes, 42 tensors)

encoder.layers.0.nn.net.0.weight f4 [128, 3]
00000000: 9043 083f e54a 9ebd a358 553e deb7 d6be
00000010: e4d0 7dbe 412b e23e 5eac 053f 0dad 81be
00000020: 9a03 81be 47a0 65bc 2ef0 993c 23b4 233e
00000030: b727 fd3e e6f3 e43e 1701 00be 888c c93c
00000040: c302 19bd c228 d63c 3183 a1bd 85d3 9f3e
00000050: 056b c23d 5adc d43e b3e5 e03e 6d9e 3a3e
00000060: c604 0a3e 7813 de3e abe1 c23d 8faf 09bf
00000070: 98a7 e1be 54a8 8a3e e371 833d 1d9d 7e3e
00000080: 7967 8a3e e0db a63e 6260 85be a0f4 f2bd
00000090: b0ba dfbe b3ac 053f 0c34 823e 1754 c83e
000000a0: 31fe d03e 05ae 83be e124 133e e9c8 c4bd
000000b0: 5f68 76be adc0 e1be 623d e93e 6ec5 81be
000000c0: b7e3 d33e ea88 e5be 7b96 c9be 69da 063f
000000d0: 1519 2fbe 4d4d cebe 1188 c83e 942d d3be
000000e0: 3cb0 3e3e f289 8fbe aa59 5cbe d666 f6be
000000f0: 06c5 8e3d 1adc fe3e 4450 c13e 8236 3b3e
00000100: c37a f7be 3cd1 cc3e 0ac9 b43e dcae 10be
00000110: a255 e03c 576e d7be cca0 f73e d84e 1a3e
00000120: 58ac a83d 14b3 383e 5b1d c53e 26fc 05bf
00000130: 5e5b 06be eb42 543e b3ad 023e 4c79 a8be
00000140: 4eba 01bd 54ab 113f 39cc 0fbf 9df2 a2be
00000150: 93f1 ad3e f4bd 88bd 506b 8c3e 71be d1be
00000160: a7f2 e6bd bc26 bbbe afaa e03e 080e a6be
00000170: 755f 06bf e2db 23be 54a0 3f3e 0aef 00bf
00000180: 7d3f 0dbf 8f77 a23d c635 0f3f 7aec cabd
00000190: 5057 40be 2e76 cdbe 1ad9 d13e bc75 8b3e
000001a0: f12f b83e fa8b 0dbf 71d4 c4be 2ef5 d2be
000001b0: 2ddf aabd a491 ee3e 02c3 dbbe d0ba 82be
000001c0: 735b 9bbe c33c c2be ca9d 8f3e f206 aa3d
000001d0: cc87 553e d6b0 0fbf f719 07bf fbc1 72ba
000001e0: c058 abbe 6045 fe3c d582 d23e a770 b73e
000001f0: 0454 80be b4e4 9b3e b746 a4be d993 60bd
00000200: 5f7f 4ebe 1aea d23e f272 a83e 14a1 c53d
00000210: a8b1 ddbe 94a1 11bf 2ce8 d0be 7f45 edbe
00000220: abc3 2fbc ee05 493d bca8 473e 9aff 89bd
00000230: 6429 11be 5db7 ed3e 96fd ffbe 9eb4 82bd
00000240: 09f3 4b3d fcda e03e f104 81be 28bd 5c3c
00000250: 69fb 263e 82e9 15be e548 653d d868 a13d
00000260: 98f1 f43e 2a4c bcbe 031e 083f 0fa1 f2be
00000270: 1ec3 b33d ee88 88be 3514 10bf 9ca2 f53d
00000280: c0cc 163e e17c 7bbd b0c3 99be 74e9 cf3e
00000290: 6186 06bf 7366 de3d 3e21 18be b242 103f
000002a0: 962d 9dbc 0be1 b5be fba4 b33e 3367 013f
000002b0: a613 a6be ed5c c73e f892 c5be 5d8f 1abe
000002c0: 0ab6 99be 8b28 463d 46dd 90be 59ec d43e
000002d0: 6d4a 0e3f ef8b 34be 1bd2 103f 4dd7 443e
000002e0: 4e6a 223d 486d fc3d dd17 a7be 52fb 6c3d
000002f0: 776f f2bd 3bcc 0a3e 74f5 b23e 8ebb 3dbe
00000300: b1f1 2f3e 63fc ff3e 52fd a53e 1178 a6be
00000310: 694b 93be 8ba3 c43e 9376 c9be 5e15 683e
00000320: adae 233d 27ca f93e d4f6 7d3d f37c febe
00000330: 5d61 14bf 8ece 9a3e 283c a23e 6489 8ebe
00000340: 847b a0be 5e2f b03e d09d 12bf 0b7a 4a3e
00000350: 23d9 833e 0f9a f73e 65d4 393e bf6b aebe
00000360: 14b7 71bd 0566 143f 9ef1 a63d 459e 91bc
00000370: d6d0 093e cf4b cebe c370 093f af37 883e
00000380: c4a0 c8be 93fc a6be 71a8 793d 9c96 32be
00000390: 5a6f 90be 86dd d2bc fa9d 0bbf ca62 3fbe
000003a0: 4915 09bf e0af fcbe d0ad dcbe 9863 1bbe
000003b0: 0586 99be ee1a ff3e 4887 92be 5af4 c23e
000003c0: f5aa 71be e27b 3d3d e577 183e 6adb 70be
000003d0: c7d1 78bd 7053 583e a96e 9abe 10c6 023f
000003e0: ff50 f43e 8887 b1be 7bf2 11bf e2b8 82be
000003f0: 0c8c da3e 5e95 b2be 9d6a eb3e e3a8 e6be
0.5322809 -0.07729129 0.20834593 -0.41937155 -0.24786717 0.44173625 0.52216136 -0.2532734
-0.2519806 -0.014015264 0.018791284 0.15986685 0.49444363 0.4471733 -0.12500416 0.024603143
-0.03735615 0.026142482 -0.07886351 0.31216064 0.094930686 0.41574365 0.43925247 0.18224497
0.13478383 0.43374228 0.09515699 -0.53783506 -0.44073176 0.2708155 0.064182065 0.24864621
0.27032068 0.32589626 -0.26050097 -0.11863065 -0.4369712 0.52216643 0.25430334 0.39126655
0.40818933 -0.25718704 0.14369537 -0.09608633 -0.24063252 -0.44092312 0.45554644 -0.2534594
0.4138467 -0.4483102 -0.3937262 0.5267702 -0.17099412 -0.4029335 0.3916631 -0.4124571
0.18621916 -0.2803493 -0.21518579 -0.48125333 0.06971173 0.497773 0.3775655 0.18282512
-0.48335847 0.40003383 0.3530963 -0.14129204 0.027384583 -0.4207637 0.48364866 0.15069139
0.08235997 0.18037063 0.3849896 -0.52337873 -0.13120791 0.20728652 0.12761573 -0.32905042
-0.031671815 0.5690205 -0.56170994 -0.31825724 0.3397337 -0.06676856 0.27425623 -0.40965608
-0.11276751 -0.3655299 0.4388022 -0.3243258 -0.52489406 -0.16001847 0.18713504 -0.50364745
-0.55175 0.0793296 0.55941427 -0.099083856 -0.18783307 -0.40129226 0.40985948 0.27238262
0.35974076 -0.5529171 -0.3844333 -0.41202682 -0.08343349 0.4659549 -0.42922217 -0.25533152
-0.30343208 -0.37936983 0.2805007 0.08302106 0.20852584 -0.56129205 -0.52773994 -0.0009260473
-0.33466148 0.03103894 0.41115442 0.35828134 -0.250641 0.30447924 -0.320852 -0.0548285
-0.20165776 0.4119423 0.32900196 0.09649864 -0.43299603 -0.56887174 -0.40802133 -0.46342084
-0.010727803 0.04907792 0.19497961 -0.06738205 -0.14175946 0.46428958 -0.49998158 -0.06382106
0.049792323 0.43917072 -0.25199082 0.013472833 0.16306843 -0.14639857 0.05597772 0.078813255
0.4784057 -0.3677686 0.53170794 -0.47388503 0.0877745 -0.2666697 -0.56280833 0.11993906
0.14726543 -0.06139839 -0.3003211 0.40607798 -0.52548796 0.108593844 -0.14856431 0.5635177
-0.019186776 -0.35523257 0.35086808 0.50548095 -0.32436866 0.38938084 -0.3858869 -0.15093751
-0.30021697 0.04837851 -0.28293818 0.4158657 0.55582315 -0.17631505 0.56570596 0.19222756
0.03965216 0.12325531 -0.32635394 0.057856865 -0.118376665 0.1355447 0.3495289 -0.18528578
0.17182042 0.49997243 0.3241983 -0.32513478 -0.2876847 0.38406023 -0.39348277 0.22664401
0.039961506 0.48787042 0.06200297 -0.49704704 -0.57961065 0.30235714 0.3168652 -0.27839196
-0.31344235 0.34411138 -0.5727205 0.19773118 0.257516 0.48359725 0.18147428 -0.3406658
-0.059012488 0.5796817 0.081515536 -0.017775664 0.13458571 -0.40292212 0.53687686 0.26604983
-0.39185154 -0.32614574 0.060951654 -0.17440265 -0.28209955 -0.025740396 -0.5453793 -0.18690029
-0.53548104 -0.49352932 -0.43101358 -0.15174711 -0.2998506 0.49825233 -0.28618836 0.3807705
-0.23600371 0.046260722 0.14889486 -0.235212 -0.060746934 0.21125579 -0.30162552 0.5108347
0.47718045 -0.34673715 -0.5701062 -0.2553168 0.42684972 -0.34879583 0.45979777 -0.45050725

encoder.layers.0.nn.net.0.bias f4 [128]
00000000: 6cda 99be 94f0 c6be f8f8 bfbb 7c02 8abe
00000010: ada8 403e 9955 c53e e55b f5bd 65f1 333d
00000020: be11 f03e 7bc9 e8be 2967 573e 3996 d0bd
00000030: 7998 7fbe ed49 bd3e fa57 883e 55f7 8bbd
00000040: df4b 073f dbd1 45be c9b0 9cbd e1a4 8b3d
00000050: 5c87 413e ef36 7c3d efbc 413d 9045 7fbe
00000060: 04dc ff3d b435 b3be 6d12 8bbe d62c 92bc
00000070: a3ff 5ebe 04e5 51be 9c3b b63d a56f 9f3d
00000080: fea3 883d 225e de3e 5c45 0ebf 298b 313e
00000090: 8dc4 c23e 6620 76be 48fb 10bf 0277 c1be
000000a0: 6202 55be 90f9 433e f7bd a83e 8d93 b13a
000000b0: 1ca4 fabe 53e1 b93d 14cf b5bd d92b c3be
000000c0: 90f3 e9be 01ad a83e 4eb3 2ebe 345f 9e3e
000000d0: 4f6f 4fbe 2b62 ef3d 9d19 0b3f 1033 c1bc
000000e0: dfd7 e43a 59fb c0be efdd abbe 87a1 783e
000000f0: 183d 29be 7db3 13bf 73df a4bc 0fce 27be
00000100: b06c 273c 5d90 dbbe 352c 0f3f f111 0a3f
00000110: 01d8 803e 5ecb ffbe 135a 5cbe 8ffd cb3e
00000120: f5cc 0d3f 9e4f d6bd 023f c33e c944 133f
00000130: e666 ec3c 854e b3bc 3deb 0bbf 75ca e23e
00000140: 9cce 493e 006c fc3e 5e46 4a3e cb10 debe
00000150: b174 b5be 4583 c33e 8f2a 44bd 9756 babe
00000160: 4b9e f23e 0e6b c2bb a699 0ebd 74a1 a3be
00000170: 985f ef3e 5bc4 0b3f d41b 2cbc 048b 49be
00000180: 6763 f03e 069e 24be 0f6c 073f 362e 76be
00000190: c643 d2be 2ee5 0abe 65e6 76be 3e33 0ebf
000001a0: 6f8d 193e 8f0b e23e 527e 663c ef5d a8be
000001b0: 0846 60be f98f d63e 5217 1ebd c491 69be
000001c0: 005e f83e f96e 903e f6d7 833e a5ed 3fbe
000001d0: 2e9c 1bbf a199 8dbe b0a5 20be f49f 00bf
000001e0: dc70 babd 40a1 d0be a7be 06bf 251d 13bf
000001f0: 6a06 b7be d70a b83e 0b7a 2e3d 9476 d8be
-0.30049455 -0.38855422 -0.005858537 -0.2695502 0.18814345 0.38541868 -0.11980418 0.043931384
0.46888536 -0.45466217 0.21035446 -0.10184903 -0.24960507 0.36970463 0.2662962 -0.06834284
0.52850145 -0.19318335 -0.076509066 0.068185575 0.18899292 0.061575826 0.04729932 -0.2492888
0.124931365 -0.3500191 -0.27162495 -0.017843645 -0.21777205 -0.20497519 0.08898088 0.077849664
0.06671904 0.43431193 -0.55574584 0.17338242 0.3804058 -0.24035797 -0.56633425 -0.37786108
-0.2080169 0.1913817 0.32957432 0.0013548002 -0.4895333 0.0907618 -0.08877388 -0.3811939
-0.45693636 0.32944492 -0.17060587 0.3093201 -0.20257305 0.11688646 0.5433596 -0.023583919
0.0017459354 -0.37691763 -0.3356776 0.24280368 -0.16527212 -0.5769575 -0.02012608 -0.16387199
0.010218784 -0.42883578 0.5592683 0.53933626 0.25164798 -0.49959844 -0.21518736 0.39841887
0.55390865 -0.104644045 0.3813401 0.5752683 0.02885766 -0.021888027 -0.5465582 0.44295087
0.19707721 0.49301147 0.19753405 -0.43372187 -0.3544059 0.38186088 -0.04789215 -0.36394188
0.47386393 -0.005933172 -0.0348145 -0.31959116 0.4675262 0.5459649 -0.010504682 -0.19681937
0.46950838 -0.16075906 0.5289926 -0.24041066 -0.41067332 -0.13563988 -0.24111326 -0.5554694
0.14995359 0.44149444 0.014068203 -0.32884166 -0.21901715 0.41906717 -0.03859646 -0.22809511
0.48509216 0.28209665 0.25750703 -0.18742998 -0.60785186 -0.27656272 -0.15688205 -0.5024407
-0.091035575 -0.40748024 -0.5263466 -0.57466346 -0.3574708 0.3594577 0.042596858 -0.42277968

encoder.layers.0.nn.net.2.weight f4 [128, 128]
00000000: 6702 513b 68b5 873d 9581 0e3d 0525 083d
00000010: 4ca7 8b3d 2ef6 ad3d cfee 1c3d 28e4 31bd
00000020: 0e72 533d bbd1 5dbd d25a 5fbc 333d 953d
00000030: 8002 91bd 6f70 d0ba f475 4dbd 8548 9a3d
00000040: 4d86 793d e09a 5ebc 3a10 1cbd e747 57b9
00000050: 9f1b 5abd 6728 84bd 1e21 6d3d 9255 44bd
00000060: 0276 b3bd 135f c53c e6e7 793d f671 663d
00000070: f3f4 61bd 0bce a13d 62db 58bc f417 46bd
00000080: 29f5 2abc 3d7f 8b3d fe77 3dbd 3900 58bd
00000090: 1e35 7f3d 76e0 83bd 8e77 47bc 66e1 863d
000000a0: 09f3 9ebd 262e 27bd b073 03bd 9584 afbd
000000b0: 6d18 6e3b 8676 10bd f5bd 233d 6276 95bd
000000c0: d39e 423d 6997 bbbc 40bf a73d f857 743d
000000d0: 03e9 5abd fceb 4fbd 8e13 5f3d 7673 a43d
000000e0: 85f8 2dbd e571 7c3d ada2 e43b 89b0 babb
000000f0: c85d 8dbc 7ef7 ae3c 3976 583d a9e8 763d
00000100: 6fd6 63bc 37f8 abbd d6cc a5bd f9d3 d53b
00000110: d1f8 ea3c e8bb d238 ebc6 ab3d 2b25 03bc
00000120: bf15 3cbd bcee 973d 8137 c53b e1d5 7dbd
00000130: 30aa 52bd 8c43 a73d 67ec 9abd 9f2e a43b
00000140: 8530 abbd 3a82 943d a156 b1bd 932e 06bd
00000150: e997 6e3c 0637 13bb 40e8 a93d 5e1d 6abd
00000160: f281 f33c e59d a2bc 7f54 903b 3f3d 85bd
00000170: c2eb 9cbc 3270 2abd 6044 adbd cd22 d3bb
00000180: e6c5 5d3d 8970 753c af4c 61bb 1b6f 8b3c
00000190: 27e8 aebd 2f76 d9bc 077f a23d bd77 b0bd
000001a0: b551 013c 04dc 76bc 4c98 853c b360 8abd
000001b0: e328 8b3c 61e1 35bd db5a 0c3d e85c a6bd
000001c0: 0b03 4fbd a109 94bd a06d 58bd e2ca ddbc
000001d0: 5107 dbbc a0ec 8bbc 3d90 9ebc d081 9abd
000001e0: e3cc 96bd b197 073d dd31 b23c 16da 22bd
000001f0: bd15 a0bc 5e97 84bc f0e4 503d 1dcf 86bd
00000200: dc2c 95bc be9f 4e3d e38e 573b ae4c 94bd
00000210: 6a72 c93d 8c99 213d eabe af3d 649a d93d
00000220: 7a48 49bd 21f3 653d 5275 ea3b ee05 73bd
00000230: 4faa 43bd 2b14 8d3b 5e36 0c3c ea91 9ebd
00000240: 93b6 45bc 44a1 833d cb4c efbc 6718 a9bd
00000250: 1c85 6dbd fc63 eabd bf9a b33c 5287 00bc
00000260: c186 5cbd b120 0cbc 78c2 27bc c12f 6abd
00000270: d547 dc3c b116 03bd 8216 32bc dd97 0fbd
00000280: e2d7 223d cd4b 9abd 3d0c a93d 431f 27bd
00000290: 824c 36bd 1b28 873d 3201 3bbd e7f4 31bc
000002a0: c630 6b3d 058d d8bd 3e47 8d3d ef8d a13d
000002b0: 737c 1cbd 56d0 62bd 6a08 89bd f758 babd
000002c0: 381f 79bd df7c 5c3d 2588 b73d b5a5 25bc
000002d0: 8a10 083d 7a0c 763d 9f02 2a3d 8b73 313d
000002e0: 8c11 bcbd a73e 2b3d bcfb 383d 9831 2cbd
000002f0: ae66 173d 673e 6ebd 2c4b 59bd 4105 a13b
00000300: 50d0 b83d afe9 4d3d feb9 c0bc 1a37 be3c
00000310: 66be 93ba 40f1 dfbd d7c7 823d 3eec 163c
00000320: 51eb 863b e396 17bc 7a60 84bb 24b3 85bc
00000330: fe78 1abd 8223 833d 84ea 393c 7ef9 563d
00000340: d434 4a3d 3ee0 8bbd 4af7 c03d 98a2 ae3d
00000350: d7a7 3ebd 1069 9a3d f137 8f3d 2289 25bd
00000360: 6041 cabc 7ec4 773d 7f29 35bd 1af0 24bd
00000370: 0027 adbb a7dc 2b3d 02e2 5c3d 4a22 913d
00000380: efa6 38bc b1fb aa3d 13e4 083d 1415 693d
00000390: 0345 06bc 6df5 383d 484d 8b3d 0dd2 90bd
000003a0: b97d d9bb 8831 80bd 191d 52bd 54ec a03d
000003b0: a43a adbb 290a 443d 107f 4bbd aa8a 91bd
000003c0: 1823 d5bd 1fca 68bc 6fdf 32bd 6517 45bd
000003d0: d460 d9ba 10fb d2bc 9ca2 7fbd 92d1 b5bc
000003e0: d35d caba 6593 a1bd da63 44ba 88d5 12bc
000003f0: e5b0 9c3a 6de6 753d 3422 a1bd 55af ab3c
0.00318923 0.06626397 0.034791548 0.03323843 0.06819019 0.08494221 0.038313683 -0.043430477
0.051622443 -0.054155093 -0.013632493 0.072870634 -0.07080555 -0.0015902648 -0.050161317 0.07533363
0.060919095 -0.01358673 -0.038101412 -0.00020530784 -0.053248998 -0.06453019 0.05789291 -0.04793317
-0.087627426 0.024093186 0.06101217 0.056261025 -0.055165242 0.07900628 -0.013235899 -0.048362687
-0.010434427 0.06811378 -0.04625701 -0.052734587 0.062306516 -0.06439297 -0.0121745 0.0658596
-0.07761199 -0.040815495 -0.03209275 -0.0857021 0.0036330477 -0.035269283 0.03997608 -0.0729797
0.047514748 -0.022899346 0.08190775 0.059654206 -0.053444874 -0.05076216 0.05446201 0.08029835
-0.042473335 0.061632056 0.0069774003 -0.005697314 -0.017256632 0.021358248 0.05284712 0.060280476
-0.013906105 -0.083969526 -0.0809571 0.0065255133 0.028683098 0.000100485806 0.0838755 -0.008004467
-0.045919176 0.07418582 0.0060185795 -0.06197155 -0.051431835 0.081671804 -0.075646214 0.0050104405
-0.08358864 0.07251401 -0.08659101 -0.03275926 0.014562585 -0.0022463216 0.08296251 -0.057156913
0.029725049 -0.01985068 0.004404604 -0.065058224 -0.019155387 -0.041610904 -0.08460307 -0.0064433576
0.05414381 0.014980444 -0.0034377982 0.017020753 -0.08540373 -0.026545612 0.07934385 -0.08616588
0.007893016 -0.015067104 0.016307972 -0.06756725 0.01698727 -0.04440439 0.034266334 -0.08123189
-0.05054001 -0.07228399 -0.05283892 -0.027074281 -0.026736887 -0.017080605 -0.019355888 -0.07544291
-0.07363298 0.03310365 0.021752292 -0.039758764 -0.019541616 -0.016185459 0.05099958 -0.065824725
-0.018209867 0.05044531 0.0032891564 -0.07241188 0.09836276 0.039453074 0.08581336 0.10625151
-0.049141385 0.05614007 0.007155099 -0.059331827 -0.04776984 0.0043053827 0.008557884 -0.07742675
-0.012067455 0.06427243 -0.029211422 -0.082566075 -0.05798827 -0.11444852 0.021924375 -0.007844763
-0.05383945 -0.008552716 -0.010239236 -0.057174448 0.026889721 -0.032004062 -0.010869624 -0.035056937
0.039756663 -0.07533989 0.082542874 -0.040801298 -0.044506557 0.065994464 -0.045655437 -0.010861612
0.05741956 -0.10573772 0.06898354 0.078884 -0.03820462 -0.055374466 -0.06691058 -0.09099
-0.06082079 0.053830024 0.089615144 -0.010110308 0.033218898 0.060070492 0.041506406 0.04332308
-0.09183034 0.041807797 0.045161948 -0.042039484 0.036963157 -0.05816498 -0.053050205 0.0049139564
0.090241075 0.050271686 -0.023526188 0.023219634 -0.0011271953 -0.10934687 0.06385773 0.009211598
0.0041174074 -0.009252283 -0.004039821 -0.016320772 -0.037713043 0.06403257 0.011347417 0.052484028
0.049366787 -0.0682988 0.09422167 0.08527106 -0.046546783 0.0753957 0.06993092 -0.040413983
-0.024689376 0.060490124 -0.044229027 -0.04026804 -0.00528419 0.041958477 0.053926475 0.07086618
-0.011270269 0.083487876 0.033420634 0.056904867 -0.008195165 0.04515593 0.068018496 -0.07071314
-0.0066373018 -0.06259447 -0.05129728 0.07857576 -0.0052865315 0.047861252 -0.049681723 -0.07106526
-0.10407084 -0.014208346 -0.043670114 -0.048118014 -0.0016584643 -0.025754482 -0.062410936 -0.022194657
-0.0015439339 -0.078894414 -0.00074916857 -0.008962043 0.0011954574 0.060034204 -0.07867852 0.020957628

encoder.layers.0.nn.net.2.bias f4 [128]
00000000: 1b0c a0bc 05cf 17bc 062d 923d 09d3 8fbc
00000010: c245 613c 0e4f 853d 1d94 6abd a26f 9d3c
00000020: be3a e63b 9a40 eb3c 3a3e 02bc 47f6 a23d
00000030: 7698 883d ac50 813d c716 ae3d 5c79 b43c
00000040: 2ab0 96bc 284a 56bd 9f8e 0a3d 3320 87bd
00000050: c42e 863d c16f c33c 95b5 4abd bd46 9abd
00000060: b81a 923d 6e36 b93c 8f71 34bd b408 533d
00000070: d67d 893c c9fc a0bc d907 a1bd c9e1 81bd
00000080: 558f 2f3d 8363 94bd e8cf b3bd 5ee4 973b
00000090: 6b86 c9bc e8f7 91bd 8d7e 8fbc 739a 323d
000000a0: 21b1 adbd 25f7 81bd a37b 8abd 3084 45bc
000000b0: 01ec 043b 1a2a 92bd 328d 20bc 720c abbd
000000c0: 120a bfbc c651 223d c87c 0f3d 6349 07bd
000000d0: 6397 2f3c ffbb 90bc 9b32 e9bc 21a4 01bd
000000e0: 3757 92bc a01f f9bc 890c da3c 23f3 41bd
000000f0: f172 383d 91e1 993c a7cb a9bd 7a76 9dbd
00000100: 3340 b1bd 76e6 a4bc 2059 a9bd 9d3c 8dbd
00000110: 0b99 8c3d 487c a7bd 1aaa 393c 1376 29bd
00000120: 254d 643d 3022 203d d9d6 953c 2767 3cbc
00000130: 7b94 97bd 39a0 973b d1af adbd 35e8 6c3d
00000140: 3a50 3b3d b9d6 a4bd c366 c1bc dbbc 263c
00000150: 57ff 463c 6916 563b 95d6 ac3b e64a 68bd
00000160: 5231 853c 5b0c b0bc 3674 12bd 818b 043d
00000170: 08f3 853d 411c 1abc 11da 87bd d968 743d
00000180: 9365 903d 5dab aabd f1e5 d83c 9b53 a23d
00000190: 5498 2bbd 6393 243d 36d1 133d 2f6f bbbb
000001a0: 7e35 6f3d 6d40 343d 1d20 b53d 375e 213d
000001b0: 2865 d3bc 92ed ccbc 56ec 1d3d 0678 783d
000001c0: dc64 89bd 688c 783d 88b1 a13d 0356 803d
000001d0: 3cad 653d d86a 01bb 376f bb3b e893 48bc
000001e0: ba47 8c3d d8f9 bc3c 88a5 613d f2b2 13bd
000001f0: 2276 6abd f8e0 9abd d972 8abd 2815 b4bd
-0.019537022 -0.009265666 0.07137494 -0.017556684 0.013749542 0.06509219 -0.057270158 0.01921827
0.0070260456 0.028717328 -0.007949406 0.0795713 0.066697046 0.06314215 0.08500438 0.022030525
-0.018394548 -0.052316815 0.03382742 -0.065979384 0.065518886 0.023857 -0.049489576 -0.075330235
0.071340024 0.022608962 -0.04405361 0.05152197 0.016783636 -0.019651787 -0.07862825 -0.06341893
0.0428613 -0.07245543 -0.08779889 0.004635378 -0.024600228 -0.071273625 -0.017516399 0.043604326
-0.0848105 -0.06345967 -0.06761863 -0.012055442 0.002028227 -0.071369365 -0.009799289 -0.08351983
-0.023320232 0.039628766 0.03503111 -0.03302897 0.010717246 -0.017667769 -0.028466513 -0.031650666
-0.017863853 -0.030410588 0.026617305 -0.047351014 0.04503149 0.018784316 -0.08290797 -0.07688613
-0.08654823 -0.020129424 -0.08268952 -0.06896327 0.06865128 -0.08178002 0.011332059 -0.04137237
0.055737633 0.039095104 0.018290924 -0.011499203 -0.07401367 0.0046272543 -0.084808 0.057838637
0.045730807 -0.080487676 -0.02360857 0.010176863 0.012145839 0.0032667166 0.0052746036 -0.056712054
0.01625887 -0.021490267 -0.03575536 0.032359604 0.06540495 -0.00940615 -0.0663339 0.059670303
0.07050624 -0.08333466 0.026476832 0.07926103 -0.04189332 0.04017962 0.03608819 -0.005720041
0.058400624 0.044006754 0.08844016 0.03939649 -0.025805071 -0.025015626 0.038555466 0.06066134
-0.067086905 0.060680777 0.078951895 0.062664054 0.056073412 -0.0019747522 0.005720045 -0.012242295
0.06849618 0.023068354 0.055089504 -0.036059327 -0.057241566 -0.07562441 -0.06760187 -0.08793098

encoder.layers.1.nn.net.0.weight f4 [128, 128]
00000000: 7d96 613d b841 0fbd 2740 7e3c 0137 e93d
00000010: f257 af3d 7a6c d2bc a4bd 883d 9b7b 9d3d
00000020: 3626 2c3c d81f a13c 1110 42bd ce62 9d3d
00000030: a0c4 ff3c 2393 b1bc 9e8a a6bc 2903 6e3d
00000040: c731 d9ba 0045 1fbd 800d 7bbd 17ea 813d
00000050: 80e3 fabc 19cf 70bd d60f fb3a 827c c13c
00000060: edb2 27bd 384c 4c3d 5ee2 ab3d e642 e83c
00000070: ac95 06bd 2b8a 35bc 0972 723d ab67 43bd
00000080: d38a a2bd c36b 923d 1f98 953d 6f58 19ba
00000090: 5d8d 9f3c 66fe 3abd aa10 9f3d a0c4 373d
000000a0: 1546 b63c a539 95bd e2c0 193d 05b2 733d
000000b0: 6c6b 3f3d ef33 c5bc bfd2 5c3d 0d0e 873d
000000c0: 87e5 fa3c 8035 c83c 67d9 403d 6ce0 a43c
000000d0: b57c a53d c9af 4dbc 19fd c1bc 496f 983d
000000e0: ac3e 3f3c 177c 3c3d 7a98 92bd 3bf4 2c3c
000000f0: af36 6a3d 5fa2 8d3d 464a 92bd 5374 7abc
00000100: cda4 8abd a590 d53c 4615 93bd aeda 713d
00000110: 44b9 483c 9d64 5ebd 0a26 c43d 6849 603c
00000120: 8bd7 afbd 2e26 393d 6712 0ebd eac4 8f3d
00000130: 93a7 af3d e8ff d73b 91af e7bc 422d de3c
00000140: ee6c 773c 9e76 873d 0ee3 af3d 714e 963d
00000150: ead2 aa3d 4155 93bd 4ad3 12bb cbb1 a9bd
00000160: b1c1 9839 9b51 8a3d af16 b1bc 94b6 6fbc
00000170: 1236 723d 6733 ef3c 220a adbd fa7c 84bb
00000180: 2f8a 963c 876f 3ebd 18a7 23bb e735 4a3c
00000190: 070f 9b3d 7145 9fbd 260a b53d e372 833c
000001a0: df61 69bd d0a4 2abc 9c65 393d a9a5 71bb
000001b0: b20e 7fbc 1699 303c ca75 afbd aa23 78bd
000001c0: da70 26bc 20cf 28bd 8471 a5bd 15fa f7bc
000001d0: 9c57 be3d 0c95 833c edcf 6bbd 8dbd 6c3d
000001e0: 3113 18bc 9865 283d 6903 293c 6df9 66bd
000001f0: 7a18 aa3d d0cc 313d 6843 20bd 4a88 f2bb
00000200: 3f81 4d3d bf2f 953d b74b 6b3d 288e 19bd
00000210: 0106 19bd 3274 7dbd 8cee 543d f558 07bc
00000220: 4b5e 5bbc 5cfb 153d 400f 51bb 4d82 7b3d
00000230: fa3c afbd aa53 47bc 4429 da3c e2b0 8b3d
00000240: 97c6 703d 4233 283d eb0d d63c bd57 76bd
00000250: f46f 333d 5908 a9bd ba8c 983d 09b2 e03b
00000260: 1b75 943d adf0 b23c 116f a8bd 8e9f ecbc
00000270: 6c2d b4bc 02cf 763c 7747 b3bd e497 b8bd
00000280: 9786 1cbd 3c0c f03c a451 9cbd cdd6 c0bd
00000290: a666 8c3c a4b5 88bd dc04 bfbd ddd1 96b9
000002a0: 6545 31bc 440a b23b e4a0 4b3c c30a b2bd
000002b0: 88c2 64bd 384a a7bb 9171 3f3c 2765 463d
000002c0: 0dc0 0cbd d2b2 adbd d6b3 9abc c657 45bd
000002d0: 07ac ad3b b326 cfbb b148 273d 801f 46bd
000002e0: 4e75 56bd 76db 843c 0b7a 333d 98b2 533d
000002f0: 8ab0 10bd 57e0 443d 9da1 c3bc 9398 81bb
00000300: 0248 653d b5f1 b6bd 74c7 68bd 3589 87bd
00000310: 7335 8b3d 877d 12bd 4a38 863d 4aa1 5f3d
00000320: 9b5c 9abd ad34 e5bc d28f 7d3d fb6c b83b
00000330: 226d a8bd 763d 9fbd 0179 093d a6ea 0b3c
00000340: f1d1 a3bd 540c 2fbd 5772 263d bac5 ea3c
00000350: b5d2 8cbd cd82 47bd b74b 9cbd 8155 273d
00000360: 718f 42bd 34cb a8bc 02cc de3c 21d7 a53d
00000370: 2aa3 b8bd 8c2d 89bd 7688 7a3a 9416 e83b
00000380: c6a9 1cbd 46a1 a6bd 85ef 91bd 73cb f83c
00000390: 4a37 b8bb 36fa a0bd e206 893d 4fab 4b3d
000003a0: ab23 aa3c 84cd b5bb 0027 de3b 34fc 803d
000003b0: 1835 33bc 1988 9dbd 355d aa3c dc52 6b3d
000003c0: 6c6d 553d 4f87 313d 6a44 2fbd bcc3 63bd
000003d0: fdb5 43bd 0bad 44bd 3201 c1bd f120 123d
000003e0: 869b 2bbd f2bb b1bd 016a 2e3d 520c 5fbd
000003f0: 2b8b 913d f30f 57bd a608 2dbc 86f5 943a
0.055075157 -0.034974784 0.015518225 0.11387444 0.08561696 -0.025686491 0.06676796 0.076895915
0.010507157 0.019668505 -0.047378603 0.07684861 0.031221688 -0.021676606 -0.02032977 0.058108483
-0.0016570621 -0.038884163 -0.06129217 0.06343477 -0.030626059 -0.058791254 0.00191545 0.02361894
-0.04094212 0.049877375 0.083927855 0.028352212 -0.032857582 -0.011080305 0.059190784 -0.047706287
-0.07936635 0.0714946 0.073044054 -0.00058496644 0.019476587 -0.04565277 0.0776685 0.04486525
0.022250215 -0.072863854 0.037537463 0.059495945 0.046733305 -0.024072615 0.05391192 0.06594477
0.030627025 0.024439573 0.04708233 0.020126544 0.080804266 -0.0125541175 -0.023680257 0.07443101
0.011672657 0.04601678 -0.07157989 0.010556276 0.057181057 0.069157355 -0.07143073 -0.015286523
-0.067697145 0.026069948 -0.07181792 0.05904644 0.012251202 -0.05429517 0.09577568 0.013689376
-0.085860334 0.045202427 -0.03468552 0.0701998 0.08576884 0.0065917857 -0.028281959 0.02712119
0.015101654 0.06614421 0.08588229 0.0733918 0.0834101 -0.07193995 -0.002240377 -0.082858644
0.0002913601 0.06753846 -0.021617262 -0.014630932 0.059133597 0.029199315 -0.08449198 -0.0040432187
0.018376438 -0.04649308 -0.0024971422 0.012341953 0.075712256 -0.07776917 0.08839826 0.016045993
-0.056978103 -0.010415271 0.045262918 -0.0036872423 -0.0155674685 0.010778686 -0.08567388 -0.060580887
-0.010158742 -0.041213155 -0.08078292 -0.030270616 0.09294054 0.016062282 -0.05757134 0.057797957
-0.009281919 0.041112512 0.010315754 -0.056390215 0.0830545 0.043408215 -0.039126784 -0.007401501
0.050172087 0.072844975 0.057445254 -0.037489086 -0.03735924 -0.06187839 0.05198531 -0.008260955
-0.01338918 0.036616668 -0.003189996 0.06140356 -0.08556552 -0.012165943 0.026631005 0.06820847
0.05878314 0.04106451 0.026129683 -0.060142267 0.04380794 -0.08253545 0.074487165 0.006857161
0.072488986 0.021843279 -0.08224309 -0.028884675 -0.021994315 0.015064003 -0.08753865 -0.09013346
-0.038214292 0.029302709 -0.07632759 -0.0941597 0.01713879 -0.0667527 -0.09327099 -0.0002876659
-0.010819768 0.0054333527 0.012428496 -0.08693459 -0.055849582 -0.005105283 0.011684791 0.04843631
-0.03436284 -0.08481373 -0.01888458 -0.04817941 0.0053000483 -0.006321752 0.04084081 -0.048369884
-0.052357964 0.016217928 0.04381756 0.051683992 -0.03532461 0.04806551 -0.023880774 -0.003954956
0.055976875 -0.08932821 -0.05683084 -0.06617967 0.06797304 -0.035764243 0.06553705 0.054597177
-0.07537194 -0.02797922 0.061904736 0.005628226 -0.082239404 -0.077753946 0.033562664 0.008539831
-0.079990275 -0.042736366 0.040636387 0.028658736 -0.06876127 -0.048708726 -0.07631629 0.040853027
-0.047500078 -0.020604707 0.027196888 0.08097673 -0.09015496 -0.066981405 0.00095570774 0.0070827696
-0.038247846 -0.08136229 -0.07125763 0.03037045 -0.0056218253 -0.07860224 0.06690766 0.04972392
0.020768961 -0.005548181 0.0067795515 0.06298104 -0.0109379515 -0.07691974 0.020796398 0.057452068
0.052106306 0.04334193 -0.042789854 -0.05560659 -0.04778098 -0.04801659 -0.09424056 0.035675947
-0.041896366 -0.08678426 0.042581562 -0.05445511 0.07106622 -0.052505445 -0.010561144 0.0011364676

encoder.layers.1.nn.net.0.bias f4 [128]
00000000: f733 323d eb9a 10bd 54f8 a1bd f4ad 503d
00000010: f905 163d 8314 5fbd 3fb7 8f3d a797 753d
00000020: 39f5 da3b a69d a23c 5ec5 c43d db71 b0bd
00000030: e4ca 98bd a084 b2bd 6af1 a8bd f774 65bd
00000040: ec25 abbc d0a7 843c c709 a53d eccf 8b3d
00000050: e6d9 273d ad94 8f3b 7920 13bd fdd0 b6bc
00000060: b41c db3c e64f 93bd 0b49 22bd a0c4 fd39
00000070: 6fe1 42bc 1889 5d3d 4ab2 7fbd f334 8dbc
00000080: 8aea ec3c ef26 d03b acc3 7dbd 4950 813d
00000090: 9213 8a3d 1078 b8bd 524a 0a3c 9b7c cb3b
000000a0: 379d 5b3d e779 b8bd 9a13 c2bc 8ac7 19bc
000000b0: b273 a9bd be42 273c 0386 ec3c 6e8f 393d
000000c0: 4288 99bd 37a3 273d ebc7 a0bc 7401 853d
000000d0: 03d2 47bb c360 133d 98d1 9b3d aaae 7fbd
000000e0: d9ff 103d c920 393c f472 41bd 1a76 57bc
000000f0: aaaa debc 0d90 a43d 84fa e83c cdbe 27bc
00000100: 7eb9 b53d 347a f3bc 9727 9e3d 2760 88bc
00000110: baa1 81bd f63c 913d 2386 38bd b362 95bd
00000120: 43ce 51bd a732 a13d 8869 c63c ab8a 193d
00000130: 0d07 703d 5dac b03c 2f1d 81bd e7ec 69bc
00000140: 9757 5bbd d83f c3bd ea58 543d c3d6 b1bd
00000150: f1de b0bd cce8 2b3b 29b1 52bd e574 8e3d
00000160: 4414 583c ad84 0c3d 0045 7abd 1bb3 61bd
00000170: b25a 30bd 2d45 f43b dd69 b83c fcef 99bc
00000180: 7033 f7bc 7fb0 f93c 2e69 a43c 4ab4 9a3d
00000190: c73a c8bc c7c5 63bd 2637 e13c 1424 b83d
000001a0: 8df7 6dbc 1341 00bd 7c08 133d ef6c 33bd
000001b0: 2bd5 8abd 35fe dfbb 34f8 a43d 09a5 8d3d
000001c0: 3b10 9dbd 15ca 14bd 855e 84bd 764d 873d
000001d0: 3154 85bc 2767 adbb 497f 5a3d 4074 7abc
000001e0: 2be1 8a3d d156 b73d 3275 66bd b8bc 2e3d
000001f0: 3b46 7a3d 040f 31bd b501 2abd 38c9 fcbb
0.04350659 -0.03530399 -0.07908693 0.050947145 0.03662679 -0.05446292 0.07017373 0.05995908
0.006682065 0.019850563 0.09607957 -0.08615466 -0.07460573 -0.087167025 -0.08249171 -0.05601975
-0.020892106 0.0161933 0.080585055 0.06826767 0.04097929 0.004381737 -0.03591964 -0.02231645
0.026747085 -0.07192974 -0.03962044 0.00048402417 -0.011894568 0.05408582 -0.06242589 -0.017237162
0.02892043 0.0063522975 -0.061954185 0.06314141 0.06742014 -0.09007275 0.008440571 0.0062099225
0.05361673 -0.09007626 -0.023690987 -0.009385953 -0.0827402 0.010208784 0.028872496 0.0453028
-0.07496692 0.04092714 -0.019626578 0.06494418 -0.0030490167 0.03598095 0.07608336 -0.062422432
0.035400245 0.0112993205 -0.04722877 -0.013150716 -0.027180988 0.08035288 0.028439768 -0.010238362
0.088732705 -0.029721357 0.07722395 -0.016647412 -0.06329675 0.070917055 -0.045049798 -0.07294216
-0.051222097 0.07870989 0.024220243 0.03748576 0.058600474 0.021566564 -0.063043945 -0.014277673
-0.05355033 -0.095336616 0.051842608 -0.08683541 -0.08636273 0.0026231287 -0.051438484 0.069558896
0.013188425 0.034306217 -0.06110096 -0.05510245 -0.043055244 0.0074545355 0.022511417 -0.018791191
-0.030175894 0.030479668 0.020069685 0.07553919 -0.02444209 -0.055608537 0.027492117 0.08991256
-0.014524353 -0.03131206 0.035896763 -0.04380506 -0.0677894 -0.0068357238 0.080551535 0.069162436
-0.07669111 -0.036325533 -0.06463341 0.066065714 -0.016275497 -0.0052918377 0.053344045 -0.015286505
0.06781229 0.08952106 -0.05626411 0.042660445 0.061102133 -0.04322721 -0.041505534 -0.007714417

encoder.layers.1.nn.net.2.weight f4 [128, 128]
00000000: bc8c 14bc 8730 4a3d 243e 013c 9d19 59bd
00000010: 7379 2cbd a6eb 74bd 39be 48bd f967 b93d
00000020: 3571 02bd eb08 2bbd 399b e03b 679e a9bd
00000030: 55c0 af3c 3a85 983d 966d 9b3d c558 85bc
00000040: bc95 3e3d d79c a7bc b014 9b3d 214d 7c3c
00000050: d0e3 0dbd d1aa cabd 7138 41bc d8fa ae3d
00000060: fba8 2fbc ff9e a1bd cd29 d53c c7ec 7b3c
00000070: 2981 523d fb53 6d3c 2a9f 42bd 7208 833d
00000080: 4074 ef3c 88d3 1fbc fc3f 71bd 9b46 83bd
00000090: e134 e43c 966f 953d 73d1 683d 07ef 5dbd
000000a0: d225 50bd 998c 80bd 583c 303d 5b58 efbc
000000b0: 09ad 8b3d 884a 6abd c7cf a1bd e23c 453c
000000c0: ea5e bebc f21a 0c3c 9064 d83d 329f c5bc
000000d0: 73c9 5a3d 99cf c73d f301 f03c 0896 9cbd
000000e0: f7bf 543d 57cc 193d 712e 1bbd 067e 39bd
000000f0: ed6e 50bd dd39 9bbd a2fc 1a3d 0924 a23d
00000100: 5e12 a9bc 1be4 1cbd faa3 c83b a4c8 86bd
00000110: d170 62bc 9112 423d 78a3 523d 467d 083c
00000120: 5983 ddba 7536 533d 1882 03bd 1189 61bc
00000130: 1f86 00bd 01c4 2bbd f423 8ebb 8d0e 673d
00000140: 025b bc3d 345b eabb b47b 0dbd b1e3 d9bc
00000150: b963 2ebd 8ae1 b2bc 49cc 27bd 4619 b83d
00000160: ae2b a43d ca7c c3bc 2fde 783d 7f57 24bd
00000170: 1216 5b3d 4daa 843d 344e 8a3d 1f91 9fbd
00000180: 04fb 97bd 4ebe 41bd 5b8e 51bd 199b 8bbd
00000190: c450 e23c 869c 543d 66e0 b53c 85a8 033d
000001a0: 23e4 f4bc 3ac3 d8bd 5797 a63d 46b1 593d
000001b0: 84a5 863d 5461 2f3b cd3e b03d 261c 56bd
000001c0: e9f8 8fbd 9162 81bd d900 5f3d fe88 10bc
000001d0: 336f a2bd bc37 adbd efb1 9dbd b050 a3bd
000001e0: 127d 673d e7ad 9d3d 4cc3 82bd 157d 623d
000001f0: 2592 95bd 4aeb 933c 8feb 823d 7689 953d
00000200: f71e c63c 10a1 5e3d 06a2 d5bb 7dbd f6bc
00000210: 7beb 88bd ab24 4fbd c877 983d 8cfd 5d3c
00000220: eb01 b0bd 9ba6 2c3b 1a94 ecbc e045 babd
00000230: ad0a 203c 29cb 133d 82ea 0c3c 529d 86bd
00000240: ce1a 953c d0d7 883d 7dbf 89bd 6e56 2cbd
00000250: 02a0 303c cb1a 35bd 2ad7 94bd ccbb adbd
00000260: b800 853d f124 e23b 6900 673d 3986 52bd
00000270: d4e9 b5bb 4f51 2fbc 2361 c2bc 84a2 8c3d
00000280: b825 39bd 8b80 803d f5c9 643d 1fb7 7f3d
00000290: dde5 c8bc 943e 86bb 69f9 6e3c bbce a2bc
000002a0: 5e3f a03c 1962 0bbd 34ef bcbc 83f2 313c
000002b0: 2fcf 79bd bec2 4fbd db1a 243d 7abd bd3b
000002c0: 66ed 0ebd 1e92 a23d 4554 45bd 1f1c 70bd
000002d0: d255 42bc 2012 5a3d 2549 a73d bd51 9b3c
000002e0: 9360 6fba 2c44 913d c86c 8b3b 507c 553c
000002f0: 0aff edbb 930e f8bc 8be1 bbbc 9047 06bd
00000300: dc52 133d 9f03 a13d a28f 0f3d 0662 3abd
00000310: 1195 24bd db05 81bc 882d 96bd 2b86 a9bd
00000320: 552c fa3b 46e9 ce3d 7392 963c 0c92 b03d
00000330: f026 71bd 8c4d 39bc ba54 7cbd 002c 42bd
00000340: 41ee 623d 9a50 eebc 7269 943d 670a 7d3d
00000350: b41d 8b3d 7d67 623d 5b06 0ebd 28fd a23d
00000360: beac 81bd 2aa3 2c3c da2b ab3d 9911 4dbd
00000370: 3e65 38bd ed14 28bd 1bc7 313d d1f7 e9bc
00000380: 69c3 18bc d52e 5abd cb55 eabd 023f 31bd
00000390: 235f 85bd 9e41 663d 4e1d 7ebd 243b 8cbc
000003a0: b9e9 9abd 828d 433d 10e6 e2bb 3ab6 293d
000003b0: a5af 74bd 5693 1dbc 6275 7abd 3ff4 023c
000003c0: ece1 d739 b4d7 633d 4738 42bd a999 463d
000003d0: 05f8 74bb 4e62 8c3b df41 e63c 728d 773d
000003e0: 7b60 d9bc db35 543d 1998 72bd b98e 91bd
000003f0: a85d 4dbd 5c9d 803d 36f6 abbc 2899 0dbd
-0.009066757 0.049362686 0.007888351 -0.053002942 -0.04210801 -0.059795044 -0.049009535 0.09053034
-0.031846244 -0.04175655 0.0068544415 -0.08282166 0.021454016 0.07447286 0.07589261 -0.01627768
0.046529517 -0.02046053 0.07572305 0.015399248 -0.034641087 -0.09895862 -0.011793242 0.085439384
-0.01072144 -0.07891654 0.026020909 0.015376276 0.051392708 0.014485355 -0.047515072 0.06398095
0.029230237 -0.009755023 -0.05889891 -0.06409951 0.027857246 0.07296674 0.05684037 -0.054183032
-0.05081732 -0.06276817 0.0430263 -0.029216936 0.06820113 -0.057199985 -0.079009585 0.012038441
-0.023238618 0.008551346 0.10566056 -0.024123762 0.053414773 0.09756393 0.029297804 -0.07645804
0.051940884 0.03754839 -0.037886087 -0.0452862 -0.050887037 -0.07579396 0.037838586 0.079170294
-0.020638641 -0.038303476 0.006123063 -0.06581238 -0.013820843 0.047380988 0.051425427 0.008330649
-0.0016900107 0.051565606 -0.03210649 -0.013765589 -0.031377908 -0.04193497 -0.004337782 0.05641036
0.09197046 -0.0071519855 -0.0345418 -0.02659783 -0.04257557 -0.021836061 -0.040966306 0.089891955
0.08016144 -0.023863215 0.060758766 -0.040122505 0.053487845 0.06477795 0.06753197 -0.077913515
-0.07420924 -0.04730063 -0.05116115 -0.06816692 0.027626403 0.051907085 0.022201728 0.032143135
-0.02989394 -0.105841115 0.081343345 0.053147577 0.06574538 0.0026760893 0.08605728 -0.05227294
-0.07029898 -0.06317628 0.054444168 -0.008821724 -0.07931366 -0.08457896 -0.07699954 -0.07974374
0.05651576 0.07699185 -0.06384906 0.05529507 -0.073032655 0.01805653 0.063925855 0.07301609
0.024184687 0.05435282 -0.006519559 -0.030119652 -0.06685539 -0.05057208 0.074447215 0.01354922
-0.08594116 0.0026344422 -0.028879214 -0.09095359 0.00976817 0.03608242 0.008600833 -0.06572975
0.018201258 0.06681788 -0.067259766 -0.042074613 0.010780336 -0.044215005 -0.07267602 -0.08483085
0.06494278 0.0069013764 0.056396876 -0.051397536 -0.005551556 -0.010700538 -0.023727959 0.06866935
-0.045201987 0.062745176 0.055856664 0.062430497 -0.02452367 -0.0040968154 0.014585831 -0.019873967
0.019561466 -0.0340291 -0.02306328 0.010861042 -0.0609886 -0.05072283 0.040064674 0.0057904096
-0.03489437 0.07938026 -0.04817607 -0.05862057 -0.0118612815 0.05323994 0.08168248 0.018959874
-0.0009131517 0.07093081 0.004254911 0.013030127 -0.007263069 -0.030280387 -0.022934696 -0.03278309
0.035967693 0.07862019 0.03504909 -0.04550364 -0.040181223 -0.015749862 -0.07332903 -0.08277544
0.0076346793 0.10103087 0.01838038 0.08621606 -0.058875024 -0.0113099925 -0.06160424 -0.047405243
0.055402998 -0.029091168 0.072466746 0.0617775 0.06792775 0.055274475 -0.03467403 0.07958442
-0.06331776 0.010536948 0.083579734 -0.05006561 -0.045018427 -0.04103558 0.043402772 -0.02856055
-0.009323933 -0.05326732 -0.11442145 -0.04327298 -0.065122865 0.05621492 -0.062039666 -0.017118044
-0.0756411 0.047742374 -0.0069243982 0.04143355 -0.05973782 -0.009617647 -0.0611471 0.007992803
0.0004117632 0.055625632 -0.04741695 0.048486385 -0.0037379276 0.00428418 0.028107582 0.060437627
-0.026535263 0.051809173 -0.059227083 -0.071073 -0.050138146 0.06280014 -0.020991426 -0.03456989

encoder.layers.1.nn.net.2.bias f4 [128]
00000000: 0720 a13d de6b 04bc f091 3fbd e700 45bd
00000010: b228 ac3d 0a15 11bd cdc5 4a3d 2e28 86bd
00000020: 1c5a 1d3d bfef 2d3d 3ec0 343b ffd7 97bd
00000030: b578 adbd 3d9e a33d 3db6 1abd 87f2 85bd
00000040: 16c8 9fbd f0a9 b8bc acf9 91bd 6747 e2bc
00000050: 671c 1cbc d691 1cbd d771 213d 5ca6 d73c
00000060: f5dd 07bc 26d4 23bb 2f64 a73d 41a8 10bd
00000070: 1f0a de3b c1dc 35bc da61 9c3d a11e 183b
00000080: dbf6 7d3d df21 913d 6730 ad3d f7ad 283d
00000090: 1a59 403c 835e c63c 63a3 e93c 2038 363c
000000a0: 124a 81bc 67fa d33c 30e9 3fbd 61c7 98bd
000000b0: 5c22 b2bd 9044 823d dbaa 943c b47e 913b
000000c0: ca51 8dbc 5459 3b3d bd09 7a3c 5b51 9bbd
000000d0: 50f0 64bd 1293 a0bd 7d1d 243d 5f5d d63c
000000e0: a33e 863c 9af0 37bd cbcd 1abd 282f f83c
000000f0: c99f ef3b 884d 03bd 9ae7 adbd db71 7ebd
00000100: 6ceb 643d 498d 61bd 67ac 88bd 609c 41bd
00000110: 4178 0fbc 31b4 2c3d c918 47bd 4c1a 97bd
00000120: 33a9 3d3d f413 403c d254 db3c 82cd 0f3d
00000130: b41e 44bd 3d28 77bc 7669 c9bc 25fe 913d
00000140: 4374 32bd 32f5 a3bc eb39 19bd 373a c3bb
00000150: 01c5 aebc 050e 453d 79b3 8cbd 009e 0b3d
00000160: 37a7 9e3c 268d 9bbd 9861 973d c1cb 153d
00000170: 37a0 6bbd fa45 2e3d bce6 5f3d cd06 f63c
00000180: c9c2 8c3d ab4a 893d feb4 173d 84a2 183b
00000190: a6ed 783d e7c0 413d 7d50 9abd f6db b13d
000001a0: 89fb 83bd 7426 70bd 4ed1 a53d eba4 ab3d
000001b0: 71be 8c3d 9bce d33c 3a8e bebc 222d 423d
000001c0: efc3 663d 4a22 a5bd 83f7 923d 363c 0f3d
000001d0: f3af af3d 10b2 4b3d d43d 72bd e76a ec3c
000001e0: 4bb8 50bd c3f1 91bc bd40 473d d074 9cbd
000001f0: 50f4 8f3c 3007 c9bc 485d a13d 184d 373c
0.07867437 -0.008082358 -0.046770036 -0.048096564 0.084061995 -0.035420455 0.049505044 -0.065506324
0.038416013 0.042464968 0.0027580406 -0.07414245 -0.08470289 0.07989166 -0.037771452 -0.06540399
-0.07801835 -0.02254197 -0.07127699 -0.027621938 -0.009528256 -0.038225017 0.039415207 0.026324444
-0.008292665 -0.0024998276 0.081734054 -0.03531671 0.006776109 -0.011099995 0.07635851 0.0023211616
0.062002998 0.070865385 0.08456498 0.04118153 0.0117399935 0.024214989 0.028520292 0.01112178
-0.01578239 0.025876237 -0.046853244 -0.074599035 -0.0869796 0.063607335 0.018147876 0.004440153
-0.017250914 0.045739487 0.015261111 -0.07583877 -0.055893242 -0.078405514 0.040067185 0.02616757
0.01638729 -0.04490719 -0.037793916 0.030295923 0.007312749 -0.03205636 -0.0849144 -0.0621203
0.05588858 -0.05506638 -0.06673508 -0.04726827 -0.008756698 0.04216403 -0.04860762 -0.073780626
0.04630394 0.011723507 0.026773844 0.035108097 -0.047880843 -0.015085277 -0.02458642 0.07128552
-0.043567907 -0.02001438 -0.03740875 -0.0059578675 -0.021334173 0.048109073 -0.06870169 0.034086227
0.019366844 -0.07595281 0.073916614 0.036571268 -0.05752584 0.042547204 0.054663405 0.03003254
0.0687309 0.06703695 0.037037842 0.0023290226 0.060773514 0.047303107 -0.07534883 0.08684532
-0.06444461 -0.05863042 0.08096562 0.08381065 0.06872261 0.025855353 -0.023261178 0.047406323
0.0563392 -0.08063181 0.07176115 0.03496953 0.085784815 0.04973036 -0.059140995 0.028859569
-0.050957005 -0.017815476 0.048645724 -0.07639468 0.017572552 -0.02453956 0.0787912 0.011187814

encoder.layers.2.nn.net.0.weight f4 [128, 128]
00000000: 06ad 203b 1a5c ae3c 73c0 8ebd 0f6d 323d
00000010: 6d39 703d 73c8 57bd 17c7 a4bd 4cc9 883d
00000020: 9dc6 37ba 723b b93c c36e 98bd 66c3 3cbd
00000030: 5b08 6fbd 6511 283d bdeb 57bc 1915 4bbd
00000040: cec2 c9bd 63b8 813d a280 81bd 8bb1 85bd
00000050: a3e0 96bd 60de 2f3d 0067 7dbd e0f2 ba3d
00000060: a0d2 82bd 075f a83b 250b a53a 5d0e df3c
00000070: d904 8fbd 5d56 543c a59d a23d 9c15 cebd
00000080: cf5a 413d 0436 39bd 4449 363d 0adf 913c
00000090: 7d78 b4bd 8274 6d3d 0977 443d ff78 51bd
000000a0: cbe8 f9bc c847 6cbd 5455 be3d a55d 683d
000000b0: ef5e 843d 2f10 173c cd9d a93c 7d88 883d
000000c0: 9dda afbb f636 3e3d 8fe0 07bd 2ed1 c83d
000000d0: 71d9 bebc 7af1 e43b 969c 9dbd 95f3 a2bd
000000e0: 3e43 1ebd ea86 e9bc e736 55bd f11c 62bd
000000f0: 7150 22bd 794e 8bbd 57e4 d33c 954b 6f3c
00000100: 5290 aabd 568d 6cbd 69f9 30bd 0789 063d
00000110: 4a79 983d 7db1 003d 2d30 dcbc 37f1 b2bd
00000120: 0898 213d 5230 043b 1cd0 8e3d 02a7 a5bd
00000130: 2f1d 7e3d debd 1d3d 53e7 593c fd38 49bd
00000140: a4d3 833d c6df 5d3d 0c9c a93d 3cd4 8e3d
00000150: c6e4 353d 8a9f 733d 6b6a bb3d ed12 c0bd
00000160: c059 59bd 831f 3c3c 12b1 9c3d 5b34 0abd
00000170: 694d 7bbd 8e54 443d b0a1 7abd 3a91 663d
00000180: 6685 943d 6233 883d 8948 c9bc 6b85 85bd
00000190: 4ead 40bd e99a 3f3d e67b 8fbb bbec eabd
000001a0: cad3 98bd 18f6 95bd b955 1e3d 6e5e 043c
000001b0: 5305 f8bb 4019 9c3d fe98 36bd 8f10 6dbc
000001c0: 05d6 23bd 8196 25bb c7dd 3abc e92b 263c
000001d0: bf39 96bd b328 04bd 7030 09bd b370 34bd
000001e0: ac22 97bd 1191 18bd 4c80 92bd a0a8 cbbb
000001f0: 156f a83d 059f 98bd 5720 6dbd ab56 f43c
00000200: 89f8 4b3c adf2 acbd 539c 0dbd 8ffd 313d
00000210: 3978 683b 03bd 5e3d e43c 543d 7ffd 81bd
00000220: 1fd6 70bd 00fc 1b3c b5db a43a be16 85bd
00000230: 3eb4 823d 7240 413c ace2 15bb d24c 743d
00000240: f315 82bd 3578 ccbd f930 bebc de3c 0fba
00000250: 785d 8dbd a224 543d fc5d 83bd 2a4d 7b3d
00000260: 426a 1a3d 13d6 4abc b405 a0bc bf8a 21bc
00000270: 8808 93bd dc54 86bc 0439 9e3c 8f5d 17bd
00000280: 6f98 1a3d 899d 493d 3d4d 0abb 12c5 59bc
00000290: 5fd7 26bb 5777 6b3d 09c0 30bc 90b9 55bd
000002a0: d742 38bd f18e 4cbd 041e aabd d248 97bd
000002b0: bc3f 923d d9b8 acbd 33ab 9f3d b30b b5bd
000002c0: 51e2 b63c 7006 ab3d c990 853c 8367 693c
000002d0: d7ba 3a3d 52f7 1f3b ff1a 1dbd b01b 8d3d
000002e0: 2993 6fbd 73b5 8b3c 698c a13d 3c43 54bd
000002f0: d409 8abc af47 7dbc 275d 89bd 2f54 a639
00000300: 9ae0 19bc 37f3 bbbd 1b81 253d f76f 613d
00000310: 05fc a23d 3ce5 8bbd 8af6 0a3d 1750 3dbd
00000320: 9b4f ad3c d607 703d 3770 d0bd aff1 2bbd
00000330: b181 ba3c b35b 63bd 4af1 503d cb34 a3bd
00000340: fb84 01bd 0de9 a9bd 1664 8ebd 0316 173d
00000350: 9160 dcbb ba00 ecbb 3e00 29bc d3d8 1ebd
00000360: 54c4 3fbd 8c25 bfbd 29cf 383d fb99 51bd
00000370: 7ce5 67bd 2b32 b4bb e0f6 1a3b 19b2 733d
00000380: 4b37 a6bd d978 51bc 9657 be3b 36f1 703d
00000390: fcc7 aabd 921a 8e3c 2754 ab3d 6dde 1d3d
000003a0: 72e2 e0bc a005 a43c 00ce e43c 8a0b 143d
000003b0: ba44 b83b 7112 85bc b185 353d 6210 803d
000003c0: d2d2 473d fbea 9fbd 2f67 5c3d b161 fdbc
000003d0: 0691 81bd 9f6d 90bc ab62 8bbd 90bc 7ebc
000003e0: cd20 303d eae9 f9bb b980 91bd 3d15 9d3c
000003f0: bc5d a9bd d803 33bd ffcd 803d d476 4f3d
0.0024517193 0.021284152 -0.069703005 0.043561038 0.058648515 -0.052681398 -0.08045786 0.06679019
-0.00070104917 0.022611354 -0.07443001 -0.046084784 -0.058357578 0.041032214 -0.013178763 -0.049580667
-0.09851609 0.06333997 -0.06323363 -0.06528004 -0.07367065 0.042936683 -0.061865807 0.09128356
-0.0638783 0.0051382813 0.0012591822 0.027228529 -0.069833465 0.012960044 0.079402246 -0.100627154
0.047205742 -0.04521753 0.044503465 0.017806549 -0.08812044 0.05797244 0.047965083 -0.05114078
-0.030506512 -0.057685643 0.09293619 0.05672993 0.0646342 0.009220167 0.020705128 0.06666658
-0.005366637 0.046439134 -0.03317314 0.09805523 -0.023297044 0.006986794 -0.07695882 -0.07956616
-0.038638346 -0.028506715 -0.052054312 -0.055203382 -0.039627496 -0.06802077 0.025865717 0.0146054225
-0.08328308 -0.057751976 -0.043206606 0.032845523 0.07445009 0.031419266 -0.02687844 -0.08737414
0.03945163 0.0020170403 0.069732875 -0.08088495 0.06203955 0.03851115 0.013299781 -0.049126614
0.064368516 0.054168485 0.08281717 0.06974074 0.04440763 0.05947832 0.09151157 -0.0937861
-0.053064108 0.011482122 0.07650961 -0.033741336 -0.06135312 0.0479322 -0.061189353 0.056290843
0.07252006 0.066504255 -0.02457072 -0.06519588 -0.047040276 0.046778593 -0.0043787835 -0.11470934
-0.074622706 -0.07322329 0.03865597 0.008079154 -0.007568994 0.076220036 -0.0445795 -0.01446928
-0.039999027 -0.002526671 -0.011405415 0.010142305 -0.07335233 -0.032265376 -0.03349346 -0.04405279
-0.0737966 -0.03724772 -0.07153377 -0.00621517 0.08224312 -0.074522056 -0.05789217 0.029826483
0.012449392 -0.08444724 -0.03457291 0.043454703 0.003547205 0.054379474 0.051815882 -0.06347179
-0.05879795 0.009520531 0.0012577685 -0.06498478 0.06382035 0.01179515 -0.0022870703 0.059643574
-0.06351843 -0.09983865 -0.023216711 -0.0005464087 -0.069025934 0.05179275 -0.064144105 0.061352886
0.03769899 -0.012380141 -0.01953397 -0.00985974 -0.071793616 -0.016397886 0.019314297 -0.03695446
0.03774303 0.049222503 -0.0021103167 -0.013291614 -0.002545796 0.05748686 -0.010787972 -0.05217892
-0.04498562 -0.049941007 -0.08306506 -0.07386936 0.071410626 -0.084336944 0.077963255 -0.08840122
0.022324713 0.08350837 0.01630439 0.0142458705 0.04558834 0.002440889 -0.038355824 0.068900466
-0.058489952 0.017054295 0.07888109 -0.051821932 -0.01685039 -0.015458985 -0.067072205 0.0003172471
-0.009391928 -0.09177249 0.040406328 0.05503842 0.07958225 -0.06830832 0.033926524 -0.046218958
0.021156123 0.058601223 -0.10177653 -0.041978534 0.02276692 -0.055507373 0.05101136 -0.07969054
-0.03162096 -0.08296404 -0.06952684 0.036886226 -0.006725379 -0.007202235 -0.010314999 -0.038781
-0.046818092 -0.093333334 0.04511944 -0.051172238 -0.056615338 -0.0054991446 0.0023645684 0.05949602
-0.08116015 -0.01278516 0.005808781 0.058823787 -0.08338925 0.017346654 0.0836566 0.0385422
-0.027451728 0.020022213 0.02793026 0.036143817 0.005623427 -0.016244145 0.04431695 0.06253125
0.04878504 -0.07808491 0.05380934 -0.030930372 -0.06326489 -0.017630396 -0.06805929 -0.0155478865
0.04300003 -0.0076267617 -0.0710463 0.019175166 -0.082698315 -0.043704838 0.06289291 0.050650433

encoder.layers.2.nn.net.0.bias f4 [128]
00000000: 8766 46bd bde3 a9bd 4118 12bd 8c10 bf3c
00000010: 13e0 333d 0b2f b5bd 1cb3 bd3a b1d0 e93c
00000020: e1fd b1bc f534 5c3d 6b07 873c 6f23 a3bc
00000030: f191 68bd be13 12bd d393 833d 81fd a23d
00000040: 187e 64bd 8174 b23d f938 ab3c bec9 853d
00000050: 3660 7c3d db22 b53d 38ed 8fbb 5ce8 9abd
00000060: 0446 133d 46ea c73c 3dad c3bd 2ca7 2c3c
00000070: c2dc a23d aab4 003c 1099 42bd 1b70 ffbc
00000080: d4b4 a4bd 31c5 8c3c cfee d73c 6f33 97bd
00000090: 94c2 88bc 0165 5bbc 17fc 483d 02a9 9bbd
000000a0: 1670 8bbd e40f 243c 0e16 51bd a9e0 8ebc
000000b0: 8cda a0bc 41e1 873d 96c9 02bd bfb8 8d3d
000000c0: a65c 233d e563 a0bb 06ff 17bd 9901 9fbd
000000d0: c075 52bd 0dbb 983c 1090 9abd 0201 3c3c
000000e0: 3ff0 e0bd a19a 8fbd a97d 9f3c 6e95 b93d
000000f0: f6fa 99bd 31d3 163d bd3d 8bbb 6b08 b9bc
00000100: 58f8 783d 58dd 74bd 70fb 89bd 39ae 903d
00000110: bab1 6d3d 3af9 50bd 9b4d e0bb 923a b7bd
00000120: ac7d 403d f316 8a3c 82ae 4c3d fb4f e5bc
00000130: c9eb 0fbb 0217 b6bc 83dc 643a f22d 43bc
00000140: 4acb 3d3d 29e2 8c3c dfba 1abd 7e2d 8fbd
00000150: 9309 8f3b 83a6 823c f340 f5bc 3c67 bd3d
00000160: cc36 8b3d 1b3c eb3b fea4 2b3b e654 343d
00000170: 5b78 8fbd bff6 49bc c558 b4bd 5b98 a33d
00000180: 42b5 9e3d 15c1 4a3b e9d0 ee3c 449a 613d
00000190: 37bc 6b3c 8888 ff3c 5362 33bd 1894 eabc
000001a0: 72a6 91bd 2183 193d d2fa 85bc 3de5 96bc
000001b0: 864d 0f3d 3fa6 8abd b8f5 df3c a7d9 96bd
000001c0: cd06 8d3d fa26 2c3d b864 84bc b7d5 943d
000001d0: fa22 713d ab45 93bd 918b 673d d0eb d0bc
000001e0: d354 88bd 63ee ddbc 9ac4 573d 4116 84bd
000001f0: 9971 cebd 8933 67bd a1e6 e1bc 337b 923d
-0.04843762 -0.08295391 -0.03566766 0.02332332 0.043914866 -0.08846863 0.0014472934 0.028541895
-0.021727504 0.05376144 0.01648303 -0.019914357 -0.056779806 -0.03566336 0.064246796 0.07958508
-0.055784315 0.087136276 0.02090119 0.0653262 0.06161519 0.08844539 -0.0043922924 -0.0756385
0.035955444 0.024403702 -0.09554527 0.010537904 0.079522625 0.007855574 -0.047509253 -0.031181386
-0.08042303 0.017183872 0.02635899 -0.07382857 -0.016694345 -0.01339078 0.049068537 -0.07600595
-0.06808488 0.010013554 -0.051046424 -0.01744111 -0.019635461 0.06634761 -0.03193053 0.06920003
0.03988328 -0.004894721 -0.037108444 -0.077639766 -0.051381826 0.01864388 -0.07547009 0.01147485
-0.10983323 -0.07011915 0.0194691 0.090617046 -0.0751857 0.0368225 -0.004249303 -0.022587022
0.060783714 -0.059781402 -0.06737411 0.0706448 0.05803082 -0.05101893 -0.006845189 -0.08946718
0.04699485 0.016856646 0.04997111 -0.02799224 -0.0021960607 -0.022227768 0.00087303686 -0.01191281
0.04633645 0.017197685 -0.03777587 -0.06991099 0.004365155 0.01594854 -0.029938197 0.09248206
0.06797561 0.007178796 0.0026190872 0.044026278 -0.07005378 -0.012326895 -0.08805994 0.07988044
0.07749416 0.003093784 0.02915235 0.05507876 0.014388136 0.031193033 -0.04379494 -0.02863507
-0.07111825 0.03747857 -0.016354952 -0.018419856 0.03498604 -0.0676999 0.027338848 -0.07365733
0.06886063 0.04202936 -0.016161308 0.07267325 0.058871247 -0.071910225 0.056529585 -0.02550307
-0.06656804 -0.02709121 0.05267773 -0.06449557 -0.10080261 -0.056445632 -0.027575793 0.07152405
