scripts/embeddings_gin_version2/ENZYMES/gin_dim128_ep100_lr0.001_drop0.0/gin_classifier.pt (torch, 629469 bytes, 42 tensors)

encoder.layers.0.nn.net.0.weight f4 [128, 3]
0	0x3ea03e41	0.31297496
1	0xbe9234d7	-0.2855594
2	0xbe8c39b5	-0.27387777
3	0x3f0ea98e	0.5572747
4	0x3ed2e68a	0.41191512
5	0xbe8ec0b4	-0.27881396
6	0xbf05cfb8	-0.5227008
7	0xbde24270	-0.11047828
8	0x3de9dd18	0.114191234
9	0x3eb8d711	0.36101583
10	0x3db1351f	0.0865271
11	0xbf02d0cb	-0.5109984
12	0x3f095a70	0.5365362
13	0x3f03854c	0.5137527
14	0xbec29678	-0.38005424
15	0x3ec37b3f	0.38179967
16	0xbe605da0	-0.21910715
17	0xbdb52b41	-0.08846141
18	0xbe3e65e6	-0.18593559
19	0x3ecaa4df	0.39578912
20	0xbf0d38c7	-0.5516476
21	0xbf076e7c	-0.5290296
22	0xbd524a05	-0.05134012
23	0xbe87bf53	-0.26513156
24	0x3f0b95b9	0.54525334
25	0x3ea946e9	0.33061913
26	0xbf0033f0	-0.5007925
27	0x3e686d9f	0.22698067
28	0x3dec99ec	0.11552796
29	0xbdf4eb8f	-0.11958992
30	0xbe721a68	-0.23642886
31	0x3dfb6560	0.12275195
32	0xbd89315b	-0.06698867
33	0x3ec12404	0.3772279
34	0x3ee6e72a	0.4509824
35	0x3ee30144	0.44336903
36	0xbe30cda7	-0.1726595
37	0x3e2b06b0	0.1670177
38	0x3ed994a2	0.4249621
39	0xbdf60029	-0.12011749
40	0xbf0617f4	-0.523803
41	0x3e052e49	0.13005938
42	0xbe4b72c3	-0.19867997
43	0x3f06b53c	0.5262029
44	0x3eb22723	0.34795484
45	0x3f12f1b3	0.57400054
46	0xbeb824ca	-0.35965568
47	0xbeca4bda	-0.39510995
48	0x3e0f1240	0.13971806
49	0x3e897564	0.26847374
50	0x3f0f40f4	0.55958486
51	0x3e511054	0.20416385
52	0x3e3424d6	0.17592177
53	0x3e69baee	0.22825214
54	0xbb121390	-0.0022289492
55	0xbea02d2f	-0.31284472
56	0xbecea16b	-0.40357527
57	0x3ec3dc64	0.38254082
58	0x3f0ec2f8	0.5576625
59	0x3e1e97ec	0.15487641
60	0x3f0db705	0.5535739
61	0x3ead842e	0.33889908
62	0xbd70705a	-0.058700897
63	0x3ec02d0d	0.3753437
64	0x3f0d784f	0.552617
65	0xbed5628e	-0.41676754
66	0xbead9d51	-0.33909085
67	0x3e5504f2	0.20802668
68	0x3c70c9d8	0.014696561
69	0x3ec0cda7	0.376569
70	0x3e1aaeb0	0.151057
71	0xbe8551fa	-0.26039106
72	0xbe99cdb7	-0.3003976
73	0x3ea81f56	0.32836407
74	0x3f03c13a	0.51466715
75	0x3d709e1d	0.05874454
76	0x3d37203c	0.044708475
77	0xbce7ed75	-0.02831147
78	0x3f063854	0.524297
79	0x3d24cee2	0.04023636
80	0x3f041d01	0.51606756
81	0xbce5bdce	-0.028044607
82	0xbdb13e5b	-0.086544715
83	0xbe88c3d5	-0.26711908
84	0xbe3d0686	-0.1845952
85	0xbe8349be	-0.25642198
86	0xbed1d4a9	-0.4098256
87	0xbe31926f	-0.17341016
88	0xbe6b2aff	-0.2296562
89	0x3ea365e1	0.31913665
90	0xbcc0add0	-0.02352038
91	0x3e94cea6	0.2906391
92	0x3ea59066	0.3233673
93	0xbe25ee70	-0.16204238
94	0x3dcdf3bc	0.10056254
95	0xbe1b67f5	-0.15176375
96	0xbca6e5b5	-0.020373205
97	0x3ee1eb6a	0.4412492
98	0xbd86f3b9	-0.06589455
99	0xbefc6c9d	-0.49301615
100	0x3dfe9214	0.12430206
101	0xbe9226ee	-0.28545326
102	0xbef0512c	-0.4693693
103	0xbea48e6d	-0.32139912
104	0xbe58753f	-0.21138476
105	0xbf0b3c7d	-0.5438917
106	0x3e4b7df1	0.19872262
107	0xbf004df7	-0.50118965
108	0xbddb9312	-0.10721411
109	0xbebcad4c	-0.36850965
110	0x3f038502	0.5137483
111	0xbf0dd571	-0.5540381
112	0x3ebe066a	0.3711427
113	0x3e936ee5	0.28795543
114	0xbf0c3776	-0.54772127
115	0x3c338359	0.010956609
116	0xbee850b2	-0.45374066
117	0x3e422795	0.18960412
118	0x3eee7015	0.46569887
119	0xbd6dd2e5	-0.058062453
120	0x3ee15120	0.44007206
121	0x3ec4cbdf	0.3843679
122	0x3e1d3113	0.15350752
123	0x3e40e0bd	0.18835731
124	0x3ed561ea	0.41676265
125	0xbe8292af	-0.25502536
126	0x3e8a749a	0.27042085
127	0xbf086cce	-0.5329102
128	0x3d8863c6	0.06659655
129	0x3ddafebc	0.10693118
130	0x3e2f4003	0.17114262
131	0x3eaf21b0	0.3420539
132	0xbd102fdb	-0.03520189
133	0x3e8a3708	0.2699511
134	0x3ecca2fc	0.39968097
135	0xbef40921	-0.47663215
136	0x3eba1549	0.36344364
137	0xbe72fc77	-0.2372912
138	0x3ed9f18c	0.42567098
139	0x3d86287d	0.06550691
140	0xbe9f82c8	-0.31154466
141	0x3ee84b0d	0.4536976
142	0x3d88de9f	0.066830866
143	0x3d526161	0.0513624
144	0xbbe3e0c9	-0.0069542867
145	0xbe7e88f7	-0.24856935
146	0x3ea17a86	0.3153879
147	0x3e7bb317	0.24580036
148	0xbed1fb8e	-0.41012233
149	0xbec53492	-0.3851667
150	0x3ed0c3b1	0.407743
151	0xbed8bf3a	-0.42333394
152	0xbe4a0cec	-0.19731492
153	0x3f08b9e2	0.53408635
154	0x3ed8a074	0.42309916
155	0xbe8bb8e9	-0.27289513
156	0xbec0fdf1	-0.37693742
157	0x3e509fe0	0.20373487
158	0x3ea2096b	0.3164781
159	0xbd15eadc	-0.036600932
160	0xbeb595ae	-0.3546576
161	0xbe409f4e	-0.1881077
162	0xbf02bea0	-0.5107212
163	0x3f1350fc	0.5754545
164	0x3d1b7312	0.037951536
165	0xbddfd187	-0.10928636
166	0xbebb43c4	-0.3657514
167	0x3d2e30e0	0.04252708
168	0xbf19ddd6	-0.6010412
169	0x3e50c986	0.20389375
170	0xbe714b4d	-0.23563881
171	0xbf0553be	-0.52080905
172	0xbe99eab2	-0.3006187
173	0xbe81d086	-0.25354403
174	0xbee842a4	-0.45363343
175	0x3d733e35	0.059385497
176	0xbdad9fec	-0.08477768
177	0xbf02381e	-0.5086688
178	0xbe21eda6	-0.15813312
179	0x3ecf924a	0.40541297
180	0x3f04eb7c	0.5192182
181	0xbed27f07	-0.4111254
182	0xbec12f03	-0.3773118
183	0xbc7fc973	-0.015611994
184	0xbea6af08	-0.32555413
185	0x3df0ba2e	0.11754261
186	0x3ef6a0af	0.48169467
187	0x3eebdf03	0.46068582
188	0xbf04ace2	-0.518263
189	0xbe4b25ba	-0.1983861
190	0x3c1dcce9	0.009631374
191	0xbe567d9e	-0.20946357
192	0x3e2c900a	0.16851822
193	0xbce682e4	-0.028138585
194	0x3e82fa77	0.25581715
195	0xbe3cd9c3	-0.18442445
196	0xbe98381e	-0.29730314
197	0x3ecdb13a	0.40174276
198	0x3e91f4bf	0.2850704
199	0xbe98eeee	-0.2986979
200	0x3ec13caa	0.37741596
201	0x3ec16805	0.37774673
202	0x3dfa3c8a	0.12218578
203	0x3e16a0b9	0.14709748
204	0xbe781bcb	-0.24229352
205	0x3e552902	0.20816424
206	0x3eb1e95e	0.34748358
207	0x3cf2739b	0.02959614
208	0xbebdd384	-0.37075436
209	0xbb378b13	-0.0028006479
210	0xbe2251a5	-0.15851457
211	0xbf11e362	-0.56987584
212	0x3eab2738	0.3342836
213	0x3ec34508	0.38138604
214	0x3e88714a	0.26648933
215	0xbda2c148	-0.07947022
216	0x3ed2e318	0.41188884
217	0x3e910add	0.283286
218	0x3e4e4dc0	0.20146847
219	0xbecc892d	-0.39948407
220	0x3e9a4a07	0.30134603
221	0x3ec610c4	0.38684666
222	0x3d8173c9	0.063209124
223	0xbeb3a7ad	-0.35088864
224	0x3e5776a4	0.21041352
225	0xbdddd81a	-0.10832234
226	0xbe3e4b00	-0.18583298
227	0xbeef34ca	-0.46719962
228	0x3eb214a3	0.3478137
229	0xbf0fe9f2	-0.5621635
230	0x3e614414	0.21998626
231	0x3ecb04dc	0.39652145
232	0xbe79e0b6	-0.24402127
233	0xbc90d52e	-0.017679777
234	0x3f1135dd	0.56722814
235	0xbed95d5c	-0.4245404
236	0x3f10068c	0.5625999
237	0xbcdd9b85	-0.027051697
238	0x3e2a9a5e	0.16660449
239	0x3c948e06	0.018134128
240	0x3ea021f0	0.31275892
241	0xbecdefb3	-0.40221938
242	0x3ebb02bc	0.36525524
243	0xbe8b1b1c	-0.2716912
244	0xbf039096	-0.51392496
245	0xbc0bb1a7	-0.008526242
246	0xbeeec277	-0.4663274
247	0xbe13db9b	-0.14439242
248	0xbf0a7a5f	-0.54092973
249	0xbee8ad2f	-0.4544463
250	0xbec99bbd	-0.3937663
251	0x3e02b530	0.1276443
252	0x3e70f021	0.23529102
253	0xbf06b6b0	-0.5262251
254	0x3e45fbee	0.19334385
255	0xbea71e9c	-0.3264054

encoder.layers.0.nn.net.0.bias f4 [128]
0	0x3e87d24c	0.2652763
1	0xbe99b160	-0.3001814
2	0xbddd78bd	-0.108140446
3	0x3ec210b0	0.37903357
4	0xbef00f54	-0.46886694
5	0xbed58575	-0.41703382
6	0xbe85b761	-0.2611647
7	0x3e35dc97	0.1775993
8	0xbf0514b5	-0.5198472
9	0xbeb25d1f	-0.3483667
10	0x3ef9fc3e	0.48825258
11	0xbf0e5861	-0.55603606
12	0x3f03115c	0.51198363
13	0x3f139837	0.57654136
14	0x3e8b0a14	0.27156126
15	0x3e9ccf5d	0.30626956
16	0xbce6cd5d	-0.028174097
17	0xbf181439	-0.5940586
18	0x3ea1215b	0.3147076
19	0x3f0ee9ba	0.5582539
20	0xbe8a10b7	-0.26965877
21	0xbe801573	-0.25016364
22	0xbefcd941	-0.49384502
23	0xbe91f4b2	-0.28507
24	0xbed59855	-0.41717783
25	0x3efb7cd2	0.49118668
26	0xbf0da267	-0.5532593
27	0x3f046d5b	0.51729363
28	0x3d09db9e	0.03365671
29	0x3e9b72f2	0.30361134
30	0x3ed95ff0	0.42456007
31	0x3e89851f	0.26859376
32	0x3ef0fc22	0.47067362
33	0x3e9f0355	0.3105723
34	0xbe235fab	-0.15954463
35	0xbd784090	-0.060608447
36	0x3f028ef5	0.50999385
37	0x3d4dea9c	0.05027257
38	0xbeee0376	-0.46487015
39	0xbe58980f	-0.21151756
40	0x3ebc38df	0.3676214
41	0x3e529ed1	0.20568396
42	0xbe943075	-0.2894322
43	0x3e3ff9b9	0.18747605
44	0x3e7f162e	0.24910805
45	0x3ea4ed37	0.3221223
46	0x3cc61591	0.024180206
47	0x3f13fe54	0.5780995
48	0xbeee56ec	-0.4655069
49	0xbf114a9a	-0.5675446
50	0xbeb48281	-0.35255817
51	0x3dc6a1a4	0.09698799
52	0xbe90537c	-0.28188694
53	0x3e99c3f5	0.30032316
54	0xbe191350	-0.14948773
55	0x3eb851a0	0.35999775
56	0x3ec1293a	0.37726766
57	0xbef6aaaa	-0.4817708
58	0x3ef040e5	0.4692451
59	0x3f10aa7a	0.56510127
60	0xbe3f869b	-0.18703692
61	0x3ecf83e8	0.40530324
62	0x3e41d98f	0.18930648
63	0xbe292397	-0.16517483
64	0x3f061b0c	0.5238502
65	0x3ea74193	0.32667217
66	0xbe8be355	-0.27321878
67	0x3ec3224d	0.38112107
68	0xbe8456ad	-0.25847378
69	0xbebf0c71	-0.3731418
70	0x3eb55863	0.35418996
71	0xbf16c6c2	-0.5889703
72	0xbe35c63b	-0.177514
73	0xbccf3c87	-0.025297416
74	0x3eec5308	0.46157098
75	0x3ecc9ec8	0.3996489
76	0xbf053d87	-0.5204701
77	0x3d89d62e	0.06730305
78	0x3f1250b8	0.5715442
79	0x3d146600	0.036230087
80	0x3ef96210	0.48707628
81	0xbf067b27	-0.52531666
82	0xbea4d585	-0.32194152
83	0x3e2836d5	0.16427167
84	0xbecf3302	-0.40468603
85	0xbea5f47c	-0.3241309
86	0x3ecf6832	0.40509182
87	0xbe5276dc	-0.20553154
88	0xbf03b22a	-0.5144373
89	0x3dfebb01	0.12438012
90	0x3ebb97ee	0.3663935
91	0xbe7b92ca	-0.24567714
92	0x3e80c42f	0.25149676
93	0xbe11fc07	-0.14256297
94	0x3ef8b8bb	0.48578438
95	0x3dfcf136	0.12350695
96	0x3ef0b3ec	0.4701227
97	0xbdd70598	-0.10499114
98	0x3e868940	0.26276588
99	0xbddda1ac	-0.10821852
100	0x3cb4b0df	0.022056995
101	0xbe60747e	-0.21919438
102	0x3e9e2811	0.30889943
103	0x3e1819cc	0.1485359
104	0xbe90e154	-0.28296912
105	0x3e9d5a83	0.30733117
106	0xbee2eb1e	-0.44320005
107	0xbef442b7	-0.4770715
108	0xbf0c79e3	-0.54873484
109	0x3d538b1d	0.05164634
110	0xbe40d0cc	-0.1882965
111	0xbd8bbab4	-0.0682272
112	0xbf0eb213	-0.5574047
113	0xbc38b4fc	-0.011273619
114	0x3e43034c	0.19044226
115	0xbe2db003	-0.16961674
116	0xbe907f08	-0.28221917
117	0x3e51d452	0.2049115
118	0xbef367c8	-0.47540116
119	0xbf155316	-0.58329904
120	0x3e7b6eb6	0.24553952
121	0x3df2a600	0.11848068
122	0x3f051b2b	0.5199458
123	0xbe1cac5f	-0.1530013
124	0x3e974b48	0.29549623
125	0xbc93bb5a	-0.018033672
126	0xbf175df2	-0.59127724
127	0x3c9283e9	0.017885165

encoder.layers.0.nn.net.2.weight f4 [128, 128]
0	0x3cdddc75	0.027082661
1	0xbdc3ed03	-0.09566691
2	0xbb9e12d9	-0.004824024
3	0xbcea19bb	-0.028576722
4	0xbd27f06a	-0.04100076
5	0xbd965bac	-0.07341704
6	0x3dba8ec3	0.09109261
7	0x3d12a6a9	0.03580347
8	0x3d3e3423	0.04643644
9	0x3d04aee5	0.032393355
10	0xbd5391a3	-0.051652562
11	0xbbd34ac3	-0.0064481213
12	0x3c3a051f	0.01135376
13	0xbcc24ceb	-0.023718318
14	0xbd1eac9b	-0.03873883
15	0xbd8e6d2b	-0.06954416
16	0xbcdc2ffd	-0.026878351
17	0xbd94f191	-0.07272638
18	0xbda682da	-0.08130427
19	0x3d1297bb	0.035789233
20	0xbb815d71	-0.0039479067
21	0xbb9a7701	-0.0047138934
22	0x3da2b888	0.07945353
23	0xbdca3a42	-0.09874393
24	0x3d2c25af	0.042028125
25	0xbc1b2572	-0.009469377
26	0xbd3c4a0d	-0.045969058
27	0x3d4247f0	0.047431886
28	0x3da67b1d	0.08128951
29	0xbc7c2189	-0.015388855
30	0x3b9d253f	0.0047957
31	0x3cde95a6	0.027170967
32	0xbd787f82	-0.060668476
33	0x3c4fd356	0.012684664
34	0x3da38170	0.079836726
35	0x3d0593ce	0.03261166
36	0xbe04cb12	-0.1296809
37	0x3cc49eb4	0.024001457
38	0xbd198e82	-0.03748942
39	0xbd0acd4f	-0.033887204
40	0xbd356903	-0.0442896
41	0xbd954669	-0.0728882
42	0xbd15f469	-0.03661004
43	0xbc25d457	-0.010121427
44	0x3c679eff	0.014137029
45	0x3dae8fce	0.08523522
46	0x3c7e3fc9	0.015518137
47	0xbd801377	-0.062537126
48	0x3b313a23	0.0027042709
49	0x3dada903	0.08479502
50	0x3db76eea	0.08956702
51	0x3d52a2ea	0.0514249
52	0xbd4f10aa	-0.050553
53	0xbd9d9869	-0.076950856
54	0xbd2d6b0b	-0.042338412
55	0xbdb7c998	-0.08973998
56	0x3dfa20da	0.12213297
57	0x3d848e64	0.06472471
58	0xbc956534	-0.018236734
59	0xbbd3b9d0	-0.0064613596
60	0x3d865921	0.06559969
61	0xbd1e604b	-0.03866605
62	0x3d81ae0b	0.06332024
63	0xbcbf259a	-0.02333336
64	0xbd817c65	-0.063225545
65	0xbb3eba62	-0.0029102792
66	0xbdb29853	-0.0872046
67	0x3c46c958	0.012132965
68	0xbd8acb0f	-0.067770116
69	0xbd57ee29	-0.05271736
70	0xbcc21dd1	-0.023695858
71	0xbd1615d5	-0.036641914
72	0xbd680d4c	-0.056653306
73	0xbb701bcc	-0.0036637662
74	0x3cf880f8	0.030334935
75	0xbd356872	-0.04428906
76	0xbd8481ac	-0.064700454
77	0x3cdfc857	0.02731721
78	0xbad0a2be	-0.0015917642
79	0x3a90c268	0.0011044266
80	0x3c31e801	0.010858537
81	0x3da757d9	0.081710525
82	0xbc4ae608	-0.012383945
83	0xbd021b88	-0.031764537
84	0x3d3964dc	0.045262203
85	0x3d97ea77	0.074177675
86	0x3d4c122f	0.04982203
87	0x3d898397	0.06714552
88	0x3d7146c3	0.058905374
89	0xbd8b27b6	-0.06794684
90	0x3d0a927f	0.033831116
91	0x3dc5bfa1	0.09655691
92	0x3d72c4c6	0.05926969
93	0xbc08dcf5	-0.0083534615
94	0xbd57fa39	-0.052728865
95	0xbcdbf632	-0.026850794
96	0x3d54b950	0.05193454
97	0xbd837b4b	-0.06420001
98	0xbd6103dd	-0.054935325
99	0x3d4554d0	0.048176587
100	0xbcb01685	-0.021495113
101	0x3d7651c9	0.06013659
102	0xbd1f85db	-0.038946014
103	0xbd6d91c9	-0.05800036
104	0xbdcb95a8	-0.09940654
105	0x3d5b28ae	0.053505592
106	0xbc82abc5	-0.015951047
107	0x3c8e9a3d	0.01740753
108	0x3d8ad981	0.06779767
109	0x3ae1318f	0.0017180907
110	0xbd90d273	-0.0707139
111	0xbd27e8fb	-0.040993672
112	0xbd646ade	-0.05576598
113	0x3d29d7ad	0.04146545
114	0xbc27472e	-0.010209842
115	0xba348cca	-0.0006887434
116	0x3d96e630	0.073681235
117	0xbd4b6483	-0.049656402
118	0x3ccece65	0.025244901
119	0x3cdd03d8	0.026979372
120	0x3d2af804	0.041740432
121	0x3a6b3168	0.00089719007
122	0x3d3eabf7	0.046550717
123	0xbd2ec881	-0.042671684
124	0xbbf297ce	-0.0074033504
125	0x3d42aaf8	0.04752633
126	0xbda704d3	-0.08155217
127	0x3d9ed856	0.077561066
128	0x3da1b3a4	0.07895592
129	0x3dbd4af2	0.0924281
130	0xbabc4b3d	-0.0014365684
131	0xbc58958e	-0.01321925
132	0x3dbc07fc	0.091812104
133	0xbb4c9f07	-0.0031222717
134	0xbd213f27	-0.039366867
135	0xbc84c036	-0.016204935
136	0x3bfe39f0	0.0077583715
137	0x3db9b9e6	0.090686604
138	0xbcd24d66	-0.025671672
139	0x3d883b6e	0.0665196
140	0x3d4fb5b7	0.050710406
141	0x3d391b19	0.045191858
142	0xbd076164	-0.033051863
143	0x3da15d39	0.07879109
144	0xbbe6d071	-0.007043891
145	0x3df4aa20	0.11946511
146	0x3d65b3cd	0.056079675
147	0x39ef2d95	0.00045619594
148	0x3d8e606e	0.06951986
149	0x3d6c8cc3	0.05775143
150	0x3c9bd3e8	0.019021943
151	0x3d7bb1ee	0.061448984
152	0xbba7f4c6	-0.005125615
153	0x3d825c2e	0.06365238
154	0x3d2422d9	0.040072296
155	0xbe007810	-0.125458
156	0x3d907650	0.07053816
157	0xbc7e59fc	-0.015524384
158	0xbd26f40e	-0.040760092
159	0x3cca84f3	0.024721598
160	0x39f58b7b	0.00046833963
161	0x3d70a499	0.058750723
162	0x3c1c8c6d	0.0095549645
163	0x3c27c495	0.01023974
164	0x3dac3259	0.084080406
165	0x3d809fc7	0.06280475
166	0x3d67d2cc	0.056597516
167	0x3cd361c5	0.025803456
168	0x3d2147e0	0.039375186
169	0x3db1cf29	0.08682091
170	0x39b10738	0.0003376545
171	0x3e3549fd	0.17704006
172	0x3da7f042	0.082001224
173	0x3d91780d	0.07102976
174	0x3d1dae1a	0.038496114
175	0xbd9b646a	-0.07587512
176	0x3ce858f3	0.028362727
177	0xbda2c74f	-0.07948171
178	0x3d9fc778	0.078017175
179	0x3db26a81	0.0871172
180	0x3c25eb41	0.01012689
181	0x3d1d1a56	0.038355194
182	0xbd3ba75c	-0.045813903
183	0x3d2fed08	0.04295066
184	0x3d1e1f6e	0.038604192
185	0x3c1f2795	0.009714027
186	0x3d24bc94	0.040218905
187	0xbd0c5575	-0.034261186
188	0xbd9fb1be	-0.077975735
189	0x3d1a02da	0.037600376
190	0xbd09541e	-0.033527486
191	0x3ca5183c	0.020153157
192	0x3cc0b81d	0.023525292
193	0xbd2ea789	-0.042640243
194	0x3d8ab573	0.0677289
195	0x3dba47f9	0.09095759
196	0x3d3b2010	0.045684874
197	0x3d09b9e4	0.033624545
198	0x3cfbeb26	0.030751776
199	0x3cea8500	0.028627872
200	0xbd63f497	-0.05565318
201	0xbd5c0a44	-0.053720728
202	0xbbf72c1c	-0.0075431
203	0xbdcfa9ad	-0.10139785
204	0x3d99f2d4	0.07517019
205	0x3c48dcc4	0.012259666
206	0x3db68b37	0.08913272
207	0x3cb555d2	0.022135649
208	0x3db1d600	0.086833954
209	0x3dade8cc	0.08491668
210	0x3c9c26c2	0.01906145
211	0xbcea51f5	-0.028603533
212	0xbd885371	-0.0665654
213	0xbc9236b2	-0.017848346
214	0x3c42afcb	0.011882733
215	0x3d74ee7f	0.05979776
216	0xbd9b85ed	-0.07593904
217	0x3c04d890	0.008108273
218	0x3d88159c	0.06644747
219	0xbd764208	-0.060121566
220	0x3c8644a3	0.01639015
221	0xbc668269	-0.014069178
222	0x3d522de2	0.05131329
223	0xbd91878f	-0.07105934
224	0x3c941bd4	0.018079676
225	0x3c1496e0	0.0090691745
226	0xbd80e681	-0.06293965
227	0x3d8ff2e6	0.07028751
228	0x3d864644	0.06556371
229	0x3dabfc99	0.083977886
230	0xbca6e1ee	-0.020371404
231	0xbda2ebc6	-0.079551265
232	0xbd191b7e	-0.037379734
233	0xbcf17c0e	-0.0294781
234	0x3d9be3d7	0.076118164
235	0xbc979c33	-0.018507099
236	0x3db44c73	0.08803644
237	0x3d619946	0.055077814
238	0xbc507444	-0.012723032
239	0x3d9c4187	0.07629686
240	0x3d9f4239	0.07776303
241	0x3b91b207	0.0044462713
242	0xbc685ba2	-0.014182003
243	0xbc368b61	-0.011141629
244	0x3d69874b	0.05701379
245	0xbd1cdcad	-0.03829639
246	0x3d89b991	0.06724847
247	0x3d18f7a2	0.037345536
248	0x3df8dd6b	0.12151607
249	0xbd9754b8	-0.07389206
250	0x3dbbbae7	0.09166508
251	0xbd5ddd4d	-0.054166127
252	0xbd6dde6e	-0.058073454
253	0xbc024795	-0.007951637
254	0xbd0f68ae	-0.03501194
255	0xbd0b3424	-0.033985272

encoder.layers.0.nn.net.2.bias f4 [128]
0	0xbccc22f2	-0.024919007
1	0xbd23f8f8	-0.040032357
2	0x3d9c3346	0.07626967
3	0x3d3a0744	0.045417085
4	0x3dd34a08	0.10316855
5	0x3c668875	0.01407062
6	0xbd4bb670	-0.049734533
7	0xbda14c2f	-0.07875859
8	0x3d09b960	0.033624053
9	0x3c84370d	0.016139532
10	0x3d82df71	0.06390274
11	0x3cf4b939	0.029873477
12	0x3cb02b45	0.021505008
13	0x3c027096	0.007961413
14	0xbca7fc45	-0.020506034
15	0xbd58bb8f	-0.052913245
16	0x3c0b2bea	0.008494357
17	0xbc9c6d59	-0.01909511
18	0x38a51f3a	7.8736295e-05
19	0x3d112a40	0.035440683
20	0x3d7e4a47	0.062082555
21	0x3d0fa940	0.03507352
22	0x3d0ec5c0	0.034856558
23	0xbd6dc368	-0.058047682
24	0x3d94a47b	0.07257935
25	0x3d88a7a9	0.06672604
26	0x3d7ee4ca	0.06222991
27	0x3d122d49	0.03568772
28	0xbd397448	-0.04527691
29	0x3c872846	0.016498696
30	0x3d98ee0c	0.07467279
31	0xbd651d90	-0.055936396
32	0xbd76d010	-0.060257018
33	0x3d21cd2f	0.03950232
34	0x3d23e690	0.040014803
35	0xbaa3adb1	-0.0012487677
36	0xbd752ea9	-0.05985895
37	0x3c0873d6	0.008328399
38	0xbddd2a6d	-0.10799108
39	0xbd4e0760	-0.050300002
40	0xbc42af77	-0.011882654
41	0x3dc6cad8	0.09706658
42	0xbc2c21e4	-0.010506127
43	0xbc843347	-0.016137732
44	0xbcedc45b	-0.029024294
45	0x3db2d0b3	0.087312125
46	0x3d011b7f	0.031520363
47	0xbb05f085	-0.002043755
48	0x3d67f3d7	0.05662903
49	0x3d805f99	0.06268234
50	0x3d1c8700	0.038214684
51	0xbdee7f0e	-0.116453275
52	0xbdc2995e	-0.09501909
53	0xbd0e4bed	-0.034740377
54	0xbdd15b27	-0.10222464
55	0x3d9531fb	0.07284924
56	0x3c89b80a	0.01681139
57	0xbbb45986	-0.005503836
58	0xbc8072a6	-0.015679669
59	0xbdaf61cf	-0.085635774
60	0x3d31277f	0.043250557
61	0xbd9e61bc	-0.07733485
62	0x3a914a0a	0.0011084687
63	0x3dad0efc	0.08450124
64	0x3cdb398b	0.026760837
65	0xbca1696c	-0.01970359
66	0x3c915a2f	0.017743198
67	0xbc5ae478	-0.013360135
68	0xbbcd09c6	-0.0062572686
69	0x3cd8a736	0.02644692
70	0x3c69614a	0.014244387
71	0xbd7d7ecf	-0.061888512
72	0xbd8ad0d8	-0.06778115
73	0x3c8deb02	0.017323975
74	0x3d09f4fd	0.033680905
75	0x3d5c71c5	0.053819437
76	0x3d3a3ddb	0.045469146
77	0x3c9bc1bf	0.019013284
78	0x3da41966	0.08012657
79	0xbda3d7f5	-0.08000175
80	0xbd95a801	-0.07307435
81	0xbcc2acd4	-0.023764051
82	0xbd4faa0d	-0.050699282
83	0x3cc2f57a	0.023798693
84	0xbcf60474	-0.03003142
85	0x3d8a2d90	0.067469716
86	0xbd9b77cb	-0.07591208
87	0xbd9c33f1	-0.076270945
88	0xbdac971d	-0.0842726
89	0x3d749e59	0.059721325
90	0xbd9ffa71	-0.0781144
91	0x3d14c289	0.036318336
92	0xbd98fe19	-0.0747034
93	0xbda76ef9	-0.08175463
94	0x3cc902b8	0.02453743
95	0xbd5a2dbe	-0.05326628
96	0xbd83c00d	-0.06433115
97	0x3d953805	0.072860755
98	0xbd00fb81	-0.031489853
99	0x3b4b9160	0.0031061992
100	0xbd1074cd	-0.03526764
101	0x3ca86312	0.020555053
102	0xbce5222a	-0.027970392
103	0xbd991ab1	-0.07475794
104	0xbd258250	-0.04040748
105	0x3d2b840a	0.04187397
106	0x3d86a49f	0.06574368
107	0x3c804ba3	0.015661066
108	0xbd44ea91	-0.048075262
109	0xbd981219	-0.07425327
110	0x3d61fc56	0.055172287
111	0x3ca7206b	0.0204012
112	0x3c93863d	0.018008346
113	0xbd95dd7b	-0.07317635
114	0xbd4a9e4a	-0.049467362
115	0x3c83b238	0.016076192
116	0xbd85bf1b	-0.06530591
117	0x3d0b5a1a	0.034021474
118	0x3d4a1725	0.04933848
119	0x3c4ddc94	0.012564797
120	0x3db6f760	0.08933902
121	0xbc323413	-0.010876673
122	0xbd8dc125	-0.06921605
123	0x3da18415	0.07886521
124	0x3d04651d	0.03232299
125	0x3c9c860a	0.019106884
126	0x3c0f9326	0.00876311
127	0xbd571bd2	-0.052516766

encoder.layers.1.nn.net.0.weight f4 [128, 128]
0	0x3d3fabe7	0.0467948
1	0xbdc89fef	-0.0979613
2	0x3b934e25	0.0044953995
3	0x3ce4c917	0.027927918
4	0xbd9f7ede	-0.0778787
5	0x3d43659a	0.047704317
6	0xbc90e2d3	-0.017686283
7	0x3dd6a143	0.10479977
8	0xbd814479	-0.06311888
9	0xbb684c0e	-0.0035445723
10	0xbdbe131b	-0.09280988
11	0xbd69c226	-0.05706992
12	0xbd9eb18a	-0.07748707
13	0xb9956094	-0.0002849145
14	0xbd15c609	-0.036565814
15	0x3c777fd4	0.01510616
16	0x3d46cf76	0.048537694
17	0x3d06d49b	0.0329176
18	0xbd9ae5e0	-0.075633764
19	0xbcdabfd6	-0.026702803
20	0xbd86ee56	-0.06588428
21	0x3d0edeb3	0.03488035
22	0x3c8ad27c	0.01694607
23	0x3c376028	0.011192359
24	0xbdadf650	-0.08494246
25	0xbdf89d47	-0.12139373
26	0xbccabb4c	-0.024747513
27	0x3aa07d18	0.0012244312
28	0xb802b095	-3.115887e-05
29	0xbcdb0457	-0.026735468
30	0xbbe59960	-0.007006809
31	0xbd667ed0	-0.05627328
32	0xbcfa3c09	-0.030546205
33	0xbd84d447	-0.06485801
34	0x3d76b846	0.06023433
35	0xbdc4fb09	-0.09618194
36	0x3d840026	0.06445341
37	0x3d2013f8	0.039081544
38	0x3ddbfd61	0.107416876
39	0x3b9b1651	0.004732885
40	0x3db09dbc	0.086238354
41	0xbd9ab838	-0.07554668
42	0xbd988ab5	-0.07448331
43	0x3da31cb1	0.07964457
44	0xbd8aeda6	-0.06783609
45	0xbc99e5ab	-0.018786272
46	0xbba7c9f7	-0.0051205116
47	0xbd6e4cdc	-0.058178768
48	0xbd476eda	-0.0486897
49	0xbda3a1ab	-0.0798982
50	0x3d4f8531	0.05066413
51	0x3dcc2265	0.09967498
52	0x3d14d91d	0.036339868
53	0x3d52d215	0.05146988
54	0x3bd3bb73	0.0064615547
55	0x3d88433c	0.06653449
56	0x3c473c41	0.012160362
57	0xbd64828e	-0.05578857
58	0x3d211b48	0.039332658
59	0x3cc2e46a	0.023790557
60	0x3dade0c9	0.0849014
61	0xbccc8f4d	-0.024970675
62	0x3b762ef0	0.0037564598
63	0x3db34323	0.0875304
64	0x3c954b7b	0.018224468
65	0x3d204d7c	0.039136395
66	0xbb2677fe	-0.002540111
67	0xbc303d71	-0.010756836
68	0xbcdf709c	-0.027275376
69	0xbda4ca27	-0.0804637
70	0xbc5bc17d	-0.01341283
71	0xbd3c8a05	-0.046030063
72	0xbd85227a	-0.065007165
73	0x3dc773bb	0.09738871
74	0x3d97eb42	0.07417919
75	0xbd658014	-0.056030348
76	0xbd92b897	-0.07164114
77	0xbe046d72	-0.12932375
78	0xbc4f3e2d	-0.012649101
79	0x3cd9fe60	0.026610553
80	0x3c7d4e51	0.015460567
81	0x3d98518d	0.074374296
82	0x3dcd69fd	0.10029981
83	0x3d92fe3d	0.07177398
84	0x3d41ddbe	0.04733061
85	0x3d31cb00	0.043406487
86	0x3cc8d5cc	0.024516009
87	0x3dd175d2	0.102275506
88	0xbdc33e41	-0.09533358
89	0x3d68d620	0.05684483
90	0xbd38adb0	-0.045087516
91	0xbd8fd3ad	-0.07022796
92	0xbcea4c80	-0.028600931
93	0xbc7770f1	-0.015102611
94	0x3d7b63ff	0.06137466
95	0xbd908646	-0.070568606
96	0xbe09a007	-0.13439952
97	0x3d64ddd5	0.055875618
98	0xbd63e446	-0.05563762
99	0x3c42fb5c	0.011900749
100	0xbd0af65e	-0.03392636
101	0x3d4af60c	0.049551055
102	0xbd3b367c	-0.045706257
103	0xbcf84e76	-0.03031085
104	0x3d2a546c	0.041584417
105	0xbde9cfb3	-0.114165686
106	0xbd3c0861	-0.04590643
107	0x3d52eac5	0.051493425
108	0xbd458c5b	-0.048229557
109	0x3d774bec	0.06037514
110	0xbd59b19e	-0.053147905
111	0x3d1a7e08	0.03771785
112	0xbd58a472	-0.052891202
113	0x3ce4450e	0.02786496
114	0x3db110b4	0.08645764
115	0xbc0cf590	-0.008603469
116	0x3dc0f361	0.09421421
117	0xbdc3b188	-0.09555346
118	0xbd920a46	-0.07130866
119	0xbd4e9355	-0.050433476
120	0xbd9d7774	-0.076887995
121	0xbd91d81a	-0.07121296
122	0xbd9628fa	-0.073320344
123	0xbd47d291	-0.048784796
124	0xbe0c691f	-0.13711976
125	0xbdc5e8ed	-0.09663568
126	0x3d74cb54	0.05976422
127	0xbd7e4faa	-0.062087692
128	0xbd2cf134	-0.042222217
129	0xbdb1f97e	-0.08690165
130	0x3d1f25a8	0.03885427
131	0xbbb4236d	-0.005497387
132	0xbb9b19cc	-0.0047333
133	0xbd9a8882	-0.07545568
134	0x3cf652c4	0.030068763
135	0xbd2601d9	-0.040529106
136	0x3d9bbf3c	0.076048344
137	0xbd3e148f	-0.046406325
138	0xbc19b22c	-0.009380858
139	0xbd901db1	-0.07036913
140	0x3d07f538	0.033192843
141	0x3b81acfd	0.0039573894
142	0xbc9c8d88	-0.019110456
143	0x3d85f75c	0.06541321
144	0x3d81ee28	0.06344253
145	0xbcfb74be	-0.030695315
146	0x3c0238e5	0.007948135
147	0x3b8b3939	0.004248765
148	0xbdb1abd8	-0.08675355
149	0xbdb72407	-0.089424185
150	0x3d204e94	0.039137438
151	0x3c890cb3	0.016729688
152	0xbc762e0a	-0.015025625
153	0x3db6edbf	0.08932065
154	0xbd980286	-0.07422356
155	0xbd86eb19	-0.0658781
156	0x3d1e8d46	0.038708948
157	0x3dc062d9	0.09393854
158	0x3cbb3361	0.022851648
159	0xbce48a7a	-0.027898062
160	0xbd2f1b2e	-0.04275053
161	0xbd14b027	-0.036300804
162	0x3d2cdf85	0.042205352
163	0x3dac8e34	0.084255606
164	0x3d5c7744	0.053824678
165	0xbdb963ff	-0.09052276
166	0xbd360963	-0.044442546
167	0xbd052103	-0.032502186
168	0xbc051506	-0.008122688
169	0xbd8a2730	-0.06745756
170	0xbd26c5fb	-0.040716153
171	0x3c809bb1	0.01569924
172	0x3d1ffee4	0.039061442
173	0x3d1e58bc	0.038658842
174	0x3cbde9ed	0.023182834
175	0x3d9e56ea	0.07731421
176	0x3d26905d	0.04066502
177	0xbc9bff4e	-0.019042637
178	0xbc305421	-0.010762245
179	0xbd96988e	-0.07353316
180	0xbd713c06	-0.058895133
181	0x3d86d556	0.06583659
182	0xbd997e8c	-0.0749484
183	0xbd695699	-0.05696735
184	0xbdac7e9b	-0.084225856
185	0x3d1bd65e	0.038046233
186	0x3d4772b1	0.048693363
187	0x3d12f78d	0.035880614
188	0xbcae7682	-0.021296743
189	0xbdb00780	-0.085951805
190	0x3db2298c	0.08699331
191	0x3d827ee1	0.063718565
192	0xbcec6594	-0.02885703
193	0x3ccd3742	0.025050763
194	0x3c9461a0	0.018112957
195	0xbd5eeb35	-0.05442353
196	0x3cb57d67	0.022154523
197	0x3d3e2041	0.04641748
198	0xbd34ce83	-0.044142257
199	0xbc0c2321	-0.008553297
200	0xbd63128d	-0.055437613
201	0xbd8f53b9	-0.06998391
202	0x3c729cb9	0.014807873
203	0x3d2e6647	0.042578008
204	0xbd12015a	-0.03564582
205	0xbda99c71	-0.08281792
206	0x3cf6c1b3	0.03012166
207	0x3d827b77	0.06371205
208	0xbcbaa1ff	-0.022782324
209	0xbc029bb7	-0.007971696
210	0x3ccc37a4	0.024928875
211	0xbc9ae5c5	-0.01890839
212	0xbda6de00	-0.08147812
213	0x3dba88ba	0.0910811
214	0x3d673dea	0.05645553
215	0x3d9801f9	0.07422251
216	0xbd009966	-0.031396292
217	0xbd74b972	-0.059747167
218	0xbd8b03a3	-0.06787803
219	0x3d395382	0.045245655
220	0x3b9e7bc1	0.00483653
221	0x3d7dfab1	0.062006656
222	0xbccbf017	-0.024894757
223	0x3c429df9	0.011878484
224	0xbcb678d8	-0.02227442
225	0xbc902a4e	-0.017598297
226	0x3ce9401a	0.028472949
227	0xbb34b244	-0.0027572075
228	0xbc6d40ad	-0.014480752
229	0xbd82f857	-0.06395023
230	0xbd259f01	-0.04043484
231	0xbdbf308d	-0.09335432
232	0x3d122da2	0.03568805
233	0xbd25b30d	-0.04045396
234	0xbd5b97ed	-0.053611685
235	0xbd5bdd21	-0.05367768
236	0xbb1bbeb9	-0.0023764803
237	0x3c9b39ce	0.018948462
238	0xbd96768a	-0.07346828
239	0xbc831476	-0.016000967
240	0xbd080f29	-0.033217583
241	0x3cca6ea6	0.024710964
242	0xbd633996	-0.05547484
243	0x3ca126de	0.019671854
244	0xbaafb3f6	-0.0013405073
245	0xbd9eb77b	-0.0774984
246	0xbce33df1	-0.027739497
247	0xbd51d9af	-0.05123299
248	0xbd0ec52f	-0.034856018
249	0xbd4129ea	-0.047159113
250	0x3cb14d5e	0.021643337
251	0xbcf47465	-0.029840657
252	0xbd3d54fa	-0.046223618
253	0xbcf7baa2	-0.03024036
254	0xbd0a8e9a	-0.0338274
255	0xbd3da464	-0.046299353

encoder.layers.1.nn.net.0.bias f4 [128]
0	0x3da566d0	0.080762506
1	0xbd6c7da1	-0.057736997
2	0x3df219b1	0.118213065
3	0xbcea9068	-0.028633311
4	0xbd029f87	-0.03189042
5	0x3d8663cb	0.06562003
6	0x3d9452ab	0.0724233
7	0xbdaba0bd	-0.08380268
8	0x3cb363e9	0.021898227
9	0x3d8111c3	0.06302216
10	0x3c6ca6fb	0.014444108
11	0xbd6fab06	-0.05851271
12	0x3d81c25a	0.06335898
13	0xbd858227	-0.06518965
14	0xbd0e75c8	-0.034780294
15	0x3d85f865	0.06541518
16	0x3b934262	0.0044939974
17	0x3d773fee	0.060363702
18	0xbd48dfcc	-0.049041554
19	0xbd599c9e	-0.053127877
20	0x3d295b48	0.04134682
21	0x3d66cf85	0.05635025
22	0x3d4bb6f9	0.049735043
23	0x3c9a7cc9	0.01885833
24	0x3d8adbf2	0.067802325
25	0xbdabfbe2	-0.08397652
26	0xbd8bc7de	-0.06825231
27	0xbcf420fa	-0.02980088
28	0xbd876643	-0.06611302
29	0xbd2ef56f	-0.042714532
30	0x3c51ae05	0.012797837
31	0x3dad1b2d	0.08452449
32	0xba152a8d	-0.00056902395
33	0x3c94c07a	0.018158186
34	0xbc1b21d0	-0.009468511
35	0xbad4718b	-0.0016208155
36	0xbd75e938	-0.060036868
37	0x3ddab57d	0.106791474
38	0x3d27b05d	0.040939678
39	0xbd088fa4	-0.03334011
40	0x3d1522fe	0.036410324
41	0xbcacad94	-0.021078862
42	0x3d226142	0.039643534
43	0x3c8799f0	0.016552895
44	0xbd6626f3	-0.05618949
45	0xbd22317d	-0.039597977
46	0xbd0fadb2	-0.035077758
47	0x3c1870e9	0.009304264
48	0x3cd97edd	0.026549751
49	0x3d45cccb	0.04829101
50	0x3d328835	0.04358693
51	0xbc303e66	-0.010757064
52	0xbd85b600	-0.06528854
53	0xbd82d438	-0.06388134
54	0x3da14f9e	0.07876514
55	0xbd4a8f7c	-0.049453244
56	0x3db93bad	0.090445854
57	0xbcccf847	-0.025020732
58	0xbc8db23b	-0.017296901
59	0x3d86b043	0.06576588
60	0x3c793434	0.0152102
61	0xbd449705	-0.047995586
62	0xbbfbecf4	-0.007688159
63	0xbd83bdc3	-0.064326786
64	0xbdab6747	-0.08369308
65	0x3d25a21f	0.040437814
66	0x3dd5a6b1	0.104321845
67	0xbc7b9e44	-0.015357558
68	0x3d6fa566	0.058507346
69	0x3d6ef71d	0.058341134
70	0x3d3a7dfd	0.045530308
71	0xbd5a9db2	-0.053373046
72	0xbdb9eccb	-0.09078368
73	0x3c7a23f7	0.015267364
74	0xbd7cd6d4	-0.061728314
75	0x3d96c2ac	0.073613495
76	0xbdf03b9a	-0.11730118
77	0x3d51c9d2	0.05121786
78	0xbcc6d469	-0.024271207
79	0x3d904edb	0.070462905
80	0x3db40a3f	0.08791017
81	0xbb9394bc	-0.0045038145
82	0x3d01c9e0	0.031686664
83	0x3a3af874	0.00071323593
84	0x3d62e65b	0.055395465
85	0x3d9966b5	0.07490293
86	0xbdc2b2c8	-0.09506756
87	0xbd6e1b87	-0.05813172
88	0xbadd5cc1	-0.0016888605
89	0xbc1e7fe6	-0.009674048
90	0xbd5bcb0b	-0.053660434
91	0xbca40e71	-0.020026417
92	0x3d8ef2bc	0.06979892
93	0x3dbd3902	0.09239389
94	0x3d1df293	0.038561415
95	0x3d32bebd	0.043638933
96	0x3d2ddad3	0.042445015
97	0xbc7adc4b	-0.015311311
98	0x3d4ed29b	0.050493818
99	0xbde799d5	-0.11308638
100	0xbb8118d6	-0.0039397283
101	0xbc76c0be	-0.015060602
102	0xbdd23dc7	-0.10265689
103	0xbd8d0f80	-0.06887722
104	0xbd1f5a86	-0.03890469
105	0x3d156f69	0.036483202
106	0xbd2b9e69	-0.04189912
107	0xbcefa743	-0.029254561
108	0xbd5c3259	-0.053758953
109	0xbd1fc987	-0.03901055
110	0x3d5b147e	0.05348634
111	0x3d3d3d26	0.046200894
112	0x3c89575c	0.016765289
113	0xbd12c3e3	-0.035831343
114	0x3ceda414	0.029008903
115	0xbd6a1ad9	-0.05715451
116	0xbd49bf57	-0.04925474
117	0x3d584aa7	0.05280557
118	0xbb89e2bc	-0.004207937
119	0x3da9a6c8	0.08283764
120	0xbda125b2	-0.07868518
121	0x3c023ed9	0.007949554
122	0x3cd8d017	0.026466412
123	0xbdcc59e8	-0.09978086
124	0x3bddd8e0	0.0067702383
125	0x3d5ec728	0.05438915
126	0xbda10896	-0.07862966
127	0xbc7bb72c	-0.015363496

encoder.layers.1.nn.net.2.weight f4 [128, 128]
0	0x3d710678	0.05884406
1	0xbc98851a	-0.018618155
2	0x3d450068	0.04809609
3	0xbc802c4d	-0.015646124
4	0xbd2b224c	-0.041780755
5	0x3c18101a	0.009281183
6	0xbd59ccee	-0.05317395
7	0x3c828417	0.015932126
8	0xbd64a4b4	-0.055821136
9	0xbd7ec34f	-0.06219798
10	0xbc4257ad	-0.011861724
11	0x3c2f362e	0.01069407
12	0xbd3d03b4	-0.04614611
13	0xbdb4e5cd	-0.088328935
14	0xbd6a15b5	-0.057149608
15	0xbd89e86b	-0.06733783
16	0xbc8f34e2	-0.017481271
17	0xbd01576f	-0.031577524
18	0x3d7930de	0.06083762
19	0x3cfab696	0.030604642
20	0xbb917cfa	-0.004439947
21	0xbcde841a	-0.0271626
22	0xbdf695c0	-0.12040281
23	0x3d60bbba	0.05486653
24	0xbd254084	-0.04034473
25	0xbde73cc0	-0.11290884
26	0x3ca842f1	0.020539733
27	0xbd409da6	-0.047025345
28	0x3d20c284	0.039248005
29	0xbd554513	-0.052067827
30	0xbc39cc65	-0.011340235
31	0xbc876570	-0.016527861
32	0xbe04ea77	-0.12980066
33	0x3ca21cb9	0.019789087
34	0xbdb45cf0	-0.08806789
35	0xbd1781c2	-0.03698898
36	0x3c4d20a9	0.012519994
37	0xbdc49d40	-0.096003056
38	0x3d06bb3d	0.032893408
39	0xbd30f416	-0.04320153
40	0xbd242e86	-0.04008343
41	0x3d339c66	0.043850325
42	0xbd2ba58a	-0.041905917
43	0x3c7eaa16	0.015543481
44	0xbcfde3ae	-0.030992355
45	0xbd8366d0	-0.06416094
46	0xbd874239	-0.06604428
47	0xbba44eeb	-0.0050142906
48	0x3c2a5e58	0.01039847
49	0x3d876d3e	0.06612633
50	0xbcc423dd	-0.023942882
51	0xbd30a28f	-0.043123778
52	0x3d27035f	0.0407747
53	0xbc3cd8f3	-0.011526334
54	0xbc5337c8	-0.012891717
55	0xbb328c19	-0.002724415
56	0xbd905624	-0.0704768
57	0x3cffdc34	0.03123293
58	0x3cdbab22	0.026815
59	0x3ca641f5	0.020295123
60	0xbd83428d	-0.06409178
61	0xbcc9b295	-0.024621287
62	0xbd5de1d2	-0.054170437
63	0xbc997ef1	-0.018737288
64	0xbd19b3f5	-0.037525136
65	0x3d468583	0.04846717
66	0x3d346b8e	0.044047885
67	0xbd072b1b	-0.033000093
68	0x3d8ebd8b	0.06969746
69	0x3cd875c9	0.026423352
70	0xbda8ad2e	-0.082361564
71	0x3da6d406	0.08145909
72	0x3c8570a0	0.016289055
73	0x3d677d44	0.056515947
74	0xbd2c092d	-0.04200094
75	0x3d1f1961	0.038842563
76	0xbe066bf5	-0.1312712
77	0x3d80eb4d	0.0629488
78	0xbd503817	-0.05083474
79	0xbd935c40	-0.0719533
80	0x3d584da2	0.05280841
81	0xbda81961	-0.08207966
82	0xbce142ee	-0.027497735
83	0x3c29184f	0.010320737
84	0xbda9509b	-0.082673274
85	0xbd060c5c	-0.03272663
86	0xbbb96544	-0.0056578238
87	0x3cea3466	0.028589439
88	0x3d75ca2c	0.06000726
89	0xbd1a29e6	-0.037637614
90	0xbd9145ed	-0.070934154
91	0x3d854a4b	0.06508311
92	0xbcf0466c	-0.029330455
93	0xbd69b547	-0.057057645
94	0x3d8dffd9	0.06933565
95	0x3b1b1063	0.002366089
96	0x3cc8edc6	0.024527442
97	0xbd4f54ea	-0.05061809
98	0xbd0c408d	-0.034241248
99	0xbde28346	-0.11060195
100	0xbb83b34e	-0.0040191775
101	0xbccaa508	-0.024736896
102	0xbda44595	-0.08021084
103	0xbbed98c3	-0.0072508766
104	0xbd5205d9	-0.051275108
105	0x3d4bee4e	0.049787812
106	0x3d48641e	0.048923604
107	0xbd6f164f	-0.058370885
108	0x3d1c5c6a	0.03817407
109	0xbd629ced	-0.055325437
110	0xbda7eff0	-0.08200061
111	0xbcd2f64a	-0.025752205
112	0x3d892fe2	0.06698586
113	0xbd19dd47	-0.037564542
114	0xbce9d1d8	-0.028542444
115	0x3d3a1e19	0.04543886
116	0x3cacfc2d	0.02111634
117	0x3c4991d2	0.012302833
118	0x3d6c4871	0.057686273
119	0x3cfbbba6	0.030729126
120	0x3a842a96	0.0010083492
121	0xbd0cdb0f	-0.034388598
122	0x3d9865c8	0.07441288
123	0x3d540b78	0.05176875
124	0x3d01235b	0.03152786
125	0xbd1d20a6	-0.038361214
126	0xbc839c4a	-0.016065735
127	0xbd885d7a	-0.06658454
128	0xbd090f06	-0.033461593
129	0xbd966e57	-0.073452644
130	0x3d11a47d	0.03555726
131	0xbd8a53de	-0.06754278
132	0xbd91164a	-0.070843294
133	0xbd00ac72	-0.031414457
134	0x3caeadf9	0.021323191
135	0xbd8317ea	-0.064010456
136	0xbb37edbc	-0.0028065285
137	0xbc8425dc	-0.016131334
138	0xbd0307e4	-0.031989947
139	0x3da88b19	0.08229656
140	0x3d91bb02	0.07115747
141	0xbdb2a49c	-0.08722803
142	0x3ca7c6e0	0.020480573
143	0xbdec8088	-0.11547953
144	0x3d58a3fc	0.052890763
145	0x3d1b6a27	0.03794303
146	0x3cf916b1	0.030406328
147	0x3d176ed2	0.03697092
148	0xbcb5acd3	-0.022177136
149	0xbd3865e0	-0.04501903
150	0xbdd0f812	-0.10203566
151	0x3d4ec1b5	0.050477702
152	0x3d9f5614	0.0778009
153	0xbd84b354	-0.064795166
154	0x3bd12d15	0.006383548
155	0xbdca9e70	-0.09893501
156	0xbd6d0db0	-0.05787438
157	0xbd922549	-0.07136018
158	0xbd9dc17f	-0.07702922
159	0x3d3bf6b7	0.045889582
160	0x3c80d4d5	0.015726486
161	0xbd1e2530	-0.038609684
162	0xbd8157c1	-0.06315566
163	0x3d574e4f	0.052564915
164	0x3c43a12a	0.01194028
165	0x3d8fcc60	0.07021403
166	0xbdba0461	-0.090828665
167	0x3dc1ca65	0.09462432
168	0xbd7b7518	-0.061390966
169	0x3ce27027	0.027641369
170	0xbbc3f699	-0.0059803245
171	0x3ca74815	0.020420114
172	0xbd020325	-0.03174128
173	0xbcf408ba	-0.029789317
174	0xbc87ce3f	-0.016577838
175	0x3dba1c66	0.09087448
176	0xbd84596e	-0.0646237
177	0x3d940ccd	0.07229004
178	0xbda26bcb	-0.07930716
179	0x3c85ca98	0.016331956
180	0xbdad3858	-0.08458012
181	0x3d39c6ef	0.045355733
182	0x3cf703ca	0.030153174
183	0x3b08cbf2	0.0020873514
184	0xbd9ff877	-0.07811063
185	0xbd6b769c	-0.05748616
186	0xbd8d0439	-0.06885571
187	0xbbbe866c	-0.005814364
188	0x3d58ebda	0.0529593
189	0xbdbf2c29	-0.09334595
190	0x3d14dd85	0.03634407
191	0x3dda8fff	0.10671996
192	0xbc9c5e6e	-0.019087996
193	0xbb83bd27	-0.0040203515
194	0xbce37cb3	-0.027769422
195	0x3dbd0159	0.09228773
196	0xbcdfb7ee	-0.027309384
197	0xbdd1bee5	-0.10241488
198	0xbdadf9c3	-0.08494904
199	0x3d8182cb	0.06323775
200	0xbd65f998	-0.056146234
201	0xbdcf30e5	-0.10116748
202	0xbd8042e0	-0.062627554
203	0x3dbfef1c	0.09371778
204	0x3caf4ab9	0.021397935
205	0x3da55fa6	0.08074884
206	0xbd572804	-0.052528396
207	0xbd15ed13	-0.036603045
208	0x3dc9d326	0.098547265
209	0xbbe484f2	-0.006973856
210	0x3d4997ea	0.049217142
211	0x3cd3207f	0.025772331
212	0xbd3bf2d1	-0.045885865
213	0xbd9b89b4	-0.07594624
214	0xbd6daae0	-0.058024287
215	0xbd965e96	-0.073422596
216	0x3afb7b2c	0.0019186488
217	0x3d886e20	0.0666163
218	0xbd53d2f6	-0.05171486
219	0x3c8b302d	0.016990745
220	0x3df40ac3	0.11916115
221	0xb93a3457	-0.0001775784
222	0x3d8e4805	0.069473304
223	0x3db946b2	0.09046687
224	0xbd05ce71	-0.03266758
225	0x3cbdf837	0.023189647
226	0xbd7d3ab9	-0.06182358
227	0xbd99b0f8	-0.07504457
228	0xbd54097d	-0.05176686
229	0xbcab32c4	-0.02089823
230	0xbd43d317	-0.047808733
231	0x3d54c733	0.051947784
232	0xbca5b949	-0.020229952
233	0xbb90d4c7	-0.0044198963
234	0x3ccbebde	0.024892744
235	0x3d83a6fd	0.06428335
236	0x3d811286	0.06302361
237	0x3b145d76	0.0022638715
238	0x3cd866dd	0.026416237
239	0xbcbc5e5e	-0.022994217
240	0xbd65439e	-0.055972688
241	0x3bcfedd8	0.006345492
242	0xbb641dd8	-0.0034807827
243	0x3c67c558	0.0141461715
244	0xbc2873c5	-0.010281508
245	0xbc6dc421	-0.014512093
246	0x3d1b39b7	0.037896838
247	0xbccf361f	-0.025294362
248	0xbd125f7e	-0.0357356
249	0xbc8f5e38	-0.017500982
250	0xbd43c6f1	-0.047797147
251	0x3ce618e0	0.028088033
252	0xbd8fc126	-0.07019262
253	0x3d16ee20	0.036848187
254	0xbda852de	-0.08218931
255	0x3d10f350	0.03538829

encoder.layers.1.nn.net.2.bias f4 [128]
0	0xbb3ad45a	-0.002850792
1	0x3d90df89	0.07073886
2	0x3d0fc7d2	0.035102673
3	0x3d21c719	0.039496515
4	0xbd04ab5f	-0.032389995
5	0xbd8b5e89	-0.068051405
6	0xbbe80ff4	-0.00708198
7	0xbbce53f8	-0.006296631
8	0x3d482159	0.048859928
9	0x3d84740f	0.06467449
10	0xbd3e7bf1	-0.04650492
11	0x3d9dc19a	0.07702942
12	0xbca06187	-0.019577755
13	0xbbe64db0	-0.007028304
14	0x3d84cc4f	0.06484281
15	0xbda5add0	-0.08089793
16	0x3d7c2ae3	0.061564337
17	0x3d2f035e	0.04272782
18	0x3ceac6d7	0.028659267
19	0xbc6ca536	-0.014443686
20	0xbd935b93	-0.07195201
21	0xbd4c4730	-0.049872577
22	0x3c31354b	0.010815929
23	0xbd8285d5	-0.06373183
24	0xbcf81be0	-0.03028673
25	0xbd3479dc	-0.044061527
26	0xbd06beb7	-0.032896724
27	0x3d4a68c4	0.04941632
28	0x3d33dec5	0.04391362
29	0x3d3b1389	0.045672927
30	0xbd8b204e	-0.06793271
31	0xbd3fc7ef	-0.04682153
32	0x3cde23f9	0.027116762
33	0x3daceeeb	0.084440075
34	0xbcdc38a4	-0.026882477
35	0x3d365f7b	0.04452465
36	0xbd8a2fba	-0.06747384
37	0x3d0e3b85	0.03472473
38	0x3d43574a	0.047690667
39	0xbdafc823	-0.08583095
40	0xbd9c7545	-0.07639555
41	0xbd2db3b5	-0.04240771
42	0xbb85ebf6	-0.0040869666
43	0x3d251269	0.04030076
44	0x3d822f78	0.0635671
45	0x3cbcc8f2	0.023045037
46	0x3d83c1e4	0.06433466
47	0x3ba9bef7	0.0051802355
48	0x3d91070c	0.07081422
49	0xbd20f47b	-0.039295655
50	0xbc95f82c	-0.018306814
51	0x3abec8c2	0.001455568
52	0x3d97e98f	0.07417595
53	0xbdafa875	-0.085770525
54	0xbd4502a4	-0.04809822
55	0x3a922191	0.001114892
56	0xbd4ef243	-0.050524008
57	0xbcfee548	-0.03111519
58	0xbd831919	-0.064012714
59	0x3c9492a2	0.018136326
60	0x3d227cba	0.03966973
61	0xbd77952c	-0.060444996
62	0xbd43b3ed	-0.047779012
63	0xbd3fda65	-0.046839137
64	0x3dbc09d6	0.091815636
65	0xbdb11b4e	-0.08647786
66	0xbca8c861	-0.02060336
67	0x3c856e8f	0.01628807
68	0xbd9e1ecb	-0.07720717
69	0x3be2d56f	0.006922416
70	0xbcc05aa5	-0.023480723
71	0xbbe7b0c0	-0.007070631
72	0xbd7754b4	-0.060383514
73	0x3d87a0a1	0.066224344
74	0x3c86c2c4	0.016450293
75	0x3d0828d3	0.033242058
76	0x3d8d1a08	0.06889731
77	0xbcb0314c	-0.021507882
78	0xbcbafb81	-0.022825005
79	0xbd8e4684	-0.069470435
80	0xbd070703	-0.03296567
81	0x3d033ff7	0.032043424
82	0xbd9e1322	-0.07718493
83	0xbd7a1c2c	-0.061062023
84	0xbda77aca	-0.08177717
85	0xbd0deb68	-0.03464833
86	0xbdb438e8	-0.087999165
87	0xbdb6e3cd	-0.08930168
88	0xbd748173	-0.059693765
89	0xbb782ecb	-0.0037869688
90	0x3cb7f371	0.02245495
91	0x3c075497	0.008259914
92	0xbd95dd45	-0.073175944
93	0xbcb0169c	-0.021495156
94	0xbda4c682	-0.08045675
95	0x3d90b003	0.070648216
96	0xbc8e729f	-0.01738864
97	0x3ca85c97	0.020551963
98	0xbdb41579	-0.08793158
99	0x3d1e01b0	0.038575828
100	0xbd268607	-0.040655162
101	0x3d469d50	0.04848987
102	0x3d866dfe	0.06563948
103	0xbd0d49db	-0.034494262
104	0x3d51e63a	0.05124495
105	0x3d2b8f6c	0.041884825
106	0xbc725180	-0.014789939
107	0x3d6ec3dd	0.05829226
108	0x3d825db8	0.06365532
109	0x3d6888f2	0.056771226
110	0x3d526bdb	0.05137239
111	0xbdb70cff	-0.08938026
112	0x3bc272f0	0.005934112
113	0xbd143d59	-0.03619132
114	0x3d6f74ee	0.058461122
115	0xbc8de434	-0.01732073
116	0x3ca47e07	0.020079626
117	0x3d944ef5	0.07241622
118	0x3da15c21	0.078789
119	0x3d779206	0.060441993
120	0x3b1208fe	0.0022283192
121	0x3d72fdae	0.05932396
122	0x3c90903b	0.0176469
123	0xbd5f95f7	-0.054586377
124	0x3da25562	0.07926442
125	0xbcfb37df	-0.03066629
126	0x3c0973a5	0.008389388
127	0xbd4d8e76	-0.05018469

encoder.layers.2.nn.net.0.weight f4 [128, 128]
0	0xbd363d25	-0.044491906
1	0x3d0e6bd5	0.034770805
2	0xbd8ce4f4	-0.06879607
3	0x3c8482de	0.016175684
4	0x3d83b421	0.06430841
5	0x3db127ea	0.08650191
6	0x3aadb273	0.0013252035
7	0xbd1e1d47	-0.03860214
8	0x3d02dc60	0.031948447
9	0x3d63f08c	0.055649325
10	0xbc5a3359	-0.013317906
11	0x3d071972	0.03298325
12	0x3cbf45f6	0.02334879
13	0xbd183e80	-0.03716898
14	0x3da0501e	0.07827781
15	0x3d8ae89d	0.06782649
16	0xbd9cf557	-0.07663982
17	0xbb82277a	-0.003971991
18	0xbd29ee55	-0.041487057
19	0x3c262e72	0.010142909
20	0x3c878446	0.016542565
21	0xbcc2dcc1	-0.023786904
22	0x3d0b3dc3	0.033994447
23	0xbdace27e	-0.084416375
24	0xbd346144	-0.044038072
25	0xbd4e51e9	-0.050371084
26	0x3d4086f6	0.04700371
27	0x3ca14ba5	0.01968939
28	0xbdc2be43	-0.09508946
29	0xbcb26311	-0.021775754
30	0x3d9b09c8	0.07570225
31	0xbd8d3c6f	-0.068962924
32	0x3d477732	0.048697658
33	0x3be51d22	0.0069919983
34	0xbd49c369	-0.049258623
35	0xbdb5e408	-0.08881384
36	0x3c44930c	0.011997949
37	0xbd8af8e7	-0.067857556
38	0xbd42fbe4	-0.047603503
39	0x3d150304	0.03637983
40	0xbd883ea3	-0.06652572
41	0x3c155155	0.009113629
42	0x3ce4d93f	0.027935622
43	0xbc7dd3ee	-0.0154924225
44	0x3d024b62	0.031810172
45	0xbd646217	-0.05575761
46	0x3d7d8c6a	0.061901487
47	0xbd2097b6	-0.039207183
48	0x3c510bc5	0.012759154
49	0xbc622fa1	-0.013805301
50	0xbd9b567c	-0.07584855
51	0x3cb4183d	0.021984214
52	0xbd58f5c4	-0.052968755
53	0x3d9c88cd	0.0764328
54	0x3d4ea3ff	0.050449368
55	0x3c0f8fa9	0.008762279
56	0x3da2e625	0.07954053
57	0x3d16dd3d	0.036832083
58	0xbdabe855	-0.08393923
59	0x3d01c3a5	0.03168072
60	0xbd8efd1a	-0.06981869
61	0xbd19a0a7	-0.037506726
62	0xbd817c66	-0.06322555
63	0xbd185be7	-0.03719702
64	0x3c756147	0.014976806
65	0x3e0c9a12	0.13730648
66	0x3d967635	0.07346765
67	0x3d6335ed	0.05547135
68	0x3ddcc307	0.10779386
69	0x3d8401f1	0.06445683
70	0xbdfaa022	-0.12237574
71	0xbd02ff95	-0.031982023
72	0x3dc84062	0.09777905
73	0xbd885a94	-0.066579014
74	0x3d3e2e22	0.046430714
75	0xbdd1be9c	-0.10241434
76	0x3d5ca85b	0.053871494
77	0x3d20fbc6	0.03930261
78	0x3dd1c978	0.10243505
79	0xbc6cbfd3	-0.014450031
80	0x3d34e5e1	0.044164542
81	0x3e0ee078	0.13952816
82	0xbc599319	-0.0132797
83	0xbdb0df55	-0.08636347
84	0xbcec5fb9	-0.028854238
85	0xbce9988f	-0.028515128
86	0x3d5ad867	0.053429034
87	0x3d0126b3	0.031531047
88	0x3b677fad	0.0035323903
89	0xbd381fd6	-0.044952236
90	0xbd5952c1	-0.053057436
91	0xbd742af0	-0.05961126
92	0xbcef67ec	-0.029224358
93	0xbc49945c	-0.012303438
94	0xbd8f168e	-0.06986724
95	0x3d73cadb	0.05951963
96	0x3c492ef5	0.012279262
97	0x3d0b85de	0.034063213
98	0xbd55c1ae	-0.05218666
99	0x3d10f150	0.035386384
100	0xbd76e3e5	-0.06027593
101	0x3bf6200a	0.0075111436
102	0xbb0b5000	-0.00212574
103	0xbd53c841	-0.05170465
104	0x3c682c46	0.014170712
105	0xbd9a6bac	-0.07540068
106	0x3d4cc9a0	0.049996972
107	0xbdb2dcd9	-0.087335296
108	0xbd79b2be	-0.060961477
109	0x3d24b1a7	0.040208485
110	0xbd120f7d	-0.035659302
111	0x3daa41a8	0.08313304
112	0xbd408671	-0.047003213
113	0x3dab993f	0.08378839
114	0xbd4c9101	-0.049942974
115	0xbda66a1f	-0.0812571
116	0xbd1295cf	-0.0357874
117	0xbdaf4135	-0.08557359
118	0xbd82c769	-0.06385691
119	0x3dd9f925	0.10643224
120	0xbdb18c09	-0.08669288
121	0xbdc577ff	-0.09642028
122	0x3d533df4	0.051572755
123	0xbd3da4ba	-0.046299674
124	0x3d41b8c7	0.047295358
125	0xbcc85ac3	-0.024457341
126	0x3c2e9f89	0.010658153
127	0xbcb4636b	-0.022020062
128	0xbda276af	-0.07932793
129	0xbd142552	-0.036168404
130	0x3b0c05ef	0.0021365841
131	0x3a6c0da7	0.000900472
132	0xbd223b42	-0.039607294
133	0x3badb548	0.0053011514
134	0x3cdbdcbb	0.02683865
135	0x3cda23ef	0.026628463
136	0xbbe20a44	-0.0068981964
137	0x3d84e3cf	0.064887635
138	0x3d0a9b12	0.033839293
139	0xbd7a048b	-0.06103949
140	0x3a902f32	0.0011000393
141	0x3b5eb2dd	0.0033981123
142	0x3b5f921a	0.0034114183
143	0x3cdee1ad	0.02720722
144	0x3cfde709	0.030993955
145	0x3cbe0cf7	0.023199541
146	0xbd861b16	-0.06548135
147	0x3cfa2f71	0.0305402
148	0x3d40c40b	0.04706196
149	0xbcb8f64a	-0.022578377
150	0xbdb86c09	-0.09004981
151	0xbd8ae405	-0.067817725
152	0x3c836719	0.016040372
153	0xbd416a99	-0.0472208
154	0xbc8490f6	-0.016182404
155	0xbcef027f	-0.029175995
156	0xbd9fa6c8	-0.07795483
157	0x3d75e699	0.06003437
158	0xbd4d9aa6	-0.050196312
159	0xbdacb248	-0.08432442
160	0x3d4c8125	0.04992785
161	0xbd3075f8	-0.043081254
162	0x3db58cb3	0.08864727
163	0x3bde8349	0.0067905528
164	0xbd0edacf	-0.03487664
165	0x3c33664a	0.010949681
166	0xbccf4652	-0.025302086
167	0x3d8bf19e	0.06833194
168	0xbcea5484	-0.028604753
169	0x3b63ad87	0.0034740882
170	0xbc918028	-0.017761305
171	0xbcdf1bcc	-0.027234934
172	0x3d5cc682	0.05390025
173	0x3d6c479a	0.057685472
174	0xbcbff42d	-0.023431862
175	0xbdb51f45	-0.08843855
176	0x3d4e566e	0.050375395
177	0x3ce9bc32	0.028532121
178	0x3cd4f3bf	0.025995133
179	0xbd57a45a	-0.052646972
180	0x3b8ff69e	0.0043934127
181	0xbd3e553a	-0.046467997
182	0xbdaf3100	-0.08554268
183	0x3d2d490b	0.042305987
184	0xbdb09401	-0.086219795
185	0x3cb70546	0.022341382
186	0xbd78e9f8	-0.060770005
187	0xbd851ae8	-0.064992726
188	0x3d42e5b0	0.04758233
189	0xbdafba63	-0.08580472
190	0xbd4a0fdf	-0.049331542
191	0xbd8d54d3	-0.069009446
192	0xbd125582	-0.035726078
193	0x3cc96315	0.024583379
194	0xbd6ec668	-0.058294684
195	0xbdc1426b	-0.09436496
196	0x3c695913	0.014242428
197	0xbcd174d0	-0.025568396
198	0x3d0eb357	0.034839
199	0x3c5a5d83	0.013327959
200	0x3c16e04c	0.00920875
201	0xbcdf416d	-0.027252877
202	0x3d2f4920	0.042794347
203	0x3d43f48f	0.04784065
204	0xbd7eef8a	-0.06224016
205	0x3ce6394e	0.028103497
206	0xbbdd0fbc	-0.0067462604
207	0xbd91e4eb	-0.07123741
208	0xbd8cd8dc	-0.068773
209	0xbdb8d09c	-0.09024164
210	0xbd9761b6	-0.07391684
211	0xbcb0c813	-0.021579778
212	0x3d5ddbc4	0.054164663
213	0xbc9e7b8a	-0.019346017
214	0xbdaa927a	-0.083287194
215	0x3d31f1e4	0.043443576
216	0x3d8af6eb	0.06785377
217	0xbd995377	-0.07486623
218	0x3d30026b	0.042971056
219	0xbd394610	-0.045232832
220	0xbda88aba	-0.08229585
221	0xbd692290	-0.056917727
222	0x3a5542c5	0.00081352546
223	0xbd7eaaf0	-0.062174737
224	0x3d91f7bd	0.071273305
225	0xba0d145e	-0.0005381758
226	0xba9f71a6	-0.0012164607
227	0x3c4a6a9f	0.012354522
228	0x3d1089bc	0.035287604
229	0x3bb79466	0.0056024073
230	0xbc4b5952	-0.012411432
231	0xbcafea38	-0.021473989
232	0x3c0366f6	0.008020153
233	0x3d67fb63	0.056636225
234	0xbd65e468	-0.05612603
235	0x3cf2a89a	0.029621411
236	0x3cb580b3	0.022156095
237	0xbdbf6318	-0.093450725
238	0xbd213f1d	-0.03936683
239	0xbd90fc23	-0.07079341
240	0xbb741931	-0.003724646
241	0x3ccd6c8c	0.025076173
242	0x3cc477b8	0.023982868
243	0x3d174ed9	0.03694043
244	0xbb9b5dda	-0.0047414126
245	0x3cc579c1	0.024105908
246	0xbdba16d3	-0.090863846
247	0x3d1e6492	0.03867013
248	0x3d1bd3f2	0.038043924
249	0x3cd16c52	0.025564346
250	0xbc547fdd	-0.012969938
251	0xbd95180c	-0.07279977
252	0xbd0f99f2	-0.035058923
253	0xbcb63052	-0.022239838
254	0xbd052b78	-0.03251216
255	0xbd876d59	-0.06612653
