scripts/embeddings_gin_version2/IMDB-MULTI/gin_dim128_ep100_lr0.0005_drop0.0/gin_classifier.pt (torch, 626909 bytes, 42 tensors)

encoder.layers.0.nn.net.0.weight f4 [128, 1]
0	0x3f367c47	0.7128338
1	0xbf6cea02	-0.9254457
2	0xbec77a70	-0.389606
3	0x3eb782b9	0.3584192
4	0x3eb9f9af	0.36323306
5	0xbea802f8	-0.32814765
6	0x3f4e9f89	0.8071218
7	0x3e7f686f	0.24942182
8	0xbf511d76	-0.8168558
9	0xbf1a0eaa	-0.60178626
10	0xbf5aabbe	-0.8541831
11	0x3f418531	0.7559386
12	0x3ed265c0	0.41093254
13	0x3e9b2ef7	0.3030927
14	0xbef3549c	-0.4752549
15	0xbf152178	-0.58254194
16	0xbe9d91e4	-0.30775368
17	0xbd478d00	-0.048718452
18	0xbede6240	-0.43434334
19	0x3de52e75	0.111905016
20	0xbe8563ec	-0.26052797
21	0x3f57b718	0.84263754
22	0x3e9047b3	0.28179702
23	0xbf387592	-0.720544
24	0xbecb906c	-0.39758623
25	0xbdbcc550	-0.09217322
26	0x3f60cd4e	0.8781327
27	0x3ea9f911	0.33197835
28	0x3ea60567	0.32425997
29	0x3f095f7b	0.53661317
30	0xbcbbb4b9	-0.022913324
31	0xbf0133f8	-0.50469923
32	0x3e0c776d	0.13717432
33	0xbf6fb358	-0.9363303
34	0xbf4695c4	-0.77572274
35	0x3ed69b8b	0.41915545
36	0x3dee6e23	0.11642101
37	0x3eefb262	0.46815783
38	0x3f75bdb6	0.959926
39	0x3f3a2dbb	0.7272603
40	0xbf7fcea4	-0.99924684
41	0x3e51ced4	0.20489055
42	0x3edc3d89	0.43015698
43	0x3de9dfb4	0.11419621
44	0x3e98abe7	0.2981865
45	0x3f3e0b3f	0.7423591
46	0x3ef3bba0	0.47604084
47	0x3f52d65a	0.82358325
48	0xbf4c2046	-0.79736745
49	0x3f7eedb1	0.9958144
50	0xbee8f664	-0.4550048
51	0x3dd90e56	0.105984375
52	0x3f66845d	0.9004572
53	0x3f738261	0.9512082
54	0xbc78fd80	-0.015197158
55	0xbf3dcfb2	-0.7414504
56	0x3ebc84cb	0.36820063
57	0x3ee120c7	0.4397032
58	0xbf766aae	-0.9625653
59	0xbe13bad0	-0.14426732
60	0x3f614f54	0.8801167
61	0x3cd00dcc	0.025397204
62	0xbf027886	-0.50965154
63	0xbe080b00	-0.13285446
64	0x3f3b5ab5	0.7318528
65	0x3f563bf3	0.83685225
66	0x3d02227e	0.031771176
67	0xbebedf60	-0.37279797
68	0x3dd1909f	0.102326624
69	0xbeb81ea4	-0.35960877
70	0x3f0b6b02	0.54460156
71	0xbf4b5948	-0.7943311
72	0xbd14bbe0	-0.036311984
73	0xbea25524	-0.31705582
74	0x3f70218c	0.9380119
75	0xbf741f3a	-0.9536015
76	0x3f582b86	0.8444141
77	0x3e261035	0.1621712
78	0xbe44d8d0	-0.19223332
79	0x3f18bcaf	0.5966291
80	0x3ee06e76	0.43834275
81	0xbd9921b0	-0.074771285
82	0xbf016aca	-0.5055357
83	0x3edcc9ce	0.43122715
84	0xbf34f288	-0.70682573
85	0x3f3adf55	0.7299703
86	0x3e42200a	0.18957534
87	0xbe75e2d0	-0.24012303
88	0x3f10d9e1	0.56582457
89	0x3ecb1300	0.39662933
90	0x3f1b4623	0.60653895
91	0x3eef7693	0.46770152
92	0x3f7b247d	0.9810255
93	0xbf1bddd4	-0.6088536
94	0x3efbf8d6	0.49213284
95	0x3f3c2d5d	0.7350672
96	0xbf2dc372	-0.6787635
97	0x3f351345	0.7073253
98	0x3e8a26b5	0.26982656
99	0x3f73ae5e	0.9518794
100	0xbe087d58	-0.13329065
101	0xbea3aa5c	-0.3196591
102	0xbe5f9380	-0.2183361
103	0xbf5f6b00	-0.87272644
104	0xbf6e7606	-0.9314884
105	0x3d7facf5	0.062420804
106	0x3f322acc	0.6959655
107	0x3f057150	0.52126026
108	0x3b14360c	0.0022615222
109	0xbec79268	-0.38978887
110	0x3e48df5b	0.19616453
111	0x3ee704ee	0.4512095
112	0xbedf598c	-0.43623006
113	0xbc1e9d80	-0.009681106
114	0xbeaa5310	-0.33266497
115	0x3e9f8073	0.31152686
116	0x3d29d245	0.041460294
117	0xbcb7f9c7	-0.02245797
118	0xbe99ec00	-0.30062866
119	0xbf56ec18	-0.83954
120	0xbf0c8ffe	-0.54907215
121	0xbf08e576	-0.5347513
122	0xbf0cd1d4	-0.5500767
123	0x3f129874	0.57263875
124	0x3f4d1206	0.80105627
125	0xbf16c13a	-0.5888859
126	0xbf19213a	-0.59816325
127	0xbe515278	-0.20441616

encoder.layers.0.nn.net.0.bias f4 [128]
0	0xbf0a7813	-0.5408947
1	0x3f23d648	0.6399884
2	0xbe378d40	-0.17924976
3	0x3f5835ed	0.84457284
4	0x3f682b74	0.90691304
5	0xbf3d9e68	-0.74069834
6	0x3edc6ba2	0.43050867
7	0x3e9bdf9f	0.30444047
8	0xbf798fb0	-0.97484875
9	0x3f701e8c	0.9379661
10	0x3f1a975c	0.60387206
11	0xbe90aa36	-0.2825486
12	0x3f3165d1	0.69295985
13	0x3dcf1e46	0.10113196
14	0xbecc101c	-0.3985604
15	0x3db2c6c0	0.08729315
16	0xbd173fa0	-0.036925912
17	0x3ce995c0	0.02851379
18	0x3cd6fd00	0.026243687
19	0xbe993e55	-0.29930368
20	0xbdc60aa0	-0.09669995
21	0x3e885742	0.26629072
22	0x3e439afd	0.19102092
23	0xbef0b39c	-0.4701203
24	0xbf40dc3a	-0.7533604
25	0xbf75a256	-0.9595083
26	0xbf41b3c6	-0.7566494
27	0xbf5f2c77	-0.8717722
28	0xbe8c73c4	-0.27432072
29	0xbeb5dccd	-0.3552002
30	0x3f0496ba	0.5179249
31	0x3f6abb72	0.9169227
32	0x3f465743	0.774769
33	0x3f753880	0.9578934
34	0x3f5cb7a2	0.862177
35	0xbf601ecd	-0.87547
36	0xbe439ea0	-0.1910348
37	0xbf67a5df	-0.90487474
38	0xbf2ca595	-0.6744016
39	0xbe1d6861	-0.15371849
40	0xbf280740	-0.6563606
41	0x3dc66528	0.09687263
42	0x3f1e330d	0.6179665
43	0xbf1e16e2	-0.61753666
44	0xbee9624f	-0.45582816
45	0xbf4d3f63	-0.80174845
46	0x3f66980c	0.90075755
47	0xbf1e35a7	-0.61800617
48	0x3f687770	0.9080725
49	0x3efa1f6b	0.48852095
50	0x3ec85fe0	0.39135647
51	0x3f122be5	0.5709823
52	0xbf11415e	-0.5674037
53	0xbf0133e5	-0.5046981
54	0xbf119a2c	-0.5687587
55	0xbe522858	-0.20523202
56	0xbf0ee587	-0.5581898
57	0x3f734775	0.9503091
58	0xbf3bdef2	-0.7338706
59	0xbf4191f8	-0.75613356
60	0xbe0e4f19	-0.13897361
61	0x3e11d11b	0.14239924
62	0xbf373970	-0.7157202
63	0x3f04ce0a	0.5187689
64	0xbf64f2b4	-0.89432836
65	0x3f323dfc	0.6962583
66	0xbf3ba9a5	-0.7330573
67	0x3e51cf68	0.20489275
68	0x3e95b36c	0.2923845
69	0x3efd350c	0.49454534
70	0xbf6a1567	-0.9143891
71	0x3f7c6f6a	0.98607504
72	0xbf06011e	-0.52345455
73	0x3ea57dbc	0.3232249
74	0x3e1f947c	0.15583986
75	0x3f1140c6	0.5673946
76	0x3ea20bf7	0.31649753
77	0xbee334c3	-0.44376191
78	0x3edfbedc	0.43700302
79	0x3e8fd720	0.28093815
80	0xbf68fb29	-0.9100824
81	0x3eef3420	0.46719456
82	0xbe2c91d8	-0.1685251
83	0x3f50c150	0.8154497
84	0x3eb5d6f0	0.35515547
85	0x3da02560	0.07819629
86	0x3f7f8a6c	0.9982059
87	0x3e102810	0.14077783
88	0x3e14d67a	0.14534941
89	0x3e50edf4	0.20403272
90	0x3f137505	0.5760043
91	0xbdf9b2fd	-0.121923424
92	0xbf0861f8	-0.5327449
93	0x3eeee398	0.46658015
94	0x3bfe7ed5	0.0077665844
95	0xbf05909b	-0.52173775
96	0xbf0c0a8a	-0.5470358
97	0x3f3292a5	0.6975501
98	0x3f5c0db9	0.8595844
99	0x3f4055d5	0.7513097
100	0x3f562382	0.8364793
101	0x3f6853a0	0.907526
102	0x3f44faf0	0.769454
103	0xbec66ebc	-0.3875636
104	0x3e8af1b8	0.27137542
105	0x3ebb3edc	0.36571395
106	0xbf7d07ba	-0.98839915
107	0xbf65b6ff	-0.89732355
108	0xbea0d87d	-0.31415167
109	0x3e80a0b8	0.2512262
110	0x3e9869da	0.29768258
111	0x3d8f8441	0.07007647
112	0xbf7108ae	-0.9415387
113	0xbf756cea	-0.95869315
114	0x3f793fe0	0.9736309
115	0x3e121e2a	0.14269319
116	0x3e0f132c	0.13972157
117	0x3f09ea63	0.5387327
118	0x3b0c9400	0.002145052
119	0x3f1ab4c2	0.60432065
120	0x3f1d5ec8	0.6147275
121	0x3bb17b00	0.005416274
122	0x3f3323c2	0.6997644
123	0xbe790384	-0.24317747
124	0x3ce96fab	0.02849563
125	0x3f5ca2f6	0.8618616
126	0x3ea494c8	0.3214476
127	0xbf198850	-0.5997362

encoder.layers.0.nn.net.2.weight f4 [128, 128]
0	0xbd6caeb1	-0.057783786
1	0x3ca81980	0.020519972
2	0xbce48a42	-0.027897958
3	0x3d424d2a	0.04743687
4	0xbc6250c5	-0.013813202
5	0xbd89f877	-0.06736844
6	0xbc9c07a0	-0.019046605
7	0xbd287d76	-0.041135274
8	0xbd51f204	-0.051256195
9	0x3c94d0f8	0.01816605
10	0xbc353207	-0.011059291
11	0xbdab8214	-0.0837442
12	0x3c6ecd83	0.014575365
13	0xbd3c4cde	-0.045971744
14	0xbdaca0da	-0.084291175
15	0x3c306efa	0.010768646
16	0x3ce76e93	0.028250968
17	0xbc92a397	-0.017900271
18	0xbcd44615	-0.025912324
19	0x3b7d00e0	0.0038605258
20	0xbd78713a	-0.060654856
21	0x3d288615	0.041143496
22	0xbdca0649	-0.0986448
23	0xbd283c32	-0.04107303
24	0xbd8a9b37	-0.06767886
25	0x3d82bc3a	0.063835576
26	0xbcc12dcb	-0.023581406
27	0xbd8a4163	-0.06750753
28	0xbd5f0bb1	-0.05445451
29	0xbb15d862	-0.002286457
30	0x3deffd57	0.117182426
31	0xbdaff00e	-0.08590709
32	0xbd1e6d63	-0.038678538
33	0xbd8237a3	-0.06358268
34	0xbaed9f56	-0.0018129151
35	0xbd968b41	-0.07350779
36	0xbd3a6f5e	-0.045516364
37	0x3d697c0b	0.057003062
38	0xbd3e050b	-0.046391528
39	0xbdc09f8b	-0.094054304
40	0x3d8225be	0.06354855
41	0x3d57429e	0.052553765
42	0x3c22b396	0.009930512
43	0xbd425047	-0.04743984
44	0xbd301675	-0.042990167
45	0xbd033acd	-0.0320385
46	0x3d8eee4b	0.069790445
47	0x3cf26a24	0.029591627
48	0xbd1a088f	-0.03760582
49	0x3d4bf32d	0.049792457
50	0xbcea718b	-0.028618595
51	0x3c379379	0.011204594
52	0xbca11511	-0.019663366
53	0x3cb195ae	0.021677818
54	0xbd8486f7	-0.06471055
55	0xbcb275a9	-0.02178462
56	0x3cbacecd	0.022803688
57	0xbc1e70b3	-0.009670424
58	0xbda79088	-0.08181864
59	0xbba8d62b	-0.005152484
60	0xbd6d1743	-0.057883512
61	0x3d8baf1e	0.0682051
62	0xbc7fe2f2	-0.015618073
63	0x3c38b769	0.011274197
64	0x3d9c13c0	0.076209545
65	0x3d7f22b0	0.06228894
66	0x3d3b8716	0.045783125
67	0xbd251757	-0.04030546
68	0x3da091f9	0.07840342
69	0x3da7c349	0.081915446
70	0xbd9730d6	-0.073823616
71	0xbd9b9046	-0.07595877
72	0xbd2402aa	-0.040041603
73	0xbd840f0a	-0.06448181
74	0x3bb1c127	0.005424637
75	0x3c5caaa1	0.0134684155
76	0x3d29a82f	0.041420158
77	0xbd93a6a4	-0.072095186
78	0xbd5254e6	-0.051350497
79	0x3d42eaf3	0.047587346
80	0x3d2a0e80	0.041517735
81	0x3bcd33ef	0.0062622945
82	0xbb6fd943	-0.0036598004
83	0xbd97f684	-0.07420066
84	0x3d114782	0.035468586
85	0xbd32b897	-0.04363307
86	0xbda3b682	-0.07993795
87	0xbac148db	-0.0014746444
88	0xbd8b1bc7	-0.067924075
89	0x3d0d4492	0.034489222
90	0xbda358a8	-0.07975894
91	0xbc4c1e8e	-0.012458457
92	0xbd80ca1e	-0.06288551
93	0xbd61f7a2	-0.0551678
94	0x3d93103e	0.07180832
95	0x3d85d77c	0.06535241
96	0x3cb98d94	0.022650518
97	0x3d44ce23	0.04804815
98	0xbdbe6058	-0.0929572
99	0xbc91c5c9	-0.017794507
100	0xbceedc13	-0.029157674
101	0x3d0f6447	0.03500774
102	0x3d6b8e1c	0.057508573
103	0xbdb1fb3e	-0.08690499
104	0x3d815546	0.06315093
105	0x3d5215ff	0.05129051
106	0xbcb2b95e	-0.021816906
107	0x3cd16bad	0.02556404
108	0x3ab02570	0.0013438892
109	0x3d591cb4	0.05300589
110	0x3bb368e2	0.0054751495
111	0xbce4ecf1	-0.027945014
112	0xbcf37448	-0.029718533
113	0x3be81cec	0.007083526
114	0x3d75e04d	0.060028363
115	0xbc6140d1	-0.013748364
116	0x3c1ab756	0.009443125
117	0xbd272abd	-0.040812243
118	0x3d0c360e	0.034231238
119	0x3da467c6	0.08027606
120	0xbd62bd61	-0.055356387
121	0xbd0e8151	-0.034791294
122	0xbd8eba01	-0.06969071
123	0xbd97caa7	-0.074117
124	0x3d941133	0.07229843
125	0xbd5f15e3	-0.054464232
126	0x3d97c5e5	0.07410792
127	0xbceec24f	-0.029145388
128	0x3dafccfc	0.085840195
129	0xbcd5dd9f	-0.026106654
130	0x3c9d43cf	0.019197373
131	0xbb6a97a3	-0.003579595
132	0x3d085911	0.033288065
133	0xbd5cf417	-0.05394372
134	0x3dbb33bb	0.09140726
135	0x3c7e2644	0.015512053
136	0xbd815571	-0.06315125
137	0x3d186945	0.037209768
138	0xbc8ce940	-0.017201066
139	0x3d59b6c5	0.05315282
140	0x3bf81e79	0.007571992
141	0x3cd46cdd	0.025930816
142	0x3cc45740	0.023967385
143	0x3d861792	0.065474644
144	0xbd1e7f94	-0.038695887
145	0xbd734fe9	-0.05940238
146	0x3c9c946d	0.019113744
147	0x3b5ce1a4	0.0033703828
148	0x3d2a2d56	0.041547142
149	0x3d1a90ea	0.037735857
150	0xbd4dc341	-0.050235037
151	0x3cac16a1	0.021006884
152	0x3d32246c	0.043491766
153	0xbdb013b7	-0.0859751
154	0x3cbac8fa	0.022800911
155	0xbcefef4e	-0.029288914
156	0xbc546258	-0.0129629
157	0xbd05c257	-0.03265604
158	0x3d96915d	0.073519446
159	0x3d73834e	0.059451394
160	0xbd023b10	-0.031794608
161	0xbcbf750a	-0.023371238
162	0x3da3e486	0.08002572
163	0x3d34385c	0.04399906
164	0x3d3ca029	0.046051178
165	0xbc474e35	-0.012164642
166	0xbbbb9893	-0.0057249754
167	0x3cfe0913	0.031010186
168	0x3d039105	0.032120723
169	0x3d18e3c9	0.037326608
170	0xbdac4d95	-0.08413235
171	0x3b9c277a	0.004765448
172	0xbd0238fb	-0.031792622
173	0xbd6cadb9	-0.057782862
174	0xbd3f24e7	-0.046666052
175	0x3d8abddb	0.06774493
176	0xbc9325ca	-0.017962355
177	0xbdabaf72	-0.08383073
178	0xbd86939f	-0.06571125
179	0x3d4e1a8e	0.050318293
180	0xbd6eb615	-0.058279116
181	0xbccd0bec	-0.025030099
182	0xbdaff2b5	-0.085912146
183	0xbc298368	-0.010346271
184	0xbd596a1b	-0.053079706
185	0xbd374073	-0.044739198
186	0xbcb19f35	-0.021682361
187	0x3d3e330d	0.046435405
188	0xbb9fb761	-0.0048741554
189	0x3db029d0	0.08601725
190	0xbd24c795	-0.0402294
191	0x3c916fb6	0.017753463
192	0xbd747ca9	-0.059689198
193	0x3d9e12c6	0.077184245
194	0xbcb312dd	-0.02185958
195	0xbcf288a9	-0.02960618
196	0xbb78b3a9	-0.0037948883
197	0x3d25da92	0.040491648
198	0xbd823911	-0.06358541
199	0x3d78cc9f	0.060742017
200	0x3d74f2ae	0.05980175
201	0xbd87f8cd	-0.06639252
202	0xbd770c98	-0.060314745
203	0x3d938791	0.072035916
204	0x3d9aeedb	0.07565089
205	0xbcf450a0	-0.029823601
206	0x3d6ea63f	0.058264013
207	0x3d13e9dd	0.0361117
208	0xbbfd8d29	-0.007737775
209	0x3d14b1cd	0.036302377
210	0xbd3b7aa9	-0.045771275
211	0x3bd19f3a	0.006397155
212	0x3c5280b2	0.012848066
213	0xbd91faff	-0.07127952
214	0xbd0b45c8	-0.034002095
215	0xbc9096a1	-0.01764995
216	0x3d62bc04	0.055355087
217	0x3d75f0b9	0.060044024
218	0x3c3284dd	0.010895935
219	0xbcfeaa69	-0.031087117
220	0xbb24a64d	-0.0025123537
221	0xbd7c5d5a	-0.061612464
222	0xbc58d9c7	-0.013235516
223	0xbbfdcbb7	-0.007745232
224	0x3d3d6ce8	0.04624644
225	0xbb44aa91	-0.0030008892
226	0xbd5a8754	-0.053351715
227	0x3da34411	0.07971967
228	0xbb1eaadd	-0.002421073
229	0x3db1f195	0.08688656
230	0xbb7810e8	-0.0037851874
231	0x3d83653f	0.064157955
232	0xbc2b1347	-0.010441608
233	0xbd8cdd62	-0.06878163
234	0x3d0f5791	0.03499562
235	0x3d8f261c	0.06989691
236	0x3da63351	0.081152566
237	0xbd3c2883	-0.045937072
238	0x3d1ff78e	0.039054446
239	0x3d5b8c71	0.053600732
240	0xbd8c234f	-0.06842672
241	0xbd27f617	-0.041006174
242	0xbc6db56f	-0.014508589
243	0xbd01ce9d	-0.031691182
244	0xbd9154b9	-0.07096238
245	0xbda6973e	-0.08134316
246	0x3dad3dbb	0.0845904
247	0x3d2b7ee1	0.041869048
248	0x3d80741c	0.06272146
249	0x3dafce95	0.08584324
250	0xbd822560	-0.06354785
251	0x3caf997a	0.021435488
252	0xbcefb584	-0.029261358
253	0xbb9f952f	-0.004870079
254	0xbd577596	-0.052602373
255	0x3d8d31b8	0.06894249

encoder.layers.0.nn.net.2.bias f4 [128]
0	0xbd6092f3	-0.05482764
1	0x3c657780	0.014005542
2	0x3d7dbe18	0.061948866
3	0x3d0b5faf	0.034026798
4	0x3ceec1e1	0.029145183
5	0x3b8505cb	0.0040595285
6	0xbda24b46	-0.079245135
7	0xb9e0e7e4	-0.0004289738
8	0x3db18ec0	0.086698055
9	0x3d621497	0.055195417
10	0x3d49c213	0.04925735
11	0xbd84d327	-0.064855866
12	0xbcfe938a	-0.031076211
13	0x3daec52a	0.085337
14	0xbc14d648	-0.009084292
15	0x3d8284f3	0.06373014
16	0xbd29aa12	-0.041421957
17	0x3d53a254	0.05166848
18	0x3d505c10	0.050869048
19	0x3d66f7d9	0.05638871
20	0x3b1740dd	0.0023079433
21	0x3c69a6ca	0.014260957
22	0x3d16abe1	0.03678501
23	0xbd4471ae	-0.047959976
24	0xbd85f855	-0.06541506
25	0x3d2e1add	0.042506088
26	0x3d30cb04	0.04316236
27	0xbc0e27f6	-0.00867652
28	0xbd0b5365	-0.034015078
29	0xbdb2edd5	-0.08736769
30	0x3c5d6a6b	0.013514142
31	0xbc1e4e80	-0.009662271
32	0xbc222409	-0.009896287
33	0x3d2731d6	0.04081901
34	0x3d2fb0f6	0.042893372
35	0xbc634dde	-0.013873545
36	0x3d500b50	0.05079204
37	0x3d751e3d	0.05984329
38	0xbd710723	-0.058844697
39	0x3da836c4	0.08213571
40	0xbc942175	-0.01808236
41	0xbc0f288a	-0.008737693
42	0xbcf2e297	-0.029649062
43	0x3d085e54	0.033293083
44	0x3cadb2bb	0.02120339
45	0xbc56aed9	-0.01310321
46	0xbbaf8e1b	-0.0053575165
47	0xbd0f968a	-0.035055675
48	0x3a2f7b83	0.0006694125
49	0x3b86c59d	0.004112913
50	0x3aea570e	0.0017878728
51	0x3d467f8d	0.048461486
52	0x3d90369a	0.070416644
53	0xbd2fe2cf	-0.04294091
54	0xbcb01b4f	-0.021497397
55	0xba6ef417	-0.0009115352
56	0x3d4cfbfb	0.050044995
57	0x3d288289	0.041140113
58	0x3d3c6595	0.045995314
59	0xbd8c3663	-0.06846311
60	0xbd4b150b	-0.049580615
61	0xbcfc4732	-0.030795667
62	0x3cffa43c	0.031206243
63	0x3d925a91	0.071461804
64	0xbc9cb9df	-0.019131599
65	0xbd61f52a	-0.055165447
66	0xbc131426	-0.008976972
67	0x3d9370d5	0.071992554
68	0xbd061e03	-0.032743465
69	0x3d95750b	0.07297715
70	0xbd52ad63	-0.051434886
71	0x3cafdcab	0.021467527
72	0xbc4ffaed	-0.012694103
73	0x3d9d5075	0.076813616
74	0x3d5279d7	0.051385727
75	0x3d7619fb	0.06008337
76	0xbd8aee58	-0.06783742
77	0xb91ab5c5	-0.00014754299
78	0xbcb3bc65	-0.02194042
79	0xbd04302b	-0.0322725
80	0xbd4d5a38	-0.050134867
81	0x3cb1c351	0.02169958
82	0x3d2b7bba	0.04186604
83	0x3d4aba66	0.04949417
84	0x3ccffa9d	0.025388056
85	0x3d279091	0.040909354
86	0x3cc219f2	0.023694012
87	0x3d23f778	0.040030926
88	0x3ba8a207	0.0051462683
89	0x3d7c63e4	0.0616187
90	0x3c86d795	0.01646022
91	0x3d46d7ec	0.048545763
92	0x3d4f36a2	0.05058921
93	0x3c9f6a2b	0.019459805
94	0x3d5b1d52	0.05349476
95	0xbd734061	-0.05938757
96	0xbd75f614	-0.06004913
97	0x3d883645	0.06650976
98	0x3d9fe76e	0.078078136
99	0x3d1b979e	0.03798639
100	0xbd8ff572	-0.07029237
101	0xbcd57570	-0.026056975
102	0x3d471aeb	0.048609655
103	0xbd3a367f	-0.045462128
104	0x3d4f0921	0.050545815
105	0xbb5d10d0	-0.0033731945
106	0x3d6836b5	0.056692798
107	0xba379120	-0.00070025213
108	0xbc090466	-0.008362865
109	0x3d86834c	0.06568012
110	0x3d3ba584	0.045812145
111	0x3d09231f	0.03348076
112	0x3ce8c599	0.028414534
113	0xbd46ffec	-0.04858391
114	0x3d1d62f8	0.038424462
115	0xbdb34dd6	-0.087550804
116	0xbafb7ef5	-0.0019187616
117	0x3ba743cf	0.005104519
118	0xbbce8a0e	-0.0063030785
119	0x3d98e456	0.074654266
120	0xbd4b1523	-0.049580704
121	0x3d8b4122	0.067995325
122	0x3c66b162	0.014080377
123	0x3c376dfd	0.011195657
124	0xbced2339	-0.02894746
125	0xbd9cd889	-0.07658488
126	0x3da1dcc5	0.079034366
127	0xbcff7ce2	-0.031187478

encoder.layers.1.nn.net.0.weight f4 [128, 128]
0	0xbcafc57b	-0.02145647
1	0x3cd81814	0.026378669
2	0xbd2feea4	-0.042952195
3	0xbd0cf53c	-0.03441356
4	0xbcd9d28f	-0.02658966
5	0x3dab226e	0.08356176
6	0x3d999d4e	0.075007066
7	0x3d0cacc8	0.034344465
8	0xbba35c4a	-0.004985367
9	0xbd007400	-0.031360626
10	0x3d4ce559	0.05002341
11	0x3b1da671	0.0024055506
12	0xbd72ec0c	-0.059307143
13	0xbd7faad9	-0.062418792
14	0xbd3af5bd	-0.04564451
15	0xbd82042d	-0.06348453
16	0x3bfd03e4	0.007721411
17	0x3d853775	0.06504718
18	0x3c09c85a	0.008409584
19	0x3da2e08f	0.079529874
20	0xbda3ab27	-0.07991629
21	0xbd3ca3d8	-0.04605469
22	0x3d18f9ae	0.037347488
23	0x3d5ee0bd	0.054413546
24	0xbd2afe38	-0.04174635
25	0xbd04fd94	-0.032468393
26	0xbd973699	-0.073834606
27	0x3d5150da	0.051102497
28	0xbd79dda4	-0.06100239
29	0xbbde6b62	-0.0067877034
30	0xbd94abb1	-0.0725931
31	0x3d57bf0a	0.052672423
32	0x3cbe4d6a	0.023230273
33	0xbd2aa90a	-0.041665114
34	0xbc2a0d5f	-0.0103791645
35	0xbd156915	-0.036477167
36	0xbd0d8504	-0.03455068
37	0xbdacadc7	-0.08431583
38	0xbd90b651	-0.07066024
39	0xbc9e8f23	-0.019355362
40	0xbbff9414	-0.0077996347
41	0x3d1eabd1	0.038738076
42	0xbd15dfdd	-0.036590446
43	0x3dab4b69	0.08363993
44	0xbce503bc	-0.027955882
45	0xbd4edab1	-0.05050153
46	0x3d01918c	0.031632945
47	0x3d87cdbf	0.0663104
48	0x3dace715	0.08442513
49	0xbcb02d15	-0.021505872
50	0x3d8aae1c	0.0677149
51	0x3da84b56	0.08217494
52	0x3d57aa58	0.052652687
53	0x3ceb1958	0.028698608
54	0x3d9dcfb4	0.07705632
55	0xbcefe792	-0.029285226
56	0x3d533a71	0.051569406
57	0xbd64f161	-0.05589426
58	0x3d0aa6e4	0.033850566
59	0xbb59d889	-0.0033240637
60	0xbb047aee	-0.0020214873
61	0xbd2e49ab	-0.042550724
62	0xbb241613	-0.0025037571
63	0xbda29440	-0.07938433
64	0x3cb8eca5	0.022573778
65	0x3d81dbbe	0.063407406
66	0xbd9c3784	-0.07627776
67	0x3d098225	0.03357138
68	0x3d3df468	0.046375662
69	0xbcec0120	-0.02880913
70	0xbd6147c4	-0.05500008
71	0x3d01ca83	0.03168727
72	0x3da714a0	0.08158231
73	0xbd66ccd0	-0.05634767
74	0xbda81535	-0.0820717
75	0x3d7d22f4	0.061800912
76	0x3d57a83f	0.052650686
77	0xbc366f6f	-0.011134966
78	0xbc921007	-0.017829908
79	0x3c7952ce	0.015217496
80	0xbd98f8ae	-0.07469307
81	0xbcf47e40	-0.029845357
82	0x3b57401b	0.0032844606
83	0x3d7973f1	0.060901586
84	0xbd8a786b	-0.06761249
85	0x3d8046d3	0.06263509
86	0xbd8b2a29	-0.06795151
87	0x3ca97ac5	0.020688424
88	0x3d3db591	0.046315733
89	0xbd8eb1e6	-0.06967525
90	0x3d8ead69	0.06966669
91	0x3d1755f5	0.03694721
92	0x3d890cbc	0.06691882
93	0xbc739614	-0.014867324
94	0xbc2dd60c	-0.010610115
95	0x3d0948d8	0.033516735
96	0x3c49a201	0.012306691
97	0xbc7759d7	-0.015097103
98	0x3c3960e8	0.011314608
99	0xbcfd71e6	-0.0309381
100	0x3b9f3373	0.004858428
101	0xbdc08a63	-0.09401395
102	0x3d4b5abc	0.049647078
103	0xbd333491	-0.043751303
104	0x3b6b8058	0.0035934653
105	0xbd4b523b	-0.049638968
106	0xbc7b8060	-0.015350431
107	0x3d6267d2	0.055274792
108	0xbdb2b2d8	-0.08725518
109	0xbca53ebd	-0.020171518
110	0x3cfc48e3	0.030796474
111	0xbb62f7ea	-0.0034632632
112	0xbc0861e8	-0.008324124
113	0x3d255cc0	0.040371656
114	0xbd83152e	-0.06400524
115	0x3cf37546	0.029719006
116	0xbd5344e3	-0.051579367
117	0xbbc844fc	-0.006111739
118	0xbc3404a3	-0.010987434
119	0x3d49e4e0	0.049290538
120	0xbccd33ad	-0.025049055
121	0x3d8e9f8a	0.069640234
122	0xbd2b0206	-0.041749977
123	0xbcbad133	-0.022804832
124	0xbc13d194	-0.009022135
125	0xbb725f43	-0.003698305
126	0xbd91b327	-0.07114249
127	0xbdb7c1f2	-0.08972539
128	0xbd95fa9f	-0.07323193
129	0xbd7b6692	-0.061377116
130	0x3c6c1ff3	0.014411914
131	0xbd326b79	-0.043559525
132	0xbc624131	-0.013809488
133	0xbc986183	-0.018601185
134	0x3da70854	0.08155885
135	0xbd587b38	-0.052851886
136	0xbc0ed5f3	-0.008718002
137	0xbcd6e4ee	-0.026232209
138	0xbb55ec5c	-0.0032642102
139	0xbbcc65e7	-0.0062377336
140	0x3d1e1b00	0.038599968
141	0x3d95af56	0.07308833
142	0x3da1d5fe	0.07902144
143	0xbd22ac07	-0.03971484
144	0xbdab9067	-0.08377152
145	0xbc84a2c8	-0.016190901
146	0xbd7f3a06	-0.062311195
147	0xbd6dd3c3	-0.05806328
148	0xbd95abf8	-0.07308191
149	0x3d94e796	0.07270734
150	0x3d463e56	0.048399292
151	0x3c978c96	0.018499654
152	0x3d1f9ea1	0.03896964
153	0xbc642234	-0.01392417
154	0x3cc3a5f7	0.02388285
155	0xbdad4956	-0.08461253
156	0x3d07636f	0.03305381
157	0x3d518557	0.051152553
158	0xbd75da01	-0.060022358
159	0x3cc336dc	0.02382987
160	0xbdb4dd49	-0.08831269
161	0xbd1a5eaf	-0.037687954
162	0x3ceef44b	0.029169222
163	0x3d51be19	0.051206682
164	0xbb83c61f	-0.0040214206
165	0xbcd9803d	-0.026550407
166	0x3da8d7ef	0.08244311
167	0xbd94cb35	-0.07265321
168	0xbca4ce8b	-0.020118019
169	0xbd058f68	-0.032607466
170	0xbd55bddb	-0.052183013
171	0x3d868922	0.06569125
172	0xbcbc4aeb	-0.022984942
173	0xbd61c157	-0.055116024
174	0xbd8a38d8	-0.06749123
175	0xbd183f10	-0.037169516
176	0x3c386037	0.011253408
177	0xbd76c568	-0.060246855
178	0x3d970a7a	0.07375045
179	0x3c82690d	0.015919233
180	0x3d553cdd	0.052059997
181	0xbc959a19	-0.018261956
182	0xbd9caec9	-0.07650525
183	0xbda64eb3	-0.081204794
184	0xbd22dfb0	-0.039764106
185	0xbd0fdfec	-0.035125658
186	0x3da82740	0.08210611
187	0xbda6b16d	-0.0813931
188	0x3cf4920a	0.029854793
189	0xbdaf4cc6	-0.08559565
190	0x3da7d4ff	0.08194923
191	0x3b3ac936	0.0028501279
192	0xbd3362c9	-0.04379538
193	0xbdabf71a	-0.0839674
194	0xbd0df596	-0.034658037
195	0xbdb2c1af	-0.087283485
196	0x3c5926ca	0.013253877
197	0x3da0e717	0.07856577
198	0x3d64e14f	0.055878934
199	0x3d53c3d2	0.05170042
200	0x3c0264eb	0.007958631
201	0xbda09ab2	-0.07842006
202	0x3da72e54	0.08163133
203	0x3dab0e04	0.08352283
204	0x3d3fed26	0.04685702
205	0x3da7b0ea	0.081880406
206	0xbce92359	-0.028459238
207	0xbd3a91e4	-0.04554929
208	0xbc82ea08	-0.015980735
209	0xbd494de6	-0.049146555
210	0xbcf08730	-0.029361337
211	0xbc83401f	-0.016021786
212	0xbdb252a9	-0.087071724
213	0x3c8e404f	0.01736465
214	0x3d95f89c	0.07322809
215	0xbc9674b9	-0.018366205
216	0xbd50a632	-0.050939746
217	0xbd2dda9d	-0.042444814
218	0xbdaf7614	-0.085674435
219	0xbd5b266d	-0.053503443
220	0xbd8d530a	-0.06900604
221	0x3d0182a5	0.031618733
222	0x3d41b432	0.04729099
223	0x3d278b2f	0.04090422
224	0xbd8db646	-0.069195315
225	0xbce0aafb	-0.02742528
226	0xb8b67ff5	-8.70227e-05
227	0x3d07fbfe	0.033199303
228	0xbda424fb	-0.08014866
229	0x3d92c8fe	0.071672425
230	0xbc9fe4ee	-0.019518342
231	0xbbe8d54d	-0.0071055056
232	0xbdb2a18d	-0.087222196
233	0xbc0e8ba9	-0.00870029
234	0x3d931b5d	0.071829535
235	0xbd3720fe	-0.0447092
236	0x3cbcb4ce	0.023035433
237	0xbd7cbf3e	-0.06170582
238	0x3c7dc8f8	0.015489809
239	0x3c8991bd	0.016793126
240	0xbca703eb	-0.02038761
241	0x3da2ec38	0.079552114
242	0xbd533def	-0.051572736
243	0x3bcc4494	0.006233761
244	0xbc836046	-0.016037118
245	0xbb9d5402	-0.0048012743
246	0x3d90cc55	0.07070223
247	0x3da1b766	0.078963086
248	0xbd97b230	-0.074070334
249	0xbd9036d8	-0.070417106
250	0xbcf81b3a	-0.03028642
251	0xbd0ef5d3	-0.034902405
252	0xbb22b6c7	-0.0024828182
253	0x3d528512	0.051396437
254	0x3dad4106	0.08459668
255	0xbd40c457	-0.047062244

encoder.layers.1.nn.net.0.bias f4 [128]
0	0x3da9f707	0.0829907
1	0xbcdf3d24	-0.027250834
2	0x3ccfbcec	0.02535864
3	0x3db166da	0.086621955
4	0xbd1b406b	-0.03790323
5	0x3d0967db	0.03354631
6	0xbd1071e4	-0.035264865
7	0x3db4a2ce	0.08820115
8	0xbd5764c9	-0.05258635
9	0xbce05884	-0.027385958
10	0x3dc08c64	0.094017774
11	0x3c9c8c50	0.019109875
12	0xbd92115a	-0.07132216
13	0x3d9ea554	0.077463776
14	0x3d87b1cc	0.06625709
15	0x3d49e910	0.04929453
16	0x3d6f3787	0.058402564
17	0x3d348a51	0.04407722
18	0x3aa5ffb0	0.0012664702
19	0xbd905fee	-0.07049547
20	0x3db81cf7	0.089898996
21	0xbc5f08b5	-0.013612916
22	0x3da1177e	0.07865809
23	0x3cabfc59	0.020994352
24	0xbd359760	-0.044333816
25	0x3c5213fc	0.012822147
26	0x3ca34452	0.019930039
27	0x3c956b2c	0.01823958
28	0x3d0638e9	0.032769118
29	0x3d8e060a	0.069347456
30	0x3d488970	0.048959196
31	0xbce8b7b4	-0.028407909
32	0x3dbb9d53	0.091608666
33	0x3d51099b	0.05103455
34	0xbd39d78c	-0.045371577
35	0x3d68f51e	0.056874387
36	0x3d611e74	0.054960683
37	0x3d9f109c	0.0776684
38	0x3d0f8792	0.0350414
39	0x3d3125f2	0.043249078
40	0x3caa5275	0.020791272
41	0x3d876d55	0.0661265
42	0xbd9b907b	-0.07595917
43	0x3d670fa8	0.056411415
44	0xbdad79fa	-0.08470531
45	0xbdbba9a0	-0.09163213
46	0xbd0c4da2	-0.034253724
47	0xbd5c99d8	-0.053857654
48	0x3c80f61f	0.01574236
49	0x3d3be90a	0.04587654
50	0xbcf9b442	-0.030481461
51	0xbd8b2cc0	-0.06795645
52	0xbd53eb16	-0.051737867
53	0x3d8e2198	0.06940001
54	0xbbc4f60d	-0.006010777
55	0x3cf5bec0	0.029998183
56	0x3d68ad84	0.056806102
57	0xbd57b8a1	-0.05266631
58	0x3db33f3e	0.08752297
59	0xbd1ec25d	-0.038759578
60	0xbd869b26	-0.06572561
61	0xbdae4f97	-0.08511274
62	0x3cee4f8e	0.029090669
63	0xbd23452a	-0.039860882
64	0xbd0a3da1	-0.03375018
65	0x3ce3f35b	0.027826002
66	0x3c866d76	0.016409617
67	0x3c8e795b	0.017391851
68	0x3d6599fd	0.056055058
69	0xbd875133	-0.066072844
70	0xbda068f4	-0.07832518
71	0xbd6047d2	-0.054755993
72	0x3bb0639d	0.0053829686
73	0x3d95a82e	0.07307468
74	0xbd51a2d5	-0.05118068
75	0x3d3a9afc	0.04555796
76	0xbd150add	-0.036387313
77	0x3b8ba903	0.004262091
78	0x3d18c7ec	0.037300035
79	0xbda08a5e	-0.078388914
80	0x3cb262a3	0.02177555
81	0x3d452404	0.04813005
82	0xbd71698c	-0.058938548
83	0x3d8ef384	0.06980041
84	0x3d8271df	0.063693754
85	0xbda258f5	-0.079271235
86	0xbd6aad8d	-0.057294417
87	0xbceb77f1	-0.028743716
88	0x3c27f551	0.010251359
89	0x3cb635a4	0.022242375
90	0x3d6c8ce1	0.05775154
91	0xbd50528c	-0.050859973
92	0xbc857e3f	-0.01629555
93	0x3bebab5f	0.00719206
94	0xbca19253	-0.019723093
95	0x3d43200b	0.04763798
96	0x3d552e21	0.052045945
97	0x3cb9ab7a	0.022664774
98	0xbd77080f	-0.06031042
99	0x3db342bc	0.08752963
100	0x3d3d844f	0.046268757
101	0xbda8abdd	-0.08235905
102	0xbdb0c0e7	-0.08630543
103	0xbd0e4c46	-0.03474071
104	0xbd65eb97	-0.05613288
105	0xbd9590d9	-0.07303018
106	0x3bcc2148	0.0062295534
107	0xbd04c84f	-0.03241759
108	0xbd66e491	-0.05637032
109	0x3db60a02	0.088886276
110	0xbc95132c	-0.018197618
111	0x3a72e3b8	0.00092655
112	0xbd7d9e08	-0.06191829
113	0xbdb30978	-0.087420404
114	0x3bd9bf68	0.006645132
115	0x3d23b083	0.039963257
116	0xbcfd1e07	-0.030898107
117	0xbd612653	-0.05496819
118	0xbbb2f8de	-0.005461796
119	0x3bc4d55e	0.0060068807
120	0xbda32521	-0.07966066
121	0x3daf16ef	0.08549296
122	0x3cb7b2f2	0.022424195
123	0x3bc6af10	0.0060633495
124	0x3dc5ba97	0.0965473
125	0xbd71dc16	-0.05904778
126	0xbd5cf8d5	-0.053948242
127	0x3dbd7d85	0.092524566

encoder.layers.1.nn.net.2.weight f4 [128, 128]
0	0xbca3b5cb	-0.019984147
1	0x3d6ff699	0.058584783
2	0x3d5870a2	0.05284179
3	0x3c2a4723	0.010392937
4	0x3d0e316d	0.034715105
5	0xbd79abff	-0.060955044
6	0xbdac9b93	-0.08428111
7	0xbd647672	-0.05577702
8	0x3d8a4051	0.06750549
9	0x3d7ee5e7	0.06223097
10	0x3d87ffbc	0.06640574
11	0xbdac9aca	-0.08427961
12	0xbbe0cce7	-0.0068603638
13	0xbd48e06c	-0.04904215
14	0xbd409d34	-0.04702492
15	0x3d70b8b6	0.058769904
16	0xbda4bbd0	-0.08043635
17	0x3d9355d1	0.071941026
18	0x3c207588	0.009793647
19	0xbda0a3ef	-0.07843768
20	0x3d522323	0.05130304
21	0xbd42a4a2	-0.047520287
22	0x3d0f09bc	0.034921393
23	0xbc8ee9b0	-0.017445415
24	0x3d9862de	0.074407324
25	0xbda70697	-0.08155554
26	0xbca1992c	-0.019726358
27	0x3c5b9483	0.013402107
28	0x3d1b9d09	0.037991557
29	0xbd66c070	-0.056335866
30	0xbda77b05	-0.08177761
31	0x3d49f028	0.049301296
32	0x3ca8327e	0.020531889
33	0x3d916f63	0.071013235
34	0xbda0f65e	-0.07859491
35	0xbd5c125b	-0.053728443
36	0x3b1ba06c	0.0023746742
37	0x3b8a0e59	0.004213136
38	0x3c0f2d53	0.0087388335
39	0xbdacf85a	-0.08445807
40	0xbcfe855e	-0.031069454
41	0xbdbc684a	-0.09199579
42	0x3d05d3b1	0.032672588
43	0xbd59e94a	-0.053200997
44	0x3d588ffb	0.052871685
45	0xbdb59e78	-0.08868116
46	0x3d6d7ef9	0.05798242
47	0x3ba56e43	0.0050485446
48	0x3d915903	0.07097056
49	0x3d8597be	0.06523083
50	0xbc91716f	-0.017754285
51	0xbdb8f253	-0.09030595
52	0xbd99ee0b	-0.07516106
53	0x3d2e1d4c	0.04250841
54	0x3d1e56d5	0.03865703
55	0xbd0a05c5	-0.03369691
56	0xbdbfcd92	-0.09365381
57	0xbc59e133	-0.013298321
58	0x3d2e620e	0.04257398
59	0x3d2266f6	0.039648972
60	0x3d4f2731	0.050574485
61	0xbd8f1c3a	-0.06987806
62	0x3d236494	0.03989084
63	0x3d784345	0.06061103
64	0xbd1599ef	-0.036523756
65	0xbd5f6653	-0.054540943
66	0xbd85cba4	-0.06532982
67	0x3bc5a758	0.006031912
68	0xbd96f0c7	-0.073701434
69	0x3c482c72	0.012217628
70	0x3d9bbc4d	0.07604275
71	0xbd8f2bfa	-0.0699081
72	0xbcf14811	-0.02945331
73	0xbca287ac	-0.019840084
74	0xbc640811	-0.013917939
75	0x3da79b91	0.08183969
76	0xbdaf0dcc	-0.085475534
77	0xbd421fd3	-0.04739363
78	0x3cf7ba92	0.03024033
79	0x3d873a58	0.06602925
80	0x3b1c37d9	0.0023836999
81	0x3d01cf4c	0.031691834
82	0xbd2dc6e7	-0.042426016
83	0x3cb5db61	0.022199335
84	0x3d971848	0.07377678
85	0xbd6b3f40	-0.057433367
86	0xbd161045	-0.03663661
87	0xbd4d409f	-0.050110456
88	0xbd508b58	-0.05091414
89	0xbd36222e	-0.04446619
90	0xbb7de6b7	-0.0038742253
91	0xbbf9fd95	-0.0076291063
92	0xbdb589c7	-0.088641696
93	0xbd554852	-0.052070923
94	0xbcbc710c	-0.023003124
95	0xbca7b93f	-0.020474074
96	0x3d9b3696	0.07578771
97	0xbca9f3b0	-0.020746082
98	0x3c1acb4e	0.009447886
99	0xbd98b0e8	-0.07455617
100	0x3d8e6270	0.06952369
101	0x3ca777ce	0.02044287
102	0x3c3496f2	0.011022316
103	0xbb288d6c	-0.002571906
104	0x3b819822	0.003954903
105	0xbd83901c	-0.06423971
106	0xbc3c6400	-0.011498451
107	0xbcb9f051	-0.0226976
108	0x3d4a943e	0.04945778
109	0xbd6287e2	-0.05530537
110	0xbc17aab4	-0.009257007
111	0xbcd94d1d	-0.026526028
112	0xbd55fc76	-0.05224272
113	0x3cd9cbf5	0.026586512
114	0x3d7a2807	0.06107333
115	0xbd775809	-0.06038669
116	0x3cf067d3	0.029346382
117	0xbc8f1050	-0.017463833
118	0x3db37c56	0.087639496
119	0xbdc08131	-0.09399641
120	0xbcecce64	-0.028907008
121	0xba926be4	-0.001117107
122	0x3bc9d379	0.0061592427
123	0xbcc7927b	-0.02436184
124	0x3d1ff65d	0.03905331
125	0x3c6cbfa1	0.014449985
126	0xbd8a3379	-0.06748099
127	0x3bcc47b7	0.006234135
128	0xbd2ab3cc	-0.041675374
129	0x3c2a61c0	0.010399282
130	0xbd49cbba	-0.049266554
131	0x3d289526	0.041157864
132	0x3d2b40d9	0.04180989
133	0x3c82bd7f	0.0159595
134	0xbd4f5026	-0.050613545
135	0x3c8dea5a	0.017323662
136	0xbd047b23	-0.032343995
137	0xbbbf56f7	-0.0058392244
138	0xbc37a312	-0.011208313
139	0xbb76449b	-0.0037577513
140	0xbda37862	-0.079819456
141	0xbd2d2644	-0.04227282
142	0x3b8bb481	0.004263461
143	0x3b23e0e0	0.0025005862
144	0x3d4a9417	0.049457636
145	0x3d8c25d9	0.06843156
146	0x3d187754	0.037223175
147	0x3d9c761b	0.07639714
148	0xbcd55fee	-0.02604672
149	0xbc7a6b0b	-0.01528431
150	0x3c018d3b	0.007907207
151	0x3b005b63	0.001958572
152	0x3cf619a1	0.030041518
153	0xbd5d85e6	-0.054082774
154	0x3d4b8343	0.049685728
155	0x3c86b7e1	0.016445102
156	0xbd5c71b8	-0.05381939
157	0xbd858173	-0.06518831
158	0xbc170300	-0.009217024
159	0xbc4db2db	-0.0125548495
160	0x3d33b3d4	0.04387267
161	0x3ca058a2	0.019573513
162	0x3d98805d	0.07446358
163	0xbd85bdbe	-0.06530331
164	0xbda2cbc9	-0.07949025
165	0x3da5a201	0.080875404
166	0x3c5ec003	0.013595584
167	0x3c2fe694	0.010736126
168	0xbd85e4b9	-0.06537766
169	0x3db86cf5	0.09005157
170	0xbc05e63b	-0.008172567
171	0xbca96303	-0.020677095
172	0x3c96fb2d	0.018430317
173	0x3d8709b9	0.06593651
174	0xbbf2f3b2	-0.0074143047
175	0x3de1df85	0.11028961
176	0x3d7d3fb2	0.061828323
177	0x3cf5c29a	0.03000002
178	0x3dc12bd5	0.094321884
179	0xbc849ea4	-0.016188927
180	0x3d47b68a	0.048758067
181	0xbd78aad2	-0.060709782
182	0xbba7ab60	-0.005116865
183	0xbd37d37b	-0.044879418
184	0x3d3ae5ed	0.04562943
185	0x3d93a357	0.07208889
186	0x3d3b27c3	0.045692217
187	0xbda6181b	-0.081100665
188	0xbda33f1d	-0.07971022
189	0xbd0e946b	-0.03480951
190	0x3d429df9	0.047513936
191	0xbd883021	-0.06649805
192	0xbdbc78f2	-0.09202756
193	0xbc8c5bd9	-0.01713364
194	0x3d55f7f7	0.05223843
195	0xbda6022e	-0.081058845
196	0x3d31058b	0.043218177
197	0x3d90fcbd	0.07079456
198	0x3d883521	0.066507585
199	0xbca038d3	-0.019558346
200	0xbc8b0e6d	-0.016974652
201	0xbd74f415	-0.059803087
202	0xbd0fe7c5	-0.035133142
203	0x3d9a96d8	0.075483024
204	0x3bc2f437	0.005949523
205	0x3cc5381c	0.024074607
206	0x3d95318c	0.07284841
207	0xbd03316e	-0.03202956
208	0xbd8bd3dc	-0.06827518
209	0xbd42f90a	-0.047600783
210	0xbd8282f2	-0.06372632
211	0xbd851e73	-0.06499948
212	0xbd829d66	-0.063776776
213	0x3d1bad35	0.03800698
214	0xbc96dc8f	-0.018415717
215	0x3d45f21e	0.048326604
216	0xbd94bcfc	-0.072626084
217	0xbabcbdd8	-0.001439984
218	0xbd8868b7	-0.06660598
219	0x3d901378	0.07034963
220	0x3da5ba3e	0.080921635
221	0xbb977a4c	-0.004622733
222	0xbd990a76	-0.074726984
223	0xbd23b0dc	-0.039963588
224	0x3d30f023	0.043197762
225	0x3c936dbb	0.01799666
226	0xbda44c7b	-0.080224
227	0xbc9863c6	-0.018602263
228	0x3daf7e75	0.08569042
229	0xbcc02583	-0.023455387
230	0x3c7b0561	0.015321107
231	0xbd8535d2	-0.06504406
232	0xbcac982b	-0.021068653
233	0xbbc3310a	-0.0059567736
234	0xbc5ae736	-0.013360789
235	0x3ce65529	0.02811678
236	0x3d3603e6	0.04443731
237	0xbd87bb30	-0.066275
238	0x3cda01ed	0.026612246
239	0x3dbcda04	0.09221271
240	0x3c81b89d	0.0158351
241	0x3dd081c7	0.10181003
242	0x3c77e637	0.015130571
243	0xbc01af86	-0.007915383
244	0x3d677e4f	0.05651694
245	0xbd049423	-0.032367837
246	0xbcf5da2b	-0.030011257
247	0x3cb57df2	0.022154782
248	0xbc64555d	-0.013936368
249	0x3d9b7689	0.07590968
250	0xbc2e9db2	-0.010657715
251	0xbd367632	-0.044546314
252	0xbcf0baf6	-0.029386025
253	0x3c14ba20	0.009077579
254	0x3c49aa55	0.012308677
255	0xbda9c07c	-0.082886666

encoder.layers.1.nn.net.2.bias f4 [128]
0	0xbd13af30	-0.036055744
1	0xba813220	-0.0009856857
2	0x3d8a4346	0.06751113
3	0xbc28e8bf	-0.010309397
4	0xbcf3bddd	-0.02975362
5	0xbd0a9f90	-0.033843577
6	0x3da9260d	0.08259211
7	0xbb258239	-0.002525462
8	0xbd8584d2	-0.06519474
9	0x3c938da4	0.018011875
10	0xbd293028	-0.04130569
11	0xbd5a296d	-0.053262163
12	0x3d6aa847	0.057289388
13	0xbd82b0dd	-0.0638139
14	0x3cca1c65	0.024671743
15	0xbd2a7b0b	-0.04162125
16	0xbcac69a3	-0.021046465
17	0x3d5c7a33	0.053827476
18	0x3bd204f0	0.00640928
19	0xbc2660e3	-0.0101549355
20	0xbd9ed812	-0.07756056
21	0xbdaaaeda	-0.083341315
22	0x3d038b05	0.032115
23	0xbd71f2fc	-0.05906962
24	0x3d224006	0.03961184
25	0xbc865fb6	-0.01640306
26	0x3d13a4fb	0.03604601
27	0xbc624a66	-0.013811683
28	0x3d7ab730	0.061209857
29	0xbcd8e214	-0.02647499
30	0x3d110252	0.035402603
31	0xbda34524	-0.07972172
32	0x3caf3bc1	0.021390798
33	0xbdaf1d65	-0.085505284
34	0x3c26b287	0.0101744
35	0x3d51dd5d	0.0512365
36	0x3c9dd323	0.019265717
37	0xbcd5898f	-0.02606657
38	0xbd4c00d1	-0.049805466
39	0x3d21fbf3	0.039546918
40	0xbd11716d	-0.035508562
41	0xbd68d5c1	-0.056844477
42	0x3da96da8	0.082728684
43	0x3d5d01bd	0.053956736
44	0x3c3a4b14	0.011370439
45	0x3d9290fc	0.0715656
46	0x3b781658	0.0037855115
47	0x3d6ff9a7	0.058587696
48	0xbd664066	-0.05621376
49	0xbd04e96f	-0.032449182
50	0xbc74f2ac	-0.014950436
51	0xbd9ba231	-0.07599295
52	0xbdac0820	-0.08399987
53	0x3c76c755	0.015062173
54	0x3c041fe2	0.008064242
55	0x3d4618fd	0.048363674
56	0xbd612d33	-0.054974746
57	0x3d895e7c	0.067074746
58	0xbd898dfe	-0.06716536
59	0x3ca75d18	0.020430133
60	0x3d2d1288	0.042254
61	0x3ca92435	0.020647148
62	0xbd83f6f0	-0.06443584
63	0xbdb4b36b	-0.08823284
64	0xbd0b678a	-0.03403429
65	0x3d8a1aeb	0.067434154
66	0xbc56751a	-0.013089443
67	0xbc0eddf2	-0.008719908
68	0xbabd0d94	-0.0014423602
69	0x3d1ee2a8	0.038790375
70	0xbd7be2c3	-0.061495554
71	0x3cc8d453	0.024515307
72	0x3d9ee81b	0.07759114
73	0xbd8b5d6b	-0.068049274
74	0x3dac4517	0.08411615
75	0xbc755bdc	-0.014975514
76	0xbc537d5e	-0.012908308
77	0x3db3b815	0.08775345
78	0x3d9c8bbb	0.07643839
79	0x3da89f9a	0.082335666
80	0x3d98ce97	0.07461279
81	0xbd9012b6	-0.07034819
82	0x3d9f53ab	0.0777963
83	0x3d9f9de2	0.07793786
84	0x3c9229dc	0.017842226
85	0xbd87faee	-0.06639658
86	0x3d5344c8	0.051579267
87	0xbbcc33e6	-0.0062317727
88	0x3b81c4e6	0.0039602397
89	0xbc52afde	-0.012859313
90	0xbc7a8221	-0.015289814
91	0x3b998839	0.0046854285
92	0xbd66c883	-0.056343567
93	0xbbcce7a2	-0.0062531987
94	0xbd144183	-0.03619529
95	0x3ca084a8	0.019594505
96	0xbb96e82c	-0.0046053138
97	0xbd722924	-0.059121266
98	0xbd10d1d4	-0.035356358
99	0xbc893e83	-0.01675344
100	0x3d82edcb	0.06393012
101	0xbd42d3e0	-0.04756534
102	0xbd88c7de	-0.06678747
103	0x3cd10969	0.025517182
104	0x3d6b60f8	0.057465523
105	0x3d4ac79d	0.049506772
106	0xbd095a43	-0.033533346
107	0x3da95a7b	0.08269211
108	0x3c509696	0.012731215
109	0xbd14a30d	-0.03628831
110	0xbdaee0be	-0.0853896
111	0xbc7ebb21	-0.015547545
112	0x3d0dd978	0.034631222
113	0xbd5fa637	-0.054601874
114	0xbb226dbd	-0.0024784647
115	0x3da2a9b5	0.07942525
116	0x3d8b145b	0.06790992
117	0x3d0e7ecd	0.034788895
118	0x3d9bbaf8	0.07604021
119	0xbd174471	-0.036930505
120	0x3d2d830c	0.042361304
121	0x3d8bc485	0.068245925
122	0x3c9dc483	0.019258743
123	0xbc3f5caf	-0.011679812
124	0xbb9d2df0	-0.004796736
125	0x3c30e1e2	0.010796042
126	0xbcc38eab	-0.02387174
127	0x3cc05de1	0.023482265

encoder.layers.2.nn.net.0.weight f4 [128, 128]
0	0xbcfbef4e	-0.030753758
1	0xbb606479	-0.0034239574
2	0xbd80ec09	-0.0629502
3	0x3d200f23	0.039076935
4	0x3c04982c	0.008092921
5	0xbcaeab4a	-0.021321911
6	0x3caca77a	0.021075953
7	0x3cd214af	0.025644628
8	0xbc411f5a	-0.01178726
9	0xbbea645f	-0.0071530784
10	0x3b6b353f	0.0035889891
11	0xbd0df639	-0.034658644
12	0xbd544ef8	-0.051833123
13	0x3d81b9a9	0.0633424
14	0xbc7ea1ec	-0.015541535
15	0x3d1acfe0	0.0377959
16	0x3d6c1e43	0.057646047
17	0xbd3f6a3e	-0.04673218
18	0x3c829dba	0.01594435
19	0x3c7f62a6	0.015587484
20	0xbd7f0a3c	-0.06226562
21	0x3d11ff06	0.0356436
22	0x3da8dd90	0.08245385
23	0x3cd81674	0.026377894
24	0xbd92cb68	-0.07167703
25	0x3ccd05d8	0.0250272
26	0xbd4f748e	-0.050648265
27	0xbdb7d2e6	-0.089757726
28	0x3d2bd8d0	0.041954815
29	0x3cdc06be	0.026858684
30	0xbda09e4e	-0.07842694
31	0x3cd17414	0.025568046
32	0x3cb89faa	0.022537071
33	0x3c185b37	0.009299091
34	0xbd9592de	-0.07303403
35	0xbd4f4291	-0.050600592
36	0xbd4280d1	-0.04748613
37	0xbda303dc	-0.079597205
38	0xbd39fb70	-0.045405805
39	0x3c97fc90	0.018553048
40	0x3da96f54	0.08273187
41	0x3d62faea	0.05541507
42	0xbda1f537	-0.07908099
43	0xbab4cee0	-0.0013794564
44	0x3d8eedfb	0.06978985
45	0xbbd76d6a	-0.0065743225
46	0x3d91b17e	0.07113932
47	0xbb4ddded	-0.0031412796
48	0x3d513c36	0.051082812
49	0x3baf6c46	0.0053534834
50	0xbd9393b8	-0.072059095
51	0x3d9baf57	0.07601803
52	0xbc0740b5	-0.008255173
53	0x3d6eec8b	0.058331054
54	0xbd82317a	-0.06357093
55	0xbd3e534e	-0.046466164
56	0x3d59305d	0.05302464
57	0xbaf0f312	-0.0018382987
58	0x3d4848d3	0.048897576
59	0xbda89701	-0.08231927
60	0xbd8ad5a7	-0.06779032
61	0x3db36bb0	0.08760774
62	0x3cdbbda2	0.026823822
63	0xbd99c688	-0.0750857
64	0xbd48492c	-0.048897907
65	0xbc8e2eb0	-0.017356247
66	0x3ca6a9cf	0.020344643
67	0xbcc0b8d4	-0.023525633
68	0xbccc5e41	-0.024947288
69	0x3d23f8fa	0.040032364
70	0xbbd82e75	-0.006597335
71	0x3d3e21c9	0.04641894
72	0xbd9ef488	-0.077614844
73	0xbcc77044	-0.024345525
74	0x3da0098c	0.07814321
75	0xbd7fbdb4	-0.062436774
76	0x3d86a05f	0.06573557
77	0xbd3c8732	-0.04602737
78	0xbb8f5aa1	-0.0043748175
79	0xbd02c994	-0.03193052
80	0xbb2dc804	-0.0026516924
81	0xbd65fc10	-0.05614859
82	0xbd979db7	-0.074031286
83	0xbc125a97	-0.008932731
84	0xbccd5b0e	-0.025067832
85	0x3d648171	0.055787507
86	0x3d9061aa	0.07049878
87	0xbdadfea9	-0.08495838
88	0xbc3c9ed2	-0.011512475
89	0xbca18a55	-0.019719282
90	0x3cfa7a64	0.030575939
91	0x3d9b6758	0.07588071
92	0x3d61cf15	0.05512913
93	0x3d63189c	0.05544339
94	0x3ac73241	0.0015197472
95	0x3d886d47	0.06661468
96	0xbbbe854e	-0.005814231
97	0xbd1eb082	-0.03874255
98	0xbd79adfa	-0.060956933
99	0x3d75a9e7	0.059976485
100	0x3d6a479e	0.057197206
101	0xbd0114e9	-0.031514082
102	0xbdbc56e3	-0.0919626
103	0x3cb94675	0.022616604
104	0xbdad3a2a	-0.084583595
105	0xbdb9453e	-0.0904641
106	0x3d8aa6ce	0.06770097
107	0xbd13ba01	-0.03606606
108	0xbb8777db	-0.004134161
109	0xbd11d873	-0.035606813
110	0xbcd610e5	-0.026131103
111	0xbd1b639c	-0.03793679
112	0x3d4c13e0	0.04982364
113	0xbd212eeb	-0.039351385
114	0xbdb0187a	-0.085984185
115	0xbc8db77a	-0.017299403
116	0x3c911d65	0.017714212
117	0x3d11b313	0.03557117
118	0x3d04759d	0.032338727
119	0x3d65047f	0.05591249
120	0xbd5aade3	-0.053388488
121	0xbd89c983	-0.067278884
122	0x3d90e504	0.07074931
123	0x3c879014	0.016548194
124	0x3d042479	0.032261346
125	0x3bfc65bb	0.007702557
126	0x3d77603f	0.06039452
127	0x3cc7b7bb	0.024379602
128	0xbd7993d4	-0.060931996
129	0x3c00a044	0.00785071
130	0x3d999edb	0.075010024
131	0x3da098fd	0.0784168
132	0xbc0d7589	-0.00863398
133	0x3ba0a1b2	0.004902088
134	0x3d4ca16b	0.049958628
135	0x3ccafe0b	0.02477934
136	0xbdb8f41f	-0.090309374
137	0x3d222170	0.03958267
138	0x3d3717f2	0.04470057
139	0xbc2e74e4	-0.010647986
140	0xbd260bcf	-0.040538605
141	0x3d5b2713	0.05350406
142	0xbd169e7d	-0.03677224
143	0xbb7cdabf	-0.0038582531
144	0x3cf7bdcf	0.030241875
145	0x3d3f3066	0.046677016
146	0xbdd3c6ee	-0.10340677
147	0x3d0b1096	0.033951364
148	0x3d97cfd2	0.074126855
149	0xbdf3953f	-0.11893701
150	0xbc0b6fe6	-0.008510565
151	0x3d844c2b	0.064598404
152	0x3bb314a2	0.005465106
153	0x3dc42922	0.09578158
154	0x3d0aca54	0.03388436
155	0xbd89dce5	-0.067315854
156	0x3d4846c7	0.048895624
157	0xbc265937	-0.010153106
158	0x3d461ce0	0.04836738
159	0x3bf9d907	0.0076247486
160	0xbd8de7c1	-0.06928969
161	0x3cfa2908	0.030537143
162	0x3c709feb	0.014686565
163	0x3d2553bb	0.040363055
164	0x3d6cf3fb	0.057849865
165	0x3c668a0c	0.014070999
166	0xbc9536b3	-0.01821456
167	0xbd7babab	-0.061443012
168	0xbd301456	-0.042988144
169	0x3d299b6a	0.04140798
170	0x3beecbbe	0.0072874716
171	0x3ae3b5e1	0.001737293
172	0x3d0253a4	0.031818047
173	0xb87444a5	-5.8238064e-05
174	0xbca68089	-0.020324962
175	0x3aaff65b	0.001342486
176	0x3d263696	0.0405794
177	0x3b790a78	0.0038000625
178	0xbdaec1e1	-0.08533073
179	0xbd0b6c85	-0.03403904
180	0xbc17f752	-0.009275274
181	0xbcb0049b	-0.021486571
182	0x3cf0a4ac	0.029375397
183	0xbd27dea6	-0.04098382
184	0xbd89bcda	-0.06725474
185	0x3d8226a8	0.06355029
186	0x3cc9e1ee	0.024643864
187	0xbc7632bb	-0.0150267435
188	0x3d15ddfa	0.036588646
189	0xbd29b508	-0.04143241
190	0x3c9db079	0.019249188
191	0xbd32ef2b	-0.04368512
192	0x3d830a01	0.063983925
193	0x3d924718	0.07142466
194	0x39e60012	0.0004386907
195	0xbd869cf2	-0.06572904
196	0xbdad23ce	-0.08454095
197	0xbc16215d	-0.009163228
198	0xbda96f84	-0.08273223
199	0xbcb4c40f	-0.022066144
200	0x3db675e8	0.089092076
201	0x3dc803ce	0.09766351
202	0xbd28a4a5	-0.041172642
203	0x3d80214a	0.062563494
204	0x3c294e91	0.010333673
205	0x3d103af4	0.035212472
206	0x3dbbe5d5	0.09174696
207	0xbd2277d3	-0.039665055
208	0x3d45404d	0.048157025
209	0x3c17b4fc	0.009259459
210	0xbda91ecc	-0.08257827
211	0xbc524716	-0.012834331
212	0xbc8d4446	-0.01724447
213	0x3c50e95c	0.01275095
214	0xbc0ec8d1	-0.008714871
215	0xbc4fde84	-0.012687329
216	0xbc9c2573	-0.019060826
217	0x3d76cbd3	0.060252976
218	0x3cdc42e1	0.02688736
219	0x3dbda687	0.09260278
220	0x3d494e14	0.049146727
221	0x3cd89620	0.026438773
222	0x3d03f371	0.032214586
223	0x3bff3147	0.0077878567
224	0xbbbea578	-0.0058180653
225	0xbd979b17	-0.07402628
226	0x3cdbb168	0.026817992
227	0xbdb28ef3	-0.08718672
228	0xbd80bf21	-0.06286455
229	0x3dc0f9b9	0.09422631
230	0xbbc1835a	-0.005905551
231	0xbd753687	-0.059866454
232	0x3c17cce2	0.009265156
233	0xbcb3c2d9	-0.021943497
234	0xbcc16548	-0.023607865
235	0x3ccc0b89	0.024907844
236	0xbd81138b	-0.06302556
237	0x3dc4cf66	0.096098706
238	0x3d1768e2	0.03696526
239	0x3d2eb815	0.042656023
240	0xbd4850f1	-0.048905317
241	0xbcbd2c92	-0.023092542
242	0xbb76bd06	-0.0037649288
243	0x3d290dba	0.041272856
244	0xbd3f6de4	-0.04673566
245	0xbdcfc159	-0.101443
246	0x3c2a7319	0.010403418
247	0xbc0e20e6	-0.008674836
248	0xbd29f3e7	-0.04149237
249	0x3d8fc3b2	0.07019748
250	0xbbf46413	-0.007458219
251	0x3d4c0a5f	0.04981458
252	0x3bbac1f9	0.005699393
253	0x3bde1ccb	0.0067783347
254	0x3d92efb7	0.07174628
255	0x3dbe9fbd	0.093078114

encoder.layers.2.nn.net.0.bias f4 [128]
0	0x3d6704ad	0.056400944
1	0xbd3ebfad	-0.046569515
2	0x3c125d87	0.0089334315
3	0xbc909d4e	-0.017653134
4	0x3d96efef	0.073699825
5	0x3dd8fa58	0.10594624
6	0x3c8e8c3c	0.017400853
7	0xbcbf34e8	-0.023340657
8	0xbd601dcd	-0.05471592
9	0x3d87a270	0.06622779
10	0x3d80a5ed	0.06281648
11	0x3d0e7731	0.03478164
12	0x3c9ee344	0.019395478
13	0xbce91488	-0.028452173
14	0x3db69b53	0.089163445
15	0xbda51f90	-0.08062661
16	0xbda6c3dd	-0.08142827
17	0xbd9dddda	-0.077083305
18	0x3d9f9bfb	0.07793423
19	0xbbc9cf51	-0.0061587472
20	0xbd1049d3	-0.035226654
21	0x3d7ffb39	0.062495444
22	0x3d5737c3	0.052543413
23	0xbd660487	-0.05615666
24	0xbd81edb5	-0.06344167
25	0x3c6e089d	0.014528421
26	0x3ddb57b9	0.10710091
27	0x3cf96489	0.030443447
28	0x3d420eb4	0.047377303
29	0xbd064e31	-0.032789413
30	0x3d6f3041	0.058395628
31	0x3d6756d0	0.056479275
32	0x3d3b426f	0.045717653
33	0x3c81d402	0.015848164
34	0xbd73e601	-0.05954552
35	0xbca13374	-0.019677855
36	0x3d74f427	0.059803154
37	0xbd9bccd3	-0.076074265
38	0xbd946126	-0.07245092
39	0x3a87201a	0.001030925
40	0xbda8be24	-0.082393914
41	0xbc23c818	-0.009996437
42	0xbd5bbb91	-0.053645674
43	0xbd2f138e	-0.04274326
44	0xbcece5ba	-0.028918136
45	0x3da36567	0.07978325
46	0x3b26b21d	0.0025435754
47	0x3c4a20ca	0.012336919
48	0x3d853c98	0.06505698
49	0x3ce6382b	0.028102955
50	0xbd0908ca	-0.033455648
51	0x3b840607	0.004029039
52	0xbd5ff57a	-0.054677464
53	0x3d901472	0.0703515
54	0xbd3f500b	-0.046707194
55	0xbd5e3007	-0.05424502
56	0xbd74268e	-0.05960708
57	0xbd549227	-0.051897194
58	0x3df1c2d8	0.118047416
59	0x3d0e8a02	0.034799583
60	0xbcd586c4	-0.026065238
61	0xbd943874	-0.0723733
62	0xbb22fcf6	-0.0024870015
63	0xbd3f7719	-0.04674444
64	0x3cd6d875	0.026226262
65	0xbd823a57	-0.06358784
66	0xbd8b02b4	-0.06787625
67	0xbdb30fa7	-0.0874322
68	0xbcf5cf59	-0.030006098
69	0x3d89589f	0.06706356
70	0x3bcae2ca	0.006191586
71	0xbd57ad7a	-0.052655675
72	0x3d88806d	0.0666512
73	0x3d810116	0.06299035
74	0xbd26cc94	-0.040722445
75	0x3d8c130c	0.068395704
76	0x3d29b29b	0.041430097
77	0xbd1f837e	-0.03894376
78	0xbc344d66	-0.011004781
79	0xbd2b3284	-0.041796222
80	0xbcf7bbdb	-0.030240944
81	0xbd94b77d	-0.0726156
82	0x3d211f62	0.03933657
83	0xbd1af565	-0.037831683
84	0xbcf0d657	-0.02939908
85	0x3d551c1b	0.052028757
86	0x3c737e0e	0.014861597
87	0x3b0ce2af	0.0021497419
88	0x3cfb00d2	0.03064004
89	0x3ce7a06a	0.028274734
90	0x3ce94231	0.028473945
91	0x3db2e122	0.08734347
92	0xbda805bf	-0.08204221
93	0xbd284f9f	-0.041091558
94	0x3cb999c0	0.022656322
95	0x3b197649	0.002341645
96	0x3caec8b1	0.021335931
97	0x3dc9db00	0.09856224
98	0xbda2902f	-0.07937657
99	0x3d006499	0.031345937
100	0xba8fca14	-0.0010970258
101	0xbdc229e1	-0.09480644
102	0xbcad0f4e	-0.021125462
103	0x3db17f47	0.08666854
104	0xbd3defd0	-0.04637128
105	0xbce22854	-0.02760712
106	0xbd292d65	-0.041303057
107	0x3dd5d71e	0.10441421
108	0x3ce2c47a	0.027681578
109	0xbdb36476	-0.08759396
110	0x3d9b4bb6	0.075828
111	0xbd4a852d	-0.049443413
112	0xbd9a9ca1	-0.07549406
113	0x3d2b4606	0.041814826
114	0xbd65513c	-0.055985674
115	0xbd80cc31	-0.062889464
116	0xbd38f4d8	-0.045155376
117	0x3aef34ee	0.0018250027
118	0x3cdc5382	0.026895288
119	0x3d58b606	0.052907966
120	0x3d0d1bd1	0.034450356
121	0x3d225bb3	0.039638232
122	0x3df5bd83	0.11999037
123	0x3ba7ef0e	0.005124933
124	0xbd4637c1	-0.048393015
125	0x3c02d5ab	0.007985513
126	0x3cf02405	0.02931405
127	0x3c79a8a6	0.015237963
