scripts/embeddings_gin_version2/MUTAG/gin_dim64_ep100_lr0.001_drop0.0/gin_classifier.pt (torch, 177117 bytes, 42 tensors)

encoder.layers.0.nn.net.0.weight f4 [64, 7]
0	0x3e7fb923	0.24972968
1	0xbd833026	-0.06405668
2	0x3c6d70be	0.014492212
3	0x3e88e0c4	0.26733983
4	0x3e74e76e	0.23916408
5	0x3e1c03f3	0.15235882
6	0xbeafdca8	-0.34348035
7	0xbdbc8f10	-0.092069745
8	0x3d98ff03	0.074705146
9	0x3dc79c91	0.097466595
10	0x3d5082ca	0.05090598
11	0x3e432800	0.19058228
12	0x3e7ca3b6	0.24671826
13	0x3e293e96	0.16527781
14	0x3e2d1ed9	0.16906299
15	0x3decc08f	0.11560165
16	0xbe97cf73	-0.2965046
17	0x3e7cc385	0.2468396
18	0x3e3af652	0.18258026
19	0xbe256744	-0.16152674
20	0x3e2fee28	0.17180693
21	0xbe7103dd	-0.2353663
22	0xbd2ad14f	-0.04170352
23	0xbd71e33e	-0.059054606
24	0x3c660f5e	0.01404175
25	0xbe2127b2	-0.15737799
26	0x3dfb7590	0.12278283
27	0x3e682942	0.22671989
28	0xbe3f03da	-0.18653813
29	0x3d42f5bc	0.04759763
30	0xbe156f58	-0.14593256
31	0xbe595d80	-0.21227074
32	0xbe4be9d1	-0.19913413
33	0xbe5a05fd	-0.21291347
34	0xbe7e9da6	-0.24864826
35	0x3d601373	0.05470605
36	0xbdcec775	-0.10096637
37	0xbe05daa3	-0.13071685
38	0x3e73753e	0.23775193
39	0x3e8d628f	0.27614257
40	0xbead254a	-0.33817512
41	0x3ebb5e1a	0.3659523
42	0xbe954382	-0.29153067
43	0xbe164b1e	-0.14677092
44	0xbe408532	-0.1880081
45	0x3e6b76e1	0.22994567
46	0xbdcb2e99	-0.09920997
47	0xbe2b8da7	-0.16753255
48	0x3e4babf6	0.19889817
49	0x3dee7019	0.11642475
50	0x3b93cfb2	0.004510843
51	0xbd8219e8	-0.063525975
52	0xbec2cdc0	-0.380476
53	0x3e0ab90f	0.13547157
54	0xbe997336	-0.2997071
55	0xbeb61cb4	-0.35568774
56	0x3e9841a0	0.29737568
57	0x3e1711af	0.1475284
58	0x3e97ad02	0.29624182
59	0x3e569f59	0.20959224
60	0xbe975135	-0.29554144
61	0xbe1a9c00	-0.15098572
62	0xbd817506	-0.063211486
63	0xbe6f6049	-0.23376574
64	0x3eb90efe	0.3614425
65	0x3eadaf6d	0.33922902
66	0xbd8a2181	-0.067446716
67	0x3e7846f1	0.24245812
68	0x3e43859e	0.1909394
69	0x3dabb1a1	0.083834894
70	0xbdd5d8e5	-0.1044176
71	0xbe763b09	-0.24045958
72	0xbd033a85	-0.03203823
73	0xbe2cdd37	-0.16881262
74	0xbe1450cf	-0.14483951
75	0xbe8abd13	-0.27097377
76	0xbe6e7f51	-0.23290755
77	0x3e1cc79d	0.15310521
78	0xbd02274d	-0.03177576
79	0x3de84956	0.11342113
80	0xbe703a33	-0.23459701
81	0x3d506827	0.050880577
82	0x3eb745e6	0.35795516
83	0x3e7998fa	0.24374762
84	0xbe239683	-0.15975384
85	0xbd83b7b3	-0.06431522
86	0xbcad8d40	-0.021185517
87	0xbe8a37fd	-0.2699584
88	0x3e1725f2	0.14760569
89	0x3e696fb4	0.22796518
90	0x3e323679	0.17403592
91	0xbddfbc41	-0.109245785
92	0x3e913ce8	0.2836678
93	0xbe229d0d	-0.15880223
94	0x3ea36b3f	0.3191776
95	0xbdaa7222	-0.0832255
96	0xbc531d24	-0.012885366
97	0xbe4c8e81	-0.19976236
98	0x3e9db732	0.3080383
99	0x3cb806c2	0.02246416
100	0x3e9bff3c	0.30468166
101	0xbd1189a2	-0.035531648
102	0x3de6f31a	0.11276837
103	0xbd80216b	-0.06256374
104	0xbe8f79cd	-0.28022614
105	0x3def17ad	0.11674438
106	0x3d9926d5	0.0747811
107	0xbe6c662e	-0.23085853
108	0x3dcf7ad0	0.101308465
109	0xbe1d272a	-0.15346971
110	0x3e8474f0	0.25870466
111	0x3eaa3647	0.33244535
112	0xbeaea48c	-0.34109914
113	0xbde6ddb7	-0.112727575
114	0xbe7467a3	-0.2386766
115	0xbdbc6c3a	-0.0920033
116	0xbe18bb66	-0.14915237
117	0xbec0a21f	-0.3762369
118	0xbd3a5b93	-0.04549749
119	0xbeb93b07	-0.36177847
120	0xbebfe87c	-0.3748206
121	0xbe9235ed	-0.28556767
122	0xbeb62357	-0.35573837
123	0xbe707835	-0.23483355
124	0xbc955bbc	-0.018232219
125	0xbe804b9d	-0.25057688
126	0xbeb27745	-0.3485662
127	0xbce35c5b	-0.027754
128	0xbd8c3a19	-0.06847019
129	0x3e930de2	0.2872153
130	0x3e599d15	0.21251328
131	0x3dd5aea2	0.10433699
132	0x3ea249e8	0.3169701
133	0x3da455f8	0.0802421
134	0xbe5830fe	-0.21112439
135	0x3ea6b531	0.32560113
136	0x3d5cdfee	0.053924493
137	0xbe6751e1	-0.22589828
138	0xbe73b469	-0.2379929
139	0x3e210318	0.15723836
140	0x3dcd21b8	0.10016197
141	0xbd6df171	-0.058091585
142	0xbe0a0664	-0.13479
143	0xbeb7225c	-0.35768402
144	0xbc9f6040	-0.019455075
145	0x3e9d1fed	0.3068842
146	0x3df50477	0.11963742
147	0xbe940f77	-0.2891805
148	0xbdda4d48	-0.106592715
149	0xbd604767	-0.054755595
150	0x3ce494be	0.027902957
151	0x3d902da6	0.07039957
152	0x3e57c1e9	0.21070065
153	0x3dd8a44f	0.105782144
154	0x3e0862cd	0.1331894
155	0xbe17259f	-0.14760445
156	0xbe251a68	-0.16123354
157	0xbe650d25	-0.22368295
158	0xbd9de361	-0.07709385
159	0xbe0d8162	-0.13818887
160	0xbe8f2be9	-0.27963188
161	0x3ea5fa59	0.32417563
162	0xbe04829c	-0.12940449
163	0xbb551de0	-0.0032519028
164	0x3cdf03d7	0.02722351
165	0x3d346df6	0.04405018
166	0xbdfd8b97	-0.1238014
167	0xbe882b6e	-0.26595634
168	0xbeabc1bb	-0.33546242
169	0x3e7c4c77	0.24638544
170	0x3d824a8e	0.063618764
171	0x3d8d39a0	0.06895757
172	0x3de83fd2	0.11340298
173	0xbe995278	-0.2994573
174	0xbe8464e2	-0.25858217
175	0x3e890a6f	0.26765773
176	0x3d78f37f	0.06077909
177	0x3e501a4f	0.20322536
178	0x3e1db80b	0.15402238
179	0xbea145a1	-0.31498435
180	0x3e8d27f1	0.27569535
181	0xbd7293cd	-0.059222985
182	0xbd73f944	-0.05956389
183	0x3e3bfd69	0.18358387
184	0x3e4b3d85	0.19847687
185	0xbbc6e3db	-0.006069643
186	0x3d3fbecd	0.04681282
187	0x3ea825a0	0.32841206
188	0x3e37bb94	0.17942649
189	0xbd9a86e0	-0.075452566
190	0x3b9d32db	0.004797322
191	0x3dc1d940	0.09465265
192	0xbcf350b9	-0.029701577
193	0xbe436b8a	-0.19083992
194	0x3de5f83d	0.11228988
195	0xbea52db5	-0.32261434
196	0xbe5f708f	-0.21820281
197	0xbd9610d3	-0.07327428
198	0x3e8918c1	0.26776698
199	0xbeb804d0	-0.35941172
200	0xbdfecb6e	-0.12441145
201	0x3df3b223	0.11899211
202	0x3c928152	0.01788393
203	0x3d964328	0.07337028
204	0x3de2aa01	0.11067582
205	0xbe9a3325	-0.30117145
206	0xbd9628c2	-0.07331993
207	0xbeaee2f7	-0.34157535
208	0xbdc0911a	-0.09402676
209	0xbe857108	-0.26062799
210	0x3eb3b970	0.35102415
211	0x3d28b80c	0.041191146
212	0xbe915bf0	-0.28390455
213	0x3e9f4199	0.31104735
214	0xbd29a017	-0.04141244
215	0x3cf176c1	0.029475572
216	0xbc865be2	-0.016401235
217	0x3e870a71	0.26375154
218	0xbebd3063	-0.3695098
219	0xbe8ed671	-0.2789798
220	0x3ca510df	0.020149646
221	0x3c88f8f2	0.016720269
222	0x3e48b949	0.1960193
223	0xbec72f4e	-0.38903278
224	0x3d1ac053	0.03778107
225	0xbd6fd672	-0.05855412
226	0xbe9375d5	-0.28800836
227	0x3d8cc5be	0.06873654
228	0xbd6c3d3e	-0.057675593
229	0xbe906240	-0.2819996
230	0x3e2906ac	0.16506451
231	0xbe862658	-0.2620113
232	0x3ec074d7	0.37589142
233	0xbe45269c	-0.1925301
234	0xbebb1318	-0.36538005
235	0x3e4ef482	0.2021046
236	0xbe92dc0b	-0.28683504
237	0x3e782486	0.24232683
238	0xbe71cd86	-0.23613557
239	0x3e119ac2	0.14219192
240	0x3ea268ff	0.3172073
241	0xbeaf64ba	-0.34256536
242	0xbe6366c3	-0.22207169
243	0xbd31fbaa	-0.043452896
244	0xbebd5dec	-0.3698572
245	0x3d0cc52a	0.034367718
246	0xbdfcaec1	-0.12338019
247	0xbe6d3d7e	-0.23167989
248	0xbe8a31eb	-0.2699121
249	0xbe2b154b	-0.16707341
250	0x3d199134	0.037491992
251	0xbd8d9b80	-0.06914425
252	0x3cbc3998	0.022976682
253	0x3ea48df3	0.3213955
254	0x3ea4de7e	0.32200998
255	0x3ebb5c2a	0.36593753

encoder.layers.0.nn.net.0.bias f4 [64]
0	0x3e6eae15	0.23308595
1	0xbde23306	-0.11044888
2	0xbd7be674	-0.061499074
3	0xbd1fd381	-0.039020065
4	0xbea08f85	-0.31359497
5	0x3ea27c59	0.31735495
6	0xbe0a968b	-0.1353399
7	0x3ea6d9d7	0.32588074
8	0xbddb8d3b	-0.10720297
9	0x3d64905d	0.055801738
10	0xbbd8b967	-0.0066138986
11	0x3d1bf981	0.038079742
12	0xbdd1595a	-0.102221206
13	0xbdaabe2a	-0.08337052
14	0x3def4c0c	0.11684427
15	0xbbc1a57a	-0.005909619
16	0x3e3018f8	0.17197025
17	0xbe1411e4	-0.1445995
18	0xbd5fe33e	-0.054660074
19	0x3eb3d3ac	0.3512243
20	0x3cce5f62	0.025191966
21	0xba81bf84	-0.0009898995
22	0xbe2bbe9a	-0.16771927
23	0xbe81abc2	-0.25326353
24	0xbd957c0e	-0.07299052
25	0xbe61313f	-0.21991442
26	0x3eaa1ff3	0.332275
27	0x3e8b23e7	0.2717583
28	0x3e370f58	0.17876947
29	0xbe5a7574	-0.21333867
30	0x3da4404e	0.08020078
31	0x3ea24d74	0.31699717
32	0xbaf29af3	-0.0018509313
33	0xbe81cc46	-0.2535116
34	0xbe492b4a	-0.1964542
35	0x3e900a8e	0.28133053
36	0x3e5d199d	0.21591802
37	0x3e9e7630	0.30949545
38	0xbd182be9	-0.03715125
39	0x3e0a0f28	0.13482344
40	0x3e94c20f	0.29054305
41	0x3e734d46	0.23759946
42	0x3e79131b	0.24323694
43	0xbea68d3f	-0.32529637
44	0x3e9893a6	0.29800147
45	0x3e53f4cf	0.20698856
46	0x3e47cc36	0.19511494
47	0x3d915659	0.07096548
48	0x3b9bdd40	0.0047565997
49	0x3e9321b5	0.28736654
50	0x3e3901f9	0.18067159
51	0xbdd6275d	-0.10456727
52	0xbe2af1df	-0.16693829
53	0x3daec457	0.085335426
54	0xbea65f8c	-0.3249477
55	0xbe80ecda	-0.25180703
56	0xbebac9e1	-0.36482146
57	0xbeb73712	-0.35784203
58	0x3d8747dc	0.06605503
59	0xbeb898aa	-0.36053973
60	0xbe668418	-0.22511327
61	0x3e0a5d90	0.13512254
62	0x3dfa1dbd	0.122127034
63	0x3e0fa809	0.14028944

encoder.layers.0.nn.net.2.weight f4 [64, 64]
0	0xbd205d80	-0.03915167
1	0x3d4b1964	0.04958476
2	0x3d7a6e4d	0.061140347
3	0x3d973e88	0.07384974
4	0xbde6c78c	-0.11268529
5	0xbba95279	-0.005167302
6	0x3dc5846f	0.096444
7	0xbd9e6592	-0.07734217
8	0x3d684021	0.056701783
9	0x3dfe30c6	0.124116465
10	0xbcf79ff8	-0.030227646
11	0x3dd12f81	0.10214139
12	0xbd19f324	-0.037585393
13	0x3d5649aa	0.052316345
14	0xbd97d1f2	-0.07413091
15	0xbbfc5690	-0.0077007487
16	0xbd7eedd0	-0.062238514
17	0x3dc8a038	0.09796184
18	0xbdd2b5d5	-0.10288588
19	0x3cca3a56	0.02468602
20	0xbca015d8	-0.019541666
21	0x3dfa9232	0.12234916
22	0xbdae59f9	-0.08513255
23	0x3cf3c2b9	0.029755937
24	0x3da7b7f6	0.08189385
25	0xbdbfdc0f	-0.09368145
26	0x3d9d20cb	0.076722704
27	0xbda755c2	-0.08170654
28	0x3d1d6148	0.038422853
29	0x3d13d976	0.03609606
30	0xbdd42a2e	-0.10359608
31	0x3dd73980	0.10509014
32	0x3d4290e7	0.04750147
33	0x3d8e6e90	0.06954682
34	0x3dcb4df3	0.09926977
35	0xbc9e2e89	-0.019309299
36	0xbd41b357	-0.047290172
37	0xbda5ee2f	-0.081020705
38	0xbdde5a71	-0.10857094
39	0xbca27a18	-0.01983361
40	0xbd3046bb	-0.043036204
41	0x3d8aa2ae	0.0676931
42	0xbd9abe27	-0.075558
43	0x3c4f8990	0.012667075
44	0x3c8ce19e	0.017197426
45	0x3dc6c32f	0.09705197
46	0x3d0900ba	0.03344796
47	0x3d69c4dc	0.057072505
48	0xbd6e0bc1	-0.05811668
49	0x3c9aa192	0.01887587
50	0xbde402f5	-0.111333765
51	0x3de58cc4	0.112084895
52	0xbd81946e	-0.06327139
53	0xbd1b51e7	-0.037919905
54	0x3dba3493	0.09092059
55	0x3d10d69c	0.035360917
56	0x3d1850b5	0.037186343
57	0x3d87f3e0	0.06638312
58	0x3dda3dbc	0.10656306
59	0xbca10e7c	-0.019660227
60	0x3c8ebd2f	0.017424194
61	0x3dc01d13	0.093805455
62	0xbcf6209b	-0.030044844
63	0x3c82317d	0.015892738
64	0x3dbc60fd	0.091981865
65	0xbc8243ff	-0.015901564
66	0x3db749ec	0.08949646
67	0xbdd6c568	-0.10486871
68	0xbd82e1d6	-0.06390731
69	0x3d46b996	0.048516832
70	0xbde3e9a1	-0.111285456
71	0xbd89e095	-0.06732289
72	0xbd9298ec	-0.07158074
73	0xbc3145e7	-0.010819889
74	0x3d4dd648	0.050253183
75	0x3c510d0e	0.01275946
76	0x3d28b3d4	0.041187122
77	0x3e005424	0.12532097
78	0x3c18f02f	0.009334608
79	0xbdbce548	-0.092234194
80	0x3d246d40	0.04014325
81	0xbdb301a2	-0.08740546
82	0xbde231c8	-0.11044651
83	0xbd991152	-0.07474007
84	0xbd9bb5a2	-0.07603003
85	0x3d608a7c	0.05481957
86	0xbd1dab43	-0.038493406
87	0xbd980cf7	-0.07424348
88	0xbdbcf372	-0.09226121
89	0xbd6bbf0b	-0.05755524
90	0x3cfc34a8	0.030786827
91	0xbde28857	-0.11061161
92	0xbc027ab3	-0.007963824
93	0xbdb40f28	-0.08791953
94	0xbbeee882	-0.0072909007
95	0x3d85fc8b	0.065423094
96	0x3dfdb103	0.12387278
97	0xbdc5ecd7	-0.09664314
98	0xbd4c5eb4	-0.049895003
99	0xbd3310bb	-0.043717127
100	0xbd65ec69	-0.05613366
101	0xbd60b95a	-0.054864265
102	0x3d127826	0.035759114
103	0x3d8ccfa4	0.06875542
104	0x3dacc62a	0.08436234
105	0x3d403eb1	0.046934787
106	0x3db76fbc	0.089568585
107	0x3dad5714	0.084638745
108	0x3d53cb52	0.051707573
109	0xbdb9fdfd	-0.090816475
110	0x3db4bc4a	0.08824976
111	0x3d545b8c	0.05184512
112	0xbc266a71	-0.010157214
113	0x3d75c0f3	0.059998464
114	0x3d567e65	0.052366633
115	0x3d4947d0	0.04914075
116	0x3df03310	0.117284894
117	0xbdca6f8c	-0.09884557
118	0xbdea1259	-0.11429281
119	0x3dba8265	0.09106902
120	0x3d85a6c2	0.06525947
121	0x3d38b53b	0.04509471
122	0xbd3a0dad	-0.0454232
123	0x3dbcd883	0.09220984
124	0xbd95c28f	-0.073125
125	0x3dc13946	0.09434752
126	0xbb6b4fed	-0.0035905794
127	0x3de3c688	0.11121851
128	0xbdc0830d	-0.09399996
129	0xbd660395	-0.05615576
130	0x3de16a82	0.11006643
131	0x3df84f80	0.121245384
132	0xbdb1d56e	-0.086832866
133	0xbd82a2de	-0.06378721
134	0xbca72225	-0.020402024
135	0xbdba06bd	-0.090833165
136	0x3dd00cf5	0.10158721
137	0xbd16c559	-0.0368093
138	0xbbda9fe0	-0.0066718906
139	0x3d2e8bd9	0.042613838
140	0xbde4665e	-0.111523375
141	0xbdc20f6e	-0.09475599
142	0x3d37ea97	0.044901457
143	0xbdf11c81	-0.11773015
144	0x3d3ece18	0.046583265
145	0xbd9440fc	-0.07238957
146	0xbe02da70	-0.1277864
147	0xbd88ad7d	-0.06673715
148	0xbd3780b8	-0.04480049
149	0xbdd9a0b0	-0.10626352
150	0xbd380ba2	-0.04493297
151	0x3c27f14e	0.010250403
152	0x3d6cfab7	0.057856288
153	0x3d0616de	0.03273665
154	0xbc88748e	-0.01665714
155	0x3b6deb23	0.0036303482
156	0xbda8a1d8	-0.08233994
157	0xbd9f3232	-0.07773246
158	0xbc9fa674	-0.01948855
159	0x3d756ef1	0.059920255
160	0x3d9b7fd0	0.07592738
161	0xbde97460	-0.1139915
162	0xbc1db1bc	-0.009624895
163	0xbd6502d7	-0.05591091
164	0xbc7f95a8	-0.015599646
165	0xbcbde6a9	-0.023181276
166	0x3df3fc71	0.11913384
167	0xbd9ebfaa	-0.07751401
168	0x3db5dc14	0.08879867
169	0xbd234ec4	-0.03987004
170	0x3d0088c1	0.03138042
171	0x3db29740	0.08720255
172	0x3c953ffd	0.018218989
173	0xbdc3c17f	-0.09558391
174	0x3dd93d5f	0.10607409
175	0xbdf7985b	-0.120896064
176	0xbd63d9ba	-0.055627562
177	0x3de8a8fe	0.11360358
178	0xbdc595a2	-0.09647681
179	0xbc4ba2fa	-0.012428993
180	0xbde948c2	-0.113908306
181	0xbd750b63	-0.059825312
182	0x3db2f624	0.08738354
183	0xbd8a169a	-0.06742592
184	0xbc6b81ed	-0.014374238
185	0xbd66e3a0	-0.056369424
186	0x3da9a90b	0.082841955
187	0x3cc16e9b	0.023612311
188	0x3dea231f	0.1143248
189	0xbdd3c158	-0.10339612
190	0xbdbaddd7	-0.09124344
191	0x3cfed6f8	0.031108364
192	0x3d28900e	0.041153006
193	0xbdee651f	-0.11640381
194	0xbda9702f	-0.082733504
195	0xbc451770	-0.012029514
196	0xbc988610	-0.018618613
197	0x3ba05b49	0.0048936945
198	0x3dbd5787	0.0924521
199	0xbd496580	-0.049169064
200	0xbda88d1a	-0.08230038
201	0x3ca20399	0.019777106
202	0x3de0158c	0.1094161
203	0x3dddb35b	0.10825225
204	0x3d8c204e	0.06842099
205	0xbdd96de4	-0.10616663
206	0x3e0d86a6	0.13820896
207	0xbdda2983	-0.10652449
208	0xbdd37238	-0.1032452
209	0x3d0d76a8	0.034536988
210	0x3da79bdb	0.08184024
211	0x3c92a63f	0.017901538
212	0x3d98a0c1	0.074525364
213	0x3da0beee	0.07848917
214	0x3dbf58ae	0.09343086
215	0x3d3c2a97	0.045939054
216	0x3d160908	0.036629707
217	0x3dd14644	0.1021848
218	0xbded3506	-0.11582379
219	0x3d869a02	0.065723434
220	0xbc896a5f	-0.016774355
221	0xbd565281	-0.052324776
222	0xbd7d099f	-0.061776754
223	0x3d229db0	0.039701164
224	0xbce473da	-0.027887274
225	0x3c2dfdff	0.010619639
226	0xbd57688c	-0.052589938
227	0xbd1d1e0e	-0.03835874
228	0xbd25b493	-0.040455412
229	0xbda367bf	-0.07978772
230	0x3d35853a	0.044316508
231	0x3cb3f3f9	0.021966921
232	0xbc3a69e8	-0.011377789
233	0xbdd82cce	-0.10555421
234	0xbda9f5ab	-0.082988106
235	0x3802c000	3.117323e-05
236	0xbd24707b	-0.040146332
237	0xbcc8cc8e	-0.024511602
238	0x3d276b3e	0.04087376
239	0xbdb4c2ea	-0.088262394
240	0xbc9445de	-0.018099722
241	0x3dd93a1a	0.10606785
242	0xbdb5c970	-0.08876312
243	0x3dd34b35	0.10317079
244	0xbd54cac0	-0.05195117
245	0xbd8ac1c9	-0.06775243
246	0xbde22058	-0.11041325
247	0xbcd26703	-0.025683885
248	0x3d45c271	0.048281137
249	0xbd1ea48e	-0.03873115
250	0x3d6a0d87	0.057141807
251	0x3dbdec26	0.09273557
252	0x3d75c358	0.060000747
253	0x3c469c5a	0.012122238
254	0xbd838f4a	-0.064238146
255	0xba23e5f5	-0.0006252223

encoder.layers.0.nn.net.2.bias f4 [64]
0	0xbd883c21	-0.06652094
1	0xbd43fa54	-0.047846153
2	0xbd970cb8	-0.07375473
3	0xbdce17f3	-0.10063162
4	0x3de220d0	0.11041415
5	0xbb724555	-0.0036967595
6	0x3df988b3	0.121842764
7	0x3cbbb9e9	0.022915797
8	0xbc592808	-0.013254173
9	0x3db6d501	0.08927346
10	0xbcca25df	-0.024676261
11	0x3d1b81c5	0.037965555
12	0xbd2caf58	-0.04215941
13	0xbdd69fcc	-0.104796976
14	0x3deaa1b7	0.11456626
15	0xbc827a0a	-0.015927333
16	0x3d005c77	0.03133818
17	0xbd460d0b	-0.048352282
18	0xbd0ad774	-0.03389688
19	0x3dac705c	0.08419868
20	0xbdf1e77f	-0.118117325
21	0xbdf76959	-0.1208064
22	0xbdc7989b	-0.09745904
23	0x3d4cd3fb	0.050006848
24	0x3d02810c	0.03186135
25	0x3d5c361e	0.053762548
26	0x3b4d8347	0.0031358765
27	0x3da187c9	0.07887227
28	0x3d20f844	0.039299265
29	0x3cf278af	0.029598562
30	0xbd9caf11	-0.07650579
31	0x3ded603b	0.1159062
32	0x3d5fc6dc	0.054633006
33	0x3d86e48b	0.0658656
34	0xbda065bf	-0.078319065
35	0x3c3e348a	0.011609206
36	0xbd95fa7f	-0.07323169
37	0xbc364c37	-0.0111265695
38	0xbd6381ac	-0.055543587
39	0x3dc3ffdc	0.09570286
40	0x3c0066ae	0.007836981
41	0x3d90ed28	0.07076484
42	0x3def7420	0.11692071
43	0xbd72186e	-0.05910533
44	0xbd3e01f0	-0.046388566
45	0xbd9f531f	-0.07779526
46	0x3d621589	0.05519632
47	0x3e00e7bc	0.125884
48	0xbd8d05c3	-0.068858646
49	0xbc9b702f	-0.018974392
50	0x3b1c35bd	0.0023835741
51	0xbb40a1aa	-0.0029393234
52	0xbdb4e912	-0.08833517
53	0x3cd45c35	0.025922874
54	0x3c6699b4	0.014074732
55	0xbcb97b20	-0.022641718
56	0xbd777dbc	-0.060422644
57	0xbcd06b0c	-0.025441669
58	0xbbc74696	-0.0060814125
59	0x3d01a16e	0.031648092
60	0x3dbb10f8	0.09134096
61	0x3d00b6c3	0.031424295
62	0xbd715014	-0.05891426
63	0x3dc467d0	0.09590113

encoder.layers.1.nn.net.0.weight f4 [64, 64]
0	0x3d849b54	0.06474939
1	0x3b9fa9d1	0.0048725386
2	0xbdff0397	-0.124518566
3	0x3d1c2857	0.03812441
4	0x3dd4ea1b	0.103962146
5	0xbd81f285	-0.06345085
6	0x3cfe1424	0.031015463
7	0xbd786130	-0.06063956
8	0xbc805d56	-0.015669506
9	0xbbcca2ab	-0.0062449775
10	0x3de1ec70	0.11031425
11	0x3dcc54e5	0.0997713
12	0x3d1c48b9	0.03815529
13	0x3c417c61	0.011809439
14	0x3b9e4125	0.004829543
15	0xbd8d9cb5	-0.06914655
16	0xbdb0c3b5	-0.08631078
17	0xbd59ec3e	-0.053203814
18	0x3d6e543a	0.058185793
19	0xbdabb506	-0.08384137
20	0x3d336b2f	0.04380339
21	0x3deb98ac	0.11503729
22	0xbdf4b934	-0.11949387
23	0xbd938003	-0.07202151
24	0x3de9b725	0.11411885
25	0x3dd0985f	0.101853125
26	0xbd32c92e	-0.04364889
27	0x3d4064fa	0.0469713
28	0x3d004d34	0.031323627
29	0x3ded1e30	0.115780234
30	0x3c6d29a8	0.014475264
31	0x3d974fba	0.073882535
32	0x3a5685f6	0.0008183414
33	0x3da3c858	0.07997197
34	0xbca17e94	-0.019713677
35	0xbddbdd33	-0.1073555
36	0xbc0db22f	-0.008648439
37	0x3db6070e	0.08888064
38	0x3dd98275	0.10620586
39	0x3de735e8	0.11289579
40	0x3ce0510b	0.027382394
41	0x3d8a7732	0.06761016
42	0xbdeb01c6	-0.11474948
43	0x3de41528	0.11136848
44	0x3b872700	0.004124522
45	0x3d374745	0.044745702
46	0xbd224058	-0.039612144
47	0x3dcc5835	0.09977762
48	0xbdf414b9	-0.11918015
49	0x3dc041ff	0.09387588
50	0x3d225ecc	0.039641187
51	0x3d0f2dab	0.03495566
52	0x3de7cc39	0.11318249
53	0x3d9ed9aa	0.0775636
54	0x3db78993	0.08961787
55	0xbd96defd	-0.073667504
56	0xbcc2ba9f	-0.023770628
57	0x3dfbe8e3	0.12300279
58	0xbda917fa	-0.08256526
59	0x3cb5b9ce	0.022183325
60	0xbc9af922	-0.018917624
61	0xbd629f55	-0.055327732
62	0xbdb8f796	-0.09031598
63	0x3d9279c5	0.07152132
64	0x3e002e0c	0.12517565
65	0x3da6441d	0.0811846
66	0x3c6f7316	0.014614841
67	0xbd7e16ad	-0.062033344
68	0x3df22cd3	0.11824956
69	0xbdc1b6cf	-0.09458696
70	0xbd8bb13b	-0.068209134
71	0x3d31bce4	0.04339303
72	0xbc22ef24	-0.009944711
73	0xbd9edb04	-0.07756618
74	0xbcca9421	-0.024728836
75	0x3db40f27	0.087919526
76	0x3bd8496c	0.0066005494
77	0x3d7065f3	0.058690976
78	0xbddbe409	-0.10736854
79	0x3dc8a98b	0.09797963
80	0x3c76354d	0.015027356
81	0x3dceede3	0.10103967
82	0xbd12d686	-0.035849117
83	0xbda2d598	-0.07950896
84	0x3d29fdc4	0.041501775
85	0x3d943c27	0.07238036
86	0xbdd26698	-0.102734745
87	0x3de76b29	0.11299736
88	0xbce9d71b	-0.028544953
89	0x3da1a717	0.07893198
90	0x3db72db3	0.08944263
91	0xbd395c6d	-0.04525416
92	0xbda04fcd	-0.07827721
93	0xbc076b61	-0.008265347
94	0xbdf818e3	-0.12114122
95	0xbde24ae0	-0.110494375
96	0xbde94f8b	-0.11392125
97	0x3db1e39d	0.08685992
98	0xbd2116c7	-0.039328363
99	0x3d96e49b	0.07367822
100	0xbd744453	-0.05963547
101	0xbd7d53f5	-0.061847646
102	0xbd051c0c	-0.03249745
103	0xbd6397ee	-0.055564813
104	0xbc496813	-0.01229288
105	0xbd8acb42	-0.067770496
106	0xbdd2109d	-0.10257075
107	0xbcecb1de	-0.028893407
108	0x3d40faea	0.04711429
109	0x3d9b869f	0.07594036
110	0xbbb12015	-0.005405436
111	0xbcc9106e	-0.024543967
112	0x3dba1322	0.090856805
113	0xbdd5adb0	-0.10433519
114	0xbdf76742	-0.12080242
115	0xbc168380	-0.0091866255
116	0xbda5d5c2	-0.08097412
117	0x3d9ac7c4	0.075576335
118	0x3dcfb2fe	0.10141562
119	0xba8c8291	-0.0010720064
120	0xbd7b0199	-0.06128082
121	0xbd97ebf2	-0.0741805
122	0x3ca352cf	0.019936947
123	0xbd85d932	-0.06535567
124	0xbe036c5c	-0.12834305
125	0x3db4512c	0.08804545
126	0xbd9b77db	-0.0759122
127	0x3d822aca	0.063558176
128	0xbddc2c04	-0.10750583
129	0xbdcfb8d0	-0.10142672
130	0x3d20057b	0.039067727
131	0x3dccb4f9	0.09995455
132	0x3d3de458	0.046360344
133	0xbc5fc307	-0.013657338
134	0x3c91b3a7	0.01778586
135	0x3bf90445	0.007599386
136	0x3ca6e314	0.020371951
137	0x3d20fade	0.039301746
138	0xbd7a9f0a	-0.061186828
139	0x3ce12b25	0.027486393
140	0x3dd1ae12	0.102382794
141	0xbd849de5	-0.064754285
142	0xbd20f230	-0.039293468
143	0x3d8cae71	0.068692096
144	0x3d1fc9ef	0.03901094
145	0x3d5a86f3	0.053351354
146	0xbd7c0488	-0.06152776
147	0xb9344883	-0.0001719315
148	0xbda1ec41	-0.0790639
149	0xbdd177ab	-0.10227903
150	0xbce17335	-0.027520755
151	0xbb45b226	-0.0030166
152	0x3e02f770	0.12789702
153	0xbdcb1549	-0.09916169
154	0x3df85738	0.12126011
155	0x3de94266	0.113896176
156	0xbdb8fb72	-0.090323344
157	0xbe053c7f	-0.13011359
158	0xbdb0d065	-0.08633498
159	0xbd1ffb02	-0.03905774
160	0xbc83d6d6	-0.016093653
161	0xbd694cc0	-0.05695796
162	0x3dc381ab	0.095462166
163	0x3cf1daac	0.029523216
164	0xbcfe2ab9	-0.031026231
165	0xbdb9cf0b	-0.090726934
166	0xbdc7417a	-0.097292855
167	0xbd972665	-0.0738037
168	0xbd3d9b7f	-0.04629087
169	0x3d2197d0	0.03945142
170	0x3c220ff5	0.0098915
171	0xbbd1e5e9	-0.0064055813
172	0x3c2b738f	0.010464563
173	0x3de21ffe	0.11041258
174	0x3dc4463f	0.09583711
175	0x3dc4f10c	0.096162885
176	0xbd81ef1e	-0.06344436
177	0x3d4c16b6	0.049826346
178	0x3d7e24a3	0.06204666
179	0x3d879358	0.066199005
180	0xbdea300c	-0.114349455
181	0xbc7e1993	-0.015509027
182	0xbbbdb412	-0.0057892883
183	0x3dbbac4a	0.09163721
184	0xbd9552e8	-0.07291204
185	0xbc88fb21	-0.01672131
186	0x3d9322b5	0.07184354
187	0x3d84782a	0.06468232
188	0xbda226a6	-0.07917528
189	0x3d991f28	0.07476646
190	0xbccaefae	-0.024772491
191	0x3cd0794d	0.025448466
192	0xbe012ed4	-0.1261552
193	0xbd2acb2d	-0.04169767
194	0x3d0b3c7e	0.033993237
195	0x3da8e1e5	0.08246211
196	0x3d6148f0	0.0550012
197	0x3d8995a0	0.06717992
198	0xbca28fd9	-0.019843983
199	0x3dbfeac3	0.09370949
200	0xbd4c8c36	-0.049938403
201	0x3d290b43	0.041270506
202	0xbdc060cf	-0.09393465
203	0x3c8ca3c3	0.017167931
204	0x3df881c2	0.12134124
205	0x3da4f42e	0.08054386
206	0xbd01d859	-0.031700466
207	0xbd168014	-0.03674324
208	0x3dc4fb49	0.09618241
209	0x3d149072	0.036270566
210	0xbde9632c	-0.11395869
211	0x3da3a2f0	0.07990062
212	0x3d7cf51a	0.061757185
213	0x3dcfb5ec	0.10142121
214	0x3cccda7d	0.025006527
215	0x3db889d7	0.09010666
216	0xbde8c67b	-0.11365982
217	0xbdba8b7e	-0.09108637
218	0x3cd84b83	0.026403194
219	0x3dd824ca	0.10553892
220	0x3d9a982f	0.07548558
221	0xbd675ce0	-0.056485057
222	0x3dcedc12	0.10100569
223	0xbde87cc0	-0.11351919
224	0x3d9e12cb	0.07718428
225	0x3cf41656	0.029795807
226	0x3b45de39	0.003019227
227	0xbc897e9b	-0.016784003
228	0x3da6b1bf	0.08139371
229	0x3df069dd	0.11738942
230	0x3db69781	0.08915616
231	0x3d39f52e	0.045399837
232	0x3c504477	0.012711636
233	0xbba59609	-0.005053286
234	0xbb29dad5	-0.0025917788
235	0x3d720939	0.059090827
236	0x3d332799	0.043738935
237	0xbcf3ebed	-0.029775584
238	0x3d959645	0.07304052
239	0x3d53bea9	0.0516955
240	0x3c2d3176	0.010570874
241	0x3dd689ed	0.10475526
242	0x3db750be	0.08950947
243	0x3cb93ce1	0.022612037
244	0xbcb1aa8b	-0.021687767
245	0x3df68cf2	0.12038602
246	0x3d10f959	0.035394046
247	0xbd502586	-0.050817035
248	0x3d6e9ee1	0.058256987
249	0xbd966b78	-0.07344717
250	0xbdec6305	-0.11542324
251	0xb975e0ed	-0.00023448812
252	0x3d9e7254	0.0773665
253	0x3df5d759	0.12003965
254	0x3dce5d7e	0.10076426
255	0x3dc54e61	0.0963409

encoder.layers.1.nn.net.0.bias f4 [64]
0	0x3dc935b3	0.098246954
1	0xbcc7264a	-0.02431025
2	0xbdcd53c4	-0.10025743
3	0xbcd282f4	-0.025697209
4	0x3dd209fb	0.1025581
5	0xbd9b4c10	-0.07582867
6	0xbcbadf78	-0.022811636
7	0x3dcdfec4	0.10058358
8	0xbdb498a7	-0.088181786
9	0xbd39a8c6	-0.04532697
10	0x3d8c27a0	0.06843495
11	0xbdcc6c11	-0.099815495
12	0xbd16932a	-0.03676144
13	0x3d8ae336	0.06781618
14	0xbd90389e	-0.07042049
15	0x3c79cf0c	0.015247118
16	0xbd3afd1e	-0.045651548
17	0xbdbaf08c	-0.09127912
18	0xbd8370bf	-0.06417989
19	0xbdb242b2	-0.08704127
20	0xbdc9dd93	-0.09856715
21	0xbd84ef0c	-0.06490907
22	0xbd8a7c20	-0.06761956
23	0x3dd77797	0.10520857
24	0x3d18a11d	0.037263025
25	0xbdae61ab	-0.085147224
26	0xbcb3e455	-0.021959463
27	0xbdbd9c98	-0.092583835
28	0x3d203c2b	0.03911988
29	0xbda66f0a	-0.08126648
30	0x3b60858c	0.0034259288
31	0x3d826534	0.06366959
32	0x3df468c2	0.119340435
33	0xbd09ce46	-0.033643983
34	0xbcff2954	-0.031147636
35	0x3dae7b95	0.08519665
36	0x3dc4bc9d	0.09606288
37	0xbdcd14d9	-0.10013742
38	0x3dfd011a	0.12353726
39	0xbdf86f01	-0.12130547
40	0x3d238f58	0.039931625
41	0x3dca927b	0.0989122
42	0x3db02d12	0.086023465
43	0x3d9cdd7a	0.07659431
44	0x3db9345a	0.090431884
45	0x3ddc6585	0.10761551
46	0xbbdae1dd	-0.006679757
47	0xbcb6e89b	-0.022327712
48	0x3c09b10d	0.008404029
49	0x3dcc14b2	0.09964885
50	0x3da75d3c	0.0817208
51	0xbdd17e87	-0.10229211
52	0xbcee15ae	-0.029063072
53	0xba9ff5f4	-0.0012204037
54	0x3cca8f0a	0.02472641
55	0xbdd6a953	-0.10481515
56	0xbdd49b82	-0.10381223
57	0xbd293dc7	-0.04131868
58	0xbd9a0fd9	-0.07522554
59	0xbda3881e	-0.07984947
60	0xbdc0bca2	-0.09410979
61	0x3d2a54e5	0.041584868
62	0xbcb0866f	-0.021548478
63	0x3ce10de6	0.027472448

encoder.layers.1.nn.net.2.weight f4 [64, 64]
0	0xbd08f0bc	-0.033432707
1	0xbdabd4b8	-0.08390182
2	0x3dbc04c7	0.09180599
3	0xbcc6589f	-0.02421218
4	0x3e032a9b	0.12809221
5	0x3da90af2	0.08254041
6	0xbdd4d6cb	-0.10392531
7	0x3dbd35e4	0.092387944
8	0xbd826586	-0.0636702
9	0x3de11e61	0.109921224
10	0x3d45642e	0.048191242
11	0xbda5f7b1	-0.08103884
12	0xbbba19e8	-0.005679358
13	0x3d8a1538	0.067423284
14	0xbcdb3085	-0.026756534
15	0xbdefbb38	-0.11705631
16	0x3dc453cb	0.09586295
17	0xbbce1f3a	-0.0062903436
18	0xbc954659	-0.018222021
19	0x3d9fddd7	0.078059845
20	0x3d632b13	0.055461
21	0x3dcb63f3	0.09931173
22	0xbde05899	-0.10954399
23	0xbd8582cd	-0.06519089
24	0x3da4c34f	0.08045065
25	0xbdb281f5	-0.087161936
26	0x3d497eea	0.0491933
27	0x3d9c82ca	0.076421335
28	0x3d4ef42a	0.05052582
29	0x3d0f7c46	0.035030626
30	0x3dbfec9c	0.093713015
31	0xbd9fa4cd	-0.07795105
32	0x3db4d5b1	0.08829821
33	0x3cac1652	0.021006737
34	0x3daa2d36	0.083094046
35	0xbd6a74fa	-0.057240464
36	0x3c64ee9f	0.013972907
37	0xbd915448	-0.070961535
38	0x3d14876d	0.036261965
39	0x3e0341b3	0.12818031
40	0xbbac6c68	-0.0052619465
41	0x3d014ea8	0.031569153
42	0x3dd50d43	0.1040292
43	0xbdd2397a	-0.10264869
44	0xbd93f39e	-0.07224201
45	0xbda34886	-0.07972817
46	0xbd99bf66	-0.075072095
47	0x3de994ad	0.11405311
48	0xbd150b70	-0.03638786
49	0x3dded27b	0.1087999
50	0xbc3a0287	-0.011353142
51	0x3c99322b	0.01870068
52	0xbd35e09f	-0.04440367
53	0xbdad2448	-0.08454186
54	0xbcb30ad7	-0.021855755
55	0x3d9cfc67	0.076653294
56	0x3d1e0fa3	0.03858913
57	0x3ddc4d8c	0.107569784
58	0x3b9eca3f	0.004845887
59	0x3d93b5b4	0.072123915
60	0x3c355dfa	0.011069769
61	0x3de33316	0.11093728
62	0xbd263255	-0.040575344
63	0x3bf39f3b	0.0074347532
64	0xbdd51ded	-0.104060985
65	0x3d750848	0.05982235
66	0xbb29a71e	-0.0025886963
67	0x3ddad67a	0.106854394
68	0xbd52402e	-0.051330738
69	0x3d30a9d5	0.043130714
70	0x3c87cee3	0.016578143
71	0x3d931ce9	0.071832485
72	0x3d8e4e17	0.06948488
73	0xbdb32b8b	-0.087485395
74	0x3d8b2ada	0.06795283
75	0xbd7ffe58	-0.06249842
76	0x3c427941	0.0118697295
77	0xbd01fe6a	-0.03173677
78	0x3da25fcb	0.07928427
79	0x3d465cb6	0.04842826
80	0x3db3b786	0.08775239
81	0xbd6a8cea	-0.057263292
82	0x3d9e6144	0.07733396
83	0xbdcdfea9	-0.10058338
84	0xbdfb61f0	-0.122745395
85	0x3d170fa1	0.03688014
86	0xbcab9b2b	-0.020948013
87	0x3c170824	0.0092182495
88	0x3e00d91a	0.12582818
89	0x3e051e9b	0.12999956
90	0xbe137561	-0.14400245
91	0xbdbe79e8	-0.093005955
92	0xbbe56ca4	-0.0070014764
93	0x3d8a0bae	0.06740509
94	0xbdd673cf	-0.104713075
95	0xbdf306be	-0.1186652
96	0xbdf74e26	-0.120754525
97	0xbd88babf	-0.06676244
98	0xbdd3e9e1	-0.10347343
99	0x3d7061e1	0.058687095
100	0xbd7d55dc	-0.06184946
101	0x3dafa1de	0.085757956
102	0xbdadc437	-0.08484691
103	0xbd81c656	-0.06336658
104	0xbd9fb2c4	-0.07797769
105	0xbd6c760e	-0.057729773
106	0x3e05cda8	0.13066733
107	0xbcf5465e	-0.02994078
108	0x3d02664e	0.031835847
109	0x3ca6f341	0.020379664
110	0x3d931a03	0.07182696
111	0xbdf219ec	-0.118213505
112	0xbd41e585	-0.047338028
113	0xbcffce79	-0.031226384
114	0xbd9c9751	-0.07646049
115	0x3d3b6a35	0.045755584
116	0x3caf9c96	0.02143697
117	0x3b30f7ec	0.0027003242
118	0x3cea4302	0.028596405
119	0x3dea85bb	0.11451288
120	0x3d879bb7	0.06621497
121	0x3b43aa5f	0.0029856188
122	0x3da5fed0	0.08105242
123	0xbd0e69d4	-0.034768894
124	0xbcdbb5d8	-0.026820108
125	0xbdca494e	-0.09877263
126	0xbd8e5b91	-0.06951059
127	0x3da56b62	0.08077122
128	0xba8808d4	-0.0010378608
129	0xbdf9ef1e	-0.12203811
130	0xbd5b3b6c	-0.053523466
131	0xbd839987	-0.064257674
132	0x3d9ff3b8	0.078101575
133	0x3dce2f94	0.100676686
134	0x3df6fdd7	0.12060135
135	0xbd8c6954	-0.06856027
136	0xbd2c6656	-0.042089783
137	0xba07407f	-0.0005159452
138	0x3d242a40	0.040079355
139	0x3d6014b5	0.054707248
140	0xbde00280	-0.10937977
141	0x3d23b41d	0.03996669
142	0x3dea3c86	0.11437325
143	0xbb9b3298	-0.004736256
144	0xbdb8bd56	-0.09020488
145	0xbdbb982c	-0.09159884
146	0x3dd7a06f	0.10528647
147	0x3c8afcc3	0.01696623
148	0xbdb96901	-0.09053231
149	0xbc1161b3	-0.008873391
150	0x3c9faf24	0.019492693
151	0xbcc919b3	-0.024548387
152	0x3c1d2d23	0.009593281
153	0xbd0f7d52	-0.035031624
154	0xbd3cf11d	-0.04612838
155	0xbda90335	-0.08252565
156	0xbcf61852	-0.030040894
157	0xbdabb745	-0.08384565
158	0xbb9a487c	-0.004708348
159	0xbdc26d38	-0.09493488
160	0xbd8a9ad0	-0.067678094
161	0x3d903652	0.07041611
162	0xbddf6649	-0.10908181
163	0xbc672339	-0.014107519
164	0xbd6bf4d3	-0.05760653
165	0xbdd6a703	-0.10481074
166	0xbd350199	-0.044190977
167	0x3dca7dfa	0.09887309
168	0xbd09bd36	-0.03362771
169	0x3d57291c	0.05252944
170	0x3cdb9c25	0.026807854
171	0x3d773511	0.060353342
172	0xbd03502c	-0.03205888
173	0xbdc6868e	-0.09693633
174	0x3dc3069c	0.09522745
175	0x3d22fdb9	0.03979275
176	0xbc268ebf	-0.010165869
177	0xbd20b06e	-0.039230756
178	0x3da2a492	0.079415455
179	0x3d0fe8a3	0.03513397
180	0xbda80b45	-0.082052745
181	0x3d5bbc08	0.053646117
182	0xbda4dba3	-0.08049705
183	0xbdf59458	-0.11991185
184	0xbda41dd0	-0.08013499
185	0x3d897779	0.06712241
186	0xbc7da6a5	-0.015481626
187	0xbdc1b903	-0.09459116
188	0x3dd5357a	0.104105905
189	0xbdc5d6ff	-0.09660148
190	0xbcdf4adf	-0.027257381
191	0xbd41dad3	-0.047327828
192	0xbd8ba531	-0.06818617
193	0x3db3a26b	0.08771213
194	0x3ddcd4b1	0.10782755
195	0x3decaad4	0.115560204
196	0x3d88e7b3	0.06684818
197	0xbdfe0b2b	-0.12404474
198	0xbdba4297	-0.09094732
199	0x3df354f2	0.118814364
200	0x3d8c6e8a	0.06857021
201	0xbd89a582	-0.06721021
202	0x3d7364bf	0.05942225
203	0x3daa7fd9	0.08325166
204	0x3d82f075	0.0639352
205	0xbd88bc6a	-0.06676562
206	0xbcc17e7b	-0.02361988
207	0x3b8cb35d	0.0042938427
208	0xbd663c41	-0.056209806
209	0xbccce9a0	-0.025013745
210	0xbc871009	-0.016487138
211	0xbd3cfff4	-0.046142533
212	0x3df679ef	0.12034976
213	0x3d4bea48	0.049783975
214	0x3d68a607	0.05679896
215	0xbc41e0ac	-0.011833351
216	0x3d732585	0.059361953
217	0xbdc5846a	-0.096443966
218	0xbc31ebc2	-0.010859432
219	0x3d759f4d	0.059966374
220	0xbc436404	-0.011925701
221	0x3dcb185e	0.09916757
222	0x3cabaf47	0.020957602
223	0x3cb07d2d	0.021544063
224	0x3a5534e6	0.00081331877
225	0x3d897f76	0.06713764
226	0x3dbfea93	0.09370913
227	0x3cb6e47f	0.022325752
228	0x3d94286e	0.07234274
229	0x3d4ffc3e	0.050777666
230	0x3c751920	0.014959604
231	0xbdf715b7	-0.12064689
232	0xbd24dfb5	-0.040252406
233	0xbd160509	-0.036625896
234	0x3cc88c5b	0.02448099
235	0x3d3a4f1e	0.04548561
236	0xbd426f34	-0.047469333
237	0x3d9302a8	0.07178241
238	0x3dd3ad79	0.10335822
239	0x3cf63abb	0.030057302
240	0x3cc0b7f0	0.023525208
241	0x3dbed912	0.093187466
242	0xbd9fab10	-0.077962995
243	0x3d88a69c	0.06672403
244	0xbd0213b2	-0.031757064
245	0x3dd5d0ac	0.104401916
246	0x3db8b0d9	0.09018106
247	0xbdc677a6	-0.0969079
248	0xbd1e66ef	-0.038672384
249	0xbd87b86d	-0.06626973
250	0xbd77e96e	-0.06052535
251	0x3c222f4e	0.009898974
252	0x3d4b9727	0.049704697
253	0x3c862758	0.016376182
254	0x3d39e86f	0.04538768
255	0xbb9e56f5	-0.0048321434

encoder.layers.1.nn.net.2.bias f4 [64]
0	0xbd0f134b	-0.03493051
1	0xbc05270a	-0.008126983
2	0x3d819736	0.06327669
3	0xbc0a7e8b	-0.008453022
4	0x3dc3c84c	0.09559688
5	0x3cade056	0.021225136
6	0xbdcabe6b	-0.098996006
7	0xbd44845d	-0.047977794
8	0x3da00bbe	0.0781474
9	0x3dcf52f8	0.10123247
10	0x3930be0f	0.0001685547
11	0x3c7f42d9	0.015579903
12	0x3db73ae8	0.08946782
13	0x3d7b82bf	0.061403986
14	0x3d975f0e	0.07391177
15	0xbc8ef99a	-0.017453004
16	0x3d031746	0.032004617
17	0xbdee67b5	-0.11640874
18	0x3c35ac60	0.011088461
19	0xbd890a2b	-0.066913925
20	0xbe007351	-0.1254399
21	0x3bca350c	0.0061708745
22	0xbd359155	-0.044328053
23	0x3c2a616e	0.010399206
24	0x3dd1f967	0.10252648
25	0xbd5280e5	-0.051392455
26	0x3de1ffe0	0.110351324
27	0x3daacb19	0.08339519
28	0xbd01d50e	-0.031697325
29	0xbddff3aa	-0.10935147
30	0x39cc777b	0.00038998932
31	0x3c527a51	0.012846545
32	0xbde2c089	-0.110718794
33	0x3dc19e2c	0.09453997
34	0xbd20715d	-0.03917061
35	0xbdc71d19	-0.09722347
36	0xbde4a6ba	-0.11164613
37	0x3d393435	0.045215804
38	0xbc802ea8	-0.015647247
39	0x3d602839	0.05472586
40	0xbde4904c	-0.11160335
41	0xbdcaafff	-0.0989685
42	0x3d8c28c0	0.0684371
43	0x3d9250f7	0.07144349
44	0x3de091ea	0.10965331
45	0x3c8d9189	0.01728131
46	0x3daf4dfa	0.08559795
47	0xbdd70501	-0.10499001
48	0xbd35102e	-0.044204883
49	0xbc92c380	-0.017915487
50	0xbdcd8125	-0.10034398
51	0xbde46b71	-0.11153305
52	0x3d0ec588	0.03485635
53	0x3e00e7ee	0.12588474
54	0x3dfe066b	0.12403568
55	0x3dd902fa	0.10596271
56	0xbd81c666	-0.063366696
57	0xbdd0f934	-0.10203782
58	0x3de1a7f6	0.11018364
59	0xbdf488ec	-0.11940178
60	0xbdf396ad	-0.118939735
61	0xbc31d8c3	-0.010854903
62	0x3d431294	0.04762514
63	0x3b2b1c0a	0.0026109242

encoder.layers.2.nn.net.0.weight f4 [64, 64]
0	0x3c5279be	0.012846408
1	0xbcc17b90	-0.02361849
2	0x3dab1892	0.08354296
3	0xbd9397c0	-0.072066784
4	0x3d089322	0.03334344
5	0xbdf281fe	-0.118412
6	0x3d9a40a0	0.075318575
7	0xbd8b23e2	-0.067939535
8	0x3d0fcee7	0.035109427
9	0xbc9a5685	-0.018840084
10	0x3d9c8d71	0.07644165
11	0xbd31c22d	-0.04339807
12	0x3da44cbd	0.08022449
13	0x3df9f719	0.12205333
14	0xbdb6b76e	-0.08921705
15	0xbd419315	-0.04725941
16	0x3bee5bd6	0.0072741313
17	0x3dde706b	0.10861286
18	0x3dbc40b3	0.09192028
19	0x3db0d36c	0.086340755
20	0xbde75cff	-0.112970345
21	0x3d614e6e	0.055006437
22	0x3ac614ec	0.0015112436
23	0xbd3572d0	-0.044298947
24	0xbd0ea755	-0.03482755
25	0xbe02de98	-0.12780225
26	0x3d94c95b	0.07264968
27	0x3ab7c85e	0.0014021506
28	0xbcd24a1a	-0.0256701
29	0xbdfee386	-0.124457404
30	0x3cae25a6	0.021258187
31	0xbdd999f6	-0.10625069
32	0x3d955288	0.07291132
33	0xbd90b50e	-0.070657834
34	0x3bb468a0	0.0055056363
35	0xbd68925e	-0.05678021
36	0xbde75550	-0.11295569
37	0xbcf327b4	-0.029682018
38	0x3deff7c2	0.11717178
39	0x3de573eb	0.1120375
40	0xbd6f709f	-0.058457013
41	0x3d8c76f2	0.068586245
42	0xbddf1a7b	-0.108937226
43	0xbdb19880	-0.08671665
44	0x3df97801	0.12181092
45	0x3d40ad3a	0.0470402
46	0xbd14270d	-0.036170054
47	0xbd906e7c	-0.07052323
48	0x3d2271b9	0.039659236
49	0x3bfa4ed9	0.007638794
50	0xbdc7752a	-0.09739144
51	0x3dae4e37	0.08511012
52	0xbdb5b1a9	-0.088717766
53	0xbca651cc	-0.020302676
54	0xbd4c3ddc	-0.04986368
55	0xbd90983b	-0.07060286
56	0xbd8351e3	-0.06412103
57	0x3c3acc85	0.0114013
58	0x3d264502	0.040593155
59	0xbd91e5c8	-0.071239054
60	0xbcfc9b9e	-0.030835923
61	0x3cc31ddb	0.023817947
62	0x3b6c176e	0.0036024707
63	0xbe036709	-0.12832274
64	0x3c39ee9b	0.011348392
65	0x3d30c5e6	0.04315748
66	0x3d1c4e33	0.038160514
67	0xbdea8509	-0.11451156
68	0xbd602fde	-0.05473315
69	0xbc25c0ce	-0.010116769
70	0xbd2a72a5	-0.04161324
71	0xbd2d729f	-0.04234564
72	0x3c82c504	0.015963085
73	0x3dcb478a	0.09925754
74	0xb70dc00c	-8.448969e-06
75	0xbd2f41f8	-0.042787522
76	0xbd7406a9	-0.059576664
77	0xbd6300f0	-0.055420816
78	0xbd9a26b4	-0.07526913
79	0x3d2297e6	0.039695643
80	0xbdabec95	-0.08394734
81	0x3d7697e5	0.06020345
82	0x3dfd20ad	0.12359748
83	0xbd117c4f	-0.03551894
84	0x3cdd50bb	0.027016034
85	0x3dc1e464	0.0946739
86	0x3de730ca	0.11288603
87	0xbd9de986	-0.07710557
88	0xbb0939c1	-0.0020938965
89	0xbd9aceaa	-0.07558949
90	0xbc044e14	-0.008075256
91	0x3de08c31	0.109642394
92	0x3d84991d	0.064745165
93	0x3d8e964c	0.069622606
94	0x3d00a7c2	0.031409986
95	0xbdeac888	-0.114640296
96	0x3dba9d2d	0.0911201
97	0x3b487721	0.0030588584
98	0x3da69c0b	0.081352316
99	0x3d57306b	0.05253641
100	0x3de2602d	0.110535
101	0x3d1f3567	0.038869288
102	0xbd6ed654	-0.058309868
103	0x3dc046da	0.09388514
104	0x3bbdea3c	0.005795745
105	0x3d530e1e	0.051527135
106	0xbde01ae2	-0.109426275
107	0x3d5397ea	0.05165855
108	0xbddb92cb	-0.10721358
109	0xbd6a2d99	-0.05717239
110	0xbd35f9f8	-0.044427842
111	0x3d50d4ff	0.05098438
112	0x3d21472c	0.039374515
113	0xbd5d8bbb	-0.054088335
114	0x3b93b9c0	0.004508227
115	0xbc35758d	-0.01107539
116	0xbcfff5df	-0.03124517
117	0xbda84972	-0.082171336
118	0x3ce4a207	0.027909292
119	0x3d888432	0.06665839
120	0xbd610c43	-0.054943334
121	0x3d0bb1f7	0.034105267
122	0x3dc63a9a	0.09679146
123	0xbd4f95a4	-0.050679818
124	0x3d4aa62d	0.049474884
125	0x3d07a741	0.03311849
126	0xbccde1b9	-0.025132047
127	0x3d8329ff	0.064044945
128	0xbe06e7f2	-0.13174418
129	0x3d893770	0.06700027
130	0x3dd7308d	0.10507307
131	0x3d5a0e70	0.053236425
132	0xbc4af5fa	-0.012387747
133	0x3da18919	0.078874774
134	0xbccc33fe	-0.024927136
135	0x3deaf056	0.11471622
136	0x3cb6e218	0.022324607
137	0xbd290d72	-0.041272588
138	0x3d60a6d8	0.054846615
139	0x3b8716a7	0.0041225734
140	0xbd72cc08	-0.05927661
141	0xbdddf033	-0.1083683
142	0xbdce3656	-0.100689575
143	0x3d94abfd	0.07259367
144	0xbc69e4ae	-0.014275713
145	0xbd658812	-0.05603797
146	0xbde9a765	-0.11408881
147	0xbc6fe57c	-0.014642116
148	0xbcb323cc	-0.021867655
149	0x3d35de05	0.044401187
150	0x3d0e6ccc	0.034771726
151	0x3dc4ebf4	0.09615317
152	0xbc6364da	-0.013879025
153	0xbd87bfc7	-0.066283755
154	0xbbb4fe9d	-0.0055235163
155	0xbde45afb	-0.11150166
156	0xbd5a6353	-0.05331738
157	0xbcf3dd23	-0.029768532
158	0x3d80889c	0.06276056
159	0xba31d818	-0.00067842146
160	0xbdcc1488	-0.099648535
161	0xbd92bcc3	-0.0716491
162	0x3de467c8	0.11152607
163	0xbbf33d56	-0.0074230833
164	0xbca4e16c	-0.02012702
165	0xbdf1b2c2	-0.118016735
166	0xbd7349af	-0.059396442
167	0xbd28a4fc	-0.041172966
168	0xbdec528c	-0.11539182
169	0xbdbe716d	-0.09298978
170	0xbcfa5959	-0.030560182
171	0x3dc33cfc	0.09533116
172	0x3d7c7975	0.061639268
173	0xbdec784a	-0.11546381
174	0xbd19e8c9	-0.037575517
175	0xbd9ff5a7	-0.07810526
176	0xbdfbe166	-0.12298851
177	0xbd516e9e	-0.051130883
178	0xb85d8270	-5.2811985e-05
179	0xbd2c3bf9	-0.042049382
180	0xbced18d8	-0.02894251
181	0x3dad37af	0.084578864
182	0xbdd331b3	-0.10312214
183	0xbde021eb	-0.10943969
184	0x3cda24ec	0.026628934
185	0xbc82184b	-0.015880724
186	0xbdf10ee9	-0.11770422
187	0xbd78177c	-0.06056927
188	0x3da61d92	0.08111109
189	0x3da4b551	0.08042396
190	0xbc7e3160	-0.015514702
191	0xbdad679b	-0.08467027
192	0x3de0b98c	0.1097289
193	0xbcbbab78	-0.022908911
194	0x3c98c2e3	0.018647617
195	0xbda1dea4	-0.079037935
196	0xbe03b68a	-0.12862602
197	0x3d12a0e6	0.035797976
198	0xbd46bd33	-0.04852028
199	0xbd8cec38	-0.06880993
200	0xbdd748c3	-0.10511925
201	0xbe07eda9	-0.13274254
202	0xbba4d5ec	-0.0050303843
203	0xbe06007d	-0.13086124
204	0xbc094ed3	-0.00838061
205	0x3c17f437	0.009274534
206	0x3dbb72f5	0.09152786
207	0x3d425572	0.04744477
208	0x3dcc4020	0.099731684
209	0xbdbc67ef	-0.09199511
210	0xbdfffaa4	-0.12498978
211	0x3dbe49ca	0.09291418
212	0x3d35c74c	0.044379517
213	0x3d7d6415	0.061863024
214	0xbc9c85ba	-0.019106735
215	0xbd086b9d	-0.033305753
216	0xbde4fe4f	-0.11181318
217	0xbda1cec1	-0.07900763
218	0x3da6cfcf	0.08145105
219	0xbda89936	-0.08232348
220	0x3d697227	0.05699363
221	0xbddb417d	-0.1070585
222	0xbd86c783	-0.065810226
223	0x3d9e9075	0.07742397
224	0xbd2adf8d	-0.0417171
225	0xbd4215a1	-0.04738391
226	0x3d255f5b	0.04037414
227	0x3d5417fc	0.051780686
228	0x3cf077e0	0.029354036
229	0x3cd1a203	0.025589949
230	0x3da221cc	0.079166025
231	0xbdb59064	-0.08865431
232	0x3bc349b9	0.005959716
233	0xbdcfbcf8	-0.10143465
234	0xbd3f14dc	-0.046650752
235	0xbddc4675	-0.10755626
236	0xbdbd44a8	-0.09241611
237	0xbdfa22fb	-0.12213703
238	0x3deb7f98	0.11498946
239	0x3dba8ccb	0.091088854
240	0xbcb71e7b	-0.022353401
241	0x3ca93e14	0.020659484
242	0x3c1ff4ec	0.009762984
243	0xbd3aae6b	-0.045576494
244	0xbde22df5	-0.11043922
245	0xbdb85e81	-0.090024
246	0xbd3fe9d2	-0.046853848
247	0xbd7690f7	-0.060196843
248	0x3df65421	0.12027765
249	0x3cf16f75	0.029472092
250	0xbd8db8b1	-0.06919993
251	0xbdf686ed	-0.12037454
252	0x3d4fd739	0.05074236
253	0xbdc55002	-0.09634401
254	0xbd8b6e17	-0.06808107
255	0x3cdbda76	0.026837569

encoder.layers.2.nn.net.0.bias f4 [64]
0	0x3ccd8cc2	0.025091533
1	0xbdb8e052	-0.09027161
2	0xbde99b1f	-0.1140654
3	0x3dc2da2c	0.09514269
4	0xbdae35df	-0.08506369
5	0x3cabb91f	0.020962296
6	0xbd4c6e4c	-0.049909875
7	0xbda429ce	-0.08015786
8	0xbdb4f773	-0.0883626
9	0xbc54c03f	-0.012985288
10	0xbd64523d	-0.05574249
11	0x3be92d01	0.0071159606
12	0x3dc22669	0.094799824
13	0x3d0c8140	0.03430295
14	0xbdbe3d63	-0.09289052
15	0xbd77d10f	-0.06050211
16	0x3d39b630	0.045339763
17	0x3dd74caf	0.10512673
18	0x3c2a30c3	0.010387602
19	0x3d64f665	0.055899043
20	0x3d500434	0.05078526
21	0xbce3d44d	-0.027811194
22	0xbda1d01c	-0.07901022
23	0xbda0cabd	-0.07851169
24	0x3dfcf80a	0.12351997
25	0x3c143da8	0.009047903
26	0x3d1a4b83	0.03766967
27	0xbd9491d0	-0.07254374
28	0x3d9ae52d	0.07563243
29	0x3df8f774	0.12156573
30	0xbcdf9ada	-0.027295519
31	0x3de58b6a	0.11208232
32	0xbd43b51e	-0.04778015
33	0xbde10c16	-0.10988633
34	0x3d66e962	0.056374915
35	0xbd8594f6	-0.06522553
36	0xbc025408	-0.007954605
37	0x3b0e813b	0.0021744508
38	0xbcf1e680	-0.029528856
39	0xbac04161	-0.0014667922
40	0x3db63f3e	0.08898781
41	0xbd5b471e	-0.05353462
42	0x3dea6028	0.114441216
43	0x3dac2a0f	0.084064595
44	0x3da2ce18	0.079494655
45	0xbd7b337f	-0.061328407
46	0xbdb7630a	-0.08954437
47	0x3d89466c	0.06702885
48	0x3d3291ed	0.043596197
49	0xbdf55368	-0.11978799
50	0x3cdebd6f	0.027189938
51	0x3da36212	0.0797769
52	0x3d9ca551	0.07648719
53	0x3b83cebd	0.004022448
54	0x3d50e327	0.05099788
55	0xbde76344	-0.1129823
56	0xbd39acfe	-0.045330994
57	0xbde4573d	-0.11149452
58	0xbded5943	-0.11589291
59	0xbd7a0828	-0.061042935
60	0xbd10b66d	-0.035330225
61	0xbda0fff0	-0.07861316
62	0xbd47f5cc	-0.048818395
63	0xbc70fa2f	-0.014708086

encoder.layers.2.nn.net.2.weight f4 [64, 64]
0	0xbda9901a	-0.08279438
1	0x3e005314	0.12531692
2	0xbda4e2fa	-0.08051105
3	0xbca69068	-0.02033253
4	0xbdd34765	-0.10316352
5	0xbba14a86	-0.004922214
6	0x3d7274cc	0.059193417
7	0x3d88232e	0.06647335
8	0x3d9b7796	0.075911686
9	0x3d8d7cef	0.06908595
10	0x3c601783	0.013677481
11	0x3ba78ec2	0.0051134536
12	0xbc659159	-0.014011704
13	0xbd8fb119	-0.070162006
14	0x3dade508	0.0849095
15	0xbe146e9a	-0.14495316
16	0xbd359fec	-0.044341967
17	0x3d3fb080	0.046799183
18	0x3d33e18b	0.043916266
19	0xbc0afd0e	-0.0084831845
20	0x3de06f62	0.109587446
21	0x3dedf815	0.116195835
22	0xbd68b196	-0.056809984
23	0x3d348572	0.044072576
24	0x3c34e119	0.011039996
25	0x3c820b96	0.015874665
26	0xbd2e475e	-0.04254853
27	0xbdb671c7	-0.0890842
28	0xbd6bb619	-0.05754671
29	0xbd806135	-0.06268541
30	0xbc7f57b3	-0.015584874
31	0xbd89bc19	-0.0672533
32	0xbe0523b6	-0.13001904
33	0x3cd692d1	0.026193054
34	0xbda290fb	-0.07937809
35	0xbdbe9936	-0.093065664
36	0xbc803f74	-0.015655257
37	0x3bb146e5	0.0054100626
38	0x3dfdd3e4	0.123939306
39	0x3c637ddb	0.013884987
40	0xbd4a78c0	-0.049431562
41	0xbdedf6bf	-0.11619329
42	0xbd8e89a8	-0.069598496
43	0xbbb5c19b	-0.005546761
44	0xbcaba1ee	-0.020951238
45	0xbdc7e100	-0.09759712
46	0x3b066b32	0.002051067
47	0xbd531a68	-0.051538855
48	0x3d43e13d	0.047822226
49	0x3dde0a9f	0.108418696
50	0x3d038aa3	0.032114636
51	0x3dab913e	0.08377312
52	0xbc995613	-0.018717801
53	0x3c81fed0	0.015868574
54	0xbd911d43	-0.07085659
55	0x3ccfccd7	0.02536623
56	0xbbaf3194	-0.0053464863
57	0x3bdae5aa	0.00668021
58	0x3dcc7174	0.09982577
59	0x3de11513	0.10990348
60	0x3d7dacbb	0.061932307
61	0xbd04928a	-0.032366313
62	0xbdfc59e5	-0.123218335
63	0x3ba79c44	0.005115064
64	0xbd45dd6a	-0.04830686
65	0xbdda8bf9	-0.10671229
66	0xbdb0788f	-0.08616745
67	0xbdd8c99a	-0.105853274
68	0xbd186853	-0.037208866
69	0x3de3b371	0.1111821
70	0x3d811313	0.06302466
71	0xbcf4738d	-0.029840255
72	0xbd5e3b44	-0.05425574
73	0xbb0b84cc	-0.002128887
74	0xbdecc3c2	-0.11560775
75	0xbc568933	-0.013094234
76	0xbcf3bdfd	-0.02975368
77	0x3e00b1b8	0.12567794
78	0xbdc6519b	-0.09683534
79	0xbd930e7d	-0.07180498
80	0xbd4315f0	-0.047628343
81	0xbdf5bb73	-0.11998644
82	0x3b4e029a	0.0031434656
83	0x3de4f1f1	0.11178959
84	0xbdc63113	-0.09677329
85	0xbde72acf	-0.11287462
86	0xbde6024c	-0.11230907
87	0x3d61136a	0.054950155
88	0xbdbff75b	-0.09373351
89	0xbdb5dba7	-0.08879786
90	0x3dfe8c22	0.12429072
91	0xbd75ae4d	-0.05998068
92	0xbcb02f90	-0.021507055
93	0xbdc39a5a	-0.095509246
94	0xbe00e918	-0.12588918
95	0x3c4eaea2	0.012614878
96	0x3d623745	0.05522849
97	0xbd83e11a	-0.06439419
98	0xbdab38c9	-0.0836044
99	0xbde47827	-0.1115573
100	0xbdb65239	-0.089024015
101	0x3cc380e2	0.023865167
102	0x3dd481c0	0.1037631
103	0xbd7e054e	-0.062016778
104	0x3c0e6d10	0.008692995
105	0xbca5d7cf	-0.020244507
106	0xbdde0693	-0.10841098
107	0xbd954708	-0.07288939
108	0xbd43aa54	-0.04776986
109	0x3d873fc0	0.06603956
110	0xbce93e85	-0.028472194
111	0x3ddc376d	0.10752759
112	0xbda15f69	-0.07879526
113	0xbd759a93	-0.059961867
114	0xbdff1d68	-0.12456781
115	0xbc31b4eb	-0.010846357
116	0x3de02c79	0.109459825
117	0x3d05d796	0.032676302
118	0x3ce152e9	0.027505355
119	0x3ddf38b7	0.108994894
120	0xbdbb2dab	-0.0913957
121	0x3d9eaeac	0.0774816
122	0x3de0c385	0.109747924
123	0xbcc416ce	-0.023936655
124	0xbcbaddf5	-0.022810915
125	0xbe05d18e	-0.1306822
126	0xbceded3c	-0.029043786
127	0x3b31b0dd	0.0027113475
128	0xbb854673	-0.004067236
129	0x3df2153d	0.11820457
130	0x3d5aea7c	0.053446278
131	0x3ba9e418	0.0051846616
132	0x3d2e5f7b	0.042571526
133	0xbdd96496	-0.10614888
134	0xbdcb327a	-0.09921737
135	0xbdbbe0f8	-0.09173769
136	0x3d8c7c15	0.06859604
137	0x3dc775da	0.09739275
138	0xbc4937c7	-0.012281365
139	0xbc6dff8f	-0.014526262
140	0x3da45b0f	0.080251805
141	0xbd2c1388	-0.042010814
142	0x3d02bb79	0.03191707
143	0x3ce04c90	0.027380258
144	0x3ccf6373	0.025315976
145	0x3de6951b	0.11258908
146	0x3dfd92c4	0.12381509
147	0x3df3d1a0	0.11905217
148	0xbdb49a35	-0.08818475
149	0xbc474b46	-0.012163943
150	0x3d9f4874	0.07777491
151	0x3cae0847	0.021244181
152	0x3d8bd131	0.068270095
153	0xbd933c78	-0.07189268
154	0x3d602521	0.05472291
155	0x3db53d7d	0.088496186
156	0x3ddee8f9	0.1088428
157	0x3de04935	0.10951463
158	0xbdc1264a	-0.09431131
159	0x3d57655c	0.0525869
160	0xbcce4980	-0.025181532
161	0x3de17cff	0.11010169
162	0xbd39aae6	-0.045328997
163	0x3b1ead35	0.0024212126
164	0xbd8e5d47	-0.06951385
165	0xbcb88b5c	-0.02252739
166	0x3dfe6e95	0.124234356
167	0x3dea9ac2	0.11455299
168	0xbdf66c68	-0.120323956
169	0x3c62fba4	0.013853941
170	0x3dd2982c	0.10282931
171	0xbdac6cb0	-0.08419168
172	0xbda3e362	-0.08002354
173	0x3dc881aa	0.097903565
174	0x3bf53d8f	0.007484145
175	0x3d486578	0.048924893
176	0xbd2e9d0d	-0.042630244
177	0xbd313d92	-0.04327161
178	0xbde58a24	-0.11207989
179	0xbd802cc5	-0.06258539
180	0xbd4cd2a6	-0.050005578
181	0xbd480b31	-0.048838798
182	0x3cba5e35	0.02275
183	0xbdf5b293	-0.11996951
184	0x3c3ecd21	0.011645586
185	0xbd5412e4	-0.051775828
186	0x3c806926	0.015675139
187	0x3c56dd19	0.013114237
188	0xbd8c95ab	-0.068644844
189	0xbd4756b8	-0.048666686
190	0x3d650072	0.055908628
191	0xbddd06bc	-0.107923
192	0x3c4ba092	0.01242842
193	0xbbf1fadf	-0.0073846425
194	0x3d86647c	0.065621346
195	0xbda142ac	-0.07874045
196	0x3b6f56f4	0.0036520334
197	0xbde789a2	-0.11305548
198	0x3b6d6c1b	0.0036227766
199	0x3db2e577	0.08735173
200	0xbdf81498	-0.12113303
201	0xbd72edba	-0.059308745
202	0xbddd8886	-0.108170554
203	0x3d8b6d26	0.06807928
204	0xbce1792d	-0.027523601
205	0x3d8cab06	0.06868558
206	0xbd9e0dff	-0.07717513
207	0x3d2d10a6	0.042252205
208	0xbd5a9e7a	-0.05337379
209	0xbddb05a9	-0.10694439
210	0x3d61167f	0.054953095
211	0xbdbfe3fc	-0.093696564
212	0xbc951def	-0.01820275
213	0x3dcdbe24	0.10046032
214	0xbd57fdad	-0.05273216
215	0x3de40ead	0.11135612
216	0x38b30301	8.535945e-05
217	0xbd07e5ba	-0.03317807
218	0x3dba3639	0.090923734
219	0x3d6f5dab	0.058438938
220	0xbdd92025	-0.10601834
221	0x3cdca5b5	0.026934484
222	0xbde07a2e	-0.10960804
223	0x3d84fda3	0.0649369
224	0xbca89977	-0.02058099
225	0x3cc8f74c	0.024531983
226	0xbbfc97a7	-0.007708508
227	0xbda52472	-0.08063592
228	0xbdecd0ad	-0.11563239
229	0xbd831409	-0.06400306
230	0xbd86650b	-0.06562241
231	0xbd5d6141	-0.054047827
232	0xbd8fe3ac	-0.07025847
233	0xbd168313	-0.036746096
234	0xbde6f34c	-0.11276874
235	0xbd79a019	-0.060943697
236	0x3dbaa7ce	0.091140375
237	0xbcd3e9cf	-0.025868325
238	0x3c7402c3	0.014893237
239	0x3df5b1e2	0.11996819
240	0xbdc4a2d6	-0.09601371
241	0x3d9ba017	0.07598894
242	0xbdc257bc	-0.0948939
243	0x3dd6b93b	0.10484549
244	0xbccde64e	-0.025134232
245	0xbad423ca	-0.0016184982
246	0xbc809bf8	-0.015699372
247	0xbd770fff	-0.06031799
248	0xbc2b66f4	-0.010461558
249	0x3c41e48e	0.011834277
250	0xbd7e7ead	-0.062132526
251	0x3d8269dd	0.06367848
252	0xbd725461	-0.0591625
253	0x3df97e5b	0.121823035
254	0x3cf8afdf	0.0303573
255	0xbd1242fd	-0.035708416
