scripts/embeddings_gin_version2/ENZYMES/gin_dim64_ep40_lr0.001_drop0.3/gin_classifier.pt (torch, 177117 bytes, 42 tensors)

encoder.layers.0.nn.net.0.weight f4 [64, 3]
000000 95 de ad 3e a0 f5 f9 3e 44 09 df 3e 1c b9 10 3f
       0.3395888 0.4882021 0.43561757 0.56532454
000010 97 f5 14 bf d3 e9 52 be 0e 10 4c 3d a6 57 f7 bd
       -0.5818724 -0.2059701 0.04982 -0.120772645
000020 26 30 a4 3e 0a 3b db 3e 5f d4 d7 3e 5e 85 bc be
       0.32067984 0.4281848 0.42154214 -0.368205
000030 4d b8 b1 3e bd 8a 8f 3d 2f 8a 31 be 13 22 8e be
       0.34710923 0.07008884 -0.17337869 -0.27760372
000040 8d 70 c7 be 0e 36 12 3f d0 74 81 3d 88 3b da be
       -0.38953057 0.5711373 0.06321108 -0.42623544
000050 f0 de 02 3e df be ac be af 03 e8 3e b2 aa 0f 3e
       0.12780356 -0.33739373 0.4531531 0.14029959
000060 08 a5 d0 3e 06 ff 1e 3e 44 b5 11 bf ab e4 67 be
       0.4075091 0.15526971 -0.56917214 -0.22645824
000070 b1 5e b0 be df e5 04 3f 6e 10 99 be 5c a1 27 3e
       -0.34447244 0.51913255 -0.29895347 0.16370147
000080 3e 73 97 be 2f f6 c5 be 0b 3a 11 bf c6 9b 95 be
       -0.2958011 -0.38664386 -0.5672919 -0.29220408
000090 ff 8b 06 3f 4b b1 d0 bd 62 ca f4 39 86 c6 fb be
       0.5255737 -0.10190066 0.00046690094 -0.491749
0000a0 fb 02 08 3e ef 0d e9 bd a5 01 0b 3f 8d 76 ab 3e
       0.13282387 -0.11379611 0.54299384 0.33488885
0000b0 35 8f a8 3e e4 28 e0 3e fa 9a dd be e8 32 b5 be
       0.32921758 0.43781197 -0.432823 -0.353904
0000c0 5d 45 c4 3d 30 da 98 3e 3c 19 12 bf aa 3d e8 3e
       0.095835425 0.29853964 -0.57069755 0.45359546
0000d0 0f 00 d6 3e a4 76 01 bd 59 08 a0 3e f3 ac 98 3e
       0.4179692 -0.031607285 0.3125637 0.2981945
0000e0 4f 93 34 3e 73 85 a9 3e cb a4 fe be 61 86 18 3e
       0.17634319 0.33109626 -0.49735102 0.14895011
0000f0 6a 65 5f 3e c8 f8 0a 3e 0a 5c 94 3d ea f0 8e 3e
       0.2181603 0.13571465 0.072441176 0.27918178
000100 cd 06 80 bd bc 0a 07 3f 6b 6f 03 3f 64 d1 ea 3e
       -0.06251297 0.52750754 0.51341885 0.45862877
000110 48 7a 0e 3d 81 16 0b 3d 0c d4 0f bf 97 8a b2 3d
       0.034784585 0.03395701 -0.5618293 0.0871784
000120 f0 21 04 3f dd 14 02 3f 59 e2 a4 3d 31 33 ac be
       0.51614285 0.50813085 0.08050985 -0.33632806
000130 cc 5b 26 be 66 34 98 3e fd 42 a3 be aa a7 8d 3e
       -0.16245955 0.29727477 -0.31887046 0.2766698
000140 02 d5 84 3d b8 ae 33 3e 18 0d f3 bd 19 ee ea 3e
       0.064859405 0.17547119 -0.11867732 0.4588478
000150 8f 4c 8c bd 07 11 89 3c 6d 6c 22 3e 21 7d cf bd
       -0.0685054 0.016731752 0.15861674 -0.10131288
000160 9e 40 6a be f8 32 8d be da e2 02 3f e4 ba a0 3e
       -0.22876212 -0.2757795 0.511274 0.31392586
000170 1c 53 8a 3e 79 b7 d8 be c8 3b d9 3e 5b e0 72 be
       0.27016532 -0.4232748 0.42428422 -0.23718397
000180 cb ef 86 3e 0b ff 24 3e 24 c8 c6 3e 5d 3d d3 bd
       0.26354823 0.16112916 0.3882457 -0.103144385
000190 d0 27 13 3f 96 e2 8f 3e 77 88 e6 3e 1e be 17 bd
       0.57482624 0.2810256 0.4502599 -0.037046544
0001a0 5d 4b de be 85 dd 0e bf 0f af af 3e 1f 46 c3 be
       -0.43416873 -0.5580676 0.34313247 -0.38139436
0001b0 bc bf 0d 3e 96 54 0e 3f dd 72 6f 3e f1 a9 ac be
       0.13842672 0.5559782 0.2338366 -0.33723405
0001c0 98 dc 06 3f 2f 42 82 be c9 0a f9 be b8 63 f1 3e
       0.5268035 -0.2544112 -0.4864104 0.47146392
0001d0 ff 06 11 3f 6a ce a1 3e c6 6f 34 3d f1 94 cc 3e
       0.566513 0.31602794 0.044051908 0.39957383
0001e0 7c 0e d3 be aa 95 8c 3e 62 29 d0 be ec 6f 6e 3e
       -0.41221988 0.27457935 -0.40656573 0.23284882
0001f0 53 e3 08 be 61 0b 8d be 31 06 f0 be 00 17 98 3e
       -0.13367967 -0.27547744 -0.46879724 0.29705048
000200 50 2f 42 be 3f 88 bc be 71 30 0e 3f d8 31 43 bd
       -0.18963361 -0.36822698 0.55542666 -0.047654957
000210 e5 e6 e3 be 9c e7 b3 be a0 d4 db 3e 34 6f c5 be
       -0.44512096 -0.3513764 0.42935658 -0.38561404
000220 d7 61 ed 3d c5 36 a2 3e 75 ff cf be b3 f3 89 be
       0.11590927 0.3168241 -0.40624586 -0.2694374
000230 dd 6d 09 3f c4 34 9e bb 33 36 34 3e 74 16 a7 bd
       0.53683263 -0.0048280675 0.175988 -0.081585795
000240 d9 e3 94 bd df 0c de 3e d2 29 96 3d 81 63 45 3e
       -0.07270021 0.43369195 0.07332195 0.19276239
000250 d9 fe b6 3e c0 96 08 3f 44 21 b4 3e 8e 05 b7 be
       0.35741308 0.53355026 0.3518163 -0.35746425
000260 23 d5 01 3d eb a2 0a bd c7 26 a4 be 6e 21 29 3e
       0.031697404 -0.033846777 -0.32060835 0.16516659
000270 af 1b f4 be 0f 9f e5 3e ad 82 2d 3e 63 c5 a3 3d
       -0.4767737 0.44847915 0.1694438 0.07996633
000280 76 77 32 be ba 99 66 3e 40 de 46 bd 4a b2 c0 be
       -0.17428383 0.2251958 -0.048551798 -0.37636024
000290 bf 06 a3 3e 46 a1 64 bd 95 71 8e 3d e4 38 51 3e
       0.31841084 -0.055817865 0.06955258 0.20431858
0002a0 2c b7 af be 1f c2 fc 3e 85 49 27 3d 0b 6f 1a 3d
       -0.34319437 0.49366853 0.040841598 0.037703555
0002b0 6d e9 85 3e 58 9d c7 bd a3 03 66 3e 9f 94 f0 be
       0.26154652 -0.09746808 0.22462325 -0.4698839
0002c0 17 e6 7b 3c 0c 02 ed 3e 16 73 08 bf 95 71 fc 3e
       0.015374682 0.46290624 -0.5330061 0.49305406
0002d0 c8 09 34 3e fc 1b c1 bd 0a 1f a1 be c1 e1 ca be
       0.17581856 -0.09429166 -0.31468993 -0.39625362
0002e0 5e 3c 86 be 54 3f 00 be 40 82 0e 3f 1a ba be 3e
       -0.26217932 -0.12524158 0.55667496 0.3725136
0002f0 43 1d 04 be fc aa 23 3e 37 11 24 3e e4 50 ab bd
       -0.12901787 0.15983194 0.16022192 -0.08365038

encoder.layers.0.nn.net.0.bias f4 [64]
000000 a1 21 91 be 33 5d 10 bf a2 e0 cd bd dc dd 1b 3e
       -0.2834597 -0.5639221 -0.10052611 0.15221351
000010 72 9d dd 3d eb a4 b5 bc be f2 0c bf 87 85 04 3f
       0.10821046 -0.022173366 -0.55057895 0.51766247
000020 87 42 18 be 93 e0 76 be c8 21 c2 3d fa 68 a0 bd
       -0.14869128 -0.24109106 0.094790995 -0.07832523
000030 3f 73 d2 be a6 a1 46 be a3 36 40 bd 42 64 84 3e
       -0.4110355 -0.19397601 -0.046927106 0.2585774
000040 8a 9a 95 3d 61 0f a0 3e 77 08 5d 3d e4 c5 fc 3e
       0.073048666 0.31261733 0.05396315 0.4936973
000050 59 9d ec 3e d9 dc e4 3e 66 fb 6a 3e bd 90 d7 be
       0.46213797 0.44699743 0.22947463 -0.42102614
000060 91 69 02 be 69 28 ac 3d b2 9c 22 3d 01 31 98 3e
       -0.12735583 0.08406145 0.039700218 0.29724887
000070 78 9c bf ba 56 78 f3 3e 17 6b 15 bd 4e ee 0c 3f
       -0.0014618775 0.47552747 -0.036479082 0.55051124
000080 b8 e6 00 bd 58 43 a3 3e 81 99 c1 3e bb 1b 6b be
       -0.03147003 0.31887317 0.37812427 -0.22959797
000090 11 7e cf 3e 6d 3a 8f bd e3 b4 a7 be 22 98 bc be
       0.4052587 -0.06993566 -0.32755193 -0.36834818
0000a0 1e 36 e6 3e 56 ea ab 3e 35 a7 ab be bf 1e 8f 3e
       0.44963163 0.33577222 -0.33526006 0.27953145
0000b0 11 dd ea be d5 83 04 3f aa 6c ec be 95 6b 0b bf
       -0.45871785 0.5176366 -0.46176654 -0.5446103
0000c0 61 d2 d5 3e 9c d8 11 3f 3f 7f 94 3e bf e7 9c 3e
       0.4176207 0.56971145 0.2900333 0.30645558
0000d0 fe 92 f6 be 80 9b ce 3e 4f fb 55 3e 38 32 d0 3e
       -0.4815902 0.40353012 0.20896648 0.40663314
0000e0 d5 62 e2 be 00 aa 80 be 64 4a 03 be 6c a9 10 bf
       -0.44216028 -0.251297 -0.12821347 -0.5650852
0000f0 2a 90 bd be c7 ba 1f 3e b5 f2 80 3c 9c 2b 63 3e
       -0.3702405 0.15598594 0.015740732 0.22184604

encoder.layers.0.nn.net.2.weight f4 [64, 64]
000000 66 be 17 bb 26 31 f1 bd cf 72 07 3d ec f6 cc bd
       -0.0023154258 -0.117769524 0.033068474 -0.10008034
000010 75 a3 a7 bb 7c d5 d7 bc 56 dd c9 3d 27 2e e9 3d
       -0.005115921 -0.026346914 0.098566696 0.11385756
000020 ce cc 7e 3d bf c1 7a bd 9e 59 50 bc 40 75 5c bb
       0.062207036 -0.061219927 -0.012716679 -0.0033639222
000030 38 d9 11 3d ef ed db bd 4a 8e 1d bc 6d 17 94 bc
       0.035607547 -0.107387416 -0.009616444 -0.018077577
000040 13 92 f9 3d 89 80 d3 3d 7d b9 f4 3a 1e 13 de bd
       0.121860646 0.103272505 0.0018671002 -0.1084349
000050 aa c3 c9 bc ef cc 72 bd 2c 6d 98 bd 1c 6c d6 3d
       -0.024629433 -0.05927747 -0.07442698 0.10469839
000060 13 97 94 3d 66 13 75 bd 52 36 df bd fd e1 9c bc
       0.072553776 -0.059832953 -0.10899033 -0.019150728
000070 ab 28 0e 3d 18 c6 34 bd da 6b c1 bd 7b ee e0 bd
       0.034706753 -0.04413423 -0.09444399 -0.109829865
000080 e6 b3 82 bd e1 93 79 3d b1 75 9b bd 18 a8 37 3c
       -0.06381969 0.060932044 -0.07590807 0.01120951
000090 09 ef df bd 6c 4f 94 bc 91 d4 9b bd 61 0e bf 3d
       -0.10934264 -0.018104278 -0.07608903 0.093289144
0000a0 96 69 7d bd 0e 62 9c 3d 01 5b 83 bd 72 d5 ea bd
       -0.061868273 0.0763589 -0.06413842 -0.11466493
0000b0 11 80 52 3d c0 94 ae bc d2 3d 7a bd 99 e3 ca 3d
       0.051391665 -0.021311164 -0.061094113 0.09906692
0000c0 ad 52 f5 3d 7f ec 04 bd 28 5b f6 3c 86 da 5f 3c
       0.1197866 -0.032452103 0.030072764 0.01366294
0000d0 12 3f 8f 3d b3 9b e9 3c 39 8f bc 3d af 8e 78 3d
       0.069944516 0.028516626 0.09207005 0.06068295
0000e0 de dd f3 bd c0 63 c6 3c cf 7a 9f 3d 86 7e 84 3d
       -0.11907552 0.024217486 0.07787096 0.06469445
0000f0 a2 c1 3a bd d4 29 cd bd d3 41 b4 3c de 84 e6 bd
       -0.04559482 -0.10017744 0.022004044 -0.11255811
000100 3c a1 48 bc 23 7a c0 bc 2e 48 89 3c ba 1f b6 bd
       -0.0122454725 -0.02349574 0.01675805 -0.0889277
000110 3a cf 3d 3d 81 79 bd bc b1 86 be bd 7b b6 db 3a
       0.046340205 -0.023129227 -0.09303034 0.0016762757
000120 61 6c c0 bd f8 37 76 bd 89 40 cb 3d 40 cc 66 3d
       -0.09395672 -0.06011197 0.099244185 0.05634713
000130 2c 90 ba 3d bf a6 8a bd 8e a7 99 bd 2c 43 f4 3d
       0.0910953 -0.067700855 -0.07502662 0.119268745
000140 5d ed d3 3d ad 75 04 3d b2 af f1 3d e8 a7 14 bd
       0.10348008 0.032338787 0.11801089 -0.03629294
000150 29 05 40 bc d5 0e 28 bc 93 8e 83 3d fd 65 fc 3d
       -0.01171998 -0.0102574425 0.06423678 0.1232414
000160 e2 65 d2 bc 7d 4c cd 3d de 19 ad ba 62 98 8b bd
       -0.025683347 0.100243546 -0.0013206562 -0.06816174
000170 4b 5e 12 bd 4c bb c4 3d 51 58 a9 bd 2f 07 20 bd
       -0.035734456 0.096060365 -0.08268798 -0.03906935
000180 84 3e 7d 3d 13 b4 f5 bd 43 79 82 bd e6 9e ae 3c
       0.061827198 -0.11997237 -0.06370785 0.021316003
000190 0a 80 e4 bd 82 3c 15 bd 61 71 ed bc 6f 91 40 3d
       -0.11157234 -0.036434658 -0.028984727 0.047013696
0001a0 aa 88 09 3d bd 01 aa bd 73 2f a8 bd 73 ca 35 bd
       0.0335776 -0.08301113 -0.08212175 -0.044382524
0001b0 69 ad dd 3d fa 22 67 3d 60 52 d7 3d 48 9d 86 3c
       0.10824091 0.05642984 0.10513759 0.01643242
0001c0 3b 2d 7b bb 0f c3 e8 3d 40 02 fd bc 5a 2f f6 bc
       -0.003832652 0.113653295 -0.030884862 -0.030051876
0001d0 f9 45 87 3d 0f 45 e4 bd f5 ac f1 bd a5 7f 9c bc
       0.06605143 -0.111459844 -0.11800567 -0.019103834
0001e0 77 5c e4 bb 74 d0 de bd d5 98 9b 3d b6 13 d5 3d
       -0.0069690305 -0.10879603 0.0759751 0.1040415
0001f0 4a a8 d8 bc a8 9f d3 3c 49 68 37 3c 1a e8 77 bd
       -0.026447434 0.025832966 0.011194297 -0.060524084
000200 16 b3 ff bc 6d 33 85 3d 43 a0 16 3d 44 74 ad 3d
       -0.031213325 0.06503949 0.03677393 0.084694415
000210 ce 09 a8 3d 7e a6 4d 3d ed dd 56 bc 9e e9 e5 3d
       0.08204995 0.050207607 -0.013114435 0.112261996
000220 7b b1 88 bd aa dd ab 3d 07 a1 36 bd c4 e7 c3 3d
       -0.06674477 0.083918884 -0.04458716 0.0956569
000230 ad aa d4 3c 7d 90 9c 3c 35 84 cd bc 57 8f cb bd
       0.02596029 0.019111866 -0.025087455 -0.09939449
000240 33 9a a9 bc be 27 bf bc fd c5 89 3d 8f 00 94 bd
       -0.02070341 -0.02333438 0.067272164 -0.07226669
000250 a5 47 ab 3d 15 ef e2 3d ea ea cb 3d b4 a6 a5 3c
       0.083632745 0.110807575 0.09956916 0.020221092
000260 25 64 a7 bd e0 5c 9d bc 01 ce 97 3c 9e 08 38 3c
       -0.08173398 -0.019209325 0.018530848 0.011232523
000270 ab be d0 3d 92 fa a5 3d b6 ae 7c bd bf 98 8e bc
       0.10192617 0.08104433 -0.061690055 -0.01740682
000280 10 5e 17 3d 96 d2 8b 3c b8 8b d3 bd ac b6 91 bd
       0.03695494 0.017068189 -0.103293836 -0.0711492
000290 f1 fb d0 3d 7e da a4 3d 32 a2 bb bd 8e 98 b1 bc
       0.10204304 0.080494866 -0.09161796 -0.021679189
0002a0 94 0e 95 bd 82 0a 5d bd 39 8e 95 bc b0 2e 8b 3d
       -0.07278171 -0.0539651 -0.018256294 0.06796014
0002b0 70 1e 0e 3d bb 18 de 3d 10 b9 1a bc 82 60 ad 3d
       0.034696996 0.10844561 -0.009443536 0.08465673
0002c0 fa 3c f4 3d 2b 30 16 bd 57 9b 1e bd 79 9d c3 bd
       0.11925693 -0.03666703 -0.038722362 -0.0955152
0002d0 f0 37 b2 3c bd d2 f7 3d 8c 88 51 bd 01 1c e9 3d
       0.021755189 0.12100742 -0.051155612 0.113822944
0002e0 81 eb b1 bd 3d c0 99 bd 51 6f 92 3d de ba c3 3d
       -0.08687497 -0.0750737 0.07150138 0.095571265
0002f0 a4 72 61 bc 30 62 7a 3c e4 41 de bd 79 34 2e bd
       -0.013760243 0.015282199 -0.108524114 -0.04253051
000300 e2 0e bf 3c f1 44 0b bc 33 66 7a bc 1e 6b fb 3c
       0.023322526 -0.008500324 -0.015283155 0.030690726
000310 88 d5 49 bd 7d 68 c6 bd cc 9e 3b bd f0 ec 96 3c
       -0.049275905 -0.09687898 -0.045805737 0.018423527
000320 36 fc b6 bd 28 b5 8c bc ca e3 ab bd 00 3f 0f 3c
       -0.08934824 -0.017176226 -0.08393057 0.008743048
000330 54 fc 00 be 1a c8 3f bd a0 cd 4f bc 24 85 d2 bd
       -0.12596256 -0.04682169 -0.012683302 -0.10279301
000340 54 69 0a bb e1 ce 84 3d d5 28 61 3d 87 b7 dd 3d
       -0.002111991 0.064847715 0.05497058 0.10826021
000350 e5 77 91 bd c6 48 02 be 15 6e 13 bd 9d 27 cd bc
       -0.07102946 -0.12723073 -0.035993654 -0.025043303
000360 b6 90 8a bd 80 49 e6 bc f6 e8 1b 3c b2 38 8a bd
       -0.06765883 -0.02811122 0.009515991 -0.06749095
000370 43 de c6 bc 5c 67 c0 bb a2 cc f0 3b a2 9d 93 3d
       -0.024275905 -0.0058716964 0.007348613 0.072078004
000380 83 b2 c3 bc 6d db e9 3d 85 e4 f9 3c 93 fc 9a 3d
       -0.023888832 0.11418805 0.030504474 0.07567706
000390 d9 14 d0 bd 83 93 be bb 9a 9c bc bb c8 df e8 3c
       -0.101602264 -0.0058159246 -0.005755973 0.02842702
0003a0 77 98 d3 bd 5d 14 4a bd 0a 71 99 3d 36 75 a0 3d
       -0.10331815 -0.049335826 0.074922636 0.07834856
0003b0 b2 01 00 bc ab 72 ca bd 89 01 f5 bd 08 d3 eb bb
       -0.007812904 -0.098851524 -0.119631834 -0.0071967877
0003c0 1e 0d bc bd 17 04 90 bd 6a 8b d4 bd d8 c3 47 3d
       -0.091821894 -0.0703203 -0.103781536 0.048770756
0003d0 b0 55 f3 bc 44 93 e5 3d e0 df 7f bd f9 2a b1 3d
       -0.029703945 0.11209729 -0.062469363 0.086507745
0003e0 8f 5b 28 3d ba 84 7c bd c7 ac 77 bd 35 f9 15 bd
       0.041102942 -0.061650015 -0.060467508 -0.036614615
0003f0 e1 9e 6d 3d 80 8d 20 bc 75 99 a3 3d dd c5 64 3d
       0.058012847 -0.009799361 0.07988254 0.05585276

encoder.layers.0.nn.net.2.bias f4 [64]
000000 e7 61 92 3d 6a ec e6 3d da 0c 18 3d 6b da ee bd
       0.0714758 0.11275561 0.03712163 -0.11662754
000010 87 fd eb 3d 18 da 82 3d e7 b3 96 bd 4f 91 c2 bd
       0.11522966 0.06389254 -0.073585324 -0.09500372
000020 e0 d4 aa bc 84 b2 cb 3d 7d 2d ce bd 46 90 f4 3c
       -0.02085346 0.099461585 -0.1006727 0.029853951
000030 dd 80 48 3d c3 28 ac 3a fe 68 fb bc 59 d3 83 3d
       0.04895102 0.0013134707 -0.030689713 0.06436796
000040 fb a0 b6 bd 20 78 c6 3d 95 8f 4f 3d 85 bf 41 bd
       -0.08917423 0.09690881 0.05067404 -0.047301788
000050 64 e4 1e bc d9 41 63 bd 32 ab 80 3d 67 c4 39 3d
       -0.009698007 -0.05548272 0.06282653 0.04535332
000060 45 1a 1b bc c2 ca 78 bd d9 3d b1 bd 6e f4 82 3d
       -0.009466712 -0.06074024 -0.08654375 0.063942775
000070 cf d0 45 3d ff 80 e0 3d 99 66 c3 3d 29 e7 f2 bc
       0.04829484 0.10962104 0.09541053 -0.029651241
000080 51 27 62 bd 6d ed 50 bd 18 77 73 bd c4 b9 d2 bd
       -0.055213276 -0.051007677 -0.05943975 -0.10289338
000090 b6 5e 40 bd ce 41 d7 3d 92 9d 3a bc af 08 a6 3d
       -0.046965323 0.10510598 -0.011390107 0.08107125
0000a0 64 b2 80 3d 92 04 ee 3d 05 64 8b 3c 52 13 ef 3d
       0.06284025 0.116219655 0.017015466 0.11673607
0000b0 b0 69 7b 3d d8 70 8a 3d 11 99 be 3d 71 50 de 3d
       0.06138009 0.067598045 0.09306539 0.10855187
0000c0 c8 a6 88 bd 10 a8 49 bd 88 fb f1 3b 84 42 d6 3c
       -0.06672436 -0.049232543 0.007384721 0.026154764
0000d0 e9 0a 25 3c f8 02 d0 bd 0e 57 b4 bd e3 a2 d5 3d
       0.010073402 -0.10156816 -0.08805667 0.10431459
0000e0 05 d1 a0 3d 51 2b 9c 3d d0 c4 00 3e 66 fd 0f 3d
       0.07852367 0.076254494 0.12575078 0.03515377
0000f0 e6 6e 79 bd 7d 59 3b 3d 65 ed 3f bc 4e 01 a7 3d
       -0.060896777 0.04573964 -0.011714314 0.08154546

encoder.layers.1.nn.net.0.weight f4 [64, 64]
000000 1e b7 b9 3d 12 03 b9 3d 70 e8 11 bd 0a 2a 71 bc
       0.0906813 0.09033789 -0.03562206 -0.014719496
000010 67 4d b7 bd fa 60 7f bd d3 04 43 bc 02 18 d6 bd
       -0.0895031 -0.062348343 -0.011903006 -0.10453798
000020 1f 5c c2 bc 3c 83 bd 3d 72 c1 02 3e ce 21 f9 bc
       -0.023725567 0.092535466 0.12769106 -0.030411627
000030 b0 9f 46 bc 45 db 0c 3d 8b 82 4a bd 7a d1 b4 3d
       -0.012123033 0.0343888 -0.0494409 0.08829017
000040 2e 24 f5 bd 8b 16 96 bb 18 bc d3 3b da 48 e2 bd
       -0.11969791 -0.004580324 0.0064616315 -0.110490516
000050 2f 52 0e 3d 55 93 cd bd c7 0c be bd 55 c9 dd bd
       0.034746345 -0.10037867 -0.09279781 -0.10829417
000060 19 43 d1 bd 81 cb e5 bd 60 72 01 bb cf 9c a7 bc
       -0.10217876 -0.11220456 -0.001975201 -0.020460514
000070 e8 e0 e2 3c 83 cc c5 3d b2 16 90 3d b3 c5 ea 3c
       0.027695134 0.09658148 0.07035579 0.028658723
000080 f5 54 c7 bd c9 e7 cd bc e6 fb 79 3c 1d c1 24 3d
       -0.09733001 -0.025134938 0.015257811 0.04022323
000090 89 0e 14 3d ba c2 5c 3d 3d 0d 30 bd c2 20 5e 3c
       0.036146674 0.053896643 -0.042981375 0.013557615
0000a0 ec cd 8e bd 45 88 02 be 77 40 38 bd 08 a6 de 3d
       -0.0697287 -0.12747295 -0.044983353 0.10871512
0000b0 89 76 8e 3c 44 2a 61 3d d8 64 c1 bd 47 27 b2 3d
       0.017390506 0.05497195 -0.094430625 0.08698898
0000c0 03 11 3e bd 21 92 e6 3c bd a5 20 bd fa 45 90 bd
       -0.046402942 0.028145852 -0.03922056 -0.07044597
0000d0 ca db 85 3d 00 e3 98 bd 09 3a f2 3d e3 73 b3 3d
       0.06536062 -0.07465172 0.118274756 0.08762338
0000e0 dd ec ad 3d a9 ed f2 bd d4 9a 96 3d de f9 fc bd
       0.08492444 -0.11861736 0.0735375 -0.12352346
0000f0 9f 44 0b ba 07 40 0b 3d 18 66 c2 3d 7b e9 65 3d
       -0.00053126545 0.033996608 0.09492129 0.056130867
000100 ba cb e0 bc 27 cb 09 bd 2c 83 00 3e 9e 67 f7 3c
       -0.027440894 -0.033641007 0.12550038 0.030200776
000110 3c af ce 3d 11 36 f9 3d 80 72 f7 3c bb 2c 27 3d
       0.10092017 0.121685155 0.030205965 0.040814143
000120 88 2d 9c bd 1c 2e a6 bc c5 c5 1e 3d 46 b7 e2 38
       -0.07625872 -0.020285659 0.038762826 0.00010810657
000130 35 95 0a 3c e9 7b 1f bd 5a 6c e9 bc 9c cd c8 bc
       0.008458425 -0.03893653 -0.028494049 -0.024512105
000140 a6 3e b4 bd 4d da b0 3d 4f c0 18 bd ef 1b cc bd
       -0.08801012 0.086353876 -0.037292775 -0.099662654
000150 a5 f3 07 bd f7 af e5 3d 86 a3 db bc 6e bc f5 bc
       -0.033191342 0.11215203 -0.026811372 -0.029997077
000160 28 32 a7 3d 7d a0 b0 3d e4 85 8b bc f9 87 dd 3c
       0.081638634 0.08624361 -0.017031617 0.027042376
000170 57 fa 34 3d 83 e7 b9 3d f4 c1 5e 3d d2 f7 b2 3b
       0.044184055 0.090773605 0.054384187 0.0054616714
000180 35 c4 fa 3d f8 71 3c bd 3f ab 41 3d bf 1d d9 bc
       0.12244455 -0.046007127 0.047282454 -0.026503442
000190 9c b9 fd bd 14 ba 9a 3a b1 32 80 bd 7f f3 b9 3d
       -0.12388918 0.0011804723 -0.062596686 0.09079646
0001a0 81 9d 2d bd 54 bd 96 3c dc f0 c9 bd 73 bc 4b b9
       -0.042386536 0.018400826 -0.098603934 -0.00019429791
0001b0 8c 5a 94 3d 02 fc 56 bd 4c f1 e1 bd ba b4 c1 bb
       0.07243833 -0.052486427 -0.11032352 -0.005911437
0001c0 8e d4 83 bd c0 66 14 bd db 14 8c bd 10 65 e1 3d
       -0.06437026 -0.036230803 -0.06839915 0.11005604
0001d0 4c 4b 56 3c 39 d2 0d 3e 8b 01 61 bc c7 95 03 3e
       0.013079476 0.13849725 -0.013733278 0.12850104
0001e0 87 5f 86 bd e4 ba d3 3d e9 f9 90 3d c9 e0 97 bd
       -0.06561189 0.10338381 0.070789166 -0.07415921
0001f0 a7 91 8a bb 6b c6 9c 3d 62 7e e9 bb 7c 5e bd 3d
       -0.004228789 0.07655033 -0.0071256617 0.09246537
000200 21 a5 d5 3d 14 97 e6 bd 01 0c cd 3b e7 91 ba bd
       0.104318865 -0.112592846 0.0062575345 -0.0910986
000210 21 cd 0c bd 1b 56 b7 bd af b4 a4 3d d1 c3 b9 bd
       -0.034375314 -0.0895197 0.08042275 -0.09070552
000220 24 3f 24 3d fb cd 40 3d 0e 52 72 3d c8 b2 27 3d
       0.040099278 0.04707144 0.059160285 0.040941983
000230 bd 92 a1 bd 37 15 7e bd ff de ae 3d 63 53 d4 bd
       -0.07889316 -0.06203195 0.08538627 -0.10367467
000240 2c b8 96 3c 20 4e e8 bd 43 b5 96 bd b3 10 b9 bc
       0.018398367 -0.11343026 -0.07358792 -0.02259097
000250 51 c2 c6 3d 4b c0 e2 bd 07 ee 0a 3d 8c d6 b1 3c
       0.09705032 -0.11071833 0.033918407 0.02170875
000260 08 56 02 be 8a a4 23 3d ec dc f5 3c 71 11 28 bc
       -0.12728131 0.03995184 0.03001257 -0.010258065
000270 27 d2 50 3d 39 c1 75 3d 99 cf a3 3d 9b 31 1e bc
       0.050981667 0.059998725 0.079985805 -0.009655382
000280 0e da 37 bd 69 b6 0e 3c 27 2f 87 bc 5e 83 e5 3d
       -0.044885688 0.008710482 -0.016501976 0.11206697
000290 c4 d3 85 3c 0d 05 66 bd 8d f8 eb bd 12 65 67 3d
       0.01633633 -0.05615716 -0.11522017 0.056492873
0002a0 40 43 37 3d 87 eb dc 3d 9a d5 83 bd 5b 1d c6 bd
       0.04474187 0.10787111 -0.06437226 -0.09673568
0002b0 2e d6 85 bd 2d dd df 3d 84 47 f2 bd 92 ae 5e bd
       -0.06534992 0.10930858 -0.11830047 -0.054365702
0002c0 e7 40 1c bd db 5d e4 3d ba 8f dd 3d 21 2c 9a bd
       -0.038147833 0.11150714 0.10818429 -0.07527948
0002d0 02 ba f8 3d 8d 75 cb 3c 95 4d e1 bd 40 55 75 3d
       0.12144853 0.024836326 -0.11001126 0.059895754
0002e0 9b 45 ca 3d 33 0c 83 3d 49 52 e7 bd 87 5c 35 bd
       0.098765574 0.06398811 -0.112949915 -0.044277694
0002f0 c3 72 24 bd 69 91 c9 3d 87 14 bf 3d a8 7b 8d bc
       -0.040148508 0.09842188 0.09330087 -0.017270878
000300 2c 9f d9 bc 48 3a d2 3d 4f 89 df bd 8c 9e 44 bd
       -0.026565157 0.102650225 -0.109148614 -0.048002765
000310 3d 65 a4 bc 26 c5 89 bc 06 cd b0 3c 46 fd d8 bd
       -0.020067805 -0.01681764 0.021582138 -0.10595183
000320 bd 64 98 3d ff 87 ba 3d 48 7c 7e bc 59 75 8b 3d
       0.07441089 0.091079704 -0.015532561 0.06809492
000330 5c 80 d5 bd 74 29 54 bd a4 96 92 bd ff 65 8b bc
       -0.10424873 -0.051797345 -0.07157639 -0.017016409
000340 e1 e9 e5 3d 13 5d 7f bd da 01 c6 3d 95 cf 5c 3c
       0.112262495 -0.062344622 0.09668322 0.013477226
000350 56 26 d3 bd c2 e0 71 bd ec d2 be bc 4b 59 b0 3d
       -0.103100464 -0.059052236 -0.023293935 0.08610781
000360 ab 34 2a 3d 26 48 02 bb be 3d 82 bd 8a 08 c4 bd
       0.041554134 -0.001987943 -0.06359433 -0.09571941
000370 6d 3d 4c 3d 20 09 d0 3d 8f 10 3f 3d 17 a1 cb bd
       0.049863268 0.101579905 0.04664665 -0.09942835
000380 ac 1a 4f bc d5 d7 a0 bd 4e 7e 5e 3d e0 29 5f bd
       -0.012640636 -0.07853667 0.054319672 -0.054483294
000390 c1 70 f1 bd 28 09 86 bd 85 25 9e bd 9d 72 8c bd
       -0.11789084 -0.06544715 -0.07722 -0.06857798
0003a0 a6 8e f3 ba 61 ec d8 3d ed 92 b5 3b 00 66 95 bd
       -0.0018581941 0.10591961 0.0055411966 -0.072948456
0003b0 ad f0 dd bd ad 53 8b 3d 39 2a 0b bd 62 4f 86 3d
       -0.10836921 0.06803069 -0.033975814 0.0655811
0003c0 2d eb 23 3d e3 b1 cd 3d 6c 88 eb bd 05 b6 69 bd
       0.040019203 0.10043695 -0.1150063 -0.057058353
0003d0 4c 3c a3 bd 36 01 a6 bd 9b a1 82 3d fd 00 9e bc
       -0.07970485 -0.081057 0.0637848 -0.01928758
0003e0 9f 11 c2 3c 9a ae b2 bd c4 9f e0 3d 4c 1f 5c 3d
       0.023690043 -0.08724709 0.10967973 0.053740785
0003f0 c8 27 2b 3d a0 47 e1 bd 68 47 3a bc ea ec f6 bc
       0.041785985 -0.109999895 -0.011369564 -0.030142266

encoder.layers.1.nn.net.0.bias f4 [64]
000000 5e 6d 8a bb 0f fd 65 bd c0 f9 de bd 5a d5 fd 3d
       -0.0042244634 -0.05614954 -0.1088748 0.12394209
000010 4d 96 f0 bd 54 fc bc 3b b9 e5 be 3d e1 d3 b9 3d
       -0.117474176 0.0057673845 0.0932116 0.09073616
000020 d1 c0 b4 bd 44 70 cc 3d 17 18 cf bc e5 70 6e bd
       -0.08825839 0.099823505 -0.025280042 -0.058213133
000030 9d f9 a8 3d cb 1d 7b bc 08 2a 9a 3d 80 01 7d 3c
       0.08250735 -0.015326927 0.07527548 0.015442252
000040 63 31 78 bd 1b ea ce bd 68 2c 70 bd 1b e4 86 3d
       -0.060593974 -0.10103246 -0.0586361 0.065864764
000050 f2 37 e7 bd 45 f2 86 3a d0 d7 99 bd 9a ea a4 3d
       -0.112899676 0.0010295591 -0.07511866 0.08052559
000060 c9 8d cb 3c f1 6b 1d 3d 5a 27 24 3d 9c f8 48 bd
       0.024847882 0.03843302 0.04007659 -0.049065217
000070 2a 3e 5d bd cc 3a 74 3d 26 df b6 bd 42 b4 e9 3d
       -0.054014362 0.059626386 -0.08929281 0.114113346
000080 0a 44 93 bc 77 07 b8 3d fd 28 ee bd 17 5d e3 bd
       -0.01797678 0.08985799 -0.11628912 -0.1110174
000090 f5 1e ef bd 0d 49 dc bd 12 60 7e bd e8 de 8f 3d
       -0.116758265 -0.10756121 -0.06210334 0.07024938
0000a0 f1 45 59 3d 1f f7 f4 3d 93 05 a9 bd 6e 14 e4 bd
       0.053045217 0.11961197 -0.08253016 -0.11136709
0000b0 d9 0d df bd da 46 ad bd 26 e8 2c bd 07 35 0b 3e
       -0.10891313 -0.084607795 -0.04221358 0.13594447
0000c0 3c 6d d3 bd 34 d6 f7 3a 9d d1 01 be ec cd 4e ba
       -0.10323569 0.0018908442 -0.12677617 -0.0007888961
0000d0 b3 5a a6 bd 36 f0 c2 bd e1 d5 4e 3d 7a 24 75 3d
       -0.08122768 -0.09518473 0.05049694 0.05984924
0000e0 dd 20 d3 bd 2b 1e 81 3d 9e 85 a6 bd dc 77 39 3c
       -0.103090025 0.06304582 -0.08130954 0.011320081
0000f0 e7 f3 91 bd c1 05 16 bd 7d 08 a2 3d 6d c1 a2 bd
       -0.07126599 -0.03662658 0.07911775 -0.07947049

encoder.layers.1.nn.net.2.weight f4 [64, 64]
000000 92 8e e9 bc 35 d4 36 bd 76 6e 88 bd 1a ac c6 bb
       -0.028510366 -0.04463597 -0.06661694 -0.0060629966
000010 f9 d1 0b bc b4 cd bb 3d f8 74 8b 3d 09 7d e8 37
       -0.008533948 0.09170094 0.068094194 2.771478e-05
000020 7b 36 82 3d c2 b3 b3 bd 21 51 27 3c ac dd 1d bd
       0.063580476 -0.087745205 0.010212214 -0.03854148
000030 8a e9 f2 bd dc 1c d5 3c fb f8 a3 bb d5 bd ab bd
       -0.1186095 0.026014738 -0.005004046 -0.08385817
000040 33 f1 a3 3d cf c6 09 bc 30 50 bd 3d e3 d4 9b 3d
       0.080049895 -0.008409216 0.0924381 0.07608964
000050 f5 d5 f5 3d bc 96 c6 bd d6 4d ab bd e8 b6 df bc
       0.120037 -0.09696719 -0.083644554 -0.027308896
000060 5d ba 32 3d b2 af 96 bc 10 71 09 bd ef 39 66 3d
       0.04363476 -0.018394325 -0.03355509 0.056207594
000070 9d 0e 93 3d eb 14 06 3e 70 4a 9f 3d 9c 50 15 3d
       0.07180522 0.13093917 0.0777787 0.03645383
000080 84 9c 0d bb 5f fe cb 3c 43 33 06 bd 5e 89 aa bd
       -0.0021608183 0.024901567 -0.03276373 -0.08326982
000090 74 e4 ec bd bf f8 98 3d 5a 06 e7 bc 3c a1 82 bd
       -0.115670115 0.074693196 -0.02820127 -0.06378409
0000a0 af f3 b1 bd 69 24 9a bd c0 be e4 3d 4b 4a 52 3d
       -0.08689057 -0.07526476 0.11169195 0.051340383
0000b0 91 02 8f 3c f4 90 78 3c 60 26 86 bb 6a 29 3c bd
       0.017457278 0.015171278 -0.00409393 -0.045937933
0000c0 f4 de 2d bd 9c 81 f5 3d e1 ee aa 3d ce 6a e8 3d
       -0.042448953 0.11987612 0.08346344 0.113484964
0000d0 e3 02 7f 3d 83 92 a3 bc de 95 a0 3d 41 f4 f2 3c
       0.062258612 -0.019967323 0.07841085 0.029657485
0000e0 58 56 ef 3d f6 a1 32 bd 13 a4 92 bd a6 35 89 3c
       0.11686391 -0.04361149 -0.07160201 0.016749214
0000f0 30 eb 63 bd 56 ee c9 3d 18 57 88 3b 04 e2 ea bc
       -0.055644214 0.09859912 0.004160773 -0.028672226
000100 3c 1c 8b 3d f2 a7 1c 3d b0 a7 f3 bc eb da ea bd
       0.06792495 0.038246103 -0.029743046 -0.114675365
000110 1a 24 c0 3d 53 4f 90 bc 62 e1 fe 3d a5 c2 b7 3c
       0.09381886 -0.01761595 0.12445332 0.022431681
000120 d2 56 9a 3d 30 ab 50 bd c1 8f 84 ba 05 e9 dc bd
       0.07536091 -0.050944507 -0.0010113643 -0.107866324
000130 8f c4 cf 3b 4d 0e fb bc 4c 76 2e bc b8 a4 ba 3d
       0.0063405703 -0.030646468 -0.010648321 0.09113449
000140 f9 68 db 3c 5c e5 ba bd af 07 46 bd 7a 1b a5 bd
       0.026783453 -0.09125778 -0.04834717 -0.08061881
000150 f2 97 93 3d bd c2 19 3d d5 45 e6 bc 7f 9d e6 bd
       0.07206716 0.037539233 -0.02810947 -0.11260509
000160 8e 2d 25 bc 48 44 71 3d 0e 20 c2 3d bd be e8 3c
       -0.010081662 0.05890301 0.0947877 0.028411264
000170 da dc 03 be de 31 0f bc 4e 01 d4 3d 2c 6c 80 3d
       -0.12877217 -0.008739917 0.10351811 0.06270632
000180 21 4e e6 bd 6a db ca bc 10 f1 24 3d 82 0d c9 bc
       -0.11245371 -0.024762828 0.040268958 -0.024542574
000190 52 c5 ad 3d a1 59 1f 3d 71 69 9f 3d 25 52 70 bd
       0.084849015 0.038903836 0.07783783 -0.05867209
0001a0 06 ef ce 3d 62 6e 4c 3d ce 99 7c bb bd 24 50 3c
       0.10104184 0.049909957 -0.0038543823 0.012704072
0001b0 77 f3 07 bd fb b8 92 bc 63 78 a7 3c 76 50 a9 3d
       -0.03319117 -0.017910471 0.020443147 0.082673
0001c0 c6 d9 ca 3c b9 ca ac 3c 04 99 de 3c 02 64 8b bd
       0.024762046 0.02109276 0.027172573 -0.06806184
0001d0 13 e5 11 3d d5 ee 89 3c da 8b 45 bd 08 5d d7 3d
       0.035618853 0.016837517 -0.048229076 0.10515791
0001e0 d3 d7 91 3d 5b f0 d4 bd 6d 6d 7e bd 7c ed b0 bc
       0.07121243 -0.10397407 -0.062116075 -0.021597616
0001f0 31 14 84 3d c6 e7 07 3d 52 e6 cd 3c f7 0d 0c bd
       0.06449164 0.03318002 0.02513424 -0.034193005
000200 72 04 be bd 74 da ba 3d 2b 0d b5 bd 2c 7f 8a bd
       -0.092781916 0.09123698 -0.08840402 -0.06762537
000210 c9 e6 e8 3c 9c b5 d4 3c 3a c3 32 3d 57 32 05 3e
       0.02843036 0.025965504 0.043643214 0.13007484
000220 22 5d 8d bd 2d cc da 3d 00 09 b2 3d c5 9b 59 bd
       -0.06902529 0.10683475 0.08693123 -0.05312707
000230 5d b9 ad 3d c9 a0 c4 3d 08 9e 8e bc fb aa ad bd
       0.08482621 0.0960098 -0.01740934 -0.084798776
000240 f0 01 b5 3d f7 87 d1 3d ef 21 c3 3a 7e e6 8c bd
       0.0883826 0.10231011 0.0014887432 -0.068799004
000250 15 d3 0f bd d5 fe d9 bd ca 8a e8 3a 06 28 17 bd
       -0.035113413 -0.106443085 0.0017741558 -0.036903404
000260 d2 35 2f 3d 52 55 d4 bd d1 66 8b 3d 4b cc 06 3d
       0.042775936 -0.10367836 0.0680672 0.032909673
000270 c5 8a f1 3d 87 9d ec bd 06 a8 df 3d 54 e2 d7 bd
       0.11794046 -0.115534835 0.1092072 -0.105412155
000280 76 bb 0f bd 19 f2 1c 3c 51 dd dc bd 2d 37 fc 3c
       -0.035090886 0.009579205 -0.107844 0.030788029
000290 13 90 94 bd 92 81 be 3d f9 51 6d 3d 2f ff 89 bd
       -0.072540425 0.09302057 0.057939503 -0.067381255
0002a0 aa f8 32 3c 38 e9 8b bd 9f 9e bf 3c b1 37 44 3d
       0.010923544 -0.06831592 0.023391066 0.047904674
0002b0 cf be c6 3d 21 9c bd bd c9 5b 02 ba 40 2b 14 bd
       0.097043626 -0.09258295 -0.00049727835 -0.03617406
0002c0 8b e3 9e bc 7b 87 cb 3d 76 da ce bb 01 e9 21 3c
       -0.01939561 0.0993795 -0.0063126637 0.009882213
0002d0 08 83 c9 3c 04 3c 91 3c 42 d0 05 bd 41 31 e2 3d
       0.024598613 0.017728813 -0.032669313 0.11044551
0002e0 d1 cf d8 bc a2 70 aa bd a5 94 3b 3d 00 d6 f9 3c
       -0.026466282 -0.08322264 0.045796055 0.030497551
0002f0 50 e9 73 bc ee 3a fe bd 16 e1 c8 3d 5e 86 46 3d
       -0.014887169 -0.12413584 0.09808557 0.048467986
000300 21 3f 7d 3d 22 49 d5 3c e0 71 f1 bd 8a b7 6a 3d
       0.061827783 0.026035849 -0.11789298 0.057303943
000310 ce 91 e5 bd ee b4 f4 3d 39 df d1 bd 77 dd b5 3d
       -0.11209451 0.11948572 -0.102476545 0.08880132
000320 3c be 1f bd 73 2f 05 3d e9 02 57 bd 08 f8 d5 bd
       -0.03899978 0.032515954 -0.05249301 -0.10447699
000330 40 95 dc bd dd 95 f0 bc a7 24 af bb 37 f7 50 bd
       -0.10770655 -0.029368335 -0.0053449455 -0.051017012
000340 a2 30 63 bc 31 8a 51 3c 24 66 35 bd d4 f5 c4 bd
       -0.013866575 0.012789295 -0.044286862 -0.096172005
000350 cc 34 98 3d db f4 90 3d 20 46 90 bc 98 7a 50 bc
       0.07431945 0.070779525 -0.017611563 -0.012724541
000360 eb 49 71 3d 47 85 d1 3d 20 6d 07 be 3b 6e 88 bd
       0.058908384 0.10230499 -0.13225222 -0.0666165
000370 54 24 ae bd 6a 53 c0 bd 25 58 42 bd db 74 65 3d
       -0.08503023 -0.0939091 -0.047447342 0.056019645
000380 cc a2 7c bd 3c 51 3d 3d f1 3b 5a bd be 2e db 3d
       -0.061678693 0.04622005 -0.05327982 0.10702275
000390 8a 80 0a bd 76 21 cd 3c 25 9e 0a bd 81 a9 df 3d
       -0.03381399 0.02504037 -0.033842225 0.10921002
0003a0 12 41 f8 3c a8 92 79 bd b9 02 89 bc b5 61 e9 bd
       0.030304465 -0.060930878 -0.016724931 -0.11395589
0003b0 09 3e 97 3d 13 79 08 bd ba 4d 96 bc de d1 97 bd
       0.07384879 -0.03331859 -0.01834761 -0.07413076
0003c0 ec 7a 8f bd 81 4d 3f bd 93 37 b0 3c 6e 61 d3 3d
       -0.07005867 -0.046704773 0.021510875 0.103213176
0003d0 a6 7a 9b 3d 68 b3 65 3c ff 9e 91 3c 50 0a c2 3c
       0.07591753 0.014019825 0.01777601 0.023686558
0003e0 88 5b 75 bd e1 cd 80 3d 81 70 b1 ba d5 f6 95 3d
       -0.059901744 0.06289268 -0.0013537557 0.0732247
0003f0 a2 79 e9 3d 39 09 84 3c ec 89 f6 bd 63 d8 2d 3b
       0.11400153 0.016117679 -0.12038025 0.0026526682

encoder.layers.1.nn.net.2.bias f4 [64]
000000 32 71 09 bd 0d 8c e1 bd 8e a5 fb bc e0 50 5b bd
       -0.033555217 -0.11013041 -0.030718591 -0.053543925
000010 9a 38 db bd bd b0 f6 3d e5 de bd bc 92 70 34 bd
       -0.10704155 0.12045429 -0.023177573 -0.044052668
000020 29 5d ff 3b 8b 16 c4 3d db 18 e3 3c 50 bb bc 3d
       0.007793088 0.09574612 0.027721813 0.092154145
000030 4a 4e d9 3d e3 73 ff 3b 8c 56 a0 bd b8 8f fa bd
       0.106106356 0.007795797 -0.078290075 -0.122344434
000040 e1 ac 07 3d e2 82 4f 3c 9b de 94 3d 9b b3 34 bd
       0.033123855 0.012665482 0.07269021 -0.044116598
000050 6a ea eb 3d 68 1d d4 3d 9b a8 f8 3d b7 8d d0 3d
       0.1151932 0.10357171 0.12141534 0.1018328
000060 2e 27 d1 bd cf 51 04 3c 01 db 5d bd b5 17 91 3d
       -0.10212551 0.008076145 -0.054163937 0.070846
000070 70 e7 2d 3d bd da a7 3c 50 a0 be 3c ec d9 d0 bc
       0.042457044 0.020490045 0.023269802 -0.025494538
000080 d9 66 5b bc f3 fa 4b bd 24 ca b7 37 88 c5 a6 3d
       -0.01339122 -0.04979987 2.1909429e-05 0.08143145
000090 46 30 24 3d b7 4d 19 3d 35 28 a5 bc 7a da 85 3d
       0.0400851 0.03742763 -0.020160774 0.06535812
0000a0 8c 5d f0 bd 2b f4 ba 3d d5 c7 94 bc 0b a6 b3 bd
       -0.11736593 0.091286026 -0.018161694 -0.087719046
0000b0 9c fe 05 3b 2b 94 4c bd af 85 1d bd 0c df 9a bd
       0.0020445948 -0.04994599 -0.03845757 -0.07562074
0000c0 f8 e4 4f 3b cd a9 17 3d 5e 38 c1 3d 14 77 7f bd
       0.003172217 0.03702717 0.09434579 -0.06236942
0000d0 07 93 71 bd f4 44 a4 bd e4 a3 dd 3d 18 6f 91 3d
       -0.058978107 -0.08020964 0.10822275 0.071012676
0000e0 55 ae be bb 85 8d 38 bd 5b cb 67 bd 5a 86 ab 3d
       -0.005819122 -0.04505684 -0.05659042 0.08375235
0000f0 ca 35 be 3d bb 83 b2 bc fd 30 f6 3d 0b ee 9c 3d
       0.09287603 -0.02179133 0.120210625 0.076625906

encoder.layers.2.nn.net.0.weight f4 [64, 64]
000000 32 3a d1 bd 99 33 4d 3d 70 93 0d bd 14 13 26 3d
       -0.10216178 0.050098035 -0.034564435 0.040545538
000010 71 55 1a bc c6 be 1f bd 56 9d 37 3c e0 eb 18 bd
       -0.009419785 -0.039000295 0.011206945 -0.037334323
000020 e4 ab c0 3c 2c d6 97 bd 0b 6f d7 bd 10 e6 bd bc
       0.023519464 -0.07413897 -0.10519227 -0.023180991
000030 e5 19 95 3d 67 1a 3c 3d 46 7d ea 3d 3c 2d 69 bd
       0.072803296 0.045923617 0.11449675 -0.056927904
000040 12 7d b1 bb 9d d0 15 bd 51 08 e2 3c 4e 96 2f bd
       -0.005416521 -0.036575902 0.027591856 -0.04286795
000050 49 99 9f 3d c4 3c f1 bd 3b 8e 9e 3d fd 6c b4 3d
       0.07792909 -0.11779168 0.07741972 0.0880985
000060 58 27 61 3d 7a 18 cf 3c a5 c2 d2 3d 7a 23 18 3d
       0.05496916 0.025280226 0.10291032 0.037143208
000070 ae 14 60 3d 50 0d d3 3d 93 5a ea bc 58 6d a2 bd
       0.05470722 0.103052735 -0.028607642 -0.07931012
000080 2c f6 d9 bd 4a 67 ba bd 9e 01 43 3d ca f8 7a 3d
       -0.10642657 -0.09101732 0.047608964 0.06127242
000090 29 94 2c 3d 74 5c 83 bd e5 ff b4 bc 19 81 71 bc
       0.042133484 -0.064141184 -0.022094676 -0.014740252
0000a0 9b f0 24 bd 31 37 54 bd aa 4d 34 3d e9 ae a8 3d
       -0.04026852 -0.051810447 0.04401938 0.082364865
0000b0 1a 3d 5b 3d 17 91 d1 3d 9a f2 97 bd 20 e6 cc bd
       0.053525068 0.10232752 -0.074193195 -0.1000483
0000c0 a7 f0 2a 3d 95 cf 0a be 0e eb e2 3d 24 31 93 3d
       0.04173341 -0.13555749 0.110799894 0.07187107
0000d0 1a 7b 9c bd 20 99 c1 3d 02 cc e9 bd 7b 1c 1e bd
       -0.07640667 0.094530344 -0.114158645 -0.03860138
0000e0 23 7c 19 3d 5b 36 1a bd 4e 3a 9d bd b4 65 7b 3d
       0.0374719 -0.037649494 -0.07677136 0.06137629
0000f0 56 e5 67 bd 87 33 e8 3d df 3b ab 3d e2 cd 45 3d
       -0.056615196 0.11337953 0.08361029 0.04829205
000100 2d 58 ee 39 70 5c ad bd 2e 2e e7 bd 07 80 de bd
       0.00045460594 -0.08464897 -0.11288105 -0.10864263
000110 4e 61 81 bb 11 4a ea 3d b1 ce 8d 3c e6 93 b7 bd
       -0.003948367 0.11439908 0.017310472 -0.08963756
000120 f7 fa e0 bd 47 80 cc bd e5 32 81 3d 70 c0 16 bd
       -0.10985368 -0.099854045 0.063085355 -0.036804616
000130 5a f4 63 3d 5a 73 63 3c c8 38 b3 bb 9c 32 00 3e
       0.055652954 0.013882482 -0.0054694153 0.12519306
000140 99 71 f2 bd 56 49 d8 3d 01 25 d2 bd 22 36 ca bd
       -0.11838073 0.10560863 -0.10260964 -0.09873606
000150 42 c5 e1 bd 79 e8 82 3d 1a 07 01 3d dd 74 99 bd
       -0.11023952 0.06391997 0.031500913 -0.07492993
000160 77 4d 28 bc ed 80 ec bd 8f 55 29 bd d2 49 11 bd
       -0.010272375 -0.11548028 -0.04134136 -0.03547079
000170 25 e4 bb bd f4 3d 3c bd 91 90 87 bd 39 37 37 3b
       -0.091743745 -0.04595752 -0.06619371 0.00279565
000180 78 41 d6 3d e8 49 04 3e f0 5d ec 3d 9e d1 2f bb
       0.10461706 0.12918818 0.11541355 -0.0026827822
000190 b0 70 59 3d 9f 04 92 3d df 15 d8 bd 13 43 15 bb
       0.053085983 0.07129788 -0.105510466 -0.0022775575
0001a0 95 9e 9d 3c dc 47 e8 3d ae 22 45 3d 9a a8 01 3c
       0.019240657 0.11341831 0.048128776 0.007913733
0001b0 ed 12 75 bd 15 ca 73 bd fe a3 78 bd d0 bb 57 bd
       -0.059832502 -0.059518892 -0.06070327 -0.052669346
0001c0 77 86 97 bd 81 9f cb bd 2e d5 c0 3d ce 80 e2 3d
       -0.07398694 -0.09942532 0.09415661 0.11059724
0001d0 4e 84 c9 bc ac 8e cd bd c3 a9 e5 bd 4f 5c 68 bd
       -0.02459922 -0.10036978 -0.1121402 -0.056728657
0001e0 ad 5a fa 3d 14 4a bb 3d 81 31 9d bd 75 df 19 3d
       0.12224326 0.09144989 -0.07675458 0.03756662
0001f0 2c 64 db bc 3b df 78 bd be 28 a3 bb 59 dc c5 bd
       -0.026781164 -0.060759764 -0.004979222 -0.096611686
000200 6e d1 f8 3d da a4 76 bd cb dd fa bc cb 83 d6 3d
       0.121493205 -0.06021581 -0.030623337 0.10474356
000210 5f 7b 3f 3c a2 a8 c0 3d b7 10 90 3d d8 46 07 be
       0.011687129 0.09407164 0.07034438 -0.13210618
000220 f1 e1 9b bd 38 69 77 bc 32 56 68 3c e6 51 ab bd
       -0.07611454 -0.01510077 0.014180707 -0.0836523
000230 96 28 94 3d c9 4f 9f 3d 6e 0f 7c 3d 1b 21 86 bd
       0.07234304 0.0777889 0.061538152 -0.06549283
000240 ed e0 5e bc e0 61 b3 bd 58 e0 34 3d da 9b 5a 3d
       -0.013603431 -0.087589025 0.044159263 0.053371288
000250 d3 f5 a6 3d 4f 20 a1 bd ff 6f 6e 3d 70 7f c5 3d
       0.08152356 -0.078674905 0.058212277 0.096434474
000260 aa 61 d8 bd dd 38 f8 bd c9 35 e7 bd 52 f4 8a 3d
       -0.10565503 -0.12120221 -0.112895556 0.06784882
000270 fe fb 95 3c 65 1d 99 bd 38 ed d2 3c 7d 55 e0 bd
       0.018308636 -0.0747631 0.02574788 -0.109538056
000280 ae 3e d3 3d a4 73 bb 3d 87 a1 e8 3d 08 de a4 bc
       0.103146896 0.09152916 0.11358934 -0.020125404
000290 9b 79 fe 3c 7a 0e b9 bc 88 3b 9a bd 67 60 d2 bd
       0.031063845 -0.02258991 -0.07530886 -0.102722935
0002a0 9d 86 d2 3d 42 40 3e 3c 97 13 c2 bd 8f ed 8b bc
       0.10279582 0.011612 -0.09476393 -0.01708105
0002b0 c5 8d ca bd 4d 0d c0 3d ed fa e3 3d 4f 22 df bd
       -0.09890322 0.09377537 0.11131845 -0.10895216
0002c0 23 7a 45 3d 07 60 5b 3d 84 94 33 3d 42 07 0b 3b
       0.04821218 0.053558376 0.043842807 0.0021214043
0002d0 3f bd 53 3d da a0 c1 3c 6b 66 55 bd c7 e9 00 3e
       0.05169415 0.02363627 -0.052099627 0.12589179
0002e0 23 ca 9b bd eb 62 ee 39 1b 47 60 bd 82 27 9e bd
       -0.07606914 0.00045468597 -0.05475531 -0.07722379
0002f0 74 40 b7 bd e5 bc ab 3d 7d e6 86 bd 27 49 42 3d
       -0.0894784 0.08385638 -0.06586931 0.047433045
000300 d9 25 c8 3d f3 ed 29 bc d5 b8 99 3c 82 53 87 3c
       0.09772844 -0.010371673 0.018764893 0.016519312
000310 97 10 d5 3c 60 e1 29 bd 61 b0 ef bd 19 30 4d 3d
       0.026008887 -0.0414747 -0.117035635 0.050094698
000320 de 45 8e 3d 18 53 24 3d 90 9e eb 3d 25 69 84 bc
       0.0694692 0.040118307 0.11504853 -0.016163418
000330 c3 75 b6 3d 7f 2c 11 bd 0a 00 bb bb 92 a0 9e bd
       0.0890918 -0.035442825 -0.0057067918 -0.0774547
000340 8d 4b a3 3c 0d 60 79 bc 32 52 f4 bd 10 63 b3 bc
       0.019933486 -0.015220654 -0.1192974 -0.021897823
000350 be e4 9f bc 43 05 b4 3d a0 74 dc 3d c7 52 89 3d
       -0.019518252 0.08790066 0.10764432 0.06705242
000360 c4 69 5c 3c c7 a5 90 bd 3d 86 07 3d 97 43 f4 3b
       0.013452951 -0.070628695 0.033087004 0.0074543464
000370 b2 3c 85 bd 50 eb 88 39 0a 1d e8 bd 81 95 95 bd
       -0.06505717 0.00026115263 -0.11333664 -0.07303906
000380 09 50 c5 3c de c2 85 3d 33 d3 f9 bd 4a 03 8e bc
       0.024086015 0.065313086 -0.12198486 -0.017335553
000390 e9 12 a3 bd 05 b4 9e 3b 5b 3e e9 bd ed a4 88 bd
       -0.07962591 0.0048432373 -0.113888465 -0.06672082
0003a0 ff ef 1b bd 8c 27 84 bd 29 46 c9 bd 72 21 c6 3d
       -0.038070675 -0.064528555 -0.09827835 0.09674348
0003b0 9c 80 de 3b ba 8a 00 be 8a fb 80 bd 84 bd ac 3d
       0.006790234 -0.1255292 -0.06297977 0.08434585
0003c0 a6 34 5c bd f7 fd 3f 3d 69 81 8a bc 9d 38 8d 3b
       -0.053761147 0.04687306 -0.01690741 0.0043097273
0003d0 56 9f cd bd 7f d3 e0 3d 5e 0c a1 3d 37 92 f3 bd
       -0.100401565 0.1097784 0.07863687 -0.11893123
0003e0 d0 f7 7b bd ea 08 82 bd a2 93 de 3d 91 87 ec 3c
       -0.06151563 -0.063493565 0.108680025 0.028873237
0003f0 34 6e 9f bd 33 2d 62 3c 0d d8 e0 bc d3 1a ee bd
       -0.077846915 0.013804722 -0.027446771 -0.1162621

encoder.layers.2.nn.net.0.bias f4 [64]
000000 d4 7c ae bd e6 2c 9b bd 71 31 d4 bd 55 74 67 3a
       -0.08519903 -0.07576923 -0.10360993 0.00088292855
000010 f5 7b 95 bd 19 e2 04 bd 13 bf 01 bc 7b c1 b0 bc
       -0.072990336 -0.032442186 -0.007919091 -0.021576634
000020 f8 6f 03 be f8 3c f9 3d cb a4 a7 bc e3 2a 03 be
       -0.12835681 0.12169832 -0.020464322 -0.12809329
000030 6c 16 4b 3a 16 13 e5 bd 13 0d dc 3d 21 11 fc 3c
       0.00077471766 -0.11185281 0.10744681 0.030769886
000040 9c 66 e2 bc ea 49 6e bd 92 b8 8c 3b 35 f4 7a bd
       -0.027636819 -0.05817596 0.0042944634 -0.06126805
000050 c7 74 8b bd c4 4a ef bb 68 f7 e5 bd ab 2a 8c 3d
       -0.06809383 -0.007302614 -0.112288296 0.06844076
000060 e9 b5 de 3c 25 96 12 3d c5 07 e9 bd 63 a7 fc bc
       0.02718635 0.03578772 -0.11378435 -0.030841535
000070 a9 20 98 bd 77 e7 66 3c 59 84 d2 3d da 4e 83 3d
       -0.074281044 0.014093271 0.102791496 0.06411524
000080 4d a6 a7 3d a5 12 6e 3d e3 f8 53 bd 44 b0 a3 3d
       0.08186016 0.05812325 -0.05175103 0.079926044
000090 0d 88 a0 bd 60 b7 40 3b de 80 10 bd 29 2f fe bb
       -0.078384496 0.0029406175 -0.035279147 -0.007757087
0000a0 df fc db 3c 01 b6 1f 3d c4 14 7d bd bb 12 b2 bc
       0.026853977 0.03899193 -0.06178738 -0.021737447
0000b0 99 7f fa bd 42 ad 57 bb ae 56 97 3d c1 83 b5 bb
       -0.122313686 -0.0032909666 0.0738958 -0.005539388
0000c0 6d c2 33 bd c1 fe 05 be e8 b1 36 bd a9 c8 b2 bd
       -0.04388659 -0.13085462 -0.04460326 -0.08729679
0000d0 d5 cc 8e bc a9 d5 db 3d 46 65 28 3d cb 8c d7 3d
       -0.017431656 0.10734112 0.041112207 0.10524901
0000e0 7c f4 53 3d 83 83 a5 bd b5 6e 55 3d 91 d4 8e bd
       0.05174683 -0.080817245 0.05210753 -0.069741376
0000f0 34 b8 a8 bd 06 00 90 bd c8 75 93 bd d3 e1 2e 3d
       -0.08238259 -0.070312545 -0.07200199 0.04269583

encoder.layers.2.nn.net.2.weight f4 [64, 64]
000000 c3 15 68 3d e1 81 30 3d 1a 09 9a 3d 88 c4 ba 3d
       0.05666138 0.043092612 0.07521267 0.091195166
000010 fb 5d fc bc 86 50 95 3b 1f 29 8c 3c 7a ac 82 bd
       -0.030806532 0.0045567183 0.017109452 -0.063805535
000020 f6 d6 9d 3d 67 95 b7 3d f1 ba 02 3e d1 1d 60 3d
       0.07707016 0.08964043 0.12766625 0.054715935
000030 bd 6c 73 3d b9 da f5 3d fa 52 84 3c 1e 2f a0 bd
       0.059429873 0.12004609 0.016152848 -0.07821487
000040 e5 54 81 bd e6 ce f6 bd 7f 23 2e 3a fc 44 da bd
       -0.063150205 -0.120511815 0.00066428626 -0.10657689
000050 96 8e 5b 3d c8 47 f1 bd d9 09 9d bb d3 16 d7 bd
       0.053602777 -0.11781269 -0.0047924337 -0.105024
000060 39 31 a2 bc 53 63 2a 3d 03 ac a6 3c 39 17 a2 bd
       -0.019798862 0.04159863 0.020345693 -0.079145856
000070 db 18 0f 3c e4 ad a8 3d ea 91 d7 bd 86 c6 d2 3c
       0.008733953 0.08236292 -0.10525878 0.025729429
000080 7e 5b 9f bc 8d c9 cb 3c d3 a0 ea bd 40 18 09 bd
       -0.019452807 0.02487638 -0.11456456 -0.033470392
000090 2d 3c 56 3d dd e2 aa bd 86 93 e7 3c fa 28 aa bd
       0.05230348 -0.08344052 0.028268587 -0.08308597
0000a0 7b 22 9d 3d 96 b0 a5 3d b3 65 20 3c 06 83 dc bd
       0.07672592 0.08090322 0.009789872 -0.10767178
0000b0 a6 61 b0 bb d4 28 31 3d a1 14 53 bc 0d 15 eb 3c
       -0.0053827344 0.043251827 -0.012883336 0.028696561
0000c0 6a 98 d1 bd ff 91 2c 3d 30 ba 01 3e f4 bf 38 3d
       -0.10234149 0.04213142 0.12668681 0.045104936
0000d0 41 0d ea 3d 88 de 6c bd a5 b8 e6 3d c7 68 59 3d
       0.11428309 -0.05782941 0.11265687 0.05307844
0000e0 25 5f 25 3d 01 4d f9 bd fb b6 a2 bc af 69 54 bd
       0.04037394 -0.121728905 -0.019862643 -0.0518586
0000f0 c8 a8 57 bd 15 28 a6 3d 16 56 e2 bd e6 c5 bc bc
       -0.052651197 0.08113114 -0.11051576 -0.023043584
000100 ee 92 20 3d f6 3c e9 3d 74 22 62 bd a3 ad f0 3b
       0.039202623 0.113885805 -0.05520864 0.007344918
000110 19 71 d4 bd cc c2 95 3d 55 c5 83 3d 79 d8 bc bc
       -0.10373134 0.07312545 0.064341225 -0.023052441
000120 85 6b fd bd 87 be c7 3d dc e7 1b 3d e7 d0 4a bd
       -0.12374023 0.09753137 0.038062915 -0.04951563
000130 1d 23 b9 3d 9c 5f 97 bd 7b 3b 2f 3d 39 63 40 bd
       0.090399005 -0.07391283 0.042781334 -0.046969626
000140 71 34 11 3c 20 52 df bd 19 c7 7b bd aa f0 e0 bc
       0.008862601 -0.10904336 -0.06146917 -0.027458508
000150 c7 50 8d 3d ff f3 9f bd 0f ef 95 3d 14 04 aa 3d
       0.06900173 -0.078102104 0.073209874 0.08301559
000160 f8 1c 7e 3d cb 98 3f 3d ad 55 8e 3d 61 2f 25 bc
       0.062039346 0.046776574 0.06949935 -0.010082097
000170 ca ce ba bd fe 06 7c 3d 90 d0 bb bd 2b b1 9a 3d
       -0.09121473 0.061530106 -0.091706395 0.07553323
000180 07 c0 7f 3d c9 21 b7 bd 5c 22 7a 3c d6 2a aa bd
       0.06243899 -0.08941991 0.015266981 -0.083089516
000190 f3 77 c3 3d 77 dd fc bd cd d5 6e bd e5 17 40 3c
       0.09544363 -0.123469286 -0.058309365 0.011724447
0001a0 06 83 c4 3d fc 92 a8 3d 78 8b df 3d aa 43 a5 3c
       0.09595303 0.0823116 0.109152734 0.020173866
0001b0 57 1e df 3d f0 a9 9e bc 3f a4 01 be 2d f7 c3 bd
       0.10894459 -0.019368142 -0.12660311 -0.095686294
0001c0 2d 36 f9 bb cb ff f6 bd d3 55 d3 3d 22 6d 93 bc
       -0.007605335 -0.120605074 0.10319104 -0.017996375
0001d0 1e 30 7b bd 6b 51 e3 3c 87 85 ca bd 3a 22 35 bd
       -0.061325185 0.027748784 -0.098887496 -0.044222094
0001e0 c5 ae f3 3c 23 a3 c1 bd a7 4b f6 bc f3 66 9f 3c
       0.029746423 -0.09454944 -0.03006537 0.01945827
0001f0 8e 07 da bc 0f fc a3 3c 29 8b ec 3d 96 fb 39 bc
       -0.02661493 0.020017652 0.1154998 -0.011351487
000200 1d b1 da bd aa 1c 51 bd c1 ae af 3d a5 3e 96 bd
       -0.10678313 -0.051052727 0.085782535 -0.07336167
000210 09 2c cc 3d a7 9c bb bd df bd a7 3d fc 4e ae 3d
       0.099693365 -0.091607384 0.08190512 0.08511159
000220 54 35 84 bd 6e 8e 99 bb b9 e6 e9 3d 85 56 c6 bd
       -0.06455484 -0.0046861684 0.1142096 -0.09684471
000230 4b 0a 72 bd fa 56 97 3d e3 35 d8 bd 2e c1 0e bc
       -0.059091847 0.07389636 -0.10557153 -0.00871305
000240 95 74 54 3d 24 69 5f 3c 76 51 c4 bd bf 7c 4e bd
       0.051868994 0.013635907 -0.0958585 -0.050411936
000250 da 96 95 bd 58 de fe bc a7 22 a8 bc d0 f6 66 3d
       -0.07304163 -0.031111881 -0.020524336 0.056387722
000260 11 b5 2d 3d be 49 04 3c 79 59 5d 3b a4 c9 0d bb
       0.042409007 0.008074222 0.0033775254 -0.002163508
000270 9c bf 11 bd e8 04 27 3d e1 0a e4 bd 8d 2b 07 3c
       -0.035583124 0.040776163 -0.111348875 0.008250129
000280 da c8 aa bc 45 1f f4 3d d7 d3 c8 bd a4 db fa bd
       -0.020847727 0.11920027 -0.0980603 -0.122489244
000290 5b 55 ed bd 0a fa d1 3d 30 b2 62 bd d0 24 b3 bd
       -0.11588546 0.10252769 -0.055345714 -0.08747256
0002a0 39 80 5e bd 80 f6 a7 bb 8d cc 81 3d 8c 66 c9 3d
       -0.0543215 -0.0051258206 0.06337843 0.098340124
0002b0 ab bc 85 bd 81 9d bf bc 10 a0 b4 bd 42 8d 87 3d
       -0.06530126 -0.023390533 -0.08819592 0.0661874
0002c0 70 48 d6 3d d2 eb a1 bd 52 ec 35 3d 1d 96 53 3c
       0.10463035 -0.07906307 0.044414826 0.012914208
0002d0 90 68 e6 3d 52 23 a0 3d eb d5 99 3d dd 56 9b 3d
       0.112504125 0.07819237 0.07511505 0.07584927
0002e0 39 ac 1d 3d eb 19 d0 3d dc 39 c7 3d f0 82 86 3b
       0.038494322 0.101611935 0.09727833 0.0041049644
0002f0 c6 7c b4 3d dc e5 bd bd 25 ed 88 3d 0b 1e d5 bd
       0.08812861 -0.09272358 0.06685857 -0.10406121
000300 47 1c 45 3d d3 c2 13 bc 09 32 98 3d b4 1c da bd
       0.04812267 -0.009018618 0.074314184 -0.10650006
000310 a5 68 b4 bd d9 c0 12 bd 65 4e 92 3d e1 2d af 3d
       -0.08809022 -0.035828445 0.07143859 0.085536726
000320 67 d5 8a bd 85 58 e4 bd dc 94 d4 3c ee 03 df bd
       -0.067789845 -0.11149696 0.025949888 -0.108894214
000330 a1 e5 e3 bc 15 5f cb bd 74 3a b4 bd 92 be f2 bd
       -0.027819457 -0.09930245 -0.088002115 -0.11852755
000340 57 c1 f3 3c b1 80 d5 3d fc 89 90 3c ee 47 83 bd
       0.029755278 0.104249366 0.017643921 -0.06410204
000350 4e 67 ba bd 5d 0b db bd 66 5a 61 bb bc 9e fe 3c
       -0.09101735 -0.10695527 -0.0034386157 0.03108155
000360 2c 8c 2d 3d 09 31 17 3c 6e 59 32 3d db 93 ba 3d
       0.042370006 0.0092279995 0.043542318 0.091102324
000370 64 77 dd 3c 55 37 db bc 3f 98 85 3d e0 f8 0b be
       0.027034469 -0.026759783 0.06523179 -0.13669157
000380 9b 8f e3 3d 69 72 63 bd 94 d4 cb bc e5 68 93 bd
       0.11111375 -0.055529032 -0.024881639 -0.071977414
000390 da 00 ee 3c 56 d0 8b bd c9 a5 3a bd 44 d3 7a bd
       0.02905314 -0.06826846 -0.04556826 -0.061236635
0003a0 b6 f5 b6 bc 6a aa bb bc bb 46 ad bd 0c 57 d0 bd
       -0.022333961 -0.022908408 -0.084607564 -0.10172853
0003b0 d0 d9 71 3c fc 00 72 bd b0 3c 58 3d e8 4d 44 bd
       0.014761403 -0.05908297 0.05279225 -0.04792586
0003c0 f3 13 83 bd c4 d4 be bb 7f 3f f6 3c 77 b9 af 3d
       -0.064002894 -0.0058237035 0.030059574 0.085802965
0003d0 73 ba 54 bd 95 75 7b 3d e3 83 52 3c e4 69 e3 bd
       -0.051935624 0.06139143 0.012848827 -0.111041814
0003e0 b8 50 82 bc 16 5c f9 bd 30 0d b0 bd e8 00 7e 3d
       -0.01590763 -0.12175767 -0.08596265 0.062012583
0003f0 c8 a1 6b 3d b5 57 f1 bd c7 25 37 bd 8c cf d2 bd
       0.057527333 -0.11784307 -0.04471376 -0.10293493
