scripts/embeddings_gin_version2/ENZYMES/gin_dim64_ep100_lr0.0005_drop0.3/gin_classifier.pt (torch, 177117 bytes, 42 tensors)

encoder.layers.0.nn.net.0.weight f4 [64, 3]
0	0xbe49f98f	-0.19724105
1	0x3d1556d4	0.03645976
2	0x3f028f8e	0.510003
3	0x3ea8685a	0.32892114
4	0x3e8d66b3	0.27617416
5	0xbef46e20	-0.4774027
6	0xbddd9d8d	-0.10821066
7	0x3edab19c	0.4271363
8	0xbe2447a2	-0.16042951
9	0x3dc9e996	0.09859006
10	0xbe3b09d3	-0.18265466
11	0xbf03977d	-0.5140303
12	0xbe64502e	-0.22296211
13	0x3d77b647	0.060476568
14	0x3bb90b97	0.0056471336
15	0x3e2ce2fc	0.16883463
16	0x3eb05a16	0.3444373
17	0x3d99b941	0.075060375
18	0x3e454924	0.19266182
19	0x3d88c60b	0.06678399
20	0xbf0029e3	-0.50063914
21	0xbea46e5d	-0.3211545
22	0xbe2482ed	-0.16065569
23	0x3e0d0350	0.13770795
24	0xbeb468c1	-0.3523617
25	0xbe95ca53	-0.29255924
26	0xbd7fc29f	-0.062441465
27	0x3e9f425a	0.3110531
28	0xbea4bba0	-0.32174397
29	0xbdb26eeb	-0.08712562
30	0x3db085c4	0.08619264
31	0xbd8031d8	-0.06259507
32	0xbdfd065e	-0.1235473
33	0xbe4b1340	-0.19831562
34	0xbcaaf95b	-0.020870855
35	0xbe714341	-0.23560812
36	0xbe698597	-0.22804867
37	0xbecfb827	-0.40570185
38	0xbf0a49f2	-0.5401908
39	0xbe99e861	-0.30060104
40	0xbecfc6c5	-0.40581337
41	0x3e349fc9	0.17639078
42	0x3ebe7076	0.37195176
43	0x3ea96e4c	0.33091962
44	0xbee9b747	-0.45647642
45	0x3e3ed654	0.18636447
46	0x3e4bfd18	0.19920766
47	0xbebea601	-0.37236026
48	0x3f0a7077	0.5407786
49	0xbebc7efa	-0.36815625
50	0xbd76901a	-0.06019602
51	0xbdcb06f0	-0.099134326
52	0x3dd40718	0.103529155
53	0xbf177478	-0.5916209
54	0x3ece5b9b	0.40304264
55	0x3ed7d705	0.42156234
56	0xbf063cbc	-0.52436423
57	0x3d54fa00	0.05199623
58	0xbecdc2dc	-0.40187728
59	0xbe589165	-0.21149214
60	0xbf1d0e35	-0.61349803
61	0x3ea42ff5	0.32067838
62	0xbec88c54	-0.39169562
63	0x3e097f18	0.13427389
64	0x3e0c3c66	0.13694915
65	0xbf09aeaa	-0.5378214
66	0xbf0c4682	-0.54795086
67	0x3f0dd58e	0.55403984
68	0xbcc02812	-0.023456607
69	0xbeaeb031	-0.34118798
70	0xbc2f5295	-0.010700841
71	0x3e0fbe67	0.14037476
72	0xbe26f536	-0.16304478
73	0x3f13aaeb	0.57682675
74	0x3e134923	0.14383368
75	0xbdb0b427	-0.08628111
76	0xbef620d7	-0.4807193
77	0xbd5ee86f	-0.054420885
78	0xbe93a434	-0.28836215
79	0xbee5d772	-0.44890934
80	0x3edf29d9	0.43586615
81	0x3eb9999c	0.36250007
82	0x3e11a262	0.142221
83	0x3e48c5bc	0.1960668
84	0xbd816228	-0.0631755
85	0x3ec63bd1	0.3871751
86	0x3cf39b68	0.02973719
87	0x3c98e99d	0.018666083
88	0x3e8f22f6	0.2795636
89	0xbe5b8caf	-0.21440385
90	0xbec1e819	-0.3787239
91	0xb98f2593	-0.0002730308
92	0xbf0c4507	-0.5479283
93	0xbeab6624	-0.33476365
94	0xbea5ca52	-0.3238092
95	0xbef94a39	-0.4868944
96	0x3f04c651	0.51865107
97	0x3d85f7b3	0.065413855
98	0xbefe1792	-0.49627358
99	0x3ef671a5	0.4813358
100	0x3edc21c6	0.42994517
101	0x3e4f2b10	0.20231271
102	0x3ecc29b9	0.39875582
103	0xbf0918dc	-0.5355356
104	0xbf0699e0	-0.52578545
105	0x3f0f3630	0.5594206
106	0x3e0c5f8f	0.13708328
107	0xbe799747	-0.24374114
108	0x3e93a201	0.28834537
109	0xbefe642f	-0.4968581
110	0x3e1cd23a	0.1531457
111	0xbe2f9563	-0.1714683
112	0xbeb29509	-0.3487933
113	0x3f0ed0e3	0.55787486
114	0x3ee758c3	0.45184907
115	0x3e38a27f	0.18030737
116	0x3ebdea5e	0.3709287
117	0x3f1647f0	0.5870352
118	0xbecbea01	-0.39826968
119	0xbea3c8ee	-0.31989235
120	0xbf20007b	-0.62500733
121	0xbe0f6609	-0.14003767
122	0x3e1c83e7	0.15284692
123	0xbe4992d0	-0.19684911
124	0xbe899e3a	-0.2687853
125	0xbe7f5895	-0.24936135
126	0x3e74ed84	0.2391873
127	0x3ed623a2	0.4182406
128	0x3bb4baa6	0.0055154143
129	0xbf157523	-0.5838186
130	0x3e218726	0.15774211
131	0xbef962f4	-0.48708308
132	0xbdef3e37	-0.116817884
133	0xbf072f05	-0.5280612
134	0x3ef2569c	0.47331703
135	0x3d0152da	0.031573154
136	0xbeef7f91	-0.46777013
137	0xbdf8b163	-0.12143209
138	0x3efe62a6	0.49684638
139	0x3e3bd038	0.18341148
140	0xbe873c0a	-0.26412994
141	0x3eadcadf	0.3394384
142	0xbed6529f	-0.4185991
143	0xbda356ef	-0.07975566
144	0xbdcae2f1	-0.09906567
145	0x3e6974e5	0.22798498
146	0x3eb75e61	0.35814193
147	0xbf024923	-0.5089285
148	0xbeaa75e2	-0.33293062
149	0xbdd607fc	-0.10450742
150	0xbf1798ae	-0.59217346
151	0x3edc6a68	0.43049932
152	0xbeca0528	-0.3945706
153	0x3e4822b1	0.19544484
154	0xbef8d79f	-0.48602006
155	0x3ca40cf9	0.020025717
156	0xbe5b6b21	-0.21427585
157	0xbe06d53a	-0.13167277
158	0x3bba49b5	0.005685056
159	0x3ee398a4	0.44452393
160	0xbdb6fd29	-0.08935005
161	0xbe1b132f	-0.15144037
162	0x3e37d32a	0.17951646
163	0xbdd347c9	-0.10316426
164	0xbe37a417	-0.17933689
165	0xbecf46d2	-0.4048372
166	0xbd275b48	-0.040858537
167	0x3e896daf	0.26841494
168	0x3d9ec1db	0.07751819
169	0xbe7b86de	-0.24563166
170	0xbe937f50	-0.2880807
171	0x3ec61e4f	0.38695
172	0xbe9228af	-0.28546664
173	0xbef2d6ca	-0.47429496
174	0x3d68190b	0.056664508
175	0x3f073793	0.52819175
176	0x3f00c44e	0.5029954
177	0xbde77f86	-0.1130362
178	0x3e3ec600	0.18630219
179	0x3e9cffc5	0.30663887
180	0x3e404232	0.18775252
181	0xbdf24ddb	-0.11831256
182	0xbebba432	-0.3664871
183	0x3ea9ee10	0.3318944
184	0x3dfacb7e	0.12245844
185	0xbdcd178c	-0.10014257
186	0xbdf1a9ad	-0.11799941
187	0xbecb14a4	-0.39664185
188	0xbe138b8e	-0.14408705
189	0xbe12d8a0	-0.14340448
190	0xbf0a9b8e	-0.5414361
191	0x3e97080e	0.29498333

encoder.layers.0.nn.net.0.bias f4 [64]
0	0x3ea1e56c	0.31620347
1	0xbf11d0fb	-0.56959504
2	0xbc1954f3	-0.009358632
3	0xbea6fc1c	-0.3261422
4	0xbf121199	-0.570581
5	0x3ceafdf4	0.028685547
6	0x3efb7a31	0.49116662
7	0x3e2ebaa0	0.1706338
8	0xbe550203	-0.20801549
9	0x3e8ebd0d	0.2787861
10	0xbe979f89	-0.29613903
11	0xbf00cabb	-0.5030934
12	0xbe27a5f7	-0.16371904
13	0xbd048d5e	-0.03236138
14	0xbd971493	-0.07376971
15	0x3eb8f3f3	0.36123618
16	0x3e4c2053	0.19934206
17	0x3ecff383	0.40615472
18	0x3dac9937	0.08427661
19	0xbf00198f	-0.50039
20	0xbeb2b8aa	-0.34906512
21	0xbd717af0	-0.058955133
22	0x3ef4774d	0.4774727
23	0xbe599c1e	-0.2125096
24	0xbe59f7b4	-0.21285897
25	0xbe159121	-0.14606144
26	0xbc23b75e	-0.009992449
27	0xbf0005fb	-0.50009125
28	0x39f56247	0.00046803264
29	0xbe8dd61c	-0.27702415
30	0xbee5ec41	-0.4490681
31	0x3ea45488	0.32095742
32	0xbe138fb9	-0.14410295
33	0xbebf7515	-0.37394014
34	0x3f059d0e	0.5219277
35	0x3e98a1e4	0.29811013
36	0xbe9950bd	-0.2994441
37	0x3dee6376	0.116400644
38	0x3e328b90	0.17436051
39	0x3c9b85ca	0.018984694
40	0x3f0d1812	0.55114853
41	0x3f140d87	0.5783314
42	0x3ee75de3	0.45188817
43	0xbec04a03	-0.37556466
44	0x3eeedfc1	0.46655086
45	0xbf0dfcfd	-0.55464154
46	0x3eb104b9	0.34573916
47	0x3a343d31	0.00068755733
48	0xbf134c0d	-0.5753792
49	0x3e18cc4f	0.14921688
50	0xbe4743ee	-0.19459507
51	0x3ec63787	0.3871424
52	0xbed8b4b1	-0.42325357
53	0x3e874c03	0.2642518
54	0x3e13e8eb	0.1444432
55	0xbeed8740	-0.4639225
56	0xbed2a4b2	-0.41141278
57	0x3ef1cdea	0.47227412
58	0x3ea4f061	0.32214645
59	0xbf142eaf	-0.57883734
60	0xbe0220e3	-0.12707858
61	0x3efa3867	0.48871157
62	0x3df15da7	0.11785441
63	0x3eea9ebe	0.45824236

encoder.layers.0.nn.net.2.weight f4 [64, 64]
0	0x3d922bf4	0.0713729
1	0xbdb5c100	-0.088747025
2	0xbd876722	-0.06611468
3	0xbdad74af	-0.08469521
4	0x3d3fa904	0.046792045
5	0xbb338857	-0.0027394497
6	0xbdcb8c5c	-0.09938881
7	0xbdf9912c	-0.121858925
8	0xbb6ea540	-0.0036414415
9	0xbdbb3896	-0.09141652
10	0xbdc1bdae	-0.09460007
11	0x3df628f4	0.1201953
12	0xbc9e0e48	-0.01929392
13	0x3dd8a7f0	0.105789065
14	0xbbc784e7	-0.0060888412
15	0x3dc1fab7	0.09471648
16	0xbd314f77	-0.043288674
17	0x387f9b35	6.0941285e-05
18	0xbdd04941	-0.10170222
19	0x3dcfb278	0.10141462
20	0xbd2c0ef2	-0.04200644
21	0x3c8e04dc	0.017336302
22	0xbd17cbbc	-0.03705953
23	0xbdb2121d	-0.08694861
24	0xbdfed7e1	-0.124435194
25	0xbdd22c5e	-0.102623686
26	0xbd96d48b	-0.07364758
27	0xbdcddd92	-0.10052027
28	0xbd48f16e	-0.04905837
29	0xbd01f4d8	-0.03172764
30	0xbbf6d140	-0.0075322688
31	0x3d8d0793	0.0688621
32	0xbd554b18	-0.052073568
33	0x3dfcd1f7	0.12344735
34	0x3db5cee7	0.08877354
35	0xbd28a798	-0.041175455
36	0xbb877b72	-0.004134589
37	0xbd969431	-0.07352484
38	0x3d410d17	0.047131624
39	0xbd37d8d3	-0.044884514
40	0xbd8b5fc2	-0.06805374
41	0xbe01eb63	-0.12687449
42	0x3db71842	0.08940174
43	0xbd9297ec	-0.07157883
44	0xbdcd5708	-0.100263655
45	0xbdf2f286	-0.11862664
46	0x3c9c37d4	0.01906959
47	0xbe01aaf2	-0.12662867
48	0x3c61a293	0.013771671
49	0xbcf188b8	-0.029484138
50	0xbd64c165	-0.055848498
51	0x3cbada73	0.022809243
52	0xbc06d3f0	-0.008229241
53	0x3d883cf6	0.066522524
54	0x3d43e24a	0.047823228
55	0x3db4a52a	0.08820565
56	0x3c51fc96	0.012816569
57	0x3d5c9ecc	0.053862378
58	0xbd7ee8f1	-0.06223387
59	0xbd93a8ab	-0.07209905
60	0xbd7fa1e1	-0.06241024
61	0xbc3e6f28	-0.011623181
62	0xbdef363d	-0.11680267
63	0x3d620fad	0.05519073
64	0x3a56597c	0.00081767864
65	0xbdebc848	-0.1151281
66	0xbb9a1172	-0.0047017867
67	0xbdcad148	-0.099031985
68	0xbdb612a4	-0.08890274
69	0x3d69a892	0.057045527
70	0xbd871595	-0.06595913
71	0xbc3775cb	-0.011197518
72	0xbcd38078	-0.025818095
73	0x3cc68579	0.024233567
74	0x3c87aeff	0.016562937
75	0xbd9c19f8	-0.07622141
76	0xbdb170a6	-0.08664064
77	0x3df45f17	0.119321994
78	0x3d06e6f9	0.032935116
79	0xbda891c0	-0.082309246
80	0xbb2cbdcf	-0.0026358252
81	0xbdefb62c	-0.117046684
82	0x3cff2584	0.031145819
83	0xbdb48dce	-0.088161096
84	0x3dc1e687	0.09467798
85	0x3d4b9aa0	0.04970801
86	0x3dd9efe1	0.106414564
87	0x3dc13f49	0.09435899
88	0x3da04f6c	0.078276485
89	0xbd1fed70	-0.039044797
90	0xbda5c3db	-0.08093997
91	0x3d3a3be2	0.045467265
92	0x3c2b98d6	0.010473451
93	0xbd24caf7	-0.040232625
94	0xbce572b0	-0.028008789
95	0x3d14142a	0.036152042
96	0x3dd741d9	0.10510606
97	0xbd4f3242	-0.05058504
98	0x3cb9f25e	0.022698577
99	0x3cd4e769	0.025989251
100	0x3d7761b9	0.06039593
101	0xbd8cf6a0	-0.068829775
102	0x3e08a91e	0.13345763
103	0x3daefe92	0.08544649
104	0xbd1b8745	-0.0379708
105	0xbd66a30f	-0.05630785
106	0xbdf1648e	-0.117867574
107	0xbd354840	-0.044258356
108	0x3e0faf25	0.14031656
109	0xbc8ac100	-0.016937733
110	0x3debd903	0.11516001
111	0x3dd9bbb1	0.106315024
112	0xbdeb0727	-0.114759736
113	0xbc234a80	-0.009966493
114	0xbca5219c	-0.020157628
115	0xbc1d7c86	-0.009612208
116	0x3b86a780	0.004109323
117	0x3df13d79	0.11779303
118	0x3dbe6c1f	0.09297966
119	0xbdf9f37c	-0.12204644
120	0xbe1d7263	-0.15375666
121	0xbaed23ef	-0.0018092374
122	0x3dfc2ada	0.12312861
123	0x3da97d26	0.08275823
124	0xbcff55bd	-0.031168813
125	0x3d49503d	0.049148787
126	0xbdf4e157	-0.11957043
127	0xbd6bd7bc	-0.057578787
128	0xbd1ccb9e	-0.038280122
129	0x3e0391e9	0.12848629
130	0xbda9fb2e	-0.08299862
131	0x3d52a5f9	0.051427815
132	0xbba243e0	-0.004951939
133	0x3dc5e501	0.0966282
134	0xbdb8d412	-0.09024824
135	0x3e041ed9	0.12902392
136	0x3d84a794	0.064772755
137	0xbd7902f3	-0.06079383
138	0x3d942f8b	0.072356306
139	0x3d81d56a	0.063395336
140	0x3b981a60	0.004641816
141	0x3dbc52fd	0.09195516
142	0xbd80674e	-0.06269704
143	0xbae74f10	-0.0017647464
144	0xbccda0f7	-0.025101168
145	0xbde73b7e	-0.11290644
146	0x3c149769	0.009069302
147	0xbdf448c0	-0.119279385
148	0x3d8985e0	0.06714988
149	0x3d145016	0.03620919
150	0x3d4afbd1	0.049556557
151	0x3d852580	0.06501293
152	0xbce9c027	-0.028534008
153	0x3a13e500	0.00056417286
154	0x3d398ad2	0.045298405
155	0x3dabab52	0.08382286
156	0xbdcb4b1c	-0.09926435
157	0xbd68567e	-0.05672311
158	0xbce8c2f8	-0.02841328
159	0xbddd7553	-0.108133934
160	0x3bad641d	0.0052914754
161	0xbdb1a98f	-0.08674919
162	0x3dc024ac	0.093819946
163	0x3d8bc219	0.068241306
164	0x3cb6258f	0.022234706
165	0x3d95bf05	0.07311825
166	0x3dcacfbe	0.09902905
167	0x3d19f1b2	0.037584014
168	0x3e294341	0.16529562
169	0xbda61da2	-0.08111121
170	0xbd9b4939	-0.075823255
171	0x3c95fb9a	0.01830845
172	0x3c28e751	0.010309056
173	0xbdb86b9e	-0.09004901
174	0x3d35f5b4	0.044423774
175	0xbda3a60e	-0.07990657
176	0x3d349419	0.04408655
177	0xbc416070	-0.011802778
178	0xbd0f60aa	-0.035004295
179	0xbdbc244c	-0.091866106
180	0xbd338c14	-0.04383476
181	0x3d99626a	0.07489474
182	0x3cfb3f64	0.030669875
183	0x3d6faad5	0.058512527
184	0xbdb14ea2	-0.08657576
185	0xbe004062	-0.1252456
186	0xbcbd2856	-0.023090523
187	0xbbb48daf	-0.005510054
188	0x3dbcfac8	0.0922752
189	0xbd7bb484	-0.06145145
190	0x3d9fdfb1	0.078063376
191	0xbce2b82e	-0.027675714
192	0x3dea9434	0.11454049
193	0x3d9041f7	0.07043832
194	0x3cff3574	0.031153418
195	0xbe07b310	-0.132519
196	0xbd7d1010	-0.061782897
197	0xbd39f9d7	-0.04540428
198	0xbdf8daea	-0.121511295
199	0xbcff2419	-0.031145142
200	0xbc6ea200	-0.014564991
201	0xbdf3e90e	-0.11909686
202	0xbca45b25	-0.020062992
203	0x3d491a68	0.04909745
204	0xbd99267e	-0.07478045
205	0xbcdb1051	-0.026741179
206	0x3d8a348d	0.067483045
207	0xbd70d337	-0.05879518
208	0xbd81933b	-0.0632691
209	0xbde3f76a	-0.11131175
210	0x3dd5deb9	0.104428716
211	0xbbf118a0	-0.007357672
212	0x3dcdfed9	0.10058374
213	0xbc8a8dc7	-0.016913308
214	0xbd2f2339	-0.0427582
215	0xbdbbfea9	-0.09179432
216	0xbdaf6a39	-0.08565182
217	0xbdf89bd8	-0.121391
218	0x3b110235	0.002212656
219	0xbd21cce5	-0.039502043
220	0x3de88762	0.11353947
221	0xbd95d89e	-0.07316707
222	0x3d7056dc	0.058676586
223	0xbcfc4c59	-0.030798124
224	0x3ddefbc6	0.10887866
225	0xbd1e77b2	-0.03868837
226	0x3e029367	0.12751542
227	0x371c5ee8	9.320422e-06
228	0xbd870dc4	-0.065944225
229	0xbd858bb1	-0.06520785
230	0x3da5e3a7	0.08100062
231	0xbd4b538b	-0.04964022
232	0x3d9a923a	0.07547422
233	0xbd91c87e	-0.07118319
234	0x3d75fc98	0.060055345
235	0xbd6b4939	-0.057442877
236	0x3dfccd19	0.12343807
237	0x3df35520	0.11881471
238	0x3dd35040	0.10318041
239	0xbcb2bf04	-0.021819599
240	0x3dc7c63f	0.09754609
241	0xbda76fe6	-0.0817564
242	0xbdad08a9	-0.084489174
243	0x3dd82312	0.10553564
244	0xbdb54e08	-0.08852774
245	0x3d39dd2f	0.045376953
246	0xb9811a24	-0.00024624274
247	0xbb8a209a	-0.004215312
248	0xbd471689	-0.048605476
249	0xbdc70802	-0.09718324
250	0x3e00b34b	0.12568395
251	0xbcf7c8c7	-0.030247105
252	0x3dd2bc75	0.102898516
253	0xbd62af18	-0.055342764
254	0x3dbdd12a	0.092684105
255	0xbd750a91	-0.05982453

encoder.layers.0.nn.net.2.bias f4 [64]
0	0x3d8774a8	0.06614047
1	0x3c2f6f2a	0.010707656
2	0xbdc00393	-0.09375682
3	0xbd9ee77f	-0.07758998
4	0x3d0605f1	0.03272051
5	0xbc026349	-0.007958242
6	0x3d926762	0.07148625
7	0xbd969783	-0.07353117
8	0xbdfbc70a	-0.12293823
9	0xbd7e3117	-0.062058534
10	0xbcabd2c9	-0.020974534
11	0xbcac1897	-0.02100782
12	0xbcedf427	-0.029047085
13	0xbde08b6c	-0.109640926
14	0x3bb7f2fc	0.005613683
15	0xbdf71669	-0.12064821
16	0x3d86369c	0.06553385
17	0xbdca3584	-0.098734885
18	0x3dd23235	0.102634825
19	0x3d4063ef	0.046970304
20	0xbc143275	-0.009045233
21	0xbdd7573f	-0.10514688
22	0xbc1072b6	-0.008816412
23	0x3d4d14f0	0.050068796
24	0xbe11e45c	-0.14247268
25	0xbdb25355	-0.087073006
26	0x3da1c297	0.07898443
27	0xbe060cde	-0.13090846
28	0xbd9b5aa7	-0.0758565
29	0xbd0f7609	-0.035024676
30	0xbdc4fa57	-0.09618061
31	0x3dae473f	0.08509683
32	0x3d72f09c	0.059311494
33	0x3e09c200	0.13452911
34	0xbd03edf3	-0.032209348
35	0xbd5f2408	-0.05447772
36	0x3dc43989	0.095812865
37	0xbd86f1be	-0.065890774
38	0x3c9a0f71	0.018806191
39	0x3dbcb49e	0.092141375
40	0x3d9792dd	0.07401059
41	0xbe063175	-0.13104804
42	0x3d6e6c47	0.05820873
43	0xbce1b18c	-0.027550481
44	0xbd6e2e04	-0.058149353
45	0xbcd13e1f	-0.025542317
46	0x3d1d5273	0.038408708
47	0xbc701c95	-0.014655252
48	0x3ca32dfe	0.019919392
49	0xbd4f7007	-0.050643947
50	0x3c21d081	0.009876371
51	0xbc1710e0	-0.009220332
52	0xbdd84e45	-0.10561804
53	0x3d8d964d	0.06913433
54	0xbcdcd2ae	-0.026955929
55	0xbd594aae	-0.053049736
56	0x3da1a906	0.07893567
57	0x3d97f85c	0.07420418
58	0xbdd2900b	-0.1028138
59	0x3d278e35	0.040907104
60	0xbd1f1113	-0.038834643
61	0x3dba0b84	0.09084228
62	0x3dbfbf2e	0.093626365
63	0xbd6cf083	-0.057846557

encoder.layers.1.nn.net.0.weight f4 [64, 64]
0	0x3e06a4ca	0.131488
1	0x3ca95277	0.020669205
2	0x3d0e30c4	0.034714475
3	0xbd34f566	-0.044179343
4	0xbbf59c47	-0.0074954364
5	0x3d6f7d00	0.05846882
6	0x3e06703e	0.13128754
7	0x3d8724f0	0.06598842
8	0x3df9990c	0.121873945
9	0xbd36e427	-0.044651177
10	0xbce597a1	-0.028026404
11	0xbb539dd1	-0.003229011
12	0xbd3492b3	-0.044085216
13	0xbda2b44f	-0.079445474
14	0xbdb0b669	-0.08628542
15	0xbc1bddfd	-0.009513375
16	0xbb9772d9	-0.004621845
17	0x3db5a9c9	0.088702746
18	0xbbdb123c	-0.0066855233
19	0x3e06f05f	0.13177632
20	0x3d97b4ae	0.07407509
21	0x3ba7d45e	0.0051217517
22	0x3d7e6b1a	0.06211386
23	0x3db70129	0.08935768
24	0x3d629c07	0.05532458
25	0x3df9bf36	0.12194674
26	0xbdb75f29	-0.08953697
27	0x3ddcfaf1	0.10790051
28	0x3d8f6514	0.07001701
29	0xbdf9b9ce	-0.121936426
30	0xbdd731af	-0.10507523
31	0x3e0e1b86	0.13877687
32	0x3d5a6108	0.053315192
33	0x3d87667f	0.066113465
34	0x3dc64770	0.09681594
35	0x3d9d0cd4	0.076684624
36	0x3d215a93	0.03939302
37	0x3cd981f2	0.02655122
38	0xbd4cb69c	-0.049978837
39	0x3d6f8178	0.05847308
40	0xbd97c99a	-0.07411499
41	0xbda066fa	-0.07832141
42	0xbd230714	-0.039801672
43	0x3d67201b	0.056427103
44	0x3dbd6c3b	0.09249159
45	0xbd0267c3	-0.031837236
46	0xbd898c28	-0.06716186
47	0x3d8cf408	0.06882483
48	0xbd372e31	-0.044721786
49	0x3d636497	0.05551585
50	0x3dd03129	0.101656266
51	0xbddab46f	-0.10678946
52	0x3d23c7a7	0.039985325
53	0x3da61ee1	0.081113584
54	0xbda4fb20	-0.08055711
55	0xbe059a7a	-0.1304721
56	0x3c8e1c69	0.017347531
57	0x3dd36864	0.10322645
58	0xbd4ab10a	-0.049485244
59	0x3d5db6e9	0.054129515
60	0xbbe0fb2b	-0.006865879
61	0x3d837316	0.06418435
62	0xbe23adce	-0.1598427
63	0xbde85a1e	-0.113453135
64	0xbde4fa6e	-0.11180578
65	0xbe08b3b8	-0.13349807
66	0x3b858676	0.004074867
67	0xbd6a71c0	-0.057237387
68	0x3cc2a402	0.023759846
69	0x3dc642c7	0.096807055
70	0xbd1ced7b	-0.038312417
71	0xbe1358ee	-0.14389393
72	0x3bc03bb1	0.005866491
73	0x3df55f19	0.11981029
74	0xbdd25d5b	-0.102717124
75	0xbd27f82f	-0.04100817
76	0x3d06b0ca	0.032883443
77	0x3cc3a587	0.02388264
78	0x3cec58b0	0.028850883
79	0x3dadbf54	0.084837586
80	0x3d667e8c	0.05627303
81	0x3d1e930b	0.03871445
82	0xbdf2dd92	-0.118586674
83	0x3da8a512	0.0823461
84	0x3dc71325	0.097204484
85	0x3cb0c6b2	0.02157912
86	0x3cad72a7	0.021172835
87	0xbc8398b5	-0.016064027
88	0x3def0011	0.116699345
89	0xba9660b7	-0.0011472915
90	0x3d94005c	0.07226631
91	0x3dbf43e0	0.09339118
92	0xbdc0bf1a	-0.0941145
93	0xbdfc22c6	-0.1231132
94	0x3dd5b50b	0.10434922
95	0x3dae05bd	0.08497188
96	0xbcfc8bfd	-0.03082847
97	0xbdcebeaf	-0.10094964
98	0xbdca1cb5	-0.09868757
99	0xbda84754	-0.0821673
100	0x3da17440	0.07883501
101	0xbdab9d90	-0.08379662
102	0x3d749692	0.059713908
103	0xbdaab803	-0.08335879
104	0xbd998ae7	-0.07497197
105	0xbce4524d	-0.027871275
106	0x3d0a1f18	0.03372106
107	0xbdbf6cb3	-0.093469046
108	0xbced2198	-0.028946683
109	0xbd75f601	-0.06004906
110	0xbd4a272c	-0.049353763
111	0x3d810418	0.06299609
112	0x3c78433a	0.015152747
113	0xbc9efbe1	-0.019407215
114	0xbdf00466	-0.11719589
115	0xbe1fe58d	-0.1561491
116	0xbd627066	-0.055282973
117	0x3ddfcf70	0.109282374
118	0x3dabd0ba	0.08389421
119	0x3cc73e90	0.024321824
120	0x3d4d40c2	0.050110586
121	0xbe077bff	-0.13230895
122	0xbdb28461	-0.087166555
123	0xbd4390e3	-0.047745597
124	0x3dc9ffa2	0.09863211
125	0xbdc51370	-0.09622848
126	0xbc9baa56	-0.019002121
127	0x3db20da9	0.08694012
128	0xbcd3e24e	-0.025864746
129	0x3db38080	0.08764744
130	0x3dc4b961	0.09605671
131	0xbc1cfb5c	-0.009581413
132	0x3d03ea29	0.032205734
133	0xbd8fca42	-0.070209995
134	0x3df24b5d	0.11830781
135	0xbdd7773e	-0.105207905
136	0xbd5e024d	-0.054201413
137	0x3e03e2a1	0.12879421
138	0xbcdc7a67	-0.026913835
139	0xbd96a65f	-0.073559515
140	0x3d641a6c	0.05568926
141	0x3e152111	0.14563395
142	0xbd71bfc3	-0.05902077
143	0xbcf3a243	-0.029740458
144	0x3cc09137	0.023506744
145	0xbde03345	-0.10947279
146	0xbd9afbbf	-0.07567548
147	0x3d328ab5	0.043589313
148	0x3e048986	0.12943086
149	0x3d3f2b2f	0.046672042
150	0xbb087613	-0.002082233
151	0xbdb20ee3	-0.08694246
152	0xbcad844a	-0.021181244
153	0x3de8d6ab	0.1136907
154	0x3d977a8d	0.073964216
155	0xbd85934c	-0.06522235
156	0xbdb2e5e1	-0.08735252
157	0xbdf9c9ec	-0.12196717
158	0xbdad6eb1	-0.08468378
159	0x3b2bc098	0.0026207324
160	0x3bee606f	0.0072746794
161	0xbdb5c7cd	-0.088759996
162	0x3d29ca21	0.04145253
163	0x3da83e15	0.08214966
164	0x3d8c71aa	0.06857617
165	0x3d7ef74e	0.062247567
166	0x3dfcd5a2	0.12345435
167	0x3cd7e9a2	0.026356522
168	0xbdbe1667	-0.09281617
169	0xbd8c36bb	-0.068463765
170	0x3ce1cffe	0.027564999
171	0x3d3d7d55	0.046262104
172	0xbd4a1900	-0.049340248
173	0x3dddc3d0	0.10828364
174	0x3de94392	0.11389841
175	0xbd2f45c1	-0.042791132
176	0x3adfe64d	0.0017082185
177	0xbdf33cba	-0.11876817
178	0x3d7af34e	0.06126719
179	0xbc728c04	-0.01480389
180	0x3df47b23	0.11937549
181	0x3ced063a	0.028933633
182	0x3d9f8a1f	0.077900164
183	0x3d9aca4c	0.07558116
184	0x3d84ce6c	0.06484684
185	0x3ddb0493	0.10694232
186	0xbdec25fb	-0.11530682
187	0x3e038b2d	0.1284606
188	0x3e01b817	0.12667881
189	0x3d2578c7	0.040398385
190	0xbba764a6	-0.005108434
191	0x3e094cca	0.13408199
192	0x3d530390	0.05151707
193	0xbde30bde	-0.11086248
194	0x3d8944e7	0.06702595
195	0xbc0747b0	-0.008256838
196	0xbd4205e4	-0.0473689
197	0xbdb4bed8	-0.08825463
198	0x3d969470	0.07352531
199	0xbe05f80f	-0.13082908
200	0xbcc36e3f	-0.02385628
201	0xbd5df4c9	-0.054188523
202	0x3d3309a7	0.043710377
203	0xbd7b8054	-0.06140168
204	0x3d850738	0.064955175
205	0x3d8f16aa	0.06986745
206	0x3d66cfe7	0.056350615
207	0x3d77a91f	0.06046402
208	0xbd8479cc	-0.064685434
209	0xbd98f7c0	-0.074691296
210	0x3c5cd1ee	0.0134777855
211	0xbde34acb	-0.1109825
212	0xbdc54850	-0.09632933
213	0xbdfe4c31	-0.12416876
214	0x3d8a90be	0.06765889
215	0x3cae55ff	0.02128124
216	0x3d0a52bd	0.03377031
217	0xbc9224a7	-0.017839743
218	0x3decade1	0.11556602
219	0xba1c5b52	-0.00059645355
220	0x3d5f2f90	0.05448872
221	0x3d9133a6	0.07089929
222	0x3d22f1cc	0.039781377
223	0xbd54052a	-0.051762737
224	0x3c950b1a	0.01819377
225	0xbca36a3a	-0.019948114
226	0xbd203fe4	-0.03912343
227	0x3d51153d	0.051045645
228	0x3dbfc1cb	0.09363135
229	0xbd1e6281	-0.03866816
230	0xbbc66e3c	-0.0060556214
231	0xbdb3d82c	-0.08781466
232	0x3e03481a	0.12820473
233	0x3dbbff93	0.09179606
234	0x3dd2e02a	0.10296662
235	0xbd2b47eb	-0.041816633
236	0xbd858605	-0.06519703
237	0x3dd1c1c7	0.10242038
238	0x3da3fc0f	0.08007061
239	0xbdf099af	-0.11748063
240	0x3e283770	0.16427398
241	0x3dccfc25	0.1000903
242	0x3dc05ed8	0.0939309
243	0x3e160ef8	0.14654148
244	0x3d85f162	0.06540181
245	0x3db9166e	0.09037481
246	0xbdfa51af	-0.12222611
247	0xbd5e5d40	-0.05428815
248	0x3d8f3082	0.06991674
249	0x3d5e9845	0.054344434
250	0xbd3b2e82	-0.04569865
251	0x3d8a2cee	0.06746851
252	0xbdd5912c	-0.1042808
253	0x3d3fd1e1	0.046831015
254	0x3a9530cc	0.001138234
255	0x3d5352ac	0.051592514

encoder.layers.1.nn.net.0.bias f4 [64]
0	0xbc2695f1	-0.010167585
1	0xbdd84c6e	-0.10561453
2	0x3d8779ef	0.06615054
3	0xbde5c0e8	-0.112184346
4	0xbcc3251a	-0.023821402
5	0xbca75d8f	-0.020430354
6	0xbbd83cb1	-0.006599032
7	0x3c8dd166	0.017311763
8	0xbdb00b57	-0.08595913
9	0xbc2a6295	-0.01039948
10	0xbb80c3b1	-0.0039295782
11	0x3d882210	0.06647122
12	0x39d7f2d3	0.00041188914
13	0x3dda306c	0.10653767
14	0xbccf4832	-0.02530298
15	0xbd4da73c	-0.050208315
16	0xbbdcf3be	-0.0067429235
17	0xbdf369c2	-0.11885406
18	0x3d9a18a8	0.07524234
19	0x3d355763	0.04427279
20	0xbce9b17a	-0.02852701
21	0x3de0b509	0.1097203
22	0x3d1876fe	0.037222855
23	0xbdcee644	-0.101025134
24	0x3abd1401	0.0014425517
25	0xbde25164	-0.1105068
26	0x3c9e7ab8	0.019345626
27	0x3d606f5c	0.0547937
28	0x3db20d10	0.08693898
29	0xbd2b83a1	-0.041873578
30	0xbd3f0351	-0.046634022
31	0x3d3b3faf	0.04571503
32	0x3af8cd60	0.0018982105
33	0xbdb6ef57	-0.08932369
34	0x3dacd2d6	0.08438651
35	0xbda1d73f	-0.07902383
36	0x3da636c6	0.08115916
37	0x3d5a600e	0.05331426
38	0xbd870232	-0.065922156
39	0x3cdfbba8	0.027311161
40	0xbcc84a26	-0.02444942
41	0x3cc8a074	0.024490573
42	0x3d968c94	0.07351032
43	0xbdadc693	-0.08485141
44	0x3dbe15dc	0.09281513
45	0x3d33aa5b	0.043863636
46	0xbd2a2f11	-0.041548792
47	0xbd5b176f	-0.053489145
48	0x3d947e58	0.07250661
49	0x3d6c2dab	0.05766074
50	0xbd994b0f	-0.074850194
51	0xbd800bf5	-0.062522806
52	0xbda569b2	-0.080768004
53	0x3e2935ef	0.1652448
54	0xbd2e646c	-0.04257624
55	0x3d92c446	0.071663424
56	0x3b4b6e76	0.0031041182
57	0xbdbc019d	-0.09179995
58	0xbd3d97f4	-0.046287492
59	0x3e010226	0.12598476
60	0xbddb27b0	-0.10700929
61	0x3de2f81a	0.11082478
62	0xbdee8b78	-0.11647695
63	0x3dce88ce	0.10084687

encoder.layers.1.nn.net.2.weight f4 [64, 64]
0	0x3dc3bba4	0.09557274
1	0xbd8c8c6c	-0.06862721
2	0xbbd3d2bd	-0.006464331
3	0x3cbd81d9	0.023133205
4	0xbd008ee5	-0.031386275
5	0x3dd33399	0.10312576
6	0xbc556fa1	-0.013027103
7	0xbcedc2f4	-0.029023625
8	0x3d0445dc	0.032293186
9	0x3cf3e06d	0.0297701
10	0x3d0811be	0.033220045
11	0xbd8ea1e8	-0.06964475
12	0x3d1aea16	0.037820898
13	0x3dc158a8	0.09440738
14	0xbdac8fb1	-0.084258445
15	0xbda61a5e	-0.08110498
16	0xbd438d09	-0.047741923
17	0x3da6cd48	0.08144623
18	0xbd9726c5	-0.073804416
19	0xbcb6d76e	-0.022319522
20	0xbd8419d2	-0.06450237
21	0xbd37f880	-0.044914722
22	0xbd9ffb00	-0.07811546
23	0x3d9963ef	0.07489764
24	0x3dd9415c	0.106081694
25	0x3da2067a	0.079113916
26	0xbdad9961	-0.0847652
27	0x3cfd31ec	0.030907594
28	0x3c9527da	0.01820748
29	0xbd86e27f	-0.065861695
30	0xbe0be31c	-0.13660854
31	0xbe019579	-0.12654676
32	0xbe03ffb9	-0.12890519
33	0xbe03e4e7	-0.12880288
34	0xbdc45cfa	-0.09588046
35	0x3de231de	0.11044668
36	0xbce1d34a	-0.02756657
37	0x3d9abd3d	0.075556256
38	0x3d0e41a0	0.034730554
39	0x3d904e6e	0.07046209
40	0x3be4a3a7	0.0069775167
41	0xbd8d140e	-0.06888591
42	0xbd6a72ad	-0.05723827
43	0xbe241194	-0.1602233
44	0xbdbac8b2	-0.09120311
45	0x3c118b8c	0.008883368
46	0xbe0c7737	-0.13717352
47	0x3d9dd199	0.07705993
48	0xbe1852d0	-0.1487534
49	0xbcabf0be	-0.020988818
50	0xbddc6e01	-0.10763169
51	0x3c5f88ab	0.013643424
52	0xbcdfcab2	-0.027318332
53	0x3cfb55fd	0.03068065
54	0xbd80a9c3	-0.062823795
55	0xbd210f63	-0.039321315
56	0xbd7c0284	-0.061525837
57	0xbdb8af10	-0.090177655
58	0xbd838144	-0.0642114
59	0x3ae5f909	0.0017545532
60	0xbd98e287	-0.07465082
61	0xbdd00625	-0.10157422
62	0x3cdf5d88	0.027266279
63	0xbd99e247	-0.07513862
64	0xbd0e5770	-0.034751356
65	0x3dded5a6	0.10880594
66	0x3dd478fd	0.10374639
67	0x3d803618	0.062603176
68	0xbda60777	-0.081068926
69	0x3cb356b5	0.021891931
70	0x3d565ed1	0.052336518
71	0x3dcf8a20	0.10133767
72	0xbd8dbe8c	-0.069211096
73	0xbda02a64	-0.07820585
74	0x3dadd371	0.08487595
75	0xbd95b492	-0.07309832
76	0x3c7b3fcd	0.0153350355
77	0xbe004542	-0.1252642
78	0x3d7821d0	0.06057912
79	0xbd661968	-0.056176573
80	0xbd9177ee	-0.07102953
81	0x3dbb7808	0.091537535
82	0x3d444ff9	0.04792783
83	0x3ced073b	0.028934112
84	0x3bef5a77	0.0073044854
85	0xbd9e2126	-0.07721166
86	0xbc9c4803	-0.019077307
87	0xbddbac53	-0.107262276
88	0x3caadaed	0.020856345
89	0x3da2b4d0	0.079446435
90	0x3d0d7758	0.034537643
91	0x3c6ade80	0.014335275
92	0x3dfb6444	0.122749835
93	0x3dfb462b	0.12269243
94	0x3dabfafc	0.08397481
95	0x3e11b927	0.14230786
96	0x3d7bbb50	0.061457932
97	0xbe2247aa	-0.1584765
98	0x3e0078b4	0.12546045
99	0x3e063411	0.131058
100	0xbd4d1c13	-0.0500756
101	0x3cc1f041	0.023674132
102	0xbdd3d464	-0.10343245
103	0xbd16574c	-0.036704347
104	0x3de0fce1	0.10985733
105	0x3d8829ad	0.06648574
106	0x3ae2f1f3	0.0017314538
107	0x3d8928a2	0.06697203
108	0xbd78eb2b	-0.06077115
109	0x3df66007	0.120300345
110	0xbd54c141	-0.051942114
111	0xbdd0bcac	-0.10192236
112	0x3dbdb94d	0.09263859
113	0x3dd80b38	0.10549015
114	0x3c353898	0.011060856
115	0x3dc9d5d2	0.09855236
116	0x3d92d2c2	0.07169105
117	0x3d977c61	0.0739677
118	0xbd9236ce	-0.071393594
119	0xbc2406f7	-0.010011426
120	0xbcee2237	-0.02906905
121	0xbd774efc	-0.06037806
122	0x3d42a021	0.047515992
123	0x3dbef51e	0.09324096
124	0xbdb72f6c	-0.08944592
125	0xbd9fc3c5	-0.07801012
126	0xbe0091d9	-0.12555636
127	0x3cfd6b95	0.030935088
128	0xbd99dd98	-0.07512969
129	0xbd82b354	-0.063818604
130	0xbcdf1c53	-0.027235186
131	0xbce694a6	-0.028147053
132	0xbce81dcb	-0.028334519
133	0x3d8d1894	0.068894535
134	0x3dc0f6a6	0.094220445
135	0x3d773647	0.060354497
136	0x3d3531ed	0.044237066
137	0x3d43b551	0.04778034
138	0x3ce61155	0.028084436
139	0xbc117fb5	-0.008880545
140	0xbd212f1a	-0.03935156
141	0x3df72f70	0.12069595
142	0xbde66016	-0.11248796
143	0xbc06cfcd	-0.0082282545
144	0x3dde09da	0.10841723
145	0x3d39af17	0.045332994
146	0xbbb82491	-0.0056195934
147	0x3da5eea3	0.08102157
148	0xbe0205f7	-0.12697588
149	0x3d12ccbd	0.035839785
150	0x3e001761	0.12508918
151	0x3dcf8ad3	0.101339005
152	0x3dc45d3e	0.09588097
153	0x3dc0b5e6	0.094096944
154	0xbd380ddc	-0.044935092
155	0xbd011ed2	-0.031523533
156	0xbd834c27	-0.06411009
157	0x3de7325b	0.112889014
158	0xbd2f57f4	-0.042808488
159	0xbdab3775	-0.08360187
160	0x3ce29d53	0.027662909
161	0x3d120c1a	0.035656072
162	0x3e12bb8c	0.14329356
163	0xbd80ce30	-0.06289327
164	0x3d8eebad	0.06978545
165	0xbcd2d2c8	-0.025735274
166	0x3ca24353	0.019807493
167	0x3d9ea492	0.07746233
168	0xbd2f96ce	-0.042868428
169	0x3da7fe6e	0.082028255
170	0xbc07e83e	-0.008295117
171	0x3dd381b4	0.10327473
172	0xbc75f647	-0.01501233
173	0xbd09ad30	-0.03361243
174	0x3c3d5abc	0.011557277
175	0x3dbe4cd0	0.092919946
176	0x3cc6488a	0.024204511
177	0xbdc097e7	-0.09403973
178	0x3d9b5448	0.07584435
179	0xbdd95a27	-0.10612898
180	0x3d8697f4	0.065719515
181	0x3da124b7	0.07868331
182	0xbdaff953	-0.08592477
183	0xbe0f7f46	-0.14013395
184	0x3dc5df66	0.096617505
185	0x3d1a274d	0.037635136
186	0x3e09a025	0.13439997
187	0x3dad9170	0.084750056
188	0x3c59c42d	0.013291401
189	0x3dda9dc2	0.10674621
190	0xbdb3ac07	-0.08773046
191	0xbd5cd992	-0.05391843
192	0x3aa22d63	0.0012373145
193	0x3d6430b7	0.05571052
194	0x3d1243b7	0.03570911
195	0xbc1d2bd4	-0.009592969
196	0x3c973bcd	0.018461132
197	0x3db7b63e	0.08970307
198	0x3dceb8e9	0.100938626
199	0xbbff5266	-0.007791805
200	0xbc6b977f	-0.014379381
201	0x3de385f0	0.11109531
202	0x3e045bdc	0.12925667
203	0xbd26551c	-0.04060851
204	0x3d6be1c2	0.057588346
205	0xbdc933e2	-0.09824349
206	0xbde245d6	-0.110484764
207	0x3cbcac28	0.02303131
208	0xbc227c62	-0.0099173505
209	0xbdfece40	-0.12441683
210	0x3c60fde2	0.013732405
211	0x3dc4bbd1	0.09606136
212	0xbdc79cc5	-0.09746698
213	0xbdb85f44	-0.090025455
214	0xbda6198a	-0.0811034
215	0xbdaffdbc	-0.08593318
216	0x3dacea61	0.08443142
217	0xbda0cd0b	-0.07851609
218	0x3dc4698e	0.095904455
219	0xbd95cf8f	-0.07314979
220	0x3dcae08c	0.0990611
221	0xbce2487f	-0.02762246
222	0x3df75f6d	0.12078748
223	0xbd9a8caa	-0.07546361
224	0xbda78149	-0.08178956
225	0x3d500fce	0.050796323
226	0xbd3fc652	-0.046819992
227	0x3e0ef0e2	0.13959077
228	0x3de4865a	0.11158438
229	0xbd2931db	-0.04130731
230	0xbdbfb6d2	-0.09361042
231	0x3dae7348	0.08518082
232	0xbdcc4fc9	-0.09976155
233	0x3d102ea9	0.03520075
234	0xbca0580a	-0.01957323
235	0x3dd64fe1	0.104644544
236	0xbcaccc4d	-0.021093512
237	0x3d3e9f51	0.046538655
238	0xbdab24b4	-0.0835661
239	0x3c34c444	0.0110331215
240	0x3dea7d10	0.11449635
241	0x3d8cabd2	0.068687096
242	0xbd6cea26	-0.05784049
243	0xbd7dd3bf	-0.061969515
244	0xbdcc1dda	-0.09966631
245	0x3d989e07	0.07452016
246	0xbd9bbaf6	-0.07604019
247	0xbdde8c14	-0.108665615
248	0xbc5933f9	-0.01325702
249	0x3d93b181	0.072115906
250	0xbdc6338f	-0.09677803
251	0x3c378277	0.011200539
252	0x3dcf8a5a	0.1013381
253	0x3d9e4e2c	0.07729754
254	0xbc72f495	-0.014828821
255	0x3c8a1ef3	0.01686046

encoder.layers.1.nn.net.2.bias f4 [64]
0	0xbd2dd6f3	-0.04244132
1	0xbd8e603c	-0.06951949
2	0xbdad2a80	-0.08455372
3	0x3d73d455	0.059528667
4	0xbd376183	-0.04477073
5	0x3dbbd3ce	0.09171258
6	0xbd73b0f4	-0.059494928
7	0xbd949106	-0.072542235
8	0x3df4cbf7	0.11952966
9	0x3c8f17a6	0.017467331
10	0x3b92055d	0.0044562058
11	0x3c0ebe1a	0.008712316
12	0xbc690850	-0.014223173
13	0x3d3dfc5c	0.046383247
14	0xbd6772b7	-0.056505885
15	0xbc18f71c	-0.009336259
16	0x3dab9c4f	0.08379423
17	0x3dca2ed0	0.0987221
18	0x3d885f68	0.06658822
19	0x3dfac838	0.1224522
20	0x3daa13e4	0.08304575
21	0x3ca8b72e	0.02059516
22	0xbdd1fa5d	-0.10252831
23	0x3d6944e3	0.05695046
24	0xbd945f68	-0.0724476
25	0x3cafd379	0.021463143
26	0xbdf60086	-0.120118186
27	0x3d9333be	0.071876034
28	0xbcb71b8f	-0.022352008
29	0x3caa4464	0.020784564
30	0xbd9a5a02	-0.07536699
31	0xbb15f037	-0.0022878775
32	0xbdcf1d24	-0.1011298
33	0xbc15e5bd	-0.009149012
34	0xbdcc5437	-0.09977
35	0xbba1fe2a	-0.004943629
36	0x3cdcea4b	0.026967188
37	0xbd7fd576	-0.06245943
38	0x3d3a0fd0	0.045425236
39	0xbd521ccd	-0.051296998
40	0xbdaa211f	-0.083070986
41	0x3c0845da	0.008317435
42	0xbc111f51	-0.008857564
43	0xbdd853b7	-0.10562842
44	0x3dff6b6b	0.1247166
45	0xbd45d3a9	-0.048297558
46	0x3d70c919	0.05878553
47	0x3e00e1f3	0.12586193
48	0x3d902cb0	0.070397735
49	0x3dd8b887	0.10582071
50	0x3d5159b3	0.051110934
51	0x3df128a3	0.11775329
52	0xbca5fa1c	-0.020260863
53	0x3c019d15	0.007910986
54	0x3dbcc7b1	0.092177756
55	0x3d82dabc	0.063893765
56	0x3d32cd19	0.043652628
57	0x3de8e051	0.1137091
58	0xbd4649b0	-0.048410118
59	0xbb66461f	-0.003513701
60	0xbb5effda	-0.003402701
61	0xbd847cb3	-0.06469097
62	0xbd5fc80c	-0.05463414
63	0xbd664ac2	-0.05622364

encoder.layers.2.nn.net.0.weight f4 [64, 64]
0	0x3dfc4041	0.12316943
1	0x3d92891f	0.0715506
2	0xbd832696	-0.06403844
3	0x3d89d479	0.06729979
4	0xbd23fde8	-0.040037066
5	0xbd0f5c00	-0.034999847
6	0xbce395a9	-0.027781324
7	0xbd650c26	-0.05591979
8	0x3be02e07	0.0068414244
9	0x3dc2af79	0.09506125
10	0xbde08e25	-0.10964612
11	0x3d8e0f12	0.06936468
12	0x3d150a84	0.03638698
13	0x3da4fde6	0.0805624
14	0x3dae89d2	0.08522381
15	0x3d8dc6f2	0.069227114
16	0x3db9c57e	0.09070872
17	0xbd1ef86f	-0.038811143
18	0x3c0147b3	0.00789063
19	0x3d2e38e1	0.042534713
20	0xbd2748ef	-0.04084104
21	0xbca2e27d	-0.019883389
22	0xbb4cd8d6	-0.0031257174
23	0x3dfdbecd	0.12389908
24	0xbd609d26	-0.05483737
25	0xb8d61011	-0.00010207308
26	0x3d55f67b	0.052237015
27	0x3d9d730e	0.076879606
28	0x3dc9e1bc	0.098575085
29	0xbdda495c	-0.106585234
30	0x3dc1e908	0.09468275
31	0xbd6fb264	-0.058519736
32	0xbd93ea26	-0.07222395
33	0xbd20ca4b	-0.03925542
34	0x3dc26c74	0.09493342
35	0x3d9b8d1f	0.07595276
36	0x3dd87e99	0.105710216
37	0xbd0af1f6	-0.03392216
38	0x3d69efc7	0.057113435
39	0xbdd95b7a	-0.10613151
40	0xbd1fb4de	-0.038990848
41	0x3e20064f	0.15627407
42	0xbdc466d7	-0.09589928
43	0x3dcceaaa	0.10005696
44	0xbe08a59f	-0.1334443
45	0x3cac7ab7	0.021054609
46	0x3cec364b	0.028834483
47	0x3db1db26	0.08684377
48	0x3db8507e	0.08999728
49	0xbd9a4ecb	-0.0753456
50	0x3d166dcc	0.036725804
51	0xbde6cc6a	-0.11269458
52	0xbd0c6e9b	-0.03428517
53	0x3e030e43	0.12798409
54	0xbd94381a	-0.07237263
55	0xbdcd4d99	-0.10024566
56	0x3db27b54	0.08714929
57	0xbc446152	-0.011986094
58	0xbdb96451	-0.09052337
59	0xbd207239	-0.03917143
60	0x3d8b15d2	0.06791271
61	0x3d832ce3	0.06405046
62	0x3cb1099e	0.021611031
63	0x3dc6955b	0.09696456
64	0x3c93e6d5	0.018054405
65	0x3dd2a696	0.1028568
66	0x3de074de	0.10959791
67	0xbb8dc7c3	-0.004326792
68	0xbdd9cc9b	-0.106347285
69	0x3de1c782	0.11024381
70	0x3d89796d	0.06712613
71	0x3cdb8d7d	0.026800865
72	0x3de7bc62	0.11315228
73	0xbd767e9a	-0.06017933
74	0x3cc9879e	0.0246008
75	0xbd5f37a5	-0.054496426
76	0x3c435a99	0.011923456
77	0xbd10eb89	-0.035380874
78	0xbd3749a2	-0.044747956
79	0xbd7ac16c	-0.061219618
80	0xbd80fc1d	-0.06298087
81	0x3de4a7fd	0.11164854
82	0x3d9ff4de	0.078103766
83	0xbdc15610	-0.09440243
84	0x3dbc48c5	0.09193567
85	0x3c070600	0.008241177
86	0x3df8774e	0.121321306
87	0x3ceb78c5	0.02874411
88	0x3d8bbaa3	0.068227075
89	0x3c195f07	0.009361035
90	0xbd073346	-0.033007883
91	0x3d82ebed	0.063926555
92	0x3d4c79aa	0.049920715
93	0x3dbbe874	0.09175196
94	0x3dd68996	0.10475461
95	0x3c1dcf4a	0.009631941
96	0xbd15a3f0	-0.036533296
97	0x3d8a6141	0.06756831
98	0x3dd707ed	0.104995586
99	0xbc8f38c8	-0.01748313
100	0x3d8aa12d	0.06769023
101	0x3db6c6df	0.089246504
102	0xbc448bf2	-0.011996256
103	0xbd7518cb	-0.059838098
104	0xbd9eba0e	-0.07750331
105	0x3ddcd8b7	0.107835226
106	0x3be27532	0.0069109434
107	0x3de17e2a	0.11010392
108	0x3e04cb09	0.12968077
109	0xbd58394c	-0.052789018
110	0x3d792853	0.06082947
111	0x3d97d481	0.07413579
112	0xbddb9c23	-0.1072314
113	0xbd77ba07	-0.060480144
114	0xbd7b2e91	-0.061323706
115	0xba684f34	-0.00088619
116	0xbe112be9	-0.14176907
117	0xbd9c914c	-0.07644901
118	0x3b902e47	0.004400048
119	0xbd7cd852	-0.061729737
120	0xbdd7210f	-0.10504352
121	0x3d6094d2	0.054829426
122	0x3cac6fcc	0.021049403
123	0x3d8cb16f	0.0686978
124	0xbccfd019	-0.025367783
125	0x3d9ef9b8	0.07762474
126	0xbce01a3e	-0.027356263
127	0xbdd15970	-0.10222137
128	0x3b006872	0.0019593504
129	0x3de8f514	0.1137487
130	0x3de0138b	0.109412275
131	0x3e06c22d	0.1316001
132	0xbafd9998	-0.0019348143
133	0xbd3438e0	-0.043999553
134	0x3dcf2f20	0.1011641
135	0x3b82fb6b	0.0039972565
136	0x3e05f39c	0.13081211
137	0xbdb48066	-0.088135526
138	0xbd6feb0b	-0.058573764
139	0xbd4315aa	-0.047628082
140	0x3d57a01c	0.052642927
141	0xbb8e7592	-0.0043475116
142	0x3c3e3cc5	0.011611168
143	0x3d85ee74	0.06539622
144	0xbda87a29	-0.08226425
145	0x3db14921	0.08656526
146	0xbca0fe2f	-0.019652454
147	0x3e073420	0.13203478
148	0xbb34b27d	-0.0027572208
149	0x3d217129	0.03941456
150	0xbc8a28d4	-0.016865171
151	0xbccd3988	-0.025051847
152	0xba5e8606	-0.0008488599
153	0x3de42be2	0.111411825
154	0x3bb317c5	0.00546548
155	0xbc513d52	-0.012770968
156	0x3db49695	0.08817784
157	0x3daee5ac	0.085399
158	0xbd4f6541	-0.050633673
159	0x3d9f67cf	0.07783472
160	0xbcbbbe37	-0.02291785
161	0x3da9eecb	0.08297499
162	0xbcf0e211	-0.029404672
163	0xbcfb3bf9	-0.030668246
164	0x3dc5970f	0.09647953
165	0x3e11f87a	0.14254943
166	0x3e0d597e	0.1380367
167	0x3daf6a0a	0.08565147
168	0x3d68eb7f	0.05686521
169	0xbd15de8c	-0.03658919
170	0xbdafa7dd	-0.08576939
171	0x3d240f30	0.040053546
172	0x3d309db0	0.043119133
173	0xbd96fae4	-0.07372072
174	0x3dd584dd	0.10425732
175	0xbdeeec10	-0.11666119
176	0xbd71ea24	-0.059061185
177	0xbdb65cd6	-0.08904426
178	0x3dff814d	0.12475834
179	0xbd18887b	-0.037239533
180	0xbcfef352	-0.031121884
181	0x3db34ecb	0.08755263
182	0xbd99e786	-0.07514863
183	0x3d93fa43	0.07225468
184	0x3dcd32c7	0.10019451
185	0x3c8e48cd	0.017368698
186	0x3d6e0b51	0.05811626
187	0x3d368737	0.044562545
188	0xbc22faed	-0.009947521
189	0xbc22e1e9	-0.0099415565
190	0xbdbca51f	-0.09211182
191	0x3d81ab2f	0.06331479
192	0xbd4f5117	-0.050614443
193	0xbddc7b62	-0.10765721
194	0xbdc6e693	-0.09711947
195	0x3c16efc5	0.009212439
196	0xbd865a51	-0.06560195
197	0xbdad807f	-0.08471774
198	0x3ca4110b	0.020027658
199	0xba806dfa	-0.00097984
200	0x3d96b3d0	0.07358515
201	0xbd65ed7d	-0.05613469
202	0x3d580bfc	0.052745804
203	0x3dd45e4d	0.10369549
204	0xbcfee293	-0.031113898
205	0x3d8ed41b	0.0697405
206	0xbdcc95f2	-0.09989537
207	0xbe0e39ff	-0.13889311
208	0x3d119882	0.035545833
209	0x3d8a8a99	0.06764717
210	0x3b0af1ad	0.002120118
211	0x3c028d47	0.007968253
212	0x3d699371	0.057025377
213	0x3ddc46d7	0.10755699
214	0xbcb7088a	-0.022342939
215	0x3e0da092	0.13830784
216	0x3d1a78c1	0.037712816
217	0xbd831ba2	-0.06401755
218	0x3df99aa4	0.121876985
219	0xbbb58470	-0.0055394694
220	0x3c2b7009	0.010463723
221	0xbd81a82d	-0.06330905
222	0x3d56863d	0.052374113
223	0x3b44f0f0	0.0030050837
224	0x3bcc51d9	0.006235343
225	0x3d343e45	0.044004697
226	0x3db02b54	0.08602014
227	0x3cdd0680	0.026980639
228	0x3d94e9b8	0.07271141
229	0xbe03a191	-0.12854601
230	0x3d164ad5	0.03669246
231	0xbd639c16	-0.055568777
232	0xbdad03df	-0.08448004
233	0xbd0341c0	-0.032045126
234	0xbdff7ed8	-0.124753654
235	0xbd953dda	-0.07287188
236	0x3dba2e6b	0.09090885
237	0x3c6917cf	0.014226868
238	0xbc8d43cc	-0.017244242
239	0x3de25686	0.11051659
240	0x3948a7f9	0.00019136061
241	0xbdd3a9d3	-0.10335126
242	0x3c8a1213	0.016854322
243	0x3caae5ae	0.020861473
244	0x3db1f48c	0.08689222
245	0x3da4d7f7	0.080490045
246	0xbd6c2457	-0.057651844
247	0x3df366c9	0.11884839
248	0xbd0d75fe	-0.034536354
249	0xbdea19f5	-0.11430732
250	0xbcb63fba	-0.022247184
251	0x3d6875bb	0.0567529
252	0x3d817c09	0.06322486
253	0x3b7facdf	0.0039012951
254	0x3d6c5303	0.057696354
255	0xbdafd299	-0.0858509

encoder.layers.2.nn.net.0.bias f4 [64]
0	0x3d3901c5	0.045167703
1	0xbdf99042	-0.12185718
2	0xbcfeaad7	-0.031087322
3	0xbd68650e	-0.056737
4	0x3d72c2b2	0.059267707
5	0x3caad295	0.020852366
6	0xbca11d74	-0.019667365
7	0xbd31a7c5	-0.043372888
8	0x3dda0198	0.10644835
9	0xbdaef0eb	-0.08542045
10	0x3d9680cb	0.07348784
11	0xbc15d02d	-0.009143871
12	0xbd9204db	-0.07129832
13	0x3ce16852	0.027515564
14	0x3d536932	0.051613994
15	0xbc99cb7b	-0.018773785
16	0xbd22a7c6	-0.039710782
17	0xbd4ff6a4	-0.050772324
18	0xbde79104	-0.113069564
19	0x3ddf0c0c	0.1089097
20	0x3d30d7e3	0.043174636
21	0x3d0d86a8	0.034552246
22	0x3d376d85	0.04478218
23	0x3c6eeb42	0.014582457
24	0x3ddfbb7e	0.10924433
25	0x3d6ddb5c	0.058070526
26	0xbde61321	-0.11234117
27	0xbd8f73a6	-0.0700448
28	0x3d802aba	0.062581494
29	0x3d8e516c	0.06949124
30	0x3d07cec6	0.03315618
31	0x3decb130	0.11557233
32	0xbdb50ed4	-0.08840719
33	0xbdfe48d6	-0.12416236
34	0x3dbc4e5c	0.09194633
35	0x3d66c910	0.056344092
36	0xbda4934c	-0.08035907
37	0x3dbe3512	0.09287466
38	0x3d45208e	0.04812675
39	0xbd2d8e58	-0.042372078
40	0x3d3c99bd	0.046045054
41	0x3dc93159	0.098238654
42	0x3dd8da95	0.10588566
43	0x3c997163	0.018730825
44	0xbdc626ce	-0.0967537
45	0xbde8b969	-0.11363489
46	0x3d507e8e	0.050901942
47	0x3de64878	0.11244291
48	0xbd0e9c85	-0.034817237
49	0x3e128360	0.14307928
50	0x3db5268a	0.08845241
51	0xbc9cd902	-0.019146446
52	0x3dc91109	0.09817702
53	0x3e0b89c2	0.13626769
54	0x3d9dd85d	0.07707284
55	0xbd80432d	-0.06262813
56	0xbc5ae3b5	-0.013359954
57	0x3db11b9b	0.086478435
58	0x3da1a3a0	0.07892537
59	0xbd87a16c	-0.06622586
60	0xbcacbe7b	-0.021086922
61	0xbcc03528	-0.023462847
62	0xbe0ad4a6	-0.13557681
63	0x3dd6a642	0.1048093

encoder.layers.2.nn.net.2.weight f4 [64, 64]
0	0x3dae21a1	0.08502508
1	0xbd10f02c	-0.035385296
2	0x3c84f4c8	0.016230002
3	0x3dd6683c	0.104691
4	0xbdaefd91	-0.08544458
5	0x3c16dc19	0.009207749
6	0xbc9b1351	-0.01893011
7	0x3d9bc4c2	0.07605888
8	0x3d02c153	0.03192265
9	0x3e15254e	0.14565012
10	0xbda5bc36	-0.08092539
11	0xbd5fe7ae	-0.054664306
12	0xbdd9322b	-0.10605272
13	0xbd5cbb19	-0.053889368
14	0xbda31938	-0.079637945
15	0xbac71245	-0.001518794
16	0xbda2662d	-0.07929645
17	0x3dde00df	0.1084001
18	0x3ccc5e4a	0.024947304
19	0xbd1fce2c	-0.03901498
20	0xbd6464e9	-0.055760298
21	0x3d0bee28	0.03416267
22	0x3ca85ca5	0.020551989
23	0x3dbff0f2	0.093721285
24	0xbbc20d68	-0.0059220083
25	0x3dac6397	0.08417433
26	0x3da35fae	0.07977234
27	0xbd8a02e7	-0.06738835
28	0xbdb99861	-0.09062267
29	0xbce18345	-0.027528415
30	0xbd5d4781	-0.05402327
31	0xbe08e015	-0.1336673
32	0xbd7c5a7e	-0.061609738
33	0x3dc55cd4	0.09636846
34	0xbdc6e240	-0.097111225
35	0xbc3a186d	-0.011358363
36	0xbd8692db	-0.06570979
37	0xbd1bc278	-0.038027257
38	0x3dbbfbf8	0.091789186
39	0x3d57d21d	0.052690614
40	0xbdbf27fe	-0.093338
41	0xbdd205fa	-0.10255046
42	0xbcfc5d16	-0.030806106
43	0xbdbb969c	-0.09159586
44	0xbd782e7f	-0.060591217
45	0xbd010a88	-0.031504184
46	0x3dec138a	0.11527164
47	0xbca9574b	-0.020671507
48	0x3d80c09a	0.06286736
49	0xbd2f1537	-0.04274484
50	0xbda15b65	-0.0787876
51	0xbc44ee4e	-0.012019707
52	0x3cf0184c	0.02930846
53	0xbd688ea3	-0.056776654
54	0x3dc4e7e2	0.09614541
55	0xbd6d22cb	-0.05789451
56	0xbc8f02fb	-0.017457476
57	0x3c7a6213	0.015282172
58	0xbd4ec2b2	-0.050478645
59	0xbdd9bb4d	-0.10631428
60	0x3df455ff	0.11930465
61	0xbde149bd	-0.110003926
62	0xbd5c2702	-0.05374814
63	0x3dd88b1f	0.1057341
64	0x3d90bc7d	0.07067201
65	0xbd6af1c0	-0.057359457
66	0x3d1d9e0e	0.03848081
67	0xbcb8a274	-0.022538401
68	0x3c99c45c	0.01877039
69	0xbdc74713	-0.09730353
70	0xbd6c8fb1	-0.057754222
71	0xbdae48b4	-0.08509961
72	0xbc53aebf	-0.012920081
73	0x3d0d3504	0.034474388
74	0xbd05d17d	-0.032670487
75	0x3d6f1f73	0.0583796
76	0x3d3d5000	0.046218872
77	0x3dbe57d9	0.09294099
78	0xbd366ee1	-0.044539336
79	0xbc1a3c73	-0.009413826
80	0x3cc39daa	0.023878891
81	0x3cc5a6da	0.024127413
82	0xbd7156ab	-0.058920544
83	0xbbbac0fd	-0.0056992755
84	0x3cd35167	0.025795652
85	0xbdbc5b5d	-0.09197114
86	0x3c5ac4ce	0.013352586
87	0x3dbdf392	0.09274973
88	0xbd69c3c2	-0.057071455
89	0xbcc3a858	-0.023883983
90	0xbd2420d5	-0.040070374
91	0xbdea9023	-0.11453273
92	0x3c117ed9	0.0088803405
93	0xbd01d210	-0.03169447
94	0xbda49a3f	-0.080372326
95	0xbd5689f7	-0.052377667
96	0x3db8c35c	0.09021637
97	0x3d2ed76e	0.04268592
98	0x3d28306e	0.04106181
99	0x3cbe6516	0.02324156
100	0x3c56ff86	0.013122445
101	0xbd960b23	-0.07326343
102	0xbdd547cd	-0.104140855
103	0x3c885907	0.016644014
104	0xbdd2e1f5	-0.10297004
105	0xbe16dfac	-0.14733762
106	0x3cab51c0	0.020913005
107	0x3bd514ab	0.006502708
108	0xbccadfbf	-0.024764894
109	0xbd5d4041	-0.054016355
110	0xbd105619	-0.03523836
111	0xbcf7303b	-0.030174365
112	0x3bf8b538	0.0075899623
113	0xbd9cdbf1	-0.07659138
114	0xbe146658	-0.14492166
115	0xbda2665d	-0.079296805
116	0x3daab898	0.0833599
117	0x3c9252ad	0.017861689
118	0xbdf30379	-0.11865897
119	0x3d829a46	0.063770816
120	0xbcbf0abd	-0.02332055
121	0xba81629c	-0.0009871307
122	0x3dcc12db	0.09964534
123	0xbdcfbce0	-0.10143447
124	0x3dcd6ef9	0.10030932
125	0x3d6e34ea	0.05815593
126	0x3e074899	0.13211288
127	0x3cd0ce41	0.025488975
128	0x3de427f5	0.11140434
129	0x3dfa3763	0.122175954
130	0x3d8a21d1	0.06744731
131	0xbd2d47c9	-0.042304788
132	0xbe13555e	-0.14388034
133	0x3cff30bf	0.031151174
134	0xbd570228	-0.05249229
135	0x3d496781	0.049170975
136	0x3dbae781	0.09126187
137	0xbd55a68c	-0.052160785
138	0x3d37c9b2	0.044870086
139	0x3df857ec	0.12126145
140	0xbdc25ec6	-0.09490733
141	0xbccfbbe1	-0.025358142
142	0x3de0ff35	0.10986177
143	0x3d9cb272	0.07651223
144	0x3dd12a35	0.102131285
145	0x3d9e7215	0.07736603
146	0xbd42374c	-0.047416016
147	0x3df4f603	0.119609855
148	0x3d93a0d7	0.07208412
149	0x3d7b57e8	0.06136313
150	0xbdbe90cb	-0.09304961
151	0xbdf8e38e	-0.121527776
152	0xbe014ac4	-0.12626177
153	0xbded6003	-0.115905784
154	0xbd413712	-0.04717166
155	0x3bc6527b	0.006052313
156	0x3ce169a5	0.027516196
157	0x3d87bc99	0.06627769
158	0x3d2e4e5f	0.04255521
159	0xbdd69c9a	-0.10479088
160	0x3d27d4f8	0.040974587
161	0xbbba49d0	-0.0056850687
162	0x3c0d57af	0.008626862
163	0x3d790d89	0.060803924
164	0xbd38e8cc	-0.045143887
165	0xbdcbd2bd	-0.099523045
166	0x3d862e80	0.06551838
167	0xbcf5c91a	-0.03000312
168	0x3df49b40	0.11943674
169	0x3d82b44d	0.06382046
170	0x3db558c2	0.0885482
171	0xbcc9bf28	-0.024627283
172	0xbdbdcce1	-0.09267593
173	0xbda12d39	-0.07869954
174	0xbd3beb48	-0.04587868
175	0x3da17186	0.07882981
176	0x390a8531	0.00013210323
177	0x3d5db986	0.054132007
178	0x3c70c426	0.014695203
179	0xbcdd9ef0	-0.027053326
180	0x3d8489d8	0.06471604
181	0x3dec8161	0.115481146
182	0xbca2d1ae	-0.019875374
183	0xbd862bec	-0.06551346
184	0x3d2bf57c	0.04198216
185	0xbde081a6	-0.109622285
186	0xbd8619e6	-0.065479085
187	0x3c9a4321	0.018830838
188	0x3a7a35e4	0.00095447735
189	0xbdc2afc1	-0.09506179
190	0x3d755616	0.05989655
191	0xbdd58619	-0.10425968
192	0x3c72fb5d	0.0148304375
193	0xbd6cf4b3	-0.05785055
194	0xbd683bb5	-0.056697566
195	0xbd7c208a	-0.06155447
196	0xbd9f6caf	-0.077844016
197	0xbd049f1d	-0.032378305
198	0xbca99fc6	-0.020706069
199	0xbb864c45	-0.0040984475
200	0x3dadbaaf	0.08482873
201	0x3d55e82c	0.05222337
202	0xbdf773f7	-0.120826654
203	0x3d7f9995	0.062402327
204	0x3cd449a8	0.025914028
205	0x3dda19a0	0.10649419
206	0x3da7ff37	0.08202975
207	0x3da0e452	0.07856049
208	0xbdc20946	-0.09474425
209	0x3daf87a8	0.08570796
210	0xbdfbde16	-0.12298219
211	0xbddbe47a	-0.10736938
212	0x3dc2c23a	0.09509702
213	0x3d1089c5	0.035287637
214	0xbde7a4ae	-0.11310707
215	0x3ce2bbd9	0.027677463
216	0xbd368f2d	-0.044570137
217	0xbcf2c41b	-0.029634526
218	0x3c5ca85c	0.013467874
219	0xbd2b02cc	-0.041750714
220	0xbd8d2d51	-0.06893409
221	0xbc87879b	-0.016544154
222	0x3d782e63	0.060591113
223	0x3de0f047	0.10983329
224	0xbdbf8059	-0.09350652
225	0x3d3f47a8	0.046699196
226	0x3dca43be	0.09876202
227	0xbce65edc	-0.028121404
228	0xbe007df9	-0.12548055
229	0x3d3f19e0	0.046655536
230	0x3cce5c81	0.025190594
231	0xbd1a2aa4	-0.03763832
232	0xbde2f44b	-0.110817514
233	0xbdb73bdc	-0.08946964
234	0x3de75b6c	0.11296734
235	0x3d48ccb8	0.04902336
236	0x3cb01732	0.021495435
237	0x3e0b9805	0.1363221
238	0x3dd48d33	0.10378494
239	0x3d2981ca	0.041383542
240	0xbc6f9b72	-0.014624463
241	0xbd1656b6	-0.036703788
242	0xbdf769f1	-0.120807536
243	0xbda79134	-0.08181992
244	0x3dbd6619	0.09247989
245	0x3cc53c63	0.024076646
246	0xbc54e53c	-0.012994107
247	0x3cea8426	0.028627466
248	0x3e01e0ee	0.1268346
249	0x3e0170be	0.12640664
250	0x3d4dd144	0.0502484
251	0x3e030427	0.12794553
252	0xbc0730c4	-0.008251373
253	0x3d5d0eca	0.053969182
254	0x3ce26076	0.027633887
255	0x3dbe8b74	0.09303942

encoder.layers.2.nn.net.2.bias f4 [64]
0	0x3dcb5414	0.09928146
1	0x3d7d7541	0.0618794
2	0x3c1f69f9	0.009729856
3	0x3de3449b	0.1109707
4	0xbdf4fd3e	-0.119623646
5	0xbdf08ef0	-0.11746013
6	0x3c60cfd5	0.013721426
7	0xbd8fb103	-0.07016184
8	0x3dd1a06d	0.10235677
9	0xbd0d44f8	-0.0344896
10	0x3df48e4c	0.119412035
11	0xbc87bffc	-0.016571037
12	0x3c96f5e0	0.01842779
13	0xbd615919	-0.05501661
14	0x3df58222	0.119877115
15	0xbd11daed	-0.035609175
16	0x3d7fd566	0.062459372
17	0xbd44ba6f	-0.04802936
18	0xbdd90ed4	-0.10598531
19	0xbd9c4c48	-0.07631737
20	0x3d5ad3ac	0.053424522
21	0x3c491b40	0.012274563
22	0x3dad30b6	0.084565565
23	0x3d46751d	0.04845153
24	0xbd2483d0	-0.04016477
25	0xbdfd3b32	-0.12364806
26	0xbbf43427	-0.007452506
27	0x3db38427	0.087654404
28	0x3df028f5	0.11726562
29	0xbd636a34	-0.055521205
30	0x3dbcb243	0.09213688
31	0xbc8a3297	-0.016869826
32	0xbcd0c4bd	-0.025484437
33	0x3dcbc032	0.09948768
34	0x3de9cca9	0.11415989
35	0xbde8de9c	-0.11370584
36	0xbded215a	-0.11578627
37	0xbd837206	-0.064182326
38	0x3d47b222	0.048753865
39	0x3d484221	0.04889119
40	0xbd5003d2	-0.050784893
41	0x3d8b6fc8	0.0680843
42	0xbd0707d2	-0.032966442
43	0xbdbfacc2	-0.09359123
44	0xbc517429	-0.012784042
45	0xbddbf7cf	-0.10740625
46	0x3bc9334e	0.006140149
47	0xbdcf14c7	-0.10111385
48	0xbd86c450	-0.065804124
49	0x3d7866e6	0.060645007
50	0xbd560393	-0.052249502
51	0x3d024415	0.03180321
52	0x3d0412ee	0.032244615
53	0x3da4c677	0.08045667
54	0x3dfb411f	0.1226828
55	0xbe02ede2	-0.12786058
56	0x3dd37de8	0.10326749
57	0xbda4be98	-0.080441654
58	0x3d3ba036	0.045807086
59	0x3c77944e	0.015111042
60	0x3de9acd3	0.11409917
61	0xbdf99d07	-0.12188154
62	0xbd0b9d82	-0.034085758
63	0x3b58244f	0.0032980626
