scripts/embeddings_gin_version2/MUTAG/gin_dim64_ep40_lr0.0005_drop0.0/gin_classifier.pt (torch, 177117 bytes, 42 tensors)

encoder.layers.0.nn.net.0.weight f4 [64, 7]
00000000: 7cef 533e 9f99 83be fd10 54be 16d8 86bc
00000010: 12ec a33c 0ed6 e63c 4545 bc3e 44f8 913d
00000020: e7c7 90be 326a 913e aad4 3c3e dbb5 19be
00000030: 9cb5 8c3e db8b 8bbd a368 d33c d95a 0e3e
00000040: 6c5f 92bd ba2a 523e c4e1 aabe 2b64 97be
00000050: a2bf 7d3e 80bf 663e 74cc 103e 9c1d 78be
00000060: a0a5 173e 0537 8ebd 10e7 06be 5121 12be
00000070: fd1d 553e 09f4 743e 11d2 c03e 221e dabd
00000080: eae2 96be 43d9 823e c562 d5bd 0ab5 20be
00000090: 9713 ad3e 3761 363e 047b 863e b2a9 e13c
000000a0: e836 09be 048a b7bd f748 563d 2f59 4abe
000000b0: 6939 ad3e 4a78 76be 253a 0abe e34c 333d
000000c0: 1844 803d dbeb 743b 5a83 d03d 3c97 82be
000000d0: ac6d 773e 0138 c33e 0691 6ebe 407e acbe
000000e0: cb62 823e a8c8 453b dd2b 28be 2cbc 663e
000000f0: e44a 66be e00b ac3e 9f76 47be c086 db3d
00000100: 7680 b7bd f511 373d e34c 75bc 34e4 83be
00000110: c24b a7be 0d51 233e 2d0b af3e 571c 18be
00000120: cd11 e4bd 781e 0bbe 1048 083d 65f6 a6be
00000130: cfd4 66be 8d3d f73b 1630 75bd a042 94bc
00000140: aea5 eb3c b15e afbd 5759 93be 8c4b 4abe
00000150: 740f b2bd 8c76 b43e 60ef b03d 0658 953e
00000160: 2600 14be 2958 863e c7c9 e7bc f743 b73d
00000170: b8d8 8abe 4b8c bf3e e814 5b3c 9137 273d
00000180: 00d4 783e d73f a73e 1b02 ba3e 16d9 893d
00000190: 9cfb 133e 55f5 17be 958e 683e c80d c0be
000001a0: 245e 5ebe 683b 61be a410 37be 56ff 0f3d
000001b0: d889 9fbe 6636 7c3d cbf4 92be c092 adbe
000001c0: 5478 553e 1d8f 5cbe d020 47be 26d0 dcbd
000001d0: 4fd3 063e a913 2ebe 5495 8dbe 9bcd bb3e
000001e0: d517 963e 1c94 71be 6068 8b3e 33e8 203e
000001f0: 26f6 a8bd f3a2 9e3e 4cbc dabc a9b8 813e
00000200: 9a48 b7be 40d3 a6be a67d c8bd c821 8dbd
00000210: 22cf 6b3e d390 3bbd f63e be3d e0c5 1f3e
00000220: 5464 6cbe a2c3 f13d ac64 b0be afe5 593e
00000230: e379 a1be 9dd2 4b3e ac65 8bbb c070 21be
00000240: 0615 d33c 05cc a63e 16af 1a3d c454 2a3e
00000250: 0e8b 693e c274 cb3d c39c 163d c851 a43d
00000260: 0ee0 c73d e5d3 923d 70e7 acbe df8a aa3e
00000270: ce10 56bd 21f5 673e 6b20 86bd cd18 a5be
00000280: 4d9f e93d d700 b3be 3bc2 a6be 309b 99be
00000290: fd41 9d3e f58a 0dbe e3af 6d3d a64d 38be
000002a0: 1648 aabe c470 9b3e 9116 403e a6f0 b73e
000002b0: 4a55 bb3e d198 693e 31da b63d 94fd 2b3e
000002c0: 17db 523e 9aba 0a3e 8b92 52be 9af0 a23e
000002d0: 1c32 3fbd 90c1 113e fbc7 28be 54f7 30be
000002e0: a4b3 62bd 7611 883e bfe1 8cbe 61ce 2e3d
000002f0: 2c37 c6bd 360b aebe 8792 b33e c9d8 b0be
00000300: 63f3 563e 42b7 b43e 56d6 9a3e 38ce febd
00000310: 1a7d b73e 783f a73e 126f a73e 6edd 81be
00000320: def4 a53d 9776 ffbd 9992 283e f795 bc3e
00000330: 5401 ae3e 05c6 a8be 312f 1f3e 801a 7c3d
00000340: eafd 6ebe 7b3e c73d 6e7b fcbc 0ad4 0ebe
00000350: c8d6 2abe 8c00 bdbe b0d2 793e 8bf5 14be
00000360: c5eb 873e 9870 08bd ff43 babe 8a52 84be
00000370: ed8e 943d e297 60be 5688 903e 669e 903e
00000380: 00fe 43be 10e0 a5be 66ff 8c3e 5da6 cabc
00000390: 096f 9f3e 859d 943e bf36 f63c a0fd 2abd
000003a0: b839 1dbe be14 4fbe 1e49 b8be 3ba8 443e
000003b0: 12ef 0abe 8931 33be 0270 9c3e 4bf2 8cbe
000003c0: 983d 25bd 62e9 843e 2d36 0ebe f0bb b6be
000003d0: b3de 4cbe 8d61 9e3e 9a46 8dbd 30b4 83be
000003e0: 3b60 6bbd ad74 80be da41 273e dcde 323e
000003f0: f6ee 34be a238 acbe 39fa bbbe 9afd 3cbe
0.20696825 -0.2570314 -0.20709606 -0.01646046 0.020010028 0.028178241 0.36771598 0.07127431
-0.28277513 0.28401333 0.184405 -0.15010779 0.27482307 -0.06813785 0.02580673 0.13901843
-0.071471065 0.20524111 -0.3337537 -0.2956861 0.24780133 0.22533989 0.14140493 -0.24230045
0.14809275 -0.06944088 -0.13174081 -0.14270522 0.20812221 0.23921217 0.37660268 -0.10650279
-0.29469997 0.25556383 -0.104192294 -0.15694061 0.33804008 0.17810522 0.26265728 0.027546737
-0.13399851 -0.08961871 0.05231568 -0.19760583 0.33832863 -0.24069324 -0.13498743 0.043774497
0.06262988 0.0037372026 0.10181303 -0.25506008 0.2416293 0.38128665 -0.2329751 -0.3369007
0.25465998 0.0030179415 -0.16422983 0.2253272 -0.22489506 0.3360281 -0.19478844 0.10719061
-0.08960049 0.04469486 -0.0149719445 -0.25760043 -0.32674986 0.15948887 0.34188214 -0.14854561
-0.11136208 -0.13585842 0.03327185 -0.3260986 -0.22542118 0.007545179 -0.05986031 -0.018098176
0.028765526 -0.08562983 -0.28779098 -0.19755381 -0.08694354 0.35246694 0.08639407 0.2916872
-0.14453182 0.26239136 -0.028294457 0.0894851 -0.27118468 0.37411723 0.013371684 0.040824477
0.24299622 0.32665893 0.3632973 0.06730859 0.1445145 -0.1483968 0.2271064 -0.37510514
-0.217156 -0.21995318 -0.17877442 0.035155617 -0.31159854 0.061575316 -0.28702387 -0.33901024
0.20846683 -0.21538968 -0.1944611 -0.10781889 0.13166545 -0.16999687 -0.2765299 0.36680302
0.29315057 -0.23591655 0.2722807 0.15713577 -0.08250074 0.30983695 -0.026701115 0.25336197
-0.35797578 -0.32583046 -0.097895905 -0.06891209 0.23028234 -0.045792412 0.092893526 0.15602827
-0.23085147 0.11804892 -0.34451807 0.21279024 -0.31538305 0.19904561 -0.0042540636 -0.15765667
0.02576686 0.3257753 0.03776463 0.16633898 0.22806951 0.09934379 0.036770593 0.08023411
0.09759532 0.07169322 -0.33770323 0.33309075 -0.05226212 0.22652103 -0.06549152 -0.32245484
0.11407337 -0.34961578 -0.3257006 -0.3000121 0.30714408 -0.13822539 0.058029067 -0.1799837
-0.33258122 0.3035947 0.18758608 0.35925788 0.36588508 0.22812201 0.089283355 0.16795951
0.20591389 0.13547745 -0.20563714 0.3182419 -0.046678647 0.14233994 -0.16482536 -0.17281848
-0.0553471 0.26575822 -0.2751598 0.042677287 -0.09678492 -0.33992928 0.3507273 -0.34540394
0.20991282 0.35296065 0.3024165 -0.12441677 0.35837632 0.3266561 0.32701927 -0.2536425
0.08103345 -0.12473791 0.16462173 0.36833164 0.33985388 -0.32963577 0.15545346 0.06154871
-0.23339048 0.09728714 -0.030820575 -0.13948074 -0.16683495 -0.3691448 0.24396777 -0.14546792
0.26547065 -0.033310503 -0.36380002 -0.25844222 0.072538234 -0.21932939 0.28229016 0.28245848
-0.19139862 -0.3239751 0.27538604 -0.024737531 0.311394 0.29026428 0.030055402 -0.041745782
-0.15354049 -0.20222756 -0.35993284 0.192048 -0.1356776 -0.17499365 0.30554205 -0.27528605
-0.040341944 0.25959307 -0.13887854 -0.3569026 -0.20006828 0.309338 -0.06898232 -0.2572341
-0.05746482 -0.25089017 0.16333714 0.17467827 -0.17669281 -0.33636957 -0.36714342 -0.18456116

encoder.layers.0.nn.net.0.bias f4 [64]
00000000: 45bc 13bd fbd7 a4be 6f44 6abe ff23 b8be
00000010: 30ce 3bbe 4326 a2bd 4d55 33be d1b5 b5bd
00000020: 37d9 ddbd 84c7 1fbe 0357 213c b96f 4bbe
00000030: aa2d f6bd 55aa 77be 156e 4b3e 71a3 443e
00000040: 0bcf da3d 8a31 133e 646b a33e f120 35be
00000050: b6e9 983e b039 a0be 56dd 303e 9d35 dc3d
00000060: 5f77 85be 2f09 ae3d 65ab 5bbe dbdd 043e
00000070: d9bc adbe afff 00be fd23 953e 7d6e b9be
00000080: 8481 363e b8cd 82be 91f9 2e3d 3c40 66bd
00000090: be0c ebbd 5e8b a23e a601 973e d6a3 8e3e
000000a0: 13e9 1ebe 3733 b73e 62ff a23d 055e e1bd
000000b0: cada 9ebe d0a9 d7bd f90e 993e 202b 84be
000000c0: 6401 363e f1a4 bdbd b9d8 793e dce1 bbbd
000000d0: 6899 85be c8f0 433d 87d0 acbe be00 47be
000000e0: 10b6 9ebe 4a6c bbbd e277 d73b fa80 623e
000000f0: 7efb 21be 18f9 b33e 8326 4c3e 9249 f73d
-0.03606822 -0.3219603 -0.22877668 -0.35964963 -0.18340373 -0.07917454 -0.17513008 -0.08872569
-0.10832446 -0.15603453 0.009847405 -0.19866838 -0.120204285 -0.2418607 0.19866212 0.19202973
0.106840216 0.14374366 0.3191787 -0.17688347 0.29865807 -0.31294012 0.17271933 0.107524134
-0.26067635 0.084978454 -0.214521 0.12975256 -0.33933142 -0.12597536 0.2912902 -0.36217108
0.17822844 -0.25547576 0.042718474 -0.056213602 -0.1147704 0.31746954 0.29493445 0.27859372
-0.15518598 0.3578126 0.07958867 -0.11004261 -0.31026298 -0.10530436 0.29894236 -0.25814152
0.17773968 -0.09259976 0.2439908 -0.09173939 -0.26093602 0.04783705 -0.33752844 -0.19433877
-0.30998278 -0.09151514 0.0065755704 0.22119513 -0.15818593 0.3515098 0.19936566 0.12074579

encoder.layers.0.nn.net.2.weight f4 [64, 64]
00000000: 20ea a43d 8858 573d 7580 493c 9f99 593d
00000010: fa4e debb d99b d83d 90ba 29bd 01e4 8dbc
00000020: a59f d7bc ec40 69bd aaea d23c 7e28 9fbd
00000030: e0ac 603d e8d8 d43c ee94 5abd 43ed a93d
00000040: 39db 41bd e2ae ab3d 83c1 613d 75b7 c73d
00000050: 8238 76bd 967b 453d 5752 a63c 3812 663d
00000060: 27ba 823d c94f eabc 524a 4abd 9ede 9b3a
00000070: 7294 07bc 3923 4dbd fe39 903d 4c1f 183d
00000080: 7c1a d53d 00a9 233c 705d a8bb ab5a 4c3d
00000090: a0ce 13bd 3f31 d43d 634c b23d 5c84 003e
000000a0: 1147 e1bd 9781 f93c c387 f53c a2c6 f4bd
000000b0: 50e1 0cbd 40c6 bb3c 8334 52bc d088 193d
000000c0: aeb1 a1bd ee64 e73c f2d3 bd3d e424 babd
000000d0: 2e72 efbd 9f9f 9fbd 51c6 863d b543 ddbc
000000e0: b1a3 a83d 618d 003e 4529 8bbd f3de 0c3d
000000f0: 575b e9bd dc03 963b ae57 57bd 3f73 98bb
00000100: 780a 0b3d 3692 c83d ee7c b23d 8b44 df3d
00000110: 51a3 c23d 852c 3cbc 396a f7bd b6bd 5bbd
00000120: 1a3d 473d 1f7e 03bd c82e c4bd 36db ac3d
00000130: d650 de3c d619 e3bc ea27 0e3c ed80 c2bc
00000140: 6ff5 f6bd 2388 6c3c 6ba3 fabd 8a26 fbbd
00000150: 4e0e 02bd 5b72 f0bd 0a62 70bd b901 abbc
00000160: 4446 823d 7e58 c7bc 56ee dd3d 40d8 80bd
00000170: f570 9fbd 427d e0bd fb68 e23c b4b3 323d
00000180: 67c8 bcbd 1c16 d1bd 09f0 7c3d 350d 953d
00000190: 75b6 c73d c9a6 57bd 289e 8cbd 8db8 ce3d
000001a0: d81f 4dbd ab68 c4bd 6079 3c3d 6c9d debd
000001b0: 3565 283d b05f 803d a552 cd3d 0603 833d
000001c0: b817 70bd c862 243d 6231 1e3d 56cb c93d
000001d0: 5142 bdbd 4f44 493c 637b b3bd e795 2d3d
000001e0: a4eb f23d 082d a63d 9354 7d3d 5a42 883d
000001f0: 61d2 b73d 9d4a e43d 6bb5 a6bd ec1c 17bd
00000200: 9e9d 2cbd 3336 063d 334b b83d 4798 b0bd
00000210: bdf3 ee3d 9456 d9bc 4891 f53d 3d68 003e
00000220: 1c22 dbbc 6c01 c2bd 436c 2abd 9070 e13d
00000230: 8b46 923d 6c95 e73d a6e8 903d 7ea9 aa3d
00000240: c2a2 e3bd d8d7 5bbd 3304 87bc ed16 00bd
00000250: 803a f3bd b8ab 71bb dec9 9abd f79a 033d
00000260: 787f 0dbb d58e cdbc 2473 94bc 93f6 eabd
00000270: f3ea 91bc 3ff9 a6bd 8033 a0bd 2064 a93d
00000280: 587b bfbd d448 393d e5d6 9cbd 32b5 67bc
00000290: 1a27 d6bd f1fb 36bd 9c8d 4abd fbc0 99bd
000002a0: a768 03bc a9e1 c4bd d85a 1abd e93f 873c
000002b0: d195 24bd c852 053d e8c5 603d 0080 4937
000002c0: 9557 183c fe7d 803d 71ae 563c a1b8 99bc
000002d0: 8328 3b3d deb9 553d f808 c53d ab5b c23d
000002e0: 53e8 4dbd 92c4 bfbd f7b8 5dbd 6581 fa3d
000002f0: 695e 3f3c 34cb abbd 82a8 433d 8833 953d
00000300: 0e3f 86bc a9b6 de3d 79e5 23bd e267 823d
00000310: 5c3f 78bc 14eb f3bd e8ec c73c 8e75 85bd
00000320: a5da a2bd ad65 933d c30c dbbd 3c2a 90bd
00000330: 29c8 a3bd 0888 b53d fcb4 d1bd 4306 fabd
00000340: 8592 edbd 711f 8bbd 75d5 81bc 2618 053d
00000350: 0f37 883d 7aad 8dbd e2c2 993d c6a0 fbbd
00000360: 24ef d4bd 2b7a e43d b119 753d 3a29 b3bd
00000370: 8b36 8e3c 315f 1e3c afcb cebd cc1d 63bd
00000380: b384 0f3d 00e9 59bc 238f cbbd 1619 013e
00000390: 3583 443d c09b 363d 7177 a63d 3ffd d3bd
000003a0: f56c ce3d 6f71 24bd 093b 5d3d e5d2 f4bd
000003b0: 1aa5 efbd 2453 42bd 0120 18bd d881 9bbd
000003c0: 2a2b e53d 0f49 0f3e 654b e3bd 3df7 a2bd
000003d0: 5c8c f93c f694 bbbd dd49 643c 1220 b8bd
000003e0: 1e42 f8bd 8be2 0c3d 0a96 23bd 8e07 843d
000003f0: 5874 02be 0cd3 03bd a7ed 6cbd 85d9 31bd
0.08052468 0.052574664 0.012298693 0.05312502 -0.006784317 0.105766006 -0.041437685 -0.017320635
-0.026321242 -0.05694668 0.025746662 -0.07771395 0.054852366 0.025982335 -0.053364687 0.08297207
-0.047328208 0.083829656 0.055116188 0.097517885 -0.060112484 0.048213564 0.020302935 0.05616972
0.06383162 -0.028602498 -0.049387284 0.0011891907 -0.008275138 -0.05008242 0.07042311 0.037139222
0.10405442 0.009989023 -0.0051380917 0.049891155 -0.036085725 0.103609554 0.08705976 0.12550491
-0.10999883 0.030457301 0.029971963 -0.11951949 -0.034394562 0.022921681 -0.012829903 0.03748399
-0.07895218 0.02824637 0.09268941 -0.090890676 -0.116917 -0.07794117 0.065807946 -0.027009824
0.08234347 0.12553932 -0.06794981 0.03439231 -0.11394375 0.004578097 -0.052573852 -0.0046524103
0.03394553 0.097935125 0.08715235 0.109017454 0.095038064 -0.011485224 -0.12080807 -0.05364772
0.048642255 -0.0321027 -0.09579235 0.08440249 0.027138155 -0.02772228 0.008676508 -0.023743117
-0.120585315 0.014436754 -0.12238201 -0.1226321 -0.031751923 -0.117405616 -0.058687247 -0.020874845
0.06361058 -0.024334189 0.108364746 -0.062912464 -0.07785217 -0.10961391 0.02763795 0.04362841
-0.09217911 -0.10209295 0.061752353 0.0727791 0.09751598 -0.052649293 -0.068661034 0.10093794
-0.050079197 -0.09590276 0.04601419 -0.108698696 0.041112144 0.06268251 0.10025529 0.06397061
-0.05861637 0.040133268 0.038621314 0.098532364 -0.092411645 0.012284352 -0.087637685 0.042379286
0.11861351 0.08114058 0.061848234 0.066532806 0.089756735 0.11147044 -0.081400715 -0.036892816
-0.042142503 0.032766532 0.08998718 -0.086227946 0.11667583 -0.026530541 0.11990601 0.12539764
-0.026749663 -0.094729275 -0.041607153 0.11007798 0.07142361 0.11307797 0.07075624 0.08333109
-0.11115028 -0.05367264 -0.016481495 -0.031271864 -0.11876392 -0.0036876034 -0.07558034 0.032130208
-0.002159087 -0.025092522 -0.01812131 -0.114728115 -0.017812228 -0.08153009 -0.07822323 0.082710505
-0.09349698 0.04523547 -0.076581754 -0.014142321 -0.10456677 -0.044673864 -0.049451455 -0.07507511
-0.0080205565 -0.09613354 -0.03768429 0.016509967 -0.04018194 0.03254965 0.054876238 1.2010336e-05
0.009298225 0.06274031 0.0131031135 -0.018764796 0.04569293 0.05217921 0.09620851 0.094901405
-0.05027039 -0.09363665 -0.054131474 0.12231711 0.011680224 -0.08388367 0.047768123 0.072852194
-0.016387489 0.108746834 -0.040013764 0.0636747 -0.015151825 -0.11910072 0.024404958 -0.065165624
-0.079518594 0.071971275 -0.106957935 -0.070393056 -0.07997162 0.088638365 -0.10239598 -0.122082256
-0.11600212 -0.06793106 -0.015848855 0.032493733 0.066511266 -0.06917854 0.07507874 -0.122865245
-0.10397175 0.11156114 0.059838954 -0.08748098 0.017359992 0.00966625 -0.10097443 -0.05544834
0.03503866 -0.01330018 -0.099394105 0.12607226 0.04797669 0.04458213 0.081282504 -0.10351037
0.10079376 -0.04014724 0.05401138 -0.119542874 -0.117014125 -0.04744257 -0.037139896 -0.07593125
0.111898735 0.13992713 -0.11098365 -0.07957313 0.030462436 -0.091592714 0.013933626 -0.08990492
-0.12121986 0.034395736 -0.03993801 0.064467534 -0.12739694 -0.03218369 -0.05784383 -0.043420333

encoder.layers.0.nn.net.2.bias f4 [64]
00000000: 4d45 babd dc03 3abb e556 cbbd ab91 cfbd
00000010: dac1 2dbc 6666 a2bd 6b1d e6bd 01ba b53d
00000020: ceb6 a4bd e11a 46bc 1b5f ecbd 0b39 be3d
00000030: dd1b f0bb 971c a43d 82d2 46bd 6413 b63d
00000040: 8232 f33d 4082 5f3d 6afc fe3d 7267 a53a
00000050: 0eba 8a3d 43e5 563d 2b9b b23d 6690 e3bd
00000060: 9a2b 94bd 83ff 9fbd b288 803d 07b9 95bd
00000070: 5f78 be3d c2d5 953d c56c afbd b33e 54bc
00000080: 1f27 b2bd 95f6 c9bd 8f83 da3d 2d5e 13bd
00000090: 4805 0f3d db25 20bb 2e6c d73d 4885 ac3d
000000a0: 90b8 aebd d499 773c 9085 b83d 695f ef3d
000000b0: 74af 123b 0abe 92bc 8aa1 93bd edc0 a2bd
000000c0: 022f ab3d 9f85 fa3d 9ca4 73bc aca0 a33c
000000d0: 1ee6 d3bd f74b b9bd e50c a63d b189 16bd
000000e0: a497 5b3d 2ac1 cebc 4912 e1bd 5791 a9bd
000000f0: db7e 533d 6401 41bc 74cf 86bd 5f5b b2bd
-0.09095249 -0.0028383648 -0.09928683 -0.10135206 -0.0106053 -0.07929687 -0.1123608 0.08873368
-0.0804268 -0.012091369 -0.115415774 0.09288224 -0.0073275403 0.080132656 -0.0485406 0.08890417
0.11874868 0.054567575 0.12450488 0.001261933 0.06773768 0.052464735 0.08721002 -0.11111526
-0.07234879 -0.07812407 0.062760726 -0.07310682 0.09300303 0.07316162 -0.08565668 -0.012954402
-0.08698868 -0.09861485 0.10669624 -0.035978485 0.034917146 -0.0024436626 0.105186805 0.08423859
-0.08531296 0.015112359 0.0900985 0.1168812 0.002238241 -0.017912883 -0.072085455 -0.07946954
0.083585754 0.122325175 -0.014870789 0.019974075 -0.10346626 -0.09047692 0.08107928 -0.036752407
0.053611413 -0.025238592 -0.10989816 -0.082796745 0.05163465 -0.011780117 -0.06582537 -0.08708834

encoder.layers.1.nn.net.0.weight f4 [64, 64]
00000000: 3d74 bebd 4a8c f0bd ecd8 41bd 5209 87bd
00000010: ad33 633d 914d 3abd 571c bf3d 7984 91bd
00000020: 7c7d 843d 2caf 0cbd 87d0 013e 65e2 f83d
00000030: ea4f acbd d579 abbd 61a6 643d 5a2c f6bd
00000040: 6076 9f3d 4f0a ae3d 2722 f4bd d74e 24ba
00000050: d7e8 7fbd d654 533d 279f 9abd 575b c23d
00000060: 29a0 8bbd 500c c7bd 52c2 16bd d011 2bbd
00000070: 4f17 83bd f9d4 78bd 11e2 423d 7c70 03be
00000080: 61d7 0cbe 3132 dd3d 5c24 273d c603 39bc
00000090: f76b 573c 4363 f6bc bbe5 6dbd b3d6 d63d
000000a0: 8bf7 e6bd 4d54 11bd 2e34 b1bd cdd7 ddbb
000000b0: 8649 083d 0a92 853c a5e0 1fbc 69ca f4bd
000000c0: 26b9 ebbd 6fd5 4e3d 285f 5fbd cb5e 8b3d
000000d0: 2977 f83d 014f 063e 91c1 a2bd 26c4 513d
000000e0: e727 51bc 63ad 993d 6109 9f3c effd f33b
000000f0: b9ae fa3c 5c39 6bbd 8ba1 17bc 9913 cf3c
00000100: 05d9 2fbd e867 473d 1460 aa3d 6ab8 3639
00000110: 66b8 35bd dc79 e43d ead4 9bbd 86d2 463d
00000120: b4ca a53d ed02 62bd 7a36 fb3d bc4b 063d
00000130: 205e 823c eba4 90bd 1536 aa3d bd51 4a3d
00000140: 3fec 2dbd 641b 9bbd ed75 553c bc22 9f3d
00000150: 0717 24bd 3db0 073d 515f d8bc 381e 3bbd
00000160: d086 263d 9ec8 dd3b 3cfe 98bd d946 93bd
00000170: a31a df3d 7ca0 633d 6e12 003e 29be 983d
00000180: d00e d33d ddf5 8b3d 68ed 7abd 858e 283d
00000190: c357 b73d 957a 41bd 9e4d c03d 38b7 a1bd
000001a0: 134e b5bd e89d e3bd 91cf 8e3d be51 b8bd
000001b0: cfd4 4d3d cd20 c9bd 00f5 0c3c e391 b83d
000001c0: 38f7 49bc 8feb d43d 49dc d43d 83da 9b3d
000001d0: b893 d63d 55b1 b53d 6b84 be3c 5396 0abd
000001e0: d8aa a0bb 39a4 babd 6637 603d cbf4 1c3d
000001f0: 98b2 933d 62c8 52bd 4dd8 7a3d 4f29 913d
00000200: 410f 09bd af4d f7bc ee50 cd3d c378 453d
00000210: c45c d9bd ad67 d83d cc0f 9a3c 6dda a33b
00000220: e064 8a3d c6e2 f13d 4dd3 a5bd 740f b0bd
00000230: a61b 8abc f3cc 93bd aa34 f23d c403 7f3d
00000240: 6a02 b6bd 9ee0 913d 7fff 84bd 6a88 11bb
00000250: b42a 42bc 5cff de3d de8c ec3d 0660 68bd
00000260: b790 b5bb 9b50 c23d 7b92 ddbd 75c6 853c
00000270: 359d f6bd 2335 26bd 0212 973c 2edd 833d
00000280: 192d 993d 08b6 46bc 1e67 c73d c037 abbd
00000290: 8acd 4cbd af3d e6bb 0cf5 913d 7eb4 cc3c
000002a0: 78cc fb3c 1013 433d 647a e9bd 705f 6cbd
000002b0: 7b34 af3d 9c31 013e 1e6e cdbd a395 adbd
000002c0: 27b8 90bc 97b1 ca3d 0f46 a5bc 1ae8 b13d
000002d0: dc64 9ebd 58aa 26bd 363a 32bd 86ca 8d3d
000002e0: 8af2 313d 3075 f3bd 5508 cebd 8f43 ccbd
000002f0: 2576 cfbd c5c5 aabd d3a5 ef3d 1420 363d
00000300: 7089 233c b92b a83d 9acf c73d 81a8 b03c
00000310: 44a1 813d 311a c4bd a4a7 bdbd cb5a c53d
00000320: 7711 d23c 2d23 be3c 3afc dc3d cec4 a33d
00000330: 7c70 f8bd de18 683c d321 b3bc a39b 033d
00000340: 11a0 f5bc ead7 84bc 5b77 25bc 934a ba3d
00000350: fc5a 90bc d16b 9fbd b2e8 d83d 6816 ea3d
00000360: 924a 8dbd e457 ed3d b3ce d23d 189d 423d
00000370: 658b 6d3c e11c 3e3d 9843 b4bd 2472 483d
00000380: 8b2b d7bd 4082 703d 5277 953d 2e4e d0bd
00000390: 882a ba3d 798e 9ebd 658e 8ebd 6fb0 a63c
000003a0: ac4e d33d ef96 4ebd 5d5b c23d 8306 d9bd
000003b0: bfb0 c53c 00a5 92bc 5345 a63d 7ebe 423c
000003c0: 0595 9c3d b90e be3c e8fb b23d 26f1 ac3d
000003d0: 7c2e bcbd 6d25 7bbc afc2 073c dfdc b23d
000003e0: 0d40 283d fb9e 1b3c 6af2 cebd 77d5 833d
000003f0: 48d5 1d3d 0446 0fbd 383b 61bd 5ac3 223d
-0.092995144 -0.11745508 -0.047326013 -0.065935746 0.055469204 -0.04548413 0.09331577 -0.07105345
0.06469247 -0.034346744 0.12677203 0.12152556 -0.0841368 -0.08372847 0.055822734 -0.12020178
0.0778625 0.0849806 -0.119205765 -0.00062678516 -0.062477913 0.051594578 -0.07549887 0.09490078
-0.068176575 -0.09719145 -0.036806412 -0.041765034 -0.0640093 -0.06074998 0.047578875 -0.12835878
-0.13754036 0.10800589 0.04080616 -0.011292404 0.013148299 -0.030076629 -0.058080416 0.104901694
-0.11277684 -0.035480786 -0.086525306 -0.00677011 0.033273242 0.016304988 -0.009758149 -0.11952669
-0.11509924 0.050496515 -0.054534107 0.0680519 0.12132103 0.13116075 -0.07947076 0.051212452
-0.012765861 0.07503774 0.019413652 0.0074460427 0.030600892 -0.05742775 -0.009254823 0.0252779
-0.042931575 0.048683077 0.08319107 0.00017425572 -0.04436531 0.11156055 -0.076089695 0.048540615
0.08095303 -0.05517857 0.1226625 0.03278707 0.015914023 -0.070627056 0.083110966 0.049394358
-0.04246163 -0.07573584 0.013028604 0.07770297 -0.040061023 0.03312706 -0.026412638 -0.045683116
0.04065591 0.0067683 -0.07470366 -0.071912475 0.108937524 0.05557297 0.1250703 0.07458145
0.1030556 0.06834004 -0.061261564 0.041151542 0.08952286 -0.047236044 0.09389804 -0.07896274
-0.08852782 -0.111141026 0.06973184 -0.08999966 0.05025178 -0.098207094 0.008603334 0.09012201
-0.012327008 0.10396492 0.103935786 0.07610037 0.10477394 0.08871714 0.023256501 -0.033834767
-0.0049031787 -0.09113354 0.054740332 0.03831939 0.072117984 -0.05146063 0.061241437 0.07087957
-0.033461813 -0.03018841 0.10025202 0.04821087 -0.10613397 0.105666496 0.01880636 0.0050004036
0.06757522 0.11810832 -0.08096943 -0.085966974 -0.016858887 -0.07216825 0.11826451 0.06225945
-0.08887179 0.071229205 -0.064940445 -0.0022206553 -0.0118510015 0.1088855 0.11550306 -0.0567322
-0.005540933 0.094880305 -0.108189546 0.016329983 -0.120417036 -0.04057802 0.018441204 0.06438671
0.07479305 -0.012128361 0.09736465 -0.08360243 -0.050000705 -0.007026396 0.07126817 0.02498841
0.030737147 0.0476256 -0.11400297 -0.057708204 0.08554932 0.1261658 -0.10030769 -0.084758066
-0.017665936 0.09897154 -0.020175008 0.08686848 -0.07734081 -0.040689796 -0.043512546 0.06923394
0.043444194 -0.11887586 -0.10060183 -0.09973823 -0.10129956 -0.08338503 0.1170155 0.044464186
0.009981498 0.082114644 0.09756394 0.021564724 0.06329587 -0.09575308 -0.092604905 0.09636458
0.025643094 0.023210132 0.10790296 0.07996522 -0.1213083 0.014166085 -0.021866715 0.03213085
-0.029983552 -0.016216237 -0.010099257 0.09096255 -0.01762151 -0.07784236 0.10591258 0.11430055
-0.06898989 0.115890294 0.10293331 0.047513098 0.014498566 0.04641426 -0.08801955 0.048936978
-0.10506352 0.058717966 0.07298149 -0.101711616 0.090901434 -0.07742018 -0.06960753 0.020347802
0.1031774 -0.05043691 0.094900824 -0.10596945 0.02413213 -0.017900944 0.08118691 0.011886237
0.07645611 0.02320038 0.087394536 0.08444433 -0.09188554 -0.015328747 0.008286162 0.08733534
0.04107671 0.009498353 -0.101048306 0.064371996 0.03853348 -0.03497888 -0.054988116 0.039737083

encoder.layers.1.nn.net.0.bias f4 [64]
00000000: c45c d63d a4e1 80bd f660 8dbc a023 12bd
00000010: b6f1 95bd fe1b b43d 460e a23d e4c2 ba3d
00000020: 4877 d8bc 7c9e aebd 4e26 a7bd 226e 753c
00000030: 9c80 e1bd 14f3 82bb c4cf cabd cd50 74bd
00000040: 2eef db3d 100d 47bd e4de ebbd 7738 5b3d
00000050: 7d42 36bd 0e4e a03d d861 82bd fd3f f53d
00000060: e3bc 663d 4f8a c2bc b4d0 b13d 21df c13d
00000070: a411 05bc 73ec 85bc 86db 623d 6481 92bd
00000080: 5a33 4fbc 89f2 d23d 7bf7 1fbd 6cfa 4abd
00000090: 2077 c73d 5b8a 493d d417 98bd 7c11 6bbc
000000a0: 118d 67bd 5125 d5bd 03d9 dbbc f220 d6bd
000000b0: 8fc1 743d 1f91 7f3d 5fa2 8f3d a45e f33c
000000c0: 0e9c 2bbd 590a c5bd 4371 d6bc 3d71 343d
000000d0: e1ff febc e464 5bbd 2a4b 4c3d d2ed 483c
000000e0: 47e3 edbd 84e2 e3bd a059 82bd 198a ec3d
000000f0: 4f55 91bd 625b d13d 8817 a7bd 2fe7 94bd
0.104669124 -0.062930375 -0.017258149 -0.035678506 -0.07321493 0.087944016 0.07912879 0.09119204
-0.026424065 -0.08526322 -0.08161603 0.014979871 -0.110108584 -0.0039962623 -0.099029094 -0.05964737
0.10738979 -0.04859644 -0.115171224 0.053520646 -0.044497002 0.07827388 -0.063663185 0.119750954
0.05633248 -0.023747591 0.08682385 0.094663866 -0.008121882 -0.0163481 0.055385135 -0.071535856
-0.0126465205 0.10300166 -0.039054375 -0.049555227 0.09739518 0.04920421 -0.0742642 -0.01434743
-0.056531016 -0.10407508 -0.026836878 -0.104555026 0.059754904 0.062394258 0.07013392 0.029708214
-0.041896872 -0.09621114 -0.026177054 0.044053305 -0.031127872 -0.053563014 0.04987637 0.012263732
-0.11615615 -0.11127189 -0.06364751 0.115497775 -0.070963494 0.10222508 -0.08158785 -0.07270657

encoder.layers.1.nn.net.2.weight f4 [64, 64]
00000000: fcef 973d 921c 84bd 60de e23d 9be8 01be
00000010: 574b cbbd 0639 3dbd 34f8 d43d 8ff5 e9bd
00000020: e873 febd 3158 013b d146 9e3d 40e3 d03d
00000030: 0e63 9b3d 0345 cabd c85a 82bd 9fdd 2a3d
00000040: 0809 12bc e622 a93c 5d7e 8abc d12c b43d
00000050: 0659 ab3d 437e a93d 6ccd abbd 1fb7 67bd
00000060: ecc9 b73c 7aed 8bbc e0cf 573c 1c17 44bd
00000070: 92f5 b9bd 82e8 4f3c c1bc 33bd df52 3f3d
00000080: c639 46bd 2a76 20bd 5e07 e23b ae65 15bd
00000090: 9090 51bd cfc4 a43d d953 57bc ddb2 9bbd
000000a0: d3b2 a3bd 113e 3c3c 3cf3 fbbc 9948 d93d
000000b0: 2048 e33d 026e f5bc e391 cebd 5564 45bc
000000c0: ad8e 17bd 1dbd 7fbc c0f5 79bd 7268 5d3c
000000d0: c383 f8bd 2ad1 1abb 8e1c 963c 27c9 0a3d
000000e0: cbd3 f2bc 7d6b 47bd d70b 353d 29d6 2a3d
000000f0: 5e9f 563d fe12 e13d d497 bdbd d9a8 25bc
00000100: f6ee 1f3d d692 c1bd f6a4 96bd 4091 91bc
00000110: 510f f2bd 75c2 40bc a371 bcbd 378d c83d
00000120: ea6a 81bd 4f25 d43d 2584 9e3d aab4 603d
00000130: 8377 db3d 7387 dcbd 9e9a 81bd 9fd4 b53d
00000140: 4969 5f3d 6baf 9d3d fe11 fb3c efd9 21bc
00000150: 597d b23d b2f7 fbbd e923 883c 471f 333d
00000160: 1174 c63b d538 d0bd 22bc c53d a562 c33d
00000170: 0ea3 bc3d 03a2 553d 7fe6 96bd 1a68 02be
00000180: 1847 f2bd b12d 883d 1682 49bd c924 c63d
00000190: e0aa 27bd 44c7 8bbd 96a0 09bd c710 f83d
000001a0: b699 34bd 1c7b 4fba 76f2 29bc 9e22 00be
000001b0: 5d07 7abc 9fa1 2b3d a9ee bfbc d52b 83bd
000001c0: 94f9 8dbb 07cc a03d f831 9abd 957f a3bd
000001d0: ee99 873d f79b d0bd 4147 c3bd 3770 83bd
000001e0: dd96 00bd 3610 f13d 1af8 a53d 934c a13d
000001f0: 3ffe 3d3d 4cc3 043d 536c 20bd 9a72 73bb
00000200: b1ce 8cbb e660 b7bb 18d0 52bd a95a 9dbc
00000210: 8ad0 633b b3c8 1c3d 44ae 28bd 8b96 c4bc
00000220: 6a4a b03d 4a73 3abd 64d5 ebbc 5341 ccbd
00000230: 7e62 bebd 24e0 1cbd 8e88 c83d 2fa3 913d
00000240: bd7c a2bd d1ad 623d a947 e0bd c0e4 56bd
00000250: 2e50 9abd 79a2 c4bd 27e8 943d 9cba a2bd
00000260: 6f62 e5bd 5d59 8f3d ec72 c03d 398b b13d
00000270: 6a47 e8bd 2539 eebc 9bb1 f23d b3ee a93d
00000280: 2fdd 953d f68c 92bd bfe5 e1bd c7fc 113d
00000290: 5497 313c aaa2 1c3d 26d0 eabd 3ff0 b63b
000002a0: 2fe9 7bbd 0f3b 09bd 6c76 ba35 ac41 f83d
000002b0: e764 b43d 1eb6 b33d 7d8c 7abd b49f 9dbc
000002c0: 096b 153d dfec 17bd 62b4 9e3d 944b 673d
000002d0: b72c c7bd c1c1 013e 806d d13c 913d 823d
000002e0: a924 133d 0a9f 923d ad70 0abe 182a b13d
000002f0: 688b cebd 6b91 89bd da45 f63d 685d 3e3d
00000300: 5b5c 283d a2f8 c1bc 8414 fdbd 91d7 b8bd
00000310: aba7 ebbd 56a9 3b3c b187 613d 2014 69bd
00000320: d9ed d0bd 4992 dfbd b84c 5cbd 9d1d eebc
00000330: 8872 d53d 0b0e 3a3b f4ca 143d 038e a13d
00000340: c144 583d 31de a6bc af75 c73d d933 06bd
00000350: 2b7f 6c3d 1d74 e9bd 8904 923d dbca c73d
00000360: c796 d03d 5cd9 523c d518 d83c 9899 013e
00000370: 8f4f d0bd b8e3 023d 7227 f1bd 6c13 1bbd
00000380: 557b 593c 26d3 96bd d0a4 893c 40f4 ab3d
00000390: 634e 39bd 577f 573c 3d1c 71bd 63c6 7b3d
000003a0: 9d5c 4d3d 3f72 8fbd 730e dfbc 6930 f6bd
000003b0: 7274 03bd df6d 96bd 98e3 53bd 79d3 c03d
000003c0: 27e7 c23d a770 d73c 29ec ef3d b967 97bd
000003d0: 76da 82bd 6b52 ae3d 5a2b 59bd 0304 46bd
000003e0: f05b c73b 7074 163d 2183 553b 2981 d93d
000003f0: 6726 89bd d508 08bd aa53 963d af02 98bc
0.0741882 -0.06450762 0.11077571 -0.12686388 -0.09926479 -0.04619696 0.103989035 -0.1142379
-0.12424451 0.0019736404 0.07728351 0.101995945 0.075872526 -0.09876444 -0.063649714 0.04171526
-0.008913286 0.020646524 -0.016905958 0.087976106 0.08366589 0.08276036 -0.083887905 -0.056571122
0.022435151 -0.017081011 0.01317212 -0.0478736 -0.09080042 0.0126897115 -0.04388118 0.04670989
-0.04839494 -0.03917519 0.006897851 -0.036473922 -0.051163256 0.08045351 -0.013142549 -0.07602475
-0.079930924 0.011489407 -0.030755632 0.1060955 0.11097741 -0.029959682 -0.100864194 -0.012047847
-0.0370013 -0.015609053 -0.06102538 0.013513671 -0.121345066 -0.0023623207 0.018324163 0.03388324
-0.029642006 -0.048686493 0.044200744 0.041708145 0.05239808 0.109899506 -0.092574745 -0.010111057
0.03904625 -0.09451835 -0.073556826 -0.017769456 -0.118193276 -0.011765112 -0.09201362 0.097925596
-0.0631922 0.103586785 0.07740048 0.054859795 0.107161544 -0.107680224 -0.06328319 0.08878445
0.054543767 0.07699474 0.030648228 -0.00987862 0.087153144 -0.123031035 0.016618686 0.043731
0.0060563167 -0.1016709 0.09655024 0.09540299 0.09210788 0.05215646 -0.073681824 -0.12735024
-0.11829966 0.0664934 -0.049196325 0.09674985 -0.040934443 -0.06825116 -0.033600412 0.12112575
-0.044091903 -0.0007914768 -0.010372749 -0.12513205 -0.015260545 0.04190218 -0.023429232 -0.06404845
-0.0043327305 0.07851415 -0.07529062 -0.07983319 0.06621157 -0.10185998 -0.09535075 -0.06417888
-0.031393874 0.1177067 0.08103962 0.078759335 0.046385046 0.032412812 -0.039165806 -0.0037147165
-0.0042971005 -0.005596268 -0.051467985 -0.01920827 0.003476175 0.03827734 -0.041181818 -0.023997566
0.08607943 -0.045520104 -0.028788276 -0.09973397 -0.0929613 -0.038299695 0.09791671 0.07111203
-0.07933948 0.055341545 -0.10951168 -0.052464247 -0.07534824 -0.09601302 0.07270842 -0.07945749
-0.11200415 0.069994666 0.093969196 0.08669133 -0.11341746 -0.029079983 0.11850282 0.082974814
0.07317578 -0.071557924 -0.11030149 0.035641458 0.010839302 0.038241066 -0.114654824 0.005582839
-0.061501678 -0.03350359 1.3892545e-06 0.12121901 0.08808308 0.087749705 -0.061169136 -0.019241191
0.03647903 -0.037091132 0.07749249 0.05646856 -0.097253256 0.12671567 0.025564909 0.06359399
0.035923634 0.071592405 -0.13519545 0.08650607 -0.100851834 -0.067171894 0.12025042 0.046475798
0.041103702 -0.023678128 -0.12357429 -0.09025491 -0.115065895 0.011453947 0.055061046 -0.05690396
-0.10201616 -0.109165736 -0.053784102 -0.029066855 0.10422236 0.0028389718 0.036326364 0.07888415
0.052799944 -0.020369621 0.09739243 -0.03276429 0.057738464 -0.113991 0.07129771 0.097554885
0.101850085 0.012869205 0.026379028 0.12656248 -0.101714246 0.03195545 -0.11775102 -0.03786032
0.013274034 -0.07364492 0.016802222 0.08396196 -0.04524077 0.013152919 -0.05886482 0.061468493
0.05013715 -0.070042126 -0.02722857 -0.12020952 -0.032093473 -0.07345175 -0.051730722 0.09415335
0.09516745 0.026298834 0.11714966 -0.073928304 -0.06389324 0.08511814 -0.05301986 -0.04834367
0.006083958 0.036732137 0.003257938 0.106203385 -0.06696778 -0.033211548 0.073401764 -0.018555967

encoder.layers.1.nn.net.2.bias f4 [64]
00000000: e563 e53d 9b15 3a3c dc14 253d 77ad b5bd
00000010: a451 013d a711 7a3d e553 90bd d340 d0bd
00000020: 91c9 2e3c 4685 b43c 87f6 25bc 45a4 b63c
00000030: e908 d53d 1813 e7bd 2ada a93d 2893 ffbc
00000040: 2d6e a6bd d095 063d fc3a a93c fdf2 513d
00000050: 3987 0bbd 0ad3 0abd e8e1 f3bd 0ca0 b9bd
00000060: 4a57 0e3d 20d6 f2bc 9d2d 0bbd 3cb4 763b
00000070: 9d30 393d 6320 a3bd 1926 f3ba 06f8 10bd
00000080: 279e efbd 43ec c0bd 849f afbd c537 e63c
00000090: 7f8c af3d 807b eb3b 60d2 943d e856 033d
000000a0: e058 c03d eb6c 823b 9afe 9d3d 6072 f13d
000000b0: 4a5f e03d 237f 4dbd 8265 433d 993a c2bd
000000c0: eece df3d 7b21 afbd 0793 b53d 5c3f bdbc
000000d0: b94e de3d 9e89 77bd 8cd8 c1bd 985d 9d3d
000000e0: ce6a 523b e27c a33d 84f2 263d 86fc db3c
000000f0: 6eef 933d d91e 823d ae33 d13d 088c 89bd
0.11200694 0.01135769 0.040303096 -0.088709764 0.031572 0.06105199 -0.070472516 -0.10168614
0.010668174 0.022036206 -0.0101295775 0.022295127 0.1040209 -0.11282939 0.082935646 -0.0311981
-0.08126483 0.032857716 0.020658009 0.051257122 -0.034064505 -0.03389267 -0.119083226 -0.0906373
0.034751214 -0.029643118 -0.033979047 0.003764405 0.045212377 -0.07965162 -0.0018550783 -0.035392784
-0.11700087 -0.09420063 -0.08575347 0.028102765 0.085717194 0.007186353 0.07266688 0.032065302
0.093919516 0.003980269 0.07714577 0.117893934 0.10955675 -0.050170075 0.047704227 -0.09483833
0.109281406 -0.08551308 0.08865934 -0.023101501 0.10854859 -0.060433976 -0.09465131 0.07683867
0.0032107118 0.07982804 0.040758625 0.026853811 0.07223402 0.0635354 0.10214935 -0.06716162

encoder.layers.2.nn.net.0.weight f4 [64, 64]
00000000: 1e9b 9bbd b02c c8bd e678 cb3c fd85 283d
00000010: a217 12bd 324a b1bd 0a30 a23d 4aae 90bd
00000020: d3f8 743d b723 07bd 4a6d 1bbc d0ed 1c3d
00000030: 6dec e7bd 9b3d 513d 085a 36bd bc47 32bd
00000040: f253 97bd 0751 98bd 2336 ea3c 12aa 44bd
00000050: 9a10 853d 9a1a 8d3c a681 713d 448e 4c3a
00000060: 07ca c83c 3602 803d 054e 7f3d d104 c9bc
00000070: 1254 cebc f955 cb3d d6d0 d0bd 5ed2 403d
00000080: 4c3e 57bd 119a 683d 67f0 69bd a2b2 b03d
00000090: 2f5a bf3c 399c 3f3d 951d 49bd 7814 503d
000000a0: 003f c2bd ed12 5c3d 1fa4 943c c615 e03d
000000b0: 16bb d53d 7cd7 a13c 74f9 913d d9b6 adbd
000000c0: 9fa5 fa3c d786 a3bd a58d aabc 6374 f1bd
000000d0: 9b38 033e b04f ebbd a26f cc3d ded3 e23d
000000e0: d152 1d3d 1bed b9bd 2193 c5bd 07de a2bd
000000f0: 2748 74bd 7fd4 d43d f954 cd3d 00b8 a0bd
00000100: 380a 8bbd 9515 ccbd c404 e1bd c3f5 2e3c
00000110: 3e30 eebd 59dc 973d 96b1 93bd 75d5 a1bc
00000120: 5ddf c53d 985a 4ebd 3a7c 4f3d 3061 95bd
00000130: 3b52 98bc 54e1 043d 89a0 4dbd b3b3 843d
00000140: 6207 883b 353c dcbd 3bd8 083d 6510 253d
00000150: 58bf 47bd 8e48 15bd 8ff3 31bd 9621 02bd
00000160: bae0 afbd 38ff cebd d82d 97bd 420c db3d
00000170: 8d2f 3dbd bfae 81bd 16cc 86bb 0d05 a1bd
00000180: 1c2e c2bd 65d2 5d3d d895 243d a04f 30bd
00000190: 9aff cabd 7bdc 123d 320d 2dbc 1832 7e3a
000001a0: 13a2 983d 99ce f2bd a0e9 a03c 7f8f 06bd
000001b0: 164f 8abc 80e3 a0bd dae3 a6bd bb5e 0ebc
000001c0: b99d cbbd 296c 4f3d 272a d5bd e6dc b83c
000001d0: a751 b53b 1cad 523d 6c71 50bd f1aa 02be
000001e0: 672f 81bc 6805 d8bd 8a23 b03d 6863 b0bd
000001f0: c7e0 cc3c 710d 04bd 47bd 6dbd e64f a6bd
00000200: 2fe4 00bd bc52 5bbd 1284 f2bd 1e39 3cbd
00000210: ccb9 de3d b51b 10bd 204a 9abd f151 b5bb
00000220: 8c43 b7bd 96a6 4abd b1a2 57bd 4497 0ebb
00000230: 3b20 023e 259b f73d 0a45 fd3c ade1 afbc
00000240: fd93 ae3d 0161 263d 0c75 f6bc 6c38 2bbd
00000250: 8883 ecbd 3808 b33d 0b08 983d e931 d2bd
00000260: ff30 213c 1cb2 89bd f5a7 7b3d 19df 11bd
00000270: 1ff0 90bd 925f cb3d db01 083d abf0 353d
00000280: 3cfc 69bd 28d5 843d d386 c3bd 2c03 c6bc
00000290: cd13 9a3d 0c11 acbb 5fd3 7d3d 5ed4 ba3d
000002a0: 0bf1 93bd 0bcf 6d3d c430 d8bd 96a7 593d
000002b0: a7d2 89bc ee99 b8bd b655 d63d 13fa 87bd
000002c0: 3e9b b4bd 9641 4fbd 1e93 f63c 150e 9fbd
000002d0: 7334 ea3d eaea ec3a b0e5 053d 8709 92bd
000002e0: bd1f 903d 3c27 c73c 788e dfbd 9800 a83d
000002f0: e06a 783c 1071 8cbc d9ee c1bc 44f0 27bd
00000300: deeb 40bd 63ad 40bd d46d a53d 036a 7e3d
00000310: 8286 b4bd fb4b b3bb b189 053e 48ff 3fbd
00000320: 73ef 7dbc 1287 bc3d 2423 a03d 69b9 b93c
00000330: 9671 e1bd 47e9 983d 0e38 14bd 02a4 bc3d
00000340: 06cd dbbd caff cc3c 3630 c3bb 1923 afbd
00000350: ffe9 d0bd 512e 53bd 3872 d93d 2930 583d
00000360: b2eb b0bd f546 05bd 7b6e 1e3d 8d8b aabd
00000370: 2f74 e9bd 22cc 8f3d 3edc 13bd 6e29 c6bd
00000380: 2d38 debd 0e66 c0bd 4d6a aabc 4227 97bd
00000390: 05f4 94bd 282b bbbc 3044 2dbd 129b b73c
000003a0: 317f f03d 00b7 d4bd 3969 68bd 1503 1b3d
000003b0: d81d d8bd 3ebe 4a3d b35d 873c bcc4 0d3d
000003c0: 65d6 6dbd d471 d53c ceb4 d7bd 95ec 843d
000003d0: cc1b 9c3d c2f3 61bd 00c2 4b3d 1f3e 19bd
000003e0: d20d 9fbd fd3f 6f3d fc81 53bd d998 39bd
000003f0: dd66 693d d47a ef3c 8bdb efbd 934f cb3d
-0.07597946 -0.097741485 0.024837922 0.041143406 -0.03566707 -0.0865673 0.07919319 -0.07064493
0.05980761 -0.032993045 -0.009486506 0.038312733 -0.113243915 0.051084142 -0.044519454 -0.043525442
-0.07389058 -0.0743733 0.028590268 -0.048013754 0.06497307 0.017224599 0.058961533 0.00078031817
0.024510397 0.06250422 0.062330265 -0.02453843 -0.025186572 0.09928507 -0.10196082 0.04707562
-0.052549645 0.056787554 -0.05711403 0.086278215 0.023358433 0.046779845 -0.049100477 0.05080077
-0.094846725 0.053728987 0.018144665 0.10941653 0.104360744 0.019756071 0.071276575 -0.08482141
0.030596552 -0.07984703 -0.020819495 -0.11789777 0.12814562 -0.114898086 0.0998223 0.11075567
0.038409058 -0.090784274 -0.09647203 -0.079525046 -0.059639122 0.10392093 0.10025973 -0.07847595
-0.067890584 -0.09965054 -0.10987237 0.010678711 -0.11630295 0.07415075 -0.07211606 -0.019755105
0.09661744 -0.050379366 0.05065558 -0.07293928 -0.018593898 0.032441452 -0.050201926 0.064795874
0.0041512707 -0.10753671 0.03340934 0.04029884 -0.048766464 -0.036446147 -0.043445166 -0.03177031
-0.08587785 -0.10107273 -0.07381791 0.10695697 -0.046187926 -0.06332158 -0.0041136844 -0.078622915
-0.09481451 0.054155726 0.040181965 -0.043044686 -0.099120334 0.035854798 -0.010562228 0.00096967956
0.07452788 -0.118558116 0.019642651 -0.032851692 -0.016883414 -0.07855892 -0.08148928 -0.008689578
-0.099421926 0.05064026 -0.104084305 0.02256627 0.0055334154 0.05143462 -0.050889418 -0.12760521
-0.015769674 -0.10547906 0.086005285 -0.0861271 0.025009526 -0.03223938 -0.058041837 -0.08120708
-0.031467613 -0.0535457 -0.11841597 -0.04595291 0.10875282 -0.035182673 -0.075336695 -0.00553345
-0.089484304 -0.049475275 -0.05264539 -0.0021757642 0.12707607 0.12090138 0.03091671 -0.021469915
0.0852432 0.040619854 -0.03008511 -0.041801855 -0.11548525 0.08741802 0.07423409 -0.10263426
0.009838342 -0.06723425 0.061439473 -0.035613153 -0.070770495 0.09930338 0.033204895 0.044418972
-0.057125315 0.06485969 -0.095472 -0.024171434 0.07523308 -0.0052510556 0.061969157 0.09122537
-0.0722371 0.05805878 -0.10556176 0.053138338 -0.01682408 -0.09013735 0.10465567 -0.06639495
-0.088186726 -0.050599657 0.030099448 -0.07766358 0.11435785 0.0018075381 0.03268975 -0.071307234
0.070373036 0.0243107 -0.10915846 0.08203238 0.0151622 -0.017143756 -0.023673462 -0.04100062
-0.04709994 -0.047040354 0.08077589 0.06211282 -0.08814718 -0.005471704 0.13040806 -0.046874315
-0.015498984 0.0920545 0.078192025 0.022671418 -0.11007993 0.07466369 -0.03618627 0.092109695
-0.107324645 0.025024313 -0.005956675 -0.08551616 -0.10200881 -0.051557843 0.106174886 0.052780304
-0.08638705 -0.032538373 0.03867958 -0.083273984 -0.113991134 0.07021357 -0.03609871 -0.09675871
-0.108505584 -0.093944654 -0.020802641 -0.07380535 -0.072731055 -0.022847727 -0.042301357 0.02241281
0.1174301 -0.10386467 -0.056740973 0.037844736 -0.10552567 0.049497835 0.016524171 0.03461145
-0.05806579 0.026055254 -0.10532533 0.06490437 0.07622489 -0.055164106 0.04974556 -0.03741276
-0.07766308 0.058410633 -0.051637635 -0.045311783 0.056982864 0.029233374 -0.117117964 0.09927287

encoder.layers.2.nn.net.0.bias f4 [64]
00000000: 6c99 a43b 605c 073b 0d82 67bd dee7 ff3d
00000010: b219 e93d 1000 acbd b111 47bd a258 b83d
00000020: c7bb f23c 6bb4 3d3d d5d2 89bd 3bf6 e6bd
00000030: 2fb4 2cbd 077a 063d ee3e f8bc dbac 6a3d
00000040: 3da2 bbbc 4e4a cf3d c94b 8b3c feab c8bd
00000050: e108 3bbd 7cff 113d 5c6a a93d 6d01 013e
00000060: 9b64 d03c a9ec 963c ed08 e43d 58a8 7b3d
00000070: c4be e53d f457 d03d af85 5d3d 84e2 c3bd
00000080: b0e1 1a3d 96cc 72bd 989c d3bd ddac bb3d
00000090: ade3 b0bc 50ca ec3d 2a36 6c3c 2da9 c53c
000000a0: bbf0 4a3c 9988 9abd 734c 41bd 7af1 52bd
000000b0: 431c e73d 8a3a b63d d172 a1bd 9a3e c8bd
000000c0: 6ea7 873c 3529 423c b53a b1bc 23d1 81bd
000000d0: 6027 a63d 737f ebbc 2e9f 613d 6522 be3b
000000e0: 6ac8 ba3d 283f a23d 5108 1abb 5d25 70bc
000000f0: 98bf a73d 5c9e 943d 313b c73d 1f41 f0bd
0.005023172 0.0020654425 -0.05652051 0.12495397 0.11381854 -0.083984494 -0.048600856 0.0900128
0.029630555 0.046314638 -0.06729666 -0.112774335 -0.042164024 0.032831218 -0.030303445 0.057293754
-0.02290451 0.10121594 0.01700391 -0.0979843 -0.045662764 0.03564404 0.082722396 0.125982
0.025438597 0.018423395 0.11134515 0.061439842 0.11218026 0.10173026 0.05408257 -0.09564689
0.03781289 -0.05927714 -0.10332602 0.091638304 -0.02159294 0.115620255 0.014417211 0.02412852
0.012386496 -0.07545585 -0.04719205 -0.05149982 0.11284687 0.08897884 -0.078832276 -0.09777565
0.016559329 0.011850645 -0.021634439 -0.06338718 0.08112979 -0.028747296 0.055083446 0.00580244
0.09120257 0.07922202 -0.0023503492 -0.014657346 0.081908405 0.07256767 0.09728087 -0.11731171

encoder.layers.2.nn.net.2.weight f4 [64, 64]
00000000: 3658 f2bd 3a16 54bd 36ef 943c 27df a5bd
00000010: effa 033d 67f9 cebd cf20 163d 0231 aebd
00000020: eed9 74bd b528 95bd 3c0c 1fbd dc3c 89bd
00000030: aa3c 083e 88d1 6d3c 641b 35bd c3b4 17bc
00000040: 1e6b ddbc 6dc7 d93c c85b d9bd 3a41 52bd
00000050: a706 b93d acc7 d13d 83d4 c93c f45d ad3d
00000060: 6912 81bd 6090 cdbd 18fb 8ebd 68af f1bd
00000070: 564c bb3d bc15 f13d 33f7 32bd 791e 63bd
00000080: 83fe cbbd 9de8 b2bd 7185 1e3d 291a dc3d
00000090: 784c f2bd 2e23 90bd 59ec a43d de8b 93bd
000000a0: efd4 cbbd 54a1 a4bd 8e79 d4bc 4c8e 503d
000000b0: 9a13 e63c b8ed 9e3d 0c63 f23d f927 973c
000000c0: 4a31 7cbd ef30 b43d 374f a93c 16a3 b33d
000000d0: 3fb3 f43c 0446 bc3d 4926 ebbd 2e56 c0bd
000000e0: ec94 db3d 7c1c 8d3d 09c7 ac3c 5458 abbd
000000f0: 700b e73c f49d b73d cb48 f03d 712f b8bd
00000100: 0254 dfbd 0ce5 b33d 5c24 da3c b3f6 aebc
00000110: 0c21 f0bd 3f4d bc3c bcff dd3d 6d97 24bd
00000120: d558 153d 6fcf 79bd 3aa1 1ebd c741 c73d
00000130: 1546 27bd 838c e43d 68e9 963d 8caf d83d
00000140: 844d d2bd a2dc f9bd 8086 c43c 51a3 5dbd
00000150: ecd8 ec3d fc11 113d 3b94 993d d88b 4c3d
00000160: 4d0d 73bd f1d5 d13d a696 49bd 4fb4 d6bd
00000170: 73ad bf3d 33ed cbbd fd89 07be 5eae e3ba
00000180: 7eb9 5abd 9796 9cbd cec7 e93d c4ba da3c
00000190: 7ef5 f2bd 353e c4bd 64a5 033d e1a7 203d
000001a0: d533 ef3c b76d 8ebd 0c01 afbd 9aa6 c5bc
000001b0: 5caf af3c 61fb 90bd 116f 0fbd b209 923d
000001c0: 79a7 683d 8086 7c3b a94b c2bd 58cc f6bc
000001d0: a3ca e73d 8118 1b3d 90ad c6bd 04ab d4bc
000001e0: 6c34 a9bd f756 7b3d ab0a 1cbd 88d4 8cbc
000001f0: c4e8 ecbd 9515 e9bd 3cad ddbd 0d46 03bd
00000200: b2a5 f53c b02c 873d 3fcc afbd 6e2e bc3d
00000210: 9af9 5ebd 7916 c93d c2df 7ebd b390 b73c
00000220: e080 25bd 386f 91bd ca1a bdbd e6b0 f6bb
00000230: 0fec f93d 1829 d1bd 6866 9fbd ccdd febb
00000240: 898d c4bc 1ec1 2d3b de25 81bc ba7d bebb
00000250: 362d 9b3c 64a9 f0bd 0376 9abd 22a6 dfbd
00000260: a3c8 b7bc 2672 31bc 12cd 3f3d db58 6fbd
00000270: f9d0 f2bd 7ffd 01be fbc2 f7bd 00a2 243d
00000280: 21ac 433b 6a5f ea3d 4735 9bbd 40ef fdbd
00000290: 623c f63d 57ea 56bc fae0 f7bd 4dbc a2bc
000002a0: 3992 c0bd 805c cdbd b4fe cdbd bd36 87bd
000002b0: 1b58 94bd bb06 363d 5536 bcbd b2ae 313d
000002c0: 5ae2 6b3d d893 df3c ea65 3abd 9613 033d
000002d0: d650 b8bc 1c6a 81bd 217d ecbd 647e 8ebc
000002e0: 4638 9abd 68d2 90bd 9846 9f3c 6c18 c0bd
000002f0: 6e2a ecbd caca 5fbc 6163 65bd 1693 073d
00000300: 8a46 5b3d ab1c 90bd 2637 5abd ce3d 2abd
00000310: d97c 683d 32f5 983c 598e 863c 8be3 773c
00000320: daf5 4abd 0304 91bd e9ac 45bd b830 15bc
00000330: 7737 c5bc cb86 9a3d a1eb a0bc 5850 4bbc
00000340: 66e6 04be 991d a83c 2da6 afbd 6736 923d
00000350: 2d98 11bb cc79 6a3d 94d1 64bd 540a b4bd
00000360: fb1f e3bc 6f98 48bd ede6 52bd 89ba c2bc
00000370: ba6b d5bd a023 eb3c 3a04 e43d 8693 803d
00000380: ac82 ce3d fbee aa38 60d3 c0bd 3071 2b3d
00000390: c5f9 993d 1195 d93d 37de 93bd 3479 e4bd
000003a0: 40ee 023e de45 f83c 874b eabd 4362 993d
000003b0: 0e96 7c3b 890e bc3d cca7 f33d ea54 ffbd
000003c0: 1f5e 1a3d 0bff e1bd b4ce 42bd 359e 5a3c
000003d0: cea7 dcbd 857e 7f3b c420 91bd 8261 873c
000003e0: 6b6d 78bd 5bc8 db3d 7890 e0bd 9e56 e73d
000003f0: 3a2d 4a3d 2c00 fcbd a793 95bc 1fe7 dc3d
-0.11833231 -0.05177901 0.01818047 -0.080992036 0.03222173 -0.101061635 0.036652382 -0.08505441
-0.059778146 -0.07283155 -0.038830027 -0.06701061 0.13304392 0.014515288 -0.044215575 -0.009259406
-0.027028617 0.026584351 -0.10613209 -0.051331736 0.09034472 0.102431625 0.024637466 0.08465186
-0.063023396 -0.10037303 -0.06981486 -0.11801034 0.09145419 0.11771724 -0.04369278 -0.055448983
-0.09960654 -0.08735774 0.03870148 0.10747177 -0.118309915 -0.0703796 0.08052892 -0.07204412
-0.09952723 -0.080385834 -0.025936868 0.050916955 0.028085519 0.07760185 0.11835298 0.018451678
-0.061570443 0.08798396 0.020667655 0.087713405 0.029870627 0.09193042 -0.11481912 -0.093914375
0.10721764 0.068901986 0.021091001 -0.08366457 0.028203696 0.08965674 0.11732634 -0.08993424
-0.10904695 0.087839216 0.026628666 -0.02135787 -0.11725053 0.022986053 0.10839793 -0.040183473
0.03646167 -0.06098884 -0.038727976 0.09729343 -0.04083832 0.11159613 0.073687375 0.10580358
-0.10268691 -0.122002855 0.023989916 -0.05411083 0.11564812 0.03541754 0.07498976 0.049938053
-0.059338856 0.10245884 -0.049215935 -0.1048361 0.09359255 -0.099573515 -0.13236232 -0.0017370691
-0.053399555 -0.0764591 0.11415063 0.026700385 -0.1186323 -0.095821775 0.03214015 0.0392226
0.02919952 -0.0695452 -0.085451216 -0.024127293 0.021445923 -0.07079197 -0.03501803 0.071307555
0.05680034 0.0038532317 -0.09487087 -0.030126736 0.11317947 0.037865166 -0.09701073 -0.025960453
-0.08261952 0.061362233 -0.03809611 -0.017191187 -0.11567834 -0.113810696 -0.108240575 -0.032049228
0.029986236 0.0660032 -0.08583879 0.09188543 -0.054437257 0.098187394 -0.06222511 0.022407865
-0.040406108 -0.071012914 -0.09233625 -0.007528412 0.12203228 -0.10212916 -0.07783204 -0.007777905
-0.02399327 0.0026512812 -0.015765127 -0.0058133276 0.018942457 -0.11751059 -0.0754204 -0.10920359
-0.022434538 -0.010830438 0.04682643 -0.05843435 -0.118562646 -0.12694357 -0.120977364 0.040193558
0.0029857235 0.1144398 -0.07578521 -0.12399149 0.12023236 -0.013117394 -0.12103458 -0.01986518
-0.0940289 -0.100274086 -0.100583464 -0.066022374 -0.07243367 0.044440012 -0.091900505 0.043379493
0.057588913 0.027292177 -0.04550735 0.0320011 -0.022499483 -0.06319067 -0.11547304 -0.017394252
-0.075302646 -0.07071382 0.019442841 -0.09379658 -0.1153153 -0.0136591885 -0.05600298 0.033099256
0.05353407 -0.07036718 -0.05327525 -0.041562848 0.05675969 0.018671606 0.016425299 0.015129934
-0.04955087 -0.07080843 -0.048260603 -0.009105854 -0.0240743 0.07545241 -0.019643607 -0.012409292
-0.12978515 0.020521926 -0.085766174 0.07139283 -0.0022215948 0.05724506 -0.05586393 -0.087910324
-0.02772521 -0.048973497 -0.05148976 -0.023770588 -0.10420938 0.02870351 0.11133619 0.06278138
0.100835174 8.150745e-05 -0.094153166 0.04185599 0.07518343 0.10624135 -0.072201185 -0.1115593
0.12786198 0.030306753 -0.11440187 0.07489445 0.0038541588 0.0918246 0.11897239 -0.12467368
0.037687417 -0.11034974 -0.04756041 0.013343384 -0.10774194 0.0038985324 -0.07086328 0.016525988
-0.060651224 0.10731574 -0.10965055 0.11295818 0.049359538 -0.1230472 -0.018258883 0.1078627

encoder.layers.2.nn.net.2.bias f4 [64]
00000000: e480 513d 1b5f df3d 785e bdbd 614d bc3d
00000010: fe23 e8bc 1e1d 133d 8f1b 5a3d bcba e0bd
00000020: 1cd1 4b3c e561 babc 1562 44bb 24b1 423d
00000030: e9bd 873d 9357 01bd da0b 02bd 09d7 83bd
00000040: cc2b 84bc 6a95 aa3d b3ff 71bd d739 993c
00000050: 0b00 0abc c880 ea3d b6a5 f83d 0918 e1bc
00000060: a20f be3d 48ec a4bd 21de 8ebd 7da6 7a3d
00000070: 5a7c 2dbd 34d9 043d a330 f63c 1584 ec39
00000080: 839f 6c3d 6216 fb3d adf3 1c3b 3dc8 30bc
00000090: cd65 1a3c 221e c13d f197 95bd 2f4c 37bd
000000a0: d2e4 f9bd 8eb6 b93b 0842 89bb fc89 bb3d
000000b0: 14f9 a9bd 6459 edbd a978 1c3d f843 853c
000000c0: 2aed ee3c b5d3 373d c801 6e3d bdf4 e63d
000000d0: 2e18 a9b9 c43c b93d 7368 b2bd 708d dabd
000000e0: 93d5 553d ac4b 7dbd 50b8 f23c 259e bfbd
000000f0: e80a 3e3d 2be5 013d 655f eebd c69f 14bd
0.05114831 0.10906812 -0.09246534 0.09194446 -0.028337475 0.03591644 0.05324894 -0.10973117
0.012439992 -0.022751758 -0.0029965688 0.047532216 0.06628019 -0.031577658 -0.031749584 -0.06437499
-0.016134165 0.0832928 -0.059081744 0.018704338 -0.008422862 0.11450344 0.12140982 -0.027477281
0.092803255 -0.080528796 -0.069759615 0.06119393 -0.04235492 0.032433704 0.030052489 0.00045111837
0.05776931 0.122601286 0.0023948953 -0.010789928 0.009423685 0.094295755 -0.07304371 -0.04475039
-0.12201847 0.005667514 -0.0041887797 0.09157178 -0.08299461 -0.115893155 0.038201008 0.016267762
0.029165823 0.044879634 0.058107167 0.11277149 -0.00032252207 0.09044793 -0.08711328 -0.10671508
0.052205633 -0.061839744 0.029628903 -0.093563356 0.04639712 0.031712692 -0.11639289 -0.036285184
