scripts/embeddings_gin_version2/ENZYMES/gin_dim64_ep40_lr0.0005_drop0.0/gin_classifier.pt (torch, 177117 bytes, 42 tensors)

encoder.layers.0.nn.net.0.weight f4 [64, 3]
0.2592229 -0.083403826 -0.41196278 0.16328059 -0.2969611 -0.11507218 -0.13163169 0.0888623
0.40815276 -0.35095444 -0.2545544 -0.4645923 0.39914066 0.11122285 -0.063530676 -0.31618607
0.00942297 -0.33382702 0.008830428 -0.07664007 -0.2662815 0.03628687 0.44761375 0.4952556
-0.025607593 0.34606946 -0.37891817 0.18521014 -0.34183586 0.2632478 -0.1923955 0.05635302
-0.09969864 0.27011377 0.42497626 -0.48418626 0.07410405 0.35824353 -0.398223 0.17499124
-0.50962645 0.21251956 0.48359376 0.20656125 -0.36599147 -0.54302675 -0.37929782 -0.28913715
-0.39565063 -0.10515713 -0.40668356 -0.45753804 -0.4708411 -0.31660685 -0.022375155 0.48312375
-0.16363275 -0.29515883 -0.31366754 0.095519744 -0.56381285 -0.3816629 0.4366504 0.49107772
0.50428855 -0.2884756 -0.33320788 0.101804115 -0.2697237 0.47949213 -0.046319336 0.077469274
-0.20305023 -0.4103088 0.44306085 -0.1617721 -0.5387444 -0.33636776 0.19783898 -0.064527296
-0.22368324 -0.4214024 -0.15857194 0.4934227 -0.52787286 0.17894492 0.37925795 -0.13263634
-0.22160809 0.20076698 0.25308987 0.056471616 0.2588214 0.52459896 0.3337551 0.020787816
-0.28943807 -0.011807224 -0.2839389 -0.022430765 0.11923243 -0.24103992 -0.1715889 -0.05104344
0.21209414 -0.47396657 0.5030594 -0.55103153 0.14367777 0.29129657 0.20095956 -0.2907849
0.31690052 0.57682073 -0.5689732 0.33952317 0.17647813 0.23247045 -0.12581438 0.027696215
-0.40435937 -0.38717672 0.33153987 -0.5437344 -0.32927185 -0.087353684 -0.57374525 0.55865467
0.36216292 -0.48502985 0.30639562 0.31091142 -0.26347712 0.48308134 0.17785703 0.31742847
0.066798754 -0.09268236 0.1132132 0.07210695 0.2798319 0.26241353 0.3944521 0.05997659
0.48444557 0.30018145 -0.05422395 0.46137264 0.4927997 -0.29728925 0.09811556 -0.13486558
0.57075506 0.3355429 0.24984138 -0.524173 0.42554274 0.13112651 0.24821426 -0.03445257
0.08920602 -0.19573435 0.2927747 0.008907669 0.14920983 0.06712531 -0.06717588 -0.041103248
-0.19043885 -0.10925329 0.46238798 0.51877755 -0.48902723 0.0073180273 0.22566918 -0.17996676
-0.37570596 -0.33718732 -0.18707483 0.53380656 0.18670858 0.003779749 0.07911371 -0.3419488
-0.4497294 0.3755841 0.13042551 0.5771144 -0.15556878 -0.5744992 -0.25673464 0.4467715
00000000: ddb8 843e a0cf aabd c9ec d2be 0733 273e
00000010: 490b 98be f7aa ebbd 75ca 06be 70fd b53d
00000020: 66f9 d03e 4db0 b3be f454 82be 0bdf edbe
00000030: 2a5c cc3e cec8 e33d 5f1c 82bd 24e3 a1be
00000040: cd62 1a3c 60eb aabe 80ad 103c 78f5 9cbd
00000050: 0c56 88be 8aa1 143d a12d e53e 2492 fd3e
00000060: 04c7 d1bc 0430 b13e 9001 c2be baa7 3d3e
00000070: 1c05 afbe 6ac8 863e 5303 45be 6dd2 663d
00000080: cd2e ccbd 5a4c 8a3e 7d96 d93e 43e7 f7be
00000090: ddc3 973d b26b b73e e3e3 cbbe e730 333e
000000a0: e176 02bf ba9e 593e 9a99 f73e cb84 533e
000000b0: 3c63 bbbe cd03 0bbf 5333 c2be c909 94be
000000c0: b892 cabe 9f5c d7bd d438 d0be 6d42 eabe
000000d0: 1612 f1be 4b1a a2be 1a4c b7bc ff5b f73e
000000e0: 588f 27be 0f1f 97be 0899 a0be db9f c33d
000000f0: 0a56 10bf 5269 c3be a490 df3e 8a6e fb3e
00000100: 0e19 013f 13b3 93be 399a aabe ad7e d03d
00000110: 3a19 8abe fe7f f53e 58b9 3dbd 36a8 9e3d
00000120: 66ec 4fbe ff13 d2be dfd8 e23e 96a7 25be
00000130: 27eb 09bf 6538 acbe 4d96 4a3e e326 84bd
00000140: 380d 65be 0ec2 d7be af60 22be e6a1 fc3e
00000150: ad22 07bf 563d 373e 192e c23e d2d1 07be
00000160: 3bed 62be dc95 4d3e ff94 813e c84e 673d
00000170: 3d84 843e 1e4c 063f f3e1 aa3e 364b aa3c
00000180: 3a31 94be 1673 41bc 7160 91be b9c0 b7bc
00000190: 2230 f43d 2bd3 76be 00b5 2fbe ed12 51bd
000001a0: 352f 593e bfab f2be 80c8 003f 6710 0dbf
000001b0: 4420 133e d324 953e 58c8 4d3e c2e1 94be
000001c0: c940 a23e 86aa 133f 3aa8 11bf fbd5 ad3e
000001d0: afb6 343e bc0c 6e3e 7cd5 00be 2ce3 e23c
000001e0: 3108 cfbe 073c c6be 98bf a93e 2d32 0bbf
000001f0: 5296 a8be 7de6 b2bd f8e0 12bf fe03 0f3f
00000200: 6b6d b93e d555 f8be e3df 9c3e c82f 9f3e
00000210: 79e6 86be 7056 f73e 2720 363e fc85 a23e
00000220: c9cd 883d 40d0 bdbd 52dc e73d cfac 933d
00000230: 2046 8f3e 115b 863e a0f5 c93e 03aa 753d
00000240: 4009 f83e 62b1 993e ef19 5ebd 0939 ec3e
00000250: 3e50 fc3e 4c36 98be d0f0 c83d 341a 0abe
00000260: 011d 123f 47cc ab3e 6bd6 7f3e 3430 06bf
00000270: bde0 d93e 0746 063e e12b 7e3e 231e 0dbd
00000280: a5b1 b63d 966e 48be 91e6 953e 79f1 113c
00000290: 76ca 183e ff78 893d 8293 89bd e15b 28bd
000002a0: 6702 43be 30c0 dfbd 1ebe ec3e 9bce 043f
000002b0: c761 fabe 10cc ef3b d215 673e 3549 38be
000002c0: 885c c0be d1a3 acbe 8b90 3fbe 8ca7 083f
000002d0: 8930 3f3e aab5 773b 5e06 a23d ea13 afbe
000002e0: ef42 e6be 8f4c c03e 448e 053e c5bd 133f
000002f0: 6c4d 1fbe 6112 13bf b972 83be 3cbf e43e

encoder.layers.0.nn.net.0.bias f4 [64]
-0.3965759 -0.3467125 -0.18824394 -0.46372166 0.37090728 -0.2629465 0.28985003 0.2210846
0.3359474 0.058661222 0.5432873 0.32321092 -0.2561651 0.33584696 -0.39851114 0.3715253
-0.5343188 0.38026902 -0.41116276 -0.38038105 -0.36461326 0.3236004 -0.17299125 -0.31447884
-0.51887447 -0.4398377 0.5346785 0.5607966 0.16196573 -0.3059284 0.5345738 0.09167919
-0.34559137 0.40086913 -0.49560994 -0.48670846 0.4994319 -0.14172263 -0.2003924 -0.09320685
0.18762171 -0.5760235 -0.4415793 0.01715023 0.33680984 0.31655964 -0.39515713 -0.06739684
-0.08377719 0.305411 -0.38780567 0.3114657 -0.24682647 0.14497158 -0.5731095 0.09335025
-0.40736154 -0.37580338 0.019593025 0.0028451118 -0.09384267 -0.10493951 -0.15928042 -0.2040003
00000000: ff0b cbbe 4d84 b1be 05c3 40be ed6c edbe
00000010: 8fe7 bd3e eca0 86be 3967 943e 0064 623e
00000020: 4c01 ac3e c046 703d e014 0b3f e77b a53e
00000030: 1228 83be 22f4 ab3e a709 ccbe 9038 be3e
00000040: 1ec9 08bf 9fb2 c23e ed83 d2be 4ec1 c2be
00000050: 97ae babe f4ae a53e 9e24 31be 5f03 a1be
00000060: f5d4 04bf 6832 e1be b1e0 083f 5e90 0f3f
00000070: 58da 253e a6a2 9cbe d4d9 083f 4dc2 bb3d
00000080: 5af1 b0be b83e cd3e 96c0 fdbe da31 f9be
00000090: 8ab5 ff3e bd1f 11be aa33 4dbe 3ce3 bebd
000000a0: e81f 403e 4776 13bf af16 e2be a47e 8c3c
000000b0: 5772 ac3e 1b14 a23e 0952 cabe 5b07 8abd
000000c0: 6093 abbd d55e 9c3e 778e c6be 6f78 9f3e
000000d0: 14c0 7cbe 6e73 143e 4eb7 12bf 6a2e bf3d
000000e0: b191 d0be 4d69 c0be 8d81 a03c 0e75 3a3b
000000f0: 9630 c0bd 87ea d6bd 681a 23be 74e5 50be

encoder.layers.0.nn.net.2.weight f4 [64, 64]
-0.10182048 0.017539904 -0.10779975 -0.025901899 0.056535423 0.09885083 0.06600563 -0.07929223
0.124643594 -0.09337732 -0.014109204 0.069568954 0.06278308 0.102586456 -0.014092455 -0.09603673
0.031276733 0.047160983 -0.053892322 0.106564425 0.026959375 0.117363185 0.11584648 -0.06268267
0.016031044 0.120869696 0.1190017 0.099986896 0.0601767 -0.060090672 0.08083392 -0.113458216
0.0821134 0.105838954 0.0018074339 -0.13079 -0.069111966 -0.0010302468 -0.08224606 0.0047254637
-0.091087714 0.029735982 -0.096402705 0.088580824 -0.036545515 -0.054379728 -0.025368331 -0.007540219
-0.024361527 0.07582457 -0.12350533 0.01322489 0.112889245 0.020770518 0.075039566 0.055434633
0.03794068 -0.07799225 0.039138958 -0.034515105 0.10591442 0.11287216 -0.09214057 0.030703371
0.08318928 0.032261018 -0.016176231 -0.06126991 0.098378874 0.05339487 0.019936504 0.031289056
0.0014495752 0.095417894 0.0065066083 -0.06967452 -0.09366994 -0.044782955 -0.10397899 0.10956153
-0.027868643 0.025331706 -0.052814078 0.05788109 0.06948935 -0.00029375407 0.022901043 0.071976595
-0.00015277472 -0.105504975 0.04158601 0.09660273 -0.054774594 0.051957045 0.12611793 -0.060331456
-0.06477186 0.050469622 -0.11159505 0.018986544 0.006717242 -0.012303033 -0.000580832 -0.080125056
-0.0053145355 0.01757504 -0.01814336 0.01417125 -0.026761502 0.09375564 0.1059569 0.015232263
-0.03267465 -0.07735824 -0.05505089 0.110872924 0.0034640636 -0.114952914 0.06019368 0.10649661
0.034487974 0.014796313 -0.07558623 0.11094593 0.018472478 -0.0063382266 0.07077121 -0.012921259
-0.107173726 0.08801924 0.08176889 -0.0668491 -0.09375381 0.089092165 0.121680886 0.07629317
0.0050641885 -0.07849921 0.12038572 -0.11145664 -0.0168109 -0.008801507 -0.09316157 0.08444594
-0.11345647 0.10985419 -0.086669765 0.0773733 -0.10634619 -0.027079681 -0.021135952 -0.025438095
0.10415938 -0.034955233 -0.07708628 -0.11650621 -0.09390261 0.0020046628 0.08314542 0.031067692
0.057715654 -0.02418233 0.10412984 -0.0363742 0.091597535 -0.12076851 0.12193277 0.07893277
-0.07901411 0.10103193 -0.01778688 -0.053403266 -0.007387599 0.09481959 -0.03054506 -0.084451996
0.059622154 0.079800405 0.043906603 -0.120601885 0.10647082 0.038562275 -0.0031047254 -0.00897251
-0.091553435 -0.008669878 -0.012995464 -0.09478352 -0.06415903 -0.008725376 -0.09343977 -0.10509977
0.12240391 0.019862683 0.013465957 -0.10471131 -0.096040644 0.058573693 -0.022683261 -0.10117887
-0.121046394 0.11054309 0.11419421 0.0876971 -0.09005826 0.05810158 -0.10619656 -0.06300856
-0.07814573 0.049880534 0.10191302 -0.10838366 0.00706589 0.0038455585 -0.012276727 -0.00524278
-0.113652274 0.05766751 0.07290736 -0.029814241 0.057329647 0.059947934 -0.11789692 -0.12503685
-0.06902988 -0.08400314 0.023817632 -0.04280563 0.079472445 0.07557906 -0.054481722 -0.008463249
-0.005950796 0.07959448 0.06589285 0.09195275 -0.0045080623 0.11004594 -0.050827492 0.072911
0.05127633 -0.11691741 0.07110234 -0.106537946 -0.13540152 0.05152423 -0.07081433 0.116021
0.03831675 0.03110715 0.010771229 0.10323839 -0.040142197 -0.12834744 0.0016888615 0.063649386
00000000: 4187 d0bd d8af 8f3c 1ec6 dcbd 3830 d4bc
00000010: b091 673d 4e72 ca3d f62d 873d f763 a2bd
00000020: 2445 ff3d 9c3c bfbd 4a2a 67bc 2b7a 8e3d
00000030: 6a94 803d d918 d23d 0ae4 66bc e8ae c4bd
00000040: 081c 003d e02b 413d 32be 5cbd 733e da3d
00000050: e8d9 dc3c 1c5c f03d eb40 ed3d c65f 80bd
00000060: 8953 833c 888a f73d 2ab7 f33d eec5 cc3d
00000070: d87b 763d a321 76bd 418c a53d c85c e8bd
00000080: 122b a83d 18c2 d83d 6be7 ec3a d0ed 05be
00000090: 938a 8dbd 5909 87ba 9f70 a8bd 10d8 9a3b
000000a0: 328c babd e098 f33c c86e c5bd dd69 b53d
000000b0: c0b0 15bd 47bd 5ebd 3fd1 cfbc f113 f7bb
000000c0: d391 c7bc ea49 9b3d 5df0 fcbd 36ad 583c
000000d0: 7a32 e73d ef26 aa3c 58ae 993d 6d0f 633d
000000e0: b067 1b3d 67ba 9fbd 2c50 203d b65f 0dbd
000000f0: a9e9 d83d 8529 e73d 32b4 bcbd a385 fb3c
00000100: 245f aa3d 2124 043d 0484 84bc 28f6 7abd
00000110: dd7a c93d 94b4 5a3d e151 a33c f428 003d
00000120: acff bd3a 756a c33d 6335 d53b 84b1 8ebd
00000130: 07d6 bfbd 556e 37bd f0f2 d4bd cc61 e03d
00000140: c84c e4bc 7084 cf3c 9353 58bd b914 6d3d
00000150: 6f50 8e3d 0103 9ab9 f89a bb3c 7768 933d
00000160: 2732 20b9 fe12 d8bd 1856 2a3d a7d7 c53d
00000170: 535b 60bd e9d0 543d 0f25 013e 1e1e 77bd
00000180: 1ca7 84bd 3cb9 4e3d f28b e4bd ab89 9b3c
00000190: 4f1c dc3b a992 49bc fa42 18ba 9b18 a4bd
000001a0: 8e25 aebb 88f9 8f3c 62a1 94bc 882e 683c
000001b0: f03a dbbc f502 c03d eeff d83d be90 793c
000001c0: dbd5 05bd ff6d 9ebd 0b7d 61bd 5811 e33d
000001d0: 5805 633b 6f6c ebbd a68d 763d e51a da3d
000001e0: 4343 0d3d 3c6c 723c f4cc 9abd 9f37 e33d
000001f0: 9853 973c e6b0 cfbb 7ff0 903d b0b3 53bc
00000200: e67d dbbd 6e43 b43d 7376 a73d 2ee8 88bd
00000210: ff01 c0bd f475 b63d d433 f93d 983f 9c3d
00000220: 7ef1 a53b 32c4 a0bd ca8c f63d 6143 e4bd
00000230: 03b7 89bc 3234 10bc 7ecb bebd fef1 ac3d
00000240: de5b e8bd 3cfb e03d eb7f b1bd e575 9e3d
00000250: 08cc d9bd 35d6 ddbc 4e25 adbc 8d63 d0bc
00000260: 8351 d53d 382d 0fbd 69df 9dbd cf9a eebd
00000270: 0350 c0bd a960 033b 2548 aa3d ac81 fe3c
00000280: 4067 6c3d 061a c6bc 0742 d53d 1dfd 14bd
00000290: 7d97 bb3d 7b55 f7bd e3b7 f93d 81a7 a13d
000002a0: 26d2 a1bd d4e9 ce3d cab5 91bc 62bd 5abd
000002b0: ac13 f2bb c630 c23d a239 fabc 2bf5 acbd
000002c0: 5c36 743d 656e a33d 69d7 333d 1ffe f6bd
000002d0: 600d da3d 7af3 1d3d a678 4bbb 6f01 13bc
000002e0: 5e80 bbbd 1b0c 0ebc edea 54bc dd1d c2bd
000002f0: cf65 83bd e1f4 0ebc 5a5d bfbd 8c3e d7bd
00000300: e7ae fa3d 11b7 a23c 51a0 5c3c e272 d6bd
00000310: f5b0 c4bd f8ea 6f3d 3fd2 b9bc de36 cfbd
00000320: 2ce7 f7bd 6a64 e23d a7de e93d 8a9a b33d
00000330: 7770 b8bd ecfb 6d3d 957d d9bd a20a 81bd
00000340: de0a a0bd 884f 4c3d c6b7 d03d 41f8 ddbd
00000350: fb88 e73b c405 7c3b 5324 49bc a0cb abbb
00000360: 86c2 e8bd c434 6c3d 7450 953d ff3c f4bc
00000370: 7ed2 6a3d f78b 753d f173 f1bd a909 00be
00000380: 8a5f 8dbd d709 acbd 321d c33c f554 2fbd
00000390: 73c2 a23d 32c9 9a3d 3a28 5fbd 70a9 0abc
000003a0: e5fe c2bb 6e02 a33d d5f2 863d b951 bc3d
000003b0: 5eb8 93bb c45f e13d 7d30 50bd 5d52 953d
000003c0: 2107 523d 6572 efbd 1b9e 913d 9130 dabd
000003d0: b2a6 0abe 120b 533d 1a07 91bd 6b9c ed3d
000003e0: 06f2 1c3d 6cd4 fe3c cf79 303c a66e d33d
000003f0: 256c 24bd 836d 03be ca5c dd3a 9c5a 823d

encoder.layers.0.nn.net.2.bias f4 [64]
-0.021231338 -0.09787579 0.016407503 0.11860227 0.109789915 0.083425075 -0.09740416 -0.029683772
0.11496654 0.063346855 0.0651262 -0.039286822 -0.024257705 -0.05098486 -0.022287782 -0.09001504
0.020652931 0.004344042 0.0923832 0.07137024 0.0054674977 0.12664898 0.037918087 0.009665344
-0.052732 0.039178044 -0.06044183 0.008881057 0.09869572 0.08617495 -0.10765331 -0.11355591
-0.08999086 0.05931325 -0.035672847 0.035099827 0.056208428 0.07756472 0.096339636 0.04177259
-0.08336235 -0.029554887 -0.014779176 -0.0018044552 -0.11028686 -0.09621208 0.10231117 -0.043373715
0.05672595 0.035619203 -0.098199576 -0.07724604 0.07601409 -0.10159745 -0.06490428 0.073923305
-0.083205596 -0.029448438 0.055342022 -0.015078768 0.1193449 -0.10405694 -0.031525213 -0.07736909
00000000: 58ed adbc 1a73 c8bd 0769 863c bfe5 f23d
00000010: 89d9 e03d c4da aa3d d57b c7bd 622b f3bc
00000020: 9473 eb3d ffbb 813d e360 853d 38eb 20bd
00000030: 18b8 c6bc 80d5 50bd de94 b6bc ce59 b8bd
00000040: 5630 a93c 7758 8e3b 6733 bd3d 8f2a 923d
00000050: b228 b33b 45b0 013e ff4f 1b3d 645b 1e3c
00000060: 82fd 57bd 2879 203d da91 77bd da81 113c
00000070: fb20 ca3d 7e7c b03d 5779 dcbd 0090 e8bd
00000080: 214d b8bd 73f2 723d b11d 12bd d6c4 0f3d
00000090: cf3a 663d 40da 9e3d b74d c53d bc19 2b3d
000000a0: e1b9 aabd 171d f2bc 5b24 72bc 7883 ecba
000000b0: 14de e1bd d70a c5bd 8588 d13d a3a8 31bd
000000c0: 7859 683d 71e5 113d dc1c c9bd 2c33 9ebd
000000d0: 46ad 9b3d 5312 d0bd 89ec 84bd 1a65 973d
000000e0: b267 aabd da3d f1bc 51ae 623d f00c 77bc
000000f0: 196b f43d ce1b d5bd 9520 01bd af73 9ebd

encoder.layers.1.nn.net.0.weight f4 [64, 64]
0.08969195 0.028354088 -0.009855792 -0.11183339 -0.09963311 0.051546898 0.13734634 0.0063942885
0.10153373 0.026575187 0.058661316 0.13058484 0.10252072 -0.05208492 0.021518085 -0.12090074
0.068655446 0.06872142 -0.08269014 0.093706034 0.031471398 0.07250436 0.06822026 -0.04024718
0.098275095 -0.0064485567 -0.08520105 -0.10175914 -0.026919335 -0.030656615 0.12456035 0.09412863
0.035847258 0.095903814 0.005445899 -0.057936892 -0.002758428 -0.12629943 0.088939644 -0.03649636
0.11517035 -0.0729881 0.057709437 -0.053116757 0.04299016 -0.10360018 0.12070412 -0.09341075
0.020072607 0.01576008 -0.00978997 0.025756367 0.045796968 -0.11447192 -0.11675048 0.04317623
0.06732111 0.0060661123 0.01591753 0.062350355 -0.0342874 -0.06663531 0.082112715 -0.11973869
-0.068806335 0.1104435 -0.029180503 -0.05135927 -0.120242715 -0.001067153 -0.07770841 -0.046963613
-0.003975428 0.030688541 0.08014979 -0.006661128 0.1263144 -0.09567313 0.015849272 -0.046555866
-0.097841725 -0.039630763 0.11963028 -0.10233533 -0.09695645 0.08446997 -0.0084255645 0.020293524
0.04501026 0.005139838 0.014895363 -0.0742977 -0.019831637 0.053605463 -0.00239201 0.025670305
-0.110028364 0.04999077 -0.021357344 0.07358235 -0.06195521 -0.021458123 0.019420242 -0.018511644
-0.0039047997 0.120058306 0.06892117 0.01417192 -0.09736583 0.0055138785 0.09509835 0.08392367
-0.11659776 0.07618938 0.013398255 0.12471279 0.009255756 0.071846716 -0.010265479 -0.045093156
-0.08158928 0.12739356 -0.02539743 -0.07998835 0.10944508 0.019902738 0.029817833 -0.027977023
-0.06908986 -0.08127781 0.073300146 0.055769805 -0.06443877 -0.09027623 -0.036664397 -0.06523586
0.1213384 0.123315156 0.04126604 0.08083276 0.11552714 0.021595635 0.08224543 0.07753342
0.09228598 0.08203782 -0.009410402 -0.03315915 0.029893477 -0.1129796 0.07371536 0.00877916
0.079732016 0.0032162229 -0.08460563 -0.020500198 0.107045695 -0.0067756097 0.11016807 0.06907094
-0.020715026 -0.121126406 -0.0019214179 0.0068385648 -0.0044607986 0.04204068 -0.10485984 -0.008324459
-0.005809922 0.023948986 0.046645686 -0.054203913 0.113623954 0.09542596 0.095647715 -0.049090095
-0.09428827 -0.0021482436 -0.011815626 0.073840536 -0.010675438 -0.025778484 -0.01539921 0.0831611
-0.02352938 -0.0570837 -0.07227478 -0.096481666 0.019090632 0.0034685126 0.087042004 0.04023043
0.057617594 -0.040127654 -0.098008886 -0.016750786 -0.119500816 0.11786124 -0.114103 -0.117341
0.10108769 0.101929784 -0.029141765 -0.101485774 -0.048346296 -0.11504939 0.035075985 -0.058194205
0.09831485 -0.039278317 0.11123055 0.08140529 0.057781745 0.029653862 0.09136091 -0.105643675
-0.039698012 -0.023759607 -0.046329472 0.12643588 -0.05736556 -0.062840365 0.08598119 0.103208855
-0.09102133 0.09314386 -0.029625488 -0.09519388 0.043369062 -0.09053625 0.11988245 0.09408194
-0.12321138 -0.01607786 -0.011720586 0.10897879 0.069827534 0.009249418 0.010259605 0.08629467
-0.038707577 0.10344908 -0.084800236 -0.11589199 -0.081961736 -0.10490428 0.1066414 0.062618904
-0.09522182 -0.09989702 0.012824804 -0.112676844 -0.064358495 0.07990866 -0.024899295 0.016517779
00000000: 6ab0 b73d d546 e83c 307a 21bc e808 e5bd
00000010: 720c ccbd d722 533d 85a4 0c3e 2e87 d13b
00000020: ebf0 cf3d 35b4 d93c d946 703d 08b8 053e
00000030: 62f6 d13d ff56 55bd b246 b03c cf9a f7bd
00000040: 3a9b 8c3d d1bd 8c3d 7359 a9bd f3e8 bf3d
00000050: 27e8 003d 2a7d 943d 10b7 8b3d 3ada 24bd
00000060: 7444 c93d 6a4e d3bb e37d aebd 1967 d0bd
00000070: f085 dcbc 9523 fbbc 7f19 ff3d 83c6 c03d
00000080: 93d4 123d 3869 c43d 8373 b23b 3c4f 6dbd
00000090: bec6 34bb a354 01be fd25 b63d 357d 15bd
000000a0: 6fde eb3d c97a 95bd bb60 6c3d f590 59bd
000000b0: 7316 303d 552c d4bd b933 f73d 234e bfbd
000000c0: 4f6f a43c 491b 813c 1c66 20bc 04ff d23c
000000d0: 9a95 3b3d 4170 eabd e01a efbd 8fd9 303d
000000e0: a6df 893d 3dc6 c63b 7b65 823c 1663 7f3d
000000f0: f270 0cbd 1878 88bd b62a a83d 8f39 f5bd
00000100: 56ea 8cbd 3430 e23d f30b efbc 195e 52bd
00000110: d041 f6bd b6df 8bba 9625 9fbd eb5c 40bd
00000120: 4f44 82bb 8966 fb3c 9325 a43d 9745 dabb
00000130: 9058 013e 46f0 c3bd 55d6 813c 5db1 3ebd
00000140: 3e61 c8bd de53 22bd b800 f53d 2f95 d1bd
00000150: 1a91 c6bd 97fe ac3d 610b 0abc 9b3e a63c
00000160: ae5c 383d 166c a83b ae0b 743c 6429 98bd
00000170: f575 a2bc 6791 5b3d 45c3 1cbb 884a d23c
00000180: 8d56 e1bd 1fc3 4c3d 99f5 aebc 58b2 963d
00000190: bfc4 7dbd f2c8 afbc 3317 9f3c bba5 97bc
000001a0: abe7 7fbb 21e1 f53d 8b26 8d3d 5731 683c
000001b0: bc67 c7bd c4ad b43b ecc2 c23d 2ce0 ab3d
000001c0: ceca eebd 2d09 9c3d 5b84 5b3c 6b69 ff3d
000001d0: 74a5 173c 5f24 933d 8a30 28bc 9ab3 38bd
000001e0: 4818 a7bd 7573 023e 450e d0bc efd0 a3bd
000001f0: be24 e03d 110b a33c 8744 f43c 1230 e5bc
00000200: fc7e 8dbd fb74 a6bd 631e 963d e16e 643d
00000210: 79f8 83bd bee2 b8bd 682d 16bd 619a 85bd
00000220: 4480 f83d a88c fc3d 9406 293d a58b a53d
00000230: 7e99 ec3d 54e9 b03c 4b70 a83d d7c9 9e3d
00000240: 6f00 bd3d 7203 a83d 162e 1abc e4d1 07bd
00000250: 2ae3 f43c d961 e7bd 14f8 963d 77d6 0f3c
00000260: 8a4a a33d 44c7 523b b745 adbd 08f0 a7bc
00000270: c63a db3d ef05 debb cc9f e13d 1175 8d3d
00000280: 8fb2 a9bc 1f11 f8bd 16d8 fbba 0a16 e03b
00000290: e42b 92bb d932 2c3d c1c0 d6bd 5063 08bc
000002a0: 2861 bebb aa30 c43c 8c0f 3f3d ec04 5ebd
000002b0: adb3 e83d b06e c33d f3e2 c33d b212 49bd
000002c0: 351a c1bd 8cc9 0cbb 5496 41bc b539 973d
000002d0: 08e8 2ebc 662d d3bc f84c 7cbc 5e50 aa3d
000002e0: b0c0 c0bc 99d0 69bd cd04 94bd 2e98 c5bd
000002f0: f563 9c3c fc4f 633b 1443 b23d aac8 243d
00000300: 6d00 6c3d e55c 24bd e2b8 c8bd f238 89bc
00000310: d8bc f4bd 3c61 f13d d5ae e9bd 7a50 f0bd
00000320: 1007 cf3d 90c0 d03d b6ba eebc c6d7 cfbd
00000330: c406 46bd 049f ebbd d6ab 0f3d 0c5d 6ebd
00000340: 4c59 c93d 4de2 20bd d8cc e33d d1b7 a63d
00000350: 8dac 6c3d a8ec f23c 6e1b bb3d b65b d8bd
00000360: 629a 22bd 82a3 c2bc f9c3 3dbd 6878 013e
00000370: 26f8 6abd 73b2 80bd e816 b03d 2a5f d33d
00000380: 6469 babd 35c2 be3d 27b1 f2bc 02f5 c2bd
00000390: c2a3 313d 126b b9bd ee84 f53d 08ae c03d
000003a0: 3f56 fcbd b7b5 83bc b307 40bc 4630 df3d
000003b0: bd01 8f3d df8a 173c e717 283c 43bb b03d
000003c0: d68b 1ebd 1cdd d33d bfab adbd c858 edbd
000003d0: 8edb a7bd 0ed8 d6bd ce66 da3d 573e 803d
000003e0: a803 c3bd cf96 ccbd 201f 523c 1ec3 e6bd
000003f0: 63ce 83bd 27a7 a33d 9bf9 cbbc 4b50 873c

encoder.layers.1.nn.net.0.bias f4 [64]
-0.10846143 0.073939934 -0.08516745 0.013013384 0.107496485 0.05580865 -0.12912995 -0.029011859
-0.09266052 0.115779795 -0.059901945 -0.11496175 0.021534842 0.06915533 0.0009997546 0.06500047
0.108289674 0.15802218 0.09888214 -0.10078804 -0.11745662 0.029044526 0.11443125 -0.104241215
0.09836114 0.109321356 -0.031663213 -0.031671006 -0.06104005 -0.06519442 -0.059513334 -0.1078689
0.12180039 -0.097822 0.08686142 0.05524237 0.09918824 -0.061261795 0.056912176 -0.050823495
0.041543845 -0.021329863 0.018144784 0.075646676 -0.011214443 0.06301534 -0.10008982 0.1163315
0.065165505 0.026462367 0.107308544 -0.005041826 0.08621698 0.086018115 -0.08832248 0.08675055
-0.07651001 0.05729922 -0.07324404 -0.025966251 -0.115993194 -0.09828057 0.027369356 -0.026710168
00000000: 0721 debd d26d 973d 466c aebd 1736 553c
00000010: 1e27 dc3d 9c97 643d a43a 04be 47aa edbc
00000020: ccc4 bdbd f51d ed3d be5b 75bd 1171 ebbd
00000030: d669 b03c 4fa1 8d3d 330a 833a f71e 853d
00000040: fac6 dd3d 91d0 213e b882 ca3d f669 cebd
00000050: 198d f0bd c9ee ed3c ee5a ea3d 6b7c d5bd
00000060: 9171 c93d e0e3 df3d 49b1 01bd 75b9 01bd
00000070: 2205 7abd a784 85bd 41c4 73bd 5fea dcbd
00000080: 7c72 f93d e756 c8bd 66e4 b13d d345 623d
00000090: 3423 cb3d a6ed 7abd be1c 693d 4c2c 50bd
000000a0: e129 2a3d f7bb aebc 5fa4 943c a5ec 9a3d
000000b0: c8bc 37bc 300e 813d e4fb ccbd 363f ee3d
000000c0: 7e75 853d 9bc7 d83c 95c4 db3d e735 a5bb
000000d0: 8792 b03d 442a b03d 6be2 b4bd 46aa b13d
000000e0: 48b1 9cbd 96b2 6a3d f900 96bd 2db7 d4bc
000000f0: d78d edbd 5347 c9bd b335 e03c 48cf dabc

encoder.layers.1.nn.net.2.weight f4 [64, 64]
-0.10118211 0.033380523 -0.010627541 -0.07524502 0.096205086 0.06297777 -0.025265608 -0.048579592
-0.051366333 0.07282875 -0.035727814 0.085825644 -0.017477315 0.04864411 0.010293787 0.08502828
-0.06754984 0.043729957 -0.04114967 -0.057270903 -0.09745608 -0.105645515 -0.008524652 -0.037111554
-0.063137844 -0.09117173 -0.09940569 0.059031844 -0.053276457 -0.11290249 0.05828966 -0.038323067
0.07564934 0.09137463 0.057512064 0.075224854 -0.0495254 0.10619972 -0.08791329 -0.06347031
-0.034015838 0.01129931 0.019708365 -0.0833339 0.1030821 -0.0007662499 0.12863466 -0.027806686
0.023830984 0.022004154 0.12504178 -0.101008475 0.08553408 -0.11862767 -0.062498424 -0.065742075
0.09466998 0.12727708 0.040689416 -0.100304894 0.08166096 -0.1185698 -0.024312513 0.042271733
0.049960587 0.08654126 0.11477065 0.09263752 0.0654217 -0.107166 -0.053232517 -0.02097562
0.02697511 -0.03426045 -0.03649575 -0.05039673 -0.07052139 0.017777322 0.0535592 0.030731324
-0.027057694 -0.042091615 -0.1270497 -0.09844064 -0.0014419182 -0.03284225 -0.012433467 -0.012205499
-0.007078133 -0.030704197 0.10965692 0.11053111 -0.024685578 -0.018212289 -0.03765596 0.0015343623
-0.08680282 0.108015165 0.04604377 0.07524792 0.0006514892 -0.048224956 0.08910568 0.104681246
-0.11225389 0.04563543 -0.120855905 -0.0974971 0.06230425 -0.0880681 -0.084892794 0.10471648
-0.015822772 -0.096321285 0.061154187 0.018254425 -0.11986125 -0.061633095 0.053531896 -0.08428009
-0.0065726843 0.056096062 -0.012812304 0.02828987 0.11146326 -0.0619298 0.10302978 -0.049591348
-0.00829054 0.11820783 0.07137233 0.056429222 -0.05137038 0.0407554 -0.04036118 -0.10988628
-0.11088159 0.081550494 -0.10248495 -0.128058 0.004408095 0.118420355 -0.01535159 0.011254492
0.09182604 -0.10518504 0.05422366 0.024169745 -0.13790405 -0.051359437 0.07606869 0.1272396
-0.07022216 0.05724231 -0.10576157 0.10666221 0.029601578 0.04399681 0.037243243 0.033435114
0.0005246318 -0.026092181 -0.060359526 0.11182222 0.08598971 0.024462324 0.014045343 0.07625656
0.025018157 0.037283 0.113273785 0.09137329 -0.020106787 0.09810652 0.07172718 -0.0036516427
-0.040722795 0.05414869 -0.007514135 0.09457845 -0.044331603 0.08828839 -0.013381251 -0.075675465
-0.024182498 -0.06732264 -0.016410302 0.02086059 -0.104764715 -0.049208514 -0.079317406 -0.08597863
-0.01660119 -0.016484348 0.09489096 0.070807725 0.110868946 0.039932854 -0.11686717 -0.10417851
0.057030022 0.037734896 0.052482612 0.11782164 -0.011843032 -0.10210796 -0.06661282 0.039073527
0.10542392 0.10167389 -0.068968676 0.061245285 0.10251039 0.02216078 0.09336761 0.058632143
0.04745871 0.069524616 0.08028641 0.10821376 -0.02716066 -0.052163813 -0.08135076 0.065648265
0.0933654 0.015636124 -0.07633744 0.034026027 0.020174723 0.031150298 -0.05408625 -0.066427894
-0.045315675 0.1260152 6.6712244e-05 -0.032545082 -0.09261922 0.06395348 -0.10396906 0.0027730588
-0.012036237 0.017080382 -0.07653797 0.08837243 -0.021411505 -0.09558651 0.07484757 0.01520282
0.022685304 0.012101409 -0.040635042 -0.0025741626 0.09372928 0.068650305 -0.034995876 -0.039606526
00000000: 9138 cfbd 04ba 083d 231f 2ebc 101a 9abd
00000010: 2c07 c53d 7dfa 803d d2f9 cebc 65fb 46bd
00000020: 8165 52bd 3d27 953d 5457 12bd 5bc5 af3d
00000030: 962c 8fbc 0c3f 473d 46a7 283c 4f23 ae3d
00000040: 9257 8abd 2f1e 333d 8e8c 28bd e594 6abd
00000050: 0e97 c7bd ad5c d8bd fbaa 0bbc 4902 18bd
00000060: 6a4e 81bd 3eb8 babd 3695 cbbd 60cb 713d
00000070: 6a38 5abd 6c39 e7bd 23c1 6e3d a6f8 1cbd
00000080: 0bee 9a3d 9f22 bb3d c591 6b3d 7d0f 9a3d
00000090: 25db 4abd 3d7f d93d e20b b4bd b9fc 81bd
000000a0: 3154 0bbd be20 393c 7073 a13c f7aa aabd
000000b0: b51c d33d 29de 48ba ceb8 033e d9ca e3bc
000000c0: 3239 c33c 0e42 b43c f40a 003e 88dd cebd
000000d0: 7e2c af3d 10f3 f2bd 59fe 7fbd c8a3 86bd
000000e0: 56e2 c13d ec54 023e f2a9 263d a76c cdbd
000000f0: dd3d a73d b9d4 f2bd 092b c7bc 2025 2d3d
00000100: 79a3 4c3d 8b3c b13d e00c eb3d bdb8 bd3d
00000110: d0fb 853d d979 dbbd 570a 5abd 10d5 abbc
00000120: e8fa dc3c b054 0cbd 917c 15bd cd6c 4ebd
00000130: 856d 90bd bfa1 913c e460 5b3d 42c0 fb3c
00000140: 19a8 ddbc 4268 2cbd 5119 02be 3f9b c9bd
00000150: bffe bcba 9885 06bd beb5 4bbc 93f9 47bc
00000160: afef e7bb 5e87 fbbc cf93 e03d 225e e23d
00000170: 6939 cabc f031 95bc 233d 1abd a81c c93a
00000180: adc5 b1bd 0e37 dd3d 6498 3c3d 951b 9a3d
00000190: b3c8 2a3a 8887 45bd 0a7d b63d 1f63 d63d
000001a0: 5ee5 e5bd 37ec 3a3d 4d83 f7bd 8fac c7bd
000001b0: be32 7f3d 0c5d b4bd 46dc adbd 9875 d63d
000001c0: c29e 81bc 1844 c5bd d07c 7a3d 4e8a 953c
000001d0: d179 f5bd fc72 7cbd 4344 5b3d 0a9b acbd
000001e0: ac5f d7bb fcc4 653d b3ea 51bc 28c0 e73c
000001f0: da46 e43d 1aaa 7dbd 4701 d33d 4c20 4bbd
00000200: 0cd5 07bc f216 f23d a82b 923d 5422 673d
00000210: bf69 52bd 22ef 263d c451 25bd 0f0c e1bd
00000220: e315 e3bd f203 a73d a1e3 d1bd a321 03be
00000230: c871 903b 5f86 f23d 3c85 7bbc c364 383c
00000240: 4a0f bc3d 416b d7bd a119 5e3d a1ff c53c
00000250: b836 0dbe 465e 52bd e7c9 9b3d 194b 023e
00000260: a3d0 8fbd ea76 6a3d 8699 d8bd b771 da3d
00000270: 027f f23c 0036 343d 5f8c 183d 42f3 083d
00000280: 7287 093a 45bf d5bc 8d3b 77bd 0c03 e53d
00000290: 601b b03d 3665 c83c 701e 663c 662c 9c3d
000002a0: e1f2 cc3c 0fb6 183d 16fc e73d eb21 bb3d
000002b0: fdb6 a4bc 12ec c83d b3e5 923d 6650 6fbb
000002c0: f2cc 26bd 04cb 5d3d 2239 f6bb 59b2 c13d
000002d0: 0e95 35bd 8bd0 b43d 093d 5bbc bdfb 9abd
000002e0: 601a c6bc 74e0 89bd e66e 86bc d4e3 aa3c
000002f0: e28e d6bd de8e 49bd 2a71 a2bd 9015 b0bd
00000300: 38ff 87bc 2f0a 87bc 3156 c23d a403 913d
00000310: 420f e33d a290 233d 0e58 efbd 8b5b d5bd
00000320: 5098 693d e88f 1a3d 02f8 563d 794c f13d
00000330: 4709 42bc fa1d d1bd 4d6c 88bd 900b 203d
00000340: 7fe8 d73d 673a d03d 733f 8dbd 56dc 7a3d
00000350: f8f0 d13d 868a b53c 8437 bf3d 4228 703d
00000360: 1064 423d ec62 8e3d 346d a43d 2d9f dd3d
00000370: 0880 debc b9a9 55bd 3a9b a6bd 9972 863d
00000380: 5c36 bf3d 5417 803c ce56 9cbd e05e 0b3d
00000390: 7645 a53c e92e ff3c 8b89 5dbd 590b 88bd
000003a0: ee9c 39bd 210a 013e dde7 8b38 fe4d 05bd
000003b0: 25af bdbd 0bfa 823d bbed d4bd 35bc 353b
000003c0: a333 45bc 28ec 8b3c f0bf 9cbd 9bfc b43d
000003d0: 2e67 afbc dcc2 c3bd af49 993d 4015 793c
000003e0: 88d6 b93c fd44 463c ee70 26bd 48b3 28bb
000003f0: 23f5 bf3d 8898 8c3d d657 0fbd 743a 22bd

encoder.layers.1.nn.net.2.bias f4 [64]
-0.058442008 -0.12872559 0.09204976 0.10352211 -0.0049406765 -0.014140909 0.08827007 0.08179162
-0.09331769 -0.014688373 -0.032165993 -0.063584365 -0.042580277 0.07144322 -0.11572243 -0.028800927
0.101583876 0.019947166 -0.076000154 -0.0062148375 -0.03744645 -0.044749115 0.002936099 0.08872788
-0.0460882 0.05551719 0.0739526 0.089268066 -0.048542395 0.005282923 0.11320138 -0.090363584
-0.03313921 0.03666251 0.08819824 -0.10989876 0.01825091 -0.07468143 -0.00053749 0.018410435
0.08226239 -0.06405065 0.092622735 -0.015016144 0.06558687 0.06616242 -0.088995256 -0.034104068
0.08832362 -0.022614805 -0.020127533 0.020947998 0.038798254 -0.090144485 -0.0065641236 -0.10397855
0.11345154 -0.0014362886 0.009403746 -0.09126253 -0.10603553 -0.008257931 0.0066512707 0.10324099
00000000: e360 6fbd a4d0 03be 9684 bc3d 6603 d43d
00000010: 66e5 a1bb 45af 67bc f0c6 b43d 5d82 a73d
00000020: 581d bfbd 80a7 70bc 7dc0 03bd 8538 82bd
00000030: a868 2ebd d350 923d e2ff ecbd ecef ebbc
00000040: 350b d03d 3d68 a33c f8a5 9bbd d6a5 cbbb
00000050: 7361 19bd d94a 37bd 916b 403b f6b6 b53d
00000060: fbc6 3cbd fe65 633d 7674 973d 2dd2 b63d
00000070: 64d4 46bd 5f1c ad3b 20d6 e73d 8b10 b9bd
00000080: fbbc 07bd 6e2b 163d 47a1 b43d 9a12 e1bd
00000090: ef82 953c 94f2 98bd 58e6 0cba 7bd1 963c
000000a0: 2f79 a83d fd2c 83bd fdb0 bd3d 4606 76bc
000000b0: 6952 863d 2a80 873d 2543 b6bd b5b0 0bbd
000000c0: 04e3 b43d af42 b9bc 7fe2 a4bc 239b ab3c
000000d0: ebea 1e3d ac9d b8bd dc17 d7bb b5f2 d4bd
000000e0: 4859 e83d d941 bcba 2b12 1a3c d9e7 babd
000000f0: 2829 d9bd 464c 07bc e7f2 d93b 0370 d33d

encoder.layers.2.nn.net.0.weight f4 [64, 64]
-0.0055898037 0.07427361 -0.0139199905 0.053769328 0.016094197 0.12385499 -0.043101527 0.079408504
0.031640496 -0.048876513 0.059465673 0.070795536 0.050490845 -0.09969341 -0.11945822 0.013957339
-0.05620859 0.014079657 -0.06962594 -0.021185622 0.07274437 0.11193328 0.120938376 0.04885149
-0.09212917 -0.013496348 0.10496681 -0.08254173 -0.08670363 -0.0060719303 0.12374942 -0.06478247
-0.13212432 0.1200627 -0.06176198 0.102873854 -0.07536645 -0.02653277 -0.0053828885 -0.0013458626
-0.07353182 -0.031360734 0.0413214 0.062308792 -0.037539296 -0.016075764 0.06348243 0.04502693
0.09218904 -0.03346839 -0.10730154 0.015323573 -0.07041827 0.011226515 -0.045107987 -0.00025700493
0.102034934 -0.028828872 0.0524062 0.06520588 -0.10861136 0.11082104 -0.104690194 -0.0702459
-0.052053154 -0.0714168 -0.0128413 0.09779302 -0.08502825 0.11808481 -0.021207804 -0.0445235
-0.045235764 -0.11760995 0.02797491 -0.039325308 0.06373798 0.09739799 -0.01760467 -0.10438112
0.14499675 -0.055720087 -0.034073077 -0.0845037 0.015089389 -0.10393751 -0.11046896 -0.12436072
-0.112719096 0.017310284 -0.011691526 -0.08499068 -0.0024389857 -0.047726113 0.0774772 0.060139615
-0.10168666 -0.08829589 -0.029372359 -0.05497367 -0.09179717 -0.062508054 -0.09930149 0.075540096
-0.06746149 -0.04834869 0.09907746 0.0997694 0.011260351 0.05412712 -0.034636546 0.13993797
0.0762756 0.05247178 0.06198062 -0.0013968451 -0.039770104 -0.11876111 -0.015749833 0.09181632
-0.10047904 0.04262755 0.07787494 0.0005546632 -0.068205476 -0.096517324 0.06936872 0.06403203
-0.024818186 0.003105214 -0.0086846845 -0.052732524 -0.08610533 0.08923739 0.028125897 0.07872283
-0.035743702 0.09092127 0.0059143123 -0.11325894 0.12783475 -0.04734791 -0.012603268 -0.0942095
-0.040316556 0.05101286 -0.13031994 -0.0036927762 -0.013897399 0.0008407596 -0.06623029 0.009149526
0.009031752 -0.002885932 -0.057010055 0.0578867 -0.098646276 -0.015818221 -0.06591149 0.06094161
-0.06713982 0.034213293 -0.026097983 0.10140714 -0.0047004726 -0.11026122 0.019333644 -0.095038764
-0.002700036 0.12566718 -0.06548413 0.054698672 0.012453088 -0.033691544 0.12623942 -0.109205626
0.06862973 -0.0738172 0.06785511 -0.083129965 -0.09796344 -0.038984153 -0.05842592 -0.09571672
0.007904654 -0.088651046 -0.10558338 0.09157103 -0.08198408 -0.0041544517 -0.14694689 -0.057840683
-0.11463593 0.0663912 -0.0811732 0.0070738527 0.087628484 0.068863876 0.08250043 -0.07484214
0.07008443 -0.03646204 -0.007848355 -0.0751136 0.04777851 0.06827528 0.08163138 0.05034307
-0.1059957 0.1156124 0.07142831 0.048666034 -0.018725146 0.09146684 -0.09209171 0.06943233
-0.014235953 0.003955581 0.05930462 0.034105316 0.011539484 -0.0072764033 -0.014264566 -0.046140425
-0.092861354 -0.0071988506 -0.08991195 0.008487007 -0.11640214 0.08521486 -0.12790288 -0.04182263
-0.12678543 0.052179545 -0.08374305 -0.112082526 -0.12348752 -0.027203592 -0.019471314 -0.086503536
0.008445076 0.060315344 -0.06666373 0.052427694 -0.06797837 0.06273437 -0.04555029 -0.12622344
0.070065595 -0.12447387 -0.0036652968 -0.08581309 -0.06063975 0.110208884 -0.13890819 0.01593088
00000000: ac2a b7bb c31c 983d ac10 64bc 3a3d 5c3d
00000010: fad7 833c afa7 fd3d 3a8b 30bd eda0 a23d
00000020: 7799 013d bd32 48bd 4792 733d 40fd 903d
00000030: 7dcf 4e3d 0f2c ccbd 83a6 f4bd 53ad 643c
00000040: fa3a 66bd 5dae 663c 0b98 8ebd 788d adbc
00000050: 00fb 943d 473d e53d 8aae f73d 8018 483d
00000060: 38ae bcbd c91f 5dbc d7f8 d63d a30b a9bd
00000070: ac91 b1bd 0bf7 c6bb 5670 fd3d acac 84bd
00000080: 994b 07be 6fe3 f53d 21fa 7cbd 87af d23d
00000090: ba59 9abd 405b d9bc f162 b0bb a867 b0ba
000000a0: da97 96bd 1d74 00bd a140 293d 8137 7f3d
000000b0: cec2 19bd 52b1 83bc 1403 823d 286e 383d
000000c0: 9bcd bc3d 2716 09bd e9c0 dbbd b90f 7b3c
000000d0: 7437 90bd 6bef 373c 27c3 38bd 9ebe 86b9
000000e0: b1f7 d03d 872a ecbc e2a7 563d a98a 853d
000000f0: a26f debd 24f6 e23d d067 d6bd 15dd 8fbd
00000100: b035 55bd f942 92bd 5164 52bc b547 c83d
00000110: 4b23 aebd 73d6 f13d fdbb adbc 465e 36bd
00000120: 2349 39bd 7cdd f0bd a32b e53c 9313 21bd
00000130: 0f89 823d 9978 c73d ab37 90bc c5c5 d5bd
00000140: 077a 143e bf3a 64bd 3690 0bbd 4710 adbd
00000150: 7c39 773c 30dd d4bd 8d3d e2bd d5b0 febd
00000160: 45d9 e6bd 4cce 8d3c d08d 3fbc 980f aebd
00000170: 64d7 1fbb 757c 43bd 5eac 9e3d f554 763d
00000180: 1841 d0bd 7ad4 b4bd 4d9e f0bc 122c 61bd
00000190: 2800 bcbd 3904 80bd 945e cbbd c4b4 9a3d
000001a0: 4029 8abd 4709 46bd 20e9 ca3d e653 cc3d
000001b0: 567d 383c 66b4 5d3d 0ddf 0dbd e64b 0f3e
000001c0: 6236 9c3d a6ec 563d 64df 7d3d 5816 b7ba
000001d0: fae5 22bd 0639 f3bd cb05 81bc 320a bc3d
000001e0: f4c7 cdbd 3a9a 2e3d e67c 9f3d d166 113a
000001f0: 50af 8bbd e0aa c5bd 3011 8e3d 3a23 833d
00000200: 824f cbbc d980 4b3b 354a 0ebc 0ffe 57bd
00000210: fe57 b0bd 18c2 b63d 4868 e63c 6f39 a13d
00000220: fd67 12bd ee34 ba3d d9cc c13b 4ef4 e7bd
00000230: 1de7 023e e2ef 41bd f07d 4ebc e9f0 c0bd
00000240: f922 25bd dcf2 503d 9772 05be 8102 72bb
00000250: ebb1 63bc 6c66 5c3a bfa3 87bd e5e7 153c
00000260: eaf9 133c e821 3dbb 6083 69bd 9b1a 6d3d
00000270: 0f07 cabd 3795 81bc 9afc 86bd e99d 793d
00000280: 9a80 89bd 3d23 0c3d 70cb d5bc 8cae cf3d
00000290: 6c06 9abb a2d0 e1bd 9761 9e3c afa3 c2bd
000002a0: 16f3 30bb e6ae 003e 8b1c 86bd b70b 603d
000002b0: 0908 4c3c 2500 0abd e844 013e 33a7 dfbd
000002c0: be8d 8c3d 792d 97bd 9ff7 8a3d 0b40 aabd
000002d0: 0ea1 c8bd d9ad 1fbd 0450 6fbd 2107 c4bd
000002e0: 8682 013c ae8e b5bd 193c d8bd 9889 bb3d
000002f0: 45e7 a7bd 1122 88bb 3f79 16be 5aea 6cbd
00000300: 3ec6 eabd 1cf8 873d 223e a6bd c7cb e73b
00000310: 9076 b33d 8108 8d3d fcf5 a83d d646 99bd
00000320: 6d88 8f3d 3859 15bd 6396 00bc 29d5 99bd
00000330: 66b3 433d e9d3 8b3d 5a2e a73d 8934 4e3d
00000340: 4614 d9bd 32c6 ec3d 0149 923d 0956 473d
00000350: 7a65 99bc f752 bb3d 949a bcbd 8a32 8e3d
00000360: ea3d 69bc d29d 813b 67e9 723d 04b2 0b3d
00000370: 1b10 3d3c e56e eebb edb5 69bc befd 3cbd
00000380: 182e bebd 56e4 ebbb c223 b8bd 160d 0b3c
00000390: 3f64 eebd 2185 ae3d f9f8 02be 354e 2bbd
000003a0: 0ad4 01be 38ba 553d 7a81 abbd 868b e5bd
000003b0: 06e7 fcbd 11da debc 4e82 9fbc c428 b1bd
000003c0: 375d 0a3c 390d 773d fe86 88bd 6cbe 563d
000003d0: 3e38 8bbd e17a 803d f192 3abd b840 01be
000003e0: 8d7e 8f3d 28ec febd 7a35 70bb c6be afbd
000003f0: 6361 78bd 32b5 e13d f33d 0ebe 7a81 823c

encoder.layers.2.nn.net.0.bias f4 [64]
0.096473865 -0.05360128 -0.07232612 -0.111972295 0.037815865 -0.10281984 -0.05573567 -0.11049298
0.04573489 0.06555039 0.0018789783 -0.044862155 0.08917335 0.099752314 0.011348842 -0.051693007
0.10228611 -0.06393784 0.008937504 -0.11420515 0.098441906 0.07463483 -0.11547279 -0.109287836
0.04172543 -0.042765457 -0.0733435 0.04216829 -0.09676387 0.05842154 -0.04747367 0.08612744
0.1151125 -0.10182948 0.04080087 0.108661324 -0.06535608 -0.09404284 0.07981912 -0.022488033
-0.07236729 -0.060352635 0.06440118 0.06522466 -0.0013862215 0.10378057 -0.10544521 -0.053170845
0.051437065 0.076269746 -0.027870985 0.070028365 0.047492106 0.006094374 0.11677941 -0.10393315
-0.019424843 0.026752487 0.09302852 -0.12187758 -0.07499993 0.059269927 0.014938511 0.016653236
00000000: 1794 c53d 048d 5bbd b81f 94bd bb51 e5bd
00000010: cfe4 1a3d 3593 d2bd 164b 64bd 254a e2bd
00000020: 8254 3b3d 483f 863d 0d48 f63a 61c1 37bd
00000030: 84a0 b63d f14a cc3d 7ef0 393c 0cbc 53bd
00000040: 617b d13d d8f1 82bd 9c6e 123c 64e4 e9bd
00000050: e99b c93d 25da 983d 007d ecbd 4dd2 dfbd
00000060: 49e8 2a3d d52a 2fbd 1e35 96bd a8b8 2c3d
00000070: 232c c6bd 6d4b 6f3d c073 42bd 9563 b03d
00000080: 1ac0 eb3d f98b d0bd d01e 273d d489 de3d
00000090: 69d9 85bd 8899 c0bd 3578 a33d d338 b8bc
000000a0: 4d35 94bd 5334 77bd c4e4 833d 8294 853d
000000b0: e0b1 b5ba e88a d43d a9f3 d7bd acc9 59bd
000000c0: acaf 523d 5033 9c3d b151 e4bc 086b 8f3d
000000d0: 1587 423d 51b3 c73b 0b2a ef3d e7da d4bd
000000e0: d920 9fbc 0828 db3c bd85 be3d f49a f9bd
000000f0: 9099 99bd 06c5 723d a8c0 743c 5e6c 883c

encoder.layers.2.nn.net.2.weight f4 [64, 64]
-0.09220802 -0.009087711 0.05135751 0.076578856 0.06351534 0.11499346 0.03775699 -0.094723105
0.088668145 0.07186459 0.04116742 0.074383184 0.061288908 -0.039895475 0.087824345 0.0093435105
0.09399349 -0.024207259 -0.10452554 -0.035517108 0.08401179 -0.11475985 0.109461166 -0.08006134
0.036245488 0.018282054 -0.07532573 0.07447745 -0.10155494 -0.074154444 0.00623093 0.0008236643
0.04068293 0.008202127 0.030107476 -0.036299195 0.092245236 -0.0012657216 0.105370454 -0.11805671
-0.0043440238 -0.07460647 -0.082035735 0.08936045 0.043664508 -0.012285557 0.0017067831 -0.0660932
0.09584824 -0.11441226 -0.113533355 0.110641785 -0.13513976 -0.11826445 -0.12365732 0.016445749
-0.09143996 0.061010268 -0.09735043 0.036452882 -0.018881071 0.106967136 0.089636825 0.009580143
0.029325826 0.06057282 0.087852255 -0.12580997 -0.053313594 0.11217045 -0.10205508 -0.03113149
-0.09531735 0.09516885 -0.07381761 -0.036391746 0.09506933 0.11260018 -0.05221592 0.059740994
-0.019829715 -0.013687928 0.023116587 0.07925995 0.03991589 0.09429619 0.04681198 -0.023985421
-0.12078987 -0.0721061 -0.087653354 -0.13103735 -0.021890357 -0.09531874 -0.049425896 0.0918915
-0.095251046 -0.034180004 0.024310319 -0.117034264 0.09143759 -0.028218167 -0.056424085 0.059445545
-0.05873554 -0.006280403 -0.045770474 0.068361 0.12187074 -0.065190874 0.055578884 0.106559485
0.1276766 0.12176869 0.038164034 -0.0044634566 -0.03861944 0.08759027 0.03154929 -0.06768282
-0.11387018 0.036166895 -0.04338163 0.042382322 0.02154878 -0.067775495 0.0031567866 -0.07084875
-0.07782502 0.051518895 -0.11084409 -0.06238975 0.033760898 -0.0637832 0.062336717 0.0029819
-0.016992066 -0.08428392 -0.009869063 -0.025053328 -0.0072902897 -0.026400745 0.07641755 -0.10051032
-5.5638215e-05 -0.038850345 -0.094372585 -0.066162236 -0.055214375 0.012421287 0.043587927 -0.08772834
0.08236804 0.048805688 -0.01710955 -0.082141824 -0.072957955 0.02668418 -0.042797696 0.025728809
0.101612076 0.13014716 -0.012350862 -0.023558438 0.13658594 0.104522556 -0.08629774 0.02799526
-0.09440974 -0.016658142 -0.06233631 0.011583136 0.009344097 0.0037808297 0.07687821 -0.11485913
0.05480231 0.0731661 -0.0074461936 0.06988023 -0.08063681 -0.07351978 0.061874527 -0.04962107
0.10807704 0.049549405 0.073169954 0.000113018585 0.11780691 -0.06712288 0.05650155 0.068462595
0.08934277 -0.032136746 -0.021834252 -0.038690668 -0.06536919 -0.09095285 0.089457534 -0.09213976
-0.12275015 -0.010271535 0.078992896 0.06549894 -0.06972186 0.074934505 0.033459052 -0.106271945
-0.012274774 -0.13441418 -0.08919549 -0.10611918 -0.0061971466 0.0030334904 -0.022463743 0.06744914
-0.042979196 -0.04545647 0.05273691 0.008265243 -0.12868758 0.09957585 0.0872804 -0.0993692
0.014075513 0.007519914 -0.06670416 -0.04752458 0.07370559 0.1082705 -0.01270134 -0.005981435
-0.048471175 -0.0322254 0.040911075 -0.059142698 -0.07067834 -0.10614317 0.029061083 0.107333
-0.083174326 0.054577783 0.054152556 0.05550859 0.064787045 -0.04981685 -0.08423318 -0.069347866
0.10160464 0.1058172 -0.055200424 -0.10106739 -0.10949647 -0.1110817 -0.07558018 -0.0019894093
00000000: 8fd7 bcbd 9fe4 14bc 415c 523d 60d5 9c3d
00000010: 5514 823d b181 eb3d 13a7 1a3d 30fe c1bd
00000020: a597 b53d be2d 933d 2b9f 283d 3656 983d
00000030: 140a 7b3d 7069 23bd 40dd b33d 8615 193c
00000040: a97f c03d 4d4e c6bc 7c11 d6bd 637a 11bd
00000050: 600e ac3d 3607 ebbd 2d2d e03d 33f7 a3bd
00000060: 2676 143d 3fc4 953c 6044 9abd a287 983d
00000070: 09fc cfbd 49de 97bd d42c cc3b 2deb 573a
00000080: 25a3 263d 3762 063c f4a3 f63c 77ae 14bd
00000090: 12eb bc3d 92e6 a5ba 77cc d73d b7c7 f1bd
000000a0: 5058 8ebb 47cb 98bd 5a02 a8bd 9d02 b73d
000000b0: 8ed9 323d 5c49 49bc 23b6 df3a df5b 87bd
000000c0: 154c c43d fa50 eabd 2d84 e8bd 2998 e23d
000000d0: 1462 0abe a234 f2bd 0d40 fdbd 3cb9 863c
000000e0: e044 bbbd e7e5 793d aa5f c7bd 9e4f 153d
000000f0: 7aac 9abc 9611 db3d 8393 b73d 08f6 1c3c
00000100: b73c f03c 351b 783d e2eb b33d 54d4 00be
00000110: 5b5f 5abd 9fb9 e53d 4102 d1bd 7707 ffbc
00000120: be35 c3bd e3e7 c23d b02d 97bd 830f 15bd
00000130: b5b3 c23d ec9a e63d 5ce0 55bd f9b2 743d
00000140: ed71 a2bc 5543 60bc ff5e bd3c 0a53 a23d
00000150: d87e 233d 5c1e c13d ebbd 3f3d 137d c4bc
00000160: ae60 f7bd 5dac 93bd 9a83 b3bd a82e 06be
00000170: 6853 b3bc 7936 c3bd cf72 4abd 9c31 bc3d
00000180: fb12 c3bd 5500 0cbd 6f26 c73c a9af efbd
00000190: a243 bb3d c929 e7bc f11c 67bd 2c7d 733d
000001a0: ad94 70bd d7cb cdbb d279 3bbd da00 8c3d
000001b0: 5e97 f93d cb82 85bd afa6 633d dc3b da3d
000001c0: a8bd 023e dd61 f93d e451 1c3d 3042 92bb
000001d0: 6b2f 1ebd 8762 b33d d439 013d 4a9d 8abd
000001e0: c534 e9bd bd23 143d f0b0 31bd 1699 2d3d
000001f0: 1187 b03c e1cd 8abd 17e2 4e3b 2619 91bd
00000200: b962 9fbd 7a05 533d 3a02 e3bd 658c 7fbd
00000210: de48 0a3d c4a0 82bd c954 7f3d fb6b 433b
00000220: f232 8bbc 0c9d acbd dab1 21bc a33c cdbc
00000230: 62e3 eebb 6046 d8bc ce80 9c3d 5bd8 cdbd
00000240: 145d 69b8 8a21 1fbd 6a46 c1bd 1180 87bd
00000250: 7828 62bd a782 4b3c 4189 323d eaaa b3bd
00000260: 93b0 a83d 79e8 473d 5429 8cbc f939 a8bd
00000270: fb6a 95bd c898 da3c a34c 2fbd 39c5 d23c
00000280: fe19 d03d 4c45 053e 455b 4abc a0fd c0bc
00000290: 2fdd 0b3e ec0f d63d dfbc b0bd 5156 e53c
000002a0: e559 c1bd a876 88bc 5c54 7fbd 32c7 3d3c
000002b0: fc17 193c ccc7 773b 5372 9d3d 433b ebbd
000002c0: 6378 603d 1cd8 953d 33ff f3bb 5e1d 8f3d
000002d0: e924 a5bd 8a91 96bd 2570 7d3d 773f 4bbd
000002e0: 7f57 dd3d 51f4 4a3d 21da 953d 6404 ed38
000002f0: c044 f13d b877 89bd 2b6e 673d 1e36 8c3d
00000300: 58f9 b63d d2a1 03bd bfdd b2bc 1b7a 1ebd
00000310: 48e0 85bd 7d45 babd 8335 b73d c5b3 bcbd
00000320: 6e64 fbbd f149 28bc 07c7 a13d 4f24 863d
00000330: 56ca 8ebd 4377 993d 5c0c 093d 1ba5 d9bd
00000340: 221c 49bc dfa3 09be 20ac b6bd 0355 d9bd
00000350: 6f11 cbbb 86cd 463b e205 b8bc c622 8a3d
00000360: f40a 30bd 9030 3abd a802 583d f16a 073c
00000370: adc6 03be 6cee cb3d 11c0 b23d 1482 cbbd
00000380: fb9c 663c 9c69 f63b 319c 88bd 22a9 42bd
00000390: f5f2 963d edbc dd3d 4819 50bc eaff c3bb
000003a0: b689 46bd c8fe 03bd 5f92 273d 9d3f 72bd
000003b0: cebf 90bd 9761 d9bd 8211 ee3c 67d1 db3d
000003c0: 4d57 aabd f48c 5f3d 12cf 5d3d fa5c 633d
000003d0: 12af 843d c10c 4cbd 7282 acbd 4106 8ebd
000003e0: 1816 d03d b0b6 d83d d719 62bd 6bfc cebd
000003f0: af3f e0bd cd7e e3bd c8c9 9abd c060 02bb

encoder.layers.2.nn.net.2.bias f4 [64]
0.034432717 0.08550552 0.00067622086 0.078000054 0.05772651 0.09962447 -0.040003747 -0.050587494
0.031235212 -0.01938687 -0.11180709 -0.0063686804 0.009087122 -0.015128141 -0.0063687684 -0.061855577
0.06349845 0.07694015 0.048247203 0.042450782 0.03029123 0.11380182 -0.009599973 -0.04087579
-0.05783868 -0.053351812 0.051909227 -0.06474069 -0.11695518 0.033129368 0.028965533 -0.00014419602
-0.00044694068 0.00181608 0.016796067 0.010820669 -0.11488642 0.03612059 0.016533487 0.0291166
0.08311041 -0.04516305 -0.1155449 -0.031161344 -0.108607925 0.10308632 0.09665604 -0.008091352
-0.015779933 0.07049826 -0.09869109 -0.08043378 0.10437424 0.0055645895 -0.08615269 -0.12295476
-0.03493683 -0.059123076 -0.09811801 -0.02212252 0.04410383 0.028970616 0.11514923 0.08621398
00000000: 5209 0d3d 851d af3d 6a44 313a 7ebe 9f3d
00000010: a272 6c3d ea07 cc3d f8da 23bd d534 4fbd
00000020: fde0 ff3c 37d1 9ebc 1efb e4bd 5db0 d0bb
00000030: 27e2 143c 06dc 77bc 1ab1 d0bb 465c 7dbd
00000040: 7a0b 823d cc92 9d3d dc9e 453d dfe0 2d3d
00000050: 5025 f83c ee10 e93d 3549 1dbc 5f6d 27bd
00000060: 40e8 6cbd 6e87 5abd c59e 543d c496 84bd
00000070: 3386 efbd a9b2 073d 2049 ed3c 5333 17b9
00000080: 5d53 eab9 8809 ee3a e897 893c 2d49 313c
00000090: 9249 ebbd 2ff3 133d 3c71 873c f085 ee3c
000000a0: ca35 aa3d e4fc 38bd cea2 ecbd 1346 ffbc
000000b0: d56d debd ec1e d33d 9af3 c53d 9791 04bc
000000c0: eb44 81bc 6461 903d 8e1e cabd 77ba a4bd
000000d0: 29c2 d53d 2957 b63b d270 b0bd b5cf fbbd
000000e0: ec19 0fbd 0a2b 72bd 18f2 c8bd 493a b5bc
000000f0: 38a6 343d c953 ed3c 5cd3 eb3d f590 b03d
