scripts/embeddings_gin_version2/MUTAG/gin_dim64_ep100_lr0.001_drop0.3/gin_classifier.pt (torch, 177117 bytes, 42 tensors)

encoder.layers.0.nn.net.0.weight f4 [64, 7]
0.258684 -0.3419444 -0.27608284 -0.2948805 0.13304116 -0.073778294 0.30730793 0.2301437
0.34978685 0.38643852 0.087668754 -0.16810992 -0.2395199 0.21759343 0.308723 -0.18225825
0.25937143 0.19984451 -0.08058433 0.0031122125 -0.18169028 -0.35545862 -0.20341624 0.31711704
0.0073114242 -0.24442175 -0.37534708 -0.089031935 0.27180386 -0.087210864 0.06651764 0.25652924
0.021126132 -0.21394806 -0.27994356 -0.0023416632 0.30903023 0.29613906 -0.13613138 0.37837738
0.32390708 0.16195641 -0.2956232 -0.3106191 0.19260103 -0.30669275 -0.15538788 0.21561803
0.08175055 -0.03209837 0.35095719 0.063900515 -0.03517144 -0.03674199 0.29395887 -0.12463606
-0.32905185 -0.16293962 0.13224833 0.20216984 0.26464614 0.06649318 -0.18789199 -0.060344692
0.16308206 -0.14344154 0.2334846 -0.21732265 0.094423756 0.11848377 -0.19218682 0.08947664
-0.33211684 -0.24238712 0.07803022 0.19388582 0.11886684 0.0070888395 -0.12955347 0.02228992
0.30878955 0.24772611 -0.26374283 -0.16159147 -0.18754868 -0.106721446 -0.2531206 0.120656826
-0.30128402 -0.21599771 -0.27968687 -0.040843066 -0.22145876 -0.13272342 -0.0048179263 -0.118144535
-0.24410868 -0.3629919 -0.04015401 0.00081791746 -0.2618393 -0.094366536 -0.056129288 0.13197717
-0.040363528 -0.14295043 -0.21938355 0.014697057 -0.08757818 0.2175319 -0.27176785 -0.31868675
0.29576415 -0.12562712 0.17144257 0.059298493 0.1467674 -0.3510083 -0.06984651 -0.29709053
0.19677211 -0.082159184 -0.3354756 -0.17562021 -0.08652533 -0.117127374 -0.28279 -0.027748343
-0.32735813 0.33319333 -0.115192994 -0.37114888 0.29228464 0.33251724 -0.3017473 0.15041667
-0.37008733 0.28424072 0.11361039 0.1227179 0.07855503 -0.21180019 0.29497486 0.21792048
-0.033208515 0.19897094 -0.2203455 0.21867384 0.3696847 -0.014232474 -0.22225197 0.103214346
-0.20876937 0.29183668 -0.24802773 0.3365947 -0.20904206 0.053126335 -0.028459229 0.017683651
0.39759204 0.24155352 -0.22217534 0.26309603 0.36335945 0.3579393 -0.13812438 0.29083872
0.19701993 0.35011828 -0.105870634 -0.27768242 0.34539947 -0.25893357 -0.3418575 -0.36228138
-0.28105092 -0.28370035 -0.019164806 0.118327826 -0.3695752 -0.29868317 -0.26884452 -0.31854895
0.38887697 -0.14926861 -0.18528365 0.311624 0.3287061 0.36559054 0.370834 0.04943771
-0.04867652 0.20984514 0.27078855 -0.33186296 -0.042398248 -0.12531894 0.14488918 0.14220409
-0.05902775 0.26765627 0.3254387 0.3515321 -0.047895186 0.35351047 -0.13407044 -0.06535453
-0.3344589 0.072386906 -0.22496377 -0.14171389 -0.04094565 0.1734137 -0.008029039 -0.2108054
0.07063016 -0.31364825 0.063136585 0.20262341 -0.28833908 0.4021263 0.1525438 0.27192408
0.34891373 -0.34140897 -0.115518324 -0.080364145 0.053877536 -0.018334134 -0.16331016 -0.08381441
-0.024901498 -0.14342307 0.33141208 -0.03442587 -0.074581504 0.04699454 -0.19419901 0.14863375
0.1188914 -0.17377545 0.19587706 -0.16793251 -0.12835407 0.038587175 0.17767087 0.1616002
-0.20382577 -0.01988914 0.186733 -0.11922977 -0.12950099 -0.1106003 0.0971966 0.0010125631
00000000: 3b72 843e 5613 afbe bb5a 8dbe 94fa 96be
00000010: f13b 083e 1319 97bd 7757 9d3e caaa 6b3e
00000020: 4317 b33e 45db c53e ad8b b33d 0225 2cbe
00000030: b444 75be d0d0 5e3e f110 9e3e e8a1 3abe
00000040: 55cc 843e 0aa4 4c3e 6609 a5bd 43f6 4b3b
00000050: 040d 3abe acfe b5be 594c 50be 2a5d a23e
00000060: ac94 ef3b b249 7abe 7e2d c0be 6056 b6bd
00000070: e029 8b3e 9c9b b2bd 673a 883d cd57 833e
00000080: b610 ad3c 3315 5bbe c354 8fbe 9776 19bb
00000090: 3639 9e3e 8a9f 973e 0666 0bbe aeba c13e
000000a0: 26d7 a53e e7d7 253e ed5b 97be 7709 9fbe
000000b0: 3439 453e d506 9dbe 001e 1fbe f9ca 5c3e
000000c0: d56c a73d 9579 03bd a9b0 b33e 46de 823d
000000d0: ee0f 10bd c57e 16bd c781 963e 3141 ffbd
000000e0: 7c79 a8be a5d9 26be 1b6c 073e 9c05 4f3e
000000f0: b37f 873e 942d 883d c266 40be ff2b 77bd
00000100: fcfe 263e 57e2 12be 9616 6f3e d489 5ebe
00000110: 3e61 c13d 9ea7 f23d 9fcc 44be 873f b73d
00000120: 380b aabe 5434 78be 4fce 9f3d 018a 463e
00000130: 7570 f33d 7f49 e83b aaa9 04be 5a99 b63c
00000140: aa19 9e3e eaab 7d3e 4d09 87be 3c78 25be
00000150: c30c 40be c690 dabd 0699 81be ed1a f73d
00000160: e641 9abe 812e 5dbe 1e33 8fbe 0f4b 27bd
00000170: 16c6 62be a6e8 07be b2df 9dbb c3f5 f1bd
00000180: a0f7 79be 13da b9be 8878 24bd 8369 563a
00000190: cd0f 86be 3e43 c1bd d3e7 65bd 0625 073e
000001a0: 3a54 25bd 9961 12be 15a6 60be edcb 703c
000001b0: 305c b3bd afc0 5e3e 2825 8bbe e92a a3be
000001c0: 666e 973e 65a4 00be a48e 2f3e fae2 723d
000001d0: 314a 163e 5cb7 b3be b00b 8fbd 401c 98be
000001e0: a17e 493e 1343 a8bd 75c3 abbe c9d5 33be
000001f0: 3134 b1bd 7ae0 efbd dac9 90be 7e50 e3bc
00000200: 7c9b a7be 5198 aa3e 4eea ebbd 3a07 bebe
00000210: 55a6 953e b33f aa3e 9f7e 9abe d406 1a3e
00000220: 167c bdbe 0088 913e 90ac e83d 8653 fb3d
00000230: 76e1 a03d 26e2 58be f206 973e 8c26 5f3e
00000240: a705 08bd 0abf 4b3e 40a2 61be 09ec 5f3e
00000250: 5047 bd3e 532f 69bc 0596 63be 0b62 d33d
00000260: a3c7 55be 9e6b 953e fbfa 7dbe 2456 ac3e
00000270: 1f0f 56be 009b 593d 5423 e9bc 4edd 903c
00000280: 2f91 cb3e ce59 773e ef81 63be 86b4 863e
00000290: 400a ba3e d243 b73e 7a70 0dbe d0e8 943e
000002a0: 98bf 493e b442 b33e b4d2 d8bd 642c 8ebe
000002b0: 33d8 b03e f192 84be f207 afbe f27c b9be
000002c0: e8e5 8fbe 2c41 91be 83ff 9cbc dc55 f23d
000002d0: f638 bdbe 00ed 98be fda5 89be d918 a3be
000002e0: e21a c73e dfd9 18be ffba 3dbe 2e8d 9f3e
000002f0: 2a4c a83e af2e bb3e f4dd bd3e 327f 4a3d
00000300: 0861 47bd a5e1 563e cca4 8a3e f1e9 a9be
00000310: c9a9 2dbd 9c53 00be d45d 143e f39d 113e
00000320: 15c7 71bd 3e0a 893e e79f a63e 04fc b33e
00000330: be2d 44bd 53ff b43e c349 09be 99d8 85bd
00000340: 323e abbe 963f 943d e75c 66be 721d 11be
00000350: a0b6 27bd 5c93 313e 3b8c 03bc 5fdd 57be
00000360: 8ca6 903d 8196 a0be c14d 813d 837c 4f3e
00000370: 2ea1 93be 80e3 cd3e 7134 1c3e a239 8b3e
00000380: d2a4 b23e 28cd aebe df94 ecbd f595 a4bd
00000390: b1ae 5c3d 7731 96bc c73a 27be e4a6 abbd
000003a0: 3afe cbbc 7fdd 12be d8ae a93e 2402 0dbd
000003b0: 30be 98bd 597d 403d 1bdc 46be 7233 183e
000003c0: 567d f33d 31f2 31be ff93 483e 80f6 2bbe
000003d0: 406f 03be 960d 1e3d 5aef 353e 867a 253e
000003e0: b4b7 50be 8dee a2bc f036 3f3e bd2e f4bd
000003f0: e89b 04be 6982 e2bd 030f c73d fbb7 843a

encoder.layers.0.nn.net.0.bias f4 [64]
-0.09450332 -0.21382238 -0.11909796 -0.21689898 0.18251291 -0.13659662 0.3280667 -0.20459053
-0.24223463 -0.33565328 -0.19337752 0.2680247 0.10813234 0.3757002 -0.21963844 -0.0405993
-0.19902107 -0.24245696 0.26087615 0.018910736 0.27810666 -0.21014348 0.17503668 0.14012024
0.2869117 -0.30175352 0.084910914 0.2372231 -0.34320724 0.15045533 0.36362487 0.070576996
-0.19407412 0.31297624 0.31983632 -0.22870977 -0.11519453 -0.010001616 0.3491502 -0.23443687
-0.1895868 -0.33197805 -0.15270442 -0.3376815 -0.19038627 0.33143356 0.35506785 -0.26578683
-0.15331228 0.33546835 0.05315922 0.1021267 0.22568643 0.28206512 0.15547687 -0.32708701
0.116287865 0.2504364 0.23371023 -0.14510973 -0.14248374 -0.33818457 -0.34265855 -0.123976745
00000000: f58a c1bd 41f4 5abe a2e9 f3bd c41a 5ebe
00000010: aae4 3a3e fcdf 0bbe 5cf8 a73e 2e80 51be
00000020: 5b0c 78be bfda abbe c204 46be 893a 893e
00000030: 7d74 dd3d c75b c03e e6e8 60be 744b 26bd
00000040: 2ecc 4bbe a346 78be 8f91 853e b0ea 9a3c
00000050: ff63 8e3e da2f 57be d13c 333e ae7b 0f3e
00000060: 17e6 923e 707f 9abe c6e5 ad3d 9dea 723e
00000070: dcb8 afbe f610 1a3e 0a2d ba3e ac8a 903d
00000080: 5ebb 46be 6c3e a03e 96c1 a33e e532 6abe
00000090: 1ceb ebbd d1dd 23bc d1c3 b23e 3810 70be
000000a0: 0b23 42be 07f9 a9be 8c5e 1cbe 97e4 acbe
000000b0: 9ef4 42be a9b1 a93e 74cb b53e 3615 88be
000000c0: e5fd 1cbe 82c2 ab3e 7bbd 593d ce27 d13d
000000d0: 581a 673e d76a 903e 5435 1f3e f377 a7be
000000e0: 5528 ee3d 3339 803e bc51 6f3e a597 14be
000000f0: 42e7 11be 8726 adbe f170 afbe 85e7 fdbd

encoder.layers.0.nn.net.2.weight f4 [64, 64]
-0.06380025 0.10904167 0.1163069 -0.024672106 0.061272092 0.026824083 -0.11624645 0.10418576
-0.00287278 -0.028380405 -0.01806501 -0.03434622 -0.0052885897 0.073539205 0.11991574 -0.113111615
0.10580038 -0.011554675 0.10881303 0.12250236 0.032527227 0.033039473 0.0112455115 0.021005154
0.024022602 -0.073448345 -0.013473736 0.08349477 -0.0050929785 0.036998056 -0.11202043 -0.07417046
0.031141398 0.077879846 0.099152915 -0.04843893 -0.1035475 -0.035950575 -0.07454613 -0.07246937
0.006864196 -0.034926265 -0.010663519 0.12555566 0.09427829 0.021306824 0.09510061 -0.1032048
0.06008452 -0.02605503 0.022493325 0.056400947 -0.042272404 -0.07334773 -0.11426019 -0.04727853
-0.10445316 -0.07142292 -0.031275082 -0.06291889 0.07992838 0.034412682 0.120434955 -0.016831163
-0.06699033 -0.0098074125 0.04964741 0.073742926 0.083893366 -0.038377777 -0.084891796 -0.047177467
-0.10495363 0.051222943 0.01622681 -0.05738965 0.059959717 -0.057241295 0.07480048 -0.059430297
-0.08920128 -0.004466694 -0.112166256 -0.049587682 -0.084876806 0.1237903 -0.005798094 0.10375165
-0.0845786 0.118486375 0.13943438 -0.09778114 0.12215261 -0.092046246 0.07554047 0.074708454
0.11638467 -0.0027654567 0.054208416 0.13420974 -0.035033584 -0.086266324 0.12632836 0.098302424
0.02654128 0.0306236 0.060451847 -0.05839159 0.0738328 0.0443875 0.10253002 0.07889825
-0.0712214 -0.06474137 0.071056865 -0.013905899 0.08459547 0.005119067 -0.07876718 0.1010372
0.113978736 -0.09071335 -0.048527107 0.04957828 -0.07942762 -0.0106695 -0.01761475 -0.032013822
-0.08286904 -0.00932715 -0.09920309 0.0095285475 0.00508873 0.1086069 0.039333776 0.017357515
0.099240884 0.012655858 0.046679307 -0.034390025 -0.07716141 -0.08337089 -0.11614984 -0.05021727
-0.034032945 0.019542962 -0.0020676744 0.094432056 0.07798891 0.01758041 -0.06492183 0.06922293
-0.10773217 0.014633074 0.020552175 0.086037084 -0.0642173 -0.050778113 0.09753083 0.13338815
0.009162231 0.10829458 0.06457256 0.02493796 0.013919875 0.03542673 0.11949705 -0.010816395
-0.02882062 0.06836069 0.023383714 0.04232101 -0.026649183 -0.0405183 0.078853376 0.05064611
0.07423873 -0.016553063 0.07168716 0.045744795 0.020872174 -0.07485705 0.03324575 0.06790891
-0.07831097 -0.097289994 -0.11764069 -0.08450252 0.01241485 0.12361346 -0.107363515 -0.06431274
0.08534511 0.10472105 -0.13328913 -0.0060703605 0.07970641 -0.018551422 -0.11860429 -0.005930846
0.05211073 0.030992847 0.023467358 0.060302213 0.067715935 -0.08074491 -0.107708156 0.11440743
-0.039260365 -0.13161425 0.08571284 0.017977046 -0.04731271 0.112796426 -0.13224709 0.09337856
-0.09786981 0.035139784 0.07108588 0.081195235 0.04880421 0.04748805 -0.06911045 -0.023047756
0.10321927 0.012078863 -0.030150382 -0.110773206 0.0540113 -0.05162745 -0.052026983 -0.014602095
0.063783854 -0.016090132 -0.107008055 0.022987965 0.10277844 -0.013656903 -0.12350953 -0.037690133
-0.07395524 -0.033888757 0.0041199243 0.05397382 0.059762392 -0.12361757 -0.07073137 -0.11440848
-0.12157524 -0.011040146 0.07668183 -0.01742743 -0.0778993 -0.09083679 -0.073219985 -0.071552865
00000000: b5a9 82bd 3d51 df3d 5032 ee3d 281d cabc
00000010: 72f8 7a3d 2ebe db3c 9e12 eebd 585f d53d
00000020: 4045 3cbb 067e e8bc 12fd 93bc 9fae 0cbd
00000030: e84b adbb b99b 963d 6296 f53d 10a7 e7bd
00000040: dfad d83d d24f 3dbc 5ed9 de3d 84e2 fa3d
00000050: 453b 053d 6654 073d 183f 383c 0013 ac3c
00000060: 0ccb c43c 166c 96bd f2c0 5cbc 4eff aa3d
00000070: 00e3 a6bb 468b 173d f86a e5bd afe6 97bd
00000080: 3f1c ff3c 787f 9f3d af10 cb3d e667 46bd
00000090: b610 d4bd e940 13bd a4ab 98bd d26a 94bd
000000a0: 0ded e03b d80e 0fbd 0ab6 2ebc aa91 003e
000000b0: fa14 c13d a68b ae3c 1cc4 c23d 0a5d d3bd
000000c0: 301b 763d 5c71 d5bc ec43 b83c ae04 673d
000000d0: d425 2dbd 5637 96bd 3f01 eabd 22a7 41bd
000000e0: 8aeb d5bd 2e46 92bd 4d1a 00bd 9edb 80bd
000000f0: 7eb1 a33d 50f4 0c3d 9aa6 f63d 82e1 89bc
00000100: 3a32 89bd 45af 20bc 155b 4b3d 8806 973d
00000110: 49d0 ab3d 0432 1dbd c0db adbd 293d 41bd
00000120: eef1 d6bd 26cf 513d 16ee 843c 6911 6bbd
00000130: 5298 753d d975 6abd fe30 993d 2f6d 73bd
00000140: 29af b6bd 585d 92bb 6cb7 e5bd 741c 4bbd
00000150: e4d3 adbd c585 fd3d f0fd bdbb bf7b d43d
00000160: 8c37 adbd fca8 f23d e3c7 0e3e 7a41 c8bd
00000170: 262b fa3d be82 bcbd f6b4 9a3d bf00 993d
00000180: 165b ee3d aa3c 35bb a509 5e3d 476e 093e
00000190: 607f 0fbd 66ac b0bd 395c 013e c852 c93d
000001a0: 196d d93c 58de fa3c 5b9c 773d 052c 6fbd
000001b0: a735 973d abcf 353d 42fb d13d 6895 a13d
000001c0: 86dc 91bd 2097 84bd 4386 913d 91d5 63bc
000001d0: 6440 ad3d d9bd a73b b050 a1bd 97ec ce3d
000001e0: af6d e93d ecc7 b9bd 5cc4 46bd 9812 4b3d
000001f0: f3aa a2bd 20cf 2ebc cf4c 90bc ed20 03bd
00000200: 3eb7 a9bd e7d0 18bc fd2a cbbd a01d 1c3c
00000210: 5cbf a63b 4b6d de3d 741c 213d 5931 8e3c
00000220: ce3e cb3d 845a 4f3c cd32 3f3d 8edc 0cbd
00000230: cd06 9ebd 5bbe aabd f8df edbd a0b0 4dbd
00000240: 2166 0bbd 9018 a03c d281 07bb 9865 c13d
00000250: a6b8 9f3d cb04 903c bdf5 84bd c0c4 8d3d
00000260: afa2 dcbd 90bf 6f3c 095d a83c 3634 b03d
00000270: 5c84 83bd b6fc 4fbd 3ebe c73d e796 083e
00000280: 2f1d 163c 8cc9 dd3d 9e3e 843d b14a cc3c
00000290: 3010 643c 9e1b 113d dfba f43d 4037 31bc
000002a0: 3919 ecbc b000 8c3d 348f bf3c cc58 2d3d
000002b0: 634f dabc 84f6 25bd e17d a13d 4c72 4f3d
000002c0: 7a0a 983d 4a9a 87bc b8d0 923d e55e 3b3d
000002d0: 1ffc aa3c a74e 99bd b22c 083d d413 8b3d
000002e0: 8061 a0bd fa3f c7bd 9aed f0bd a80f adbd
000002f0: a867 4b3c 0e29 fd3d 67e1 dbbd 66b6 83bd
00000300: 6bc9 ae3d fd77 d63d f27c 08be e0e9 c6bb
00000310: 1d3d a33d 27f9 97bc cee6 f2bd 8b57 c2bb
00000320: 1072 553d b6e4 fd3c 9e3e c03c 74ff 763d
00000330: a7ae 8a3d 965d a5bd 1896 dcbd 714e ea3d
00000340: 7acf 20bd e3c5 06be 378a af3d 9944 933c
00000350: f9ca 41bd d001 e73d c86b 07be 423d bf3d
00000360: f86f c8bd bcee 0f3d 7995 913d b049 a63d
00000370: ece6 473d d482 423d c889 8dbd a6ce bcbc
00000380: a064 d33d 6ce6 453c effd f6bc 10dd e2bd
00000390: f43a 5d3d 4e77 53bd 3f1a 55bd a03d 6fbc
000003a0: 1ca1 823d 74cf 83bc 0a27 dbbd 4251 bc3c
000003b0: 817d d23d 34c1 5fbc 91f2 fcbd f860 1abd
000003c0: d875 97bd f0ce 0abd 6e00 873b a713 5d3d
000003d0: 69c9 743d 352b fdbd 9cdb 90bd fe4e eabd
000003e0: 70fc f8bd bbe1 34bc 5d0b 9d3d f8c3 8ebc
000003f0: ab89 9fbd a408 babd 5cf4 95bd 4f8a 92bd

encoder.layers.0.nn.net.2.bias f4 [64]
0.10174626 -0.055892035 -0.08313282 -0.019425247 -0.11460524 -0.062040534 -0.093391456 -0.049650922
-0.0500024 -0.060789723 0.032049995 0.014230751 -0.094369546 -0.030091543 0.09120065 -0.11044336
-0.061009403 0.08825823 0.11315058 -0.1106332 -0.10505604 0.05132804 -0.027985135 -0.08531338
-0.03540831 -0.005526394 -0.023378788 0.08728631 0.02451132 0.0753726 0.08596127 0.05464099
-0.018639246 0.100785844 -0.028573532 -0.08094799 -0.014534754 -0.008525857 0.079559945 0.007693065
-0.104901 -0.10600645 -0.059662037 0.050063763 -0.024219768 -0.079809755 0.018938936 0.0036827615
-0.009628527 0.074235894 -0.13290344 0.111525595 -0.10960552 -0.06930721 -0.08784532 0.07406809
-0.12320449 0.017931806 -0.11327621 0.0021710594 -0.101895235 0.0353238 -0.000628553 -0.08580948
00000000: 5860 d03d 0cef 64bd 8a41 aabd b221 9fbc
00000010: 27b6 eabd 371e 7ebd 0544 bfbd c45e 4bbd
00000020: 51cf 4cbd a5fe 78bd db46 033d 1928 693c
00000030: d244 c1bd 8a82 f6bc 68c7 ba3d 2130 e2bd
00000040: ffe4 79bd bbc0 b43d 7ebb e73d a993 e2bd
00000050: 9f27 d7bd 5a3d 523d 1541 e5bc c8b8 aebd
00000060: 4e08 11bd c116 b5bb df84 bfbc 2ac3 b23d
00000070: f7cb c83c f35c 9a3d 760c b03d 3bcf 5f3d
00000080: 55b1 98bc cf68 ce3d 0a13 eabc 0fc8 a5bd
00000090: 2d23 6ebc 09b0 0bbc 53f0 a23d 1b16 fc3b
000000a0: 56d6 d6bd e919 d9bd 2e60 74bd a90f 4d3d
000000b0: 8968 c6bc 4c73 a3bd d425 9b3c 7c5a 713b
000000c0: f8c0 1dbc fd08 983d d717 08be 8867 e43d
000000d0: dc78 e0bd f0f0 8dbd 3fe8 b3bd 03b1 973d
000000e0: a352 fcbd b9e5 923c 5cfd e7bd 5548 0e3b
000000f0: 73ae d0bd b0af 103d 7ac5 24ba e1bc afbd

encoder.layers.1.nn.net.0.weight f4 [64, 64]
-0.08934593 -0.03979704 0.12322186 -0.052080877 0.12434985 -0.047306992 0.09443922 0.004778518
0.037604313 -0.06850628 0.037642475 -0.08293569 -0.09615293 0.024331685 -0.09699965 -0.08640895
0.009782905 0.0065700663 -0.030121226 -0.037107036 -0.097834446 0.06754961 0.033708964 0.08594426
-0.032108534 0.11938378 0.0037490043 -0.11901516 -0.013978071 0.023750708 -0.07406376 0.00315143
-0.09806114 -0.03569147 0.09049723 0.10227334 -0.06462038 -0.020620128 -0.03408136 -0.029444305
-0.105221674 -0.08493286 0.089453995 0.11973098 -0.05313342 -0.052176807 -0.021962786 -0.0013909345
0.033002898 0.06918104 0.087350525 0.06869968 -0.090971366 -0.034781717 0.06958644 0.037105467
-0.06225528 0.076684 -0.020285947 0.030207703 0.075883515 -0.10361153 -0.030237187 0.10686048
-0.10942175 0.005293042 -0.061850894 0.018854223 0.08521134 -0.07711087 -0.039398745 0.00081345986
-0.023845954 0.0873002 -0.024691831 -0.093694374 0.043555036 0.057072602 -0.028316919 -0.02309571
-0.1265584 -0.11028047 0.009136281 -4.462598e-05 -0.0022571916 -0.03936208 0.07880156 -0.0038346488
-0.011621719 0.10539475 0.062272377 -0.030720176 0.07367213 -0.09675207 0.068987116 0.045211665
0.028625125 -0.13557494 -0.08053219 -0.061209805 -0.06813806 -0.069138825 -0.11015442 0.065237805
0.05929797 -0.03347426 0.10848693 0.06866201 -0.036837127 0.10064208 -0.11820005 0.08789088
0.055848077 -0.058696028 -0.085690066 -0.040381625 -0.05645428 0.11604512 -0.11638436 0.06805549
0.07532801 0.13159323 0.085656404 0.00058024796 -0.042047057 -0.009862706 0.0762839 -0.007766895
0.014822782 -0.10980314 -0.025223507 0.033689022 0.11972992 -0.098506995 -0.06050792 -0.12527703
-0.1341372 -0.022512734 -0.07408817 -0.10542199 0.09823231 -0.09306486 0.11060691 -0.057066154
-0.051263593 0.042120583 -0.105315536 0.04590374 -0.09126513 -0.030132549 -0.14216669 -0.000860024
-0.021492433 0.010920434 -0.10377581 0.13514665 0.022757974 0.09113066 0.02515108 -0.017234173
0.03637389 0.045757677 -0.008941618 0.0389276 0.12238291 0.072249606 0.11156862 0.09494983
-0.013756916 0.09264883 0.086404 0.09339467 -0.023733879 0.08864632 -0.047954082 0.043882493
0.055415943 0.0651583 -0.035224218 0.12120565 0.10433549 0.125923 0.0037623842 -0.06882171
0.07589055 -0.02983738 0.08033871 -0.02481341 0.09863724 -0.0073574632 0.052496843 0.047653366
0.1270285 -0.036698107 -0.09932716 -0.057099305 -0.022731906 -0.057292446 0.022959447 0.002607803
0.07817238 0.0034729792 -0.09710502 0.073767915 -0.06395979 0.013651215 -0.115057625 0.11514107
-0.10633281 -0.12264675 0.08100442 -0.049923006 -0.12731129 0.09526433 -0.100632615 0.015471996
0.066642515 -0.124612406 0.068149015 0.107627444 0.030051013 0.030231709 -0.064141944 -0.05600787
-0.13663958 -0.043344177 -0.119622916 0.051132888 -0.095965214 -0.061065096 -0.10149356 -0.12592286
-0.04079974 0.09345348 0.054528452 -0.118184 -0.052545954 -0.10187973 -0.0037714564 -0.0058073686
-0.060686126 0.06727466 0.08791775 0.12587126 -0.09054605 0.0148161175 0.05259796 0.010425937
-0.108364865 0.03699779 0.09721928 -0.0770187 0.08240286 -0.044540998 -0.081943475 -0.05659898
00000000: 00fb b6bd 3902 23bd be5b fc3d c252 55bd
00000010: 22ab fe3d fac4 41bd 5a69 c13d 1d95 9c3b
00000020: fb06 1a3d 054d 8cbd ff2e 1a3d 30da a9bd
00000030: d4eb c4bd 3e53 c73c c1a7 c6bd 2df7 b0bd
00000040: 7a48 203c b649 d73b cac0 f6bc 8cfd 17bd
00000050: 6d5d c8bd 7357 8a3d 6912 0a3d 8b03 b03d
00000060: 3d84 03bd 7c7f f43d dbb1 753b 38be f3bd
00000070: 4704 65bc d890 c23c beae 97bd 3988 4e3b
00000080: 47d4 c8bd 3831 12bd 9d56 b93d af74 d13d
00000090: b157 84bd 8beb a8bc e598 0bbd 2f35 f1bc
000000a0: 767e d7bd 48f1 adbd a833 b73d 8435 f53d
000000b0: 6ea2 59bd 59b7 55bd 4deb b3bc 0450 b6ba
000000c0: 0c2e 073d caae 8d3d d5e4 b23d 6bb2 8c3d
000000d0: 324f babd 4677 0ebd 5683 8e3d e7fb 173d
000000e0: 64ff 7ebd 800c 9d3d b72e a6bc 2576 f73c
000000f0: d168 9b3d 4832 d4bd fab3 f7bc abd9 da3d
00000100: 8318 e0bd 4171 ad3b 5d57 7dbd 2c74 9a3c
00000110: 4883 ae3d 4eec 9dbd 9460 21bd 5e3e 553a
00000120: 9758 c3bc 72ca b23d 8646 cabc d6e2 bfbd
00000130: c466 323d f6c4 693d e2f8 e7bc 3733 bdbc
00000140: 8698 01be bada e1bd 57b0 153c c82c 3bb8
00000150: 64ed 13bb 223a 21bd b662 a13d bb4e 7bbb
00000160: 0669 3ebc 34d9 d73d 5211 7f3d e1a8 fbbc
00000170: 6ae1 963d f325 c6bd 1e49 8d3d de2f 393d
00000180: 3d7f ea3c 28d4 0abe 10ee a4bd 22b7 7abd
00000190: f88b 8bbd a898 8dbd a498 e1bd 669b 853d
000001a0: 6ee2 723d 4e1c 09bd 652e de3d ab9e 8c3d
000001b0: 87e2 16bd 6f1d ce3d de12 f2bd 2200 b43d
000001c0: f4c0 643d 3f6b 70bd 467e afbd 3467 25bd
000001d0: 9a3c 67bd 10a9 ed3d ec5a eebd ad60 8b3d
000001e0: 9245 9a3d 60c0 063e a06c af3d c81b 183a
000001f0: 8939 2cbd 3097 21bc bc3a 9c3d 7081 febb
00000200: 41db 723c 78e0 e0bd 87a1 cebc 80fd 093d
00000210: f634 f53d 09be c9bd 27d7 77bd 9f48 00be
00000220: 435b 09be a06c b8bc 8abb 97bd 7ce7 d7bd
00000230: 052e c93d ca98 bebd e085 e23d 33be 69bd
00000240: c6f9 51bd a286 2c3d acaf d7bd 8f05 3c3d
00000250: 36e9 babd 89d8 f6bc 2594 11be 3c73 61ba
00000260: e610 b0bc 9feb 323c 6988 d4bd e263 0a3e
00000270: ee6e ba3c b6a2 ba3d a309 ce3c ae2e 8dbc
00000280: cafc 143d 676c 3b3d dd7f 12bc 8c72 1f3d
00000290: e4a3 fa3d 9af7 933d 177e e43d 0e75 c23d
000002a0: b064 61bc abbe bd3d 95f4 b03d b445 bf3d
000002b0: 8d6d c2bc 348c b53d 806b 44bd 21be 333d
000002c0: d4fb 623d b771 853d 4547 10bd ab3a f83d
000002d0: d8ad d53d f5f1 003e 5592 763b 66f2 8cbd
000002e0: 816c 9b3d 856d f4bc 9f88 a43d 7e45 cbbc
000002f0: 5202 ca3d e016 f1bb ee06 573d 2d30 433d
00000300: c213 023e c150 16bd 0a6c cbbd f6e0 69bd
00000310: 4338 babc 7cab 6abd 7315 bc3c ade7 2a3b
00000320: d718 a03d ec9a 633b ffde c6bd a213 973d
00000330: 5afd 82bd 58a9 5f3c 55a3 ebbd 15cf eb3d
00000340: 04c5 d9bd 382e fbbd a5e5 a53d 117c 4cbd
00000350: e45d 02be f219 c33d 7918 cebd 417e 7d3c
00000360: df7b 883d ca34 ffbd b691 8b3d c76b dc3d
00000370: 8b2d f63c 7da8 f73c da5c 83bd 8268 65bd
00000380: 3feb 0bbe aa89 31bd dcfc f4bd b870 513d
00000390: 6989 c4bd 651f 7abd dbdb cfbd ecf1 00be
000003a0: a11d 27bd 8a64 bf3d 3a59 5f3d 740a f2bd
000003b0: 6d3a 57bd 52a6 d0bd 8a2a 77bb bd4b bebb
000003c0: 0492 78bd 4cc7 893d 390e b43d 65e4 003e
000003d0: 3570 b9bd 4dbf 723c f570 573d 8dd1 2a3c
000003e0: 66ee ddbd ff8a 173d e71a c73d fbbb 9dbd
000003f0: d5c2 a83d 9f70 36bd fbd1 a7bd 55d4 67bd

encoder.layers.1.nn.net.0.bias f4 [64]
0.097304255 -0.085152864 -0.067899935 0.030048365 0.09898918 -0.09493138 0.016326426 -0.094408825
-0.033947404 -0.049823303 0.10391103 -0.107742466 -2.9968376e-05 -0.009388636 -0.013065927 0.045374464
-0.038970444 -0.13727461 0.05525568 -0.06730278 0.10728992 -0.0720336 -0.0039720642 -0.099725746
0.08750765 -0.037660487 0.020219285 -0.07883265 0.020299565 0.01532855 0.13335231 0.08681645
0.11574823 0.043009695 0.104466945 0.11253069 0.07465934 0.037697237 -0.0071338154 0.04096122
-0.081582226 0.04615293 -0.060162093 -0.074857734 0.09025294 -0.03309678 -0.05997263 -0.018592542
0.018577434 -0.07154745 0.047630068 0.021378042 -0.09216942 -0.118529335 -0.075321645 -0.0747924
-0.01639951 -0.0068270923 0.11343788 0.037039585 0.07070013 0.00909191 0.04341128 0.012842437
00000000: 7447 c73d a064 aebd 1f0f 8bbd fd27 f63c
00000010: d7ba ca3d 626b c2bd ffbe 853c 6a59 c1bd
00000020: 6f0c 0bbd 8513 4cbd 4ecf d43d 15a8 dcbd
00000030: 9964 fbb7 cbd2 19bc 7812 56bc 93da 393d
00000040: 799f 1fbd b791 0cbe c853 623d 0ad6 89bd
00000050: d1ba db3d 5a86 93bd 1728 82bb 033d ccbd
00000060: 3637 b33d e241 1abd eaa2 a53c 0373 a1bd
00000070: 464b a63c 9924 7b3c 828d 083e d3cc b13d
00000080: 680d ed3d ef2a 303d c4f2 d53d 7e76 e63d
00000090: ffe6 983d 6b68 1a3d c8c2 e9bb f4c6 273d
000000a0: 9514 a7bd db0a 3d3d 876c 76bd 034f 99bd
000000b0: 89d6 b83d 7d90 07bd dca5 75bd 634f 98bc
000000c0: b42f 983c 7887 92bd bf17 433d 0121 af3c
000000d0: 52c3 bcbd 82bf f2bd 3c42 9abd c22c 99bd
000000e0: 4458 86bc cdb5 dfbb 1f52 e83d d2b6 173d
000000f0: 3bcb 903d 3cf6 143c 07d0 313d 1669 523c

encoder.layers.1.nn.net.2.weight f4 [64, 64]
-0.08992948 -0.122366235 -0.00025743412 0.05651182 -0.00070102664 0.07851957 0.004341201 -0.09566062
-0.06531738 -0.028405676 -0.05776594 -0.061962903 0.04050857 0.057793014 -0.069163695 -0.1304306
-0.009938389 0.0767383 -0.081842095 0.038030945 0.094610736 -0.06941063 0.078021154 -0.008263289
0.037181478 -0.008300277 -0.03816558 -0.12036611 0.11847083 0.0945547 -0.025176127 0.018525038
0.073096335 0.122814104 0.04822901 0.0068525057 0.04619003 -0.105286844 -0.1206717 -0.07897834
-0.000617827 0.11628458 -0.0101113785 -0.09207715 0.09411716 0.05812781 -0.08033514 0.016731909
-0.05925629 -0.10352139 -0.023204163 0.10764536 -0.09132351 -0.06370114 0.07551013 -0.10369839
-0.051058635 -0.009649348 0.08801924 -0.12973355 -0.014927514 0.05327656 -0.076407835 0.05558377
0.09747464 0.07364778 0.11612558 0.090519935 0.10724432 0.01722356 -0.117154755 -0.106786914
0.014682664 0.013969298 0.03495611 -0.00780583 0.010254939 0.12811787 -0.11653913 0.07903575
-0.07793358 0.09758348 -0.06439387 0.08376394 -0.077804044 -0.058292124 -0.03438183 -0.054744348
0.08233494 -0.051201593 -0.13226235 0.024614045 -0.06901071 -0.055361517 -0.0050258487 0.005004677
-0.09072184 -0.011802008 0.080779426 -0.0042048492 0.11116197 0.061582286 -0.014389747 -0.111021005
0.11020213 0.08592988 0.027859744 0.038528536 -0.09088535 -0.06782781 -0.08169589 -0.0919958
0.0017306063 0.08352533 -0.09422018 -0.07825667 0.058351096 -0.08256654 0.042607192 0.03166834
0.10525098 0.068115674 0.06522123 0.061121576 -0.10285496 -0.13595995 -0.11890874 0.1286318
0.07353703 -0.015980745 -0.035522144 -0.037861858 0.02773926 -0.115349814 -0.035890866 0.044701304
0.10578076 0.025832461 0.038874395 -0.10274747 -0.11284206 -0.02701778 0.025341105 -0.07220332
-0.0020579535 -0.033406213 -0.09949634 -0.09927297 -0.10927953 0.05997161 0.091240585 0.0007264794
0.0478065 0.052473098 0.060364723 0.067120686 -0.0023341062 0.009525896 0.0130526 -0.08658607
-0.020283591 -0.07954886 0.10699033 0.10287423 0.13335969 0.08048693 0.050987337 0.09457182
-0.10594866 -0.055406537 0.025253844 -0.010742977 -0.06958015 0.028152624 0.03770658 -0.066265464
-0.009794364 0.0073353276 0.091030315 0.08570352 -0.07756199 -0.0016424211 0.12525153 0.021897579
0.08383902 -0.067816556 -0.029848855 0.08156153 0.041945547 0.08254069 -0.03590129 -0.06460994
0.06165752 0.03878696 -0.011813454 0.088595115 -0.0005108511 0.092596665 0.05929275 0.10499305
0.082209885 -0.011564499 0.04893737 0.029228795 0.06648428 -0.011960669 0.009705937 -0.035918616
-0.12694165 0.05955469 -0.07481317 0.015286653 0.089991175 -0.12622793 0.110937715 0.056833085
-0.03851756 -0.07077142 -0.09135201 -0.11833524 -0.050918747 -0.057039436 0.101176396 -0.06585236
-0.035131596 -0.027012741 -0.059960444 -0.09645073 0.13834302 -0.027395615 0.055055585 0.09343486
-0.008318914 -0.079024695 0.12926453 -0.0010475176 -0.10429437 -0.11150985 -0.057880294 -0.031160504
-0.023435827 0.024028441 0.06666668 0.10649953 0.08741765 -0.093407944 0.115300834 -0.06628317
-0.0041413265 -0.048158117 0.10880124 0.025975486 -0.034121715 0.11570899 0.0068206107 0.021174641
00000000: f22c b8bd 269b fabd 39f8 86b9 f078 673d
00000010: 1ac5 37ba dece a03d a240 8e3b b7e9 c3bd
00000020: 1ec5 85bd 05b3 e8bc fa9b 6cbd d0cc 7dbd
00000030: 50ec 253d 5eb8 6c3d b2a5 8dbd 998f 05be
00000040: a0d4 22bc f828 9d3d d49c a7bd 56c6 1b3d
00000050: 46c3 c13d 2927 8ebd 8ec9 9f3d bf62 07bc
00000060: 9b4b 183d e3fd 07bc 8353 1cbd 8282 f6bd
00000070: d6a0 f23d e5a5 c13d 2a3e cebc d2c1 973c
00000080: 88b3 953d f685 fb3d c88b 453d fc8a e03b
00000090: c231 3d3d a1a0 d7bd b922 f7bd 65bf a1bd
000000a0: abf5 21ba 9c26 ee3d 32aa 25bc f292 bcbd
000000b0: 7fc0 c03d 6d17 6e3d c086 a4bd 5b11 893c
000000c0: b9b6 72bd 0603 d4bd a816 bebc 2c75 dc3d
000000d0: d207 bbbd be75 82bd 0ea5 9a3d d25f d4bd
000000e0: dc22 51bd 4d18 1ebc 6e43 b43d dfd8 04be
000000f0: 8892 74bc 8638 5a3d b67b 9cbd cfab 633d
00000100: c9a0 c73d a6d4 963d 40d3 ed3d 8462 b93d
00000110: e9a2 db3d 6c18 8d3c d5ee efbd 19b3 dabd
00000120: 8e8f 703c 7cdf 643c 232e 0f3d 0cc8 ffbb
00000130: 5504 283c 5531 033e 11ac eebd 7fdd a13d
00000140: a49b 9fbd d9d9 c73d efe0 83bd 6e8c ab3d
00000150: ba57 9fbd b9c3 6ebd f6d3 0cbd 9c3b 60bd
00000160: 399f a83d c3b8 51bd c86f 07be 65a3 c93c
00000170: 7d55 8dbd c2c2 62bd e0af a4bb 46fe a33b
00000180: 5fcc b9bd 365d 41bc af6f a53d d5c8 89bb
00000190: e3a8 e33d b53d 7c3d f9c2 6bbc fb5e e3bd
000001a0: a8b1 e13d 01fc af3d 1e3a e43c 19d0 1d3d
000001b0: 1922 babd 4fe9 8abd 2d50 a7bd 4b68 bcbd
000001c0: 83d5 e23a 540f ab3d 82f6 c0bd 0845 a0bd
000001d0: 8f01 6f3d a518 a9bd e184 2e3d a9b6 013d
000001e0: d38d d73d 3b80 8b3d b592 853d 9e5a 7a3d
000001f0: 9fa5 d2bd 1639 0bbe 6d86 f3bd 0eb8 033e
00000200: 959a 963d 0dea 82bc ab7f 11bd 0915 1bbd
00000210: 723d e33c 863c ecbd 4d02 13bd b718 373d
00000220: 95a3 d83d 999e d33c c23a 1f3d 446d d2bd
00000230: bd19 e7bd 6454 ddbc 2698 cf3c 56df 93bd
00000240: bbde 06bb f4d4 08bd bdc4 cbbd a04f cbbd
00000250: f2cd dfbd caa4 753d 58dc ba3d 3571 3e3a
00000260: c0d0 433d 08ee 563d 0041 773d 9276 893d
00000270: cef7 18bb 8112 1c3c 93da 553c 0a54 b1bd
00000280: c629 a6bc 83ea a2bd bf1d db3d b9af d23d
00000290: 718f 083e 55d6 a43d 19d8 503d dfae c13d
000002a0: 9cfb d8bd f7f1 62bd 26e1 ce3c 5003 30bc
000002b0: 0a80 8ebd 55a0 e63c 3772 1a3d 30b6 87bd
000002c0: 8a78 20bc 305d f03b 1a6e ba3d 5485 af3d
000002d0: d2d8 9ebd 8246 d7ba f041 003e 8d62 b33c
000002e0: cbb3 ab3d 68e3 8abd 9685 f4bc bb09 a73d
000002f0: 18cf 2b3d 180b a93d 3b0d 13bd 3752 84bd
00000300: 988c 7c3d 13df 1e3d 388d 41bc 5b71 b53d
00000310: a3ea 05ba 52a3 bd3d f4dc 723d 9906 d73d
00000320: a85d a83d 0679 3dbc 8d72 483d 3a71 ef3c
00000330: e928 883d aff6 43bc a605 1f3c 661f 13bd
00000340: fefc 01be 9eef 733d a637 99bd df74 7a3c
00000350: 4b4d b83d e541 01be 5033 e33d cfc9 683d
00000360: 97c4 1dbd 9bf0 90bd c316 bbbd bf59 f2bd
00000370: 2d90 50bd 2fa2 69bd 9235 cf3d 9add 86bd
00000380: 26e6 0fbd d349 ddbc 1599 75bd f687 c5bd
00000390: cba9 0d3e c56c e0bc f781 613d c75a bf3d
000003a0: 0e4c 08bc b3d7 a1bd ec5d 043e dc4c 89ba
000003b0: 4998 d5bd 475f e4bd e313 6dbd 5044 ffbc
000003c0: 7efc bfbc 4bd7 c43c 8a88 883d 6d1c da3d
000003d0: 0608 b33d aa4c bfbd d822 ec3d 78bf 87bd
000003e0: f7b3 87bb 7241 45bd 2fd3 de3d 8bca d43c
000003f0: 36c3 0bbd d6f8 ec3d 6e7f df3b 7176 ad3c

encoder.layers.1.nn.net.2.bias f4 [64]
0.06119069 0.102297485 0.006051269 -0.030515118 0.10674145 -0.10005016 -0.10291084 -0.03354135
0.10878692 -0.07301898 -0.0016301752 -0.060225017 0.05342701 0.043798164 0.0396372 -0.11040212
0.08228058 -0.041911364 0.03558142 -0.07629705 0.009537618 0.10061043 0.030880686 0.0071851937
0.060996264 0.110355005 0.07449729 -0.08852949 0.05809366 0.115961745 0.06004977 -0.04715524
-0.122578114 -0.05342777 -0.04796022 -0.0051233275 -0.06318374 -0.03963876 0.030717827 -0.023178605
-0.011741652 -0.028812993 0.11911888 0.0006975575 0.10432204 0.007985284 -0.06678238 -0.08525603
0.0862268 0.05929961 -0.10705922 -0.055561084 -0.034281213 0.095012 0.034173198 0.109196275
0.07116026 0.06886829 -0.057905674 -0.008545617 0.055719238 0.07061205 0.031910524 0.013674152
00000000: 17a3 7a3d 5881 d13d b949 c63b d7fa f9bc
00000010: 439b da3d 19e7 ccbd ebc2 d2bd a862 09bd
00000020: adcb de3d fa8a 95bd 9aab d5ba 82ae 76bd
00000030: 48d6 5a3d b465 333d 9e5a 223d 821a e2bd
00000040: b982 a83d 40ab 2bbd d3bd 113d a141 9cbd
00000050: ab43 1c3c d70c ce3d 7ef9 fc3c c671 eb3b
00000060: 38d7 793d ce01 e23d 0992 983d f34e b5bd
00000070: 9ef3 6d3d 5a7d ed3d bff6 753d da25 41bd
00000080: 3c0a fbbd 14d7 5abd f071 44bd 96e1 a7bb
00000090: 7a66 81bd 415c 22bd f4a3 fb3c 0fe1 bdbc
000000a0: 0f60 40bc 3a09 ecbc 99f4 f33d 4bdc 363a
000000b0: cba6 d53d b5d4 023c 33c5 88bd b79a aebd
000000c0: ad97 b03d 26e4 723d dd41 dbbd 0594 63bd
000000d0: 756a 0cbd a795 c23d 32f9 0b3d 4ca2 df3d
000000e0: 78bc 913d d10a 8d3d 802e 6dbd ea02 0cbc
000000f0: db39 643d 0d9d 903d 9cb4 023d 8d09 603c

encoder.layers.2.nn.net.0.weight f4 [64, 64]
0.013525199 -0.09166181 0.05505283 -0.048072536 -0.046658333 0.009909375 -0.006922049 0.008926963
-0.10996434 -0.012736372 0.048924033 0.068309814 -0.06231141 0.008269256 -0.12596038 0.05115791
-0.0073450333 -0.10410017 0.08186268 -0.0148574365 0.013986782 0.017964851 0.02806948 -0.078486845
0.028735982 -0.12753068 -0.028049253 -0.045309387 0.11807092 0.040198684 0.074124284 -0.014403811
0.05605107 0.055799916 0.056748196 -0.07941992 -0.1194538 0.11119417 -0.10320635 0.036974337
-0.10985882 0.09295856 -0.047567297 -0.02811729 0.10398431 0.035795268 0.059271548 0.11003271
-0.03900302 0.079754874 -0.079073355 -0.04754583 -0.0019287182 0.020615468 -0.06281046 -0.10116646
-0.09941592 0.016304022 -0.013347721 -0.10784817 0.049852416 0.0425699 0.03709678 -0.07516112
-0.06580949 0.025316702 -0.07315104 0.038444147 0.074929416 0.013769964 0.026368048 -0.10803304
0.1350232 -0.09984213 -0.09228195 -0.11846958 0.10848098 0.06372453 0.04674636 0.050425734
0.05947827 -0.10751319 0.04613477 0.051427033 0.038632356 -0.061730172 -0.049572583 -0.057359576
-0.0033242872 0.01296608 -0.021709923 0.10584211 0.103696644 0.098720625 -0.05381773 0.07607605
-0.028231569 0.0326631 0.1115517 0.098898895 0.05430589 -0.05263478 -0.0478025 -0.034382828
0.08490132 -0.08457344 0.041498754 0.06672683 0.10707621 0.06901059 0.063269846 0.028009133
0.098038614 -0.017316446 0.06573024 0.10562243 0.032046765 0.025360642 0.0713431 0.06100702
0.034774613 -0.02009224 -0.033124343 0.10196811 0.019048858 0.0019083564 0.036780667 0.02325828
-0.060411435 -0.013521606 0.1182735 0.034571923 -0.09199169 -0.002717916 -0.02476117 -0.016376771
-0.0036045262 -0.12518507 -0.045346748 -0.0806709 -0.1182572 0.08910749 -0.0009465785 -0.0832572
-0.09967503 0.08112539 0.07078552 0.054636884 -0.07005305 -0.08165993 -0.012174487 -0.024467915
0.032155875 -0.11608222 -0.014977685 0.03231632 0.035634812 -0.0053084474 -0.0014140815 0.008373737
-0.04677804 0.04117207 0.12304051 -0.016795237 -0.11912494 -0.057607386 0.009404997 -0.020585371
-0.061030824 0.001426036 0.03592021 -0.030020505 -0.11815224 -0.06608322 -0.10162441 -0.03166317
-0.06815297 -0.047352877 -0.1197806 0.031746715 0.10919327 -0.110570624 -0.009377542 -0.02749885
-0.05907672 0.011187024 -0.014015571 0.05782298 -0.06525275 0.008800736 -0.10898856 0.0122517515
0.003222687 -0.03793303 -0.122852005 0.07297505 0.01430367 -0.030126883 -0.0870073 0.07349641
-0.13381554 0.0006230571 0.037999462 0.10934241 0.026797457 -0.029815286 0.032834705 0.03611924
-0.0845375 0.09833291 -0.017519142 -0.025371557 -0.03924597 -0.03016859 -0.09579262 0.0976922
-0.10096298 0.0965758 -0.057769734 0.0030749498 -0.06017163 0.023335777 -0.055522904 0.10581314
-0.03337924 -0.08608699 -0.059637845 -0.06760539 -0.003933995 0.021662718 0.057155162 -0.09699045
-0.023601636 0.017837975 0.06331405 0.00875981 0.027334174 0.06516484 0.08133608 0.013377987
-0.06476095 0.061672743 -0.087781966 0.0122571355 -0.055917475 0.13129815 -0.0874877 0.05456036
0.09093522 0.0425118 -0.06355491 0.024266424 -0.0897027 -0.014931351 -0.012436608 -0.0415565
00000000: cc98 5d3c 30b9 bbbd 147f 613d b5e7 44bd
00000010: cf1c 3fbd ee5a 223c 5bd2 e2bb 6642 123c
00000020: fc34 e1bd 37ac 50bc 9164 483d 04e6 8b3d
00000030: 403a 7fbd c67b 073c c2fb 00be f58a 513d
00000040: 9bae f0bb 7832 d5bd 9fa7 a73d 9b6c 73bc
00000050: d128 653c 062b 933c f7f1 e53c b6bd a0bd
00000060: b967 eb3c 6797 02be 8cc7 e5bc 5696 39bd
00000070: 2bcf f13d 60a7 243d 79ce 973d f6fd 6bbc
00000080: cf95 653d 748e 643d cc70 683d e9a6 a2bd
00000090: 32a4 f4bd c5b9 e33d da5d d3bd 6772 173d
000000a0: a9fd e0bd 0f61 be3d edd5 42bd 3b56 e6bc
000000b0: baf5 d43d 0f9e 123d b9c6 723d d458 e13d
000000c0: a1c1 1fbd 8656 a33d 36f1 a1bd 6bbf 42bd
000000d0: 0bcd fcba c5e1 a83c c5a2 80bd 5c30 cfbd
000000e0: 939a cbbd 0390 853c 66b0 5abc 80df dcbd
000000f0: 0c32 4c3d c75d 2e3d cbf2 173d 13ee 99bd
00000100: 20c7 86bd f964 cf3c 36d0 95bd 9c77 1d3d
00000110: 9874 993d 6a9b 613c ce01 d83c 6d40 ddbd
00000120: 8643 0a3e 087a ccbd 52fe bcbd 2ea0 f2bd
00000130: 472b de3d 0282 823d 1c79 3f3d 378b 4e3d
00000140: 7d9f 733d e02f dcbd d0f7 3c3d 27a5 523d
00000150: f63c 1e3d c7d8 7cbd 9f0c 4bbd e0f1 6abd
00000160: 49dc 59bb ae6f 543c 02d9 b1bc c0c3 d83d
00000170: e85e d43d 0a2e ca3d fb6f 5cbd c3cd 9b3d
00000180: e445 e7bc bec9 053d 3875 e43d 818b ca3d
00000190: da6f 5e3d 9197 57bd 8ecc 43bd 02d5 0cbd
000001a0: bee0 ad3d d734 adbd 99fa 293d 14a8 883d
000001b0: c64a db3d 6d55 8d3d 9f93 813d 6973 e53c
000001c0: 78c8 c83d 38db 8dbc 939d 863d 9350 d83d
000001d0: 7843 033d 1fc1 cf3c 551c 923d 7fe2 793d
000001e0: d36f 0e3d 7b98 a4bc 64ad 07bd a8d4 d03d
000001f0: 5a0c 9c3c d121 fa3a 53a7 163d 2688 be3c
00000200: fb71 77bd ba89 5dbc 6039 f23d 4a9b 0d3d
00000210: 2466 bcbd 101f 32bb f0d7 cabc 9428 86bc
00000220: ea39 6cbb 8430 00be 83bd 39bd c936 a5bd
00000230: d530 f2bd fd7d b63d cf23 78ba c082 aabd
00000240: 6c22 ccbd 1225 a63d 00f8 903d edca 5f3d
00000250: f977 8fbd 523d a7bd 8077 47bc f070 c8bc
00000260: e1b5 033d 84bc edbd f764 75bc 1e5e 043d
00000270: cff5 113d 7cf2 adbb b458 b9ba 0032 093c
00000280: 549a 3fbd 0ba4 283d aafc fb3d 2a96 89bc
00000290: c7f7 f3bd b9f5 6bbd 6b17 1a3c a7a2 a8bc
000002a0: 75fb 79bd d4e9 ba3a 1221 133d 90ed f5bc
000002b0: cdf9 f1bd a456 87bd 7520 d0bd 3db1 01bd
000002c0: c993 8bbd 17f5 41bd 884f f5bd d808 023d
000002d0: b9a0 df3d da72 e2bd 43a4 19bc 4545 e1bc
000002e0: 6efa 71bd c849 373c 91a1 65bc cad7 6c3d
000002f0: 3ca3 85bd f630 103c 6535 dfbd 92bb 483c
00000300: b733 533b aa5f 1bbd d599 fbbd f173 953d
00000310: f159 6a3c a7cc f6bc e230 b2bd 4985 963d
00000320: f106 09be a754 233a 53a5 1b3d eaee df3d
00000330: 5786 db3c 303f f4bc af7d 063d c5f1 133d
00000340: ff21 adbd c462 c93d 4e84 8fbc 03d8 cfbc
00000350: 62c0 20bd 1e24 f7bc ec2e c4bd d912 c83d
00000360: aec5 cebd 88c9 c53d f59f 6cbd 1985 493b
00000370: 8776 76bd ac2a bf3c fc6b 63bd 8fb4 d83d
00000380: acb8 08bd 604e b0bd d046 74bd b274 8abd
00000390: bee8 80bb 0376 b13c 881b 6a3d eea2 c6bd
000003a0: 3858 c1bc f220 923c ccaa 813d 4e85 0f3c
000003b0: ebeb df3c 2575 853d 8893 a63d 582f 5b3c
000003c0: 64a1 84bd 8f9c 7c3d 08c7 b3bd 27d2 483c
000003d0: b909 65bd 0673 063e c02c b3bd af7a 5f3d
000003e0: 3f3c ba3d da20 2e3d 1429 82bd 61ca c63c
000003f0: 0db6 b7bd a0a2 74bc eac2 4bbc 2637 2abd

encoder.layers.2.nn.net.0.bias f4 [64]
-0.03799219 -0.012009861 -0.09001905 -0.010557549 -0.029029952 -0.040699743 -0.028896067 0.0030457203
-0.06698314 -0.08155615 0.08818225 -0.029636355 0.099532194 -0.04725786 0.07910005 -0.009414443
-0.12278426 -0.06548507 -0.08461343 0.006041627 -0.09550357 -0.11877639 -0.053608574 -0.03666315
0.10160336 -0.06928947 -0.0038545213 -0.095189296 0.034766197 0.1386722 -0.034769017 -0.13074505
-0.07675772 -0.0651956 -0.056300826 0.0383002 0.041643914 -0.062074732 0.082035325 0.035131607
-0.08659071 -0.056295734 -0.09953551 -0.11774363 -0.09460717 0.030882517 0.07325126 0.09172204
-0.025986683 -0.07215398 0.042702008 0.06500334 -0.025494622 0.0599319 -0.036757596 -0.040786
-0.10780376 0.05612267 0.009569146 0.011274088 -0.10627905 0.04774983 0.09060267 0.106193714
00000000: b39d 1bbd 02c5 44bc e85b b8bd 92f9 2cbc
00000010: 39d0 edbc c6b4 26bd 72b7 ecbc b59a 473b
00000020: 752e 89bd e906 a7bd e598 b43d f1c7 f2bc
00000030: 89d7 cb3d 7591 41bd 35ff a13d 093f 1abc
00000040: 5076 fbbd 091d 86bd ce49 adbd d7f8 c53b
00000050: 6097 c3bd 0941 f3bd aa94 5bbd 192c 16bd
00000060: 6c15 d03d a3e7 8dbd 239c 7cbb 9bf2 c2bd
00000070: 0067 0e3d 1600 0e3e f569 0ebd 08e2 05be
00000080: 2733 9dbd 4585 85bd b29b 66bd ace0 1c3d
00000090: cf92 2a3d 1342 7ebd 2302 a83d 29e6 0f3d
000000a0: 7856 b1bd 5b96 66bd 46d9 cbbd 9323 f1bd
000000b0: 67c1 c1bd 55fd fc3c c204 963d c4d8 bb3d
000000c0: 06e2 d4bc 77c5 93bd 4de8 2e3d 7920 853d
000000d0: 19da d0bc 277b 753d 228f 16bd 390f 27bd
000000e0: 38c8 dcbd e3e0 653d e8c7 1c3c f4b6 383c
000000f0: d5a8 d9bd 5395 433d e58d b93d 177c d93d

encoder.layers.2.nn.net.2.weight f4 [64, 64]
0.09355366 0.06198665 0.0038101813 0.04617354 -0.06725805 -0.03746687 -0.031423632 0.0047022672
0.017212488 0.116537236 0.022774743 0.0045635346 -0.08670439 -0.012686709 0.026271258 0.082241826
-0.055390254 0.06506072 0.0050755236 0.0016411371 0.050027773 -0.01510759 -0.05690061 -0.10628931
0.023149233 0.027319439 0.066597015 -0.062132876 0.016228423 0.083277 -0.052010812 0.01796726
-0.047986586 -0.113111205 0.020291463 -0.09003798 -0.076358795 0.004876403 0.030996617 0.07015661
-0.047173057 -0.012244393 0.07674201 -0.05916629 0.09667755 -0.065671526 -0.062395386 0.059208672
-0.11081498 -0.044411756 -0.021639168 0.096609846 -0.09697671 -0.010440171 -0.047325037 0.087312095
0.016206197 0.08132323 0.051633533 0.08569052 -0.077170976 -0.013073535 0.10224605 0.06931797
-0.110148795 0.012072473 0.11010066 0.024293745 0.096599884 -0.07607094 -0.062011935 -0.07597698
-0.036209803 -0.03656777 0.071036525 0.07289246 0.10199981 -0.08068172 0.04194545 0.12382687
0.022919549 -0.13367964 -0.08814476 -0.009425799 0.0443361 0.104316734 -0.045775663 0.032034572
0.095216036 0.02817026 0.07514576 0.10673568 0.11195825 0.06287615 0.006155626 0.031573813
-0.03745921 0.014680331 0.067143925 -0.0172045 -0.10332592 0.06500491 0.112654835 -0.08431864
-0.114037976 -0.04524709 0.09733493 -0.054193553 -0.00038206056 0.029558774 -0.010493852 -0.080041714
0.088496156 0.047258638 -0.12131592 -0.026196964 0.08344199 0.10880542 0.03204758 -0.005561281
0.10547431 0.0818691 0.041823037 0.1079861 0.091061264 0.0833986 -0.031727348 0.0051235086
-0.078206375 -0.04018052 -0.005642248 -0.059820887 0.0007680069 0.08181899 -0.029245062 -0.08791913
-0.052445605 -0.088596605 -0.10278113 -0.015679007 -0.08298712 -0.06035022 0.08299775 0.049588256
-0.04878134 -0.026943615 -0.12858939 -0.04167605 -0.090225585 -0.11290158 0.09522433 0.09594631
0.11508205 0.08692129 0.091926485 0.00854941 -0.061912484 -0.07561045 0.05220066 0.011687497
-0.036433943 -0.108991124 -0.11414527 -0.08194269 0.07029691 -0.101776615 0.017633168 -0.10860406
-0.06838033 0.0017111952 0.017105306 0.020375494 -0.022781907 0.022522293 0.041265547 -0.10715274
-0.08978924 0.10817181 0.10840196 0.007067546 0.1106808 -0.050406884 0.015381225 -0.015580662
-0.048682097 -0.08984488 -0.11627564 -0.09238536 0.05077011 -0.08982179 0.039148632 0.071435496
-0.013925111 -0.04798881 -0.022657966 -0.10706262 -0.08455986 0.11395656 0.014327935 0.09515477
-0.058405567 -0.11063444 0.12133129 -0.059478723 -0.061431758 -0.11018961 0.03350847 0.07010409
0.12385003 -0.033345144 -0.054040942 -0.12102886 -0.1097937 -0.06366273 -0.078021064 0.019836446
-0.07518854 -0.022760743 0.017979568 0.023073379 0.015167317 0.03186499 -0.008850395 0.1068341
0.116545156 0.040522523 -0.049270514 -0.06895307 0.12564754 -0.05093063 -0.021893052 -0.07502224
-0.054355755 -0.004709822 0.022703864 -0.03474861 0.08511029 0.020580992 0.038805906 -0.007006207
-0.11626761 0.034396324 0.06253921 0.10621081 -0.06963714 -0.049743608 -0.048258886 -0.1105021
-0.022237306 0.052331142 -0.101064414 0.07281209 -0.091801256 0.107555985 -0.0031822529 0.120156825
00000000: 1099 bf3d b7e5 7d3d 3cb4 793b 7720 3d3d
00000010: 97be 89bd dc76 19bd 11b6 00bd 7a15 9a3b
00000020: 3401 8d3c 13ab ee3d 1992 ba3c b489 953b
00000030: 1292 b1bd eadb 4fbc d236 d73c 676e a83d
00000040: e4e0 62bd 8e3e 853d 9450 a63b 6c1b d73a
00000050: ece9 4c3d d385 77bc 9d10 69bd 36ae d9bd
00000060: 76a3 bd3c 04cd df3c 0464 883d 0b7f 7ebd
00000070: 78f1 843c 228d aa3d 4a09 55bd 1330 933c
00000080: 958d 44bd d9a6 e7bd 483a a63c d565 b8bd
00000090: 0062 9cbd 3cca 9f3b 9eec fd3c 45ae 8f3d
000000a0: 8938 41bd b59c 48bc ea2a 9d3d 5a58 72bd
000000b0: e1fe c53d cb7e 86bd 4e92 7fbd cb84 723d
000000c0: f7f2 e2bd 1ae9 35bd a044 b1bc 62db c53d
000000d0: ba9b c6bd 400d 2bbc e6d7 41bd afd0 b23d
000000e0: dcc2 843c cb8c a63d af7d 533d 837e af3d
000000f0: d10b 9ebd 6132 56bc 6166 d13d 94f6 8d3d
00000100: b195 e1bd 9fcb 453c 747c e13d ad03 c73c
00000110: 29d6 c53d 15cb 9bbd 3a00 7ebd d299 9bbd
00000120: bb50 14bd 16c8 15bd 997b 913d a448 953d
00000130: 47e5 d03d 753c a5bd fece 2b3d f198 fd3d
00000140: c7c1 bb3c 51e3 08be 3d85 b4bd ab6e 1abc
00000150: c599 353d 03a4 d53d 437f 3bbd af36 033d
00000160: a000 c33d 51c5 e63c 05e6 993d 3c98 da3d
00000170: 5e4a e53d 36c5 803d 22b5 c93b 8b53 013d
00000180: d46e 19bd c585 703c c182 893d 74f0 8cbc
00000190: 8a9c d3bd 4b21 853d 94b7 e63d 40af acbd
000001a0: be8c e9bd 0355 39bd 8957 c73d 0ffa 5dbd
000001b0: 4d4f c8b9 3e25 f23c 68ee 2bbc e9ec a3bd
000001c0: 793d b53d 4692 413d 7b74 f8bd 049b d6bc
000001d0: a2e3 aa3d 60d5 de3d 5344 033d 683b b6bb
000001e0: ea02 d83d fdaa a73d a24e 2b3d d127 dd3d
000001f0: 547e ba3d e3cc aa3d 89f4 01bd 1be3 a73b
00000200: aa2a a0bd 5494 24bd 9be2 b8bb bf06 75bd
00000210: 1254 493a b790 a73d 5793 efbc f20e b4bd
00000220: 34d1 56bd 2372 b5bd ea7e d2bd 4371 80bc
00000230: 27f5 a9bd cb31 77bd b9fa a93d 0e1d 4b3d
00000240: f1ce 47bd dbb8 dcbc f0ac 03be 81b4 2abd
00000250: 31c8 b8bd f238 e7bd f904 c33d 807f c43d
00000260: 23b0 eb3d ca03 b23d f443 bc3d d312 0c3c
00000270: f297 7dbd a7d9 9abd 5cd0 553d ea7c 3f3c
00000280: c23b 15bd bd36 dfbd ffc4 e9bd 92d1 a7bd
00000290: d4f7 8f3d 4270 d0bd 6f73 903c ce6b debd
000002a0: fd0a 8cbd 2f4a e03a 6d20 8c3c 82ea a63c
000002b0: 1fa1 babc ac80 b83c 1006 293d e572 dbbd
000002c0: 6ce3 b7bd 2f89 dd3d d901 de3d df96 e73b
000002d0: 9eac e23d 7377 4ebd 8901 7c3c 0846 7fbc
000002e0: e166 47bd 9800 b8bd ec21 eebd 8934 bdbd
000002f0: 52f4 4f3d 7df4 b7bd 515a 203d c64c 923d
00000300: 2626 64bc ea8f 44bd 339d b9bc a643 dbbd
00000310: b82d adbd 0f62 e93d b7bf 6a3c 81e0 c23d
00000320: ad3a 6fbd 4f94 e2bd 8a7c f83d f69f 73bd
00000330: de9f 7bbd 17ab e1bd 2d40 093d bc92 8f3d
00000340: 16a5 fd3d eb94 08bd 095a 5dbd fbdd f7bd
00000350: 85db e0bd 9b61 82bd 82c9 9fbd 0b80 a23c
00000360: 73fc 99bd bd74 babc e349 933c 6204 bd3c
00000370: 5780 783c dd84 023d 3f01 11bc d6cb da3d
00000380: 3aaf ee3d f2fa 253d e1cf 49bd 4437 8dbd
00000390: c0a9 003e a39c 50bd 0f59 b3bc 43a5 99bd
000003a0: 24a4 5ebd da54 9abb 74fd b93c 8f54 0ebd
000003b0: 4e4e ae3d 7899 a83c f1f2 1e3d 5394 e5bb
000003c0: b61d eebd 29e3 0c3d 8f14 803d 0e85 d93d
000003d0: eb9d 8ebd f4bf 4bbd 1cab 45bd ed4e e2bd
000003e0: 032b b6bc 2e59 563d dcfa cebd 811e 953d
000003f0: 4c02 bcbd 5046 dc3d 588d 50bb c814 f63d

encoder.layers.2.nn.net.2.bias f4 [64]
0.10886006 0.024243547 0.07157818 -0.09589825 0.004175119 -0.01735515 0.12449534 0.097209096
0.088426344 0.01440148 0.019765373 0.09564061 0.04718027 0.04474658 0.055037837 0.04304005
-0.087032445 -0.07711044 -0.017749175 -0.039881665 -0.025101837 -0.0884281 -0.042701244 -0.079650104
0.12144981 0.031666968 -0.014574196 0.09231404 0.08661775 -0.083785936 0.10925717 0.018103123
-0.08255488 0.11973231 0.004396297 0.070002355 0.10726772 -0.06172801 -0.0814182 -0.094470225
0.07965827 0.022387045 -0.06870515 0.014204672 -0.08315283 0.11804285 -0.094964094 0.0008508279
0.060637187 -0.022514999 -0.014929776 -0.01671833 0.041076597 0.04825926 0.08870776 -0.08315711
0.03363332 0.122060485 0.09095815 0.045131642 -0.0221375 0.044053912 -0.030686667 0.073573254
00000000: 06f2 de3d 679a c63c 9597 923d 4d66 c4bd
00000010: 70cf 883b 632c 8ebc 6af7 fe3d 9015 c73d
00000020: df18 b53d 2ff4 6b3c feea a13c 39df c33d
00000030: 1940 413d 3148 373d 5b6f 613d c34a 303d
00000040: 113e b2bd 14ec 9dbd b866 91bc f55a 23bd
00000050: 5ea2 cdbc cb19 b5bd 80e7 2ebd 981f a3bd
00000060: aeba f83d 39b5 013d 9cc8 6ebc 250f bd3d
00000070: a664 b13d f697 abbd 39c2 df3d 004d 943c
00000080: 8812 a9bd 3736 f53d d00e 903b 655d 8f3d
00000090: 2eaf db3d 83d6 7cbd 96be a6bd 9b79 c1bd
000000a0: e023 a33d 0965 b73c 49b5 8cbd b6ba 683c
000000b0: 084c aabd 73c0 f13d 897c c2bd 180a 5f3a
000000c0: b35e 783d 6071 b8bc 059c 74bc e1f4 88bc
000000d0: ef3f 283d 80ab 453d 6aac b53d 464e aabd
000000e0: 18c3 093d d9fa f93d 4448 ba3d f5db 383d
000000f0: b459 b5bc e071 343d 9b62 fbbc 93ad 963d
