scripts/embeddings_gin_version2/MUTAG/gin_dim64_ep100_lr0.0005_drop0.0/gin_classifier.pt (torch, 177117 bytes, 42 tensors)

encoder.layers.0.nn.net.0.weight f4 [64, 7]
00000000: a381 82be edae 39be 5a6e 96bd 855b 3a3e
00000010: 2621 8b3e 3c53 af3e 3f02 613e d347 9b3e
00000020: 3c22 74be 07b7 44be 31e1 00be 26d8 acbe
00000030: 69a0 51be 6eaa 8abe 722b 7b3e 59aa 12be
00000040: fc16 873e ef47 b2be 3dc3 9e3e bde3 363e
00000050: b872 36bd 5e3c babd dd8f 6bbe 46c4 6abe
00000060: efd0 e23d 1ef9 80be ded2 9d3e b826 61be
00000070: 4ae7 1d3e 402b 823e d8df 973d f7d3 afbe
00000080: 6fc6 6f3e 197a 203e 9722 103e 5ae0 f33d
00000090: 4d69 00be 6ba9 173e a578 7d3c 59df 793c
000000a0: 02f3 37be 5e8d 223e a423 e53d 936a 01be
000000b0: 279b e7ba c15b 373d fc73 afbd 7fee d03d
000000c0: 1e7b 9c3e af7f 5f3e 0e2b b8be 6440 5abe
000000d0: 2ce2 96be d747 75ba 1196 c13e ca1b e3bd
000000e0: 1c94 80be ae0a ba3c 5826 a43e eff4 e03c
000000f0: 750f 81be f8da 973d 9231 0e3c 9570 0b3d
00000100: ced6 913e 4b04 6e3e 49eb 1bbe 05f6 333e
00000110: 2831 ebbd cb4b 46be 7997 a8bd 108e b43e
00000120: 8a1e 88be 0c8d 0abe 661a b93e d8c0 5abe
00000130: 01d3 bfbe 4313 993e dd8b 79bd 6d62 643e
00000140: eeb4 243d 5c94 bcbe 384d f83d 9b12 90bd
00000150: db5e 2d3e 0d9f 8c3e 9932 c53d d8d6 95be
00000160: 873f b23e a024 b23e 9012 6a3c 4b62 943d
00000170: c44c ae3e 996a 96be 9b98 8ebd 3743 5a3e
00000180: bcfc 543d 7477 9fbe 0208 883c f0c4 47be
00000190: 5bb0 babe 08b3 a33e 99c8 a5be 1377 c03d
000001a0: f4c0 3cbe 35db c0be a1b5 a0be 1ee2 68be
000001b0: 317b 2c3e b065 fcbd 65f0 973e d599 51be
000001c0: 7586 a43e c55b b0be 6430 f1bd 265e 58be
000001d0: 4165 9f3e 86c2 823d 605b ae3e d315 df3d
000001e0: a831 693c 6ff7 7d3e 2052 b43e b600 8f3e
000001f0: f416 febd b860 d93d e5f8 75be 13d0 ac3e
00000200: 1d1c a5bd 6a40 103e cb75 4a3e c4fa aabd
00000210: e15d 63be 677e 5a3d 5ac6 553e dfc2 bbbc
00000220: 2871 8dbe 953b 073d a5a4 81bd e582 5dbe
00000230: 1ebf 34be 07ad 76bd 0051 063e c6e7 1ebe
00000240: a9b3 8d3d 60e8 27be 8060 6fbe a4d0 adbe
00000250: 5a63 0e3e 4ff1 df3d 75a2 71be 3404 293e
00000260: 184e 98be 22d5 a2bd 7180 623e 4171 d4bd
00000270: 7f3e 303d f524 8a3e dc58 aa3c 31f8 a43e
00000280: 2d02 663e 14cd 2d3e cdf7 89be 7894 b8bd
00000290: 536c 9ebe 1085 65bd 9f2e 693e 57de 4a3d
000002a0: 28f0 a63e 6c24 cb3d 930b b3bd 4a09 a2be
000002b0: fcbf fb3d 5191 883e df90 ad3d 5573 2b3e
000002c0: 4d71 853e ab2e 89be 68a1 a9be 4d55 b9bd
000002d0: 66f4 183e a8aa 7abe 6682 12be 1fe6 aebd
000002e0: ea03 ffbc 636a 86be 8b6f a53e 4f27 b53e
000002f0: 19d2 9e3e f813 923e 54b7 9cbd d9c7 6d3e
00000300: 66ec 61bb 2df6 94be 17a1 aebe ebb4 a2bd
00000310: 8ab2 8ebe 39c5 4e3e e5f9 803e acb0 a8be
00000320: fbe5 f33d dc9b 03be e27a b6be 3ca3 abbc
00000330: 6fe1 373e a521 593e 4ace eabd 1435 19be
00000340: 14d2 933e ace8 be3e a883 7dbe 0da5 973d
00000350: 4b18 a63d fd6c b63e 87c1 e2bb 545c 22bd
00000360: dd8d 04be 25b1 a73e 9a52 2c3e 0d14 833e
00000370: 176e 35be e4c5 2b3e fc7a 1bbe 55ea 9abe
00000380: 50c8 d1bd 1a48 3dbc d01e 81be 14a6 6a3e
00000390: 1b3b 563e 9724 b8be f9d3 123e 2b0d 813e
000003a0: 8f13 c3be 3645 9b3b 4dbc f43d b893 453e
000003b0: 2bcf 3dbd eca8 2a3e 2a69 88be 88eb cd3d
000003c0: f59d 9ebe c976 c3bd 4206 9f3e df14 4ebe
000003d0: 7997 993e 1801 cd3d fc8d 46be 05af ae3d
000003e0: 2660 0c3e b364 85be 6474 4dbe e5c9 72bd
000003f0: 8354 193e 15d8 223d f023 9d3e ddb9 51be
-0.2548953 -0.18133135 -0.07345267 0.18198974 0.27173728 0.3424319 0.21973513 0.30328235
-0.23841184 -0.19210444 -0.12585904 -0.33758658 -0.20471348 -0.27083153 0.24528292 -0.14322795
0.26384723 -0.34820506 0.3100833 0.17860313 -0.044542998 -0.090935454 -0.23004098 -0.22926435
0.11075007 -0.2519006 0.3082494 -0.21987426 0.15420261 0.25423622 0.07415742 -0.34341404
0.2341554 0.15671577 0.14075695 0.11908026 -0.12540169 0.14810722 0.015470658 0.015251004
-0.17963794 0.1587424 0.111884385 -0.12638311 -0.001767014 0.044765238 -0.08567044 0.102017395
0.3056268 0.21826051 -0.35970348 -0.21313626 -0.2946943 -0.0009356713 0.37809804 -0.11089285
-0.25112998 0.02271017 0.32060504 0.027460543 -0.25207105 0.07414812 0.008678811 0.034042913
0.28484195 0.23243825 -0.15226473 0.17574318 -0.11483985 -0.1936485 -0.08232016 0.35264635
-0.265858 -0.13530368 0.36152953 -0.21362627 -0.3746567 0.29897508 -0.0609244 0.22303171
0.04021161 -0.3683194 0.12124103 -0.07034799 0.16930716 0.27465096 0.09628791 -0.29265475
0.34814093 0.34793568 0.014286652 0.072453104 0.34042943 -0.29378203 -0.06962701 0.21314703
0.05199884 -0.31145823 0.01660538 -0.1950872 -0.36462674 0.31972528 -0.32379606 0.093977116
-0.18432981 -0.37667242 -0.31388572 -0.22742507 0.16843869 -0.12324083 0.29675594 -0.20468839
0.32133833 -0.34445015 -0.11776808 -0.21129665 0.31131938 0.06384759 0.3405409 0.108928345
0.01423303 0.2480142 0.35218906 0.2793023 -0.12406722 0.10614151 -0.24020727 0.33752498
-0.08062003 0.14087072 0.19771497 -0.08348611 -0.2220378 0.053343203 0.20876446 -0.02292007
-0.27625394 0.033015806 -0.063302316 -0.21631964 -0.1765103 -0.060223605 0.13116837 -0.15518102
0.06919033 -0.16397238 -0.23376656 -0.33948243 0.13905087 0.10934698 -0.23597129 0.1650551
-0.2974708 -0.07950808 0.22119309 -0.10373164 0.04302835 0.2698132 0.020794325 0.32220605
0.22461767 0.16972762 -0.2694687 -0.09012693 -0.3094202 -0.0560351 0.22771691 0.049528446
0.326051 0.09919056 -0.08742442 -0.31647712 0.122924775 0.26673368 0.084748976 0.16743214
0.26063004 -0.26793417 -0.33130956 -0.09049473 0.1493698 -0.24479163 -0.14307556 -0.08539986
-0.031129796 -0.26253042 0.32311663 0.35381553 0.31019667 0.2853086 -0.076521546 0.23220767
-0.003447318 -0.29094067 -0.34107277 -0.079446636 -0.2787059 0.20192422 0.25190654 -0.3294729
0.119091 -0.12852424 -0.35640627 -0.02095186 0.1795709 0.2120424 -0.11465128 -0.14961654
0.28871214 0.3728689 -0.24757254 0.07404528 0.08110102 0.35630026 -0.006920043 -0.039638832
-0.12944742 0.32752338 0.16828385 0.25601235 -0.17717777 0.16774708 -0.15183634 -0.30256906
-0.10243285 -0.011552835 -0.2521882 0.22914916 0.20920984 -0.35965416 0.14338674 0.2520536
-0.3810086 0.004738475 0.11949978 0.19294631 -0.04634015 0.16666001 -0.26642734 0.1005469
-0.30979887 -0.09544141 0.31059462 -0.20125149 0.29998377 0.10009974 -0.193901 0.08529476
0.13708553 -0.2605339 -0.20063931 -0.059274573 0.14973645 0.039756853 0.3069148 -0.20481057

encoder.layers.0.nn.net.0.bias f4 [64]
00000000: 8fad 353d c9b0 50bb 6136 6f3e e491 69be
00000010: 8797 7f3e c5a2 1b3d 11f5 a83d 4aff f43d
00000020: f2b3 583d 13b2 533e e9ce 88be 39d9 62be
00000030: c555 2bbe 70d0 c03d 242d 223e 6c29 53be
00000040: 7850 4c3d 0f02 46be 7a09 78bd 1529 57bd
00000050: d9b3 18be f2b7 d63d e862 2cbe c37c 7abe
00000060: 02b4 163e 30fd 8cbd 24f8 82bd f1bc 11be
00000070: 7671 bdbd 4672 8b3d ad71 7a3e 1d90 823d
00000080: 073a 043e 68ec b1be 1b6c 90be 12ad a6be
00000090: 8c03 b13e 9cda 7e3e a49d 42be 694b 643e
000000a0: fb1a 5e3e e789 5b3e fe56 9b3d fee8 2c3e
000000b0: ee0a 743e 2acc a2be e777 013e 97af 88be
000000c0: c5a9 c5bd 0cf2 ebbd 6760 7a3e 92b9 2abe
000000d0: 131d 9b3e 420c aa3e 0230 ae3e dbcc 4d3e
000000e0: aceb fd3d 5801 5b3e ddf3 f63d 6761 bc3e
000000f0: a5b7 91be 5bbd a93d 7af1 a8be 6e6b 70be
0.04435497 -0.0031843653 0.23360588 -0.22809559 0.24960147 0.037997026 0.08249868 0.11962755
0.052905984 0.20673399 -0.2672036 -0.22153176 -0.16731937 0.09414756 0.15837532 -0.2062127
0.04988143 -0.19336723 -0.060555913 -0.052529413 -0.14912356 0.104843035 -0.16834605 -0.24461655
0.14717105 -0.06884229 -0.06394985 -0.14232232 -0.092501566 0.06808905 0.24457426 0.06375144
0.1291276 -0.34750676 -0.28207478 -0.32553917 0.3457302 0.2488808 -0.19005448 0.22294392
0.2168998 0.21439324 0.07584952 0.16885754 0.23832294 -0.3179639 0.12643395 -0.26696464
-0.096515216 -0.11520776 0.24450837 -0.16672352 0.3029562 0.33212477 0.34021002 0.20097677
0.123984665 0.21387231 0.12058232 0.36793062 -0.28460422 0.0828807 -0.32996732 -0.23478481

encoder.layers.0.nn.net.2.weight f4 [64, 64]
00000000: 3e87 a6bd 0d13 22bd 723d 8bbb f776 5b3c
00000010: 2fac c33d 73aa 8cbc 8648 86bd 2234 943d
00000020: ffc1 d4bc 9ff1 3fbb e27c 90bd 3b1a f63d
00000030: 0b3a 843d 0405 923b d337 e3bd 6496 0b3d
00000040: 58c8 d93d 1374 f73d b706 f1bc 982f 673d
00000050: 145a eebd cbd6 b33c c897 b13d 94d3 893d
00000060: 08f5 e43d 9d82 8d3d 2373 e13c 8e70 b83d
00000070: 3b95 db3c df47 8abd 6308 c73d ffff 84bd
00000080: 2e61 d3bd ca44 6cbd 20a1 f0bb a5f0 5abb
00000090: 46c4 a3bd 79eb 63bb 74b0 bf3c f7f8 efbd
000000a0: e106 a83d 9a64 623d 7721 b63c c64a 413c
000000b0: 473e f2bd bf60 b3bb d9e9 72bb 9aaf a4bd
000000c0: ebe6 903d 8f31 a6bc a4a5 993c d8e6 e1bd
000000d0: b767 0a3d 633c 903d f074 34bd 9d9d bd3d
000000e0: f818 babc e2ef 583c 66fe f63d 3113 953c
000000f0: 44ac 9cbd 1463 053d 126c d23d 6916 e0bb
00000100: 93c3 f6bd 58fe 1bbd 5f61 403d 2637 933d
00000110: 1697 5b3c 379f a73d 600b bcbc e16e 20bd
00000120: 7090 54bd 60a7 2a3d a41b fb3c ca75 e6bc
00000130: 5353 bbbd 984a 84bd 6a2d 4fbd 245d cfbd
00000140: ff96 d83d 5d7c e03d 074d fabd af78 243d
00000150: 8e53 f33d a151 f93b fe37 83bd 9d2d c03d
00000160: 5aaf dc3b 9b91 a4bd 76c2 573c aa11 c13d
00000170: d7a4 1ebd 3d73 ebbd f526 ebbd b692 d33d
00000180: fe76 64bd 9046 c63c f4c4 343d 918c 3d3d
00000190: 88be 043d 3590 c03d cecb 3abc 21d0 f2bd
000001a0: 4d8d 8abd 178f b83d 22e9 743d 0dbe f7bc
000001b0: 0d29 403d 9f91 003e 13ec 973d a527 c7bd
000001c0: b4e6 15bc 96f2 a03d 7833 83bd d211 afbc
000001d0: 38cd 8ebd f77a adbd 6e6b c23d 9d63 7dbd
000001e0: 1d11 993d 8291 88bd e05c df3d 4308 f23d
000001f0: d041 4f3d 0655 ddbd 8411 6cbd 48a6 7bbd
00000200: c36f b13d 5367 d2bd 57e1 6a3d 1743 403d
00000210: 5413 b4bd 34b9 5cbd 1238 bd3d 1671 f3bd
00000220: 7a8f 16bd c93e 2fbb 2337 0d3d 2710 973d
00000230: 1824 c83d afd9 fabc 839c 25bd 7495 863d
00000240: 3079 00be 71fa 833d 9277 46bd d005 b8bc
00000250: 3ae3 e83d 3e12 c7bd 7bed 603d 7c43 c6bd
00000260: 8ef8 a1bc 6d46 b9b9 e565 bdbc 5fb0 e43d
00000270: cb9f b3bd 7240 883c 2755 8abc c233 f9bd
00000280: 5ff0 b53d ad7d 993d 8815 d8bd 00db cabd
00000290: ee29 e4bd 2eaa fabd f5f3 c8bd fd20 29bc
000002a0: 30d6 54bd 6373 44bd 03ad b0bd 3ffa 983d
000002b0: d559 b23d ad10 4d3d 90a2 813d 945e cdbd
000002c0: f958 853b 01de c33d 08c2 d0bd 0ca9 8f3d
000002d0: 6526 debd d375 533d daee e8bd ce75 4c3c
000002e0: faad 63bc 959f 353c a161 2bbd 30f2 bb3c
000002f0: 2cf0 fcbd bf0e b0bd b8ba e3bd ba37 643d
00000300: d722 863d 74b4 91bd 20b3 36bc 0f70 adbc
00000310: a620 993d f4a4 d1bd 4448 143d c6df f9bd
00000320: e44a 15bc 44a5 54bd ec41 a93c ec9d 93bd
00000330: eaee 78bd 1abb 62bd 63b0 c23d f697 cfbd
00000340: 2626 933d 2271 7f3d 02c5 bbbd 7040 8abd
00000350: f428 813d 9e96 b6bd 6134 a3bd 186c 1a3c
00000360: 38c7 953d 7ade b6bd a088 02bd 0880 abbd
00000370: 0e78 c73d 24d0 a5bc 55f1 de3d 16f6 6b3d
00000380: 1f77 43bd 04cd edbc 18a1 e9bc 677c e4bc
00000390: 71df a3bd b57f 023b ee9c f0bd d684 6cbd
000003a0: 2a4d c53d 95e6 b0bd 8f87 b33d b5cb b0bd
000003b0: 4efa 2fbc e2f2 02bd e2a8 42bd 8f47 babd
000003c0: 63d4 f9bd 519a afbc 828e 003e ddd1 513d
000003d0: 97bb 90bd 54a7 abbc 1ea1 c6bb 21b5 8abd
000003e0: d4e3 fb3d 5fbf 9fbd af01 8a3d 298a acbc
000003f0: 506a c9bc 2bd4 abbd 205a 36bd 4fb2 9dbd
-0.08131264 -0.03956895 -0.004249268 0.013395063 0.09554326 -0.01717112 -0.065568015 0.07236506
-0.02597141 -0.0029288305 -0.070550695 0.12016722 0.06456383 0.0044561643 -0.11094632 0.03407897
0.10633916 0.12082686 -0.029422147 0.056441873 -0.11638275 0.021953007 0.08671528 0.067298084
0.111795485 0.06909678 0.027520722 0.09005843 0.026804557 -0.067519896 0.097183965 -0.0649414
-0.1032127 -0.05768279 -0.0073434263 -0.0033407595 -0.079964206 -0.0034777804 0.02339957 -0.11717408
0.08204437 0.055271722 0.022232754 0.0117976125 -0.11828285 -0.0054741795 -0.0037065654 -0.08041306
0.07075294 -0.020287303 0.018755741 -0.11030358 0.033790316 0.07042768 -0.044056833 0.09258578
-0.022716984 0.013240786 0.120602414 0.018197628 -0.076500446 0.03256519 0.10274519 -0.006838609
-0.120490216 -0.038084358 0.04696786 0.07188253 0.013402721 0.08184665 -0.022954643 -0.039168242
-0.05189556 0.041663527 0.030652829 -0.028132338 -0.09146752 -0.0645954 -0.05058042 -0.10125187
0.10575675 0.109612204 -0.12221723 0.040154155 0.11881171 0.007608608 -0.06407164 0.093837
0.0067347707 -0.080355845 0.013168922 0.09427197 -0.038731422 -0.11496589 -0.1148204 0.10330717
-0.055777542 0.024203569 0.04413314 0.046276633 0.032408267 0.09402505 -0.01140113 -0.11856104
-0.06765232 0.09011667 0.059792645 -0.03024199 0.04691415 0.1255555 0.074180745 -0.097243585
-0.009149242 0.078587696 -0.06406301 -0.021370802 -0.06972736 -0.08470719 0.09493147 -0.061862577
0.07473967 -0.066683784 0.109063864 0.11817982 0.050599873 -0.108072326 -0.05763389 -0.061437875
0.08663895 -0.10273614 0.057343807 0.04693898 -0.08792749 -0.05388756 0.0923921 -0.11886804
-0.036757924 -0.0026740304 0.03447641 0.07376128 0.09772509 -0.030621378 -0.040432464 0.06571475
-0.1254623 0.06444252 -0.048453875 -0.02246371 0.11371465 -0.09720276 0.05491398 -0.096808404
-0.01977184 -0.0003533842 -0.023119876 0.111664526 -0.087707125 0.016632292 -0.016886307 -0.12168075
0.08883738 0.07494674 -0.10550982 -0.09905052 -0.1114081 -0.122394904 -0.09812156 -0.010322806
-0.051962078 -0.047961604 -0.08626749 0.07469606 0.0870854 0.05006473 0.063298345 -0.10027805
0.0040694443 0.09563828 -0.101932585 0.07014665 -0.10847167 0.051626038 -0.11373682 0.012479259
-0.01389646 0.011085411 -0.041841153 0.022942632 -0.12350497 -0.085965626 -0.11119598 0.055717207
0.06549614 -0.07114497 -0.011151105 -0.021171598 0.0747693 -0.102365404 0.03620173 -0.122008845
-0.009112094 -0.051915422 0.020661317 -0.072078556 -0.06077472 -0.055354215 0.09506299 -0.10136406
0.071850106 0.06236375 -0.09168436 -0.06750572 0.06306639 -0.08915447 -0.07968975 0.009425186
0.073133886 -0.08929153 -0.031868577 -0.083740294 0.097396955 -0.02024085 0.10885874 0.057607733
-0.047721025 -0.029028423 -0.028519198 -0.02789135 -0.080016024 0.0019912545 -0.11748682 -0.05774387
0.096338585 -0.0863773 0.0876609 -0.08632604 -0.01074083 -0.031969912 -0.04752434 -0.0909568
-0.12198713 -0.021435888 0.12554362 0.05122553 -0.0706703 -0.020953812 -0.006061687 -0.06772829
0.12299314 -0.07800173 0.06738602 -0.021061974 -0.024586827 -0.08390077 -0.044519544 -0.07700025

encoder.layers.0.nn.net.2.bias f4 [64]
00000000: 781d 843c 4994 e03c c14f 8f3d 4f9c c23d
00000010: f696 66bd 32ac f03d cd97 96bd 52fa bc3c
00000020: 8e28 a33d edd4 8d3d 3a33 d53d 785c 263d
00000030: dbd4 afbd 1a5a 573c 69ed ef3c a8de ca3d
00000040: 72c9 f8bd 87b1 863d b753 02be 93cd ed3d
00000050: 27ea cd3c 3e4b bb3d c51b 253d 014e bdbd
00000060: b5f8 503d 6b0c 783c 77f4 37bc 7b07 3fbc
00000070: a1e3 a2bd 9acb d6bd b574 eb3d c19e 703d
00000080: ab52 4e3c e1a3 8e3d 3b82 ec3c bd77 ae3d
00000090: 235c 8f3b 7e4a cfbd ab93 e83d 4927 f7bd
000000a0: 92bc 2abc cf4f cbbc 20f2 103d b6ed b73d
000000b0: 1d11 24bd 9e0b 9fbc f7a9 e93d 7d32 353d
000000c0: bdf9 50bc f60b c6bd 37d9 d33c 630e aa3d
000000d0: 94bf 6bba f8a9 3bbc ec5f e6bd 9fd2 f93d
000000e0: 8b4d c6bd 91e3 44bb b084 dcbd a6c0 833d
000000f0: 6033 29bd 9e5a 6f3d e1af fa3c a2e9 0dbd
0.016127333 0.027414458 0.06997634 0.0950247 -0.05629631 0.11751594 -0.073531725 0.02306858
0.079667196 0.06925378 0.10410161 0.04061553 -0.08585521 0.0131440405 0.02928801 0.099057496
-0.12147798 0.065768294 -0.12727247 0.11611476 0.025136067 0.09145211 0.040309686 -0.09243394
0.051018436 0.015139679 -0.011227719 -0.011659498 -0.07953573 -0.10488053 0.114968695 0.05874515
0.012592952 0.06964851 0.028870692 0.08518932 0.004374997 -0.1012163 0.113562904 -0.1206804
-0.010420935 -0.02481833 0.03538716 0.08980887 -0.040055383 -0.01941472 0.11409371 0.044237603
-0.012754855 -0.0967025 0.025860412 0.08303525 -0.0008993086 -0.011454098 -0.112487644 0.12198376
-0.09682759 -0.0030042867 -0.10767496 0.06433229 -0.04130876 0.05843603 0.030601444 -0.034646638

encoder.layers.1.nn.net.0.weight f4 [64, 64]
00000000: 9719 cfbd afcd 7dba ae38 753d 1f2c b33d
00000010: a8ba 843d 8207 d83d 4a61 c03d dc2c 863d
00000020: 5af3 9f3d b1f8 b93c 1f1d de3d 62bc 9cbd
00000030: 5ffb 80bd edfa 323c ed57 2cbd d485 453d
00000040: b81d ddbd 002b ca3c b31f c6bd 8b16 003e
00000050: be05 d8bd 73d4 963d c6dc d6bd 0b9b 803d
00000060: b3ef 67bd d327 f73c 11df b13d eb7d dfbd
00000070: 989c 3cbd 9a34 d3bd 81e4 d03c 5c70 073e
00000080: a6f7 3c3d 8add 08bb cbdc ddbc 679a f43d
00000090: beb0 cbbd d2ee cd3d 4450 243c 24b5 073e
000000a0: dff6 113d 3b23 2e3c 9552 dcbd a0e9 c7bd
000000b0: 55d1 f53d 9277 ab3d c4dc 9bbd e26e 7e3d
000000c0: 1eb3 92bd 75a0 803d dca4 bf3d 1dc3 893d
000000d0: 5d3b 35bd bf5b ad3d 0551 03be fdac ffbc
000000e0: 9373 e3bd 5035 93bd 85ea 45bd bb16 b73d
000000f0: 0217 8bbd 595b 5abd fada bcbc 8c9d 02be
00000100: 45b9 8bbd 2aee 733d ded6 9f3b b2de cc3d
00000110: 8446 d5bd bf1f afbd 4be2 dbbd 0d18 fe3d
00000120: cac9 1c3d d34e d0bd 837c 893d e083 76bc
00000130: f160 df3c 6e59 9fbd 6b91 f1bd 3ea8 2fbc
00000140: 374c 943c 38ea f23d 1066 9d3d 5245 0cbb
00000150: 1c5c 8abc 469a 28bd 5862 023c 6968 82bd
00000160: da88 f43d 5102 473c 5d8f 133d 13ea 783d
00000170: 8b9c 87bd 24b9 67bb 0c17 db3c f8cd d83d
00000180: d625 6dbd efca d53d d899 573b 220e c43d
00000190: 2830 f93c bfbc 91bd 569f 7a3d f013 b63d
000001a0: 69eb c23d a23b 8d3b 97b5 9c3d facd a0bd
000001b0: bfc6 cc3d e3e1 8f3b 5d78 edbc 16de 10ba
000001c0: fb02 013c 859b 0f3c 913d b53d e7d1 90bd
000001d0: 8e0f d1bd 9bba 0abd 62c7 44bb 927b e4bd
000001e0: 82f4 8f3c 0085 6ebd 854e 56bd 702e e3bd
000001f0: 30dc d13d ddbc f6bc 17cd f83a ec8f f33c
00000200: baf4 b3bc e1da 87bc e1e7 aabd 3ef3 80bc
00000210: e93e ed3d c6cf 133c a08b d93d 1bf8 973d
00000220: 8ae6 8e3c 50f6 27bd 095a f2bd 481d d2bd
00000230: 81f6 bf3d 59d5 913d 95f9 f33d 0b6e 82bd
00000240: d713 f3bc d243 f6bd da12 383d b69c b53d
00000250: 63c3 09bd d4aa 613b 0ed8 a33d 1621 c53c
00000260: 74e9 443d 4769 9fbd 400b c0bd 8708 8f3d
00000270: 6c15 bc3d 266f d1bc 2836 aa3d d373 9e3c
00000280: beda f13c 21d4 2e3d 6f95 9bbc 9216 dc3d
00000290: e6b0 cdbd c8f4 ccbd e1e2 83bc 09f1 0f3d
000002a0: 0bb0 913d 4f30 d43d c34f 9b3d d9aa 06bd
000002b0: 1484 f7bd a87d d23d 915d e9bd 1623 d6bd
000002c0: 229d cc3d 3921 d03d 6f5c 843d 013b 0dbd
000002d0: a25e 3e3c 6193 f6bd c8d1 68bd 9fff 253a
000002e0: 6db6 a13d 28a8 d0bd 6b33 dc3d 9c53 6c3d
000002f0: 6d9b d53d 9e38 a3bd 45df 9c3c 9c52 a4bc
00000300: 4969 0f3b b21c ad3d 0979 cf3d d84e 9b3d
00000310: b494 3bbd 2cd5 903d 6e4e 85bd d1ad c4bd
00000320: f56c 663c 1364 9abd f341 9fbd c23c a2bd
00000330: 49a4 4f3d ce71 ce3c e5e6 25bd c8a1 dabd
00000340: f109 503d a7a1 b0bc 2a1f 98bd 0b6a e83d
00000350: bc17 5bbd 4cbc 70bd 30f2 48bd df06 debd
00000360: a7bf 863d c401 ef3d 4344 94bd fe59 2c3d
00000370: aa6f e03d 5155 d93d 898a 71bd e94e 29bc
00000380: ac30 fa3d 4ac8 3f3c 1682 bf3d 38e8 993d
00000390: 97ee cfbc 5d67 1ebd 6326 f5bd fa7f 33bc
000003a0: 7ced d43d 8a65 8a3a 2710 8bbd dbe5 f83d
000003b0: 0a97 473d 41bb 463d 6595 203d e71c 4d3d
000003c0: 53a7 64bd fcf5 9fbd 7002 b4bd 0a47 c0bd
000003d0: ef92 e53d 7c4e fbbc 873f f73c 3df8 7bbd
000003e0: a150 3a3d c251 d4bd a3b7 243c 75fd cabd
000003f0: cc94 fabc b234 2a3c da7b d8bd 9ced e23d
-0.10112303 -0.00096818333 0.059868507 0.0874865 0.06480914 0.10548307 0.093935564 0.06551525
0.078100875 0.022701593 0.10845398 -0.07653119 -0.06297945 0.010924083 -0.04207604 0.04822333
-0.10796684 0.024678707 -0.09674015 0.125086 -0.1054797 0.0736474 -0.10491328 0.06279572
-0.05662508 0.030170357 0.08685125 -0.10912689 -0.046047777 -0.10312767 0.025499584 0.13226455
0.046134613 -0.0020884 -0.027082821 0.119435124 -0.0994582 0.10055317 0.010028902 0.13252693
0.035635825 0.010628517 -0.10757939 -0.09761357 0.120028175 0.083724156 -0.07610467 0.062117465
-0.0716307 0.06280605 0.09357616 0.06726668 -0.044246066 0.08464765 -0.12823875 -0.031210417
-0.111060284 -0.07187903 -0.04831936 0.08939882 -0.06791498 -0.053309772 -0.023053635 -0.12755412
-0.06822447 0.059553303 0.004877909 0.10003413 -0.104138404 -0.08550977 -0.10736521 0.12406931
0.03827838 -0.101712845 0.06713202 -0.01504609 0.027267905 -0.07780729 -0.117953144 -0.010721264
0.018102748 0.1186108 0.076854825 -0.0021403623 -0.016889624 -0.04116275 0.007958017 -0.06367571
0.11940165 0.012146548 0.036025394 0.060770106 -0.06621655 -0.0035358155 0.026744388 0.105861604
-0.05789741 0.10439097 0.0032898095 0.09573008 0.03041847 -0.071160786 0.06118711 0.088905215
0.09517557 0.0043100873 0.07651823 -0.07851787 0.09998845 0.0043909415 -0.028988058 -0.00055262574
0.007874246 0.008765106 0.088496335 -0.07071286 -0.10208045 -0.033869367 -0.0030026068 -0.11156382
0.017572645 -0.058232307 -0.052320976 -0.110928416 0.102470756 -0.030119354 0.001898202 0.029731713
-0.02196728 -0.016583862 -0.08345009 -0.015740987 0.11584265 0.009021705 0.106223345 0.07420369
0.017443914 -0.041006386 -0.11833579 -0.10259491 0.09373189 0.07120771 0.11912838 -0.06368645
-0.029672546 -0.120246544 0.044939853 0.08867781 -0.0336336 0.0034434097 0.080001935 0.024063628
0.0480742 -0.07783752 -0.09377146 0.06984048 0.091837734 -0.025565695 0.08311111 0.019342339
0.02952325 0.04268277 -0.018992154 0.107464924 -0.10043506 -0.10007626 -0.016099395 0.03514198
0.07113656 0.10360777 0.07583573 -0.032877777 -0.12085739 0.10277873 -0.113947995 -0.10455911
0.09990908 0.10162587 0.06462943 -0.0344801 0.011619242 -0.12039829 -0.056840688 0.0006332341
0.07896123 -0.10188323 0.10751995 0.057696924 0.10430036 -0.07969783 0.019149432 -0.020058922
0.0021882823 0.08452739 0.101305075 0.075833976 -0.04579611 0.07071909 -0.065091 -0.09603465
0.014064063 -0.07538619 -0.07776251 -0.07921745 0.050693784 0.02520075 -0.0405034 -0.106753886
0.05079073 -0.021561457 -0.07427819 0.11348351 -0.05348943 -0.058773324 -0.049059093 -0.10841154
0.065795235 0.11670259 -0.072395824 0.04207801 0.10958798 0.10611976 -0.058970008 -0.010333755
0.12216315 0.0117054675 0.09350984 0.07514995 -0.025382323 -0.038672794 -0.11970212 -0.010955805
0.10396859 0.0010558825 -0.0679019 0.121532165 0.048728026 0.048518423 0.039204974 0.05007639
-0.055823635 -0.0781059 -0.087895274 -0.093885496 0.11209666 -0.030677073 0.03018166 -0.061516035
0.04548705 -0.103671566 0.010053548 -0.09911624 -0.03058853 0.01038854 -0.10570498 0.11080477

encoder.layers.1.nn.net.0.bias f4 [64]
00000000: dcf6 82bd 48e9 13b9 c741 2abc 322d 5bbd
00000010: bddf c0bd 321d 7abd 441c 1c3d 4735 a6bd
00000020: 5619 383d 1ad8 d0bb 75fd cbbd 55b6 e8bd
00000030: a2a0 9c3d 9f21 86bd 4785 6d3d 3767 d7bd
00000040: 839b d33d 1690 9d3d a4de 11bd 9de6 a63d
00000050: 2a29 9cbd 4cec f83b c894 e23b 36c4 aa3d
00000060: 42a0 253d 0873 14bd 0a08 d3bd 6e69 3ebd
00000070: 9358 323d d74c aa3d c1ea d03c f8b4 5abc
00000080: c994 cbbd 8fdf 8e3d 0405 0bbd 7fc5 f0bd
00000090: fb49 a53c 5aa2 a3bd d500 d7bb 805a 8d3d
000000a0: d4ca bb3d c8d3 febd f85d a3bd 7b74 5bbd
000000b0: 74d4 3b3d 4c7a b0bc 3811 eb3d 74cb b3bd
000000c0: eddb f23c d16e 85bd 259d 00be 255e dd3a
000000d0: 3731 4d3b 327a b0bd e1dc d23d 3159 dc3d
000000e0: 5529 10bc fcc1 2a3d 8e27 8a3d 85a5 06bd
000000f0: cf64 c2bd 81ef 17bd 52f4 433d 7937 dbbd
-0.06394741 -0.00014105916 -0.010391659 -0.0535099 -0.09417675 -0.061063 0.038112894 -0.081156306
0.044946037 -0.0063734176 -0.099604525 -0.11362902 0.07647826 -0.065493815 0.05798843 -0.105177335
0.10332396 0.07693498 -0.035612717 0.08149455 -0.07625039 0.007596528 0.0069147088 0.083382055
0.040436037 -0.036242515 -0.10304268 -0.046487264 0.043541502 0.08315437 0.025502564 -0.01334881
-0.09940488 0.06976234 -0.03394033 -0.117564194 0.020176878 -0.079899505 -0.0065613785 0.06902027
0.09169546 -0.12442738 -0.079769075 -0.05357788 0.045856908 -0.02154269 0.114778936 -0.0877904
0.029645884 -0.06515277 -0.12559946 0.0016889019 0.0031309852 -0.08617057 0.102960356 0.107591994
-0.008798917 0.041688904 0.06745826 -0.032872695 -0.09491884 -0.037093643 0.047840424 -0.1070394

encoder.layers.1.nn.net.2.weight f4 [64, 64]
00000000: 874b 253d 33d3 d83d 9096 d3bd 57ca 473d
00000010: 4309 363d ba60 6dbd 5694 acbd 2add 88bc
00000020: 7c77 e43d 543c 633b eec5 e0b9 a763 b2bd
00000030: 17b7 c73d 6f5e 9e3c ac63 cb3d d452 ffbc
00000040: a2ab f8bd b311 2dbd 2472 f73d c54c 00be
00000050: 8597 523d 55c3 a33c 2059 05bb d556 e23d
00000060: b1fd b8bd b487 aabd 2c30 2bbd c2cc b2bc
00000070: 42c9 96bd 2538 d8bd 55ed b1bd 5b16 92bd
00000080: 5edb 4cbd 4966 e8bb eb37 f9bd 896d 03be
00000090: 96d4 debd ae36 07bd 50de 903c 8423 d6bd
000000a0: 12eb afbd 0bd4 c2bd e0d4 9dbd 0497 1fbd
000000b0: f1ff 963c e3bd 70bd aeb5 42bd 0dc7 82bd
000000c0: ad0f f2bd ddfa 473d c856 f63d b88e 47bc
000000d0: 9dd9 dc3b 5958 a53d 1016 433d a340 8fbd
000000e0: 51c7 ae3d 7f30 96bc 6821 533c c19f a43d
000000f0: 6cd5 0ebd 3d14 b5bd 846a 5ebd b6a8 7d3d
00000100: 31b4 aabd 142c 6cbd 73dd d63d 6ac8 d7bd
00000110: 145b b5bd f7ff f4bd 155e 25bd 1de2 50bd
00000120: 0348 6dbc 0f1d 903d 6797 7e3d db46 1fbd
00000130: ef8d d0bd f3ca 03ba b0f7 79bd ad02 403d
00000140: be2f 853d 0f6a f63b 9dbf dc3d beaa a13b
00000150: 5d06 d9bd ce41 873d dc20 f1bd f137 fdbd
00000160: fb06 bdbc b118 a83d f032 dcbd d9a3 c7bd
00000170: fa0f b1bb 1423 5ebc 2243 f0bb d406 933d
00000180: e5ab 1f3d 86f7 d3bd 3df0 a7bd a5ec 40bb
00000190: 2a10 533d 3bef 4e3d d206 b33c fee3 fdbc
000001a0: 178f c13d 6d3d ffbc 3058 393c d8a4 e83d
000001b0: b478 a23d 04d7 82bd 5eda c93d 4029 363d
000001c0: 0462 89bd 015f b8bd 81cd 1ebc 95c1 b83d
000001d0: b121 c8bc 877e c93d 1c9a 03bd 3e0e e53d
000001e0: 3e6b d7bc 5b7c d7bd a489 d9bd ea93 6fbd
000001f0: cc00 ba3d 27df c8bd 8317 a73b 3f43 d5bd
00000200: d2df dabd f5fc e9bd 74a8 e8bd 59d3 e13c
00000210: 0041 4c3d 5a31 90bd 5e3f 413d ef99 d1bd
00000220: 9e1b e13d 1da6 3d3d a427 4b3d 3458 84bd
00000230: 6fe1 d7bc a4cb 87bc 2887 873c a18e 07bd
00000240: c067 4f3d 0df9 9fbd 9872 ca3c e1ca 7d3c
00000250: 9ca8 1b3d a1e7 063d 2484 c2bb 2fae ecbd
00000260: 93c2 bebd f3e1 4fbb 6e72 a83d e30c a73d
00000270: e206 ddbd c47a f33d 2dea 5abc 8c3c ef3d
00000280: 84cb 3abc 8b2f d33d 83a8 fbbc fea6 e9bd
00000290: c897 e43d 2d44 be3d 9821 99bd 7a2e f1bd
000002a0: 0cde 0b3d 9906 983d d479 973d 231d 8e3d
000002b0: d233 573c 06ce debc 36c2 c7bd a216 983d
000002c0: 27d0 96bc fc52 f03d 2ceb 02bd cdde d73d
000002d0: ec4d 21bc 1514 9cbd 954c 5cbc 1552 2abd
000002e0: c8ae 82bd 73e4 b2bd 2b13 b1bc 7fd1 e03c
000002f0: b3a7 aebd 4d92 a53c fb59 dfbd 670f 95bc
00000300: 1797 423b 1fef 8bbc 7893 c83d 5f61 6cbd
00000310: 219a 633d 15a0 02bd a356 623d 1f74 fabb
00000320: 8c44 653d ebeb d83d bee1 053d b9d1 af3c
00000330: 1899 c7bd 6c59 56bd 4b91 04be bd44 d2bd
00000340: a99f 9b3d 221a 173d 122b 7d3d 8545 a7bd
00000350: 9900 f4bd 39db a53d 15b8 333d 3b93 40bd
00000360: 0719 0f3c 20b6 883d f656 8abd 561e acbd
00000370: 00ed 23bb 9835 a53d e060 b3bd 84fe 003c
00000380: fb8c 49bb ec45 febc 6385 ebbd 89d2 57bd
00000390: 3c95 973c b384 8c3d 22ff 8c3d bdc3 8ebc
000003a0: 75d5 c6bd a310 cc3d 564e fabd 6c5b bdbb
000003b0: 18b2 aebd 33be 9dbd fb73 883d 66dc 593b
000003c0: 297f 2e3d 3308 aebd 4950 0d3b c0a5 95bb
000003d0: 6483 123d f9b4 023d 44c0 3b3d fdea bd3d
000003e0: 1dda dfbc ed31 0cbd 4c60 7d3d eefd c6ba
000003f0: 9289 18bd 36c6 4b3d d291 f3bd 9d94 bdbd
0.04035523 0.10587158 -0.10331452 0.04877695 0.044442426 -0.057953574 -0.0842673 -0.016707022
0.11155602 0.003467341 -0.00042872078 -0.087104134 0.097517185 0.019332139 0.0993112 -0.031167425
-0.12142111 -0.042253207 0.120823175 -0.12529285 0.05141403 0.019990603 -0.0020347312 0.11051718
-0.09032763 -0.083266646 -0.041793987 -0.021826152 -0.07362606 -0.10557584 -0.086878456 -0.0713317
-0.050013892 -0.0070922715 -0.12168869 -0.12834753 -0.10880391 -0.03301113 0.017684132 -0.10455993
-0.08589758 -0.095131 -0.07706618 -0.03896238 0.01843259 -0.05877484 -0.047536545 -0.06385622
-0.11819396 0.048823226 0.12028271 -0.012180023 0.0067398087 0.080734916 0.047628462 -0.0699475
0.0853411 -0.018333672 0.012886383 0.08038283 -0.034871504 -0.08841751 -0.0543008 0.061928473
-0.0833515 -0.057659224 0.10491457 -0.10536273 -0.088552624 -0.11962884 -0.040372927 -0.05099689
-0.014482501 0.070367925 0.062156107 -0.038885932 -0.10183322 -0.0005027495 -0.06102723 0.04687755
0.06503247 0.0075199674 0.10778735 0.004933684 -0.10596917 0.06604348 -0.117738456 -0.123641856
-0.023074618 0.082078345 -0.10751903 -0.09748048 -0.005403516 -0.013558168 -0.0073322216 0.07179037
0.03898229 -0.10349946 -0.08200119 -0.0029437926 0.051529087 0.050521117 0.021853838 -0.030992504
0.0945112 -0.03115722 0.011312529 0.113595665 0.079331785 -0.06388667 0.09856103 0.044472933
-0.06708148 -0.090024956 -0.009692551 0.09021298 -0.024430128 0.09838586 -0.032129392 0.11184357
-0.026296254 -0.10521766 -0.10621956 -0.05849067 0.09082183 -0.09808188 0.0050992384 -0.10413217
-0.106872216 -0.11425201 -0.11360255 0.027566599 0.049866676 -0.07040663 0.047179572 -0.10234439
0.10991596 0.046300996 0.04959835 -0.06462136 -0.026352612 -0.016576596 0.01654394 -0.033095006
0.050636053 -0.078111745 0.024712846 0.015490265 0.038002595 0.032935742 -0.0059361625 -0.115566604
-0.09314456 -0.003172037 0.08224951 0.08156755 -0.107923284 0.1188865 -0.013361496 0.1168147
-0.011401061 0.103118025 -0.030720001 -0.11408804 0.111617625 0.09290347 -0.074771106 -0.11776443
0.034147307 0.074231334 0.07396284 0.06939151 0.0131349135 -0.027197849 -0.0975384 0.07426192
-0.018409802 0.11734578 -0.03196256 0.10540543 -0.009845238 -0.07621018 -0.013445993 -0.041582186
-0.06380993 -0.087349795 -0.021615585 0.027443646 -0.0852808 0.020211363 -0.10905834 -0.018195821
0.0029692107 -0.017081795 0.097937524 -0.057710048 0.05556691 -0.031890947 0.055258404 -0.0076432372
0.055973575 0.10591873 0.032685988 0.021462308 -0.09745997 -0.052331373 -0.1294605 -0.10267017
0.07598812 0.036890157 0.061808653 -0.08167557 -0.119141765 0.08098454 0.043876726 -0.04701541
0.008733994 0.066753626 -0.06754868 -0.084042236 -0.002501309 0.08066863 -0.08758712 0.007873181
-0.0030754197 -0.0310392 -0.11500051 -0.052691016 0.018503778 0.06861248 0.068846 -0.01742732
-0.097086824 0.09964111 -0.12221973 -0.0057787206 -0.085300624 -0.07702293 0.066627465 0.003324294
0.042601738 -0.084976576 0.0021562746 -0.004566878 0.035769835 0.03191087 0.045837656 0.09273336
-0.027325684 -0.0342273 0.061859414 -0.0015181878 -0.037240572 0.049749576 -0.118930474 -0.09256861

encoder.layers.1.nn.net.2.bias f4 [64]
00000000: 21c8 aabd b907 f4bd d6e8 efbd fa35 433d
00000010: fabc d43d f611 c4bd 418e b1bc cd46 983d
00000020: c0d9 eb3c 469a 963b 03cc e0bd b40c be3c
00000030: 72ae 97bc 5dd3 d0bd 5c23 9dbd 6602 7dbd
00000040: d375 ac3d 4dea 67bc 4ed9 f73d e938 9e3d
00000050: bc5a 503d fdc9 dc3d 0f30 423c cf6d 8b3d
00000060: 96b4 6bbc 54f3 eabc 0410 853d 1295 8e3c
00000070: 22c9 76bd cc51 a93c 0757 123d d3b2 413d
00000080: 2a73 f93d 0210 d93d 8b60 edbd 1f69 e2bd
00000090: 0dc8 c8bd 1ef7 983d 76dd d3bc 902a d33b
000000a0: de72 fd3d 2870 ba3d 16c7 893d 6fad 2dbd
000000b0: a384 e93d 5042 763c 34c0 3bbd b08d 833d
000000c0: d002 b53d 5862 96bd 9a78 a0bd 346a ee3d
000000d0: 9d88 e4bd bffb 653d 3eed 9e3d d73f 0a3d
000000e0: afb0 633d 5969 85bd 5607 0bbd 7942 a6bc
000000f0: be85 93bd f677 2abc e8dd f43d eff7 843d
-0.08338953 -0.119155355 -0.11714332 0.047658898 0.10387607 -0.09573738 -0.021674277 0.07435379
0.028790355 0.0045960275 -0.10976412 0.023199417 -0.0185158 -0.10196564 -0.0767276 -0.061769865
0.08420911 -0.014154983 0.121019945 0.077256985 0.05086778 0.10780714 0.011852278 0.06808054
-0.014386317 -0.028680481 0.06497195 0.017405067 -0.06025041 0.020668887 0.035727527 0.04728968
0.12180169 0.105987564 -0.1159068 -0.110552065 -0.09803782 0.07469009 -0.025862437 0.006444283
0.12375425 0.09103423 0.06727426 -0.042401727 0.114022516 0.015030459 -0.045837596 0.06423509
0.08838427 -0.07342976 -0.07835503 0.116413504 -0.111588694 0.056148287 0.07760094 0.03375229
0.05558842 -0.06514234 -0.033942543 -0.020295369 -0.07203244 -0.0104045775 0.11956388 0.06492602

encoder.layers.2.nn.net.0.weight f4 [64, 64]
00000000: 4976 9abd d478 bcbd 1374 8a3d 006b 00bd
00000010: 852f a43d 6610 df3d db34 8ebd 9ccf c73d
00000020: 8bdb cd3b fb89 e83d 84ba ddbc b8e1 9b3d
00000030: f9da 013e b67c a03c 930e ddbd 310c 77bd
00000040: f80c 9e3d e00d e23d b536 9f3c cfd9 f63c
00000050: 48f0 25bd 9807 26bd 6f11 1dbd 55ac 44bd
00000060: eb62 693d b326 a83c eaba de3d d4c0 cbbd
00000070: ba3a 533d 8b48 0ebd a0eb b2bd c4ce 99bc
00000080: bd98 9fbc 3298 d1bd 209e 87bc 28e6 8cbd
00000090: 9ed3 aa3a 2b41 02be a9a2 573d c392 1abc
000000a0: a9e7 cb3c 9b75 0c3d 4382 a73d b5b0 d0bd
000000b0: c373 e53d 3d5f dd3b 89aa c1bd 8940 bebc
000000c0: cdd5 d73c 50b0 60bd 84fe 683d 28dc 993d
000000d0: baf7 d1bd 6b46 ffbc 3855 263c b0e2 803d
000000e0: ce6a ea3d 31e8 a4bd 2720 43bc ec78 c7bd
000000f0: cb9c 40bc 5d79 92bb 2725 7d3d a0fc 583c
00000100: e2b8 b1bd 7154 5fbd 875b 2fbd 3cac 763d
00000110: 64ad 893d 5ce1 5fbd 912b d53d 672e bf3d
00000120: 4843 2e3d be62 893b bd71 ea3d f420 353d
00000130: 100e 0e3d d04a 803d 71a5 8e3d 0e98 333d
00000140: ee4b 5bbd 7712 963b 1851 85bd 3751 90bd
00000150: df89 903d 1fed f73d d80e e7bc e229 60bc
00000160: bf3a d7bd 80b2 063d 7e1b e4bb 5e88 eb3c
00000170: b3ff 2f3d c742 203c 4273 823d edaf 51bd
00000180: f4bc 03be 653d e3bd 4626 c63c be25 673d
00000190: b30f b93d 4491 f53c 3fb6 333d 2c61 eabd
000001a0: 11c3 cd3d a739 16bb 40b3 3e3d ec8e a93d
000001b0: 02e4 5c3d 5ef5 4a3d 6b87 a5bc fcb8 a13d
000001c0: 9639 063d 214b ff3d 26a4 9ebb 41e3 7e39
000001d0: 3bf0 21bd bfb5 d6bd 0b38 003e a980 4f3d
000001e0: be25 9fba a3b4 ec3d fd1f 47bd 00a1 93bc
000001f0: 9920 e63d 9610 b73c 78f2 3fbd 59fb 453d
00000200: 4535 c13c bde4 d1bd aa6c f0bd 9390 363d
00000210: f73d dd3d e48a 763b 8163 29bc 7cfa 56bd
00000220: 4dd9 f9bd cea1 c6bc 8bdb 8ebd 3b38 35bd
00000230: 7604 ec3d 89aa cc3d 697d 303c 274e 34bd
00000240: 25bd 0fbd 64ae a93d 61d5 73bd 8be7 b63d
00000250: b178 dcbd ebb6 7abc 6989 debd 53b9 9dbd
00000260: d7d1 b8bd b779 98bd 6ae3 41bc 99bc 90bd
00000270: 5472 9dbc 04ee 98bd a581 91bd d7bf 82bc
00000280: eb7f 34bd e1e3 e13d 5553 65bd 67f3 993d
00000290: f252 81bd aca4 9f3d ec5d b53d edde 7ebd
000002a0: 79c8 9a3c 09a9 bc3d 85bd c63d c881 c23d
000002b0: 587e 21bd 74c2 2a3d a3c3 06be 6247 c03d
000002c0: c902 bd3d b642 20bd 17e9 cabc c1d3 993c
000002d0: a646 36bd 6308 e13d ba86 823d d8bc 9e3b
000002e0: 410d 1c3d 0b7c c2bd 85ab 89bb 789a 653d
000002f0: 5b7e ce3d 5a60 553d 0a01 b43d 2ddc cbbd
00000300: f323 6b3d 9ae4 da3d bb32 913d 008a cd3d
00000310: c4a0 533d 1b3b 8dbd 87ba 6c3d efee 903a
00000320: 7ff2 2a3d 5d63 f0bc f055 c6bd 796f 003e
00000330: 05e8 40bd 230a 483d 6cca b6bd a3cc 17bd
00000340: e471 c53d f58b ac3d 1b6c 673d 65d0 e2bc
00000350: 6a1f 2abd a1bc a4bd 4552 57bd 8d03 1abd
00000360: fbf3 d4bd 7d20 f23a 5d21 7c3d 6d86 ac3d
00000370: b127 063d cb56 b8bc 064a e13d 2ea4 b53d
00000380: e1b2 e3bc 80a9 14bc 95ff af3d 19a0 363d
00000390: b7a2 f2bc 1f5d 473d f185 683d 4378 b33c
000003a0: fefa 9e3c 23b6 dd3d 91d4 443d d1e7 703d
000003b0: 9165 80bc de50 e13d 4646 31bd 6937 613d
000003c0: 8551 c2bd 07d1 c9bd 5b2f b2bd e69f 66bc
000003d0: 0dd6 0b3d e40b 253d 1bba e4bd ca20 9dbd
000003e0: 7f23 fabd 2fcc 8e3d a814 afbd ec5f db3c
000003f0: 1046 bc3d 95a7 bd3d 1314 883d d9d3 52bd
-0.07542092 -0.09202734 0.06760421 -0.031352043 0.08016876 0.108918 -0.06943675 0.09756395
0.006282275 0.11354443 -0.027066477 0.07611412 0.12681188 0.019590717 -0.107937954 -0.06031436
0.07717317 0.11037803 0.019435266 0.030133156 -0.040512353 -0.040534586 -0.038346704 -0.04801591
0.0569791 0.020526266 0.10875495 -0.099488884 0.051569678 -0.03473715 -0.08736348 -0.018775351
-0.019482011 -0.10234107 -0.016554892 -0.06879836 0.0013033038 -0.12720172 0.05264536 -0.009434405
0.024890738 0.034291845 0.08179142 -0.10189954 0.112037204 0.006755738 -0.09456355 -0.023224132
0.026347065 -0.054855645 0.05688335 0.075126946 -0.10252328 -0.031161508 0.010152154 0.06293237
0.114461526 -0.080520995 -0.011909521 -0.09739861 -0.011756132 -0.004470034 0.06180301 0.013243824
-0.08677842 -0.05452389 -0.042811897 0.06022285 0.06722525 -0.05465828 0.104087 0.093350224
0.042544633 0.004192679 0.11447475 0.04422088 0.03468138 0.06264269 0.06965149 0.043846183
-0.05353921 0.004579838 -0.06509608 -0.070467405 0.07057547 0.12105774 -0.02820532 -0.013681861
-0.10509252 0.032885075 -0.006961285 0.028751548 0.042968463 0.009781546 0.0636964 -0.051193167
-0.12865049 -0.110956945 0.024188172 0.056432478 0.090361975 0.029976495 0.043874975 -0.11444315
0.100469716 -0.0022922547 0.046557665 0.08279213 0.053928383 0.049550407 -0.020206174 0.07896611
0.032769762 0.124655016 -0.0048413454 0.00024307986 -0.039535742 -0.10483884 0.12521379 0.05065981
-0.0012141985 0.11557891 -0.04861449 -0.018021107 0.11236686 0.022346776 -0.046862096 0.048335407
0.023584971 -0.102487065 -0.11739476 0.04457147 0.108028345 0.0037619406 -0.010338665 -0.052484974
-0.1219965 -0.024247076 -0.06975468 -0.04424308 0.11524288 0.099934645 0.010772088 -0.044019844
-0.03509249 0.082852155 -0.059529666 0.08930882 -0.107652076 -0.0153024 -0.10866053 -0.077013634
-0.09024399 -0.0744509 -0.011834005 -0.07067222 -0.019219555 -0.07467273 -0.07104806 -0.015960617
-0.044067305 0.110297926 -0.055987675 0.075171284 -0.06314649 0.077950805 0.08855805 -0.062224317
0.018894421 0.092119284 0.09704117 0.0949741 -0.03942713 0.04168935 -0.13160567 0.09388615
0.09229047 -0.03912612 -0.024769349 0.01877773 -0.04450097 0.10987928 0.06373353 0.0048442893
0.038098577 -0.094963156 -0.004201355 0.056055516 0.10082694 0.05209384 0.08789261 -0.099541046
0.05740733 0.106881335 0.07089754 0.10036087 0.05166699 -0.06896039 0.057795074 0.0011057536
0.04173517 -0.029344255 -0.0968436 0.12542523 -0.04709627 0.048837792 -0.08925328 -0.03706039
0.096408635 0.08425132 0.05649958 -0.02768726 -0.041533865 -0.080437906 -0.052568693 -0.037601043
-0.10398098 0.0018472817 0.061555255 0.08424077 0.032752696 -0.022502324 0.11000447 0.088692054
-0.027795257 -0.009073615 0.0859367 0.044586275 -0.029618604 0.04867279 0.05676836 0.021907931
0.019406792 0.108257554 0.04805428 0.058814827 -0.01567343 0.11001752 -0.04327991 0.054984484
-0.09488205 -0.09854322 -0.087004386 -0.014076209 0.03413968 0.040294543 -0.11168309 -0.0767227
-0.122138016 0.06972539 -0.08548862 0.026779138 0.09193051 0.09260479 0.06644454 -0.051471565

encoder.layers.2.nn.net.0.bias f4 [64]
00000000: 7337 8dbd 3d54 1cbe 1810 db3d a717 0bbc
00000010: b377 7b3d 4ceb 693d c24e e63c 45ec dfbd
00000020: 9fd2 3d3d 6935 95bc ed3c 24bd 4ed9 34bb
00000030: ad31 47bb 6145 333d 9045 31bc 5c3b dcbd
00000040: 8240 fb3b 9662 07bc 8da1 b8bd d70a d83d
00000050: b3a1 e93d 89dc 77bd 9727 953d 88ee 99bd
00000060: 0316 e43c da6a afbd eb4d b0bc 73bc c23d
00000070: f55a ba3d 0620 ec3d b3b9 d6bd d18e 6a3c
00000080: f567 a83c bdb6 f1bc 117f ebbd a804 17bd
00000090: 64e8 ca3d 15c0 e3bd 443a 99bc daf8 45bd
000000a0: 3b3b e2bc 4f9b e03d 90ec 043d 8312 923c
000000b0: 2fa6 84bd f9f8 89bd a565 a13d aa3e 4dbc
000000c0: 8d1d c93b c72e 2fbb d81f ecbd ae2c 77bc
000000d0: 4b07 07bc 9c21 c43b 9330 c5bd deb0 863d
000000e0: d3dc ef3d 3398 d8bc 5a01 9ebd 5593 233b
000000f0: 195f ee3d 0512 9bbd a410 dbbc c40b 01be
-0.06895342 -0.1526651 0.10696429 -0.008489526 0.06139345 0.057109162 0.028113727 -0.10933737
0.046343442 -0.018213945 -0.040097166 -0.0027595344 -0.00303946 0.043767337 -0.010819808 -0.107535094
0.007667602 -0.008263251 -0.09015188 0.105489425 0.11407795 -0.060513053 0.07282942 -0.07516199
0.027842527 -0.08565302 -0.02152153 0.095086 0.0909938 0.115295455 -0.10484638 0.014316277
0.020557383 -0.029506082 -0.11498845 -0.036869675 0.09907606 -0.11120621 -0.018704541 -0.048333026
-0.027616134 0.10967123 0.032452166 0.017831093 -0.064770095 -0.06736941 0.07880715 -0.012527147
0.006137556 -0.0026730762 -0.11529511 -0.015086336 -0.008241485 0.005985452 -0.096284054 0.065767035
0.11712041 -0.026439762 -0.077151015 0.0024959643 0.11639232 -0.07571796 -0.026741333 -0.12602144

encoder.layers.2.nn.net.2.weight f4 [64, 64]
00000000: ea36 003e f650 99bb 7395 84bd 74d2 d0bd
00000010: df41 3dbd 8623 55bc 9ce9 eebc 6841 04bd
00000020: 37c2 293d 808f e13d 1804 a6bd fac8 e8bd
00000030: ec4d ebbc ac70 d83d 6021 913d ee08 c33d
00000040: 1dc7 2c3c ffd0 473d 6531 1d3d 02b0 15bd
00000050: 0dc3 96bd 53ad efbd 2ce6 c0bd 762b a6ba
00000060: 127f 64bd 76fa 2f3c e593 72bd 7569 083c
00000070: 17b4 eebc 65ac be3d e1a0 cfbd bb97 88bd
00000080: 4771 3b3d 1dce f2bd 677a aabd b835 8d3d
00000090: 1af5 b1bd 244e b4bc e43a 61bd 6e1a 8cbd
000000a0: 209a f33d 610e 853b c508 a5bd 5246 7abd
000000b0: 4fcb 8c3c fb29 f5bd 30d9 2d3d dd9c a83d
000000c0: 7fe1 d4bc cc7d b5bd 43c0 993d 0581 d2bd
000000d0: 1883 8abd ba57 d5bd 0709 bfbd 7e07 803d
000000e0: 8d0b 96bd c737 683d 42c9 9d3d a324 3d3d
000000f0: 70b9 ca3d b8e0 263d 012a bb3d d18a 64bd
00000100: f2df af3b 9de1 8bbd 29d9 05be 0079 a23c
00000110: 52f9 e33d 20b4 2fbc 7858 0dbd afe6 143d
00000120: de96 ecbd b754 cdbd f4e8 8b3d 9a12 ef3d
00000130: 1a15 1abd b21c 003d b77d c0bc be3b 24bb
00000140: c7d9 32bd 87d0 aa3d f914 833d 3cd5 64bd
00000150: 1884 313b 8b9e e43d e54f ba3d c18c 65bd
00000160: 1494 2b3d 0255 b53d c942 0b3d c3b9 ef3d
00000170: ff14 3e3d 13b4 013d 37bb e2bc 2bf7 b5bd
00000180: 1881 73bd 0b28 773d b004 80bd b1ca ca3d
00000190: 06e4 b2bd a725 8b3d 201a 073d 0208 9bbd
000001a0: 4dd6 4bbd da04 b9bc 662f d6bd 7e98 e83d
000001b0: 5498 fdbd 60a5 f1bd 6b68 ddbc dba5 07bd
000001c0: 37ad c23b 0965 b8bd c13f 203d 4416 92bd
000001d0: 259f a43c 19b7 043d 90b9 4dbd 7277 21bd
000001e0: 07e7 a9bc ac3e f9bc 97a3 95bc ef38 9f3d
000001f0: abe8 913d eab9 613d ee16 8abc c833 cebd
00000200: 75d6 48bd 23d1 c2bd b9be 57bd f273 a5bd
00000210: 22cb 83bd 2723 a43d ac97 893c c843 943d
00000220: 06f3 03bd c873 163d a933 a23d 5322 1f3d
00000230: b09e 0a3e 6e4e 903d 8589 20bd 638a e9bd
00000240: 09ff a639 072a 46bd 7cbd ed3d efb4 9bbd
00000250: 6762 e1bd ca8c aebc 8f97 24bd cfbc a63d
00000260: 1808 763c 70b8 b13d 609e 663d 8e34 8abd
00000270: 8a77 df3c e176 c7bc 6a95 14bd 3b74 c13d
00000280: b0b6 6c3b 88d2 f03c 392c c5bd 2566 5fbc
00000290: 0cac 993d d0d3 f3bd dff0 e43c 2761 74bd
000002a0: 9ac0 8bbd ff52 b73d 941e 8dbd c520 ddbb
000002b0: 31c3 a83d c489 b0bb 842d f0bc fca8 81bd
000002c0: d04d 16bd c301 3b3d 79ca 883c a3e0 e63c
000002d0: a59d fbbc 4c7f fcbd 75ea b03d e528 d3bd
000002e0: 26ba e43d 8f81 a33c a50b 9abd 9e05 143d
000002f0: 8647 2e3d 7a69 c8bb 9d63 a13d e8f6 afbc
00000300: d5f6 173b 5c5e eebc c53f 89bc ce53 83bd
00000310: fdab a9bd 1b92 373d 64bd 903d e804 e7bd
00000320: 428b f9bd 17be 23bd dc60 c23c 03d6 f13c
00000330: eba5 c2bd e00f dfbd f341 87bd c19f 9ebb
00000340: c1af c93d fe72 fbbc af79 ff3d 9b65 db3d
00000350: 8592 0ebd 670e a83d 3a31 6ebc 86b9 a9bc
00000360: e419 803c 9c5b 9cbd 9b7b bd3c 94ad c03c
00000370: a9a9 213c f1ca a9bd c8db a93d ab75 b7bd
00000380: 95f6 96bc 5d54 77bd e2c2 abbd 90ba 80bc
00000390: 3ed1 e93d 1925 b13d cbb4 b0bb 4712 633d
000003a0: 0ad4 56bd e431 a93d fa4d eb3d 21ae 833d
000003b0: 7040 843d a3c0 f33d f79c 83bc 4c69 1d3c
000003c0: 552c 96bd a9d7 8b3c b750 b5bd b62b abbd
000003d0: bd95 ff3d e4c9 41bd 7b6b bd3d a545 51bd
000003e0: a767 8dbd bfc3 eb3a 749a 843d 919a 7f3b
000003f0: 35df ecbd 4ced 213d 60fa a0bd 11fa 2a3d
0.12520948 -0.0046788407 -0.06473818 -0.10196391 -0.046205398 -0.013008958 -0.029164128 -0.03228894
0.041444983 0.110136986 -0.081062496 -0.11366458 -0.02872368 0.105683655 0.07086444 0.095231876
0.010545519 0.0487833 0.038377184 -0.036544807 -0.07361422 -0.11702981 -0.09418902 -0.0012677747
-0.055785246 0.010740867 -0.059223074 0.008325924 -0.029138608 0.093102254 -0.10138107 -0.06669565
0.045762327 -0.11855719 -0.08324128 0.06895012 -0.086893275 -0.022009917 -0.054987803 -0.068409786
0.118946314 0.004060552 -0.08058313 -0.06110222 0.017186789 -0.11970898 0.042443454 0.08233044
-0.025986431 -0.088618845 0.07507374 -0.10278515 -0.067632854 -0.10417123 -0.09327894 0.06251429
-0.07326422 0.05669382 0.077044025 0.046177518 0.09898651 0.040741652 0.09138871 -0.05579645
0.0053672725 -0.06830142 -0.13071121 0.019833088 0.111315385 -0.0107240975 -0.0345082 0.03635281
-0.11552213 -0.10025924 0.06831542 0.1167347 -0.03761778 0.031277366 -0.023497446 -0.0025060023
-0.04366472 0.08340555 0.064004846 -0.05586742 0.002708679 0.11163052 0.0909727 -0.056042437
0.041889265 0.088541046 0.03399924 0.11705353 0.046406742 0.031665873 -0.027677162 -0.08885034
-0.059449285 0.060340922 -0.06250894 0.099019416 -0.08734898 0.06794291 0.0329839 -0.07569887
-0.04976492 -0.022585321 -0.10458259 0.113572106 -0.1238257 -0.11799121 -0.02702733 -0.033117156
0.005941059 -0.09003646 0.0391233 -0.07133153 0.020095417 0.032401178 -0.050225794 -0.039420553
-0.020740045 -0.030425392 -0.018266482 0.07774531 0.07124456 0.055108942 -0.016856637 -0.1006847
-0.049032647 -0.09512546 -0.05267212 -0.080787554 -0.06435229 0.08014517 0.016795956 0.07239491
-0.032214187 0.03673151 0.0792001 0.038851094 0.13537097 0.07046209 -0.03919365 -0.11403348
0.00031852003 -0.048379924 0.11608407 -0.0760287 -0.11005097 -0.021307368 -0.0401836 0.08141481
0.015016578 0.08677757 0.056303382 -0.06748305 0.02727868 -0.024348678 -0.036275305 0.09445997
0.0036119632 0.029397264 -0.096275754 -0.013635193 0.075035185 -0.119056344 0.027946888 -0.059662964
-0.06823845 0.08951377 -0.06890598 -0.006748291 0.08240355 -0.0053875167 -0.029318579 -0.06331059
-0.0366953 0.045655977 0.016698109 0.028183287 -0.03071482 -0.123289675 0.08638469 -0.103105344
0.111683175 0.01995924 -0.07521752 0.03613817 0.04254868 -0.0061160894 0.07880328 -0.021480039
0.0023187895 -0.029097728 -0.01675404 -0.06412469 -0.08284757 0.04481707 0.070673734 -0.11280233
-0.121847644 -0.039976206 0.023727827 0.029520994 -0.095043026 -0.108917 -0.06604376 -0.0048408215
0.098479755 -0.030694481 0.12474381 0.10712739 -0.0348077 0.08205872 -0.014538104 -0.020718347
0.015637346 -0.076346606 0.023130229 0.023520268 0.00986711 -0.08290661 0.08293873 -0.0895799
-0.018428126 -0.06038319 -0.0838678 -0.01571396 0.11416863 0.08649654 -0.005392646 0.055437353
-0.05244831 0.08261469 0.11489482 0.06429697 0.06457603 0.11901977 -0.016066058 0.009607624
-0.073326744 0.017070608 -0.08853286 -0.083579466 0.12479732 -0.04731168 0.09249016 -0.05109181
-0.06904536 0.0017987414 0.06474772 0.003900204 -0.11566011 0.039532945 -0.07860255 0.04174239

encoder.layers.2.nn.net.2.bias f4 [64]
00000000: d7e5 bdbd 1e96 1a3d 6c00 a73d ffe2 cc3b
00000010: 5bcf ebbc 8dbc 863d 86e5 bc3d 1c3b e23d
00000020: 096e b8bd d645 8f3d b46b 9b3d fa9f b23d
00000030: 3796 afbd d67f 9b3d fb79 a73b 997c bdbd
00000040: c968 b7bd 260a 863d 3ab9 ecbd 303a a5bd
00000050: 2fcf 413d 75ad 403d 719f fbbd 501d 17bc
00000060: 65c6 eabd 5453 be3d 11f3 8ebb 77bc 2e3d
00000070: e830 d0bd fbd7 62bc f7ef da3d 5464 993d
00000080: 6c7c ec3d d8cf c03d 2b83 a63d 5053 babd
00000090: d43d fc3c 1c65 1e3c 1fa7 81bd 5c95 a83d
000000a0: cb73 e5bd 637e e6bc fed5 003d eab0 99bb
000000b0: 42cf 09bd 21f7 2a3d 5525 b7bd e281 d53d
000000c0: e261 e2bd b419 8f3c 0e07 d43d 3cf9 d33d
000000d0: 2b14 e83d dd2f c03d 5308 5fbd dd0e bd3d
000000e0: 7f05 c23d adb6 d43d a9ff 9d3d ffaa 133d
000000f0: b6ed b43c 4ae0 fb3d 76cb a2bd 1274 1f3d
-0.09272354 0.03774082 0.08154377 0.006252646 -0.028785398 0.06578932 0.092234656 0.110464305
-0.090053625 0.06995742 0.07588902 0.08721919 -0.08573573 0.07592742 0.0051109768 -0.09252281
-0.08955533 0.065449044 -0.11558767 -0.08067739 0.047316726 0.04704042 -0.122862704 -0.009223297
-0.11463622 0.09293237 -0.004362472 0.042660203 -0.10165578 -0.013845439 0.10690301 0.07489839
0.11547169 0.09414643 0.08130487 -0.09097922 0.0307912 0.009667661 -0.06330704 0.08231613
-0.112037264 -0.028136438 0.03145408 -0.0046902793 -0.033644922 0.041739587 -0.089426674 0.10425164
-0.11053826 0.01746831 0.10352908 0.10350272 0.11331972 0.09384129 -0.054451298 0.092313506
0.094737045 0.10386405 0.07714779 0.036051746 0.022086006 0.12298639 -0.07948963 0.038929053
