scripts/embeddings_gin_version2/IMDB-MULTI/gin_dim128_ep40_lr0.001_drop0.0/gin_classifier.pt (torch, 626909 bytes, 42 tensors)

encoder.layers.0.nn.net.0.weight f4 [128, 1]
-0.78930306 0.6347462 -0.7947414 0.064078346 -0.12554908 -0.24186444 0.8131774 0.10954537
0.88469756 0.5302199 -0.30307508 -0.3152213 0.5355877 0.4257632 -0.21007025 -0.04223711
0.0036836371 0.22313787 0.1483879 -0.34340823 -0.33917642 0.9844865 0.98384607 0.24885726
0.30391422 0.3388908 -0.5965152 -0.28874516 0.46486104 -0.7490877 0.67682755 -0.7578523
-0.4464811 0.9586997 -0.13382709 0.8965427 0.46404594 -0.8707596 0.004751495 0.21771288
0.009084561 -0.7776469 0.43797553 0.1551702 -0.2092675 -0.7577627 0.7700362 0.9110931
-0.51697373 0.9505647 0.025521064 -0.37699616 -0.69090366 -0.50579417 0.6040382 0.9510388
0.19105005 0.8925267 -0.5367762 -0.8159096 -0.92474914 -0.6336005 -0.76324296 0.6712643
0.41696346 0.44631684 0.5301632 -0.22503734 -0.9220698 -0.8174137 0.534522 -0.5266789
-0.9441409 0.24698865 0.2192244 -0.03911662 0.017815568 0.7086139 0.51708204 0.81605405
-0.6435822 0.16479282 -0.16201496 -0.34209657 0.942857 0.72202593 0.15271756 0.7201425
0.00468697 -0.79462075 -0.37119973 0.96628714 -0.8769804 -0.5408819 0.8220743 -0.44723022
0.038649 -0.5612608 0.5504575 -0.6031966 0.059733942 -0.0024017831 -0.98057556 -0.36402094
0.34055018 -0.66225827 -0.79586184 -0.18615246 0.93769586 -0.40030026 -0.6662464 -0.48465896
0.81989396 0.9076413 -0.32042515 -0.33834398 0.49052906 0.99154764 0.36324137 0.39144433
-0.00905171 -0.009937763 0.6054176 -0.43572176 -0.35810506 0.83533734 -0.13901341 -0.9611579
00000000: c40f 4abf ba7e 223f 2c74 4bbf 823b 833d
00000010: f08f 00be 50ab 77be 652c 503f 5359 e03d
00000020: 8a7b 623f 7ebc 073f a82c 9bbe b064 a1be
00000030: 471c 093f a2fd d93e a81c 57be d200 2dbd
00000040: 2d69 713b 417e 643e fff2 173e 34d3 afbe
00000050: 88a8 adbe 4f07 7c3f 56dd 7b3f 70d4 7e3e
00000060: a59a 9b3e 1883 ad3e 38b5 18bf 68d6 93be
00000070: 4402 ee3e 36c4 3fbf 9244 2d3f 9c02 42bf
00000080: 2c99 e4be 586d 753f f809 09be d383 653f
00000090: 6e97 ed3e 1aea 5ebf 6eb2 9b3b 20f0 5e3e
000000a0: 69d7 143c de13 47bf 543e e03e f0e4 1e3e
000000b0: 384a 56be bcfc 41bf 1821 453f 663d 693f
000000c0: 6458 04bf 3558 733f 8d11 d13c a405 c1be
000000d0: 10df 30bf ba7b 01bf 3fa2 1a3f 4777 733f
000000e0: a0a2 433e a17c 643f 2a6a 09bf 74df 50bf
000000f0: 5cbc 6cbf a433 22bf e463 43bf fad7 2b3f
00000100: 3c7c d53e a483 e43e c7b8 073f 3070 66be
00000110: c40c 6cbf 0642 51bf 6fd6 083f 6ed4 06bf
00000120: 38b3 71bf 98ea 7c3e 5c7c 603e c038 20bd
00000130: f4f1 913c b867 353f 7d5f 043f ebe8 503f
00000140: cec1 24bf 73bf 283e 40e7 25be 4827 afbe
00000150: 145f 713f b1d6 383f fe61 1c3e 425b 383f
00000160: 2795 993b 446c 4bbf e40d bebe 985e 773f
00000170: ca81 60bf 3c77 0abf 7673 523f 5cfb e4be
00000180: 6a4e 1e3d caae 0fbf c8ea 0c3f 186b 1abf
00000190: 94ab 743d 3c67 1dbb 0007 7bbf f460 babe
000001a0: 985c ae3e c289 29bf 9abd 4bbf c09e 3ebe
000001b0: d60c 703f 28f4 ccbe 208f 2abf 3825 f8be
000001c0: 92e4 513f 2e5b 683f c40e a4be 6c3b adbe
000001d0: a026 fb3e 11d6 7d3f c6fa b93e 646b c83e
000001e0: a04d 14bc 00d2 22bc a6fc 1a3f ec16 dfbe
000001f0: 8c59 b7be abd8 553f 8859 0ebe 720e 76bf

encoder.layers.0.nn.net.0.bias f4 [128]
0.009883761 0.58217424 0.5325366 -0.8258834 0.09495199 -0.959563 -0.26126593 -0.42368057
-0.36044022 0.8148243 -0.5635382 -0.27726412 0.87451774 0.43325797 -0.19746614 0.7595698
0.13436133 -0.084752545 0.12876028 0.9692949 0.60253537 0.5675321 0.31018186 0.8887996
0.48169136 -0.89184123 -0.40123606 -0.7135284 -0.59543365 -0.39986944 0.5849199 -0.74317205
-0.057718396 0.83415455 -0.5926095 0.6990233 -0.44922894 0.5563389 -0.5679971 -0.2302354
0.16198047 -0.78123903 0.18286428 0.7320892 -0.31240952 -0.5799775 0.5166985 0.99953526
0.12936187 0.24209395 -0.031205611 0.86543787 -0.046065927 -0.43592274 0.92613024 0.5293563
0.23323488 0.781963 0.67559814 -0.35075688 0.43655682 0.8522904 0.6236776 -0.27044597
-0.4703362 0.92829275 -0.8602206 0.2270745 -0.6037054 -0.39415073 0.47542462 0.18038702
-0.23477268 0.22893418 -0.95866203 -0.032853365 -0.94906527 -0.61277485 -0.71461594 -0.3772724
0.92282546 -0.60418785 -0.74462557 -0.5682291 0.6176522 0.9791191 -0.61990696 -0.9374426
0.17317231 -0.68790495 -0.334666 0.62173766 -0.21256793 -0.73448455 0.860601 0.6861435
-0.6526324 -0.21396124 -0.83504725 0.40692818 -0.24080862 0.95456105 -0.39217293 -0.87517536
-0.93847257 -0.4246682 0.9365374 0.037820697 -0.35003322 -0.740345 -0.290895 0.71742976
0.11653375 0.0901309 0.60816133 0.35923004 0.9385518 0.073326655 -0.07709578 0.27274692
0.6435194 -0.1247282 0.66080976 -0.56553125 -0.50345325 0.4866342 -0.6939329 0.75118864
00000000: 80ef 213c 5f09 153f 5254 083f 186d 53bf
00000010: 3076 c23d eca5 75bf a6c4 85be a9ec d8be
00000020: 9f8b b8be 5398 503f 0a44 10bf 90f5 8dbe
00000030: 65e0 5f3f fdd3 dd3e 9034 4abe 2b73 423f
00000040: 0496 093e be92 adbd bcd9 033e b623 783f
00000050: c23f 1a3f c949 113f 28d0 9e3e 5f88 633f
00000060: 40a0 f63e b54f 64bf d06e cdbe cca9 36bf
00000070: 576e 18bf b0bb ccbe 50bd 153f 8640 3ebf
00000080: 206a 6cbd 278b 553f 42b5 17bf 31f3 323f
00000090: 5601 e6be 3a6c 0e3f 4268 11bf d4c2 6bbe
000000a0: 35de 253e 48ff 47bf c640 3b3e 336a 3b3f
000000b0: 24f4 9fbe 6879 14bf 5a46 043f 8be1 7f3f
000000c0: 7077 043e 7ae7 773e e9a2 ffbc 568d 5d3f
000000d0: a0af 3cbd 4431 dfbe df16 6d3f e583 073f
000000e0: 20d5 6e3e ba2e 483f 00f4 2c3f 6896 b3be
000000f0: 6084 df3e b42f 5a3f 56a9 1f3f e577 8abe
00000100: e8cf f0be 98a4 6d3f 6b37 5cbf 3886 683e
00000110: 708c 1abf 20ce c9be db6a f33e 60b7 383e
00000120: 4068 70be b96d 6a3e e06a 75bf 4091 06bd
00000130: f1f5 72bf d0de 1cbf 12f1 36bf d929 c1be
00000140: 4a3e 6c3f 0eac 1abf c89f 3ebf 7677 11bf
00000150: 741e 1e3f 8da7 7a3f 39b2 1ebf 3dfc 6fbf
00000160: 1554 313e 8a1a 30bf 5859 abbe 332a 1f3f
00000170: 68ab 59be 2e07 3cbf 5950 5c3f 1aa7 2f3f
00000180: eb12 27bf a818 5bbe a8c5 55bf e458 d03e
00000190: 8996 76be 1d5e 743f e4ca c8be 7e0b 60bf
000001a0: bd3f 70bf 1c6e d9be eac0 6f3f e0e9 1a3d
000001b0: 8e37 b3be 4087 3dbf 30f0 94be 7aa9 373f
000001c0: 3fa9 ee3d 8d96 b83d 76b0 1b3f 00ed b73e
000001d0: ee44 703f 492c 963d 64e4 9dbd 7ca5 8b3e
000001e0: b0bd 243f 8071 ffbd d42a 293f a8c6 10bf
000001f0: 50e2 00bf 1e28 f93e 96a5 31bf e64d 403f

encoder.layers.0.nn.net.2.weight f4 [128, 128]
-0.010643702 -0.063582726 -0.025215153 -0.04141703 0.08330769 0.042679995 0.029880108 -0.033579413
-0.0042126565 -0.07870405 -0.08635385 0.086186245 -0.07628347 0.074562244 0.02368872 0.006076974
0.01996715 -0.05994197 0.048396695 -0.06233696 -0.034176596 -0.07615244 0.07659875 0.02242528
0.020969212 0.057008486 0.021682361 0.005358719 -0.04639933 -0.07896267 0.020377405 -0.050100137
0.031187477 -0.067097835 -0.024535904 -0.022124495 0.06537904 0.062239747 -0.029909618 -0.0139316255
0.029480666 0.053335655 0.012820976 0.03337106 -0.047270082 -0.005989109 0.07112269 -0.0819301
-0.0019698595 0.02853726 0.07299843 -0.053465333 -0.0011091786 0.07643089 0.07638737 -0.060180712
0.08000366 0.080400236 0.01270521 -0.0048820274 0.08829133 -0.05613447 0.04491264 0.021865334
0.0030245457 -0.004746802 -0.009197567 0.067780405 -0.07524788 0.08444703 -0.046449758 0.013060402
0.009408662 -0.061959773 0.012189019 -0.015253123 -0.05178952 -0.051999815 -0.013838484 0.03447036
0.045761805 0.027234789 0.057966426 -0.060871944 0.03066317 -0.0662339 -0.021318557 0.033434898
-0.081735566 0.022864433 -0.012688403 -0.0147058 -0.03229303 -0.06259688 -0.04110851 0.009294233
-0.07331709 0.0072672125 -0.084064804 0.06276303 0.07279817 0.089223795 0.02449303 0.07772741
0.045870166 0.017275687 0.0434632 -0.034443162 -0.016329229 -0.044084854 -0.017989349 0.015117189
-0.07747028 -0.01803192 -0.01584692 -0.04168751 0.030961458 -0.058865413 0.04768817 0.046307687
-0.0739255 0.0048155934 0.07262845 -0.013802976 0.02918058 -0.03343076 -0.0857743 0.04141479
0.00069395837 -0.06148887 0.030786576 -0.02831368 0.056292392 -0.0820502 -0.07117939 -0.016805433
-0.04664444 -0.0870327 0.0838284 -0.0802906 -0.002853701 0.030940996 -0.01537791 0.05266716
0.013912565 0.019626537 0.0043555335 0.087308995 -0.023533767 -0.036845777 0.07879374 -0.012469283
0.048007853 -0.0666417 0.03895472 0.043496452 -0.012856146 0.060872704 -0.026603134 0.05133425
0.037289012 0.025607632 -0.07988215 -0.024782145 0.0016250925 -0.06087617 0.072418824 -0.012351963
-0.08400984 0.014603251 0.020303829 -0.089522116 0.051471017 0.026571859 -0.06080834 -0.07367462
-0.018772038 0.071710624 0.07406708 -0.079372816 -0.052140485 -0.039168637 0.006956776 0.017498687
0.016069004 -0.037408553 -0.041299034 -0.053786553 -0.027120085 0.060483698 -0.007266443 -0.01228042
0.072769694 -0.07420204 -0.02589579 0.04785156 -0.055351414 -0.07002111 -0.0015010998 -0.032682404
-0.078411 -0.004203557 0.055571508 0.08823098 0.01580186 -0.07605361 -0.059418663 0.0037706643
0.051708926 -0.044698253 -0.06973742 -0.054851383 -0.04592832 0.010200309 0.04369968 0.030793978
0.073053315 -0.07279694 -0.06741462 -0.059563413 0.022184953 -0.03166152 0.06373756 -0.054100767
0.047613345 -0.0194924 0.042413957 0.015298168 0.041954342 -0.03795893 -0.06897283 0.08127742
0.07144404 -0.06952255 0.006933441 0.0039563985 -0.011996942 0.08301868 0.06211672 0.066950366
-0.08976502 -0.08795923 -0.083319195 -0.004452414 -0.020954976 -0.015581513 -0.03024606 -0.05346759
-0.0814799 0.088042215 0.06971435 0.06148947 0.040719796 -0.054474525 0.052647702 0.046637606
00000000: ec62 2ebc a937 82bd 0290 cebc e7a4 29bd
00000010: 399d aa3d 38d1 2e3d 21c7 f43c 918a 09bd
00000020: 530a 8abb 972f a1bd 4ada b0bd 6a82 b03d
00000030: 823a 9cbd 17b4 983d d90e c23c 5a21 c73b
00000040: 2692 a33c b685 75bd 9d3b 463d 0a55 7fbd
00000050: c2fc 0bbd cff5 9bbd cedf 9c3d 39b5 b73c
00000060: a0c7 ab3c bb81 693d 359f b13c 3198 af3b
00000070: 390d 3ebd 2eb7 a1bd 84ee a63c cd35 4dbd
00000080: e17c ff3c 976a 89bd 85ff c8bc 6e3e b5bc
00000090: 72e5 853d 1bef 7e3d 0405 f5bc 7941 64bc
000000a0: 7081 f13c 7d76 5a3d 120f 523c 18b0 083d
000000b0: 469e 41bd 4a40 c4bb c6a8 913d f8ca a7bd
000000c0: c218 01bb f9c6 e93c 3380 953d 77fe 5abd
000000d0: dc61 91ba cc87 9c3d fb70 9c3d 0d80 76bd
000000e0: f5d8 a33d e1a8 a43d 8329 503c 6af9 9fbb
000000f0: 16d2 b43d 42ed 65bd 51f6 373d ee1e b33c
00000100: 7537 463b 108b 9bbb 64b1 16bc 74d0 8a3d
00000110: 8f1b 9abd 91f2 ac3d 1a42 3ebd 4cfb 553c
00000120: ca26 1a3c 88c9 7dbd 73b4 473c 3ce8 79bc
00000130: 3f21 54bd c2fd 54bd cfba 62bc cb30 0d3d
00000140: bb70 3b3d 7e1b df3c 346e 6d3d dc54 79bd
00000150: 5431 fb3c a4a5 87bd 41a4 aebc 08f3 083d
00000160: fa64 a7bd 314e bb3c 05e3 4fbc 99f0 70bc
00000170: b245 04bd cb32 80bd 6661 28bd d746 183c
00000180: 4527 96bd cc21 ee3b 2b2a acbd e789 803d
00000190: 3517 953d f7ba b63d 9ba5 c83c 8c2f 9f3d
000001a0: 5be2 3b3d be85 8d3c 7806 323d 4614 0dbd
000001b0: e0c4 85bc 5292 34bd 665e 93bc 16ae 773c
000001c0: bda8 9ebd adb7 93bc 66d1 81bc 86c0 2abd
000001d0: e2a2 fd3c dc1c 71bd ac54 433d 21ad 3d3d
000001e0: 4166 97bd 20cc 9d3b 3abe 943d e125 62bc
000001f0: 1d0c ef3c b1ee 08bd 70aa afbd 8ea2 293d
00000200: c2ea 353a c1db 7bbd 2134 fc3c 17f2 e7bc
00000210: da92 663d ef09 a8bd 80c6 91bd 8cab 89bc
00000220: 3e0e 3fbd 333e b2bd 39ae ab3d 666f a4bd
00000230: 2805 3bbb f977 fd3c a1f3 7bbc 85b9 573d
00000240: 87f1 633c d5c7 a03c ddb8 8e3b 0fcf b23d
00000250: e3c9 c0bc 99eb 16bd 9d5e a13d f74b 4cbc
00000260: e2a3 443d 727b 88bd fc8e 1f3d 5629 323d
00000270: 96a2 52bc a855 793d d1ee d9bc dd43 523d
00000280: 5dbc 183d 19c7 d13c 4199 a3bd ed03 cbbc
00000290: 0e01 d53a 4a59 79bd 5250 943d e35f 4abc
000002a0: 5a0d acbd 7942 6f3c 3754 a63c 5f57 b7bd
000002b0: 46d3 523d 3aad d93c 2a12 79bd b8e2 96bd
000002c0: d1c7 99bc 05dd 923d 7bb0 973d 378e a2bd
000002d0: 4391 55bd 4b6f 20bd abf5 e33b 6859 8f3c
000002e0: 25a3 833c b639 19bd 2d29 29bd 4a4f 5cbd
000002f0: f12a debc c1bd 773d 581b eebb d133 49bc
00000300: 4708 953d 3df7 97bd 6823 d4bc ffff 433d
00000310: 2ab8 62bd 3a67 8fbd 8dc0 c4ba fcdd 05bd
00000320: f295 a0bd febd 89bb f39e 633d 72b2 b43d
00000330: e772 813c ffc1 9bbd fc60 73bd 401d 773b
00000340: bdcc 533d 8415 37bd 7ed2 8ebd d8ab 60bd
00000350: 561f 3cbd 321f 273c 70fe 323d a743 fc3c
00000360: fa9c 953d 9016 95bd ad10 8abd c4f8 73bd
00000370: 38bd b53c 83af 01bd d688 823d c498 5dbd
00000380: 3606 433d 87ae 9fbc 42ba 2d3d 2ba5 7a3c
00000390: 51d8 2b3d d37a 1bbd a141 8dbd c774 a63d
000003a0: 4151 923d d761 8ebd eb31 e33b ada4 813b
000003b0: d28e 44bc b305 aa3d 1a6e 7e3d 461d 893d
000003c0: b9d6 b7bd f823 b4bd 41a3 aabd 8ee5 91bb
000003d0: c5a9 abbc 9a49 7fbc 96c6 f7bc d500 5bbd
000003e0: efde a6bd 7a4f b43d 66c6 8e3d 62dc 7b3d
000003f0: cdc9 263d ae20 5fbd 1ea5 573d 1307 3f3d

encoder.layers.0.nn.net.2.bias f4 [128]
-0.07223938 0.043964237 -0.05986505 -0.02168336 0.016349051 0.08409999 -0.04477784 -0.034474924
-0.041630037 -0.0646426 -0.08230671 -0.08182543 -0.01019464 -0.01986721 -0.04254933 -0.06289635
-0.081675805 -0.0731229 -0.061260656 -0.051407333 -0.070085175 0.05307851 -0.020670915 -0.07055664
-0.08254765 0.065815665 -0.04077405 -0.070268065 -0.016572485 0.06815274 -0.07517004 0.0005468421
-0.020307068 -0.02542847 0.0774704 -0.01852092 -0.033135105 -0.07881094 0.026535327 0.06610498
0.0147205 0.05400653 -0.037268553 -0.056906845 -0.018915918 -0.05156355 0.049951598 0.043107726
0.02458295 -0.049513515 -0.05580331 0.014391793 0.043084297 -0.01568977 -0.06679184 0.04620058
0.080267936 -0.019461976 0.054899897 0.004526172 0.058744073 -0.08195862 0.07127949 -0.039934438
-0.060551036 -0.011521285 0.08750016 -0.031008089 0.061764922 0.07338708 -0.073938735 0.0187428
-0.015795272 -0.07623862 -0.026236406 -0.038230795 0.009380655 0.06583388 0.028576208 -0.024790566
-0.022600636 -0.012439353 0.062152885 -0.002147659 -0.0024164452 -0.04753818 0.08116873 0.05208321
0.049956996 0.042006843 0.04939743 0.007616128 -0.022521788 -0.07341192 0.038780883 -0.068800285
-0.02217437 -0.06878862 0.020884566 -9.135853e-05 -0.0172638 -0.0033894293 0.038916998 -0.029749725
-0.012857837 -0.08627801 -0.070546195 0.0426092 0.07660408 0.068529405 0.06705213 0.07289052
-0.08094472 -0.07322277 -0.07217174 -0.024366328 -0.06308757 -0.058426123 0.04044548 -0.07357666
0.065239996 -0.060592763 -0.049544103 0.08221536 -0.073203295 -0.079730734 -0.072843306 -0.059967875
00000000: 3df2 93bd d813 343d 0e35 75bd 4da1 b1bc
00000010: 72ee 853c 9e3c ac3d f868 37bd 9435 0dbd
00000020: 4284 2abd 5763 84bd 6c90 a8bd 1794 a7bd
00000030: 6b07 27bc 8fc0 a2bc 3548 2ebd cdcf 80bd
00000040: a545 a7bd 76c1 95bd 74ec 7abd 7f90 52bd
00000050: d188 8fbd da68 593d 0d56 a9bc 0080 90bd
00000060: be0e a9bd 5dca 863d b102 27bd b4e8 8fbd
00000070: 05c3 87bc aa93 8b3d c0f2 99bd f459 0f3a
00000080: 025b a6bc 5e4f d0bc cda8 9e3d 2fb9 97bc
00000090: adb8 07bd a167 a1bd 9d60 d93c 0c62 873d
000000a0: 412e 713c f435 5d3d e9a6 18bd 2717 69bd
000000b0: 8ef5 9abc 4d34 53bd 0c9a 4c3d ba91 303d
000000c0: 2f62 c93c afce 4abd 0392 64bd 8ecb 6b3c
000000d0: 2979 303d d587 80bc 29ca 88bd d23c 3d3d
000000e0: 8463 a43d b96e 9fbc b7de 603d 4850 943b
000000f0: a09d 703d ecd9 a7bd fbfa 913d 4b92 23bd
00000100: 5d04 78bd c6c3 3cbc 4933 b33d ad04 febc
00000110: 37fd 7c3d f74b 963d 316d 97bd 808a 993c
00000120: 1665 81bc fe22 9cbd bbed d6bc e597 1cbd
00000130: 52b1 193c ead3 863d a718 ea3c 9615 cbbc
00000140: f824 b9bc 6ece 4bbc 0694 7e3d bdbf 0cbb
00000150: 395d 1ebb 65b7 42bd cb3b a63d 3455 553d
00000160: b59f 4c3d 5e0f 2c3d f654 4a3d b690 f93b
00000170: 9d7f b8bc fd58 96bd b4d8 1e3d 2ae7 8cbd
00000180: 06a7 b5bc 0ce1 8cbd 1c16 ab3c bd97 bfb8
00000190: d06c 8dbc 3021 5ebb 6e67 1f3d b2b5 f3bc
000001a0: ada9 52bc 86b2 b0bd 867a 90bd fc86 2e3d
000001b0: 9ae2 9c3d 2559 8c3d a152 893d a047 953d
000001c0: 58c6 a5bd d2f5 95bd c7ce 93bd e59b c7bc
000001d0: 0e34 81bd 3b50 6fbd 29aa 253d 5caf 96bd
000001e0: 8c9c 853d 1e30 78bd c2ee 4abd 8760 a83d
000001f0: 9ceb 95bd de49 a3bd df2e 95bd e0a0 75bd

encoder.layers.1.nn.net.0.weight f4 [128, 128]
-0.055884726 0.07416311 0.07241225 -0.03233553 -0.03554979 0.05194953 -0.06588358 0.035416268
0.0832768 -0.0053843763 0.031993125 0.008374207 -0.04421438 0.07336633 -0.012356416 -0.03065676
0.021126233 0.064625524 -0.029235937 0.0707416 -0.07050617 -0.04619224 -0.033046924 0.004301203
-0.06517938 -0.018261606 -0.038260803 0.10002079 -0.042701844 -0.051125415 0.029277554 -0.08811456
0.019827912 -0.011007722 0.0127201 -0.025718745 0.048007634 -0.05496237 -0.06724177 -0.07277446
-0.058008652 0.017001443 0.06674032 0.08578196 0.08754149 0.05619671 -0.0023678304 -0.0008018282
0.011074471 0.07340412 0.0024176645 0.030408153 0.08360124 -0.06856499 0.09507938 -0.064329565
0.031446178 -0.059057463 -0.069794625 0.009377408 0.07187049 -0.0429477 -0.015238788 0.027041905
-0.014119101 -0.05330623 0.028242776 -0.030895652 0.03214765 0.0014059815 0.042953946 -0.07682594
0.010354542 0.09392227 0.070937544 0.060412243 0.060877834 -0.054547876 -0.08216571 -0.06899921
0.0443061 0.044893865 0.0004984795 0.019750897 -0.0827698 0.019196307 -0.036055844 0.019055255
0.012093434 -0.06733512 -0.05794173 0.026556177 -0.035736177 -0.06605615 0.074264005 0.0155721335
0.054620754 0.069877364 -0.06481801 -0.045001827 0.016551487 0.023960104 0.090898156 -0.052997287
0.06774328 0.050454125 0.008869041 0.08460309 0.042011935 -0.0049325787 -0.030134201 0.044127557
-0.08754135 0.03912593 0.028692242 0.036352023 0.038527865 0.020055555 -0.0472406 -0.020509902
-0.04131102 0.0401598 -0.049288485 -0.030864539 -0.07170299 -0.0029827936 0.055864472 0.044779178
-0.03926631 0.010897138 0.04435904 0.053313494 -0.037562247 -0.051843945 0.071345195 -0.05414879
-0.0521625 -0.028587583 -0.049634773 0.03284085 -0.105914176 0.04544722 -0.036335543 0.030746615
0.052262563 0.011741617 -0.06725812 0.0724751 -0.08014687 -0.0012906273 0.042067125 -0.08960199
-0.054386504 0.0026489487 0.054168828 0.06368654 -0.032427017 -0.03940992 -0.06960815 0.06603112
0.057457756 0.07585905 0.028307604 -0.07740506 -0.089241415 -0.034981124 -0.08592803 0.048729386
-0.04656896 0.006462434 -0.020178119 0.07182619 -0.05964071 -0.0763033 0.08367367 -0.034265324
-0.015579063 0.052211884 0.009091547 0.07239308 0.08037704 0.059988704 -0.065895215 0.07544327
-0.0020665529 -0.017741295 -0.072926305 -0.046132505 -0.01019182 -0.08704146 0.032872453 0.07419516
-0.025128467 0.042655803 -0.0067614303 0.036229514 0.07984211 -0.077330634 -0.081270926 0.03102606
0.04063687 -0.0439777 0.075036064 0.02646925 -0.0054004104 -0.08272044 0.029930148 -0.0573122
-0.08127481 -0.09366561 -0.08198035 0.019602796 -0.002717725 -0.036520667 -0.086096786 -0.0049436805
-0.01945254 -0.00033257218 -0.04232844 -0.09015697 -0.03509762 -0.100575574 -0.08427571 -0.07792853
0.016287673 -0.048544914 -0.025763825 0.043633364 -0.002051001 0.06716552 -0.08864332 -0.059636325
0.057149764 0.083768226 -0.027337773 -0.035871625 -0.032937136 -0.09503545 0.033344746 0.01537519
0.076870486 -0.010022115 0.058169935 -0.04815276 0.06535049 -0.08225544 0.05775099 -0.09258297
0.049852915 -0.028854571 -0.041838914 0.051175702 -0.02222421 0.06657284 0.07877888 -0.06290963
00000000: 62e7 64bd d4e2 973d e04c 943d 4372 04bd
00000010: a89c 11bd 08c9 543d f8ed 86bd a610 113d
00000020: 078d aa3d 6c6f b0bb 390b 033d f833 093c
00000030: 231a 35bd 1641 963d 9172 4abc e323 fbbc
00000040: ec10 ad3c 635a 843d 3480 efbc f9e0 903d
00000050: 8a65 90bd 1334 3dbd 365c 07bd 1bf1 8c3b
00000060: c47c 85bd 5d99 95bc 5cb7 1cbd b3d7 cc3d
00000070: 21e8 2ebd e268 51bd 7bd7 ef3c 6875 b4bd
00000080: 256e a23c bb59 34bc f767 503c 1eb0 d2bc
00000090: a7a3 443d 3920 61bd 0eb6 89bd c70a 95bd
000000a0: 7b9a 6dbd 9c46 8b3c 26af 883d 74ae af3d
000000b0: f448 b33d 852e 663d 9a2d 1bbb c831 52ba
000000c0: b371 353c e654 963d ae71 1e3b 851a f93c
000000d0: 2037 ab3d cd6b 8cbd fab8 c23d 38bf 83bd
000000e0: b5cd 003d 3de6 71bd 7cf0 8ebd b3a3 193c
000000f0: d630 933d ede9 2fbd 1cac 79bc fc86 dd3c
00000100: cd53 67bc a257 5abd 655d e73c e118 fdbc
00000110: 41ad 033d e948 b83a 7af0 2f3d eb56 9dbd
00000120: 19a6 293c 525a c03d b447 913d d472 773d
00000130: 095b 793d 986d 5fbd 7f46 a8bd 754f 8dbd
00000140: 507a 353d a1e2 373d 65ac 023a a2cc a13c
00000150: 3783 a9bd 9341 9d3c 4baf 13bd c419 9c3c
00000160: 8a23 463c ffe6 89bd 4f54 6dbd 578c d93c
00000170: 1960 12bd 7248 87bd ba17 983d 4322 7f3c
00000180: 03ba 5f3d dd1b 8f3d 4ebf 84bd d653 38bd
00000190: fc96 873c fb47 c43c d028 ba3d af13 59bd
000001a0: fdbc 8a3d fca8 4e3d 744f 113c 6344 ad3d
000001b0: b514 2c3d 78a1 a1bb 00dc f6bc 19bf 343d
000001c0: e148 b3bd 8342 203d fe0b eb3c dce5 143d
000001d0: 65cf 1d3d 8c4b a43c 5c7f 41bd 6204 a8bc
000001e0: be35 29bd 9a7e 243d b9e2 49bd a1d7 fcbc
000001f0: 04d9 92bd f97a 43bb 25d2 643d 5f6a 373d
00000200: b6d5 20bd e989 323c d3b1 353d 405f 5a3d
00000210: dfda 19bd 515a 54bd 6e1d 923d 1fcb 5dbd
00000220: 58a8 55bd 8230 eabc d54d 4bbd 2184 063d
00000230: 88e9 d8bd dd26 3a3d 94d4 14bd 53e0 fb3c
00000240: 4511 563d e95f 403c a0be 89bd d36d 943d
00000250: 0b24 a4bd 442a a9ba 944e 2c3d 4081 b7bd
00000260: 62c4 5ebd fc99 2d3b 22e0 5d3d 176e 823d
00000270: 31d2 04bd 4c6c 21bd b88e 8ebd 533b 873d
00000280: d358 6b3d fd5b 9b3d 59e5 e73c 8b86 9ebd
00000290: 34c4 b6bd 5e48 0fbd 09fb afbd 7798 473d
000002a0: 18bf 3ebd d3c2 d33b 954c a5bc 9c19 933d
000002b0: d149 74bd e844 9cbd 1a5d ab3d cc59 0cbd
000002c0: 543f 7fbc 21dc 553d b6f4 143c d342 943d
000002d0: b89c a43d b7b6 753d 12f4 86bd 0082 9a3d
000002e0: 016f 07bb 3156 91bc 635a 95bd 70f5 3cbd
000002f0: 97fb 26bc cb42 b2bd 44a5 063d a2f3 973d
00000300: 37da cdbc dab7 2e3d fd8e ddbb 6665 143d
00000310: 4384 a33d 865f 9ebd 5f71 a6bd 5d2a fe3c
00000320: d972 263d f621 34bd 82ac 993d 0ad6 d83c
00000330: edf5 b0bb 5669 a9bd 1230 f53c 33c0 6abd
00000340: 6873 a6bd c1d3 bfbd 50e5 a7bd 0b96 a03c
00000350: dc1b 32bb b296 15bd 8353 b0bd 99fe a1bb
00000360: ef5a 9fbc 155d aeb9 9660 2dbd 38a4 b8bd
00000370: 86c2 0fbd 91fa cdbd be98 acbd fe98 9fbd
00000380: ba6d 853c 08d7 46bd a80e d3bc e6b8 323d
00000390: 166a 06bb 138e 893d a18a b5bd 3845 74bd
000003a0: df15 6a3d ad8e ab3d 77f3 dfbc 20ee 12bd
000003b0: 17e9 06bd f2a1 c2bd 8094 083d 39e8 7b3c
000003c0: 466e 9d3d cc33 24bc 9943 6e3d d43b 45bd
000003d0: 7ad6 853d 8a75 a8bd 4d8c 6c3d 249c bdbd
000003e0: 9232 4c3d 6c60 ecbc 485f 2bbd 9d9d 513d
000003f0: 8c0f b6bc 5757 883d d256 a13d c4d6 80bd

encoder.layers.1.nn.net.0.bias f4 [128]
-0.036233373 0.018371783 0.07169288 -0.05183313 0.02135654 -0.03718329 -0.016915627 -0.08014281
-0.037051056 -0.060039658 0.03456892 -0.06838944 -0.041698717 -0.07133944 0.03375916 -0.010439359
-0.03497591 0.04075661 -0.05980719 -0.081793144 0.06223225 0.00050336757 -0.049612716 0.056137223
-0.016749602 0.021768123 0.0673444 -0.0029841622 0.016842425 -0.0055683153 0.04757812 -0.05446062
0.06946861 0.01659256 0.025193838 -0.059700068 -0.045462426 0.08909424 0.04122053 -0.077100985
0.04442836 0.07970248 0.05200957 -0.06206893 -0.078587085 0.025361646 0.008579786 0.062611
0.070459835 0.04554254 -0.016865492 0.012277047 0.049721327 -0.017651249 0.017908072 0.10047032
-0.046245042 -0.05774335 0.05217549 0.033598136 -0.050071765 -0.03179454 0.06734166 -0.08375867
-0.040594958 -0.03613696 -0.01873747 0.07174457 -0.062075153 -0.0680372 -0.08896565 -0.08332496
-0.026057389 -0.046206288 -0.050843354 -0.0471845 -0.001686903 0.020037686 0.039672498 -0.068467885
-0.06694477 0.04308306 0.06286541 0.06515789 -0.05508632 0.033076856 -0.032611713 -0.050409593
0.05273038 0.078792155 -0.055180762 -0.031663068 0.06807887 -0.023135314 0.027248468 -0.046731375
-0.08784811 0.089965224 0.035316627 0.04528467 -0.060214788 -0.06248993 -0.027436756 -0.051548533
-0.034936026 0.08400231 -0.0758263 0.051132154 -0.044393167 0.09278953 0.03193242 -0.020961102
-0.06769585 0.017055083 0.083221786 0.05352538 -0.034898017 -0.010948458 -0.077136435 0.009595196
-0.0037508274 0.023842275 -0.046400014 -0.069890626 -0.058368344 0.057120644 -0.021862049 -0.07874944
00000000: 7269 14bd 6c80 963c b7d3 923d fa4e 54bd
00000010: e9f3 ae3c 814d 18bd a492 8abc ea21 a4bd
00000020: d9c2 17bd 25ec 75bd 2498 0d3d c30f 8cbd
00000030: 46cc 2abd 6a1a 92bd 0c47 0a3d d809 2bbc
00000040: e642 0fbd 67f0 263d 62f8 74bd 2a83 a7bd
00000050: 3ee7 7e3d 6df4 033a b436 4bbd 25f0 653d
00000060: 7636 89bc 1053 b23c dceb 893d ef91 43bb
00000070: 20f9 893c 6a76 b6bb 46e1 423d 1912 5fbd
00000080: 8f45 8e3d 1fed 873c 4f63 ce3c 0f88 74bd
00000090: cf36 3abd 0a77 b63d dcd6 283d 1fe7 9dbd
000000a0: 83fa 353d 0e3b a33d fd07 553d fe3b 7ebd
000000b0: 44f2 a0bd 3ac3 cf3c 3b92 0c3c 323a 803d
000000c0: 3f4d 903d d08a 3a3d 8029 8abc ab25 493c
000000d0: 97a8 4b3d 5a99 90bc f3b3 923c 62c3 cd3d
000000e0: 716b 3dbd 4a84 6cbd f7b5 553d 339e 093d
000000f0: 0d18 4dbd fe3a 02bd 6dea 893d aa89 abbd
00000100: e646 26bd 5904 14bd 537f 99bc d1ee 923d
00000110: 8442 7ebd 1657 8bbd 9f33 b6bd 47a6 aabd
00000120: 4e76 d5bc ce42 3dbd 1f41 50bd 8944 41bd
00000130: 121b ddba 1326 a43c a17f 223d e438 8cbd
00000140: 571a 89bd dd77 303d 94bf 803d 8071 853d
00000150: 31a2 61bd 997b 073d dc93 05bd 4a7a 4ebd
00000160: d0fb 573d c85d a13d 3905 62bd 22b1 01bd
00000170: ef6c 8b3d 4586 bdbc 2e38 df3c 6669 3fbd
00000180: b6e9 b3bd b03f b83d 2ba8 103d 6b7c 393d
00000190: c8a3 76bd 71f5 7fbd 0cc3 e0bc 8e24 53bd
000001a0: 1419 0fbd 6709 ac3d d24a 9bbd f36f 513d
000001b0: 9cd5 35bd 7008 be3d 92cb 023d 9eb6 abbc
000001c0: 1fa4 8abd 1ab7 8b3c 2f70 aa3d 6e3d 5b3d
000001d0: 39f1 0ebd 2961 33bc b5f9 9dbd 2b35 1d3c
000001e0: 71d0 75bb e050 c33c f10d 3ebd d122 8fbd
000001f0: a513 6fbd 56f7 693d 0a18 b3bc 6347 a1bd

encoder.layers.1.nn.net.2.weight f4 [128, 128]
-0.056046363 -0.08735402 0.014440684 0.086837634 -0.049924377 0.061617885 -0.07604347 -0.008882986
0.028158067 0.031324536 -0.06288872 -0.029663732 -0.025042934 0.04465486 0.012850864 -0.060943924
0.016794136 0.021359056 0.052659996 0.022673102 0.002389466 -0.04443517 -0.056248806 0.0073301797
-0.028157834 -0.02545584 -0.0057871407 0.08518483 0.06791601 -0.061252624 0.08290659 0.01264731
-0.022690035 0.062417574 -0.038614232 0.04308179 -0.047671907 -0.038703434 -0.03800989 0.03380852
-0.027368806 -0.070085086 0.019477814 -0.019292763 -0.053991023 -0.016063219 -0.07647411 -0.0716155
-0.0074457647 0.03820343 0.014095037 -0.0434539 0.092424154 0.054262094 -0.06895453 -0.05158474
-0.069750674 -0.024950048 -0.028854249 0.07904186 -0.0015313308 0.05679823 0.06308274 0.07628476
0.061345283 0.067385904 0.010655392 0.045708183 0.08990942 0.044787947 -0.04996932 0.039091382
0.007712855 -0.013972662 -0.052426476 0.02758174 0.039367016 0.045849223 0.016428307 -0.0731167
-0.031967428 0.051430114 0.002526 0.019279884 -0.0601209 0.0005724477 0.0802338 0.001935963
0.08192148 -0.0008565635 -0.042457145 0.03197359 -0.014397817 0.079126015 -0.010860183 -0.01954578
0.016136957 -0.06657812 0.050601147 0.020583412 -0.07245556 -0.010599795 0.027294852 0.072871365
0.059108097 0.031622134 0.07088848 0.07487992 0.05083538 0.064448066 -0.02881931 -0.06187806
-0.025755212 -0.04175208 0.0018678758 0.054180022 -0.030318283 0.048027787 -0.027848972 -0.0068903305
-0.029033463 0.05549551 0.024485106 0.021722253 -0.06984428 0.05008869 -0.0034200626 -0.07970396
-0.0016409871 0.040886715 0.00090434315 0.0024862215 0.01300988 0.02225779 0.03801632 0.03527137
0.009550953 0.0718628 -0.03247467 0.04494866 -0.008216208 0.036855154 0.0606379 0.021211011
0.05321167 0.022445846 0.06494772 0.014253258 -0.009538359 -0.077437826 -0.045615133 -0.060405992
0.03655867 0.08408795 -0.029146073 0.030851962 0.022752305 -0.032354195 0.017198708 0.048758235
-0.077680394 0.049028464 -0.07207966 0.045559328 0.01905837 0.02279352 -0.03690921 -0.023836734
-0.06438912 -0.08182476 -0.057487268 -0.0074433163 -0.0012181968 -0.04676226 -0.04267861 -0.04111369
-0.053074565 0.009691597 0.053065468 0.018499045 -0.07073227 -0.044703048 0.049811292 0.017619956
0.01494904 -0.009275745 -0.04885422 -0.082710475 0.07523158 -0.07748198 -0.06765062 0.080166355
-0.05556283 0.05284236 0.05675627 0.036088295 0.062135383 0.0071948767 0.075672574 0.06937864
-0.0073390123 0.03286727 -0.02381466 0.050266616 0.008570051 -0.04810861 0.029811263 0.07197373
0.087066054 0.056355763 -0.03896112 0.028224282 0.08488934 -0.06166527 -0.06836907 -0.054624073
0.060918365 0.07080209 -0.07291756 0.09347 0.0848808 0.04793873 0.0082156295 -0.032653034
-0.074526995 0.05733504 -0.07328651 -0.029448079 0.0089631975 -0.0173331 0.050418522 0.07074389
-0.0015265548 -0.05027045 0.05864979 0.021461615 0.020714652 -0.06497145 0.04812785 -0.013010728
-0.013157572 0.07424649 0.015610468 0.06962151 0.008763333 -0.03307278 -0.052722145 -0.075086474
-0.061904453 0.05530786 0.04987602 -0.048938256 -0.034645926 0.0035431248 0.052138977 0.020199612
00000000: df90 65bd aae6 b2bd 9e98 6c3c eed7 b13d
00000010: 817d 4cbd 0963 7c3d aebc 9bbd f289 11bc
00000020: bfab e63c 284e 003d cdcb 80bd 5b01 f3bc
00000030: d726 cdbc 04e8 363d 6e8c 523c 56a0 79bd
00000040: db93 893c 30f9 ae3c 02b2 573d f1bc b93c
00000050: 9698 1c3b a701 36bd 2665 66bd 0132 f03b
00000060: 42ab e6bc c488 d0bc 0ea2 bdbb 6275 ae3d
00000070: 8d17 8b3d 08e4 7abd eeca a93d aa36 4f3c
00000080: 74e0 b9bc 92a9 7f3d f529 1ebd 8876 303d
00000090: 9e43 43bd 7e87 1ebd 42b0 1bbd cd7a 0a3d
000000a0: 8c34 e0bc c588 8fbd f08f 9f3c db0b 9ebc
000000b0: b125 5dbd 0397 83bc 759e 9cbd 26ab 92bd
000000c0: 9afb f3bb 337b 1c3d dfee 663c b7fc 31bd
000000d0: e048 bd3d ee41 5e3d 0838 8dbd 854a 53bd
000000e0: 71d9 8ebd 0b64 ccbc bf5f ecbc b3e0 a13d
000000f0: efb6 c8ba 43a5 683d 8631 813d 2f3b 9c3d
00000100: 3145 7b3d 9f01 8a3d f493 2e3c 8138 3b3d
00000110: 6e22 b83d 9173 373d a1ac 4cbd 491e 203d
00000120: 1ebc fc3b 98ed 64bc 25bd 56bd 1af3 e13c
00000130: 4f3f 213d 65cc 3b3d a894 863c 35be 95bd
00000140: 47f0 02bd 62a8 523d 3f8b 253b d9f0 9d3c
00000150: 5541 76bd 5110 163a 9e51 a43d 24c0 fd3a
00000160: 73c6 a73d 018b 60ba 8be7 2dbd bdf6 023d
00000170: d2e4 6bbc d20c a23d e9ee 31bc 791e a0bc
00000180: a731 843c 1c5a 88bd 2643 4f3d 8b9e a83c
00000190: 9563 94bd c3aa 2dbc 7499 df3c 953d 953d
000001a0: 551b 723d 3686 013d fb2d 913d a55a 993d
000001b0: c238 503d 59fd 833d 7916 ecbc d973 7dbd
000001c0: 98fc d2bc 3b04 2bbd 83d3 f43a dfeb 5d3d
000001d0: 0c5e f8bc c9b8 443d 8723 e4bc 48c8 e1bb
000001e0: 96d7 edbc 434f 633d fd94 c83c def2 b13c
000001f0: 850a 8fbd cc29 4d3d 2123 60bb d43b a3bd
00000200: 6416 d7ba d478 273d 7111 6d3a e0ef 223b
00000210: 6427 553c f855 b63c 00b7 1b3d b678 103d
00000220: 9a7b 1c3c ce2c 933d 2904 05bd 161c 383d
00000230: 469d 06bc 6ef5 163d 725f 783d b7c2 ad3c
00000240: 7bf4 593d 5ae0 b73c 4f03 853d 7f86 693c
00000250: c746 1cbc b997 9ebd efd6 3abd 466c 77bd
00000260: 8bbe 153d 4e36 ac3d bfc3 eebc 41bd fc3c
00000270: 0b63 ba3c d585 04bd 4ee4 8c3c b7b6 473d
00000280: e616 9fbd 12d2 483d 809e 93bd 6b9c 3a3d
00000290: 4c20 9c3c 7ab9 ba3c 1d2e 17bd 4145 c3bc
000002a0: 71de 83bd bd93 a7bd c577 6bbd 10e7 f3bb
000002b0: e7ab 9fba c989 3fbd c4cf 2ebd d466 28bd
000002c0: b764 59bd 81c9 1e3c 2d5b 593d 4f8b 973c
000002d0: 15dc 90bd 8b1a 37bd ed06 4c3d ba57 903c
000002e0: d1ec 743c 4bf9 17bc 5d1b 48bd 1c64 a9bd
000002f0: 0413 9a3d dfae 9ebd 698c 8abd 422e a43d
00000300: da95 63bd 3b71 583d 4379 683d 52d1 133d
00000310: ac81 7e3d 00c3 eb3b 39fa 9a3d 6316 8e3d
00000320: 197c f0bb d59f 063d f616 c3bc 5ee4 4d3d
00000330: 6669 0c3c 890d 45bd c036 f43c f766 933d
00000340: b04f b23d 4dd5 663d b295 1fbd 9c36 e73c
00000350: 76da ad3d b994 7cbd 1505 8cbd 7ebd 5fbd
00000360: 8985 793d b000 913d cd55 95bd 336d bf3d
00000370: fcd5 ad3d 675b 443d d99a 063c 30bf 05bd
00000380: 9ca1 98bd 26d8 6a3d 3d17 96bd 193d f1bc
00000390: 60da 123c 25fe 8dbc a783 4e3d 2ce2 903d
000003a0: ae16 c8ba 63e8 4dbd c33a 703d 45d0 af3c
000003b0: c6b1 a93c c00f 85bd b521 453d f32a 55bc
000003c0: db92 57bc 8b0e 983d 0cc3 7f3c b995 8e3d
000003d0: 1594 0f3c 5377 07bd 2df3 57bd f0c6 99bd
000003e0: 868f 7dbd 7f8a 623d cc4a 4c3d 7b73 48bd
000003f0: e3e8 0dbd c533 683b ae8f 553d a879 a53c

encoder.layers.1.nn.net.2.bias f4 [128]
-0.087675706 0.016070573 0.010419468 0.04347749 0.07353173 0.026015526 0.0030962792 -0.02564746
0.026976615 -0.06620324 0.015458404 0.045912314 0.048195794 -0.013947621 -0.0012962241 -0.07413158
-0.085163586 0.056566432 -0.058553465 0.074169226 0.0075117494 0.01361466 -0.049972918 0.028697284
0.039277054 -0.057841208 0.029887367 0.017209157 0.071685605 0.040193923 0.038879495 0.060221642
0.08848013 0.043640055 0.05784445 0.06674638 -0.020252168 -0.014017648 -0.05081235 -0.057359215
-0.03174561 -0.08518068 -0.029532049 -0.055037558 0.020615019 -0.06362287 0.060585707 -0.025955016
-0.0634882 -0.05019077 -0.042103644 -0.011484827 0.031413462 -0.041162122 0.047529608 -0.00024950854
-0.045844775 -0.017182823 0.019375745 0.07423871 0.08682545 0.035507437 -0.05374938 -0.028211102
0.0034527841 0.059588347 -0.048771176 0.044245806 -0.077841446 0.04215386 -0.02554596 -0.08042067
0.04222182 -0.029220082 -0.0035575437 -0.04807636 0.03937767 0.05888799 -0.011713314 -0.047109753
0.041553285 0.07464699 -0.028872376 -0.06962636 0.043247487 -0.08543513 0.0016134258 -0.08267796
-0.032499123 -0.067106865 0.0603668 0.075339265 0.00674263 -0.017028851 -0.021315368 0.008326126
-0.012964996 0.028147003 0.03166444 -0.027097229 0.07061478 0.063238524 -0.07630406 0.0025478418
0.02066155 0.0021895703 -0.04135379 -0.027832549 -0.031727467 0.035893537 -0.0828533 0.04465471
-0.055756323 0.0032735078 -0.023911484 0.07005439 0.029210184 0.047183555 0.039360218 0.0826546
-0.031973485 -0.05479408 0.062639475 0.011882071 -0.004525212 -0.025390828 -0.043910693 0.05331327
00000000: 528f b3bd 6fa6 833c 6bb6 2a3c 7415 323d
00000010: ce97 963d 831e d53c f2ea 4a3b 9f1a d2bc
00000020: 10fe dc3c 9095 87bd 3f45 7d3c 8d0e 3c3d
00000030: f468 453d 9084 64bc 10e6 a9ba 4cd2 97bd
00000040: 3f6a aebd 34b2 673d c2d5 6fbd 09e6 973d
00000050: 1f25 f63b 0610 5f3c 67b0 4cbd 9116 eb3c
00000060: fae0 203d e7ea 6cbd 5ad6 f43c 38fa 8c3c
00000070: e7cf 923d 62a2 243d 1b40 1f3d f8aa 763d
00000080: 1235 b53d eabf 323d 4dee 6c3d 53b2 883d
00000090: e0e7 a5bc 47aa 65bc 9c20 50bd 7ff1 6abd
000000a0: af07 02bd 3573 aebd 32ed f1bc 106f 61bd
000000b0: d4e0 a83c b54c 82bd b828 783d 9d9f d4bc
000000c0: 1a06 82bd d694 4dbd df74 2cbd db2a 3cbc
000000d0: 67ab 003d 9d99 28bd 68ae 423d 78d0 82b9
000000e0: bbc7 3bbd fec2 8cbc e2b9 9e3c 770a 983d
000000f0: 8bd1 b13d 3f70 113d 4f28 5cbd f81a e7bc
00000100: 1b48 623b e912 743d 49c4 47bd 173b 353d
00000110: 566b 9fbd 87a9 2c3d c345 d1bc 98b3 a4bd
00000120: caf0 2c3d f45e efbc ae25 69bb b8eb 44bd
00000130: 7b4a 213d 8834 713d 33e9 3fbc 28f6 40bd
00000140: c733 2a3d 85e0 983d c385 ecbc 4498 8ebd
00000150: 4724 313d 9df8 aebd 9679 d33a 1053 a9bd
00000160: cd1d 05bd 536f 89bd 2d43 773d 794b 9a3d
00000170: 48f1 dc3b 1780 8bbc 919d aebc 4e6a 083c
00000180: 226b 54bc 8b94 e63c 92b2 013d 02fb ddbc
00000190: 7b9e 903d 3383 813d 4e45 9cbd b1f9 263b
000001a0: 6942 a93c e57e 0f3b 9762 29bd 1601 e4bc
000001b0: a9f4 01bd 1a05 133d feae a9bd dbe7 363d
000001c0: be60 64bd 5988 563b 04e2 c3bc ad78 8f3d
000001d0: 324a ef3c 8b43 413d 2e38 213d d146 a93d
000001e0: a1f6 02bd c26f 60bd 2049 803d 05ad 423c
000001f0: 3b48 94bb 6d00 d0bc b3db 33bd 045f 5a3d

encoder.layers.2.nn.net.0.weight f4 [128, 128]
0.0037660163 0.07870829 0.007474687 0.037931148 -0.08373905 -0.010198451 0.032244373 -0.07984267
0.0033156166 -0.01646315 0.0035514 0.0751415 -0.08723183 0.055958085 -0.08877345 -0.047067426
-0.03068052 -0.06582214 0.08332167 0.038865563 -0.06133074 0.015892897 0.035712253 0.082478434
0.031453047 -0.06987075 -0.002668751 0.028968407 -0.078144066 0.029520007 -0.026306925 0.0800139
0.02591899 0.033403452 0.039354254 -0.09183984 -0.01868837 0.056886464 0.06370866 0.019959591
-0.07887342 -0.060136914 0.07710513 0.036248658 -0.09444597 -0.053493436 -0.018795704 -0.0062661604
0.050021175 0.034002997 0.081592575 0.05577746 0.03215951 0.04720097 -0.067642204 -0.05785119
0.048859168 -0.087119676 0.084580705 0.00049273414 0.014534387 0.0509246 0.017917212 -0.084657304
0.033761952 0.026036996 -0.02935556 -0.010930492 0.038874276 -0.08306092 -0.082326114 0.00887791
0.005991152 -0.01862939 -0.021666687 0.033195857 -0.0008474287 0.013871629 0.030977119 -0.022833472
-0.060339727 0.026833676 -0.055857595 0.06659308 -0.080266386 -0.073670745 0.064256236 0.017866196
-0.090662204 -0.03668923 0.011079946 -0.06206491 0.05209507 -0.054481376 0.045631524 -0.047599096
-0.075425 0.019356765 -0.005312317 0.059490263 0.03778183 0.00091747264 -0.04286433 -0.021512253
0.048255242 -0.03881616 -0.0042835823 -0.07696756 -0.05291704 0.07559412 -0.032418545 -0.025530072
0.017478075 -0.07311825 -0.056770045 0.07501614 0.052790783 -0.045943502 0.00014098313 0.0077226413
-0.05314283 0.07931943 -0.036809385 -0.0101522915 0.050712083 -0.024474533 -0.07141526 -0.009312107
0.003828066 -0.09113906 0.072197795 0.0020461865 -0.008971799 0.061230246 -0.056107007 0.014534218
0.0058153938 0.03773487 0.03139035 -0.04390618 0.04000251 0.009528691 -0.06359758 0.023120588
-0.06468841 0.028884875 -0.028267346 -0.059112996 0.064273745 0.001108538 -0.064696796 -0.008848365
-0.070966974 -0.025546916 0.052520677 -0.08303824 -0.027666774 -0.043503173 0.0012289769 -0.06481915
-0.05153009 0.07726444 -0.016676692 -0.08026766 -0.0070536165 -0.007426375 -0.00155121 -0.017586922
0.0043969345 -0.04480698 -0.07122248 -0.061072048 -0.036904782 -0.07648962 0.0745898 0.036276508
0.07437423 -0.057821322 0.029115839 -0.0012726269 -0.05664287 0.060932744 -0.040088516 0.024546072
-0.05931506 -0.042923152 -0.03553223 0.072855465 0.019168269 0.058569476 -0.084620886 -0.059694596
-0.068376064 0.00756535 -0.05035796 -0.047742408 0.069752485 -0.030261723 0.06516605 -0.07061273
0.030585773 0.017397735 -0.0059363013 -0.078555256 0.054375365 0.060092036 -0.06217549 0.029331464
-0.08745874 -0.06520779 -0.0855541 -0.02000019 -0.047413416 0.011042542 -0.07011697 0.072811276
-0.016649924 0.026783416 0.018067088 -0.056926675 0.029351752 0.07373038 -0.021749739 -0.06794816
0.006240795 0.05011336 0.07844971 0.0022126683 0.059340987 0.042478118 0.068196826 0.07410405
-0.047828082 0.00037757895 0.04351839 0.047901653 -0.049372714 -0.0603214 -0.069929756 0.049938187
-0.05860893 -0.08712201 0.042564433 -0.085644305 -0.02487622 0.0076310853 0.022858256 -0.08284754
-0.06528667 0.057206072 0.07295304 0.076775804 0.02325343 0.011152877 0.078622214 0.059195645
00000000: 45cf 763b d031 a13d 38ee f43b b15d 1b3d
00000010: 617f abbd 6717 27bc ad12 043d 8e84 a3bd
00000020: d14a 593b badd 86bc 9bbe 683b c9e3 993d
00000030: 9aa6 b2bd 4e34 653d dbce b5bd c6c9 40bd
00000040: b755 fbbc c2cd 86bd 8da4 aa3d 7f31 1f3d
00000050: f135 7bbd d231 823c 0347 123d 74ea a83d
00000060: e9d4 003d 6518 8fbd 36e6 2ebb 274f ed3c
00000070: ff09 a0bd f1d3 f13c 9f81 d7bc 54de a33d
00000080: 1054 d43c 0fd2 083d ed31 213d 8716 bcbd
00000090: 5a18 99bc c801 693d b079 823d 4c82 a33c
000000a0: 6388 a1bd 2052 76bd 4be9 9d3d 7979 143d
000000b0: e46c c1bd ef1b 5bbd 73f9 99bc 5d54 cdbb
000000c0: 01e3 4c3d ba46 0b3d 021a a73d e876 643d
000000d0: b1b9 033d ce55 413d ff87 8abd 5ff5 6cbd
000000e0: 8d20 483d cd6b b2bd a638 ad3d d42a 013a
000000f0: a321 6e3c 5096 503d 1ec7 923c cf60 adbd
00000100: f949 0a3d 8a4b d53c 127b f0bc ce15 33bc
00000110: a23a 1f3d d81b aabd 989a a8bd a774 113c
00000120: 6d51 c43b aa9c 98bc 567e b1bc 61f8 073d
00000130: fa25 5eba d445 633c bac3 fd3c 430d bbbc
00000140: ca26 77bd 4cd2 db3c efca 64bd f461 883d
00000150: b462 a4bd b0e0 96bd c698 833d 215c 923c
00000160: 1bad b9bd 7247 16bd a988 353c c637 7ebd
00000170: a461 553d dd27 5fbd 1fe8 3a3d 45f7 42bd
00000180: 6c78 9abd 1492 9e3c f212 aebb 10ac 733d
00000190: 1fc1 1a3d 8c82 703a 8292 2fbd 773a b0bc
000001a0: 4aa7 453d b2fd 1ebd 4b5d 8cbb 2ba1 9dbd
000001b0: 8abf 58bd 17d1 9a3d 4fc9 04bd 7124 d1bc
000001c0: 2e2e 8f3c 05bf 95bd b587 68bd 10a2 993d
000001d0: 263b 583d 412f 3cbd dfd4 1339 360e fd3b
000001e0: 4cac 59bd 3a72 a23d 70c5 16bd cc55 26bc
000001f0: 79b7 4f3d d17e c8bc 2a42 92bd cf91 18bc
00000200: 4ae0 7a3b 1ea7 babd 70dc 933d 5019 063b
00000210: 74fe 12bc 91cc 7a3d 76d0 65bd ee20 6e3c
00000220: 0f8f be3b e18f 1a3d 2b93 003d f7d6 33bd
00000230: acd9 233d 3a1e 1c3c 733f 82bd 6367 bd3c
00000240: 5b7b 84bd f99f ec3c ec90 e7bc 7820 72bd
00000250: f4a1 833d 5d4c 913a c17f 84bd bcf8 10bc
00000260: 2257 91bd c447 d1bc ec1f 573d f40f aabd
00000270: 6ea5 e2bc 6230 32bd 9f15 a13a e7bf 84bd
00000280: 3711 53bd d23c 9e3d 8f9d 88bc 5f63 a4bd
00000290: 0622 e7bb f358 f3bb f851 cbba 7312 90bc
000002a0: 2914 903b 8687 37bd 17dd 91bd af26 7abd
000002b0: 7829 17bd 97a6 9cbd 89c2 983d ad96 143d
000002c0: 8451 983d 0dd6 6cbd 5784 ee3c 46ce a6ba
000002d0: 5b02 68bd 9d94 793d db33 24bd d814 c93c
000002e0: 59f4 72bd 30d0 2fbd 3e8a 11bd 3f35 953d
000002f0: c606 9d3c 8ce6 6f3d b74d adbd 5282 74bd
00000300: c008 8cbd c1e6 f73b 2644 4ebd 8b8d 43bd
00000310: 64da 8e3d 6fe7 f7bc c775 853d 689d 90bd
00000320: 048f fa3c b285 8e3c 4e85 c2bb 94e1 a0bd
00000330: b4b8 5e3d 1123 763d baab 7ebd 8a48 f03c
00000340: 911d b3bd a98b 85bd fd36 afbd 70d7 a3bc
00000350: 9234 42bd c7eb 343c 7c99 8fbd 141e 953d
00000360: 6c65 88bc e568 db3c 6e01 943c f22b 69bd
00000370: 1673 f03c f4ff 963d 822c b2bc 6828 8bbd
00000380: 957f cc3b ab43 4d3d 3eaa a03d 6a02 113b
00000390: 890f 733d 89fd 2d3d c7aa 8b3d ddc3 973d
000003a0: 61e7 43bd caf5 c539 5740 323d 8634 443d
000003b0: 0b3b 4abd 9313 77bd 5537 8fbd fc8b 4c3d
000003c0: eb0f 70bd 066d b2bd 0b58 2e3d 4866 afbd
000003d0: 37c9 cbbc 2f0e fa3b 3d41 bb3c f9ab a9bd
000003e0: 05b5 85bd ea50 6a3d 6768 953d a23c 9d3d
000003f0: fa7d be3c 8eba 363c af04 a13d 2277 723d

encoder.layers.2.nn.net.0.bias f4 [128]
-0.01568192 0.023819558 -0.053201705 -0.026110698 -0.07123689 0.052922443 -0.013185757 -0.03801605
-0.079623826 -0.03658335 0.036677875 0.026417956 0.013001773 0.08405906 -0.06791688 0.010516457
-0.04378497 0.042256568 -0.0921604 0.064272165 0.066954605 -0.042602032 0.04860027 0.028722333
0.042184338 0.035707634 -0.08940095 -0.03774875 -0.05034508 0.0792613 0.042289086 0.07107043
-0.08418343 0.038689192 0.08196718 -0.07967597 0.03457017 -0.00946872 -0.038983013 -0.01152662
-0.03814845 -0.06742691 -0.052193232 -0.014415579 -0.026364708 -0.08414952 0.08850225 -0.06870515
-0.05188199 0.016709877 0.06671247 -0.06990609 -0.06968145 -0.039526485 0.032046296 0.0688117
0.060335048 -0.010097478 -0.015640512 -0.008448418 -0.00084399927 -0.04390433 -0.03439462 0.010898493
0.038956292 0.08169768 0.051175173 0.03242198 -0.035944767 0.02674399 0.083474815 -0.025654873
0.079144575 -0.059569012 -0.006956764 -0.0041832924 0.0018961693 -0.07931261 -0.021614507 -0.03037539
-0.0016221524 0.03735681 -0.023475802 -0.053789124 0.016999023 0.08060034 0.081265196 0.029680721
0.05559178 0.08472428 0.08334341 -0.013963641 -0.08125259 -0.036679123 0.01914306 0.039442483
0.053178534 -0.03718574 0.08895108 -0.046827205 -0.059341945 0.0777375 0.04750792 -0.071511336
-0.050849482 -0.065333016 0.045136444 0.035149325 0.09192114 0.032601878 -0.036241908 0.04527433
-0.06794189 0.031437904 0.08470681 -0.0339738 -0.021668352 0.06114421 0.07707092 -0.07599914
0.07297839 0.032807685 0.08992946 0.103115305 -0.055727858 -0.0110378135 -0.044667743 -0.0015903763
00000000: 5f77 80bc 3c21 c33c 08ea 59bd 1ae6 d5bc
00000010: a6e4 91bd 34c5 583d 1309 58bc b8b6 1bbd
00000020: d111 a3bd 6cd8 15bd 8a3b 163d 786a d83c
00000030: 6305 553c 2827 ac3d 0118 8bbd 384d 2c3c
00000040: de57 33bd 3915 2d3d 97be bcbd 20a1 833d
00000050: 7f1f 893d 787f 2ebd 1411 473d 194b eb3c
00000060: 7cc9 2c3d 2b42 123d d817 b7bd 6f9e 1abd
00000070: a536 4ebd c053 a23d 5237 2d3d 608d 913d
00000080: 5d68 acbd 8f78 1e3d 69de a73d 282d a3bd
00000090: 7399 0d3d b122 1bbc a7ac 1fbd 26da 3cbc
000000a0: 8d41 1cbd 1f17 8abd 92c8 55bd 522f 6cbc
000000b0: cdfa d7bc 9556 acbd ab40 b53d 49b5 8cbd
000000c0: 3682 54bd 27e3 883c 8ca0 883d ed2a 8fbd
000000d0: 26b5 8ebd 86e6 21bd fa42 033d 26ed 8c3d
000000e0: e221 773d e46f 25bc 8820 80bc 3c6b 0abc
000000f0: d53f 5dba 07d5 33bd 60e1 0cbd 988f 323c
00000100: a290 1f3d 1d51 a73d 0f9d 513d e9cc 043d
00000110: d23a 13bd 3616 db3c d8f4 aa3d 2b2a d2bc
00000120: 8d16 a23d a3fe 73bd 91f5 e3bb 0014 89bb
00000130: e288 f83a a66e a2bd e810 b1bc cfd5 f8bc
00000140: 679e d4ba 7403 193d 5350 c0bc fc51 5cbd
00000150: 8941 8b3c cb11 a53d 5e6e a63d fc24 f33c
00000160: 35b4 633d ec83 ad3d f3af aa3d c1c7 64bc
00000170: c267 a6bd d93c 16bd e8d1 9c3c 718e 213d
00000180: bcd1 593d 1350 18bd fc2b b63d e2cd 3fbd
00000190: 8a10 73bd d734 9f3d aa97 423d 8974 92bd
000001a0: 8c47 50bd 51cd 85bd fee0 383d bdf8 0f3d
000001b0: 2741 bc3d 8c89 053d 6572 14bd 9371 393d
000001c0: 1e25 8bbd 08c5 003d c47a ad3d 1c28 0bbd
000001d0: d481 b1bc 5a72 7a3d 5cd7 9d3d 70a5 9bbd
000001e0: b275 953d 5a61 063d f02c b83d 1e2e d33d
000001f0: e542 64bd f2d7 34bc 86f5 36bd 2c74 d0ba
